pannet/finetune/350_BWNet.pth (torch, 327755 bytes, 29 tensors)

conv0.weight f4 [32, 9, 3, 3]
0.27897093 0.07868996 -0.23965822 0.2757693 0.20153181 -0.29653797 0.034557145 -0.21899936
-0.07977426 -0.109921575 -0.1203828 0.097724184 0.25666818 -0.23939964 0.13393843 0.029096134
0.087335266 0.0084833 -0.08548269 0.082045496 -0.01263387 -0.21031609 -0.15315238 0.038273506
0.049174767 -0.0065676603 0.1986017 0.1577295 -0.12697053 -0.020483572 0.22572044 -0.044010296
-0.07671508 0.1935825 -0.13311808 0.00304817 -0.026757983 0.014651592 0.20517533 -0.35583234
-0.13619626 0.0015846938 0.021250432 -0.01781593 -0.0013809954 -0.16866104 -0.04070565 0.06937537
-0.14686391 0.036522426 0.035871 0.18610434 0.08503466 0.017324936 -0.04419285 -0.03938667
0.049515978 -0.0032861226 0.15660869 0.019846264 -0.17247663 0.058899738 -0.056763463 0.08687011
0.024222093 -0.11234306 0.04369798 0.17847556 -0.03502433 -0.083261654 0.17398627 -0.07865123
0.8831268 0.052713163 0.9759772 0.67949736 -0.21915811 -0.23511258 0.77439463 0.3892983
0.88445985 0.51018953 -0.002049017 0.14722572 -0.53541464 -0.52540374 -0.022507044 0.1016907
0.051806558 0.34403315 0.6470196 -0.34602115 -0.114510104 -0.036168803 -0.74209607 -0.34878147
0.45857552 -0.38105717 -0.079770274 0.2715007 -0.20967492 0.048929457 -0.01261327 -0.21321401
0.048232734 0.10754826 -0.32654482 0.24669988 0.0069886576 0.09431914 -0.49667895 0.2554823
0.40313208 -0.18457928 0.15164524 0.17577693 -0.15088984 -0.65033555 0.3960207 0.06535961
-0.44641817 0.3763681 0.3611675 -0.14413397 0.24014741 0.1228243 0.051673815 0.22039059
-0.07057614 0.3322108 0.54279214 0.12110706 -0.21340416 0.21875766 -0.056168497 -0.28641284
-0.21996993 0.096596695 0.07034869 -0.30687952 -0.06807909 0.10348912 -0.3904787 -0.12720345
0.05490328 0.19022392 0.056676988 -0.35510102 -0.28900728 0.099017516 0.21054345 0.085727975
0.35101628 0.059583552 -0.15992522 0.036170688 -0.1699705 0.2873662 -0.07248014 0.10358474
-0.18807553 0.084144935 -0.199778 -0.12913457 -0.45486996 -0.16064078 0.19828548 -0.22745919
0.013398772 0.19594087 -0.40159026 -0.38377175 -0.25072587 0.30634475 -0.26286894 -0.29409176
0.28541312 -0.087056704 -0.0040125865 0.0890219 -0.05703439 -0.34128866 -0.043779187 0.23266985
0.32658422 0.1663981 0.1674336 -0.081573576 0.010461376 0.77883375 0.75488734 -0.01576432
0.6122194 0.47401023 -0.2994087 0.00092260767 -0.0019130302 -0.37865552 -0.26328656 -0.35641238
0.16192578 -0.30154732 -0.32895118 -0.10978774 -0.13129842 -0.31831443 0.3848489 -0.53754354
-0.28465983 0.025813544 -0.30257204 -0.17333809 -0.03873734 0.06755118 0.21316902 0.15690073
0.20493545 0.3533871 -0.37498966 0.5804474 0.98944587 -0.22374842 -0.02328931 0.48111463
-0.41317293 0.29400843 -0.42559946 0.4679324 -1.0262762 -1.3161664 0.3765764 -0.1690551
-0.61101174 0.6053084 0.22305156 -0.38304877 0.29250556 -0.29635 0.77569723 -0.3665998
0.24003233 -0.35552597 0.27252442 -0.124680005 0.7275622 -0.074001335 0.6518595 1.9424424
0.94746804 -0.65079963 0.49544024 -0.09881697 -0.6044424 -0.058072425 -0.45792407 0.12162002
00000000: 47d5 8e3e 3428 a13d f768 75be a231 8d3e
00000010: 5b5e 4e3e d3d3 97be cb8b 0d3d 5e41 60be
00000020: b060 a3bd 901e e1bd 428b f6bd 9e23 c83d
00000030: 036a 833e 2e25 75be 2827 093e 045b ee3c
00000040: d5dc b23d 8afd 0a3c 8c11 afbd 7807 a83d
00000050: 4bfe 4ebc 1a5d 57be fad3 1cbe aec4 1c3d
00000060: 7b6b 493d 8735 d7bb 3e5e 4b3e d883 213e
00000070: 9004 02be 2acd a7bc 4223 673e 2444 34bd
00000080: cc1c 9dbd 7e3a 463e 1b50 08be cec3 473b
00000090: 8f33 dbbc 3b0d 703c 7b19 523e a82f b6be
000000a0: 0877 0bbe 80b5 cf3a 6315 ae3c b7f2 91bc
000000b0: 8402 b5ba 7bb5 2cbe f8ba 26bd ad14 8e3d
000000c0: 7e63 16be 8a98 153d 78ed 123d 2392 3e3e
000000d0: a726 ae3d 06ed 8d3c 9003 35bd eb53 21bd
000000e0: 44d1 4a3d fd5b 57bb 075e 203e a294 a23c
000000f0: b79d 30be da40 713d ce80 68bd f5e8 b13d
00000100: 696d c63c 1e14 e6bd a7fc 323d 4cc2 363e
00000110: ac75 0fbd 1685 aabd 7529 323e e513 a1bd
00000120: 9914 623f c2e9 573d a4d9 793f 8af3 2d3f
00000130: fc6a 60be 5ac1 70be ba3e 463f 1b52 c73e
00000140: f66b 623f c89b 023f cd48 06bb 57c2 163e
00000150: ef10 09bf dc80 06bf b160 b8bc 3743 d03d
00000160: 1d33 543d 1d25 b03e 14a3 253f af29 b1be
00000170: 4684 eabd bd25 14bd 02fa 3dbf 7c93 b2be
00000180: 69ca ea3e ed19 c3be 995e a3bd 2402 8b3e
00000190: 06b5 56be 416a 483d e4a7 4ebc c654 5abe
000001a0: b08f 453d 4342 dc3d e230 a7be e59e 7c3e
000001b0: 1c01 e53b 652a c13d b44c febe 93ce 823e
000001c0: 5467 ce3e 5a02 3dbe e448 1b3e defe 333e
000001d0: de82 1abe 647c 26bf 3ac3 ca3e 42db 853d
000001e0: ec90 e4be 52b3 c03e f2ea b83e db97 13be
000001f0: 34e9 753e 4e8b fb3d eca7 533d 12ae 613e
00000200: 398a 90bd 8917 aa3e 6df4 0a3f fa06 f83d
00000210: 9f86 5abe 0202 603e f010 66bd b4a4 92be
00000220: cc3f 61be 7dd4 c53d f912 903d 501f 9dbe
00000230: 0d6d 8bbd 1bf2 d33d d3ec c7be 9f41 02be
00000240: 43e2 603d 0fca 423e 2126 683d cdcf b5be
00000250: c3f8 93be b2c9 ca3d b498 573e 2692 af3d
00000260: 68b8 b33e e20d 743d 70c3 23be b727 143d
00000270: bf0c 2ebe aa21 933e 7870 94bd 3c24 d43d
00000280: df96 40be 2e54 ac3d 9b92 4cbe da3b 04be
00000290: b7e4 e8be 047f 24be 590b 4b3e 10eb 68be
000002a0: 8686 5b3c b9a4 483e 3d9d cdbe bb7d c4be
000002b0: 245f 80be 38d9 9c3e c296 86be 3293 96be
000002c0: ab21 923e c94a b2bd 047c 83bb 1d51 b63d
000002d0: e49c 69bd 63bd aebe ce51 33bd 0141 6e3e
000002e0: 0c36 a73e 4364 2a3e b773 2b3e 0c10 a7bd
000002f0: 3166 2b3c a661 473f 4c40 413f 2d24 81bc
00000300: 69ba 1c3f 78b1 f23e 194c 99be 27db 713a
00000310: a4be faba 23df c1be 7fcd 86be af7b b6be
00000320: dfcf 253e 6964 9abe 4a6c a8be 65d8 e0bd
00000330: 1873 06be 1cfa a2be ea0a c53e 749c 09bf
00000340: efbe 91be ed76 d33c b9ea 9abe 8a7f 31be
00000350: 0cab 1ebd 4658 8a3d fb48 5a3e 96aa 203e
00000360: 99da 513e 27ef b43e a5fe bfbe 3398 143f
00000370: 534c 7d3f 4e1e 65be 39c9 bebc a854 f63e
00000380: 678b d3be 4688 963e 2ce8 d9be d694 ef3e
00000390: 055d 83bf 2478 a8bf 9fce c03e c81c 2dbe
000003a0: 446b 1cbf 7ef5 1a3f a167 643e f81e c4be
000003b0: 4ac3 953e 30bb 97be 1894 463f f8b2 bbbe
000003c0: 09cb 753e 8007 b6be 5288 8b3e 3b58 ffbd
000003d0: 8441 3a3f 038e 97bd 44e0 263f f4a1 f83f
000003e0: 448d 723f ce9a 26bf 58aa fd3e 8d60 cabd
000003f0: bdbc 1abf 5add 6dbd 0675 eabe eb13 f93d

conv0.bias f4 [32]
0.086957596 0.007366763 0.039477065 0.013211856 0.0024322185 0.00010629368 -0.0042970967 -0.053756442
0.005066379 -0.0009813834 0.0050513637 0.0016299895 -0.00013896446 0.010048574 0.011686104 -0.0016641833
0.050841574 0.0010324873 0.00096537673 -0.0011244316 0.082223274 0.0055096806 0.003598404 -0.0017074165
0.0005055816 0.012552647 0.010725795 0.005898293 -0.00093515485 0.016640948 0.014029693 -0.0031645177
00000000: d316 b23d e364 f13b b4b2 213d 8a76 583c
00000010: db65 1f3b fce9 de38 a9ce 8cbb b72f 5cbd
00000020: de03 a63b c3a1 80ba e985 a53b 5fa5 d53a
00000030: fdb6 11b9 c6a2 243c 1377 3f3c ba20 daba
00000040: 413f 503d 8654 873a 5611 7d3a aa61 93ba
00000050: ad64 a83d 8d8a b43b 33d3 6b3b 64cb dfba
00000060: 0289 043a 9ea9 4d3c 3fbb 2f3c 7846 c13b
00000070: 2e25 75ba 9952 883c ccdc 653c cc63 4fbb

conv1.weight f4 [8, 32, 3, 3]
-0.0032025822 0.0012792911 0.012560686 -0.00050695025 0.01764193 0.028706558 -0.0045208354 0.003795053
0.009129044 0.004232795 -0.0012453967 -0.0015035424 -0.004020754 -0.013147495 -0.0030608892 -0.0036144624
-0.00029778125 0.0015799032 0.0002581209 -0.007991947 -0.013556294 0.0022625576 -0.007481665 -0.0046841055
0.00414856 0.010535684 0.004158534 0.0027723718 0.007727691 -0.010930531 0.009885487 0.019927267
-0.01261741 3.032615e-05 0.0053988886 -0.006853487 -0.0033316943 -0.0058387127 0.0032875256 -0.0074029467
-0.01694167 -0.003264434 0.00041829774 0.0014295728 0.0023541478 -0.0014223948 0.0068483287 0.0043973345
-0.0019986222 -0.00040241834 0.003388045 -0.0021852336 -0.003877138 0.0008213432 -0.0027536019 -0.004727262
0.0012599688 -0.0026556228 -0.003984126 0.009632821 -0.0001957874 0.003992824 0.0056696935 0.0070756935
0.009646183 -0.006923588 0.016496658 0.030395612 -0.009267737 -0.00036138992 -0.008352948 -0.0077469656
0.009710017 0.005458175 -0.00038962637 0.00072057237 -0.009379372 -0.0016492569 -0.0015537662 -0.006296629
0.00059908646 0.0019455565 0.0022498614 0.0047317157 -0.0022326438 -0.0071112528 0.0018758533 -0.0022227864
-0.00607022 -0.0041862554 0.00032218976 -0.0023452807 0.008892738 -0.00025354026 -0.0027226245 0.0029288097
-0.00023464876 -0.0018820274 -0.0013077945 0.00642608 0.0015689984 0.00043131446 -0.0038848424 -0.0055308994
-0.003962568 0.00258936 0.007888395 0.0024796468 -0.0020004208 0.013443339 0.0009829829 -0.0018162037
0.0053909626 0.00016824329 -0.005966194 -0.004783433 0.00038828637 0.00025538483 -0.0014282013 -0.0020389438
0.002645806 -0.005202074 -0.0022436623 0.0027921582 0.0018472829 -0.0002613899 0.003347364 0.0022791494
-0.005560429 0.0057894927 0.0048968615 -0.014056069 -0.003283238 -0.00047081226 -0.0029410722 0.0032061604
0.008815456 0.004273568 0.0023232345 0.010302522 0.0003228999 -0.003454637 -0.006819219 -0.0029961134
-0.017186014 -0.020840859 0.01612344 -0.020894762 -0.038271874 0.019936 0.015537788 0.01940196
0.009332931 -0.0018309215 0.0016091526 -0.0017426845 -0.0030593525 -0.0016979723 -0.0022716604 0.0015982054
0.0047045383 0.0033280898 0.004336756 0.005200429 -0.00011565182 -0.0022770786 -0.0012933922 0.001975804
-0.0060481518 -0.008755369 -0.0024192198 -0.0015746424 -0.011040026 -0.002602859 0.0010479486 -0.01253141
-0.005243223 0.008312234 0.008137237 0.0046331706 -0.0026992618 0.00055593083 -0.0016627915 -0.000246373
-0.00016308828 -0.00021072193 -0.0055947634 -0.0029472115 0.0070760655 -0.0008779393 -0.0013222746 0.00041878628
0.006558843 5.207794e-05 -0.0019031871 0.004246617 -8.51019e-05 -0.0029662796 -0.0025905182 0.0020506086
-0.0012156591 -0.0016381723 0.005256337 0.0003756125 -0.0039058167 0.00020690222 0.0017785892 0.0002592781
-0.0027636196 -0.0005062923 -0.0019841022 0.005294777 0.00579517 -0.00017774903 0.0032256958 0.0071944506
-0.003985719 -0.011132448 -0.0058245403 0.0051333555 0.01360283 0.0027585123 0.0057582 0.013142457
-0.0027229206 -0.003935701 -0.014059807 -0.014807474 0.009339394 0.02548965 -0.0063503743 0.0055307257
0.01642535 0.0003068941 0.004135394 0.013229096 -0.0002653982 -0.0025263154 0.0021722044 -0.0020760333
-0.007664026 -0.009099259 -0.004793059 0.0058447984 0.003464971 -0.0011801816 0.0010755467 -0.00529213
-0.0026968997 -0.007651043 -0.012539748 -0.005158403 0.00044185267 0.000647548 0.0028753714 0.005595168
00000000: 6ae2 51bb e3ad a73a 56cb 4d3c dbe4 04ba
00000010: cf85 903c 042a eb3c 8423 94bb 6db6 783b
00000020: fc91 153c 42b3 8a3b 943c a3ba 8312 c5ba
00000030: 87c0 83bb 9768 57bc 3399 48bb 9ee0 6cbb
00000040: 861f 9cb9 c114 cf3a 6754 8739 a8f0 02bc
00000050: 381b 5ebc 6b47 143b c128 f5bb 207d 99bb
00000060: a5f0 873b dd9d 2c3c 5044 883b aeb0 353b
00000070: 9238 fd3b f815 33bc bdf6 213c 823e a33c
00000080: 41b9 4ebc e964 fe37 29e9 b03b 3793 e0bb
00000090: 8e58 5abb ac52 bfbb 8773 573b 6b94 f2bb
000000a0: 42c9 8abc 1df0 55bb f94e db39 8160 bb3a
000000b0: 0c48 1a3b a66f baba f267 e03b 8417 903b
000000c0: 51fb 02bb adfb d2b9 f609 5e3b 2336 0fbb
000000d0: 9517 7ebb 694f 573a c675 34bb 26e7 9abb
000000e0: 8a25 a53a f509 2ebb 458d 82bb fbd2 1d3c
000000f0: 484c 4db9 3cd6 823b d6c8 b93b 38db e73b
00000100: 060b 1e3c 44df e2bb 0024 873c 3800 f93c
00000110: b5d7 17bc ef78 bdb9 ceda 08bc 42da fdbb
00000120: c316 1f3c 7eda b23b c446 ccb9 cbe4 3c3a
00000130: f0ab 19bc e12b d8ba bea7 cbba f453 cebb
00000140: 030c 1d3a 0b02 ff3a 6972 133b 820c 9b3b
00000150: 8c51 12bb 8305 e9bb 31df f53a 2bac 11bb
00000160: b2e8 c6bb db2c 89bb 94eb a839 48b3 19bb
00000170: d9b2 113c 99ed 84b9 0f6e 32bb 46f1 3f3b
00000180: 0c0c 76b9 5cae f6ba 4d6a abba de91 d23b
00000190: daa6 cd3a 0c22 e239 d798 7ebb 8c3c b5bb
000001a0: 6ed8 81bb 41b2 293b 543e 013c 9281 223b
000001b0: 7e19 03bb 7341 5c3c 6fd7 803a af0d eeba
000001c0: aca6 b03b 776a 3039 1080 c3bb 58be 9cbb
000001d0: ea92 cb39 2ce5 8539 7c32 bbba cd9f 05bb
000001e0: 4265 2d3b 2976 aabb 680a 13bb a4fc 363b
000001f0: 8720 f23a 290b 89b9 735f 5b3b c85d 153b
00000200: 4234 b6bb c9b5 bd3b da75 a03b 6d4b 66bc
00000210: 982b 57bb 5ad7 f6b9 01bf 40bb 721e 523b
00000220: b46e 103c 4909 8c3b 6841 183b e9cb 283c
00000230: e44a a939 3167 62bb c173 dfbb 715a 44bb
00000240: afc9 8cbc 73ba aabc 4e15 843c 7e2b abbc
00000250: f8c2 1cbd d350 a33c 3592 7e3c dcf0 9e3c
00000260: 26e9 183c 88fb efba 34ea d23a ca6a e4ba
00000270: 6b7f 48bb 7f8e deba 23e0 14bb e07a d13a
00000280: 8728 9a3b 151c 5a3b 591b 8e3b 5c68 aa3b
00000290: 198a f2b8 0a3b 15bb 0a87 a9ba 7e7c 013b
000002a0: 932f c6bb ae72 0fbc c68b 1ebb 3b64 ceba
000002b0: 3ae1 34bc ba94 2abb 525b 893a 8b50 4dbc
000002c0: 58cf abbb 0930 083c 0c52 053c dad1 973b
000002d0: 19e6 30bb e3bb 113a 06f2 d9ba a02b 81b9
000002e0: ad02 2bb9 3df5 5cb9 4754 b7bb 0126 41bb
000002f0: 57de e73b 8225 66ba 2c50 adba 8b90 db39
00000300: 90eb d63b 436e 5a38 5d74 f9ba 3527 8b3b
00000310: bc78 b2b8 ea65 42bb afc5 29bb 8163 063b
00000320: c056 9fba f1b7 d6ba 5a3d ac3b dbed c439
00000330: bbf8 7fbb e4f3 5839 8d1f e93a b8ef 8739
00000340: d81d 35bb b3b8 04ba b607 02bb cf7f ad3b
00000350: 69e5 bd3b 2462 3ab9 3266 533b 6dbf eb3b
00000360: a29a 82bb df64 36bc c9db bebb b535 a83b
00000370: 67de 5e3c 28c8 343b 48af bc3b 7653 573c
00000380: 0773 32bb 0ef7 80bb 1b5b 66bc 0c9b 72bc
00000390: 4204 193c accf d03c cd16 d0bb 173b b53b
000003a0: 758e 863c a1e6 a039 3382 873b dabe 583c
000003b0: 2525 8bb9 8a90 25bb 8b5b 0e3b 0f0e 08bb
000003c0: 8322 fbbb 0f15 15bc 180f 9dbb b985 bf3b
000003d0: 9114 633b 53b0 9aba 5cf9 8c3a 9b69 adbb
000003e0: 78be 30bb 9ab5 fabb 8473 4dbc d207 a9bb
000003f0: 76a8 e739 36c0 293a ba70 3c3b ac57 b73b

conv1.bias f4 [8]
-0.0008200599 -0.0005101443 -0.00040629646 -0.0007812553 -2.7455866e-05 -0.00080706103 -0.0011139245 -0.0014308655
00000000: 4af9 56ba 34bb 05ba 3004 d5b9 28cd 4cba
00000010: 0651 e6b7 f390 53ba 1b01 92ba e18b bbba

to_output.temperature f4 [1, 8, 1, 1]
0.00017620937 -0.00011369693 -0.0002815588 0.00025047056 -0.00012491526 0.0002785468 -2.3373997e-05 6.458153e-05
00000000: d8c4 3839 9370 eeb8 2f9e 93b9 9751 8339
00000010: affb 02b9 eb09 9239 4713 c4b7 f26f 8738

to_output.norm.weight f4 [8]
1.2042918 1.2792042 1.0607629 1.5342284 1.6388998 1.2733525 1.059536 1.1330231
00000000: 3c26 9a3f f7bc a33f 14c7 873f 9961 c43f
00000010: 78c7 d13f 37fd a23f e09e 873f e706 913f

to_output.norm.bias f4 [8]
0.6280224 0.30667466 -0.57275355 -0.671805 -0.5688669 0.24123341 0.52325624 0.42400223
00000000: 13c6 203f 7604 9d3e fa9f 12bf 6afb 2bbf
00000010: 43a1 11bf e405 773e 1ff4 053f d216 d93e

to_output.attn.to_q.weight f4 [8, 8]
-0.024157535 0.06907474 0.01984419 -0.87220573 0.64229786 0.47380942 -0.25782642 0.31077957
0.33673176 -0.40475944 -0.3369866 -0.06941762 0.19210786 -0.32304758 -0.05511655 0.10284154
0.23491989 -0.6245697 -0.754117 -0.23420733 0.13516596 -0.55983007 -0.25635314 -0.0705658
0.36319792 -0.3519504 0.5360447 -0.74382085 0.262639 -0.13131814 -0.16240409 0.2804475
0.25350437 -0.077201314 0.10068517 0.18145818 -0.75732046 -0.3234719 0.015007789 -0.23420854
0.050474003 -0.48998797 0.23233184 -0.85529834 -0.14341018 -0.4163547 -0.3496908 -0.07368473
0.014103462 0.05596705 -0.0887591 0.22570384 -0.67112243 -0.59821385 0.053883158 -0.061347924
0.099922165 -0.0580599 0.273839 -0.31716537 -0.039283857 -0.34731963 0.019239452 0.1811079
00000000: 06e6 c5bc 0f77 8d3d 4890 a23c e048 5fbf
00000010: a26d 243f 2697 f23e d301 84be 801e 9f3e
00000020: 1b68 ac3e a13c cfbe 8289 acbe d32a 8ebd
00000030: ecb7 443e 7e66 a5be e4c1 61bd 969e d23d
00000040: d78e 703e cde3 1fbf d00d 41bf 0cd4 6fbe
00000050: f268 0a3e 0651 0fbf b840 83be cd84 90bd
00000060: 14f5 b93e d832 b4be 3a3a 093f 0b6b 3ebf
00000070: 9e78 863e 4378 06be 424d 26be d196 8f3e
00000080: 53cb 813e b91b 9ebd 0734 ce3d 2cd0 393e
00000090: c1df 41bf 1c9e a5be 3be3 753c 5dd4 6fbe
000000a0: d4bd 4e3d b4df fabe 66e8 6d3e d5f4 5abf
000000b0: 1eda 12be 712c d5be ac0a b3be 05e8 96bd
000000c0: 3512 673c b53d 653d 55c7 b5bd e81e 673e
000000d0: aece 2bbf 8b24 19bf 96b4 5c3d f647 7bbd
000000e0: fea3 cc3d 38d0 6dbd a034 8c3e 8063 a2be
000000f0: 1ce8 20bd e1d3 b1be 0e9c 9d3c 5974 393e

to_output.attn.to_k.weight f4 [8, 8]
-0.16544433 -0.2770794 -0.43318263 0.52309936 0.069909945 -0.23886463 0.38367444 0.40942323
0.037353188 0.25253218 0.24231827 -0.34545025 -0.28844318 0.025013588 0.71747494 0.057222854
0.50297296 0.4473437 0.277734 -0.10510248 0.17668642 -0.29170728 0.3079194 -0.6371942
0.8006527 -0.4395893 -0.22070125 0.4132941 -0.59324104 0.12406031 0.033645578 -0.08505813
0.21366352 0.5752745 -0.09054654 0.48776668 -0.20265009 0.03402392 0.7182436 -0.7957043
-0.0072456473 0.32601297 -0.60745496 -0.2558385 -0.5278238 -0.0013730321 -0.1129483 0.07501588
-0.4758946 0.30678365 0.3925989 -0.09686085 0.27938303 0.06935106 -0.64855725 0.49757418
0.76745313 0.057023186 0.22957402 0.44149992 0.270033 -0.29901794 -0.27339572 -0.027250787
00000000: 3d6a 29be 5add 8dbe 1dca ddbe d7e9 053f
00000010: f22c 8f3d ee98 74be fa70 c43e ec9f d13e
00000020: a8ff 183d e64b 813e 4822 783e dbde b0be
00000030: d3ae 93be 4ce9 cc3c 70ac 373f 8362 6a3d
00000040: d6c2 003f 3c0a e53e 2733 8e3e f83f d7bd
00000050: 49ed 343e a85a 95be 9da7 9d3e 291f 23bf
00000060: 93f7 4c3f d911 e1be 82ff 61be 499b d33e
00000070: a5de 17bf 5513 fe3d f2cf 093d f532 aebd
00000080: 9cca 5a3e 3145 133f 7770 b9bd 8ebc f93e
00000090: 8183 4fbe aa5c 0b3d d0de 373f 47b3 4bbf
000000a0: e56c edbb 2ceb a63e 2b82 1bbf 44fd 82be
000000b0: 761f 07bf 50f7 b3ba 7051 e7bd eda1 993d
000000c0: 75a8 f3be bf12 9d3e b902 c93e fb5e c6bd
000000d0: 4b0b 8f3e ee07 8e3d d907 26bf 0bc2 fe3e
000000e0: cf77 443f 2591 693d 7415 6b3e 470c e23e
000000f0: c441 8a3e e118 99be 86fa 8bbe 0b3d dfbc

to_output.attn.to_out.0.weight f4 [16, 8]
0.22755942 -0.15655273 0.025279772 0.15546754 1.4159107 -0.24090496 -0.056289807 0.048426773
0.6846414 -0.8076249 -0.39284277 0.52825344 -1.210562 -0.12982579 0.11286492 0.098757066
0.52585447 0.25114065 0.14930265 -0.22572596 -0.79988647 -0.12557465 -0.06282599 0.27526
-0.33686695 0.1978466 0.63881457 0.33381382 1.13408 0.25113183 -0.43075195 0.3832062
1.1343931 -0.04167231 -0.8170282 -0.99982584 0.41781917 -0.29785332 0.48435515 -0.48801348
-0.4491567 0.07604241 0.38696527 0.006916073 0.11479011 0.14910269 0.86504334 0.53963506
0.2517034 0.13359694 -0.5434828 0.8694043 0.15117373 0.43453264 -0.6361739 0.34471032
0.10696144 0.080845155 -0.405436 -0.87849087 -0.44166473 0.46450877 0.5814315 -0.43543267
0.13676992 0.24594416 0.1083251 0.19834916 -0.004858428 0.16242626 -0.3941142 -0.1892826
0.25522676 0.028070673 0.49420768 0.18290259 0.6320644 -0.31508878 -0.5593833 0.6130399
-0.007476671 0.29433274 0.08332875 -0.09388472 -0.38951662 0.29856735 0.018352563 -0.0031354637
-0.44047746 0.58598787 0.13719876 -0.0073501705 -0.7387238 -0.29562363 -0.028735748 0.12003901
0.5622602 -0.4983044 -0.60548854 -0.3628384 0.73288184 -0.61244905 0.05339644 -0.39255026
0.3199238 -0.43343344 -0.13701263 0.2435049 0.21967947 -0.110816896 0.3042723 0.60320365
-0.3754254 0.09535753 -0.30607447 -0.022701802 0.34937713 -0.11847961 0.2598176 -0.33390513
-0.069434114 -0.11295203 -0.22661078 -0.11401448 0.26895615 -0.2938606 0.9484211 0.21707787
00000000: 5605 693e 5c4f 20be 8617 cf3c e232 1f3e
00000010: 903c b53f caaf 76be 2490 66bd 275b 463d
00000020: a944 2f3f 81c0 4ebf b022 c9be 9e3b 073f
00000030: b2f3 9abf 0df1 04be b925 e73d 2541 ca3d
00000040: 669e 063f 8295 803e cbe2 183e b524 67be
00000050: 5cc5 4cbf a496 00be eaaa 80bd e1ee 8c3e
00000060: d379 acbe 4d98 4a3e 5a89 233f a5e9 aa3e
00000070: 8929 913f 5a94 803e 858b dcbe 9a33 c43e
00000080: cb33 913f 96b0 2abd c328 51bf 96f4 7fbf
00000090: 65ec d53e 3b80 98be 66fd f73e e7dc f9be
000000a0: def7 e5be 20bc 9b3d 5020 c63e 3aa0 e23b
000000b0: 1417 eb3d 60ae 183e 7b73 5d3f 8625 0a3f
000000c0: 45df 803e a3cd 083e b021 0bbf 4891 5e3f
000000d0: 49cd 1a3e 107b de3e 4bdc 22bf df7d b03e
000000e0: 990e db3d 2592 a53d 4f95 cfbe c7e4 60bf
000000f0: e121 e2be 18d4 ed3e b2d8 143f 08f1 debe
00000100: 6a0d 0c3e c9d8 7b3e 8dd9 dd3d 0b1c 4b3e
00000110: 7333 9fbb 1253 263e 56c9 c9be 4cd3 41be
00000120: 15ad 823e 78f4 e53c ca08 fd3e d14a 3b3e
00000130: f9ce 213f 5153 a1be be33 0fbf 2ff0 1c3f
00000140: ddfe f4bb c8b2 963e 44a8 aa3d a246 c0bd
00000150: b96e c7be d2dd 983e 1d58 963c 5a7c 4dbb
00000160: 4386 e1be 4d03 163f d57d 0c3e b3d9 f0bb
00000170: 011d 3dbf fb5b 97be 3b67 ebbc 03d7 f53d
00000180: 49f0 0f3f c121 ffbe 4c01 1bbf f4c5 b9be
00000190: 259e 3b3f 76c9 1cbf 3ab6 5a3d 59fc c8be
000001a0: 0dcd a33e fdea ddbe 0a4d 0cbe 5959 793e
000001b0: a8f3 603e f8f3 e2bd 94c9 9b3e 8e6b 1a3f
000001c0: c237 c0be cf4a c33d cbb5 9cbe 21f9 b9bc
000001d0: 8fe1 b23e 70a5 f2bd d006 853e 9df5 aabe
000001e0: 7933 8ebd 6553 e7bd a80c 68be 6c80 e9bd
000001f0: 9fb4 893e e674 96be bacb 723f a949 5e3e

to_output.attn.to_out.0.bias f4 [16]
0.7582162 -0.17098379 0.9785682 0.45317993 -0.3799565 0.24554966 0.5008034 -0.09549108
0.65972835 0.048305698 0.8144357 0.75443304 0.58420753 -0.27113897 -0.34388477 0.12629445
00000000: 751a 423f 6016 2fbe 7283 7a3f 3307 e83e
00000010: a989 c2be 5f71 7b3e a734 003f d490 c3bd
00000020: f5e3 283f 32dc 453d dc7e 503f 8622 413f
00000030: a08e 153f bad2 8abe aa11 b0be 5553 013e

to_output.attn.to_out.3.weight f4 [4, 16]
0.9459267 0.6150807 0.17953984 -0.2552094 -0.85907054 0.28476852 -0.4500111 -0.41567972
-0.1477667 -0.67461115 0.082383975 0.2344531 -1.0477892 0.29515368 0.40234014 -0.7766759
-0.55461645 -2.038914 -1.0040019 0.18027282 -1.0991142 0.059019864 0.61746794 0.012536047
-0.3263236 -0.5546628 -0.38034785 -0.49147505 -1.1158694 0.6279496 0.16667016 -0.2052398
0.0806484 0.346793 -0.2541259 0.034815088 -0.84560925 -0.40752208 -0.22322427 -0.9304687
-0.53796494 -0.06919241 -0.9101493 -0.5776391 -0.37148634 0.0010852397 0.18436125 0.031428006
-0.5818893 -0.037704792 0.3394491 0.34579954 1.6129557 -0.11833538 0.37434354 0.1858241
0.08709799 0.43655598 0.040861696 0.08971048 1.0301245 -0.5867935 -0.2823097 0.6190854
00000000: 4128 723f ee75 1d3f 4bd9 373e ceaa 82be
00000010: 0cec 5bbf 2ecd 913e db67 e6be f9d3 d4be
00000020: 2750 17be 51b3 2cbf eeb8 a83d 7914 703e
00000030: f51d 86bf 621e 973e 87ff cd3e 3bd4 46bf
00000040: 58fb 0dbf 917d 02c0 2283 80bf 7099 383e
00000050: c6af 8cbf d0be 713d 6112 1e3f fe63 4d3c
00000060: e313 a7be 62fe 0dbf f4bc c2be 9ea2 fbbe
00000070: cfd4 8ebf 4ec1 203f 95ab 2a3e 622a 52be
00000080: fd2a a53d da8e b13e ca1c 82be 449a 0e3d
00000090: d979 58bf bca6 d0be e794 64be 3233 6ebf
000000a0: 12b8 09bf c0b4 8dbd 8bff 68bf 28e0 13bf
000000b0: 7533 bebe 9a3e 8e3a 32c9 3c3e a7ba 003d
000000c0: b2f6 14bf 5770 1abd 46cc ad3e a30c b13e
000000d0: 5575 ce3f d259 f2bd f5a9 bf3e ac48 3e3e
000000e0: 6e60 b23d 4484 df3e 985e 273d 21ba b73d
000000f0: 1fdb 833f 1938 16bf e68a 90be 617c 1e3f

to_output.attn.to_out.3.bias f4 [4]
-0.27830154 -0.42719573 -0.43694383 0.111768626
00000000: 8a7d 8ebe 66b9 dabe 1ab7 dfbe f3e6 e43d

layers.0.conv20.weight f4 [32, 32, 3, 3]
-0.17787915 0.3687059 -0.5290089 -0.056366146 0.12616576 -0.25805318 -0.136078 -0.87908125
-0.11980777 0.04190019 0.5964508 0.20720853 0.49830753 0.1306931 -0.21097413 -0.31186825
0.2021942 -0.28064093 0.651288 -0.447278 0.061500326 -0.10235832 -0.49724144 -0.5093168
1.0269139 0.26236123 -0.023885636 -0.4515891 -0.47756723 -0.44008934 -0.1996532 0.13549128
0.17063208 -0.09189252 0.11951293 0.15421404 0.07048125 -0.047874358 0.12923439 0.79745716
-0.4307892 -0.20796347 0.34279704 -0.08983028 -0.7070074 -0.6701857 0.8009087 0.40288466
0.19586578 0.1131033 -0.910124 0.12012018 0.822051 0.34208718 -0.38297957 -0.16728212
-0.3319678 -0.17315717 0.24120155 -0.35358 0.21833405 0.17409398 0.13299544 -0.3159122
0.5024309 -0.13095465 -0.14775555 0.037852395 0.324901 0.08008537 0.06971619 -0.22758128
0.36704287 0.32952157 -0.045252685 0.32990682 0.17862114 -0.31943613 -0.32245007 0.063821584
-0.020689234 -0.18920963 0.3482817 -0.21022727 0.5544023 -0.04616871 -0.39137596 -0.062334757
-0.43497103 -0.20546795 -0.14696062 -0.8521796 -0.27702788 0.23426542 -0.0027416253 0.6220222
0.4072686 -0.48827264 -0.42387185 0.5214783 -1.2417018 -0.025785672 0.57590216 -0.31252047
-0.20134145 -0.1338828 -0.43279368 -0.22552028 0.179155 0.11773696 -0.33529285 -0.44025296
-0.43007264 -0.119528525 -0.5229917 0.035566755 -0.007262476 0.2223565 0.11678774 0.40672818
0.01907343 0.43893653 -0.12434612 0.121301875 -0.56381714 -0.19385947 -0.28837156 0.15873763
-1.7310421 0.73382103 -0.06594214 -0.9003487 0.5386545 -0.049197175 0.14693224 -0.5087903
-0.096070625 0.41060117 0.3325326 -0.022397319 -0.20083039 0.01785132 -0.124965094 -0.34348696
0.07691348 -0.18902646 -0.006055389 0.0092413435 0.16790953 -0.26683044 0.09428873 -0.37494758
-0.18136631 -0.15843625 -0.8809497 0.4983446 0.017383222 0.17348692 0.6030896 0.017537339
0.44670856 0.0451271 0.26281795 -0.07113883 0.11291387 0.313605 0.025607651 -0.13962084
-0.075195685 0.013813914 -0.17075038 0.20783451 -0.25824812 0.30002567 -0.32179797 -0.24300548
0.42311648 -0.1660894 -1.0022763 -0.9927295 -0.5643 -0.44374266 0.40372717 0.2079818
-0.62629074 0.13869539 0.0671966 0.3932676 0.1449395 -0.42686588 -0.13434128 0.50532
-0.8004689 -0.3739712 0.056852806 0.44507685 1.0099311 1.0530752 0.10408817 0.109493345
-0.7207281 -0.44064867 -0.2944999 0.003769457 0.3923499 0.057303958 0.29633272 0.1197183
0.100190565 -0.24778108 -0.00962559 0.04773786 -0.43857846 0.20997773 0.13140918 0.62908006
-0.031321894 -0.72582525 0.42461282 -0.6941754 -0.20019104 0.016022835 -0.49507234 0.11578842
-0.28054234 -0.17796813 0.19905119 -0.6649655 0.06481328 0.09457293 -0.50801426 0.571668
-0.81272274 0.22877435 0.46070307 0.059046086 0.07801252 -0.863053 -0.60321045 0.51954615
-0.7334236 -0.6769303 0.413398 -0.35330114 -0.032654565 -0.46739012 0.3340794 -0.30144277
-0.1422246 -0.22439234 0.29976115 0.16999836 -0.3060754 -0.100983575 0.16710757 -0.1278335
00000000: f425 36be 05c7 bc3e 216d 07bf 30e0 66bd
00000010: 9931 013e 8c1f 84be 0858 0bbe 780b 61bf
00000020: c75d f5bd 899f 2b3d 00b1 183f 792e 543e
00000030: 2a22 ff3e 69d4 053e 9a09 58be 32ad 9fbe
00000040: ff0b 4f3e 2bb0 8fbe cfba 263f 9f01 e5be
00000050: c4e7 7b3d 3da1 d1bd 6e96 febe 9662 02bf
00000060: ea71 833f 3654 863e cfab c3bc b036 e7be
00000070: b183 f4be 6453 e1be e371 4cbe 3abe 0a3e
00000080: 2dba 2e3e 2532 bcbd 32c3 f43d 49ea 1d3e
00000090: 7958 903d e717 44bd 0556 043e 2726 4c3f
000000a0: 6790 dcbe 60f4 54be 1883 af3e f0f8 b7bd
000000b0: 70fe 34bf 4a91 2bbf 5a08 4d3f e646 ce3e
000000c0: 0a91 483e b4a2 e73d e3fd 68bf 9201 f63d
000000d0: ef71 523f 0d26 af3e e615 c4be 014c 2bbe
000000e0: aff7 a9be 1d50 31be 8afd 763e 7008 b5be
000000f0: f692 5f3e b145 323e f52f 083e 3ebf a1be
00000100: 509f 003f fa18 06be 3b4d 17be 1d0b 1b3d
00000110: 6d59 a63e cc03 a43d 5dc7 8e3d 110b 69be
00000120: 0bed bb3e 0db7 a83e e15a 39bd 8ce9 a83e
00000130: 76e8 363e 228d a3be 2d18 a5be e4b4 823d
00000140: 787c a9bc 2bc0 41be fb51 b23e d145 57be
00000150: 4fed 0d3f 671b 3dbd 6e62 c8be bb52 7fbd
00000160: 86b4 debe 3166 52be d87c 16be 7128 5abf
00000170: 99d6 8dbe 46e3 6f3e d7ac 33bb d93c 1f3f
00000180: 8385 d03e dffe f9be bb05 d9be 9a7f 053f
00000190: 16f0 9ebf 793c d3bc 536e 133f af02 a0be
000001a0: 742c 4ebe 9318 09be 2297 ddbe caee 66be
000001b0: 6974 373e 1320 f13d 81ab abbe d668 e1be
000001c0: 7b32 dcbe 5fcb f4bd c9e2 05bf 72ae 113d
000001d0: 10fa edbb 6cb1 633e 692e ef3d ad3e d03e
000001e0: e23f 9c3c 4abc e03e 2ea9 febd 1e6d f83d
000001f0: 5256 10bf 1983 46be 70a5 93be 1e8c 223e
00000200: ca92 ddbf b2db 3b3f ac0c 87bd 417d 66bf
00000210: 43e5 093f fa82 49bd 6875 163e 1540 02bf
00000220: adc0 c4bd 513a d23e b741 aa3e 957a b7bc
00000230: 7ba6 4dbe ee3c 923c b3ed ffbd 86dd afbe
00000240: d184 9d3d 2790 41be 496c c6bb 0169 173c
00000250: 7af0 2b3e 009e 88be 731a c13d 21f9 bfbe
00000260: 17b8 39be 1d3d 22be eb85 61bf 0627 ff3e
00000270: 4267 8e3c 8ea6 313e 1464 1a3f 77aa 8f3c
00000280: fcb6 e43e 32d7 383d 1390 863e 3cb1 91bd
00000290: 633f e73d d690 a03e 23c7 d13c c4f8 0ebe
000002a0: 3200 9abd c153 623c 30d9 2ebe 92d2 543e
000002b0: 1939 84be f79c 993e b4c2 a4be 6ed6 78be
000002c0: b9a2 d83e 5713 2abe 974a 80bf 8523 7ebf
000002d0: f775 10bf 3d32 e3be 54b5 ce3e 2ef9 543e
000002e0: 9754 20bf 2a06 0e3e 5f9e 893d 5f5a c93e
000002f0: 056b 143e 2a8e dabe c390 09be a75c 013f
00000300: 88eb 4cbf 2779 bfbe 7dde 683d 1de1 e33e
00000310: 6c45 813f 2bcb 863f 2e2c d53d 0c3e e03d
00000320: a381 38bf b49c e1be b1c8 96be ff08 773b
00000330: 16e2 c83e 8eb7 6a3d ecb8 973e de2e f53d
00000340: b630 cd3d 53ba 7dbe a7b4 1dbc c688 433d
00000350: 5b8d e0be 6704 573e 2190 063e 640b 213f
00000360: 634b 00bd afcf 39bf da66 d93e 7bb5 31bf
00000370: e1fe 4cbe 5242 833c 1f7a fdbe 7b22 ed3d
00000380: 3fa3 8fbe 473d 36be 13d4 4b3e 2e3b 2abf
00000390: d3bc 843d 74af c13d 390d 02bf d658 123f
000003a0: 990e 50bf d343 6a3e 46e1 eb3e 4fda 713d
000003b0: 07c5 9f3d 0bf1 5cbf 006c 1abf fa00 053f
000003c0: a6c1 3bbf 4e4b 2dbf e7a8 d33e e3e3 b4be
000003d0: cbc0 05bd c24d efbe 750c ab3e b556 9abe
000003e0: 53a3 11be 1bc7 65be 4b7a 993e 0d14 2e3e
000003f0: eab5 9cbe 7ad0 cebd 3f1e 2b3e c9e6 02be

layers.0.conv20.bias f4 [32]
-0.12630336 0.0010402658 0.05769721 0.049732152 0.009287646 0.102959275 -0.033092 0.011912575
-0.0064676097 0.033927802 0.021893594 -0.17768839 -0.030356787 0.045858014 0.008815742 -0.041222822
-0.18804933 -0.040232074 0.028482694 -0.0061480757 0.04192087 0.03950908 -0.023093136 -0.14018928
0.017396806 -0.0119509315 -0.016836341 0.033849113 0.056476757 0.04669019 -0.0034368543 0.012621943
00000000: ab55 01be 8759 883a e953 6c3d f1b3 4b3d
00000010: 362b 183c 50dc d23d 7a8b 07bd f62c 433c
00000020: 3eee d3bb e1f7 0a3d 325a b33c f2f3 35be
00000030: ccae f8bc 9dd5 3b3d e76f 103c 43d9 28bd
00000040: 0190 40be 63ca 24bd 8a54 e93c cc75 c9bb
00000050: 38b5 2b3d 46d4 213d d12d bdbc c78d 0fbe
00000060: bf83 8e3c d7cd 43bc 5eec 89bc 5ea5 0a3d
00000070: 2c54 673d 363e 3f3d d93c 61bb 44cc 4e3c

layers.0.conv21.weight f4 [32, 32, 3, 3]
-0.41867325 0.14383473 0.024807584 0.009215402 -0.06560686 0.41625628 -0.30332822 -0.27354088
-0.024091817 -0.06293193 -0.066736504 0.06877475 0.03178083 -0.05446214 -0.07914922 -0.0036870427
0.050103135 0.02645795 0.04717897 -0.07794717 0.015714904 0.00275327 -0.041152816 0.0380118
-0.052291885 -0.02095587 -0.000651628 0.105670005 0.01258341 0.050099783 -0.027753111 -0.03617247
0.0024475963 0.07740422 -0.11703548 0.013267057 0.07026983 -0.052696507 -0.0044059763 -0.12459541
-0.20496532 -0.0023735778 0.04950279 0.25111073 0.0030309593 0.12519681 -0.04100248 0.06781322
0.055890404 -0.08371655 -0.04594159 -0.087186664 0.0031046413 -0.014829099 0.11023935 -0.053553663
0.017961645 0.04102763 -0.117395915 -0.02441283 0.011878293 -0.011234223 0.05634398 -0.110850304
0.038686357 0.10239892 0.06316089 -0.11198294 -0.051684022 -0.0038570205 0.07862005 0.022777764
-0.002723356 0.23799159 -0.09029363 -0.023369448 0.29076526 0.096400596 0.048259053 -0.05345688
-0.054682974 -0.21131666 -0.0092314845 0.08771417 0.033960667 -0.26302287 0.082462974 -0.047180183
0.03454641 0.050656945 -0.045417592 -0.045306202 0.0045732413 0.010899459 0.051058218 -0.025794381
-0.019136066 -0.023734383 -0.0140258875 0.24385032 0.020332046 -0.12459971 -0.12027974 -0.16928472
0.036827665 -0.107705295 0.051289205 -0.07446292 0.076036386 -0.053887393 -0.028648578 0.044405263
-0.28918862 0.15861106 -0.10699367 0.0900328 -0.06906683 -0.035584107 -0.049392506 -0.011733639
-0.0843568 0.13120848 0.08026124 0.03587796 -0.13853051 0.027593603 -0.0803694 -0.013534398
-0.023450084 0.027081104 0.011110788 0.04516198 -0.064984754 -0.105403624 0.036659554 -0.28163457
0.23515582 -0.18495487 -0.23983304 0.19718617 0.18856305 -0.2359406 0.00053034385 -0.17546831
-0.27376637 0.077524126 -0.04804611 -0.20717475 -0.23422675 0.31176063 0.01284269 -0.086117
-0.07447022 -0.09392332 -0.2370252 0.033934582 0.13398294 0.058255903 -0.051001657 -0.04910762
0.014706307 0.055503204 0.06964619 -0.12926246 0.018431297 0.008659045 -0.007499623 0.061557148
0.024184931 -0.048296362 -0.008962935 -0.098309584 -0.21285738 0.034936868 -0.048284747 0.029503679
0.018530443 0.076787814 0.07041674 0.004692513 0.0040144334 -0.16040446 -0.009961865 0.0056792996
-0.069026336 0.07286282 0.048917636 0.03135642 0.013180168 0.07212825 -0.023649253 0.013134588
0.062251274 -0.038335364 -0.06577229 -0.06399744 0.09822202 0.01817528 -0.0038397326 0.05823807
-0.0600037 0.13811368 -0.07576359 0.006316216 -0.036869053 -0.090166576 0.02786846 -0.18665442
-0.16566506 0.04246971 -0.2011344 0.007518644 -0.092904165 -0.02951908 0.03855033 0.010348524
-0.04835036 0.030120928 0.034813616 0.08774153 0.1544031 -0.076442875 -0.08225296 -0.01505946
0.0055436473 -0.060730286 0.023565555 -0.028309513 -0.047486316 0.06191017 -0.09498305 0.01925839
-0.003175531 0.014120212 -0.12947807 -0.058523003 0.07835683 -0.060052227 -0.12289378 0.026976844
-0.07139799 0.0057576536 0.024183664 -0.029717918 0.04831206 -0.029096061 0.037130848 -0.10783525
0.0053323656 -0.03237282 0.09868343 0.00024853836 -0.010875549 -0.050900467 -0.03252649 0.022002807
00000000: 575c d6be 6949 133e 4639 cb3c 33fc 163c
00000010: e45c 86bd 8b1f d53e d64d 9bbe 8d0d 8cbe
00000020: 345c c5bc 75e2 80bd 26ad 88bd c7d9 8c3d
00000030: 9e2c 023d b113 5fbd fc18 a2bd 50a2 71bb
00000040: f238 4d3d 58be d83c bc3e 413d c4a2 9fbd
00000050: 8bbc 803c 3570 343b db8f 28bd 43b2 1b3d
00000060: 0430 56bd a5ab abbc 04d2 2aba 8469 d83d
00000070: a62a 4e3c 6e35 4d3d 7e5a e3bc 9529 14bd
00000080: da67 203b 1b86 9e3d 4cb0 efbd 125e 593c
00000090: a1e9 8f3d 4bd8 57bd 0260 90bb e12b ffbd
000000a0: 6ee2 51be 078e 1bbb 70c3 4a3d 9691 803e
000000b0: 0fa3 463b 9833 003e 37f2 27bd a8e1 8a3d
000000c0: 56ed 643d 9573 abbd 402d 3cbd ec8e b2bd
000000d0: 3d77 4b3b c0f5 72bc 2bc5 e13d 165b 5bbd
000000e0: 4d24 933c 970c 283d 456d f0bd 6afd c7bc
000000f0: 2c9d 423c bf0f 38bc f2c8 663d 7c05 e3bd
00000100: 9675 1e3d 86b6 d13d 7f5a 813d 5057 e5bd
00000110: a0b2 53bd 11c6 7cbb 8c03 a13d 6f98 ba3c
00000120: 557a 32bb 11b4 733e deeb b8bd 4971 bfbc
00000130: 2fdf 943e ad6d c53d 49ab 453d 9af5 5abd
00000140: 41fb 5fbd 6563 58be a73f 17bc 7da3 b33d
00000150: 571a 0b3d efaa 86be 59e2 a83d 0240 41bd
00000160: 8980 0d3d a87d 4f3d cc07 3abd ff92 39bd
00000170: 21db 953b a593 323c 6c22 513d bd4e d3bc
00000180: 3dc3 9cbc 9c6e c2bc d6cc 65bc e6b3 793e
00000190: 648f a63c 222e ffbd 3955 f6bd f958 2dbe
000001a0: 9bd8 163d 9894 dcbd a114 523d 0480 98bd
000001b0: f7b8 9b3d 07b9 5cbd 6cb0 eabc 4be2 353d
000001c0: 8810 94be f06a 223e 7f1f dbbd 1e63 b83d
000001d0: e972 8dbd a4c0 11bd cc4f 4abd 733e 40bc
000001e0: 42c3 acbd 845b 063e 0160 a43d c5f4 123d
000001f0: f1da 0dbe fb0b e23c b698 a4bd 61bf 5dbc
00000200: 641a c0bc 31d9 dd3c 060a 363c c5fb 383d
00000210: ba16 85bd dbdd d7bd 5428 163d 6832 90be
00000220: b0cc 703e cf64 3dbe cb96 75be 2ceb 493e
00000230: ac16 413e 6a9a 71be c606 0b3a f7ad 33be
00000240: 1b2b 8cbe f8c4 9e3d ffcb 44bd 9e25 54be
00000250: 23d9 6fbe 179f 9f3e 256a 523c 1c5e b0bd
00000260: d883 98bd df5a c0bd bcb6 72be fdfe 0a3d
00000270: d332 093e be9d 6e3d 1de7 50bd 1225 49bd
00000280: b9f2 703c 5457 633d a9a2 8e3d 615d 04be
00000290: 3bfd 963c abde 0d3c 66bf f5bb 5923 7c3d
000002a0: 7a1f c63c 68d2 45bd 46d9 12bc 8956 c9bd
000002b0: 49f7 59be f619 0f3d 3ac6 45bd b3b1 f13c
000002c0: 28cd 973c ee42 9d3d a736 903d a7c3 993b
000002d0: 828b 833b 1141 24be 1737 23bc 6b19 ba3b
000002e0: ae5d 8dbd 1a39 953d dc5d 483d 976f 003d
000002f0: a2f1 573c fab7 933d 14bc c1bc 7432 573c
00000300: 31fb 7e3d 8b05 1dbd 9fb3 86bd 1711 83bd
00000310: a028 c93d 53e4 943c 06a4 7bbb 0b8b 6e3d
00000320: 71c6 75bd ac6d 0d3e f129 9bbd 43f8 ce3b
00000330: 0104 17bd 41a9 b8bd 664c e43c 5622 3fbe
00000340: 1aa4 29be b8f4 2d3d 2df6 4dbe f55e f63b
00000350: 8a44 bebd ffd1 f1bc f3e6 1d3d db8c 293c
00000360: 070b 46bd 2ac0 f63c b998 0e3d d5b1 b33d
00000370: d91b 1e3e 158e 9cbd 3d74 a8bd f4bb 76bc
00000380: 7ca7 b53b 52c0 78bd 8d0c c13c 5ae9 e7bc
00000390: 0381 42bd 8595 7d3d 7986 c2bd c5c3 9d3c
000003a0: 921c 50bb 7658 673c e695 04be d1b5 6fbd
000003b0: 8c79 a03d 53f9 75bd bcaf fbbd 8bfe dc3c
000003c0: 1c39 92bd b3aa bc3b d21c c63c fe72 f3bc
000003d0: dee2 453d dd5a eebc 8416 183d bad8 dcbd
000003e0: 20bb ae3b 5d99 04bd 8a1a ca3d 414e 8239
000003f0: 5c2f 32bc 027d 50bd 7f3a 05bd 3b3f b43c

layers.0.conv21.bias f4 [32]
-0.06880402 -0.016346697 -0.04816202 -0.01446322 0.01801867 -0.026073545 0.0036420992 -0.041402165
-0.04264004 -0.0061588087 0.01299936 -0.019899577 0.011379154 -0.01520658 0.031391457 0.010492466
-0.07280818 -0.0009936305 -0.0007500647 0.008874659 -0.07516628 -0.020924455 -0.016088443 -0.032127094
-0.021115607 -0.028820343 -0.0049034827 -0.01180405 0.01766579 -0.026124844 0.016595233 0.0047405856
00000000: 1fe9 8cbd 82e9 85bc 8a45 45bd 24f7 6cbc
00000010: e49b 933c 3098 d5bc 49b0 6e3b 5195 29bd
00000020: 53a7 2ebd d5cf c9bb 45fb 543c 7004 a3bc
00000030: a26f 3a3c 0525 79bc 5494 003d 98e8 2b3c
00000040: 741c 95bd b53c 82ba fd9f 44ba 0567 113c
00000050: c7f0 99bd c369 abbc e9cb 83bc b397 03bd
00000060: a3fa acbc a418 ecbc 65ad a0bb c665 41bc
00000070: d9b7 903c c503 d6bc baf2 873c ea56 9b3b

layers.1.conv20.weight f4 [32, 32, 3, 3]
0.15104641 -0.2722161 0.09265735 0.026425358 0.13695437 0.100626 0.018281054 0.022621518
0.08473187 0.15057911 -0.30074894 0.06142082 0.028540647 0.10426513 -0.24201043 0.11447477
0.09329121 0.32023618 -0.2638921 -0.04859267 -0.15139423 0.08836281 0.20451874 0.15744215
-0.055251017 0.062833875 -0.027378092 -0.066214316 -0.11968168 0.15961264 -0.053089786 0.12964849
0.12882327 -0.0831071 -0.26316446 -0.1347536 -0.10114021 0.07544485 -0.21485859 -0.06619972
0.103551306 -0.27634636 0.016952908 0.0024435131 0.15377443 0.1885608 -0.114450075 0.040752567
-0.07983245 0.011690988 -0.13098237 -0.040350854 0.24643749 0.057457335 -0.06072531 0.12491354
-0.22899546 -0.23159716 0.21440198 -0.061258763 -0.341906 0.1869139 -0.2756306 -0.1220554
0.09765368 -0.059421506 0.054105558 0.07664725 -0.022161461 -0.02700693 -0.0626028 -0.027676923
0.37096503 0.064031266 0.21492808 -0.037838954 -0.3044349 -0.049506735 0.25834867 -0.26918572
0.16656025 0.20331305 0.15035057 0.22958478 -0.13167192 -0.36687168 -0.17851076 -0.28364572
0.21082409 0.12697792 0.30942145 0.044197515 -0.06942181 -0.20934448 -0.18937148 0.17234966
0.422578 -0.14617397 0.08552143 0.13818483 0.04380116 -0.051965352 0.10101615 0.10443092
-0.026732804 -0.20471221 -0.051688842 0.032495867 0.0061132098 -0.085690714 0.15934855 -0.12571438
0.13266987 0.022775058 0.045369584 0.22092342 -0.4523146 0.244874 0.039036445 -0.17332377
-0.16043435 -0.18822995 0.26915336 0.21904473 0.092455916 0.028469786 0.27647457 -0.038538482
-0.031076103 0.19915147 0.22372371 -0.17987561 0.13008416 0.07278593 -0.26450524 -0.29103106
-0.21810137 0.049761046 -0.11991536 -0.05085242 0.023941107 0.08949177 0.11417738 0.17599568
0.20548822 0.07358509 0.051161516 0.014186678 -0.075213015 0.048097033 0.029783275 0.01177191
0.12378712 -0.2429758 0.15433802 0.04722613 -0.053059977 0.12434271 0.04083748 -0.16047244
-0.040003125 -0.096987635 0.19849446 -0.12991776 -0.2810416 0.1496132 -0.041473083 0.094174735
0.1335962 -0.35406145 -0.13783224 -0.104635604 0.144962 -0.24734996 -0.023729354 0.07665529
0.08166068 0.10161647 0.1993806 -0.015792014 0.3021187 0.4425211 -0.14474154 0.030772338
-0.49649316 0.1999197 -0.14799148 -0.13664077 0.47425398 -0.16197038 0.18971667 0.048106696
0.005366717 0.022280643 0.11904059 -0.21011956 -0.01722525 0.05778484 0.2876352 0.0076896693
0.18502283 -0.030307617 -0.11230949 0.013410436 0.09491839 -0.048730385 0.030188879 -0.19392759
0.15656991 0.016949 0.08055223 0.01230207 -0.03301741 -0.15564863 0.037696686 -0.28048936
-0.4291922 -0.11598617 -0.4789272 0.08881292 -0.16764995 -0.3000841 -0.311478 0.28737006
-0.2164846 0.09401202 0.067532085 0.06583149 -0.15909296 -0.22691034 0.022621762 -0.039800376
-0.08984635 -0.13411291 -0.123138 -0.12473783 -0.037291568 0.10004859 0.18250155 0.055121902
-0.06727905 -0.0660529 0.02083341 -0.38220468 0.13676287 -0.48980597 0.11868321 0.379361
-0.16316551 -0.37962753 0.30569088 -0.3197676 -0.25749055 0.07699048 0.083063036 -0.014006488
00000000: e9ab 1a3e e95f 8bbe 23c3 bd3d fe79 d83c
00000010: c43d 0c3e 0115 ce3d 26c2 953c c350 b93c
00000020: e787 ad3d 6931 1a3e c4fb 99be 6694 7b3d
00000030: 13ce e93c f588 d53d 95d1 77be c071 ea3d
00000040: 760f bf3d fff5 a33e de1c 87be 1c09 47bd
00000050: 1707 1bbe 90f7 b43d 5c6d 513e 8438 213e
00000060: e44e 62bd 0caf 803d 0548 e0bc 5f9b 87bd
00000070: ab1b f5bd 7f71 233e ad74 59bd 93c2 043e
00000080: 3fea 033e 0e34 aabd 7ebd 86be d9fc 09be
00000090: 9922 cfbd d482 9a3d e403 5cbe b893 87bd
000000a0: b512 d43d 457d 8dbe d3e0 8a3c 5923 203b
000000b0: 0b77 1d3e 1516 413e cd64 eabd 2aec 263d
000000c0: 327f a3bd 8f8b 3f3c 3e20 06be f046 25bd
000000d0: 1c5a 7c3e 6258 6b3d 1abb 78bd acd2 ff3d
000000e0: c97d 6abe ce27 6dbe 318c 5b3e 78ea 7abd
000000f0: 4e0e afbe 5b66 3f3e 741f 8dbe 2ef8 f9bd
00000100: a7fe c73d f763 73bd ca9d 5d3d 3cf9 9c3d
00000110: f48b b5bc a33d ddbc e635 80bd b7ba e2bc
00000120: 21ef bd3e d322 833d 1b16 5c3e 05fd 1abd
00000130: e4de 9bbe 93c7 4abd 4746 843e b6d2 89be
00000140: c58e 2a3e 4c31 503e 80f5 193e 4618 6b3e
00000150: 01d5 06be 9bd6 bbbe 86cb 36be 033a 91be
00000160: 45e2 573e 8006 023e 7d6c 9e3e 7408 353d
00000170: 062d 8ebd 665e 56be 99ea 41be 6e7c 303e
00000180: 255c d83e a1ae 15be dc25 af3d 5380 0d3e
00000190: d868 333d 9fd9 54bd 8ee1 ce3d e1df d53d
000001a0: c1fe dabc 14a0 51be aeb7 53bd 631a 053d
000001b0: 5251 c83b 9d7e afbd 442c 233e 45bb 00be
000001c0: 9cda 073e c292 ba3c 75d5 393d c039 623e
000001d0: c795 e7be 40c0 7a3e aee4 1f3d c97b 31be
000001e0: e748 24be 5abf 40be 78ce 893e 434d 603e
000001f0: 8759 bd3d 7839 e93c 138e 8d3e 87da 1dbd
00000200: 5093 febc 5dee 4b3e d417 653e 5031 38be
00000210: c834 053e ca10 953d 3b6d 87be 0602 95be
00000220: f755 5fbe 3dd2 4b3d 2f96 f5bd a14a 50bd
00000230: 2420 c43c 7647 b73d d5d5 e93d 3638 343e
00000240: 816b 523e c8b3 963d bd8e 513d 3e6f 683c
00000250: 4809 9abd 6501 453d 0efc f33c f8de 403c
00000260: 1a84 fd3d a6ce 78be c90a 1e3e 3070 413d
00000270: 6b55 59bd 64a7 fe3d 3445 273d e352 24be
00000280: 51da 23bd 74a1 c6bd 2242 4b3e 2909 05be
00000290: afe4 8fbe 3434 193e aedf 29bd afde c03d
000002a0: 71cd 083e 8b47 b5be e523 0dbe 314b d6bd
000002b0: eb70 143e 4f49 7dbe 1064 c2bc 73fd 9c3d
000002c0: b73d a73d 4c1c d03d 6e2a 4c3e 415e 81bc
000002d0: 4daf 9a3e 2092 e23e 2037 14be 4516 fc3c
000002e0: 5a34 febe c0b7 4c3e 148b 17be 8feb 0bbe
000002f0: 6bd1 f23e 90db 25be 1645 423e 870b 453d
00000300: 49db af3b e585 b63c 8ecb f33d 9529 57be
00000310: f81b 8dbc ccaf 6c3d ec44 933e 9ff9 fb3b
00000320: a076 3d3e ae47 f8bc 8502 e6bd 72b7 5b3c
00000330: 9364 c23d 8399 47bd ab4e f73c f494 46be
00000340: dd53 203e a1d8 8a3c 91f8 a43d 9f8e 493c
00000350: 443d 07bd 5b62 1fbe d767 1a3d 4d9c 8fbe
00000360: 14bf dbbe 288a edbd f235 f5be 8ce3 b53d
00000370: 6eac 2bbe a0a4 99be 0b7a 9fbe 2b22 933e
00000380: 24ae 5dbe 6089 c03d 434e 8a3d a9d2 863d
00000390: 44e9 22be 2f5b 68be 4651 b93c b805 23bd
000003a0: 5d01 b8bd e554 09be c72f fcbd 8c76 ffbd
000003b0: 0bbf 18bd 46e6 cc3d b0e1 3a3e 81c7 613d
000003c0: 99c9 89bd be46 87bd d4aa aa3c 55b0 c3be
000003d0: 910b 0c3e d9c7 fabe 2f10 f33d 9b3b c23e
000003e0: dc14 27be 8a5e c2be 8483 9c3e 94b8 a3be
000003f0: cdd5 83be 2fad 9d3d f41c aa3d 787b 65bc

layers.1.conv20.bias f4 [32]
-0.037332598 0.037797716 0.006290217 0.022823863 -0.010912424 -0.30681998 0.006168216 0.011342957
-0.025551302 0.013636427 0.022139164 -0.5903791 0.04032391 0.009046671 -0.0039433283 0.04628617
0.014070867 -0.05188174 0.004322896 0.013833552 0.033617094 -0.054438874 0.038375847 0.05555604
-0.2829826 -0.07883609 -0.8735759 -0.09514862 0.008777743 -0.63865924 -0.032053057 -0.18453951
00000000: 11ea 18bd c7d1 1a3d 2a1e ce3b 1cf9 ba3c
00000010: 06ca 32bc 8217 9dbe bf1e ca3b cfd7 393c
00000020: f750 d1bc 526b 5f3c 315d b53c 1623 17bf
00000030: af2a 253d 7d38 143c 0937 81bb 9196 3d3d
00000040: 7e89 663c f381 54bd 14a7 8d3b 1fa6 623c
00000050: 14b2 093d 4cfb 5ebd fe2f 1d3d bb8e 633d
00000060: 18e3 90be d174 a1bd aca2 5fbf 48dd c2bd
00000070: 86d0 0f3c 2c7f 23bf 114a 03bd edf7 3cbe

layers.1.conv21.weight f4 [32, 32, 3, 3]
0.07591966 -0.015703524 -0.01446055 0.04353462 -0.0743849 0.12033743 -0.05658138 -0.014875256
-0.11773126 0.058024336 0.15493225 -0.009588932 -0.12355292 0.085899 -0.038273018 -0.048535053
-0.009766792 0.12938543 -0.010240723 0.066141434 -0.0684287 0.00451388 0.016923178 0.05827189
0.033952653 0.05472496 -0.006604761 -0.032614477 0.022908946 0.12429285 -0.053070955 0.050356455
-0.075826965 -0.0886245 0.04263872 0.04687612 -0.05049968 -0.038431883 -0.002917486 0.041644875
-0.18507972 0.01426231 0.0048700604 0.040512443 -0.010370133 -0.28377864 -0.059850346 0.039734222
0.054913692 0.34711084 0.025295796 0.102162935 0.07626289 0.030674022 -0.03644499 -0.013229536
-0.013185359 -0.049905296 -0.014008357 0.046991922 -0.078660205 0.020311093 -0.023039442 -0.10844252
0.1959899 -0.061320078 0.14290513 0.026678165 -0.10842413 0.02544501 -0.104963094 0.038644776
-0.0048462986 0.0013917157 0.05195948 0.15205383 -0.08740987 -0.04209797 0.05339638 -0.07543162
-0.025425779 -0.057604585 0.15341862 0.32620436 0.06022753 0.24959864 0.31786278 0.23172213
0.1862324 -0.41341192 -0.028583763 -0.024037952 0.040354677 -0.012994942 0.11797746 0.12672849
0.0201175 0.08301886 -0.04004007 -0.053906687 0.09142727 -0.08724888 0.17699623 0.09999326
-0.123855345 0.03202114 -0.017109947 -0.06514657 0.08048063 -0.058833204 0.049151037 -0.05376002
-0.03960637 0.0004382918 -0.014355427 -0.08666486 0.054896172 -0.048178956 -0.049593646 0.09021258
-0.13380997 0.011367575 0.019089654 0.080681376 0.05489775 -0.06946823 0.023281451 0.12572008
-0.007997544 -0.03706215 0.18093574 -0.21335003 -0.1252106 0.09573868 0.0070661274 -0.01678114
-0.103280924 -0.062305856 0.10548058 -0.25996402 -0.03669975 -0.17276165 -0.3751846 0.26891676
-0.2091705 0.030346075 0.12782082 -0.041054282 0.41842762 0.060506355 -0.1444149 0.078710236
0.083294034 -0.074021846 -0.05189807 0.10473481 -0.030931842 0.063647404 0.030584274 0.027978469
-0.0280865 0.03697175 0.14056833 -0.053283036 0.07459275 -0.0789487 -0.17693792 0.056823246
0.024787107 0.008491457 -0.006540236 -0.13702169 0.038061302 -0.68455356 0.16542692 -0.014382031
0.39170066 0.070263565 0.07854784 -0.26900804 0.0024308683 0.051720798 0.13125873 -0.102715194
0.010728504 0.030971622 0.01564776 0.017155832 0.018271027 0.022642205 0.068552256 0.023409935
0.040804368 0.13865389 -0.085331656 -0.07128596 0.014279312 -0.061623912 -0.11503046 0.14875464
-0.14263985 0.15337676 -0.03875846 -0.005052344 -0.09658747 0.044595145 -0.02103299 -0.095125765
-0.30419233 -0.18379417 -0.19083488 -0.066040404 -0.21960412 0.01220654 -0.060266666 0.083112404
0.14624877 -0.012248757 -0.2222582 -0.10179399 -0.027421571 -0.16925718 -0.24011412 0.075300895
0.13562919 -0.03163592 0.0107066 -0.035809364 0.10987697 0.032371808 -0.06629654 -0.059354074
0.032774836 -0.081915826 -0.13333452 -0.27029288 0.20046805 -0.28584975 -0.07694997 -0.015114957
0.20875596 -0.075271256 0.18430178 0.070493095 0.011737478 0.09074374 0.1291992 0.085373595
0.116683856 -0.24258623 0.11038026 -0.0102064805 -0.058341134 -0.0008348802 -0.04505539 0.033365294
00000000: c47b 9b3d ada4 80bc f1eb 6cbc 5c51 323d
00000010: 1c57 98bd 7873 f63d e1c1 67bd 59b7 73bc
00000020: 161d f1bd edaa 6d3d 8fa6 1e3e e51a 1dbc
00000030: 5009 fdbd d1eb af3d 2bc4 1cbd b1cc 46bd
00000040: e504 20bc 9d7d 043e b5c8 27bc 2975 873d
00000050: 5924 8cbd 2be9 933b 7aa2 8a3c 81ae 6e3d
00000060: f011 0b3d 4827 603d c06c d8bb c296 05bd
00000070: 8bab bb3c 408d fe3d ee60 59bd 9242 4e3d
00000080: 2b4b 9bbd c380 b5bd f0a5 2e3d 2d01 403d
00000090: c1d8 4ebd c06a 1dbd 4b33 3fbb d193 2a3d
000000a0: 8a85 3dbe 77ac 693c 0795 9f3b 60f0 253d
000000b0: 7ee7 29bc 6f4b 91be a325 75bd 5ac0 223d
000000c0: 2eed 603d 83b8 b13e 2139 cf3c cd3a d13d
000000d0: b82f 9c3d 1648 fb3c 5847 15bd b2c0 58bc
000000e0: 6707 58bc 7f69 4cbd 4f83 65bc 9a7a 403d
000000f0: 9a18 a1bd 7363 a63c 36bd bcbc 1d17 debd
00000100: 94b1 483e c32a 7bbd b955 123e 2b8c da3c
00000110: 780d debd 0e72 d03c e4f6 d6bd fc49 1e3d
00000120: b3cd 9ebb 3b6a b63a 77d3 543d 00b4 1b3e
00000130: f203 b3bd ec6e 2cbd 2ab6 5a3d e57b 9abd
00000140: b949 d0bc c9f2 6bbd c519 1d3e 4204 a73e
00000150: 24b1 763d c996 7f3e e9be a23e 9148 6d3e
00000160: b5b3 3e3e baaa d3be 7f28 eabc 3deb c4bc
00000170: f24a 253d bde8 54bc 2b9e f13d 1dc5 013e
00000180: 75cd a43c cb05 aa3d 0e01 24bd 42cd 5cbd
00000190: 383e bb3d 8aaf b2bd 803e 353e 44c9 cc3d
000001a0: dfa7 fdbd 9928 033d 292a 8cbc 916b 85bd
000001b0: 07d3 a43d 16fb 70bd 9952 493d 7733 5cbd
000001c0: 4a3a 22bd 88ca e539 0633 6bbc 597d b1bd
000001d0: cfda 603d 4c57 45bd b522 4bbd 60c1 b83d
000001e0: 7b05 09be 113f 3a3c e861 9c3c 473c a53d
000001f0: 77dc 603d 5c45 8ebd beb8 be3c c4bc 003e
00000200: 2108 03bc 7bce 17bd 3847 393e 6e78 5abe
00000210: 3537 00be a412 c43d f98a e73b 9a78 89bc
00000220: f384 d3bd 6d34 7fbd 3406 d83d 011a 85be
00000230: 7a52 16bd 6ee8 30be 3218 c0be 75af 893e
00000240: cb30 56be 5598 f83c 76e3 023e 8928 28bd
00000250: 253c d63e 83d5 773d 80e1 13be d532 a13d
00000260: 1096 aa3d c498 97bd 1293 54bd 347f d63d
00000270: c664 fdbc 9259 823d df8b fa3c 1a33 e53c
00000280: a915 e6bc b16f 173d 25f1 0f3e 503f 5abd
00000290: 15c4 983d dbaf a1bd 372f 35be 7ebf 683d
000002a0: 550e cb3c c11f 0b3c 7a4f d6bb 6a4f 0cbe
000002b0: 2be6 1b3d e73e 2fbf ad65 293e 9ca2 6bbc
000002c0: fd8c c83e 58e6 8f3d b1dd a03d 6cbb 89be
000002d0: 344f 1f3b 30d9 533d b068 063e 585c d2bd
000002e0: 9bc6 2f3c 33b8 fd3c bb2f 803c 638a 8c3c
000002f0: 1fad 953c 257c b93c 2065 8c3d 31c6 bf3c
00000300: 7b22 273d 49fb 0d3e 5dc2 aebd 60fe 91bd
00000310: c7f3 693c 5b69 7cbd 1795 ebbd 2353 183e
00000320: 2e10 12be cc0e 1d3e 31c1 1ebd 228e a5bb
00000330: a7cf c5bd 66a9 363d 614d acbc 4cd1 c2bd
00000340: 19bf 9bbe 8a34 3cbe 386a 43be 3140 87bd
00000350: e7df 60be f1fd 473c 2eda 76bd d636 aa3d
00000360: 3dc2 153e 03af 48bc a797 63be 5e79 d0bd
00000370: 34a3 e0bc c151 2dbe 7ae0 75be 5b37 9a3d
00000380: 61e2 0a3e ab94 01bd bc6a 2f3c d7ac 12bd
00000390: 2d07 e13d 4d98 043d 7bc6 87bd 421d 73bd
000003a0: e83e 063d 7cc3 a7bd d888 08be d463 8abe
000003b0: 7f47 4d3e e65a 92be f297 9dbd b9a4 77bc
000003c0: 1fc4 553e d127 9abd 9bb9 3c3e af5e 903d
000003d0: 8d4e 403c dbd7 b93d cc4c 043e 5ad8 ae3d
000003e0: f2f7 ee3d 8668 78be 0c0f e23d 1539 27bc
000003f0: 1df7 6ebd dddb 5aba 008c 38bd 0caa 083d
