weights/BWNET_LAGConv_T4/model_epoch_820.pth (torch, 678374 bytes, 141 tensors)

raise_dim.0.weight f4 [32, 9, 3, 3]
00000000: 0376 f53c 2e29 70be 1fb4 fb3d 1370 45bc
00000010: 8a7a 423e a81d e93d a941 cf3d ca1f fd3c
00000020: 0260 4abd 72be 23bd d2df 88bd 68c0 c83e
00000030: 0f31 103d 8929 8f3d eee2 6c3d c385 32be
00000040: ced6 a7bd 53f3 21be 56dc 13bd e6eb 54be
00000050: 8694 c23e 828c 9a3d 81d2 be3b 5b35 c13d
00000060: e79a 94bc 1662 1b3e face 8bbe 6065 a53d
00000070: ba04 6bbe da9f cb3e f38a 803d 2a2f 383d
00000080: 71fc 113d 0013 03bd d575 b83d 4c16 58be
00000090: c722 d43d 45ea 453c 2b1f ea3e 0e5d cd3d
000000a0: f765 8e3d 40a2 b13d 2512 093e 5e63 e83c
000000b0: e23f 09be 478c 8d3d b299 69bd fada 8f3e
000000c0: de7b a6bc 9d85 423c b96a c5bd 5d44 c4bd
000000d0: eab0 2abd e2cd 45bd cae0 48bd e5a9 d2bd
000000e0: 3fe7 fb3d 0f5b b5be 400e 87be 73b7 9fbe
000000f0: cc9e 43be 2621 acbe 010d 11bf 4d68 d93e
00000100: b843 3b3f ece3 4e3f db9e 4e3e feba a73e
00000110: b8e9 153e 4b67 0d3e 3989 fc3d b57b d7bd
00000120: ea80 593e 8743 1c3f eccb 5d3f fc38 9cbe
00000130: bfa5 98be 77b7 5bbe cf52 09be 177f 88be
00000140: d95e f5bd 49e8 cdbd 8fb6 373d 8c3d 663e
00000150: 6f39 fd3d 55fe 35be d144 58bd 2d94 89bc
00000160: 302f 713e 698d abbb 48de d93c b042 173e
00000170: 8f82 b23e a162 95bc 694f 60be 8d81 4bbe
00000180: abd6 0c3e 43b8 95be 0d63 08be 79e8 b03c
00000190: bdc4 7e3e db15 7b3e f8f5 c73e 4952 80bd
000001a0: d486 f7bd fdc2 6f3e 282a ffbd f311 443e
000001b0: c42d 223b 89d7 1f3e ef4a 2a3e d4c4 a93e
000001c0: 2ddf 7dbe 833b 6dbe ac58 5e3e 3d07 b3be
000001d0: 8cb3 183e 312e 7bbe a5de 9d3d 3e80 3c3e
000001e0: 4e6e c13d aec4 2abf 5899 ddbe cb76 933d
000001f0: 9df5 25bf 97e0 453e 4b38 383e f965 f33d
00000200: 2466 b23d e205 373f f2ac 13be c1da d2bd
00000210: d36e c83e 6a83 8dbe 8801 a23e 3aef 68bd
00000220: 5f99 d53c 41ce cebd 8fd6 443e 1d12 b9be
00000230: e1d0 2fbe f65c 7a3b 11eb 06bf e162 82be
00000240: a9d3 dfbd c3f4 073e 8264 a6bd 6a53 c83e
00000250: 228d e13d 70cd 883d cb07 143e 9ccf 953d
00000260: 2f20 44be 6aae 65be 9357 483e 42bb e0bd
00000270: b5e1 33be d146 acbe e556 95be f28b 8fbe
00000280: ad69 1abf 1a5f a1be 240c 32bc c690 babe
00000290: 8b51 7c3e d5fa 333e d6ac f13e eb4d e23e
000002a0: ccd5 38be b402 193f 64c5 2a3e 607b bb3e
000002b0: 0a78 26bf 76d8 333d 387b 393e c987 6a3e
000002c0: 5f81 a0be eb35 b23e a050 ce3e a754 d2bc
000002d0: e0ee 953d 229a 5abe 91f0 d03d c846 fc3d
000002e0: ff12 85bd fb90 69be fac4 2cbe 18c7 89be
000002f0: 9c9f f0be 0ae8 e93d 4cf2 52be 9c5a ad3e
00000300: ae97 b83c 72ac 93be 124c 3fbe 18b7 05be
00000310: 63c1 03bf 153d bd3c 6923 01bd a57e 01bf
00000320: a7c2 3a3e e6f6 fa3b 6050 5a3d a114 f2bd
00000330: 5976 2bbe 3847 a9bd 8282 e53e bb5e a33e
00000340: 928b 363f 2021 803f 2b23 4abe 2279 f0be
00000350: 0d72 a3bd cb27 bebe 198f 4ebf 67f9 673f
00000360: c721 90bd edb7 d8be f1c5 c83c 650b e93a
00000370: e31b bfbd 9986 45be d6fe c7bd 6201 6fbe
00000380: 6f54 9e3e 6dc1 68be 381a d2be 9700 9a3e
00000390: cf4f 99bd cb7d 63be b66b 9abe 63f2 b53d
000003a0: e6b1 67be 91d4 72bc 05b9 13bf 3203 85bf
000003b0: 45c2 aebe c2eb ac3c b248 0b3e ad09 86be
000003c0: 3a71 533e d46c cfbc c013 9fbe f698 9abd
000003d0: a00d 733e 0312 ea3c 7211 ce3e e772 cebe
000003e0: 9c3e 0d3e 016c 88be fea7 1b3f 76b3 be3d
000003f0: 3d8d 0cbe f68f 01be fd84 d9bd 8de7 60bd
0.029963499 -0.23453209 0.12290215 -0.012050646 0.18992057 0.113826096 0.101199456 0.030898947
-0.049407966 -0.039976545 -0.06683315 0.39209294 0.035203036 0.06990344 0.057833605 -0.17433839
-0.081952676 -0.15815477 -0.0360988 -0.20793113 0.3800394 0.07546331 0.005823434 0.09434005
-0.01814027 0.15174136 -0.27306348 0.08075976 -0.22951022 0.39770395 0.062765025 0.044966854
0.035641138 -0.03200054 0.0900685 -0.21102256 0.10358196 0.01207978 0.45726904 0.100275144
0.06953042 0.08673525 0.13385828 0.028367694 -0.13403276 0.069115214 -0.05703134 0.28096753
-0.020322736 0.011872676 -0.09639496 -0.09583352 -0.041672625 -0.04829205 -0.0490425 -0.10286311
0.12299966 -0.35421035 -0.2637806 -0.31194648 -0.19103545 -0.3361904 -0.5666047 0.42462388
0.73150206 0.8081653 0.20177786 0.3275985 0.14639938 0.13808934 0.12330861 -0.10521642
0.21240583 0.6104054 0.86639285 -0.30512226 -0.29813954 -0.21456705 -0.13410495 -0.26659462
-0.119809814 -0.100540705 0.044851836 0.22484416 0.1236447 -0.17772801 -0.052800003 -0.016794289
0.23553157 -0.0052353633 0.02659525 0.14771533 0.34865233 -0.018235506 -0.21905293 -0.19873638
0.13753764 -0.29242143 -0.13319035 0.021595227 0.24879737 0.24520056 0.39054847 -0.06265695
-0.12086263 0.23414226 -0.124592125 0.19147472 0.0024746517 0.15609564 0.16630147 0.3315798
-0.24792166 -0.23167233 0.21713513 -0.3496646 0.14912242 -0.2452934 0.07708482 0.18408296
0.09444867 -0.6670636 -0.43281054 0.07200392 -0.648279 0.19323955 0.17990224 0.11884684
0.08710888 0.7149335 -0.14421442 -0.1029563 0.39147052 -0.27639323 0.31641793 -0.05686877
0.02607411 -0.100979336 0.19222473 -0.36146632 -0.17169525 0.0038202382 -0.5270243 -0.25466064
-0.10929043 0.13276963 -0.08124639 0.3912614 0.11013247 0.06679809 0.14456098 0.07314989
-0.19152902 -0.22429815 0.19564657 -0.109732166 -0.17566569 -0.3364778 -0.29167858 -0.28036457
-0.603175 -0.3151787 -0.010867152 -0.36438578 0.24640481 0.17576154 0.47202176 0.44200072
-0.18050307 0.5976975 0.16676861 0.36617565 -0.65026915 0.043907605 0.1811341 0.2290336
-0.31348702 0.3480676 0.40295887 -0.025675131 0.073209524 -0.2134786 0.102021344 0.12318188
-0.06497764 -0.22809212 -0.16872016 -0.2690971 -0.46996772 0.11421211 -0.20600241 0.33858192
0.022533264 -0.28842503 -0.18681362 -0.13058126 -0.5146696 0.023100415 -0.03152791 -0.5058387
0.18238316 0.007658827 0.053299308 -0.11820341 -0.16744365 -0.08265537 0.44826132 0.3190821
0.7130672 1.0010109 -0.19739978 -0.46967417 -0.07980738 -0.37139735 -0.806871 0.9061493
-0.070376925 -0.42327824 0.024508448 0.0017779885 -0.09331491 -0.19289626 -0.09765403 -0.23340371
0.30923793 -0.22730036 -0.41035628 0.30078575 -0.074859254 -0.22215955 -0.30160302 0.08884122
-0.22626457 -0.014821188 -0.5770419 -1.03916 -0.3413259 0.021108512 0.1360195 -0.26179257
0.20648661 -0.025320448 -0.31069756 -0.07548706 0.23735666 0.028573042 0.40247685 -0.4032204
0.13793415 -0.266449 0.6080321 0.09311573 -0.13725753 -0.12652573 -0.106210686 -0.054908324

raise_dim.0.attention1.0.weight f4 [9, 9, 3, 3]
00000000: 5335 953e d9ad a4bd 014b 24be 7f4d 073e
00000010: 5685 1cbf 5e50 1cbe f5f7 76be c4ba 1dbd
00000020: 9b82 8fbe 164e a63d d0eb c53d b2f2 06bd
00000030: ad1d a13e c8a2 953e d2e8 383e c5fc 58bd
00000040: 90c2 523d 4599 ffbd ef6d 2b3e cb7f 2abd
00000050: eb52 e9bd b9a4 ea3d 34f9 163e 3211 be3d
00000060: 0e02 fabd c8b0 f6bc c8c7 8739 a17f 6f3d
00000070: 9fc4 97be 2f9e 9dbd 3b9c d63d d356 2d3e
00000080: 79c3 333e f978 9dbe c030 58be 110b f6bd
00000090: cb69 f33d afc1 6fbd 1e7f d8bd e306 0a3d
000000a0: 3063 a83e 26d8 9c3d e98f 2cbe 1682 08bd
000000b0: 5a7f 50be 8235 69bb 9bfb bebe ba0b babe
000000c0: 8a9d ecbd 1c9b ecbd 5068 78be 99f9 e0be
000000d0: 6325 36be 8c65 93be a135 be3d 3322 d8bd
000000e0: e898 12be 1f6c f5bd c73c c1bb 4302 ca3c
000000f0: 49d0 10bf 6eec b6be ea4e a8be 8826 303f
00000100: 39c0 fe3e 7d47 b53e 2ce2 403f d38b 583f
00000110: d535 ea3e d9ab 313e 70e0 dc3e 243b 023d
00000120: 3854 ea3e b11b c23e d629 c93e 3b35 df3e
00000130: d01d f53e c213 c63e 7422 16be 4e5c 4d3d
00000140: 2319 88be 4fbc 0ebf fcfb 40bf b495 153e
00000150: 3ccf a33d 2df5 80bf 875d 9e3e fc88 453e
00000160: b0d3 aebe d551 ac3e ad84 e8be 484b 8ebe
00000170: eae1 75be 6e36 fa3c 3688 363d 4834 3b3b
00000180: a05d 1fbe 3759 0c3d 750b a0bd 6a8f 2bbf
00000190: df27 6ebe 68fb b4be 49ef 51be 6565 923d
000001a0: e9e0 d1bd fd4e e2be f905 cf3d 1fa4 aebd
000001b0: 77b0 b8be d4a5 9fbd 0950 48be fa20 15bc
000001c0: f211 ef3e ee82 0d3d 8abb e2bd 8802 dc3e
000001d0: 8e79 ed3d 9edf 09bd e28c cd3d 3e67 40be
000001e0: 1c60 17bd 3c21 fc3e 59b1 313e 6422 01be
000001f0: 8aa2 eb3e 7d94 01be d8e8 c2be a6d2 8c3e
00000200: 4b99 a93d 10d6 98be c833 be3e 52dc 97bd
00000210: 48f7 81be 399f 053f 3d68 dfbd e364 933e
00000220: 0bcc 1d3f e081 be3e 1f32 ff3c 5f64 b03e
00000230: 4fbe a93b a494 183e a285 993e 93b0 15bd
00000240: ea6a 47bf 7fb1 53bc d1b2 e53a 9a64 0abf
00000250: 3a52 2dbc 8957 afbe 3d35 d9be b77a 24bd
00000260: eeca 14bf cbbd c8be d67d 3b3c 61cb ba3b
00000270: 684d 35be d91c 7bbc 26b7 e0bd d5fd c13c
00000280: b08b 14be 29d5 a5be 9fb4 3cbe 7d9c 62be
00000290: ea23 71be 123d 99bd bbce f1bd 63b0 abbe
000002a0: 7d9f 12be 7606 83be 0893 d0be bf9a 9dbc
000002b0: 28ec 72bd 7943 97bc d6d3 3d3d 3f5a 253e
000002c0: 19f6 1e3e 502b 3bbb 26dd 073d 5e20 5e3e
000002d0: 61cb 90bd dc85 eebc 8d99 a7bd 201d 61be
000002e0: dac1 85be 84a0 52bd 8489 7dbe 3b3a 6dbe
000002f0: da0d f9bd b099 c4bd a383 73bd 26d3 aabd
00000300: cdd0 18be 2675 4dbe 769a aebd 3739 04be
00000310: 7624 dbbd 96d4 73bd fb53 be3d 3f50 49be
00000320: 21e8 0dbc 4f62 303d 58b0 cd3d 18a2 d4bc
00000330: a5a7 7a3e 4fc7 833d fb3f 573d 21c0 863a
00000340: 2f94 c1bd dc15 f9bb 7449 e53c aec2 86be
00000350: e9ed cdbe 5e9a fe3d dbe1 28be a479 3bbe
00000360: 5e65 113c 2840 93be ae16 1dbe d339 3f3e
00000370: 8acf bebd fa26 583e 2b42 a03d 3eff de3a
00000380: 4f43 753e 1e02 7dbe e140 87be 31cc 1dbd
00000390: e83c 4ebc 9d51 47bb 7b90 063e 01da acbd
000003a0: 93a6 f13d 10b0 6d3e 5b9d 09be bda4 f1bd
000003b0: 1936 03be 0e88 353e 8fff 853e 9f32 9a3e
000003c0: c475 a23d a506 8a3e 9fab 023f 14e5 7fbe
000003d0: fd34 d0be 8a04 61be 5b01 aebe 3051 4b3e
000003e0: 2ffd d1bd d71d 4dbd 46bf 5ebe e641 17bd
000003f0: a979 9dbd d729 2ebd 975e 5fbd 5fce 3fbe
0.29142246 -0.08040971 -0.16044237 0.13213156 -0.61140954 -0.15265033 -0.24118026 -0.03850819
-0.28029332 0.081203625 0.09664118 -0.032946296 0.31467953 0.29225755 0.18057564 -0.052975435
0.05145508 -0.12480406 0.16741155 -0.04162578 -0.113927685 0.114571996 0.14743501 0.092806235
-0.12207423 -0.030113593 0.00025898055 0.058471326 -0.29642197 -0.07696187 0.10479017 0.16927652
0.17555036 -0.30756357 -0.21112347 -0.120138295 0.11885413 -0.05853432 -0.10571121 0.033697974
0.32888174 0.076584145 -0.16851772 -0.033327185 -0.20361081 -0.0035584872 -0.37301335 -0.36337072
-0.11553486 -0.11553022 -0.24258542 -0.43940428 -0.177877 -0.28788412 0.09287573 -0.10553398
-0.14316142 -0.11983513 -0.005897138 0.024659282 -0.5656782 -0.35727257 -0.32872707 0.68808794
0.4975603 0.35406104 0.7534511 0.84588355 0.45744196 0.17350711 0.43139982 0.031794682
0.4576738 0.37911752 0.3928973 0.435953 0.47874308 0.3868695 -0.1466158 0.050136857
-0.26581678 -0.55756086 -0.753845 0.14607888 0.07998511 -1.0074822 0.3093073 0.19290537
-0.3414588 0.33656183 -0.45413724 -0.2779181 -0.2401196 0.030543532 0.044563495 0.0028565098
-0.15563059 0.03426477 -0.07814685 -0.6701571 -0.23257397 -0.35348058 -0.20501436 0.07148246
-0.10247976 -0.44200888 0.10108561 -0.08527397 -0.36072132 -0.07795301 -0.19561781 -0.0091021005
0.4669338 0.034548692 -0.110709265 0.4297068 0.1159545 -0.033660524 0.10036637 -0.18789384
-0.03695689 0.49244106 0.17352809 -0.12610775 0.46022445 -0.126543 -0.3806827 0.27504462
0.082811914 -0.29850817 0.3714888 -0.0741507 -0.25383973 0.5219608 -0.10908554 0.28787908
0.6163947 0.37208462 0.03115183 0.34451577 0.0051801573 0.14900452 0.29984766 -0.036545347
-0.7789751 -0.012920736 0.0017524605 -0.54059756 -0.010578686 -0.34246472 -0.4242343 -0.040156092
-0.58122146 -0.392073 0.011443576 0.005700514 -0.1770531 -0.015326702 -0.10972433 0.023680607
-0.14506412 -0.3238919 -0.18428276 -0.22130008 -0.23548856 -0.07482351 -0.11807009 -0.3353301
-0.14318652 -0.25590867 -0.40737176 -0.019238828 -0.059307247 -0.01846479 0.0463446 0.16147707
0.15523566 -0.0028559752 0.033169888 0.21692035 -0.070700414 -0.029116563 -0.08183584 -0.21983767
-0.2612446 -0.05142261 -0.2475949 -0.23166744 -0.12160845 -0.09599626 -0.05945171 -0.083410546
-0.14923401 -0.2006422 -0.08525555 -0.1291245 -0.10700314 -0.05952891 0.09293362 -0.19659518
-0.008661301 0.043062504 0.100434005 -0.025956199 0.24478014 0.064344995 0.05255125 0.0010280648
-0.09452092 -0.007601483 0.027989127 -0.26320404 -0.40220574 0.12431787 -0.16492407 -0.18308121
0.0088742655 -0.28759885 -0.15340683 0.18674402 -0.09316929 0.21108618 0.078251205 0.0017013324
0.23951457 -0.24707839 -0.26416686 -0.03852481 -0.012587763 -0.0030413636 0.13141052 -0.084400184
0.1179935 0.23211694 -0.13438933 -0.117989995 -0.12813605 0.17727682 0.26171538 0.30116746
0.07932618 0.26958194 0.51043123 -0.2498973 -0.40665427 -0.21974388 -0.3398541 0.1985519
-0.10253369 -0.050077286 -0.21752653 -0.03692808 -0.076892205 -0.04252037 -0.054533567 -0.18731068

raise_dim.0.attention1.0.bias f4 [9]
00000000: 4092 763c 5a02 fd3e 114c f43d b4c8 1fbe
00000010: 95fa 4fbd f074 a33e 03df 0a3c a232 da3d
00000020: 0dd7 da3e
0.015049517 0.49415857 0.11928571 -0.15603906 -0.050776083 0.31925154 0.008476022 0.10654189
0.42742196

raise_dim.0.attention1.2.weight f4 [9, 9, 1, 1]
00000000: 6651 733f 790f d63e 1913 243e d69b 14bf
00000010: 109f 26bd 1551 dc3e a248 43bf ce46 fc3e
00000020: a180 2d3f 31bd 4e3f e99f 903f ad4d 843d
00000030: e1eb 8d3e 35ed a73d 166c 2e3e 3e8f a6be
00000040: 7337 8fbe e795 843e 1845 173f ba98 dc3f
00000050: 1f78 58bf f1e4 353c 639b e0bd 6ac2 e9be
00000060: f9cb 803e cdc4 2abf 11a9 a6bc 2b22 87be
00000070: abda dbbe 5f99 543d f9fd 7e3c c4ed 273e
00000080: ebdf 9bbe 2ae5 073e fc0f 8cbe d22e f73c
00000090: c490 093f 2480 783f 3f0f 2dbe eceb e3bc
000000a0: d7f0 91be 9843 ffbe 731f acbe d5b8 8d3d
000000b0: 4349 d1bc 707b 6a3f c86b 73bf c86d ba3e
000000c0: c485 e3be ff29 19bf a3cc 0d3f 3d07 e4bd
000000d0: cb97 4fbe 8b69 283e eb5e 02be 094a 63bd
000000e0: 536a 953e 41e2 d03d 9806 783e d235 b5bd
000000f0: 2e6d 033d b528 68bd 942e 053d 9216 e43e
00000100: 1c1a ce3d 6a95 973e 694c c2bd 28bf 08bd
00000110: f4e4 e13d 60b3 9b3e 4cd8 b6be 6b77 92be
00000120: 6d08 ccbd 25ad 9abf 78ec 913f d473 38be
00000130: ecfc dfbc c234 af3e a0c5 363e db1e 333f
00000140: 1b5a c13e
0.9504608 0.4180868 0.1602291 -0.58050287 -0.040679038 0.4303061 -0.76282704 0.4927277
0.677744 0.80757433 1.1298801 0.06460128 0.27719024 0.081995405 0.17033419 -0.3253116
-0.27971992 0.25895616 0.59089804 1.7234108 -0.8455829 0.011101947 -0.10967138 -0.4565614
0.2515562 -0.66706544 -0.020344289 -0.26393256 -0.42940268 0.05190408 0.0155634815 0.16399294
-0.30444273 0.13271013 -0.27355945 0.030173693 0.5373652 0.9707053 -0.16900347 -0.027822457
-0.2850406 -0.49856257 -0.33617744 0.069200195 -0.02554763 0.915946 -0.95086336 0.3641188
-0.44437993 -0.59829706 0.55390376 -0.11134193 -0.20272748 0.16446511 -0.12731521 -0.055490527
0.2918268 0.101994045 0.24221265 -0.08848156 0.032086544 -0.056679446 0.032515123 0.4454847
0.10063574 0.2960618 -0.0948723 -0.033385426 0.110299975 0.3041029 -0.35711896 -0.28606734
-0.099625446 -1.208409 1.140029 -0.18012935 -0.027342282 0.3421994 0.17848825 0.69968957
0.37764058

raise_dim.0.attention1.2.bias f4 [9]
00000000: e253 8d3e c53b 933e ee67 bc3e 7d83 82be
00000010: 9d07 ac3e 5068 8b3e 9f4c 14be 3e8e 19be
00000020: c06c 9d3a
0.2760306 0.28756538 0.36798042 -0.25490943 0.33599558 0.27228022 -0.14482354 -0.14995667
0.001201056

raise_dim.0.attention1.4.weight f4 [9, 9, 1, 1]
00000000: 05f8 aabe ee13 57be 0aa8 063f 017c 863e
00000010: 24f0 58bf 8913 06bf 8d99 443e 4140 08be
00000020: 2d07 ae3e 00a3 07bf b2be 33bd e9a7 8e3f
00000030: 72dc cf3d e7d6 123f 4aad c6be fbf2 2fbb
00000040: 04bc 293e 5e8f e4be 75ea 01bf 21e8 a6bd
00000050: 583f d0bf eccc 8a3e e95e a5bf c030 353d
00000060: 4e6b 4ebe 0114 053e fb79 e0be 511c 333f
00000070: 1650 263e 3f66 183f e784 0fbf 6d2c 043e
00000080: 5990 e13e 3f5b b0be 2b84 10bf f58b 4d3f
00000090: 70a4 6a3f 4ec2 7e3f 189f 8a3f ef83 1ebf
000000a0: be8f 243f af2d ea3f 415c 3cbf 2116 1abf
000000b0: 856d 063f 8abe 8f3b 7cb1 8e3c b4b4 a53e
000000c0: af3a 10be fa9a 7f3e 65bf fdbd 93d2 c4bd
000000d0: 4974 50bd 38c7 a4be 2b39 ba3e 625b ba3e
000000e0: 9a3f d23e e4cd babe 7680 99be 3c40 ce3e
000000f0: fb4f fabd 544f b3bd d96c e73e ca14 783f
00000100: 5725 4e3f b6fc 503f bfe5 e2be e01f ba3e
00000110: f290 0e3f 47f9 99bc 7cb5 f3be 7523 093f
00000120: a8d0 f5be 3aa9 f93b a1db 243f 58a8 02be
00000130: 14c1 363e 33a5 4cbe 10df f2bb 9b6e 093e
00000140: 0411 07bf
-0.3339235 -0.21003696 0.5260016 0.26266482 -0.84741426 -0.5237356 0.191992 -0.13305761
0.3398985 -0.52983093 -0.043883033 1.1144992 0.101494685 0.57359165 -0.38804084 -0.0026847709
0.16575629 -0.4464063 -0.5074838 -0.08149744 -1.6269331 0.27109468 -1.2919589 0.044235945
-0.20158121 0.12995912 -0.43843064 0.6996508 0.16241488 0.59531015 -0.5606217 0.12907572
0.4405544 -0.34444615 -0.5645167 0.8029168 0.9165716 0.99515235 1.0829802 -0.61920065
0.64281833 1.8295192 -0.7357827 -0.60190016 0.52510864 0.0043867277 0.017418616 0.32364428
-0.14084886 0.24961463 -0.12390021 -0.09610476 -0.05089215 -0.32183242 0.3637174 0.36397845
0.4106415 -0.36485207 -0.2998082 0.40283382 -0.12222286 -0.08755365 0.45200232 0.9690672
0.80525726 0.81635606 -0.44315907 0.36352444 0.5568992 -0.018795623 -0.475994 0.5356973
-0.48010755 0.0076190503 0.6439763 -0.1275953 0.17847091 -0.19984894 -0.007411845 0.13421099
-0.5276034

raise_dim.0.attention1.4.bias f4 [9]
00000000: 6c18 6d3e 0653 db3d f7f7 b53d 9e88 2f3f
00000010: 7bdf b23e 76c6 003e e134 c33e c6c8 1c3f
00000020: 5705 f93d
0.23153847 0.10709195 0.08885186 0.68567836 0.34936127 0.12575707 0.3812628 0.61243856
0.121592216

raise_dim.0.attention3.1.weight f4 [32, 9, 1, 1]
00000000: 7f08 dcbd fcc0 8bbd 2ab0 8d3d 4234 943d
00000010: cd99 c5be 6bce b83e 82f2 403e 5e0c 54be
00000020: 7841 3a3e 5205 583e 099a 1dbd 12ac 663e
00000030: 3b7b 4bbd dc39 ccbe d158 e9bb 3431 9d3e
00000040: 0b3d 82be e9a7 453e e7d0 0f3e 0b39 75be
00000050: fb44 15bd ec0e 4a3e 671c 81be 3278 7c3e
00000060: 957b 1d3e 864d 513e 864c 6b3e 69e0 c7bd
00000070: ad8c 82be 5204 bebd 2348 94be be06 853d
00000080: f2db 003f 838e 92bd 5dac 953b 480e c73e
00000090: a917 94be 140f 8abd d5c7 9b3e 0245 903e
000000a0: ae21 0c3e c160 66be b57f c73d 133b 5fbe
000000b0: 1f67 b2be 7b8b d1be 5e13 ef3e 3150 853e
000000c0: 8127 dd3d f71e ac3b ff8d 403e b79b 95be
000000d0: 0109 4a3e e3b2 4ebe 800d e0bd e9a5 82bd
000000e0: 6342 87bd d8c0 bcbe 378f 2e3e 3832 653d
000000f0: 3800 b33e c11e 8c3e c950 f23d b188 3d3e
00000100: dad7 a13c 32db d33d c340 99be 77e6 9ebd
00000110: 783b a5bc 2cb2 283f 9bec d9be 5df8 2a3b
00000120: f4f4 a8bd 44f4 fb3d 3eaa 193e 6e1d e4be
00000130: f12e 03bf 266f 963e eb04 373b ccc3 d1be
00000140: 3f29 32be 34a4 1c3e 0e74 63be d622 a0be
00000150: bd3d 3dbe ee77 82be 90ad 11bc dd4d 6a3d
00000160: 3cc6 a33d b3aa 8cbe 7fbf 97be b517 f2be
00000170: 5840 4a3b ddf1 fe3d 0e1f 253e 9048 f43d
00000180: badf 073d d92a 4fbe aa4f a2bd 3028 6fbe
00000190: fc11 ea3c 080a 70be 5966 a6be 746e c73d
000001a0: 4a0f 2b3e ea76 c13c 885d a23d 30e2 253e
000001b0: 75f6 0f3d 9313 fcbe f5a5 9dbe 4607 2e3d
000001c0: eb70 9abe fb27 a3bd 59bf 1c3e 1c7e 46bd
000001d0: cbb6 893d f214 923d 9779 88be 55b6 443e
000001e0: b0ed b9bc 39b3 143e 9403 84bd a909 813e
000001f0: cea9 11bc f29a 933e 7ddd 6d3e 767d 813e
00000200: 66bb 2c3e 7382 ba3c 0de5 0dbe 8a52 bdbd
00000210: aa47 7abe 3d42 82be 243e 8b3e 3ef0 b43d
00000220: 7c81 193e 5d89 a23d 9039 bf3d 9a3b 9ebe
00000230: f8ad 6bbe abe6 a23e 5b2c db3d 4179 5d3e
00000240: 2514 7fbe 15e2 3d3e 8b83 78be 1099 863c
00000250: 1ec3 553e e30c 42be 33ed e3be a008 fe3d
00000260: c680 b53e 6859 9a3e eff7 adbe c9ac b4bd
00000270: 8019 96be fe8a 9dbe 2d0a 6abc c4f8 013f
00000280: 79dd 61be 0090 d83d b43d a33e c9d4 18bd
00000290: e37a 863e 1868 843e 4592 533e cb55 31be
000002a0: 739d f6be 0670 36be 423e 2cbe c09c d03e
000002b0: 7d0b 1e3e 6d7f 343e 5b05 43be cefd b7be
000002c0: c549 c53e 807d be3d 915d d6be 0735 aebd
000002d0: bb8d 42bd 3760 b03c bc2f 903e a2ec 5b3e
000002e0: 549f 80be e8b7 3c3c 3793 c2be 4286 533e
000002f0: cfba d93d 9d17 153e b3f2 793e e0a9 c73d
00000300: ed01 cebe 004e ecbd 01fd 93be e0ec 233e
00000310: 8f58 c93d b6df eb3e e316 87be 4111 c1be
00000320: 17fd dfbd 52b0 95bc e62e 1d3e d63d c13e
00000330: 092f 093f 8bda 083b be4e 5c3d b234 40bd
00000340: 5e4a 90be 02b1 de3d e87a 6fbe 26f5 b73b
00000350: 9800 7a3e 32ef db3e 0f2c 07bf 048a 963e
00000360: 3b5d a8be a29d 86be 3857 d53d 883d 3ebc
00000370: 8424 8abe bd19 903c abf4 14bf 5bcc f53d
00000380: 9336 6c3e c7cc ac3d b381 4fbe 434f 263c
00000390: 0272 44be f229 a4be 5054 1c3e 96a9 2dbe
000003a0: 50da 27bf 4807 66be 5d49 52be 096a 59be
000003b0: 77b1 e5bc 1907 21be 0b5d a93e 68bc 83be
000003c0: bdbc b6be 6878 ff3d 2123 96be 34a7 733e
000003d0: 1ccb 483e a297 2cbe 7972 03be 216c 5a3e
000003e0: 429c 8abe 597f 073e bd40 45be 78f3 5dbd
000003f0: 917f d1bd 19a7 bebe f6f5 1a3e 1307 2ebd
-0.10743808 -0.06823918 0.06918366 0.0723653 -0.38593903 0.36094984 0.1884251 -0.20707843
0.18189037 0.2109578 -0.038476977 0.22526577 -0.04967807 -0.39887893 -0.0071211834 0.30701602
-0.25437197 0.19302334 0.14044534 -0.23947541 -0.036442738 0.19732255 -0.25216982 0.24655226
0.15379174 0.20439729 0.2297841 -0.097596 -0.25497952 -0.09278168 -0.28961286 0.064954266
0.5033561 -0.07156088 0.0045676664 0.38878083 -0.289243 -0.06741157 0.30425897 0.2817765
0.13684723 -0.22497846 0.09741155 -0.21799879 -0.348443 -0.40926728 0.46694463 0.26037744
0.107985504 0.0052527147 0.18804167 -0.29220363 0.19729997 -0.20185427 -0.10940075 -0.06379301
-0.06604459 -0.36865878 0.1704682 0.055956095 0.34961104 0.27367213 0.11831815 0.18509175
0.019756246 0.103445426 -0.29932222 -0.077588014 -0.020169958 0.6589687 -0.42563328 0.0026087977
-0.08249846 0.12302449 0.15006348 -0.44553703 -0.512435 0.29381675 0.0027926515 -0.40969694
-0.17398547 0.15297014 -0.2221224 -0.31276578 -0.18480583 -0.25482124 -0.008891478 0.057203162
0.079967946 -0.27473983 -0.29638287 -0.47283712 0.0030861106 0.124484755 0.16125128 0.11927903
0.033172347 -0.20231189 -0.07925351 -0.23355174 0.028573029 -0.23441327 -0.3249996 0.09737864
0.16705051 0.023616273 0.07927996 0.16199565 0.03514715 -0.49233684 -0.30790678 0.042487405
-0.30164275 -0.0796661 0.15307368 -0.04846011 0.06724318 0.07132901 -0.26655266 0.19210179
-0.022696346 0.14521493 -0.06445995 0.25202683 -0.008890582 0.2882915 0.23229022 0.25291032
0.16868362 0.022767281 -0.13856907 -0.09244259 -0.244414 -0.2544116 0.27195847 0.08834885
0.149908 0.07936356 0.09337151 -0.30904847 -0.23015583 0.3181661 0.107018195 0.21628286
-0.24910028 0.18543275 -0.2426893 0.016430408 0.20875213 -0.18950228 -0.44516906 0.12403989
0.3544981 0.30146337 -0.3397822 -0.08822019 -0.2931633 -0.30770105 -0.014284653 0.5077021
-0.22057141 0.10574341 0.31883013 -0.037312303 0.2626563 0.25860667 0.20661266 -0.17317884
-0.48167 -0.17816171 -0.16820624 0.4074459 0.1543407 0.17626734 -0.19045012 -0.35935825
0.38532844 0.09301281 -0.4186826 -0.08506208 -0.047498446 0.021530254 0.28161418 0.21476987
-0.25121558 0.011518456 -0.3800294 0.20656684 0.10631334 0.14559789 0.24408989 0.09749198
-0.40235844 -0.11538315 -0.28903964 0.1600833 0.09831344 0.46069115 -0.2638465 -0.37708476
-0.10936945 -0.018272553 0.15349922 0.3774249 0.53587395 0.0020882215 0.053786032 -0.046925254
-0.28181738 0.10873605 -0.23386729 0.005613941 0.24414289 0.4295593 -0.52801603 0.29402173
-0.3288363 -0.2629214 0.10417026 -0.01161135 -0.26980984 0.017590398 -0.58185834 0.12001868
0.23067693 0.08437496 -0.2026432 0.010150733 -0.19184116 -0.32063252 0.15266538 -0.16959223
-0.65567493 -0.22463715 -0.20535798 -0.21231855 -0.028038723 -0.15725364 0.330788 -0.2572968
-0.3569087 0.124741375 -0.29323676 0.23794252 0.1960873 -0.16854718 -0.12836637 0.2133031
-0.2707234 0.13232173 -0.19262977 -0.054187268 -0.102294095 -0.3723686 0.15132889 -0.042487215

raise_dim.0.attention3.1.bias f4 [32]
00000000: 8e41 edbc f3a6 45bd c5a0 a2be 6719 92bd
00000010: af46 493c f7af 80bc 194e 4cbe 486c b83c
00000020: ff36 9a3d ebc2 9e3d 5621 f13d 399c b0bb
00000030: e29d 843d fa2f 0abe c856 80bd 4df4 2dbe
00000040: b854 0cbd c267 163e 63c4 413d 0423 10bd
00000050: 0836 b7bd 59c7 01be 6a90 bab9 91b6 3fbc
00000060: 5f26 a03d dc6d 033e 5b59 1e3e a27a 1abd
00000070: 8ba5 3b3d 9228 c9bc ffec d8bd c8e9 21be
-0.028961923 -0.04825492 -0.31763282 -0.07133751 0.012284919 -0.015708907 -0.19951667 0.02251257
0.07530021 0.077520214 0.117739365 -0.005389717 0.06475426 -0.13494864 -0.06266552 -0.16987725
-0.03426048 0.14688018 0.04730643 -0.035189644 -0.089458525 -0.12673701 -0.0003558428 -0.011701242
0.07819819 0.12834877 0.15463774 -0.037714608 0.04581217 -0.024555478 -0.105920784 -0.15811837

raise_dim.0.attention3.3.weight f4 [32, 32, 1, 1]
00000000: 39b2 efbd e03a 64be 36c9 623e 54c9 c1bd
00000010: cd7a d1bc 697e 31be 83d9 a6bd b6c5 adbf
00000020: 78ac 203d c9e4 843d 74f2 95be 8e6d 04be
00000030: 49c5 92bd 37d2 8fbe 3075 ea3d c07e d2bd
00000040: 3e7f 473d 39dc e23b 4caf 2b3d b5be 11bd
00000050: ec39 bb3e 13c9 7dbd b3d2 98be 1afb 9dbe
00000060: d254 8e3e 6403 203e 4e78 863c 6160 cfbd
00000070: c2db 133f 03db d13d 16b5 753e 2f09 9d3e
00000080: 1bf0 0bbd 9d5f 1c3d bace 833d 1fce 94be
00000090: e7ed e33d 0db5 cbbd 04e7 fcbc bf8c 56bf
000000a0: 81a3 bebb bc9a c4bc 6b79 8b3d 5441 dd3d
000000b0: 8494 fb3d dcc8 09be 13e6 cc3d 6bff af3d
000000c0: 3898 453e 1636 76bc 11c8 73bd 6c63 1f3d
000000d0: 7c0a 2b3d dc87 dabc fb23 ff3d 21a2 9fbc
000000e0: 7eef 713e f454 b0be 8546 de3e 9ca5 31bc
000000f0: 8a1a f63e 47fb 98bd 9b5f 463e 5b20 d4bd
00000100: c146 d53d e804 a4bd c8f9 ecbd ee31 213e
00000110: 22c7 6fbf 1df6 443f 032d 2fbd 38ee 8fbe
00000120: d180 8c3d adf5 d8bd 5668 543e dc12 1a3e
00000130: 3524 abbd 4118 1abf 7b8b 3ebe 9b46 abbd
00000140: 99aa b0bd 0355 b9be 1b66 3cbe 0da3 2cbc
00000150: 8144 92bc 68c2 053c 9a1e 523c a0e9 533d
00000160: 2120 d8be e94a 94be ef64 4d3c c4dd 96be
00000170: 09a9 483e 983f cc3c fdb5 52be 36ff 9f3d
00000180: 0ed3 a0bd 9a7e 963d d59e c93c da59 88bd
00000190: 94de 643d cca3 d3bc 4ae6 57bd fe6f c33d
000001a0: 2e7b 26be 9a9b 10bd a68d 03bd 796a 49bd
000001b0: 1ef0 6fbd 4fa6 8cbd f52e 1c3d 022a 703d
000001c0: c25a b13d 187b e0ba c4ab aebc c5d1 0dbd
000001d0: 22de 033e 948a 323d 1159 49bd 0b16 183e
000001e0: 1e7c 04be 939a bbbc 70e8 c0bc 825a aa3d
000001f0: 4708 04be 5330 b13d d070 cb3a b4fa 92bd
00000200: 4cd5 783b bc31 8c3e afb7 343e 6b2f de3c
00000210: 67c3 f9bd c220 0bbe 2434 873e 141d 513c
00000220: 553e a33d 9fbc c0bb c07b 0dbe 7398 14bd
00000230: 8de4 d1bc 47a0 5f3c 7443 763e f2f4 223e
00000240: 6e77 093e c4ec d3ba 02b1 8b3d 7b14 54bd
00000250: 47cf 2d3e 8a43 5c3d 06ef d4bd e0ef e13c
00000260: 6ea0 e23d 829f 633d db7f db3d a00e f63d
00000270: 046e 0bbe 8720 0cbd 3034 323d d371 dd3d
00000280: fe3a 943c 46f6 60bd 8816 22bc 6ede a83c
00000290: b034 39bf 3847 03be 1d6f 293d 45f2 c1be
000002a0: f0fd 413e 1c8e dabd 719e 54be 99e6 373e
000002b0: 5e57 223d 37e9 68be 446d 2bbe 2a47 a7bd
000002c0: c03e fbbc 8566 36be 3238 4bbc 3492 783d
000002d0: fe2e 323e 4963 84bb da10 26be e1b8 73bd
000002e0: 489b 293d 2e5c 9cbe 7cd1 24bf b33f 073e
000002f0: 810e b8bb aeea 3f3e c616 adbd 4f0e 9d3d
00000300: 4aab b93d e8d0 60be 3ea4 5e3d 6be6 9e3e
00000310: 08d1 483b 4b9a 3fbe dbff 033e 3892 433e
00000320: c9d5 33be 5362 7abe 6381 083e 5899 d2bd
00000330: c11c 9cbd fe91 0dbe ab78 3ebe eedc 5b3c
00000340: 890d dabd dbc3 88bc 5b1d 233e 4b76 063d
00000350: 11cc 0b3d e4de acbe 70ad bb3d ded5 e23c
00000360: 3aaf 8bbd 3386 e2be d274 1cbe e630 b1bd
00000370: d12a 9bbe 780b 4fbe 909f b9bd 2e3c e93e
00000380: ec41 763d f3c1 143e 3cd1 92be d126 87be
00000390: 1b46 99be d48c 703d 22a3 e6bd 9c62 8abd
000003a0: fd4e 52be 2fab 04bd 8536 0e3e 2363 10be
000003b0: 302b 4e3d f454 a9be 5cdf a5bb 340e 5ebe
000003c0: 53f1 15be 7a04 803d dc60 e03c 07f3 8f3d
000003d0: 6517 ef3d 38b5 4f3e 995d 6abe 1742 8cbd
000003e0: 987d ce3d 21f9 4bbf c3d5 10be b949 083d
000003f0: 1bd5 8b3d 9629 d63d 13c9 883c 03f2 ae3e
-0.11703915 -0.22288084 0.22147068 -0.094622284 -0.025571251 -0.17333378 -0.08146956 -1.3575962
0.03922698 0.0648895 -0.2928654 -0.12932417 -0.071665354 -0.2809007 0.11448133 -0.10278082
0.048705332 0.0069232252 0.041915223 -0.035582263 0.36567628 -0.061959337 -0.2984825 -0.30855638
0.27799088 0.15626293 0.016414788 -0.10125805 0.577572 0.10246851 0.2399486 0.3067107
-0.03416453 0.03817712 0.06435914 -0.29063508 0.11129361 -0.09946642 -0.030871876 -0.8380851
-0.005817831 -0.023999564 0.06810268 0.10803476 0.122841865 -0.13455528 0.10004821 0.08593639
0.19296348 -0.0150275435 -0.05951697 0.038913175 0.041758046 -0.02667611 0.124580346 -0.019486489
0.23626515 -0.34439814 0.43413177 -0.010842707 0.48067123 -0.07469802 0.19372408 -0.10357734
0.10413886 -0.08008748 -0.115710795 0.15741703 -0.9366323 0.7693804 -0.042767536 -0.28111434
0.06860507 -0.10593734 0.20742926 0.15046257 -0.08356515 -0.6019326 -0.18607895 -0.08363076
-0.08626289 -0.3619767 -0.18398325 -0.010536921 -0.01785493 0.008164026 0.012824679 0.051736474
-0.42212012 -0.28963402 0.0125362715 -0.2946607 0.19595732 0.024932668 -0.20577236 0.078123495
-0.078527555 0.07348366 0.02461187 -0.06657763 0.05587633 -0.02583494 -0.052709855 0.09542845
-0.16257927 -0.035304643 -0.03211751 -0.049173806 -0.058578603 -0.06867658 0.03813072 0.05863381
0.08659889 -0.0017126529 -0.021322139 -0.03462388 0.12877706 0.04358919 -0.049157206 0.14852159
-0.12937972 -0.022900855 -0.023548335 0.08318044 -0.12893783 0.08651795 0.0015521292 -0.07176724
0.0037968932 0.27381694 0.17648195 0.02712222 -0.12195473 -0.13586715 0.26406968 0.01276328
0.07970873 -0.0058818604 -0.13816738 -0.0362782 -0.025621677 0.013649053 0.24049169 0.15913752
0.13424465 -0.0016168584 0.06820871 -0.051777344 0.16973601 0.053775348 -0.103971526 0.027580202
0.11065756 0.05557204 0.10717746 0.12014508 -0.13616186 -0.034210708 0.0435068 0.10812726
0.018094536 -0.054922365 -0.009893067 0.020613875 -0.7234602 -0.12820137 0.04136573 -0.3788015
0.18944526 -0.106716365 -0.20763566 0.1795906 0.0396341 -0.22745214 -0.167409 -0.0816787
-0.03066957 -0.17812546 -0.012403535 0.060686305 0.17400739 -0.004040156 -0.16217366 -0.059502486
0.041407853 -0.30539078 -0.6438215 0.13207893 -0.0056169634 0.18741867 -0.08451609 0.07668745
0.09065874 -0.21954691 0.054355852 0.3103517 0.003064217 -0.18711202 0.1289057 0.19098747
-0.17562021 -0.2445157 0.13330607 -0.10283154 -0.07622672 -0.13825223 -0.18600719 0.013419373
-0.10647113 -0.016694954 0.15929167 0.032827657 0.03413016 -0.33763802 0.0916394 0.02768987
-0.06820531 -0.4424301 -0.15278938 -0.08651905 -0.30306104 -0.20219219 -0.09063637 0.45553726
0.06012146 0.14527111 -0.28675258 -0.26396802 -0.299363 0.058728054 -0.11261584 -0.067570895
-0.20537944 -0.032389816 0.13887985 -0.14100318 0.050334156 -0.33072627 -0.005062027 -0.21685106
-0.14642839 0.06250854 0.027389936 0.07028776 0.11674384 0.20283973 -0.22887267 -0.06848543
0.10082549 -0.79677016 -0.14144044 0.033273432 0.06827756 0.10457151 0.016697442 0.34169015

raise_dim.0.attention3.3.bias f4 [32]
00000000: 1a33 fdbd 08d6 d1bd 9d97 4d3d b602 0c3e
00000010: 09e0 553c e4d7 fabd 46db e8bd 7336 633d
00000020: de92 32be 6c73 f5bd 3ff6 363e b952 713d
00000030: 4f7e 573d cb29 fe3a 7918 56bd 3e80 d83d
00000040: 3e18 d33c 2cd4 58be a807 c2bb fd80 ef3d
00000050: edec 02bd 4270 613b e3fb acbc 05ff 753c
00000060: 8c18 bbbd cb4f a83d 8cac 933d 9e8a cbbd
00000070: 495b 1fbe 3d1a f2bc fb08 aabd fbc2 dd3d
-0.123632625 -0.10245901 0.050193418 0.13672909 0.013053902 -0.12248209 -0.11369948 0.05547185
-0.17438838 -0.119849056 0.17867373 0.05891678 0.05261069 0.0019391117 -0.052269433 0.10571335
0.025768396 -0.21174687 -0.005921323 0.116945244 -0.03196423 0.0034399186 -0.021116203 0.015014415
-0.09135541 0.08218344 0.07210645 -0.099385485 -0.15562166 -0.029553527 -0.08302494 0.10828205

layers.0.conv1.weight f4 [32, 32, 3, 3]
00000000: fa85 8d3e 2ad2 c9bd e4e6 99be 0116 90be
00000010: 06bc 12be 757a 81be 2564 c6bd 65f8 603d
00000020: dd14 b03d 90fa 303e 55e9 b23e ede7 ae3e
00000030: b21c 813e 6884 3dbe dd44 af3d a02f 383d
00000040: 10f4 37be f5fe e63b 43b6 b83f ef49 5f3f
00000050: b85e b1bd de12 013f cbdd a8be e808 83bf
00000060: b9cd 933e d2f6 0fbf 29fe aabd ce56 8d3e
00000070: 07a3 433e 0583 cd3e 8ae6 19be 026b 063e
00000080: eb8b 063f 4640 15be 4231 023b c957 ee3e
00000090: 36d3 3bbf b844 5fbf 44ec c73b 3a1c 12be
000000a0: 2a4b a73e c40f 05be df6f 01bd 96b9 9a3e
000000b0: 4bff 00be dffa bcbd cf0a 03be cf58 9dbe
000000c0: cff8 1f3e 8546 90bd bd5f 4abe 3e00 573e
000000d0: 403b 073e 408a 33be 8a4a a43d e982 f23d
000000e0: 64ac db3d 56b4 d8bd b696 6e3e a10f 1bbd
000000f0: e1d3 95bd 7a0e ab3d b580 59bc 33b1 c83d
00000100: a35a 113e ea21 153d 790c 983d 1cc5 763e
00000110: 0ee8 edbd 298d 5e3b 76bd 1a3d b9ab b33d
00000120: b7a9 bc3d d44b 5c3d f282 123d 04e6 093e
00000130: 817b b93d 68d0 07be 4df9 c5b9 2645 febc
00000140: a0b3 c2bd cdb5 afbd 5b05 f13d 5548 483e
00000150: 95b3 28bc c025 7ebd 3bff 9cbd 2d3e 03bd
00000160: 8cb0 4b3d 3de6 83bd c1e9 6ebd 5970 40be
00000170: b5de c3be 19c1 9cbe 81a1 a8be 8d33 81bd
00000180: dffa cb3d d3f9 9a3c 7724 b13d f9d5 2ebd
00000190: 3df2 3ebe f214 ce3d 7106 76be 70e2 85be
000001a0: 69ad fabd eb0e 84be f473 0ebe c248 1bbe
000001b0: ac7d 9a3b f971 a9be b204 b2be 8130 66be
000001c0: 14f1 80bd e6f2 373e 213c 09be 7795 9dbd
000001d0: 5e10 203e 8a89 513d 3786 c73d 41b0 4f3d
000001e0: 5177 833d 92c5 3cbd 9e02 9abc 1ebc 6f3c
000001f0: e8b7 b9bc 30ae f3bd 68a1 4abe 2d69 a7be
00000200: b387 49be f9f5 98be 66eb 16bb 8fe0 43be
00000210: 402e b1be 9d6b bfbd 8754 63be df0f b33d
00000220: 1669 9e3d 218a c73d e3b7 5f39 3418 09bf
00000230: d5e4 29be d53d c1bd 8ea0 b4be 38b2 303e
00000240: 46ff f7bc 1e3a 48be 74cf 34be ba9f ed3d
00000250: f088 173e 9ba1 943e 781e 2cbd 8f64 3bbc
00000260: 8037 f3bb 8c77 80bb aef7 b93e bb7a 143f
00000270: 30da 50bd ce21 943e ad34 0c3d 530a 20bd
00000280: 33dc 9a3e e1eb 833e e08d 82bd 9e4f d0bc
00000290: 7129 823d 3053 a1be fb1a 463d 5635 3abd
000002a0: 23e2 1cbe 07ac 2d3d 3013 eabd 7e47 acbd
000002b0: 0dba 2c3e ebdb 0d3e fa42 043e 0792 d03e
000002c0: ee5d 32bc 11ec 943d 0986 d33e 940f 843d
000002d0: 6c76 68be 7777 b3be 42eb 0d3d 638d 4dbf
000002e0: 983b cdbe 0e58 ddbc 3e15 04bf 4a0c c3be
000002f0: 39e8 f33c 03aa cc3d 3136 3c3d ea3a 2b3e
00000300: 31d6 eabb 8184 27be 8218 c7bb c5ba acbd
00000310: 5cda a6bd 2afb 81bc 830a 6a3e 29dd a9bc
00000320: dac5 32be cb92 9abe 75db e33d d6f6 393e
00000330: 52fc 443d d08b 703e 01f6 fcbd c23b 2b3d
00000340: c5fe a53e 869d 953c 0f23 80bd d10c abbe
00000350: fe55 8fbe 31fd 003d 1fd7 94bd 3e73 943c
00000360: d972 1e3e 1f81 ccbe b667 cebe 44e8 8d3e
00000370: a7d1 683c dc63 643d 9beb 0e3e 6d62 1dbe
00000380: c8e0 123e 5a97 2a3d e8c3 cfbd 0bf5 133d
00000390: 7ea6 9a3d a8f1 d1bd 9c3c 73bc 8753 853c
000003a0: c3d6 bdba b32c da3c 8a40 e1be 4611 c2be
000003b0: 7eb5 0abe fb30 b6be 4949 c9bd 3deb 5dbe
000003c0: c20e 66be 36eb dc3c 4ce1 b43d eb99 373e
000003d0: c694 ecbd ba6c 0bbf 4d32 11bf c5e7 cbbd
000003e0: 172b 9bbc 6627 5abe 0170 6c3e 492a 933e
000003f0: 4b04 803e 6dac 273f 228e 443d 4bf6 d23d
0.27641279 -0.09854539 -0.30058968 -0.28141788 -0.14329538 -0.2528874 -0.0968707 0.054924387
0.08597729 0.17283082 0.34943643 0.3416132 0.25217205 -0.1850754 0.085580565 0.044967294
-0.17964196 0.007049436 1.4430622 0.8722219 -0.08660644 0.50419414 -0.32981715 -1.0237093
0.2886789 -0.5623599 -0.083492585 0.2760529 0.19105159 0.40139022 -0.1502935 0.13126758
0.5255725 -0.145753 0.0019865786 0.4655135 -0.7336916 -0.8721423 0.006101163 -0.1426858
0.32674533 -0.12994295 -0.03160083 0.30219716 -0.12597387 -0.09227537 -0.12797092 -0.30731818
0.15622257 -0.070447005 -0.19763084 0.20996186 0.13206196 -0.17533207 0.0802203 0.118413754
0.1072624 -0.10581271 0.23299679 -0.0378567 -0.07315803 0.083523706 -0.013275315 0.09799423
0.14194731 0.036409296 0.07424254 0.24098629 -0.116165265 0.003395865 0.03777834 0.08772988
0.09212058 0.053783253 0.03576941 0.1346665 0.090567596 -0.13263094 -0.00037760512 -0.031038832
-0.09506917 -0.085795976 0.117685996 0.19558842 -0.010296722 -0.06204772 -0.07665869 -0.032041717
0.049728915 -0.06440399 -0.058328394 -0.18792857 -0.3825585 -0.30616072 -0.32935718 -0.06308661
0.09959959 0.018917954 0.08649533 -0.04268453 -0.18647094 0.10062589 -0.24025895 -0.2614932
-0.122401066 -0.25792632 -0.1391142 -0.15164474 0.0047146883 -0.33094767 -0.34769207 -0.2247944
-0.06295982 0.17963752 -0.13401844 -0.07694524 0.15631244 0.051156558 0.09742396 0.0507052
0.06419242 -0.046086855 -0.018800076 0.014632253 -0.022670701 -0.11898458 -0.19788134 -0.3269743
-0.19680671 -0.29875162 -0.0023028492 -0.19128631 -0.34605598 -0.093466975 -0.22200213 0.087432615
0.07734887 0.09743143 0.0002133544 -0.53552556 -0.16591199 -0.09435622 -0.35278744 0.17255485
-0.030273091 -0.1955342 -0.17657262 0.11602731 0.14798331 0.29029545 -0.042021245 -0.011437549
-0.0074223876 -0.003920501 0.36321777 0.5799977 -0.05098933 0.2893204 0.034229923 -0.039072346
0.30246124 0.257659 -0.06374717 -0.02542859 0.063555606 -0.3150878 0.048365574 -0.04546102
-0.1532064 0.042400386 -0.11429441 -0.084120736 0.16867848 0.13853423 0.12916175 0.4073641
-0.010886652 0.072715886 0.41313198 0.06448284 -0.22701424 -0.35052082 0.034648187 -0.80293864
-0.4008453 -0.027019527 -0.51594913 -0.38095313 0.029773818 0.09993365 0.04595012 0.16721693
-0.007166647 -0.1635914 -0.0060759196 -0.08434061 -0.081471175 -0.015866835 0.22855572 -0.02073534
-0.17458287 -0.3019012 0.111258425 0.18160567 0.048092194 0.23490834 -0.12351609 0.041805036
0.32420936 0.01826359 -0.06256687 -0.33408216 -0.27995294 0.031491462 -0.072675936 0.018121358
0.15473498 -0.39942262 -0.403135 0.27716267 0.014210141 0.055759296 0.13957064 -0.15369578
0.1434356 0.041648246 -0.10144788 0.036122363 0.07551287 -0.102511704 -0.014845993 0.01627518
-0.001448356 0.026632642 -0.43994552 -0.37903804 -0.13545796 -0.35584244 -0.09828431 -0.21671768
-0.22466567 0.026967626 0.088320345 0.17929809 -0.11551814 -0.5446278 -0.5671738 -0.09956316
-0.018941445 -0.21304092 0.23089601 0.287432 0.25003275 0.65497476 0.04798711 0.10300883

layers.0.conv1.attention1.0.weight f4 [9, 32, 3, 3]
00000000: d041 e33e 31c5 b63e 5026 5e3e e733 d33e
00000010: 4315 493d 928b 9b3e 5f83 243e 0e05 8ebd
00000020: 2d7e 893c 8d79 fc3c 8890 543d b3b8 d23c
00000030: c6fc 343d 5bf3 06bc a2b0 b23d 60e0 d13c
00000040: 5af1 63bc dcf6 70bd df8d 283d ffa9 8abd
00000050: 1193 113e a870 093e 69b7 0d3c 442f be3e
00000060: 2d17 3e3d a943 8ebe be50 863d 68d3 913e
00000070: ec32 b6be 6014 e23e d2e3 e9be c198 c13e
00000080: f978 36be 4094 4ebe 98f2 f4be 184f eb3d
00000090: 07be 7ebe b060 7dbc b3e8 31bd 83f0 f7be
000000a0: 7281 64be 0edb 26bd ea25 45be 88e1 1abe
000000b0: d513 193d 9827 fa3d 2353 f93c 93c2 8e3d
000000c0: e97b 4d3d 4287 e1bc 5b16 7f3c c803 2fbe
000000d0: 4fe1 44bb 0c76 4e3d 5667 ff3c 8589 543d
000000e0: e348 f43c 89f4 9d3d a507 c5bb 609b a5bc
000000f0: 7b13 cfbc b6c1 26bc 8057 973d 2d8e 8d3d
00000100: 45b5 01bd dc12 00bc 8d48 223c ba75 03bd
00000110: 5a25 b5bb d990 a2bc 65a5 3c3c 0428 2d3d
00000120: b9bf e7bd b0d4 7d3c 04a9 443d 8288 fcbd
00000130: c538 a0bd 9cd9 40bd 7eee 58bd c132 8b3d
00000140: 4101 1c3e 77be f83b 957c e93d 95e5 33bc
00000150: 7a87 8d3e a0fe edbd a341 a8bc 14c6 373d
00000160: bf8c 043f 508e d73e 5054 04be 3cce 83bd
00000170: 6c1b 2fbe f248 1ebe 7f69 65be 8cb9 d5bd
00000180: d48d 8bbd 97ed 00be 02f6 bebd e760 633d
00000190: 6083 9f3b 5586 54bc ffa4 8d3d 8ede 103b
000001a0: fb85 5e3c 03c3 a7bd 7c49 b13b 325c a2bd
000001b0: f9d4 83be 638a 09be 29a4 19be dedb 2fbe
000001c0: 1aff 81be 256f 95be 99c8 a3be d049 78be
000001d0: 4903 9dbe cb9a a33c 26ec c0bc 5850 7b3d
000001e0: 5de9 813d f87f 813c 21fb 153d 4dda 043d
000001f0: 3044 43bc fd61 f2bc 8ce4 813e 1c5b 283c
00000200: 629a f4bd 2bb3 5a3e e59f 01bf 7aec 6b3e
00000210: 0e84 b23d 3407 593d 9d5b 2d3e 2b1c 8ebe
00000220: 4d20 eebd 825e d6bd 88d0 af3d 746e 31bd
00000230: 15eb a9be 65ba 5b3b 97eb 8bbd d24f 9bbe
00000240: 0def 583e f740 6d3e 4215 dc3b c754 8fbd
00000250: 1070 e1bd ad66 e1bd 9995 2d3c 96d2 b03d
00000260: e873 413d f861 0d3d b650 6f3c a588 9f3b
00000270: fb54 933d 66e6 ae3d 2a3c 5f3d c7b3 92bb
00000280: e896 433d ac34 803d 54ed 8dbd df36 c1bd
00000290: 60b0 8ebd 6ab4 2cbe 9548 e0be 4cc3 d8bd
000002a0: f000 edbd 47b7 c3bd 8b0d fcbc a0e0 b03d
000002b0: a107 e93e 0743 a33e d1e3 54bd 40c0 5f3e
000002c0: 8ab9 583e a8ee a23a 2869 d63d c98e 493e
000002d0: 0d37 91bc 455e 8dbc 4924 583d e56c c53d
000002e0: 6ddc e23c 82c9 833c 7120 88bc 8daf 9b3d
000002f0: 43be e13d f0d5 803c 099a c23d 568f c33d
00000300: c750 da3d 6fc6 003e b5c0 bf3c 4574 1bbc
00000310: 7cde 633d 1032 ee3d e3e4 7c3e 435f 0b3e
00000320: d1f9 8b3d 45c4 b13d 3c7e 24be e11a a53e
00000330: 709f 943d 2fca a73d d4c8 243e 8352 6a3d
00000340: 5714 123d 909d 86bd 129b be3b cdf7 8d3c
00000350: 5de0 3e3d 9800 243d d75b 9bbd 3c7d ed3c
00000360: fd10 b13d a256 d3be 1108 b93c d35c a13d
00000370: abea 9b3e bf8d 533e 5405 08be 7b3a 78be
00000380: 45bf 95bd 2a3d fa3d 6be4 593c 0973 803d
00000390: 3fcb 503d 23ae ccbc 5584 8dbb dfa9 e43d
000003a0: 1575 ef3b e4af 723b 5252 213e 2aa5 aebd
000003b0: 3ec9 8abd 8e0c 883d ccaf 6fbe 241c 49bd
000003c0: aebb 11be 0c65 f2bd 6464 f83c c5d3 bb3c
000003d0: 0a6a 9cbc 771c fabd 067f 413e 58cd 0bbc
000003e0: 031a 0b3d 4a67 ccbd 0731 833d 89c5 32bb
000003f0: 6a32 593c 3c56 eebb 3ae9 233d 8d5c 843c
0.44386148 0.3569732 0.21694303 0.41250536 0.049092542 0.3037992 0.16065739 -0.06934558
0.016783798 0.030819679 0.05189565 0.025722837 0.044186376 -0.008236731 0.08725096 0.025619686
-0.013912523 -0.058829173 0.041150924 -0.067707054 0.14216258 0.13421881 0.008649685 0.37145436
0.04640882 -0.27785996 0.06558369 0.28481603 -0.35585725 0.4415617 -0.45681626 0.37811854
-0.17819585 -0.2017374 -0.47841334 0.11489695 -0.24877177 -0.015464947 -0.04343481 -0.48425683
-0.22315004 -0.04073625 -0.19252744 -0.15125096 0.03737243 0.12214583 0.03043515 0.06970706
0.050166998 -0.027530316 0.015569295 -0.17091286 -0.003004152 0.050405547 0.031177204 0.05188896
0.029819911 0.07712657 -0.006012874 -0.02021569 -0.025277844 -0.01017802 0.07389736 0.069118835
-0.031667013 -0.007816996 0.009904993 -0.032094695 -0.0055281343 -0.01984446 0.0115140425 0.04227449
-0.11315865 0.015492603 0.04801275 -0.12330724 -0.07823328 -0.04708253 -0.05296182 0.0679679
0.15234853 0.0075910646 0.11400715 -0.01098003 0.27642423 -0.116208315 -0.02053911 0.044866636
0.5177726 0.42100763 -0.12922788 -0.064358205 -0.17100304 -0.15457514 -0.22403525 -0.10435781
-0.06814161 -0.12590633 -0.09324266 0.055512335 0.004867956 -0.01297148 0.06916236 0.002210531
0.013581748 -0.081914924 0.0054103713 -0.07927741 -0.25748423 -0.13431697 -0.15004028 -0.17173716
-0.2538994 -0.2918636 -0.3198898 -0.24246907 -0.3066657 0.019971272 -0.023550104 0.06135592
0.06343339 0.01580809 0.03661645 0.03243475 -0.011918113 -0.02958774 0.2536968 0.010275628
-0.11943509 0.2135741 -0.50634605 0.23039427 0.08716594 0.052985385 0.16929479 -0.27755865
-0.11627255 -0.10467245 0.08584696 -0.043318227 -0.33187166 0.0033527848 -0.068320446 -0.30334336
0.2118494 0.23169313 0.0067164013 -0.06998592 -0.11007702 -0.11005912 0.010594749 0.08633916
0.047229677 0.03451726 0.014606645 0.004868584 0.07193943 0.08540039 0.054500736 -0.0044769975
0.047751337 0.06260046 -0.06930032 -0.09434294 -0.069672346 -0.16865698 -0.43805376 -0.10584125
-0.115724444 -0.09556442 -0.030768177 0.08636594 0.45513633 0.31887075 -0.051975075 0.21850681
0.21164528 0.0012430744 0.10469276 0.19683374 -0.017726446 -0.017256865 0.05276898 0.096399106
0.027692998 0.016087297 -0.016617032 0.07601843 0.11022618 0.015727013 0.09502036 0.095488235
0.10659938 0.12575696 0.02340732 -0.00948817 0.0556321 0.116306424 0.24696688 0.13610558
0.06834758 0.086800136 -0.1606378 0.3224707 0.07256973 0.0819286 0.16092235 0.057207596
0.03566393 -0.065730214 0.0058168257 0.017330075 0.04660069 0.04003963 -0.075858764 0.02899038
0.086458184 -0.41277033 0.022586854 0.07879033 0.30452475 0.2065954 -0.13283283 -0.24241059
-0.073118724 0.12218697 0.013299088 0.06271941 0.05097508 -0.024985379 -0.0043187537 0.11165213
0.0073076584 0.0037031109 0.15754059 -0.08527596 -0.06776665 0.066430196 -0.23406905 -0.049099103
-0.1423175 -0.118356794 0.030321307 0.022928128 -0.019093532 -0.122124605 0.18896112 -0.0085328445
0.033960354 -0.09980638 0.064058356 -0.0027278385 0.013256649 -0.0072734635 0.040017344 0.016157413

layers.0.conv1.attention1.0.bias f4 [9]
00000000: 790f 89be 437e 11bb 82e9 a33d d3eb b43e
00000010: 0cf0 183e 8b1b 353e 9af7 723e ed0f 32be
00000020: 686b 93bd
-0.26769617 -0.0022200502 0.080035225 0.3533617 0.1493532 0.17686288 0.23727265 -0.17388888
-0.071982205

layers.0.conv1.attention1.2.weight f4 [9, 9, 1, 1]
00000000: 4175 b5bd 6712 d4bc f4fb a1bd 225f 56be
00000010: b596 563d 73ea 1d3e 5f3a 44be 60c8 5b3e
00000020: 8c59 c83c a22a 99be 9771 243f 45a9 853e
00000030: 7adb bf3e c19f 2d3e 72d0 b73e 34ed 313d
00000040: b04b 03bf 148e 38bf 54da 4ebe 3f54 cfbd
00000050: 673d 7ebe 6037 98be 1579 cf3e 803e 09bd
00000060: 3161 a1be 3124 84bd 2703 433f 92dc debe
00000070: 054c c3be 9507 94bf 40b6 f23e 3c60 c63e
00000080: 8d71 90be d5c6 143e fb85 debe a945 ea3e
00000090: bccd aa3e cc42 523e 25ae 14bd 5e6f c7be
000000a0: d5c4 2d3f b7e4 a13d 64c7 0dbf dca8 6e3d
000000b0: 4e1c 47be b9b6 9bbe c51b b6be 1911 b2be
000000c0: c59f 8f3e ea62 1dbf fd77 0b3f c939 cd3e
000000d0: 6692 f43c a687 23bf 40cc a9be e873 bcbe
000000e0: 56f7 0cbe 5d1f cd3e e3d9 69be ac18 813e
000000f0: e06c fb3e f556 e4be 414b 5ebf f403 823e
00000100: 0ed8 0f3e c229 00be 62c3 f7bc 5b73 21bc
00000110: e9e7 623e 2397 efbe ac33 83be 04e4 533e
00000120: 3018 a1be c926 033e d6d8 1e3f 3873 833e
00000130: 07c4 183f 8261 88bd a321 fc3d c67d e7be
00000140: 5ea1 abbe
-0.08860255 -0.025887681 -0.07909384 -0.20934728 0.05238982 0.15421467 -0.19162892 0.21463156
0.024456762 -0.2991534 0.64235824 0.26105705 0.37472135 0.16955473 0.3590122 0.043439105
-0.51287365 -0.72091794 -0.20200473 -0.101234905 -0.2482811 -0.29729748 0.40522066 -0.03350687
-0.31519464 -0.064522155 0.76176685 -0.43527657 -0.38143936 -1.1564814 0.4740467 0.38745296
-0.28211632 0.14528973 -0.43461594 0.4575627 0.33360088 0.20533293 -0.03629889 -0.38952154
0.67878467 0.07904952 -0.5538237 0.058266506 -0.19444391 -0.30412844 -0.3556806 -0.3477867
0.28051582 -0.61479056 0.5447996 0.4008315 0.029854964 -0.6387886 -0.33163643 -0.3680718
-0.13766226 0.4006299 -0.22837023 0.25214136 0.49106503 -0.44597593 -0.8683358 0.2539364
0.14047262 -0.1251593 -0.030244533 -0.009854163 0.22158779 -0.46794996 -0.2562536 0.2069245
-0.31463766 0.12807764 0.62049615 0.25673842 0.59674114 -0.06659223 0.12311103 -0.45213145
-0.3352155

layers.0.conv1.attention1.2.bias f4 [9]
00000000: 3cdf 31bd b524 7ebe a5f3 633e 281d 3a3f
00000010: e961 1fbd 69d9 e83e 528e 203c 1883 dfbe
00000020: 2c1f 8b3e
-0.043425784 -0.2481869 0.22260912 0.7270074 -0.038911734 0.4547837 0.009799557 -0.43654704
0.2717222

layers.0.conv1.attention1.4.weight f4 [9, 9, 1, 1]
00000000: 6e19 c4bb e28b c7be d78e 943e 52b0 243f
00000010: 4ec1 763d f29b ccbe 5b46 55be 433d 0d3f
00000020: 808a a9bd 89ee bd3c 2984 b2be 1571 d9be
00000030: 4252 1dbe 6f82 993d 0d69 82be 7cbc 723e
00000040: 6e71 12bf 3bc8 01bd 1224 ee3d e294 773d
00000050: aa40 cdbd 93a1 b6be 5567 d73d 716e f9bc
00000060: 7538 4bbe 631b 073e 8271 73be 51ed 3e3d
00000070: e059 23bf 6d17 e3bd 94f8 133f f92d bb3e
00000080: f15b 073f 0dd6 893d 6beb a2be d522 5dbf
00000090: 8b59 8fbd bc2d 183f 1520 5bbf 6e97 c03f
000000a0: 8fa8 bfbf 7c33 a13f 6cc6 a53f 34dd 5dbf
000000b0: 6a88 f53e b20e 923d 5388 efbe dbce 733e
000000c0: 9d42 bf3e fa52 c6be 1ba7 0b3e 8d2c 88bd
000000d0: 0e5a a8bd 52dd acbe 0532 0f3e 2235 29bf
000000e0: c8ca 073f 2338 fcbe 1e67 81be 7fe7 d4bd
000000f0: 8139 5cbe f144 bfbe c28b b8be cae7 02be
00000100: 152a 3dbe 2ad6 abbe e4e2 b43e 170e 03bf
00000110: 40f2 843d 84e6 643e d3f4 d53d a3bb 40be
00000120: 9ea6 8c3e c1f1 16bd 3ef6 f1bd e40e 183e
00000130: 3f7b eb3e 348f e5be eec7 4cbd ef8c 6d3e
00000140: 7b0a 75be
-0.005984477 -0.3897391 0.29015228 0.64331543 0.060242943 -0.39962727 -0.2082762 0.551716
-0.0827837 0.023185031 -0.34866455 -0.42469087 -0.1536341 0.07495581 -0.25470772 0.23704714
-0.5720433 -0.031685095 0.116279736 0.06044472 -0.10022099 -0.35670146 0.10517756 -0.03044817
-0.19845755 0.13194041 -0.23773769 0.04661304 -0.63809013 -0.110884525 0.57801175 0.36558512
0.52874666 0.0673028 -0.31820235 -0.86381274 -0.06999501 0.59444785 -0.8559583 1.5046213
-1.4973315 1.2593837 1.2951179 -0.86665654 0.47955638 0.07131709 -0.46783695 0.23809378
0.3735551 -0.3873518 0.13637964 -0.066491224 -0.082203016 -0.33762604 0.13983925 -0.660967
0.53043795 -0.4926158 -0.25273985 -0.10395717 -0.21506311 -0.37357286 -0.36044127 -0.12783733
-0.18473084 -0.33561832 0.35329354 -0.51193374 0.06491518 0.2235356 0.10447087 -0.18821578
0.2747087 -0.03685165 -0.11814545 0.1484943 0.45992467 -0.44835818 -0.049995355 0.23198293
-0.23929779

layers.0.conv1.attention1.4.bias f4 [9]
00000000: 4483 afbe 94f1 843e 214f b3be 5909 693d
00000010: 1362 243f a70b 8c3d d423 4c3e e356 5aba
00000020: 5468 05bf
-0.34279835 0.2596556 -0.35021308 0.05689368 0.6421215 0.0683816 0.19935542 -0.0008328987
-0.5211232
