weights/BWNET_LAGConv_T4/model_epoch_600.pth (torch, 678374 bytes, 141 tensors)

raise_dim.0.weight f4 [32, 9, 3, 3]
00000000: eca8 df3c 8171 51be e526 023e 5539 3ebc
00000010: 4a5f 3b3e d1e1 bd3d 97e8 bf3d e6bb 003d
00000020: db2d 1fbd 2d6a 34bd ab6e 75bd 9232 ae3e
00000030: 158f 213d d876 873d 6195 4c3d 170c 2fbe
00000040: 8944 a6bd 4c64 1ebe a837 3fbd 8ec4 49be
00000050: b8a6 a83e 8c52 9a3d 1066 f1ba 928b ae3d
00000060: 8c47 b1bc b26d 153e 77d4 89be f5a3 9d3d
00000070: 4c67 5bbe fa05 b43e 0070 823d ee2b 263d
00000080: 2253 093d adf4 07bd 0a82 b43d 8b26 50be
00000090: bf3b db3d 8644 6c3c d973 d13e 147b d83d
000000a0: d64c 913d 6818 c23d 65ba 0f3e 73c0 113d
000000b0: 496d f5bd fa2c 8b3d f127 81bd 1aff 773e
000000c0: bf81 bfbc f2cb ff3b 9b8f bebd b7e2 c7bd
000000d0: c6a2 22bd 5d60 1abd 2c57 4abd d7d1 f0bd
000000e0: 12fc 983d 1791 b6be 5f04 89be efe7 a1be
000000f0: afe1 44be c00a abbe 213b 0bbf f82a e33e
00000100: 144e 3a3f 4381 473f e1ca 543e a07c a73e
00000110: 99eb 143e 8c26 0e3e 9fb4 fe3d 43c0 84bd
00000120: ca99 633e 23e8 133f 6e33 4e3f 5c50 96be
00000130: b51a 95be 2463 5ebe 69b5 02be 1aac 84be
00000140: 0374 cabd a596 c8bd 8d0a 413d 5316 4f3e
00000150: edd0 f83d 4460 3fbe 5e9f 9cbd 3270 adbc
00000160: 60df 6a3e e8f3 77bc f29b 863c a630 113e
00000170: 35bd a13e bd48 fdbb c377 51be 8646 43be
00000180: dcc8 0b3e d90a 94be 0102 01be d190 aa3c
00000190: ae17 823e 7233 5f3e 4a00 c63e ec98 7bbd
000001a0: db30 ffbd 87a8 6b3e 7d1f 00be b8c8 443e
000001b0: f38c 153c cb20 303e c02b 1b3e e510 a33e
000001c0: bb28 80be 6cbd 6dbe 11f9 593e f4f0 b0be
000001d0: 102c 1b3e fdc5 74be c315 b53d 4003 323e
000001e0: bc6a b63d 661d 28bf 5cde dcbe c517 873d
000001f0: 463e 24bf 12e2 453e cd4a 3f3e 51c0 fd3d
00000200: 0b96 9a3d bb62 333f 24ea 13be bd62 d4bd
00000210: 8640 c33e 6489 8cbe 79bd 9c3e 247f 5bbd
00000220: 4afd 213d 82ca debd 93d8 403e 839b b5be
00000230: 2663 30be df4a f7ba 611f 05bf 17a5 77be
00000240: 5555 c6bd 6747 0d3e cb5f c2bd 8c8a c83e
00000250: 0dea dc3d aeab 893d a029 143e 1fdd 973d
00000260: a850 36be 2a32 69be f89e 443e 0a4b 00be
00000270: 0c48 2ebe fb28 a9be e30b 94be 13e1 8dbe
00000280: da28 18bf 5be7 9cbe e9ac b53c 72d9 a3be
00000290: 05b1 643e 0856 3b3e 6791 f03e 0cc9 e13e
000002a0: 0bc1 34be dca2 193f ba87 333e 96ca b13e
000002b0: a87a 23bf 0df5 da3c 81ce 363e 7691 643e
000002c0: c8e6 99be 4397 ab3e 17b3 c93e 0771 c0bc
000002d0: e7d8 8b3d 4aa8 50be 2497 b33d 8f70 e73d
000002e0: 3e61 9ebd 3c37 69be 6f21 2abe 80ed 85be
000002f0: d962 e5be 4b78 e33d 64e7 59be 620b 9a3e
00000300: 81a9 a83c bc87 96be a592 44be d1aa 02be
00000310: 0814 02bf e8f2 973c c18d d8bc e09d 02bf
00000320: b62f 163e ab0a 8f3c 841e 513d 34cf ebbd
00000330: b455 2bbe 082c b3bd 12e9 d23e a2df 9a3e
00000340: 4d8d 2c3f 2cb2 6c3f 402b 46be 3863 efbe
00000350: 910a babd b1b3 bdbe 1951 4dbf b84c 563f
00000360: 7107 86bd ba7f dcbe 6e5b 77bc 731d 173c
00000370: efde c3bd ab9c 46be d804 bcbd 5cac 66be
00000380: b00c 973e da50 63be 830a d5be 5553 833e
00000390: 7b0d a0bd dfc7 6bbe 3847 9ebe 12ea a13d
000003a0: 91b6 69be 4ae3 fb3a 7ad3 10bf b6a1 81bf
000003b0: b236 b6be 1703 c13c 6279 013e d9f3 83be
000003c0: 1926 523e 698e c4bc c3c2 8ebe f367 9dbd
000003d0: af16 7d3e 75f7 bb3c 110d cf3e a719 cfbe
000003e0: 74a8 123e 2c51 89be 2aba 1b3f 6ad9 ab3d
000003f0: e9b0 0cbe 44d5 05be 95a3 e2bd d5da 6cbd
0.027302228 -0.20453455 0.1271015 -0.011610349 0.18298069 0.09271587 0.09370535 0.031429194
-0.03886209 -0.04404657 -0.059919994 0.34022957 0.039443094 0.066144645 0.049947146 -0.17094456
-0.08118541 -0.15467948 -0.046683937 -0.19703886 0.32939696 0.07535276 -0.0018417258 0.08522715
-0.021640562 0.14592627 -0.2691991 0.07697288 -0.21426123 0.3516081 0.063690186 0.04056924
0.033526547 -0.033192325 0.088138655 -0.20327203 0.10704755 0.014420634 0.40908697 0.1057035
0.070947334 0.094773114 0.14035948 0.035583925 -0.11983735 0.06795688 -0.06306446 0.24218407
-0.023377297 0.0078062946 -0.09304734 -0.09760039 -0.039706014 -0.037689555 -0.04939954 -0.11758774
0.074699536 -0.3565757 -0.26761147 -0.31622264 -0.19226716 -0.3340664 -0.543871 0.4436872
0.7277539 0.7793161 0.20780517 0.3271227 0.14542998 0.13881892 0.124367945 -0.064819835
0.22226635 0.5777609 0.80547225 -0.29358184 -0.29121938 -0.21717507 -0.12764515 -0.25912553
-0.09885409 -0.09794358 0.047129203 0.2022336 0.121492244 -0.18689066 -0.076475844 -0.021171663
0.22936773 -0.015133835 0.016431782 0.14178714 0.31589666 -0.0077296183 -0.20455842 -0.19069871
0.1365084 -0.28914526 -0.1259842 0.020821007 0.2540869 0.21796969 0.38672096 -0.061425135
-0.1246049 0.23013507 -0.12512012 0.19217193 0.009127843 0.1720001 0.15153408 0.31848827
-0.25031075 -0.2321679 0.21286418 -0.34558833 0.15153527 -0.23903652 0.08842041 0.17384052
0.08907077 -0.6566986 -0.43138397 0.065963306 -0.6415752 0.1932452 0.18680878 0.12390197
0.0754815 0.70072526 -0.14444786 -0.10370395 0.38135165 -0.2744857 0.30613306 -0.053588048
0.039548196 -0.10878469 0.18832617 -0.3547021 -0.17225322 -0.0018866918 -0.52001005 -0.2418407
-0.096842445 0.13796769 -0.09490927 0.39168203 0.10786829 0.067221984 0.14469004 0.074152224
-0.17804205 -0.22773042 0.19201267 -0.12528625 -0.17019671 -0.33039078 -0.2891532 -0.2771078
-0.59437335 -0.3064526 0.022177177 -0.32001835 0.22333153 0.18294537 0.46985933 0.440987
-0.17651765 0.6001413 0.17532244 0.34724873 -0.63859034 0.026728177 0.17852212 0.22321114
-0.30058885 0.3351384 0.39394447 -0.023491396 0.0682848 -0.20376697 0.08769062 0.11300766
-0.07733391 -0.22774976 -0.16614316 -0.2615776 -0.44801977 0.111069284 -0.21279675 0.3008681
0.020588638 -0.29400432 -0.19196565 -0.12760474 -0.50811815 0.018548444 -0.026434781 -0.5102215
0.14666638 0.017461142 0.051054493 -0.1151413 -0.16731912 -0.08748633 0.41193444 0.30248743
0.6740311 0.9245937 -0.19352436 -0.46755385 -0.09084047 -0.37051156 -0.8020187 0.83710814
-0.06544388 -0.43066198 -0.015097482 0.00922333 -0.095640056 -0.19395702 -0.09180611 -0.22526687
0.29501867 -0.22198811 -0.41609582 0.25649515 -0.07815071 -0.23025464 -0.3091371 0.079059735
-0.2282355 0.0019217518 -0.5657269 -1.0127475 -0.35588604 0.023561044 0.1264396 -0.25771978
0.20522346 -0.023993688 -0.27882966 -0.07685842 0.24715684 0.022945145 0.40439656 -0.4044926
0.14322072 -0.26819742 0.6083094 0.08391078 -0.13739361 -0.13069636 -0.11066357 -0.057825882

raise_dim.0.attention1.0.weight f4 [9, 9, 3, 3]
00000000: 153f 9d3e 3d98 8cbd 6676 2abe 842b 0d3e
00000010: 67cf 18bf ba1a 2fbe 3062 80be 11b3 30bd
00000020: 4002 9cbe 930a b03d 7cb7 ce3d 9bc0 eebc
00000030: 82d1 a13e 9bf9 943e 7ab5 383e ae6a 43bd
00000040: 84af 5f3d 6097 f4bd 8cff 323e 95a0 01bd
00000050: 1502 e4bd 5e1d f83d 88c0 1d3e 44db bf3d
00000060: 6f8d f0bd 75f3 d3bc d470 6f3a b94b 7f3d
00000070: 6245 94be 9b7a a4bd 05e8 dd3d 21ab 303e
00000080: f7c4 2d3e 01e6 9cbe d6b7 58be b438 02be
00000090: 54e4 f13d 9cd4 7bbd 6460 edbd 9155 ec3c
000000a0: 7ad7 a23e 93bf 723d 7908 2ebe 53ae 25bd
000000b0: bca9 5bbe 71e7 56bb 471e bbbe 041a b7be
000000c0: fb7d f0bd f73c eabd 9b70 79be e943 e2be
000000d0: ba8f 38be f414 95be 6351 bd3d 3822 ccbd
000000e0: 4d00 13be d714 fabd fb59 9ebb afcf 9e3c
000000f0: 3ccb 0fbf 57fa b3be 8ac9 a7be 18e9 2f3f
00000100: f186 003f c810 bb3e cf09 3f3f 994a 573f
00000110: 5b2d ec3e 9e3e 313e e100 dd3e 4171 273d
00000120: 0cc1 e53e 3fbd bd3e 6870 c53e 369c d83e
00000130: 1067 ed3e 2fec bf3e c185 19be b2c8 343d
00000140: 12ab 88be 3a9d 0abf 6c03 3cbf 9e4e 1a3e
00000150: 3447 a43d 7e06 7abf 5bdf 973e 2ee4 343e
00000160: 7344 a0be 8f28 a33e 8881 e6be 079b 88be
00000170: 35b0 70be 7849 b93c 6350 393d 66a5 e838
00000180: f53d 2bbe 5c41 153d 70bc a7bd 7ee9 2abf
00000190: 7ce0 5dbe 3c7f b2be 1631 4ebe 5c68 ab3d
000001a0: 6f00 c3bd c142 e2be ddc0 f43d 2815 94bd
000001b0: 3ee3 bbbe c2e7 82bd 719c 45be 8432 73bc
000001c0: 24c4 f23e 5635 223d 43b8 f3bd e449 e33e
000001d0: 584d 033e 9e6d 24bd 75d2 e53d f0e1 42be
000001e0: 3e90 4dbd bcba fc3e b997 2c3e c8ec 12be
000001f0: 1ccf eb3e be03 07be c170 c5be 9574 883e
00000200: 471d 783d 8ebe 95be c29b bb3e ffdc 9fbd
00000210: 9720 83be 0eb0 043f d9eb e3bd b137 8f3e
00000220: c1bc 1e3f 3e42 ba3e 473d 0b3d 9da9 b63e
00000230: 165c 813c 8622 0d3e 2c0a 9e3e 3e5b eabc
00000240: c891 46bf f6df 0dbd f287 d6bc 7e60 05bf
00000250: 56fe 85bc 7997 acbe 065c d7be 8c71 3cbd
00000260: e55a 13bf 9bbe cdbe a745 ae3b 2b10 14bc
00000270: 6956 3fbe acef 95bc 8248 e2bd 260a 243a
00000280: bd0e 19be 2305 a6be 8540 46be a67a 53be
00000290: 8dbb 70be 9ec2 bcbd 170a efbd 1b31 9abe
000002a0: 3cf6 1ebe ac6e 78be ef4a b2be cd6b d1bc
000002b0: 8bd3 a3bd 4368 22bd 8bcc 563d 5f98 143e
000002c0: 945e 143e 1d93 893b 0cc0 893c d4c5 533e
000002d0: d8f2 a3bd 80fb 23bd 111e c1bd 79b1 54be
000002e0: 23b5 80be 24ce 16bd ec67 6ebe 4ee7 62be
000002f0: c84d dabd cacf dfbd ab7b 76bd 800f b2bd
00000300: 2022 1fbe 2de7 4cbe fb48 a3bd 940d 07be
00000310: c644 dabd 0e30 5cbd fae9 a33d 1788 59be
00000320: 216c debc fc07 003d f1c2 a53d d3f5 0dbd
00000330: b450 713e a2fc 333d 8176 313d 6447 72bc
00000340: ee4c cabd b17c 6ebc 79ba db3c cf5d 81be
00000350: de3a c4be f37e 013e 69f2 1ebe 23a4 28be
00000360: d9c5 b8bb 1610 90be 55e7 19be af4f 323e
00000370: b7cd cebd 3023 503e eedd 843d 7e99 1dbc
00000380: 4ec9 6a3e 1047 81be fcef 6fbe a98e 42bc
00000390: ba86 67bc ddbd 1e3c 4541 063e c8b1 b3bd
000003a0: 7234 033e 611c 6c3e b9a9 0ebe ef81 d3bd
000003b0: c41e edbd c856 303e dcd2 823e 877a 933e
000003c0: 04a4 953d 674b 853e 92c1 fd3e ee8e 81be
000003d0: 4b88 d1be 1ab1 5ebe 78e1 adbe 8e37 463e
000003e0: 2ab5 c7bd 4a3e 42bd 68cd 5fbe ead0 19bd
000003f0: c997 9ebd 167a 2dbd 2f5a 62bd f080 40be
0.3071219 -0.06864975 -0.16646728 0.13786131 -0.5969147 -0.17100039 -0.2507491 -0.04313952
-0.30470467 0.08595767 0.100935906 -0.029144576 0.31605154 0.29096684 0.18037978 -0.04770916
0.054610744 -0.11942935 0.17480296 -0.031647284 -0.111332096 0.12114976 0.15405476 0.093679935
-0.11745726 -0.025872925 0.0009133939 0.062328074 -0.28959185 -0.08031198 0.1083527 0.1725278
0.16969667 -0.3064423 -0.21163878 -0.12716943 0.11811128 -0.061482057 -0.11590651 0.028849395
0.3180502 0.05926473 -0.1699542 -0.04044945 -0.21451467 -0.0032791758 -0.36546537 -0.35762036
-0.11742779 -0.11437409 -0.24359362 -0.44192436 -0.18023577 -0.29117548 0.09244039 -0.09967464
-0.14355583 -0.12211006 -0.004832504 0.01938614 -0.56169486 -0.35151932 -0.3277095 0.6871505
0.50205904 0.3653624 0.7462434 0.840982 0.46128353 0.17309043 0.43164733 0.04087949
0.44873846 0.37058446 0.38562322 0.4230668 0.46367693 0.3748488 -0.1499243 0.04413671
-0.26693016 -0.5414616 -0.7344272 0.15069053 0.080213934 -0.97666156 0.29662594 0.17665169
-0.31302223 0.3186688 -0.450207 -0.26680776 -0.23504718 0.02261804 0.04524268 0.0001109343
-0.16722853 0.036439285 -0.081902385 -0.6676253 -0.21667665 -0.34862697 -0.20135912 0.08369514
-0.09521567 -0.44191554 0.11950848 -0.07230598 -0.3669681 -0.063918605 -0.19297959 -0.014843587
0.47415268 0.039601646 -0.119003795 0.44392312 0.12822473 -0.0401436 0.11221782 -0.19031501
-0.05018639 0.49361217 0.16854753 -0.14348137 0.4605645 -0.13185021 -0.38562587 0.26651445
0.060574796 -0.29246944 0.3664227 -0.078058235 -0.25610802 0.5183114 -0.11128969 0.27972177
0.62006766 0.36378664 0.033993986 0.3567628 0.01579098 0.13782701 0.30867136 -0.02860796
-0.77566195 -0.034637414 -0.02618787 -0.5210036 -0.016356628 -0.33709314 -0.42062396 -0.046006724
-0.5756057 -0.40184483 0.005318362 -0.009037058 -0.18685307 -0.018302761 -0.11048986 0.0006257616
-0.14947028 -0.32425794 -0.1936055 -0.20652255 -0.23509045 -0.09216808 -0.11671846 -0.3011559
-0.15523618 -0.24260968 -0.34822795 -0.025564099 -0.07999333 -0.039650213 0.05244116 0.1451125
0.14489204 0.0041984455 0.016815208 0.20680934 -0.08005303 -0.04003477 -0.09429563 -0.20770825
-0.25138196 -0.036817685 -0.2328183 -0.22158548 -0.10659367 -0.109283045 -0.060176533 -0.08694363
-0.15540361 -0.20010062 -0.07972904 -0.13188773 -0.10657649 -0.053756766 0.08003612 -0.2124332
-0.02715117 0.031257614 0.08093823 -0.034658264 0.23565942 0.0439421 0.043325905 -0.014787529
-0.098779544 -0.014556096 0.026822316 -0.25266883 -0.38326162 0.12646084 -0.1552216 -0.16468863
-0.0056388197 -0.28137273 -0.15029652 0.1741321 -0.10097831 0.20325923 0.06487642 -0.009619115
0.22928354 -0.2524953 -0.2343139 -0.011874833 -0.014131242 0.009688822 0.13110836 -0.087741435
0.12812975 0.230577 -0.13931932 -0.10327517 -0.11578134 0.17220604 0.25551498 0.28804418
0.07306674 0.2603409 0.49561745 -0.2530436 -0.40924296 -0.21747246 -0.33961082 0.1935713
-0.09751351 -0.047422685 -0.218557 -0.03755275 -0.077437945 -0.04235276 -0.055261787 -0.18799186

raise_dim.0.attention1.0.bias f4 [9]
00000000: 5a9b 013d d3a2 fb3e ec79 f03d 5445 25be
00000010: 2a63 92bd 8703 a63e 5ca1 3b3b 9353 f13d
00000020: c0c5 de3e
0.031642295 0.49147663 0.11742005 -0.16139728 -0.0714782 0.32424566 0.0028630113 0.11783519
0.43510246

raise_dim.0.attention1.2.weight f4 [9, 9, 1, 1]
00000000: 0592 713f da44 dd3e 12ec 053e fcd3 14bf
00000010: 15c5 eeba c864 dd3e c2ce 42bf bb0a fe3e
00000020: f8a5 2d3f 1cd1 4d3f 28d3 8a3f 53e0 5a3d
00000030: 5acc 8d3e 6fc9 043e 2825 313e 72a3 a5be
00000040: a1c1 8bbe a799 843e 0b5a 153f 4020 d93f
00000050: b94c 45bf fa17 373c a380 21be f5ac e7be
00000060: 13e9 7e3e 8457 2abf c60a 88bc 5570 85be
00000070: 3054 dabe 576e 4d3d e2dd 7e3c 0603 273e
00000080: e28e 9cbe ccc9 073e baf7 8fbe 1c5d f73c
00000090: aea6 093f 1ef8 703f d028 efbd 7e49 e3bc
000000a0: 97b8 8dbe 223b fabe 5364 abbe 9acc 923d
000000b0: 4f49 dcbc d372 693f 588b 74bf 6237 a13e
000000c0: 04a5 e3be 9a23 08bf 305b 0e3f 871d dfbd
000000d0: a3cb 4bbe 7325 283e 59e2 04be fe43 4bbd
000000e0: 5fb2 943e e3c9 d03d 6325 773e 45af b6bd
000000f0: 9952 033d a9b3 83bd 7b54 093d 8075 e33e
00000100: fd22 cd3d d463 973e be4f c2bd 1dc1 05bd
00000110: 57c3 e13d 62b9 9b3e d1f7 b3be 2497 92be
00000120: 65de cebd 8a43 96bf 14b6 893f 25f7 3abe
00000130: 0a93 aabd adae af3e 7743 323e 7bba 2f3f
00000140: ee5a c23e
0.94363433 0.43216592 0.13078335 -0.5813596 -0.0018216694 0.43240952 -0.7609674 0.49617562
0.67831373 0.803972 1.084569 0.05343659 0.2769497 0.12967466 0.1729933 -0.3235126
-0.27296165 0.25898477 0.5834052 1.6962967 -0.77070194 0.01117515 -0.15771727 -0.45249143
0.24893598 -0.6653979 -0.0166067 -0.26062265 -0.42642355 0.050154056 0.015555831 0.16309747
-0.3057776 0.13260573 -0.28118688 0.030195765 0.5376996 0.94128597 -0.11677706 -0.027745005
-0.27679893 -0.4887324 -0.3347498 0.07167931 -0.026890425 0.9119083 -0.9552512 0.31487566
-0.44461834 -0.53179324 0.5560789 -0.10894304 -0.199019 0.16420536 -0.1297697 -0.04962539
0.29042336 0.10194757 0.24135356 -0.08920149 0.032061193 -0.06430752 0.033527832 0.44425583
0.10016439 0.2956835 -0.09487866 -0.03265487 0.11023586 0.30414873 -0.35150006 -0.28630936
-0.10101012 -1.1739361 1.0758691 -0.1825834 -0.08328827 0.34312955 0.17408548 0.6864392
0.3796

raise_dim.0.attention1.2.bias f4 [9]
00000000: bbae 903e 8a9e 953e b02a be3e 4a10 84be
00000010: 0d4a ad3e 9b5c 8d3e 44c4 13be ee3f 1cbe
00000020: e824 fc3b
0.2825831 0.29222518 0.37141943 -0.25793678 0.3384556 0.27609715 -0.14430338 -0.15258762
0.0076948293

raise_dim.0.attention1.4.weight f4 [9, 9, 1, 1]
00000000: 1a7d abbe 0010 54be adcb fb3e fb38 883e
00000010: b843 4cbf 1fbf 05bf 084a 473e f032 05be
00000020: e65b ac3e 66aa 07bf 4c9b 3dbd 8bda 8e3f
00000030: 1216 d83d a140 0a3f d878 c2be 1f9f 8bba
00000040: 5c26 2d3e 788b e3be 8062 02bf f68e a8bd
00000050: 7fea ccbf 57d0 8b3e 315a a2bf 0107 3f3d
00000060: 5aaf 4dbe dc2b 0b3e 45d6 e1be ad01 323f
00000070: 62dc 263e 81f9 123f 3f21 0fbf 7907 b63d
00000080: ce10 ee3e db4b b0be 5cd0 0fbf e23c 4c3f
00000090: e982 683f c7a7 7d3f d0bf 803f 9886 1ebf
000000a0: f3b1 1e3f c84d ed3f 076e 3cbf 0be0 19bf
000000b0: 81f6 043f a7eb 843b f3c0 6d3c b1d1 ab3e
000000c0: 3c0c 11be b231 713e 7ed9 febd 1184 c5bd
000000d0: 0232 50bd 7d15 a4be 7a9d b73e 1bed bb3e
000000e0: f2cb a93e a534 babe 5e1d 94be 6f8e d13e
000000f0: 23d6 fbbd 9bb2 a8bd b67d e23e ea37 783f
00000100: 271d 513f b5ff 583f a1d4 e2be 7a42 b03e
00000110: 7424 143f 6fc6 9abc 485b f3be 8074 073f
00000120: 08ac f4be 993f 1e3b c676 183f 5c93 05be
00000130: b018 2d3e 280d 53be 5f95 e9bb 1405 033e
00000140: 7a4c 05bf
-0.33493882 -0.20709229 0.4917883 0.26605973 -0.7979083 -0.5224475 0.19461834 -0.13007712
0.33663863 -0.5299438 -0.04629068 1.1160444 0.105510846 0.54004866 -0.3798282 -0.001065228
0.16909164 -0.44442344 -0.5093155 -0.08230393 -1.6009063 0.27307388 -1.2683774 0.04663754
-0.20086423 0.1359095 -0.44108787 0.6953381 0.16295007 0.5741196 -0.55910105 0.08888144
0.46497196 -0.34432873 -0.56177306 0.797804 0.90824753 0.9908413 1.0058537 -0.61924124
0.6199028 1.8539362 -0.7360539 -0.6010749 0.51938635 0.0040564123 0.014511335 0.3355842
-0.14164823 0.23554114 -0.12443827 -0.0964433 -0.05082894 -0.32047644 0.35862333 0.36704335
0.3316341 -0.3636829 -0.28928655 0.4092898 -0.12296703 -0.08237191 0.44236535 0.9696032
0.8168511 0.8476518 -0.44302848 0.34425718 0.57868123 -0.018893449 -0.4753058 0.5291214
-0.477875 0.0024146794 0.59556234 -0.13044494 0.16903949 -0.20610487 -0.007128402 0.12794906
-0.5206982

raise_dim.0.attention1.4.bias f4 [9]
00000000: b143 6b3e 920a c73d fba0 a63d 8ce7 2d3f
00000010: fbb1 bb3e c2f5 fd3d 5899 c63e 99f2 1d3f
00000020: 629a f63d
0.22975041 0.09718813 0.08136173 0.6793144 0.36659226 0.1240039 0.38788867 0.616983
0.12041165

raise_dim.0.attention3.1.weight f4 [32, 9, 1, 1]
00000000: 40a4 dabd e1db 83bd 639d 903d 01a5 963d
00000010: 37e2 c3be 355d b83e 385c 423e c6bd 52be
00000020: a3f1 3c3e 9ea6 563e 53ac 23bd 3e4a 653e
00000030: 8400 4fbd 7697 ccbe 2792 c0bb 8cc3 9c3e
00000040: ebc1 82be b425 443e 1060 0d3e 0123 71be
00000050: 883d 19bd 1905 483e f53c 80be d605 7a3e
00000060: c3e3 1d3e fe79 503e 8a42 6c3e c805 c3bd
00000070: f39f 82be 9839 b8bd 1806 92be d40e 803d
00000080: 7064 fd3e 23d0 96bd b32e fd3b 37d3 c83e
00000090: 5f80 94be c8ec 91bd e547 9a3e 43f6 8d3e
000000a0: 115d 073e 1818 64be 2911 cc3d 8727 53be
000000b0: 8eac afbe 4b9d d1be bc14 ef3e f19f 843e
000000c0: 2c71 dd3d 5d0d ac3b 95e0 3d3e 6b42 95be
000000d0: 4ec2 473e 546f 4cbe 7b57 e0bd 7a40 7ebd
000000e0: 668a 88bd 9d5c bbbe d24c 2e3e c092 5e3d
000000f0: 7861 b13e 4173 8a3e 01b3 ec3d 8dea 3d3e
00000100: 0b90 8e3c e744 d83d 2692 99be 909b a0bd
00000110: d85f 9bbc c8c1 283f b702 dabe 89d2 dd3a
00000120: 2862 9fbd f221 fc3d 3b8c 123e c030 e2be
00000130: 8a26 febe 048d 963e b517 a93c 1023 cabe
00000140: 33f9 21be 0a11 1c3e d721 61be 97fc 9ebe
00000150: 9741 3ebe bcdc 80be 5b27 20bc 6906 703d
00000160: 2196 a93d 6864 8bbe 1519 97be 14f6 f1be
00000170: 99e9 a13b 91f3 fb3d 15f9 233e 0410 f73d
00000180: 5d52 033d b34d 4ebe 5c76 a7bd 38d2 6ebe
00000190: 89aa ed3c 8a0b 71be 4784 a5be f8ff c43d
000001a0: 9ada 273e 23a9 bc3c c25c a53d acd8 263e
000001b0: dbb5 183d 4596 f8be 3a79 9dbe 2de0 313d
000001c0: 5b94 97be 51e8 9bbd 1d3e 1d3e 4a39 39bd
000001d0: 8d30 893d be21 8e3d c55e 87be a8fe 463e
000001e0: cdea b0bc ecd8 133e a7af 8cbd 9fd2 803e
000001f0: 0050 3abc 98c9 923e 91ba 6c3e 2739 813e
00000200: 3dc8 2c3e 9ccc bb3c 1ee3 0cbe eede c0bd
00000210: 4128 7abe 9ee9 81be ad24 8b3e 2cfc b13d
00000220: d6fe 183e f5e2 9c3d 77b2 c03d f793 9ebe
00000230: 30f9 6bbe ce42 a23e 2da6 d83d 140c 5c3e
00000240: c70a 7fbe 52d0 3e3e 6362 7abe be13 913c
00000250: 4b20 563e 78cb 43be 5fbe e3be ce6a 003e
00000260: 7beb b53e c55e 9b3e e10b b0be 879e b4bd
00000270: e46b 96be 0a11 9ebe 0105 25bc 9513 023f
00000280: a20e 64be 8294 d03d 62f7 a23e 47d7 1bbd
00000290: 827b 863e 8971 843e 6abf 533e baf2 2ebe
000002a0: 6d80 f6be c810 38be fd95 2ebe 6c82 cd3e
000002b0: 2602 2e3e 5454 2f3e 1199 50be 39e0 b6be
000002c0: 5cfc bd3e d823 d23d b49f d2be 351a 8abd
000002d0: 0468 4bbd caca b93c 79cf 893e 322f 543e
000002e0: e645 7bbe 8c56 953c ece5 bdbe 0f67 5b3e
000002f0: 8e90 e53d 1b56 113e 619d 843e 5699 b53d
00000300: 3914 d2be 9699 c0bd d362 95be b5ee 2b3e
00000310: 5ed1 af3d fb1b ec3e 8846 86be fe7b c1be
00000320: 8988 e4bd 9784 b4bc dd8e 193e bd03 c13e
00000330: fe1a 093f 1f05 e23b c704 6c3d 7327 47bd
00000340: 9baf 8fbe 44bb db3d 59f5 6fbe 32d1 bf3b
00000350: a70e 783e 8f24 dc3e a2f7 06bf b36d 983e
00000360: dd0e a8be c7f6 87be 63b6 ce3d d0fa 84bc
00000370: b34e 8bbe b97a 843c ac91 13bf 3e38 f33d
00000380: 0215 6f3e 842b 933d 8ee8 49be 7970 8dbb
00000390: 8c98 4fbe 0fb4 a2be 869b 133e 24e2 2ebe
000003a0: f06d 26bf 29dd 5bbe 5640 52be 1e65 59be
000003b0: a1d6 debc 9137 1fbe fbe6 a73e 8258 84be
000003c0: e9f1 b6be 7364 fc3d 5e31 96be b560 723e
000003d0: 5673 493e 3460 2ebe 3b2c 01be f94a 5b3e
000003e0: 90a4 8abe 78dc 063e fa76 46be 82b3 5ebd
000003f0: df3e cbbd 1afa bdbe 9898 1c3e 2819 29bd
-0.106758595 -0.06438423 0.07061269 0.07355691 -0.38258526 0.3600861 0.18980491 -0.20580205
0.18451552 0.20961997 -0.039959263 0.22391602 -0.0505376 -0.39959306 -0.0058767977 0.3061794
-0.25538573 0.19155008 0.13806176 -0.23548509 -0.037412196 0.19533195 -0.25046507 0.24416289
0.15418915 0.20359036 0.23072258 -0.09522587 -0.25512657 -0.0899536 -0.28520274 0.06252828
0.4949069 -0.07363918 0.0077265142 0.39223644 -0.2900419 -0.071252406 0.30132976 0.27726945
0.13219096 -0.22274816 0.099642105 -0.20620547 -0.34311336 -0.40940318 0.46695507 0.25903276
0.108126014 0.0052506165 0.18542702 -0.29152235 0.19507715 -0.19964343 -0.109541856 -0.06207321
-0.066670224 -0.36594096 0.17021492 0.05433917 0.34644675 0.27041057 0.1155758 0.18546505
0.01740267 0.10560017 -0.29994315 -0.07842171 -0.0189666 0.65920687 -0.42580196 0.0016923706
-0.07782394 0.12311162 0.14311306 -0.44177818 -0.49638778 0.2940446 0.020641187 -0.39479876
-0.15817718 0.15240875 -0.21985565 -0.31052086 -0.18579708 -0.25168407 -0.009775008 0.058599863
0.08280588 -0.2722504 -0.29511324 -0.47258055 0.004941177 0.12302316 0.16012986 0.120636016
0.03206097 -0.20146827 -0.08176872 -0.2332238 0.029011982 -0.23539558 -0.32327482 0.09619135
0.16391984 0.02302987 0.08074333 0.16293591 0.037282806 -0.48552147 -0.3075655 0.04342668
-0.29605374 -0.0761267 0.15355726 -0.04522065 0.066987135 0.069400296 -0.2643949 0.19433081
-0.021596337 0.14438218 -0.068694405 0.2516069 -0.011371613 0.2866943 0.23118044 0.25238916
0.1687326 0.022924714 -0.13758513 -0.094175205 -0.24429418 -0.25373548 0.2717642 0.08690676
0.14940962 0.07660476 0.094090395 -0.30972263 -0.23044276 0.31691593 0.105785705 0.21488982
-0.24906455 0.18634155 -0.24451594 0.01770961 0.20910756 -0.19120586 -0.4448118 0.12540743
0.3553122 0.3034574 -0.34384063 -0.08819299 -0.2937919 -0.30872375 -0.010071994 0.5081113
-0.22271207 0.101845756 0.31829363 -0.0380471 0.26266104 0.2586787 0.20678487 -0.1708478
-0.48144856 -0.17975152 -0.17049403 0.40138566 0.16993007 0.17122012 -0.2037089 -0.35717943
0.37106597 0.10260743 -0.4113747 -0.0674328 -0.049659744 0.022679705 0.26916102 0.20721129
-0.24538383 0.018229745 -0.3708948 0.21426032 0.11209212 0.14193003 0.2590132 0.08867137
-0.41031054 -0.09404294 -0.2917696 0.16790278 0.085848555 0.46115097 -0.26225686 -0.3778991
-0.111588545 -0.02203588 0.14995904 0.37698165 0.5355681 0.006897583 0.057621744 -0.048621606
-0.28063664 0.107290775 -0.23433436 0.0058537954 0.2422434 0.42996642 -0.5272161 0.29771194
-0.3282384 -0.26555464 0.10093381 -0.016232878 -0.2720848 0.0161718 -0.5764415 0.11875962
0.23347858 0.07186034 -0.19717619 -0.0043163863 -0.20273036 -0.31778 0.14414796 -0.17078453
-0.650115 -0.21471085 -0.20532355 -0.2122998 -0.027201952 -0.1554854 0.32793412 -0.25848776
-0.35731438 0.12323847 -0.2933454 0.23669703 0.19672903 -0.17028886 -0.12614529 0.21415319
-0.27078676 0.1317004 -0.19381323 -0.05437041 -0.09924101 -0.37104875 0.15292585 -0.041283756

raise_dim.0.attention3.1.bias f4 [32]
00000000: 5e12 e7bc e1a1 48bd 500f a2be ba0c 93bd
00000010: c2f4 4d3c e190 7fbc 4589 4cbe ac61 b63c
00000020: 367e 943d 4617 9c3d 5aac f13d 4b73 bcbb
00000030: 2ffe 893d cba0 09be 739c 82bd e089 2ebe
00000040: 3a66 0dbd fa00 163e cc8a 433d 75b1 0cbd
00000050: ed2c bcbd 0475 01be cbdc a539 ec51 4cbc
00000060: 24dc a23d 3c02 083e 9112 1f3e 3fae 1ebd
00000070: 3349 343d 7094 c8bc dbe1 d9bd 9c59 1dbe
-0.028207 -0.048982505 -0.31652308 -0.07180162 0.012570562 -0.015598507 -0.19974239 0.02226337
0.07250635 0.076216266 0.118004516 -0.0057510487 0.06737935 -0.13440244 -0.063774966 -0.17044783
-0.03452132 0.1464881 0.04773979 -0.034348924 -0.091882564 -0.12642294 0.00031635756 -0.012470704
0.07952145 0.13282102 0.15534426 -0.038740393 0.04401512 -0.024484843 -0.10638782 -0.15366215

raise_dim.0.attention3.3.weight f4 [32, 32, 1, 1]
00000000: 9e08 f7bd 676c 68be ecf0 5a3e abf7 e6bd
00000010: d24d ffbb 10d2 25be adb7 aebd 7b94 a7bf
00000020: 3856 873d 26d1 713d 993f 94be 5f3d 07be
00000030: 7e5a a0bd c498 91be e2e9 ed3d 5f34 debd
00000040: d73a 423d 3c05 31bb 2f56 523d 632e e6bc
00000050: 36af b13e 37c0 c3bd ef32 99be 9cce 9dbe
00000060: 63c4 9b3e d97c 233e e723 6b3c da69 c8bd
00000070: 319e 153f 840e c43d 5485 653e c4dc 843e
00000080: 794e 16bd 24cc 133d 0deb 7c3d 203e 7fbe
00000090: e0f6 ae3d 35a2 adbd 04ae 1abd 1595 4ebf
000000a0: 158e 76bc 14ed edbc 38f4 663d 33c9 de3d
000000b0: 2210 f23d 236d 03be a128 cb3d 0b00 af3d
000000c0: 1ea7 463e 9140 78bc 451e 80bd 1726 0a3d
000000d0: 3d62 d13c a356 87bc 508e 0d3e 84db 9abc
000000e0: 3e8c 693e cfdd babe 71ce ca3e 22ea 19bc
000000f0: 768b eb3e 34fd 9bbd 937e 203e a3d7 bfbd
00000100: 012d dd3d 38b3 95bd badc f5bd 804d 123e
00000110: 4359 69bf c484 3e3f 8565 3fbd ca6d 91be
00000120: 645b 4e3d 8798 d7bd aecf 6f3e e1ec 153e
00000130: ebc6 9ebd d351 1bbf 6201 37be f9b7 afbd
00000140: 4b3e b0bd 1780 b3be fee9 2ebe d1c0 ef3c
00000150: 9471 223c ff1e fc3b a092 9bbb 2e19 6b3d
00000160: 31e4 e2be 1955 acbe 6a63 453c 960b 97be
00000170: 7591 083e 11e6 ec3c 37d1 07be 57db b93d
00000180: 9d6e a2bd cd74 963d 54d2 c83c adbd 56bd
00000190: bb45 4b3d 95e8 acbc bc27 5ebd 1629 b23d
000001a0: aca2 27be 3b75 04bd 7516 06bd 5126 43bd
000001b0: 35f8 5ebd e389 7cbd 453f 1a3d 5ac3 7e3d
000001c0: 6c41 bb3d 66dc 30bb 7f8e d8bc 07b8 f5bc
000001d0: e6f8 e03d df0c 4c3d 1bac 5fbd 46bd 133e
000001e0: 8f46 eebd 1b45 bdbc 6473 bcbc 1575 a83d
000001f0: 30af 03be 6c23 b53d 1f29 af3b fcc5 aabd
00000200: 5247 feba ae39 883e 37a7 323e ae8a e23c
00000210: 9b6c 12be ee3c 08be 362f 813e 7a6e 993c
00000220: 4d67 943d 99d3 9abb 9902 06be 9d62 07bd
00000230: 7920 e4bc 82de 4c3a a39c 713e 5a55 1f3e
00000240: 893e 0a3e c279 61bb 6d90 813d 779d 3abd
00000250: 577d 223e e33b 6d3d fd35 c6bd c71a db3c
00000260: 616f f93d 0f42 443d e9c6 d33d 0faf fe3d
00000270: fbc8 0abe 4b20 25bd 15ab 0e3d 110a cb3d
00000280: df75 9d3c 3fbc 50bd 955e 48bc 7f60 bdbc
00000290: 0abd 32bf cad8 27be 3d75 fd3c abda c9be
000002a0: 6131 393e f7c3 d8bd 5898 66be b80c 333e
000002b0: 4495 2f3d 5aa9 70be 6081 2abe cb4f a3bd
000002c0: 521a 09bd ea4e 28be 754e 8cbc cf83 d93d
000002d0: 215d 3d3e 266d e23a 9300 2ebe 66bc 7ebd
000002e0: e03f 22bd 68ed 99be 890d 2cbf 8bdf 033e
000002f0: 5f20 60bd 9b97 423e 2916 c6bd 0acf 3b3d
00000300: cdcb bb3d 9e1e 61be e678 573d 228c 993e
00000310: cceb 813c 6c38 39be de26 093e 5113 2e3e
00000320: 764f 36be ac43 76be 9322 083e 303a cabd
00000330: 7fa1 93bd 8f3f 26be 755f 3fbe a47b 573c
00000340: ba1b d3bd cbae 37bc 92f7 183e e19d e23c
00000350: d57e 093d 502c 93be c6ff af3d 05f4 d93c
00000360: 395e c0bd cbfe e1be 2313 12be b854 b4bd
00000370: b6ce 8cbe 9b50 50be 6625 aebd d960 e33e
00000380: 67bc 793d 4079 143e 4bd3 91be f599 61be
00000390: 72f8 9dbe 5c9e 073d 52b0 debd 145f 98bd
000003a0: 7a72 5dbe 555a 11bd 897a fb3d 49d0 10be
000003b0: 5e5c 413d d534 9fbe b520 d6bb 751e 5ebe
000003c0: 2be3 18be 0a46 833d 3881 d03c ac96 a63d
000003d0: 29d3 f13d decb 3d3e df3b 51be f889 89bd
000003e0: d4a9 8f3d d928 4fbf 2ae5 1fbe b51c 063d
000003f0: 7e01 963d d102 d53d 6757 253c b1fb b03e
-0.120621905 -0.22697602 0.21380967 -0.11277708 -0.0077912593 -0.16193414 -0.08531127 -1.3092188
0.06608242 0.05903735 -0.2895477 -0.13207005 -0.0782976 -0.28436863 0.11616875 -0.10849833
0.047419395 -0.0027011177 0.051351722 -0.02809829 0.34703988 -0.095581464 -0.29921672 -0.30821693
0.3042327 0.15965594 0.0143518215 -0.097858146 0.58444506 0.09573081 0.22414142 0.2594968
-0.03669593 0.036083356 0.0617476 -0.24926043 0.085431814 -0.08478204 -0.03776361 -0.8069623
-0.015048523 -0.029043712 0.05638525 0.108782195 0.11819483 -0.12834601 0.09919859 0.0854493
0.19399688 -0.015152113 -0.062557735 0.03372773 0.025559539 -0.016520804 0.13823819 -0.018903501
0.22807404 -0.36497352 0.39610627 -0.0093942005 0.46004838 -0.07616654 0.15673284 -0.09367301
0.107995994 -0.07309574 -0.12004991 0.14287376 -0.9115183 0.74421334 -0.046727676 -0.28404075
0.050380126 -0.10527139 0.23419067 0.14641143 -0.07752784 -0.6067173 -0.17871621 -0.08580012
-0.086056314 -0.35058662 -0.17081448 0.029266747 0.009914774 0.0076941247 -0.0047477037 0.05739706
-0.4431472 -0.33658674 0.012047628 -0.29501027 0.13336737 0.028918298 -0.13263403 0.09075039
-0.07931254 0.07346497 0.024514355 -0.052426983 0.049627047 -0.021106998 -0.054237112 0.08699243
-0.16370648 -0.032338362 -0.03273626 -0.047643963 -0.054435927 -0.061654937 0.037657995 0.06219802
0.091433376 -0.0026986836 -0.026435135 -0.029994978 0.109849736 0.049816962 -0.054607492 0.14427671
-0.11634552 -0.023104241 -0.023004241 0.082254566 -0.12859797 0.08844647 0.005345478 -0.08338544
-0.0019399917 0.26606506 0.174466 0.027654018 -0.14299242 -0.13304493 0.25231332 0.018729437
0.072462656 -0.0047249314 -0.13086928 -0.03305303 -0.027847515 0.00078151387 0.23594908 0.15559903
0.13500418 -0.0034404849 0.06326375 -0.045560326 0.15868126 0.05791844 -0.09678266 0.026746167
0.12179447 0.04791456 0.103406735 0.124357335 -0.1355323 -0.040314 0.034831125 0.099140294
0.019221244 -0.050960775 -0.012229581 -0.023117302 -0.698197 -0.16391292 0.030939693 -0.39424643
0.18085243 -0.10584252 -0.22519052 0.1748532 0.04286696 -0.23502102 -0.16650915 -0.07974204
-0.033472367 -0.16436353 -0.017127255 0.106208436 0.18492557 0.001727496 -0.16992407 -0.06219139
-0.039611697 -0.3006394 -0.67208153 0.12878244 -0.05471837 0.19003145 -0.096721955 0.045851745
0.09169731 -0.21984336 0.052605532 0.29989725 0.015859507 -0.1808793 0.13393733 0.16999556
-0.1780375 -0.24049252 0.13294439 -0.0987438 -0.07208537 -0.16235183 -0.18688758 0.013152037
-0.10308023 -0.0112111075 0.1493819 0.027663173 0.033568222 -0.28744745 0.08593707 0.026605615
-0.093929715 -0.44139704 -0.14265113 -0.08805221 -0.27501458 -0.20343249 -0.08503227 0.44409826
0.06097069 0.14499378 -0.28481516 -0.22031386 -0.3085361 0.033110008 -0.10873474 -0.0744001
-0.216257 -0.035486538 0.12279231 -0.14141954 0.04720723 -0.31094995 -0.0065346607 -0.21691306
-0.14930408 0.06409843 0.025452241 0.08134207 0.11807854 0.185348 -0.20432995 -0.067157686
0.07014814 -0.80921704 -0.15614763 0.03274222 0.07324503 0.10400928 0.010091639 0.34567025

raise_dim.0.attention3.3.bias f4 [32]
00000000: 777e efbd 6961 c9bd e0da 5a3d bd14 0c3e
00000010: e360 593c c420 edbd c924 e5bd 30fc 673d
00000020: 051a 33be 7fa7 f7bd 1fe0 343e 7e94 6c3d
00000030: 6743 523d 14c7 ff3a ef7c 58bd 5687 d53d
00000040: 4c8c d63c c140 54be 8a74 c2bb 22e5 ee3d
00000050: a6d8 04bd b293 4d3b 6785 b6bc 37d2 8c3c
00000060: 6930 bdbd 8fba a83d fdad 933d 8ced cabd
00000070: 33de 1bbe 63e4 05bd beb4 aabd 909c dc3d
-0.11694043 -0.09833033 0.05343139 0.13679786 0.0132677285 -0.11578515 -0.11188657 0.05663699
-0.17490394 -0.12092494 0.1766362 0.0577588 0.05133381 0.0019514286 -0.05285352 0.10426204
0.026189946 -0.20727827 -0.0059343027 0.11664797 -0.032433175 0.003136855 -0.022280408 0.017190082
-0.09237749 0.08238708 0.0721092 -0.0990859 -0.15221481 -0.03268851 -0.08335255 0.107720494

layers.0.conv1.weight f4 [32, 32, 3, 3]
00000000: 8439 873e 471b efbd ea49 9dbe 2067 96be
00000010: 61f3 1cbe 14f6 80be 496d d4bd 5c27 503d
00000020: 48e5 ab3d ec2e 1f3e 82d3 a73e 2490 a53e
00000030: 7260 6d3e 7748 3ebe 080d 933d d05f 023d
00000040: b72d 39be ff0a a8bb 2800 be3f 8f0e 573f
00000050: e6ed edbd af7c 0b3f e4a4 b6be c8d5 77bf
00000060: 04a7 ab3e abcc 1fbf b753 7bbe 4e64 913e
00000070: 51e7 3a3e 9885 c63e cf69 22be 3625 0d3e
00000080: e8a3 023f 6820 1ebe 09be 133c c29c e93e
00000090: f75e 34bf b89a 5ebf 3b2f 583c ac56 13be
000000a0: 298d 9c3e 8589 fbbd ab56 06bc d616 9d3e
000000b0: 8b1a e8bd 7dc3 8abd b766 d9bd 10aa 7abe
000000c0: 5344 213e 5e83 4fbd c627 23be 823a 4b3e
000000d0: f7d2 023e 9a0f f8bd a379 a13d 4175 f53d
000000e0: ae08 d03d 47b7 a5bd d574 723e 7463 04bd
000000f0: cd50 4cbd 9847 dc3d fbd6 d5bb ed36 b73d
00000100: 4d25 093e 180c 243d fbdf a13d 8d04 6a3e
00000110: 0d37 dfbd 60ff 363c 2c91 5b3d 390a ba3d
00000120: 202a b93d a32a 583d 9580 2e3d c32d 0d3e
00000130: dd4d da3d b71c e1bd 16be 3a3c fcb4 9bbb
00000140: ba7d 8dbd 8b30 b8bd b633 dd3d 4e0e 423e
00000150: de36 d8bb a039 90bd 0600 9fbd d121 d1bc
00000160: 5971 513d 84b1 78bd b6c0 46bd 0cbc 3fbe
00000170: ef06 bebe 317e 9dbe ec17 a7be fc9b 73bd
00000180: a217 bc3d 4936 303c fdbe b03d c3b9 2ebd
00000190: 96ab 2bbe 33a8 cd3d 3ff1 68be 848c 86be
000001a0: f891 f2bd 27a3 71be 8d15 1abe 21b0 19be
000001b0: 403c ca39 d25d a7be 9a9b aebe dc14 59be
000001c0: f012 97bd afff 393e acf3 fabd 27ce a2bd
000001d0: 3e15 203e 3885 5b3d ce4e c73d 19f9 5f3d
000001e0: 8aeb 1e3d 190a c8bd 9d11 53bd 4c86 2dbc
000001f0: 13af 63bd c874 19be d9ce 3dbe 4803 a9be
00000200: 2336 4ebe eada 9dbe 0823 33bc 202c 35be
00000210: 4c37 b0be f991 aebd 99a3 65be 58b9 c23d
00000220: 6c5e f93d 4df9 603d 29a5 913a 7c80 e6be
00000230: 2d93 29be 681f b0bd e93f a8be b4a4 003e
00000240: afc9 fabc 4fa2 44be c491 3abe 3a9d f03d
00000250: d8c9 0e3e 5a06 933e 9c4c 36bd 7675 00bc
00000260: 4981 3dbc f474 12bb b37f b83e e2ec 133f
00000270: b3ee 4bbd 2975 923e 7c66 033d 5717 11bd
00000280: 4401 973e 3d43 843e 3c98 3bbd 6ba1 2bbd
00000290: 08fb 1f3d 8eae 9cbe 4b4f 413d 4cf3 3dbd
000002a0: d670 1dbe c466 123d 6e7a 01be c180 83bb
000002b0: 6fc0 293e 00a6 0e3e 4dc4 143e b93d d03e
000002c0: d5a9 47bc 55e5 b13d cafa d83e 8578 793d
000002d0: 4d0c 4cbe 079f babe 5fbf 1e3d 3422 45bf
000002e0: 29b0 c0be 214d 8dbc 5be0 f7be 5b33 b2be
000002f0: fa01 283d e17d c13d 36a5 6d3d 7a7e 313e
00000300: b084 aa3b f41e 11be ca94 063c d7eb 92bd
00000310: b644 a8bd fb7b 21bc 8223 793e bf9c c6bc
00000320: 9233 38be 53d1 9abe eeda ec3d 54db 333e
00000330: c698 dd3c c559 703e 929d 08be e2da 533d
00000340: ce84 973e e78e e03c 81c0 793b 0645 7fbe
00000350: 7f57 7dbe f725 183d 72e1 1abd e9a3 d63c
00000360: b644 183e c7f9 cabe a670 c9be 71a6 8a3e
00000370: 371a 503c 5215 703d 20f0 123e a0bb 1dbe
00000380: 7e49 1a3e a262 203d 22bc bcbd 34f1 133d
00000390: 947b aa3d 8834 babd 5aa8 3fbc 0505 9f3c
000003a0: 9104 303c c435 bd3c 08ed d8be 0371 bebe
000003b0: 031d 0bbe 6f83 bfbe 1030 bfbd 41d7 45be
000003c0: bbe0 63be 4897 313d 4063 c83d 4a40 6d3e
000003d0: 3fc9 bcbd 55d0 04bf e564 15bf ff93 ccbd
000003e0: 2165 ebbc 6268 59be 0c7c 6c3e a130 903e
000003f0: e61a 923e 8308 223f b8ba 5a3d be46 063e
0.26411068 -0.116751246 -0.30720454 -0.29375553 -0.15327217 -0.25187743 -0.10372407 0.050818786
0.08393341 0.15545243 0.32778555 0.32336533 0.23181322 -0.1858233 0.0718022 0.031829655
-0.18083845 -0.005128264 1.4843798 0.8400659 -0.11617641 0.5448713 -0.35672677 -0.9681058
0.3352586 -0.62421674 -0.24543653 0.2839684 0.18252303 0.387738 -0.15860675 0.13783726
0.5103135 -0.1544205 0.009017476 0.4562741 -0.70457405 -0.8695483 0.013194854 -0.14388531
0.30576447 -0.12282089 -0.008199374 0.30681485 -0.11333188 -0.06775568 -0.106152944 -0.24478936
0.1574872 -0.05066239 -0.15933141 0.19846538 0.12775789 -0.12112351 0.078845285 0.11985255
0.101579055 -0.08091598 0.2367738 -0.03232141 -0.049881745 0.10755843 -0.006525872 0.08946023
0.13393135 0.040050596 0.07904049 0.22853298 -0.10899172 0.011169285 0.053605244 0.09083981
0.09041238 0.052775037 0.042603094 0.13786988 0.106593825 -0.10991805 0.011397859 -0.0047517996
-0.06908746 -0.08993634 0.10800879 0.1895077 -0.0065983376 -0.07042241 -0.07763676 -0.02552882
0.051133487 -0.060716167 -0.048523627 -0.18724078 -0.37114665 -0.3076034 -0.32635438 -0.05947493
0.09184195 0.01075513 0.08630178 -0.042657625 -0.16764674 0.10041847 -0.22748278 -0.2627908
-0.118442476 -0.23597394 -0.15047283 -0.15008594 0.00038573332 -0.32688767 -0.3410309 -0.21199363
-0.07376659 0.18163942 -0.12253508 -0.07949477 0.15633103 0.053593844 0.09731828 0.054680917
0.038798846 -0.09767551 -0.05153047 -0.010591101 -0.055586886 -0.14985955 -0.18535937 -0.33010316
-0.20137839 -0.3083108 -0.010933645 -0.17692614 -0.34417188 -0.08523936 -0.22425689 0.09508008
0.12176213 0.05492525 0.0011111844 -0.450199 -0.1656005 -0.0859974 -0.3286126 0.1256283
-0.030613748 -0.19202541 -0.18219668 0.117487386 0.13944185 0.28715783 -0.044506654 -0.007840505
-0.0115664685 -0.0022347542 0.36034927 0.5778333 -0.04978819 0.2860501 0.03208016 -0.03542265
0.29493153 0.2583255 -0.04579948 -0.041901987 0.03905776 -0.30601925 0.04719476 -0.046374604
-0.15375075 0.035742536 -0.1264436 -0.0040131514 0.16577314 0.13930511 0.14528008 0.4067209
-0.012186487 0.0868632 0.42378837 0.060905952 -0.19926567 -0.36449453 0.038756724 -0.77005315
-0.376344 -0.017248692 -0.48413357 -0.34804806 0.04101751 0.094478376 0.058018886 0.17333403
0.005203806 -0.14171964 0.008214185 -0.07173889 -0.082162306 -0.009856219 0.24329951 -0.024244664
-0.17988423 -0.30237827 0.11565195 0.17564136 0.027050387 0.23471744 -0.13341358 0.051722415
0.2959351 0.027411891 0.0038109126 -0.24928674 -0.24740408 0.03714558 -0.037812658 0.026201205
0.14869961 -0.3964369 -0.39343756 0.2708011 0.012701563 0.058614083 0.14349413 -0.15403605
0.15067098 0.039156564 -0.09215571 0.0361187 0.08324352 -0.09092051 -0.011697853 0.019411573
0.010743276 0.023096927 -0.4236834 -0.37195596 -0.13585286 -0.37404963 -0.09335339 -0.19320394
-0.22253697 0.043357164 0.097845554 0.23169056 -0.09218072 -0.5188039 -0.5835708 -0.099891655
-0.028734745 -0.21231225 0.23094195 0.281621 0.28536147 0.6329424 0.053400725 0.13112924

layers.0.conv1.attention1.0.weight f4 [9, 32, 3, 3]
00000000: 9fff db3e b2ff b03e 5f9a 4f3e 2d4d c73e
00000010: ba72 173d 67f7 963e 3a70 153e fa9f 8fbd
00000020: 6d52 143d 0493 013d de29 5d3d 6369 dc3c
00000030: 31e0 1b3d eb69 7abc 16e4 873d b398 0c3d
00000040: 7407 c73b c9e7 1cbd bca1 653d e2c3 63bd
00000050: 39c2 fd3d 8058 dc3d e6bc 8f3c 56e4 b53e
00000060: 0bb3 273b f75c 81be 92c0 bc3d 6a6f 8b3e
00000070: 443e b7be fa90 dd3e f10e e6be 4301 c13e
00000080: 8d0c 3bbe 61f4 39be 2615 e6be 5c9a f93d
00000090: 4ac7 84be 79a5 9bbc 21de 39bd 0fcd eebe
000000a0: 259d 64be 8d91 28bd 410f 5cbe c722 18be
000000b0: 5bb0 1e3d 4d52 b73d 02dd 053d 923f 943d
000000c0: 0edd c13c 2ea7 d4bc a140 823c 96a9 13be
000000d0: e30d 52bb f939 493d af60 973c 5a7f 3e3d
000000e0: 6367 d23c 75eb 903d 8e29 c0bb 0e16 a5bc
000000f0: ab50 f4bc dda3 26bc 0b4d 943d 2dcd 683d
00000100: 41d7 11bd c673 23bc 751d ccb9 7934 07bd
00000110: 5a0e e6bb 5627 c6bc e358 673c 442f 293d
00000120: e05c e7bd 7f9c 603c 25ba 463d 9700 02be
00000130: b443 97bd d820 17bd d1a8 c0bc d53e 813d
00000140: 7149 163e 16c1 af3b e62b e93d 8298 2fbc
00000150: d80e 603e 1e9d 05be de23 0bbd 7667 253d
00000160: 6151 fa3e ea66 cd3e 5292 fdbd 3620 89bd
00000170: ef15 31be 2a8c 1ebe b65b 69be c1c0 e0bd
00000180: f4b8 9dbd 90e4 0cbe dab1 d7bd a8b6 483d
00000190: 4213 8e3a e4f1 75bc 6e3f 6c3d b56d 34bb
000001a0: ab19 303c 196c b6bd a4c9 813b 8cb5 9fbd
000001b0: c59a 91be e41b 0cbe 5f6d 24be 56f6 37be
000001c0: 72d0 83be f7ed 9cbe c14a 9cbe b8b6 7bbe
000001d0: b39a a2be fba1 883c 9b88 c0bc 5c41 7c3d
000001e0: cfe7 6c3d f13a 6a3c 3d71 103d f258 d33c
000001f0: 6c19 86bc f9f5 09bd 8c08 813e be43 d53b
00000200: b144 d7bd 96b3 4f3e bf26 01bf 8053 753e
00000210: 849b 963d 88d8 503d d0c6 273e 66fe 3abe
00000220: e491 8dbd 360e 99bd 974d 8f3d fbe2 39bd
00000230: 772f a4be 045a 3abd 19ed bdbd 86ab 91be
00000240: 9af9 473e 7393 5a3e 3176 1bbc 8a44 7ebd
00000250: 45cb e2bd dfaa e8bd b30d f03c 0cd5 b63d
00000260: 1ca5 423d 4ae1 153d dbb9 953c d384 e63b
00000270: 3b0f 933d 050b b13d 1d79 5e3d 24bb 98bb
00000280: 26ad 433d 6ef7 7b3d 8066 7dbd 2967 d5bd
00000290: a4bf 97bd 3e19 22be d172 dfbe 1975 cbbd
000002a0: 68c0 0dbe 7946 e2bd e810 1bbd a9bd a03d
000002b0: ed1f e23e 2afa a03e 7fd2 48bd bf7c 5b3e
000002c0: a833 543e 63b2 d8bc 9c89 a83d c8bb 4c3e
000002d0: 0941 71bc fbac 8ebc 2fe3 533d 6e87 c53d
000002e0: 3264 e13c 86a5 7b3c cebf 85bc bce2 963d
000002f0: 2807 dc3d d285 193c 5f7b b43d 4f88 b33d
00000300: 33db be3d b463 fc3d b5aa 0c3d bfdf aa3c
00000310: f1a8 a03d 4d4d 053e 240b 833e 335e 063e
00000320: 72ba 8f3d 1d94 c13d e850 23be bdf9 a73e
00000330: e6ce 883d d3fc a73d 6f78 253e 31f7 4e3d
00000340: 56d0 083d ba87 87bd 409d 45bb 2a7a 713c
00000350: 0b06 363d 967b 113d d5ab 9abd 3546 e93c
00000360: 7029 b33d 2219 cbbe ee57 2e3d 8efb 9b3d
00000370: 3b2f 9d3e e159 4e3e e6fa fbbd 3bf1 77be
00000380: cdab b2bd 7399 ed3d 120d 203c 4a39 7d3d
00000390: 0587 363d 2832 e2bc def4 8dbb 5c61 ce3d
000003a0: 40d7 8e3b e76b 583b 5df2 283e 873f 99bd
000003b0: 8de0 4abd c01c 7b3d 5995 70be 09cd 45bd
000003c0: fa70 17be 914c fbbd 5945 873c d681 a53c
000003d0: ff4d b5bc 36c5 edbd a68f 343e 4f17 6dbc
000003e0: b748 cb3c 0bcf cabd 037f 873d 9337 81bc
000003f0: b419 053c 16a5 20bc 653a 1d3d 72ca 113c
0.4296846 0.3457008 0.20273732 0.38926068 0.036974646 0.29485628 0.14593592 -0.07012935
0.03621142 0.031634346 0.053995006 0.026905721 0.038055602 -0.015284042 0.06635301 0.034325313
0.0060738865 -0.038306985 0.056062445 -0.05560673 0.12390561 0.107590675 0.017546128 0.3552577
0.0025588896 -0.2526624 0.09216417 0.2723344 -0.35789692 0.4327467 -0.44933274 0.37696275
-0.18266506 -0.1815963 -0.4493801 0.12187645 -0.25933295 -0.018999802 -0.045377854 -0.46640822
-0.22325571 -0.041154433 -0.21490194 -0.14857017 0.038742404 0.089512445 0.032681473 0.072386876
0.023664977 -0.025958624 0.015899958 -0.1442016 -0.0032051734 0.049127553 0.01847872 0.04650817
0.025684064 0.0707616 -0.0058643287 -0.020152118 -0.029823622 -0.010170904 0.07241257 0.056836296
-0.035605673 -0.009976333 -0.0003893186 -0.033009026 -0.007020754 -0.024188679 0.014120313 0.04130484
-0.112970114 0.013709187 0.048517365 -0.12695538 -0.0738596 -0.036896557 -0.023517998 0.063108124
0.14676453 0.005363594 0.11385326 -0.010717513 0.21880662 -0.13048217 -0.033969752 0.04038187
0.48890212 0.4011758 -0.12381424 -0.06695597 -0.17293523 -0.15483156 -0.22788891 -0.10974265
-0.07701293 -0.13759065 -0.10531969 0.04900232 0.001083948 -0.0150112845 0.05767768 -0.002753121
0.010748307 -0.08907337 0.003960805 -0.07798299 -0.28438392 -0.13682514 -0.16057347 -0.17965063
-0.2574497 -0.30650303 -0.30525783 -0.2458142 -0.3175865 0.0166788 -0.023502639 0.06158577
0.057838257 0.014296279 0.035264242 0.025799248 -0.016369544 -0.033681843 0.25201833 0.0065083196
-0.10511149 0.2028335 -0.50449747 0.23957634 0.07353881 0.05098775 0.16384435 -0.18261108
-0.06912592 -0.07473414 0.06997221 -0.04538248 -0.32067463 -0.045496 -0.092737384 -0.28451174
0.19528809 0.2134531 -0.009488628 -0.062077083 -0.11073927 -0.11360716 0.029303407 0.08927354
0.04752074 0.036591806 0.0182771 0.007034877 0.07180639 0.0864468 0.05431472 -0.004660981
0.04777255 0.061515264 -0.06186533 -0.10420067 -0.074095994 -0.15829942 -0.43642285 -0.09934444
-0.13842928 -0.11048598 -0.03785792 0.07848675 0.44164982 0.3144086 -0.04902887 0.21434306
0.2072283 -0.026452249 0.08229372 0.19993508 -0.014724978 -0.017416468 0.05173033 0.09644972
0.027513597 0.015359288 -0.016326811 0.07367465 0.107435524 0.009370284 0.08812594 0.08766233
0.09319153 0.12323704 0.034342486 0.020858644 0.07844723 0.13017769 0.25594437 0.13121872
0.070179835 0.094520785 -0.15948832 0.32807723 0.06680088 0.08202519 0.16159223 0.05052871
0.03340181 -0.06617685 -0.0030153543 0.014738599 0.044439357 0.03551825 -0.075523056 0.02847586
0.08748138 -0.39667612 0.042564325 0.076163396 0.30700096 0.20151474 -0.123037145 -0.24213116
-0.08724175 0.11601534 0.009768741 0.061822213 0.04456236 -0.027611807 -0.004332169 0.100771636
0.004359156 0.00330233 0.16498704 -0.0748282 -0.049530555 0.061306715 -0.23494472 -0.04829124
-0.14789191 -0.12270463 0.01651256 0.020203512 -0.022131918 -0.116098806 0.17632923 -0.014470889
0.024814947 -0.099027716 0.066160224 -0.01577357 0.008123804 -0.009804985 0.038385767 0.008898364

layers.0.conv1.attention1.0.bias f4 [9]
00000000: 147c 8ebe 3ad5 e43b df5c b23d 0666 b73e
00000010: ea23 1a3e d0c2 393e fd8f 723e 2514 37be
00000020: ab5d b5bd
-0.2782904 0.0069834264 0.0870912 0.35820025 0.15052763 0.18140721 0.2368774 -0.17878778
-0.08855756

layers.0.conv1.attention1.2.weight f4 [9, 9, 1, 1]
00000000: 5997 56bd 62e0 d6bc 7b37 95bd ee6c 61be
00000010: 0ceb 233d 5e42 1a3e 220f 3fbe daca 5c3e
00000020: 2f63 0c3d fec8 7abe ce39 243f 82cb 863e
00000030: 0234 c03e 2226 3a3e bd90 b83e d016 323d
00000040: c7b6 03bf 657f 36bf 2a01 4bbe 1765 bdbd
00000050: 022e 67be b033 96be ba9a d03e 71d8 a0bd
00000060: 45b1 9fbe dcf3 84bd 95a6 443f de31 ddbe
00000070: ddf8 c5be b341 94bf 0a2b f13e d76b c43e
00000080: 0f99 8dbe 3471 193e 4c3e dbbe 28aa ee3e
00000090: 14bb a93e a139 5b3e 6a87 dbbc fdb2 c7be
000000a0: 3a44 293f ea68 8e3d 3b2d 0bbf 2d61 7e3d
000000b0: daab 14be 7363 8abe 2fec b5be 0e0a b3be
000000c0: 4f24 903e 1bf4 1cbf bdcf 0a3f a926 cf3e
000000d0: 4602 f43c 33db 20bf 5234 a3be b006 bdbe
000000e0: 120e 10be bbc3 cc3e 38bb 65be 92b3 7f3e
000000f0: df4d f93e 034a e4be d381 5bbf 08c6 713e
00000100: 09c6 153e 708c e8bd 607a 15bd 48b0 44bc
00000110: 6972 5c3e 92d8 edbe 01aa 81be 0f49 373e
00000120: 9136 99be 37a8 043e 0e4f 1e3f 575c 843e
00000130: e331 1b3f e536 86bd ad31 003e 48ac e7be
00000140: 655a a7be
-0.05239043 -0.026230041 -0.07285973 -0.2201421 0.04001908 0.1506438 -0.18658116 0.21561757
0.034274276 -0.24490735 0.641507 0.2632714 0.3753968 0.18178609 0.36047927 0.043478787
-0.5145077 -0.7128814 -0.19824663 -0.09247797 -0.22576144 -0.2933631 0.40743047 -0.07853783
-0.31189933 -0.06491825 0.76816684 -0.43202108 -0.3866643 -1.158255 0.4710315 0.38363525
-0.27655837 0.1498459 -0.42820966 0.46614194 0.33150542 0.21408702 -0.026797969 -0.39003745
0.6611973 0.069536045 -0.5436589 0.062104393 -0.14518681 -0.27029 -0.35531756 -0.3496861
0.281527 -0.61309975 0.54223233 0.40459183 0.02978624 -0.6283447 -0.31875855 -0.36919165
-0.14067867 0.3999308 -0.224347 0.24970844 0.48692223 -0.44587716 -0.8574497 0.23610699
0.14626326 -0.11354911 -0.03649366 -0.012004919 0.21528019 -0.46454293 -0.25325015 0.17898963
-0.29924443 0.12954794 0.6183938 0.258517 0.60622996 -0.06553439 0.1251895 -0.45248628
-0.32686153

layers.0.conv1.attention1.2.bias f4 [9]
00000000: 8f58 26bd 48d4 74be 65cb 4d3e 0e84 393f
00000010: 3be5 66bd 5b29 ea3e 895f 763b 1049 dfbe
00000020: ec22 8e3e
-0.0406118 -0.23909104 0.2009712 0.72467124 -0.056370955 0.45734677 0.0037593564 -0.4361043
0.27761018

layers.0.conv1.attention1.4.weight f4 [9, 9, 1, 1]
00000000: 30b8 683c c838 ccbe bcca 8c3e 8b0f 223f
00000010: 64aa 973d 75fd cfbe 7262 57be 4b4b 113f
00000020: 3f94 b1bd b6ad be3c 99be b2be 7002 d8be
00000030: 0220 23be d6dc e73c d260 83be 9550 713e
00000040: bb0b 05bf e2ec 0dbd 3f6e f13d 2c41 6b3d
00000050: 9632 c6bd 165f b9be 3e6b cb3d 142f 0cbd
00000060: 3391 49be ca9e 173e a355 74be cf66 143d
00000070: ee1c 21bf 33ae fc3b fe34 123f d752 ba3e
00000080: 2ff8 043f 5ba5 813d eb81 8fbe 7b99 5bbf
00000090: 3cc3 b6bd d3ec 153f 4a11 60bf 27d5 c73f
000000a0: bc7c bdbf 9ad7 9f3f 8b40 a33f 3db3 5bbf
000000b0: 93f4 f43e 98fe 853d 6ffc edbe 81fd 6c3e
000000c0: 5c17 b93e fa49 febe d4e6 073e 1b23 7ebd
000000d0: 567c b4bd 04cf acbe 923b 113e 744d 29bf
000000e0: c1d0 073f ddf7 febe a8cc 6abe b1b8 c6bd
000000f0: fcd2 59be e9f3 b5be 848a babe d7ad febd
00000100: af97 3ebe bcb9 aabe e1a4 b53e ccc7 eebe
00000110: 38b9 803d 0a35 643e 5510 b13d c59e 40be
00000120: 640e 8a3e 5ea5 1cbd a26e f3bd d6b0 033e
00000130: a6ea e33e c1b9 e8be 28f5 6cbd a249 7a3e
00000140: 89c0 79be
0.01420407 -0.3988707 0.27498424 0.63304967 0.07405546 -0.4062306 -0.21033648 0.5675551
-0.08670854 0.023276191 -0.3491104 -0.4218936 -0.15930179 0.028303545 -0.25659806 0.23565896
-0.51971024 -0.034649737 0.11788606 0.0574352 -0.09677617 -0.36205357 0.09932564 -0.034224585
-0.19684295 0.14806667 -0.23860793 0.03623086 -0.6293477 0.007711196 0.5711211 0.36391327
0.519412 0.06330367 -0.28028807 -0.8578107 -0.08923957 0.5856449 -0.8752638 1.5611924
-1.4803691 1.2487671 1.2754072 -0.8582037 0.47842845 0.065427005 -0.46481654 0.23143579
0.36150634 -0.49665815 0.13271648 -0.062045198 -0.08812778 -0.3375169 0.1418288 -0.6613381
0.5305291 -0.4979848 -0.22929633 -0.09703196 -0.2127189 -0.3553765 -0.36433804 -0.12435501
-0.1861255 -0.3334483 0.35477355 -0.46636808 0.06285328 0.22285858 0.08645693 -0.18810566
0.26964104 -0.038243644 -0.11886336 0.12860426 0.4451496 -0.4545422 -0.057850987 0.24442151
-0.24389853

layers.0.conv1.attention1.4.bias f4 [9]
00000000: 3aa5 aebe 5323 813e 5846 b2be 406f 5a3d
00000010: 9e0d 273f ff88 6a3d b5dc 4c3e de91 4aba
00000020: c61e 07bf
-0.34110433 0.25222263 -0.34819293 0.053328753 0.65255153 0.057259556 0.20006068 -0.00077274244
-0.5278133
