weights/BWNET_LAGConv_T4/model_epoch_150.pth (torch, 678374 bytes, 141 tensors)

raise_dim.0.weight f4 [32, 9, 3, 3]
00000000: b190 e4bd 2d1b 26be 97b5 09be 7857 e3bc
00000010: 3b5c 413e df1b 8e3c 7cc1 6a3d b6a1 ca3d
00000020: 2a71 e93d 4c00 9cbd 5608 82bd 87ed 0dbc
00000030: 4d7f b73d d478 423d 4afd b2bb a566 dfbd
00000040: 8386 95bd 4e2a 93bd 1ccf 23bd dad0 dfbd
00000050: 476b 3cbb b5bf 1d3e 08c5 a93c e087 ca3d
00000060: 61ed 823d 2487 3d3e a684 1fbe 615e fa3d
00000070: d1b2 57bd ba73 6f3d c7c9 f23d d93a 853d
00000080: 6ba5 c03d 4315 cc3c 4af7 fb3d 0e54 44bd
00000090: e5ed 1a3d 40e3 eebc 481d 0e3d 2562 ae3d
000000a0: 7e8c 3a3d 5007 1f3e 45c8 ec3d 91d8 8a3c
000000b0: 242c 14bd 0f63 9dbc 8a99 edbd ada9 42bd
000000c0: 19d4 6dbd 3e34 21b8 5d13 953c 3c6b ddbd
000000d0: aa60 b8bc 5083 e03c fbb6 8cbd c255 ebbd
000000e0: 0bbe 0fbe 8a6b b2be ea9a 7bbe 69da 36be
000000f0: 9e6b 3abe b426 9abe ef98 7ebe 9e9d c93e
00000100: eb08 073f d33d e13e dc86 543e 559d 913e
00000110: b6df 633e 2129 273e 32cb 0b3e 9b0e 0d3e
00000120: 56f0 193e 382e c93e bea4 b43e 4943 7fbe
00000130: 0843 86be dc59 14be 7238 bbbd 3e1c 5bbe
00000140: 6d0d 143d 1876 04be 367e 80bc 11ee 803d
00000150: 7fc1 c93d 2b92 3abe 32d1 91bc 8574 9fbd
00000160: 6f18 123e 6d45 963c be31 fe3c ff30 92bd
00000170: 530d de3d d0fe ddbc 6534 f0bd ef5f 3abd
00000180: c1e8 a63d e69d 71be a8d1 0fbd 985e 133c
00000190: e8ba f13d 86b4 b03c ee91 873e dd31 e9bc
000001a0: 09c8 a9bd fb89 2a3e 60e2 88bd e420 453e
000001b0: cb49 603d 26f5 ca3d 85e2 9e3d 1e2f 3b3e
000001c0: bf39 0fbe 8878 5bbd e3f4 353e 12ee 47be
000001d0: bc4e 2f3e 6f76 17be 1611 65bd c479 633d
000001e0: c978 0b3d b3cc d6be 1207 6abe c227 443c
000001f0: 7fbb edbe d4da 143e 0c53 e93d f134 323c
00000200: ab27 89bd de27 d03e 8a95 22be d099 d6bd
00000210: 5785 7e3e 183e 63be c7b8 193e a3dc d4bc
00000220: 4687 0bbd 30d0 1fbe 735b ce3d 3231 82be
00000230: 7922 04bd 3684 70bd 3b78 c4be 04d8 aebd
00000240: 41fc 78bd ef42 eabb d488 2bbe 41db 9c3e
00000250: 8ba4 473c ced1 0e3e f76b 113e 23f3 ca3d
00000260: 003a ce3b dab1 68be d970 613c 2b39 5bbe
00000270: 68d6 0fbe 3804 8ebe 7065 f2bd 8efb 1bbe
00000280: d06c bbbe eaa6 92bd ef0d ca3e e25d 88be
00000290: a1c7 a7be 810e 933d 7ebb 823e 8e79 c43e
000002a0: ace2 33bd 5723 e23e b879 9fbd 4115 80bd
000002b0: 1a68 a7be ab1b cabe 02f4 ca3d 57bc 1b3e
000002c0: 1383 9abd 455a ac3c 1daf 0b3e e6eb a4be
000002d0: 03af e1bd 804c 8bbe 1a69 c2be 8884 71bc
000002e0: 0d8e 9abd 6aaf abbd 867c 38bd db71 a33c
000002f0: 1e29 d7be 784c 683d 5655 98be 4c2b 89be
00000300: ebb5 153d d092 14be 0d17 233d 19a7 aa3d
00000310: 516f 17be 3e7c 6abe b246 96bd 8275 c6be
00000320: bbda babe c3d9 933d 27b5 993c 4d86 613d
00000330: 6fa0 26be d04f 02be 4f6f a9be 0cab 16be
00000340: 27ff babd 5a96 87be 133b 9bbe f05b dcbe
00000350: 6fcb 51be 0169 71be 9c12 01bf 634b 7fbe
00000360: 7ca7 f43c 18c9 91be 3248 c9be 2b98 083e
00000370: 73e9 a3bd 5bcf 113d 65e3 183d aa19 e1bd
00000380: 76d7 03be b8f8 82bd 6066 a9be b6be 8dbe
00000390: 93cb babd adf5 4cbe 8282 d3bd a5fb 42bd
000003a0: 2d46 67be e62c 7dbe aacc 69be c1ad d3be
000003b0: c019 e1be 6000 ee3c f56b 19bd d75c 02bd
000003c0: 98ca df3d 8085 19be a82e c1be 327c c6ba
000003d0: fff2 8e3e 6624 303d a82a c83e 6cea cbbe
000003e0: 43c4 223e 79ce 96be 0609 143f 300e 323d
000003f0: b715 cdbd d53d 1dbe 9f87 febc da0b e5bd
-0.1116041 -0.16221304 -0.13448177 -0.02775167 0.1888284 0.017347274 0.057313427 0.09894125
0.113985375 -0.07617244 -0.06349246 -0.008662588 0.089598276 0.047478512 -0.0054623233 -0.1090825
-0.07301047 -0.07185803 -0.039992437 -0.10928507 -0.0028750466 0.15405162 0.020723835 0.09889197
0.06392933 0.18508583 -0.15577945 0.122250326 -0.052660767 0.058459975 0.11854892 0.06505365
0.09406551 0.024912482 0.12303026 -0.047931723 0.03782453 -0.029161096 0.034695894 0.08514813
0.04554414 0.15530133 0.11561636 0.01694897 -0.03617491 -0.019212274 -0.11601551 -0.047525097
-0.0580636 -3.8434046e-05 0.01819771 -0.10811469 -0.02250703 0.027406365 -0.06870838 -0.114909664
-0.1403734 -0.3484767 -0.24570814 -0.17856754 -0.18205115 -0.30107653 -0.24863027 0.39378065
0.5274798 0.4399248 0.2075457 0.28440347 0.22253308 0.16324283 0.13651732 0.13775103
0.15033087 0.39293075 0.35281938 -0.24928011 -0.26223016 -0.14487404 -0.091416255 -0.21397492
0.036145616 -0.12935674 -0.015685182 0.062954076 0.098513596 -0.18219821 -0.017799947 -0.07785896
0.14267133 0.018343652 0.031029578 -0.071382515 0.10842385 -0.027099043 -0.117287435 -0.045501646
0.08149863 -0.2359539 -0.035112053 0.008994721 0.11803228 0.021570455 0.26478523 -0.02846616
-0.08290107 0.16654198 -0.066838026 0.19250828 0.054757874 0.099100396 0.07758049 0.18279693
-0.13986872 -0.053581744 0.17769198 -0.1952441 0.17119879 -0.14791273 -0.055924498 0.055536047
0.034050737 -0.41953048 -0.2285426 0.01197237 -0.4643211 0.14536601 0.11392793 0.01087688
-0.06697019 0.40655416 -0.15877357 -0.10478556 0.24855553 -0.22191656 0.15011893 -0.025984114
-0.034064554 -0.15606761 0.10076036 -0.25428158 -0.03225944 -0.058719836 -0.3837298 -0.085372955
-0.060787443 -0.0071490924 -0.16751415 0.30636027 0.012185226 0.13947222 0.14201342 0.09909656
0.006293535 -0.22724095 0.013759815 -0.21408527 -0.14046633 -0.27737594 -0.11835754 -0.15232679
-0.36606455 -0.071607426 0.39463755 -0.26634127 -0.32769492 0.07180501 0.2553367 0.3837399
-0.043917343 0.44167587 -0.07786888 -0.06254054 -0.3269661 -0.39474234 0.09909822 0.15208565
-0.07544532 0.021039138 0.13641019 -0.32211226 -0.11019709 -0.27206802 -0.3797081 -0.014741071
-0.07546625 -0.08383067 -0.04504063 0.019951751 -0.42023557 0.05671355 -0.29752606 -0.26790845
0.036550444 -0.1450913 0.039816905 0.083326526 -0.14788558 -0.22898957 -0.07337703 -0.38761526
-0.36495003 0.07219269 0.018763138 0.05505972 -0.16272138 -0.12725759 -0.33092734 -0.14713687
-0.09130698 -0.26481897 -0.30318508 -0.43038893 -0.2048776 -0.23575212 -0.5041902 -0.24931102
0.029865019 -0.28473735 -0.39312893 0.13339297 -0.08003511 0.03559814 0.037326235 -0.10991223
-0.1287516 -0.063950956 -0.33085918 -0.27684563 -0.0912086 -0.20015593 -0.10327627 -0.04760327
-0.22585364 -0.24724159 -0.2283198 -0.413435 -0.43964958 0.029052913 -0.03745647 -0.03182682
0.109273136 -0.14992332 -0.37730908 -0.0015143214 0.27919766 0.043003462 0.39095044 -0.39827287
0.1589518 -0.294544 0.5782627 0.04347056 -0.100139074 -0.15355618 -0.031070529 -0.11183901

raise_dim.0.attention1.0.weight f4 [9, 9, 3, 3]
00000000: 1eec de3e 3465 f33d 4279 b6bd 7f91 983e
00000010: 83e7 96be c7e4 a9be 0f51 01be ae6e db3c
00000020: bbd4 04bf 93f9 6c3d 581e a13d da41 37bd
00000030: c32d 873e c710 503e 8b9f d13d c29c 903a
00000040: 2c69 743d ab71 bcbd 0d00 3a3e 54e7 423d
00000050: 078d fdbd 1628 153e c176 3a3e cf8e a23c
00000060: 9a5e 6abd 2c35 ff3a 09ed 5bbd bdc2 963d
00000070: c292 3abe b1de eebd cc0a 273e a2f8 6a3e
00000080: 4f8e 613d 7422 64be 492e 3dbe f4a2 80be
00000090: 49d2 c33d 4285 c5bd 8961 85be 09c4 c73c
000000a0: fc35 503e 93b7 4dbe 5e25 b3bd d949 c2bd
000000b0: 5f5f c4be 70b2 1abd 08c2 8abe 951c a4be
000000c0: 6429 96bd 9587 86bd 2d66 a2be 6ace a3be
000000d0: 83a8 0dbe 93ab bbbe 3272 093e 0e59 153d
000000e0: 4607 20be 968b b13c 0b25 1e3e 8f93 67bc
000000f0: 1fae 7bbe 38e6 92bd 570e 64be 9908 fe3e
00000100: 1f86 c03e 02c3 ac3e 7768 133f e591 2e3f
00000110: df15 d13e 9bed 583e e9d4 e33e 9a7e 203e
00000120: 4cd1 323e 31ad e33d 5182 e63d 51b2 603e
00000130: 3254 7b3e 2d54 263e 6e03 11be c060 d93c
00000140: f5ce 75be 2075 b5be 9fca abbe a204 6abe
00000150: 723c 47be 1f2a 05be 3101 08bd 16a9 78bd
00000160: dcd8 863d 832b 013e f917 9fbe 7821 45be
00000170: e196 88be d69d 61bd 998b 503d 8942 5dbd
00000180: e889 15be 665c 8e3d cf26 95bd 538d a5be
00000190: fbc9 00b9 a673 aabe 60d0 753d 75c3 833e
000001a0: a9b6 f9bc 6ed5 2fbe 5f33 7d3e 28d1 a33c
000001b0: cf92 21be 70b6 233d c8cb 4bbe e346 903d
000001c0: 6ede e93e 6dc2 733d 042c 46bd 3952 bb3e
000001d0: f851 373e 54ec 4ebe 4a02 d73c f11f 63be
000001e0: 5b34 c2be 9b07 863e 71f4 123e eba6 e3be
000001f0: 0f3c 493e 38c7 d7bd a5d6 b6be b7ee f43c
00000200: 6a3e e7bd 7f78 70be 9b17 c33d 2b91 3dbd
00000210: d436 94be 4c75 023e f4e5 b1bd bb51 e639
00000220: e9fb 5c3e aca9 f1bc 7b42 89be 4daf 9d3d
00000230: 8115 8abc 9800 87be 54fc 3ebc 01cb 15bc
00000240: d018 9cbe 3339 ccbe 8b43 f3be 1cca a6be
00000250: 7abf 3dbe fe63 60be d5d4 e2be 69ec 6cbe
00000260: 5cbb bcbe 731c 5ebe a8d5 94be 8c44 d0be
00000270: 7eb5 c8be 9fa5 57be 5b66 e2bd 1e7b cbbe
00000280: dacb a5be e015 47be 9dea 92bd 8203 433d
00000290: 4212 77bd dc8b 363c 6e78 dcbd 0ee4 edbc
000002a0: 0cc9 7bbd 6aec 0fbe 4a74 2b3c d404 2b3c
000002b0: 4436 f0bc bddc 18bb 7d97 8e3d fd9b 163d
000002c0: be3e cb3c ac78 893c 5291 cbbd 54fe a13d
000002d0: ec87 a2bd b0be 85bd 0556 0abe 9911 93bd
000002e0: 20ba 19be 9f28 283d 4e30 bcbd db9c f5bd
000002f0: 5328 e5bc cc91 bdbd 5313 e93b a902 55bd
00000300: 07b3 a5bd 7419 62bd 7a33 2d3d 8208 41bd
00000310: d5e9 203d ecb7 913d 09dc df3d 3862 92bd
00000320: 3875 aa3d 3cc5 94bd bb59 9b3d 737e 7abc
00000330: 8a96 0b3e dbe8 063d d34d 663d b7a5 a63b
00000340: 2204 d23c 8d88 a13d d106 f73c 1ada 3b3c
00000350: e952 d2bd 8cfb 093e 621f d53d d2dc e33d
00000360: dcb0 833d ed8e babd 1e0d 68bc 9f70 9f3d
00000370: 2866 03be 5c42 c43d 9d29 40bd 1164 96bd
00000380: 323b b63d 11c0 19be c7ae c0bd 3e43 1c3d
00000390: 458b 6fba 452f 09bc 067b ccbd 8105 d9bd
000003a0: bd8c 673d 5f15 39bd a125 94bd 9b42 233c
000003b0: 3beb 86bd 8ce4 103d 413c 8d3c f173 debd
000003c0: 8439 9bbd 1d15 acbc b25b 763d 1cda 8fbe
000003d0: 6015 d2be 4613 5dbe d73a cbbe 7f15 953d
000003e0: d0bc bcbd 5b88 19be 77a4 9dbe 3a97 94bd
000003f0: 2d44 cfbd 36b6 51bd b065 97bd 6b3c 6bbe
0.43539518 0.11884537 -0.08909847 0.29798505 -0.29473504 -0.33182356 -0.12628578 0.026786175
-0.518871 0.0578552 0.07867116 -0.044740535 0.264021 0.203189 0.102355085 0.0011033046
0.059670612 -0.09201368 0.18164082 0.047583893 -0.123804145 0.14566073 0.18209364 0.019843487
-0.057219125 0.0019470803 -0.05369285 0.07361362 -0.18220046 -0.11663569 0.16312712 0.22946408
0.055067357 -0.22278768 -0.18474688 -0.25124323 0.09561593 -0.096445575 -0.26050976 0.024385469
0.20333093 -0.2008956 -0.087473616 -0.094867416 -0.38354012 -0.037767828 -0.2710116 -0.32053056
-0.073321134 -0.06568829 -0.3171858 -0.3199342 -0.13833813 -0.36654338 0.13422468 0.036461882
-0.15627775 0.021673005 0.15443818 -0.014134302 -0.2457814 -0.07172817 -0.22271095 0.49615934
0.37602326 0.3374253 0.57581276 0.6819137 0.40837 0.2118439 0.44498375 0.15673295
0.17462653 0.11117018 0.11255325 0.21943022 0.24543837 0.16243048 -0.14161465 0.026535392
-0.24004729 -0.35440922 -0.33553025 -0.2285333 -0.19456652 -0.13004349 -0.03320426 -0.060708128
0.065843314 0.12614255 -0.31072977 -0.19251049 -0.2667761 -0.055082165 0.05091438 -0.05401853
-0.14603388 0.06951217 -0.07282793 -0.32334384 -0.00012282275 -0.33291358 0.060013175 0.2573506
-0.030482607 -0.1717126 0.24726628 0.019997194 -0.1577866 0.039968908 -0.19901955 0.070447706
0.45677513 0.05951159 -0.04838182 0.36586168 0.17902362 -0.2020734 0.026246209 -0.22180153
-0.3793057 0.26177678 0.1435106 -0.44463286 0.19651817 -0.10536045 -0.35710636 0.029898984
-0.112912014 -0.23483466 0.09525987 -0.04628102 -0.2894808 0.12740058 -0.08686438 0.00043929912
0.21580471 -0.029499851 -0.26808533 0.076994516 -0.016855957 -0.2636764 -0.011656839 -0.009142638
-0.3048768 -0.3988739 -0.4751247 -0.32576072 -0.18530074 -0.21913144 -0.44303003 -0.23137058
-0.36861694 -0.2169054 -0.29069257 -0.40677297 -0.39200968 -0.21059273 -0.11054679 -0.39742368
-0.3238209 -0.19441938 -0.07173655 0.047610767 -0.060320146 0.0111417435 -0.10765158 -0.029039409
-0.06147103 -0.14055029 0.010464737 0.010438163 -0.02932275 -0.002332493 0.06962488 0.036769856
0.024810191 0.016781174 -0.09939827 0.07909837 -0.07936081 -0.065305114 -0.13509376 -0.07181091
-0.15012407 0.041054364 -0.09188901 -0.119928084 -0.02797333 -0.09256324 0.0071128993 -0.05200449
-0.080907874 -0.055200055 0.04228542 -0.047127254 0.0392855 0.071151584 0.1093064 -0.0714764
0.08323139 -0.07264182 0.07585474 -0.015288937 0.13631645 0.032936912 0.056226563 0.0050856727
0.025636736 0.07887373 0.030154618 0.011465574 -0.1026972 0.13474864 0.104063764 0.111261025
0.064302176 -0.09109292 -0.014163284 0.07785153 -0.12831938 0.095829695 -0.046914686 -0.07343305
0.08898009 -0.15014674 -0.09408336 0.038150065 -0.0009137879 -0.008373086 -0.09984402 -0.10596753
0.056530703 -0.045186397 -0.0723374 0.00996461 -0.065878354 0.03537421 0.017240645 -0.10861958
-0.075793296 -0.021006161 0.06014604 -0.28096092 -0.41031933 -0.21589383 -0.3969333 0.07279491
-0.092157006 -0.14993422 -0.3078954 -0.07255407 -0.101204254 -0.05119916 -0.07392442 -0.22972266

raise_dim.0.attention1.0.bias f4 [9]
00000000: 8cef 0e3e ffc4 b23e 4f56 363b a945 57be
00000010: 16f8 ecbd f31d bf3e f6ba 96bd 2081 283e
00000020: fd1e ff3e
0.13958567 0.3491592 0.002782244 -0.21022667 -0.11570756 0.37327537 -0.07359879 0.16455507
0.4982833

raise_dim.0.attention1.2.weight f4 [9, 9, 1, 1]
00000000: 784d 453f 7f39 a83e e950 08be 5cad 1abf
00000010: 44d5 b53d 3587 f23e fd0a 35bf 699c 023f
00000020: 86cb 2f3f 58de 253f 7a2d 853f e120 15bd
00000030: 396b 653e bda9 6d3e 7f7f 6f3e 1126 a0be
00000040: 20c5 3abe 5272 a13e c27b 043f 2e16 b03f
00000050: e152 1ebe c9de bebc c137 7abe 79de 37be
00000060: 2bf8 923e 2524 debe 3312 d43c ffa2 5ebe
00000070: 43da b2be 9d43 f53c 77ef 863c fae7 253e
00000080: c686 babe 0a20 063e 1bd7 c6be 9339 9d3c
00000090: 5cf4 f43e d505 8f3e aad8 633d 3d9c a1bd
000000a0: 1966 5abe 6da6 92be de4a 70be a909 a13c
000000b0: e101 0fbd 2cb3 323f dff8 28bf e008 ebbd
000000c0: 4469 f6be 1df7 b0be 330b 103f e272 b8bd
000000d0: 1bc0 25be 8964 473e f9b0 e9bd d381 8b3d
000000e0: 6089 8c3e 7b8c d03d 4dc5 773e 33e5 ffbd
000000f0: 235c 013d 4493 4dbe 9f33 033d 3000 a53e
00000100: 5595 f43d 9f91 953e 2bd8 bfbd d0dd f7bc
00000110: f651 0a3d 3537 9c3e 6621 bcbe 1fa7 a2be
00000120: 54ee 9bbd a47a 13bf e0e1 2f3e 03e8 5ebe
00000130: 297a 28be 44e5 ad3e 2ee5 093e ffac 0b3f
00000140: 8e3c cc3e
0.7707133 0.32856366 -0.13312115 -0.60420775 0.08878568 0.4736878 -0.7071989 0.5101991
0.6866993 0.64792395 1.0404503 -0.03640831 0.22404183 0.23209281 0.2338848 -0.31279042
-0.1823926 0.31532532 0.5175134 1.3756769 -0.15461303 -0.023299592 -0.24435331 -0.1795596
0.28704962 -0.4338695 0.025887584 -0.21741866 -0.34932145 0.029939467 0.016471608 0.16201773
-0.3643095 0.1309816 -0.38835987 0.019192493 0.4784268 0.27934137 0.05562655 -0.07891128
-0.2132801 -0.28642598 -0.2346606 0.019657927 -0.0349139 0.69804645 -0.6600475 -0.11476302
-0.48127186 -0.34563532 0.5626709 -0.09006287 -0.16186564 0.19471945 -0.11410708 0.068118714
0.2744856 0.101830445 0.24196358 -0.12494888 0.03158201 -0.20075709 0.03203165 0.32226706
0.11942545 0.29212663 -0.09367403 -0.030257136 0.03376957 0.3051087 -0.3674423 -0.31768128
-0.07613817 -0.5760901 0.17176008 -0.21768193 -0.1645285 0.33963978 0.13466331 0.54560846
0.3988995

raise_dim.0.attention1.2.bias f4 [9]
00000000: c007 af3e ea2d ca3e 8996 b63e efe0 adbe
00000010: 74f9 c33e 654a a53e e28e 54be eace 4fbe
00000020: f80a 57bc
0.341856 0.39488155 0.35661724 -0.33960673 0.38276255 0.3228332 -0.2075763 -0.20293775
-0.013125174

raise_dim.0.attention1.4.weight f4 [9, 9, 1, 1]
00000000: cde6 afbe b93e 38be e0e3 c83d 62fd 933e
00000010: 7eab 3dbe 0b15 ffbe f4c7 6a3e 9178 b2bd
00000020: ad49 9a3e b943 0bbf 03c0 94bd 9923 813f
00000030: bcb3 123e 13f4 1d3e 8dfc 86be f5c8 b13a
00000040: a19f 583e fdc4 e1be 5598 f3be 07d6 a1bd
00000050: f51a 19bf c4ec 8d3e ab7a 6abf 7ac0 1b3d
00000060: 65ee 47be c0de ba3d 9daf cabe 7c1f 173f
00000070: 5cff 173e 7d8a e43e 5b7d 09bf 1268 883d
00000080: 73ec 1b3f af19 adbe 36c4 07bf 770e 253f
00000090: 59b1 933f 34e3 7f3f 6eaa 063e e946 1fbf
000000a0: d6f1 d13e f20c 1a40 a1f8 3cbf 0d4c 1bbf
000000b0: 842e 813f c0e5 0a3c 7f68 6fbc 9485 a83d
000000c0: d68c 46be b581 4d3d 60ce d0bd 0a7d 48be
000000d0: 7574 68bd 4098 9cbe afaa 8d3e 36f5 ca3e
000000e0: d5cc fb3e 1d05 afbe fd47 803e eece da3e
000000f0: 54bf f1bd 6772 bf3b 4fed 953e 6dca 7d3f
00000100: 3fe6 533f 4b8c eb3e 131c e2be 95e7 5c3e
00000110: 2252 4e3f 3884 9cbc 5c22 f4be 295e 1a3f
00000120: 698e d8be 118a 003c 05b3 743d 1442 4ebe
00000130: 0825 6f3e 9e75 86be 986f 13bd fddc 1d3d
00000140: 1392 e4be
-0.34355775 -0.17992677 0.09809089 0.28904253 -0.1852245 -0.49820742 0.22927839 -0.087144025
0.30134335 -0.5440021 -0.07263186 1.0088989 0.14326376 0.15425138 -0.26364556 0.0013563918
0.21154644 -0.44095603 -0.47577158 -0.079021506 -0.5980676 0.277197 -0.91593426 0.038025357
-0.19524534 0.091245174 -0.39587107 0.59032416 0.14843506 0.44636908 -0.537069 0.06660475
0.6090767 -0.33808658 -0.5303377 0.64475197 1.1538497 0.9995606 0.13150951 -0.62217575
0.4100482 2.40704 -0.7381688 -0.6066292 1.009232 0.008477628 -0.014612316 0.08228603
-0.19389662 0.050172526 -0.10195613 -0.19578949 -0.056751687 -0.30584908 0.27669284 0.39640206
0.49179712 -0.3418359 0.25054923 0.42736 -0.11804071 0.0058424952 0.29282615 0.99137
0.827732 0.46005473 -0.44162044 0.21572717 0.80594075 -0.019106016 -0.47682464 0.60299927
-0.4229615 0.007845418 0.05974104 -0.20142394 0.2335397 -0.2626161 -0.035995096 0.03854083
-0.44642696

raise_dim.0.attention1.4.bias f4 [9]
00000000: 70a6 403e 7c83 2f3d b247 663d be4b 123f
00000010: 4a03 1f3f d428 1a3e e8a7 d53e 0ce4 373f
00000020: 1884 163e
0.18813491 0.042850003 0.056220718 0.57146823 0.62114394 0.15054637 0.41729665 0.71832347
0.14698827

raise_dim.0.attention3.1.weight f4 [32, 9, 1, 1]
00000000: 0090 00be 11ce 5abb 5198 7e3d 5561 763d
00000010: f17c a1be 91c1 ae3e c3e8 343e c3c9 6dbe
00000020: ce14 3f3e 88ff 393e ced0 fdbc c282 4c3e
00000030: a49e 89bd 1fc6 c6be dd43 90bc 46b2 923e
00000040: a31c 80be 64b4 323e ff93 c23d 3442 2cbe
00000050: c5a9 6ebd 8bc6 363e 4c32 34be 4d06 7a3e
00000060: a303 373e 41ee 3f3e e2c8 7e3e 3161 f2bc
00000070: 811d 50be 0c9f 163c a383 29be 3d1a be3d
00000080: 2668 b73e 69b9 a7bd 802f 82bd 5214 cb3e
00000090: a190 a7be ef98 ccbd 9783 863e b5c2 6e3e
000000a0: 467e ea3d 20c4 4bbe b43a 7a3d c919 40be
000000b0: a35d a9be 6bea e7be 8ff2 e03e c994 653e
000000c0: 54f4 833d 0eb2 a2bd 49e1 d43d 74a4 a3be
000000d0: c87c 3a3e fa01 54be 52f1 f8bd a538 47bd
000000e0: 9b8f 8fbd b0f3 aabe cf96 283e e974 023d
000000f0: f15b 9e3e c0dc 5c3e 8d77 503d 4344 383e
00000100: 7548 a63b cb76 f63d 4e53 9bbe 2c91 32bd
00000110: 27a2 84bc cc1a 1f3f 5f46 dfbe 5da5 24bd
00000120: 09a7 cfbd 577d 1b3e 2f37 cf3d 6329 e1be
00000130: 9be8 c5be e1ac 633e 3ce4 013c 93a1 a2be
00000140: 370d d5bd 09f2 e83d 759f 57be e852 a0be
00000150: d048 6cbe 16c0 84be c0c0 ddbd b52f 973c
00000160: 4af8 d63d 1df4 59be b376 84be 13ae e6be
00000170: e5e0 a73c 689f ba3d c950 0c3e 73c3 6b3d
00000180: 3b89 42ba 1383 6abe 6cde d2bc 2498 71be
00000190: a8aa 923d eb5a 7cbe 0476 acbe 0c12 4f3d
000001a0: 2b10 bd3d f0a3 b53c ca6e 8c3d c8a1 203e
000001b0: 3f19 54bc 2354 c9be 6bd0 bcbe de53 ddbc
000001c0: ccd9 94be d9d8 1ebe fb86 123e 16e6 93bd
000001d0: fdd4 633d 34a2 79bc 312f 06be f33c 423e
000001e0: 2046 b0bd 9ac7 f83d 87fe 73be dba7 613e
000001f0: bfcb e8bd 58ad 8e3e c815 433e 8a5d 803e
00000200: 2bd8 263e bc1e 073d a93b b3bd 4c1b d2bd
00000210: 8049 6fbe a3df 8bbe 248d 863e ba55 523d
00000220: 1511 343e 6f0d 343d 5b09 be3d 0b3c 87be
00000230: b05e 66be 8e16 a63e 4240 cc3d 2722 553e
00000240: de9a 84be d624 323e e88b 7abe ae13 153d
00000250: 0a41 1d3e 6ea3 48be 5724 ddbe a80b c43d
00000260: 98ef 9c3e 3821 a53e 32e0 bfbe d5b3 d1bd
00000270: 1ab4 9ebe cd19 a5be 4835 863c e865 003f
00000280: 1de8 4dbe 3bb5 973d cea3 a23e 6932 16bd
00000290: 0c33 913e 1810 8c3e fbe7 643e 337d e8bd
000002a0: 7da3 f7be 7cf3 6ebe 1ace 67be 209f ae3e
000002b0: a094 3f3e b86f 063e 7b0b 7bbe aa1d a3be
000002c0: 6698 a33e 12db ff3d 78bc bfbe 2617 883c
000002d0: 6467 a6bd c9ee e8bc 4853 0c3e 8845 173e
000002e0: cbc3 88be ccaa 53bd 98f2 9ebe 0773 703e
000002f0: 71aa ef3d dc36 183e ac47 a13e df5c ae3d
00000300: 583d dabe f85f ef3b 4d00 82be f198 363e
00000310: d899 323c 1eb5 d53e 1d3a 55be 6a08 d9be
00000320: 3524 1bbe ee64 1bbd 62d0 293e 6859 cd3e
00000330: 5bfe 093f 861b 4e3d 88bc 943d 71a8 eebc
00000340: 50fd 8cbe b37f d33d 27a7 68be 392f a23b
00000350: c1a8 883e 4350 db3e 627d 04bf 5cfb 8f3e
00000360: 44a1 8abe a41f 6bbe 293e c93d 81cc af3c
00000370: 827a 46be a562 aa3d 387f eabe 8e1d f33d
00000380: 2a3e 933e 0a86 f9bc 3814 15be 724b 38be
00000390: 8232 95be 3519 51be ebc6 b73d ba74 1cbe
000003a0: dd34 f8be f06f b9bc 84b9 5fbe 9706 36be
000003b0: 2468 80b7 ecfe 08be b401 ac3e f307 74be
000003c0: 01e8 bdbe b02a aebc 6304 bbbe bf9d 673e
000003d0: 58a5 693e d63d 2dbe 8a97 c7bd 063c 6a3e
000003e0: e834 63be 8e42 013e 89c3 90be efd1 36be
000003f0: cc0e 9bbd b01a a0be a556 1d3e 6879 97bd
-0.12554932 -0.0033386985 0.06215698 0.060151417 -0.31540635 0.34132054 0.17666917 -0.23221497
0.1866028 0.18163884 -0.030983355 0.19971755 -0.067197114 -0.3882303 -0.017610485 0.28651637
-0.25021848 0.17451626 0.09500884 -0.1682213 -0.058267374 0.17849176 -0.17597312 0.24416466
0.17872481 0.1874323 0.24881318 -0.02958736 -0.20323755 0.009193193 -0.16554122 0.09282348
0.35821646 -0.08189661 -0.06356716 0.3966394 -0.3272753 -0.09990107 0.2627227 0.23316462
0.11449866 -0.19899035 0.06109114 -0.18759836 -0.33079252 -0.45296034 0.43935058 0.22420038
0.06443086 -0.079441175 0.10394532 -0.31961405 0.18211663 -0.20703879 -0.12155403 -0.048638005
-0.070098124 -0.33389044 0.16463779 0.031849775 0.3092952 0.21568584 0.050895263 0.1799479
0.0050745555 0.12034377 -0.30336994 -0.043595478 -0.016190602 0.62150264 -0.43608376 -0.040196765
-0.10139281 0.15184532 0.10117947 -0.43976888 -0.38654026 0.22233917 0.0079279505 -0.31763896
-0.10402911 0.113742895 -0.21056922 -0.31313252 -0.23074651 -0.259278 -0.1082778 0.018455366
0.10496576 -0.21284528 -0.2587181 -0.45054683 0.02049298 0.091124356 0.13702692 0.05755944
-0.00074209616 -0.22901563 -0.025740825 -0.23593193 0.07161456 -0.24644057 -0.3368379 0.05055432
0.092315994 0.022172898 0.06857069 0.15686715 -0.012945472 -0.39322004 -0.3687776 -0.02701753
-0.29072416 -0.15512408 0.14309303 -0.0722162 0.055623043 -0.015236426 -0.1310394 0.18968563
-0.08607125 0.12147446 -0.23827563 0.22036688 -0.113669865 0.27866626 0.19051278 0.25071365
0.16293399 0.032988295 -0.08751614 -0.10259113 -0.23367882 -0.2731906 0.26279557 0.051351286
0.17584641 0.043958124 0.09279128 -0.26412997 -0.22497058 0.32439083 0.09973194 0.2081381
-0.25899404 0.17396864 -0.24467432 0.03639572 0.15356842 -0.19593593 -0.43191788 0.09572536
0.30651546 0.32251906 -0.37475735 -0.10239378 -0.30996782 -0.32246247 0.016382828 0.50155497
-0.20108075 0.07407614 0.31765598 -0.03666917 0.28359258 0.2735603 0.22354119 -0.11352005
-0.4836692 -0.2333507 -0.22637215 0.34105778 0.1870904 0.13128555 -0.24516098 -0.3185857
0.31952208 0.12492956 -0.37448478 0.0166126 -0.08125189 -0.028434174 0.13703644 0.14772618
-0.26711878 -0.051676556 -0.3104446 0.2348138 0.11702431 0.14864677 0.31499994 0.085138075
-0.42624927 0.0073051415 -0.25390854 0.1783178 0.010900937 0.41739744 -0.2082295 -0.42389232
-0.1515053 -0.03793805 0.16583398 0.40107274 0.5390374 0.050319217 0.07262522 -0.029133053
-0.27537012 0.10327091 -0.22720014 0.004949477 0.2669125 0.42834672 -0.5175382 0.2812146
-0.2707616 -0.22961289 0.09826309 0.02145982 -0.1938267 0.08319596 -0.45800185 0.118708715
0.28758365 -0.030459423 -0.14558494 -0.1799753 -0.29140097 -0.20419772 0.089734875 -0.15278903
-0.4847783 -0.022636384 -0.21848112 -0.17775951 -1.5307283e-05 -0.13378495 0.3359505 -0.23831157
-0.37091067 -0.02126059 -0.36526784 0.22618769 0.2281698 -0.1691812 -0.09745701 0.2287446
-0.22188151 0.12623045 -0.2827418 -0.17853521 -0.07571182 -0.3127036 0.15365084 -0.07396203

raise_dim.0.attention3.1.bias f4 [32]
00000000: 92f6 f5bc 766d 05bd 639e a9be 8746 18be
00000010: 8e55 653d ee55 b93c a593 64be 4ce3 fe3c
00000020: f45e 323d f2e9 ad3d 846a 1b3e 04f3 c6ba
00000030: 68cf 983d 66e3 25be 82c8 88bd 795d 2fbe
00000040: 0dc3 25bd beea 1f3e d62e 803d 7e4c 35bd
00000050: 468f e8bd 0a20 cfbd 257b 59bd 35c8 24bd
00000060: 351a 6c3d e207 043e ba1e 413e 033b aebd
00000070: db9e cc3d e7a6 75bd 865b acbd 3ae8 0cbe
-0.0300248 -0.032575093 -0.33128652 -0.14870654 0.055989794 0.022623982 -0.22321947 0.031114243
0.043547586 0.08491887 0.15177351 -0.0015178625 0.074614346 -0.16200027 -0.06678869 -0.171255
-0.040469218 0.15616891 0.06258933 -0.0442624 -0.11355452 -0.10113533 -0.053095955 -0.040229995
0.05764218 0.12893632 0.18859378 -0.08507349 0.09991237 -0.059973624 -0.08415894 -0.13760462

raise_dim.0.attention3.3.weight f4 [32, 32, 1, 1]
00000000: a701 1abe 2014 6dbe cd21 2a3e e826 11be
00000010: 7f94 193e 05bd 31bd 1580 04be c702 92bf
00000020: 724e 9fbd 8109 bb3c 3211 debc d58f 22be
00000030: a8c5 dabd 95aa ccbd 1105 103e d178 21be
00000040: 5fcf 063d 057a 98bd 2bb8 ed3d 6a5f 87bd
00000050: 531e 2f3e 50b2 14be 9e64 cdbe cbb9 8ebe
00000060: 3827 c03d b534 cfbd 63a4 d93d 8811 afbd
00000070: 323b 413e 6dc8 773d f485 7b3d 3144 9c3e
00000080: 6fb5 44bd 34f1 04bc 26b8 373d 14d6 cd3d
00000090: a10b 313d 3cc1 eebd 9bab aebd f99b d9be
000000a0: c106 d43d 0fa4 e3bd 7507 2abd 2763 273d
000000b0: ec4a b03c 884f 46bb 0806 b23d 32ce 133d
000000c0: 3634 2a3e 69f0 c2bc a4b8 1dbc ca90 343c
000000d0: 5bb6 dabc 6675 fe3d 6e2f 373e 6f56 91bc
000000e0: 0455 ed3d 94ff 3c3d f4d0 2dbe 813c 6fbc
000000f0: 635f 283e 27ba ddbd 12ec 52bd 4514 1dbd
00000100: 060b 9d3d 90f2 ac3d fb6b 1abe 3d72 973d
00000110: b06a c1bb 45dc 213e 78a3 71bd 67f9 1e3e
00000120: 8b1f 32bd 29c5 10be 8a6b 863c 42c5 7c3d
00000130: 8792 da3a 1644 52bd 443a 07bd 264a 5e3d
00000140: 946f e0bc ac04 62be 8242 2bbd 5715 e03c
00000150: 7f19 f7bc cacb 67bc 35a9 c1bd 0fcb 063e
00000160: 0130 a6be 161a 07bf 54da 9ebd fa94 18be
00000170: 2818 37be 28fa 0e3d dd42 cc3b c40d 733d
00000180: 8e42 a6bd 05fe 2c3e d275 a63c 81d6 a4bc
00000190: 3afe 9dbd 5131 1cbd 1b40 91bd d6ed 9a3d
000001a0: 2418 9dbd e999 7fbd 95a1 bfbd 97a5 c7bd
000001b0: e1de a1bc 2afa 263d 81c1 033d 1b37 4e3d
000001c0: 28eb c93d 208e 2dbc 1be2 8cbd e512 98bb
000001d0: 390f a13d 1da0 143d e743 05be 12e9 393e
000001e0: f37c c3bb 9b54 e6bc 62a1 253d 4141 af3d
000001f0: f00a f2bd 3c0e a43d b3d0 a43d 803a a0bd
00000200: 4cb7 083d 0fa5 d63d 8da4 153e f0bf 893d
00000210: b13a e3bd 0453 95bc 7c41 f5bc 93d1 8ebc
00000220: 0ae8 0b3e 2a7c 1d3e f7f3 463d 76c8 953d
00000230: 471d 153b 820d 4e3e e34c 133e 4867 7e3d
00000240: 6bfd fb3d 8d53 2e3d 3f01 46bd b8cc d6bd
00000250: 16c6 213d 85c3 8b3e 9528 fdbd bfeb 3abc
00000260: 3ed6 823e 003d 2b3e 0bed 393d 4dff c23d
00000270: c60a 09be f7aa 85bd 2ce7 c53c 2f93 103e
00000280: 9344 a93a ea7f 80bd 1cab 2abd 2b44 32bd
00000290: 82ae 5bbe 8db1 41be 8d3c 5cbd 8495 82be
000002a0: 2143 bb3d 9507 1ebe 494f 32be 4322 233e
000002b0: 3086 4e3b 48a9 3c3e 2beb 39be 66c7 d2bd
000002c0: 7ac7 7abd 07a2 03be 2076 03bc 9ed1 cf3d
000002d0: 19bd 4d3e eb21 98bd b5a8 223d 8395 8abd
000002e0: bd23 95bd 70f7 10be 846c fcbd 63a0 fb3d
000002f0: 9c6e aabc 64ec 373e 2b95 d93d e166 293d
00000300: 5b01 bf3d b6e8 62be f2d1 023d c645 933d
00000310: 2ae5 393e a7ba 46bd c025 2d3e a10e 73bd
00000320: 0292 f6bc 6d87 21be de51 323e f964 923c
00000330: 7738 453d 0f57 11be 5ecf 3fbe 1659 463d
00000340: bbb7 b9bc d69d 493d cbf0 89bc 333b a13c
00000350: 2103 2d3d 32f0 5e3d 36e5 de3c 16c0 733d
00000360: 38ca c4bd 787b 18be 3401 fe3d 62e0 9abd
00000370: 599e 88bd 2b38 56be 0d81 843c a670 a73e
00000380: 43cb a83d bfaf 023e 90ca 88be 5e63 04be
00000390: 6c90 b9bc 7426 e33c 3316 b8bd cfc9 58be
000003a0: b4fe d4bd fb73 05bc e7d9 603e 8e7d b1bd
000003b0: 2355 d03d 0047 48be 24a2 92bb ab29 49be
000003c0: 82b2 0dbe 94dc 8e3d 6a34 a8bc b2d4 ee3d
000003d0: 58c0 023e 6fbc c83b 97db 28be c05e 83bd
000003e0: c0d3 0abd 5d72 96be 8e20 12bc 6ba5 783d
000003f0: 4cb5 983d 2f46 d93d 3458 20bd 1e2e 943e
-0.15039693 -0.23152208 0.16614456 -0.14174998 0.14998053 -0.043393154 -0.12939484 -1.1407098
-0.07778634 0.02283168 -0.027107809 -0.1587518 -0.10682231 -0.099934734 0.14064433 -0.15768744
0.03291261 -0.074451484 0.11607393 -0.06609996 0.17101412 -0.14521146 -0.40115827 -0.27876124
0.093824804 -0.10117475 0.106270574 -0.08548266 0.18870237 0.060493875 0.061407045 0.30520776
-0.04802459 -0.008114148 0.044853352 0.10050598 0.04322398 -0.1165795 -0.08528825 -0.4250181
0.10352851 -0.11115276 -0.041511018 0.040866043 0.0215201 -0.0030259807 0.086925566 0.036085315
0.1662148 -0.023796277 -0.009626541 0.0110208485 -0.026698282 0.12424736 0.17889187 -0.01774141
0.11588481 0.046142176 -0.1697424 -0.014601828 0.16442637 -0.10826521 -0.051494665 -0.03834941
0.07668118 0.084447026 -0.15080254 0.07394836 -0.0059026107 0.15806682 -0.058993787 0.15524827
-0.043487113 -0.1413771 0.0164087 0.061711557 0.0016675749 -0.051334463 -0.03301455 0.054269932
-0.027396955 -0.22072095 -0.041811474 0.027353926 -0.030163525 -0.014147708 -0.09456102 0.13163398
-0.324585 -0.5277418 -0.077564865 -0.1490058 -0.17880309 0.034906536 0.0062335567 0.0593393
-0.08118163 0.16893776 0.020319853 -0.020121815 -0.077145055 -0.03813297 -0.07092305 0.07564895
-0.0767062 -0.06240264 -0.09356991 -0.09748381 -0.019759597 0.04076592 0.03216696 0.05034552
0.098593056 -0.010592967 -0.06879064 -0.0046409243 0.078642316 0.03628551 -0.13014184 0.18155316
-0.005965823 -0.028116515 0.04043711 0.08557368 -0.118184924 0.080105275 0.08047619 -0.07823658
0.03337793 0.10480701 0.14613552 0.06726062 -0.11095179 -0.018228061 -0.029938452 -0.017433917
0.13662735 0.15379396 0.048572507 0.073136255 0.0022753046 0.2012234 0.14384799 0.062110215
0.12304195 0.04256015 -0.048341032 -0.10488266 0.03949555 0.27297607 -0.12361256 -0.011408745
0.2555408 0.16722488 0.045392077 0.09521351 -0.13383016 -0.065267496 0.024158083 0.14118646
0.0012914113 -0.06274398 -0.04166709 -0.04352204 -0.21453288 -0.18915386 -0.053768683 -0.25504696
0.09143663 -0.1543258 -0.17413057 0.15931039 0.0031513087 0.1842395 -0.18156116 -0.102919385
-0.061225392 -0.12854777 -0.008023769 0.10147403 0.20091666 -0.07428344 0.039711673 -0.06766798
-0.07282207 -0.1415689 -0.12325385 0.12286451 -0.020804696 0.1796127 0.10624155 0.04135788
0.093264304 -0.22159085 0.0319385 0.071910426 0.18153825 -0.04851785 0.16908932 -0.059340123
-0.030098919 -0.15774317 0.17414042 0.017870413 0.048149552 -0.14193366 -0.18731448 0.048424803
-0.022670617 0.04922279 -0.016838452 0.019681549 0.042239312 0.054428287 0.027208906 0.05950936
-0.09608883 -0.1489085 0.12402573 -0.07562329 -0.066708274 -0.20919864 0.016174817 0.3270313
0.08241894 0.12762354 -0.26717043 -0.1292853 -0.022651874 0.027728297 -0.08988609 -0.21170734
-0.10400143 -0.008145328 0.21958123 -0.08666526 0.101724885 -0.19558334 -0.004474895 -0.19644801
-0.13837627 0.06975666 -0.020532805 0.11661662 0.12768686 0.0061259787 -0.16490017 -0.064145565
-0.033893347 -0.29384127 -0.008918894 0.06070463 0.07456455 0.106090896 -0.039146617 0.28941435

raise_dim.0.attention3.3.bias f4 [32]
00000000: b549 a1bd 7ed9 09bd c0de 673d 22b0 1c3e
00000010: 521d cc3c e962 2ebd fc38 fcbd 9a90 833c
00000020: 39bd 26be 663e 0abe 8fb0 133e 83fb d33b
00000030: 85d3 733d 9be9 8abc 2d5e 11bd 00ce b73d
00000040: fedb 943c ec43 1ebe 372f 573c 830a cc3d
00000050: a4df 5cbd 286f 60bd a40f 28bd bf29 3a3d
00000060: ff62 d1bd cbff a03d f920 b63d 257b aebd
00000070: 3115 d3bd 68be 74bc 8b32 98bd 7160 c63d
-0.078753866 -0.033654682 0.056608915 0.15301564 0.024916325 -0.042574797 -0.123155564 0.016060162
-0.1628312 -0.13500366 0.1442282 0.0064691915 0.059527893 -0.016957095 -0.035490204 0.08974838
0.018171307 -0.15455598 0.0131338155 0.099629425 -0.053924218 -0.054793507 -0.04103054 0.04544997
-0.1022396 0.07861289 0.08893008 -0.08519582 -0.10306776 -0.0149379745 -0.07431515 0.096863635

layers.0.conv1.weight f4 [32, 32, 3, 3]
00000000: 1903 273b 04c5 efbd 1f17 55be c8f7 30bd
00000010: 1aa7 43be ed16 c5bd 0050 6a3d a7d6 08be
00000020: 88db bebc 0de2 31b9 26b9 d4bc 8ead b33d
00000030: f889 233b 2f37 01be 5830 793d a4c4 4a3a
00000040: 52ae b9bd bf9a 093d 4cfa 8b3d 2155 373d
00000050: d776 07bd 9c67 193c 6061 80be 2854 063d
00000060: de25 943d ac55 adbd c1ec acbd 66cf b93d
00000070: 82b8 68bd 890d a5bc ad5c aa3c ccc2 4b3e
00000080: 8b2b e73d 6487 f53d 2a80 d13d 52fa 163e
00000090: 3521 38bd 0ea1 babe 9553 c4bb ce0e a5bd
000000a0: d513 3c3e 5d95 653c 2ba9 38bd f76e 6b3e
000000b0: 718d 94bc b5f5 a8bc 6274 be3d a679 c03d
000000c0: b138 c93d 5f5a d43d 617d 7d3b 6b21 b33d
000000d0: f126 dd3d d1ba cf3d 9d1c 973d e89f 1b3e
000000e0: 6c65 213e 2487 933b 6fef 6e3e 530f e53d
000000f0: 2d94 0e3d 9cfd 3b3e 1e7f 973d 058c a03d
00000100: 8871 443d ea40 aa3d 3194 903c b0e3 013e
00000110: ff58 933a f86e 3b3b 9dea b13d 29af e53d
00000120: 014b db3d b634 bc3d 451c 173e c844 bf3d
00000130: a0a5 0d3e c5ba bf3d be72 803d 21b7 fe3d
00000140: 7fa8 b53d 8f78 8dbd abf3 903d 867d c73d
00000150: 3079 b7bc 5d6c b6bd 873c 513c 6727 6abb
00000160: 2f7c cc3c 934d d23c 8842 133d 7034 b3bd
00000170: 851b 86be 6f6e dcbc 89c8 42be 8ad2 a73a
00000180: 4f95 fcbc 68c3 8abd 41c5 2abd 7bdf e5bc
00000190: 06f7 913c 9bab 003c e225 6fbd df26 81bd
000001a0: 735c 16bc ba14 91bd 847c 2ebd 2871 dcbd
000001b0: 9dbf 563d 0e39 85bd c0eb 5dbe f6bc 19be
000001c0: 6212 04be ec56 e0bc 411c e7bd 114b 60bd
000001d0: 3ce5 1bbd 0503 9e3d 0b8f 593d 2e0a 2b3c
000001e0: cc99 cf3d 8982 9bbd ee32 d6bc d8f2 943d
000001f0: 681e bfbd 95d3 0fbe ccdb b9bd d46d 44be
00000200: b3a8 37bd f783 a2be 4c33 e5bd bd3a 80bc
00000210: 5109 8bbe 8b91 e1bd 5e96 21be a5c2 2d3d
00000220: 99ed 433d 04c6 56bd bc5a 07bc 59c9 18bd
00000230: cc51 b9bd 17cc ca3c c969 abbd 9f64 3dbc
00000240: 45a9 4d3d e0d7 85bd eead 17be e392 81bd
00000250: 38f1 ddbc 26e0 983b 0483 00be 9d54 67bd
00000260: fd4e dcbd 2c3a 593b 9430 543e a5ea b93e
00000270: ebf3 2abd 7c87 5f3e 7579 803d b306 0dbc
00000280: 1e76 613e 791e 763e e1da 11bd 73f3 debd
00000290: 4d87 13be a80c f2bd 6550 5ebd 0077 52bd
000002a0: 12dc ddbd 0cd5 17be 7e7c cdbd eaa7 8cbd
000002b0: cd30 b53d 336d 1f3e 0b66 273e d867 193e
000002c0: 5e5b 833d e555 263e 8f15 4d3e 96a9 ee3d
000002d0: b2ac d93b 3db1 d13d cde8 2d3d 2f88 1bbc
000002e0: b9f1 113e 383a c43d d845 043d e0e5 673d
000002f0: 5c6e ea3d e0b2 a53d fb9a 1d3e 1a2c 0e3e
00000300: 43bc 083e 2efa be3d 1209 1d3e 36bb 9b3d
00000310: 3ee1 143e f165 d83d 7f30 693d a8b3 d33b
00000320: bc8f d03d 2511 f6bd c261 b03d 5091 663e
00000330: b506 fcbc 7168 203e 9dab 89bd 2d52 ad3d
00000340: 729a 233c 4f17 e53d d7a3 113d 7248 163d
00000350: 2223 51bc 1e8d 633d 7615 8b3d 3af8 a93d
00000360: e4f2 503e b324 b7bd a0a4 afbd 6d3d b53d
00000370: 3f6f 473d dd01 93bd de33 e73c a58a f9bc
00000380: ea12 ddbc d586 ad3d 5399 033e 2bca 013e
00000390: cbb0 fb3d 9d98 cd3d 06fc f43d 3d76 c03c
000003a0: 7e58 c23d c771 b03d fe21 9abd 9e6e b9bd
000003b0: a30b 65bd bb39 8cbe 08ca 4cbd 5a81 8fbd
000003c0: 647c 08bd 17ef cc3d 7f0c 743d 9219 5d3d
000003d0: aab6 cdbc 9cba 703d 6a99 44be ff49 09be
000003e0: e109 653e ae4a 2cbe 0e2d f83d 9ca3 903e
000003f0: 70fc 913d ac50 5c3c 512e 813d e681 633d
0.0025484024 -0.117074996 -0.20809601 -0.043205053 -0.19106713 -0.09623513 0.0572052 -0.13363133
-0.02329804 -0.00016964246 -0.025967192 0.08773337 0.0024954062 -0.12618707 0.06083712 0.000773499
-0.09066452 0.033594843 0.0683485 0.04475892 -0.03307232 0.009363081 -0.2507429 0.0327951
0.07233785 -0.08463606 -0.08443595 0.09072761 -0.056816585 -0.020148056 0.020796144 0.19898528
0.11287602 0.11988714 0.102295235 0.14743927 -0.044953544 -0.36451 -0.005991409 -0.080594644
0.1836694 0.014012662 -0.045083206 0.22991548 -0.01813385 -0.020624975 0.09299542 0.093982026
0.09825266 0.103687994 0.0038679468 0.08746608 0.10798443 0.10143054 0.073785044 0.15197718
0.15761346 0.004502194 0.23333524 0.111845635 0.03480928 0.18358463 0.073972926 0.078392066
0.047959834 0.083131626 0.017648788 0.12684512 0.0011241733 0.0028600078 0.08687327 0.1121505
0.10707665 0.09189741 0.14756878 0.09339291 0.13832712 0.09361795 0.06271885 0.12437273
0.08870029 -0.0690776 0.07077726 0.097407386 -0.022396654 -0.089073874 0.0127707785 -0.0035729052
0.02496156 0.025671756 0.03595212 -0.08750236 -0.2619287 -0.026908128 -0.1902181 0.0012803834
-0.030832915 -0.06775552 -0.041692022 -0.028060665 0.017817985 0.007853414 -0.058385737 -0.06306242
-0.009177315 -0.070840314 -0.042599216 -0.1076377 0.05242883 -0.06505023 -0.21671963 -0.15013489
-0.12897637 -0.027385198 -0.11284686 -0.05475909 -0.03806041 0.0771542 0.053114932 0.010439439
0.10136756 -0.07593257 -0.026147332 0.07272881 -0.093319714 -0.14045556 -0.09075126 -0.19182521
-0.04483862 -0.31741306 -0.11191425 -0.015653009 -0.27155545 -0.11014088 -0.15780017 0.042421956
0.047834013 -0.052434936 -0.008261379 -0.037301395 -0.09048805 0.02475552 -0.08369786 -0.0115596345
0.050210256 -0.065353155 -0.14812443 -0.063268445 -0.027092561 0.0046653925 -0.12549978 -0.056477178
-0.10757253 0.0033146245 0.20721656 0.36311832 -0.041736525 0.21829027 0.06273166 -0.008607554
0.22017714 0.24035062 -0.03560913 -0.10886278 -0.14407082 -0.1181882 -0.05427589 -0.05138302
-0.10832991 -0.14827365 -0.100335106 -0.068679646 0.08847199 0.15569 0.1634752 0.1498102
0.06413911 0.16243704 0.20027755 0.1165344 0.0066429013 0.10238884 0.042458344 -0.009492918
0.14252366 0.09581417 0.03229317 0.05661571 0.11446831 0.08090758 0.15391152 0.13884011
0.13353066 0.09325062 0.15335491 0.07604067 0.14539048 0.10566319 0.056931015 0.0064606257
0.10183665 -0.12014989 0.08612396 0.2251637 -0.030764917 0.15664841 -0.06722186 0.084629394
0.009985553 0.111860864 0.03555664 0.036690183 -0.012764724 0.0555545 0.06791203 0.082992986
0.20405155 -0.08942547 -0.085763216 0.08849607 0.048690077 -0.0717809 0.028222974 -0.030461619
-0.026986558 0.08472983 0.12851457 0.12674777 0.1228958 0.10038874 0.11962132 0.02349388
0.09489535 0.08615451 -0.07526015 -0.09054302 -0.0559193 -0.27387795 -0.04999736 -0.07007094
-0.033321753 0.1000654 0.05958223 0.053979464 -0.025111515 0.058771715 -0.19199148 -0.13407134
0.2236705 -0.16825363 0.121179685 0.28249824 0.07128227 0.013446968 0.06307662 0.055543803

layers.0.conv1.attention1.0.weight f4 [9, 32, 3, 3]
00000000: 6978 ab3e 972d 853e 9d11 263e 5c5c 833e
00000010: 55fd 523c 315f 943e 8125 ac3d a3c3 f13b
00000020: 6998 2d3e 98dd 2abc 3a57 363d 2d23 fa3c
00000030: 99de bdbc 3f25 56bd 8da5 8d3a 130c cbbb
00000040: 9744 963c 26f7 a93c 00cd 99bd 0b48 64bd
00000050: 96cb 12bd 3ce2 7abd acae 32ba e487 b63c
00000060: 2084 373d e828 f6bc 74f8 90bd 17d7 8d3e
00000070: 597d 8cbe 288b ad3e d784 96be 61c5 bb3e
00000080: 9768 6bbe b0ef f53a 7c56 bbbd 2b5d 893e
00000090: c38d c9bc 05fe 533d 7e34 32bd 88fc 153c
000000a0: 08c7 96bd a22d 39bd 0011 e5bb 89af 313c
000000b0: 55df 343d bd04 033c ad67 073d a550 853d
000000c0: 48ff f03c 5127 86bc aa4e 3a3c a3c2 0e3c
000000d0: a1f0 01bc 5102 fe3c 98c8 98bb 77e5 283d
000000e0: 700e ad3b 896e b43d 3033 713c 618b 5bbc
000000f0: 1d00 19bc f564 93bc 6a19 3d3d 582b 533c
00000100: 02e8 02bd d038 8ebc 7db7 21bd cf19 fdbc
00000110: bcaf 8abc fdec 00bd ee31 a63c fb4f db3c
00000120: acea c9b9 d2fa c53c 1234 d53c f61e c73c
00000130: 760c f53c 79df 0d3d 5470 a63d 6344 063d
00000140: 00f1 7e3d cfc0 ccbc e00b ca3d 561b 0dbd
00000150: abff 103c fbc9 b2bd b0a1 923a 033f 303d
00000160: 6416 1e3e bb57 b73d 4c05 e5bd 2117 67bd
00000170: 9b06 0abe d659 24be a1b5 33be adab 8ebd
00000180: e5b9 dabd b21e efbd cbfb e1bd 1d20 263d
00000190: d6aa 75bb 02ec b7bc 19ae dd3c 82f3 bbbc
000001a0: 695e 8fbc e474 a5bd 2480 053c 24d4 9cbd
000001b0: 6b07 4abe 1d38 6fbd d552 93be 635c 04be
000001c0: e7c5 2abe fdf0 46be ba4c 02be 063e 07be
000001d0: 2910 33be 8c96 3c3d 5ef3 4c3c 9680 843d
000001e0: ef1d 803d 1592 db3c 239d cc3c 6c12 2a3d
000001f0: 184d e5bc 98ad 41bd b584 a83d 4d79 67bc
00000200: b67a d6bd fa40 dd3d f20b d4be b71b 383e
00000210: b34c 733d e863 393d 248a 78bd 690c c8bd
00000220: a93b 8fbd ead3 b8bb 01a6 29bd 01b9 8d3c
00000230: 3e47 d5bd 9c38 9abc ce72 10bd daa0 acbd
00000240: 6374 82bd bd50 a9bc 2b43 32be fa56 0bbe
00000250: aaae 1abe 3a77 aabd e24f 81bc 56fb 4b3c
00000260: b212 943c cb2a 073d dd55 583c 3458 c0bb
00000270: 4456 5b3d 0822 7a3d f383 c13c a951 57bc
00000280: fc70 7c3c 0139 c53c aaca f7bd fe4f 38be
00000290: fa48 18be be55 d5bd 726a b5be 8334 cdbd
000002a0: 2cc2 57be 3ae5 16be b23c 54be 6bc6 513d
000002b0: b966 833d c41f 853d 89a4 9c3d cbb1 443d
000002c0: c94b 26bd e2b2 b53c b52c 533d 8bcd 343d
000002d0: b7cf e2bb a65b b3bc 2463 3d3d 82af c33d
000002e0: 9e44 003d 60c4 9f3c 6fbd 14bc cffd 513d
000002f0: 254b b03d 6bf9 fdbb 2a7f 803d d022 693d
00000300: b593 983d d110 393d 3f08 063c 273b 893d
00000310: 3571 cbbc 1565 823d b5e1 3e3e d4aa ce3d
00000320: 2147 433d 196b 903d 3904 f1bd 9bd8 913e
00000330: ca99 2e3b 64a9 df3d 3856 2f3d a00b 4a3d
00000340: 46c0 373d 7d7c 7dbd 3309 06bd bcd8 823c
00000350: beb0 0d3d ca34 083d 03cd 8bbd 6391 a53c
00000360: 7d64 cc3d 28cf 95be fd94 b3bc cbf6 2ebd
00000370: 3303 3f3e a4b9 13bd 54c7 f9bd 8afa 6cbe
00000380: 440d 2bbe e76f b73d 2a45 4c3b 2201 653d
00000390: cb12 b43c 3fd6 06bd e3af 47bc 4b7e a83d
000003a0: 605a f3bb 8dc9 94bc 369f 7a3d 2d9b 2ebd
000003b0: a7b2 e1bb 7e76 2b3d a432 29be 67a3 1dbd
000003c0: 8985 e5bd 3ae2 1dbd 2b0a b6bc 49a5 1dbe
000003d0: bdc7 a2bd e3e8 1dbe 488e 4ebd 3acc e2bd
000003e0: e749 22be 7386 87be 76ef a7bd 77b2 a0be
000003f0: 6ce5 01bc e183 dbbc 5395 a83c 514c 25bd
0.33490303 0.26011345 0.16217656 0.25656402 0.012877782 0.28978875 0.08405591 0.007378058
0.16952671 -0.010428809 0.04451678 0.030534351 -0.023177432 -0.052281614 0.0010806784 -0.0061965077
0.018343253 0.020747732 -0.07509804 -0.055732768 -0.035838686 -0.06125091 -0.0006816189 0.022281595
0.04480374 -0.030048802 -0.07078639 0.27703163 -0.27439383 0.3389523 -0.29398224 0.36674026
-0.22989117 0.0018763449 -0.09147355 0.26828894 -0.02460373 0.051755924 -0.04350709 0.009154446
-0.07362181 -0.045209534 -0.006990552 0.0108450735 0.0441583 0.007996735 0.033057857 0.06509522
0.029418603 -0.01637617 0.011371294 0.008713397 -0.007930906 0.031006964 -0.0046625845 0.04123446
0.005281262 0.088101454 0.014721677 -0.01339993 -0.009338406 -0.017992476 0.046166815 0.012888752
-0.03195954 -0.017361075 -0.03948163 -0.030896096 -0.0169295 -0.03147601 0.02028748 0.026771536
-0.00038512552 0.024167452 0.026025806 0.024306756 0.029913168 0.03463695 0.08126894 0.032780062
0.062241554 -0.024994282 0.09865546 -0.034449898 0.0088500185 -0.08729931 0.0011187103 0.043028843
0.15438229 0.0895228 -0.11182651 -0.05641854 -0.13479082 -0.16049895 -0.17549755 -0.06966338
-0.10679988 -0.116757765 -0.11034354 0.04055797 -0.003748586 -0.022451404 0.027060555 -0.022943262
-0.017501073 -0.08078936 0.008148227 -0.0765765 -0.19729392 -0.058403123 -0.28774133 -0.12925868
-0.16677056 -0.19427867 -0.12724581 -0.13207254 -0.17486633 0.04604201 0.012509195 0.06469838
0.062557094 0.026803056 0.024977272 0.041521475 -0.027990863 -0.047284693 0.08228437 -0.014128041
-0.10472624 0.10803409 -0.41415364 0.17979322 0.059399318 0.045261294 -0.060678616 -0.09767992
-0.06993801 -0.0056404965 -0.04141808 0.01730013 -0.10413979 -0.018825822 -0.035265736 -0.084291175
-0.06369855 -0.020668382 -0.17408435 -0.13607398 -0.15105692 -0.08323522 -0.015785161 0.01245006
0.01807532 0.032999795 0.013204065 -0.0058698896 0.053549066 0.06106761 0.023622489 -0.013142028
0.015407797 0.024075033 -0.12099202 -0.17999265 -0.14871588 -0.10416745 -0.35432774 -0.100197814
-0.21070164 -0.1473588 -0.20726278 0.051214617 0.06416077 0.065001994 0.0764857 0.04802112
-0.040599618 0.022180025 0.051556308 0.044141334 -0.006921734 -0.021894287 0.046237126 0.0955496
0.03131544 0.019502819 -0.009078368 0.05126744 0.08608083 -0.00775068 0.062742546 0.056917965
0.07450048 0.045182053 0.008180677 0.067007355 -0.024834255 0.06366936 0.18640788 0.10091177
0.047675256 0.07051677 -0.117683835 0.2848557 0.0026641958 0.109209806 0.042806834 0.049327493
0.0448611 -0.0618863 -0.032723617 0.015972488 0.034592383 0.03325347 -0.06826212 0.020210927
0.09980104 -0.2925961 -0.02192163 -0.04271583 0.18653564 -0.036065713 -0.12196222 -0.23142448
-0.16704279 0.089568906 0.0031169155 0.055909283 0.021981617 -0.032919165 -0.012187931 0.082272135
-0.007426545 -0.018162513 0.06118699 -0.042628456 -0.006887752 0.04186105 -0.16523224 -0.03848591
-0.112071104 -0.038545825 -0.022221645 -0.15395083 -0.07948253 -0.1542087 -0.05042866 -0.110741094
-0.15848504 -0.26469764 -0.081999704 -0.31386158 -0.007928234 -0.026796283 0.020579016 -0.040355984

layers.0.conv1.attention1.0.bias f4 [9]
00000000: bbf0 26be 1326 823d 1d3c 093e 2b82 b53e
00000010: 2d37 003e cce8 543e 87e6 5c3e 311f 42be
00000020: 621f 18be
-0.16302769 0.06354918 0.13401838 0.35450873 0.12521048 0.2079193 0.21572314 -0.18957211
-0.14855722

layers.0.conv1.attention1.2.weight f4 [9, 9, 1, 1]
00000000: 5d71 2a3d 5eb6 fdbc 498a 19bc fe99 7ebe
00000010: 385a 33bd eeb2 433e 706f 73be 50bc 5b3e
00000020: bead acbb 0193 c7be dae8 1e3f 6331 8f3e
00000030: e051 c33e 663f c03e 9c6b c83e 8691 853d
00000040: efbe 08bf 3d55 2fbf 01d0 cbbd f8ae a23d
00000050: ff29 09bc 9355 81be 6206 dd3e 7e46 2abe
00000060: 3d88 80be bb3c a7bd bead be3e 2c05 aebe
00000070: be04 01bf 5c6d 90bf 9c54 db3e b1e9 7d3e
00000080: d6cc 50be e55e 783e 9921 b0be d9c1 ef3e
00000090: 5105 3b3e 15aa 8e3e 0d44 d53d a8be adbe
000000a0: 46b2 ee3e 6158 bebc 0407 e1be 5b9e ee3d
000000b0: 4e08 03bf 1c92 c4bd 631b c9be 62f9 dabe
000000c0: 3bd8 863e 5429 20bf 9dcc e53e 7093 d33e
000000d0: 8584 1d3d b574 88be 5d8d 19be 152c b6be
000000e0: b0c2 29be 72b2 c93e 7e87 27be 0560 883e
000000f0: 6f36 ea3e c9e3 ddbe 364b e9be 1fd7 933e
00000100: 14d5 123e d487 97bd 80e5 31bd 7442 ad3d
00000110: 591b 143e cce1 ddbe 15ee 6ebe 6220 cebd
00000120: 4808 83be 6bae 263e 277a 1f3f cad8 813e
00000130: b440 243f c939 a3bc 2408 0f3e 7716 eebe
00000140: 08eb f4be
0.041612018 -0.030970749 -0.009371349 -0.24863431 -0.04378721 0.19111225 -0.23772979 0.21458554
-0.005269735 -0.38979343 0.62074053 0.27967367 0.38148403 0.3754837 0.391446 0.06521897
-0.5341634 -0.6848944 -0.09951783 0.07943529 -0.008371829 -0.252606 0.43168932 -0.16628453
-0.25103942 -0.0816588 0.3724193 -0.3398832 -0.5039786 -1.1283374 0.4283799 0.24796177
-0.20390639 0.2425495 -0.34400633 0.46827582 0.18263747 0.27864137 0.1041337 -0.33934522
0.46620387 -0.023235502 -0.43950665 0.11651298 -0.51184547 -0.09598181 -0.39278707 -0.4276839
0.26336846 -0.6256306 0.4488267 0.41323423 0.03845646 -0.2665154 -0.14995332 -0.35580507
-0.16578174 0.39393955 -0.1636028 0.26635757 0.45744655 -0.4333785 -0.45565194 0.28875062
0.14339095 -0.07398954 -0.04343176 0.084599406 0.14463557 -0.43336332 -0.23333009 -0.1006477
-0.25592256 0.16277473 0.62295765 0.2536071 0.6416123 -0.019925015 0.13967949 -0.46501514
-0.47835565

layers.0.conv1.attention1.2.bias f4 [9]
00000000: db13 883c fc21 57be b209 8bbc 669b 193f
00000010: 5221 733d 33e3 b93e cd85 f83c 12f3 bcbe
00000020: 5a28 783e
0.01661103 -0.21009058 -0.016972397 0.60002744 0.05935795 0.36306152 0.030337239 -0.36904198
0.24234143

layers.0.conv1.attention1.4.weight f4 [9, 9, 1, 1]
00000000: 03d7 333d 4ed2 febe 9f59 a23e d25f 093f
00000010: f719 c03e d81e e3be e21a 45be 83db d73e
00000020: 8e01 1bbe 8b9d 083d bbb9 bbbe 6704 babe
00000030: 9801 eabd f519 03be e759 6cbe e0b3 5f3e
00000040: 4fc4 febd e4dd 6cbd dad9 073e ca94 bb3c
00000050: faf3 21bd faed bcbe af14 153e ac5f 8ebd
00000060: f95c 2abe 6e7b 31bd 5b09 75be 243a 0bbe
00000070: b1bd f9be 4a70 593e 0c8b a53e e666 3f3e
00000080: 2d47 b63e 796e 12bd b591 11be c2b1 38bf
00000090: a6e4 74be 716c eb3e 5d2e 2bbf 4cd7 a53f
000000a0: d1fb b4bf ced4 9b3f cade 923f 67d3 7dbf
000000b0: 8b44 d53e 80a8 edbc fe77 e7be 0e0e 4c3e
000000c0: 19d1 493e 5041 bfbe 5dc0 ef3c f904 4abd
000000d0: 9805 69be 7280 adbe c304 2c3e 73e5 21bf
000000e0: 0ad1 d13e 14df 0ebf 0ccb dfbd eacd 6b3c
000000f0: b05a 13be c9c4 53be 0f1d c6be 96e0 abbd
00000100: d865 51be 4923 8dbe ace0 393e bb40 06be
00000110: 9583 da3d 3d2b 743e 5eb2 373d a330 3fbe
00000120: e6a5 b63e 4f85 58bd e235 f5bd 5471 b93e
00000130: 9f23 003e 690b e5be ce95 c2bd ec50 ab3e
00000140: 25c7 8dbe
0.043906223 -0.49769825 0.31709 0.53661835 0.3751981 -0.4435947 -0.19248536 0.42159662
-0.15137312 0.03335337 -0.3666514 -0.36331484 -0.11426085 -0.1280287 -0.2308117 0.2184596
-0.12439787 -0.0578288 0.13266698 0.022898097 -0.039539315 -0.36900312 0.14558671 -0.06951842
-0.16637029 -0.043330602 -0.2392935 -0.13596398 -0.48777536 0.21234241 0.32332647 0.18691596
0.35601178 -0.035749886 -0.14215739 -0.72146237 -0.23915347 0.45981172 -0.6686762 1.2956328
-1.4139348 1.2174318 1.147424 -0.991507 0.41653857 -0.029011011 -0.45208734 0.19927236
0.1970867 -0.37354517 0.02926653 -0.04932115 -0.2275604 -0.33887058 0.16798691 -0.63240737
0.40979797 -0.5580914 -0.109274 0.014392355 -0.14390063 -0.20680536 -0.38694045 -0.08392446
-0.20449007 -0.27565983 0.18152112 -0.1311063 0.106696285 0.23844619 0.04484784 -0.18670897
0.35673445 -0.052861508 -0.11973168 0.36219275 0.12513588 -0.44735268 -0.09501229 0.33460176
-0.27690998

layers.0.conv1.attention1.4.bias f4 [9]
00000000: fa48 a6be 1576 7f3e 4142 7dbe c4b9 84bc
00000010: b396 323f 0a14 14bd 1c31 533e 761a e93d
00000020: cd32 04bf
-0.32477552 0.24947388 -0.24732305 -0.016201861 0.697612 -0.036151923 0.20624202 0.11382
-0.51640016
