weights/BWNET_LAGConv_T4/model_epoch_520.pth (torch, 678374 bytes, 141 tensors)

raise_dim.0.weight f4 [32, 9, 3, 3]
0	0x3cb54f81	0.022132637
1	0xbe4074bb	-0.18794529
2	0x3de74baa	0.11293729
3	0xbc3905f6	-0.011292925
4	0x3e3a0bd6	0.18168578
5	0x3da90c87	0.082543425
6	0x3dba76ef	0.09104716
7	0x3d0daf6f	0.034591135
8	0xbd042793	-0.032264303
9	0xbd3ba1e1	-0.045808677
10	0xbd7e4dda	-0.062085964
11	0x3e9437cb	0.28948817
12	0x3d2b9e93	0.041899275
13	0x3d82e31d	0.06390975
14	0x3d324b44	0.04352881
15	0xbe2b6a61	-0.16739799
16	0xbda385d8	-0.07984513
17	0xbe1d0145	-0.15332516
18	0xbd53c11b	-0.05169783
19	0xbe465087	-0.19366656
20	0x3e8ef0ba	0.27918035
21	0x3d9adee2	0.07562043
22	0xbbc78165	-0.006088423
23	0x3da27eaf	0.07934319
24	0xbcb8b7bc	-0.022548549
25	0x3e1263dd	0.14295907
26	0xbe88c2e0	-0.26711178
27	0x3d9b1587	0.075724654
28	0xbe53341f	-0.20625351
29	0x3e9c5759	0.3053539
30	0x3d847822	0.06468226
31	0x3d1d6d17	0.038434114
32	0x3d07994a	0.033105172
33	0xbd06c6bd	-0.032904375
34	0x3db2c4cd	0.08728943
35	0xbe4ac916	-0.1980327
36	0x3ddb0866	0.10694961
37	0x3c2ab487	0.010419018
38	0x3eb8cc49	0.36093357
39	0x3ddbdb08	0.10735136
40	0x3d91131f	0.07083725
41	0x3dcea228	0.100895226
42	0x3e12e6e3	0.14345889
43	0x3d1e04e5	0.038578887
44	0xbde12192	-0.10992731
45	0x3d837859	0.06419439
46	0xbd8f2238	-0.069889486
47	0x3e4c3cf9	0.19945134
48	0xbcd73be1	-0.02627367
49	0x3b9e88d6	0.0048380895
50	0xbdb6ae92	-0.089200154
51	0xbdcb61d9	-0.09930772
52	0xbd230f96	-0.039809786
53	0xbcff34fc	-0.031153195
54	0xbd64993e	-0.055810206
55	0xbe0a91aa	-0.13532129
56	0x3cc2fa6d	0.023801053
57	0xbeb8731f	-0.3602533
58	0xbe8ad2fd	-0.27114096
59	0xbea1bbbe	-0.31588548
60	0xbe478e7e	-0.1948795
61	0xbeab910c	-0.335091
62	0xbf06e11a	-0.5268723
63	0x3ee68a8b	0.45027575
64	0x3f370949	0.71498543
65	0x3f3d074e	0.7383927
66	0x3e57bed7	0.21068893
67	0x3ea7632d	0.32692853
68	0x3e18ade4	0.14910084
69	0x3e0cd40f	0.13752769
70	0x3dfbabc2	0.122886196
71	0xbd188953	-0.037240338
72	0x3e649771	0.22323395
73	0x3f0bfd04	0.54682946
74	0x3f3f6ecd	0.74778444
75	0xbe92e173	-0.2868763
76	0xbe9229aa	-0.28547412
77	0xbe589ddf	-0.21153973
78	0xbe009825	-0.12558039
79	0xbe831c10	-0.25607347
80	0xbda9fc53	-0.0830008
81	0xbdcbeb43	-0.09956982
82	0x3d324939	0.04352686
83	0x3e3d2e55	0.18474706
84	0x3df9bfd8	0.121947944
85	0xbe45574e	-0.19271585
86	0xbdb4393e	-0.087999806
87	0xbcc509a1	-0.024052443
88	0x3e66007d	0.22461124
89	0xbcb7ae12	-0.02242187
90	0x3c22375f	0.009900897
91	0x3e0b42f1	0.13599755
92	0x3e954cc0	0.29160118
93	0xbb6ce263	-0.003614568
94	0xbe4a74a0	-0.19771051
95	0xbe3c5fbe	-0.18395898
96	0x3e0aa405	0.13539131
97	0xbe930359	-0.28713492
98	0xbdf9f935	-0.122057356
99	0x3ca08774	0.01959584
100	0x3e81fd2a	0.2538846
101	0x3e4a3763	0.19747691
102	0x3ec2e093	0.38061962
103	0xbd82b8d3	-0.06382909
104	0xbe01557f	-0.1263027
105	0x3e6824d3	0.22670297
106	0xbe00b905	-0.1257058
107	0x3e44ea18	0.19229925
108	0x3c5078d9	0.012724125
109	0x3e3542c9	0.17701258
110	0x3e0f7f72	0.1401346
111	0x3e9daa9d	0.3079423
112	0xbe8162ad	-0.25270596
113	0xbe6af1fd	-0.22943874
114	0x3e56c171	0.2097223
115	0xbeaf3ccc	-0.34226072
116	0x3e1d1709	0.15340818
117	0xbe6ff70d	-0.23434086
118	0x3db8923a	0.090122655
119	0x3e29b919	0.16574515
120	0x3db02ad1	0.086019166
121	0xbf260502	-0.6485139
122	0xbeda5108	-0.42639947
123	0x3d7efafb	0.062251072
124	0xbf22ced8	-0.6359687
125	0x3e4565e2	0.19277146
126	0x3e41bafd	0.18918987
127	0x3df4bca7	0.11950045
128	0x3d8694fb	0.065713845
129	0x3f303c76	0.68842256
130	0xbe1617b9	-0.14657487
131	0xbdd3665c	-0.10322258
132	0x3ebfa10a	0.3742755
133	0xbe8baf1b	-0.27282032
134	0x3e990221	0.29884437
135	0xbd5723ec	-0.052524492
136	0x3d305325	0.043048043
137	0xbdede5a0	-0.11616063
138	0x3e3ea4f6	0.18617615
139	0xbeb31a57	-0.34981033
140	0xbe2eaaed	-0.1705739
141	0xbba71317	-0.0050987112
142	0xbf03b4ec	-0.5144794
143	0xbe6ea60b	-0.23305528
144	0xbdb8ab78	-0.0901708
145	0x3e0a7c4b	0.13523977
146	0xbddbefdf	-0.10739111
147	0x3ec95d9a	0.39329225
148	0x3dd99d11	0.10625661
149	0x3d8db019	0.069183536
150	0x3e15628b	0.14588372
151	0x3d9a88e1	0.07545639
152	0xbe2d0efc	-0.16900247
153	0xbe6d5ca0	-0.23179865
154	0x3e3ceb00	0.1844902
155	0xbe0e1fd2	-0.13879326
156	0xbe293a30	-0.16526103
157	0xbea6cf20	-0.325799
158	0xbe91eb25	-0.28499714
159	0xbe8c02bd	-0.2734584
160	0xbf1646b9	-0.58701664
161	0xbe9a16ea	-0.30095607
162	0x3d34f241	0.044176344
163	0xbe95e22a	-0.29274112
164	0x3e47dde0	0.19518232
165	0x3e42de3c	0.19030088
166	0x3eee6021	0.46557716
167	0x3ee2b1fe	0.44276422
168	0xbe2f9d42	-0.17149833
169	0x3f19b62f	0.60043615
170	0x3e3e07fe	0.18557736
171	0x3ea9556e	0.3307299
172	0xbf229f4f	-0.63524336
173	0x3bc9c97d	0.0061580525
174	0x3e31f9d9	0.17380466
175	0x3e5cf4e9	0.21577801
176	0xbe94337f	-0.28945538
177	0x3ea6f384	0.32607663
178	0x3ec5ec46	0.38656825
179	0xbcb1088f	-0.021610526
180	0x3d807c4c	0.06273708
181	0xbe4fdf97	-0.20300137
182	0x3d8ead3d	0.06966636
183	0x3dd299f2	0.10283269
184	0xbdb5703c	-0.08859298
185	0xbe664999	-0.22489013
186	0xbe2746cc	-0.163356
187	0xbe830196	-0.25587147
188	0xbedd70fc	-0.43250263
189	0x3ddf3a52	0.108997956
190	0xbe649dc5	-0.2232581
191	0x3e88c11b	0.26709828
192	0x3ca3a059	0.01997392
193	0xbe981560	-0.29703808
194	0xbe4315d9	-0.19051303
195	0xbdfbef10	-0.12301457
196	0xbf0083b1	-0.50200945
197	0x3c80ecc7	0.015737904
198	0xbc9ed7b2	-0.01938996
199	0xbf03b375	-0.51445705
200	0x3dee78dc	0.11644146
201	0x3ccc91b9	0.02497183
202	0x3d457b5c	0.048213348
203	0xbddef150	-0.108858705
204	0xbe2838dc	-0.1642794
205	0xbdb8c009	-0.09021003
206	0x3ec71b61	0.38888076
207	0x3e943fe3	0.28954992
208	0x3f24330b	0.64140385
209	0x3f5cfb85	0.8632129
210	0xbe4500e7	-0.19238625
211	0xbeefb381	-0.46816638
212	0xbdc4ff19	-0.096189685
213	0xbebc15fc	-0.36735523
214	0xbf4c2a39	-0.79751927
215	0x3f492dcc	0.78585505
216	0xbd6b1e2e	-0.05740183
217	0xbede6271	-0.4343448
218	0xbd38432b	-0.04498593
219	0x3c6ccaf1	0.014452682
220	0xbdcae040	-0.099060535
221	0xbe41eb6a	-0.1893746
222	0xbdb1e9a0	-0.086871386
223	0xbe619049	-0.22027697
224	0x3e94995f	0.29023263
225	0xbe5b150d	-0.21394749
226	0xbed5e957	-0.41779587
227	0x3e6502ec	0.22364396
228	0xbda1e965	-0.079058446
229	0xbe703fdf	-0.23461865
230	0xbe9cf4b7	-0.30655453
231	0x3d9021aa	0.07037671
232	0xbe6d449c	-0.23170704
233	0x3c65551b	0.0139973415
234	0xbf0d587c	-0.5521314
235	0xbf7d37f0	-0.9891348
236	0xbebc076f	-0.3672442
237	0x3cbe6e7e	0.023246046
238	0x3debfea4	0.11523178
239	0xbe809ed7	-0.25121185
240	0x3e4f7afb	0.20261757
241	0xbcd652bb	-0.026162496
242	0xbe81be79	-0.25340632
243	0xbd9e8fa8	-0.07742244
244	0x3e82a9a9	0.25520065
245	0x3c9878a3	0.018612212
246	0x3ecfcd80	0.40586472
247	0xbecf4dd3	-0.40489063
248	0x3e171ab7	0.14756285
249	0xbe8a1ead	-0.2697653
250	0x3f1ba061	0.60791594
251	0x3d9c46d8	0.076307
252	0xbe0c4f3c	-0.137021
253	0xbe087aa7	-0.13328038
254	0xbde8c8ca	-0.113664225
255	0xbd766591	-0.060155455

raise_dim.0.attention1.0.weight f4 [9, 9, 3, 3]
0	0x3ea3148c	0.31851614
1	0xbd789c00	-0.06069565
2	0xbe2e58ce	-0.17026064
3	0x3e1328a0	0.14370966
4	0xbf15deab	-0.5854289
5	0xbe3d2102	-0.18469623
6	0xbe825508	-0.254555
7	0xbd386f4b	-0.045028012
8	0xbea50f81	-0.3223839
9	0x3db34dd8	0.08755082
10	0x3dd115b5	0.102092184
11	0xbce9cb45	-0.02853931
12	0x3ea1a794	0.31573164
13	0x3e93b0f9	0.28845957
14	0x3e36a6c6	0.17837057
15	0xbd39acb2	-0.04533071
16	0x3d61fdc4	0.05517365
17	0xbdf0e2c2	-0.117620006
18	0x3e369acd	0.1783249
19	0xbcd4b3f9	-0.025964724
20	0xbde33d6d	-0.110957004
21	0x3dffe8a8	0.124955475
22	0x3e21c906	0.1579934
23	0x3dbf42ce	0.09338914
24	0xbdeb0e0b	-0.11477288
25	0xbcbf995c	-0.023388557
26	0x3a39ccb7	0.0007087695
27	0x3d83b69a	0.06431313
28	0xbe91e903	-0.28498086
29	0xbdaa31c1	-0.08310271
30	0x3de3c152	0.11120857
31	0x3e339b6d	0.17539759
32	0x3e29cbb5	0.16581614
33	0xbe9c12c2	-0.3048306
34	0xbe581065	-0.21100004
35	0xbe068e1a	-0.13140145
36	0x3defd836	0.11711161
37	0xbd828079	-0.063721605
38	0xbdfd508f	-0.12368881
39	0x3cd3d4fc	0.025858395
40	0x3e9f1ff4	0.31079066
41	0x3d3f87df	0.046760436
42	0xbe2e158d	-0.17000408
43	0xbd36ae2c	-0.044599697
44	0xbe635a3d	-0.22202392
45	0xbb6acdc7	-0.003582822
46	0xbeb84908	-0.35993218
47	0xbeb4f29c	-0.35341346
48	0xbdf1f691	-0.11814607
49	0xbde6816d	-0.11255155
50	0xbe795a1c	-0.2435078
51	0xbee283e7	-0.44241259
52	0xbe389007	-0.18023692
53	0xbe957a62	-0.29194933
54	0x3dbd1fe4	0.09234598
55	0xbdc2b10a	-0.09506424
56	0xbe136f6c	-0.14397973
57	0xbdfaa905	-0.12239269
58	0xbb3da469	-0.0028937107
59	0x3c828be4	0.015935846
60	0xbf0e7ba6	-0.5565742
61	0xbeb0d574	-0.34537852
62	0xbea6dc51	-0.32589963
63	0x3f2fdd86	0.6869739
64	0x3f0180e3	0.5058729
65	0x3ebf8d70	0.37412596
66	0x3f3e1d0c	0.7426307
67	0x3f56c685	0.83896667
68	0x3eee49f5	0.465408
69	0x3e334c24	0.17509514
70	0x3ede41ed	0.43409672
71	0x3d4a6bb5	0.049419124
72	0x3ee2827a	0.4424017
73	0x3ebaac86	0.3645975
74	0x3ec2ae5c	0.3802365
75	0x3ed475be	0.4149608
76	0x3ee8637f	0.4538841
77	0x3ebbc183	0.36671075
78	0xbe1a0d8c	-0.1504423
79	0x3d2a399a	0.04155884
80	0xbe8885c6	-0.2666456
81	0xbf07a0e7	-0.5297989
82	0xbf383360	-0.7195339
83	0x3e1bb39e	0.15205237
84	0x3da7eb97	0.08199232
85	0xbf72fc4c	-0.94916224
86	0x3e9264d8	0.28592563
87	0x3e2954c5	0.16536243
88	0xbe941da2	-0.28928858
89	0x3e9af78e	0.30266994
90	0xbee529a1	-0.44758323
91	0xbe8321aa	-0.2561162
92	0xbe6b7c30	-0.22996593
93	0x3c733f48	0.01484663
94	0x3d4059f1	0.046960775
95	0xbb1786b4	-0.002312106
96	0xbe3553e6	-0.17707786
97	0x3d1f9777	0.038962808
98	0xbdaef10c	-0.0854207
99	0xbf2a0689	-0.6641622
100	0xbe4ebc22	-0.20188954
101	0xbeaff130	-0.343637
102	0xbe4990a6	-0.19684085
103	0x3dc3eeb5	0.09567014
104	0xbdb6787f	-0.089097016
105	0xbee17030	-0.44030905
106	0x3e09fc96	0.1347526
107	0xbd81334c	-0.06308612
108	0xbebec168	-0.37256932
109	0xbd550ac9	-0.05201224
110	0xbe43084c	-0.19046134
111	0xbc98fad6	-0.018674295
112	0x3ef664af	0.4812369
113	0x3d327f01	0.04357815
114	0xbe001994	-0.12509757
115	0x3ee8a84a	0.45440894
116	0x3e0b4497	0.13600384
117	0xbd594c9a	-0.05305157
118	0x3df43624	0.11924389
119	0xbe4597c7	-0.1929618
120	0xbd88c830	-0.06678808
121	0x3efbe813	0.49200496
122	0x3e269197	0.16266476
123	0xbe260d12	-0.16215923
124	0x3eea217b	0.4572867
125	0xbe0ea65e	-0.13930652
126	0xbec9f4a8	-0.3944447
127	0x3e83d33e	0.25747102
128	0x3d2c9310	0.042132437
129	0xbe93d0f6	-0.28870362
130	0x3eb9977b	0.36248383
131	0xbda5ae24	-0.08089855
132	0xbe844e6c	-0.2584108
133	0x3f0393db	0.51397485
134	0xbde97a75	-0.1140031
135	0x3e860b91	0.261807
136	0x3f1e2a5d	0.6178339
137	0x3eb43ec4	0.35204136
138	0x3ce4c851	0.02792755
139	0x3eb8d71a	0.3610161
140	0x3c947f61	0.018127145
141	0x3dfb0751	0.12257255
142	0x3e9ea936	0.30988473
143	0xbceed1bb	-0.029152742
144	0xbf44d6c3	-0.768902
145	0xbd4d615b	-0.050141674
146	0xbd47eaf4	-0.048808053
147	0xbf00ba2d	-0.5028408
148	0xbc9e33a9	-0.019311743
149	0xbeaae415	-0.33377138
150	0xbed42c13	-0.41439876
151	0xbd4ac5ba	-0.049504973
152	0xbf128d14	-0.5724652
153	0xbecf94bc	-0.40543163
154	0x3b6e387b	0.0036349583
155	0xbcaa310d	-0.020775342
156	0xbe44f3ff	-0.19233702
157	0xbc9661fe	-0.018357273
158	0xbde4dcbf	-0.111749165
159	0xbc6c6a21	-0.0144296
160	0xbe1989f7	-0.14994036
161	0xbea63fbd	-0.32470503
162	0xbe44fb15	-0.19236405
163	0xbe489a01	-0.19589998
164	0xbe69c82a	-0.22830263
165	0xbde10b3c	-0.10988471
166	0xbdf12f42	-0.11776592
167	0xbe8d08b2	-0.27545696
168	0xbe2cf750	-0.16891217
169	0xbe6f6e22	-0.23381856
170	0xbe9a55a6	-0.3014347
171	0xbcfaf770	-0.030635566
172	0xbdb89aca	-0.09013899
173	0xbd4dc766	-0.05023899
174	0x3d56cc45	0.0524409
175	0x3e0adf73	0.13561802
176	0x3e0f9987	0.1402341
177	0x3b9a673c	0.0047120135
178	0x3beacbb4	0.0071653966
179	0x3e4ef66d	0.20211191
180	0xbdb3b715	-0.087751545
181	0xbd4fde66	-0.050749205
182	0xbdd9d6a3	-0.10636642
183	0xbe4d490a	-0.20047393
184	0xbe77c624	-0.24196678
185	0xbcbb2b86	-0.022847902
186	0xbe65485a	-0.22390881
187	0xbe59781f	-0.21237229
188	0xbdbe0824	-0.092788965
189	0xbdf19bf9	-0.117973275
190	0xbd7cbb94	-0.061702326
191	0xbdbb086b	-0.09132465
192	0xbe260cfc	-0.1621589
193	0xbe49bbc3	-0.19700532
194	0xbd9230dc	-0.071382254
195	0xbe0baf15	-0.13641007
196	0xbdd585b6	-0.10425894
197	0xbd3cb87d	-0.04607438
198	0x3d91aeba	0.071134046
199	0xbe5ec8cf	-0.2175629
200	0xbd108f90	-0.035293162
201	0x3c772b5f	0.015086024
202	0x3d8b3cf7	0.067987375
203	0xbd1a84b2	-0.037724204
204	0x3e622f21	0.22088291
205	0x3cf20974	0.029545523
206	0x3d1f496b	0.038888376
207	0xbcd59a40	-0.026074529
208	0xbdcf7e6f	-0.10131537
209	0xbca48338	-0.020082101
210	0x3ca9f9e3	0.020749038
211	0xbe7a6677	-0.2445315
212	0xbebbb616	-0.36662358
213	0x3dfad97e	0.122485146
214	0xbe181d38	-0.14854896
215	0xbe1927b5	-0.14956553
216	0xbc09840c	-0.008393299
217	0xbe8b599f	-0.27216813
218	0xbe14aa94	-0.14518195
219	0x3e2774d2	0.16353157
220	0xbdd5270a	-0.10407837
221	0x3e4d72d1	0.2006333
222	0x3d5a454c	0.053288743
223	0xbc85c836	-0.01633082
224	0x3e64ef5d	0.22356935
225	0xbe8025f5	-0.2502896
226	0xbe5dc675	-0.21657737
227	0x3ae0466b	0.001711083
228	0xbc60590d	-0.013693106
229	0x3c8e9a50	0.017407566
230	0x3e03f716	0.12887225
231	0xbdb6219d	-0.0889313
232	0x3e075ddc	0.13219398
233	0x3e66e553	0.22548418
234	0xbe0aae09	-0.13542952
235	0xbdba62ef	-0.09100901
236	0xbddb69fd	-0.10713575
237	0x3e2d614c	0.16931647
238	0x3e810602	0.25199896
239	0x3e8eb36d	0.27871266
240	0x3d8d7fcf	0.06909143
241	0x3e81b40a	0.2533267
242	0x3ef79683	0.4835702
243	0xbe83282b	-0.25616583
244	0xbed2729a	-0.4110306
245	0xbe5df8ad	-0.21676894
246	0xbeae1dca	-0.34007102
247	0x3e427b43	0.18992333
248	0xbdc09112	-0.0940267
249	0xbd3d6c46	-0.046245836
250	0xbe600cd7	-0.21879898
251	0xbd18e638	-0.03732893
252	0xbda021ce	-0.07818948
253	0xbd2e3de4	-0.042539492
254	0xbd6638f0	-0.056206644
255	0xbe4163f0	-0.1888578

raise_dim.0.attention1.0.bias f4 [9]
0	0x3d24a286	0.040194057
1	0x3efb1055	0.49035898
2	0x3df36648	0.11884743
3	0xbe296068	-0.16540682
4	0xbda55cf3	-0.08074369
5	0x3ea83766	0.32854766
6	0x393e5cee	0.00018154431
7	0x3e01f5fb	0.1269149
8	0x3ee1a310	0.4406972

raise_dim.0.attention1.2.weight f4 [9, 9, 1, 1]
0	0x3f70a090	0.93995
1	0x3ee12c3d	0.43979064
2	0x3de536f3	0.11192121
3	0xbf14f3da	-0.5818459
4	0x3cb58e46	0.022162568
5	0x3edde883	0.43341455
6	0xbf429e81	-0.7602311
7	0x3efed8e5	0.49774852
8	0x3f2db35e	0.6785182
9	0x3f4d6ba4	0.8024237
10	0x3f85bebc	1.0448833
11	0x3d39ef80	0.04539442
12	0x3e8da0e7	0.2766182
13	0x3e226ea6	0.15862522
14	0x3e32ef13	0.17474012
15	0xbea55b20	-0.32296085
16	0xbe89ab90	-0.26888704
17	0x3e84b58c	0.2591976
18	0x3f15005a	0.5820366
19	0x3fd69372	1.6763747
20	0xbf350c55	-0.7072194
21	0x3c3d3868	0.011549093
22	0xbe3776bd	-0.17916389
23	0xbee3624d	-0.44410935
24	0x3e7cc7d8	0.2468561
25	0xbf2963ef	-0.6616811
26	0xbc708dcd	-0.014682245
27	0xbe848850	-0.25885248
28	0xbed8e5bc	-0.42362773
29	0x3d483a59	0.04888377
30	0x3c7e7843	0.015531602
31	0x3e2678ef	0.1625707
32	0xbe9cf4a0	-0.30655384
33	0x3e07ba29	0.13254608
34	0xbe929a26	-0.2863323
35	0x3cf96910	0.030445606
36	0x3f09df0e	0.5385598
37	0x3f693151	0.91090876
38	0xbdbcd1e3	-0.0921972
39	0xbce53d73	-0.027983403
40	0xbe87cd4d	-0.2652382
41	0xbef6e92c	-0.4822477
42	0xbeab2f77	-0.3343465
43	0x3d916efe	0.07101248
44	0xbce2bdac	-0.027678333
45	0x3f68fa5e	0.9100703
46	0xbf75635f	-0.95854753
47	0x3e912d69	0.28354958
48	0xbee3e6dc	-0.4451207
49	0xbefa855b	-0.48929867
50	0x3f0ea753	0.55724066
51	0xbdddc591	-0.108286984
52	0xbe49c7f6	-0.19705185
53	0x3e285642	0.16439155
54	0xbe06f7bc	-0.1318044
55	0xbd37717b	-0.044785958
56	0x3e94297b	0.28937897
57	0x3dd09f37	0.10186618
58	0x3e76bf31	0.24096371
59	0xbdb64894	-0.08900562
60	0x3d0344ed	0.032048155
61	0xbd8efdb4	-0.06981984
62	0x3d10a31b	0.0353118
63	0x3ee30d5b	0.44346127
64	0x3dcbe05d	0.09954903
65	0x3e97439a	0.29543763
66	0xbdc250b8	-0.09488052
67	0xbd03c768	-0.03217259
68	0x3de0ffca	0.10986288
69	0x3e9bbd25	0.30417743
70	0xbeb26cca	-0.34848624
71	0xbe92b85c	-0.2865628
72	0xbdd17b8a	-0.10228641
73	0xbf92d2e0	-1.1470604
74	0x3f840e39	1.031684
75	0xbe3d0b7b	-0.1846141
76	0xbdef579b	-0.11686631
77	0x3eb03440	0.34414864
78	0x3e3012dd	0.17194696
79	0x3f2d6d2d	0.67744714
80	0x3ec32755	0.38115945

raise_dim.0.attention1.2.bias f4 [9]
0	0x3e930eec	0.28722322
1	0x3e97ad61	0.29624465
2	0x3ebe6034	0.37182772
3	0xbe854da6	-0.26035804
4	0x3eae2bda	0.3401783
5	0x3e8f0002	0.27929693
6	0xbe13403c	-0.14379972
7	0xbe1e491b	-0.15457575
8	0x3c4223a4	0.011849318

raise_dim.0.attention1.4.weight f4 [9, 9, 1, 1]
0	0xbeabd389	-0.33559826
1	0xbe526fba	-0.20550433
2	0x3eebed4c	0.4607948
3	0x3e8951f4	0.26820338
4	0xbf4289e7	-0.7599167
5	0xbf05a185	-0.52199584
6	0x3e49955a	0.1968588
7	0xbe037b55	-0.12840016
8	0x3eab6096	0.33472127
9	0xbf07ca7a	-0.5304333
10	0xbd44ccb7	-0.048046794
11	0x3f8effcb	1.1171812
12	0x3dddb5b4	0.10825673
13	0x3f033af6	0.5126184
14	0xbebf2a21	-0.3733683
15	0xb95a6a3b	-0.00020829674
16	0x3e301b4a	0.1719791
17	0xbee30ce8	-0.44345784
18	0xbf029056	-0.5100149
19	0xbda94938	-0.082659185
20	0xbfc949b1	-1.5725614
21	0x3e8c8568	0.2744553
22	0xbfa10bef	-1.2581767
23	0x3d45c155	0.04828008
24	0xbe4cf710	-0.20016122
25	0x3e0e6e59	0.13909282
26	0xbee26041	-0.4421406
27	0x3f31b028	0.6940942
28	0x3e2b29b1	0.16715123
29	0x3f11c591	0.5694209
30	0xbf0eebaa	-0.55828345
31	0x3d91b6cd	0.071149446
32	0x3ef78394	0.48342574
33	0xbeb04c2e	-0.3443312
34	0xbf0f5c34	-0.56000066
35	0x3f4b5e52	0.79440796
36	0x3f6783ba	0.90435374
37	0x3f7d7160	0.9900112
38	0x3f72698f	0.9469232
39	0xbf1e8c46	-0.6193279
40	0x3f1b114f	0.60573286
41	0x3fefed43	1.8744282
42	0xbf3c7c7e	-0.7362746
43	0xbf19c159	-0.6006065
44	0x3f04832c	0.5176265
45	0x3b6e1a96	0.0036331764
46	0x3c45c60e	0.012071146
47	0x3eaf9b66	0.34298247
48	0xbe11c1ef	-0.14234136
49	0x3e67cd51	0.22636916
50	0xbe000f4e	-0.12505838
51	0xbdc713bb	-0.0972056
52	0xbd4f9ea9	-0.05068842
53	0xbea3b286	-0.3197214
54	0x3eb5ab9b	0.35482487
55	0x3ebcb947	0.36860105
56	0x3e85da0b	0.26142916
57	0xbeb9b1a2	-0.36268336
58	0xbe911150	-0.2833352
59	0x3ed447d4	0.4146105
60	0xbdfcfa21	-0.12352396
61	0xbda0974a	-0.07841356
62	0x3edf2ed2	0.4359041
63	0x3f793c23	0.97357386
64	0x3f540a0c	0.8282783
65	0x3f5c786a	0.8612124
66	0xbee2df02	-0.44310766
67	0x3eab70e2	0.3348456
68	0x3f18af4b	0.59642476
69	0xbc9bc17a	-0.019013155
70	0xbef34916	-0.47516698
71	0x3f074603	0.52841204
72	0xbef39a76	-0.47578782
73	0xba52ef37	-0.000804651
74	0x3f0d3482	0.55158246
75	0xbe086022	-0.13317922
76	0x3e2438bc	0.16037267
77	0xbe5743ba	-0.2102193
78	0xbbef5a2e	-0.0073044514
79	0x3dfc0407	0.12305456
80	0xbf03f149	-0.51540047

raise_dim.0.attention1.4.bias f4 [9]
0	0x3e69b044	0.22821146
1	0x3db9fee0	0.09081817
2	0x3d9c1802	0.076217666
3	0x3f2d76c6	0.6775936
4	0x3ec45b4c	0.38350904
5	0x3dfb1ffa	0.122619584
6	0x3ec9035f	0.39260384
7	0x3f20664f	0.6265611
8	0x3df5b8f8	0.119981706

raise_dim.0.attention3.1.weight f4 [32, 9, 1, 1]
0	0xbddc625e	-0.107609496
1	0xbd7eee3b	-0.062238913
2	0x3d8fddc1	0.07024718
3	0x3d95a9ce	0.07307778
4	0xbec2f2f6	-0.3807599
5	0x3eb72a79	0.35774592
6	0x3e427383	0.18989377
7	0xbe52f8ad	-0.20602675
8	0x3e3e6906	0.18594751
9	0x3e567011	0.20941187
10	0xbd27e3e0	-0.040988803
11	0x3e64f813	0.22360258
12	0xbd4dcecd	-0.05024605
13	0xbecca023	-0.39965925
14	0xbb8847ea	-0.0041589634
15	0x3e9d0668	0.3066895
16	0xbe827e43	-0.25486955
17	0x3e440faf	0.19146608
18	0x3e0ae6ae	0.1356456
19	0xbe6e9686	-0.23299608
20	0xbd1e6e82	-0.038679607
21	0x3e45e946	0.19327268
22	0xbe7f66a2	-0.24941495
23	0x3e77b6ef	0.24190877
24	0x3e1e353a	0.15449992
25	0x3e4fe0e4	0.20300633
26	0x3e6d054b	0.2314655
27	0xbdbabcd4	-0.09118047
28	0xbe834b4d	-0.25643387
29	0xbdb3e870	-0.08784568
30	0xbe8f5c5f	-0.2800016
31	0x3d7d9d3b	0.061917525
32	0x3ef85730	0.4850402
33	0xbd943895	-0.07237355
34	0x3c43c55e	0.0119489115
35	0x3ecd3b0f	0.4008412
36	0xbe945f88	-0.28979135
37	0xbd9aa9a1	-0.075518854
38	0x3e9a1243	0.30092058
39	0x3e8d1087	0.27551672
40	0x3e02c4dd	0.1277041
41	0xbe611f01	-0.21984483
42	0x3dcea408	0.1008988
43	0xbe47fd4b	-0.19530217
44	0xbead1177	-0.33802387
45	0xbed18f4e	-0.40929645
46	0x3eefa532	0.46805722
47	0x3e84307a	0.25818235
48	0x3dde14d9	0.1084382
49	0x3bcc23d8	0.006229859
50	0x3e3c07cc	0.1836235
51	0xbe94a0ef	-0.29029033
52	0x3e44a931	0.19205166
53	0xbe4ab039	-0.19793786
54	0xbddd518f	-0.10806572
55	0xbd7300ee	-0.05932706
56	0xbd873152	-0.06601204
57	0xbeb9a76b	-0.36260542
58	0x3e2fec1d	0.17179914
59	0x3d608c2e	0.054821186
60	0x3eb119a2	0.3458987
61	0x3e89f0d8	0.26941562
62	0x3deb900d	0.11502085
63	0x3e3dfa3d	0.1855249
64	0x3c82b7cd	0.015956784
65	0x3ddbe7e6	0.107375905
66	0xbe99bd38	-0.30027175
67	0xbda15956	-0.078783676
68	0xbc917c1d	-0.017759377
69	0x3f28b147	0.65895504
70	0xbeda3f64	-0.42626488
71	0x399f24ea	0.00030354346
72	0xbd996854	-0.07490602
73	0x3dfa7e54	0.122311264
74	0x3e0dc29b	0.13843767
75	0xbedfe6bd	-0.43730727
76	0xbef82d8a	-0.48472244
77	0x3e95bc5d	0.29245272
78	0x3d04466f	0.032293733
79	0xbec51465	-0.38492122
80	0xbe16b043	-0.14715676
81	0x3e1aeb07	0.15128718
82	0xbe5f38a7	-0.21798955
83	0xbe9e13ec	-0.30874574
84	0xbe3f402f	-0.18676828
85	0xbe800ccf	-0.25009772
86	0xbc3cdc1f	-0.01152709
87	0x3d6ed97a	0.05831287
88	0x3dab33aa	0.083594635
89	0xbe8ac996	-0.27106923
90	0xbe967699	-0.29387358
91	0xbef23ce6	-0.47312087
92	0x3bb52bef	0.005528919
93	0x3df8ee2b	0.12154802
94	0x3e2320be	0.15930459
95	0x3df9a227	0.12189131
96	0x3d021c92	0.031765528
97	0xbe4da93b	-0.20084088
98	0xbda91bf8	-0.08257288
99	0xbe6e608c	-0.23279017
100	0x3cf347b8	0.029697284
101	0xbe719c48	-0.23594773
102	0xbea4ba5f	-0.3217344
103	0x3dc459ba	0.095874265
104	0x3e25d72f	0.16195367
105	0x3cbc5803	0.022991186
106	0x3da643f1	0.081184275
107	0x3e277ca1	0.16356136
108	0x3d1479c8	0.036248952
109	0xbef71368	-0.48256993
110	0xbe9f06b2	-0.31059796
111	0x3d287329	0.04112545
112	0xbe96b793	-0.2943693
113	0xbd9c951f	-0.0764563
114	0x3e1c5d00	0.15269852
115	0xbd364d34	-0.04450722
116	0x3d87520d	0.06607447
117	0x3d8b52d4	0.068029076
118	0xbe85a4e2	-0.26102358
119	0x3e496313	0.196667
120	0xbca8b8b9	-0.020595895
121	0x3e13f926	0.14450511
122	0xbd931caf	-0.07183205
123	0x3e80ef34	0.25182498
124	0xbc5a134a	-0.013310263
125	0x3e928396	0.28616017
126	0x3e6cdc71	0.23130967
127	0x3e8143a8	0.2524693
128	0x3e2e41f8	0.17017353
129	0x3ccb51b6	0.024819236
130	0xbe0b09e8	-0.13577998
131	0xbdc0c4ad	-0.09412513
132	0xbe794840	-0.24343967
133	0xbe816bdb	-0.252776
134	0x3e8b3762	0.2719069
135	0x3daf3127	0.08554297
136	0x3e18653a	0.14882365
137	0x3d984a6e	0.07436071
138	0x3dc16e82	0.09444906
139	0xbe9effb9	-0.31054476
140	0xbe6c71bc	-0.23090261
141	0x3ea1fa6b	0.31636366
142	0x3dd6ebae	0.10494171
143	0x3e5b3141	0.21405508
144	0xbe7edb65	-0.2488838
145	0x3e3f5b54	0.18687183
146	0xbe7b650f	-0.2455027
147	0x3c9b67cb	0.01897039
148	0x3e568cb0	0.20952106
149	0xbe446f35	-0.19183047
150	0xbee3a78e	-0.44463772
151	0x3e000a63	0.12503962
152	0x3eb5a4d4	0.35477316
153	0x3e9c1ff1	0.3049312
154	0xbeb189c4	-0.3467542
155	0xbdb477a1	-0.0881188
156	0xbe96acb6	-0.29428643
157	0xbe9e970c	-0.30974615
158	0xbbe59be0	-0.007007107
159	0x3f02250c	0.5083778
160	0xbe64f506	-0.22359094
161	0x3dcb0282	0.09912588
162	0x3ea2d648	0.3180411
163	0xbd21e341	-0.039523367
164	0x3e86ac79	0.2630346
165	0x3e84af59	0.2591503
166	0x3e532fd4	0.20623714
167	0xbe2d0427	-0.16896115
168	0xbef6c076	-0.4819371
169	0xbe382f99	-0.17986907
170	0xbe30dc1e	-0.17271468
171	0x3ecc36a6	0.39885443
172	0x3e353339	0.17695321
173	0x3e2bf267	0.16791688
174	0xbe58ec04	-0.21183783
175	0xbeb71c8d	-0.3576397
176	0x3eba870a	0.36431152
177	0x3de5131d	0.11185286
178	0xbecd3b9f	-0.4008455
179	0xbd4d94bd	-0.050190676
180	0xbd45162b	-0.048116844
181	0x3cc62534	0.024187662
182	0x3e85a40b	0.26101717
183	0x3e52b7d6	0.2057794
184	0xbe71ff1c	-0.23632473
185	0x3ce074a1	0.027399363
186	0xbeb90251	-0.3613458
187	0x3e5e8ec3	0.21734147
188	0x3de6c4a3	0.11267974
189	0x3e0d4e38	0.1379937
190	0x3e89db8f	0.26925322
191	0x3daa478e	0.08314429
192	0xbed519fb	-0.41621384
193	0xbda85a45	-0.082203425
194	0xbe9932c5	-0.29921547
195	0x3e2edcf9	0.17076482
196	0x3d9a4566	0.07532768
197	0x3eeb512a	0.4596036
198	0xbe85fc47	-0.26169035
199	0xbec23209	-0.379288
200	0xbde9c6b5	-0.114148535
201	0xbcd2c643	-0.025729304
202	0x3e165c7b	0.14683716
203	0x3ec070c5	0.37586036
204	0x3f08ed27	0.53486866
205	0x3c289c9e	0.010291247
206	0x3d76e954	0.060281113
207	0xbd4b5ff2	-0.049652047
208	0xbe8f9c87	-0.28049108
209	0x3dd91ef3	0.10601606
210	0xbe704ef2	-0.23467615
211	0x3bbb12dd	0.005709036
212	0x3e779ef8	0.24181736
213	0x3edc4b2b	0.430261
214	0xbf06e90b	-0.52699345
215	0x3e996593	0.29960307
216	0xbea7acd7	-0.32749054
217	0xbe899ace	-0.2687592
218	0x3dc82698	0.09772986
219	0xbca81973	-0.020519948
220	0xbe8c0d5c	-0.27353942
221	0x3c83a3f4	0.01606939
222	0xbf12a167	-0.5727753
223	0x3df2d5d1	0.118571885
224	0x3e7171b0	0.23578525
225	0x3d84495c	0.06459305
226	0xbe478f48	-0.19488251
227	0xbc684c45	-0.01417834
228	0xbe55a336	-0.20863041
229	0xbea158a7	-0.3151295
230	0x3e0bd029	0.13653626
231	0xbe2f3dd5	-0.17113431
232	0xbf24fae1	-0.6444531
233	0xbe5275f3	-0.20552807
234	0xbe533268	-0.20624697
235	0xbe58a8dd	-0.21158166
236	0xbcda62bf	-0.026658414
237	0xbe1e2b32	-0.15446165
238	0x3ea7937f	0.32729718
239	0xbe83ea91	-0.25764897
240	0xbeb76ba6	-0.35824317
241	0x3df4943f	0.11942338
242	0xbe975ada	-0.29561502
243	0x3e71cecd	0.23614044
244	0x3e49ae4f	0.196954
245	0xbe2f7c99	-0.17137374
246	0xbdff714d	-0.12472782
247	0x3e5b1e7e	0.2139835
248	0xbe8a2ef6	-0.26988953
249	0x3e077a3f	0.13230227
250	0xbe469302	-0.19392017
251	0xbd5c8397	-0.05383643
252	0xbdc689e5	-0.0969427
253	0xbebdbd66	-0.37058562
254	0x3e1c5456	0.15266547
255	0xbd2a06d5	-0.04151042

raise_dim.0.attention3.1.bias f4 [32]
0	0xbceb161c	-0.028697066
1	0xbd4a6cbc	-0.049420103
2	0xbea1ed81	-0.31626514
3	0xbd9a7c00	-0.075431824
4	0x3c4b083f	0.012392103
5	0xbc775d53	-0.015097934
6	0xbe4bddd6	-0.19908842
7	0x3cb89905	0.022533903
8	0x3d8d19e0	0.06889701
9	0x3d9cc8e6	0.07655506
10	0x3df20e55	0.1181914
11	0xbbd125f5	-0.0063826987
12	0x3d888eab	0.06667837
13	0xbe0876c1	-0.13326551
14	0xbd834ef1	-0.06411541
15	0xbe2f6739	-0.1712922
16	0xbd112ad8	-0.03544125
17	0x3e15e0ad	0.14636488
18	0x3d4362fb	0.047701817
19	0xbd0849ac	-0.033273384
20	0xbdc19dea	-0.09453948
21	0xbe004236	-0.12525257
22	0x38f8023b	0.00011825977
23	0xbc5e4493	-0.013566154
24	0x3da1830e	0.07886325
25	0x3e09b381	0.13447382
26	0x3e1f4a55	0.15555699
27	0xbd229147	-0.03968933
28	0x3d2e77f2	0.042594858
29	0xbccd6f83	-0.025077587
30	0xbddb7466	-0.107155606
31	0xbe1dfb21	-0.1542783

raise_dim.0.attention3.3.weight f4 [32, 32, 1, 1]
0	0xbdfc2163	-0.123110555
1	0xbe6bb1fa	-0.23017111
2	0x3e520fc5	0.20513828
3	0xbdfd7249	-0.12375314
4	0xbb58fe33	-0.00331105
5	0xbe22547a	-0.15852538
6	0xbdb5c90d	-0.08876238
7	0xbfa24bf9	-1.2679435
8	0x3da6153c	0.08109519
9	0x3d6d3cb8	0.057919234
10	0xbe8b418f	-0.27198455
11	0xbe07bdcf	-0.13256
12	0xbda454cd	-0.08023987
13	0xbe96ed88	-0.29478097
14	0x3df00835	0.11720315
15	0xbdeb2699	-0.11481971
16	0x3d406572	0.046971746
17	0xbbdf88a6	-0.0068217097
18	0x3d60a43d	0.05484413
19	0xbd091e19	-0.03347597
20	0x3ea00de6	0.31260604
21	0xbdeb120e	-0.11478053
22	0xbe9b7249	-0.3036063
23	0xbe9d07e8	-0.30670094
24	0x3e9f8b29	0.31160858
25	0x3e1d1d01	0.15343095
26	0x3c24e140	0.010063469
27	0xbdc2d76c	-0.09513745
28	0x3f11610b	0.567887
29	0x3db8133e	0.08988045
30	0x3e48d3bb	0.19612019
31	0x3e77fc4c	0.24217337
32	0xbd1cb73d	-0.038260687
33	0x3d0ca5dd	0.034337867
34	0x3d772fc0	0.060348272
35	0xbe5cf88f	-0.21579193
36	0x3da12c94	0.07869831
37	0xbd9216fd	-0.07133291
38	0xbd28e337	-0.041232314
39	0xbf47fd61	-0.78121
40	0xbc7a4511	-0.015275256
41	0xbd0997fc	-0.03359221
42	0x3d3e241c	0.046421155
43	0x3ddf2969	0.1089657
44	0x3de9164e	0.113812074
45	0xbe0320ef	-0.12805532
46	0x3dc9e345	0.09857801
47	0x3dad94e5	0.08475665
48	0x3e46d0ae	0.19415542
49	0xbc8b6069	-0.017013745
50	0xbd81de1c	-0.06341192
51	0x3d02593e	0.03182339
52	0x3c79f82f	0.0152569255
53	0xbc38e601	-0.011285306
54	0x3e1d24cd	0.1534607
55	0xbc927b42	-0.01788104
56	0x3e643f92	0.22289875
57	0xbebb63d2	-0.36599594
58	0x3eb90771	0.3613849
59	0xbc05520e	-0.008137239
60	0x3ee0c392	0.43899208
61	0xbd9e597f	-0.07731914
62	0x3e0802e8	0.13282359
63	0xbdb80f8b	-0.089873396
64	0x3de0031f	0.10938095
65	0xbd89aaf1	-0.067220576
66	0xbdfa87bf	-0.12232923
67	0x3e052fa3	0.13006453
68	0xbf610c22	-0.8790914
69	0x3f383a2e	0.71963775
70	0xbd493d53	-0.04913075
71	0xbe901307	-0.28139517
72	0x3cfc9f2e	0.030837622
73	0xbdd9d1af	-0.10635697
74	0x3e7ba731	0.24575497
75	0x3e11547e	0.14192387
76	0xbd973e69	-0.07384951
77	0xbf18b7c1	-0.59655386
78	0xbe305e4a	-0.17223468
79	0xbdaedef9	-0.085386224
80	0xbdaff7cb	-0.08592185
81	0xbeafb90c	-0.34320867
82	0xbe22b0b4	-0.1588772
83	0x3d3753d5	0.044757683
84	0x3c7ea389	0.0155419195
85	0x3c1a51fa	0.009418959
86	0xbca76bc9	-0.020437138
87	0x3d7879ad	0.060662914
88	0xbee7f05b	-0.45300564
89	0xbec20cf3	-0.37900504
90	0x3c08988f	0.008337154
91	0xbe9643b1	-0.2934852
92	0x3db8f5a2	0.09031226
93	0x3d028828	0.03186813
94	0xbdcc6b08	-0.09981352
95	0x3dbf7cbd	0.09349964
96	0xbda0bfb7	-0.07849067
97	0x3d98eeb3	0.07467403
98	0x3cc57831	0.024105163
99	0xbd4052c0	-0.046953917
100	0x3d3c20a2	0.04592956
101	0xbc908288	-0.017640367
102	0xbd68c416	-0.056827627
103	0x3da47dc3	0.080318
104	0xbe23767d	-0.15963168
105	0xbcf795fe	-0.030222889
106	0xbd053c95	-0.03252848
107	0xbd402a5b	-0.046915393
108	0xbd503fea	-0.050842203
109	0xbd79fd20	-0.061032414
110	0x3d19fbd8	0.037593693
111	0x3d83eb55	0.064413704
112	0x3dc0c50d	0.094125845
113	0xbb4d8e4f	-0.003136534
114	0xbcf43aab	-0.029813131
115	0xbd06a325	-0.03287043
116	0x3dd133da	0.10214968
117	0x3d4c915a	0.049943306
118	0xbd71b49e	-0.05901014
119	0x3e11bcda	0.14232197
120	0xbdd68ec2	-0.10476448
121	0xbcde04b7	-0.027101858
122	0xbcca35ba	-0.024683822
123	0x3da638db	0.08116313
124	0xbe065307	-0.1311761
125	0x3db90627	0.090343766
126	0x3ab1027b	0.0013504768
127	0xbdb6b035	-0.089203276
128	0xbc03cb06	-0.00804401
129	0x3e8558ae	0.2604422
130	0x3e3126a9	0.17299904
131	0x3cb38cdb	0.021917751
132	0xbe19ad0c	-0.15007418
133	0xbe053104	-0.13006979
134	0x3e766a57	0.24064003
135	0x3cd19a56	0.025586288
136	0x3d7f3d13	0.062314104
137	0xbba12649	-0.004917894
138	0xbe02c68d	-0.12771054
139	0xbd0230cf	-0.03178483
140	0xbcfb9ab1	-0.030713411
141	0xbc03e64a	-0.008050511
142	0x3e6e6b84	0.23283201
143	0x3e1dfb37	0.15427862
144	0x3e0a88c9	0.13528742
145	0xbbbf1295	-0.0058310726
146	0x3d74b097	0.05973872
147	0xbd86febc	-0.065915555
148	0x3e0ff9a8	0.1406008
149	0x3d8924ed	0.06696496
150	0xbdbc7654	-0.09202257
151	0x3cc6a165	0.02424688
152	0x3df8e894	0.12153736
153	0x3d61a008	0.05508426
154	0x3dcba4d3	0.09943547
155	0x3e02a088	0.1275655
156	0xbe01c1f2	-0.1267164
157	0xbd39f7e8	-0.045402437
158	0x3d1fc8e8	0.03900996
159	0x3dd172ba	0.102269605
160	0x3ca142df	0.019685207
161	0xbd43e566	-0.047826193
162	0xbc6be984	-0.014398936
163	0xbd9b9508	-0.07596785
164	0xbf2ed141	-0.68288046
165	0xbe508ccc	-0.2036621
166	0x3cbb234b	0.022843977
167	0xbece0c4c	-0.40243757
168	0x3e342600	0.17592621
169	0xbdd7bd65	-0.10534171
170	0xbe77a5b1	-0.241843
171	0x3e2faf57	0.1715673
172	0x3d3b048e	0.04565864
173	0xbe67f7a1	-0.22653057
174	0xbe2a12eb	-0.16608779
175	0xbd9f76a9	-0.077863045
176	0xbd10b36b	-0.035327356
177	0xbe198250	-0.14991117
178	0xbcd498b3	-0.025951719
179	0x3de8f95f	0.11375689
180	0x3e44ed3d	0.19231124
181	0x3cb056d9	0.021525787
182	0xbe322610	-0.17397332
183	0xbd83d7af	-0.06437623
184	0xbdac71d0	-0.084201455
185	0xbe980165	-0.29688564
186	0xbf2d0106	-0.67579687
187	0x3e01012b	0.12598102
188	0xbdb3d7c2	-0.08781387
189	0x3e447167	0.19183885
190	0xbde48ef7	-0.11160081
191	0x3d05b209	0.03264049
192	0x3dbd474d	0.09242115
193	0xbe60a403	-0.21937566
194	0x3d528228	0.051393658
195	0x3e942670	0.28935575
196	0x3cd8cbd5	0.026464382
197	0xbe37c4b6	-0.17946133
198	0x3e0c902e	0.13726875
199	0x3e20d89f	0.15707634
200	0xbe3a0c79	-0.1816882
201	0xbe730ebb	-0.23736088
202	0x3e07ad07	0.13249598
203	0xbdc37ef0	-0.09545696
204	0xbd8bd701	-0.06828118
205	0xbe35bc92	-0.17747715
206	0xbe3fc5bc	-0.18727773
207	0x3c646381	0.013939739
208	0xbdccf669	-0.100079365
209	0xbbbf89cc	-0.005845284
210	0x3e118506	0.142109
211	0x3cc36880	0.02385354
212	0x3d076073	0.033050966
213	0xbe74f420	-0.23921251
214	0x3da4faf8	0.08055681
215	0x3cd32406	0.025774013
216	0xbde3943d	-0.111122586
217	0xbee19dc5	-0.4406568
218	0xbe0a3e9f	-0.1350045
219	0xbdb63f40	-0.08898783
220	0xbe80b99a	-0.25141603
221	0xbe511eeb	-0.2042195
222	0xbda5e9e3	-0.08101251
223	0x3ee09487	0.43863317
224	0x3d7b07ee	0.06128686
225	0x3e1431d5	0.14472134
226	0xbe9186be	-0.28423113
227	0xbe40ce47	-0.18828689
228	0xbe9ef176	-0.31043595
229	0x3c50e1b8	0.012749128
230	0xbdda8edf	-0.10671782
231	0xbda80b46	-0.08205275
232	0xbe651ecc	-0.2237503
233	0xbd16180b	-0.036644023
234	0x3dec3f99	0.11535568
235	0xbe10a5ca	-0.14125744
236	0x3d3cbba8	0.0460774
237	0xbe995af8	-0.29952216
238	0xbbfbe32b	-0.0076869926
239	0xbe5e53b9	-0.21711625
240	0xbe1a3e18	-0.1506275
241	0x3d889ec6	0.06670909
242	0x3cb8743f	0.022516368
243	0x3db286a6	0.087170884
244	0x3df2b1a5	0.11850289
245	0x3e33802c	0.17529362
246	0xbe441caa	-0.1915156
247	0xbd88a518	-0.06672114
248	0x3d3e07b8	0.04639408
249	0xbf509748	-0.81480837
250	0xbe253c03	-0.16136174
251	0x3d047d36	0.032345973
252	0x3da23f28	0.07922202
253	0x3dd3df15	0.10345284
254	0x3bf8f5f6	0.00759768
255	0x3eb13b8f	0.34615752

raise_dim.0.attention3.3.bias f4 [32]
0	0xbde5b89c	-0.11216852
1	0xbdc3d8b2	-0.09562816
2	0x3d623c2b	0.055233162
3	0x3e0c692b	0.13711993
4	0x3c5ec73d	0.013597307
5	0xbddf643f	-0.10907792
6	0xbde25717	-0.11051767
7	0x3d6cee67	0.057844546
8	0xbe3199f4	-0.17343885
9	0xbdf8ccca	-0.121484354
10	0x3e339a5a	0.17539349
11	0x3d6a7a78	0.0572457
12	0x3d4f89ae	0.05066841
13	0x3b120149	0.0022278598
14	0xbd591b13	-0.053004336
15	0x3dd28b4f	0.10280477
16	0x3cd81489	0.02637698
17	0xbe50f96e	-0.2040765
18	0xbbbe44c4	-0.0058065373
19	0x3def52ed	0.11685739
20	0xbd077cfa	-0.03307817
21	0x3b6da25a	0.00362601
22	0xbcbf1405	-0.023324976
23	0x3c9b682f	0.018970577
24	0xbdbe6020	-0.09295678
25	0x3da8d223	0.082432054
26	0x3d946c2e	0.07247196
27	0xbdca0f33	-0.0986618
28	0xbe18e870	-0.14932418
29	0xbd134735	-0.03595658
30	0xbdaaf617	-0.08347719
31	0x3ddbe978	0.1073789

layers.0.conv1.weight f4 [32, 32, 3, 3]
0	0x3e806754	0.25078833
1	0xbe0e38a9	-0.13888802
2	0xbea17e6f	-0.31541774
3	0xbe9c2e89	-0.30504254
4	0xbe304f12	-0.17217663
5	0xbe8039d3	-0.25044116
6	0xbddfc971	-0.10927094
7	0x3d3d6438	0.046238154
8	0x3da8bc2e	0.082390174
9	0x3e0efba0	0.13963175
10	0x3e9e9912	0.30976158
11	0x3e9dbb8f	0.30807158
12	0x3e5da227	0.21643887
13	0xbe3eae6d	-0.18621226
14	0x3d81b026	0.06332426
15	0x3cc1f5df	0.02367681
16	0xbe39664b	-0.18105428
17	0xbc54a843	-0.01297957
18	0x3fc17ddc	1.5116534
19	0x3f4ff8d2	0.81239045
20	0xbde432b2	-0.11142482
21	0x3f139aaf	0.57657903
22	0xbeb97dcf	-0.36228797
23	0xbf69e01a	-0.91357577
24	0x3ebf1c9d	0.37326518
25	0xbf253c63	-0.6454527
26	0xbea34fa6	-0.31896704
27	0x3e927261	0.2860289
28	0x3e33716e	0.17523739
29	0x3ec18958	0.37800097
30	0xbe283bb5	-0.16429026
31	0x3e1231ae	0.14276764
32	0x3eff32e3	0.4984351
33	0xbe249a7c	-0.16074556
34	0x3c573b6b	0.013136725
35	0x3ee58c71	0.4483371
36	0xbf2d40a8	-0.6767678
37	0xbf5d1598	-0.86361074
38	0x3ca926e4	0.020648427
39	0xbe20624a	-0.15662494
40	0x3e9486b4	0.2900902
41	0xbdee4d70	-0.11635864
42	0x3a7e0ff1	0.00096917065
43	0x3e9ecdbf	0.31016347
44	0xbdd3a5b1	-0.103343375
45	0xbd5ff57b	-0.054677468
46	0xbdb0cf0a	-0.086332396
47	0xbe4a7b43	-0.19773583
48	0x3e1e7a6d	0.15476389
49	0xbd3c437d	-0.0459628
50	0xbe073511	-0.13203837
51	0x3e3f1846	0.18661603
52	0x3df4a057	0.11944645
53	0xbda8a3f7	-0.08234399
54	0x3da34270	0.07971656
55	0x3dfce5f6	0.12348549
56	0x3dca2130	0.09869611
57	0xbd7f24dc	-0.06229101
58	0x3e76e0b3	0.24109153
59	0xbcdf0e56	-0.027228516
60	0xbd043c8c	-0.032284304
61	0x3e0166f9	0.12636937
62	0xba774e6d	-0.00094339886
63	0x3dad8356	0.08472316
64	0x3e05d248	0.13068497
65	0x3d348cfb	0.044079762
66	0x3da65c01	0.08123017
67	0x3e634b22	0.2219663
68	0xbdd1ed6d	-0.102503635
69	0x3c8612bf	0.01636636
70	0x3d890915	0.066911854
71	0x3dbe8fef	0.09304797
72	0x3db6d4c3	0.089273
73	0x3d51f5ec	0.05125992
74	0x3d3ea78f	0.046546515
75	0x3e0f632f	0.1400268
76	0x3de4bc92	0.111687794
77	0xbdc83acb	-0.09776839
78	0x3ca0ee29	0.019644814
79	0x3c2d518c	0.010578524
80	0xbd61fbcc	-0.055171773
81	0xbdbeb92e	-0.09312664
82	0x3dd08be6	0.101829335
83	0x3e3dda73	0.18540363
84	0xbba8a11b	-0.0051461584
85	0xbd9e1caa	-0.07720311
86	0xbd9ba8e1	-0.076005705
87	0xbca85a3e	-0.020550843
88	0x3d5b898b	0.053597968
89	0xbd698e55	-0.057020504
90	0xbd118f36	-0.035536967
91	0xbe3a156a	-0.18172231
92	0xbeb7dea9	-0.35912064
93	0xbe9d690d	-0.3074421
94	0xbea54caa	-0.32285053
95	0xbd699b25	-0.057032723
96	0x3daf5e6b	0.08562931
97	0x3b75d314	0.0037509846
98	0x3dad9bd7	0.0847699
99	0xbd223906	-0.039605163
100	0xbe18a1db	-0.14905493
101	0x3dcedcc2	0.101007
102	0xbe5dc9cc	-0.2165901
103	0xbe87f1f0	-0.2655177
104	0xbde98f86	-0.11404328
105	0xbe5f8611	-0.21828486
106	0xbe2a5e16	-0.16637453
107	0xbe184944	-0.14871699
108	0x3b03d5ff	0.0020116565
109	0xbea47417	-0.3211982
110	0xbeab57c2	-0.3346539
111	0xbe4cc334	-0.19996339
112	0xbda3c32a	-0.07996209
113	0x3e393f49	0.18090548
114	0xbdebe74e	-0.11518727
115	0xbda3a24d	-0.07989941
116	0x3e1e149f	0.15437554
117	0x3d6309c5	0.05542924
118	0x3dc9bc98	0.098504245
119	0x3d6b2dd5	0.057416756
120	0x3d086c4e	0.033306412
121	0xbdf72ab0	-0.12068689
122	0xbd923537	-0.07139056
123	0xbc5b2877	-0.013376347
124	0xbd95c29b	-0.07312509
125	0xbe29a80d	-0.16568013
126	0xbe354f05	-0.17705925
127	0xbeaa4625	-0.3325664
128	0xbe513c74	-0.20433217
129	0xbea25352	-0.31704193
130	0xbc953f05	-0.018218527
131	0xbe28614c	-0.16443366
132	0xbeb1b671	-0.34709504
133	0xbda6c87c	-0.08143708
134	0xbe66120c	-0.22467822
135	0x3dcd5ebe	0.10027836
136	0x3e1c277d	0.15249439
137	0x3d1bc126	0.038025998
138	0x3ba0fda3	0.0049130484
139	0xbec7c82a	-0.390199
140	0xbe2533a6	-0.16132984
141	0xbd93b270	-0.072117686
142	0xbe9d1ab5	-0.30684438
143	0x3dd8399d	0.10557864
144	0xbcf29460	-0.029611766
145	0xbe41e88b	-0.18936364
146	0xbe3eaca9	-0.18620552
147	0x3df31ae9	0.11870367
148	0x3e08224f	0.13294338
149	0x3e91321d	0.28358546
150	0xbd4221ea	-0.047395624
151	0xbbb31d74	-0.0054661576
152	0xbc48a88b	-0.012247215
153	0xbb02ec1e	-0.0019977163
154	0x3eb75613	0.35807857
155	0x3f135f71	0.5756751
156	0xbd4e80f2	-0.05041594
157	0x3e910908	0.28327203
158	0x3cfb368c	0.030665658
159	0xbd02e302	-0.031954773
160	0x3e948b75	0.29012647
161	0x3e83cd61	0.2574263
162	0xbcf73b2b	-0.03017958
163	0xbd5734ea	-0.052540697
164	0x3cbe388b	0.023220321
165	0xbe985234	-0.29750216
166	0x3d35a95c	0.044350967
167	0xbd38d35b	-0.04512344
168	0xbe20018c	-0.1562559
169	0x3ce06934	0.027393915
170	0xbe07c2a2	-0.1325784
171	0x3d6e13c6	0.058124326
172	0x3e3f733f	0.18696307
173	0x3e225a89	0.15854849
174	0x3e217811	0.15768458
175	0x3ed1cfc5	0.40978828
176	0xbc1eb5c3	-0.00968689
177	0x3dc65d77	0.09685796
178	0x3ed90072	0.42383152
179	0x3d73addb	0.059491973
180	0xbe36f7e1	-0.17867996
181	0xbec14f0a	-0.37755615
182	0x3d2e9193	0.0426193
183	0xbf3f4897	-0.7472014
184	0xbeb833ef	-0.35977122
185	0xbc1f25b0	-0.009713575
186	0xbeea8ee4	-0.45812142
187	0xbea559c8	-0.3229506
188	0x3d483a6a	0.048883833
189	0x3dbebafd	0.09313009
190	0x3d95fd9f	0.07323765
191	0x3e37278c	0.1788618
192	0x3c81d1c4	0.015847094
193	0xbdfe174a	-0.12406786
194	0x3c9c1008	0.019050613
195	0xbd7b8b2a	-0.061412014
196	0xbd98b2c7	-0.07455974
197	0xbb6bbc39	-0.0035970344
198	0x3e81bc23	0.2533885
199	0xbcee03e4	-0.02905459
200	0xbe3ca1e5	-0.18421133
201	0xbe975e43	-0.29564103
202	0x3df0714d	0.117403604
203	0x3e313550	0.17305493
204	0x3c22e4e1	0.009942264
205	0x3e6cc1e7	0.23120843
206	0xbe0b85c1	-0.13625242
207	0x3d74e993	0.059793066
208	0x3e8c41a2	0.27393824
209	0x3d1060e0	0.035248637
210	0x3d42a589	0.047521148
211	0xbe36dbcc	-0.17857283
212	0xbe673c88	-0.22581685
213	0x3d2bdb2e	0.041957073
214	0xbc80aca7	-0.015707327
215	0x3d00cb88	0.031444103
216	0x3e12749f	0.143023
217	0xbeca3fb7	-0.39501736
218	0xbec5bd44	-0.3862096
219	0x3e87ade5	0.26499858
220	0x3c448dc6	0.011996692
221	0x3d669b22	0.05630029
222	0x3e12f872	0.14352587
223	0xbe1c4ba5	-0.15263231
224	0x3e1bf928	0.15231764
225	0x3d228a11	0.03968245
226	0xbdaae99a	-0.08345337
227	0x3d18776d	0.03722327
228	0x3db64e2d	0.089016296
229	0xbda905c6	-0.08253054
230	0xbbe32db8	-0.0069329403
231	0x3cab1963	0.020886129
232	0x3c456100	0.012047052
233	0x3cbd4809	0.023105638
234	0xbed36e7f	-0.4129524
235	0xbeba2c0c	-0.3636173
236	0xbe07c2e9	-0.13257946
237	0xbec7ec53	-0.3904749
238	0xbdb748fe	-0.08949469
239	0xbe30f728	-0.17281783
240	0xbe64bd37	-0.22337805
241	0x3d5fbc41	0.054622892
242	0x3dd90bf9	0.10597987
243	0x3e882563	0.26591024
244	0xbd9d2544	-0.076731235
245	0xbeffcf49	-0.49962834
246	0xbf17cdfc	-0.5929868
247	0xbdcc9e68	-0.09991151
248	0xbd1a6eb2	-0.037703224
249	0xbe5bc4a8	-0.21461737
250	0x3e6ac75c	0.22927612
251	0x3e8cc9e0	0.27497768
252	0x3e9877b8	0.29778838
253	0x3f1c3477	0.61017555
254	0x3d6c6acb	0.057719033
255	0x3e15d327	0.1463133

layers.0.conv1.attention1.0.weight f4 [9, 32, 3, 3]
0	0x3ed6a628	0.41923642
1	0x3eab34dd	0.3343877
2	0x3e3ef9c8	0.18649971
3	0x3ebdf51c	0.37101066
4	0x3cc0e58f	0.023546962
5	0x3e920b68	0.28524327
6	0x3e0d8d36	0.13823399
7	0xbd89ea8b	-0.06734189
8	0x3d61752c	0.055043384
9	0x3d070c21	0.03297055
10	0x3d5bd864	0.053673163
11	0x3ccfd440	0.025369763
12	0x3d0d687d	0.034523476
13	0xbca7612d	-0.02043208
14	0x3d481216	0.048845373
15	0x3d1c1da8	0.03811422
16	0x3c89db5b	0.01682823
17	0xbcc6eb91	-0.024282249
18	0x3d6effb7	0.058349337
19	0xbd4affa3	-0.0495602
20	0x3de4a75f	0.11164736
21	0x3db7737f	0.08957576
22	0x3cf4fa9e	0.02990466
23	0x3eb47e18	0.35252452
24	0xbc74ac3e	-0.014933644
25	0xbe635077	-0.22198664
26	0x3e033b3d	0.12815566
27	0x3e85c9fe	0.2613067
28	0xbeb7f42d	-0.3592848
29	0x3edc94b0	0.4308219
30	0xbee2629c	-0.44215858
31	0x3ebff8eb	0.37494597
32	0xbe39f652	-0.1816037
33	0xbe29f961	-0.16599037
34	0xbedb17c7	-0.42791578
35	0x3e054170	0.13013244
36	0xbe9165bd	-0.28397933
37	0xbcaa6a6f	-0.020802705
38	0xbd3b240a	-0.045688666
39	0xbee95772	-0.45574528
40	0xbe635890	-0.22201753
41	0xbd275987	-0.040856864
42	0xbe685f20	-0.22692537
43	0xbe14afbf	-0.14520167
44	0x3d23e90f	0.040017184
45	0x3d8266ab	0.063672386
46	0x3d099161	0.03358591
47	0x3d97227c	0.07379624
48	0x3bac5d7f	0.005260169
49	0xbcc9ad8b	-0.024618885
50	0x3c828111	0.015930684
51	0xbe0084cf	-0.12550662
52	0xbb676eb9	-0.0035313799
53	0x3d41cd2b	0.047314804
54	0x3c191a6c	0.009344678
55	0x3d3538f1	0.044243757
56	0x3cbe10ad	0.023201311
57	0x3d870746	0.06593184
58	0xbb9dc478	-0.0048146807
59	0xbca65d7d	-0.02030825
60	0xbd08d2bc	-0.033404097
61	0xbc26c972	-0.010179864
62	0x3d8fcf82	0.07022001
63	0x3d4619a7	0.048364308
64	0xbd181b2f	-0.0371353
65	0xbc396c0a	-0.011317262
66	0xbc067414	-0.008206386
67	0xbd06b72f	-0.03288954
68	0xbc09e23b	-0.008415754
69	0xbce55d49	-0.027998583
70	0x3c8065e4	0.015673585
71	0x3d1ff4f6	0.039051972
72	0xbdde8bf5	-0.108665384
73	0x3c57e38a	0.013176808
74	0x3d470498	0.048588365
75	0xbe01638e	-0.12635633
76	0xbd899c5c	-0.06719276
77	0xbcfcf94e	-0.030880596
78	0xbbb34b77	-0.0054716426
79	0x3d62e082	0.05538989
80	0x3e0b3f09	0.13598265
81	0x3b11949c	0.0022213822
82	0x3de8997a	0.11357398
83	0xbc3df829	-0.0115948105
84	0x3e32be7f	0.17455481
85	0xbe13d7a8	-0.14437735
86	0xbd3f97a5	-0.04677548
87	0x3d543a05	0.051813144
88	0x3ef73796	0.48284596
89	0x3eca159d	0.39469615
90	0xbdf55748	-0.11979538
91	0xbd8cebeb	-0.06880935
92	0xbe3294be	-0.17439553
93	0xbe1f82ee	-0.1557729
94	0xbe6bbf7e	-0.23022267
95	0xbde5ad30	-0.112146735
96	0xbdae013e	-0.08496331
97	0xbe15ce13	-0.14629392
98	0xbde621af	-0.112368934
99	0x3d336e8b	0.043806594
100	0xba910167	-0.001106304
101	0xbc86db74	-0.016462065
102	0x3d472935	0.048623282
103	0xbbc7a25a	-0.006092352
104	0x3c04d323	0.00810698
105	0xbdc1a0f0	-0.094545245
106	0x3b36b9cf	0.0027881747
107	0xbda05a38	-0.07829708
108	0xbe9959a7	-0.29951212
109	0xbe0b66ae	-0.13613388
110	0xbe2965fd	-0.16542812
111	0xbe3b3602	-0.18282321
112	0xbe82e602	-0.25566107
113	0xbea10401	-0.31448367
114	0xbe94f14d	-0.29090348
115	0xbe79ae8c	-0.2438299
116	0xbea625b0	-0.32450628
117	0x3c68bf27	0.0142057305
118	0xbcbed59d	-0.023295218
119	0x3d7a550d	0.061116267
120	0x3d5afa50	0.053461373
121	0x3c59b8fb	0.013288732
122	0x3d08260c	0.03323941
123	0x3caa2e99	0.020774173
124	0xbca130e3	-0.019676631
125	0xbd1a5cbd	-0.0376861
126	0x3e7a589f	0.24447869
127	0x3b9a5894	0.0047102664
128	0xbdc750db	-0.09732219
129	0x3e416269	0.18885197
130	0xbf0033fd	-0.5007933
131	0x3e7ee60f	0.24892448
132	0x3d746946	0.05967071
133	0x3d562ba2	0.052287705
134	0x3e2a1f35	0.16613467
135	0xbe0a8a0c	-0.13529223
136	0xbd342c5b	-0.043987613
137	0xbd57c755	-0.052680332
138	0x3d662481	0.056187157
139	0xbd469d56	-0.04848989
140	0xbe99e654	-0.3005854
141	0xbd82faa6	-0.06395464
142	0xbdc669ff	-0.09688186
143	0xbe83cdc0	-0.25742912
144	0x3e3d9730	0.18514705
145	0x3e4dd183	0.20099454
146	0xbcaaaa83	-0.02083326
147	0xbd6a4cb3	-0.057202052
148	0xbde67668	-0.11253053
149	0xbdf029d7	-0.1172673
150	0x3d25cef5	0.040480573
151	0x3db56304	0.08856776
152	0x3d3b36e2	0.045706637
153	0x3d18df62	0.03732241
154	0x3ca3fdd3	0.020018494
155	0x3c022a53	0.007944661
156	0x3d91f9b8	0.07127708
157	0x3db114dd	0.086465575
158	0x3d59f738	0.05321428
159	0xbbbb7685	-0.0057209157
160	0x3d3ded17	0.046368685
161	0x3d70f2c0	0.058825254
162	0xbd7c8dd4	-0.061658695
163	0xbde33641	-0.110943325
164	0xbda0f748	-0.07859665
165	0xbe1ee183	-0.15515713
166	0xbedee921	-0.43537238
167	0xbdbdcca8	-0.09267551
168	0xbe1e8b44	-0.15482813
169	0xbdf20f4e	-0.118193254
170	0xbd127450	-0.035755455
171	0x3d8d7848	0.069077075
172	0x3edc530d	0.43032113
173	0x3e9beaac	0.30452478
174	0xbd50bda9	-0.050962124
175	0x3e5bdd54	0.21471149
176	0x3e4d2c93	0.20036535
177	0xbd453451	-0.048145596
178	0x3da1cb7f	0.07900142
179	0x3e4b3e12	0.19847897
180	0xbc5ad515	-0.013356467
181	0xbc8bb113	-0.017052209
182	0x3d517494	0.05113657
183	0x3dc2c0b3	0.09509411
184	0x3ce48334	0.027894594
185	0x3c72e527	0.014825142
186	0xbc936873	-0.017994141
187	0x3d90727a	0.07053085
188	0x3dd428d1	0.103593476
189	0x3b5130f2	0.0031920043
190	0x3dac51a9	0.08414013
191	0x3da8fb8f	0.08251106
192	0x3dab699e	0.08369754
193	0x3df682a2	0.12036635
194	0x3d25682a	0.04038254
195	0x3d126560	0.03574121
196	0x3dbadbeb	0.09123977
197	0x3e0e027d	0.13868137
198	0x3e84cc90	0.2593732
199	0x3e03f549	0.12886538
200	0x3d95535a	0.07291289
201	0x3dc8ced7	0.098050766
202	0xbe20b12e	-0.15692589
203	0x3eaca28e	0.3371777
204	0x3d814941	0.063128
205	0x3db148e8	0.08656484
206	0x3e2fe9fb	0.171791
207	0x3d45716b	0.048203867
208	0x3d071e47	0.03298786
209	0xbd87613c	-0.06610343
210	0xbc1ce073	-0.009574997
211	0x3c638c42	0.013888421
212	0x3d30dc68	0.043178946
213	0x3d00c638	0.031439036
214	0xbd9acedd	-0.07558987
215	0x3cdd8b71	0.02704403
216	0x3dab9d99	0.08379669
217	0xbec6aa06	-0.38801593
218	0x3d66a42b	0.056308907
219	0x3d935170	0.07193267
220	0x3e9e30ec	0.308967
221	0x3e4ca930	0.19986415
222	0xbdf100fd	-0.117677666
223	0xbe7538c7	-0.2394744
224	0xbdc22dc6	-0.09481387
225	0x3de38f6d	0.11111341
226	0x3bf88f57	0.007585447
227	0x3d770167	0.06030407
228	0x3d1f3f5c	0.038878784
229	0xbcf03d5b	-0.029326132
230	0xbba913d3	-0.005159834
231	0x3dc07371	0.09397019
232	0x3b23e002	0.0025005345
233	0x3ab77fee	0.0013999918
234	0x3e298358	0.1655401
235	0xbd8b8292	-0.06812014
236	0xbd1cb186	-0.038255237
237	0x3d649292	0.055803843
238	0xbe6f6ef8	-0.23382175
239	0xbd3c3845	-0.0459521
240	0xbe200418	-0.15626562
241	0xbe01472c	-0.12624806
242	0x3bf1e158	0.0073815994
243	0x3c65732c	0.01400451
244	0xbccb02a7	-0.024781538
245	0xbde54321	-0.111944444
246	0x3e27ba4f	0.16379665
247	0xbc9088a0	-0.017643273
248	0x3caf27ae	0.021381225
249	0xbdd378a5	-0.103257455
250	0x3d8853a5	0.06656579
251	0xbcbfc4eb	-0.023409327
252	0x3b8dafce	0.004323936
253	0xbc3d928f	-0.011570587
254	0x3d173ad4	0.036921337
255	0x392659de	0.00015864472

layers.0.conv1.attention1.0.bias f4 [9]
0	0xbe913586	-0.28361148
1	0x3c584433	0.013199854
2	0x3dbd1620	0.09232736
3	0x3eb9213b	0.36158165
4	0x3e1afdaf	0.15135835
5	0x3e3d235b	0.18470518
6	0x3e72605d	0.23669572
7	0xbe3a930d	-0.18220158
8	0xbdc8bdb7	-0.0980181

layers.0.conv1.attention1.2.weight f4 [9, 9, 1, 1]
0	0xbbc573db	-0.006025774
1	0xbcccf65f	-0.025019823
2	0xbd87a681	-0.06623555
3	0xbe691592	-0.22762135
4	0x3cf4a5e8	0.029864267
5	0x3e18a2ed	0.14905901
6	0xbe3debc9	-0.18546976
7	0x3e5cca25	0.21561487
8	0x3d23b2b7	0.039965358
9	0xbe645057	-0.22296272
10	0x3f23f1da	0.6404091
11	0x3e877a70	0.264606
12	0x3ec05c9c	0.37570655
13	0x3e436f43	0.19085412
14	0x3eb8e33a	0.3611086
15	0x3d310165	0.04321422
16	0xbf040245	-0.51565963
17	0xbf365a74	-0.7123177
18	0xbe4be12d	-0.19910116
19	0xbdbf0481	-0.09327031
20	0xbe5d4bf4	-0.21611005
21	0xbe975e42	-0.295641
22	0x3ed126d2	0.4084993
23	0xbdd90d72	-0.105982676
24	0xbe9f71a0	-0.31141376
25	0xbd847c35	-0.06469003
26	0x3f4238d7	0.7586798
27	0xbedbef08	-0.42955804
28	0xbec8102f	-0.39074847
29	0xbf945bbc	-1.1590495
30	0x3ef0b9fe	0.470169
31	0x3ec34700	0.38140106
32	0xbe8b36b0	-0.2719016
33	0x3e1d0513	0.15333967
34	0xbed917a9	-0.42400864
35	0x3ef41b10	0.47676897
36	0x3eac31f1	0.33631852
37	0x3e5f3e8a	0.218012
38	0xbcbe14ca	-0.023203272
39	0xbec7a1e2	-0.38990694
40	0x3f2660a9	0.6499124
41	0x3d816eb1	0.06319941
42	0xbf0932a2	-0.53592885
43	0x3d85be92	0.06530489
44	0xbdfd0212	-0.123539105
45	0xbe772a17	-0.2413715
46	0xbeb5f672	-0.35539585
47	0xbeb3df2f	-0.35131213
48	0x3e905e20	0.28196812
49	0xbf1cb0cc	-0.6120727
50	0x3f0a3852	0.5399219
51	0x3ed07c78	0.40719962
52	0x3cf25c3f	0.029585002
53	0xbf1da6c0	-0.61582565
54	0xbe9c3c2c	-0.30514657
55	0xbebd6d2f	-0.36997363
56	0xbe126da8	-0.14299643
57	0x3ecc5925	0.39911762
58	0xbe62a091	-0.22131564
59	0x3e7e0bd1	0.24809195
60	0x3ef7aa64	0.48372185
61	0xbee3fea8	-0.44530225
62	0xbf5a80e6	-0.85352933
63	0x3e6928cd	0.2276947
64	0x3e1b6f8c	0.1517927
65	0xbdd44fbc	-0.103667706
66	0xbd2282de	-0.039675586
67	0xbc86abc7	-0.016439332
68	0x3e53dbc4	0.20689303
69	0xbeec9e5c	-0.4621457
70	0xbe7f6a17	-0.24942814
71	0x3dfed9cf	0.124438874
72	0xbe9aaa12	-0.30207878
73	0x3e0628ce	0.13101503
74	0x3f1e171b	0.61754006
75	0x3e84f831	0.25970605
76	0x3f1cfe1e	0.6132525
77	0xbd830c41	-0.063988216
78	0x3e01e3aa	0.12684503
79	0xbee7e2b7	-0.45290157
80	0xbea4d6f3	-0.32195243

layers.0.conv1.attention1.2.bias f4 [9]
0	0xbd104aac	-0.035227463
1	0xbe6e979e	-0.23300025
2	0x3e393e1e	0.18090102
3	0x3f38e869	0.7222963
4	0xbd8a352a	-0.067484215
5	0x3eeaf8bd	0.45892897
6	0x395662d3	0.00020445445
7	0xbee09f31	-0.43871453
8	0x3e90207a	0.28149778
