weights/BWNET_LAGConv_T4/model_epoch_500.pth (torch, 678374 bytes, 141 tensors)

raise_dim.0.weight f4 [32, 9, 3, 3]
0.02095627 -0.18568686 0.10698439 -0.01162461 0.180766 0.07893561 0.08988709 0.03511618
-0.033516232 -0.0464997 -0.065051295 0.274643 0.042389154 0.062603675 0.040724773 -0.16649437
-0.08008796 -0.1550296 -0.05257447 -0.1952413 0.264503 0.07608651 -0.0073761833 0.077487044
-0.022299863 0.14212264 -0.26860675 0.07590823 -0.20706333 0.29125893 0.06534185 0.037832532
0.03299438 -0.032277804 0.08719961 -0.19901209 0.10698531 0.0066669215 0.3461846 0.107601
0.07044511 0.10263749 0.1442729 0.039163776 -0.10959724 0.06322222 -0.074113876 0.1857892
-0.02696225 0.0040845317 -0.087493435 -0.09937149 -0.03950119 -0.031404216 -0.058388785 -0.14205004
0.008303852 -0.36198968 -0.272684 -0.3156575 -0.19638808 -0.3361079 -0.52407455 0.45153844
0.7088802 0.7249329 0.21177074 0.3271466 0.15090562 0.13681862 0.12200753 -0.031892344
0.22280686 0.5377674 0.73144495 -0.28500402 -0.28360498 -0.20916918 -0.12600407 -0.2561722
-0.08010674 -0.099843666 0.041144032 0.18071689 0.12302927 -0.19375324 -0.08932005 -0.0244203
0.22364052 -0.02444625 0.008558027 0.13337523 0.2860007 -0.0022775389 -0.19575383 -0.18114042
0.13526906 -0.28651804 -0.12106643 0.01936208 0.25233042 0.19285662 0.3795057 -0.06406517
-0.12515138 0.22599074 -0.12564802 0.19233929 0.013613174 0.17636697 0.13795486 0.3056471
-0.25296015 -0.22690344 0.20907788 -0.3411697 0.15384339 -0.2335568 0.08837873 0.16414154
0.08531951 -0.6464042 -0.4236884 0.06125685 -0.6346397 0.19238055 0.18958329 0.11648235
0.063820645 0.6859221 -0.14652412 -0.101084396 0.37273738 -0.27207723 0.29691428 -0.05267836
0.041811 -0.11780154 0.18538998 -0.3489737 -0.16937363 -0.0059887622 -0.51325786 -0.23115002
-0.08853682 0.13235654 -0.11039578 0.3936094 0.10552957 0.07051052 0.14629844 0.075867936
-0.16703327 -0.23311745 0.1808111 -0.14219575 -0.16422902 -0.32496125 -0.28326562 -0.27261946
-0.58521426 -0.29989997 0.049532723 -0.28563467 0.18696207 0.19246751 0.46447662 0.44129756
-0.16942076 0.6007978 0.1860266 0.32605928 -0.6329692 0.0012111187 0.17230114 0.21407557
-0.28701937 0.32253316 0.3838606 -0.022200255 0.061283488 -0.20119935 0.065796405 0.10043706
-0.09055317 -0.2237878 -0.16368385 -0.2549539 -0.43000352 0.10820682 -0.22443128 0.2591662
0.01982602 -0.297128 -0.18997586 -0.12245132 -0.50066096 0.0135326125 -0.018774537 -0.51502126
0.10848883 0.026611004 0.04767548 -0.10819507 -0.16354012 -0.09066025 0.3821456 0.28494993
0.63329744 0.8471025 -0.1921046 -0.46771845 -0.098396935 -0.36653927 -0.79610074 0.77132714
-0.056768157 -0.4348836 -0.052957147 0.015836554 -0.09950429 -0.18911155 -0.0854646 -0.21862483
0.2881195 -0.21229422 -0.41682878 0.21579227 -0.079221 -0.23520209 -0.30618042 0.067897014
-0.23258829 0.01576593 -0.54933596 -0.98211443 -0.36982086 0.023385063 0.11297794 -0.25005418
0.20206344 -0.026319616 -0.24758145 -0.076835334 0.2575791 0.017779786 0.40627035 -0.40492007
0.14856808 -0.27035236 0.60790455 0.07423699 -0.13655248 -0.1332394 -0.114042774 -0.06050999
00000000: 7cac ab3c b224 3ebe a21a db3d 2675 3ebc
00000010: b91a 393e fea8 a13d b916 b83d fcd5 0f3d
00000020: 5148 09bd 7876 3ebd 9d39 85bd 029e 8c3e
00000030: 40a0 2d3d 5b36 803d 05cf 263d 807d 2abe
00000040: 2805 a4bd 14c0 1ebe 5458 57bd 56ed 47be
00000050: f06c 873e 3fd3 9b3d e9b3 f1bb 87b1 9e3d
00000060: 34ae b6bc 9988 113e d386 89be c675 9b3d
00000070: 6908 54be e41f 953e f3d1 853d 49f6 1a3d
00000080: 1d25 073d bb35 04bd b695 b23d d3c9 4bbe
00000090: 1d1b db3d 3176 da3b 1c3f b13e ea5d dc3d
000000a0: 8745 903d 9b33 d23d 46bc 133e 326a 203d
000000b0: 8574 e0bd a77a 813d 04c9 97bd 863f 3e3e
000000c0: f0df dcbc 89d7 853b c22f b3bd 4883 cbbd
000000d0: 00cc 21bd b5a1 00bd 1429 6fbd 9175 11be
000000e0: e10c 083c b656 b9be 3d9d 8bbe dc9d a1be
000000f0: f519 49be 5616 acbe c029 06bf 0c30 e73e
00000100: 2c79 353f 3495 393f 6eda 583e c27f a73e
00000110: 0187 1a3e 2e1a 0c3e 15df f93d 8ca1 02bd
00000120: 7b27 643e 20ab 093f fa3f 3b3f 0cec 91be
00000130: ac34 91be 7230 56be 3607 01be 0129 83be
00000140: 010f a4bd d67a ccbd a586 283d d90d 393e
00000150: c5f6 fb3d 4067 46be 6eed b6bd 150d c8bc
00000160: 0502 653e 8143 c8bc f836 0c3c 8493 083e
00000170: af6e 923e c342 15bb b173 48be e07c 39be
00000180: f983 0a3e 7eb2 92be adf1 f7bd 3a9d 9e3c
00000190: 7431 813e 357c 453e 924e c23e 9a34 83bd
000001a0: af27 00be 1e6a 673e e0a9 00be 97f4 443e
000001b0: ca09 5f3c 8b99 343e 0a44 0d3e c77d 9c3e
000001c0: fe83 81be 6059 68be 8318 563e cbad aebe
000001d0: 1f89 1d3e 8429 6fbe e8ff b43d b814 283e
000001e0: ffbb ae3d bf7a 25bf b0ed d8be 76e8 7a3d
000001f0: bf77 22bf 68ff 443e 1f22 423e 4c8e ee3d
00000200: 66b4 823d 9798 2f3f 6b0a 16be 5605 cfbd
00000210: 6fd7 be3e b54d 8bbe 2605 983e 44c5 57bd
00000220: 0342 2b3d ef41 f1bd dfd6 3d3e aeac b2be
00000230: 4870 2dbe 613d c4bb de64 03bf 97b2 6cbe
00000240: cb52 b5bd 7988 073e 2f17 e2bd 2c87 c93e
00000250: e31f d83d d267 903d 42cf 153e a660 9b3d
00000260: c50a 2bbe 57b6 6ebe 8c26 393e c39b 11be
00000270: a72b 28be 5261 a6be 3108 91be c794 8bbe
00000280: 9ad0 15bf 7d8c 99be d3e2 4a3d b53e 92be
00000290: fc72 3f3e 3416 453e e1cf ed3e c1f1 e13e
000002a0: a37c 2dbe e2cd 193f c27d 3e3e 3ef1 a63e
000002b0: 450a 22bf 66be 9e3a b66f 303e a036 5b3e
000002c0: 34f4 92be 1123 a53e 6089 c43e 4fdd b5bc
000002d0: 6504 7b3d 3407 4ebe 44c0 863d f2b1 cd3d
000002e0: f173 b9bd a128 65be bd9c 27be 5189 82be
000002f0: 6c29 dcbe 8a9b dd3d 50d1 65be 6fb1 843e
00000300: 2d6a a23c 2921 98be 0889 42be c2c7 fabd
00000310: 512b 00bf e4b7 5d3c 0fcd 99bc 6fd8 03bf
00000320: 642f de3d 52ff d93c 5d47 433d 6095 ddbd
00000330: 1077 27be 15ac b9bd 97a8 c33e f5e4 913e
00000340: c81f 223f b6db 583f 11b7 44be cb78 efbe
00000350: 5584 c9bd 09ab bbbe 42cd 4bbf b275 453f
00000360: ba85 68bd 10a9 debe 98e9 58bd a9bb 813c
00000370: e8c8 cbbd 75a6 41be 1008 afbd 30df 5fbe
00000380: 6684 933e a863 59be 956a d5be a6f8 5c3e
00000390: 9f3e a2bd d1d8 70be aec3 9cbe 970d 8b3d
000003a0: a02b 6ebe 8d27 813c 48a1 0cbf da6b 7bbf
000003b0: 2959 bdbe 0892 bf3c fa60 e73d 1a07 80be
000003c0: b8e9 4e3e 3c9c d7bc fe85 7dbe d85b 9dbd
000003d0: 68e1 833e eaa6 913c ab02 d03e af51 cfbe
000003e0: 3b22 183e a06b 8abe a29f 1b3f 9009 983d
000003f0: 6ad4 0bbe e96f 08be 428f e9bd 53d9 77bd

raise_dim.0.attention1.0.weight f4 [9, 9, 3, 3]
0.32160676 -0.058624316 -0.17088601 0.14560667 -0.58228505 -0.18783827 -0.25481355 -0.045167
-0.32646862 0.087938696 0.10231742 -0.028473852 0.31571558 0.28779623 0.17778984 -0.044555157
0.055384178 -0.11714532 0.17926218 -0.024521613 -0.110930905 0.12603754 0.15902257 0.093249306
-0.11388538 -0.0226545 0.000664711 0.06499496 -0.28368753 -0.0837575 0.11219617 0.17627437
0.16487226 -0.3041182 -0.21067649 -0.13242628 0.11714694 -0.06410544 -0.1254849 0.025560753
0.30922204 0.043768663 -0.16947287 -0.04533764 -0.22374171 -0.0033725454 -0.35834017 -0.35217744
-0.11788605 -0.1118073 -0.24328634 -0.44201967 -0.1799165 -0.29192787 0.09245859 -0.09386477
-0.14410105 -0.12214004 -0.0022741905 0.015053902 -0.55489504 -0.34368402 -0.325467 0.6870574
0.5069123 0.37644073 0.7419711 0.8386153 0.46659982 0.17583889 0.43484262 0.051691398
0.44074142 0.3629702 0.3787643 0.41302752 0.45141357 0.3646067 -0.15041965 0.04093047
-0.2666121 -0.5279263 -0.7164267 0.15121858 0.08234962 -0.9415374 0.28306353 0.16286379
-0.28239068 0.29911023 -0.4480848 -0.25454184 -0.22991714 0.012464063 0.047089934 -0.0033460667
-0.17927302 0.040012643 -0.08595186 -0.66406363 -0.19905932 -0.34358725 -0.19548066 0.09880283
-0.08774844 -0.43906525 0.13928795 -0.060283888 -0.37486207 -0.05002963 -0.19095002 -0.019426888
0.48299822 0.044461858 -0.12590659 0.4574369 0.13837188 -0.05746308 0.11995223 -0.19428703
-0.07117959 0.4912849 0.16127329 -0.1665842 0.45645702 -0.14065757 -0.39734846 0.253744
0.036702007 -0.2870601 0.36116654 -0.081339635 -0.25803858 0.5126185 -0.114205 0.2560215
0.6164044 0.34851742 0.026838597 0.36221784 0.019191263 0.11972317 0.31082445 -0.028214436
-0.76777524 -0.054382123 -0.05457595 -0.49735105 -0.01941577 -0.33194676 -0.41138598 -0.04902036
-0.5699138 -0.40692052 0.0035777069 -0.023367546 -0.19251807 -0.017002277 -0.110581554 -0.016372515
-0.14773162 -0.32228985 -0.19015035 -0.19345674 -0.22646713 -0.11442355 -0.11783802 -0.26870674
-0.17262647 -0.2323639 -0.29013672 -0.0304987 -0.09267042 -0.052881613 0.05299312 0.1336743
0.13947129 0.0053943056 0.0051721428 0.20132981 -0.08851443 -0.054759916 -0.11068972 -0.1983622
-0.23999904 -0.01962523 -0.22137094 -0.2104439 -0.0895962 -0.11898022 -0.06329527 -0.09355232
-0.16416529 -0.19707617 -0.06986672 -0.13783273 -0.1045218 -0.04472264 0.0699419 -0.21880996
-0.037242334 0.009705934 0.0636316 -0.0393395 0.21589538 0.02488263 0.03697703 -0.028057998
-0.10228917 -0.021744246 0.01769269 -0.24410243 -0.3637478 0.12001436 -0.14837909 -0.14696907
-0.0072575323 -0.26952153 -0.14346048 0.16035247 -0.10583614 0.19920708 0.04990002 -0.019196209
0.22115378 -0.2475639 -0.21247788 0.0048742024 -0.013057077 0.018508393 0.12759255 -0.08866007
0.13201702 0.22312656 -0.13219504 -0.08741343 -0.10435842 0.16886532 0.2505806 0.27593562
0.0684018 0.2507093 0.4797793 -0.25708067 -0.41152322 -0.21687001 -0.3402617 0.1889947
-0.093365006 -0.04618519 -0.21891467 -0.037411902 -0.078443505 -0.042653292 -0.05650935 -0.18910755
00000000: a4a9 a43e 0d20 70bd befc 2ebe ea19 153e
00000010: a210 15bf ad58 40be ec76 82be 0801 39bd
00000020: e526 a7be 3419 b43d cc8b d13d ff41 e9bc
00000030: 79a5 a13e 075a 933e 8a0e 363e 787f 36bd
00000040: 85da 623d e3e9 efbd 8190 373e 8de1 c8bc
00000050: be2f e3bd fc0f 013e d0d6 223e 7ef9 be3d
00000060: bd3c e9bd ee95 b9bc 0040 2e3a 141c 853d
00000070: 7e3f 91be 0d89 abbd 1bc7 e53d 4581 343e
00000080: 46d4 283e 61b5 9bbe 94bb 57be c19a 07be
00000090: bcea ef3d b749 83bd 1d7f 00be c964 d13c
000000a0: 5a52 9e3e c546 333d 4c8a 2dbe f6b3 39bd
000000b0: 8c1c 65be ec05 5dbb 5d78 b7be 9a50 b4be
000000c0: 3e6e f1bd 3afb e4bd 0e20 79be 6750 e2be
000000d0: 083c 38be 9277 95be ee5a bd3d 2c3c c0bd
000000e0: 3a8f 13be 8f24 fabd 960a 15bb a4a4 763c
000000f0: 9a0d 0ebf 5af7 afbe 9ca3 a6be fee2 2f3f
00000100: 01c5 013f d7bc c03e d1f1 3d3f 7eaf 563f
00000110: 2ce6 ee3e 1c0f 343e b1a3 de3e 5cba 533d
00000120: dca8 e13e 3bd7 b93e 65ed c13e 5878 d33e
00000130: ae1f e73e bbad ba3e 9c07 1abe b5a6 273d
00000140: 6281 88be 2e26 07bf bd67 37bf 0bd9 1a3e
00000150: eba6 a83d 9808 71bf b4ed 903e c4c5 263e
00000160: 8395 90be fa24 993e 5f6b e5be 4f53 82be
00000170: 666f 6bbe 1236 4c3c 60e1 403d af49 5bbb
00000180: 5993 37be 4ce4 233d 8707 b0bd 1300 2abf
00000190: 35d6 4bbe abea afbe 152c 48be 2359 ca3d
000001a0: 74b5 b3bd 29cd e0be 80a1 0e3e 3dec 76bd
000001b0: eced bfbe dfeb 4cbd 6788 43be 2325 9fbc
000001c0: 8b4b f73e a31d 363d a8ed 00be 2b35 ea3e
000001d0: 5cb1 0d3e 685e 6bbd 84a9 f53d 2ef3 46be
000001e0: 9bc6 91bd b289 fb3e d324 253e 0c95 2abe
000001f0: bcb4 e93e 8a08 10be 4271 cbbe bcea 813e
00000200: d854 163d 8bf9 92be d2ea b83e 6595 a6bd
00000210: a21d 84be f73a 033f 50e4 e9bd 4015 833e
00000220: aecc 1d3f e070 b23e 9edc db3c 9e74 b93e
00000230: ff36 9d3c 6c31 f53d 6224 9f3e f621 e7bc
00000240: eb8c 44bf cabf 5ebd 088b 5fbd cca4 febe
00000250: d20d 9fbc edf4 a9be 2fa1 d2be 93c9 48bd
00000260: dfe5 11bf e357 d0be f677 6a3b 4c6d bfbc
00000270: 7523 45be 5c48 8bbc 9578 e2bd a71f 86bc
00000280: f546 17be 2d03 a5be c6b6 42be 8619 46be
00000290: 00e7 67be e556 eabd 0f55 f1bd ee93 89be
000002a0: fec4 30be cdf0 6dbe cd8c 94be 69d8 f9bc
000002b0: fdc9 bdbd 649a 58bd 500f 593d eae1 083e
000002c0: 90d1 0e3e b7c2 b03b 147b a93b 6729 4e3e
000002d0: 0e47 b5bd ef4b 60bd 4bb1 e2bd 761f 4bbe
000002e0: 4fc2 75be 17c5 a0bc 10af 62be 9b7e 57be
000002f0: 367e b7bd e7ab f3bd f3a0 81bd 5c98 bfbd
00000300: f21a 28be 56ce 49be 4816 8fbd 0624 0dbe
00000310: 870f d6bd 162f 37bd b33d 8f3d b80f 60be
00000320: 6b8b 18bd a305 1f3c 4951 823d 7522 21bd
00000330: ae13 5d3e a8d6 cb3c 3a75 173d e3d9 e5bc
00000340: fc7c d1bd fd20 b2bc 43f0 903c fdf5 79be
00000350: 273d babe 17ca f53d b0f0 17be 0f7f 16be
00000360: 98d0 edbb bafe 89be 4ee7 12be 7033 243e
00000370: 9ec0 d8bd f1fc 4b3e f763 4c3d 5e41 9dbc
00000380: 2376 623e 6481 7dbe cd93 59be c6b7 9f3b
00000390: 5aed 55bc ea9e 973c 9fa7 023e 6993 b5bd
000003a0: 782f 073e 4a7b 643e 235e 07be d005 b3bd
000003b0: deb9 d5bd 08eb 2c3e 1a4c 803e 6f47 8d3e
000003c0: 3e16 8c3d f85c 803e a2a5 f53e 14a0 83be
000003d0: 2cb3 d2be 2c13 5ebe c836 aebe d487 413e
000003e0: 2736 bfbd af2c 3dbd 2b2b 60be 393d 19bd
000003f0: fda6 a0bd 38b5 2ebd 5976 67bd 69a5 41be

raise_dim.0.attention1.0.bias f4 [9]
0.042175774 0.48984867 0.11996546 -0.16643877 -0.08331129 0.32934222 -0.0006802921 0.12894294
0.44210348
00000000: 81c0 2c3d 72cd fa3e 73b0 f53d ed6e 2abe
00000010: 1c9f aabd 8b9f a83e a155 32ba 9e09 043e
00000020: 635b e23e

raise_dim.0.attention1.2.weight f4 [9, 9, 1, 1]
0.9392566 0.4417094 0.106833264 -0.5820803 0.029168151 0.4338201 -0.7600501 0.49810642
0.6786771 0.8022218 1.0351179 0.043577597 0.27638042 0.16641909 0.17538685 -0.3229673
-0.26780868 0.2594428 0.5826849 1.6716399 -0.6900599 0.011114829 -0.18244499 -0.4411893
0.24608772 -0.6603662 -0.013357733 -0.25848645 -0.42290658 0.0485617 0.015528395 0.1624311
-0.30684304 0.13254017 -0.28757033 0.030475104 0.53783274 0.90133303 -0.08534984 -0.028265238
-0.26162732 -0.48091483 -0.33447984 0.070399776 -0.0275821 0.90982014 -0.9584828 0.27606687
-0.44538805 -0.47734728 0.5576798 -0.108142324 -0.19647084 0.16459614 -0.13234773 -0.043552622
0.28911674 0.10184826 0.24085136 -0.08898977 0.03205319 -0.07118421 0.035678387 0.44330305
0.09941095 0.29538518 -0.094885275 -0.032046326 0.10984357 0.3041825 -0.34763998 -0.28648537
-0.10253553 -1.140161 1.0204886 -0.18526484 -0.12568022 0.34448496 0.17184784 0.6753264
0.38168404
00000000: 1f73 703f bc27 e23e 66cb da3d 3703 15bf
00000010: 0cf2 ee3c ab1d de3e a592 42bf ce07 ff3e
00000020: c8bd 2d3f 685e 4d3f be7e 843f 6c7e 323d
00000030: bc81 8d3e c469 2a3e 9c98 333e f85b a5be
00000040: 381e 89be b0d5 843e d62a 153f 4cf8 d53f
00000050: c4a7 30bf f91a 363c dcd2 3abe 90e3 e1be
00000060: 6bfe 7b3e c20d 29bf 65da 5abc 5658 84be
00000070: 3687 d8be a2e8 463d cf6a 7e3c 5754 263e
00000080: 881a 9dbe 9cb8 073e 6b3c 93be eda6 f93c
00000090: 68af 093f c3bd 663f e6cb aebd 808c e7bc
000000a0: 04f4 85be 783a f6be f140 abbe c22d 903d
000000b0: dbf3 e1bc f9e9 683f 215f 75bf a358 8d3e
000000c0: e709 e4be dd66 f4be 1ac4 0e3f b979 ddbd
000000d0: a72f 49be e48b 283e 2a86 07be 3c64 32bd
000000e0: 1c07 943e d295 d03d bda1 763e 4540 b6bd
000000f0: 354a 033d 07c9 91bd 8023 123d 9ef8 e23e
00000100: f897 cb3d ba3c 973e 3653 c2bd 0243 03bd
00000110: aaf5 e03d cfbd 9b3e defd b1be 36ae 92be
00000120: 26fe d1bd ccf0 91bf 5f9f 823f 11b6 3dbe
00000130: 51b2 00be 5560 b03e e1f8 2f3e 31e2 2c3f
00000140: 176c c33e

raise_dim.0.attention1.2.bias f4 [9]
0.28849906 0.29754403 0.37195924 -0.26120824 0.34109667 0.28016478 -0.14397721 -0.15502943
0.012594657
00000000: 26b6 933e b157 983e 7171 be3e 16bd 85be
00000010: 39a4 ae3e c271 8f3e c36e 13be 09c0 1ebe
00000020: d259 4e3c

raise_dim.0.attention1.4.weight f4 [9, 9, 1, 1]
-0.33587942 -0.20528111 0.4525883 0.26884308 -0.7492757 -0.5220336 0.19752677 -0.12789972
0.33415744 -0.5301455 -0.04810641 1.1182579 0.10879599 0.5051921 -0.37105286 -0.000105979154
0.17236757 -0.4426937 -0.51025635 -0.082906656 -1.5652579 0.27483156 -1.2549853 0.0484999
-0.199955 0.13986172 -0.44242445 0.69423205 0.16891983 0.5680456 -0.55813015 0.06728701
0.4887962 -0.34434572 -0.55960685 0.793845 0.9032606 0.9896978 0.93182886 -0.6193445
0.60207087 1.8800514 -0.7363272 -0.60050094 0.5172812 0.0033973153 0.011380056 0.34313023
-0.14245476 0.22427222 -0.12524608 -0.097467884 -0.050506517 -0.31968528 0.35479006 0.36982912
0.24400805 -0.36272734 -0.2826914 0.4170625 -0.12377072 -0.0778445 0.43530837 0.97611
0.83253664 0.8639078 -0.44319063 0.33360666 0.6021745 -0.019060254 -0.4752353 0.52975917
-0.47528055 -0.0016750628 0.5403908 -0.13393404 0.15840764 -0.2114582 -0.0073662726 0.12180396
-0.514097
00000000: 63f8 abbe 3635 52be a7b9 e73e cda5 893e
00000010: 88d0 3fbf fea3 05bf 7544 4a3e 25f8 02be
00000020: af16 ab3e 9eb7 07bf 3a0b 45bd 1323 8f3f
00000030: 6fd0 de3d 4554 013f a4fa bdbe 2041 deb8
00000040: 2081 303e c0a8 e2be 29a0 02bf f7ca a9bd
00000050: 5f5a c8bf b9b6 8c3e 5ca3 a0bf d5a7 463d
00000060: 01c1 4cbe e937 0f3e 7585 e2be 31b9 313f
00000070: 52f9 2c3e 706b 113f 9ee1 0ebf c6cd 893d
00000080: 7f43 fa3e 154e b0be 6542 0fbf 6d39 4b3f
00000090: 163c 673f d65c 7d3f 568c 6e3f 5c8d 1ebf
000000a0: 5121 1a3f 86a5 f03f f07f 3cbf 6eba 19bf
000000b0: 8a6c 043f 7ea5 5e3b 6a73 3a3c c4ae af3e
000000c0: a9df 11be 9ea7 653e 8240 00be 3e9d c7bd
000000d0: ecdf 4ebd caad a3be 0ba7 b53e 3e5a bd3e
000000e0: 3fdd 793e 66b7 b9be edbc 90be 3789 d53e
000000f0: 817b fdbd f06c 9fbd bde0 de3e 58e2 793f
00000100: 1f21 553f 1029 5d3f e2e9 e2be 7ece aa3e
00000110: 1c28 1a3f 4024 9cbc 0b52 f3be 4c9e 073f
00000120: f957 f3be c88d dbba 0d57 0a3f 0126 09be
00000130: 9d35 223e 8088 58be c660 f1bb 5b74 f93d
00000140: dc9b 03bf

raise_dim.0.attention1.4.bias f4 [9]
0.22765094 0.0899339 0.07480594 0.67757976 0.38806376 0.12248384 0.39459658 0.63067967
0.11982604
00000000: 541d 693e 442f b83d db33 993d de75 2d3f
00000010: 4bb0 c63e cfd8 fa3d 9008 ca3e 3974 213f
00000020: 5b67 f53d

raise_dim.0.attention3.1.weight f4 [32, 9, 1, 1]
-0.10743192 -0.061255105 0.070629835 0.07344577 -0.3797194 0.3577768 0.19023693 -0.20584926
0.18653023 0.20879322 -0.041385077 0.22315069 -0.050714727 -0.40004644 -0.0043850406 0.30632508
-0.25513986 0.19111712 0.13510491 -0.23203492 -0.038842425 0.19285184 -0.24883893 0.24150461
0.15466276 0.20283486 0.23172478 -0.0898333 -0.25659025 -0.086887546 -0.27816123 0.06194138
0.4823493 -0.07198414 0.012950262 0.4031396 -0.29016957 -0.07748105 0.30038032 0.27455685
0.1258861 -0.21950243 0.1007328 -0.19315866 -0.33732277 -0.4095177 0.46792424 0.25757012
0.10823849 0.0061726863 0.18291178 -0.29012576 0.19106908 -0.19763392 -0.10840599 -0.059302293
-0.0665526 -0.362547 0.17141815 0.054191947 0.3450883 0.2685369 0.114248045 0.18534356
0.015591601 0.107779995 -0.3004366 -0.07887046 -0.017600121 0.65870017 -0.42683747 -0.00041647142
-0.07394932 0.12242442 0.13792542 -0.4355199 -0.48145112 0.2922584 0.034628756 -0.38291493
-0.1448382 0.15066065 -0.21808767 -0.3089687 -0.18750796 -0.2498625 -0.012246216 0.05803092
0.083521165 -0.2709038 -0.29379207 -0.47341734 0.005619912 0.1208938 0.15850246 0.12154674
0.031447634 -0.20049143 -0.082588345 -0.23263334 0.029841896 -0.23614044 -0.32131633 0.095809236
0.16151378 0.023086354 0.081531696 0.16395798 0.03655617 -0.48132718 -0.31073013 0.0411366
-0.2935274 -0.07597739 0.15296721 -0.043479376 0.06649623 0.06803349 -0.26048923 0.19756004
-0.020038297 0.1443127 -0.072669305 0.2521331 -0.01302638 0.28697065 0.23116156 0.2523656
0.17029962 0.025067203 -0.1352597 -0.094179 -0.24325007 -0.25267577 0.27190349 0.08531172
0.14888889 0.073930256 0.09466716 -0.31049895 -0.23090194 0.31636098 0.1049561 0.21412872
-0.24876714 0.1868583 -0.24589294 0.019290863 0.2096101 -0.19189128 -0.44447637 0.12506166
0.35472447 0.30510056 -0.34759066 -0.08822366 -0.2946254 -0.31024954 -0.0065079336 0.5083101
-0.22380921 0.09839963 0.31802782 -0.03956965 0.2632737 0.25930908 0.2061952 -0.16863355
-0.4819845 -0.17996694 -0.17315462 0.39776927 0.17647561 0.16604072 -0.21452424 -0.3591931
0.36245075 0.11398238 -0.39723307 -0.045313977 -0.0493506 0.02319018 0.25739792 0.2038815
-0.2358269 0.027650869 -0.3603987 0.2170158 0.11164682 0.13736406 0.27226365 0.08246298
-0.41724807 -0.07981895 -0.30219138 0.17158814 0.073148675 0.4596959 -0.26163065 -0.37962452
-0.11470946 -0.026751496 0.1456903 0.37536326 0.53460866 0.011378349 0.061009735 -0.050268147
-0.28082383 0.10540027 -0.23509644 0.0050483933 0.24132873 0.429776 -0.5275302 0.2992724
-0.3271681 -0.26940328 0.09709305 -0.021475188 -0.2735265 0.016789585 -0.57204825 0.11832343
0.23610862 0.06341678 -0.19385415 -0.016296366 -0.20968825 -0.3135512 0.1347172 -0.1707927
-0.64344877 -0.20330597 -0.20598254 -0.21191517 -0.026114644 -0.15345953 0.32753694 -0.2563637
-0.35823017 0.118228935 -0.2964943 0.23505357 0.19620302 -0.17258562 -0.12527859 0.21294068
-0.27066642 0.13146608 -0.19470018 -0.05450541 -0.09613816 -0.37009284 0.15301949 -0.041047256
00000000: 4405 dcbd a2e6 7abd 60a6 903d bc6a 963d
00000010: 956a c2be 852e b73e 78cd 423e 26ca 52be
00000020: c801 3f3e e4cd 553e 6683 29bd 9d81 643e
00000030: 3fba 4fbd e3d2 ccbe 63b0 8fbb a4d6 9c3e
00000040: b1a1 82be 35b4 433e f158 0a3e 909a 6dbe
00000050: 3c19 1fbd f47a 453e a2cf 7ebe fc4c 773e
00000060: ea5f 1e3e f1b3 4f3e 4349 6d3e 85fa b7bd
00000070: cc5f 83be 19f2 b1bd 266b 8ebe 3fb6 7d3d
00000080: 7df6 f63e 6c6c 93bd 562d 543c 5068 ce3e
00000090: 1b91 94be 62ae 9ebd 73cb 993e b792 8c3e
000000a0: 49e8 003e 3fc5 60be 004d ce3d 62cb 45be
000000b0: 92b5 acbe 4eac d1be c493 ef3e 3be0 833e
000000c0: 24ac dd3d 3f44 ca3b 3a4d 3b3e 5d8b 94be
000000d0: 9da7 433e 8c60 4abe f603 debd f6e6 72bd
000000e0: bb4c 88bd c39f b9be 3d88 2f3e 60f8 5d3d
000000f0: 6aaf b03e ab7d 893e e1fa e93d b4ca 3d3e
00000100: ea73 7f3c c2bb dc3d d3d2 99be d686 a1bd
00000110: 212e 90bc 93a0 283f 718a dabe d959 dab9
00000120: be72 97bd a8b9 fa3d 523c 0d3e 77fc debe
00000130: c380 f6be e5a2 953e e2d6 0d3d 6d0d c4be
00000140: 7750 14be c946 1a3e 6052 5fbe 2531 9ebe
00000150: 1602 40be f5db 7fbe 5aa4 48bc d4b1 6d3d
00000160: 250d ab3d e7b3 8abe ea6b 96be c263 f2be
00000170: 3d27 b83b 2b97 f73d 784e 223e 7fed f83d
00000180: 3ccf 003d a04d 4dbe 1424 a9bd 6f37 6ebe
00000190: fe76 f43c cdce 71be 9383 a4be a237 c43d
000001a0: de63 253e 981f bd3c 17fa a63d 9ae4 273e
000001b0: ecbb 153d 8470 f6be 0518 9fbe da7e 283d
000001c0: 3949 96be 099a 9bbd 70a3 1c3e 6e17 32bd
000001d0: 2d2f 883d 2455 8b3d d85e 85be 2e4d 4a3e
000001e0: 5b27 a4bc b5c6 133e a5d3 94bd 9717 813e
000001f0: 996c 55bc d1ed 923e 9eb5 6c3e 1036 813e
00000200: 0663 2e3e bc59 cd3c 8581 0abe ebe0 c0bd
00000210: 8c16 79be b85e 81be ef36 8b3e e9b7 ae3d
00000220: 5476 183e bf68 973d dbe0 c13d b8f9 9ebe
00000230: 8f71 6cbe 11fa a13e 39f3 d63d 8f44 5b3e
00000240: d0bc 7ebe c857 3f3e 5ccb 7bbe df07 9e3c
00000250: 08a4 563e 267f 44be 6892 e3be 2a10 003e
00000260: 729e b53e 2436 9c3e 67f7 b1be 9bae b4bd
00000270: 24d9 96be 07d9 9ebe 8140 d5bb 9c20 023f
00000280: 3e2e 65be bf85 c93d 8bd4 a23e c913 22bd
00000290: cfcb 863e 29c4 843e d624 533e 46ae 2cbe
000002a0: acc6 f6be 4149 38be 724f 31be 6aa8 cb3e
000002b0: 06b6 343e 9406 2a3e 3eac 5bbe 28e8 b7be
000002c0: 2593 b93e 986f e93d 2262 cbbe 269b 39bd
000002d0: db23 4abd 55f9 bd3c a9c9 833e 50c6 503e
000002e0: 9b7c 71be 1384 e23c 2e86 b8be 6439 5e3e
000002f0: 17a7 e43d 2aa9 0c3e 2466 8b3e 5ae2 a83d
00000300: 8aa1 d5be 1e78 a3bd d4b8 9abe cdb4 2f3e
00000310: f9ce 953d 435d eb3e 74f4 85be 255e c2be
00000320: cbec eabd f425 dbbc d72f 153e 9d2f c03e
00000330: 1ddc 083f 416c 3a3c 58e5 793d f9e5 4dbd
00000340: 24c8 8fbe 19dc d73d 1fbd 70be fe6c a53b
00000350: e11e 773e 9a0b dc3e 380c 07bf 3b3a 993e
00000360: 9482 a7be 3aef 89be b9d8 c63d bcec afbc
00000370: aa0b 8cbe 508a 893c c171 12bf 8e53 f23d
00000380: 75c6 713e a8e0 813d b481 46be f57f 85bc
00000390: 84b8 56be c889 a0be 4ef3 093e 48e4 2ebe
000003a0: 0fb9 24bf 712f 50be 16ed 52be 4a00 59be
000003b0: 61ee d5bc 7f24 1dbe ecb2 a73e 1a42 83be
000003c0: f269 b7be 0322 f23d 1ace 97be e2b1 703e
000003d0: 72e9 483e 49ba 30be 0849 00be 1f0d 5a3e
000003e0: ca94 8abe 0b9f 063e 7c5f 47be 1141 5fbd
000003f0: 15e4 c4bd cf7c bdbe 24b1 1c3e 2b21 28bd

raise_dim.0.attention3.1.bias f4 [32]
-0.028510034 -0.049756866 -0.31603837 -0.076521255 0.011576772 -0.0152037 -0.199472 0.022324076
0.06813037 0.07569052 0.11833929 -0.006443008 0.06724727 -0.13240305 -0.064469345 -0.17140374
-0.03571184 0.14621899 0.047889646 -0.03482993 -0.09605387 -0.12416049 0.0003156736 -0.014086128
0.07884743 0.13515696 0.15515994 -0.040445413 0.042564545 -0.025000053 -0.10661447 -0.15520255
00000000: e08d e9bc dbcd 4bbd c8cf a1be 2db7 9cbd
00000010: 80ac 3d3c f118 79bc 6342 4cbe fbe0 b63c
00000020: ef87 8b3d a203 9b3d df5b f23d de1f d3bb
00000030: f0b8 893d aa94 07be 8108 84bd 7684 2fbe
00000040: 9446 12bd 6eba 153e ef27 443d d4a9 0ebd
00000050: e4b7 c4bd db47 febd fe80 a539 81c9 66bc
00000060: c37a a13d 9666 0a3e 3fe2 1e3e 17aa 25bd
00000070: 2958 2e3d e9cc ccbc b058 dabd 6bed 1ebe

raise_dim.0.attention3.3.weight f4 [32, 32, 1, 1]
-0.12319141 -0.23074311 0.20391352 -0.12600803 -0.0050805286 -0.15813066 -0.089174554 -1.2586323
0.08448621 0.057367034 -0.2668772 -0.1327418 -0.08095586 -0.29223648 0.11707864 -0.116185434
0.04641154 -0.0076188347 0.05606394 -0.03679011 0.30281317 -0.11832126 -0.301839 -0.30582014
0.31248924 0.14809264 0.010323197 -0.09449007 0.55975187 0.088857144 0.18829617 0.24203737
-0.03859533 0.033954684 0.05993181 -0.20463824 0.0771908 -0.06751146 -0.04204479 -0.77339435
-0.014898398 -0.034823656 0.045321792 0.10887606 0.11261481 -0.12600037 0.09851763 0.08447509
0.19402823 -0.017558446 -0.062461134 0.031221787 0.012684187 -0.007309262 0.15737793 -0.017462235
0.21787833 -0.36622095 0.35121098 -0.00773136 0.4308005 -0.07766568 0.12673141 -0.08979263
0.10970735 -0.06559282 -0.12239495 0.12892291 -0.87075806 0.71215105 -0.049525276 -0.28213814
0.023716426 -0.10694546 0.24700113 0.14048134 -0.07302167 -0.5877853 -0.17066377 -0.08480212
-0.08609209 -0.34146044 -0.15587796 0.049719825 0.014638683 0.009306675 -0.023420755 0.061153278
-0.4574153 -0.3925185 0.0054008863 -0.2933776 0.08033734 0.03295441 -0.09092057 0.09248274
-0.0783415 0.07522404 0.024074797 -0.044516947 0.04429387 -0.017589169 -0.05710265 0.079701014
-0.15536582 -0.03001062 -0.032647215 -0.046848796 -0.050083324 -0.05709439 0.037492838 0.06517427
0.094626024 -0.0029854462 -0.03079374 -0.03573846 0.099293925 0.048735548 -0.05953595 0.14190501
-0.101634175 -0.02665459 -0.024758782 0.081057824 -0.13163984 0.090680875 0.003998481 -0.089776374
-0.009649331 0.25862136 0.17232724 0.017918164 -0.1545498 -0.12763463 0.23746577 0.029031176
0.05722575 -0.005556237 -0.12571518 -0.031868067 -0.03237688 -0.010028954 0.231996 0.1531616
0.13464971 -0.0069181668 0.059871316 -0.07415849 0.13666299 0.0657333 -0.090289265 0.024166072
0.12022458 0.05455469 0.09747497 0.12895279 -0.12614395 -0.04729668 0.037201688 0.10323382
0.019735033 -0.047224935 -0.01496851 -0.08653323 -0.6738495 -0.21216561 0.020885538 -0.40568173
0.17528939 -0.105277024 -0.24627571 0.17093334 0.04623212 -0.22411679 -0.16608536 -0.0774484
-0.03567125 -0.14633368 -0.028409578 0.1142381 0.19357757 0.025407558 -0.17452018 -0.06498095
-0.09410444 -0.29540437 -0.6742909 0.12531303 -0.09763221 0.19218451 -0.11751208 0.031262137
0.09246165 -0.21933208 0.050776787 0.28445432 0.029307904 -0.17845361 0.13776639 0.15462379
-0.18230096 -0.23665696 0.13221432 -0.0947575 -0.06744912 -0.18035047 -0.18741414 0.013996376
-0.09939042 -0.004191155 0.14038372 0.022302642 0.032656595 -0.2297062 0.07907972 0.025393136
-0.11173045 -0.43922582 -0.13023466 -0.08928368 -0.24357504 -0.20454632 -0.080505036 0.43758574
0.061282627 0.14457065 -0.28441674 -0.18183093 -0.31050223 0.00831903 -0.10648744 -0.08424973
-0.22558102 -0.03675094 0.11442441 -0.1412766 0.04585758 -0.29765663 -0.007953373 -0.21741085
-0.15095575 0.06750012 0.021914404 0.08871635 0.118723504 0.16958077 -0.18940245 -0.066731915
0.03948281 -0.81602407 -0.15994304 0.032214746 0.081197634 0.10317929 0.0062553007 0.34588403
00000000: c74b fcbd ec47 6cbe b5ce 503e 4008 01be
00000010: 907a a6bb 01ed 21be 26a1 b6bd dd1a a1bf
00000020: 1b07 ad3d b2f9 6a3d 21a4 88be 77ed 07be
00000030: 30cc a5bd 05a0 95be edc6 ef3d a1f2 edbd
00000040: 071a 3e3d 6ba7 f9bb 4da3 653d 3ab1 16bd
00000050: 540a 9b3e 6b52 f2bd a48a 9abe 7594 9cbe
00000060: 97fe 9f3e 99a5 173e a022 293c 0384 c1bd
00000070: e64b 0f3f bcfa b53d b6d0 403e a5d8 773e
00000080: 2316 1ebd 1114 0b3d 0f7b 753d b08c 51be
00000090: 3616 9e3d 7343 8abd 2837 2cbd 2cfd 45bf
000000a0: 6918 74bc 40a3 0ebd 58a3 393d 69fa de3d
000000b0: 98a2 e63d 3e06 01be 9cc3 c93d 4701 ad3d
000000c0: 56af 463e bbd6 8fbc 3fd7 7fbd d5c4 ff3c
000000d0: 56d1 4f3c 8982 efbb ae27 213e f60c 8fbc
000000e0: 7f1b 5f3e 5081 bbbe edd1 b33e 5957 fdbb
000000f0: e291 dc3e 2f0f 9fbd e1c5 013e 33e5 b7bd
00000100: 3fae e03d 8755 86bd 34aa fabd 5e04 043e
00000110: 00ea 5ebf 884f 363f 04db 4abd 6974 90be
00000120: f348 c23c 3906 dbbd dded 7c3e 57da 0f3e
00000130: 638c 95bd 1979 16bf 7cc2 2ebe bcac adbd
00000140: 0d51 b0bd e7d3 aebe 799e 1fbe 04a7 4b3d
00000150: 16d7 6f3c 067b 183c e2dc bfbc dc7b 7a3d
00000160: 5732 eabe 2ff8 c8be ebf9 b03b 9735 96be
00000170: e787 a43d 34fb 063d 9034 babd 9767 bd3d
00000180: 8271 a0bd 100f 9a3d 8238 c53c 6757 36bd
00000190: 7d6d 353d 2917 90bc 78e4 69bd 493a a33d
000001a0: 3818 1fbe d5d8 f5bc 16b9 05bd 86e4 3fbd
000001b0: 2c24 4dbd cfdb 69bd 1792 193d 167a 853d
000001c0: 4acb c13d 7aa7 43bb 2743 fcbc 7e62 12bd
000001d0: 9d5a cb3d ed9e 473d f8db 73bd 8c4f 113e
000001e0: 9425 d0bd ba5a dabc eed2 cabc a501 a63d
000001f0: 98cc 06be e5b6 b93d b105 833b addc b7bd
00000200: 3a18 1ebc 056a 843e 8d76 303e 1dc9 923c
00000210: 4e42 1ebe a7b2 02be 3a2a 733e cad2 ed3c
00000220: 8c65 6a3d 1811 b6bb 7bbb 00be 1788 02bd
00000230: 9f9d 04bd 7b50 24bc 5c90 6d3e 65d6 1c3e
00000240: 9de1 093e cab1 e2bb a03b 753d 68e0 97bd
00000250: 62f1 0b3e 2e9f 863d 94e9 b8bd edf7 c53c
00000260: 4e38 f63d bd74 5f3d f5a0 c73d 330c 043e
00000270: e12b 01be 2aba 41bd cc60 183d 416c d33d
00000280: 5dab a13c ef6e 41bd 7b3e 75bc 5638 b1bd
00000290: 6781 2cbf f141 59be 2618 ab3c 84b5 cfbe
000002a0: 107f 333e 7b9b d7bd b32f 7cbe 2609 2f3e
000002b0: e45d 3d3d df7e 65be 4812 2abe 449d 9ebd
000002c0: 041c 12bd 7fd8 15be 34bb e8bc aaf5 e93d
000002d0: 3339 463e 8323 d03c 6bb5 32be bb14 85bd
000002e0: d4b9 c0bd 3e3f 97be 549e 2cbf 0f52 003e
000002f0: 65f3 c7bd 04cc 443e 2caa f0bd ba0c 003d
00000300: 895c bd3d 9798 60be 52fb 4f3d ffa3 913e
00000310: 2117 f03c 8bbc 36be a212 0d3e b355 1e3e
00000320: 1aad 3abe 3456 72be 3163 073e 3810 c2bd
00000330: c422 8abd cbad 38be 7ee9 3fbe 0e51 653c
00000340: 348d cbbd f555 89bb c0c0 0f3e 08b4 b63c
00000350: ecc2 053d 1a38 6bbe 8cf4 a13d 4405 d03c
00000360: efd2 e4bd 35e2 e0be 3c5c 05be 5dda b6bd
00000370: bc6b 79be 9774 51be d3df a4bd 3d0b e03e
00000380: 7e03 7b3d 540a 143e 129f 91be e331 3abe
00000390: 26fa 9ebe 8a4c 083c 1616 dabd 1f8b acbd
000003a0: b6fe 66be 2788 16bd 5857 ea3d d0aa 10be
000003b0: 28d5 3b3d 7366 98be dd4e 02bc f3a0 5ebe
000003c0: 2594 1abe 813d 8a3d d685 b33c ebb0 b53d
000003d0: 4f25 f33d 95a6 2d3e b7f2 41be beaa 88bd
000003e0: bab8 213d f4e6 50bf 1cc8 23be 9cf3 033d
000003f0: f24a a63d aa4f d33d 44f9 cc3b b617 b13e

raise_dim.0.attention3.3.bias f4 [32]
-0.11118478 -0.094988264 0.055604395 0.13725787 0.013783845 -0.107283 -0.10975521 0.058357306
-0.17371048 -0.12172478 0.17475158 0.056215316 0.05035474 0.002059185 -0.053277235 0.10249812
0.026448848 -0.20339154 -0.0058259885 0.1168942 -0.03364792 0.003801821 -0.023669476 0.019053416
-0.0931901 0.08230618 0.0724178 -0.0986933 -0.14910349 -0.035931136 -0.08356094 0.10721544
00000000: d9b4 e3bd 3589 c2bd 6fc1 633d 548d 0c3e
00000010: a3d5 613c 31b7 dbbd 57c7 e0bd 1208 6f3d
00000020: 29e1 31be d74a f9bd 14f2 323e 0842 663d
00000030: c640 4e3d 64f3 063b 3b39 5abd 89ea d13d
00000040: 41ab d83c df45 50be efe7 bebb 3a66 ef3d
00000050: 67d2 09bd f927 793b 7de6 c1bc e915 9c3c
00000060: 73da bebd 2490 a83d c94f 943d b61f cabd
00000070: 96ae 18be 872c 13bd 0022 abbd c593 db3d

layers.0.conv1.weight f4 [32, 32, 3, 3]
0.24782124 -0.14416532 -0.3166651 -0.30786195 -0.17665577 -0.24943097 -0.11062253 0.045624856
0.082799986 0.13565023 0.30549785 0.30465183 0.21246657 -0.18648826 0.061676875 0.021754663
-0.1810726 -0.014429183 1.5215364 0.8083572 -0.105895616 0.58577645 -0.35887453 -0.8990768
0.38523287 -0.64585423 -0.3360053 0.28561208 0.17274839 0.37534615 -0.16513531 0.14469987
0.4957499 -0.16165717 0.01444857 0.4466588 -0.6681612 -0.8622092 0.023086645 -0.1614508
0.28594795 -0.114710815 0.002230103 0.31009603 -0.10096206 -0.052285835 -0.080800734 -0.18565702
0.15375489 -0.043635726 -0.12560216 0.18291898 0.117683545 -0.07333129 0.0800172 0.12506588
0.098660156 -0.058192942 0.24191453 -0.026371283 -0.028394388 0.13060239 0.0002094347 0.083692186
0.13030595 0.045646004 0.081372626 0.22002523 -0.10093575 0.017392678 0.06975986 0.09357817
0.08914226 0.051297564 0.048008315 0.14024656 0.112514056 -0.094946995 0.021349788 0.014008996
-0.052096263 -0.09359778 0.10112995 0.18512298 -0.0051383427 -0.07861035 -0.07498025 -0.019463236
0.05424255 -0.055515554 -0.032451496 -0.18111517 -0.3571562 -0.30673003 -0.3218138 -0.056156337
0.08450954 0.002196843 0.08427924 -0.03792106 -0.14157662 0.1018256 -0.21332878 -0.2650241
-0.11238482 -0.21370828 -0.17038882 -0.14811854 0.0018346965 -0.32046753 -0.33388796 -0.19723889
-0.08183598 0.17939883 -0.11348895 -0.08029859 0.15274161 0.056099635 0.09954781 0.058932427
0.03349023 -0.1235703 -0.07472354 -0.01217642 -0.076239415 -0.16744353 -0.17520154 -0.33366436
-0.2054614 -0.31907234 -0.019610813 -0.16051841 -0.3476299 -0.07978529 -0.22397253 0.102752276
0.16210966 0.035902787 0.0069569577 -0.3740772 -0.15994799 -0.06725479 -0.3005754 0.10012765
-0.02974925 -0.18941446 -0.18788415 0.11894657 0.1312184 0.28174618 -0.04789902 -0.0052454467
-0.012758698 -0.0017299304 0.3582419 0.57600045 -0.050659914 0.2830035 0.031039508 -0.031196645
0.28934026 0.257655 -0.025254037 -0.055823885 0.018207036 -0.2948963 0.043803237 -0.043766916
-0.15597636 0.026025115 -0.13309622 0.07410748 0.19304976 0.16259949 0.16104046 0.41256845
-0.008618256 0.10022801 0.42476103 0.059750874 -0.17232347 -0.37965515 0.044307742 -0.74143624
-0.355766 -0.0073927636 -0.45126626 -0.31787744 0.05088502 0.0927981 0.078845404 0.18063447
0.018479679 -0.119290575 0.021972228 -0.059369452 -0.071166955 -0.0017302816 0.25588527 -0.031413473
-0.18634847 -0.29306132 0.1182873 0.17297928 0.006167001 0.23082969 -0.13611 0.062350303
0.26837957 0.037610456 0.05718759 -0.16250357 -0.22124435 0.042998295 -0.01064738 0.03273184
0.14061703 -0.3949606 -0.38420665 0.26322737 0.012635483 0.055312254 0.1430534 -0.15164793
0.1523945 0.040313046 -0.080254495 0.03800555 0.090412095 -0.08015733 -0.005307304 0.021300409
0.012405393 0.02381142 -0.41013888 -0.36126703 -0.1313835 -0.39415053 -0.088154376 -0.16682565
-0.22307998 0.0579089 0.10862361 0.2723979 -0.0747994 -0.49624756 -0.5942187 -0.099454656
-0.040157814 -0.21523732 0.2290103 0.27291307 0.29743686 0.600676 0.056174994 0.1479996
00000000: dac4 7d3e 13a0 13be ee21 a2be 15a0 9dbe
00000010: 40e5 34be d56a 7fbe 118e e2bd 21e1 3a3d
00000020: 0a93 a93d e5e7 0a3e 376a 9c3e 53fb 9b3e
00000030: d690 593e c7f6 3ebe e4a0 7c3d d636 b23c
00000040: 186b 39be 6168 6cbc b4c1 c23f 7ff0 4e3f
00000050: cddf d8bd 72f5 153f 67be b7be e629 66bf
00000060: 3e3d c53e b456 25bf e308 acbe bf3b 923e
00000070: f4e4 303e 5f2d c03e 3b19 29be 342c 143e
00000080: eed2 fd3e 7589 25be b2b9 6c3c 76b0 e43e
00000090: 9d0c 2bbf beb9 5cbf 3420 bd3c 5c53 25be
000000a0: c567 923e 81ed eabd eb26 123b e8c4 9e3e
000000b0: 32c5 cebd ac29 56bd db7a a5bd e01c 3ebe
000000c0: ec71 1d3e 60bb 32bd da9d 00be 1d4f 3b3e
000000d0: 1204 f13d b72e 96bd 0fe0 a33d 4511 003e
000000e0: 560e ca3d b95b 6ebd 71b8 773e 9708 d8bc
000000f0: 599b e8bc a2bc 053e b39b 5b39 cf66 ab3d
00000100: ec6e 053e 4ef7 3a3d b1a6 a63d 4b4e 613e
00000110: 67b7 cebd 177b 8e3c 42de 8e3d e9a5 bf3d
00000120: 3890 b63d 651d 523d 5ea4 443d cb9c 0f3e
00000130: c56d e63d 9273 c2bd c0e5 ae3c fd85 653c
00000140: e462 55bd 31b0 bfbd 381d cf3d e190 3d3e
00000150: 8b5f a8bb 77fe a0bd 3f8f 99bd 5d71 9fbc
00000160: 702d 5e3d 4764 63bd dceb 04bd 4176 39be
00000170: 2ddd b6be b80b 9dbe c7c4 a4be 3004 66bd
00000180: 5613 ad3d e9f8 0f3b 989a ac3d 1d53 1bbd
00000190: 76f9 10be f189 d03d dc72 5abe 3db1 87be
000001a0: 032a e6bd 58d6 5abe 687a 2ebe 63ac 17be
000001b0: 337a f03a 5214 a4be 5df3 aabe fef8 49be
000001c0: 9f99 a7bd 54b4 373e e56c e8bd 9673 a4bd
000001d0: 4c68 1c3e bbc8 653d b9df cb3d 2163 713d
000001e0: 0d2d 093d 6d12 fdbd a808 99bd 9b7f 47bc
000001f0: 6923 9cbd 5176 2bbe 0868 33be 0ed6 aabe
00000200: 7964 52be 735d a3be dba6 a0bc f05e 24be
00000210: 8cfc b1be 7866 a3bd 0e59 65be c96f d23d
00000220: 1300 263e cd0e 133d 31f7 e33b 0c87 bfbe
00000230: 68c9 23be e1bc 89bd 05e5 99be ba0f cd3d
00000240: b3b4 f3bc ddf5 41be b464 40be 429a f33d
00000250: 1e5e 063e 0941 903e c331 44bd ffe1 abbb
00000260: dc09 51bc d5be e2ba 7b6b b73e c474 133f
00000270: c580 4fbd d6e5 903e 9146 fe3c 1b90 ffbc
00000280: 6824 943e 5beb 833e 8ee1 cebc 96a7 64bd
00000290: ec26 953c a6fc 96be 066b 333d f044 33bd
000002a0: 44b8 1fbe 9f32 d53c 604a 08be aac5 973d
000002b0: d6ae 453e 7b80 263e cae7 243e 2c3c d33e
000002c0: 9633 0dbc 5844 cd3d 477a d93e 55bd 743d
000002d0: 9075 30be 2962 c2be 097c 353d c4ce 3dbf
000002e0: f626 b6be ff3e f2bb 5f0c e7be d5c0 a2be
000002f0: d06c 503d ee0c be3d b379 a13d 3ef8 383e
00000300: b262 973c 9e4e f4bd 1aff b33c 622d 73bd
00000310: fbbf 91bd 9eca e2ba 6503 833e 6aab 00bd
00000320: 22d2 3ebe 220c 96be 9d40 f23d 7b21 313e
00000330: 8e14 ca3b 9e5e 6c3e 6b60 0bbe 0863 7f3d
00000340: 0c69 893e 6c0d 1a3d 893d 6a3d 5667 26be
00000350: e18d 62be fb1e 303d 5972 2ebc d211 063d
00000360: e9fd 0f3e 4738 cabe bcb6 c4be bdc5 863e
00000370: 0f05 4f3c 1a8f 623d 977c 123e 9849 1bbe
00000380: 4e0d 1c3e 4b1f 253d 785c a4bd b5ab 1b3d
00000390: fa29 b93d 8729 a4bd e5e8 adbb 327e ae3c
000003a0: fd3f 4b3c 2b10 c33c b9fd d1be fef7 b8be
000003b0: 6589 06be 19ce c9be 488a b4bd 58d4 2abe
000003c0: 146f 64be e231 6d3d 0e76 de3d bd77 8b3e
000003d0: 6e30 99bd 2914 febe b71e 18bf e2ae cbbd
000003e0: 857c 24bd 2c67 5cbe ad81 6a3e 43bb 8b3e
000003f0: a549 983e e7c5 193f c017 663d 358d 173e

layers.0.conv1.attention1.0.weight f4 [9, 32, 3, 3]
0.41720638 0.3319838 0.18192542 0.3669963 0.020594655 0.28278917 0.1367307 -0.06588431
0.0598425 0.03328235 0.053784024 0.025245707 0.034421075 -0.02049197 0.045587942 0.039227054
0.0195943 -0.020503579 0.055971872 -0.051754974 0.104199335 0.08646824 0.03085716 0.34784314
-0.015204422 -0.21631838 0.13192526 0.2598917 -0.35901898 0.43114448 -0.43829277 0.37441742
-0.1816092 -0.16182974 -0.4238801 0.13063553 -0.2880452 -0.021534162 -0.045766708 -0.4503948
-0.2220096 -0.040893473 -0.22818106 -0.14463454 0.040300693 0.057980344 0.03344618 0.07394398
0.00241199 -0.02452318 0.015844513 -0.12074319 -0.003871649 0.04673036 0.0065647066 0.043504313
0.02252881 0.06435711 -0.0047233487 -0.020276269 -0.034354027 -0.010176341 0.069991305 0.0457306
-0.03767696 -0.0117093045 -0.010705548 -0.03314729 -0.008829659 -0.029331336 0.015733602 0.038499974
-0.10738321 0.012863231 0.048479293 -0.1248601 -0.06539877 -0.029130165 -0.0010588649 0.05317554
0.13281657 0.00095722184 0.113294296 -0.011969776 0.16593353 -0.14654182 -0.04819345 0.056272857
0.48240852 0.3931527 -0.118699454 -0.06917123 -0.17503053 -0.15612745 -0.23089875 -0.113046646
-0.08771157 -0.1493857 -0.11530665 0.0422533 -0.0017580794 -0.016758079 0.046003226 -0.007110451
0.0074218796 -0.095999494 0.0024483385 -0.07825752 -0.3039 -0.13743597 -0.16804184 -0.1847296
-0.25600556 -0.31689706 -0.2882181 -0.24349207 -0.32602322 0.0133019835 -0.023327777 0.061061602
0.052050747 0.012982073 0.032856554 0.019512461 -0.02029726 -0.03822899 0.24258943 0.0049622445
-0.09601116 0.1853674 -0.49954727 0.25103197 0.056292344 0.051953077 0.16588792 -0.123697504
-0.04065715 -0.05106216 0.057475142 -0.048326764 -0.2966518 -0.06338288 -0.09609069 -0.253651
0.18239798 0.1975308 -0.024460873 -0.0563108 -0.11340081 -0.11885023 0.042429846 0.08742142
0.043945823 0.03741574 0.020372631 0.008302802 0.07101408 0.08640882 0.053071756 -0.0061551644
0.045995437 0.058344055 -0.06160439 -0.11254248 -0.08073097 -0.15357621 -0.43504936 -0.091630995
-0.15740094 -0.11987569 -0.035759505 0.06548781 0.42303583 0.29551184 -0.05158644 0.21230038
0.19261989 -0.052709375 0.07688112 0.19236787 -0.013377162 -0.01706437 0.050998464 0.09424457
0.027800273 0.014661723 -0.019061048 0.06919983 0.10221134 0.0013610835 0.08306807 0.08120679
0.081727095 0.11960433 0.04166986 0.038551383 0.09368252 0.14101171 0.26096335 0.12866722
0.07279937 0.100113235 -0.1560245 0.3386969 0.06314108 0.08710281 0.17261945 0.047330596
0.03276114 -0.06615709 -0.011635055 0.013427311 0.042742927 0.030069975 -0.075986676 0.026487231
0.08215715 -0.3872476 0.058166698 0.06984354 0.30820388 0.19825621 -0.118222915 -0.24035317
-0.0978998 0.10955016 0.0069237296 0.059776727 0.03737892 -0.029786149 -0.005423239 0.0926595
0.0021580746 0.0009578584 0.16540833 -0.06614571 -0.035466395 0.054622076 -0.2330337 -0.044826075
-0.15906768 -0.12771377 0.0048434916 0.014566188 -0.023381408 -0.11000674 0.16210085 -0.01741611
0.020780629 -0.10466436 0.06545517 -0.026923185 0.0031459788 -0.012190987 0.03649265 -0.0024039545
00000000: 139c d53e c8f9 a93e a84a 3a3e f0e6 bb3e
00000010: 1fb6 a83c bec9 903e 2203 0c3e 5aee 86bd
00000020: 691d 753d 1353 083d a34c 5c3d 16d0 ce3c
00000030: 1dfd 0c3d c7de a7bc 6cba 3a3d 8cac 203d
00000040: 3a84 a03c 1ff7 a7bc c342 653d 06fd 53bd
00000050: 7666 d53d 4316 b13d 28c8 fc3c 7f18 b23e
00000060: f81b 79bc 9182 5dbe 6a17 073e 8610 853e
00000070: 56d1 b7be f8be dc3e e967 e0be a4b3 bf3e
00000080: c3f7 39be b2b6 25be d006 d9be 52c5 053e
00000090: a97a 93be 6968 b0bc df75 3bbd 269a e6be
000000a0: 7c56 63be ea7f 27bd 4ca8 69be 141b 14be
000000b0: 5712 253d cc7c 6d3d ddfe 083d f16f 973d
000000c0: 7a12 1e3b d6e4 c8bc 5acc 813c 3548 f7bd
000000d0: 7ebb 7dbb 5568 3f3d c01c d73b 9431 323d
000000e0: 578e b83c a9cd 833d 52c6 9abb 6b1a a6bc
000000f0: cfb6 0cbd abba 26bc 9a57 8f3d 0250 3b3d
00000100: 2853 1abd 62d8 3fbc 5366 2fbc 74c5 07bd
00000110: 46aa 10bc 4548 f0bc c1e3 803c 26b2 1d3d
00000120: baeb dbbd 4dc0 523c 3992 463d a7b6 ffbd
00000130: caef 85bd 62a2 eebc 9cc9 8aba 98ce 593d
00000140: 1101 083e 12ee 7a3a d706 e83d e11c 44bc
00000150: 7bea 293e 0f0f 16be 7f66 45bd 5e7e 663d
00000160: 40fe f63e 504b c93e b318 f3bd a5a9 8dbd
00000170: 343b 33be e0df 1fbe b970 6cbe 0085 e7bd
00000180: 20a2 b3bd 91f8 18be e525 ecbd cc11 2d3d
00000190: 5b6f e6ba 3d48 89bc e16d 3c3d c9fe e8bb
000001a0: 3d33 f33b 629b c4bd 4e74 203b 7b45 a0bd
000001b0: c898 9bbe 04bc 0cbe 2913 2cbe c229 3dbe
000001c0: 2913 83be 5540 a2be 5391 93be fc55 79be
000001d0: 84ec a6be 90f0 593c e519 bfbc bb1b 7a3d
000001e0: 2a33 553d c3b2 543c 9894 063d 99d8 9f3c
000001f0: 7046 a6bc 0096 1cbd 5d69 783e 539a a23b
00000200: 80a1 c4bd f4d0 3d3e a9c4 ffbe 4387 803e
00000210: cd92 663d c0cc 543d 86de 293e 1e55 fdbd
00000220: 1d88 26bd 8e26 51bd 0e6b 6b3d 49f2 45bd
00000230: bfe2 97be e2ce 81bd 32cb c4bd 8bde 81be
00000240: 89c6 3a3e 8445 4a3e 2b62 c8bc 27a6 66bd
00000250: af3e e8bd c067 f3bd ebca 2d3d 000a b33d
00000260: 8900 343d 3f41 193d 81e4 a63c 7a08 083c
00000270: d46f 913d 1bf7 b03d c561 593d 43b1 c9bb
00000280: b665 3c3d 2dfa 6e3d e354 7cbd ac7c e6bd
00000290: 4756 a5bd 1543 1dbe cabe debe 08a9 bbbd
000002a0: b62d 21be 6381 f5bd 8f78 12bd 791e 863d
000002b0: 2798 d83e 544d 973e 4e4c 53bd 4565 593e
000002c0: 263e 453e c9e5 57bd d973 9d3d 15fc 443e
000002d0: e22b 5bbc 94ca 8bbc c4e3 503d 4c03 c13d
000002e0: 66bd e33c b937 703c ea25 9cbc a4b8 8d3d
000002f0: 2e54 d13d 6266 b23a 981f aa3d bf4f a63d
00000300: 8960 a73d 1df3 f43d 04ae 2a3d 0ee8 1d3d
00000310: 9fdc bf3d 6065 103e fd9c 853e 57c1 033e
00000320: d617 953d 2b08 cd3d e3c4 1fbe ae69 ad3e
00000330: 1c50 813d f562 b23d 27c3 303e badd 413d
00000340: 8c30 063d 5e7d 87bd f5a0 3ebc 39fe 5b3c
00000350: 3513 2f3d 4f55 f63c e79e 9bbd c0fb d83c
00000360: 0242 a83d 5145 c6be 3440 6e3d 210a 8f3d
00000370: e6cc 9d3e ad03 4b3e db1e f2bd 241f 76be
00000380: b17f c8bd d65b e03d 74e0 e23b 71d8 743d
00000390: a31a 193d 1502 f4bc 6db5 b1bb 44c4 bd3d
000003a0: 7c6e 0d3b ca18 7b3a cd60 293e 6777 87bd
000003b0: 3645 11bd 66bb 5f3d 63a0 6ebe 8c9b 37bd
000003c0: a3e2 22be 66c7 02be 27b6 9e3b 05a7 6e3c
000003d0: 5e8a bfbc 374b e1bd c4fd 253e 3bac 8ebc
000003e0: 233c aa3c 455a d6bd 5c0d 863d 038e dcbc
000003f0: c42c 4e3b b5bc 47bc 5179 153d aa8b 1dbb

layers.0.conv1.attention1.0.bias f4 [9]
-0.28448415 0.014766052 0.09376487 0.36213076 0.15157369 0.18560101 0.23657702 -0.18285505
-0.09935688
00000000: e8a7 91be 50ed 713c cc07 c03d 3469 b93e
00000010: 2236 1b3e 310e 3e3e 3f41 723e 5b3e 3bbe
00000020: 9f7b cbbd

layers.0.conv1.attention1.2.weight f4 [9, 9, 1, 1]
0.012366084 -0.025181135 -0.064186394 -0.23096341 0.024986269 0.14810658 -0.18552302 0.21554072
0.041426964 -0.2192046 0.6403636 0.26498392 0.37583905 0.19298646 0.36138162 0.04303498
-0.516029 -0.71364814 -0.1996176 -0.09086718 -0.21235545 -0.29474556 0.4089475 -0.108898684
-0.30970135 -0.0650143 0.75813735 -0.428613 -0.3920204 -1.159763 0.46952772 0.3810703
-0.27083528 0.15374549 -0.42255667 0.48063517 0.3373938 0.2193067 -0.022498773 -0.38858384
0.646938 0.06298381 -0.5342911 0.06581472 -0.12064459 -0.23153321 -0.35560265 -0.351933
0.28204364 -0.6123678 0.5391878 0.40788275 0.02948088 -0.61001676 -0.30358204 -0.37015203
-0.14357953 0.3989993 -0.22056158 0.24741155 0.48287886 -0.44527414 -0.85422295 0.22424112
0.15269704 -0.10191687 -0.040988274 -0.019832041 0.20505778 -0.46271843 -0.24806757 0.100903936
-0.30416325 0.131553 0.61732334 0.25998053 0.61469835 -0.063768975 0.12701419 -0.45306957
-0.3202685
00000000: 1e9b 4a3c ab48 cebc 2874 83bd ac81 6cbe
00000010: 01b0 cc3c 40a9 173e bff9 3dbe b5b6 5c3e
00000020: 52af 293d 2c77 60be deee 233f f9ab 873e
00000030: fa6d c03e 3e9e 453e 0307 b93e 7245 303d
00000040: 7a1a 04bf a5b1 36bf 8e68 4cbe 9218 babd
00000050: b573 59be e4e8 96be 9161 d13e 4606 dfbd
00000060: 2d91 9ebe 3826 85bd 4a15 423f 2a73 dbbe
00000070: e6b6 c8be 1d73 94bf f065 f03e a51b c33e
00000080: ecaa 8abe 756f 1d3e 5959 d8be d015 f63e
00000090: e1be ac3e f091 603e 594f b8bc 76f4 c6be
000000a0: bb9d 253f a8fd 803d 4dc7 08bf dec9 863d
000000b0: 8314 f7bd 0b17 6dbe 8d11 b6be 9030 b4be
000000c0: 0668 903e 23c4 1cbf 3608 0a3f 02d6 d03e
000000d0: e381 f13c 0f2a 1cbf 1b6f 9bbe 9184 bdbe
000000e0: 8306 13be a349 cc3e e5da 61be 7459 7d3e
000000f0: e63b f73e f9fa e3be 5bae 5abf 779f 653e
00000100: 9d5c 1c3e cbb9 d0bd 52e3 27bd ce76 a2bc
00000110: abfa 513e 6ee9 ecbe 6d05 7ebe b9a6 ce3d
00000120: 49bb 9bbe d4b5 063e e708 1e3f 2b1c 853e
00000130: df5c 1d3f 4f99 82bd 0210 023e bcf8 e7be
00000140: 3cfa a3be

layers.0.conv1.attention1.2.bias f4 [9]
-0.033662587 -0.2316143 0.17720634 0.7208693 -0.06808837 0.45927134 -0.0005651286 -0.43886828
0.28230804
00000000: c8e1 09bd 4d2c 6dbe 9475 353e e48a 383f
00000010: ea71 8bbd 9d25 eb3e 2325 14ba 58b3 e0be
00000020: ae8a 903e

layers.0.conv1.attention1.4.weight f4 [9, 9, 1, 1]
0.022210458 -0.40864 0.27569428 0.6301484 0.08048198 -0.41136736 -0.21117409 0.5689884
-0.0916501 0.024450023 -0.34979835 -0.41693613 -0.16267462 0.0071741 -0.2588983 0.23392826
-0.47519988 -0.037317038 0.120901495 0.054292936 -0.093718745 -0.364676 0.10498582 -0.038618494
-0.19494502 0.15234418 -0.23964429 0.026881855 -0.6218297 0.07958748 0.5581139 0.35745955
0.5101473 0.05954204 -0.24362822 -0.8528884 -0.118246004 0.5741254 -0.84920573 1.6175828
-1.4635152 1.2402118 1.2587516 -0.84988874 0.47366455 0.059377745 -0.46277878 0.22620985
0.352592 -0.60732085 0.12854812 -0.058126133 -0.10529966 -0.33755678 0.1438059 -0.65992796
0.52715427 -0.5023768 -0.19515687 -0.08994981 -0.2101919 -0.3328831 -0.3667785 -0.120014854
-0.1876398 -0.3274276 0.35763294 -0.4204373 0.0617783 0.22284941 0.07165397 -0.18785633
0.26903263 -0.03985344 -0.11887913 0.117876515 0.43383074 -0.45900595 -0.064756 0.26629758
-0.24862704
00000000: b5f2 b53c 4339 d1be cd27 8d3e 6851 213f
00000010: bdd3 a43d be9e d2be 053e 58be 39a9 113f
00000020: 0cb3 bbbd 6a4b c83c c518 b3be a778 d5be
00000030: 2d94 26be b614 eb3b 518e 84be e48a 6f3e
00000040: 664d f3be c0d9 18bd 349b f73d 4562 5e3d
00000050: 9def bfbd d0b6 babe ce02 d73d 6d2e 1ebd
00000060: ab9f 47be 1d00 1c3e 5065 75be 5637 dc3c
00000070: 3b30 1fbf c3fe a23d 8de0 0e3f f004 b73e
00000080: 0399 023f 5be2 733d ad79 79be e556 5abf
00000090: f62a f2bd e2f9 123f 8c65 59bf f40c cf3f
000000a0: 7754 bbbf 43bf 9e3f c61e a13f 4f92 59bf
000000b0: 2984 f23e 1436 733d 57f1 ecbe 8ea3 673e
000000c0: f086 b43e 6179 1bbf 1ea2 033e ab15 6ebd
000000d0: 59a7 d7bd 3ed4 acbe db41 133e 0af1 28bf
000000e0: 95f3 063f c49b 00bf 34d7 47be 9b37 b8bd
000000f0: 8c3c 57be a76f aabe 64ca bbbe 59ca f5bd
00000100: a624 40be 97a4 a7be aa1b b73e 8f43 d7be
00000110: 3e0b 7d3d a332 643e 51bf 923d 695d 40be
00000120: a5be 893e 5c3d 23bd e776 f3bd 3e69 f13d
00000130: 101f de3e d402 ebbe cb9e 84bd 2858 883e
00000140: 1698 7ebe

layers.0.conv1.attention1.4.bias f4 [9]
-0.3398063 0.24548018 -0.3463269 0.04813682 0.6576322 0.047288127 0.20126534 0.0018744244
-0.5332162
00000000: 17fb adbe 285f 7b3e c251 b1be 1d2b 453d
00000010: 955a 283f 32b1 413d 8018 4e3e 3faf f53a
00000020: db80 08bf
