weights/BWNET_LAGConv_T4/model_epoch_170.pth (torch, 678374 bytes, 141 tensors)

raise_dim.0.weight f4 [32, 9, 3, 3]
-0.11185576 -0.13275993 -0.122647665 -0.028969308 0.1861092 0.019834278 0.05823733 0.09469797
0.11642932 -0.07517762 -0.030665008 0.006624342 0.089742616 0.05325254 0.00077181915 -0.108629644
-0.06816317 -0.05873089 -0.04991438 -0.08418017 0.005579868 0.144095 0.014419914 0.091732495
0.054876447 0.17920929 -0.1505317 0.11061145 -0.034131166 0.059006695 0.11452535 0.061980322
0.083924994 0.022251235 0.12098291 -0.05304376 0.04480777 0.0014012192 0.039317336 0.09691477
0.055813607 0.15386479 0.13114609 0.029163586 -0.038558684 -0.021752646 -0.095612556 -0.05770285
-0.050780658 0.0020252385 0.0040599303 -0.099769875 -0.01897209 0.01856333 -0.09071638 -0.11350838
-0.16804288 -0.3568591 -0.25573516 -0.2025078 -0.18867715 -0.31025267 -0.2905354 0.40234673
0.5752312 0.44900832 0.21861067 0.29537112 0.21342397 0.1642221 0.13492768 0.12375274
0.15417908 0.42534113 0.3708167 -0.24751396 -0.2600282 -0.148 -0.09528723 -0.22037475
0.021937914 -0.13836263 -0.019652206 0.057143427 0.10956782 -0.18007176 -0.029753441 -0.06695294
0.15507226 0.012625345 0.017638586 -0.063939385 0.10844251 -0.015655607 -0.123638585 -0.06439927
0.09337667 -0.24043564 -0.04089356 0.00782526 0.12786038 0.029831879 0.27436727 -0.041258644
-0.09419507 0.17331216 -0.07735183 0.20161606 0.051461857 0.101116806 0.07552796 0.19161399
-0.1609635 -0.07567998 0.18100986 -0.21462665 0.17468281 -0.16275883 -0.052558254 0.059400048
0.040394664 -0.45034948 -0.2535691 0.019198347 -0.48709795 0.14999467 0.12532167 0.021287365
-0.058734134 0.4438512 -0.15633263 -0.1033614 0.2640458 -0.22770594 0.16647084 -0.03364471
-0.031448938 -0.16733854 0.11776181 -0.26518017 -0.049883038 -0.045062467 -0.3943518 -0.102141835
-0.06401303 0.005857646 -0.19035171 0.32423633 0.022222504 0.12573047 0.14892408 0.10022295
-0.01224216 -0.2428293 0.014325649 -0.2356981 -0.14307413 -0.28906947 -0.14252712 -0.16491276
-0.39228916 -0.10884461 0.3965752 -0.24919617 -0.34786487 0.08653118 0.28957927 0.3982905
-0.07711 0.48906675 -0.11548873 -0.026318332 -0.33028618 -0.40342736 0.11584615 0.16209118
-0.07985514 0.05756857 0.16769849 -0.30803612 -0.092809655 -0.24098684 -0.3984759 -0.0043509207
-0.08862401 -0.10412495 -0.049114536 -0.0046860273 -0.44812796 0.07132121 -0.2722793 -0.28819355
0.03377423 -0.17422372 0.009873088 0.056964528 -0.19454916 -0.24835949 -0.049557913 -0.41232905
-0.38863754 0.077122495 0.016815526 0.04795995 -0.17163227 -0.13489182 -0.31260902 -0.10202599
-0.055566035 -0.24832024 -0.29358763 -0.45125508 -0.20648178 -0.26633483 -0.55513716 -0.21445051
0.030206092 -0.35055456 -0.4411376 0.12809376 -0.09032867 0.013147518 0.022339044 -0.1251358
-0.12720174 -0.061670255 -0.37997755 -0.3088282 -0.07147775 -0.20399271 -0.1264798 -0.014903618
-0.21399117 -0.23808877 -0.25347498 -0.5116654 -0.5108489 0.03507938 -0.035812315 -0.06128525
0.1273318 -0.13512626 -0.39501378 -0.032122664 0.27444005 0.023809869 0.39511803 -0.39737022
0.15763901 -0.29228577 0.5816113 0.046167932 -0.10555593 -0.164184 -0.03886478 -0.10608103
00000000: a214 e5bd 38f2 07be b32e fbbd 0b51 edbc
00000010: 6993 3e3e 7f7b a23c 448a 6e3d 02f1 c13d
00000020: 7f72 ee3d b9f6 99bd 2f35 fbbc 0211 d93b
00000030: faca b73d 561f 5a3d e853 4a3a 3879 debd
00000040: 2299 8bbd cd8f 70bd 0573 4cbd a766 acbd
00000050: 53d7 b63b a48d 133e 8141 6c3c 3fde bb3d
00000060: 20c6 603d a482 373e fb24 1abe 4288 e23d
00000070: 1fcd 0bbd 01b1 713d 448c ea3d 14df 7d3d
00000080: dee0 ab3d 3948 b63c e3c5 f73d 6a44 59bd
00000090: 5a88 373d 1da9 b73a 370b 213d 407b c63d
000000a0: cf9c 643d bb8e 1d3e 294b 063e 79e8 ee3c
000000b0: b6ef 1dbd 9b32 b2bc 84d0 c3bd d359 6cbd
000000c0: 61ff 4fbd ddb9 043b 2a09 853b 2654 ccbd
000000d0: 5b6b 9bbc 2012 983c 82c9 b9bd 1577 e8bd
000000e0: 6f13 2cbe 3cb6 b6be b8ef 82be 345e 4fbe
000000f0: 9534 41be 70d9 9ebe 0ec1 94be 6400 ce3e
00000100: 5a42 133f 6be4 e53e 7adb 5f3e e23a 973e
00000110: d08b 5a3e d729 283e 7b2a 0a3e 1472 fd3d
00000120: 1fe1 1d3e 50c6 d93e b0db bd3e 4d74 7dbe
00000130: 6b22 85be 508d 17be f425 c3bd eba9 61be
00000140: 24b7 b33c efae 0dbe aafd a0bc 3a0f 6a3d
00000150: 1865 e03d bb64 38be 7dbd f3bc 9f1e 89bd
00000160: 43cb 1e3e 89da 4e3c cc7e 903c a7f2 82bd
00000170: 1b17 de3d 3040 80bc 3a36 fdbd c4e3 83bd
00000180: 443c bf3d c334 76be 0180 27bd 8535 003c
00000190: d5ed 023e fc61 f43c de79 8c3e d3fe 28bd
000001a0: 58e9 c0bd be78 313e a36a 9ebd 7174 4e3e
000001b0: abc9 523d 5416 cf3d 67ae 9a3d 7536 443e
000001c0: 9ed3 24be 1bfe 9abd a65a 393e 17c7 5bbe
000001d0: 0de0 323e 40aa 26be 5347 57bd 774d 733d
000001e0: e074 253d 3594 e6be cfd3 81be da45 9d3c
000001f0: e764 f9be 3498 193e 5354 003e d762 ae3c
00000200: 3493 70bd 7740 e33e a915 20be 24af d3bd
00000210: 0331 873e bf2b 69be 5577 2a3e 09cf 09bd
00000220: 9ad0 00bd cb5a 2bbe 1b2d f13d b2c5 87be
00000230: 2852 4cbd 6c93 38bd 7be8 c9be bd2f d1bd
00000240: 4319 83bd 7ff1 bf3b 8feb 42be 4e02 a63e
00000250: f80b b63c 7dbf 003e 8e7f 183e b141 cd3d
00000260: 5793 48bc 3ea8 78be 20b6 6a3c d85a 71be
00000270: 0682 12be ea00 94be a1f2 11be e4de 28be
00000280: 20da c8be ece9 debd e80b cb3e 482d 7fbe
00000290: 581b b2be 4237 b13d bc43 943e bbec cb3e
000002a0: d9eb 9dbd f566 fa3e 5b85 ecbd 8b99 d7bc
000002b0: 451b a9be 088e cebe bf40 ed3d 3bfb 253e
000002c0: 178b a3bd 05cd 6b3d 27b9 2b3e e9b6 9dbe
000002d0: fd12 bebd 41c5 76be 0805 ccbe 2b92 8ebb
000002e0: 8180 b5bd 763f d5bd 532c 49bd 3f8d 99bb
000002f0: 0771 e5be db10 923d 3168 8bbe 1b8e 93be
00000300: d956 0a3d b467 32be bcc2 213c a353 693d
00000310: e537 47be f351 7ebe 3dfd 4abd cb1c d3be
00000320: 80fb c6be 66f2 9d3d b7c0 893c a771 443d
00000330: 5fc0 2fbe 1521 0abe 4a0e a0be 01f3 d0bd
00000340: 3699 63bd a947 7ebe 1e51 96be e80a e7be
00000350: f66f 53be 0a5d 88be 781d 0ebf ea98 5bbe
00000360: c472 f73c e37b b3be cadc e1be 032b 033e
00000370: 3dfe b8bd b068 573c 5f00 b73c 9923 00be
00000380: 2c41 02be f399 7cbd 6b8c c2be bb1e 9ebe
00000390: ed62 92bd 77e3 50be ec83 01be 4e2e 74bc
000003a0: 8020 5bbe 8bcd 73be 79c7 81be 81fc 02bf
000003b0: fec6 02bf 65af 0f3d efaf 12bd 3e06 7bbd
000003c0: 4463 023e 8a5e 0abe 3f3f cabe 0e93 03bd
000003d0: 6883 8c3e ea0c c33c e94c ca3e 1c74 cbbe
000003e0: 1f6c 213e 7ba6 95be 7ae4 143f 961a 3d3d
000003f0: b52d d8bd da1f 28be ad30 1fbd 0341 d9bd

raise_dim.0.attention1.0.weight f4 [9, 9, 3, 3]
0.43968263 0.11095692 -0.08681204 0.2854357 -0.3333805 -0.32736206 -0.16884534 -0.016078258
-0.53870463 0.06346344 0.08041207 -0.04642309 0.27174613 0.21143149 0.10715791 -0.009392194
0.052731007 -0.104436636 0.18855183 0.04414468 -0.11967327 0.14823571 0.18282944 0.030295486
-0.07105531 -0.006882306 -0.053853925 0.08118715 -0.18791938 -0.1088546 0.16103148 0.22618368
0.07011077 -0.24310316 -0.19613127 -0.24450622 0.09970953 -0.09217088 -0.24926165 0.019121068
0.21009743 -0.18220723 -0.114490084 -0.10396501 -0.38365626 -0.03042036 -0.2772485 -0.3191006
-0.08850879 -0.07796355 -0.31166923 -0.36457506 -0.16707423 -0.3765133 0.12925707 0.01998515
-0.15540543 -0.00486178 0.123532675 -0.023890246 -0.3059774 -0.12862036 -0.26212838 0.5374068
0.41349295 0.3711199 0.6067158 0.712148 0.4312011 0.20168999 0.43947512 0.14213818
0.21987528 0.15348314 0.16346131 0.24876823 0.27114573 0.19142759 -0.1483221 0.018568458
-0.25202706 -0.38442737 -0.37020132 -0.22221087 -0.155391 -0.16514653 0.0019747 -0.030219873
0.08306667 0.14934704 -0.3490766 -0.20212837 -0.30476037 -0.055308737 0.068724476 -0.07046004
-0.16520375 0.07851328 -0.09702334 -0.3801366 -0.025788398 -0.37770253 0.047325213 0.27655128
-0.04050189 -0.1969538 0.25894153 0.0008181067 -0.20139298 0.04631824 -0.22998191 0.0806115
0.5209996 0.07136889 -0.04504346 0.42303997 0.18074909 -0.2066199 0.07562524 -0.2388898
-0.32810053 0.3651984 0.16382845 -0.40359288 0.2838508 -0.102601096 -0.37649316 0.058698706
-0.13545664 -0.21412021 0.17949732 -0.04009653 -0.27527934 0.19552201 -0.10103625 0.031584237
0.29908064 -0.0031145855 -0.19491889 0.1898611 0.026695654 -0.19608197 0.094040856 0.023019472
-0.33177674 -0.39899382 -0.49728456 -0.31898472 -0.13856496 -0.21092536 -0.4359196 -0.1774594
-0.36221525 -0.20546082 -0.24381207 -0.40062717 -0.34363604 -0.14479218 -0.089000024 -0.34466147
-0.2504564 -0.17251977 -0.077233374 0.044567503 -0.06362626 0.010435787 -0.10254581 -0.027419226
-0.058925126 -0.13635741 0.014366361 0.009359744 -0.031210812 -0.0014910671 0.06912673 0.033042416
0.023884693 0.018537467 -0.10058924 0.08061301 -0.07762217 -0.0638075 -0.13140975 -0.06908466
-0.15138724 0.041957095 -0.08696846 -0.11909565 -0.025251975 -0.09280108 0.0074630813 -0.04850188
-0.079695664 -0.058958914 0.04150775 -0.043162838 0.037844677 0.072058015 0.10732534 -0.0735124
0.08583586 -0.07277333 0.07013677 -0.016714036 0.138848 0.029836824 0.05701284 0.0035459648
0.02439282 0.080613695 0.030483572 0.0064091743 -0.1051199 0.13775584 0.10112632 0.11055392
0.060282625 -0.09397228 -0.01346995 0.0771556 -0.13200043 0.09576225 -0.04296969 -0.072776206
0.09282396 -0.15981425 -0.101921566 0.037234932 -0.0074072895 -0.016785467 -0.09992818 -0.105375886
0.055150863 -0.03875161 -0.078124 0.005685035 -0.06595728 0.033613726 0.014654256 -0.106231675
-0.07314974 -0.019060716 0.06699864 -0.28263572 -0.4129179 -0.22065672 -0.3887635 0.0910408
-0.08774747 -0.12816118 -0.28485432 -0.05670536 -0.10212174 -0.051022872 -0.075505935 -0.22882739
00000000: 151e e13e 623d e33d 83ca b1bd a124 923e
00000010: d9b0 aabe 009c a7be cbe5 2cbe 8db6 83bc
00000020: 8ce8 09bf 1ff9 813d 15af a43d 2326 3ebd
00000030: 4f22 8b3e 7f81 583e 9b75 db3d b8e1 19bc
00000040: 78fc 573d e0e2 d5bd bb13 413e 0dd1 343d
00000050: 4217 f5bd 1acb 173e a437 3b3e 3d2e f83c
00000060: 7285 91bd f884 e1bb ef95 5cbd 7345 a63d
00000070: f06d 40be 29ef debd 70e5 243e b29c 673e
00000080: 3c96 8f3d 09f0 78be a3d6 48be d75f 7abe
00000090: 8334 cc3d 16c4 bcbd 723e 7fbe c9a3 9c3c
000000a0: c823 573e 8894 3abe c779 eabd 9beb d4bd
000000b0: 986e c4be 1e34 f9bc 84f3 8dbe 2761 a3be
000000c0: 1944 b5bd 5bab 9fbd 1c93 9fbe 95a9 babe
000000d0: 8215 2bbe 5ac6 c0be f75b 043e e6b7 a33c
000000e0: 9a22 1fbe 914f 9fbb b3fe fc3d 7ab5 c3bc
000000f0: 12a9 9cbe 0eb5 03be b135 86be 7e93 093f
00000100: 59b5 d33e 6d03 be3e ba51 1b3f 554f 363f
00000110: 64c6 dc3e d287 4e3e e202 e13e ac8c 113e
00000120: fc26 613e af2a 1d3e 6762 273e 19bd 7e3e
00000130: 9dd3 8a3e 9805 443e c0e1 17be e11c 983c
00000140: b109 81be aad3 c4be 078b bdbe 3f8b 63be
00000150: d11e 1fbe 2c1c 29be f869 013b ab8f f7bc
00000160: dc1e aa3d 6eee 183e 2bba b2be bdfa 4ebe
00000170: 8d09 9cbe 6a8b 62bd 6bbf 8c3d 5a4d 90bd
00000180: 2c2b 29be 92cb a03d 2cb4 c6bd 44a1 c2be
00000190: 3142 d3bc 3a62 c1be 15d8 413d 2198 8d3e
000001a0: 4fe5 25bd 42ae 49be fc93 843e 3676 563a
000001b0: f639 4ebe 32b8 3d3d 6180 6bbe a417 a53d
000001c0: 3b60 053f da29 923d 7e7f 38bd b298 d83e
000001d0: 4a16 393e 2b94 53be 68e1 9a3d 879f 74be
000001e0: cbfc a7be 49fb ba3e a5c2 273e baa3 cebe
000001f0: e454 913e 8620 d2bd b6c3 c0be 0e6e 703d
00000200: 25b5 0abe 5442 5bbe 25ce 373e 423c 24bd
00000210: 6af1 8cbe ec36 483e 18ec cebd 795e 013d
00000220: 1921 993e 131e 4cbb d198 47be f36a 423e
00000230: d8b0 da3c b6c9 48be 7e98 c03d 5593 bc3c
00000240: a4de a9be eb48 ccbe 159c febe f751 a3be
00000250: f9e3 0dbe d1fc 57be db30 dfbe ebb7 35be
00000260: 4774 b9be 5264 52be dfa9 79be 011f cdbe
00000270: 10f1 afbe 6744 14be a545 b6bd 7877 b0be
00000280: d23b 80be 06a9 30be 882c 9ebd 6a8c 363d
00000290: 7c4e 82bd ddfa 2a3c 8a03 d2bd 499e e0bc
000002a0: 795b 71bd 47a1 0bbe e360 6b3c 9d59 193c
000002b0: d1ad ffbc e96f c3ba 5192 8d3d 7c57 073d
000002c0: d5a9 c33c e3db 973c bb01 cebd 6f18 a53d
000002d0: 5ff8 9ebd 82ad 82bd 4790 06be 427c 8dbd
000002e0: 4205 1bbe 34db 2b3d 851c b2bd 6ce8 f3bd
000002f0: 3bdd cebc 7e0e bebd dd8c f43b e8a9 46bd
00000300: 7b37 a3bd e77e 71bd 0804 2a3d 84cb 30bd
00000310: 0503 1b3d 2793 933d 63cd db3d ab8d 96bd
00000320: b6ca af3d 2f0a 95bd dea3 8f3d e0eb 88bc
00000330: 2c2e 0e3e 5b6c f43c 4c86 693d 6b63 683b
00000340: 74d3 c73c cb18 a53d afb8 f93c 0d04 d23b
00000350: 1a49 d7bd de0f 0d3e 511b cf3d 186a e23d
00000360: eaea 763d 8a74 c0bd 11b1 5cbc c103 9e3d
00000370: 1f2b 07be 001f c43d fc00 30bd b10b 95bd
00000380: 7d1a be3d 59a6 23be 41bc d0bd a883 183d
00000390: d9b8 f2bb ad81 89bc 25a7 ccbd 50cf d7bd
000003a0: dfe5 613d 02ba 1ebd 7aff 9fbd 8849 ba3b
000003b0: 9c14 87bd 8cae 093d 6818 703c fe8f d9bd
000003c0: 88cf 95bd 3825 9cbc 9536 893d a1b5 90be
000003d0: fa69 d3be d6f3 61be 020c c7be 9973 ba3d
000003e0: f2b4 b3bd af3c 03be 6dd8 91be e143 68bd
000003f0: 3425 d1bd 5cfd 50bd dba2 9abd ba51 6abe

raise_dim.0.attention1.0.bias f4 [9]
0.13104045 0.364023 0.0063994015 -0.21022685 -0.11719687 0.37367636 -0.070293576 0.17445229
0.49854356
00000000: 782f 063e 3961 ba3e 12b2 d13b b545 57be
00000010: ea04 f0bd 8252 bf3e 14f6 8fbd 9fa3 323e
00000020: 1a41 ff3e

raise_dim.0.attention1.2.weight f4 [9, 9, 1, 1]
0.8071504 0.37100866 -0.1322769 -0.5994031 0.09173209 0.4686443 -0.71486014 0.5067297
0.6835173 0.6872723 1.0420972 -0.033948608 0.23311092 0.2341081 0.22574781 -0.31528673
-0.19511072 0.30490878 0.6025331 1.4966862 -0.15620969 -0.02409195 -0.23622677 -0.19888774
0.27271622 -0.46058324 0.02920987 -0.22703013 -0.3551354 0.029918736 0.016353952 0.16185287
-0.3583845 0.1310963 -0.38072944 0.020982014 0.4922396 0.36084554 0.05819241 -0.07144579
-0.20650397 -0.30869487 -0.25426197 0.02499794 -0.034636628 0.7459427 -0.68387187 -0.11365344
-0.47491983 -0.34619752 0.561934 -0.09548074 -0.16821617 0.18913679 -0.12105132 0.062580206
0.2744648 0.10164764 0.24179506 -0.118957184 0.031527594 -0.18993536 0.035764944 0.3439279
0.11512609 0.29210326 -0.09378356 -0.030319989 0.04250882 0.30492753 -0.363549 -0.31355888
-0.08884272 -0.58792466 0.17303199 -0.21578775 -0.17233971 0.3418909 0.1362878 0.55449235
0.3987529
00000000: 69a1 4e3f d9f4 bd3e 9873 07be 7b72 19bf
00000010: 09de bb3d 25f2 ef3e 1301 37bf 0ab9 013f
00000020: fdfa 2e3f 14f1 2f3f 7163 853f b20d 0bbd
00000030: a1b4 6e3e 09ba 6f3e 6f2a 673e 436d a1be
00000040: 1bcb 47be 011d 9c3e 9c3f 1a3f 6a93 bf3f
00000050: 6ff5 1fbe 7b5c c5bc 6ee5 71be 3aa9 4bbe
00000060: 76a1 8b3e 91d1 ebbe 8a49 ef3c 967a 68be
00000070: 4fd4 b5be 2318 f53c b9f8 853c c2bc 253e
00000080: 2c7e b7be 1c3e 063e f8ee c2be 79e2 ab3c
00000090: d406 fc3e bfc0 b83e 2a5b 6e3d 2c52 92bd
000000a0: c775 53be 410d 9ebe a02e 82be 7bc8 cc3c
000000b0: 23df 0dbd 1af6 3e3f 3a12 2fbf 22c3 e8bd
000000c0: b128 f3be cd40 b1be e8da 0f3f 688b c3bd
000000d0: dc40 2cbe 13ad 413e c1e9 f7bd 0d2a 803d
000000e0: a686 8c3e a32c d03d 2099 773e d39f f3bd
000000f0: 1423 013d 6a7e 42be 437e 123d 5117 b03e
00000100: 3ac7 eb3d 8f8e 953e 9811 c0bd a061 f8bc
00000110: ba1d 2e3d 761f 9c3e 1823 babe ca8a a0be
00000120: 2cf3 b5bd 3b82 16bf 4c2f 313e 77f7 5cbe
00000130: d279 30be 530c af3e 078f 0b3e 36f3 0d3f
00000140: 5729 cc3e

raise_dim.0.attention1.2.bias f4 [9]
0.33959877 0.3878356 0.3311289 -0.3298323 0.38881323 0.32232705 -0.19610794 -0.19524218
-0.0016549345
00000000: e4df ad3e 6392 c63e ba89 a93e c7df a8be
00000010: 8712 c73e 0d08 a53e 85d0 48be 91ed 47be
00000020: 63ea d8ba

raise_dim.0.attention1.4.weight f4 [9, 9, 1, 1]
-0.3418726 -0.18313196 0.11708226 0.2873161 -0.2661111 -0.50335985 0.22835122 -0.096283704
0.30771607 -0.5390896 -0.06567035 1.1024348 0.14062978 0.2323379 -0.265986 -3.8812454e-05
0.20487677 -0.43689305 -0.4828876 -0.08247763 -0.7281581 0.2806795 -0.9669312 0.03981824
-0.1926462 0.10119749 -0.40467906 0.6296751 0.19161306 0.5209485 -0.5446919 0.104458146
0.63677925 -0.34126645 -0.5384387 0.681853 1.1536661 1.014814 0.16335112 -0.62224376
0.4163765 2.3959253 -0.738142 -0.6065282 0.99438196 0.00753779 -0.01471106 0.1386031
-0.18732728 0.04935561 -0.10453787 -0.18487962 -0.05579305 -0.30555424 0.29851058 0.41352436
0.5075654 -0.35298705 0.24326836 0.4402432 -0.12431976 -0.012075256 0.31846014 1.0274339
0.86673695 0.4991358 -0.44280282 0.23213577 0.8276631 -0.01951693 -0.4777962 0.62951756
-0.42747265 0.004114366 0.07474051 -0.1956136 0.19829383 -0.2609833 -0.03142907 0.04597585
-0.451079
00000000: ed09 afbe f286 3bbe d3c8 ef3d 191b 933e
00000010: b73f 88be 31dc 00bf e7d4 693e 6430 c5bd
00000020: f68c 9d3e c701 0abf 2d7e 86bd 951c 8d3f
00000030: 4101 103e fde9 6d3e 512f 88be 8eca 22b8
00000040: 37cb 513e 72b0 dfbe 0b3d f7be 08ea a8bd
00000050: 9268 3abf 39b5 8f3e ce88 77bf 7318 233d
00000060: 0c45 45be a140 cf3d 1832 cfbe 6332 213f
00000070: 3736 443e e25c 053f ee70 0bbf 27ee d53d
00000080: f703 233f 7aba aebe 1ed7 09bf eb8d 2e3f
00000090: 55ab 933f 6de5 813f 8445 273e 5e4b 1fbf
000000a0: 4d2f d53e d756 1940 e0f6 3cbf 6f45 1bbf
000000b0: d18f 7e3f 91ff f63b a806 71bc f9ed 0d3e
000000c0: b9d2 3fbe 1c29 4a3d f317 d6bd 1551 3dbe
000000d0: 4187 64bd 9b71 9cbe 61d6 983e 77b9 d33e
000000e0: ceef 013f b8ba b4be 571b 793e 8f67 e13e
000000f0: 5c9b febd 4bd7 45bc 350d a33e f482 833f
00000100: 79e2 5d3f ba8e ff3e 0db7 e2be 00b5 6d3e
00000110: bbe1 533f f8e1 9fbc b4a1 f4be 1028 213f
00000120: b2dd dabe ced1 863b 8d11 993d ee4e 48be
00000130: 8a0d 4b3e 9a9f 85be c5bb 00bd 2c51 3c3d
00000140: d4f3 e6be

raise_dim.0.attention1.4.bias f4 [9]
0.19277804 0.06203201 0.05052375 0.6196608 0.6193557 0.14216323 0.44272608 0.7435044
0.13735983
00000000: 9b67 453e 4715 7e3d fef1 4e3d 17a2 1e3f
00000010: 188e 1e3f 3d93 113e feac e23e 4e56 3e3f
00000020: 0ea8 0c3e

raise_dim.0.attention3.1.weight f4 [32, 9, 1, 1]
-0.14220361 -0.02453931 0.045548797 0.043022655 -0.33557302 0.32658312 0.16175602 -0.24700412
0.1727657 0.18763357 -0.03697287 0.20556521 -0.0598916 -0.3879788 -0.010671134 0.2892371
-0.24980032 0.1755975 0.10109582 -0.17955776 -0.06020696 0.1789236 -0.17990348 0.24776958
0.18176936 0.19570777 0.25424835 -0.029840196 -0.19791877 0.009018885 -0.1659246 0.100660145
0.35845453 -0.07822254 -0.064791694 0.4074891 -0.33235997 -0.09120422 0.25913662 0.22505125
0.11116995 -0.21363819 0.06856896 -0.18359713 -0.31997275 -0.45023412 0.46059424 0.23322125
0.07009127 -0.06584424 0.10110695 -0.3129173 0.1737549 -0.2038156 -0.11111793 -0.03474925
-0.056815896 -0.3244205 0.17515726 0.04008434 0.31908792 0.22910225 0.06806756 0.1813578
0.0028715448 0.1206958 -0.30161977 -0.05133193 -0.013763732 0.62700343 -0.4314756 -0.03158685
-0.09972353 0.15141591 0.10650089 -0.43304077 -0.38708323 0.22930251 0.019794796 -0.308039
-0.09416367 0.12859017 -0.21525303 -0.30966306 -0.21915482 -0.25255048 -0.085756965 0.033408362
0.112686045 -0.21181996 -0.26373485 -0.45894685 0.017881498 0.09229162 0.1355441 0.06981444
0.000114316914 -0.22713578 -0.039025765 -0.23384996 0.06282456 -0.24029735 -0.32788882 0.05466137
0.100535564 0.019209767 0.065866515 0.15301448 -0.014018707 -0.41419375 -0.37031376 -0.02484939
-0.2979939 -0.15212734 0.13594954 -0.07946571 0.048097648 -0.0022996678 -0.13521464 0.19816333
-0.07279886 0.12674834 -0.22680324 0.22913826 -0.103745714 0.2816638 0.18311587 0.2344385
0.15176845 0.021476878 -0.10821932 -0.11455014 -0.24902734 -0.2819644 0.24841775 0.057481382
0.16584714 0.049272176 0.097515956 -0.27554673 -0.22313316 0.3221321 0.10271028 0.2065958
-0.25018218 0.18581477 -0.24052191 0.040223394 0.16909699 -0.19131297 -0.42340702 0.10603181
0.3223344 0.31954876 -0.3740616 -0.10066958 -0.30876917 -0.3215829 0.014870719 0.500406
-0.20666312 0.07422498 0.31777868 -0.037205853 0.27890977 0.27094567 0.22454408 -0.11714088
-0.48034307 -0.22835852 -0.22108881 0.3544073 0.18467033 0.14028834 -0.23687303 -0.32582265
0.32866383 0.12875053 -0.36722237 0.015411496 -0.06794279 -0.01578467 0.14953321 0.15934567
-0.25435925 -0.03694931 -0.29924244 0.24675405 0.12680721 0.1553864 0.31813616 0.09460052
-0.41436037 0.00521913 -0.25571513 0.18765013 0.020302657 0.42929852 -0.21680851 -0.411253
-0.1479583 -0.04089327 0.16045763 0.39190635 0.53924084 0.048768666 0.080012456 -0.029439053
-0.27832142 0.10408848 -0.22522065 0.00568228 0.26273656 0.42993864 -0.51851594 0.28691304
-0.27239808 -0.23206681 0.09758097 0.014880295 -0.19528243 0.08149412 -0.4691246 0.119251885
0.2892673 -0.028835233 -0.1483274 -0.15899056 -0.28073388 -0.22566348 0.08554338 -0.16793379
-0.51292825 -0.059464283 -0.21398441 -0.17817007 -0.0043831854 -0.1345376 0.3454464 -0.2337667
-0.3627724 -0.0027691247 -0.35676026 0.23895365 0.23346771 -0.15699358 -0.08393679 0.24145272
-0.21368659 0.14122391 -0.26193616 -0.1514285 -0.07701078 -0.31122708 0.157018 -0.0674052
00000000: d39d 11be aa06 c9bc 6091 3a3d 8638 303d
00000010: 3ad0 abbe e735 a73e 5fa3 253e a6ee 7cbe
00000020: 7ee9 303e 0423 403e dd70 17bd b07f 523e
00000030: e550 75bd 28a5 c6be fbd5 2ebc e316 943e
00000040: a8cb 7fbe d5cf 333e 530b cf3d fddd 37be
00000050: 939b 76bd c037 373e 9e38 38be 4fb7 7d3e
00000060: bf21 3a3e 9e67 483e d72c 823e 6d73 f4bc
00000070: 38ab 4abe f2c3 133c 23e8 29be e826 ce3d
00000080: 5a87 b73e 2433 a0bd 82b1 84bd 69a2 d03e
00000090: 162b aabe 47c9 babd 8ead 843e d673 663e
000000a0: 12ad e33d f8c3 5abe e26d 8c3d e300 3cbe
000000b0: 78d3 a3be 1685 e6be 02d3 eb3e 8dd1 6e3e
000000c0: 038c 8f3d 58d9 86bd 2911 cf3d b236 a0be
000000d0: ceec 313e 09b5 50be cc91 e3bd 3b55 0ebd
000000e0: c9b7 68bd 721a a6be 6d5c 333e 7a2f 243d
000000f0: 7e5f a33e c899 6a3e 0167 8b3d dcb5 393e
00000100: 8730 3c3b 5c2f f73d e86d 9abe 6e41 52bd
00000110: 4781 61bc 4c83 203f 5fea dcbe 3661 01bd
00000120: da3b ccbd c60c 1b3e 231d da3d 85b7 ddbe
00000130: c62f c6be 47ce 6a3e b228 a23c 4ab7 9dbe
00000140: e2d8 c0bd 24ad 033e 4a6b 5cbe 288c 9ebe
00000150: 1f6a 60be 4c4e 81be 59a1 afbd 35d7 083d
00000160: f1c7 e63d 55e7 58be 4108 87be 15fb eabe
00000170: 387c 923c 6403 bd3d 13cc 0a3e e0fa 8e3d
00000180: 6dbd ef38 4896 68be 7bd9 1fbd 5d76 6fbe
00000190: 2aaa 803d 8210 76be 0be1 a7be 9ae4 5f3d
000001a0: 97e5 cd3d cd5d 9d3c 06e5 863d d4af 1c3e
000001b0: b8ae 65bc 3411 d4be c499 bdbe f390 cbbc
000001c0: a892 98be 45c7 1bbe 5b36 0b3e ebbe a2bd
000001d0: 0a02 453d 06b6 16bb b575 0abe 54eb 4a3e
000001e0: 9217 95bd 51ca 013e 1c3f 68be 38a3 6a3e
000001f0: a278 d4bd 3d36 903e ba82 3b3e a510 703e
00000200: 3069 1b3e 47f0 af3c 17a2 ddbd 4499 eabd
00000210: 0601 7fbe a35d 90be 3961 7e3e 9971 6b3d
00000220: d5d3 293e 9fd1 493d 72b6 c73d 7614 8dbe
00000230: 057d 64be 80ee a43e c459 d23d d98d 533e
00000240: e117 80be 3a46 3e3e 604b 76be 49c1 243d
00000250: c327 2d3e 8ce7 43be cec8 d8be 3527 d93d
00000260: 0409 a53e e59b a33e 0185 bfbe da2b cebd
00000270: fe16 9ebe 84a6 a4be 51a4 733c 9c1a 003f
00000280: 7f9f 53be 4403 983d e3b3 a23e 2a65 18bd
00000290: 43cd 8e3e 64b9 8a3e e2ee 653e 8fe7 efbd
000002a0: 87ef f5be d1d6 69be 1b65 62be e074 b53e
000002b0: 381a 3d3e bfa7 0f3e d88e 72be 3ad2 a6be
000002c0: a046 a83e 2ed7 033e 9204 bcbe 8080 7c3c
000002d0: 9725 8bbd da4e 81bc 3c1f 193e 832b 233e
000002e0: 603b 82be 2958 17bd 4e36 99be 18ad 7c3e
000002f0: c0d9 013e 9d1d 1f3e bee2 a23e ebbd c13d
00000300: 0b27 d4be 3c05 ab3b 18ed 82be 5b27 403e
00000310: c251 a63c 04cd db3e 0d03 5ebe c18f d2be
00000320: 6182 17be b47f 27bd 014f 243e f3a7 c83e
00000330: b00b 0a3f a7c1 473d 92dd a33d 2b2a f1bc
00000340: 2580 8ebe 572c d53d 3ea0 66be 6b32 ba3b
00000350: 6885 863e eb20 dc3e 76bd 04bf 44e6 923e
00000360: c377 8bbe eca2 6dbe 88d8 c73d 7bcc 733c
00000370: 1ef8 47be 64e6 a63d 1931 f0be 553a f43d
00000380: d81a 943e de37 ecbc 23e3 17be 6cce 22be
00000390: 5abc 8fbe 5414 67be 5e31 af3d d6f6 2bbe
000003a0: 444f 03bf d290 73bd bb1e 5bbe 3772 36be
000003b0: d3a0 8fbb 3ac4 09be 5ade b03e 8a60 6fbe
000003c0: 4ebd b9be 347a 35bb 48a9 b6be 44b0 743e
000003d0: 2912 6f3e edc2 20be 0de7 abbd 623f 773e
000003e0: a8d0 5abe 009d 103e 7f1c 86be 1310 1bbe
000003f0: d4b7 9dbd 2859 9fbe 54c9 203e bd0b 8abd

raise_dim.0.attention3.1.bias f4 [32]
-0.05133239 -0.033472996 -0.32587615 -0.15140189 0.057458397 0.02291701 -0.21279171 0.030294392
0.041427083 0.075996034 0.14270495 -0.005260001 0.06487222 -0.15336516 -0.081322014 -0.17573093
-0.033265904 0.15546224 0.062175445 -0.038472164 -0.10130049 -0.10374526 -0.044531625 -0.036777478
0.06383451 0.14064091 0.18462233 -0.07403381 0.0945549 -0.056008864 -0.08455626 -0.13569838
00000000: ea41 52bd fb1a 09bd 3dd9 a6be 1909 1bbe
00000010: 7f59 6b3d 74bc bb3c 12e6 59be f22b f83c
00000020: 72af 293d cfa3 9b3d 3f21 123e 165c acbb
00000030: badb 843d c20b 1dbe 288c a6bd cff2 33be
00000040: d441 08bd 7e31 1f3e aeab 7e3d fd94 1dbd
00000050: a276 cfbd 6578 d4bd cb66 36bd fba3 16bd
00000060: abbb 823d 2c04 103e a30d 3d3e 0a9f 97bd
00000070: 00a6 c13d 8d69 65bd d52b adbd 84f4 0abe

raise_dim.0.attention3.3.weight f4 [32, 32, 1, 1]
-0.1289965 -0.23942417 0.16451284 -0.1436539 0.1395356 -0.044477466 -0.12863971 -1.099762
-0.07534276 0.023297558 -0.020425979 -0.15794408 -0.10918105 -0.103582494 0.13224386 -0.16392666
0.02740455 -0.07047866 0.12314703 -0.06637768 0.16204973 -0.15485308 -0.36950326 -0.27971348
0.110664256 -0.06733862 0.10151726 -0.080340065 0.18923575 0.056617074 0.04642136 0.29884976
-0.066453874 -0.008174666 0.0487478 0.103012115 0.0578213 -0.085815884 -0.07870301 -0.4487162
0.1093141 -0.10783888 -0.057908308 0.047210276 0.025337776 -0.0009922171 0.08695602 0.03868166
0.17034362 -0.030838283 -0.019625 0.012027513 -0.025728414 0.12457235 0.21673593 -0.016346667
0.12805277 -0.012811477 -0.15317112 -0.01083315 0.16284043 -0.10616822 -0.09660125 -0.06120336
0.062228434 0.07217568 -0.15490189 0.07852671 -0.077490404 0.20726274 -0.060692523 0.14260985
-0.035435308 -0.14215416 0.042309623 0.06429879 -0.0063540107 -0.06548141 -0.043694496 0.039050847
-0.034109004 -0.23114012 -0.039170027 0.03438715 -0.035313673 -0.041670367 -0.13150178 0.13235249
-0.4025201 -0.6853473 -0.04680677 -0.1575547 -0.18995418 0.03141686 0.1141532 0.072293185
-0.06366116 0.16301279 0.022223912 -0.018970711 -0.07144363 -0.030872174 -0.06549038 0.0664489
-0.077452615 -0.0578463 -0.087926514 -0.09610852 -0.017525744 0.040656734 0.038959943 0.05096985
0.09632116 -0.0055445014 -0.06793342 -0.01047635 0.0762682 0.03282722 -0.10461386 0.17489952
-0.032102287 -0.053435244 0.03081065 0.08669272 -0.11575905 0.08639066 0.032990802 -0.08977173
-0.008018055 0.1172211 0.15465124 0.06896382 -0.13396537 -0.036389902 -0.029607192 -0.012343471
0.12957066 0.14271455 0.03907229 0.06664019 -0.0023054157 0.2097688 0.15304974 0.06539961
0.12503071 0.042705454 -0.03728739 -0.10910432 0.040349465 0.2586815 -0.10968773 -0.017875265
0.26143146 0.20400487 0.054979704 0.094805814 -0.13424626 -0.061779905 0.023335595 0.12689182
-0.0014951469 -0.061035436 -0.039824672 -0.04255411 -0.24917096 -0.19781034 -0.05395395 -0.27411693
0.09362304 -0.14903526 -0.17945509 0.15973611 0.008257348 0.18455857 -0.18103671 -0.101960085
-0.059440907 -0.114211835 -0.014005083 0.100020185 0.20523122 -0.021699566 0.018650483 -0.0696048
-0.08355284 -0.15277411 -0.15408927 0.12099418 -0.000112775815 0.1797707 0.11451364 0.027478017
0.105866075 -0.22230347 0.03727898 0.077790186 0.15797734 -0.07033098 0.16639659 -0.06333184
-0.041184824 -0.1633289 0.17877862 0.009613095 0.04300321 -0.14195196 -0.18829358 0.048965525
-0.026867291 0.053067528 -0.006979463 0.016708607 0.04364436 0.09350608 0.01716941 0.05632552
-0.09638793 -0.2040665 0.10269057 -0.08123814 -0.05810135 -0.20761684 0.048712555 0.3673719
0.06855177 0.1254451 -0.27018502 -0.12933028 -0.0699863 0.024931034 -0.09116803 -0.22157942
-0.11041581 -0.008961738 0.21962728 -0.08730272 0.10133693 -0.19684277 -0.008216257 -0.19702142
-0.13650215 0.0729338 -0.030824821 0.11166593 0.12859644 0.03587802 -0.18282124 -0.067900516
-0.018007863 -0.4112995 -0.018879948 0.054739516 0.086649224 0.10514911 -0.010296635 0.33776638
00000000: a917 04be 9c2b 75be 0e76 283e 021a 13be
00000010: 6ce2 0e3e 012e 36bd 21ba 03be 00c5 8cbf
00000020: 4e4d 9abd 85da be3c 6254 a7bc 18bc 21be
00000030: 509a dfbd 0f23 d4bd ef6a 073e 64dc 27be
00000040: 827f e03c 1e57 90bd 8334 fc3d 05f1 87bd
00000050: 5df0 253e ce91 1ebe 882f bdbe 9b36 8fbe
00000060: f1a3 e23d d5e8 89bd 48e8 cf3d 5589 a4bd
00000070: 04c7 413e 4ee7 673d 5324 3e3d d602 993e
00000080: f818 88bd 09ef 05bc c6ab 473d 04f8 d23d
00000090: 07d6 6c3d 3dc0 afbd 0b2f a1bd 21be e5be
000000a0: 12e0 df3d a1da dcbd 4331 6dbd 905f 413d
000000b0: 2b91 cf3c 480d 82ba ff15 b23d a970 1e3d
000000c0: 8f6e 2e3e 91a0 fcbc 9cc4 a0bc 0c0f 453c
000000d0: 65c4 d2bc ca1f ff3d 06f0 5d3e 72e9 85bc
000000e0: 4420 033e 3be7 51bc e4d8 1cbe 867d 31bc
000000f0: a4bf 263e b96e d9bd e0d6 c5bd 60b0 7abd
00000100: 3ee3 7e3d d8d0 933d 9a9e 1ebe 9dd2 a03d
00000110: 4ab3 9ebd af3c 543e b998 78bd 5108 123e
00000120: 9d24 11bd dc90 11be db4c 2d3d 16af 833d
00000130: 4e35 d0bb 1e1b 86bd 00f9 32bd c8f3 1f3d
00000140: e2b5 0bbd ffaf 6cbe c070 20bd 8ad9 0c3d
00000150: 12a5 10bd 8cae 2abd 67a8 06be 6987 073e
00000160: 1d17 cebe ec72 2fbf 75b8 3fbd 0556 21be
00000170: 5983 42be f7ae 003d 27c9 e93d 730e 943d
00000180: c860 82bd d3ec 263e ec0e b63c 7768 9bbc
00000190: 0a51 92bd a4e7 fcbc d21f 86bd 5c16 883d
000001a0: 7a9f 9ebd 3ef0 6cbd d112 b4bd 8bd4 c4bd
000001b0: 2692 8fbc ad87 263d 7694 1f3d c3c5 503d
000001c0: 0744 c53d a6ae b5bb ad20 8bbd ffa4 2bbc
000001d0: 8132 9c3d d675 063d cb3f d6bd dc18 333e
000001e0: b07d 03bd eade 5abd 9e66 fc3c f48b b13d
000001f0: 1513 edbd 96ed b03d 5d21 073d 3eda b7bd
00000200: 295e 03bc 9e11 f03d e55c 1e3e e73c 8d3d
00000210: 382e 09be 940d 15bd c88a f2bc 453c 4abc
00000220: 2cae 043e c323 123e 440a 203d a77a 883d
00000230: 7516 17bb a2cd 563e 12b9 1c3e 3bf0 853d
00000240: 0d08 003e eaeb 2e3d aaba 18bd 1672 dfbd
00000250: 7b45 253d e771 843e f6a3 e0bd 266f 92bc
00000260: 58da 853e a7e6 503e 6632 613d 8d29 c23d
00000270: da77 09be ed0c 7dbd 4a2a bf3c eeef 013e
00000280: cef8 c3ba 4b00 7abd 321f 23bd 384d 2ebd
00000290: ac26 7fbe cb8e 4abe d1fe 5cbd 0e59 8cbe
000002a0: 70bd bf3d b39c 18be 13c3 37be dd91 233e
000002b0: d449 073c ecfc 3c3e b061 39be 73d0 d0bd
000002c0: 4f78 73bd e5e7 e9bd 9375 65bc 62d7 cc3d
000002d0: 2228 523e 4ac3 b1bc e6c8 983c f68c 8ebd
000002e0: c01d abbd d170 1cbe 94c9 1dbe cccb f73d
000002f0: 0e82 ecb8 cf15 383e 2186 ea3d 9419 e13c
00000300: 50d0 d83d 85a3 63be d8b1 183d 7650 9f3d
00000310: d0c4 213e b009 90bd de63 2a3e 20b4 81bd
00000320: 6bb1 28bd b13f 27be be11 373e 3e80 1d3c
00000330: 2224 303d db5b 11be 08d0 40be 1390 483d
00000340: cb18 dcbc 565d 593d fbb3 e4bb 7de0 883c
00000350: 6ec4 323d 1e80 bf3d dda6 8c3c 97b5 663d
00000360: 0967 c5bd cff6 50be 6f4f d23d 2f60 a6bd
00000370: aefb 6dbd 8299 54be d186 473d 2b18 bc3e
00000380: df64 8c3d ae74 003e b155 8abe 286f 04be
00000390: fa54 8fbd 2b3c cc3c 4eb6 babd b7e5 62be
000003a0: af21 e2bd 41d4 12bc f9e5 603e c5cb b2bd
000003b0: bd89 cf3d 2791 49be 7b9d 06bc fcbf 49be
000003c0: 38c7 0bbe 515e 953d 5684 fcbc 1bb1 e43d
000003d0: c9ae 033e d5f4 123d 7e35 3bbe 6d0f 8bbd
000003e0: 3a85 93bc d995 d2be 1faa 9abc 8b36 603d
000003f0: 2675 b13d 6b58 d73d 38b3 28bc b7ef ac3e

raise_dim.0.attention3.3.bias f4 [32]
-0.07733658 -0.041232284 0.061070744 0.15151092 0.023491237 -0.042141028 -0.11890793 0.022408854
-0.17763975 -0.1337458 0.14960101 0.016998082 0.05577038 -0.009798963 -0.03677379 0.09065676
0.019500919 -0.14893723 0.011552205 0.10411069 -0.03770442 -0.050097637 -0.03840195 0.045660067
-0.1016815 0.07699334 0.086866535 -0.0852502 -0.096780464 -0.018635007 -0.07627724 0.09765077
00000000: a462 9ebd 2fe3 28bd 5125 7a3d ae25 1b3e
00000010: b270 c03c 129c 2cbd 0086 f3bd c692 b73c
00000020: 32e7 35be a9f4 08be 0231 193e 903f 8b3c
00000030: 7b6f 643d d48b 20bc 1da0 16bd 40aa b93d
00000040: 64c0 9f3c 0083 18be 7645 3d3c fc37 d53d
00000050: f36f 1abd 2e33 4dbd 5d4b 1dbd 0d06 3b3d
00000060: 643e d0bd afae 9d3d 15e7 b13d a897 aebd
00000070: d634 c6bd 71a8 98bc 3e37 9cbd 20fd c73d

layers.0.conv1.weight f4 [32, 32, 3, 3]
0.040429298 -0.11431712 -0.2261278 -0.061346076 -0.14413734 -0.139433 0.0627215 -0.085209884
-0.04845233 0.0004922527 0.02099587 0.12418188 0.009448359 -0.1384941 0.055636268 0.0026131198
-0.10978484 0.031115362 0.2570053 0.1202056 -0.044028237 0.052982908 -0.24248004 -0.010351253
0.13758332 -0.14084211 -0.13616285 0.1647739 0.016496472 0.14284362 -0.00033815883 0.2123736
0.24555308 0.06552301 0.121538684 0.209669 -0.049445156 -0.5054911 -0.0018553785 -0.008054925
0.2007614 0.00868639 0.032681637 0.26852566 -0.017478846 -0.0229848 0.092656605 0.097108044
0.10593138 0.111664824 0.001203492 0.09195653 0.112931885 0.103502996 0.067274176 0.12887311
0.132719 0.00860558 0.232309 0.096468516 0.0397185 0.19411424 0.071750045 0.07385897
0.04120113 0.073047265 0.021950848 0.10898108 -0.0055542113 0.004195677 0.08038844 0.112160556
0.09947344 0.06617859 0.11907932 0.09592012 0.12017217 0.07581612 0.064754575 0.12024163
0.08350907 -0.07090219 0.07611372 0.110881284 -0.017993024 -0.08812331 -0.0007506075 8.364745e-06
0.022924567 0.022949014 0.09564662 -0.0624859 -0.23938598 -0.1427787 -0.22444229 -0.0026185936
-0.093602836 -0.08855001 -0.047680724 -0.02677519 0.0314575 0.026447695 -0.05630262 -0.060538966
-0.021453245 -0.071457274 -0.043115642 -0.11049471 0.017186593 -0.16671069 -0.274333 -0.18068877
-0.1555529 0.04735052 -0.14326599 -0.055003665 0.011687372 0.07767221 0.07033437 0.026347583
0.09070383 -0.11830087 -0.065642096 0.058382798 -0.13124566 -0.17185922 -0.058578786 -0.18294927
-0.04157854 -0.3439794 -0.070663445 0.061653044 -0.29861197 -0.061239496 -0.114385925 0.04936317
0.077881776 -0.04014985 -0.00821329 -0.018189266 -0.099897206 0.027391491 -0.08298552 -0.015337042
-0.0031683515 -0.123514846 -0.19224244 0.00016281044 0.015147283 0.12027848 -0.087819725 0.0015750153
-0.04295102 0.015140596 0.2814909 0.44802636 -0.04265501 0.26051143 0.0500375 -0.007561771
0.2348794 0.24979536 0.06831378 -0.053956863 -0.09326555 -0.1957948 -0.024202004 0.006292091
-0.1268779 -0.11226443 -0.09046925 -0.051975798 0.10314691 0.18192552 0.17807515 0.17801858
0.060977176 0.17292167 0.22947846 0.120300464 0.00775956 0.015201353 0.054485258 -0.0027383347
0.021571415 0.084600486 0.034623828 -0.05038968 0.11264851 0.08108647 0.14874822 0.13133538
0.12989952 0.06492051 0.13255952 0.0749804 0.12724178 0.093368284 0.16619098 -0.027072806
-0.014588134 -0.12745857 0.09508955 0.20982622 -0.034841653 0.15308215 -0.13454431 0.08496798
0.014591052 0.10241121 0.03817341 0.078434795 -0.027666943 0.05526186 0.063069694 0.07647881
0.18548235 -0.18226662 -0.14529142 0.07224095 0.0073775635 -0.059955902 -0.015071485 -0.06040958
-0.029788436 0.07959499 0.0975529 0.10697865 0.13213676 0.11702148 0.11425083 0.034183145
0.11004226 0.08941712 -0.06609736 -0.052986007 0.02631965 -0.31666765 -0.0048261127 0.050500594
-0.063389145 0.1676133 0.15546283 0.09387203 -0.08455756 -0.08722487 -0.3260023 -0.19952227
0.11596862 -0.28014603 0.029685311 0.18536124 0.07101475 0.037285164 0.08592944 0.072646834
00000000: 3199 253d 181f eabd 0c8e 67be 0646 7bbd
00000010: bd98 13be 86c7 0ebe 2174 803d 8582 aebd
00000020: f375 46bd 850a 013a 88ff ab3c 1253 fe3d
00000030: 4acd 1a3c 66d1 0dbe dbe2 633d e040 2b3b
00000040: e0d6 e0bd a5e5 fe3c 3396 833e 5b2e f63d
00000050: f456 34bd 9b04 593d b04c 78be 4d98 29bc
00000060: a4e2 0c3e ea38 10be 466e 0bbe 7dba 283e
00000070: 9c23 873c 9945 123e e94a b1b9 7778 593e
00000080: 4472 7b3e ee30 863d 46e9 f83d 78b3 563e
00000090: 0187 4abd dd67 01bf 2c30 f3ba cef8 03bc
000000a0: 6594 4d3e 5c51 0e3c 2edd 053d 327c 893e
000000b0: cc2f 8fbc 9f4a bcbc bfc2 bd3d 95e0 c63d
000000c0: 8df2 d83d 87b0 e43d 7ebe 9d3a b553 bc3d
000000d0: d548 e73d 61f9 d33d 0bc7 893d 50f7 033e
000000e0: 7de7 073e 6bfe 0c3c 69e2 6d3e 4991 c53d
000000f0: deaf 223d e2c5 463e b0f1 923d 5f43 973d
00000100: 84c2 283d ce99 953d 44d2 b33c 7931 df3d
00000110: 1a00 b6bb e47b 893b b2a2 a43d 6fb4 e53d
00000120: bbb8 cb3d a488 873d dcdf f33d c571 c43d
00000130: d41c f63d 7b45 9b3d 0c9e 843d 3e41 f63d
00000140: ce06 ab3d 2b35 91bd 83e1 9b3d ba15 e33d
00000150: 1b66 93bc fe79 b4bd 6bc4 44ba 4e56 0c37
00000160: 4dcc bb3c 92ff bb3c 60e2 c33d 37f1 7fbd
00000170: 9921 75be 9434 12be 33d4 65be b69c 2bbb
00000180: d8b2 bfbd b559 b5bd dd4c 43bd a557 dbbc
00000190: 94d9 003d d6a8 d83c 939d 66bd b5f7 77bd
000001a0: b7be afbc 3158 92bd 079a 30bd 0d4b e2bd
000001b0: e6ca 8c3c 35b6 2abe 6075 8cbe 7a06 39be
000001c0: 4249 1fbe 9ef2 413d 52b4 12be 864b 61bd
000001d0: 647c 3f3c 9c12 9f3d 770b 903d e3d6 d73c
000001e0: eec2 b93d ba47 f2bd 5d6f 86bd cd22 6f3d
000001f0: 4365 06be ddfb 2fbe 4ff0 6fbd 0e57 3bbe
00000200: 424e 2abd 111e b0be ffb7 90bd e787 7c3d
00000210: abe3 98be 44d6 7abd 2b43 eabd 0931 4a3d
00000220: 7b80 9f3d 2b74 24bd 0991 06bc a801 95bc
00000230: e896 ccbd 1f64 e03c 50f4 a9bd 3748 7bbc
00000240: 1ea4 4fbb 5af5 fcbd 34db 44be 18b8 2a39
00000250: 4f2c 783c 9054 f63d d4da b3bd be70 ce3a
00000260: 69ed 2fbd 4310 783c 931f 903e b663 e53e
00000270: 05b7 2ebd c161 853e 1ff4 4c3d bcc8 f7bb
00000280: 3a84 703e 5bca 7f3e 18e8 8b3d df01 5dbd
00000290: 0202 bfbd 6f7e 48be 4843 c6bc e32d ce3b
000002a0: 48ec 01be e5ea e5bd f147 b9bd 93e4 54bd
000002b0: b03e d33d af4a 3a3e 5559 363e 814a 363e
000002c0: 34c3 793d 6112 313e 67fc 6a3e 1760 f63d
000002d0: e843 fe3b 180f 793c ef2b 5f3d a275 33bb
000002e0: 89b6 b03c 0543 ad3d b7d1 0d3d 6965 4ebd
000002f0: 43b4 e63d aa10 a63d 7451 183e c87c 063e
00000300: 6104 053e 0bf5 843d afbd 073e 538f 993d
00000310: ab4b 023e df37 bf3d f82d 2a3e cac7 ddbc
00000320: 1203 6fbc 8084 02be 4fbe c23d afdc 563e
00000330: 1fb6 0ebd 91c1 1c3e fcc5 09be b103 ae3d
00000340: 4f0f 6f3c f8bc d13d b95b 1c3d 6ca2 a03d
00000350: c9a5 e2bc 435a 623d af2a 813d eca0 9c3d
00000360: 16ef 3d3e 1aa4 3abe 46c7 14be 10f3 933d
00000370: 7dbf f13b 5294 75bd 64ee 76bc 0970 77bd
00000380: e106 f4bc b302 a33d d1c9 c73d 9f17 db3d
00000390: dc4e 073e f5a8 ef3d 57fc e93d a003 0c3d
000003a0: d65d e13d 5320 b73d 0d5e 87bd db07 59bd
000003b0: 4e9c d73c 4322 a2be 5e24 9ebb b6d9 4e3d
000003c0: 2bd2 81bd d2a2 2b3e a631 1f3e fb3f c03d
000003d0: 842c adbd f4a2 b2bd c6e9 a6be 914f 4cbe
000003e0: f580 ed3d 4d6f 8fbe 9c2e f33c 56cf 3d3e
000003f0: 2e70 913d 54b8 183d c6fb af3d ddc7 943d

layers.0.conv1.attention1.0.weight f4 [9, 32, 3, 3]
0.3451359 0.2756548 0.16852805 0.2766677 0.023590105 0.29278454 0.10018832 0.019031778
0.18056458 -0.0096949125 0.043890048 0.030145073 -0.022365723 -0.0522146 0.00076278456 -0.0062238052
0.017641291 0.020158503 -0.07451417 -0.052322585 -0.039074715 -0.0617843 0.00025140523 0.023812383
0.047454134 -0.032245364 -0.06878857 0.27881676 -0.26835364 0.36124647 -0.31209064 0.37629002
-0.2336024 0.004759869 -0.10030459 0.27265772 -0.031778473 0.05868891 -0.043463375 0.013086128
-0.0776518 -0.045064177 -0.006421306 0.0104027605 0.044437617 0.008131349 0.033223916 0.065083586
0.029324267 -0.016307132 0.011404857 0.008758402 -0.007852974 0.031167096 -0.0040263487 0.041033346
0.005108409 0.08814138 0.01437221 -0.013353476 -0.009703255 -0.018033864 0.046489026 0.013801021
-0.03201218 -0.017272409 -0.03909917 -0.030913778 -0.017197765 -0.031120695 0.020295268 0.026738945
-0.00047083935 0.021880997 0.026244042 0.026048692 0.029400455 0.037813287 0.08008918 0.031387664
0.062207792 -0.02484396 0.09865645 -0.034342006 0.010471403 -0.084556326 0.004096165 0.04433102
0.15505344 0.09000536 -0.124144346 -0.058552455 -0.13076447 -0.17055811 -0.17936501 -0.06815148
-0.11166633 -0.121165164 -0.11017772 0.041265897 -0.0034786428 -0.0221973 0.027583301 -0.022758849
-0.017010644 -0.08077557 0.008068744 -0.07622905 -0.20130773 -0.055226013 -0.2762086 -0.13209453
-0.16183215 -0.1872638 -0.1336426 -0.1319646 -0.17264615 0.039508685 0.0053837574 0.058974374
0.057437606 0.020621238 0.019415928 0.035647444 -0.032006595 -0.051918577 0.099310786 -0.0062185833
-0.08667275 0.12606208 -0.40612176 0.19763267 0.06703341 0.057677187 -0.052224785 -0.097852275
-0.070283696 -0.005561194 -0.041321326 0.017129501 -0.10397485 -0.018822543 -0.03561929 -0.08432242
-0.04567158 -0.0024485535 -0.16225763 -0.12488504 -0.13474381 -0.077206604 -0.006013073 0.029006204
0.02005601 0.033376362 0.012325983 -0.004134131 0.055975396 0.061638724 0.02700612 -0.012546814
0.017097924 0.028131688 -0.12861001 -0.18385781 -0.1376906 -0.100027144 -0.34736204 -0.07912217
-0.20678632 -0.14372623 -0.19791478 0.052031912 0.06438524 0.06479093 0.07657744 0.047805723
-0.040909346 0.021870723 0.05087588 0.043573808 -0.0070283497 -0.021087758 0.046473913 0.09478799
0.031663828 0.0194208 -0.009608535 0.052242685 0.08661517 -0.008175787 0.06231194 0.056552414
0.074038476 0.04528583 0.008863148 0.06665594 -0.02546725 0.06382666 0.17551564 0.09151303
0.04599181 0.069965385 -0.11625068 0.28957504 0.0049682874 0.11309055 0.040897794 0.049545437
0.04445848 -0.062064223 -0.03288226 0.015638612 0.034217287 0.033082157 -0.06869814 0.020003648
0.10182236 -0.2892738 -0.0076195747 -0.045541517 0.19090135 -0.025512787 -0.12250133 -0.23033267
-0.15874135 0.09016372 0.002893571 0.055785142 0.021993397 -0.03323739 -0.0120976325 0.08196776
-0.007807094 -0.018329006 0.07947698 -0.034570385 0.007216498 0.051759273 -0.16474019 -0.035874188
-0.103137106 -0.03229042 -0.018291015 -0.14713036 -0.07942585 -0.15727098 -0.04551293 -0.113047585
-0.16362847 -0.26630268 -0.07772158 -0.32067698 -0.0072743674 -0.026219493 0.020989457 -0.040347636
00000000: a7b5 b03e a022 8d3e 9e92 2c3e 64a7 8d3e
00000010: 0940 c13c dbe7 953e 892f cd3d 88e8 9b3c
00000020: ece5 383e 69d7 1ebc 0dc6 333d cdf2 f63c
00000030: 5238 b7bc fade 55bd 9bf5 473a 10f1 cbbb
00000040: 7884 903c 7223 a53c e39a 98bd 3550 56bd
00000050: cf0c 20bd 8911 7dbd 0acf 8339 3012 c33c
00000060: 445f 423d b713 04bd 06e1 8cbd 12c1 8e3e
00000070: a665 89be 4cf5 b83e 58ca 9fbe 16a9 c03e
00000080: 7835 6fbe adf8 9b3b 7e6c cdbd cb99 8b3e
00000090: 252a 02bd c863 703d a706 32bd 3367 563c
000000a0: e807 9fbd 3795 38bd d269 d2bb 5770 2a3c
000000b0: 3804 363d 5a39 053c cd15 083d 8b4a 853d
000000c0: 7239 f03c 8996 85bc 70db 3a3c 677f 0f3c
000000d0: c3a9 00bc 2352 ff3c 76ef 83bb 9512 283d
000000e0: 7164 a73b 7883 b43d 6b79 6b3c 8ac8 5abc
000000f0: 67fa 1ebc c1bb 93bc 476b 3e3d ad1d 623c
00000100: 341f 03bd de7e 8dbc 7426 20bd e43e fdbc
00000110: 54e2 8cbc d4f0 febc 4342 a63c a20b db3c
00000120: fdda f6b9 c73f b33c bffd d63c 1164 d53c
00000130: 39d9 f03c 1be2 1a3d cc05 a43d 5a90 003d
00000140: 99cd 7e3d 8f85 cbbc 650c ca3d 34aa 0cbd
00000150: 3f90 2b3c de2b adbd 1f39 863b 7294 353d
00000160: 54c6 1e3e bb54 b83d 643f febd b3d4 6fbd
00000170: 1fe7 05be c9a6 2ebe 76ab 37be 0193 8bbd
00000180: 51b1 e4bd 7125 f8bd dba4 e1bd 6e06 293d
00000190: f1f9 63bb 1dd7 b5bc 60f6 e13c c470 babc
000001a0: e859 8bbc a96d a5bd c432 043c fa1d 9cbd
000001b0: 9d23 4ebe ac34 62bd 376b 8dbe ca43 07be
000001c0: 54b7 25be 15c2 3fbe 9bd9 08be ba21 07be
000001d0: 27ca 30be dcd3 213d 3b6a b03b 1d8f 713d
000001e0: b243 6b3d dfed a83c 270e 9f3c 0e03 123d
000001f0: 5919 03bd 93a8 54bd 7463 cb3d 42c5 cbbb
00000200: 7c81 b1bd 6b16 013e 31ef cfbe 3860 4a3e
00000210: d048 893d ea3e 6c3d a8e9 55bd c666 c8bd
00000220: e6f0 8fbd ad3a b6bb 8d40 29bd 2b53 8c3c
00000230: c4f0 d4bd bc31 9abc 88e5 11bd 3cb1 acbd
00000240: 1f12 3bbd e977 20bb dd26 26be bac3 ffbd
00000250: 48fa 09be 7f1e 9ebd 5009 c5bb 6b9e ed3c
00000260: 804c a43c a7b5 083d ebf2 493c 9b77 87bb
00000270: 7546 653d e378 7c3d f03b dd3c 2791 4dbc
00000280: f210 8c3c 6d74 e63c 58b2 03be 3945 3cbe
00000290: c4fe 0cbe 08db ccbd 70d9 b1be ce0a a2bd
000002a0: cbbf 53be f82c 13be 2caa 4abe 6a1f 553d
000002b0: 69dc 833d 1bb1 843d a2d4 9c3d efcf 433d
000002c0: 8f90 27bd 3b2a b33c 3a63 503d 737a 323d
000002d0: 124e e6bb 3cc0 acbc 6e5b 3e3d 3520 c23d
000002e0: eeb1 013d 5f18 9f3c 1e6d 1dbc 6dfc 553d
000002f0: 4b63 b13d bcf3 05bc ce3a 7f3d 81a3 673d
00000300: 7ca1 973d a27d 393d bd36 113c e982 883d
00000310: b2a0 d0bc 8db7 823d 5fba 333e 2f6b bb3d
00000320: e861 3c3d 034a 8f3d d614 eebd 2e43 943e
00000330: 04cd a23b 059c e73d 7284 273d 28f0 4a3d
00000340: 181a 363d 0e37 7ebd 8caf 06bd 8c1c 803c
00000350: 6d27 0c3d 2881 073d 9cb1 8cbd b1de a33c
00000360: 3e88 d03d b21b 94be a0ad f9bb be89 3abd
00000370: a57b 433e 3100 d1bc fae1 fabd 54dc 6bbe
00000380: 188d 22be c2a7 b83d 11a2 3d3b f67e 643d
00000390: 7f2b b43c ee23 08bd 2635 46bc b7de a73d
000003a0: a7d2 ffbb b626 96bc d4c4 a23d ad99 0dbd
000003b0: 5f78 ec3b 8801 543d a7b1 28be d0f0 12bd
000003c0: 8c39 d3bd f642 04bd 0ad7 95bc 57a9 16be
000003d0: 05aa a2bd a50b 21be c46b 3abd 7e85 e7bd
000003e0: 398e 27be d358 88be 7e2c 9fbd c62f a4be
000003f0: d15d eebb 43ca d6bc 15f2 ab3c 9043 25bd

layers.0.conv1.attention1.0.bias f4 [9]
-0.1659819 0.06395499 0.13580416 0.35618114 0.13574594 0.20802867 0.21667658 -0.19003592
-0.13113098
00000000: 29f7 29be d5fa 823d 3f10 0b3e 605d b63e
00000010: fc00 0b3e 7805 553e 77e0 5d3e c798 42be
00000020: 3347 06be

layers.0.conv1.attention1.2.weight f4 [9, 9, 1, 1]
0.041361134 -0.024623422 -0.01275431 -0.24638379 -0.02741095 0.19238906 -0.2369747 0.2142735
0.020501686 -0.38643482 0.62061775 0.27824005 0.37992626 0.36770308 0.38587445 0.062157553
-0.5323209 -0.6845099 -0.09944363 0.052182518 -0.037578568 -0.25786042 0.4374436 -0.18113631
-0.2537501 -0.07821754 0.4243911 -0.3449971 -0.49629393 -1.1427531 0.42895088 0.26668185
-0.20404041 0.22769393 -0.34379125 0.506043 0.17828043 0.2821295 0.07864285 -0.35111958
0.5324194 -0.012557521 -0.48298922 0.12331379 -0.64496416 -0.10812632 -0.38088122 -0.4114735
0.27290165 -0.62531817 0.46007967 0.41672754 0.029655308 -0.28549385 -0.15002607 -0.35931116
-0.16404825 0.3925826 -0.17763242 0.25918567 0.45523855 -0.43475363 -0.5483791 0.28909642
0.12506942 -0.096886925 -0.049367152 0.05071725 0.1286932 -0.43744212 -0.23138794 -0.04381087
-0.25687397 0.1601976 0.6235331 0.255113 0.65267825 -0.028424107 0.13814798 -0.46465972
-0.46342364
00000000: 4b6a 293d 0fb7 c9bc 74f7 50bc 084c 7cbe
00000010: ee8c e0bc a301 453e 7fa9 72be 836a 5b3e
00000020: 27f3 a73c c9da c5be cee0 1e3f 7b75 8e3e
00000030: b285 c23e 9443 bc3e 5691 c53e eb98 7e3d
00000040: 2f46 08bf 0a3c 2fbf 1aa9 cbbd 56bd 553d
00000050: fceb 19bd 4806 84be 9cf8 df3e cc7b 39be
00000060: 88eb 81be 8530 a0bd ca49 d93e 76a3 b0be
00000070: 3d1a febe bc45 92bf 739f db3e 868a 883e
00000080: f8ef 50be 9928 693e 6805 b0be 098c 013f
00000090: 258f 363e 4773 903e 810f a13d f2c5 b3be
000000a0: a34c 083f 10be 4dbc 5d4a f7be f18b fc3d
000000b0: 5f1c 25bf 5571 ddbd dd02 c3be a8ac d2be
000000c0: c4b9 8b3e da14 20bf 908f eb3e 505d d53e
000000d0: b0ef f23c 402c 92be 6fa0 19be a2f7 b7be
000000e0: 44fc 27be 9600 c93e 46e5 35be fcb3 843e
000000f0: 0715 e93e 0798 debe 9362 0cbf 7204 943e
00000100: 3312 003e a76c c6bd 3635 4abd e4bc 4f3d
00000110: 26c8 033e 6af8 dfbe f6f0 6cbe 0773 33bd
00000120: fc84 83be d70a 243e de9f 1f3f 2c9e 823e
00000130: ec15 273f acd9 e8bc aa76 0d3e e1e7 edbe
00000140: dd45 edbe

layers.0.conv1.attention1.2.bias f4 [9]
0.009177805 -0.20819658 -0.008769693 0.60719913 0.03506754 0.38077572 0.019175379 -0.39166614
0.25200844
00000000: 815e 163c 7c31 55be c2ae 0fbc 6771 1b3f
00000010: fba2 0f3d 09f5 c23e af15 9d3c 7788 c8be
00000020: 4007 813e

layers.0.conv1.attention1.4.weight f4 [9, 9, 1, 1]
0.039458524 -0.4854425 0.30797926 0.5696416 0.43356222 -0.44425052 -0.1920215 0.42777497
-0.1415529 0.03300375 -0.36516383 -0.36312675 -0.1004702 -0.10061235 -0.2325597 0.22146814
-0.11983271 -0.05591317 0.13441253 0.024510797 -0.043850776 -0.33139336 0.22283296 -0.067118436
-0.16561313 -0.028793538 -0.23972932 -0.1207015 -0.49396357 0.20407033 0.32900998 0.18029982
0.38936737 -0.023058297 -0.13372774 -0.73318654 -0.2306828 0.47212073 -0.7131443 1.3349108
-1.4577647 1.224808 1.1612151 -0.9889914 0.42513597 -0.020735893 -0.45384234 0.19561541
0.23692337 -0.5669812 0.044394948 -0.046623882 -0.22212732 -0.3410904 0.1664118 -0.63652796
0.4221784 -0.5565337 -0.0021221703 0.007707216 -0.14879334 -0.20642535 -0.38761145 -0.08423021
-0.20314369 -0.2787836 0.21065745 -0.18788703 0.092500225 0.2330735 0.053727206 -0.1876828
0.3530064 -0.055146556 -0.12173713 0.3470732 0.22969075 -0.44359466 -0.09763151 0.33230382
-0.28071386
00000000: 439f 213d eb8b f8be 75af 9d3e 08d4 113f
00000010: defb dd3e ce74 e3be 49a1 44be 5205 db3e
00000020: 3ef3 10be f12e 073d c1f6 babe c0eb b9be
00000030: 52c3 cdbd d90d cebd 2124 6ebe 8bc8 623e
00000040: da6a f5bd 3505 65bd 70a3 093e deca c83c
00000050: df9c 33bd 64ac a9be 532e 643e 6475 89bd
00000060: 7d96 29be 6de0 ebbc 9a7b 75be 5932 f7bd
00000070: cbe8 fcbe d0f7 503e ff73 a83e 84a0 383e
00000080: 295b c73e c1e4 bcbc edef 08be 1db2 3bbf
00000090: 1d38 6cbe cfb9 f13e a090 36bf 5bde aa3f
000000a0: 0998 babf 82c6 9c3f b2a2 943f 8a2e 7dbf
000000b0: 6cab d93e 52de a9bc 065e e8be 684f 483e
000000c0: 0a9c 723e ae25 11bf 7ad7 353d aff8 3ebd
000000d0: 5875 63be 67a3 aebe db67 2a3e 7ff3 22bf
000000e0: c427 d83e fe78 0ebf 1c14 0bbb d08c fc3b
000000f0: 485d 18be 2b61 53be 0275 c6be e380 acbd
00000100: e604 50be b9bc 8ebe 96b6 573e 7565 40be
00000110: c270 bd3d d2aa 6e3e 0f11 5c3d ec2f 40be
00000120: 41bd b43e 5be1 61bd 5151 f9bd 94b3 b13e
00000130: 0d34 6b3e d71e e3be 07f3 c7bd ba23 aa3e
00000140: bab9 8fbe

layers.0.conv1.attention1.4.bias f4 [9]
-0.32615814 0.24645154 -0.25758582 -0.0074800677 0.6996711 -0.03245109 0.20852429 0.09719545
-0.52864444
00000000: 33fe a6be cb5d 7c3e 4ae2 83be 5b1b f5bb
00000010: a51d 333f 6feb 04bd 6487 553e 680e c73d
00000020: 3e55 07bf
