pannet/900.pth (torch, 322671 bytes, 20 tensors)

conv0.weight f4 [32, 9, 3, 3]
0.2797768 0.0780998 -0.23514338 0.27043182 0.19662035 -0.29630354 0.04334303 -0.21481414
-0.077044174 -0.10392467 -0.112589516 0.09942228 0.25245675 -0.24211122 0.12288348 0.02553547
0.0918004 0.012885496 -0.08244731 0.087801784 -0.013722326 -0.20232506 -0.14808944 0.036120974
0.045514017 -0.007662286 0.19819722 0.15128365 -0.12887216 -0.0258532 0.22946633 -0.041504595
-0.07763029 0.19135481 -0.13275227 0.0002199144 -0.033564318 0.013655612 0.20421712 -0.3480121
-0.12960172 0.0010729018 0.012796432 -0.016758166 -0.00061781326 -0.17014715 -0.035683732 0.06460543
-0.13865955 0.03914481 0.032389376 0.18552065 0.08296325 0.0072509516 -0.052982733 -0.040404566
0.05074415 0.0034502852 0.14965065 0.02545002 -0.1685634 0.053909034 -0.059501633 0.079483755
0.025965218 -0.11528869 0.038004767 0.1685282 -0.034769695 -0.08547038 0.17498371 -0.07402865
0.876937 0.05269877 0.9716916 0.66209376 -0.20546803 -0.23843822 0.7697494 0.38038155
0.8906441 0.49254438 0.004406884 0.1401957 -0.5250586 -0.5010841 -0.018168032 0.073085465
0.0554018 0.3363685 0.6351527 -0.35391423 -0.10891132 -0.031247672 -0.73147184 -0.3377237
0.4446073 -0.37146422 -0.061776828 0.276927 -0.19914202 0.05659155 -0.010774851 -0.20436275
0.049873646 0.10002818 -0.3233637 0.24329825 0.0064477236 0.111977264 -0.48940268 0.24618234
0.39715335 -0.18619557 0.14894593 0.17347305 -0.14926898 -0.6312548 0.38499779 0.074206285
-0.42646453 0.35296994 0.3413895 -0.13442464 0.22515316 0.11668953 0.058846947 0.22070941
-0.069199495 0.31131798 0.5285183 0.12415075 -0.21038646 0.21485637 -0.049613696 -0.27907857
-0.22022341 0.087784976 0.052361492 -0.29265687 -0.047623836 0.09070082 -0.393396 -0.132801
0.057070322 0.18756111 0.061841592 -0.37296683 -0.28775725 0.1053492 0.21379285 0.07903686
0.3347502 0.061690114 -0.15277134 0.031927988 -0.16605598 0.27391332 -0.05546606 0.103174746
-0.18499486 0.087692514 -0.1920812 -0.14027826 -0.4418446 -0.16254777 0.18498965 -0.22222479
0.035644803 0.19662367 -0.37570703 -0.37794137 -0.24572015 0.30847317 -0.25225434 -0.28426045
0.28177792 -0.09516499 0.0023443908 0.08545924 -0.058677565 -0.3353075 -0.035509516 0.23198482
0.3276627 0.15994236 0.16732603 -0.07897756 -0.003844897 0.765479 0.7336021 -0.014038539
0.6061873 0.46819395 -0.28429276 0.014116352 -0.0012467183 -0.3684235 -0.2622921 -0.3579034
0.14827515 -0.30415612 -0.32269952 -0.115188144 -0.13726959 -0.31440464 0.37620854 -0.5272828
-0.28386888 0.025274213 -0.29583198 -0.16895704 -0.033371568 0.06900385 0.20899881 0.1550714
0.19984463 0.34197843 -0.36156896 0.5615879 0.9627483 -0.22894615 -0.024883969 0.48456022
-0.40386087 0.28754133 -0.41815066 0.4569491 -1.0003953 -1.2853055 0.37229407 -0.17062646
-0.61131406 0.5835851 0.22352384 -0.3836901 0.28294322 -0.29109445 0.7659112 -0.36734796
0.24295823 -0.35521385 0.26884428 -0.11221427 0.7240747 -0.074208 0.6489188 1.8849081
0.92182124 -0.62045574 0.47044402 -0.107587196 -0.6008526 -0.035998676 -0.44090706 0.12150351
00000000: e83e 8f3e caf2 9f3d 6dc9 70be 0a76 8a3e
00000010: d856 493e 19b5 97be 7688 313d 3df8 5bbe
00000020: 56c9 9dbd 75d6 d4bd 5595 e6bd e99d cb3d
00000030: 0342 813e 01ec 77be 55aa fb3d c32f d13c
00000040: d901 bc3d b01d 533c 23da a8bd 6cd1 b33d
00000050: 9bd3 60bc 4d2e 4fbe c2a4 17be 96f3 133d
00000060: e86c 3a3d ea13 fbbb 36f4 4a3e 1aea 1a3e
00000070: 10f7 03be 17ca d3bc 39f9 6a3e b900 2abd
00000080: a1fc 9ebd 84f2 433e 36f0 07be d298 6639
00000090: bd7a 09bd cabb 5f3c 4b1e 513e a42e b2be
000000a0: 50b6 04be 9ca0 8c3a 20a8 513c 6c48 89bc
000000b0: bff4 21ba 0e3b 2ebe 1b29 12bd da4f 843d
000000c0: c5fc 0dbe 4f56 203d b9aa 043d 20f9 3d3e
000000d0: a3e8 a93d 6499 ed3b 6c04 59bd 427f 25bd
000000e0: 19d9 4f3d 2e1e 623b 053e 193e 8f7c d03c
000000f0: e29b 2cbe b8cf 5c3d fcb7 73bd 61c8 a23d
00000100: 02b5 d43c 7a1c ecbd e3aa 1b3d a892 2c3e
00000110: ab6a 0ebd 180b afbd ee2e 333e 559c 97bd
00000120: f17e 603f aada 573d c8c0 783f fa7e 293f
00000130: 3666 52be 2629 74be 4c0e 453f 5fc1 c23e
00000140: 4001 643f c72e fc3e 9f67 903b 768f 0f3e
00000150: 3e6a 06bf 0c47 00bf 20d5 94bc d5ad 953d
00000160: ffec 623d 7e38 ac3e 5e99 223f 3f34 b5be
00000170: e60c dfbd 1efb ffbc bd41 3bbf 1fea acbe
00000180: 91a3 e33e 8f30 bebe b309 7dbd 60c9 8d3e
00000190: e3eb 4bbe 8bcc 673d 0089 30bc 7844 51be
000001a0: 4f48 4c3d 93db cc3d ed8f a5be 2d23 793e
000001b0: 6d47 d33b 5654 e53d fd92 fabe 3917 7c3e
000001c0: af57 cb3e 0daa 3ebe 4885 183e eba2 313e
000001d0: f8d9 18be ea99 21bf 6e1e c53e 77f9 973d
000001e0: 8f59 dabe 7ab8 b43e 9bca ae3e 9da6 09be
000001f0: 8d8e 663e ecfa ee3d 7f09 713d a601 623e
00000200: 77b8 8dbd 1265 9f3e fa4c 073f c042 fe3d
00000210: 8c6f 57be 4f03 5c3e bb37 4bbd 63e3 8ebe
00000220: 3f82 61be 9cc8 b33d 0179 563d 1fd7 95be
00000230: 3611 43bd 5ac1 b93d 336b c9be fcfc 07be
00000240: 92c2 693d 0510 403e 9c4d 7d3d 82f5 bebe
00000250: eb54 93be 52c1 d73d 83ec 5a3e 14de a13d
00000260: 6164 ab3e c6ae 7c3d 1770 1cbe ecc6 023d
00000270: 940a 2abe 5e3e 8c3e 6130 63bd 484d d33d
00000280: 4b6f 3dbe 2298 b33d efb0 44be 1ba5 0fbe
00000290: 7539 e2be ec72 26be ed6d 3d3e e58e 63be
000002a0: 4900 123d b757 493e ac5c c0be 8881 c1be
000002b0: 109e 7bbe 32f0 9d3e 7b27 81be 968a 91be
000002c0: 3245 903e dde5 c2bd 5aa4 193b 4105 af3d
000002d0: e357 70bd 6dad abbe 6d72 11bd 6e8d 6d3e
000002e0: 68c3 a73e eec7 233e 8457 2b3e fdbe a1bd
000002f0: abfa 7bbb 6ff6 433f 59cd 3b3f e601 66bc
00000300: 172f 1b3f 1eb7 ef3e d28e 91be 4648 673c
00000310: ed68 a3ba 01a2 bcbe 264b 86be 1d3f b7be
00000320: 71d5 173e 5aba 9bbe df38 a5be c3e7 ebbd
00000330: 6690 0cbe a5f9 a0be 689e c03e 01fc 06bf
00000340: 4357 91be de0b cf3c 4a77 97be 1303 2dbe
00000350: a0b0 08bd e451 8d3d c903 563e 09cb 1e3e
00000360: 12a4 4c3e cc17 af3e 911f b9be 3ac4 0f3f
00000370: ac76 763f dc70 6abe 77d9 cbbc 4718 f83e
00000380: dac6 cebe 9e38 933e d817 d6be 3cf5 e93e
00000390: f40c 80bf e484 a4bf 549d be3e b4b8 2ebe
000003a0: 147f 1cbf d565 153f 6fe3 643e 0773 c4be
000003b0: efdd 903e 550a 95be c212 443f 0815 bcbe
000003c0: 0bca 783e 97de b5be f5a5 893e 98d0 e5bd
000003d0: f65c 393f 5dfa 97bd 8b1f 263f ab44 f13f
000003e0: 7afc 6b3f 30d6 1ebf 0ade f03e ad56 dcbd
000003f0: 7ad1 19bf 5973 13bd 92be e1be d5d6 f83d

conv0.bias f4 [32]
0.08607752 0.006999191 0.038697403 0.014865123 0.0013963707 -0.0010359193 -0.0023242559 -0.05307995
0.005401591 -0.00062591396 0.0057037375 0.0027437224 0.00012456675 0.008126801 0.0123499315 -0.0016278563
0.04971469 0.0008168037 0.0025128115 -0.00049565296 0.08241896 0.006987404 0.0031399431 -0.0011402805
0.0004906078 0.01435041 0.008922068 0.007220926 -0.00033836893 0.01762821 0.013946987 -0.004135093
00000000: 6949 b03d 7859 e53b 2b81 1e3d d88c 733c
00000010: 6d06 b73a afc7 87ba 8b52 18bb 5d6a 59bd
00000020: d4ff b03b 6014 24ba 6be6 ba3b 06d0 333b
00000030: 229e 0239 4626 053c 5e57 4a3c cb5d d5ba
00000040: a1a1 4b3d c51e 563a fbad 243b b5ee 01ba
00000050: 46cb a83d 98f6 e43b 81c7 4d3b 7775 95ba
00000060: 229c 003a fb1d 6b3c de2d 123c 859d ec3b
00000070: 1c67 b1b9 0969 903c e781 643c ad7f 87bb

conv1.weight f4 [8, 32, 3, 3]
-0.0023451783 0.001793013 0.013905019 -0.0008301759 0.017127959 0.028821867 -0.00431661 0.0032115914
0.008118194 0.0041945893 -0.001703035 -0.0026994334 -0.0039551505 -0.01343361 -0.002777084 -0.0038596329
-0.00012711415 0.0032739579 0.00042162123 -0.0067651733 -0.011801126 0.0027575619 -0.0064301006 -0.0020948758
0.0032683422 0.00870372 0.005878118 0.0017942251 0.0074976822 -0.011450413 0.009964547 0.019810094
-0.012162906 0.00022261983 0.0046500354 -0.009024147 -0.00369532 -0.007955178 0.0022118238 -0.0077129663
-0.017495029 -0.0036495747 0.0016227791 0.0019516206 0.0030714974 -0.0007048454 0.007692526 0.0051385537
-0.0030874028 -0.0013141141 0.004037745 -0.0015668412 -0.0027522093 0.0031718106 -0.002385292 -0.005534904
0.0012234028 -0.0034183122 -0.005622515 0.008460865 0.00017884432 0.0037814265 0.005520226 0.006319502
0.009556213 -0.008635285 0.013495221 0.029044293 -0.01076024 0.00087514706 -0.006733796 -0.008637293
0.0085814865 0.0044766087 -0.0007858859 0.00066271937 -0.009057266 -0.0022261557 -0.0006849883 -0.003680149
0.0016712453 0.0020755436 0.0019175269 0.0045680525 -0.0018804477 -0.006959899 0.0011534577 -0.0018022823
-0.0055353004 -0.0043646633 0.0012218665 0.00068696955 0.009617328 -0.0003634258 -0.0019972231 0.0016995164
-1.9372423e-05 -0.003671102 -0.002551914 0.0072177793 0.0020342928 0.0003602337 -0.005151652 -0.0051847594
-0.0054514166 0.0029060459 0.009158545 0.002509944 -0.0024318465 0.0111586135 0.0003485124 -0.0027218617
0.003764731 -0.00069182174 -0.0043838276 -0.003978301 0.0011108804 0.00065009686 -0.0017813244 -0.0024857777
0.0032973646 -0.0048045404 -0.0028740622 0.0026639681 0.0018368121 -0.00013370588 0.0035611144 0.003412025
-0.0073215 0.0052814623 0.0049189804 -0.014498715 -0.0018398294 0.00093978556 -0.0032507498 0.0031468982
0.010014502 0.0035829945 0.002506592 0.009524373 -0.0007713921 -0.00197655 -0.005886113 -0.0010560037
-0.017438589 -0.02210249 0.015795263 -0.020533388 -0.037938084 0.020398673 0.013777056 0.019062387
0.011801185 -0.002549179 0.0006287537 -0.0016488003 -0.0025917215 -0.0013952083 -0.001969111 0.0009189373
0.0042411974 0.0027174084 0.004522964 0.0045550484 -0.0008482782 -0.0010402114 -0.0008243005 0.0016232167
-0.0041771145 -0.008972018 -0.0030632918 -0.0023681903 -0.00990278 -0.0025626314 0.0002851144 -0.012267002
-0.0060026874 0.008006591 0.00743735 0.005813116 -0.0022987912 0.0016103041 -0.0027090746 0.0012012667
0.0010510709 -0.001886249 -0.005203971 -0.0036611739 0.0036075718 -0.0013129171 -0.00012654283 0.0020077105
0.005356222 -0.00020824424 4.7272806e-05 0.0041890726 6.8424364e-05 -0.0016557779 -0.0036416522 0.001850146
-0.0012570499 -0.0009448698 0.0077365553 -0.00036616676 -0.0036971662 7.377134e-05 -0.00085403945 -8.844924e-06
-0.0011776646 -0.00090121274 -0.0024603733 0.0065018185 0.0058793807 0.0012205325 0.003370792 0.007075027
-0.0029368042 -0.010069307 -0.0057995385 0.007101607 0.015805475 0.0034095065 0.0056054327 0.011735435
-0.004339402 -0.0033391935 -0.013813521 -0.01551861 0.009432269 0.025036104 -0.006584217 0.005611147
0.01715136 0.00051143125 0.004788107 0.013830533 -0.0006761749 -0.000821753 0.0027941477 -0.0024143346
-0.0056720097 -0.006995285 -0.0050296965 0.0058977427 0.005483419 -0.003006003 0.0012406879 -0.004126306
-0.0020842226 -0.0072844294 -0.013077994 -0.0057173357 0.0012729268 -0.00023994135 0.0043329694 0.0057859607
00000000: 90b1 19bb 8803 eb3a e0d1 633c 29a0 59ba
00000010: ef4f 8c3c d61b ec3c 5972 8dbb 9079 523b
00000020: 2c02 053c c472 893b 5f38 dfba fae8 30bb
00000030: 359a 81bb a518 5cbc bdff 35bb e5f1 7cbb
00000040: f249 05b9 e68f 563b 0b0d dd39 63ae ddbb
00000050: 8359 41bc 36b8 343b 98b3 d2bb 2f4a 09bb
00000060: af31 563b 0c9a 0e3c 3a9d c03b 342c eb3a
00000070: 1eaf f53b 839a 3bbc 5742 233c c748 a23c
00000080: ed46 47bc 0e6f 6939 535f 983b 04da 13bc
00000090: 2f2d 72bb 6f56 02bc 3ff4 103b 0dbd fcbb
000000a0: bc51 8fbc b42d 6fbb 6eb3 d43a 85cd ff3a
000000b0: 2d4b 493b 60c5 38ba 9611 fc3b 5061 a83b
000000c0: 0656 4abb 5a3e acba 0f4f 843b 775e cdba
000000d0: 695e 34bb 27de 4f3b 8f52 1cbb 245e b5bb
000000e0: 965a a03a c305 60bb 133d b8bb 719f 0a3c
000000f0: 2888 3b39 cfd1 773b 03e3 b43b d313 cf3b
00000100: aa91 1c3c 037b 0dbc 0f1b 5d3c 4cee ed3c
00000110: b84b 30bc 206a 653a 2da7 dcbb 6f83 0dbc
00000120: 5d99 0c3c 84b0 923b e903 4eba 58ba 2d3a
00000130: ed64 14bc b2e4 11bb c990 33ba a82e 71bb
00000140: b00d db3a d805 083b 8755 fb3a 9aaf 953b
00000150: 5b79 f6ba dd0f e4bb 9e2f 973a 8f3a ecba
00000160: 7761 b5bb 7305 8fbb 0927 a03a bf15 343a
00000170: ff91 1d3c 2f8a beb9 d8e3 02bb 4fc2 de3a
00000180: f681 a2b7 df96 70bb 033e 27bb 1f83 ec3b
00000190: c551 053b c0dd bc39 30cf a8bb eae4 a9bb
000001a0: cca1 b2bb 5c73 3e3b b90d 163c df7d 243b
000001b0: 9d5f 1fbb 9ed2 363c 8bb8 b639 4361 32bb
000001c0: b5b9 763b 5f5b 35ba 36a6 8fbb 685c 82bb
000001d0: f69a 913a 436b 2a3a 547b e9ba 6ee8 22bb
000001e0: 9918 583b 686f 9dbb c35a 3cbb f895 2e3b
000001f0: 30c1 f03a 6633 0cb9 9661 693b 489c 5f3b
00000200: 32e9 efbb 1e10 ad3b 662f a13b 058c 6dbc
00000210: 6e26 f1ba f15b 763a 880a 55bb 313c 4e3b
00000220: de13 243c acd0 6a3b a345 243b 1e0c 1c3c
00000230: 3f37 4aba 0289 01bb 4be0 c0bb 9b69 8aba
00000240: 5fdb 8ebc 4810 b5bc 1165 813c a335 a8bc
00000250: f764 1bbd 1e1b a73c 29b9 613c b928 9c3c
00000260: c259 413c 2010 27bb f2d2 243a 8f1c d8ba
00000270: dfd9 29bb 6cdf b6ba 330c 01bb d7e4 703a
00000280: bef9 8a3b 8c16 323b 5f35 943b 8442 953b
00000290: fd5e 5eba b457 88ba df15 58ba 1dc2 d43a
000002a0: 2de0 88bb 5fff 12bc 82c1 48bb a433 1bbb
000002b0: 453f 22bc d2f1 27bb 687b 9539 89fb 48bc
000002c0: 31b2 c4bb 142e 033c 04b5 f33b f47b be3b
000002d0: 51a7 16bb d710 d33a bb8a 31bb d273 9d3a
000002e0: 16c4 893a 043c f7ba 1386 aabb 4ef0 6fbb
000002f0: 036d 6c3b 3016 acba 95b0 04b9 cb93 033b
00000300: 3f83 af3b 235c 5ab9 ca46 4638 7d44 893b
00000310: 0d7f 8f38 b006 d9ba c9a8 6ebb 9980 f23a
00000320: 98c3 a4ba 24b1 77ba ee82 fd3b 12fa bfb9
00000330: 284c 72bb b0b5 9a38 9ee1 5fba a964 14b7
00000340: de5b 9aba 5d3f 6cba 373e 21bb 350d d53b
00000350: d2a7 c03b 46fa 9f3a 81e8 5c3b a1d5 e73b
00000360: 6677 40bb bcf9 24bc 0e0a bebb 99b4 e83b
00000370: 7c7a 813c 0772 5f3b c7ad b73b fb45 403c
00000380: 8b31 8ebb 5fd6 5abb 1b52 62bc c541 7ebc
00000390: ce89 1a3c 8418 cd3c 6ac0 d7bb b6dd b73b
000003a0: 0281 8c3c 9211 063a 8de5 9c3b 7699 623c
000003b0: 5441 31ba e96a 57ba 051e 373b d039 1ebb
000003c0: 44dc b9bb b438 e5bb 27d0 a4bb da41 c13b
000003d0: 41ae b33b 5d00 45bb 949e a23a f735 87bb
000003e0: 7497 08bb 39b2 eebb 1545 56bc 7d58 bbbb
000003f0: 56d8 a63a c498 7bb9 95fb 8d3b 2898 bd3b

conv1.bias f4 [8]
-0.00054347405 -0.00045552535 -0.00031206108 -0.00050825527 -0.00081665086 -0.00056725583 -0.00031657075 -0.0005863059
00000000: ed77 0eba 94d3 eeb9 219c a3b9 6f3c 05ba
00000010: 8314 56ba e5b3 14ba 68f9 a5b9 53b2 19ba

layers.0.conv20.weight f4 [32, 32, 3, 3]
-0.17857209 0.34973347 -0.5419296 -0.04085553 0.09459024 -0.22386058 -0.11725404 -0.832915
-0.08239891 -0.020384414 0.5580787 0.097168446 0.4752129 0.075461246 -0.22853823 -0.2320726
0.21718918 -0.21185884 0.6599785 -0.41927594 0.04618357 -0.10553216 -0.50726426 -0.5045361
0.9766504 0.20305052 -0.019058598 -0.39817256 -0.46032235 -0.4223126 -0.16192666 0.14395614
0.15517762 -0.049983855 0.12878041 0.13796537 0.054537866 -0.0717303 0.14699446 0.68905187
-0.40340573 -0.21232137 0.30847207 -0.071627505 -0.67522395 -0.6003635 0.7506937 0.38864923
0.15506366 0.07048797 -0.85050035 0.16404729 0.7834604 0.28725576 -0.33086196 -0.20961916
-0.3416776 -0.07892779 0.26812562 -0.39477265 0.19606227 0.16966343 0.16007555 -0.24796571
0.4938853 -0.13779119 -0.049004972 0.032211408 0.2956613 0.057755083 0.068031155 -0.2329646
0.34638333 0.3212002 -0.050957356 0.33434567 0.16138923 -0.31490025 -0.2967773 0.061807785
-0.03410097 -0.23885317 0.3407463 -0.2211189 0.5602644 -0.1343582 -0.35766125 -0.009373257
-0.4734429 -0.1853943 -0.15405361 -0.7568821 -0.15278316 0.20502362 0.022120899 0.57829297
0.39653718 -0.45187962 -0.36616486 0.56195426 -1.1271713 -0.013584199 0.5758774 -0.23626335
-0.22503516 -0.113453135 -0.47710153 -0.3320051 0.2570351 0.14698678 -0.33060783 -0.4662616
-0.47301787 -0.10369989 -0.60846967 0.09269991 -0.018601594 0.22495335 0.10032897 0.4194298
0.04975877 0.42970812 -0.07432898 0.10287075 -0.5514313 -0.20128395 -0.36555487 0.105074376
-1.7912949 0.72477335 -0.149697 -0.83845794 0.47010377 -0.018923463 0.11860687 -0.47921714
-0.13093719 0.40979663 0.30359977 -0.05251724 -0.19757782 0.016005175 -0.1286806 -0.36064914
0.09608712 -0.16172169 -0.018734902 0.010025833 0.15479027 -0.2647283 0.079768755 -0.3814472
-0.17807218 -0.1335306 -0.8535917 0.47842064 -0.0058073066 0.15769468 0.6239468 -0.037758626
0.44077134 0.07218215 0.22715332 -0.08893349 0.073111296 0.30628687 0.012778422 -0.13327156
-0.06326743 0.0019546142 -0.1334168 0.20656909 -0.18848619 0.29160967 -0.31382012 -0.21194395
0.38089892 -0.12780544 -0.9490439 -0.8572274 -0.5113382 -0.40816694 0.3311396 0.18205251
-0.6402521 0.16223995 0.071594864 0.3964247 0.12500845 -0.4047263 -0.16458294 0.4403559
-0.8268653 -0.46642053 0.07844887 0.47192737 0.94526845 1.0214343 0.10622443 0.08029122
-0.6199283 -0.42782032 -0.25786665 0.031114195 0.39900765 0.024911238 0.26391423 0.08540848
0.14935708 -0.15282696 -0.051921967 0.04371402 -0.41471404 0.19638272 0.091317 0.5340496
0.012967446 -0.7075625 0.42131218 -0.65954995 -0.24064592 -0.04724308 -0.49408558 0.08820826
-0.10975967 -0.1752639 0.15201129 -0.65032655 0.023233142 0.044299476 -0.4880185 0.55762994
-0.8081373 0.2340937 0.48429587 0.0716163 0.049469195 -0.77273196 -0.5398503 0.36366248
-0.7498297 -0.60953265 0.3811643 -0.3150265 -0.022565693 -0.41432536 0.31088758 -0.2682415
-0.1128096 -0.18369636 0.26517463 0.15930071 -0.27545366 -0.14635874 0.18918335 -0.113862224
00000000: 9adb 36be 4410 b33e e6bb 0abf 2158 27bd
00000010: 87b8 c13d b53b 65be e322 f0bd eb39 55bf
00000020: c2c0 a8bd 37fd a6bc 3fde 0e3f 4000 c73d
00000030: 1b4f f33e 6d8b 9a3d ed05 6abe 71a4 6dbe
00000040: d766 5e3e 86f1 58be 5af4 283f 56ab d6be
00000050: fc2a 3d3d 3f21 d8bd 12dc 01bf 4729 01bf
00000060: c305 7a3f 7aec 4f3e c720 9cbc 46dd cbbe
00000070: 5faf ebbe 5b39 d8be 1ad0 25be 3d69 133e
00000080: e2e6 1e3e dfbb 4cbd 03df 033e cb46 0d3e
00000090: 1963 5f3d 56e7 92bd b785 163e b465 303f
000000a0: 328b cebe c66a 59be 0df0 9d3e 71b1 92bd
000000b0: 7adb 2cbf 6cb1 19bf 762d 403f 08fd c63e
000000c0: 02c9 1e3e ff5b 903d 64ba 59bf 03fc 273e
000000d0: dc90 483f 3013 933e bd66 a9be 68a6 56be
000000e0: 5ef0 aebe e5a4 a1bd c347 893e a41f cabe
000000f0: 8cc4 483e 40bc 2d3e d8ea 233e b9ea 7dbe
00000100: 89de fc3e 2219 0dbe 70b9 48bd 1cf0 033d
00000110: eb60 973e 9890 6c3d eb53 8b3d 468e 6ebe
00000120: 2859 b13e 5a74 a43e a9b8 50bd 5b2f ab3e
00000130: 3843 253e 9b3a a1be 32f3 97be 292a 7d3d
00000140: 75ad 0bbd ed95 74be 4d76 ae3e fe6c 62be
00000150: 7d6d 0f3f 3295 09be 601f b7be 4a92 19bc
00000160: 1c67 f2be 01d8 3dbe 3bc0 1dbe 06c3 41bf
00000170: 3073 1cbe b6f1 513e e336 b53c 020b 143f
00000180: ec06 cb3e c45c e7be f679 bbbe 3cdc 0f3f
00000190: 2647 90bf 4390 5ebc b46c 133f 05ef 71be
000001a0: 9e6f 66be 1e5a e8bd a746 f4be 93fc a9be
000001b0: 1b9a 833e b483 163e 6e45 a9be d7b9 eebe
000001c0: 662f f2be 9c60 d4bd abc4 1bbf 73d9 bd3d
000001d0: 5f62 98bc 2c5a 663e 4679 cd3d 81bf d63e
000001e0: dacf 4b3d b402 dc3e cb39 98bd e6ad d23d
000001f0: 9a2a 0dbf 611d 4ebe 022a bbbe 3c31 d73d
00000200: 2749 e5bf bf8a 393f 2c4a 19be 2ea5 56bf
00000210: 71b1 f03e 6105 9bbc 29e8 f23d f35b f5be
00000220: 6614 06be ddd0 d13e 6e71 9b3e 511c 57bd
00000230: d751 4abe 491d 833c d9c4 03be 01a7 b8be
00000240: 53c9 c43d 5f9a 25be f079 99bc 6443 243c
00000250: 5781 1e3e 788a 87be cd5d a33d 0c4d c3be
00000260: 8e58 36be 3fbc 08be fc84 5abf 8df3 f43e
00000270: 384b bebb b77a 213e faba 1f3f caa8 1abd
00000280: c8ac e13e 3cd4 933d e19a 683e c322 b6bd
00000290: 60bb 953d a2d1 9c3e 965c 513c 5778 08be
000002a0: 5b92 81bd fc18 003b 6a9e 08be d986 533e
000002b0: 8602 41be dd4d 953e 08ad a0be d607 59be
000002c0: 2f05 c33e 6edf 02be 8bf4 72bf 4173 5bbf
000002d0: 0fe7 02bf 42fb d0be 218b a93e f96b 3a3e
000002e0: 90e7 23bf 3b22 263e 54a0 923d 2ef8 ca3e
000002f0: 3702 003e 4938 cfbe 6e88 28be 5476 e13e
00000300: 72ad 53bf acce eebe cda9 a03d 77a0 f13e
00000310: 1dfd 713f 5cbe 823f 328c d93d b96f a43d
00000320: 9fb3 1ebf 440b dbbe 1907 84be 32e3 fe3c
00000330: bb4a cc3e a712 cc3c c41f 873e a4ea ae3d
00000340: 10f1 183e ac7e 1cbe 21ac 54bd 790d 333d
00000350: 6655 d4be 8d18 493e 6804 bb3d 79b7 083f
00000360: 6975 543c d122 35bf 3bb6 d73e 44d8 28bf
00000370: e26b 76be f681 41bd c9f8 fcbe 88a6 b43d
00000380: aec9 e0bd 6178 33be d9a8 1b3e cd7b 26bf
00000390: 6e53 be3c 5e73 353d 90dd f9be d6c0 0e3f
000003a0: 16e2 4ebf 42b6 6f3e a1f5 f73e 91ab 923d
000003b0: 36a0 4a3d c3d1 45bf a133 0abf f831 ba3e
000003c0: d7f4 3fbf 550a 1cbf f827 c33e 274b a1be
000003d0: b0db b8bc 7422 d4be a82c 9f3e f356 89be
000003e0: b808 e7bd e61a 3cbe f8c4 873e ba1f 233e
000003f0: 4308 8dbe 11df 15be 48b9 413e 9930 e9bd

layers.0.conv20.bias f4 [32]
-0.11710796 0.0019866547 0.056515083 0.049807455 0.007908202 0.10312369 -0.033367563 0.00977586
-0.00027304413 0.032742847 0.019801265 -0.1690107 -0.034313247 0.041473594 0.010732357 -0.040441733
-0.18600112 -0.038321696 0.029837003 -0.00937629 0.039643086 0.03694716 -0.02495723 -0.13771187
0.017332854 -0.011533889 -0.015893996 0.03442028 0.053213004 0.047423452 -0.0033019094 0.010909792
00000000: 4cd6 efbd 8932 023b 5c7c 673d e702 4c3d
00000010: 6791 013c 8332 d33d 6dac 08bd ee2a 203c
00000020: 5d27 8fb9 5d1d 063d 4336 a23c 2411 2dbe
00000030: 0c8c 0cbd 37e0 293d c5d6 2f3c 3ba6 25bd
00000040: 1477 3ebe 36f7 1cbd bb6c f43c 039f 19bc
00000050: ca60 223d e855 173d 1b73 ccbc 5704 0dbe
00000060: a1fd 8d3c a3f8 3cbc 2034 82bc 48fc 0c3d
00000070: e1f5 593d 183f 423d d964 58bb fcbe 323c

layers.0.conv21.weight f4 [32, 32, 3, 3]
-0.40844122 0.13260427 0.082800284 0.051167004 -0.07140911 0.37611544 -0.2884859 -0.21123789
-0.056281146 -0.060238145 -0.07102817 0.07039831 0.022785226 -0.036753427 -0.08539681 -0.005526158
0.040579926 0.031621814 0.05149055 -0.07750552 0.023692613 0.0103403935 -0.048189364 0.029885588
-0.061377756 -0.003352978 0.00060333184 0.09965206 0.01971324 0.04789561 -0.02544613 -0.04315959
0.0039283624 0.07340803 -0.116153255 0.011125948 0.061311033 -0.064664304 0.005000268 -0.13218251
-0.20953555 -0.0043446 0.06131786 0.2441095 0.009157754 0.13212991 -0.04862659 0.07349465
0.043194786 -0.074390456 -0.0494998 -0.08667969 0.0045955577 -0.022122614 0.0996858 -0.061141435
0.018314857 0.047288798 -0.11263855 -0.02037482 0.009601266 -0.008023463 0.04663853 -0.10508181
0.04386977 0.11176342 0.053134214 -0.089261144 -0.0695039 -0.0022702988 0.07411077 0.02659987
0.0095317755 0.23558456 -0.07915391 -0.031415198 0.31150368 0.053486533 0.050645288 -0.054174833
-0.054214995 -0.21376932 -0.007140816 0.079616986 0.047128096 -0.25321618 0.088799916 -0.04466291
0.037021488 0.053893656 -0.047822133 -0.046252787 -0.00022932545 0.015530533 0.048166033 -0.01855726
-0.014690895 -0.034172542 -0.0191136 0.2624315 0.017054586 -0.13373362 -0.11630072 -0.13925129
0.040129256 -0.10092386 0.017161809 -0.07074743 0.08792616 -0.06563934 -0.029650839 0.050483063
-0.2924277 0.1647178 -0.1120882 0.08089974 -0.06515004 -0.035559323 -0.051899962 0.0039168973
-0.08538782 0.11521941 0.09129967 0.030035991 -0.110539466 0.03572099 -0.07102193 -0.013594474
-0.027493302 0.026643408 0.01681502 0.046508726 -0.062823094 -0.11141074 0.0393159 -0.287288
0.24010096 -0.19336307 -0.24702531 0.20796846 0.18456106 -0.24279983 0.0019645938 -0.17042027
-0.27939576 0.09328407 -0.03643393 -0.20352805 -0.24862024 0.2959533 -0.012818049 -0.100487106
-0.051874667 -0.093530275 -0.23324545 0.03498454 0.12774658 0.054464415 -0.0387192 -0.046080012
0.009558777 0.048171666 0.06296889 -0.12193409 0.018954087 0.005336364 -0.010955617 0.068719715
0.024106193 -0.04039195 -0.011029297 -0.097586565 -0.20355484 0.03075085 -0.038873516 0.024797058
0.017742435 0.06631664 0.074781425 0.0124272015 -0.002596119 -0.15784109 -0.014990943 0.011986787
-0.0774426 0.071544945 0.044337675 0.03655922 0.00651939 0.075055294 -0.01847902 0.012272219
0.049455043 -0.0377121 -0.07359584 -0.061068725 0.0905928 0.016997922 -0.0072581554 0.05903534
-0.061032195 0.13783179 -0.07183189 -0.004583747 -0.033701222 -0.089285724 0.03327377 -0.1924321
-0.17883825 0.030685218 -0.1939075 0.001877108 -0.095193654 -0.03654454 0.03218017 0.016670408
-0.047203533 0.044756606 0.028607916 0.08734098 0.1592512 -0.07827042 -0.08117231 -0.018984878
0.0055168015 -0.05846716 0.031412695 -0.02982435 -0.054872874 0.07231887 -0.102569334 0.019138163
-0.005789853 0.021085288 -0.13041721 -0.06641912 0.075179964 -0.06563216 -0.109723665 0.020524519
-0.07081184 -0.0020909014 0.027014446 -0.029027302 0.048032165 -0.026414404 0.031339195 -0.11724872
0.0001437756 -0.022615837 0.096077986 -0.0040659243 -0.022598837 -0.036556777 -0.040681817 0.027885584
00000000: 351f d1be 6ac9 073e 3293 a93d 7e94 513d
00000010: f13e 92bd 3492 c03e 6db4 93be bf4e 58be
00000020: 0f87 66bd 46bc 76bd 3877 91bd fd2c 903d
00000030: 15a8 ba3c c38a 16bd 86e4 aebd c614 b5bb
00000040: 2337 263d e085 013d c1e7 523d 37bb 9ebd
00000050: 0317 c23c c16a 293c 3662 45bd 9fd2 f43c
00000060: 3e67 7bbd a3bd 5bbb ea28 1e3a 6116 cc3d
00000070: a97d a13c 302e 443d 6774 d0bc 1cc8 30bd
00000080: 7eb9 803b f356 963d c2e1 edbd 9c49 363c
00000090: 4721 7b3d b86e 84bd 4ad9 a33b da5a 07be
000000a0: 7d90 56be 255d 8ebb 7028 7b3d d7f7 793e
000000b0: 670a 163c 104d 073e ad2c 47bd 5d84 963d
000000c0: 04ed 303d 065a 98bd 4dc0 4abd 1f85 b1bd
000000d0: 5596 963b 7c3a b5bc 1228 cc3d 716f 7abd
000000e0: 0a09 963c e6b1 413d 0aaf e6bd 18e9 a6bc
000000f0: a14e 1d3c d874 03bc 0b08 3f3d 2235 d7bd
00000100: cab0 333d 38e4 e43d 43a3 593d 8cce b6bd
00000110: 1058 8ebd 4bc9 14bb 63c7 973d f8e7 d93c
00000120: 2a2b 1c3c 143d 713e 721b a2bd 39ad 00bd
00000130: 697d 9f3e b214 5b3d 6f71 4f3d 6ee6 5dbd
00000140: 8b10 5ebd 58e6 5abe 82fd e9bb 3b0e a33d
00000150: 6409 413d 8da5 81be bbdc b53d 75f0 36bd
00000160: d8a3 173d 98bf 5c3d 24e1 43bd 9073 3dbd
00000170: 1577 70b9 c773 7e3c bf49 453d 6505 98bc
00000180: 14b2 70bc 82f8 0bbd 2094 9cbc 6c5d 863e
00000190: 0fb6 8b3c 77f1 08be 122f eebd e497 0ebe
000001a0: 935e 243d 2bb1 cebd ec96 8c3c 07e4 90bd
000001b0: a112 b43d eb6d 86bd 51e6 f2bc 54c7 4e3d
000001c0: 15b9 95be c8ab 283e 808e e5bd c3ae a53d
000001d0: 626d 85bd a7a6 11bd 0e95 54bd 5159 803b
000001e0: cfdf aebd 27f8 eb3d 52fb ba3d 0a0e f63c
000001f0: 8462 e2bd 2c50 123d f273 91bd 5bbb 5ebc
00000200: a239 e1bc 4743 da3c a7bf 893c ef7f 3e3d
00000210: 65a9 80bd 502b e4bd b609 213d 6a17 93be
00000220: 07dd 753e f800 46be 34f4 7cbe aff5 543e
00000230: 93fd 3c3e 85a0 78be 6ac0 003b a782 2ebe
00000240: f60c 8fbe b80b bf3d bf3b 15bd a869 50be
00000250: 4e96 7ebe 3187 973e cb02 52bc 2fcc cdbd
00000260: 887a 54bd cd8c bfbd e5d7 6ebe f34b 0f3d
00000270: 00d0 023e 1416 5f3d 0698 1ebd 65be 3cbd
00000280: 6b9c 1c3c a74f 453d d5f5 803d 95b8 f9bd
00000290: 9a45 9b3c aadc ae3b 307f 33bc ecbc 8c3d
000002a0: 5a7a c53c 0872 25bd 39b4 34bc 77db c7bd
000002b0: ae70 50be 35e9 fb3c d639 1fbd 3323 cb3c
000002c0: 9558 913c 05d1 873d 0127 993d 769b 4b3c
000002d0: a623 2abb 18a1 21be 929c 75bc 3b64 443c
000002e0: 3a9a 9ebd 2886 923d 6c9b 353d 1fbf 153d
000002f0: 9ba0 d53b 97b6 993d 5061 97bc 6b11 493c
00000300: 5f91 4a3d 0178 1abd 6ab9 96bd 3323 7abd
00000310: b888 b93d 3a3f 8b3c d2d5 edbb 0acf 713d
00000320: e5fc 79bd c723 0d3e 991c 93bd 4233 96bb
00000330: 4b0a 0abd 6fdb b6bd 144a 083d ec0c 45be
00000340: 6021 37be 915f fb3c b08f 46be 4b09 f63a
00000350: e4f4 c2bd baaf 15bd 5bcf 033d 6190 883c
00000360: 7e58 41bd b452 373d 265b ea3c d4df b23d
00000370: bf12 233e 3e4c a0bd ab3d a6bd 2d86 9bbc
00000380: 49c6 b43b 437b 6fbd 99aa 003d 3252 f4bc
00000390: 61c2 60bd ea1b 943d df0f d2bd a3c7 9c3c
000003a0: cfb8 bdbb 0ebb ac3c 178c 05be bf06 88bd
000003b0: f4f7 993d 276a 86bd cdb6 e0bd 0923 a83c
000003c0: cc05 91bd 8107 09bb 664d dd3c aaca edbc
000003d0: 60bd 443d 0563 d8bc 875d 003d 1920 f0bd
000003e0: 78c2 1639 d944 b9bc 89c4 c43d 723b 85bb
000003f0: 3221 b9bc 8fbc 15bd faa1 26bd 4f70 e43c

layers.0.conv21.bias f4 [32]
-0.06876682 -0.014656821 -0.048172284 -0.014451897 0.020841185 -0.023453377 0.0030824097 -0.040609743
-0.042452995 -0.0054646865 0.015059034 -0.019559374 0.011654345 -0.01311982 0.030739708 0.011112305
-0.07290348 -0.0007394416 0.0003488192 0.0096843755 -0.077562325 -0.018859943 -0.015443719 -0.03051113
-0.021034654 -0.02950616 -0.0050270446 -0.0094968835 0.017069511 -0.024531582 0.0183161 0.0043538464
00000000: 9ed5 8cbd 2a23 70bc 4d50 45bd a6c7 6cbc
00000010: 22bb aa3c 4c21 c0bc 4102 4a3b 6756 26bd
00000020: 31e3 2dbd 1d11 b3bb 2bba 763c fb3a a0bc
00000030: def1 3e3c 83f4 56bc d7d1 fb3c 6310 363c
00000040: 6b4e 95bd 16d7 41ba b8e1 b639 37ab 1e3c
00000050: ffd8 9ebd 2b80 9abc a707 7dbc 7af2 f9bc
00000060: de50 acbc e7b6 f1bc e8b9 a4bb d198 1bbc
00000070: 5cd5 8b3c 75f6 c8bc a50b 963c b6aa 8e3b

layers.1.conv20.weight f4 [32, 32, 3, 3]
0.16110732 -0.27078074 0.07369696 0.014812628 0.14620306 0.11993631 0.017403586 0.0018762783
0.09277532 0.12110088 -0.31785607 0.09457132 0.028083289 0.094415486 -0.20008616 0.1391857
0.08511441 0.31226528 -0.2853979 -0.050956156 -0.120564796 0.114060044 0.19833748 0.1915645
-0.061267648 0.06345 -0.011863516 -0.090869896 -0.096947305 0.16375864 -0.05208961 0.09729723
0.109668925 -0.11303291 -0.24678539 -0.1413638 -0.11521981 0.07304611 -0.18265839 -0.05181352
0.090660036 -0.2810073 0.008227783 0.034743275 0.14859797 0.20471655 -0.10976157 0.046754137
-0.08081748 -0.010937484 -0.13583039 -0.03363548 0.23314835 0.06677285 -0.077973574 0.1498441
-0.22528866 -0.21988025 0.17320603 -0.0620484 -0.34678906 0.17717645 -0.2481197 -0.1062172
0.08745073 -0.060284764 0.06252758 0.070791475 -0.02224324 -0.040090557 -0.061351854 -0.031222932
0.38659653 0.066458486 0.19131815 -0.048426844 -0.2900664 -0.04094896 0.27043548 -0.30806512
0.15897302 0.1923357 0.15032779 0.23214434 -0.13634652 -0.36399174 -0.17226703 -0.28325853
0.19651234 0.10323559 0.30260307 0.03763042 -0.07119452 -0.2214958 -0.2200847 0.17416494
0.4370874 -0.16936593 0.056470007 0.15356092 0.028813753 -0.036837958 0.08238298 0.06303651
-0.007982734 -0.18934117 -0.028237263 0.020412495 -0.005922385 -0.087345146 0.18067147 -0.12999558
0.12814416 -0.0030656587 0.05528977 0.19475016 -0.42897668 0.24258463 0.041171852 -0.17634277
-0.15413651 -0.1740185 0.28576562 0.20972003 0.1277472 0.04860139 0.26460826 -0.06413964
-0.009209791 0.21024013 0.22867978 -0.1764042 0.13553189 0.059136 -0.27248865 -0.3035655
-0.23325491 0.051920157 -0.14292765 -0.044176504 0.018157309 0.07262583 0.09654423 0.18068177
0.20563218 0.06909007 0.08289442 0.027724985 -0.07890845 0.024645628 0.048376143 0.014653477
0.1342056 -0.25401485 0.1461748 0.04257895 -0.046121404 0.12874511 0.042221628 -0.1527139
-0.05024171 -0.09031038 0.18444851 -0.119828135 -0.2853333 0.14393336 0.0034111438 0.06875223
0.12948243 -0.33733228 -0.14330319 -0.095768 0.11103227 -0.270551 -0.04495568 0.09962729
0.10618087 0.093736425 0.20283875 -0.037488706 0.31152865 0.42587543 -0.17111267 -0.0019826067
-0.4594312 0.19136725 -0.15437804 -0.11094181 0.46603107 -0.15597193 0.18855667 0.03802788
-0.013225111 0.044911057 0.115674935 -0.22535823 -0.025473414 0.029584743 0.27300373 0.016758027
0.1895277 -0.020005168 -0.11770648 0.0060921735 0.11062216 -0.07456218 0.04170795 -0.15835996
0.17611505 0.009606516 0.079767264 0.01593964 -0.030453447 -0.15486906 0.049337495 -0.25624353
-0.4279078 -0.12582438 -0.49993533 0.09748923 -0.14752692 -0.29690558 -0.30181268 0.2543811
-0.1899535 0.08627581 0.09678046 0.0803313 -0.15946501 -0.22102132 0.012553064 -0.04449195
-0.10430371 -0.11460342 -0.11231611 -0.15818924 -0.039111312 0.10286111 0.21674152 0.04293593
-0.07566969 -0.07814157 0.040403802 -0.37327102 0.13162328 -0.5006632 0.10031338 0.37505323
-0.17048775 -0.3914507 0.3389846 -0.3314587 -0.24053349 0.07254804 0.058716923 -0.012070223
00000000: 51f9 243e c6a3 8abe 6fee 963d aab0 723c
00000010: 41b6 153e 2ba1 f53d f791 8e3c 74ed f53a
00000020: fd00 be3d bd03 f83d 08be a2be 9cae c13d
00000030: ed0e e63c e85c c13d 63e3 4cbe b286 0e3e
00000040: 7750 ae3d 3ce1 9f3e ac1f 92be 67b7 50bd
00000050: adea f6bd 5098 e93d fb18 4b3e 7c29 443e
00000060: c9f3 7abd 13f2 813d 315f 42bc ff19 babd
00000070: 4f8c c6bd 58b0 273e ea5b 55bd c543 c73d
00000080: 1a9a e03d cc7d e7bd 4fb5 7cbe acc1 10be
00000090: 5df8 ebbd 3399 953d cd0a 3bbe 6a3a 54bd
000000a0: f8ab b93d 30e0 8fbe d3cd 063c f74e 0e3d
000000b0: 112a 183e 37a1 513e adca e0bd 4481 3f3d
000000c0: a383 a5bd 2233 33bc 1f17 0bbe 5bc5 09bd
000000d0: 71be 6e3e 34c0 883d 9cb0 9fbd bb70 193e
000000e0: 12b2 66be 4a28 61be ec5c 313e 7726 7ebd
000000f0: 568e b1be be6d 353e 1713 7ebe 6788 d9bd
00000100: 5e19 b33d 28ed 76bd 760e 803d 1ffb 903d
00000110: 7537 b6bc ff35 24bd 154c 7bbd 3cc7 ffbc
00000120: fbef c53e 631b 883d e8e8 433e 3a5b 46bd
00000130: 9583 94be 19ba 27bd 8576 8a3e b6ba 9dbe
00000140: d3c9 223e a6f3 443e 87ef 193e 3fb7 6d3e
00000150: 6c9e 0bbe 205d babe c566 30be 4307 91be
00000160: 883a 493e 2e6d d33d caee 9a3e 5b22 1a3d
00000170: 6fce 91bd cccf 62be e25d 61be 4b58 323e
00000180: ebc9 df3e 436e 2dbe 184d 673d 133f 1d3e
00000190: d20a ec3c 66e3 16bd 68b8 a83d 4919 813d
000001a0: 03ca 02bc a7e2 41be d551 e7bc 1b38 a73c
000001b0: 9110 c2bb 03e2 b2bd f101 393e 901d 05be
000001c0: 3938 033e 38e9 48bb 8777 623d 966c 473e
000001d0: d5a2 dbbe 1b68 783e d1a3 283d 3393 34be
000001e0: f6d5 1dbe e831 32be df4f 923e d9c0 563e
000001f0: 29d0 023e 4012 473d bc7a 873e a55b 83bd
00000200: aae4 16bc 3049 573e 082b 6a3e 4da3 34be
00000210: dfc8 0a3e 9738 723d a283 8bbe f06c 9bbe
00000220: 60da 6ebe 3baa 543d a05b 12be 6cf2 34bd
00000230: a3be 943c dabc 943d fbb8 c53d a404 393e
00000240: 3e91 523e 187f 8d3d 8dc4 a93d 821f e33c
00000250: c19a a1bd a1e5 c93c 1026 463d 2315 703c
00000260: 316d 093e 3c0e 82be d9ae 153e 4467 2e3d
00000270: cce9 3cbd c2d5 033e 96f0 2c3d 0861 1cbe
00000280: 40ca 4dbd a6f4 b8bd 12e0 3c3e 7468 f5bd
00000290: 3517 92be 4463 133e 7f8d 5f3b f8cd 8c3d
000002a0: 0b97 043e d1b6 acbe 12be 12be 0322 c4bd
000002b0: e364 e33d a985 8abe 7223 38bd 6509 cc3d
000002c0: 5b75 d93d e2f8 bf3d f6b4 4f3e c28d 19bd
000002d0: af80 9f3e 580c da3e 2938 2fbe 9fee 01bb
000002e0: 913a ebbe c7f5 433e 4715 1ebe 7635 e3bd
000002f0: a09b ee3e 1bb7 1fbe 0015 413e 1fc3 1b3d
00000300: 23ae 58bc a8f4 373d fbe6 ec3d 4fc4 66be
00000310: 9fad d0bc b45b f23c 25c7 8b3e 2148 893c
00000320: 8d13 423e e1e1 a3bc 1810 f1bd dba0 c73b
00000330: df8d e23d 0eb4 98bd f5d5 2a3d 1d29 22be
00000340: 8157 343e a664 1d3c 055d a33d d993 823c
00000350: 8279 f9bc ff95 1ebe 1d16 4a3d 5a32 83be
00000360: bb16 dbbe 1bd8 00be 86f7 ffbe 6fa8 c73d
00000370: 4c11 17be 0204 98be 3187 9abe 3d3e 823e
00000380: 2c83 42be 5fb1 b03d d534 c63d bd84 a43d
00000390: cc4a 23be 6a53 62be 5eab 4d3c 313d 36bd
000003a0: 2f9d d5bd 33b5 eabd fd05 e6bd 5cfc 21be
000003b0: 2f33 20bd d8a8 d23d 7df1 5d3e 96dd 2f3d
000003c0: b6f8 9abd b008 a0bd 757e 253d 611d bfbe
000003d0: 41c8 063e 772b 00bf 1a71 cd3d fa06 c03e
000003e0: 5794 2ebe 3a6c c8be 648f ad3e f4b4 a9be
000003f0: 694e 76be 1194 943d 2881 703d 2fc2 45bc

layers.1.conv20.bias f4 [32]
-0.03674182 0.038044397 0.007949783 0.02549129 -0.0110818595 -0.3003628 0.0067418665 0.010758287
-0.024325805 0.014774764 0.018440826 -0.5815526 0.03779913 0.0070640575 -0.0075207725 0.04789653
0.015401554 -0.04926558 0.0049906992 0.010828517 0.032836013 -0.05113708 0.037787393 0.0532215
-0.27982923 -0.07800586 -0.8543676 -0.097116865 0.013325309 -0.61773026 -0.03127109 -0.18420054
00000000: 977e 16bd 71d4 1b3d ce3f 023c 1cd3 d03c
00000010: b090 35bc 27c9 99be e0ea dc3b 8743 303c
00000020: e946 c7bc da11 723c 3711 973c a2e0 14bf
00000030: 43d3 1a3d 9c79 e73b d070 f6bb 272f 443d
00000040: cd56 7c3c b4ca 49bd 0589 a33b 186a 313c
00000050: 0e7f 063d 1d75 51bd f4c6 1a3d cafe 593d
00000060: c745 8fbe 89c1 9fbd d6b7 5abf 35e5 c6bd
00000070: 6652 5a3c 9223 1ebf 1d16 00bd 119f 3cbe

layers.1.conv21.weight f4 [32, 32, 3, 3]
0.077188745 -0.014328122 -0.0175788 0.0399225 -0.080050126 0.12724552 -0.047301605 -0.016808294
-0.1228241 0.04970294 0.15785444 -0.0089919185 -0.12811983 0.083155654 -0.040943213 -0.037180465
-0.008285072 0.12131611 -0.0050485637 0.07129503 -0.069775514 -0.011796541 0.022183763 0.04642222
0.037835605 0.0637585 -0.00820171 -0.030068778 0.038128037 0.117933534 -0.052646544 0.055572283
-0.07331694 -0.08821143 0.027034996 0.043578304 -0.03752592 -0.06100668 -0.00063200685 0.047212884
-0.17952877 0.012570782 -0.0036936633 0.042536125 -0.005495617 -0.30399236 -0.07529499 0.022070454
0.06174251 0.3648079 0.015604182 0.056365166 0.06837538 0.018081212 -0.032829765 -0.013127979
-0.01417263 -0.0538285 -0.019885516 0.048672408 -0.06955717 0.019639151 -0.019283228 -0.12444861
0.18877272 -0.06874527 0.13889937 0.039941307 -0.09110005 0.027923023 -0.10701416 0.041663256
-0.005521607 -0.0026017302 0.059850987 0.1453035 -0.07084835 -0.049158383 0.051193293 -0.08051286
-0.021062462 -0.07128822 0.14351515 0.32093003 0.07280355 0.25000244 0.31944674 0.22847126
0.20223507 -0.43164027 -0.03851634 -0.018754765 0.04742214 -0.015018331 0.09889863 0.13416171
0.026339509 0.090099804 -0.045246802 -0.03669428 0.07623465 -0.07594387 0.16047803 0.09804688
-0.12178917 0.026075084 -0.013293192 -0.066576175 0.07062786 -0.04162756 0.04735102 -0.060203917
-0.027589813 0.0087403245 -0.010502933 -0.09632843 0.04496059 -0.048038766 -0.045118246 0.084481105
-0.12924452 0.020818053 0.02160745 0.089154035 0.050227664 -0.07301476 0.018212471 0.12963553
-0.002428848 -0.034270037 0.18224962 -0.2088536 -0.12213431 0.09622148 -0.00041488718 0.003549148
-0.10146214 -0.05846398 0.10229311 -0.23786308 -0.021810904 -0.17778426 -0.36717197 0.24022894
-0.18693684 0.023254354 0.14559662 -0.053891864 0.41551897 0.039161645 -0.15293618 0.09742175
0.067259796 -0.084318526 -0.042834233 0.09307588 -0.041707367 0.0710817 0.034922026 0.021547727
-0.021004438 0.03792482 0.13948107 -0.042204425 0.077578224 -0.08639215 -0.16871697 0.055820283
0.016821815 0.012865892 -0.008951765 -0.14413127 0.018654477 -0.6650326 0.18083185 -0.011736619
0.38175938 0.062532835 0.07755541 -0.27246332 0.0042847516 0.042641986 0.13898301 -0.10738381
0.0016765492 0.035264604 0.021564867 0.021018542 0.016271368 0.017541504 0.07748251 0.022919398
0.04745174 0.13792385 -0.0850363 -0.075981386 0.011580477 -0.05310299 -0.11981523 0.14712632
-0.14273399 0.1534789 -0.047412056 -0.00083613425 -0.084213585 0.046251237 -0.020739855 -0.084802195
-0.2895755 -0.18817508 -0.22096385 -0.059596438 -0.2302209 0.008960596 -0.072911344 0.050746642
0.14419803 0.030887965 -0.23153637 -0.11816284 -0.017240347 -0.16207883 -0.23924927 0.114218086
0.12514332 -0.038403735 0.010965204 -0.042161442 0.10799457 0.05371707 -0.067934304 -0.062004823
0.039839514 -0.0785022 -0.12672158 -0.24885026 0.21897182 -0.27907833 -0.10044918 -0.046550423
0.19954832 -0.07901805 0.1895465 0.084315054 0.047158346 0.089535676 0.11285471 0.07865644
0.116682164 -0.21734849 0.10298948 0.010309212 -0.058627304 -0.008386005 -0.04542912 0.0387385
00000000: 2215 9e3d 80c0 6abc 6a01 90bc c685 233d
00000010: 52f1 a3bd a64c 023e 54bf 41bd 8cb1 89bc
00000020: 348b fbbd 4f95 4b3d 98a4 213e d752 13bc
00000030: d831 03be 834d aa3d 12b4 27bd 8b4a 18bd
00000040: 1cbe 07bc 9574 f83d 6c6e a5bb 2103 923d
00000050: 77e6 8ebd 4746 41bc b9ba b53c 3a25 3e3d
00000060: 82f9 1a3d d193 823d 7760 06bc cc52 f6bc
00000070: 252c 1c3d 2387 f13d e7a3 57bd c39f 633d
00000080: 3127 96bd 32a8 b4bd 7f78 dd3c 2a7f 323d
00000090: c7b4 19bd 24e2 79bd 43ad 25ba 4c62 413d
000000a0: 64d6 37be aef5 4d3c 6311 72bb 5c3a 2e3d
000000b0: 9414 b4bb e3a4 9bbe 4234 9abd 19cd b43c
000000c0: b7e5 7c3d 1ac8 ba3e afa8 7f3c 29df 663d
000000d0: 6408 8c3d 0d1f 943c 8178 06bd bc16 57bc
000000e0: 5234 68bc 467b 5cbd f3e6 a2bc b85c 473d
000000f0: fd73 8ebd 49e2 a03c dcf7 9dbc eade febd
00000100: a34d 413e 52ca 8cbd a33b 0e3e 7f99 233d
00000110: aa92 babd d3be e43c 3d2a dbbd 17a7 2a3d
00000120: 99ee b4bb ca81 2abb 4f26 753d 71ca 143e
00000130: f118 91bd 4d5a 49bd 0fb0 513d ede3 a4bd
00000140: 2f8b acbc 8fff 91bd a3f5 123e f150 a43e
00000150: 071a 953d 5200 803e 868e a33e 5ff4 693e
00000160: b616 4f3e f4ff dcbe 4fc3 1dbd 98a3 99bc
00000170: b83d 423d 720f 76bc 5d8b ca3d b061 093e
00000180: f4c5 d73c 3f86 b83d b654 39bd be4c 16bd
00000190: ea20 9c3d 7688 9bbd 5a54 243e cdcc c83d
000001a0: 9a6c f9bd 6a9b d53c b0cb 59bc 1759 88bd
000001b0: 57a5 903d a981 2abd 25f3 413d 6298 76bd
000001c0: 0804 e2bc 9433 0f3c 7e14 2cbc d747 c5bd
000001d0: 9828 383d 4cc4 44bd e9cd 38bd 6e04 ad3d
000001e0: ad58 04be 9f8a aa3c 1b02 b13c 6496 b63d
000001f0: 86bb 4d3d c388 95bd 5232 953c 2dbf 043e
00000200: 4f2d 1fbb bd5e 0cbd a59f 3a3e b8dd 55be
00000210: 8e21 fabd c40f c53d 3785 d9b9 d398 683b
00000220: 62cb cfbd ed77 6fbd 0d7f d13d 6192 73be
00000230: c8ac b2bc 140d 36be f7fd bbbe 93fe 753e
00000240: 5f6c 3fbe ea7f be3c 4817 153e b7bd 5cbd
00000250: e7be d43e f667 203d 4d9b 1cbe 0e85 c73d
00000260: 81bf 893d 31af acbd f372 2fbd 919e be3d
00000270: 58d5 2abd 4893 913d 660a 0f3d dc84 b03c
00000280: 8011 acbc 0e57 1b3d 20d4 0e3e 8cde 2cbd
00000290: 55e1 9e3d 5eee b0bd 24c4 2cbe cfa3 643d
000002a0: e7cd 893c 76cb 523c 6caa 12bc 2697 13be
000002b0: 46d1 983c 943f 2abf fc2b 393e f34a 40bc
000002c0: f775 c33e 3711 803d 5fd5 9e3d 5080 8bbe
000002d0: 1a67 8c3b 5da9 2e3d 9051 0e3e 0bec dbbd
000002e0: a8bf db3a 9e71 103d cea8 b03c 142f ac3c
000002f0: 884b 853c 33b3 8f3c 26af 9e3d 76c1 bb3c
00000300: c15c 423d e93b 0d3e 8327 aebd 219c 9bbd
00000310: 0abc 3d3c 8582 59bd b061 f5bd 48a8 163e
00000320: dc28 12be 9329 1d3e 2533 42bd 0530 5bba
00000330: 2c78 acbd f071 3d3d a1e6 a9bc c6ac adbd
00000340: 3d43 94be f8b0 40be 5944 62be 651b 74bd
00000350: 07bf 6bbe 77cf 123c 8b52 95bd b6db 4f3d
00000360: a6a8 133e c208 fd3c df17 6dbe 5cff f1bd
00000370: a13b 8dbc fef7 25be c3fd 74be 2ceb e93d
00000380: 9225 003e 3c4d 1dbd 66a7 333c 7ab1 2cbd
00000390: 422c dd3d 6e06 5c3d 2421 8bbd c5f8 7dbd
000003a0: c22e 233d c3c5 a0bd 4dc3 01be 9ad2 7ebe
000003b0: 263a 603e 5be3 8ebe 4db8 cdbd a8ab 3ebd
000003c0: 6556 4c3e 37d4 a1bd 7a18 423e 5fad ac3d
000003d0: 1c29 413d 7b5e b73d 5f20 e73d a116 a13d
000003e0: 0ff7 ee3d 9a90 5ebe 26ec d23d f8e7 283c
000003f0: 2f23 70bd 7465 09bc e313 3abd 43ac 1e3d

layers.1.conv21.bias f4 [32]
-0.03220266 -0.025595196 -0.011732625 0.0067524062 0.043587957 -0.04319869 0.021561934 -0.006794617
-0.01045142 0.00193971 -0.0050773155 0.031020211 0.014411067 -0.03189498 -0.02181669 -0.009349999
0.015506502 -0.015475958 -0.013261393 -0.020383239 -0.016609708 0.038504664 0.010554169 -0.0124880485
0.040568512 0.0306283 0.016915444 -0.015985306 0.0037335292 -0.046654154 -0.07428157 0.043020148
00000000: f0e6 03bd 04ad d1bc 323a 40bc 4a43 dd3b
00000010: 4989 323d 1cf1 30bd a7a2 b03c 61a5 debb
00000020: 6f3c 2bbc de3d fe3a 9c5f a6bb 191e fe3c
00000030: 651c 6c3c 50a4 02bd eab8 b2bc bd30 19bc
00000040: fc0e 7e3c df8e 7dbc 5046 59bc c0fa a6bc
00000050: 1511 88bc 11b7 1d3d 65eb 2c3c ac9a 4cbc
00000060: 2b2b 263d 33e8 fa3c 4292 8a3c 9ef3 82bc
00000070: 3aae 743b 6d18 3fbd f020 98bd e535 303d

layers.2.conv20.weight f4 [32, 32, 3, 3]
-0.11553568 0.100872375 0.10297435 0.11630535 -0.013348021 0.15477276 -0.10421503 -0.027227383
0.04913101 0.09398065 -0.059413858 -0.16647647 0.04471451 0.22418173 0.11099889 0.005002511
-0.015049136 -0.088075206 -0.13847446 -0.18340239 0.21511701 0.07078112 -0.13762513 -0.1838345
0.01740669 0.07012802 0.17473462 -0.3623541 0.22860676 0.0073327804 0.20663872 -0.057180703
-0.05342972 -0.29976392 0.22252044 -0.16725682 0.14061669 -0.111674376 0.016691148 -0.2288318
0.04532147 0.0371831 0.3012602 -0.07254235 0.13636194 0.0060569276 -0.03547923 -0.24314064
-0.26240334 0.05144786 0.01863784 0.18026529 -0.088255346 0.12597156 0.14639744 -0.20824651
-0.009351155 -0.27158314 -0.037937935 0.20578508 -0.08960833 0.049926948 -0.060731225 0.06089839
0.17686576 0.06963832 -0.013443565 -0.027331129 0.2646441 0.23399909 0.045830578 -0.1146167
0.043363377 0.01757708 -0.109094284 0.43182886 -0.1548304 0.036264848 -0.13193509 0.043763734
-0.17712726 -0.13051052 -0.10790028 0.059424013 -0.020370318 0.03357352 0.11653487 0.06328092
0.002008549 -0.07547202 0.017781144 -0.33201534 0.38167888 -0.17942233 0.069791675 -0.13167447
0.04554185 -0.028385345 0.26493862 -0.033950806 -0.20652758 -0.053523045 0.18759234 -0.035638966
0.12213381 0.2507617 -0.1723621 0.120469145 0.07264166 0.18155862 -0.0069470736 -0.098228276
0.26089922 -0.018673621 0.08983643 0.01373536 0.04582894 0.0551617 -0.08920311 0.047403265
-0.09446987 0.08483816 -0.010119121 0.25553063 -0.04696669 0.052125853 0.045573406 -0.021525562
-0.13314353 -0.0078977365 -0.10754725 -0.13018472 0.342173 0.06433464 -0.08786761 -0.3218844
-0.47709107 0.0694681 0.022986092 -0.05807867 -0.011431699 0.044970892 0.09149413 0.11873786
0.047055278 0.052899867 0.12520388 -0.055939347 -0.14083442 -0.06874109 0.089660354 0.06918391
0.07326582 0.18542983 0.0759014 -0.11151925 -0.26907542 0.17689395 0.08956746 -0.16376042
0.016890975 -0.04682963 0.24534509 -0.0369359 -0.08574025 -0.06461886 -0.0801559 0.1697523
0.009908469 -0.023625027 -0.1821817 -0.42270753 0.043578226 0.181302 0.24787456 -0.14192684
0.07345711 -0.09491646 0.07394771 -0.066303365 0.32956997 0.47734818 -0.09217599 0.018259432
-0.09234006 0.45741254 -0.4396769 0.12014992 0.16223486 0.114425436 0.115654625 -0.18452984
0.10988105 -0.088939756 0.23260891 0.20677796 0.022292832 -0.021754753 -0.108872816 0.16435164
-0.08784337 0.24002098 -0.053354792 0.046608407 0.072942294 0.038802598 0.03770539 -0.19752765
-0.117271304 0.4154516 -0.06927999 -0.19097105 0.049529083 0.31166694 -0.15448245 0.21413732
-0.010993659 0.1273576 -0.10354553 0.1115046 0.12764695 0.14950849 -0.2121147 0.19533879
0.1338145 -0.29808038 0.0454279 -0.0915332 -0.2817814 -0.051609613 -0.03428132 0.075111516
0.064061694 -0.28854522 -0.11539361 0.020934477 -0.17855886 0.089433394 0.047363766 0.20299394
0.0016210141 0.15993772 -0.04496538 -0.07327338 0.058732912 -0.072505414 -0.0019337892 -0.09377293
0.048937842 -0.014984148 -0.2549844 -0.12258166 -0.12114014 -0.11121103 -0.1519719 -0.09026291
00000000: f89d ecbd 2d96 ce3d 37e4 d23d 8031 ee3d
00000010: a8b1 5abc c07c 1e3e b16e d5bd f60b dfbc
00000020: 993d 493d ed78 c03d f25b 73bd cf78 2abe
00000030: 9026 373d e58f 653e 6353 e33d 1bec a33b
00000040: a790 76bc c660 b4bd 40cc 0dbe d6cd 3bbe
00000050: a247 5c3e b1f5 903d 9aed 0cbe 1c3f 3cbe
00000060: 7a98 8e3c 489f 8f3d a2ed 323e 7a86 b9be
00000070: e417 6a3e d247 f03b 1a99 533e 5036 6abd
00000080: 1fd9 5abd a87a 99be 66dc 633e 5f45 2bbe
00000090: d2fd 0f3e 89b5 e4bd e0bb 883c e252 6abe
000000a0: 01a3 393d 4e4d 183d c73e 9a3e 1591 94bd
000000b0: 77a2 0b3e 3179 c63b ab52 11bd dcf9 78be
000000c0: bb59 86be feba 523d 62ae 983c 7797 383e
000000d0: 38bf b4bd b0fe 003e 36e9 153e 933e 55be
000000e0: 9635 19bc f20c 8bbe cf64 1bbd 53b9 523e
000000f0: 9284 b7bd 3380 4c3d 4ec1 78bd 9770 793d
00000100: 4c1c 353e 899e 8e3d 6642 5cbc 88e5 dfbc
00000110: 6e7f 873e 759d 6f3e d8b8 3b3d 29bc eabd
00000120: cc9d 313d cffd 8f3c d36c dfbd ac18 dd3e
00000130: dc8b 1ebe 738a 143d fe19 07be 9a41 333d
00000140: d960 35be 8da4 05be d2fa dcbd 9866 733d
00000150: a7df a6bc 6384 093d d5a9 ee3d 6d99 813d
00000160: dca1 033b 1391 9abd c3a9 913c eafd a9be
00000170: 6a6b c33e 7dba 37be f0ee 8e3d acd5 06be
00000180: 178a 3a3d 6288 e8bc 09a6 873e 0010 0bbd
00000190: f77b 53be fb3a 5bbd 3518 403e 2afa 11bd
000001a0: 4a21 fa3d d663 803e b17f 30be 87b8 f63d
000001b0: 27c5 943d 81ea 393e 47a4 e3bb e82b c9bd
000001c0: 9594 853e 6cf9 98bc 2afc b73d 460a 613c
000001d0: 20b7 3b3d 3cf1 613d 1fb0 b6bd ed29 423d
000001e0: 6b79 c1bd a1bf ad3d abca 25bc e9d4 823e
000001f0: 2560 40bd eb81 553d 2eab 3a3d 6056 b0bc
00000200: c756 08be 8265 01bc bc41 dcbd 254f 05be
00000210: 4d31 af3e e1c1 833d eff3 b3bd 08ce a4be
00000220: 4845 f4be 4b45 8e3d 544d bc3c e6e3 6dbd
00000230: 054c 3bbc 6633 383d 4661 bb3d d62c f33d
00000240: 09bd 403d 88ad 583d 7235 003e a820 65bd
00000250: e636 10be 21c8 8cbd d99f b73d 4bb0 8d3d
00000260: 640c 963d 51e1 3d3e 3172 9b3d 3464 e4bd
00000270: 41c4 89be b023 353e 256f b73d d0b0 27be
00000280: f15e 8a3c 6dd0 3fbd be3b 7b3e 194a 17bd
00000290: 9698 afbd e556 84bd c728 a4bd 8cd3 2d3e
000002a0: 2257 223c 4689 c1bc d78d 3abe 1f6d d8be
000002b0: 157f 323d 3ba7 393e d4d2 7d3e 4555 11be
000002c0: ae70 963d 9063 c2bd e671 973d 0fca 87bd
000002d0: 65bd a83e fb66 f43e c4c6 bcbd ce94 953c
000002e0: c91c bdbd fa31 ea3e 551d e1be 2911 f63d
000002f0: e520 263e e257 ea3d 55dc ec3d 64f5 3cbe
00000300: 5109 e13d 0c26 b6bd 0831 6e3e 9abd 533e
00000310: 759f b63c 0637 b2bc b6f8 debd cc4b 283e
00000320: 3ae7 b3bd 0fc8 753e 8e8a 5abd 75e8 3e3d
00000330: c562 953d 79ef 1e3d f870 1a3d b044 4abe
00000340: f02b f0bd 12b6 d43e abe2 8dbd ea8d 43be
00000350: 02df 4a3d cf92 9f3e a630 1ebe d046 5b3e
00000360: bf1e 34bc 086a 023e ae0f d4bd 865c e43d
00000370: e2b5 023e c118 193e 9934 59be e406 483e
00000380: ab06 093e fe9d 98be 9b12 3a3d c275 bbbd
00000390: a745 90be 9a64 53bd 926a 0cbd 11d4 993d
000003a0: c732 833d 33bc 93be 7c53 ecbd c87e ab3c
000003b0: 22d8 36be db28 b73d 8200 423d a5dd 4f3e
000003c0: 3578 d43a b7c6 233e 9e2d 38bd 5b10 96bd
000003d0: ec91 703d b87d 94bd 3377 fdba 060c c0bd
000003e0: 0c73 483d 1280 75bc 518d 82be 180c fbbd
000003f0: 5218 f8bd 9cc2 e3bd 869e 1bbe c3db b8bd

layers.2.conv20.bias f4 [32]
-0.05487989 -0.02897971 -0.7241867 -0.0077977264 -0.0590334 -0.16851415 -0.055151217 -0.006597535
-0.036620837 -0.111910634 0.01125849 -0.16804062 -0.090372086 -0.047126587 -0.1354073 -0.16096033
-0.0057465103 -0.0164411 0.0058203214 -0.055653702 0.033921104 0.035923924 -0.16509344 -0.26303476
-0.25531974 -0.12023132 -0.16330722 -0.07216137 -0.10628403 -0.15531164 -0.19458614 -0.12955199
00000000: bcc9 60bd db66 edbc 4d64 39bf 1284 ffbb
00000010: 02cd 71bd f98e 2cbe 3ee6 61bd 2330 d8bb
00000020: bbff 15bd 6731 e5bd 8875 383c d712 2cbe
00000030: 0015 b9bd cf07 41bd 36a8 0abe c9d2 24be
00000040: 394d bcbb 7caf 86bc 65b8 be3b 23f5 63bd
00000050: dbf0 0a3d f724 133d 410e 29be 7eac 86be
00000060: 45b9 82be d73b f6bd 023a 27be 57c9 93bd
00000070: 71ab d9bd 040a 1fbe 9741 47be 47a9 04be
