model/v11/1000.pth (torch, 429725 bytes, 53 tensors)

upsample.0.weight f4 [128, 8, 3, 3]
00000000: 19ba 783d b30f 55bd 3429 bbbc ac92 623d
00000010: 7139 e3bd 4abf 903d 5e9d c6bc 7794 753d
00000020: 4a36 863c 926c 6cbc 1ee3 053d bf81 be3b
00000030: 634d 303d a41d 3cbd 0dc7 0cbc d3d4 2dbc
00000040: 26ef 8b3c f3d4 f6b9 f5fc d23d 9737 163d
00000050: 6dc4 33bd 86c5 91bd 80d2 a1bc 4d37 50bd
00000060: b4af 1abd 16e8 b83b 80e1 8f3d 0230 833d
00000070: d9f0 ebbd 9b9f 953d a2da 063d 48f1 e43d
00000080: bb4f 9f3d 51e9 dbbd 7d7c e5bd 9cd4 68bd
00000090: b5f0 d33d d1cf a0bc 7695 4e3d 1e53 60bd
000000a0: 6ed3 ec3d c23c 4cbd 4d00 b53d f8ea b63a
000000b0: ec4d 7ebd d41f 783d 471e 80bd 3ef8 0d3d
000000c0: 6c63 0bbd aab0 53bc 2f0a e8bd b726 66bd
000000d0: 3cf8 823d f9ac eabc d867 f03d 7e78 c13d
000000e0: 28d2 b4bb 671a a1bd 84fa 923d a6d0 153d
000000f0: f104 9cbd 05c6 9c3d 9187 923d 680f d63d
00000100: d24b 87bd a7ea 9ebc 539e 15bb 5c02 8d3c
00000110: fe2b b7bd 1a46 abbd eb4c 833d 1763 e2bc
00000120: 87cb 6b3d 6b28 dc3b 7f7f 1e3d df49 d43c
00000130: 1d84 2f3d e249 6f3d 8d86 dfbd 18fa 723d
00000140: 88b4 a9bd 8d1b b6bd 85d9 ea3b 6e84 a4bc
00000150: 8ac1 8d3d 98c7 8bbd 5b90 d6bd 54a7 af3d
00000160: 1b28 8fbc 12c1 873d bc2f 1b3d 3ffd b4bd
00000170: 5cf4 c13c 01e5 e73c a59a a1bd 5309 65bd
00000180: 5c98 243d 74ee ac3c ca55 4dbd 6120 12bd
00000190: 800e dd3d 55a0 b2bc 8513 883d bf04 513d
000001a0: 2904 9cbd 4942 cdbd 8aad e73d dca5 c93b
000001b0: 0a71 a53d 9a11 c83c cf40 1b3d 0749 b43d
000001c0: 39dc e43d 4d29 a0bd 416a 713c b21d b43d
000001d0: 59d9 ae3d 0bf1 953d 18ad aebd c0cd adbd
000001e0: 97f7 91bd 8892 723c dd8d f03d ee75 98bd
000001f0: 9c9d 803d e396 85bd fced e2bd 8c31 cdbc
00000200: 6910 8b3d 5e12 e03d b4e4 95bd b382 d13c
00000210: 5942 d03d ffef 9f3d aa6b 963d 8584 ab3d
00000220: e1a9 983d 655e f93c d50b a5bd f2ae cabd
00000230: 0231 5dbd 9dd7 60bc 0df1 93bd af9a 303d
00000240: 3a65 153d e19b dabc 3e87 393d d501 1c3d
00000250: f15b 933d b18a a23d 4e79 23bd 65d0 eb3d
00000260: 4e39 5fbc 94ac 84bb 66d0 e3bd b757 9bbd
00000270: ba00 8dbd 3b78 4ebd 5799 ab3d 40be 1dbd
00000280: f65c b4bd cdb9 393d 3b8d 1a3d 7853 9c3d
00000290: 12cb 79bd 3452 d13c dfbb 2fbd bee8 d8bc
000002a0: f157 c0bd 0e01 5cbd 10d6 13bd 686d 4e3d
000002b0: 0260 b03c 8a7a ee3c dbe6 f03d 383c eb3d
000002c0: 489e a43d 7ff1 753b 5df8 a6bd de9f bc3d
000002d0: 9c6b f1bc 241a 1cbc 3dee cfbd 89b3 bebc
000002e0: 77ac 9bbd 4dc9 dd3d f8a8 d0bd a022 bcbd
000002f0: 6c21 83bb b181 82bd e4b8 2c3d 84cf 39bd
00000300: 0dba 62bd 5eb8 da3b 28b8 ae3d 19c7 a9bd
00000310: 01b0 623d 200f 9b3d c918 ec3d 49ef a8bd
00000320: a6d1 e93c a877 b2bd 760f ce3d dc3f 3bbd
00000330: 2262 913d 85f0 653b aa61 16bc 8a70 76bb
00000340: 6e1e a43c 2e8d 633d 2bd6 9a3c 6d41 133d
00000350: c61b d9bd d3d6 af3d ac6e d23d 4482 c73d
00000360: 0a6b b23d 1d2c aebd 93f1 32bd fccf d43d
00000370: 4fd5 b7bd 53f7 da3d f7d3 bdbd f203 aabd
00000380: 86fd 6b3d f469 adbd a32e ddbc 3896 af3d
00000390: 892d bf3d 4b44 e43d 67e7 c3bc 5699 bbbd
000003a0: 13a5 ed3d c9a9 cdbc 749b 46bd 1f59 eb3c
000003b0: d1c9 a8bd fca3 9e3d 8544 973d 9183 bfbd
000003c0: e73e c6bd 3623 29bc 03c1 4a3d 56b0 5fbb
000003d0: 8dc6 74bd ec93 303b 78dc e2bd 4d95 aabd
000003e0: 92ab a0bd 3dc4 c63d 6dc2 d43d 9cf6 23bd
000003f0: 5e33 ad3b 1c48 573d 255a 673c efb8 71bd
0.06072435 -0.052016925 -0.022846796 0.05531566 -0.110949405 0.070677355 -0.02424496 0.05995604
0.016383309 -0.014430182 0.0326873 0.005813807 0.04304255 -0.045926705 -0.008592379 -0.010609823
0.017081808 -0.00047079436 0.10302154 0.03667411 -0.043888498 -0.07117753 -0.019753695 -0.05083399
-0.03776522 0.005642901 0.070254326 0.06405641 -0.115205474 0.07305833 0.03292335 0.11178833
0.07778879 -0.10737861 -0.11205385 -0.056843385 0.103486456 -0.019630345 0.050435506 -0.054766767
0.115637645 -0.04986263 0.08837948 0.0013955524 -0.06208603 0.06057723 -0.06255775 0.03466057
-0.034030363 -0.012920538 -0.11330067 -0.056189265 0.06395003 -0.028646933 0.117385566 0.0944681
-0.0055182166 -0.07866364 0.07176688 0.036575936 -0.0761813 0.07654957 0.071547635 0.10452157
-0.066062585 -0.019399 -0.0022829964 0.01721304 -0.08943938 -0.0836298 0.06411155 -0.02763514
0.057567146 0.0067186854 0.03869581 0.02591413 0.042850602 0.05842007 -0.109143354 0.05932054
-0.08286387 -0.08891974 0.0071670436 -0.020082679 0.0692168 -0.06825179 -0.10476752 0.08576837
-0.017475178 0.06628622 0.03788732 -0.08837365 0.02367609 0.02830744 -0.07890824 -0.055917095
0.040184364 0.021109797 -0.050130643 -0.03567541 0.10793781 -0.021804968 0.06644348 0.051029917
-0.07617981 -0.100224085 0.11312397 0.006153805 0.08078201 0.024422456 0.037903603 0.08802991
0.11174817 -0.078203775 0.014734806 0.087947264 0.085375495 0.07321366 -0.08529109 -0.08486509
-0.07127302 0.014805444 0.11745808 -0.07444368 0.062800616 -0.0652292 -0.11080548 -0.02504804
0.06790239 0.10941003 -0.07319012 0.025575018 0.10168905 0.078094475 0.07344754 0.083748855
0.07454277 0.030440519 -0.080588974 -0.098966494 -0.054001816 -0.013723281 -0.07223711 0.043116268
0.03647349 -0.026685657 0.045294993 0.038087685 0.07195271 0.079366095 -0.039910607 0.115143575
-0.013624502 -0.004048893 -0.11123733 -0.0758509 -0.06884904 -0.05040763 0.08378857 -0.038511515
-0.088067934 0.04534321 0.037732344 0.07633108 -0.06098468 0.025551893 -0.042903777 -0.026478168
-0.093917735 -0.053711943 -0.036092818 0.050397307 0.021530155 0.029111166 0.11762782 0.11486095
0.08038002 0.0037527976 -0.0815284 0.0921018 -0.029470257 -0.009527717 -0.10152862 -0.023278968
-0.076012544 0.10829411 -0.10188478 -0.09186292 -0.004001787 -0.06372393 0.042168513 -0.045363918
-0.055353213 0.0066748103 0.08531219 -0.08289928 0.05534363 0.07571244 0.11528165 -0.08248765
0.028542351 -0.08714229 0.10061543 -0.045715198 0.070987955 0.0035085988 -0.009178558 -0.00376037
0.020034041 0.05555456 0.018900951 0.035951067 -0.106010005 0.08585896 0.10275015 0.09741643
0.08711822 -0.08504508 -0.043687414 0.10391232 -0.08976232 0.106917046 -0.09268945 -0.08301534
0.057614826 -0.084674746 -0.026999777 0.08573574 0.09334857 0.11145838 -0.023914052 -0.09160106
0.11603751 -0.025105374 -0.048488095 0.02872902 -0.082416184 0.07746121 0.07386116 -0.09351266
-0.096799664 -0.010323336 0.049500477 -0.0034132204 -0.059759665 0.0026943637 -0.11077207 -0.08329258
-0.078452244 0.09705398 0.10388646 -0.040030107 0.0052856645 0.052559003 0.014120613 -0.059014257

upsample.0.bias f4 [128]
00000000: 42c0 bf3d 4685 11bc 21e1 e83d 1c51 423d
00000010: eacf 813d e6d7 c0bc 2646 de3c 5adf 09bc
00000020: a70b 0b3d 4b78 973c 9a8f aebd bbc2 d93d
00000030: f72e b8bd 1902 db3d 3196 a3bd f8da d13c
00000040: f05f b13d b912 c2bd 736b 8bbd ea8b ca3d
00000050: 8bca 8fbd 5b90 943d d0c3 933d 5ec8 9fbd
00000060: 4546 93bd 165e e1bd b8cd 08bd 824e 3ebd
00000070: 9e1b 933d 7f68 bbbd eb1b eebd 99f5 8a3c
00000080: 67ea 10bd d658 c83d b73e d33d 777a d93c
00000090: afa6 493d fe12 e73d 7fb8 b43c 575b a63d
000000a0: 3a47 ce3d 42f4 e8bd be89 9e3d 667a 713d
000000b0: 73ee 80bb 4ff7 333d dcd9 c53d 60ab 0ebd
000000c0: 1043 bbbd ad8a 253c 02c0 cc3d eabc 723d
000000d0: 5e83 f7bc da81 abbc 698f ca3c 0f4c 84bb
000000e0: 23e6 df3c 662d 1e3d ba30 a53c b308 31bd
000000f0: e7fe a6bd 2cad 15bd 54f9 ef3d 252d fe3b
00000100: ae55 0cbd 0633 1dbd f0bd 68bd 1d32 503d
00000110: a607 9bbd 74a7 cb3c 4616 a03d 78b1 a4bd
00000120: 7c45 f13d 0336 c5bd 185c cd3d 6d5a 8e3d
00000130: a0a8 ff3b 0b74 bdbd 241c 9bbc 398f 06bd
00000140: 82c1 893c 20f9 eb3d 4a82 ef3d 8c23 ab3d
00000150: 77ab 98bd 255b d93d 6426 8f3d 7c9d 6fbd
00000160: 8198 1c3d fd10 a1bd 215d 9ebd 895e e83a
00000170: 562c 783d 0e9a b5bd 80a3 e3ba 05a6 a63c
00000180: 156b d7bc ed36 883d e1e2 3cbd 101f 9e3d
00000190: 3d3a 1bbd 00f2 953b 19a2 013d 2240 953c
000001a0: 83c9 4b3d ebe6 8cbd c021 843d 56e6 cfbd
000001b0: 3e31 7fbc 74d5 41bd 2a43 223d 16f5 f4bc
000001c0: 2a06 233d dee5 8b3d 4d22 2a3d e6ec d53d
000001d0: ace8 283d d075 913d 151c bb3d ecbb ab3c
000001e0: 9315 b83c d813 04bc 6734 d93d 36be c23c
000001f0: 69df b23c 4915 dd3d 575c 45bd 73d2 9bbd
0.09362842 -0.0088818725 0.11371065 0.047440633 0.063384846 -0.023540448 0.027133059 -0.008415068
0.03394666 0.018489977 -0.085234836 0.10632845 -0.08993333 0.106937595 -0.07987631 0.025617108
0.08660877 -0.09476227 -0.06807604 0.09889968 -0.07021054 0.07254096 0.07215083 -0.07801889
-0.07191137 -0.110042736 -0.033399314 -0.04646159 0.07183002 -0.091507904 -0.11626419 0.016962813
-0.035379793 0.09782569 0.10314696 0.026547654 0.049231227 0.11282919 0.02206063 0.081228904
0.10072179 -0.113747135 0.07741116 0.05895462 -0.0039346754 0.043937024 0.09660694 -0.034831405
-0.091436505 0.010103864 0.0999756 0.059262194 -0.030214008 -0.020935941 0.024726586 -0.004037387
0.027331417 0.038617514 0.020164836 -0.043221187 -0.081540875 -0.036542103 0.117174774 0.0077568465
-0.034261398 -0.038378738 -0.056821764 0.05082904 -0.07569818 0.024860121 0.07816748 -0.08041662
0.11780831 -0.096294425 0.10027331 0.06950841 0.007802084 -0.09250649 -0.018934317 -0.03285143
0.016815905 0.11522126 0.116947725 0.083563894 -0.07454579 0.106130876 0.06989744 -0.0584998
0.038231377 -0.078645684 -0.07732607 0.0017728369 0.060589157 -0.08867274 -0.0017367452 0.020342836
-0.026296178 0.06651101 -0.046114806 0.077207685 -0.037897337 0.004575968 0.03164873 0.018219057
0.049752723 -0.068799816 0.0645175 -0.10151355 -0.015575705 -0.047322705 0.039614834 -0.029902022
0.0398008 0.06830953 0.041536618 0.104455754 0.04123752 0.07102549 0.091362156 0.020963632
0.022471225 -0.008061372 0.10605698 0.02377234 0.021835046 0.107950754 -0.048183765 -0.076084994

raise_dim.0.weight f4 [24, 8, 3, 3]
00000000: 5e1e 40bd f6b4 603d 961d 133e e54a 883d
00000010: dfb2 653d 7ca4 093e 28e6 523d 99a6 0c3e
00000020: d450 0e3c 3a39 8ebd b34e 0cbd b0c2 01be
00000030: f926 b2bd 4264 67be cac3 013d 7353 02be
00000040: 8f67 0cbd d941 7dbd a6ce d13d 8875 b93c
00000050: 11ee 8cbb 0416 38bd ff30 cebd 4a7a 043c
00000060: ec85 ccbc 9d8c 8f3d 8cbb 03bc 3a3d 063e
00000070: 132f 133d 6358 5f3d c03f 3a3e 90c8 ee3d
00000080: ba59 023d 6a88 923d 669d 403d 151b 003d
00000090: e292 b9bd 8f11 f8bd 22cc dabc 7835 c2bd
000000a0: 76a6 2fbe 417c 07bd bc31 c1bc 7ae5 43bd
000000b0: 3685 c7bd cddc 8fbd e39f f33d d03f 4abd
000000c0: 3b86 083e f05b 693d 3c79 0a3e 3265 09bd
000000d0: 85f3 523d 3b0d 8b3d b70b aebc 5e8a 8dbb
000000e0: e2c1 1abc 82d2 0d3d 1b7e 46be eeb7 99bc
000000f0: d345 403c 59b2 d1bd d29d 7fbd 3d82 9ebc
00000100: 74b8 f53d 2a14 4ebd 66f6 663c b4cf 8b3d
00000110: 2d66 53bd b0b9 10bd eb02 073e 33b0 f63c
00000120: 29f6 c43c 073d 7bbd 254d 5c3e 66d1 a2bd
00000130: 5b85 383e 08f7 433d a84f f9bc 1ede b53c
00000140: c77a 4c3e 034b a0bd e82a c9bd 30fd 11be
00000150: 95b2 98bc 9105 2e3c 1cc8 85bd 6683 2bba
00000160: d9a3 04be ea07 12be ad2c 1ebb bb8c 043e
00000170: 90f3 9ebd d8d3 6f3d e8cc 623e a45d 053e
00000180: 6c38 41be 4434 283e b7fd 5dbd 805d 8e3b
00000190: dca4 5c3d df18 31be 298b b53d a8fc 463e
000001a0: 5f23 e7bd eed3 493e fcfd 34bc 8ed8 3fbe
000001b0: 8409 f3bd afc3 4bbd c80a a43d 9fb9 fbbd
000001c0: 3dc1 cebd fbef 61bd e417 eabd d49f 7dbd
000001d0: 5fb2 433e dad3 cb3d 47cc d9bd 6308 f53d
000001e0: 5d40 b63d 3d9e f63d 468f babd 08c3 113e
000001f0: 411a 9eb9 927e 00be 4827 09be 77fc 3c3d
00000200: 00a4 bb3c ac9c 2dbe 49f8 773e 1fa0 883d
00000210: 8b8c 0bbe 3c38 973c 6d2f d53c 13c4 313e
00000220: 0ebe 6fbc 3082 96bb 9eb7 13bc ff62 1bbe
00000230: 5486 f7bd 47bf d83d a66a ccbd cc9a 5d3c
00000240: f7fa a63d a6cd db3d cfaf 93bd 9b74 883d
00000250: 2cb5 00bd 99ec b9be 82da ee3c 184e 7cbd
00000260: d503 ddbd 16b9 0ebe c134 24bc 552c 01bb
00000270: 27f9 9bbd 1146 0fbe 8a67 25be 9aa6 223d
00000280: 8836 7dbd 023e 60be b6f5 84bd 3b1a 4abd
00000290: 14b2 613c bdfa 7e3d ed7e 9bbc 85be cd3d
000002a0: 60f2 9d3e b5b8 033e 4d97 843c 409d 36be
000002b0: 0935 9cbd 4a70 97ba 2767 5dba 9319 0a3e
000002c0: e14d 93bd 2d65 043d 185f 933e b59e 48bd
000002d0: 4482 9d3c 8940 e2bd 5bce 833e 9430 22be
000002e0: d76f a8be cb5f fb3d cb60 3fbe 62ef 0abe
000002f0: 3d19 4fbe eb07 053e f0b3 613e 4ed6 033e
00000300: 044e 523d 35ca 0f3e a4e4 bb3c 06a6 1cbd
00000310: de80 403e 0a4e b73b d284 1e3e 8209 babc
00000320: a681 72be 731b b33d d6f9 af3d da4a cbbd
00000330: a1d8 53bd 92a9 9fbc 8cf3 45bd ad3a 663d
00000340: f3e2 c1bd 2942 d0bd 59f5 62bc a3f1 f9bd
00000350: 625e b2bd 8a40 adbd 4ce2 a03c 5760 913e
00000360: a58f 77bd 58ad 6abd ea71 373b abc0 49be
00000370: 32e0 9abe d91b 64bd 7734 bb3d 228f 8bbb
00000380: 3184 033c 79ee 3dbd a563 e4bc cd5e ae3d
00000390: f7b1 d03d a766 85be f818 d1bd ee15 e53d
000003a0: 2946 8cbd b2fb 423e 4b24 3abd f5c4 0ebe
000003b0: aa62 c5bd 335f a6bd 85a0 3cbe b805 dfbc
000003c0: e39b cdbd e8de b7bd 06dc 26be 639b c2bd
000003d0: f218 753e b5da 2e3e 1c86 8e3e c051 1a3e
000003e0: 72ca 0c3e 736c 3fbd a1ac d93d bdd2 e43c
000003f0: 6fad 143e 8ff4 973d c31b 85be 763d 873c
-0.04690396 0.054860078 0.14366755 0.0665491 0.056078788 0.13441652 0.051489025 0.13735427
0.008686263 -0.06944509 -0.03425474 -0.12671924 -0.0869884 -0.22596839 0.03168086 -0.12727146
-0.03427845 -0.061830375 0.10244493 0.022639051 -0.0043008407 -0.04494287 -0.10067939 0.008085797
-0.024966203 0.07009242 -0.00804032 0.13109294 0.035933565 0.05452765 0.18188381 0.11659348
0.03182385 0.07154925 0.047025107 0.031275827 -0.09061219 -0.12112724 -0.026708666 -0.094828546
-0.17153344 -0.033077482 -0.023583286 -0.047826268 -0.09742205 -0.07024536 0.1189573 -0.049377263
0.13332455 0.056972444 0.1352281 -0.033543773 0.05150177 0.06789633 -0.02124582 -0.004319473
-0.009445639 0.034624584 -0.19384043 -0.018764462 0.011735397 -0.10239095 -0.06240637 -0.019349212
0.11998072 -0.0503122 0.014096832 0.068267256 -0.051611114 -0.035333335 0.13184707 0.030113315
0.02404316 -0.061337497 0.21513803 -0.07950096 0.18019621 0.04784301 -0.03043349 0.02220064
0.19968711 -0.07826807 -0.09822637 -0.1425674 -0.018639842 0.010621444 -0.065323085 -0.0006542712
-0.12953128 -0.14260831 -0.0024135516 0.1294431 -0.077612996 0.05855164 0.22148478 0.13024002
-0.1886918 0.16426188 -0.05419704 0.004344642 0.05386816 -0.17294644 0.08864433 0.19432318
-0.112860434 0.19709751 -0.011046883 -0.18734953 -0.11867049 -0.049747165 0.08009869 -0.12291264
-0.10095451 -0.055160504 -0.11430338 -0.061920002 0.19111012 0.09952517 -0.10634666 0.1196449
0.08898995 0.120419 -0.091093585 0.14234555 -0.0003015567 -0.12548283 -0.13393891 0.046139207
0.02290535 -0.16954297 0.24215807 0.06671166 -0.13627832 0.018459432 0.026023591 0.17359953
-0.014632715 -0.0045931563 -0.009015946 -0.15174483 -0.12086168 0.10583358 -0.09981279 0.013525676
0.081533365 0.10732584 -0.07211267 0.06662866 -0.03142278 -0.36313322 0.029156927 -0.061597914
-0.107917465 -0.13937792 -0.010022343 -0.0019710262 -0.076158814 -0.13991572 -0.16152778 0.039709665
-0.061819583 -0.21898654 -0.06492178 -0.04934142 0.013775367 0.06225084 -0.018981421 0.10046104
0.3084898 0.12863429 0.016185427 -0.17833424 -0.07627303 -0.001155385 -0.0008445852 0.13486318
-0.071925886 0.03232305 0.28783488 -0.04897948 0.019227155 -0.11047465 0.25743374 -0.15838844
-0.32897827 0.122741304 -0.18689267 -0.1356788 -0.20224471 0.12991302 0.22041297 0.1287472
0.051343933 0.1404198 0.022936173 -0.03824427 0.18799159 0.00559402 0.15480354 -0.022709612
-0.2368227 0.0874547 0.08592574 -0.09926386 -0.051720265 -0.019490037 -0.048327968 0.0562083
-0.09467115 -0.10168869 -0.013852441 -0.12204292 -0.08709408 -0.084595755 0.019639157 0.28393814
-0.060439724 -0.05729422 0.0027991482 -0.19702403 -0.30249172 -0.05569062 0.09140866 -0.004259006
0.008027122 -0.046370003 -0.027879545 0.085141756 0.10190194 -0.2605488 -0.102098405 0.111858234
-0.068493195 0.19041327 -0.045444768 -0.1394232 -0.09637959 -0.081236266 -0.18420608 -0.027224407
-0.10039499 -0.08978063 -0.1629487 -0.09502294 0.23935297 0.17075618 0.27836692 0.15070248
0.13749102 -0.046734285 0.106286295 0.02793252 0.14519285 0.07419693 -0.25997743 0.016508799

raise_dim.0.bias f4 [24]
00000000: 14fd 953c 8d77 a7bd d0b9 71bd 39ec 22be
00000010: af10 d2be dd4e ee3d 78f8 a43d 4820 95bd
00000020: 1520 583d e579 4f3d 50bc bd3d ac83 f53d
00000030: c859 3dbd f74d 88bd c7e1 93bb ab75 4ebd
00000040: 2082 ae3d be77 0dbb 3064 09be 11fe 20be
00000050: d388 ea3b 5f16 40bc caa6 10be d435 3a3d
0.018309154 -0.081770994 -0.059015095 -0.15910424 -0.41028354 0.11636136 0.08055204 -0.07281548
0.05276497 0.050653357 0.092644334 0.11988005 -0.0462282 -0.066554956 -0.0045129987 -0.050405186
0.08520913 -0.0021586264 -0.13417125 -0.15721919 0.007157424 -0.011724084 -0.14126125 0.04546149

layers.0.block.0.conv0.weight f4 [24, 24, 3, 3]
00000000: 3cd6 0e3d 8fcf c9bd 817b 54bc 9c03 adbd
00000010: 5feb 97bd 5a6b 3bbd e4ee c6ba 95e6 29be
00000020: e6a1 1b3d 4f4e 883c e3c8 653d 37ee adbd
00000030: 3522 b43c 9084 3a3d b33f b5bd 69da 613e
00000040: 0077 103d 4e29 33be f48a 2bbe 743c 00bf
00000050: fc11 5c3d 3ead b43d 7942 1bbe 98e9 243b
00000060: 0264 673e e3ff 12ba 2556 a43e 188e 5d3d
00000070: a8c0 8cbe 5f6b 3bbe f828 483e 7001 ef3d
00000080: 501f 4bbe 17ae 113f aa33 233e fed0 24be
00000090: 0b71 8d3e cfe5 0e3e 3f89 733c ad0b ec3d
000000a0: c478 3abc 458a aebd 64ea 703e 1252 b13c
000000b0: 7739 433e f65e 7abe 9a1f 023e 5ff9 513e
000000c0: f693 e0be cbc1 8cbd e010 863e 52d8 96bd
000000d0: 71f6 fc3d 4df0 5abd 8694 983c c809 3b3d
000000e0: 33f6 86bd 4fea 18bc 67b6 473d b88d 9d3d
000000f0: 1ada e7bc b124 fb3d 1592 8dbd 912b 8d3d
00000100: 2408 70bd ca02 05bd 361b 43be c7db 6b3b
00000110: aac0 84bd 9552 6f3d c4d2 f33e 8c6c 3cbe
00000120: 08c7 9e3d d576 3fbe 9db6 3bbd 0cfd 26bd
00000130: 6158 b6bc 1198 213e 29dd 26bd 7982 133c
00000140: 85bc 1e3e b669 8d3d 004e e6bc 9767 00bd
00000150: 338f 0bbd ad7b d1bc 7f87 f73b abc5 afbc
00000160: 016e 86bd 8804 55bc 614d a4bd e8f7 ddbd
00000170: 2bcc d73b e907 d13d 59a7 ad3d 025f 80bb
00000180: 93ef 9d3d 8290 a3bd 3c9c 7bbd d1bd 343d
00000190: 282e 2c3d e171 8ebd 290c 143d 3e95 7b3c
000001a0: 7028 563d 8f59 733d 4bb6 54bd 0851 ae3c
000001b0: e24b 50bf 441e 303e 7987 bb3d efac edbd
000001c0: 1ebd 93be 2041 20be fcee fd3e 2964 4dbd
000001d0: 09d6 9f3e d311 983d 98b2 cf3c 43a3 113e
000001e0: 3b3c 273e 9e32 55be c195 1bbd 99c9 c93e
000001f0: a702 4cbe 8d39 843e 4c13 3fbc 50ee 82be
00000200: a138 253d efc9 7d3d cf71 df3c 2bf0 233e
00000210: 4887 b53c 1297 c5bd 1693 873e a548 9e3e
00000220: 2bf1 eb3c 1ade 79be 8d8e b33d 35fe f53c
00000230: 48e1 46be 8732 183f 0076 9c3e ca84 80be
00000240: 0427 cebc 16a7 5ebd 87ab 393d 3fee 243c
00000250: 58fe 193c 4d2c 98bd df3f efbd 64ed aabd
00000260: 5a0c ba3b 653a 613d 23f6 86bd bfda 1e3e
00000270: ec80 293e e5ae 29be f57e e0bd a48a 1cbc
00000280: a3c5 d9be b43d bf3d b3fb 0bbd 1d55 afbe
00000290: 34bf 743e 69be d1bd 9a8f 96bd d135 263e
000002a0: 6549 bf3b 3182 f03c 0920 8bbd cc6b 953d
000002b0: 58c1 193e 8982 903c e05b 3b3d 2258 1cbe
000002c0: 73d8 92be 821c 25be d85f 63be 607b 133d
000002d0: 3f1b 3ebc 3261 0cbe dea2 423d eace 653d
000002e0: 080c b53d 6b9c 86bd fa6a 133e e1c5 463e
000002f0: b3dd ca3d 728e aebd 72e3 383e 20ab d73d
00000300: b042 da3d 2858 c8bd ee05 c2bc 91c4 eb3c
00000310: 1656 4cbe bcce f93d ef2c 93be a02d 683e
00000320: 8d08 8fbd 0c59 803e dbb8 efbc 5b8c e6be
00000330: f984 a1bd df7c 04be ccdd 9f3d 9b3c 253c
00000340: ae57 d53c 31f1 aabc b20d e43d 27a8 d43d
00000350: 0cf6 a93d 1765 a6bd 7e38 963c df1c d23d
00000360: 7b0e e53d 2f89 a13e fc5e 963e 625e b4bd
00000370: 96e9 41bc a111 3c3e fb43 10be 1549 11be
00000380: 0564 29bd c762 c6be 9948 53be 1cbc 6abc
00000390: eb89 603e 5ad7 ffbe ba8b 37bd ac8c a9bd
000003a0: f3e0 a9bc 6ce7 91bc 1ed2 093f 7fee 5d3d
000003b0: f55f 0dbf 0dab b43e 2154 0d3f e24a 453e
000003c0: 7cd6 14bf ff9b 523e 78c7 bebd aab3 ca3e
000003d0: c868 743e 93ac a73c c263 aa3e 4339 b3bd
000003e0: 3043 e7be f815 b6be 8c23 e3bb fb4f e7be
000003f0: 30f3 093e f777 7dbc 5ad6 023d f293 813e
0.03487228 -0.09854042 -0.012968899 -0.08447954 -0.0741794 -0.045756675 -0.0015177396 -0.16591866
0.037996195 0.016638903 0.056099784 -0.084927015 0.021988967 0.045536578 -0.0885004 0.22055973
0.035269737 -0.17496225 -0.16752225 -0.50092244 0.05372809 0.08822106 -0.15162076 0.0025163647
0.22596744 -0.0005607588 0.32096973 0.05409059 -0.27490735 -0.18302678 0.19546878 0.11670196
-0.19836164 0.56906265 0.15937677 -0.16095349 0.27625307 0.13954853 0.014864265 0.115256645
-0.011381332 -0.085224666 0.23526913 0.02164558 0.1906489 -0.24450287 0.12707368 0.20505284
-0.43862885 -0.068729006 0.2618475 -0.073654786 0.123516925 -0.053451825 0.018625509 0.045663625
-0.065899275 -0.009333207 0.048757937 0.07693046 -0.028302241 0.12262858 -0.069126286 0.06893075
-0.058601514 -0.032473363 -0.19053349 0.0035989152 -0.0648206 0.058428366 0.4762174 -0.18400782
0.07752806 -0.18697675 -0.04582845 -0.040768668 -0.02225894 0.15780665 -0.04073826 0.009003275
0.15501602 0.069049284 -0.028113365 -0.03134879 -0.034072112 -0.025571669 0.007553994 -0.02145656
-0.0656395 -0.013001569 -0.08022571 -0.108383 0.006585618 0.10206587 0.08479185 -0.003917576
0.07711711 -0.07986547 -0.061428294 0.044126336 0.042036206 -0.069553144 0.03614441 0.015355406
0.052284658 0.05941158 -0.05193166 0.021278873 -0.8136579 0.17199045 0.09156699 -0.1160525
-0.28855222 -0.15649843 0.49596393 -0.05014435 0.31217983 0.07425275 0.025353715 0.14222436
0.1633157 -0.2082009 -0.037984613 0.3941162 -0.19922887 0.25825158 -0.011662316 -0.25572443
0.04033721 0.061960157 0.027275948 0.16009586 0.022159234 -0.09647955 0.26479405 0.30914798
0.028801521 -0.24401131 0.08767424 0.030028442 -0.19421875 0.594521 0.30558777 -0.2510131
-0.025165088 -0.054358564 0.045329597 0.010066568 0.009399019 -0.07430325 -0.11682104 -0.0834606
0.005677742 0.05498733 -0.065899156 0.15513133 0.16553086 -0.16570623 -0.10961715 -0.009554539
-0.42533597 0.09337941 -0.034175586 -0.34244624 0.23901063 -0.10241396 -0.073516086 0.16231467
0.0058376067 0.029358955 -0.067932196 0.07295951 0.15015161 0.017640369 0.045741916 -0.15267995
-0.28680763 -0.16124156 -0.2220453 0.03600633 -0.011603176 -0.13708952 0.047518604 0.05610553
0.088401854 -0.06572803 0.14396277 0.19411422 0.09905567 -0.08523263 0.18055514 0.105306864
0.10657251 -0.097824395 -0.023684468 0.028780254 -0.19954714 0.121976346 -0.2874522 0.22673655
-0.06984053 0.25067937 -0.02926295 -0.45028958 -0.07886691 -0.1293826 0.07805976 0.01008525
0.026042785 -0.020866962 0.11135425 0.10383635 0.08298883 -0.0812475 0.018337484 0.10259413
0.111844026 0.31549975 0.29369342 -0.088070646 -0.011835476 0.183661 -0.14088432 -0.14188035
-0.04135515 -0.38747236 -0.20633163 -0.014327075 0.21927612 -0.49968988 -0.044810988 -0.08278784
-0.020737147 -0.017810546 0.5383624 0.054182526 -0.55224544 0.3528675 0.55206496 0.19266847
-0.5813978 0.2056732 -0.093153894 0.39590198 0.23868096 0.020468032 0.33279234 -0.08751156
-0.45168447 -0.35563636 -0.0069317278 -0.45178208 0.13471675 -0.015470496 0.031942703 0.25308186

layers.0.block.0.conv0.bias f4 [24]
00000000: ef2c 7f3c 20f4 333d e1dc 413c 4583 fbbc
00000010: 440d 373c 1ba4 35bd bbfe ee3c 08a4 3abc
00000020: d6c2 18be eb26 84ba 222b a23c f0cf c7bc
00000030: f32d 153d 2c16 bfbd 9a03 6dbc b28d 673d
00000040: d74d b63a 7dad 86bc db1c 87bd 170c 413d
00000050: 5562 71bc 8f8a 2c3c f375 c33c 420e 4bbd
0.015574678 0.043933988 0.011832447 -0.030702243 0.011172596 -0.044345956 0.0291742 -0.011391647
-0.14918074 -0.0010082399 0.019795958 -0.024391145 0.036420774 -0.09330401 -0.014466191 0.056531616
0.0013908696 -0.016440148 -0.065973006 0.04713067 -0.014732917 0.010531082 0.023859954 -0.049574144

layers.0.block.0.conv1.weight f4 [24, 24, 3, 3]
00000000: f326 c23c 3299 e4bc c98c 943b 1172 4c3d
00000010: b583 6fbc e9f4 0abd 9bc7 e43b 833d 86ba
00000020: 7c0e d0bc a4a3 3fbe 884e ff3d 6c68 88be
00000030: 9536 803d 1b02 f43d 2f7d 5cbe c355 20be
00000040: a8e1 b63d 7b32 483d 7a1d 28bd d1d6 bdbd
00000050: 13a0 213d 57eb 08bd b26d 0dbd 2d13 4b3d
00000060: aa10 a23c bea3 863a e92e 3e3e a674 9bbc
00000070: cfbe 1e3e b64c 8dbd 75f7 36bc 1e60 dcbc
00000080: b124 88bd 751c 26bc d174 8a3c 39f1 3abc
00000090: 2787 efbd aa1b 163d f118 983b 1e3a 133c
000000a0: 4bdc 393d 96f8 bcbd ec98 d83c e4ea 9a3b
000000b0: 04bb 46bd 1ed5 1f3a 0f73 e8bd 2df0 b0bc
000000c0: 0294 51bd d496 363e fd58 c1bc 2d79 fabd
000000d0: 576a 8d3e 1b80 1c3e 9649 c53d a7c8 68bd
000000e0: 124d 073d 06ab 99bd 8da3 29be 9c32 7fbd
000000f0: 95d3 c0bd fc6e 9dbd b494 c73d ed01 e0bb
00000100: ebff 223d 98db 02bb 1d98 27bc 7ce7 b7bd
00000110: 6b89 953b 38db 4abc 3f94 4ebb 9550 f43d
00000120: 6df1 69bd a56a 85bd 4ced 4a3c b269 d53d
00000130: 5db3 d93c d44b eb3c 0476 a33b aecf 403c
00000140: 605e 793d 0409 d8bc be3e be3b 0181 d5bd
00000150: 4fca 47bc 2194 afbc bdd9 a43d e396 4dbd
00000160: f6cf 4bbd b265 8ebd 7942 6fbd b516 d0bd
00000170: 12f1 213d 1e90 873c bd46 d5bd e289 7a3d
00000180: f0bd e53c 697e 4dbd 528f 9c3d 4961 303d
00000190: 02b8 843d 05fa a5bc 3565 93bd 52fd fdbd
000001a0: 6b1e f53c 43a3 b4bd a60b 9cbd d299 9ebd
000001b0: 2e31 153c db93 1bbb 0963 cabb ea81 8fbd
000001c0: 20dc b4bd e6fd 503c fcb0 373b 0ae4 38bd
000001d0: 7ada 27bd ac01 053e e16d c0bd 2b2d aabd
000001e0: 3624 0a3e 81bf 8dbd fc02 e13d 35a5 e13d
000001f0: 6310 98bd c973 813d 6cf0 8f3d 967f d7bd
00000200: 4aec 2e3d 0fb0 833c bcd6 86bd 8222 62bd
00000210: 671a 1b3d 574c 04bd 1ceb 593d 12a3 ae3d
00000220: 19b6 a03c c43b 943c fa7e 5e3c e674 c23c
00000230: 18cd 8e3c 2577 b43d 6948 9ebd 59d7 77bd
00000240: 62ae 913e 5b02 f73c 6da3 0c3e 8151 b03c
00000250: a537 433e c382 86bd b119 4b3d 1255 053e
00000260: e99e c63c c370 92bb daf9 b0bc 1d87 abbd
00000270: 3b60 aa3d 6301 8c3d 9aca 7cbd 4259 26bd
00000280: 40bd 82bc 82ed 91bd ca1c b83d 8ac7 8c3b
00000290: d25f 973d 1363 f73d 36c8 b7bd e9bb 573d
000002a0: c4dd fc3b 2124 8d3d 69e1 08bc 0aff e3bc
000002b0: a252 21bc bda0 a0bd 67c0 13be 9c91 1c3d
000002c0: 498d b9bd d57b b03b 42e9 93bd 85ae 07bd
000002d0: 1cd1 5fbc 5436 05be 1fd6 ea3c 7903 233d
000002e0: 850d 933c 54ac b53c faec 703d 53cc a1bd
000002f0: 93ab dcbd b243 cb3c 4f0b 703c 3ee7 bebc
00000300: a538 c1bc e087 9d3c 24d9 60be 816a a6bd
00000310: a2e8 c3bd 805b 91be 4f06 1b3d 6ab6 0a3e
00000320: a04b 8c3c 6148 53bc 7365 3bbc b567 f5bc
00000330: ae47 213e f95b 1dbd 0256 7b3d 017f 4c3d
00000340: c1a9 aabd 22d3 e63d 313b 983c 7cb0 2fbd
00000350: 530d 54bd a486 04bd 750a 0fbe ca25 8e3d
00000360: 4a59 533d 76db e23d bb8c 383d b01a babd
00000370: 7556 003d 6638 f93d 202f 51be edca d3bd
00000380: 251e 6bbc 88bd 953d 6ec8 fbbd a63b c73d
00000390: aa1b ddbb 17f1 1fbd 3a66 a8bd 1b91 803e
000003a0: 04b1 07be 2d48 983b a6ae a53c f170 9c3d
000003b0: 6860 0abe fee0 8b3c 1563 283b 181c 883d
000003c0: 7c20 fbbc 4b41 e4bd 02e1 c83c 36d4 033d
000003d0: 435d 89bd ec30 abbc bcdf 06bd 8b23 1abe
000003e0: 862a 52bc e6ee 143d bed7 4c3d 47eb 493d
000003f0: e644 32bd ae26 2bbd ec73 6dbd 34e9 303d
0.023700213 -0.02790508 0.0045333845 0.04991347 -0.014618804 -0.03392497 0.0069818026 -0.0010241721
-0.025397532 -0.18714768 0.124661505 -0.26642168 0.06260411 0.11914464 -0.21532129 -0.15657715
0.08929759 0.048876267 -0.041043736 -0.092694886 0.0394593 -0.033427563 -0.03452844 0.049578834
0.019783337 0.0010272188 0.18572582 -0.01897652 0.15502475 -0.06899397 -0.011167397 -0.026901301
-0.06647623 -0.010138621 0.016901406 -0.011410051 -0.116957 0.036647476 0.004641645 0.008986024
0.045376103 -0.092271015 0.026440106 0.004727708 -0.048518196 0.00060971256 -0.11350071 -0.0215989
-0.051166542 0.17830974 -0.023602003 -0.12230144 0.27620193 0.15283243 0.09633176 -0.056831982
0.033032484 -0.07503323 -0.16566296 -0.062304124 -0.09415356 -0.07687184 0.0974516 -0.006836167
0.039794844 -0.0019967314 -0.010229138 -0.08979699 0.0045635006 -0.012381367 -0.0031521467 0.11929432
-0.057115007 -0.065144815 0.012385678 0.104205504 0.026574785 0.028722681 0.004988434 0.011768265
0.06088102 -0.026371486 0.0058058193 -0.10424996 -0.01219423 -0.021432938 0.08049343 -0.050192725
-0.049758874 -0.069529906 -0.058413003 -0.10160581 0.039536543 0.016548213 -0.10413883 0.06116665
0.02804467 -0.050169382 0.07644524 0.04306153 0.06480409 -0.02026082 -0.07197038 -0.12401833
0.029921731 -0.08820202 -0.07619409 -0.07744183 0.009105964 -0.0023739252 -0.0061763567 -0.07007201
-0.08831048 0.012755847 0.0028029075 -0.04513935 -0.04097984 0.12988919 -0.09395958 -0.08309396
0.13490376 -0.06921292 0.10986897 0.11017839 -0.074250005 0.063209124 0.07028279 -0.10522382
0.04270581 0.016075162 -0.06583926 -0.05520869 0.037866976 -0.032299366 0.053202733 0.08527197
0.01961808 0.018094905 0.013580078 0.023737382 0.01743178 0.088117875 -0.07728655 -0.060508106
0.28453356 0.03015249 0.13734217 0.02152324 0.19064195 -0.065679096 0.049585048 0.13020733
0.024245696 -0.0044690087 -0.021603514 -0.0837538 0.08319136 0.06836202 -0.061716653 -0.040612467
-0.015959382 -0.07125379 0.08989866 0.004296248 0.07391323 0.12079444 -0.08973734 0.05266944
0.007716866 0.06891657 -0.008354523 -0.027831573 -0.009846361 -0.078431584 -0.14428864 0.0382248
-0.09060151 0.0053858557 -0.07222225 -0.03312542 -0.013660695 -0.13009006 0.028666554 0.039798234
0.017950783 0.022176899 0.05881975 -0.079003 -0.10774913 0.024812553 0.014651134 -0.023303624
-0.02358658 0.01922983 -0.21957833 -0.08125783 -0.095658556 -0.2839012 0.037847813 0.13546148
0.017125905 -0.012895674 -0.011437762 -0.029956678 0.1575 -0.03841779 0.06136132 0.049925808
-0.08333159 0.11270739 0.018582912 -0.042892918 -0.05177052 -0.032354966 -0.13968833 0.069408014
0.051598825 0.11077015 0.045056086 -0.090871215 0.03133245 0.1216896 -0.20428133 -0.103414394
-0.014350449 0.07311541 -0.12294088 0.09728174 -0.0067476826 -0.03904828 -0.08222623 0.25110707
-0.1325112 0.004647276 0.02022488 0.07638729 -0.13513339 0.017075058 0.0025693823 0.066459835
-0.030655138 -0.11145266 0.024521355 0.032184802 -0.067072414 -0.020897351 -0.032928213 -0.15052621
-0.012827521 0.036360644 0.050010435 0.049296644 -0.043522738 -0.041784935 -0.05797188 0.04319115

layers.0.block.0.conv1.bias f4 [24]
00000000: 9de7 1cbc ebde 70bb 2e59 8e3b 5bed 833c
00000010: 4883 90bc 837a 8bbd 0302 5fbc 3ea8 1ebc
00000020: c4b8 09bd 1f5a 13bd 24ce afbd d02c 9bbd
00000030: 52f6 8d3b 5929 d43c e077 223d d76e 403c
00000040: 8f0c 19bd 3874 0c3c 12e1 ac3c f1ce 84bc
00000050: 030a 53bc 4945 7c3b c84f 99bc 75b2 24bd
-0.009576705 -0.0036753963 0.004344127 0.01610439 -0.017640725 -0.06810477 -0.0136113195 -0.009683667
-0.03362347 -0.035974618 -0.0858424 -0.07576907 0.004332342 0.025898622 0.039665103 0.011745176
-0.037365492 0.008572631 0.021103416 -0.016211959 -0.012880805 0.0038493446 -0.0187148 -0.040209252

layers.0.block.1.conv0.weight f4 [24, 24, 3, 3]
00000000: 9f0f d43d dae6 abbb a463 c8bd 7090 70bd
00000010: 0b9f 88bd af25 0abe c706 22be ceb4 cb3d
00000020: 2dab 20bd 3001 4cbe 90bb 4a3a 60d1 e23d
00000030: 9f21 863d 06b3 2c3d de2d 32bd fd29 eebc
00000040: 3514 593d 4bcd 81bd 294a b5bd d579 56bd
00000050: bf22 eebd 2bfb 8a3d 1958 1b3d 413c c73d
00000060: f357 883d 1d46 5a3e fc06 693d bc25 b83d
00000070: edfc cd3d ad7b a8bc 428a 7f3c 02f0 34be
00000080: fcec f0bd 4958 e73d d6e9 7ebd 21ae 7cbd
00000090: ead6 0dbe 49f9 06be ee68 943d 868e e33d
000000a0: e7f0 853e 6ea7 843d cf47 69bd 2431 703c
000000b0: 3c84 2bbe 25d1 ca3d 6bf5 083e 36f5 9a3d
000000c0: 3370 0f3d 7d73 a1bc c32a dfbd 2382 0abe
000000d0: e9e8 92bd 0c81 b13d 914f d3bd 6a63 383d
000000e0: 6bb4 1f3e 32eb af3c 7c0f 04be 5c6f 293d
000000f0: dcce 4ebe 6f55 a4bd 410a 9bbd be3d afbd
00000100: 725f 8dbd 4253 853d 48e0 a1bd e1eb 7ebd
00000110: c10f a23d 35a2 a9bd b65d e03d cc13 b9bd
00000120: 24ed 4abe 2f2c 24be ff0e 09be 95a6 e0bd
00000130: a4cb 3f3d 90ff 093d b22f e13d 1187 7f3d
00000140: b6aa 023e 655d 29be 4e0f 7abd f1a9 ff3c
00000150: cb71 cfbd 9805 2dbd 7402 cc3d f490 213c
00000160: 0030 963c 938f e1bd 760a a53b 8e34 99bc
00000170: 62db dcbc d522 91bd 6e5a 8bbd cae1 7ebd
00000180: 1db9 5a3d a31e 893d d8aa 0b3d 5c6d 0c3e
00000190: 7263 b5bc f0dc 873d 2065 06be f54f 16bd
000001a0: 54b8 dcbb f7a0 883d a17b cebd 6b2f 68bd
000001b0: 35bb 06bc db09 80bd 4af0 37bd 368d ca3c
000001c0: 143f c4bc 1136 ba39 839c 163e 8f97 c3bc
000001d0: 42d9 78bd 448d 443e 8ca3 013e 7a06 d7bd
000001e0: 21c7 22bc 4722 cfbc 31ee 543c 6ed6 90bd
000001f0: 0e25 b0bd 2b90 a23d 6c73 1bbd abc3 4bbd
00000200: 7d3d e93b 1986 ba3c 584f a1bd 1963 6abe
00000210: b212 cb3c 5ff5 babd 1c5d 0cbd a1b4 853d
00000220: 90c1 df3d e2c3 3ebe b4b1 3bbe 7e91 a4bd
00000230: c9a9 b33b 1455 93bc 1f05 8a3c d749 a13d
00000240: ec75 383e 25e4 7a3d d1a4 a63d 1755 b4bd
00000250: 8a33 78bc bfb0 10be d133 67bd 91ce 4f3b
00000260: d421 893d 5a03 76bd e47f c6bd 57f9 5d3d
00000270: e44e 0c3d 2a85 803c bf10 b73b 8c64 c6bd
00000280: ffa6 eabd 3e07 a33d 9ee0 f63c 1984 88bc
00000290: 45a2 32be bf48 07be 1484 2fbd 5aae ecbc
000002a0: 3413 8a3d 3a96 1c3a a7c5 0c3e 5833 48bd
000002b0: 7a5a 96bd 8c31 863d bae1 0cbe 1c66 48be
000002c0: aa81 0cbd 6dc5 0d3e 5471 b73d 072c 873d
000002d0: 83a5 613d 9d18 75bc 4cfa 1a3d 2036 66bd
000002e0: 4d1e e03c 5066 b6bd ad82 1fbd b822 2abd
000002f0: 61b8 d1bc 8e61 1cbe 9d79 183c f9ea 363e
00000300: 92f1 0fbe b8d0 4d3d 82af 8dbd f039 c9ba
00000310: 2419 293d d224 e03d 4057 36be f6d9 01bd
00000320: 300a f13d c04e 16be 313f 603e e1a3 643d
00000330: a7a3 b93b f811 2abd 2951 9fbd 2fd9 0d3d
00000340: d27f e73c 9665 503d 3b79 bfbd e801 df3d
00000350: 438a aab9 0827 b2bc ee3f d23d 90c1 e03d
00000360: 599b 44bd 4353 a3bc 5559 173e e535 1bbe
00000370: 78f5 fa3d 00b3 b1bd 3a14 87bd e37c fd3d
00000380: bd1c 4f3e 53b9 2ebe 0e06 273c 7eab 6a3b
00000390: f31b 4ebd b852 84bd 47ec 883e d9c8 2bbe
000003a0: 1d1c f43d 8dce 973d 556f 503c 13b8 d8bc
000003b0: 33e3 4bbd bd0a 8bbd 4f4c 46bd 0836 fcbd
000003c0: b296 18be 7ffd c3bc 3607 3c3c c513 2bbd
000003d0: cf2c 003d 7327 073e ace9 00bd 79ef 9a3c
000003e0: 3859 c73d c029 c0bd 830e f7bc 4953 163d
000003f0: c5d0 d83c 1786 95bc c692 98bd df7c 3d3d
0.10354542 -0.0052460255 -0.0978463 -0.058731496 -0.0667096 -0.13490938 -0.15822898 0.09946595
-0.039225746 -0.19922328 0.00077336375 0.11075091 0.065493815 0.042162918 -0.043500774 -0.029072756
0.052997787 -0.06337985 -0.088520356 -0.05236228 -0.11627721 0.06786188 0.037925813 0.097282894
0.066574 0.21315809 0.056891426 0.08991572 0.100580074 -0.020566786 0.015596928 -0.1766968
-0.11763951 0.11296136 -0.062234722 -0.0616895 -0.13851514 -0.13181032 0.07246576 0.111111686
0.26160356 0.06477247 -0.056953248 0.014660154 -0.16749662 0.099031724 0.1337487 0.075663015
0.03501911 -0.01970839 -0.10896828 -0.13526206 -0.0717333 0.08667192 -0.103179105 0.045016684
0.15596168 0.021474455 -0.12896532 0.041365966 -0.20196098 -0.08024108 -0.07570315 -0.08556698
-0.069029704 0.06510021 -0.079041064 -0.06223667 0.07913161 -0.08282892 0.10955374 -0.09036979
-0.19817024 -0.1603248 -0.13384627 -0.10969273 0.046825066 0.03369099 0.10995425 0.06238467
0.12760434 -0.16539533 -0.061049752 0.031208964 -0.10129126 -0.042241663 0.099614054 0.00986122
0.018333435 -0.11013713 0.0050366474 -0.018701818 -0.026960079 -0.07086722 -0.068043575 -0.062227048
0.053399194 0.066952966 0.034098476 0.13713592 -0.022142146 0.06633937 -0.13124514 -0.036697347
-0.006735841 0.066713266 -0.10082174 -0.056685846 -0.008223345 -0.0625188 -0.044906892 0.024725538
-0.02395586 0.00035516967 0.14708142 -0.02387598 -0.06075407 0.19194514 0.12660044 -0.10499282
-0.009935171 -0.0252849 0.012996242 -0.07072149 -0.086008176 0.07937654 -0.03795187 -0.04974715
0.0071179257 0.02276902 -0.07876462 -0.22889365 0.024789188 -0.09128832 -0.034268484 0.06528593
0.10925591 -0.18629411 -0.18329507 -0.08035563 0.0054828865 -0.017984904 0.016848145 0.07875412
0.18013734 0.06125273 0.08136905 -0.08805292 -0.015149007 -0.14129923 -0.0564459 0.0031708817
0.06695905 -0.06006179 -0.09692362 0.054192867 0.034254923 0.015688498 0.005586713 -0.096871465
-0.11457633 0.07960366 0.030136403 -0.016664552 -0.17444713 -0.13211344 -0.04285057 -0.028891731
0.06741944 0.0005973313 0.13747273 -0.04887709 -0.07341476 0.06552419 -0.13757983 -0.19570202
-0.034303345 0.13844843 0.089571625 0.066001944 0.055089485 -0.014959482 0.037836358 -0.05620396
0.027358199 -0.08906233 -0.03894298 -0.041537017 -0.025600614 -0.15271589 0.009306339 0.17863072
-0.14056996 0.050247878 -0.06918241 -0.001535235 0.04128374 0.10944523 -0.1780672 -0.031702004
0.11769521 -0.14678478 0.21899106 0.05582035 0.005665261 -0.041521043 -0.07779152 0.03463095
0.028259192 0.05087813 -0.09349295 0.108890355 -0.0003252794 -0.021747127 0.102661 0.10974419
-0.047999714 -0.019937163 0.14780171 -0.15157278 0.12253851 -0.0867672 -0.06595655 0.12377336
0.20225807 -0.17062883 0.010194315 0.0035807784 -0.050319623 -0.0646109 0.26742765 -0.16775836
0.11919425 0.07412443 0.012721856 -0.02645496 -0.04977722 -0.067891575 -0.048412617 -0.12314993
-0.14901236 -0.023924587 0.011476329 -0.0417669 0.031292733 0.13198642 -0.031472847 0.018913018
0.09733814 -0.09382963 -0.030158287 0.03670052 0.026466737 -0.018252416 -0.0744987 0.046261664

layers.0.block.1.conv0.bias f4 [24]
00000000: baaa a93c efd9 f83c 5931 d0bd 94bc 52b9
00000010: dd33 dabc 7c92 c53c ba34 1f3d c11e 4b3c
00000020: 91d2 da3c 91d4 bd3c 6e11 c73c fd89 c3bc
00000030: 194e 293a 6793 f1bd 6d14 0f3d bfa7 86be
00000040: 755b 3e3c 88ce 683c d697 04bd a870 9bbe
00000050: cdb7 db3c 86b9 a3bb f1a9 c0bc 6d0a 983c
0.020711292 0.030377356 -0.10165662 -0.00020097411 -0.026636058 0.0241177 0.038868643 0.012397469
0.026711734 0.023172649 0.024300303 -0.023869509 0.0006458476 -0.11795693 0.03493159 -0.26299855
0.011618485 0.014209397 -0.032371365 -0.30359387 0.026821041 -0.0049964814 -0.023518534 0.018559659

layers.0.block.1.conv1.weight f4 [24, 24, 3, 3]
00000000: cc17 e23c b77b adbb 3b3b 0a3d fd8f 21bd
00000010: 0da8 4ebd 72e2 89bc bff7 e3bc 9a92 4cbd
00000020: bd37 5f3d 6dd1 523d 78b8 f4bd 00bb 1abc
00000030: ad30 323c 1147 77bc 4355 c4bd eec8 39bd
00000040: 243d 953c 70bf 8bbd f76a 39be d587 05bb
00000050: 1ade 213e b8e1 9fbc 09f4 22bd 5f89 453e
00000060: 57db 193d 6ec3 e43d dc1c c53d 3850 48be
00000070: 27f6 02be 40cf 06bd 2657 22be fc90 a1b9
00000080: a221 033d 3325 63be dc7a 14bd b050 82bd
00000090: 1f66 dc3d 539c 31be 7ed2 16be bb1c 15bd
000000a0: cdb6 943c ad38 05be de74 513c 5b5c fe3d
000000b0: acd2 443e 80b5 9a3d a1f0 b23a 7223 96bd
000000c0: 27f3 01be 97f4 f93c 0936 5ebc 90fb dcbd
000000d0: c22c f23b f4ba 1bbc 82ff fabd 7069 b4bc
000000e0: 6278 e63d 496c 8cbd d9dc 74bd 5722 80bc
000000f0: 669a a4bd 9396 eabc 42dc b53d bad4 3ebd
00000100: b422 1f3d c1b7 493d 6b96 703d 0851 5abc
00000110: 7e53 d3ba 80c6 59bb 6771 143d d119 3d3d
00000120: 73b6 e4bb 23cc 133d 0fae b03d 6941 43bd
00000130: 729e 993d b7a3 393c eba7 98bd 4564 3d3c
00000140: 5156 883d 95d7 f0bd 276c 3fbe e74e 04be
00000150: 96f7 eebc 7c50 073d 9ec2 973c 716f 773c
00000160: 5374 1b3d eb91 49bd 680c 643d 5ed9 0ebb
00000170: 816e 9c3d e35c 343c 6828 06be bca9 cfbb
00000180: edc6 2a3d 1b7a 213e 58f0 253e e857 9fbe
00000190: 750f 853c 0a15 083d c662 55be 875f 9cbb
000001a0: cd59 20be e4b4 28bc 5e36 44bd 8fdd 6abb
000001b0: f7ff ecbd 0bec 5ebd 5924 88bd 9f0d 04be
000001c0: f50f e7bc f38b 73bd b57f e2bd 6a9d e3bc
000001d0: 9369 7dbb aa0c 9ebe 07ef 42be 6359 92be
000001e0: a4ad 63be cc24 9ebe 357c 63be 034b 4dbe
000001f0: d56c 99be 0650 5ebe b14e d83d a3ee 94bd
00000200: 9588 7abc b0c3 e43d 2966 103c 29e2 c9bd
00000210: 5845 5bbc fb5f 623c 3de1 9fbd 8fb8 d7bd
00000220: 4da9 40bd be83 3d3d 15a7 04be 0f0a 34be
00000230: 3908 0b3e 0080 123e 0bf7 8ebd b5fa 523d
00000240: fec3 333d ad86 7dbb c809 7f3c 912a aebd
00000250: 78a5 943d 9bc5 143d a107 22be 88df 55bd
00000260: ed85 cdbc d346 18bd d764 79bd 1398 dcbc
00000270: dec7 4abb 8e67 6e3b 726e c2bc 5fda cc3d
00000280: e7b9 4bbc 34f9 a23c 454f 933d ba0d f83c
00000290: 5bfd 043d 9604 ffbc 51b2 ff3d 69c5 0c3e
000002a0: d1b8 783d 9403 10bd 913c 0abd e5ab a23e
000002b0: 795e 353e f88a c63d 6b44 3e3e d01b 823e
000002c0: 36c4 923d b8be 5b3d abae 98bd 2fc8 b73d
000002d0: 61d3 93bd 51e1 42bd 7aa9 5cbc 03bc 093a
000002e0: cf13 3f3d 1174 1cbd 25b3 90bc d5f2 9b3d
000002f0: cad8 94bd 2fd7 e2bc baa1 493c c773 9c3d
00000300: 88be 653d 4395 c5bd ef99 b73d 8607 a6bc
00000310: b967 7fbd d03f c7bd fc0b 9cbd 7bbe f1bd
00000320: 11f5 46be e593 2abe 7f67 8c3e caac 473b
00000330: e85e 02bf b3e1 89bd 04fb 24be f7fc 96bb
00000340: 5b9e 02be 5bc1 ecbd b9cb d93c 4868 973b
00000350: 0b72 90bd 288d f03d 73e6 a9bc f6b8 833d
00000360: d3ee 893d 09cf ddbd b688 1c3d a1b2 2a3d
00000370: b314 04be 2fc2 b0bc 8096 c8bd 3835 28be
00000380: 1d81 2cbd 2f80 bb3d 87d9 7cbd b761 13bc
00000390: d7f2 d93d db5e cebd b12d a13c 369f 7abc
000003a0: 77d2 30be 6167 1dbe ba2f 9cbe f3d3 8fbd
000003b0: 1322 0c3e 84cb e1bd 1e18 7b3d ecce 2abe
000003c0: cd6a 51bd 7c7f 733e b32c 57bc cad0 98bc
000003d0: bb23 ac3d 3b4a ca3d bfdc 9b3d 32f4 c23d
000003e0: 0967 bc3d 909f 9bbc c7a9 d3bc 8e35 69be
000003f0: 67ca e23e faf2 223d 6a4e d93e 2b8a 9d3d
0.027599238 -0.005294289 0.033747893 -0.03944396 -0.050453234 -0.01683161 -0.027828095 -0.049944498
0.054496516 0.051469255 -0.11949247 -0.009443998 0.010875863 -0.015092627 -0.09586575 -0.045357637
0.01821763 -0.06823623 -0.1810721 -0.0020375152 0.15807381 -0.01951681 -0.03978351 0.19290684
0.037562694 0.11170088 0.09624645 -0.19561851 -0.12789212 -0.032912493 -0.15853557 -0.00030816335
0.032014497 -0.22182159 -0.03624998 -0.06363046 0.107616656 -0.17344789 -0.14728734 -0.036404353
0.018153572 -0.13009901 0.012784211 0.12419959 0.1922099 0.0755415 0.0013652035 -0.073309794
-0.12690412 0.030512137 -0.013562688 -0.10790169 0.0073905895 -0.009505022 -0.122557655 -0.022022933
0.1125343 -0.06856591 -0.05978093 -0.015641375 -0.08037262 -0.028636253 0.088799015 -0.04658959
0.038851455 0.049247507 0.0587372 -0.013324983 -0.0016122905 -0.0033229887 0.03624096 0.0461672
-0.0069797575 0.03608335 0.08626949 -0.0476698 0.07500924 0.011330537 -0.07453903 0.011559551
0.066570885 -0.11759869 -0.186936 -0.12920724 -0.029170793 0.03303574 0.018525418 0.015102253
0.037952732 -0.049211424 0.055675894 -0.0021797041 0.076382644 0.011008474 -0.13101351 -0.0063373726
0.041693617 0.15769236 0.16204965 -0.31121755 0.016242722 0.03322319 -0.2083846 -0.00477213
-0.15659256 -0.010297034 -0.04790341 -0.0035837626 -0.11572259 -0.054424327 -0.06647558 -0.12895821
-0.028205851 -0.059459638 -0.110595144 -0.027785022 -0.0038667663 -0.30869037 -0.19036494 -0.28583822
-0.22234207 -0.3088745 -0.2221535 -0.20048146 -0.29965845 -0.21710214 0.10561884 -0.07272079
-0.015291353 0.11170137 0.008813419 -0.0985759 -0.013383232 0.013816829 -0.07806633 -0.10533249
-0.047036458 0.046268217 -0.12954362 -0.17581962 0.13577355 0.1430664 -0.069807135 0.051508624
0.043888085 -0.003868501 0.015566297 -0.08504213 0.07258123 0.036321264 -0.15823223 -0.05221513
-0.025088275 -0.03717692 -0.060887184 -0.026927983 -0.0030941884 0.0036377641 -0.023734305 0.100025885
-0.012434459 0.01989422 0.07192854 0.030279983 0.03246818 -0.031130116 0.12485183 0.13747181
0.06072313 -0.035159662 -0.033749167 0.3177177 0.1771182 0.09694475 0.18580787 0.25411844
0.071663305 0.05364868 -0.0745519 0.08973729 -0.07218052 -0.04757816 -0.013468141 0.0005254151
0.04664975 -0.038196627 -0.017663548 0.07614676 -0.07267912 -0.027690498 0.012306625 0.0763927
0.056089908 -0.0964761 0.089649074 -0.02026726 -0.062354777 -0.09728968 -0.07619473 -0.118039094
-0.19429423 -0.1665798 0.2742271 0.003046798 -0.50926065 -0.06732502 -0.1611138 -0.0046077925
-0.1275572 -0.11560317 0.0265864 0.0046205856 -0.07053002 0.117456734 -0.02073977 0.06431763
0.06735005 -0.108305044 0.038216315 0.04167426 -0.12898521 -0.021576969 -0.097943306 -0.16426551
-0.04211532 0.091553085 -0.061730888 -0.008995465 0.10642021 -0.10076686 0.019675108 -0.015296748
-0.17267786 -0.15371467 -0.30505162 -0.07022848 0.13684873 -0.11025146 0.061302297 -0.16680497
-0.051127244 0.237791 -0.013133216 -0.018654246 0.084052525 0.098774396 0.07610463 0.09519233
0.0919934 -0.018996984 -0.025837792 -0.22774336 0.44295046 0.0397825 0.42442638 0.07692369

layers.0.block.1.conv1.bias f4 [24]
00000000: c3d6 113c ff13 e1bb 4644 b53c 04b3 b8bc
00000010: 9e72 0e3d 5205 28bd e47b 1abd d708 6a3d
00000020: efcc 3dbc 2cb1 56bd 9cd1 98bd b48a 2bbd
00000030: 9efc 36bc e2a8 a53c 7c93 febc 385f 05bd
00000040: 7a0e 11bd 2dd9 cfbc 7219 e4ba 909b 0cbc
00000050: 060c c9bc a43c 483c 5b1e 283c 6ddb 56bd
0.008901301 -0.006868839 0.022127282 -0.022546299 0.034777276 -0.0410207 -0.037715808 0.057137337
-0.0115845045 -0.052415058 -0.07461855 -0.041880324 -0.011168627 0.020222131 -0.031076185 -0.03256151
-0.035414197 -0.025372112 -0.0017402603 -0.008582011 -0.024541866 0.012221489 0.010261144 -0.052455354
