weights/BWNET_LAGConv_T5/model_epoch_190.pth (torch, 673952 bytes, 140 tensors)

raise_dim.0.weight f4 [32, 9, 3, 3]
00000000: 50d4 b1bd 8356 b2bd 170b dcbd b0ad afbc
00000010: ed60 44be d494 4fbe 3761 023d b3c0 7dbd
00000020: 54b5 e83d 0789 b9bd 0983 90bc 7742 b83c
00000030: a05f 923d 4948 10bc bcf2 cbbd bb77 e6bd
00000040: 9ea0 dcbd 3a56 1b3d 2b89 14bd 7519 0ebc
00000050: 714e 603d 44e7 fe3d 0f4f 1ebd 7c6f e93c
00000060: 9593 6f3d 2130 1a3e fa27 35bc 03a8 c63d
00000070: f073 ff3c 284e a13d d442 643d 63c7 1c3b
00000080: 3692 df3c 8306 b4bc 20dd a13d f3b8 6f3d
00000090: 2da1 19bd 03b1 10bd 5ff0 0a3c 7934 933d
000000a0: 98a7 ce3c 2669 e93d ef5e 823d 5d30 a33b
000000b0: c739 643c 0ce1 203d f877 bfbc 9cea d13d
000000c0: f97b 8f3d d42c b23d 6d72 0c3e f64b 90bd
000000d0: 8770 8e3d 3208 133e 69fa 0e3e be8a 493d
000000e0: 3fb7 9a3d 7c3f 52bc 2b2d fb3d aad2 223e
000000f0: 2fe9 123e 6a84 903d d5ea 6b3d 5d1c 65bd
00000100: 83fb 81bd dd64 02bd 9bd4 43bd 79ed 243d
00000110: 3c34 143d 7785 3abd 946a 08bd dac1 febd
00000120: f214 98bc 45cb 6f3c 25db ba3d 8d95 18be
00000130: 9a08 03be 33e4 1ebd 01b4 453d ad63 4fbd
00000140: 2b88 23bd be79 4d3d e55a 393c 5ceb 193d
00000150: dc1d 8a3d 9cb9 cdbd 0eae 06be 6a2e 01be
00000160: 72d5 2abd 65eb 443d 1370 183e 42c8 8cbd
00000170: c6d4 e43d 4bf7 7ebd c5e4 77bc e507 d9bb
00000180: ee5e 8b3d d1f5 d8bd 715b 46bd c554 933d
00000190: 2ecf da3d 3c4e c5bc 4a78 8f39 43e6 82bd
000001a0: 26f3 06be 7695 863c b1d3 38bd 03e2 833d
000001b0: 5acf 343e 9e03 1c3e e1b8 fe3d 46db dcbd
000001c0: 83c4 f8bd 6405 063b 5674 9e3d 3e15 99bd
000001d0: df13 e53d 43a2 193d 4516 6ebd 8409 a33d
000001e0: e75d 113d 8d7e bbbd cea1 f4bd 02af 723c
000001f0: c2cd 0abe 4349 6b3d 5e61 393e 29b3 0b3d
00000200: b181 95bd 4f19 573a 3847 43be 18bc 28be
00000210: d70c b33d 8500 dcbd 7088 c2bc 27e4 a03d
00000220: 6a68 a5bd aedf 03bd 9e4f 4e3d 1d81 f5bd
00000230: 6eab 8abd 5897 8abd 1206 2abe 2f71 75bc
00000240: b909 56bd c647 ccbd e9e0 c3bc 7413 df3d
00000250: bf88 25be 9500 5dbc 4c8f 013d c480 893d
00000260: beeb ad3d e8d5 1c3d 4a3f 0b3e 00b9 063e
00000270: cb46 ff3d bc6a db3b d6c5 d33b c840 fc3d
00000280: d636 a43c 85f1 763e c3d1 313e ddec 8a3d
00000290: 00fc 79bd 5ca5 a2bd 38b3 49bd da8c d5bd
000002a0: d870 a73d 7168 e13d 9d58 e73d 24be bcbd
000002b0: 4eaf a0bd 2700 04be 83c6 77bd c13f 893d
000002c0: b93e debd 4d76 d2bd 0154 933d da9f 26bd
000002d0: a4d7 8fbd 8a1a 74bd 4a0d 96bd 4406 42bd
000002e0: 4c45 ef3b 98c5 20bd 487b 91bc e60a 223e
000002f0: efd8 a0bc 2ce1 c33d 8ca9 63bd 4d86 0b3d
00000300: 20e0 723d eac6 5ebc 6718 803d 15ac f23d
00000310: b991 5cbc c1a7 e63d 5f9d 20bd c81a 02bd
00000320: c612 3a3c 0dbf b93d d0dd 013e 8ae2 813d
00000330: 481d 01be cb89 3dbd 9aa3 90bd 7eca 0abe
00000340: d6f9 a63c ab44 debd 15a9 e7bd e305 1dbd
00000350: bce1 9ebd 13ff 29bc 35d6 d8bd 1b4f b7bd
00000360: 0880 ab3c 73eb 3d3d c4ef 4abe 96cb 203d
00000370: b0e8 afbd ca5a 03be 440b 2b3c 0b95 e3bd
00000380: 833c 6e3b a7c8 963a c8ff 0dbe fbc1 8cbe
00000390: 63ed 33be 4788 f2bd 6517 14be b2b0 93bd
000003a0: 1642 27be 1e1c 49be abdc 4ebc 7e4f c73c
000003b0: 3c5e 46be ed0d f2bd c7a4 50bd 0817 f3bd
000003c0: 583e 943d c031 0fbe 0112 1ebe 0f89 7b3c
000003d0: 7dbe 5a3d 7fcb 73bd c5a6 dc3d d011 5cbc
000003e0: 4a97 183d b563 8abd e34a 4d3e ecf3 9ebd
000003f0: de21 3bbb db82 a33d 555c 803d 9e0f ccbd
-0.086830735 -0.08707907 -0.10744303 -0.021445125 -0.19177599 -0.20271617 0.031830993 -0.06195135
0.113627106 -0.09059339 -0.017640607 0.02249263 0.07147145 -0.008806297 -0.09958407 -0.112533055
-0.10772823 0.03792403 -0.036263626 -0.008673062 0.054762308 0.12446454 -0.038649615 0.028495543
0.058490355 0.15057422 -0.011056894 0.097000144 0.031183213 0.07876235 0.055727795 0.0023922555
0.027291398 -0.021975761 0.07903504 0.05852599 -0.037507225 -0.03532506 0.0084801605 0.07187743
0.0252264 0.113970086 0.063657634 0.0049801306 0.013929791 0.03927712 -0.023372635 0.10249826
0.07006068 0.086999565 0.13715525 -0.070457384 0.06955057 0.14358595 0.13962711 0.04920458
0.07554483 -0.012832519 0.122644745 0.15900674 0.14346765 0.07056506 0.057597 -0.055935252
-0.063468 -0.031834472 -0.04781018 0.040265534 0.036182627 -0.04553744 -0.033304766 -0.12439318
-0.018564675 0.014635866 0.0912383 -0.14900799 -0.1279625 -0.038791846 0.04826737 -0.050632168
-0.03992478 0.05016493 0.011313175 0.03757797 0.067439765 -0.10045168 -0.13152334 -0.12615362
-0.041707464 0.048076052 0.14886503 -0.06874134 0.11173396 -0.062247556 -0.0151302265 -0.0066232556
0.06805216 -0.10593761 -0.04842705 0.07193903 0.10684048 -0.024085157 0.00027364708 -0.06391575
-0.13178691 0.01642869 -0.04512376 0.06439593 0.17657223 0.15235755 0.124376066 -0.107840106
-0.12146857 0.002044999 0.07737033 -0.07474755 0.11185431 0.03750826 -0.058126707 0.07960799
0.035489943 -0.09154997 -0.11944924 0.014812233 -0.13555053 0.057442915 0.18103549 0.034106407
-0.07300127 0.00082053704 -0.19070137 -0.16478002 0.087426834 -0.107422866 -0.0237467 0.078560166
-0.08076556 -0.03219574 0.050368898 -0.11987517 -0.06770979 -0.06767148 -0.16603878 -0.014980598
-0.052255366 -0.09974627 -0.023910956 0.10892382 -0.16165446 -0.013488908 0.0316308 0.06714013
0.0849223 0.038289934 0.13598362 0.1315651 0.124646746 0.0066960733 0.006462793 0.123170435
0.020045679 0.2411557 0.17365174 0.06783459 -0.06103134 -0.07941696 -0.049243182 -0.10427256
0.0817582 0.11006249 0.112961985 -0.09215954 -0.07845937 -0.12890683 -0.06049205 0.06701613
-0.10851807 -0.1027647 0.07193757 -0.04067979 -0.07023552 -0.059595622 -0.073267534 -0.047369257
0.007301962 -0.03925094 -0.01775898 0.1582447 -0.019634692 0.095644325 -0.055581614 0.034063626
0.059295774 -0.0135972295 0.062546544 0.11849228 -0.013462477 0.11262465 -0.03921258 -0.03176382
0.011357015 0.09069643 0.12682271 0.06342037 -0.12608826 -0.046273988 -0.070624545 -0.13553807
0.020382803 -0.10852941 -0.11311547 -0.038335692 -0.07757899 -0.010375756 -0.10587732 -0.08950635
0.020935073 0.04636712 -0.19818026 0.039256655 -0.085893035 -0.12827602 0.010439698 -0.11112412
0.0036351986 0.0011503891 -0.13867104 -0.27491745 -0.17571025 -0.11842399 -0.1446205 -0.07211436
-0.16333804 -0.19639632 -0.0126258535 0.024329897 -0.19371885 -0.118190624 -0.050938394 -0.11869627
0.072384536 -0.13983822 -0.15436555 0.0153525015 0.05340432 -0.05952024 0.10773996 -0.013431981
0.037253655 -0.06757299 0.20048098 -0.07761368 -0.0028554122 0.07983943 0.06267611 -0.09963916

raise_dim.0.attention1.0.weight f4 [9, 9, 3, 3]
00000000: da64 883d 0cde 67bd e8cd e43c 91c8 383e
00000010: 9260 0a3c 783e ff3d fb71 98bd 9283 053e
00000020: 357b f43d 72c2 c63d 77b3 123e 48a6 c83d
00000030: 37de 863d 0e21 52bc d88a 97bb bc15 063b
00000040: 0986 353d 4568 863c 2e60 893e c020 2d3e
00000050: 9998 383d c81a 103b 7d54 0b3c a1ff 9cbd
00000060: 5176 09bb a00b ff3b 441c cb3c e115 4c3e
00000070: 4e69 723a 1a7b 153e 8eae bf3d fa9e 0c3e
00000080: 59c9 893d 02f5 6ebd 8f71 a9bd 37bc 6fbd
00000090: 0db9 e83d 3f24 b53c 164a 023e 1a67 b2bd
000000a0: 2653 e53d 0f02 ce38 add0 943d f5cf 2a3d
000000b0: d30c 233d 30bc bf3d 6af0 24bd 44d2 8b3d
000000c0: 1a06 90bd 5a01 75bd e175 0bbe c20d a9bd
000000d0: d8e7 ec3c 640d 0abd e46d 843e 077a 8c3e
000000e0: f356 3b3e b715 733d 1959 7e3e e4a1 543e
000000f0: 67d1 9c3d 9db3 8b3e 1a32 883e ce4a b63e
00000100: 6f84 663e 4241 763e 785e 8b3e bace a43e
00000110: 57d1 2b3e 7fc6 483e 85da bc3e 3335 663e
00000120: bda8 b03e 5bab b73e 472d b93e 91b4 9f3e
00000130: 8ae0 c73e 9431 b43e be04 2c3e 0ef3 c73e
00000140: d893 4e3e 35bb 64bd 2f2f 543e 2732 5d3e
00000150: 283a b83e ce98 4c3d 245b 523e 032d 553e
00000160: 579d 3e3e 139a ef3e 0bc4 213e 0000 8abc
00000170: 2100 8f3d 36e3 7c3d d7d4 d3bd f35f dfbd
00000180: f1a3 a03d 2f67 b8ba 955a c1bd d2b4 c23d
00000190: 61de 4d3e 030d 603d 753a e13d 3218 3c3d
000001a0: 662b e0bd 7260 93bd 470c 923d c0df 88bd
000001b0: 9a0d 523e f777 1a3e 5266 173e 2cec 3a3e
000001c0: fff1 3c3e de62 acbc c960 cc3d 54b9 0b3e
000001d0: 73af d93d 896a 893d 002a afbd 378d 93bd
000001e0: ae23 86bd 55c0 55bb cff2 c23d 6c69 5ebd
000001f0: 8e27 303d e53d 9ebd d2ba 1e3c 0fdf e93d
00000200: d50f 4c3e 92f6 3d3e 5822 453c 53e2 c03d
00000210: 6d95 f83d 0b65 943d 4bff 773d c86a 393e
00000220: 80d3 453e bc23 073e 0ae5 353d f4b4 d83c
00000230: 8ff0 2b3d 3beb eb3d daae 0a3d abcf f53d
00000240: 2bd8 aa3d 9753 773d 068b be3d ab64 b33d
00000250: 996e 043e 0599 cc3d ffda 013d 4997 223e
00000260: c665 163c e3bc d73d 2654 033d 30e7 4b3d
00000270: 3fd5 443d ccc8 8d3d 7514 363e 6740 e53d
00000280: fe0a 1a3d d932 183e a897 a4bd 1d86 b13c
00000290: 0bb5 1abe 94d4 393e 4db7 9cbe edf3 033d
000002a0: 08ff 4ebc 2a84 66be 0f79 603e c143 bd3c
000002b0: 452b 16be fb45 dcbd 8e3e 91bc c27a 29be
000002c0: 340a 2dbe 4fe5 57bd 329d 8cbe e82d a5bd
000002d0: 04d8 c9bc 5c4a c4bd ff4a 20be c5f0 babd
000002e0: fe29 78be 0847 4fbd 4d93 0fbe 7587 73be
000002f0: fe49 0cbe 1f6e 86bc ada8 123d 6b16 babc
00000300: 1f2f febb bc63 0abc d786 aa3d 4f77 cfbb
00000310: ea0e 5a3d 5355 c13d 7bba e43c cbf7 5dbe
00000320: 60f9 75bd dd25 e3bd 7c9f a6ba 31c9 bcbd
00000330: 46bb 003e ab47 adbc e362 a63c be98 ca3d
00000340: 6e46 b43d f682 1b3e 366d 183e 8867 fa3d
00000350: 154a bb3c 9fbe 693e 8c3d 3c3e 0b5d 6c3e
00000360: 6424 013e 7ee6 7ebd 1db6 90bb 59e5 483e
00000370: 9e7b f8bc c432 3a3e 0eb4 883d 5011 ce3b
00000380: d2be 3b3e cd5f d8bc e4fa 013c d58d df3d
00000390: 4473 2b3e 9fc6 0f3e 9cc4 db3c 22f0 343d
000003a0: b712 343e 0cd7 a83d ab0e 36bd ff54 9a3c
000003b0: 4cd0 18bd 0bee 9a3d c435 e63c 262b 92bd
000003c0: 2662 10bd 4b6c 10bd 228b bb3d 0361 0b3e
000003d0: 7601 333e e2bb 8c3e 5efc a93d be1a 823e
000003e0: 583e 563e acf9 373e e4b3 c43e 926c e13d
000003f0: 9ecf de39 9693 5a3e cf58 a43d 5a4a b13d
0.06659861 -0.056608245 0.027930215 0.1804526 0.008445876 0.12463087 -0.07443615 0.13038471
0.119375624 0.09705056 0.14326273 0.09797341 0.06585353 -0.012825264 -0.0046247058 0.0020459732
0.04431728 0.016407141 0.26831192 0.16907024 0.045067403 0.002198862 0.00850403 -0.07665945
-0.0020975063 0.007783368 0.024793752 0.19930221 0.0009247259 0.14597741 0.093594655 0.1373252
0.06727857 -0.058339126 -0.08273613 -0.058529105 0.11363421 0.02211201 0.12723574 -0.08711071
0.111975 9.823229e-05 0.07266364 0.04170223 0.039807152 0.09362066 -0.04026834 0.06827214
-0.07032414 -0.059815742 -0.13619186 -0.08254577 0.028919145 -0.033704177 0.2586509 0.2743685
0.18294887 0.05934688 0.24838676 0.20764881 0.07657128 0.27285472 0.26600724 0.35603946
0.22511457 0.24048331 0.2722051 0.3218897 0.16779076 0.1960697 0.36885467 0.22481231
0.34503737 0.3587292 0.36167356 0.3119245 0.39038497 0.35194075 0.16798684 0.39052624
0.20173585 -0.055842597 0.20721124 0.21601163 0.3598187 0.049950413 0.2054258 0.20817952
0.18614708 0.46797237 0.1579744 -0.016845703 0.069824465 0.061740123 -0.1034333 -0.10906973
0.07843769 -0.0014068837 -0.09441105 0.09507145 0.20104362 0.05469991 0.10997478 0.045921512
-0.109457776 -0.0719613 0.07131248 -0.06683302 0.20513001 0.15084825 0.14785126 0.18254155
0.18451689 -0.021043237 0.09979398 0.13644916 0.106291674 0.06709773 -0.08552933 -0.07204669
-0.06549774 -0.003261586 0.09518968 -0.054299757 0.043006472 -0.07726649 0.009688096 0.11419498
0.19927914 0.1855109 0.012032114 0.09418168 0.12137876 0.07245835 0.0605462 0.1810714
0.19318962 0.13197225 0.04440788 0.026453473 0.04197746 0.11519476 0.033858158 0.120025
0.08342012 0.06038245 0.0930386 0.08759435 0.12932815 0.09990124 0.03170299 0.15878023
0.009179538 0.10534074 0.032062672 0.049781024 0.04805493 0.069230646 0.17781241 0.111939244
0.03760814 0.14863147 -0.08036739 0.021670396 -0.15108125 0.18147498 -0.30608597 0.032215048
-0.012634046 -0.22511354 0.2192118 0.023103597 -0.14664944 -0.10755535 -0.017730024 -0.16550735
-0.16898423 -0.05270892 -0.2746368 -0.080653965 -0.024639137 -0.095844954 -0.15653609 -0.091279544
-0.24234769 -0.05060485 -0.14021035 -0.23782142 -0.13700101 -0.016409932 0.035805393 -0.022715768
-0.007757082 -0.00844663 0.083265 -0.0063313614 0.05323688 0.094401024 0.027920952 -0.21676557
-0.060052276 -0.11091206 -0.0012712325 -0.09218062 0.12571439 -0.021152338 0.020310825 0.098924145
0.08802496 0.15186676 0.1488541 0.12226778 0.022862474 0.22826622 0.18382853 0.23082368
0.12611538 -0.062231533 -0.004416241 0.19618739 -0.030332383 0.18183428 0.06674968 0.006288685
0.18334511 -0.026412869 0.007933352 0.10915724 0.16743189 0.14040612 0.02682715 0.04417432
0.17585264 0.08244142 -0.044447582 0.018839357 -0.037308022 0.07564934 0.02810181 -0.07137136
-0.03524985 -0.035259526 0.09157397 0.13611226 0.17481026 0.27487093 0.08300088 0.25411028
0.2092222 0.17966336 0.38418496 0.11007036 0.00042497827 0.21345362 0.080247514 0.086567596

raise_dim.0.attention1.0.bias f4 [9]
00000000: 27a7 2e3e 8a23 b33e 1f57 703e 92d0 833e
00000010: b1a2 993d 495d 21bd db43 053e 9290 b33e
00000020: 610d 423e
0.17055951 0.34988052 0.23470734 0.25745064 0.07501734 -0.039395604 0.13014166 0.35071236
0.18950416

raise_dim.0.attention1.2.weight f4 [9, 9, 1, 1]
00000000: 61b8 2a3e 1ac3 f7bd e439 49be 7f26 7ebe
00000010: 7c9d 98bd 3f7e 953e e1fb e9be ad72 ebbd
00000020: d548 a53e ab0e 213f 52a4 ce3e eff7 393e
00000030: 25b2 293f 0636 89bd e8c9 0a3f 4ad8 27bf
00000040: f711 16bf 0c19 443f fea9 f03e d66c c33e
00000050: 599a 31be 7078 2e3e f00d 69be f6ee aabd
00000060: f223 3f3e 47a1 e5be 0528 4c3e dc74 a1bd
00000070: 8a3c b0be 36bb 983e 0dc1 b1be 2c38 1a3f
00000080: 38ea fabe b233 193e c13d 3fbf 6a63 32bd
00000090: 1139 da3e 0863 fcbd 5116 8ebe f565 aebd
000000a0: 435c 54bf 16c1 93bd 9cf3 70be d02c 81bd
000000b0: 57fb 573e 5109 e4bb 0e16 67be 7122 6ebd
000000c0: bdf4 c5be fa4a 29be ace6 c43e 2580 8a3d
000000d0: 0def 05bf 922e a13b b83f f93c 55dc 5a3e
000000e0: 9549 273f 990c c33c 9fef 803f a17f a3be
000000f0: c8fc 4e3c e66b c7be b48d 3bbd 7def c93e
00000100: 11e2 633e 0cc3 763f 7412 e1bd 70af 413f
00000110: 484e 16bd 76ed b13e 395f 9abf dc80 67bc
00000120: 567e d23d 9909 36be 1f57 473e 700f 74bd
00000130: 6823 cfbd 3124 863e 87cc 043e 2915 203e
00000140: 668d 1b3e
0.16671897 -0.120977595 -0.1965099 -0.24819373 -0.07451913 0.2919788 -0.4569998 -0.11496482
0.3228213 0.62913007 0.4035974 0.18160985 0.6628745 -0.06699757 0.54214334 -0.65564406
-0.5862116 0.7660072 0.47004694 0.38168973 -0.17344035 0.17038131 -0.22759223 -0.083463594
0.18666056 -0.44849607 0.19937141 -0.07883617 -0.34421188 0.2983033 -0.347176 0.6024196
-0.4900682 0.14961126 -0.74703604 -0.04355184 0.42621663 -0.12323576 -0.277514 -0.085155405
-0.8295328 -0.072145626 -0.2353043 -0.063073754 0.21091972 -0.0069591184 -0.22567007 -0.058138315
-0.38663283 -0.16532508 0.3845724 0.06762723 -0.5231789 0.0049188817 0.030425891 0.21373112
0.6534665 0.023809718 1.0073127 -0.3193331 0.01263351 -0.38949507 -0.045789436 0.39440528
0.22254206 0.9639137 -0.10989848 0.7565832 -0.03669575 0.3475148 -1.206031 -0.014129844
0.10278003 -0.17777099 0.19466828 -0.059585035 -0.10114175 0.26199487 0.12968646 0.15633072
0.15190658

raise_dim.0.attention1.2.bias f4 [9]
00000000: 6303 563c 4a14 ac3e 39b1 113f a11b 9fbe
00000010: 2dcd c73d 8e0c 8fbd 6c71 b0bd 9b83 c5bd
00000020: a3c2 a23c
0.013062331 0.3360923 0.56911045 -0.31075767 0.09755931 -0.069848165 -0.086153835 -0.096442424
0.0198682

raise_dim.0.attention1.4.weight f4 [9, 9, 1, 1]
00000000: 0203 0fbe f8d9 01be 8156 b73d 3c92 893e
00000010: 5ea9 9b3c 32a9 bbbe 2339 913e f776 f03a
00000020: 311b 823e 3c71 8cbe 56e5 6cbd 6d13 9a3e
00000030: 9f41 043e fbcd e0bd 940f d1be 8aff 7e3d
00000040: fe99 d03b ad9b 9cbe 062d 05bf 7556 46be
00000050: a06c 81be 9738 dd3e 0f97 22bf 547a 8c3d
00000060: 4cd3 553e e2cc 943e ed7f d0be b3eb 07be
00000070: d346 16be 6697 08be a0e3 a3be 14e3 50be
00000080: 7605 883d 9eb7 00be 840d afbe 4ede 573b
00000090: 0165 023f c658 a53f de07 7d3f 6c41 93bf
000000a0: d7f2 a53f 6f26 cabe f9aa 17bf fa39 413c
000000b0: a5c3 423f 829f 163e cbd4 6ebc 526e c9bd
000000c0: 3f5e 87be 67a6 ac3d b81a 2fbe 79a2 05bf
000000d0: 4a70 edbe 8945 08be 86cd 28bd 44fd f83e
000000e0: 2553 e13e 0d05 d0be 3f46 bf3e 846c 513d
000000f0: d956 9b3e 4bda 133f eb5d e43d c589 483f
00000100: afb3 4b3f bc21 253f 5cf6 21bf e500 fb3e
00000110: 81bb 18bf 7682 b23e e535 f23e 5e43 2f3f
00000120: a68b a5be 798a 35bd ddc9 ebbd af69 3dbe
00000130: dd17 4d3e f105 7fbe 379e e7bd 91b1 84be
00000140: b49a 9fbe
-0.13965991 -0.12680805 0.08952046 0.2686938 0.019001659 -0.36652523 0.28363904 0.0018346001
0.2541137 -0.2743014 -0.0578359 0.30092946 0.12915657 -0.10976788 -0.40832198 0.06225542
0.0063660135 -0.3058752 -0.52021825 -0.19368918 -0.25278187 0.43207237 -0.6351175 0.0685927
0.20881385 0.29062563 -0.407226 -0.13273506 -0.14675455 -0.13339004 -0.32009602 -0.20399123
0.066416666 -0.12570044 -0.3419 0.00329389 0.5093537 1.2917717 0.9884013 -1.150434
1.2964734 -0.39482448 -0.5924526 0.011793608 0.7607978 0.14709285 -0.014577101 -0.09835495
-0.26439092 0.08430176 -0.17100036 -0.5220104 -0.46374732 -0.13307776 -0.041211627 0.48630726
0.44008747 -0.40628853 0.3735828 0.05112888 0.30339697 0.57754964 0.11150726 0.7833522
0.7957105 0.645046 -0.6326654 0.4902412 -0.5966111 0.3486516 0.47306743 0.6846217
-0.32333106 -0.04432151 -0.11513112 -0.18497346 0.20028634 -0.2490461 -0.11309474 -0.25916722
-0.31172717

raise_dim.0.attention1.4.bias f4 [9]
00000000: e73c 913e 80cf 6b3d 0f52 d53c ae8a bf3e
00000010: 69f1 b73f d712 043e 27c5 603e 61ff fe3e
00000020: a5c3 2c3d
0.28366777 0.057570934 0.026040105 0.37410492 1.4370548 0.12897812 0.21950208 0.49804214
0.04217877

raise_dim.0.attention3.1.weight f4 [32, 9, 1, 1]
00000000: d33d 443c 61c9 e1bd 9dc4 1b3e 8056 503e
00000010: 6e23 99be c7c1 a83e 7d1f 183e 8b37 7ebe
00000020: e942 613e c210 233e 226d 963c dbd4 683e
00000030: 2a51 61bd cea2 b8be 43f5 0fbd 8d09 8c3e
00000040: afc1 90be 3336 073e c711 213d 878d 31be
00000050: f535 bfbd e4c2 c63d 1c3b 82be a55f 4c3e
00000060: 5362 f83d 9f1d 1c3e 0d31 653e a56a 343c
00000070: 173c 19be d46e fd3c 89af 61bd 5ba6 513e
00000080: ecd3 983e f9ad 91be 5545 ca3d 8cd6 873e
00000090: abd0 86be 63e0 cdbd c69a a13e f86d 703e
000000a0: ac63 d63d 15ce 1fbe 6804 ebbc 07dd 78be
000000b0: edef a8be b092 adbe 55c6 a43e 7ca3 613e
000000c0: 3fb3 dd3d 8ae3 92bd f343 6c3e 6ec6 84be
000000d0: 4488 8d3e 1958 02be f9bc 48be c126 e43b
000000e0: d8e0 66bd f375 9abe 6f45 263e f6b5 28be
000000f0: f8c6 133e 9ec4 a33e a0e4 b5bd cfdd 323e
00000100: 6038 993d 06f4 8b3e 10f9 44be f44f 38bd
00000110: c54f 86bd 9c84 fb3e 528e c6be 40ba bfbd
00000120: 8fab 25bb c681 683e e65b 4e3e 7b4e b6be
00000130: 2749 94be 6ce5 ae3e 78fc 213e 0f24 cebe
00000140: 3a96 97bd 6cf5 003e 33bc 5fbe 6d4d a9be
00000150: 7ad0 89be 4d23 a6be 9c27 eebd 1013 fc3b
00000160: 60a7 363a 67e4 46be 7cb9 0cbe cf3f a4be
00000170: 0ce8 1f3e 6157 853e 1788 9e3e 8101 ea3c
00000180: 95bc 7dbe 5225 53bd 4313 06bd 272a a3be
00000190: 8e48 ef3c 7c60 7fbe c86f b7be 6a35 82bd
000001a0: f530 c7bd 339f e6bd 025c 613d f55a b83d
000001b0: 64de e33b 3bb0 8fbe cae7 a6be ec05 c2bc
000001c0: adde 73be 22b7 06be 824a a83e e51c 86bd
000001d0: 7a62 283e d9ef f2bd 28d9 a2be 1c74 803d
000001e0: c39b 7fbe da43 a2bc a711 6abe 7cf0 bc3e
000001f0: 6069 9ebe c674 b43e 9079 9d3e e9ca 273e
00000200: 5abf 5e3e d2a6 033e f4e5 06bd a8b1 99bb
00000210: e8a8 75be 0918 8bbe bd8c af3e a549 92bc
00000220: 0ffe 9e3e 3b05 d93d fa41 d33d d8f4 84be
00000230: 9772 d3be c90a 873e 3f73 933e 8a1d 943e
00000240: c461 80be 528c 663d 8106 96be fe55 e23c
00000250: 90ca 793d e816 51be 5df4 c8be dfc1 a83d
00000260: 5fc7 a83e 8e04 883e a9b7 9cbe 81e2 bebd
00000270: bb40 a7be 32af b2be aee8 d8bd e6fb d93e
00000280: 86d0 54be ebb8 b13d d3d8 823e 63a5 c7bc
00000290: b68a 0e3e 9e0a 0d3e 7572 903e 9357 c73a
000002a0: 1281 dfbe 32c1 8bbe 326e 74be b325 913e
000002b0: e638 6d3e 071e 163e 2a0b 7cbe ec67 85be
000002c0: 158a 993e ded5 923d 82f7 93be 1913 1a3d
000002d0: b447 74bd 9d71 073e a1e3 5a3e 1e84 3b3e
000002e0: c634 3cbe cc8c 82bd 11f6 8ebe d246 a93e
000002f0: de62 963d bc4c 043e a018 bf3e 5ae2 a43d
00000300: a93a ccbe c723 e33d 5587 b4be aab3 d73c
00000310: 4ba6 28bd 1cda a33e c23b 87be e7f9 afbe
00000320: 988c a0bd 8e3b f03c 30e0 4a3e ec67 763e
00000330: 6487 843e a8ca 913d 0863 00be 85fc bbbc
00000340: de47 3fbe f7bb 203e 5fe4 44be 34e2 0d3d
00000350: 393d 873e 0dd8 ca3e d440 7bbe d437 e13e
00000360: 42a4 52be bc19 03be ab05 7c3e 67e8 0e3e
00000370: 690d 51be 302b 493e 2763 8dbe fb0a 233e
00000380: 594b c13e 10b7 793a 2b2d 153e c064 98bc
00000390: 4c3d 28be 271d b7bd 2438 28bd 579c eebe
000003a0: b4b9 02be 3e8e 16bd 762f 67be 7b39 ebbd
000003b0: 92d5 eabc 25ec 45be 7c30 bf3e 3510 15be
000003c0: f857 0bbe b2d6 b0bc 2cd0 8fbe 848e 873e
000003d0: 8e2f cf3e c5e3 8abc 5873 503d a0d0 d63e
000003e0: 9b48 12be dbfd 333e 9e9e b3be 682e adbe
000003f0: 5a4d 15be a6ac 9ebe b682 703d aaf3 70be
0.011977631 -0.11024738 0.15211721 0.20345497 -0.29909843 0.3296034 0.14855762 -0.24825875
0.2199818 0.15924361 0.018362585 0.22737448 -0.055009045 -0.3606171 -0.03514601 0.27351037
-0.2827277 0.13204269 0.039323594 -0.17339145 -0.09336463 0.09705141 -0.25435722 0.1995836
0.12128129 0.15245675 0.22381993 0.011011754 -0.14964329 0.030936636 -0.055099044 0.20473616
0.29849184 -0.28453043 0.09876505 0.26530874 -0.26331076 -0.10052564 0.31563395 0.2347945
0.1046823 -0.15605958 -0.028688625 -0.24303065 -0.3299555 -0.33900976 0.32182565 0.2203502
0.10825204 -0.07172306 0.23072796 -0.2593264 0.27643025 -0.12728919 -0.19603337 0.0069626276
-0.05636677 -0.30168113 0.16237424 -0.16475663 0.1443137 0.31985945 -0.088814974 0.17467426
0.07481456 0.27334613 -0.19235635 -0.044998124 -0.065581836 0.4912461 -0.38780457 -0.09361696
-0.002527926 0.22705755 0.20152244 -0.3560675 -0.2896206 0.3415941 0.15818965 -0.40261886
-0.074017 0.12593621 -0.21849136 -0.33066884 -0.26916867 -0.32448807 -0.11628649 0.007692702
0.000696769 -0.19423066 -0.13742632 -0.32079932 0.15615863 0.26043227 0.30963203 0.02856517
-0.2477897 -0.051549263 -0.032733213 -0.31868097 0.029209401 -0.2493915 -0.3582747 -0.06357844
-0.09726135 -0.112608336 0.055019386 0.09001724 0.0069540013 -0.2806414 -0.32598716 -0.023684464
-0.23815413 -0.13155797 0.32869345 -0.0654848 0.16443816 -0.118621536 -0.31806302 0.06272146
-0.24961762 -0.019807745 -0.22858296 0.36902225 -0.3093977 0.3524534 0.30756807 0.16385998
0.21752682 0.12856606 -0.032934144 -0.0046903677 -0.23990214 -0.27166775 0.34287062 -0.017857382
0.31053206 0.10596701 0.103153184 -0.2596805 -0.41298363 0.26375416 0.28798863 0.28928787
-0.2507459 0.056286164 -0.29301837 0.027628895 0.060984194 -0.20418894 -0.39248934 0.08240103
0.32964608 0.26565975 -0.30608872 -0.09320546 -0.32666573 -0.34899288 -0.10591255 0.42574996
-0.2078267 0.086778484 0.2555605 -0.024370855 0.13920102 0.13773581 0.28212324 0.0015208594
-0.4365316 -0.27295834 -0.23870161 0.28349075 0.23166236 0.14659892 -0.24613634 -0.2605585
0.2998816 0.07169698 -0.2889977 0.03761587 -0.059638694 0.13226934 0.21375896 0.18312117
-0.18379506 -0.06374511 -0.2792211 0.33061844 0.07343076 0.12919897 0.37323475 0.08050986
-0.39888504 0.11090808 -0.352595 0.026330788 -0.041174214 0.32002342 -0.2641278 -0.34370348
-0.07839316 0.029325273 0.19812083 0.2406308 0.25884545 0.07118732 -0.12537777 -0.02294756
-0.18679759 0.15696703 -0.19227742 0.034639552 0.26413897 0.3961796 -0.24536449 0.43987906
-0.20570472 -0.12802786 0.24611537 0.13955842 -0.20415272 0.19645381 -0.2761471 0.15922157
0.37752798 0.00095258746 0.14568011 -0.018602729 -0.16429633 -0.08941107 -0.041069165 -0.46603653
-0.12766153 -0.036756746 -0.22576699 -0.11485573 -0.028666291 -0.19328363 0.37341678 -0.14556964
-0.13607776 -0.02158675 -0.2808851 0.26475918 0.4046597 -0.016954312 0.05089125 0.41956043
-0.1428551 0.17577307 -0.35081953 -0.33824468 -0.14580289 -0.30991095 0.058718406 -0.2353045

raise_dim.0.attention3.1.bias f4 [32]
00000000: e936 8fbd 1359 b8bc 1a77 98be 14d3 91be
00000010: 8e5c 443e 8fff 913d cf74 82be f249 603d
00000020: a4a3 203e 8c31 133e f8bd 3c3e d57c 8ebd
00000030: 8dcf fb3d ace2 84be b435 62bd a2f2 b4bd
00000040: a4d3 0bbd 8965 123e ed1c 253d 81b1 cebd
00000050: 463f 07bd 7601 8ebd c3f4 d7bd 9d35 86bd
00000060: dbef 723e 04b1 483e 26e8 773e d148 91bd
00000070: a949 a93d 948d 03be 7f13 d2bd f970 4ebd
-0.06992895 -0.022503411 -0.29778367 -0.28481352 0.19175932 0.07128822 -0.25479743 0.05475802
0.15687424 0.1437437 0.18431842 -0.069574036 0.122954465 -0.25954187 -0.055226997 -0.08835341
-0.034137383 0.14296545 0.04031079 -0.1009245 -0.033019327 -0.069338724 -0.105447315 -0.06553195
0.2372431 0.19598776 0.24209651 -0.07093967 0.08266003 -0.12846977 -0.10257625 -0.050400708

raise_dim.0.attention3.3.weight f4 [32, 32, 1, 1]
00000000: 21e1 21be c776 b9bc 7192 ee3b 2612 f6bd
00000010: ee78 ac3d fcdd 0cbe ba0e a6bd ead8 be3d
00000020: 1693 f43d 4b93 b83d 5cb5 f6bd 3f62 0abe
00000030: ca09 d93d f77c 563d ba5d 9e3e 4171 e0bd
00000040: 2f88 3a3d 34ad 993d 5fa6 123d f616 d4b9
00000050: 6b1d 743b c1d7 52bd 6988 8a3d bf1c 7fb9
00000060: 3b60 7ebd 855e 07be 8904 1f3e 96f6 e03c
00000070: 93e9 213e f022 7d3e 3c58 30bd 2fde 6b3d
00000080: a567 70be f216 023b c2f5 843d ba4e bf3d
00000090: 60a9 bcbd dd01 acbd 4665 0ebe 75a3 54be
000000a0: 07da 013e f5ba 833b fcfc 653c f8f5 8dbb
000000b0: 26ec b53d adc5 c7bc 985a b63d 2d6e 2fbd
000000c0: 39fb 003e 4c13 913d 900e 33bd a1a4 ef3c
000000d0: 4674 213e 8cbc 46bd 3886 293e ebb3 87bd
000000e0: 19e7 cb3c 64fe 183e 952c 1ebe c634 61be
000000f0: 64d2 213e 1794 dcbd ecab 0dbd ceec 5d3c
00000100: df86 1c3e 5591 543d bce1 cc3e eed8 db3d
00000110: d856 23be 2ce8 3d3d 81f3 07bd a9f8 543e
00000120: 3970 16be fa79 99be c90c 3dbb f4a5 9c3d
00000130: 87ec c1bd c6bc e63c b790 1f3d f331 753e
00000140: 647d db39 73b8 69be 96a5 64bd eb4a 3b3d
00000150: f2db b23d 3e4d 313e 9679 9abc 3a13 8c3d
00000160: a4a3 39be 073e acbe 4c86 a7bd fff2 26bc
00000170: 6feb c6bd 1629 103e d4c3 c3bd 1a32 6f3e
00000180: d3d7 6a3d a701 373e b2c5 ffbd 5937 64bd
00000190: 674a f7bd 8473 f53c 176a cdbd 38aa 123e
000001a0: a0d1 11be 5a26 05be 4a7c b3bd c32c eabd
000001b0: 56c7 d7bd d83f 61bc f159 323c 7044 2b3c
000001c0: 5c08 ac3d a3c6 60bd 51e7 bbbd d2d6 45bd
000001d0: d40e 413d 4187 8a3c 32c3 2bbe f220 b0bc
000001e0: a544 363d 1eb3 deba 592d f53c e3a1 173e
000001f0: 626e 92bc e27f a43d b3ee 243e a22f bfbd
00000200: 0cbf 803d 14dc 6f3e 15d2 b2bd 19bb 48bd
00000210: 286c 89bd c218 b9bd 291f 18be 5059 8b3e
00000220: b25e 343e 9887 2a3e 0e96 293e bf95 0abd
00000230: 9cf8 913d 73dc 083e e328 933e b221 c43d
00000240: 2b05 a3bd a0f0 153e 8c13 6c3d e156 a5bd
00000250: 5b32 95be 0f6c 5b3a 924f f83c efce 853c
00000260: 175b 11bd 5d7c cabd 3123 a3bd af77 f63d
00000270: 4474 c8bd a3e6 603e 417d c1bd 80b5 4ebe
00000280: 95d2 0abd ce4b e83d 52f9 74be 7a3d bebd
00000290: ac59 00be b19d 9fbd a6a3 01be ca4c ef3e
000002a0: 47ea 923e 8e48 90bd ec11 d9bd 8750 643d
000002b0: 937a 813e 5f93 033e 4bb5 0fbe 6c5a 7c3e
000002c0: e961 4fbe 5a84 df3d 178b eb3b b2cd a13d
000002d0: 52fc 11bf 91e2 89be 6e8e 36bd 3179 963c
000002e0: 5c4a 363d 8bc0 5fbe 5b9c c53c f0f2 da3d
000002f0: 9d6e eb3c 5aa6 b33e 9571 ee3c 0dcc 5b3e
00000300: b0a6 f93d 3cf2 90bd 8ffb 16bd b23c 22bd
00000310: 605e 2c3e 4b30 283d 46c2 283e 3b8f 013e
00000320: e79e 963d 3927 42be 7fd3 073e 16b6 79bb
00000330: b2be d83c d721 2fbe bf5f 4abe 7609 363e
00000340: e8af cfbd 4cbd d93c 3705 30be a478 d6bd
00000350: 4100 cf3e 5c58 453d e34e b53d 7722 b4bd
00000360: c56e 2bbd 6dae 85bd efdb d73d 60a2 ba3c
00000370: d6eb 8cbc a740 1f3c 30c5 7b3d 0188 9e3d
00000380: 89d8 143e c726 533e c735 34be 4811 8fbd
00000390: 9ad2 5d3c 6e0f 27ba d3b4 f8bc be31 eabb
000003a0: 329b 9abd 9f2e e6bd 9b1a 103e f241 6abd
000003b0: 3b8d cc3d 39b0 01be 2e2f 0cbe e8da 33be
000003c0: 1e24 45be 8463 2b3d 125a b9bd f314 9d3d
000003d0: 7485 ffbb 576a f7bd 1baf 5a3c ec77 7f3d
000003e0: dd0a ccbd 034c 32be 26ac 87bd 93da 94bd
000003f0: e233 843d 5fb6 673e 7e17 8a3c 0ef5 073d
-0.15808536 -0.022639645 0.007280641 -0.1201518 0.08421503 -0.13756555 -0.081082776 0.09318717
0.11942117 0.09012469 -0.1204631 -0.1351404 0.1059757 0.05236527 0.30930883 -0.109591015
0.04554003 0.07503739 0.035803195 -0.00040452898 0.003724898 -0.05147529 0.067642994 -0.00024329404
-0.06210349 -0.1321965 0.15529074 0.027461331 0.15811758 0.24720359 -0.043052897 0.057584938
-0.23477037 0.0019850102 0.06492187 0.09341188 -0.09211993 -0.08398793 -0.1390582 -0.20765479
0.12680827 0.0040200897 0.014037367 -0.0043323003 0.08882932 -0.024386251 0.08903998 -0.04282968
0.12595834 0.07083759 -0.04371506 0.029253306 0.15767011 -0.048519656 0.16555107 -0.066261135
0.02489047 0.14940792 -0.15446694 -0.21992788 0.15802914 -0.107704334 -0.034587786 0.013545228
0.15285824 0.051896412 0.40015972 0.107347354 -0.15951097 0.046363994 -0.033191208 0.20797981
-0.14691247 -0.29975873 -0.0028846732 0.076488405 -0.09468942 0.028166186 0.03895637 0.23944835
0.00041864358 -0.22824268 -0.055821978 0.045725744 0.087333575 0.17314622 -0.018856805 0.06839605
-0.1812883 -0.33641073 -0.08179912 -0.010189771 -0.09712874 0.14078173 -0.095588356 0.23358956
0.057334732 0.17871724 -0.12488879 -0.055716846 -0.12074738 0.029962309 -0.10030001 0.14322746
-0.14240122 -0.13002911 -0.08763941 -0.11434319 -0.10536067 -0.013748132 0.0108857015 0.0104533285
0.08400032 -0.054876935 -0.091749795 -0.04830057 0.04713328 0.016910197 -0.1677368 -0.021500085
0.04449906 -0.0016990637 0.02992885 0.14807849 -0.0178749 0.08032204 0.16106682 -0.09335257
0.06286439 0.23423797 -0.08731476 -0.049006555 -0.06710082 -0.09037925 -0.14855637 0.27216578
0.17614248 0.16653287 0.16561148 -0.033834215 0.071274966 0.13365345 0.28742132 0.09576739
-0.0795997 0.14642572 0.05763583 -0.080732115 -0.2913998 0.0008370289 0.03031138 0.016334025
-0.03548726 -0.09887002 -0.079656966 0.120345466 -0.09787801 0.21962981 -0.094477184 -0.20186424
-0.033892233 0.113425836 -0.23923233 -0.092890695 -0.12534207 -0.07793749 -0.12660083 0.46738273
0.28694364 -0.07045089 -0.105991215 0.05574086 0.2528883 0.12849186 -0.14034002 0.24643868
-0.20252194 0.10913916 0.0071882117 0.079005614 -0.57025635 -0.2693067 -0.044569425 0.018368335
0.04450451 -0.21850793 0.024122408 0.10690868 0.028739268 0.35087854 0.029106895 0.21464558
0.12189996 -0.070774525 -0.036861 -0.039608665 0.16832876 0.04106168 0.1648036 0.12652294
0.07354527 -0.18960275 0.13264273 -0.0038102916 0.026458118 -0.17102753 -0.19763087 0.17777047
-0.10140973 0.026579522 -0.1718949 -0.10472229 0.4042988 0.04817997 0.08852937 -0.08795636
-0.041853685 -0.0652741 0.10539996 0.022782505 -0.0172023 0.009720004 0.06146735 0.077407844
0.14535727 0.20620261 -0.1759864 -0.06985718 0.013538981 -0.00063728436 -0.030359661 -0.007147043
-0.075491324 -0.11239361 0.14072649 -0.057191797 0.09987875 -0.1266488 -0.13689873 -0.17563975
-0.19252059 0.041842952 -0.09050383 0.07670011 -0.0077978913 -0.120808296 0.013347412 0.062370226
-0.099630095 -0.17411809 -0.066246316 -0.07268252 0.06455208 0.22628163 0.016856905 0.033192687

raise_dim.0.attention3.3.bias f4 [32]
00000000: 6485 f1bd 1d39 a83c de24 e6bb 4204 383e
00000010: f1b8 853d a00b 263d dc2d dfbd 1bf0 88bd
00000020: 7f14 4fbd fa2a a9bc b628 903d 2709 933d
00000030: d7d5 983d bb53 d7bd ff1c 4abc e05c 253e
00000040: 6780 8abc 1149 1abe 54e7 1c3d be99 2bbc
00000050: 4583 ac3c 979e 33bc d339 9fbd 5c7d d43c
00000060: 274b 0bbe 0dba bd3d 17a3 013e 6b5e a8bd
00000070: 68ef 86bc da58 03bb b2df 613c d7be c73d
-0.1179302 0.020535046 -0.007023438 0.17970374 0.065294154 0.04053843 -0.10897419 -0.066864215
-0.050556656 -0.020650376 0.07039015 0.0717948 0.07462662 -0.10514017 -0.012336015 0.1614871
-0.01690693 -0.15066935 0.03830655 -0.010473667 0.021058688 -0.010963104 -0.07774701 0.025938682
-0.13602887 0.09264002 0.1265987 -0.08221134 -0.01647158 -0.0020041973 0.013786243 0.09753197

layers.0.conv1.weight f4 [32, 32, 3, 3]
00000000: 31c6 1e3c 94f6 5a3c bd41 5dbd 6433 bd3c
00000010: c7f0 aabd 0f74 aebc 7f75 123d d3b5 cabd
00000020: 034b bcba e4a6 e0bc 3a66 7abd 2ca4 e7bc
00000030: 11e7 0ebe e015 40bc bca6 933d 24a5 24bd
00000040: e1aa c53c fb92 203d dc92 e83d 76d2 c03d
00000050: dcfd 9d3d f445 58bc 6a59 0a3d fc95 b73d
00000060: 9f41 d23d 5455 9a3d 73a0 383d b310 c0bd
00000070: 9612 5bbd fb78 84bd d866 48bd 65c1 74b8
00000080: 05e9 abbd fc80 debd a738 3abd 11f3 84bc
00000090: 80ab 14bd 4615 13be 2acc b0bc f237 d93c
000000a0: 3951 7fbd 25d1 b8bd 3a21 f4bd 99e6 e6bd
000000b0: 4487 06be d222 d4bd 419d f6bc 12d2 743b
000000c0: e7ec c93d c665 743c b488 00be eb26 8ebe
000000d0: 8663 40be 3cb4 72bd 94fb 3f3e 0456 823e
000000e0: bfb8 543e ad65 3b3e 4560 833d 5545 1f3e
000000f0: fed8 b83d 5c43 c33d bfec 9cbd 35ec 02bd
00000100: 57f0 a1bd f397 ca3c 6bf4 a43d a614 78bc
00000110: 1477 25be d2f2 f3bc 24f4 d6bd 3752 5cbd
00000120: 9d49 eb3d 25a2 b33c 3ef4 6d3d 4082 303d
00000130: 4587 db3d 6149 a43d 828f a53d 4820 693d
00000140: 69f4 063c d933 64bd d74e e83d b788 9e3d
00000150: 2245 2a3e b657 b3bd 85c1 d4bb 34ee 82bb
00000160: d075 c6bd fd75 a7bc 3858 84bd f22d 90bc
00000170: 41b4 85bd a238 31bc 2a52 24be 65ac 7dbc
00000180: 984a 90bd d6dc e0bc a0bf f03a 73ae 10be
00000190: 8ba4 c4bd 1f80 3cbd fe0c 66be 2a7c 30be
000001a0: e23b 87bd d86a 5ebe 883c 98bd 0313 f1bd
000001b0: 1fe9 c6bd f0d5 dabb e51b e1bd a34e 12bc
000001c0: 4d6d bdbd b38d 03be 225e 9cbd 5dad 88bd
000001d0: d52b a3bd 8275 dabd 0983 25be 8b6d 98bd
000001e0: a80e 74be f26e c3be 49ae 23be fbba 15be
000001f0: 5972 89bf cc77 8cbf f07d 5cbd 19a9 bdbd
00000200: 8398 443e aa29 6bbc 3699 40be 5470 633d
00000210: 1a37 b1be 7318 73bd 45ca b4bc d046 933d
00000220: 127f 0d3e 9457 dd3d 5ef7 223e f549 063e
00000230: 43e0 c43d f449 b1bd 3d97 68be bca7 e2bd
00000240: dc81 82bd 4941 35bf 7722 71bd aeab cd3d
00000250: 2624 ffbd b417 943e f2fc bd3e eb96 e9be
00000260: eb75 f4be 4b4e 873d 964b c53d ac63 b13d
00000270: 706b 113d 89e8 bb3d 3340 af3d d1d9 d3bc
00000280: 5873 1e3e 5627 383e 0b51 45bd e405 18bd
00000290: 06ba 1f3e a338 c43d 3b10 3e3d f8f8 b2bc
000002a0: 2f26 a7ba 1721 4a3b 7789 963d 8b31 c2bc
000002b0: 9e07 cfbc f0eb 3dbd feff 5f3d 96ac 8b3c
000002c0: d5fa 083d 87c3 2b3e 5fac 073e 292b 873d
000002d0: 9330 343d 3193 893d 6322 9dbd a413 ab3d
000002e0: e230 933c 044b 1b3d 0d1a 15be f147 2ebe
000002f0: 022c 6bbc 42e6 803e 505a 503e d098 733d
00000300: 6fca 423e 2350 453d b167 a03d 6878 bdbd
00000310: 51c3 a6bc 2ea3 813a 9e8a 0bbb f923 8cbc
00000320: 4a2a 513e 3254 783c 671e acbd ef33 19ba
00000330: 3d71 6ebd 5fd0 d8bc f4ad 3fbe 6382 913d
00000340: dd40 a0bd 6063 a5bc e985 9cbd 5eca 36bd
00000350: a5e1 65bd 2911 3c3d 07c3 593c f9e7 6c3c
00000360: cd24 bbbd f875 073a 0389 7d3d 02ff 713e
00000370: acfd 6d3e ec4d b83c dd40 49bd decc 28be
00000380: 2f6c 55be acd8 00b9 7246 b0bc 9722 2dbc
00000390: a629 95bc e2ab b3bd b591 153c 6c41 bcbd
000003a0: b0e4 3ebd 8386 a7bd 4bf9 b8bd 9df5 03bd
000003b0: cd38 723d 40b7 2cbe 379a e3bd e107 3bbe
000003c0: 2791 1abe 3d55 cfbc 37ba 0bbd 2d2f 99bd
000003d0: 863c 3dbd 3d77 903e 1617 74bc 3447 acbd
000003e0: 5b11 993e e597 a9be bc69 80bc db6a 5f3e
000003f0: 03fd 0d3d cd64 f7bd 34f1 85be 9c23 7fbe
0.009690807 0.013364453 -0.05401777 0.023095794 -0.08346706 -0.021295575 0.035756584 -0.098979615
-0.0014365617 -0.02742333 -0.061132647 -0.028276525 -0.13955332 -0.011723965 0.072095364 -0.040196553
0.024129333 0.03920267 0.11356136 0.09415142 0.077144355 -0.013200272 0.03377668 0.08964154
0.102664225 0.07535806 0.04507489 -0.09378185 -0.05348452 -0.06468388 -0.048926204 -5.8354246e-05
-0.08394054 -0.108644456 -0.045464184 -0.016229184 -0.036296368 -0.14363584 -0.021581728 0.026515935
-0.06233332 -0.09024266 -0.119204 -0.11274452 -0.13137537 -0.10358204 -0.030104281 0.0037356657
0.09859639 0.014916843 -0.12552148 -0.27764067 -0.18787965 -0.059253916 0.18748313 0.2545625
0.207736 0.18300505 0.06414846 0.15553792 0.09025763 0.09534332 -0.07662343 -0.031963546
-0.07907169 0.024730658 0.080544315 -0.015141642 -0.16158706 -0.029778872 -0.10495785 -0.053789344
0.1148865 0.021927902 0.058094256 0.043092966 0.1071916 0.080218084 0.080840126 0.05691555
0.008236983 -0.05571351 0.113431625 0.0774092 0.16627935 -0.08756964 -0.006492796 -0.003995681
-0.0969044 -0.020442003 -0.06462139 -0.017600033 -0.06528521 -0.010816725 -0.16046968 -0.015482997
-0.07045478 -0.027449053 0.0018367656 -0.14129047 -0.096016966 -0.046020623 -0.22465894 -0.17234865
-0.066032186 -0.21720445 -0.074334204 -0.11771204 -0.09712433 -0.0066783354 -0.109916486 -0.008929881
-0.09249363 -0.12847023 -0.07635142 -0.066736914 -0.07967345 -0.10666944 -0.16163267 -0.07442769
-0.23833716 -0.38170582 -0.15984453 -0.14622109 -1.0738021 -1.0974059 -0.05383104 -0.092607684
0.19198804 -0.014353195 -0.18808445 0.055527046 -0.34612352 -0.05934949 -0.022069106 0.07191241
0.13818005 0.1080772 0.15914676 0.1311415 0.09613087 -0.086566836 -0.22713943 -0.11067149
-0.06372425 -0.7080274 -0.05887076 0.10042511 -0.12458067 0.28924334 0.37107044 -0.45622954
-0.47746214 0.0660673 0.096335575 0.08661589 0.03550285 0.09175212 0.08557167 -0.025860699
0.15473688 0.17983755 -0.04817299 -0.037114993 0.15598306 0.09581115 0.046402197 -0.021847233
-0.0012752468 0.0030842477 0.07350438 -0.023705265 -0.025272187 -0.046367586 0.054687493 0.017050069
0.033442337 0.16773807 0.13249348 0.06600029 0.043991636 0.06717528 -0.07672574 0.083533555
0.017967645 0.037913337 -0.14560719 -0.17019631 -0.014353754 0.25175673 0.20346951 0.059471905
0.19022535 0.048172127 0.078322776 -0.09251481 -0.020356806 0.000989055 -0.002129234 -0.017106997
0.20426288 0.0151567925 -0.08404236 -0.00058442255 -0.05821346 -0.026466547 -0.18718702 0.071049474
-0.07824872 -0.020188987 -0.07642729 -0.044626586 -0.056123395 0.045914803 0.013291127 0.0144596035
-0.091378786 0.000516742 0.061898243 0.23632434 0.232413 0.022498094 -0.049134124 -0.164844
-0.2084205 -0.00012287748 -0.021517966 -0.010567329 -0.018208336 -0.087730184 0.009128978 -0.09192166
-0.046604812 -0.08179953 -0.09031924 -0.032216657 0.0591362 -0.1686678 -0.111133985 -0.18264724
-0.15094434 -0.0253092 -0.034113135 -0.07479701 -0.046200298 0.28215972 -0.014898082 -0.084120184
0.29896054 -0.331237 -0.015675418 0.21818106 0.03466512 -0.12079773 -0.26160586 -0.24915928

layers.0.conv1.attention1.0.weight f4 [9, 32, 3, 3]
00000000: 7adc 0bbe 6ab6 0ebe c3a5 27be a77b aebd
00000010: 677a 12bd 556d a33c 2693 523e 2ec5 813e
00000020: 3c51 7f3e 47e9 5dbd a3c5 5c3d d936 ef3c
00000030: b40f 45bc e698 683c 0ad4 093e f5d9 613c
00000040: 7627 a73d 7ef9 723d 80d3 95bd f1d9 70bd
00000050: 5e92 91bd fc8e 59bc 32b5 6b3d d049 703d
00000060: 4168 ce3d e95b 9e3d 3ea4 25bd 13b7 b33c
00000070: 42c6 3ebc 6ba5 9c3d 2182 43bd 45f7 1dbe
00000080: ebd8 9b3c 7171 bf3c 3094 163d 7c0b a13d
00000090: 0e04 c53c b01f 03bb 29cf 6bbc 960c b6bd
000000a0: 668b 50be c8ac 16be 2ba7 083d 7b4c 1ebe
000000b0: c193 9ebd de15 25bf 2d8f 58bf 9421 31bf
000000c0: efd1 d4be b462 3dbf 5f31 0fbf bb72 073d
000000d0: da29 d83e 5a22 743d 1171 093e 3798 483e
000000e0: 3169 d53e 6cd7 1d3e caeb dd3e 3c31 873e
000000f0: cd84 183e 7c20 9bbe c81c cb3c b677 7abd
00000100: b1d6 67bd d41e 07be 6a84 0bbe 62ba 78be
00000110: b9c5 2dbd 6261 1cbe 7076 07bd 33dd bcbd
00000120: 597b f4bd 3630 00bd b31b 88bd 91cb 23bd
00000130: 426d 92bc de32 003d 9184 f0bc ed45 c8bc
00000140: 1c23 59bd f220 ed3d 1acd 0abe b248 fb3c
00000150: e55c c0bd ee07 8e3d 1619 9e3d 2a98 273e
00000160: 42bd f23c 1aaf 04bd fdc2 253e 9442 5f3e
00000170: ff29 a53e 7298 673c aba1 aa3d 898d 5b3e
00000180: de19 7d3d cd83 30bd b594 903d 7132 603d
00000190: de90 833d 892d 9c3d 9049 84bc f343 99bd
000001a0: 617f debd 980f 6b3d f960 fc3d f361 c63d
000001b0: f9c4 40bd 9d6c 0fbd 4be0 d3bd 8339 503c
000001c0: 5c4d 6a3c 920c 193e 5b50 ac3d d982 143e
000001d0: f80f 6f3e a5f8 5f3f 7974 463f 0a57 243f
000001e0: 5712 f13e c471 9f3e 8012 cb3e c9d6 023f
000001f0: 36b8 b83e 005c 803e 7744 143e 6bac 283e
00000200: e2c7 8b3e 59b9 d3bd 1721 933e 8fec 3bbe
00000210: 2766 c03d bacc 47be d18d ef3d 3d40 003e
00000220: 3152 e73d eba9 e73d 38e8 6a3e e56d 3c3e
00000230: 64bd e23b 3541 3f3d e169 dabd c000 3cbe
00000240: 8abe e93e 491a 97be 492c b23e edaa fc3d
00000250: 558c 67bf f735 05bf be44 b7be 7d9d f9bf
00000260: 6a5c c3bf 8b33 eabd 4716 eabd 44ad 57be
00000270: 7e8d ccbd 1295 15bb 36e6 91bd 3871 c6bd
00000280: 572c 5abc f229 f1bd 57ea 1f3e 1881 cc3d
00000290: 00fc 3d3d fd58 93be ac0e 11bf 6e10 4dbe
000002a0: fe60 7b3d facc 803d 1dcc e3bb fe40 b8bd
000002b0: 0819 d6bc 0571 87bd 6963 11bd 1a00 ca3c
000002c0: 12e6 62bd 835e 0abe dd78 603c f5bb 0bbd
000002d0: fc3d 6abd 5570 f5bd a5c9 0e3d 975f aa3d
000002e0: 7cca 6a3e 4096 c63c 0290 903e a958 7c3e
000002f0: c0a5 113e 245a 47be dd77 31be 7519 753c
00000300: 44de 11be 380e 3bbe 8071 f6bc e835 8dbe
00000310: 5e53 b1be 9d67 35bd 04ba 2e3e 0096 553e
00000320: b4d6 ed3d a2c6 5fbc 176c 4fbe 03bb 16be
00000330: ec5d a73d 7900 97bd 64c6 103d 1b2a bf3d
00000340: fe95 bf3d f682 2fbd c38a cb3c 6089 a03d
00000350: 301c c73d 344a fd3d 6be9 8c3d 3fb8 243e
00000360: c672 c93e 3c6a f43e 65ec cc3e 4bd9 1c3f
00000370: 037c 253f 32f1 203f 7494 dabd 32f0 d6bd
00000380: fd8e a83d 271e 853d 3719 093a c758 363d
00000390: 2e52 6dbe afdd 8abe 9faf 97be bf09 34bd
000003a0: 57aa 30be d4ec efbc d3c4 94bc d45a ad3b
000003b0: b3f8 a3bd 0b82 d8bc 1cd5 0fbe 58ec a6bd
000003c0: 02cf 2a3d d8e5 483d e3e4 cc3c fbac 853d
000003d0: 9677 4a3e dbce a73e 9b74 89bc ac2f 6b3e
000003e0: 36b7 b93d ced9 583d 1bf4 893e 0ad7 063e
000003f0: c6c1 00bf a64f f4be cdae 6ebe 1b5c 0bbf
-0.13658324 -0.13936773 -0.16371827 -0.085196786 -0.035761263 0.019949595 0.20563945 0.2534575
0.24933332 -0.05417755 0.05389942 0.029200958 -0.01202767 0.01419661 0.13459793 0.013784875
0.081618235 0.059319966 -0.07315731 -0.058801595 -0.071079955 -0.013278719 0.05754585 0.058664143
0.100784786 0.07732374 -0.040439837 0.021937883 -0.011643948 0.076487385 -0.047731522 -0.15426357
0.019024333 0.023369523 0.036762416 0.078635186 0.024049785 -0.00200079 -0.014392653 -0.08889119
-0.20365676 -0.14714348 0.03336255 -0.15458862 -0.077430256 -0.6448649 -0.8459347 -0.6919186
-0.41566417 -0.73978734 -0.5593471 0.0330684 0.4221943 0.059603073 0.13422038 0.19589315
0.41681817 0.15414208 0.43343955 0.2640475 0.1489441 -0.3029822 0.024793997 -0.06114932
-0.05660123 -0.13195354 -0.1362473 -0.2428985 -0.04242489 -0.15271524 -0.033071935 -0.09221878
-0.11937589 -0.031295978 -0.06645908 -0.039989058 -0.017874364 0.03129851 -0.029360088 -0.024447406
-0.053012 0.115785494 -0.13554803 0.030674312 -0.09392718 0.06935106 0.077196285 0.1636664
0.02963126 -0.032393552 0.16187663 0.21802741 0.32258603 0.014135467 0.08331617 0.2144071
0.061792247 -0.043094445 0.070596136 0.054735605 0.064241156 0.07625873 -0.016148359 -0.074836634
-0.10864139 0.05738792 0.123231836 0.09686651 -0.047062848 -0.03501569 -0.10345515 0.012709024
0.0143006705 0.14946201 0.08413764 0.1450304 0.23345935 0.87488776 0.77521473 0.6419531
0.47084305 0.31141484 0.39662552 0.51108986 0.36078042 0.2507019 0.14479242 0.16472022
0.27300936 -0.10338087 0.28736183 -0.18351959 0.09394484 -0.1951169 0.11696971 0.12524505
0.11294974 0.11311706 0.22940147 0.18401296 0.00691955 0.046693046 -0.10664726 -0.18359661
0.45653182 -0.2951224 0.34799412 0.12337289 -0.90448505 -0.5203547 -0.35794634 -1.9501187
-1.5262578 -0.11435612 -0.1143003 -0.2106219 -0.09987925 -0.0022824449 -0.071239874 -0.096895635
-0.0133162355 -0.117755786 0.15616737 0.0998556 0.046382904 -0.2877883 -0.5666301 -0.20025799
0.061371796 0.06289096 -0.0069518224 -0.08996771 -0.026134983 -0.06613354 -0.035495196 0.024658252
-0.055395193 -0.13512616 0.013700691 -0.034114797 -0.05718802 -0.11984316 0.034860272 0.083190136
0.22928804 0.024241567 0.2823487 0.24643196 0.14223385 -0.1946798 -0.1733088 0.014959683
-0.14244944 -0.18267143 -0.030083418 -0.2758019 -0.34633917 -0.044288266 0.17063147 0.20858002
0.11613217 -0.013658198 -0.20256077 -0.14719777 0.08172211 -0.07373137 0.03534545 0.09334203
0.093547806 -0.042849503 0.02484644 0.07838702 0.09722173 0.12367669 0.068804584 0.1608591
0.39345378 0.477373 0.40024105 0.6126906 0.6464235 0.62868035 -0.106728464 -0.10495032
0.08230398 0.06499892 0.00052298926 0.04451826 -0.2317588 -0.27122256 -0.29626176 -0.043954607
-0.1725248 -0.029287733 -0.01816026 0.0052903686 -0.0800642 -0.026429197 -0.14046139 -0.08150548
0.041701324 0.04904732 0.025011485 0.06527134 0.19772181 0.32775006 -0.016779235 0.22967404
0.09068148 0.05294209 0.2694405 0.13167968 -0.50295675 -0.47717017 -0.23308869 -0.54437417

layers.0.conv1.attention1.0.bias f4 [9]
00000000: fb88 9e3d 7013 30be 868d b53d e08f 673d
00000010: 88e0 033e f4a4 3b3e 342d 293e 17bb 983e
00000020: 9f28 b8bd
0.07740971 -0.17194915 0.08864884 0.056533694 0.1287862 0.18324643 0.1652115 0.29830238
-0.08992123

layers.0.conv1.attention1.2.weight f4 [9, 9, 1, 1]
00000000: 6c57 d23e 8621 8abe 0388 01bd 6d86 a8bd
00000010: 6f3d 61be 4761 ac3e 153b 51be 8d06 893f
00000020: 3e59 db3e e5fd b63d eea5 013e 1597 7bbe
00000030: db60 383e 7ecd 1a3e e8e1 143e 86c4 c4bd
00000040: 84c6 29bf 78bb 803e eeef c6be 812f da3d
00000050: 6f5f 983d 9be6 95be 8864 6d3e 279d 7dbe
00000060: e11f 99be 569d a43d 9284 b13e 24fe 14bf
00000070: 8b0f a23d 9680 83be 7abb 273e 15de cdbd
00000080: 8493 b1be d6b3 8e3d 1645 7dbe 020a 3a3f
00000090: 4e9e a03e af87 4ebd a2e4 283e 745f 07be
000000a0: 591b a73e ad3f c13d b03e 4abe a3c7 0cbe
000000b0: e578 56bf b504 ccbe b5f4 cbbe 873a 8ebe
000000c0: c85d 803e caf0 3fbe eb16 d63e 6c27 ec3e
000000d0: da46 553e d3e5 6abf 9214 32bf 9aae 5cbe
000000e0: 0b29 553e 7ca5 c73e 2f10 a13e 32fe 583e
000000f0: 8992 e33e 5f8e d5bf 0015 8fbe 2402 ec3e
00000100: 9102 20bd 2eaf b7bd 68de 0ebd dc48 9dbd
00000110: 80c4 3d3e d060 d8be 8938 8a3d d235 c83e
00000120: 2031 6ebe 9ea2 d8be d7fb 2d3f a30d c93e
00000130: 7337 283f fc5f b13d cf2a 563e ec95 89bf
00000140: c028 4f3f
0.41082323 -0.269787 -0.03162385 -0.08228765 -0.21996091 0.33667967 -0.20432694 1.0705124
0.42841524 0.08935145 0.12660953 -0.24569352 0.18005697 0.15117452 0.14539301 -0.09607796
-0.66318536 0.25143027 -0.38854927 0.10653592 0.074400775 -0.292775 0.23182881 -0.2476698
-0.29907134 0.08037822 0.34671456 -0.5820029 0.07913121 -0.2568404 0.1638011 -0.100521244
-0.34682858 0.06967895 -0.24733385 0.7267152 0.31370777 -0.050422367 0.16493466 -0.13220006
0.32638052 0.09435973 -0.19750476 -0.1374803 -0.8377822 -0.3984734 -0.39835134 -0.27779028
0.2507155 -0.18744197 0.4181436 0.46123827 0.20827809 -0.91756934 -0.6956264 -0.2155098
0.20816438 0.38993442 0.3145766 0.21190718 0.44447735 -1.6684073 -0.2794571 0.46095383
-0.039064948 -0.0896896 -0.034880072 -0.076799124 0.1853199 -0.42261362 0.067490645 0.39103562
-0.23260927 -0.42311567 0.679624 0.39268216 0.6570961 0.08660886 0.20914768 -1.0748878
0.80921555

layers.0.conv1.attention1.2.bias f4 [9]
00000000: 012c 9e3d 5bad 27bf 71a0 21be a53d c73e
00000010: 0a4d a23b a368 723e 84a5 43bd 6568 c7be
00000020: 408c 5d3d
0.07723237 -0.65498894 -0.1578386 0.3891422 0.0049530314 0.23672728 -0.04776527 -0.38946834
0.05408883

layers.0.conv1.attention1.4.weight f4 [9, 9, 1, 1]
00000000: 9fbc 49bf f30f 363e 1c25 233e 7748 da3e
00000010: 4da8 13bc 6f51 6bbf e5ff 683e 96cc 513e
00000020: 5d9d b03e f598 5e3e 293d e5be c70d 00bf
00000030: 2a7a 25be e3f8 863e 2b8b 97be a4d5 233f
00000040: dcdc 9ebe 213e 143f 8ea7 64bc 976c 8ebe
00000050: f932 86be 3c81 ffbe 2fae da3c e573 393f
00000060: 3b3c f0bd 1e93 8fbe 382b c4bd 5e7f 81bd
00000070: c857 1a3e 0917 903c 5fdf 4e3d dabc 263e
00000080: cede 833f 94c9 863d 6bb0 86be e2b7 a7be
00000090: 1d7f e23e 93c1 a7be 6b21 71bd 965b a03e
000000a0: 06cd 963f 18a3 e63e e818 8c3f 86e1 efbe
000000b0: bc80 b13f 8cd6 e53d 7075 51be 7b01 3d3e
000000c0: 445e 6b3f edbc 2bbe e232 3f3e 558b 5cbb
000000d0: 9f66 78be c9dc 723d f152 9e3e 7cd3 343c
000000e0: 0c78 703e 1195 103d 39e4 b0be d0fc 493f
000000f0: af9d 94bd 85a8 9ebe 2028 d2be a8cd 3ebf
00000100: f108 e5bd d640 d8be a1b4 88be bab3 db3d
00000110: 2e83 a93f 202d 6f3f 2fc8 94be d520 1f3f
00000120: 10da b7be 6c35 603e 6b78 35be d105 183f
00000130: 1bb7 5cbe dbba 6ebe 5b02 c03d cc2c 2f3e
00000140: ba7a 813e
-0.7880344 0.17779522 0.15932125 0.4263341 -0.009012294 -0.9192113 0.22753866 0.204882
0.3449506 0.21738036 -0.44773224 -0.5002102 -0.16159883 0.2636176 -0.29598364 0.63997865
-0.31027877 0.579073 -0.013955964 -0.27817222 -0.26210764 -0.49903286 0.026694385 0.72442466
-0.11730238 -0.2804193 -0.09578556 -0.063231215 0.15072548 0.017589109 0.050505992 0.16282979
1.030237 0.06581417 -0.2630647 -0.3275748 0.44237605 -0.32764873 -0.05886976 0.31319875
1.1781318 0.45046306 1.0945101 -0.46851748 1.3867412 0.11222562 -0.20454955 0.18457596
0.9194071 -0.16771288 0.18671754 -0.0033652384 -0.24257897 0.05929259 0.30922654 0.01103675
0.23483294 0.03529841 -0.3454912 0.78901386 -0.07256638 -0.30987945 -0.41046238 -0.74532557
-0.11183346 -0.42236966 -0.2670031 0.107276395 1.3243158 0.9342823 -0.29058978 0.6215947
-0.35908556 0.21895379 -0.17721717 0.59383875 -0.21554224 -0.23313467 0.09375449 0.17106932
0.25288945

layers.0.conv1.attention1.4.bias f4 [9]
00000000: bcbe a0be ff85 063f 38be 923b 911d 173e
00000010: 805b 153f 83ff 55bd 01ed a03e 4068 f23e
00000020: c633 adbe
-0.3139552 0.5254821 0.0044782422 0.14757372 0.5834274 -0.052245628 0.3143082 0.4734516
-0.33828562
