weights/BWNET_LAGConv_T3/model_epoch_900.pth (torch, 678374 bytes, 141 tensors)

raise_dim.0.weight f4 [32, 9, 3, 3]
00000000: eb19 9ebb 707e 2c3e de31 e3bd 3e10 8bbd
00000010: f92e cf3d 776d 48be 8192 2a3d ebc9 903d
00000020: f248 433e ec35 f1bc 1ef8 ffbc 9e2a a1bc
00000030: 2daf 303e 5744 443c 6019 9dbd c0a2 a9bc
00000040: 2be8 61bd eff3 d63d 2b53 0cbc 3061 a9bd
00000050: 8f5a 63bc 0e16 2e3e 22e6 a9bc e4e6 813c
00000060: c09e fb3d 191f 1b3e 741e a3bc f160 583d
00000070: 4dac d0bd 5b6c c8bd 0494 d9bc 6c10 03bd
00000080: 5a81 85bd f227 01be 5f4e 693b 647c 1cbd
00000090: 532c e9bd 35d3 84be 0214 bcbe 2bfa c2bd
000000a0: 7508 c6bd f3ff a1bd 252e 5ebe 7ba7 30be
000000b0: 3f7e 3abe b928 7b3e 6519 9c3b 0dfa 4a3b
000000c0: ff6f 153e 6f61 ae3e c76e 6d3e 59d0 bebd
000000d0: ac4f 3c3e fa4a 3c3e 2445 3f3e d764 b73a
000000e0: 79df 8ebc dda9 1bbe 296b bd3d dfa8 3c3e
000000f0: 79d7 293c 2f99 ec3b 222f b63d 6ef4 75be
00000100: 53ad 0dbe a1fe 8abe 7731 cfbe a172 85be
00000110: 3ea8 29be afa2 47be 3b2a a7be c292 9fbe
00000120: 673e 4abe 608f 553c ccb5 21bc d120 eebe
00000130: 8d05 89be e77b eebc 4d67 13be 467f 6bbe
00000140: 753a b1bd 617e 49be 1ab7 91be ea89 48bc
00000150: ea75 753d 9f05 21be f12b 2dbe 079f 25be
00000160: 1fde 9c3c 7653 dc3c 270b 683e dc2e 9bbe
00000170: ff14 6b3c 2aa8 d5bc d039 0c3c ef87 ecba
00000180: d9be be3d 2745 78bd 525b 783d 4c80 3f3d
00000190: 4fb5 97be 408c 54be 43fb 143c 2ddd 1bbe
000001a0: 3d7c 24be 2e8f 44bd e187 b0bc 19cd 6d3e
000001b0: 5a8a e5bd 2d61 e7be 0714 0abe 647e 9bbe
000001c0: 4f02 c1be 565c 05be 7ff7 17be 8ef8 2abe
000001d0: 8308 5f3e 838f c53b e7a7 b0be ffc4 c63d
000001e0: c551 f13c 5a2f 953d 8b5e 843d 5f17 e43d
000001f0: 4b43 053d d76f 983e c699 0a3e 56b7 dfbd
00000200: 09ac 743e 99ed 9f3d e3d4 cf3d 1429 8c3e
00000210: ab77 8f3e 717b 2e3e a18a ac3e c028 1f3e
00000220: 5e35 b03c 6697 4f3e 8c8e c23d f8dc 013e
00000230: dfa0 793e 7f3b 043e 4d89 bcbc 1283 433e
00000240: 72bf 1b3e 043d c6bd 89a8 05be a15a 1c3e
00000250: 1041 0fbd c3ab 3a3d b5db 273e 60f0 893d
00000260: 4938 003d a85c c5bd e2eb 1c3d 7bb2 05bd
00000270: b90b 84be abe0 b4be eb6a 8cbe 32cc a43c
00000280: 2477 abbe 4b4b 96bc 9b90 f7bd 0fae 29be
00000290: d4db 5cbe 2593 13be 9a25 09be dacd 86be
000002a0: 00da 04be f00c 233c 88f9 b5bc 492f bc3d
000002b0: 6e52 4fbd 45a6 26be 9181 47bc 1695 1a3e
000002c0: a972 aabd 5d2d 3abe d7c3 c53d 59a7 af3c
000002d0: c63a 5bbd 0aa3 bcbe 6614 cfbe d17e 8dbe
000002e0: 25ac 91be fb6c 6cbe 97c7 bbbe 9ff4 81bd
000002f0: 00a8 41bd fb4a d13c 0704 0bbf 6640 c0be
00000300: 7e59 15be 0d8e 8fbe ca03 eebd 41e0 16be
00000310: 3b7b d6bd a089 3e3e 0759 8d3d 0c3e afbd
00000320: 541c babd 0af0 603e 0595 643e d6cb 9c3d
00000330: cb2e e73d 95f0 5a3e 79bb 083e 266d 153e
00000340: 62e0 3bbe 067f b4be 5776 553d 707f 493d
00000350: 555d 86bd 43da b53c 62e8 233e 2af8 293e
00000360: 6429 863d de74 13be 602f 92be f479 303d
00000370: ba44 29be 9001 2fbe 0a88 51bd d397 b5bd
00000380: 2bd4 ba3d 8481 c53e 785b cd3d 56f9 93bd
00000390: 2a03 713d 1ee3 3a3e e0d6 973d 71e6 8fb9
000003a0: 394e dd3c 5c84 31bd 5628 973d 3d92 c03d
000003b0: be15 b83d 4229 70be 2990 b5be 4256 23be
000003c0: 446a ed3d 62a7 a1be fa43 dabd 8172 a2bd
000003d0: 92ef fbbd 68c1 a2bc 2ace ae3a 1f87 debe
000003e0: 4c32 243d 6689 2fbe 0e20 a03e e1a7 80be
000003f0: 6f0f 95bd bd40 8a3c 3218 483e f0e6 edbc
-0.004824867 0.16845107 -0.11093496 -0.06790207 0.10116381 -0.19573008 0.041643623 0.07069763
0.19070795 -0.029444657 -0.031246241 -0.019673642 0.17254324 0.011979184 -0.076708555 -0.020707488
-0.055153053 0.104957454 -0.008564751 -0.0827049 -0.013876571 0.170006 -0.020739619 0.015857168
0.122861385 0.15148582 -0.019911982 0.052826826 -0.10189114 -0.09786292 -0.026559837 -0.031998083
-0.065188125 -0.12612894 0.0035599691 -0.038204566 -0.11385407 -0.25942388 -0.36734015 -0.09520372
-0.09669582 -0.079101466 -0.2169729 -0.17251389 -0.18212222 0.24527253 0.0047637695 0.0030971796
0.14593504 0.3405871 0.2318679 -0.09317083 0.18389767 0.18387976 0.18678719 0.0013991845
-0.017440544 -0.15201516 0.09248955 0.18423794 0.010366314 0.0072204093 0.088957086 -0.24019024
-0.13835649 -0.2714739 -0.40467426 -0.26064017 -0.16568086 -0.19495653 -0.32649407 -0.31166655
-0.19750367 0.013034672 -0.009870004 -0.46509412 -0.26762047 -0.029111816 -0.14394875 -0.2299777
-0.08653728 -0.19677116 -0.28460008 -0.0122399125 0.059926905 -0.157248 -0.16911294 -0.16173945
0.019148884 0.026895266 0.22660504 -0.30309188 0.014348268 -0.026081163 0.008558705 -0.0018045882
0.09313745 -0.060612824 0.060633965 0.046753213 -0.29630515 -0.20756626 0.009093109 -0.1522109
-0.16063018 -0.04798811 -0.021549167 0.2322277 -0.11208029 -0.45191327 -0.13484202 -0.30369866
-0.37697074 -0.13023505 -0.14840506 -0.16696379 0.2178059 0.006029071 -0.345031 0.09705543
0.029457936 0.07284422 0.06463345 0.1113727 0.03253488 0.29772827 0.13535222 -0.109236404
0.23893751 0.0780899 0.10148027 0.2737509 0.28020987 0.17039277 0.33699515 0.15542889
0.021509822 0.20272598 0.09499845 0.12681949 0.24377774 0.12913321 -0.023014689 0.19092968
0.1520975 -0.096796066 -0.13052572 0.15268947 -0.034974158 0.04557396 0.16392405 0.06735301
0.031303678 -0.096368134 0.038310893 -0.032640915 -0.25790194 -0.35327658 -0.27425322 0.0201169
-0.33489335 -0.01834645 -0.12088128 -0.16570304 -0.21568233 -0.144116 -0.1339325 -0.26328927
-0.12973785 0.009951815 -0.022213712 0.091887064 -0.05061572 -0.16274364 -0.012176887 0.15095934
-0.08322651 -0.18181367 0.09656494 0.021442102 -0.053522848 -0.3684314 -0.4044525 -0.27635816
-0.28451648 -0.23088448 -0.36675712 -0.06345486 -0.047279358 0.025548449 -0.5430302 -0.37549132
-0.1458492 -0.28038064 -0.116218165 -0.14733984 -0.10472723 0.18607187 0.06901746 -0.085567564
-0.090874344 0.21966568 0.22322471 0.07656066 0.11288222 0.21380837 0.13352765 0.14592418
-0.18347314 -0.3525316 0.05211481 0.0491938 -0.065607704 0.022198802 0.16006616 0.16598573
0.065508634 -0.1440005 -0.2855177 0.043085054 -0.16530123 -0.1709044 -0.051155128 -0.08866849
0.09122499 0.38575375 0.10027212 -0.072252914 0.058840908 0.18250701 0.07414031 -0.00027446778
0.027014839 -0.04333912 0.0738074 0.09402893 0.08988522 -0.23453239 -0.35461548 -0.15950873
0.11592534 -0.31573015 -0.10657497 -0.07931996 -0.12301554 -0.019867614 0.0013336588 -0.43462464
0.04008703 -0.17142257 0.31274456 -0.2512808 -0.07278334 0.016876573 0.1954048 -0.029040784

raise_dim.0.attention1.0.weight f4 [9, 9, 3, 3]
00000000: 68f4 d2be c046 2f3e 9782 5bbe 100f e7bd
00000010: 55a2 e33e f38f 0e3e 8d88 3cbe a425 e03e
00000020: c00c 7bbd 97ee 7abe fba2 c7be ddc2 03be
00000030: 3ec7 e9bd 4553 dfbe 48ae e1be 9747 bcbd
00000040: 6822 bfbe 18c5 2ebe 6e48 a0be b4c6 6fbe
00000050: b3f0 53be 9333 55be 8998 bcbe fc79 36be
00000060: cd7f 50bd 3132 b63d 292c ba3e b844 cc3e
00000070: 3e64 b53e c672 853e 4fcf 82bd a074 f53e
00000080: 6e97 a83e 1b84 253e 2477 733e 815b 68be
00000090: 321d 9e3e 0e9e c83d fc6a 153e 9f5e 023f
000000a0: ba42 d23c 194b a93d b109 303e 14c2 99bd
000000b0: 09f1 6f3e e929 08bf a321 d43c 3b3e a63d
000000c0: 280b 1ebf c5b4 4ebe 245b d5bd a504 6fbe
000000d0: 7845 afbe c427 54be 86c1 1ebe f3ce 89bc
000000e0: cb43 843b e729 efbd 2d27 3fbe 8321 37bd
000000f0: 967c e53d 7062 4bbe cc12 dfbc dbe0 b0be
00000100: dd24 1bbe f549 34be 8a60 a5bd 0cab 08bd
00000110: d864 9bbe b6a0 683e 29c6 43bd 7351 3bbe
00000120: 708f e93d fd8c 68bd ea0e d73e 95f9 e93e
00000130: 4106 773d 4a79 a43d 3d2e 8f3e 7a2c 903e
00000140: c12b 4a3d 210d 5dbe a2d1 a33c 901d 56be
00000150: 7ac9 abbc 8637 563f 1098 d53e a0be 573e
00000160: be5d ecbd b6f0 553e 6cf2 463e 352c c93d
00000170: b349 87bd 16ef 313d d2ef 313e 3647 203e
00000180: 069c 5e3e 40b3 7c3e ecde 843e c940 54be
00000190: 340d c33e 82ba a73e 58b0 1e3e cd09 97bc
000001a0: ff5e 7c3d 1c0a f43c bd78 513e 8d00 773d
000001b0: 0110 3a3e c428 473e 5c27 49be 227f 5d3e
000001c0: d0b8 9a3e 4eb4 803e 97bb a53e e154 5ebd
000001d0: 7314 9c3d 22e3 113f 4feb 8d3e b4bf 8f3e
000001e0: c30e 1b3f 3fa8 1c3f 765d 8b3e 381a 6c3e
000001f0: 3001 d83e b3f4 a73e e798 643e 16f2 73be
00000200: af99 67be cdf8 813e fd34 023e b015 883d
00000210: a182 8f3e 4f77 1f3e ee1e 05be 3cff 633e
00000220: 021f 91bd 4d2a 073e 6195 f63e cb58 eb3d
00000230: 7861 00be 78d1 023f 0431 973e e59c debd
00000240: 8b6e bf3d b806 683c b43c d73c e2a0 8e3e
00000250: c9ca 573e 7bfa c9bd 6358 403e 4d93 63be
00000260: 8506 81be d2c7 d13d 2671 9d3e 9074 3a3e
00000270: 8975 173e e2ae a93e 2fa6 4f3e 1c92 1cbd
00000280: 6756 de3d a588 7fbd e7c0 17be 592b 3dbe
00000290: fe58 a6bd 9782 48be 39a0 73be 4e26 26be
000002a0: 3a6a 50bc 1298 88be 495e f63d 32aa 673e
000002b0: 419a 74be fc8c fd3c 1479 25be 8c70 31be
000002c0: 392f 33be c47e 35bd 2b25 3bbe 010a 22be
000002d0: 4089 c9bc 653d 89be e6a4 69be 9afa edbe
000002e0: 7b06 10be 4337 e1be ffcd 0abe 7fd3 fb3c
000002f0: 41b5 58be 50bf a9be 48ec a9be 4b8f 62be
00000300: 9967 a2be 4a61 a1be c4cd 34bd 851f 79be
00000310: 6af2 6ebe 0f66 dcbd a03f dfbe 994b f6be
00000320: 5211 21bc c4e8 3abe 5ef5 7abe 1810 d9be
00000330: 2033 3fbd 6420 7bbe f1fb 0ebb dd54 b5bc
00000340: c8ad 43be 341d 13be 9166 70be 5a6c ebbd
00000350: fe6c e4be 240f eabd b467 1e3e b7ed 023e
00000360: 4931 26bd 9a09 63be 97af 84be 6d69 e7be
00000370: 9fe1 32be 2edf d2be 8656 81be 0eb1 eebd
00000380: 0dc4 37be ccbf 83bd bfc4 1dbd 6751 93be
00000390: 9059 66bd b37f 73be cb82 87be 1ea6 463e
000003a0: d3cb 5ebe 757a 32be 45e7 3abe e8ee a6be
000003b0: cd47 96bd b488 7ebe ad02 9ebe d9fa 9ebd
000003c0: e81c 523e 272c 40be a785 d93e 8e0d 1dbc
000003d0: b749 8c3d bb6d bebc 26a6 c3bc 2faa eebe
000003e0: ab57 6c3e f945 ad3d 2df0 26be 4564 91bd
000003f0: 48bf 57be 01a4 35be 0dd4 5d3d a552 fc3d
-0.41202092 0.17116833 -0.21436535 -0.1128217 0.44459787 0.139221 -0.18411465 0.43778718
-0.061291456 -0.24505077 -0.38991532 -0.12867303 -0.114149556 -0.43618217 -0.4407828 -0.09193342
-0.37330937 -0.17067373 -0.3130526 -0.23415643 -0.20697288 -0.20820455 -0.36835125 -0.17819971
-0.05090313 0.08896292 0.36361817 0.39896178 0.3542804 0.26064128 -0.06387197 0.4794054
0.32928032 0.16163675 0.23775917 -0.22691156 0.3088165 0.097957715 0.14591593 0.5092563
0.025666583 0.08266277 0.17191197 -0.075077206 0.23431791 -0.5318895 0.025894945 0.08117338
-0.61735773 -0.20186146 -0.10417774 -0.23341615 -0.34232688 -0.20718294 -0.15503511 -0.016822314
0.004036402 -0.11677914 -0.18667288 -0.044709694 0.112054035 -0.1986177 -0.027230643 -0.3454655
-0.15150781 -0.17606337 -0.08075054 -0.033366248 -0.30350375 0.22717556 -0.047796402 -0.18292789
0.11404312 -0.056775082 0.42003566 0.45698228 0.0603087 0.080309466 0.27964965 0.28158933
0.049358133 -0.2158704 0.019997422 -0.20909715 -0.020970095 0.8367847 0.41717577 0.21068811
-0.115413174 0.20892605 0.19428414 0.09822885 -0.06605854 0.0434409 0.1737664 0.15652165
0.21739206 0.24677753 0.25951326 -0.20727839 0.3809601 0.32759482 0.15496957 -0.01843729
0.061614033 0.029789977 0.20456214 0.06030326 0.18170168 0.19449145 -0.1964392 0.21630529
0.30219126 0.25137562 0.32369682 -0.054280166 0.07621088 0.569872 0.2771859 0.28075945
0.605694 0.61194223 0.27219743 0.23056877 0.42188406 0.32803878 0.22323953 -0.23822817
-0.2261722 0.25385132 0.12715526 0.066447616 0.2802935 0.15572856 -0.1300008 0.22265333
-0.070859924 0.1319973 0.48160842 0.11491545 -0.12537181 0.51100874 0.29529583 -0.10869769
0.09347256 0.014161758 0.026274063 0.2785712 0.2107345 -0.098622285 0.18783717 -0.2222416
-0.25200287 0.10243191 0.30750388 0.18208528 0.1479093 0.33141237 0.20278238 -0.03822528
0.10856324 -0.062386174 -0.1481968 -0.18473567 -0.08122443 -0.19581066 -0.23791589 -0.1622555
-0.012720639 -0.2667852 0.12029702 0.22623518 -0.23886968 0.030951016 -0.16159469 -0.1732809
-0.17498483 -0.044310346 -0.18275897 -0.15824129 -0.024601579 -0.26804653 -0.2281681 -0.46480256
-0.14064972 -0.43987474 -0.13555144 0.030740498 -0.21162893 -0.33153772 -0.3318808 -0.22124974
-0.31719664 -0.31519538 -0.044141546 -0.2432843 -0.23334661 -0.10761654 -0.4360323 -0.4810455
-0.00983079 -0.18252856 -0.24507663 -0.4239509 -0.046679616 -0.24524075 -0.002181765 -0.022135193
-0.19109261 -0.14366609 -0.23476626 -0.11495276 -0.44614404 -0.11428669 0.15469247 0.12785994
-0.040574346 -0.22171631 -0.25915214 -0.4519762 -0.1746888 -0.41185898 -0.25261325 -0.11654864
-0.17945881 -0.06433067 -0.03851771 -0.28773043 -0.056237757 -0.23779182 -0.26466975 0.19399306
-0.2175744 -0.17429526 -0.18252285 -0.32604146 -0.07337914 -0.24856836 -0.30861416 -0.07762689
0.2051884 -0.18766843 0.4248478 -0.009585751 0.068499975 -0.023245683 -0.023882937 -0.46614215
0.23080318 0.08460612 -0.16302557 -0.07099203 -0.21069062 -0.17738344 0.054157306 0.12320451

raise_dim.0.attention1.0.bias f4 [9]
00000000: 8c32 e63d 11f9 2c3e 33eb db3b 0b21 913c
00000010: fea2 2e3d ea11 9c3e 11ab 6d3d e209 1f3d
00000020: 8d22 0dbd
0.1124011 0.16891886 0.0067113875 0.017715951 0.04263591 0.30482417 0.05802447 0.038827784
-0.03445678

raise_dim.0.attention1.2.weight f4 [9, 9, 1, 1]
00000000: 8cf1 c0bd 5d76 96be 66c5 98be 6528 63bf
00000010: 4955 863e 2164 95be 3069 85be e75a e0be
00000020: 23f9 6cbd 5d52 793e d869 543e 2a42 0c3f
00000030: 4ded 933f 6446 38bd 2dd8 5abf 9f84 383f
00000040: 723b bebe 1f89 473f e992 8d3d 46ee 40bf
00000050: 6454 3e3f 8bab c9be b876 87be 64fb f73d
00000060: db3b 113f f04f f3be e844 15be 964a e53e
00000070: 900e 483e ecef 5c3e 182f 7ebd c069 a1be
00000080: b513 2abc da96 583e 9a49 c33e 9e2f 0cbf
00000090: 1f29 353f 5243 5f3d 33d0 223f 8f02 36bf
000000a0: 95c2 d23e 4f6d cb3f af92 943c 8fc0 73bf
000000b0: 13d6 eb3e 2959 74be 3dce 813f 612f 35bf
000000c0: f220 66bf b4f3 813f 399f 8dbf df55 6dbe
000000d0: 411a 2a3f c5ee ddbe 909d 803f 97cd af3e
000000e0: 6f2a 91bf ce3f b2be 269d 143f 5eb7 593d
000000f0: e907 c33e 7bf9 36be e41a 793f cdb8 8a3f
00000100: 0ca6 913d 27f8 ae3c b6b1 2bbf b702 0b3e
00000110: c57e 83bc cb7d 85bf 195d ebbe b7d9 a4bd
00000120: a742 6abd 2135 40be 105a aa3d b758 1e3f
00000130: cb97 25bf d178 b3be 6b1d 733e 9d0a fd3e
00000140: 332b cc3f
-0.094210714 -0.2938718 -0.29838103 -0.8873351 0.26236942 -0.29177955 -0.26056814 -0.43819353
-0.057854783 0.24347825 0.20743501 0.5478846 1.1556793 -0.044989005 -0.8548611 0.72077364
-0.37154728 0.77943605 0.069127865 -0.75363576 0.7434752 -0.3938869 -0.26457763 0.12108496
0.5673196 -0.47521925 -0.14577067 0.44783467 0.19536805 0.21575898 -0.06205663 -0.31525993
-0.010380675 0.21151295 0.3814209 -0.5476016 0.7076587 0.05450756 0.63598937 -0.71097654
0.4116408 1.5892733 0.01813635 -0.95215696 0.46061763 -0.23862137 1.0141064 -0.7077542
-0.8989402 1.0152497 -1.1064216 -0.23177288 0.6644631 -0.4334623 1.0048084 0.3433654
-1.1341075 -0.34814304 0.5805229 0.05315339 0.38091972 -0.17868607 0.97306657 1.0837647
0.07111749 0.021358563 -0.6706804 0.13575254 -0.01605166 -1.0429014 -0.45969465 -0.08049338
-0.05719247 -0.18770267 0.08317959 0.6185412 -0.6468474 -0.35053113 0.23741691 0.4942216
1.5950683

raise_dim.0.attention1.2.bias f4 [9]
00000000: 237a 9b3d 9c28 bfbd 1aa5 8e3d f060 3f3e
00000010: 91cb 483e d57d d93d 970f 813d 0953 a33d
00000020: fef6 4dbc
0.07591655 -0.093339175 0.069650844 0.18689322 0.19608904 0.10619704 0.06301802 0.07974822
-0.012571095

raise_dim.0.attention1.4.weight f4 [9, 9, 1, 1]
00000000: 9c5c 473d 8dca 95bf ae87 073f 15d4 1abe
00000010: 6343 663e 53a7 4b3e fd7e bbbe e78f 223f
00000020: ce09 a9bf fd84 823d ebae 8d3e 0a27 09bf
00000030: 1da8 ad3e c6a3 213f 7fbe e1be 0310 42bf
00000040: 6ca4 923f ac37 6c3e e318 b2bd c1f1 523f
00000050: 7721 cabe 9f6e 8f3e fefa 0bbf 6baf 96be
00000060: bc24 debe f8c6 473f 2de1 293f e23e 493f
00000070: 70ce 0bbf 289e acbf e26b 363f c439 febf
00000080: e5d3 9e3f 792a 453f a210 7e3f 2a62 29bf
00000090: a71d 3fbf fda7 383e 6753 98bf b2e7 fb3e
000000a0: f66f ecbe 6812 6e40 6334 1340 cd7e 893d
000000b0: 48ce 3d3e d3d7 1e3d 3b9d c03c 9edc 333e
000000c0: b550 343f 0e34 ad3e 102f 6ebe 6a9d 633e
000000d0: aeb2 1d3f a5d1 bebf 2938 1abe dc9e 0ebd
000000e0: 1d0d 283f d6dc e6be e2f9 273f 4d34 d1be
000000f0: d078 5c3d 6e8e 573f e9d9 7abf a0cf 94bd
00000100: a19e 6fbe d3cd b8be f800 8c3f a652 1d3f
00000110: 1781 c53f 8648 a53e 8bf9 2dbf 329a 0fbf
00000120: 554d a03e ad56 8dbd 8f69 763f 05bb 99be
00000130: 7877 8c3d c42b 2e3e 481c b8be 1840 af3d
00000140: 9774 13bf
0.048672304 -1.1702439 0.52941406 -0.15119965 0.22486643 0.19888048 -0.36620322 0.6350083
-1.3206117 0.06373022 0.27672514 -0.53575194 0.33917323 0.63140523 -0.4409065 -0.7580568
1.1456428 0.23068112 -0.08696153 0.8240014 -0.39478657 0.28014085 -0.5467986 -0.29430708
-0.433874 0.7803798 0.66359216 0.78611577 -0.54611874 -1.3485765 0.71258366 -1.9861379
1.2408415 0.77017933 0.9924413 -0.6616541 -0.7465462 0.18032832 -1.1900452 0.49200207
-0.4617917 3.7198734 2.3000724 0.067136385 0.18535721 0.038780045 0.023512473 0.17564628
0.7043565 0.33828777 -0.2326014 0.22228017 0.6160077 -1.4907728 -0.15060486 -0.03481947
0.6564501 -0.4509036 0.65615666 -0.40860215 0.053826153 0.84201705 -0.97988755 -0.07266164
-0.23400356 -0.3609453 1.0937796 0.61454237 1.543002 0.32281893 -0.679589 -0.5609466
0.31309 -0.06901298 0.9625482 -0.30025497 0.06858724 0.17008883 -0.35959077 0.08557147
-0.57599777

raise_dim.0.attention1.4.bias f4 [9]
00000000: 35c6 a0bb 7ba5 893e a257 a1bd 89e7 af3e
00000010: 0b83 f43f 9390 9b3e 5920 2b3e 0a6f 4c3e
00000020: 87cd c23c
-0.0049064406 0.26884064 -0.07878043 0.34356335 1.9102491 0.3038374 0.16711558 0.19964233
0.023779644

raise_dim.0.attention3.1.weight f4 [32, 9, 1, 1]
00000000: bebf fb3d 81a0 14bf 1c90 d03d 63f4 df3e
00000010: 5091 e53c 923c febe fe5b 08be e47a 933e
00000020: 5391 9bbe 197f 133f bd2d 3ebf f381 eebd
00000030: 1fdc 6ebe d849 8cbf f3c3 443f e72c 5c3d
00000040: 38f1 683d 2e76 b93d 3c0d b73d b483 123f
00000050: 942f 02be 2bfa 743f 43ec a63b 0db0 9a3e
00000060: d7fc 363e 2339 d83e 767b 2cbf 0a98 a23e
00000070: bb41 b63e 836a 39bf c3db 36be 97c0 04bf
00000080: 6682 4e3e 3ee3 25bf ef0c 8bbe a700 203f
00000090: f7e3 353f 23c5 c83e a0b3 ea3d d658 1e3e
000000a0: ab01 1f3e 5e9b 84be 3880 24be 25a3 3abb
000000b0: 41d7 533c d4b1 bfbe a370 273d a355 bd3d
000000c0: 84c9 99be 3358 a8be abca 7e3e e6a3 533f
000000d0: 77a4 2cbe f176 883e bc4d 8a3c e1f6 883e
000000e0: f7ad 32bd f67a 08bd 5335 933e a150 c73d
000000f0: e84a ee3e 03f3 15bf ed69 67bf 5917 e83e
00000100: 0a2d 0bbe c1be edbe 0f8e e2be 4489 9f3e
00000110: 871e e33e 85f8 98be 0b7c 683f 16ef 3cbf
00000120: 3fa1 503f bcde 1dbf 6776 97bf 1b1e afbe
00000130: c5df 81be f073 913e d7ff 303f 0aad d9be
00000140: 80a5 b4bc c62c b1be 6e73 983d 6b6e fdbe
00000150: 39a8 8ebe 5dff 0f3e 0041 5c3e db45 d13e
00000160: 69c7 273e 8003 553e b62f 09be 260d d63d
00000170: 77da 023e 0433 2f3f 7782 03bf 2f28 563e
00000180: 570f 60bf f8d6 f63e 9c1b 083e ed12 193f
00000190: d75c 2d3f 3643 34bf 7a8e a7be 33eb 0cbf
000001a0: 6d43 003e 988f 54be 8a78 a33e 200a fcbe
000001b0: 1042 273e f933 433f e0e9 033f 7a5e 7c3e
000001c0: ae80 b93e e075 c7be 420e 16bf 9dc8 4fbe
000001d0: e3c3 5b3f e987 363f afb9 21bf bdd4 32be
000001e0: 28da a83e 18e2 0cbf 4a27 07bf 2d22 2abe
000001f0: 22e6 69bd d374 813e a4ff a3be 5500 6abe
00000200: 575f b13e 2634 e53e 5d23 61be 676f 44bf
00000210: 2380 ab3e 0980 0cbe a5f3 d43d b1c9 9e3c
00000220: a2ad 12bf c75b 9b3e f090 983e b51c 04bf
00000230: 4db7 9dbe 2627 373e ec87 73be 3cb6 f83e
00000240: 699a b4be 831d 853c 6b45 ae3e d31e d53e
00000250: 49af ac3e ec2d ae3e de87 643e 81eb 03bf
00000260: 4cd7 433f 6c3f cdbe 909a c83e 065a 483f
00000270: 4d82 913e eb78 c9bd feed 00bf 8b7c 2a3f
00000280: 633b 28be 6278 99bd 15fb 86be e008 2bbf
00000290: 3571 b2be b070 17be 590a 0e3f b3fc 0fbf
000002a0: 144d 243f 7c28 02bf 69ea 5e3e 855b 73bf
000002b0: 7e0a 0c3e b761 b6be ee84 debe 9964 c23e
000002c0: 040f 6dbd e105 003e 45ee afbe 25bf 0e3e
000002d0: 3dc0 863e 3d7c edbe 621f 193e 1f60 d93e
000002e0: a4fb 9c3e f21d 7fbe 85da 923e 480a d93d
000002f0: f883 10bf ee54 cd3d a791 b5bd bb8b b3be
00000300: 802a 823f 827f c7be d9ce 76bd 1c5a 1a3e
00000310: e04b 953d 15f8 8cbd 18b2 c33e 4116 4a3e
00000320: 074f 84be 51f0 093f 0e92 10bf ef2e a53d
00000330: b542 d43e 6e60 34bf e659 b53e b5aa e83e
00000340: cd2a 5abf 4668 86bf 8fff a53e bc38 353f
00000350: 6463 a8be 5079 3fbf 5ba0 0fbf 3d07 d9bc
00000360: 7971 eabc 4624 8c3d e6c4 7bbe 82fe 493e
00000370: b0b0 9dbe cf81 5f3d 4780 803f 7a34 8b3e
00000380: c5ff f5be f54f 1b3f 5923 e0be be90 583f
00000390: d52b 2abf eaaf a63e 2308 efbd 07d8 51bf
000003a0: 6ddf 81bf 02bc 6c3e 7b29 093f 7992 163e
000003b0: 89e1 883e 5b38 3b3f 14d6 83be a61d ce3d
000003c0: c651 7f3c 322f 94bd 16fc 53be 46f5 593d
000003d0: 6849 d7be e3c7 93bf 4361 9fbd 05b7 97bd
000003e0: 3049 a7bb b0cc 7a3e 79eb a83e 0569 2e3e
000003f0: 235c 9a3e 3172 debe fe8a a43d 75fd 8ebd
0.12292431 -0.5805741 0.10183737 0.4374114 0.028023392 -0.49655586 -0.13316342 0.28804696
-0.3038431 0.5761581 -0.7428854 -0.116458796 -0.23326157 -1.0960035 0.76861495 0.05375376
0.05687067 0.09055744 0.08938071 0.57232213 -0.12713462 0.95694226 0.0050940826 0.3021244
0.17869888 0.42231092 -0.67375886 0.31756622 0.35597023 -0.7242815 -0.1785727 -0.5185637
0.2016693 -0.6479987 -0.27158305 0.62500995 0.7105097 0.39212903 0.11460042 0.15463576
0.1552798 -0.25899786 -0.16064537 -0.002847859 0.0129297385 -0.3744036 0.040878903 0.092448495
-0.30036557 -0.3287979 0.24881999 0.82671964 -0.16859613 0.26653245 0.01688277 0.26750854
-0.043622937 -0.03332039 0.2875162 0.097321756 0.46541524 -0.5857393 -0.90396005 0.45330313
-0.135914 -0.46434596 -0.44249007 0.31159413 0.44359228 -0.29877105 0.90814275 -0.73802316
0.8149604 -0.6166799 -1.1833009 -0.34202656 -0.25366035 0.28408766 0.6914038 -0.4251483
-0.022051573 -0.34604472 0.074438915 -0.49498305 -0.2786272 0.14062257 0.2150917 0.40873608
0.16384663 0.20802116 -0.13397107 0.104517266 0.1277865 0.6843722 -0.5137095 0.20913766
-0.87523407 0.48210883 0.13291782 0.59794503 0.6771979 -0.70415056 -0.32725888 -0.55046386
0.12525721 -0.20757902 0.31927902 -0.49226475 0.16333795 0.7625118 0.5152874 0.24645415
0.36230987 -0.3895712 -0.58615506 -0.20291372 0.85845774 0.7130113 -0.63173956 -0.17463966
0.3297894 -0.5503249 -0.52794325 -0.166146 -0.057104237 0.25284442 -0.32030976 -0.22851689
0.3464305 0.4476635 -0.21986146 -0.76732486 0.33496198 -0.13720717 0.10398034 0.019383283
-0.5729619 0.30343458 0.2979808 -0.51606303 -0.3080391 0.17886028 -0.23782319 0.48576534
-0.35274056 0.016249424 0.34037337 0.4162508 0.33727482 0.3401941 0.22317454 -0.51531225
0.7650039 -0.4008745 0.39180422 0.78262365 0.28419724 -0.098375164 -0.5036315 0.6659629
-0.16428904 -0.07493664 -0.26363435 -0.6681042 -0.34851995 -0.1478908 0.5548454 -0.56244963
0.6418011 -0.50843024 0.21769108 -0.9506152 0.13675877 -0.35621426 -0.43460792 0.37967375
-0.05787565 0.12502243 -0.34361473 0.13940103 0.2631854 -0.4638385 0.14953378 0.42456147
0.30660737 -0.24913767 0.28682342 0.10597664 -0.5645137 0.10025965 -0.088656716 -0.35067543
1.016922 -0.38964468 -0.06025586 0.15073436 0.07289863 -0.068832554 0.38221812 0.19735052
-0.25841543 0.5388232 -0.5647286 0.080655925 0.41457143 -0.7045964 0.3542015 0.4544274
-0.8522156 -1.0500572 0.32421538 0.70789695 -0.3288833 -0.74794483 -0.5610406 -0.02649271
-0.028618561 0.06842856 -0.2458683 0.19725993 -0.30798864 0.054567154 1.0039147 0.27188474
-0.480467 0.6066888 -0.43776968 0.8459586 -0.6647313 0.32556087 -0.11671474 -0.81970257
-1.0146309 0.23118594 0.5357892 0.14704312 0.2673457 0.73132867 -0.25749266 0.10064249
0.015583461 -0.07235564 -0.20701632 0.053212427 -0.42048192 -1.1545376 -0.07782223 -0.07407955
-0.00510516 0.24492145 0.3299215 0.1703225 0.3014842 -0.43446496 0.08034323 -0.06981937

raise_dim.0.attention3.1.bias f4 [32]
00000000: abce c4bd ef51 28bc 9911 d5bd d759 863d
00000010: 7a1f 18bc d7b8 ea3c 2180 903c 356b 233d
00000020: 07cb 2c3d 8fd6 bebd dba5 0f3b 9eb9 bfbd
00000030: 598f 3cbd 9dee bfbd b7af 88bd 4c31 20bd
00000040: 8ec4 c1bc 740d b0bd a08b 533d 2593 e03d
00000050: 522f 5c3d fb99 1cbd 7547 d5bc 8579 ee3d
00000060: a63c 6fbc 493d 9d3c 32b3 cbbd e5a5 0bbd
00000070: 5279 2d3b f2ef f5bc 03fc a7bc 4c6e b9bb
-0.09609731 -0.010273441 -0.10403747 0.06560104 -0.009284848 0.028652592 0.017639222 0.039897162
0.04218581 -0.093182676 0.0021918926 -0.093615755 -0.046035144 -0.09371684 -0.0667414 -0.039109513
-0.023653295 -0.08596316 0.05164683 0.109655656 0.053756066 -0.038232785 -0.02603505 0.11644272
-0.014601862 0.019194262 -0.09946288 -0.034093756 0.0026470018 -0.030021641 -0.02050591 -0.0056589004

raise_dim.0.attention3.3.weight f4 [32, 32, 1, 1]
00000000: a78b debe 6a13 d5be a86b 333e 6441 723e
00000010: 1041 d1bc 3884 e5bd 0622 92bd 079d 263d
00000020: 19ab 133d 0c42 1dbe 575e 473d 45e2 85be
00000030: 4733 00bf 8df2 b7bd 4dce d73c 3630 e9bd
00000040: 49ee d83d 4f2d b23e 091e 7fbe 33ae 873e
00000050: d1a7 cbbd c601 3e3d 6d0f ef3e d7e2 2cbe
00000060: 977a 273d 39c6 c73e 2c21 e2bd 24e6 a53c
00000070: dff7 c13c 63aa 6dbd 4786 ad3e edae 90bd
00000080: 4cc8 193e 0172 853e 785a 5ebf 8e28 8c3e
00000090: 113a f53e 066e 9fbd 8932 213e f630 05bf
000000a0: d2c4 eebd 4729 7bbe 7605 203e 6664 f6be
000000b0: d6a6 03bd 67ce 81bb 178b 0c3e 7335 abbc
000000c0: 8cbc 94be 8f4b 093f d923 893e e011 273c
000000d0: b4bc 54be 8618 71be 5d01 4b3d f8fc 8dba
000000e0: 443b 05be bb64 fe3e 1d88 acbe 4744 06bf
000000f0: 4d6b 853e 8cc7 e93c 7707 8c3e ddf2 883d
00000100: 09f8 133e 7f9f 1c3d f6ac 24be 8ec3 1c3f
00000110: f8f8 3abe fc98 bf3e a289 a7bc 847c 093f
00000120: 113a 843e c993 0cbf 8356 acbd 15ac 39be
00000130: cc09 763d 30ca 153f 6901 95bd a49f adbe
00000140: 86e4 7a3e 3ba9 8ebd 5492 32be 011f 9b3e
00000150: c08a b13d 4546 e7be fc0a 18bf 3af4 bb3c
00000160: 4117 3abe 14df 013e 1f67 8dbe 43fa 703e
00000170: faa9 2fbe 18ef a1bc 724f b73c bb72 24bf
00000180: 4a7f 6d3e d234 a13e d126 8c3c 33df a5bd
00000190: 0031 533d a0cc 153e e71f 893d 0c35 4cbe
000001a0: 4097 483e 2120 9cbe adb9 1abb 7bd9 23be
000001b0: c079 0ebe 32cf 7cbd d79e cc3e 34d0 25be
000001c0: f94d a1bd de11 a13e 98fb aa3e 11f0 edbe
000001d0: 3c91 64bc 65e7 0a3d bd9a e53c 7764 87be
000001e0: 0e1e 773e b67d 91be 6f10 93bd 2a0b 4abd
000001f0: 818c 383e e3d6 0dbd ec96 0a3d b8e5 f13d
00000200: 6f11 adbc 42db 70bc 5db1 25bd ed4a 003e
00000210: 51a5 ce3d 4487 cf3e d657 9b3d fac4 13bf
00000220: 372e 353d 4fb5 84bd 46f1 50be ace3 913d
00000230: 9185 3a3e 223f bf3e 9d62 583e 5d14 e43e
00000240: 04d2 53bd d440 31bc 9e83 d73e 3c0e 523e
00000250: a863 02be ddd7 db3d 6f92 0f3e ff5e dabe
00000260: 70d5 483e 2d4f 013e 9d0f 873e b3bd c9bb
00000270: 8d36 4bbe e9c6 0d3d 1fd2 623e 94eb 08bf
00000280: 5117 223e 188b f13e 1bbf 0dbe c655 0dbe
00000290: c572 9fbd 4279 c73e c78f 44bf cc65 4fbe
000002a0: 5376 39bd 97a3 d1be 410c ec3d 5080 5abe
000002b0: 5ec6 57be 5895 143e dcdf 333e ac93 873e
000002c0: b4cc d4bc 81b7 7cbe dd5e 3bbe a439 dd3d
000002d0: f403 9f3d 7fca b33d 0b08 1d3e d4d7 88be
000002e0: 1aeb a8bd a43a e5bd 6d33 003e de02 b33e
000002f0: 90f2 d13d 9ab4 723e 3e87 a7be 8491 0cbe
00000300: 156e 003f e5ff 50bf 8286 a2be 68f6 27be
00000310: ef91 23bd 19b9 513e 6e38 3a3e 3cd1 82bd
00000320: 7a38 85be 334c 5abe a9a2 883e 6eb0 4e3e
00000330: faea 85be e033 a9be 8a82 fb3e b0b6 58bf
00000340: b83f b2be 9293 aa3e 3c0f 953d e248 1fbe
00000350: d7bc 293d 3603 f2bd 2cc4 c53d 79e3 e6bd
00000360: 719d b83e bc84 8cbe 44c9 643e 689e 87bd
00000370: 89e1 033f cf59 0c3e f358 45bd ac61 5b3e
00000380: a2a7 92be b18a 29be 0267 9b3e 5a6c 0abd
00000390: 2915 46be 1be5 c63d f713 b63d 52d0 583e
000003a0: bfc2 09bf 2900 f9be acea 81be e57f 39bf
000003b0: 0f00 d9bd ac95 4fbf 4833 5abc 3eac 27bf
000003c0: f780 4b3d 467c 303e 26d3 873e f9f4 b33e
000003d0: 4e0a 8ebd ecd7 5dbe 11ac 5e3c 4cff d53d
000003e0: 0e01 d73d 4b04 163c 89d1 3d3d 42b1 66be
000003f0: 970f b33d f652 e6be 87ed 81be 7063 543e
-0.4346592 -0.41616374 0.17521536 0.23657757 -0.02554372 -0.11206859 -0.07135396 0.040677097
0.036051843 -0.15357226 0.048673954 -0.26149192 -0.50078243 -0.0898181 0.026343489 -0.11386149
0.10592324 0.34800193 -0.24913801 0.2650009 -0.09944118 0.04638841 0.46691456 -0.16883408
0.040888395 0.3901842 -0.11041483 0.020251341 0.023677764 -0.05802382 0.33891508 -0.070646144
0.15017813 0.2606354 -0.86856794 0.2737469 0.47895864 -0.07784657 0.15741934 -0.52027833
-0.11658634 -0.24527465 0.15627083 -0.48123473 -0.03214153 -0.0039613727 0.13724934 -0.02089951
-0.290501 0.5363092 0.26785162 0.010197133 -0.2077511 -0.23544511 0.049561847 -0.0010832837
-0.1301089 0.49686226 -0.33697596 -0.5244793 0.26058426 0.028537534 0.27349445 0.066869475
0.14450087 0.038238045 -0.16081604 0.6123589 -0.18259037 0.37421405 -0.02045137 0.5370562
0.2582555 -0.54913 -0.08414938 -0.1813205 0.060067937 0.5851164 -0.072756596 -0.3391086
0.24501237 -0.06965872 -0.17438632 0.30297092 0.086690426 -0.451708 -0.5939176 0.022943605
-0.18172933 0.12682754 -0.27617738 0.23532967 -0.17154685 -0.01976733 0.02237675 -0.64237565
0.23193088 0.3148561 0.017108353 -0.080992125 0.051560402 0.1462884 0.06695538 -0.19942111
0.19588947 -0.30493262 -0.0023609207 -0.16000931 -0.13913631 -0.061721034 0.39964935 -0.16192704
-0.078762 0.31458944 0.33395076 -0.4647222 -0.013950642 0.03391208 0.028027887 -0.26443836
0.24132559 -0.28416222 -0.07180869 -0.049327053 0.18022348 -0.03462876 0.033835337 0.118113935
-0.021126477 -0.014700713 -0.04045235 0.12528582 0.10090125 0.40532887 0.07585113 -0.5772244
0.044233527 -0.06479894 -0.20404539 0.07123503 0.18215014 0.37352854 0.21131368 0.44546786
-0.05171396 -0.010818679 0.42092603 0.20513242 -0.12733328 0.10734532 0.14020704 -0.426506
0.1961267 0.1262786 0.263791 -0.006156647 -0.19845028 0.034613524 0.22150467 -0.53484464
0.15829207 0.47176433 -0.13842432 -0.13802251 -0.077855624 0.389597 -0.76781887 -0.20253676
-0.04527886 -0.40945122 0.11525775 -0.2133801 -0.21071765 0.14510095 0.17565864 0.26479852
-0.025976516 -0.24679376 -0.18297906 0.1080201 0.07764426 0.087788574 0.153351 -0.26727164
-0.08247967 -0.111928254 0.12519617 0.34963125 0.10251343 0.23701707 -0.3272037 -0.13727385
0.5016797 -0.81640464 -0.31743246 -0.1640259 -0.039934095 0.20480765 0.18185589 -0.063875645
-0.2601965 -0.2131813 0.266866 0.2018449 -0.26155835 -0.3304739 0.4912303 -0.8465376
-0.3481424 0.33315712 0.07278296 -0.15555146 0.041439857 -0.11817019 0.096565574 -0.11273856
0.36057618 -0.27445018 0.22342402 -0.066220105 0.51516014 0.13706134 -0.04818053 0.21423978
-0.2864352 -0.16556813 0.30352026 -0.03379474 -0.1934401 0.09711667 0.08890527 0.21173218
-0.53812784 -0.48632935 -0.25374353 -0.72460777 -0.10595714 -0.81087756 -0.01331789 -0.65497196
0.049683537 0.17234907 0.2652828 0.35147837 -0.06935559 -0.21664399 0.0135908285 0.10449085
0.10498248 0.009156297 0.046342406 -0.22528556 0.08743208 -0.4498517 -0.2537653 0.20741057

raise_dim.0.attention3.3.bias f4 [32]
00000000: 1f1b b83d d475 603d 8a73 e13c bd18 aabb
00000010: f49d 3cbd a105 983b c69e 253c 842d 603d
00000020: 8225 b1bd a6b2 523c 2ffb 8d3b 6360 9e3c
00000030: 3d30 c6bd b6e4 e0bd 2aa5 80bd 692b ea3d
00000040: 8b2e a33c 77d5 4bbd a6fe 9f3d 736d 0f3d
00000050: 3485 523d 254f 4ebc db87 cc3d bcbc 44bc
00000060: 3171 e3bd f7ba a1bb 5608 8d3c bd25 8dbc
00000070: 9303 e4bc 395f 93bd 399b 45bd 1444 90bd
0.08989548 0.05479987 0.027520914 -0.0051909373 -0.046049073 0.004639343 0.010108655 0.054730907
-0.08649732 0.012859976 0.004332922 0.01933307 -0.096771695 -0.10981123 -0.062815025 0.11434061
0.019919654 -0.049764123 0.07812242 0.03501649 0.051396564 -0.012592112 0.0998685 -0.012007888
-0.11105574 -0.004935618 0.017215889 -0.01722991 -0.027833736 -0.07195897 -0.048243735 -0.07044235

layers.0.conv1.weight f4 [32, 32, 3, 3]
00000000: 4052 b43e cc0a e7bc c497 cc3d b829 083e
00000010: cfd5 f3bd bbda 513e a409 103e ec90 3abe
00000020: 3840 6f3e 3deb 40bc f653 2a3d 028f 8b3d
00000030: e5bb 9ebd 44b0 2c3d dee1 a33d 76b5 e0bd
00000040: ffcf ba3b 1dc1 8b3d a642 643e 1f1b 423e
00000050: fe7a 6f3e 7bfc 1c3e a475 183e d3e8 263e
00000060: 056e 193e 1cf8 273e cbcf a93d a1c6 473d
00000070: 5e37 453d 3d5f 893e e337 15be 4482 983e
00000080: affb 903d edb6 6fbe ba4b b9bd bc6a 26bb
00000090: d564 4fbd 103a 39be e789 d9bd b36c e3bd
000000a0: 27d4 86bd 761a b4bd 3826 a4bd 7b90 abbd
000000b0: 17d2 12be a163 a5bd 536e 44bd 81b1 82bc
000000c0: 7cc4 1c3e 8f9a 703d db22 1c3c d057 863e
000000d0: c3af e2bd 9fb3 2e3d e0a2 df3d fae6 2ebe
000000e0: a60a 8cbe 9601 03bc a598 0abe b57e 73be
000000f0: d00f 0fbd 9782 12be 371c 64be e953 98bc
00000100: fa73 21be 9043 d63a 8631 f5bd 9259 1ebd
00000110: 60da 3dbe ff75 e5bd da67 4dbe 8987 e7bd
00000120: b726 b2bd a0f6 50be 4ae5 01be 53b4 b5bd
00000130: e719 fcbd 5a93 4abd 221b e9bd f180 8dbd
00000140: bd23 01be 2977 17bc 8431 2f3d 8c15 7f3c
00000150: 1200 debc 1163 82bd 5596 9ebd 89b7 96bc
00000160: ec49 3cbd 901d 05bd 49c2 b73d e38c 213e
00000170: 973a 153e f949 e43d 891f b43d ce06 283e
00000180: 2fdb 3cbd 4812 c73d 0e81 a03d ba55 6c3c
00000190: 4c4c 48bd b79d 38bd 6e1a d13b 6108 75bc
000001a0: 423c 243c 609f 03bd f055 0bbc 33af 22be
000001b0: 75fc 4ebd c90a 233c e1b3 82bd d16d a3bd
000001c0: 6d68 febd 2db0 453c f398 bebd 81b5 513c
000001d0: 0253 cf3c c753 c23d 7d7d 60bd 7804 dfbc
000001e0: 5bb3 9d3d 2da3 4bbc 294f 0a3e a9d4 923d
000001f0: 7653 d83d 0873 d23d 91cd 003e c219 3e3e
00000200: ea5a 483e e7a9 a33d 49ef 5b3e 1000 613e
00000210: 24e1 0f3d fbf9 003e 1c87 063e d040 fa3c
00000220: 2202 a43d a4ea 2c3d 0b58 82bd aaf8 983d
00000230: e248 d7bd f5f4 2d3d 8078 c8bc ff30 143d
00000240: b54b 063e 228d b0bd 99b1 30be beb8 dc3d
00000250: 58c8 803c b92c 1f3d 5dd2 803d 04eb 953c
00000260: 493b 35bc 5905 55bd 41b3 2e3d 62fe 843d
00000270: 61ca cebc 551f b1bd ce88 f0bd 5655 5ebe
00000280: 4289 4fbe ca8a fabd b9ef 4d3e 342a ff3d
00000290: b45d 8e3d fe4b a13d 7565 2c3e 5ae2 8cbc
000002a0: 7557 a43c 511f efbd 0b25 8ebd 7300 d53c
000002b0: a611 873d 8f44 d73d 9c7a 173e ba0a 923d
000002c0: ae68 093e dc84 4b3e a2ec 4d3e bbfa 603e
000002d0: 0a1d 4a3d 5961 d63d b514 3e3d a101 8d3c
000002e0: f5af 063e 067b 833d 0335 c5bb 1985 2dbd
000002f0: 4db6 f33a 517f 8e3d 421c b73d 1198 433d
00000300: 4ba7 bf3d ff09 bd3c 6f30 293e c225 963d
00000310: c0be fe3d 139a 1a3e 6f83 c43d c199 c0bd
00000320: 1201 c43c bfb5 cb3b fbce 83bb bb26 8cbd
00000330: 87b9 163e f74d 673d 53b9 9bbd d2de 673c
00000340: 8ec5 b03c 7f81 e93d 5071 54bd 1cbe 5e3d
00000350: 95d2 a43c c2cf d13c e5aa ce3d 0daf 093e
00000360: 7750 01be ab9f a9bd 2818 a53e 6e37 9fbb
00000370: 883e 7fbe bd75 6d3d 2e76 f2bb 9baf 24be
00000380: d971 6d3e a650 893d 2edb 653d 6e81 723d
00000390: c89c bcbc 7d17 8abc f992 f93d 04f2 95bd
000003a0: 32da d83c 7d87 ad3d 1342 ac3e f3c1 033f
000003b0: 8926 193f b9a1 ee3d d45a d73e 6656 803e
000003c0: e44e 7f3d 058e 793c c16d 1cbe 5d03 a7bc
000003d0: 0701 81bc 37f2 0a3d e765 a93c ded3 88bd
000003e0: 803c e43d 2fab dcbc 0376 003d cba7 e03d
000003f0: 3b60 84be 1432 c1be fa2f f9be 9d21 b7bd
0.35219002 -0.02820339 0.099898845 0.13297164 -0.11906015 0.20493595 0.14066178 -0.18219346
0.23364341 -0.011774835 0.041583978 0.06814386 -0.07750682 0.042160287 0.08002065 -0.10972111
0.0057010646 0.06823943 0.2229105 0.18955658 0.23386762 0.15330689 0.14888626 0.16299753
0.14983375 0.1640324 0.082915865 0.04877341 0.048148505 0.26830474 -0.145721 0.29786885
0.07079255 -0.23409624 -0.09047647 -0.0025393208 -0.05063327 -0.18088555 -0.10622006 -0.11104717
-0.065834336 -0.087941095 -0.08015102 -0.08377167 -0.14337955 -0.08075643 -0.047956776 -0.015953781
0.15309328 0.05874115 0.009529795 0.2623887 -0.1106868 0.04265177 0.10919738 -0.17080298
-0.27351874 -0.007995984 -0.13534792 -0.23778804 -0.03492719 -0.14307629 -0.22276388 -0.018594699
-0.15766898 0.001634704 -0.119723365 -0.03865964 -0.18540335 -0.112041466 -0.20059147 -0.11305148
-0.086987905 -0.2040658 -0.12685123 -0.08872285 -0.12309628 -0.04945693 -0.11382128 -0.06909359
-0.1261129 -0.009244719 0.04277183 0.015569102 -0.027099643 -0.06366552 -0.07743517 -0.018398063
-0.045968935 -0.032498896 0.08972604 0.157764 0.14573132 0.11146922 0.08795077 0.16408846
-0.046107467 0.09720284 0.07837115 0.014424736 -0.048900887 -0.045072284 0.0063813245 -0.014955611
0.010024132 -0.032134414 -0.008504376 -0.15887146 -0.05053373 0.009951302 -0.063819654 -0.0797993
-0.124222614 0.012065929 -0.093065165 0.012799622 0.025308136 0.094886355 -0.054807175 -0.02722381
0.07700225 -0.012429041 0.1350676 0.07169468 0.10562794 0.10275847 0.12578417 0.18564513
0.19565931 0.07991391 0.21477999 0.2197268 0.03512682 0.1259536 0.13137478 0.030548483
0.08008219 0.04221596 -0.06364449 0.07469304 -0.10511948 0.042469937 -0.024471521 0.03617954
0.13114817 -0.08620669 -0.17255248 0.10777424 0.015720531 0.03886101 0.062901236 0.01830054
-0.011061498 -0.052007053 0.04265142 0.06493832 -0.025242986 -0.08648554 -0.117448434 -0.2171224
-0.20267203 -0.12233503 0.20110978 0.124592215 0.06951466 0.078758225 0.16835578 -0.017197777
0.020061234 -0.11675895 -0.06940659 0.02600119 0.06595163 0.105111234 0.14792866 0.07130952
0.13418838 0.198749 0.201098 0.21970646 0.0493441 0.10467786 0.046406467 0.01721269
0.1315306 0.06419949 -0.0060182824 -0.04236326 0.0018593759 0.069578774 0.089409366 0.047752444
0.093580805 0.023076056 0.16522382 0.073314205 0.124387264 0.15097837 0.095953815 -0.09404326
0.023926292 0.006216734 -0.0040224767 -0.06843325 0.1471921 0.056470837 -0.07603707 0.014152246
0.021578576 0.114016525 -0.051865876 0.05438052 0.020119945 0.025611762 0.10091189 0.13445683
-0.12628351 -0.082824074 0.32244992 -0.0048589027 -0.24926198 0.057973612 -0.007399342 -0.16082613
0.2318796 0.067048356 0.05611723 0.059205465 -0.023023978 -0.016856903 0.12186236 -0.073215514
0.026471231 0.08473108 0.3364416 0.5146782 0.59824425 0.1165194 0.42061484 0.25065917
0.062331095 0.015231614 -0.15276243 -0.020387346 -0.01574756 0.0339224 0.020678474 -0.066810355
0.11144352 -0.026937095 0.031362545 0.10969504 -0.25854668 -0.3773352 -0.48669416 -0.08941958

layers.0.conv1.attention1.0.weight f4 [9, 32, 3, 3]
00000000: 8a78 4d3f acd5 69be 3cb8 a13e 95c9 893e
00000010: 75e1 773e e852 9a3e 4e41 24be 88aa 463e
00000020: 1fd1 793e 0ef0 483e 0682 ab3e f9f1 ac3e
00000030: 8c90 fc3d 4fcc 91bc f3ba 4b3e d7ff b0bb
00000040: dc7d 0a3e 9c5d 043e 9d8d d33e 02a6 793e
00000050: acdf 293e 23c0 5b3e bd39 1c3e b456 8fbe
00000060: 20c1 cebd f7ad 7dbe c19d 75be efdb 063e
00000070: 60e5 553e d925 613e 570a 163e 0ada 85be
00000080: a4fc 103b f8dd 9d3d 5c30 71be f185 ce3c
00000090: 7772 ca3c e980 843e 96a2 9fbd fedd 4e3d
000000a0: 56f7 bb3e 9de4 cc3d cd7e d9bc 747a 5ebe
000000b0: a225 7ebe b735 5d3d 38b8 61be f233 963c
000000c0: 11e0 bc3d 1196 20bf 4274 1f3e ce35 563c
000000d0: 5c97 65bd 1ee8 c1bd e6f5 c9bd a471 44bd
000000e0: d476 543e 3e2e d4bd 3448 e7bd e150 d03e
000000f0: 39cc 24bf fdad a4be 7141 353e 7d6b 803c
00000100: 9b60 cb3e db68 ea3d 50c7 883d 2821 18be
00000110: 0458 20be 529c 44be 82cf 9bbe c65d 99be
00000120: 8682 873e adaf fa3c 491b 90bd 29be b23d
00000130: d1b4 2f3c 0a21 89be 131d 5d3e 39e6 473e
00000140: 9072 443e 328d a0be 8566 efbe a32b 0fbf
00000150: 8a15 67bd 8ac9 ee3d 1d36 843d 2a1d 81be
00000160: b880 81bd 9353 17be 8852 1a3e e9cf 413e
00000170: 2c1b 473e 33da 5d3e d8ab a43e 0f24 b53e
00000180: bac6 d73d daf0 60bd fa97 043e 21b6 fcbd
00000190: f012 953e be20 39bd c77d d6bd a3c0 f73d
000001a0: c916 1c3c fe09 92be 89be a8be ec28 83be
000001b0: adbb 293e ce9c 923d a47d b53d 198b 7a3e
000001c0: 1a37 ee3d 1543 ef3d a598 bc3d 5de8 e33d
000001d0: d402 723e 64d4 81bd 3405 783d 8076 873e
000001e0: d8cd 833d 3543 bfbd f6a5 183e 29c7 b93e
000001f0: 5301 0d3e d8e7 743e 1253 303b 4c15 78bb
00000200: 44ad adbd dbb1 1a3d e1d0 413d 73d9 02be
00000210: 6feb bf3d 19de acbc 336c d5bc bc63 b7bd
00000220: 9f96 b1bd 1229 953d 6cdc 003e 015d d83d
00000230: 943f 833e 11b3 5fbe 5a44 39be fd40 e8bd
00000240: 4a9c 873c d621 23be 7084 40bb e1be 9c3e
00000250: ff18 7f3c dae8 713d 8f64 833e 3861 783d
00000260: 65fe 133e 99ee 01be 61da 223e b48f 853c
00000270: 2653 ddbd 21e6 22be 27d3 64be a27b ecbe
00000280: ef8c aebe 7d2b 01bf 2faf 05bd 8f8c c53d
00000290: 6b67 78be 5cb3 6b3d 568c ad3e 3016 db3d
000002a0: 8f9a d3be 693c 59be 7d1e 90be 3cf6 273e
000002b0: ff5c 803d 9b07 2d3e e655 303a 8799 6ebd
000002c0: 3fe7 413e 5430 3d3d 3599 af3d 0b90 8dbd
000002d0: 58dd 42be 8e54 17bd 85f5 7bbe 26c7 27bd
000002e0: 02ab 363e 33bc 2cbe d979 d6bd df9b b43d
000002f0: 9eff 083b e3c5 dd3e c66f c23d 18f7 a03e
00000300: 4692 533e f5d3 a93d a3d4 743e 922c 06bd
00000310: 9ee9 323d 1a41 aa3d 8ba9 5fbe d16e 96bd
00000320: 1c2b 10be 5cd7 40be 9618 643e f094 133e
00000330: 70dc 9b3c e1da 58bd a5d3 c0bd 842a 473e
00000340: 2337 bc3d 5476 b33e dd0e 6f3b 1392 1b3e
00000350: 804b c2bc 23c6 91bc fa67 ad3d cdc1 3e3e
00000360: 9d38 b93e a56c 923e 8072 fe3e 85df 60bc
00000370: 5f0e c0bc e16e 613e a900 65bd c0f6 8e3d
00000380: dd3c 353e fb56 0d3e 0ff3 09bd 1d93 983c
00000390: 54c7 103e 06c2 343d e1ea 293e f1a7 2c3e
000003a0: 80dc 5d3e 5c17 2c3e a862 d5be 5117 72be
000003b0: d6cb ea3d 9dd6 2a3b fa87 c13d cdce 473e
000003c0: 5961 7a3e 04cf 353e f579 fc3d 9ea1 7d3d
000003d0: c92d e23d 9954 02bd 88d9 7fbc dcad 023d
000003e0: 41a6 2c3e 59ab e23d cc42 b53d 8348 cc3d
000003f0: f485 e43d cdd7 063d df20 703d ba27 b7bc
0.80262053 -0.22835416 0.31585872 0.26911607 0.24207099 0.30141377 -0.16040537 0.1940099
0.2439618 0.19622824 0.33497638 0.3377836 0.12332258 -0.017797617 0.19895534 -0.0054015922
0.13524574 0.12926334 0.4131898 0.24379733 0.1658923 0.21460013 0.152564 -0.27995837
-0.100954294 -0.24773394 -0.2398596 0.13169836 0.20888281 0.21987094 0.14652382 -0.26142913
0.0022123242 0.07708353 -0.23553604 0.025210353 0.024712784 0.258796 -0.07794683 0.050504677
0.3671214 0.10004542 -0.026549721 -0.217264 -0.24819043 0.054006305 -0.2204293 0.018335316
0.09222425 -0.62728983 0.15571693 0.0130743515 -0.05605255 -0.09468101 -0.098613545 -0.04795994
0.20748454 -0.103603825 -0.112930685 0.40686706 -0.6437412 -0.32163993 0.17700745 0.015676254
0.39722142 0.11445781 0.06678641 -0.14856398 -0.15658575 -0.19200256 -0.30431753 -0.29954356
0.2646677 0.030601347 -0.07036454 0.087276764 0.010724262 -0.2678302 0.21593122 0.19521417
0.19184327 -0.31357723 -0.46757904 -0.5592596 -0.056417026 0.11659534 0.06455634 -0.25217563
-0.06323379 -0.14777975 0.15070546 0.18926968 0.19443959 0.21665268 0.32162356 0.35379073
0.10535951 -0.054917194 0.129486 -0.12339426 0.2911601 -0.04519724 -0.10473209 0.120972894
0.009526917 -0.28523248 -0.32957867 -0.25617158 0.16575499 0.07158814 0.08861855 0.24467124
0.116316035 0.11682717 0.09208802 0.11128304 0.23633891 -0.063393384 0.060551837 0.26457596
0.06435746 -0.093389906 0.14907059 0.3628476 0.13770036 0.23916566 0.0026904983 -0.003785449
-0.084803134 0.037767272 0.047318343 -0.12778263 0.09371077 -0.021101998 -0.02605257 -0.0895457
-0.08671307 0.07283224 0.12584084 0.10564614 0.25634444 -0.21845652 -0.1809248 -0.113405205
0.016554017 -0.15930876 -0.0029375814 0.3061438 0.015569924 0.059059955 0.25662658 0.06063959
0.14452513 -0.12688674 0.15903617 0.016303875 -0.10806875 -0.159081 -0.22346173 -0.46188074
-0.340919 -0.5045698 -0.03263777 0.0964595 -0.24258201 0.057544097 0.3389613 0.10697591
-0.41328856 -0.21214451 -0.2814826 0.16402525 0.062677376 0.16897433 0.0006726667 -0.058251884
0.1893587 0.046188667 0.08574144 -0.0691224 -0.19029748 -0.036945872 -0.24605377 -0.040961407
0.17838672 -0.16868667 -0.10472459 0.088187926 0.0020904313 0.43315038 0.09493975 0.31438518
0.20661268 0.08292381 0.2390924 -0.03275735 0.043679826 0.083131984 -0.2184202 -0.07345355
-0.14078945 -0.18832153 0.22275004 0.14412284 0.019026011 -0.052943114 -0.09415368 0.19449812
0.09190204 0.35051215 0.0036477365 0.15192442 -0.023717642 -0.017794674 0.084670976 0.18628617
0.36176005 0.28598514 0.49696732 -0.013725166 -0.023444353 0.22014953 -0.055908833 0.069806576
0.17698999 0.13802712 -0.033679064 0.018624837 0.14138538 0.044130348 0.16593505 0.1686094
0.21666145 0.16805786 -0.4167683 -0.23641707 0.1146466 0.002606786 0.094497636 0.19512482
0.24451198 0.17754751 0.12327949 0.06192171 0.11043889 -0.03181896 -0.015615828 0.031904086
0.16860296 0.11067838 0.08850631 0.09974768 0.11158362 0.032920647 0.0586251 -0.02235781

layers.0.conv1.attention1.0.bias f4 [9]
00000000: 0414 703e 5157 593e 1f17 a83d 95cd 8dbe
00000010: 97c4 ec3d a10e 4a3e ef75 163e aae5 723e
00000020: 2115 fa3d
0.23445135 0.21224715 0.08207535 -0.2769591 0.11560934 0.19732143 0.14693426 0.23720422
0.12211061

layers.0.conv1.attention1.2.weight f4 [9, 9, 1, 1]
00000000: a80b ff3e bfec d33e 2c7b f1bd 6dc6 1cbe
00000010: c4ba 3a3f d5b0 c03e a119 113f 454e 6dbe
00000020: 3fe5 033f 4ead 7f3e 7a65 c63e b7cc bd3e
00000030: c1ac 00be b980 b9be 2aae 413f b660 203e
00000040: 32e0 2ebf 4f71 163f ade3 2040 0260 0c3f
00000050: ce7d 523f 0b22 d63d 9c8c e7be 5c86 14be
00000060: 9be2 b53c bc91 093f 40f9 2a3f 6d07 063f
00000070: 1225 5dbf 3e80 bd3f 3f3f 2ebd 186b 89bd
00000080: d696 35be f703 07bf 5fa8 053f 87ac 1ebf
00000090: 4d48 c9be 6706 b7bd 1f9c f73e c497 97bd
000000a0: f368 b23e 3b84 3d3f 8321 9e3e 9d21 07bf
000000b0: 93c2 77bf 3440 9d3e af9c a93e f424 07be
000000c0: 7c9b 5bbf 13c7 d83e 80c4 56bd 7d3a 3a3e
000000d0: df18 62be 35bd a43c 1835 883f 19bb d93f
000000e0: 59c1 d9bc 95be e83d 4c9e 863d 20cd 0abe
000000f0: 9edb 15bf 7442 a63f 883d 2e3f b09a 863e
00000100: 10ed f9be 8f07 a0be e715 3e3f 0081 0abd
00000110: 5792 b4be b1a3 023e 151c 59be 7e95 efbe
00000120: 59a5 023f da6d 113f 138e 773e 2d64 3f3e
00000130: babb 573e d391 31bf cb06 4ebe f542 993e
00000140: 9636 92bf
0.4981358 0.4139156 -0.11791071 -0.15310068 0.7294123 0.37634912 0.5667973 -0.23174389
0.51521677 0.24968454 0.38749295 0.37070248 -0.125659 -0.3623102 0.7565638 0.15661892
-0.68310845 0.58766645 2.5138962 0.54833996 0.8222321 0.10455712 -0.45224464 -0.14504379
0.02220278 0.53738 0.66786575 0.5235508 -0.8638469 1.4804761 -0.042540785 -0.0670988
-0.1773332 -0.52740425 0.5221004 -0.61982006 -0.39312974 -0.08936768 0.48361298 -0.07401994
0.34845695 0.7402989 0.30884942 -0.52785665 -0.9678127 0.30713046 0.33127353 -0.1319769
-0.85784125 0.42339382 -0.05243349 0.18186374 -0.220798 0.020109752 1.0641203 1.7010223
-0.026581453 0.11364476 0.065731615 -0.13554811 -0.58538234 1.298903 0.6806264 0.26289892
-0.48813677 -0.31255767 0.7425217 -0.03381443 -0.35267898 0.12757756 -0.21202119 -0.4679374
0.5103355 0.56808245 0.24175291 0.18690558 0.21067706 -0.69363135 -0.20119779 0.29933897
-1.1422908

layers.0.conv1.attention1.2.bias f4 [9]
00000000: 1188 aa3e 17d8 433e fa13 2f3e 7624 f2bd
00000010: 1ed0 073e efec 6e3e 3a03 31bd 0c17 c5bd
00000020: f142 873e
0.33306935 0.191254 0.17097464 -0.118233606 0.13262984 0.2333257 -0.043215968 -0.096235365
0.2641826

layers.0.conv1.attention1.4.weight f4 [9, 9, 1, 1]
00000000: 34d1 2f3d 8aaf aebf 3093 dd3e 6faa 023f
00000010: fa04 91be b6d4 4dbe a66f 0f3f efc9 d63e
00000020: 6b01 133f 77ff 753e 53a6 133e 0290 383f
00000030: 7127 fc3c 5e30 25be 77ea b0be fcea 43bd
00000040: e356 7f3f 3b8f 38be f8fa cb3c 60d2 e1be
00000050: b57c a3bd 03d3 6c3f 26ce a4be b3d7 783f
00000060: 3b07 183e 5b9e 823d 51f2 66be 9272 a3be
00000070: e6ac b5bd 97a3 353f a6e6 a6bf 0f53 aabe
00000080: ecbf 50be e0ac 6a3e 76c2 1fbe 7a96 393f
00000090: e756 983f 0113 663f facb d63f 4a85 ff3d
000000a0: 1a06 8c3f dd61 163f c91f 2f3f 62e9 3f3e
000000b0: 1c43 243f fe62 05bf 9d21 e83e d049 1f3d
000000c0: 1965 4a3f 0355 753d 1d0c 88be 67a6 673e
000000d0: 2b27 763e d105 db3e f97b 093e e302 f4be
000000e0: 00e2 a3be 6ec9 76bf 72da b0bf 3178 c53e
000000f0: 6187 70bf 1504 33bf a891 b1be b236 1ebe
00000100: c732 1ebf bc1e 683f 58a9 8abf 2c87 5fbe
00000110: 16bc fdbe e836 383f 8344 583f 0191 043f
00000120: 6c98 33be 20c5 dfbd b872 d4bb 8f53 cbbe
00000130: 6164 a13e 0e1f a2bf e5fb 7ebe 910e 4b3f
00000140: b939 963c
0.04292412 -1.364732 0.43276358 0.5104131 -0.2832411 -0.20100674 0.56029737 0.41950938
0.5742404 0.24023233 0.14418916 0.7209474 0.030780526 -0.16131732 -0.34553882 -0.04783152
0.99741954 -0.18023388 0.024899945 -0.44105816 -0.0798277 0.9250948 -0.3218853 0.9720413
0.14846508 0.0637786 -0.22553374 -0.31923348 -0.088708684 0.70952743 -1.3039138 -0.33266494
-0.20385712 0.22917509 -0.15601525 0.72495234 1.190152 0.8987275 1.6780999 0.12476595
1.0939362 0.5874308 0.68407875 0.18741372 0.641649 -0.52104175 0.45338145 0.038888752
0.7906051 0.059895527 -0.26571742 0.22622071 0.24038379 0.42777875 0.13426198 -0.47658452
-0.32008362 -0.9640111 -1.3816664 0.3856826 -0.9395657 -0.69928104 -0.3468144 -0.15450552
-0.6179623 0.90671897 -1.083293 -0.21828908 -0.4955756 0.7195878 0.8447954 0.5178376
-0.17538613 -0.109262705 -0.006483402 -0.39712188 0.31521896 -1.2665727 -0.24900778 0.793191
0.018338071

layers.0.conv1.attention1.4.bias f4 [9]
00000000: b333 abbd cf22 b2bd 1ebb 6fbd 0ef7 5dbd
00000010: 28b3 3d3f 0cde 15bd 6a7b 9ebd 0039 83be
00000020: 399b 69be
-0.0835947 -0.086980455 -0.05852806 -0.054190688 0.74101496 -0.036588714 -0.07738383 -0.25629425
-0.22813119
