weights/BWNET_LAGConv_T3/model_epoch_450.pth (torch, 678374 bytes, 141 tensors)

raise_dim.0.weight f4 [32, 9, 3, 3]
-0.15482254 0.15325561 -0.17482601 -0.16358928 0.15897399 -0.11860536 -0.06599826 0.1510043
0.20374985 -0.14906108 -0.09372769 -0.10473129 0.022940833 -0.055433515 -0.1469137 -0.16798943
-0.11126031 0.037764315 -0.1189225 -0.18317354 -0.093339264 0.027401099 -0.08600869 -0.024292815
0.0032940407 0.1216409 -0.041089408 0.01280117 -0.1289513 -0.07493668 -0.09368994 -0.049570132
-0.034952365 -0.122996196 0.03463247 0.019202301 -0.16357024 -0.17046237 -0.2647765 -0.14259942
-0.10603311 -0.039949637 -0.16939363 -0.12455958 -0.1168549 0.08894632 -0.020998608 0.0072248904
-0.022966636 0.22530556 0.18888913 -0.16638514 0.13433076 0.1551326 -0.000628654 -0.018867962
-0.071307756 -0.28422776 0.010072948 0.06264511 -0.102511555 -0.04259871 -0.04274114 -0.24389091
-0.014339966 -0.12009957 -0.3334364 -0.10080215 -0.06937773 -0.10596432 -0.15063679 -0.24181283
-0.092198044 0.13459508 0.0851876 -0.24229196 -0.049724825 0.034183305 0.03311329 -0.004438202
-0.046620782 -0.10796802 -0.13577802 0.055971492 0.08106758 -0.14350833 -0.04388556 -0.05380068
0.03662668 -0.073482424 0.13022058 -0.12866479 0.06859465 -0.09422948 -0.04989221 -0.007344111
0.058207892 -0.13189806 -0.048545413 0.013667844 0.028675731 -0.07503097 -0.0018698594 -0.11108567
-0.118083745 -0.0021274777 -0.042980615 0.11152387 0.029439451 -0.013019221 0.038082454 -0.13630691
-0.17074785 0.03375547 0.010695797 -0.05735444 0.19102663 0.058226462 -0.11767103 0.1565947
0.10381539 0.09363093 0.14344846 0.0851957 0.012957873 0.24690641 0.037316103 0.037498355
0.1551319 0.030961724 -0.014255784 0.20181644 0.20379227 0.044466197 0.19657104 -0.024418468
-0.055531856 -0.054118544 0.0018236917 0.011032756 0.09097241 0.009965747 -0.101745576 0.026756478
-0.12431841 -0.087565355 -0.15082645 0.09205003 -0.05083363 0.047380503 0.10621817 0.106386185
0.039463017 -0.1420188 0.01297579 -0.16475376 -0.059242852 -0.07799818 -0.1597356 0.06975093
-0.10557608 0.029484566 -0.024265436 -0.08174038 -0.04768871 -0.024973946 -0.08678426 -0.108968206
0.059820548 0.055402596 0.030371418 0.044092365 0.068123914 -0.05907107 0.0036766087 0.1041454
-0.046614617 -0.082790904 0.06692982 0.019696608 -0.035748698 -0.092703246 -0.16525295 -0.13370056
-0.14687106 -0.11878011 -0.1464067 0.021054793 -0.056454334 0.03952118 -0.1668439 -0.07645162
-0.045175172 -0.13321015 0.0076266257 0.0074085156 -0.06681496 0.14039324 0.0143583855 0.07463107
0.09381175 0.19034564 0.2065507 0.14837301 0.05910985 0.11197509 0.09167519 0.03343693
0.07560799 -0.07097398 0.002599204 0.016243815 -0.050223872 0.05431003 0.010820601 0.030932015
-0.074877605 0.011250153 -0.13615419 0.050703723 -0.093577385 -0.10970701 0.012277974 -0.07171446
0.05989184 0.148732 0.1180126 0.0525851 0.03894708 0.1491032 0.099769235 0.025118388
0.03723664 -0.02480427 -0.10382724 0.07163977 0.06769103 -0.12873562 -0.14448316 -0.047975507
0.10224302 -0.1862841 -0.08299547 -0.053225577 -0.22581887 -0.100718565 -0.00092450174 -0.39370137
0.022559064 -0.15939054 0.33979493 -0.26200262 -0.016269704 0.027242161 0.16137896 -0.069996916
00000000: cd89 1ebe 0aef 1c3e 9705 33be f383 27be
00000010: 14ca 223e 5ee7 f2bd 192a 87bd dfa0 1a3e
00000020: cda3 503e 78a3 18be 4ef4 bfbd 5c7d d6bd
00000030: 6aee bb3c 410e 63bd 8c70 16be 6c05 2cbe
00000040: 72dc e3bd c1ae 1a3d a48d f3bd d891 3bbe
00000050: a828 bfbd 4578 e03c 5325 b0bd ba01 c7bc
00000060: d5e0 573b dd1e f93d 5e4d 28bd 00bc 513c
00000070: cf0b 04be 6778 99bd 83e0 bfbd 0d0a 4bbd
00000080: 362a 0fbd 6ee5 fbbd c7da 0d3d 254e 9d3c
00000090: f57e 27be b08d 2ebe c990 87be 9505 12be
000000a0: e327 d9bd 3ba2 23bd 8675 2dbe 1819 ffbd
000000b0: 9f51 efbd 7d29 b63d 4605 acbc c6be ec3b
000000c0: 8724 bcbc 80b6 663e 276c 413e de60 2abe
000000d0: 018e 093e 15db 1e3e 41cc 24ba fc90 9abc
000000e0: cd09 92bd 4d86 91be 0209 253c 144c 803d
000000f0: 94f1 d1bd fc7b 2ebd 5511 2fbd 8abe 79be
00000100: 2df2 6abc c3f6 f5bd 2db8 aabe 5c71 cebd
00000110: e915 8ebd d203 d9bd 8840 1abe c89d 77be
00000120: 54d2 bcbd 4bd3 093e d676 ae3d 621b 78be
00000130: 42ac 4bbd cb03 0c3d cda1 073d 566e 91bb
00000140: 6ff5 3ebd 561e ddbd 6509 0bbe 5d42 653d
00000150: c206 a63d d9f3 12be 58c1 33bd 1a5e 5cbd
00000160: dc05 163d f47d 96bd 8b58 053e b4c0 03be
00000170: 5a7b 8c3d 63fb c0bd c65b 4cbd dea6 f0bb
00000180: 666b 6e3d 4910 07be 8ed7 46bd 18ef 5f3c
00000190: 5ee9 ea3c d6a9 99bd 1216 f5ba e280 e3bd
000001a0: e4d5 f1bd 276d 0bbb 710c 30bd a066 e43d
000001b0: 012b f13c 924e 55bc 59fc 1b3d 0a94 0bbe
000001c0: 86d8 2ebe 2d43 0a3d 6d3d 2f3c 7dec 6abd
000001d0: 7c9c 433e df7e 6e3d 82fd f0bd 5c5a 203e
000001e0: 2a9d d43d 93c1 bf3d 27e4 123e 157b ae3d
000001f0: 424d 543c 09d5 7c3e c5d8 183d e097 193d
00000200: e6da 1e3e 71a3 fd3c 1891 69bc f8a8 4e3e
00000210: ecae 503e 3022 363d eb49 493e 3d09 c8bc
00000220: 5f75 63bd 68ab 5dbd f008 ef3a bcc2 343c
00000230: be4f ba3d 5f47 233c fc5f d0bd 6730 db3c
00000240: a79a febd 7755 b3bd 4072 1abe ba84 bc3d
00000250: ed36 50bd 0f12 423d e988 d93d 00e1 d93d
00000260: f9a3 213d 606d 11be 6898 543c 36b5 28be
00000270: a2a8 72bd 83bd 9fbd bb91 23be 93d9 8e3d
00000280: 4638 d8bd 9e89 f13c 4fc8 c6bc 8067 a7bd
00000290: 3d55 43bd 2996 ccbc f2bb b1bd b92a dfbd
000002a0: 6406 753d d5ed 623d 7bcd f83c 329a 343d
000002b0: 8d84 8b3d 82f4 71bd 42f3 703b 2f4a d53d
000002c0: f8ee 3ebd 478e a9bd 8012 893d c85a a13c
000002d0: 3a6d 12bd 33db bdbd 1238 29be cde8 08be
000002e0: 5e65 16be fc42 f3bd a3eb 15be 1a7b ac3c
000002f0: a93c 67bd f6e0 213d 21d9 2abe ab92 9cbd
00000300: 9a09 39bd 3e68 08be c6e8 f93b 22c3 f23b
00000310: 48d6 88bd 3fc3 0f3e 6f3f 6b3c 2dd8 983d
00000320: 6020 c03d f8e9 423e 0782 533e 18ef 173e
00000330: 2c1d 723d 3253 e53d 34c0 bb3d 2af5 083d
00000340: 5dd8 9a3d ce5a 91bd 6857 2a3b c011 853c
00000350: 8cb7 4dbd 3274 5e3d e448 313c 2365 fd3c
00000360: 6e59 99bd 9052 383c 016c 0bbe b5ae 4f3d
00000370: 80a5 bfbd 12ae e0bd 8e29 493c 08df 92bd
00000380: 2551 753d 344d 183e 97b0 f13d 7963 573d
00000390: f986 1f3d 82ae 183e d053 cc3d 14c5 cd3c
000003a0: 7285 183d 5332 cbbc 60a3 d4bd dfb7 923d
000003b0: 98a1 8a3d 45d3 03be 65f3 13be f781 44bd
000003c0: ca64 d13d 42c1 3ebe 87f9 a9bd 1003 5abd
000003d0: 103d 67be 8945 cebd 435a 72ba 3a93 c9be
000003e0: c9cd b83c 4637 23be 9af9 ad3e 3525 86be
000003f0: 0b48 85bc f42a df3c 8740 253e 8b5a 8fbd

raise_dim.0.attention1.0.weight f4 [9, 9, 3, 3]
-0.33604434 0.32525876 -0.085536614 -0.15576528 0.3399389 0.21493341 -0.2461957 0.5438927
0.03296661 -0.29038304 -0.29273117 -0.06134758 -0.108699374 -0.29425898 -0.3329892 -0.116847135
-0.30512416 -0.13101228 -0.36896995 -0.1831338 -0.17579406 -0.22020704 -0.27149618 -0.10194231
-0.08359027 0.14819248 0.41216815 0.2919056 0.31505972 0.224474 -0.13562556 0.47342438
0.32204872 0.10005535 0.22792625 -0.22965577 0.17973949 0.0193079 0.08203583 0.4471247
0.0187264 0.08497351 0.13410799 -0.06997469 0.25280672 -0.5204549 -0.041834373 -0.01844701
-0.56203854 -0.20152818 -0.13628209 -0.19554295 -0.3428119 -0.22329189 -0.15487733 0.009749961
0.018412987 -0.091502905 -0.122587144 0.014540426 0.11714522 -0.1591387 0.025157068 -0.39592102
-0.16961622 -0.20390286 -0.10343453 -0.009286414 -0.29109246 0.1887362 -0.054825585 -0.18653832
0.08430183 -0.004284346 0.42378414 0.41459298 0.10853628 0.079775944 0.19725472 0.26752758
0.008876214 -0.17272921 0.17692512 -0.06132756 0.011284067 0.90156025 0.5796123 0.29076788
0.019708991 0.33368686 0.24481693 0.093936495 -0.049358338 0.07755417 0.14038709 0.15336671
0.19793575 0.19427922 0.26249543 -0.1793357 0.3798478 0.35051218 0.1967622 -0.012819876
0.102267556 0.035049308 0.19850065 0.109002985 0.15604277 0.18456385 -0.16440839 0.22194229
0.31308296 0.31301212 0.29647395 -0.05538929 0.14418133 0.4451596 0.17510042 0.25021315
0.473095 0.4846233 0.23665635 0.069892205 0.29906866 0.33670595 0.124002784 -0.19297099
-0.14699318 0.17730214 0.1829758 0.1701458 0.14058226 0.15037894 -0.054420475 0.11070822
-0.084797874 0.17579575 0.38716295 0.08741866 -0.09158224 0.35185498 0.2159982 -0.099708594
0.05377768 0.06822237 0.10330469 0.3051939 0.30843732 0.03573287 0.15290825 -0.15974556
-0.12372005 -0.08163881 0.21161313 0.16166285 0.01584975 0.26385158 0.22422434 -0.19166774
0.0375426 -0.024816614 -0.12526761 -0.24989414 -0.11621829 -0.1612694 -0.26448622 -0.23080575
-0.03463529 -0.29820788 0.05357248 0.18726172 -0.20407556 0.06062909 -0.20790042 -0.14151345
-0.1520809 -0.073050216 -0.17066851 -0.17083594 0.042988323 -0.14541432 -0.11681297 -0.438372
-0.06685081 -0.388438 -0.12439145 0.053963266 -0.22681752 -0.22399156 -0.21198884 -0.13636714
-0.29754776 -0.2804023 -0.045857437 -0.26513857 -0.266084 -0.18324704 -0.33971757 -0.38381732
0.050314322 -0.18496375 -0.22001906 -0.4246576 -0.105138674 -0.2959249 -0.08418716 0.15152949
-0.08981313 -0.057340275 -0.16998072 -0.10533599 -0.44391152 -0.10338928 0.1007041 0.058864698
0.0618057 -0.15980619 -0.24873956 -0.40153804 -0.1311704 -0.40710533 -0.22459523 -0.1054737
-0.20429243 -0.03391677 -0.030909736 -0.2761594 -0.08513503 -0.26386702 -0.29127252 0.18262166
-0.2584821 -0.23949897 -0.08985129 -0.262385 -0.06830396 -0.22318584 -0.2866329 -0.11554357
0.21538684 -0.20361233 0.3429462 -0.08750328 0.0058483947 -0.044057216 0.035074137 -0.40191597
0.20478311 0.08780173 -0.2117781 -0.14948519 -0.18244086 -0.14200313 0.07956256 0.17382586
00000000: 010e acbe 5188 a63e d22d afbd ef80 1fbe
00000010: 790c ae3e 8117 5c3e ba1a 7cbe 8d3c 0b3f
00000020: ff07 073d 16ad 94be dce0 95be 9a47 7bbd
00000030: c79d debd 1da9 96be 8f7d aabe 8d4d efbd
00000040: 3c39 9cbe 1528 06be a1e9 bcbe 6d87 3bbe
00000050: 5c03 34be f47d 61be 8c01 8bbe 21c7 d0bd
00000060: 6031 abbd c5bf 173e b407 d33e a774 953e
00000070: 824f a13e 83dc 653e 6de1 0abe ae64 f23e
00000080: 92e3 a43e d2e9 cc3d 8065 693e e22a 6bbe
00000090: a10d 383e 9a2b 9e3c 6702 a83d 87ed e43e
000000a0: 1b68 993c 9706 ae3d 9b53 093e e44e 8fbd
000000b0: e26f 813e 883c 05bf 855a 2bbd 2f1e 97bc
000000c0: c2e1 0fbf 675d 4ebe 888d 0bbe 693c 48be
000000d0: 0b85 afbe a1a6 64be 2a98 1ebe 4dbe 1f3c
000000e0: d5d6 963c e065 bbbd f80e fbbd f83a 6e3c
000000f0: d5e9 ef3d 41f5 22be 3216 ce3c 29b6 cabe
00000100: e0af 2dbe e9cb 50be 7cd5 d3bd 0b26 18bc
00000110: 120a 95be 1044 413e cb90 60bd e703 3fbe
00000120: 70a6 ac3d b363 8cbb 3cfa d83e 8845 d43e
00000130: 4548 de3d 9261 a33d 24fd 493e 60f9 883e
00000140: 8a6d 113c eddf 30be dc2b 353e 9c32 7bbd
00000150: cfe0 383c a7cc 663f 7961 143f 87df 943e
00000160: c074 a13c 01d9 aa3e 4ab1 7a3e c761 c03d
00000170: f82b 4abd b8d4 9e3d a2c1 0f3e 2a0c 1d3e
00000180: abaf 4a3e 22f1 463e cd65 863e c7a3 37be
00000190: 697b c23e 5576 b33e 087c 493e 750a 52bc
000001a0: a771 d13d dd8f 0f3d c143 4b3e f53c df3d
000001b0: adc9 1f3e 4efe 3c3e ac5a 28be d744 633e
000001c0: 694c a03e 2043 a03e 6fcb 973e e1df 62bd
000001d0: 45a4 133e f6eb e33e 864d 333e f01b 803e
000001e0: 8239 f23e 8c20 f83e 0b56 723e a523 8f3d
000001f0: 871f 993e b964 ac3e 2cf5 fd3d 309a 45be
00000200: 6185 16be b18e 353e 025e 3b3e b33a 2e3e
00000210: ccf4 0f3e f0fc 193e 01e8 5ebd feba e23d
00000220: 82aa adbd cd03 343e 393a c63e 8e08 b33d
00000230: 788f bbbd 5626 b43e a22e 5d3e 0534 ccbd
00000240: fc45 5c3d 2cb8 8b3d 6991 d33d 6042 9c3e
00000250: 7feb 9d3e a15c 123d fb93 1c3e 5794 23be
00000260: f060 fdbd 4032 a7bd 1db1 583e f28a 253e
00000270: 56d7 813c 8e17 873e 119b 653e 8c44 44be
00000280: 45c6 193d 364c cbbc 2746 00be 40e4 7fbe
00000290: db03 eebd ce23 25be bd6a 87be 5858 6cbe
000002a0: bcdd 0dbd b4ae 98be d16e 5b3d 89c1 3f3e
000002b0: 2ff9 50be 3556 783d d9e3 54be e7e8 10be
000002c0: 18bb 1bbe 5a9b 95bd bac3 2ebe 9eef 2ebe
000002d0: 8614 303d 7ee7 14be a33b efbd 4b72 e0be
000002e0: 14e9 88bd 58e1 c6be f2c0 febd 9608 5d3d
000002f0: da42 68be 0b5e 65be 9a13 59be d4a3 0bbe
00000300: 2e58 98be e490 8fbe 02d5 3bbd 3ec0 87be
00000310: 293c 88be 1da5 3bbe 76ef adbe b483 c4be
00000320: 6416 4e3d 2367 3dbe ad4c 61be b96c d9be
00000330: f252 d7bd 7883 97be 516a acbd 8c2a 1b3e
00000340: f2ef b7bd a3dd 6abd 6d0f 2ebe 65ba d7bd
00000350: 5f48 e3be c2bd d3bd f43d ce3d 1c1c 713d
00000360: f927 7d3d 3ca4 23be 95b5 7ebe 6596 cdbe
00000370: 8951 06be 1c70 d0be 4bfc 65be 9802 d8bd
00000380: 0932 51be 50ec 0abd 6a36 fdbc c464 8dbe
00000390: 465b aebd 9419 87be ac21 95be 2c01 3b3e
000003a0: c457 84be 383f 75be f403 b8bd 5457 86be
000003b0: f2e2 8bbd d48a 64be 8cc1 92be 1ba2 ecbd
000003c0: 5e8e 5c3e c07f 50be a596 af3e eb34 b3bd
000003d0: e4a3 bf3b 5775 34bd e6a9 0f3d eec7 cdbe
000003e0: aab2 513e 65d1 b33d 5cdc 58be a512 19be
000003f0: c7d1 3abe 4569 11be b2f1 a23d 68ff 313e

raise_dim.0.attention1.0.bias f4 [9]
0.060467843 0.29480812 -0.07373325 -0.051279012 0.13687098 -0.019603355 -0.015236829 0.13640071
-0.060741782
00000000: 21ad 773d 17f1 963e 7501 97bd f109 52bd
00000010: e827 0c3e 3797 a0bc e5a3 79bc a1ac 0b3e
00000020: 60cc 78bd

raise_dim.0.attention1.2.weight f4 [9, 9, 1, 1]
-0.031518504 -0.31535363 -0.29765466 -0.79033715 0.24940443 -0.28422368 -0.29476094 -0.44389504
0.0043702023 0.37397817 0.21223271 0.5349942 0.99261636 -0.023580536 -0.71349424 0.5864274
-0.33109254 0.8867868 0.14975145 -0.7326772 0.71663797 -0.36433485 -0.24417001 0.09546509
0.6517446 -0.43384463 -0.049389686 0.50329226 0.15060122 0.20733845 0.09446755 -0.3246681
-0.17048001 0.20364863 0.32731932 -0.3098464 1.0890796 0.0671955 0.5994712 -0.80876595
0.40853333 1.4006677 0.22686343 -0.93921804 0.5062606 -0.45762014 1.0209568 -0.7068245
-0.81903094 1.0242494 -0.9757814 -0.31562638 0.6828341 -0.4738588 0.41340417 0.34469035
-1.1365936 -0.38635013 0.6180658 0.2684671 0.23032986 -0.15059166 0.9894373 0.9507755
0.11850271 0.02348821 -0.77599055 0.005547994 -0.586111 -0.40339935 -0.5213298 -0.06802464
0.1644953 -0.16675931 0.08126637 0.34296134 -0.6445143 -0.27290568 0.16823989 0.48691988
1.4784262
00000000: 8c19 01bd 0876 a1be 3166 98be 8953 4abf
00000010: e063 7f3e c485 91be e8ea 96be 3646 e3be
00000020: ea33 8f3b 117a bf3e 8853 593e 61f5 083f
00000030: 1b1c 7e3f f82b c1bc 8fa7 36bf 1b20 163f
00000040: f684 a9be 7604 633f 7258 193e bc90 3bbf
00000050: 9675 373f 198a babe b407 7abe 3383 c33d
00000060: bcd8 263f e220 debe d74c 4abd c3d7 003f
00000070: 3537 1a3e 8850 543e 3478 c13d e63a a6be
00000080: 5092 2ebe 4489 503e 6696 a73e 30a4 9ebe
00000090: f666 8b3f cb9d 893d f276 193f 490b 4fbf
000000a0: 482b d13e 1449 b33f e34e 683e 9870 70bf
000000b0: 4b9a 013f 304d eabe b6ae 823f 73f2 34bf
000000c0: 03ac 51bf 9b1a 833f cfcc 79bf c899 a1be
000000d0: 37ce 2e3f 9f9d f2be b6a9 d33e 417b b03e
000000e0: e67b 91bf afcf c5be 8f39 1e3f 8574 893e
000000f0: 97db 6b3e b334 1abe c34b 7d3f 0666 733f
00000100: 8cb1 f23d 596a c03c 51a7 46bf f2cb b53b
00000110: 5f0b 16bf 5c8a cebe df75 05bf 8150 8bbd
00000120: 7571 283e f4c2 2abe fc6e a63d a198 af3e
00000130: e4fe 24bf 4bba 8bbe 1447 2c3e 904d f93e
00000140: 123d bd3f

raise_dim.0.attention1.2.bias f4 [9]
0.056257665 -0.0528466 0.01953846 0.039322175 0.09763441 0.21581803 0.07974793 0.106264636
0.06547889
00000000: 706e 663d ad75 58bd 1f0f a03c 4a10 213d
00000010: 8df4 c73d 67ff 5c3e e252 a33d 46a1 d93d
00000020: cc19 863d

raise_dim.0.attention1.4.weight f4 [9, 9, 1, 1]
-0.07496018 -0.87647885 0.5195762 -0.091065735 0.31315774 0.19823277 -0.3468777 0.52946395
-1.1404777 0.041564442 0.369823 -0.5079941 0.36162892 0.4166385 -0.49132174 -0.79532266
0.66028416 0.065247655 -0.051674988 0.8183187 -0.37738252 0.34835872 -0.6544668 -0.28123158
-0.4055728 0.4744577 0.7106222 0.7898589 -0.21958774 -1.2962228 0.27595785 -1.6301321
1.0106626 0.5982399 0.99782085 -0.48540834 -0.7444557 0.196903 -1.1843598 0.27084652
-0.5113273 2.877986 1.9272314 0.06445379 0.18442726 0.0116061745 0.21844698 0.15822493
0.6124202 0.43287653 -0.22391549 0.25101042 0.6867263 -1.4799714 -0.15493938 -0.090046175
0.63863945 -0.3910363 0.64836866 -0.3605963 0.1048749 0.80464345 -0.8386655 -0.06550144
0.055875912 -0.34364432 0.72473186 1.0794643 1.4397041 0.24032728 -0.6201561 -0.5410171
0.3159693 -0.07854382 0.95550305 -0.25403672 0.11422191 0.182763 -0.34934136 0.26547942
-0.6917394
00000000: b984 99bd eb60 60bf f202 053f ac80 babd
00000010: 3656 a03e 88fd 4a3e f499 b1be f38a 073f
00000020: 2cfb 91bf 7a3f 2a3d 7159 bd3e e70b 02bf
00000030: 6d27 b93e a451 d53e 868e fbbe 449a 4bbf
00000040: 6208 293f 90a0 853d 27a9 53bd 567d 513f
00000050: 4838 c1be 135c b23e 238b 27bf 96fd 8fbe
00000060: 3da7 cfbe 1fec f23e 56eb 353f 3134 4a3f
00000070: 9cdb 60be a1ea a5bf 594a 8d3e 2ba8 d0bf
00000080: 645d 813f 4026 193f 3071 7f3f 7187 f8be
00000090: a694 3ebf f1a0 493e 1a99 97bf 65ac 8a3e
000000a0: 59e6 02bf ec30 3840 85af f63f 5900 843d
000000b0: 80da 3c3e d327 3e3c 91b0 5f3e b705 223e
000000c0: 92c7 1c3f fea1 dd3e 1a4a 65be 7084 803e
000000d0: 4bcd 2f3f b46f bdbf 6ea8 1ebe 216a b8bd
000000e0: e07d 233f e935 c8be 7dfb 253f 14a0 b8be
000000f0: a7c8 d63d 1dfd 4d3f c8b2 56bf 9e25 86bd
00000100: 24de 643d 26f2 afbe 0788 393f e32b 8a3f
00000110: 3948 b83f 5b18 763e 8dc2 1ebf 1980 0abf
00000120: bac6 a13e 95db a0bd d99b 743f 1a11 82be
00000130: 2ded e93d 3926 3b3e dfdc b2be ebec 873e
00000140: d515 31bf

raise_dim.0.attention1.4.bias f4 [9]
-0.020853492 0.17400394 -0.061301332 0.30066755 1.2350879 0.15645859 0.065736406 0.2799766
0.019802602
00000000: f1d4 aabc 172e 323e 1b17 7bbd 19f1 993e
00000010: 5c17 9e3f ae36 203e cfa0 863d 1859 8f3e
00000020: 1139 a23c

raise_dim.0.attention3.1.weight f4 [32, 9, 1, 1]
0.08485898 -0.58723015 0.12149693 0.4372269 -0.009460177 -0.50334907 -0.15960264 0.26153663
-0.33148718 0.5949827 -0.7097162 -0.0897267 -0.2250356 -1.0769783 0.81457865 0.041396983
0.048040014 0.055707462 0.14200567 0.6067126 -0.09514919 0.9983988 0.07909706 0.347296
0.19586362 0.4374876 -0.66429687 0.27607918 0.329704 -0.740829 -0.20723248 -0.5397875
0.19196984 -0.70674735 -0.32552478 0.5360048 0.7444349 0.44646332 0.15747614 0.20085464
0.2069942 -0.21328083 -0.08941951 0.03790902 0.081055 -0.3599621 0.07159981 0.07243169
-0.3001956 -0.24781963 0.24888897 0.8704013 -0.10653051 0.3407616 0.05168736 0.3064539
0.022451565 0.0052470025 0.30637866 0.0128759965 0.44576576 -0.6064039 -0.8535373 0.47728777
-0.1473071 -0.46179757 -0.42529547 0.30770022 0.46389008 -0.2733634 0.94378823 -0.71888006
0.80447006 -0.6128392 -1.1573173 -0.32864815 -0.22080694 0.3474628 0.67144513 -0.45845044
-0.08439091 -0.36093444 0.13005374 -0.4154027 -0.23315436 0.14290184 0.2016787 0.33907253
0.08061369 0.102340974 -0.16335386 0.07401493 0.1395684 0.69203436 -0.56344306 0.21279909
-0.85693705 0.4908536 0.15321888 0.5594559 0.67314607 -0.69350386 -0.33122855 -0.57027245
0.12678045 -0.22570969 0.2843748 -0.5294477 0.23527509 0.83838177 0.5844375 0.32186374
0.41425595 -0.31592426 -0.53681135 -0.14922167 0.89297444 0.67377937 -0.60127276 -0.1475127
0.33375987 -0.5471603 -0.49402887 -0.19456682 -0.09619758 0.19390762 -0.30734375 -0.2046329
0.37997973 0.46075317 -0.20686638 -0.73021233 0.33224177 -0.16473931 0.08114734 -0.013464435
-0.5604262 0.30351076 0.2817734 -0.52471 -0.30391082 0.1402449 -0.26594868 0.43120348
-0.35149816 0.034832172 0.36457363 0.45511228 0.39392042 0.40032303 0.28476393 -0.52515626
0.8110407 -0.40495846 0.39131466 0.79790336 0.29496187 -0.07936342 -0.49162394 0.6477427
-0.19451332 -0.0919947 -0.2399016 -0.64613 -0.34723517 -0.1522685 0.57131314 -0.55843455
0.66757286 -0.45391524 0.26387447 -0.9160657 0.13447586 -0.3738875 -0.4273858 0.37636703
-0.09652414 0.14455578 -0.34076977 0.16036692 0.26114485 -0.46639016 0.14556624 0.41784412
0.29128528 -0.21375425 0.31281403 0.107904114 -0.5611484 0.12640192 -0.07350569 -0.3366195
1.0232797 -0.41366488 -0.083805285 0.14252222 0.07323171 -0.06729034 0.39751083 0.22741057
-0.2648415 0.5313364 -0.5229763 0.088288985 0.37320912 -0.74544716 0.29407734 0.37381026
-0.91641754 -1.1468602 0.23151432 0.66309386 -0.3952113 -0.820044 -0.6139117 -0.10031645
0.0042706523 0.057405133 -0.2533583 0.20288949 -0.27983686 0.039217774 1.0145401 0.2926982
-0.44832042 0.62000686 -0.4430331 0.826698 -0.6449245 0.41777676 -0.063009314 -0.77130574
-0.99191564 0.24818814 0.55949557 0.12285943 0.29465264 0.77309966 -0.24292843 0.0927162
-0.0106189335 -0.073787 -0.23543504 0.042533267 -0.39551502 -1.1428968 -0.09697142 -0.06808276
0.009356837 0.20344158 0.2759033 0.094781004 0.33374336 -0.43457454 0.10487443 -0.04462187
00000000: 8bca ad3d b754 16bf 62d3 f83d 34dc df3e
00000010: dcfe 1abc 7cdb 00bf e06e 23be 21e8 853e
00000020: b0b8 a9be c950 183f f6af 35bf a2c2 b7bd
00000030: bb6f 66be 6dda 89bf 3a88 503f e28f 293d
00000040: 9bc5 443d 822d 643d ef69 113e 8451 1b3f
00000050: 94dd c2bd 1097 7f3f a4fd a13d c8d0 b13e
00000060: 7990 483e 60fe df3e 5c0f 2abf 405a 8d3e
00000070: f6ce a83e f8a6 3dbf c034 54be 832f 0abf
00000080: be93 443e 65ed 34bf 2fab a6be 9c37 093f
00000090: 4993 3e3f d796 e43e 6d41 213e d7ac 4d3e
000000a0: 4af6 533e 4a66 5abe 9321 b7bd 7d46 1b3d
000000b0: 2a00 a63d f44c b8be eca2 923d 1157 943d
000000c0: 3db3 99be 6ec4 7dbe c0dc 7e3e 9fd2 5e3f
000000d0: ab2c dabd 4e78 ae3e 20b6 533d 87e7 9c3e
000000e0: 58ec b73c 0cef ab3b aadd 9c3e d8f5 523c
000000f0: 693b e43e 493d 1bbf 6c81 5abf 105f f43e
00000100: acd7 16be bb70 ecbe 54c0 d9be e28a 9d3e
00000110: 0083 ed3e 4af6 8bbe 1b9c 713f 8608 38bf
00000120: c0f1 4d3f 08e3 1cbf f922 94bf 9244 a8be
00000130: 371b 62be a5e6 b13e d4e3 2b3f 04ba eabe
00000140: 24d5 acbd 66cc b8be cf2c 053e aaaf d4be
00000150: 04c0 6ebe dc54 123e dc84 4e3e ea9a ad3e
00000160: ca18 a53d 2598 d13d 3c46 27be 2495 973d
00000170: 05eb 0e3e 2a29 313f ce3d 10bf 01e8 593e
00000180: 3a60 5bbf 2a51 fb3e 69e5 1c3e 8038 0f3f
00000190: 4d53 2c3f 7889 31bf ca96 a9be 60fd 11bf
000001a0: bcd2 013e 7120 67be 9399 913e e289 07bf
000001b0: f4eb 703e 30a0 563f b29d 153f 53cb a43e
000001c0: 5b19 d43e d3c0 a1be 786c 09bf 91cd 18be
000001d0: f999 643f ce7c 2c3f 03ed 19bf 920d 17be
000001e0: 93e2 aa3e b312 0cbf 5af1 fcbe 863c 47be
000001f0: 3d03 c5bd b88f 463e 295c 9dbe 498b 51be
00000200: b48c c23e d7e7 eb3e c8d4 53be 32ef 3abf
00000210: 981b aa3e 6cb1 28be 9430 a63d ef99 5cbc
00000220: 1778 0fbf c365 9b3e 9a44 903e 6553 06bf
00000230: 339a 9bbe 5c9c 0f3e 6d2a 88be b4c6 dc3e
00000240: 91f7 b3be 2eac 0e3d 65a9 ba3e 7a04 e93e
00000250: f0af c93e 24f7 cc3e 94cc 913e a470 06bf
00000260: 5da0 4f3f b756 cfbe 655a c83e 6543 4c3f
00000270: 3e05 973e 4a89 a2bd 22b6 fbbe 77d2 253f
00000280: 802e 47be b867 bcbd c4a8 75be c768 25bf
00000290: cfc8 b1be 46ec 1bbe 9441 123f 91f5 0ebf
000002a0: 0ee6 2a3f 9467 e8be 8e1a 873e 4883 6abf
000002b0: 0ab4 093e 2f6e bfbe 50d2 dabe 2eb3 c03e
000002c0: 73ae c5bd 6e06 143e 6079 aebe 3a37 243e
000002d0: c7b4 853e b1ca eebe 510f 153e aaef d53e
000002e0: 5823 953e 65e2 5abe 2929 a03e d5fc dc3d
000002f0: 6ca7 0fbf 816f 013e 278a 96bd 6459 acbe
00000300: d4fa 823f e2cb d3be 1ba2 abbd 58f1 113e
00000310: 82fa 953d 85cf 89bd 8a86 cb3e 51de 683e
00000320: 4e99 87be aa05 083f c6e1 05bf dbd0 b43d
00000330: 4415 bf3e a0d5 3ebf 4e91 963e 0f64 bf3e
00000340: 579a 6abf 51cc 92bf 1712 6d3e 85c0 293f
00000350: 2359 cabe 67ee 51bf 5129 1dbf b672 cdbd
00000360: d4f0 8b3b a521 6b3d 2eb8 81be 43c2 4f3e
00000370: c746 8fbe d1a2 203d 73dc 813f 8adc 953e
00000380: 418a e5be c5b8 1e3f 3cd5 e2be 7ba2 533f
00000390: c619 25bf d6e6 d53e 070b 81bd 4b74 45bf
000003a0: 2fee 7dbf 0825 7e3e 1a3b 0f3f ba9d fb3d
000003b0: b6dc 963e dce9 453f 3bc2 78be fee1 bd3d
000003c0: 09fb 2dbc a31d 97bd e215 71be 5d37 2e3d
000003d0: f280 cabe 714a 92bf f498 c6bd f96e 8bbd
000003e0: 6b4d 193c fd52 503e 3343 8d3e 8b1c c23d
000003f0: 69e0 aa3e 8e80 debe 68c8 d63d 6cc5 36bd

raise_dim.0.attention3.1.bias f4 [32]
-0.062225394 -0.013641209 -0.06982404 0.03630934 0.010325399 0.053340033 0.024217341 0.020265337
0.038338553 -0.061977208 -0.0030243217 -0.0886902 0.013540232 -0.06660686 -0.046135318 -0.047741212
-0.031862255 -0.09128929 0.04564341 0.10540151 0.025989152 -0.030940695 -0.0019980164 0.04191403
-0.022673022 -0.018589921 -0.07951168 -0.008011977 0.02093076 0.024550911 -0.0142830685 -0.016874984
00000000: 0ee0 7ebd 617f 5fbc e8ff 8ebd 1ab9 143d
00000010: dd2b 293c 147b 5a3d 7263 c63c 7e03 a63c
00000020: e308 1d3d d0db 7dbd b333 46bb 35a3 b5bd
00000030: d9d7 5d3c 2d69 88bd 63f8 3cbd 4a8c 43bd
00000040: ff81 02bd e1f5 babd 96f4 3a3d bfdc d73d
00000050: 34e7 d43c 5777 fdbc 27f1 02bb 0cae 2b3d
00000060: c6bc b9bc e449 98bc 05d7 a2bd ab44 03bc
00000070: fc76 ab3c fe1e c93c 8803 6abc 683d 8abc

raise_dim.0.attention3.3.weight f4 [32, 32, 1, 1]
-0.3613313 -0.3688141 0.16136295 0.2507305 -0.08085784 -0.4722625 -0.12044818 0.12775667
0.100600526 -0.09565338 -0.021135451 -0.1953172 -0.5672619 -0.032357175 0.06746392 -0.07029058
0.06457352 0.2691727 -0.2385283 0.24896136 -0.15275648 0.08018533 0.39182106 -0.1483502
0.10562443 0.08459499 -0.12155225 0.09399069 0.014478554 -0.09796909 0.36620864 -0.12998663
0.13491544 0.27297565 -0.80336446 0.25109723 0.48918042 -0.10895431 0.15491617 -0.36787602
-0.1010925 -0.42840868 0.17040326 -0.48399085 -0.061652064 -0.02682528 0.083533734 -0.052338425
-0.27564618 0.44458097 0.24356624 -0.022702783 -0.15714858 -0.16310273 0.147944 -0.010492234
-0.05051868 0.50974315 -0.32065278 -0.51470995 0.31285104 0.10016205 0.016752835 0.093874626
0.10806486 -0.017909596 -0.059523847 0.5472732 -0.101108186 0.1754352 0.13290653 0.42838868
0.19583972 -0.55086106 -0.015721353 -0.2314395 0.14807925 0.5371288 -0.09769438 -0.3911444
0.33117926 0.189178 -0.23582867 0.26822156 0.1979151 -0.32913402 -0.43075216 0.006835129
-0.23028761 0.08535079 -0.11895472 0.14585873 -0.19196871 0.07473866 0.25431487 -0.49813554
0.23130397 0.35116094 0.031478763 -0.106266156 0.034982543 0.14503032 0.0746291 -0.1587649
0.18987523 0.03767064 -0.023606127 -0.14281775 -0.15488741 -0.09590775 0.37997538 -0.22147334
-0.08274887 0.39875606 0.27149814 -0.48493928 -0.016056241 -0.02787162 -0.07745916 -0.26544932
0.21741578 -0.4317443 -0.04401535 -0.091115385 0.17733271 -0.026791953 0.066430844 0.23790626
-0.08213306 -0.09126916 -0.0013522614 0.0868929 0.14648294 0.4494258 0.26471537 -0.5089728
-0.013228938 -0.12905464 -0.17246851 0.034549646 0.23487996 0.3028261 0.13811412 0.37140593
-0.003730225 0.0011214447 0.43453765 0.16953379 -0.095256455 0.093894385 0.13075998 -0.46408662
0.21592031 0.023174856 0.25823525 -0.04889289 -0.17635325 0.071035065 0.44267145 -0.4415352
0.08857083 0.38641432 -0.089299925 -0.15758903 -0.10910194 0.38498226 -0.45392323 -0.2569601
-0.05433111 -0.12947336 -0.04847205 -0.22150423 -0.2509968 0.021016596 0.0885616 0.12734747
0.01816555 -0.19878715 -0.13548575 0.17470321 0.113915555 -0.044670485 0.13254224 -0.16994259
-0.19635634 0.044299137 0.12769319 0.2688164 0.004483198 0.27789637 -0.31824997 0.10026475
0.5344702 -0.8344502 -0.32653412 -0.20396557 -0.028008534 0.28207645 0.14292647 -0.09276807
-0.2592853 -0.17134683 0.33063295 0.15834077 -0.25908354 -0.3162659 0.54946923 -0.8092192
-0.33725908 0.38217473 0.0444715 -0.18787743 0.0673443 -0.051255725 0.046728548 -0.124151826
0.40671223 -0.4141534 0.26667833 -0.06503266 0.5472745 0.15049264 0.061532665 0.19919589
-0.28666905 -0.15901163 0.29679534 0.0025789004 -0.17899083 0.06786562 0.1950623 0.2777768
-0.49384585 -0.25080594 -0.33604276 -0.7017991 -0.09915008 -0.7850014 -0.04620843 -0.68003637
0.03228752 0.13520716 0.31193537 0.3 -0.076072544 -0.2186456 0.06510096 0.13319471
0.15324768 -0.0590354 0.04017263 -0.1802275 0.13116646 -0.46481958 -0.32918105 0.214947
00000000: 6b00 b9be 34d5 bcbe 543c 253e c05f 803e
00000010: cc98 a5bd 64cc f1be 89ad f6bd a5d2 023e
00000020: a607 ce3d ebe5 c3bd 4124 adbc 3b01 48be
00000030: 1338 11bf f588 04bd 862a 8a3d 82f4 8fbd
00000040: 1f3f 843d 01d1 893e c340 74be baef 7e3e
00000050: 326c 1cbe 3538 a43d c59c c83e 1de9 17be
00000060: 9f51 d83d 2340 ad3d 63f0 f8bd 317e c03d
00000070: 7537 6d3c 05a4 c8bd b37f bb3e 371b 05be
00000080: 4627 0a3e 77c3 8b3e 4ba9 4dbf d18f 803e
00000090: db75 fa3e 7023 dfbd 58a2 1e3e 3f5a bcbe
000000a0: 9609 cfbd 6258 dbbe 317e 2e3e a6cd f7be
000000b0: e086 7cbd b1c0 dbbc bc13 ab3d d160 56bd
000000c0: 7f21 8dbe 1ea0 e33e 6e69 793e 30fb b9bc
000000d0: 8feb 20be 6704 27be a27e 173e 9ee7 2bbc
000000e0: adec 4ebd 877e 023f 9a2c a4be 08c4 03bf
000000f0: 032e a03e c321 cd3d 3e3d 893c 5741 c03d
00000100: 1c51 dd3d 25b7 92bc 47cf 73bd 191a 0c3f
00000110: cf11 cfbd 49a5 333e a618 083e c355 db3e
00000120: 358a 483e 3b05 0dbf 11ca 80bc 7afe 6cbe
00000130: 16a2 173e 4681 093f fe13 c8bd 1444 c8be
00000140: 5490 a93e e1b7 413e 127d 71be 5654 893e
00000150: 42aa 4a3e 4184 a8be 8c8b dcbe 38f9 df3b
00000160: 84d0 6bbe 65cc ae3d 889e f3bd fe5b 153e
00000170: 7293 44be 9510 993d 8f35 823e 9f0b ffbe
00000180: f3da 6c3e 5ecb b33e e0ef 003d 12a2 d9bd
00000190: db49 0f3d d482 143e 24d7 983d 4493 22be
000001a0: a76e 423e 874c 1a3d a361 c1bc d13e 12be
000001b0: ce9a 1ebe 486b c4bd 228c c23e e8c9 62be
000001c0: 3d78 a9bd c129 cc3e ce01 8b3e f649 f8be
000001d0: 6188 83bc 0653 e4bc e8a2 9ebd f9e8 87be
000001e0: 3ea2 5e3e 970d ddbe 7149 34bd b49a babd
000001f0: b596 353e cc7a dbbc e50c 883d b39d 733e
00000200: 6135 a8bd 53eb babd 5d3e b1ba e8f4 b13d
00000210: a0ff 153e 231b e63e c688 873e 0b4c 02bf
00000220: 30be 58bc e626 04be 969b 30be ee83 0d3d
00000230: 5f84 703e 060c 9b3e ca6d 0d3e eb28 be3e
00000240: ca76 74bb 71fd 923a b87b de3e 449a 2d3e
00000250: d115 c3bd b34b c03d f2e5 053e c39c edbe
00000260: 371a 5d3e 32d9 bd3c 6937 843e e943 48bd
00000270: f295 34be d57a 913d d5a5 e23e e710 e2be
00000280: a064 b53d 19d8 c53e e1e2 b6bd 055f 21be
00000290: d770 dfbd 651c c53e a068 e8be 4690 83be
000002a0: 4c8a 5ebd aa94 04be a18a 46bd 01d2 62be
000002b0: a782 80be ff2a ac3c c95f b53d 6067 023e
000002c0: ebcf 943c dc8e 4bbe c7bc 0abe 66e5 323e
000002d0: 8f4c e93d 66f8 36bd 27b9 073e 6e05 2ebe
000002e0: a311 49be 0373 353d 01c2 023e 4ea2 893e
000002f0: cae7 923b 6f48 8e3e a9f1 a2be 9b57 cd3d
00000300: 0ad3 083f 879e 55bf 7b2f a7be 5adc 50be
00000310: 2772 e5bc 536c 903e 515b 123e 30fd bdbd
00000320: 0bc1 84be 8b75 2fbe b948 a93e 1524 223e
00000330: 99a6 84be 9bed a1be 04aa 0c3f fd28 4fbf
00000340: 39ad acbe 68ac c33e bf27 363d f162 40be
00000350: cfeb 893d 86f1 51bd 6f66 3f3d 5043 febd
00000360: 963c d03e ea0b d4be 108a 883e d82f 85bd
00000370: 2e1a 0c3f be1a 1a3e ad09 7c3d 02fa 4b3e
00000380: 49c6 92be f2d3 22be 8ff5 973e c502 293b
00000390: 5f49 37be 21fd 8a3d 69be 473e c338 8e3e
000003a0: 5dd9 fcbe a369 80be cc0d acbe 1ba9 33bf
000003b0: 320f cbbd daf5 48bf 0d45 3dbd dd16 2ebf
000003c0: eb3f 043d bf73 0a3e feb5 9f3e 9a99 993e
000003d0: eccb 9bbd a2e4 5fbe a753 853d 3264 083e
000003e0: f6ec 1c3e 1bcf 71bd 0e8c 243d 8f8d 38be
000003f0: 8050 063e d5fc edbe 6b8a a8be 111b 5c3e

raise_dim.0.attention3.3.bias f4 [32]
-0.0009885614 0.05222726 0.059842378 -0.032093506 0.005426761 -0.0028792673 0.046274234 0.032803986
-0.028745878 0.02082423 0.02922105 0.016336842 -0.018796874 -0.03762056 -0.038618356 0.08252628
0.051501192 -0.038754545 0.05440902 0.007316149 0.02410028 -0.020850142 0.05789824 -0.0069988207
-0.10805916 -0.01993882 -0.004614712 -0.02790986 -0.007345984 -0.029688152 -0.07956828 -0.029369088
00000000: 9e92 81ba 40ec 553d 481d 753d 7b74 03bd
00000010: f9d2 b13b 17b2 3cbb 0d8a 3d3d 795d 063d
00000020: 7a7c ebbc 9397 aa3c fc60 ef3c d7d4 853c
00000030: e7fb 99bc 0418 1abd 482e 1ebd 8a03 a93d
00000040: eaf2 523d 16bd 1ebd fedb 5e3d 4ebc ef3b
00000050: f36d c53c ebcd aabc b426 6d3d 5d56 e5bb
00000060: 1f4e ddbd bc56 a3bc 0337 97bb 38a3 e4bc
00000070: 95b6 f0bb 9134 f3bc b2f4 a2bd 7197 f0bc

layers.0.conv1.weight f4 [32, 32, 3, 3]
0.2466224 -0.091725744 -0.0039144037 -0.017307807 -0.27081186 0.06866423 0.04114931 -0.30173248
0.09780696 -0.022356566 -0.04924835 0.016373359 -0.08240986 -0.059496596 0.020013412 -0.08286312
-0.071790285 -0.02178081 0.20735288 0.17498861 0.2031432 0.12959096 0.10490058 0.1121417
0.14882626 0.1206792 0.018220143 -0.01916818 -0.004257571 0.18939248 -0.11265502 0.26061016
0.15798856 -0.10895796 0.073515184 0.105053015 -0.024635844 -0.115803055 -0.06900163 -0.078756966
0.017640388 -0.07468103 -0.04988347 -0.037355345 -0.106864594 -0.06114793 0.00923326 0.004757834
0.0011066749 0.016933784 -0.02408004 -0.0041293693 -0.07373045 0.036434714 0.013129071 -0.20466574
-0.22536854 -0.17201778 -0.21268255 -0.21500452 -0.18996757 -0.16980241 -0.29635695 -0.06987864
-0.17337568 -0.050968092 -0.09191775 -0.035818446 -0.094681494 -0.07508023 -0.07154677 -0.05923402
-0.02654903 -0.13490365 -0.08591414 -0.06673279 -0.061747335 -0.06880336 -0.08813659 -0.06313574
-0.08210212 0.00050171174 0.07106643 0.07707 0.023716774 -0.038858708 -0.002780568 0.023945441
0.040644266 -0.0010394375 0.06120584 0.12819315 0.10233061 0.08480242 0.02451357 0.118927345
-0.05255951 0.04112308 -0.0018925588 -0.02298316 0.037464555 0.060394157 -0.041095752 0.014941901
0.042976085 -0.09613902 0.0037834798 -0.12402062 -0.07839572 -0.023078287 -0.101845354 -0.14897987
-0.17331457 -0.09716753 -0.14997405 -0.09927922 -0.08874248 0.07522521 -0.09759346 -0.083746456
0.045381837 -0.0836433 0.041561384 0.05999258 0.0025783957 -0.018288922 0.1197543 0.20431596
0.19219066 0.052739903 0.2154816 0.16402686 0.028960641 0.07599655 0.11207488 0.0032477016
0.033219274 0.018050497 -0.07416412 -0.0029353618 -0.060457498 -0.019157017 -0.05414455 0.0066705043
-0.0037337102 -0.048820827 -0.083222985 0.01783253 -0.022535626 -0.016873581 -0.024584858 -0.009754945
-0.04176646 -0.014633441 0.03431819 0.08123534 -0.027424606 -0.014200681 -0.009380442 -0.13424611
-0.013506755 -0.019062875 0.1289877 0.14231119 0.10525984 0.04527017 0.16336381 0.010157829
-0.0010402924 -0.04921002 0.0028543118 0.0023531504 -0.024611017 0.010395724 0.13025865 -0.021264898
0.039357334 0.18451673 0.10182615 0.09888096 0.041356955 0.074146844 0.013451786 -0.040116936
0.078071624 0.039724287 -0.06831919 -0.04792674 -0.043955643 0.014358831 0.014364803 -0.008275233
0.015493149 -0.069453366 0.06667042 0.02551789 0.0038035777 0.03641954 0.010616255 -0.06176608
0.04604337 -0.062723346 -0.02201941 -0.017698431 0.014601437 0.055552088 -0.11678025 0.13320425
0.02969323 0.11606675 0.026634792 0.053769186 0.013751782 0.073350884 0.06839457 0.10015042
-0.13732482 -0.053575132 0.3341785 -0.03754351 -0.22011349 0.025265928 -0.016490337 -0.16877538
0.23634817 0.080287464 0.024890838 -0.0100021735 0.02732548 -0.05083058 0.059312675 -0.024450263
0.0017497984 0.03202052 0.008168954 0.022361927 0.2448626 -0.014647221 -0.11170223 0.037314866
0.08159681 -0.01918052 0.029734086 0.030216545 0.02017074 0.05680748 0.07190092 -0.012080145
0.105064355 0.021613281 0.051573772 0.108009 -0.23325637 -0.36556432 -0.4945801 -0.04028478
00000000: 958a 7c3e b5da bbbd 6644 80bb 1ac9 8dbc
00000010: daa7 8abe d59f 8c3d 2e8c 283d ae7c 9abe
00000020: 044f c83d 1e25 b7bc a3b8 49bd 6c21 863c
00000030: 80c6 a8bd b4b2 73bd 2bf3 a33c 24b4 a9bd
00000040: c906 93bd ab6d b2bc 5054 543e 3730 333e
00000050: c504 503e 7eb3 043e 1ed6 d63d 8caa e53d
00000060: e965 183e a826 f73d 6942 953c 9606 9dbc
00000070: 1883 8bbb 1af0 413e adb7 e6bd b26e 853e
00000080: c1c7 213e 5a25 dfbd 218f 963d 0926 d73d
00000090: 1cd1 c9bc 272a edbd ba50 8dbd 554b a1bd
000000a0: 9382 903c 5ef2 98bd 9c52 4cbd eb01 19bd
000000b0: d3db dabd 4076 7abd 1947 173c 9be7 9b3b
000000c0: d90d 913a b8b8 8a3c 8143 c5bc a94f 87bb
000000d0: fdff 96bd 913c 153d 511b 573c e593 51be
000000e0: 03c7 66be 6e25 30be 74c9 59be 252a 5cbe
000000f0: dc86 42be afe0 2dbe 19bc 97be 881c 8fbd
00000100: 6589 31be ebc3 50bd 603f bcbd 5db6 12bd
00000110: 5fe8 c1bd aac3 99bd 1d87 92bd 5f9f 72bd
00000120: 5a7d d9bc 2f24 0abe c1f3 afbd 33ab 88bd
00000130: c6ea 7cbd c7e8 8cbd f580 b4bd 504d 81bd
00000140: 2825 a8bd 4e85 033a 478b 913d e0d6 9d3d
00000150: ae49 c23c 4f2a 1fbd 313a 36bb 3b29 c43c
00000160: 9a7a 263d bc3d 88ba fab2 7a3d 1145 033e
00000170: b692 d13d e4ac ad3d afd0 c83c 2e90 f33d
00000180: a448 57bd ad70 283d bc0f f8ba 2e47 bcbc
00000190: 6f74 193d dd5f 773d 0554 28bd e0ce 743c
000001a0: b107 303d 89e4 c4bd 42f4 773b 86fe fdbd
000001b0: ef8d a0bd ad0e bdbc 4c94 d0bd 2e8e 18be
000001c0: 6079 31be c5ff c6bd cc92 19be e752 cbbd
000001d0: 9ebe b5bd ad0f 9a3d 14df c7bd 4383 abbd
000001e0: 4ee2 393d 2e4d abbd 453c 2a3d c8ba 753d
000001f0: 4dfa 283b a6d2 95bc be41 f53d 3438 513e
00000200: a1cd 443e cc05 583d 35a7 5c3e a8f6 273e
00000210: de3e ed3c 14a4 9b3d 8487 e53d 64d7 543b
00000220: ef10 083d a3de 933c 5ce3 97bd 335f 40bb
00000230: 48a2 77bd 2def 9cbc adc6 5dbd 3f94 da3b
00000240: 43b1 74bb 59f8 47bd d070 aabd 8715 923c
00000250: a29c b8bc 773a 8abc 2f66 c9bc 34d3 1fbc
00000260: 4f13 2bbd 1ac1 6fbc 3b91 0c3d b75e a63d
00000270: 91a9 e0bc f9a9 68bc 6db0 19bc d077 09be
00000280: 704b 5dbc bf29 9cbc 5a15 043e 06ba 113e
00000290: 7992 d73d 376d 393d d848 273e 066d 263c
000002a0: 6c5a 88ba 7290 49bd 680f 3b3b 5037 1a3b
000002b0: 0b9d c9bc d452 2a3c 8662 053e b933 aebc
000002c0: 2835 213d f4f1 3c3e 3b8a d03d 1a82 ca3d
000002d0: e965 293d 4dda 973d e164 5c3c a851 24bd
000002e0: 04e4 9f3d efb5 223d eeea 8bbd d44e 44bd
000002f0: d50a 34bd 4d41 6b3c 5a5a 6b3c d894 07bc
00000300: fad6 7d3c 913d 8ebd 808a 883d e50a d13c
00000310: 7245 793b a82c 153d cdef 2d3c 6efe 7cbd
00000320: f997 3c3d 1975 80bd 0d62 b4bc 4dfc 90bc
00000330: de3a 6f3c 968a 633d 7c2a efbd b266 083e
00000340: 373f f33c 67b4 ed3d 3531 da3c 143d 5c3d
00000350: 274f 613c fd38 963d 7412 8c3d aa1b cd3d
00000360: e19e 0cbe 9971 5bbd 7219 ab3e 39c7 19bd
00000370: 6e65 61be 7efa ce3c be16 87bc 74d3 2cbe
00000380: 4105 723e c16d a43d dfe7 cb3c 28e0 23bc
00000390: afd9 df3c ba33 50bd d9f1 723d eb4b c8bc
000003a0: 7e59 e53a f327 033d 14d7 053c 5c30 b73c
000003b0: 43bd 7a3e e6fa 6fbc 24c4 e4bd 79d7 183d
000003c0: 3a1c a73d 7720 9dbc e694 f33c b088 f73c
000003d0: 1c3d a53c f6ae 683d ca40 933d cdeb 45bc
000003e0: fb2b d73d 560e b13c 053f 533d d333 dd3d
000003f0: c2da 6ebe 3f2b bbbe 9a39 fdbe a701 25bd

layers.0.conv1.attention1.0.weight f4 [9, 32, 3, 3]
0.48321047 -0.2317577 0.017699523 -0.07832264 0.23385069 0.10940374 -0.1981195 0.21649836
0.2622149 0.10049694 0.25464746 0.15070893 0.03478845 -0.07942282 0.042227674 -0.011635178
0.12363642 0.12616189 0.3547075 0.13410363 0.07857964 0.1881444 0.08167317 -0.2776219
-0.1045375 -0.24348737 -0.2378036 0.14197567 0.07767876 0.18052725 0.07066307 -0.21572894
0.021943951 0.14123087 -0.12173574 0.018852416 -0.015256066 0.18629275 -0.05151858 0.048676427
0.33271158 0.107027866 -0.03015552 -0.18978244 -0.2401785 0.12234815 -0.11697252 0.08571236
-0.00020026279 -0.055139013 0.14255539 0.0169615 -0.027515355 -0.08973573 -0.10972667 0.007963945
0.20853847 -0.131825 -0.16970897 0.29512742 -0.33789867 -0.09769038 0.24848549 -0.020970387
0.2656674 0.047977764 0.06155807 -0.18391028 -0.056645013 -0.14656045 -0.21373034 -0.3054014
0.31766954 0.068891674 -0.07799786 0.107102476 0.061529502 -0.23884962 0.20446527 0.1976109
0.21091041 -0.27216005 -0.3472041 -0.3726687 0.051563796 0.07545232 0.04130705 -0.118884385
0.014464339 -0.124918975 0.080877095 0.141266 0.12874644 0.18082212 0.26194057 0.3003237
0.082113855 -0.07530371 0.09876887 -0.20109911 0.16671664 -0.08131975 -0.11968072 0.02438212
-0.050348684 -0.09470678 -0.13342987 -0.17657326 0.16897446 0.1050008 0.061640676 0.24817777
0.12082768 0.09936511 0.08104219 0.08993281 0.22104152 -0.06111392 0.09508205 0.23185341
0.0635371 -0.07600225 0.12760416 0.34577343 0.10254166 0.21622722 0.060547993 0.05256164
-0.087295555 0.11291562 0.081552394 -0.11621941 0.08245692 -0.03813203 -0.03550611 -0.13444304
-0.17778946 0.030338483 -0.01026666 0.040211968 0.17176685 -0.19632234 -0.14538077 -0.11214356
0.031938884 -0.041901413 0.04990376 0.5148847 0.031428367 -0.0149082 0.22236478 0.083857305
0.14030673 -0.06309702 0.15291238 -0.09165954 -0.03527643 -0.07020528 -0.20547287 -0.2376176
-0.15791067 -0.36789206 -0.13898422 -0.038070112 -0.22542211 -0.030911952 0.19126214 0.06475309
-0.3537276 -0.102469705 -0.2337408 0.073747516 -0.020002851 0.050582457 -0.10984398 -0.12934941
0.054347333 0.024982708 0.06776168 -0.07029425 -0.04066864 0.015950572 -0.23365083 0.14910725
0.20975995 -0.12515523 -0.05154239 0.043437183 -0.12182752 0.34502873 0.045248903 0.17283724
0.13190354 0.018996863 0.09484939 -0.04345518 0.026605202 0.06813071 -0.1560289 0.024685614
-0.0872622 -0.1343739 0.16692385 0.08400202 0.048225403 -0.04411911 -0.16163354 0.1912605
0.0965542 0.27885675 -0.0068676244 0.15006171 -0.05338917 -0.03779694 0.06583083 0.1826763
0.39804807 0.32010105 0.47801626 0.02278337 0.030469105 0.24019912 -0.05912553 0.06775422
0.17676087 0.12204613 -0.03880013 0.0023550421 0.13852757 0.02650837 0.13936377 0.15454355
0.20319751 0.17094018 0.052232727 0.38328928 0.35998222 0.04331745 -0.0022538325 0.17413369
0.25186828 0.16632184 0.16526681 0.08168202 0.14235346 -0.037527427 -0.0030880752 0.047450442
0.153509 0.096435055 0.076638676 0.10277332 0.057097092 -0.024781434 0.049118623 -0.087793685
00000000: 5d67 f73e e451 6dbe 97fe 903c 9f67 a0bd
00000010: 8e76 6f3e 110f e03d d7df 4abe bfb1 5d3e
00000020: 0841 863e 57d1 cd3d 2761 823e 7153 1a3e
00000030: 557e 0e3d 6ea8 a2bd edf6 2c3d 79a1 3ebc
00000040: 1735 fd3d 9530 013e 399c b53e 7652 093e
00000050: 5dee a03d eda8 403e 4344 a73d 7524 8ebe
00000060: c217 d6bd c154 79be c982 73be 1262 113e
00000070: 0b16 9f3d 23dc 383e cdb7 903d 0ce8 5cbe
00000080: cdc3 b33c d39e 103e 9650 f9bd 6270 9a3c
00000090: 94f4 79bc 87c3 3e3e 2605 53bd ef60 473d
000000a0: 2c59 aa3e 6d31 db3d b608 f7bc 5456 42be
000000b0: 5af1 75be ab91 fa3d 4a8f efbd f689 af3d
000000c0: a2fd 51b9 72d9 61bd 0afa 113e d8f2 8a3c
000000d0: e267 e1bc 5ec7 b7bd 60b8 e0bd 357b 023c
000000e0: 1c8b 553e 22fd 06be 30c8 2dbe f11a 973e
000000f0: 0e01 adbe e511 c8bd fb72 7e3e 17ca abbc
00000100: 8f05 883e 5584 443d 5124 7c3d fa52 3cbe
00000110: 9a04 68bd f113 16be 20dc 5abe 935d 9cbe
00000120: 95a5 a23e 1417 8d3d 58bd 9fbd 8b58 db3d
00000130: 5c06 7c3d ff94 74be 585f 513e 835a 4a3e
00000140: e6f8 573e 9058 8bbe bcc4 b1be 6fce bebe
00000150: 8f34 533d bf86 9a3d 9531 293d a879 f3bd
00000160: d6fb 6c3c 85d5 ffbd e4a2 a53d 09a8 103e
00000170: 1bd6 033e 6f29 393e 131d 863e 07c4 993e
00000180: 4f2b a83d d538 9abd 5547 ca3d edec 4dbe
00000190: c4b7 2a3e f88a a6bd 2a1b f5bd 03bd c73c
000001a0: 6c3a 4ebd a1f5 c1bd d7a1 08be 9fcf 34be
000001b0: a407 2d3e a90a d73d ef7a 7c3d 5022 7e3e
000001c0: 8174 f73d ef7f cb3d 73f9 a53d b12e b83d
000001d0: b558 623e 9752 7abd 61ba c23d fb6a 6d3e
000001e0: bd1f 823d 11a7 9bbd aaaa 023e 3709 b13e
000001f0: 5d01 d23d ab6a 5d3e 2c01 783d e04a 573d
00000200: 03c8 b2bd 4e40 e73d f104 a73d 7104 eebd
00000210: 2cdf a83d 5530 1cbd db6e 11bd 70ab 09be
00000220: 710e 36be 6988 f83c 7e35 28bc 4eb5 243d
00000230: a6e3 2f3e b908 49be b2de 14be 86ab e5bd
00000240: 59d2 023d d1a0 2bbd e367 4c3d 7ccf 033f
00000250: 08bb 003d 8641 74bc 98b3 633e 61bd ab3d
00000260: 91ac 0f3e 0339 81bd 1095 1c3e ffb7 bbbd
00000270: 057e 10bd c9c7 8fbd 7b67 52be 0752 73be
00000280: 56b3 21be 595c bcbe e151 0ebe 68ef 1bbd
00000290: 0ed5 66be 103b fdbc 39da 433e 459d 843d
000002a0: c91b b5be a3db d1bd c059 6fbe f008 973d
000002b0: 05dd a3bc 8d2f 4f3d e1f5 e0bd 2c74 04be
000002c0: 4f9b 5e3d 89a8 cc3c a3c6 8a3d 6ff6 8fbd
000002d0: 2994 26bd c6aa 823c 2a42 6fbe 92af 183e
000002e0: 50cb 563e b128 00be 1d1e 53bd 30eb 313d
000002f0: b580 f9bd 9ba7 b03e ea56 393d 3ffc 303e
00000300: b911 073e 4f9f 9b3c 6640 c23d 0ffe 31bd
00000310: 27f3 d93c 1d88 8b3d 0ac6 1fbe 7c39 ca3c
00000320: 86b6 b2bd 5099 09be 16ee 2a3e 4009 ac3d
00000330: 0088 453d 3db6 34bd 4383 25be cbd9 433e
00000340: 35be c53d 50c6 8e3e cf09 e1bb c7a9 193e
00000350: 9aae 5abd f7d0 1abd 50d2 863d 7f0f 3b3e
00000360: f5cc cb3e 49e4 a33e 8cbe f43e 31a4 ba3c
00000370: 589a f93c c2f6 753e 9d2d 72bd b9c2 8a3d
00000380: cd00 353e 52f3 f93d e3ec 1ebd 0d57 1a3b
00000390: 2cda 0d3e 1528 d93c 60b5 0e3e aa40 1e3e
000003a0: 0213 503e f10a 2f3e fcf1 553d 7e3e c43e
000003b0: 974f b83e a36d 313d 09b5 13bb 1a50 323e
000003c0: e1f4 803e 4650 2a3e b43b 293e e748 a73d
000003d0: 1bc5 113e 5cb6 19bd 4e61 4abb 655b 423d
000003e0: 7731 1d3e be7f c53d bdf4 9c3d d27a d23d
000003f0: a4de 693d 6f02 cbbc 9c30 493d 2dcd b3bd

layers.0.conv1.attention1.0.bias f4 [9]
0.12154024 0.10024575 0.07118014 -0.17047806 0.12748717 0.18048055 0.15928774 0.08085787
0.16351578
00000000: 17ea f83d a54d cd3d e5c6 913d cd91 2ebe
00000010: ff8b 023e e5cf 383e 531c 233e d098 a53d
00000020: ae70 273e

layers.0.conv1.attention1.2.weight f4 [9, 9, 1, 1]
0.6815212 0.3068181 -0.086238615 -0.2346739 0.7462578 0.34975794 0.5915172 -0.4568944
0.6137311 0.21466352 0.2248626 0.48074615 -0.090426505 -0.38914964 0.76696473 0.052830424
-0.34429625 0.80745095 1.5797757 0.6934395 0.83790874 0.13831456 -0.4753187 -0.15768372
-0.054072775 0.60889864 0.6945123 0.22646654 -0.8105941 1.4061749 -0.2191065 -0.07915399
-0.27689967 -0.28945014 0.2320573 -0.49766254 -0.24314018 -0.1478491 0.5193619 -0.15006079
0.319925 0.765198 0.36696604 -0.5305998 -0.71301943 0.24948537 0.24719627 -0.14184985
-0.7105742 0.43216512 -0.008310913 0.1673464 -0.52277404 0.19222134 0.4880517 1.7019771
0.019167168 0.34614342 0.07285126 -0.17104691 -0.6768605 1.2319628 0.5707754 0.26609242
-0.2723323 -0.25144014 0.51427865 -0.01028963 -0.4043706 0.504761 -0.09581909 -0.3530188
0.07897015 0.40407145 0.41886282 0.5999887 0.24340731 -0.6925027 -0.1823133 0.43759698
-0.6910651
00000000: 2c78 2e3f 4317 9d3e df9d b0bd 5b4e 70be
00000010: c00a 3f3f 7913 b33e ac6d 173f 10ee e9be
00000020: 7b1d 1d3f c1d0 5b3e 6242 663e 5c24 f63e
00000030: 8831 b9bd 9f3e c7be cd57 443f b764 583d
00000040: 9947 b0be 1bb5 4e3f 1736 ca3f 4085 313f
00000050: 3081 563f 55a2 0d3e f95c f3be d777 21be
00000060: 6a7b 5dbd c8e0 1b3f 8fcb 313f d8e6 673e
00000070: 1883 4fbf 8afd b33f 745d 60be 7d1b a2bd
00000080: cbc5 8dbe cf32 94be 6ea0 6d3e a0cd febe
00000090: bdf9 78be c165 17be e7f4 043f 89a9 19be
000000a0: 36cd a33e 04e4 433f f9e2 bb3e 63d5 07bf
000000b0: 7188 36bf 1879 7f3e 0521 7d3e 1641 11be
000000c0: 31e8 35bf bf44 dd3e 7f2a 08bc db5c 2b3e
000000d0: 85d4 05bf acd5 443e eae1 f93e 63da d93f
000000e0: 7704 9d3c b639 b13e 0b33 953d ec26 2fbe
000000f0: bb46 2dbf f5b0 9d3f 561e 123f 443d 883e
00000100: 246f 8bbe c3bc 80be c4a7 033f d695 28bc
00000110: aa09 cfbe 0438 013f cd3c c4bd e1be b4be
00000120: 1abb a13d 74e2 ce3e 3075 d63e dc98 193f
00000130: c43f 793e db47 31bf 56b0 3abe b60c e03e
00000140: a4e9 30bf

layers.0.conv1.attention1.2.bias f4 [9]
0.30978584 0.15129618 0.16905724 -0.03358514 0.14910346 0.20294443 0.009605467 -0.06115791
0.2075569
00000000: 409c 9e3e 63ed 1a3e 571d 2d3e 9290 09bd
00000010: 94ae 183e aad0 4f3e 4060 1d3c b780 7abd
00000020: cc89 543e

layers.0.conv1.attention1.4.weight f4 [9, 9, 1, 1]
0.0724133 -1.4668894 0.4403578 0.55892915 -0.28919423 -0.1491448 0.5376192 0.46509537
0.35046032 0.28906336 0.1291711 0.8473009 0.085616186 -0.16521002 -0.2981658 -0.082101926
1.0376748 0.3512557 0.08053358 -0.30396253 0.1146705 0.9166119 -0.2993658 1.0179161
0.08072902 0.04170831 -0.54508954 -0.31073332 -0.07474509 0.71795905 -0.8315536 -0.3406751
-0.21871802 0.22585593 -0.17469375 0.4453233 1.0406917 0.82591397 1.6521709 -0.009411299
0.80109304 0.43855235 1.0644256 0.2728332 0.818373 -0.46873447 0.48433763 0.1486219
0.941544 0.071598075 -0.21453054 0.43140745 0.21451557 0.45702994 0.08226046 -0.6926104
0.004727068 -0.58465374 -1.4064637 0.37230673 -0.6712797 -0.67856187 -0.5072971 -0.12052528
-0.597127 0.37257358 -0.6621331 -0.14544953 -0.46820992 0.7887545 0.9102443 0.62516886
-0.19562931 -0.14543319 -0.18951707 -0.10080586 0.30405816 -1.2783797 -0.12011426 0.818026
-0.07246452
00000000: 6d4d 943d 08c3 bbbf 9476 e13e fb15 0f3f
00000010: 4411 94be 6ab9 18be 69a1 093f fb20 ee3e
00000020: 896f b33e 1d00 943e 6e45 043e b6e8 583f
00000030: 8a57 af3d d12c 29be 30a9 98be 0e25 a8bd
00000040: 87d2 843f cad7 b33e caee a43d faa0 9bbe
00000050: 5ed8 ea3d 14a7 6a3f 7946 99be 134b 823f
00000060: 4255 a53d 55d6 2a3d fd8a 0bbf 7018 9fbe
00000070: f413 99bd 2acc 373f b2e0 54bf f76c aebe
00000080: 9ef7 5fbe c746 673e ebe2 32be 6a01 e43e
00000090: 6335 853f 196f 533f 567a d33f d931 1abc
000000a0: 6f14 4d3f ef89 e03e 193f 883f cbb0 8b3e
000000b0: e580 513f f7fd efbe 1afb f73e 5730 183e
000000c0: 0709 713f 03a2 923d e5ad 5bbe 70e1 dc3e
000000d0: f8a9 5b3e d4ff e93e 2c78 a83d ea4e 31bf
000000e0: 85e5 9a3b deab 15bf 0107 b4bf fd9e be3e
000000f0: fdd8 2bbf 3bb6 2dbf 39de 01bf f5d5 f6bd
00000100: 51dd 18bf f7c1 be3e 8e81 29bf b9f0 14be
00000110: 36b9 efbe d1eb 493f c505 693f 110b 203f
00000120: 0d53 48be 70ec 14be c310 42be 4d73 cebd
00000130: 83ad 9b3e f2a1 a3bf 77fe f5bd 276a 513f
00000140: 4768 94bd

layers.0.conv1.attention1.4.bias f4 [9]
-0.064464144 -0.08540832 -0.010399993 -0.038955025 0.6599468 -0.023242066 -0.10334366 -0.20857468
-0.17186025
00000000: c705 84bd 8fea aebd bb64 2abc 4e8f 1fbd
00000010: 46f2 283f 2566 bebc d7a5 d3bd 9a94 55be
00000020: 22fc 2fbe
