weights/BWNET_LAGConv_T3/model_epoch_540.pth (torch, 678374 bytes, 141 tensors)

raise_dim.0.weight f4 [32, 9, 3, 3]
000000 39 41 22 be ae 3c 23 3e 94 58 37 be 87 8a 30 be
       -0.15845193 0.15941116 -0.17904884 -0.17240344
000010 6a f7 24 3e 64 6e f1 bd 56 42 90 bd 85 c1 1f 3e
       0.16110006 -0.117886335 -0.070439026 0.15601166
000020 7a f3 59 3e 64 bf 18 be d8 f2 c0 bd 20 77 df bd
       0.21284285 -0.1491676 -0.09421319 -0.10911393
000030 a9 c7 ac 3c 8a d6 6b bd 33 b4 1a be 81 ff 2a be
       0.0210913 -0.057577647 -0.15107803 -0.1669903
000040 ed 1a e6 bd 06 0b 0e 3d 4f 08 f1 bd 53 9a 35 be
       -0.112356044 0.03467848 -0.11769163 -0.17734651
000050 32 6c bd bd 17 8e cf 3c ee 19 af bd 93 19 dc bc
       -0.09249152 0.025336308 -0.085498676 -0.026867663
000060 f3 45 c6 3a bc e9 f7 3d e5 f0 36 bd 37 94 97 3c
       0.0015127048 0.12105128 -0.04466333 0.018503292
000070 d4 89 f2 bd 22 80 96 bd e3 1b be bd d2 b8 36 bd
       -0.11842695 -0.07348658 -0.09282663 -0.044609852
000080 ad 69 0d bd 66 ee fd bd 65 4c 1a 3d 32 6c 98 3c
       -0.03452461 -0.123989865 0.03767051 0.018606279
000090 57 18 22 be ff bc 31 be ec bd 8e be d5 0c 15 be
       -0.15829597 -0.17357253 -0.27879274 -0.14555676
0000a0 40 c4 d6 bd 4d 91 31 bd 95 a1 32 be cd d3 02 be
       -0.104866505 -0.04335146 -0.17444451 -0.12776108
0000b0 47 fb f9 bd 5d 8b c2 3d df f2 59 bc 24 53 95 3b
       -0.122061305 0.09499238 -0.013302534 0.0045570303
0000c0 31 07 cd bc 43 ea 6c 3e ad bd 42 3e 5b 39 31 be
       -0.025027843 0.23136239 0.19017668 -0.17307036
0000d0 a2 ae 08 3e 27 17 1b 3e a6 1a de 3a 24 60 7d bc
       0.13347867 0.1514555 0.0016945198 -0.015464816
0000e0 0d a3 9e bd 35 e1 96 be fd 06 05 3c ce 97 73 3d
       -0.07745943 -0.29468694 0.008119342 0.059470944
0000f0 15 e1 ea bd 14 db 43 bd c2 9e 48 bd 64 3d 7c be
       -0.11468712 -0.04781635 -0.04897953 -0.24632794
000100 0c 58 8f ba 8f d8 fa bd 81 45 ae be b8 cd d6 bd
       -0.0010936274 -0.122483365 -0.34037402 -0.104884565
000110 95 e5 96 bd 9f ce d8 bd 11 f3 1c be 35 6e 7d be
       -0.07368008 -0.10586285 -0.15327097 -0.24749072
000120 45 25 c9 bd 86 6d 14 3e a0 c1 a3 3d 5e d3 80 be
       -0.09821562 0.14494905 0.079959154 -0.2516126
000130 a4 f3 4e bd 17 84 01 3d 7d b7 fa 3c ad 9e d0 bb
       -0.050525323 0.03162011 0.030605072 -0.006366572
000140 52 07 58 bd 0c 5f ea bd e3 6f 0f be 30 69 6a 3d
       -0.052741356 -0.1144391 -0.14007525 0.05722922
000150 3d ab a9 3d 9e 88 13 be 36 86 36 bd 2e 64 58 bd
       0.08284614 -0.14407584 -0.044561587 -0.052829914
000160 14 1b 28 3d 90 32 97 bd 48 3a 0d 3e 9f 3e f7 bd
       0.04104145 -0.07382691 0.13791764 -0.12072491
000170 a9 f5 95 3d 3e c5 bb bd b2 80 43 bd a7 c3 65 bb
       0.073222466 -0.0916848 -0.047730155 -0.0035059245
000180 ad eb 78 3d d2 32 05 be dd 46 30 bd 9e 97 a9 3c
       0.060771633 -0.13007668 -0.04303633 0.02070218
000190 36 5a 07 3d 52 ce 92 bd 61 64 38 37 bf f9 e3 bd
       0.033045016 -0.07168259 1.0990626e-05 -0.1113162
0001a0 68 1c ed bd 99 f4 03 bb d1 85 35 bd 4e 0d e8 3d
       -0.11577684 -0.0020134805 -0.04431707 0.11330663
0001b0 98 39 e1 3c 59 a4 63 bc a1 76 22 3d 08 ed 10 be
       0.027493283 -0.013894164 0.039663915 -0.1415292
0001c0 92 b3 35 be 7d 73 02 3d 7a 5b c8 3b ce fb 81 bd
       -0.17744282 0.03184842 0.0061144205 -0.06346856
0001d0 39 dd 40 3e 22 0b 82 3d 32 35 ea bd c2 3f 28 3e
       0.1883439 0.0634978 -0.114359275 0.16430572
0001e0 b0 f3 d6 3d a6 a6 c4 3d cd da 16 3e cb 78 b2 3d
       0.104956985 0.09602098 0.14731903 0.08714446
0001f0 10 a9 66 3c 75 3e 7e 3e 6b 0e 2b 3d 7d 83 2e 3d
       0.014078394 0.24828513 0.041761797 0.042605866
000200 43 a0 2e 3e 84 88 ed 3c f9 3a 56 bc 7e e1 54 3e
       0.17053322 0.02899576 -0.013075584 0.20789143
000210 ae 12 54 3e 8b 0d 2b 3d f5 86 45 3e 35 4f d2 bc
       0.2071025 0.041760962 0.19289763 -0.025672534
000220 8d df 5c bd 77 7f 38 bd 93 ca 01 3a be 31 48 3c
       -0.053924132 -0.045043435 0.00049511454 0.012218891
000230 1e 01 c4 3d fa db 1b 3c f3 ff d1 bd 6b 6b cf 3c
       0.095705256 0.009512896 -0.102538966 0.025319776
000240 a7 3f 03 be d4 4d b8 bd 21 f8 16 be 18 bb b7 3d
       -0.1281725 -0.089992195 -0.14743091 0.08971232
000250 92 ef 56 bd 2a 0a 43 3d 2d 39 d3 3d 4e 75 d0 3d
       -0.052474566 0.047617115 0.1031364 0.10178624
000260 69 f0 02 3d a9 83 15 be c2 de 53 3c 40 34 23 be
       0.031967554 -0.14601006 0.012931528 -0.159379
000270 79 07 7e bd 9d e7 a1 bd bd 1f 20 be 06 03 89 3d
       -0.062018845 -0.07905505 -0.15637107 0.0669003
000280 c6 2c dc bd c2 28 e5 3c 7c 99 ed bc 1c ea a2 bd
       -0.10750727 0.027973536 -0.029003851 -0.07954809
000290 a9 ce 3e bd b2 4e d7 bc f2 0e af bd 7d a7 e6 bd
       -0.046583805 -0.026282642 -0.085477725 -0.112624146
0002a0 5a eb 6a 3d 72 b9 62 3d 37 c4 e0 3c 15 dc 3b 3d
       0.057353355 0.055352636 0.027437313 0.045864183
0002b0 e8 1d 80 3d bd 75 6f bd 16 e0 c7 3b 1a e0 df 3d
       0.06255704 -0.058461893 0.006099711 0.10931416
0002c0 92 3b 2e bd 1f 0f ad bd b0 9e 8d 3d d1 47 ad 3c
       -0.04253728 -0.0845015 0.06915033 0.021152409
0002d0 c8 65 0f bd dd 54 d4 bd 44 68 2d be 82 f5 08 be
       -0.035009176 -0.10367749 -0.16934305 -0.13374904
0002e0 71 90 18 be 38 34 f0 bd 62 52 1b be 28 a5 93 3c
       -0.1489885 -0.1172871 -0.15168145 0.018023089
0002f0 d1 0a 63 bd 8a e6 14 3d 60 e4 3c be 93 0a ac bd
       -0.055430237 0.03635267 -0.18446493 -0.08400454
000300 ea 24 38 bd 73 c4 0b be f2 97 08 3c 07 cb cb 3b
       -0.04495708 -0.13649158 0.008337008 0.006219271
000310 65 a1 8b bd e1 d0 11 3e d1 4e 31 3c 46 30 a8 3d
       -0.06817893 0.14239837 0.010822014 0.082123324
000320 49 d7 d3 3d d0 5a 47 3e 1e c4 59 3e eb 9e 1d 3e
       0.10343797 0.19468236 0.21266219 0.15392654
000330 2b e4 98 3d 07 2b f3 3d b0 52 bb 3d a8 49 02 3d
       0.074653946 0.11873441 0.09146631 0.031808525
000340 38 bb 9d 3d f6 54 92 bd 37 97 6f 3b fb 43 86 3c
       0.07701725 -0.07145111 0.0036558637 0.016389837
000350 47 bf 4f bd 5e 52 80 3d 1b 79 56 3c 58 1d e4 3c
       -0.050719526 0.0626571 0.013090397 0.027846023
000360 14 ad a7 bd b0 63 a1 ba a4 f8 0e be 07 cf 3b 3d
       -0.08187309 -0.0012313034 -0.13962036 0.045851734
000370 7e bb cd bd 47 31 e7 bd 86 20 38 3c d7 5b 9f bd
       -0.10045527 -0.11288696 0.011238223 -0.07781189
000380 20 93 5b 3d 37 6f 1b 3e cf da de 3d 83 dc 4a 3d
       0.053607106 0.15179144 0.10881578 0.049526703
000390 1b bb 1f 3d be 49 1d 3e 55 52 d1 3d 60 1d b6 3c
       0.038996797 0.15360162 0.10220782 0.022230804
0003a0 63 ae 15 3d 78 83 e2 bc e5 65 cc bd 8e 68 85 3d
       0.03654326 -0.02765058 -0.09980372 0.06514083
0003b0 29 e0 96 3d 6e ca 03 be 71 a2 14 be 7f 6e 2c bd
       0.07366974 -0.1287019 -0.14515091 -0.042097565
0003c0 27 bb d8 3d af dd 3d be 87 32 a1 bd 34 64 58 bd
       0.105825715 -0.18541597 -0.078709655 -0.052829936
0003d0 c9 ee 5d be 9d 18 c2 bd c1 07 be 39 28 1c ca be
       -0.2167312 -0.09477351 0.000362454 -0.39474607
0003e0 b4 f3 c4 3c b2 b5 1d be e6 7b ac 3e 61 79 85 be
       0.024041988 -0.15401343 0.33688277 -0.26069167
0003f0 f7 2e 9a bc bd ba 98 3c e7 d2 20 3e c6 10 8a bd
       -0.018821223 0.018643731 0.15705453 -0.067414805

raise_dim.0.attention1.0.weight f4 [9, 9, 3, 3]
000000 5e 62 af be b2 e7 9e 3e 5b b8 c0 bd 98 ed 1f be
       -0.34254736 0.31036144 -0.09410163 -0.15617979
000010 1d 8a b0 3e 1a ac 57 3e c3 3c 77 be a7 1c 0a 3f
       0.34480372 0.21061745 -0.24144273 0.5394997
000020 fc 4f d3 3c 51 51 96 be a4 92 99 be e9 cf 87 bd
       0.025794975 -0.29358914 -0.2999469 -0.066314526
000030 41 dc eb bd f6 55 9b be 43 a4 ad be 65 72 fa bd
       -0.115166195 -0.3033902 -0.33914384 -0.1222885
000040 45 e2 9e be f2 4d 08 be 22 53 bb be fb 02 3e be
       -0.31032005 -0.13310984 -0.36586863 -0.18555824
000050 8a 91 36 be 0c 76 60 be 00 86 8c be 98 b5 d5 bd
       -0.17828956 -0.21920031 -0.27445984 -0.10435027
000060 e1 7b a4 bd 10 c7 18 3e 0c b9 d3 3e e1 f7 99 3e
       -0.080314405 0.14919686 0.41352117 0.3007193
000070 be ab a3 3e 59 9b 68 3e 6e ce 02 be a7 6b f5 3e
       0.31966966 0.2271551 -0.12774059 0.47933695
000080 6a 39 a7 3e 65 59 de 3d 9d eb 71 3e a3 57 64 be
       0.3266099 0.108568944 0.23625036 -0.22299056
000090 ee 6c 3d 3e 31 54 98 3c b0 5e 9e 3d 07 df e5 3e
       0.18498585 0.018594833 0.07732904 0.4489672
0000a0 3b 38 87 3c 1e 09 a3 3d 59 24 0b 3e c6 a5 8f bd
       0.016506305 0.07960723 0.13588084 -0.07014041
0000b0 b0 68 7f 3e 28 6c 05 bf 4b 13 27 bd bf 70 94 bc
       0.24942279 -0.5211816 -0.040789884 -0.018120168
0000c0 60 1d 10 bf da 10 4c be d1 8a 09 be 6a af 43 be
       -0.5629482 -0.19928303 -0.1343186 -0.19109884
0000d0 01 bb ab be 30 48 5e be cd a7 1f be c1 55 bc 3b
       -0.3354111 -0.21707225 -0.15591355 0.0057475273
0000e0 4d 3a 6d 3c d9 9f c0 bd c9 af 00 be d0 d8 3a 3c
       0.014479232 -0.094054885 -0.12567057 0.011404231
0000f0 01 66 ef 3d c2 8a 21 be 43 d0 d0 3c c2 88 c9 be
       0.116893776 -0.15775588 0.025489932 -0.3936215
000100 ee 11 2f be f3 1b 50 be bc cb d4 bd f6 01 2c bc
       -0.17096683 -0.20323162 -0.10390422 -0.010498514
000110 ff 7e 94 be 91 f4 42 3e fa 19 53 bd 2f 5f 3a be
       -0.2900314 0.19038607 -0.051538445 -0.18200372
000120 f4 ed ae 3d 58 d4 18 bc fd a7 d7 3e ec ce d4 3e
       0.0854148 -0.00932797 0.42120352 0.4156412
000130 be 03 d9 3d 20 cc a2 3d c4 84 4d 3e ff 62 8a 3e
       0.10596417 0.0794909 0.20070177 0.27028653
000140 ab 18 51 3c bd cf 39 be 32 7b 2c 3e dd 1b 85 bd
       0.012762229 -0.18145652 0.1684387 -0.06499455
000150 17 97 54 3b f6 f2 65 3f 31 59 13 3f dc b0 90 3e
       0.003243869 0.89823854 0.5755797 0.28259933
000160 6f 97 78 3c f9 23 aa 3e ac dc 76 3e 5b 4b bf 3d
       0.015172823 0.3323057 0.24107617 0.09340545
000170 21 a5 51 bd 90 87 97 3d 21 ec 0f 3e d4 57 1b 3e
       -0.05118287 0.07398903 0.1405492 0.15170223
000180 a9 4d 4c 3e 8a c6 4a 3e ec d2 86 3e 36 49 3b be
       0.199515 0.19802299 0.26332796 -0.18289647
000190 66 c9 c2 3e 27 4f b3 3e 32 98 45 3e 30 26 52 bc
       0.3804428 0.35021326 0.19296339 -0.012826487
0001a0 65 3d cd 3d 39 b3 12 3d f6 8e 4e 3e aa 03 e0 3d
       0.10021476 0.03581545 0.20171723 0.10938199
0001b0 93 57 1f 3e e5 f0 3e 3e 5e 8f 28 be 21 e0 62 3e
       0.1556075 0.18646581 -0.1646094 0.22155811
0001c0 56 f9 a0 3e ce 15 9f 3e 42 4d 9a 3e fd bd 4c bd
       0.31440228 0.31071323 0.30137068 -0.049985874
0001d0 3a ff 14 3e dd 1f e8 3e f4 dd 3b 3e be 32 82 3e
       0.14550486 0.4533681 0.18346387 0.25429338
0001e0 61 a9 f7 3e 29 75 fd 3e d2 65 76 3e a3 1c ae 3d
       0.48371413 0.4950345 0.24062279 0.08501556
0001f0 30 f5 9f 3e 89 81 af 3e 3a 82 05 3e 95 e0 43 be
       0.3124175 0.34278515 0.13037959 -0.1912864
000200 1e a1 15 be 0d e4 3b 3e 68 a6 3b 3e 5f 51 2b 3e
       -0.14612243 0.18348713 0.18325198 0.1673026
000210 2e 19 1b 3e 20 b5 1f 3e 0f c3 54 bd e9 6e f2 3d
       0.15146324 0.15596437 -0.051943835 0.11837561
000220 5a 03 a8 bd 85 27 30 3e 7f e0 c9 3e 5b ee b7 3d
       -0.08203764 0.17202576 0.3942909 0.089810096
000230 99 8b c5 bd 26 14 ba 3e 80 a8 63 3e 0f 76 ce bd
       -0.09645767 0.36343497 0.22232246 -0.10081112
000240 2e 15 5a 3d 69 6c 86 3d 3b 42 c6 3d 2b 4c 9a 3e
       0.053242855 0.06563646 0.09680601 0.30136237
000250 07 f1 9a 3e d3 b5 cf 3c 00 06 1d 3e 26 63 26 be
       0.30262014 0.025355255 0.1533432 -0.1624876
000260 81 65 06 be 7c 86 9b bd 41 10 5b 3e ec d9 21 3e
       -0.13124658 -0.0759401 0.21392919 0.15805787
000270 5f 34 93 3c a5 c5 86 3e 16 ad 5e 3e 0f 84 3e be
       0.017969308 0.26322666 0.21745715 -0.18605064
000280 6e 0e 24 3d 64 6a e9 bc ea 4c fb bd b3 a6 7d be
       0.040052824 -0.028493114 -0.122705296 -0.24770622
000290 b7 22 ef bd 46 88 25 be 75 b1 86 be 91 4d 6c be
       -0.11676543 -0.16165265 -0.26307264 -0.23076464
0002a0 d5 8a d6 bc 93 f8 94 be 9d 61 69 3d 10 aa 3f 3e
       -0.026189247 -0.29095897 0.056977857 0.18717217
0002b0 99 8e 53 be ce d5 6c 3d 35 d6 54 be 6f 0e 13 be
       -0.20659865 0.057821088 -0.20784838 -0.14360975
0002c0 b4 f4 1d be 29 48 98 bd 63 bc 30 be a9 5c 30 be
       -0.15425378 -0.074356385 -0.17259364 -0.17222847
0002d0 f6 a6 29 3d 82 f1 19 be 9a 32 fc bd d9 62 e0 be
       0.041418992 -0.15033534 -0.12314339 -0.43825415
0002e0 01 70 8d bd 6e 65 c8 be 82 2f fc bd 71 fc 5e 3d
       -0.06906129 -0.39139885 -0.12313749 0.054439966
0002f0 c0 f6 67 be 02 18 68 be a7 a7 5d be 78 8d 10 be
       -0.22652721 -0.22665408 -0.21645986 -0.14116466
000300 12 f4 97 be 91 c3 8f be be 85 3d bd bb 06 86 be
       -0.29678398 -0.28078893 -0.046270125 -0.2617701
000310 10 8d 86 be cd 85 38 be cf 4b b0 be a9 1f c7 be
       -0.26279497 -0.18019791 -0.34432837 -0.38891342
000320 51 39 39 3d 49 88 3e be a4 59 63 be 27 b6 da be
       0.045220677 -0.18606676 -0.22202164 -0.42717096
000330 93 d4 d2 bd 0b 9a 96 be df fa ab bd da ce 10 3e
       -0.102944516 -0.294144 -0.08397459 0.14141408
000340 54 2b ca bd ad 04 8b bd d9 41 34 be 92 39 e1 bd
       -0.098715454 -0.06788001 -0.17603244 -0.10997309
000350 df c6 e6 be 78 a7 d2 bd 80 39 d2 3d 72 44 69 3d
       -0.45073602 -0.102858484 0.102648735 0.05695004
000360 5f 48 6f 3d 03 98 24 be c4 40 7c be 9a 4d ce be
       0.058418628 -0.16073613 -0.24634081 -0.4029358
000370 dc 61 05 be a9 68 ce be e0 4e 65 be 5f f0 cf bd
       -0.13025612 -0.40314224 -0.2239337 -0.10153269
000380 3b c2 4a be 78 06 12 bd 01 66 05 bd ad b5 8d be
       -0.19800656 -0.0356507 -0.03256798 -0.2767767
000390 d1 59 aa bd 81 35 86 be b6 b7 93 be 7f ec 3d 3e
       -0.08317912 -0.26212695 -0.28851098 0.18547247
0003a0 e0 03 82 be 2f e0 6e be a6 3c b8 bd 20 b9 85 be
       -0.2539358 -0.23327707 -0.08995943 -0.26117802
0003b0 21 fb 83 bd 45 35 61 be 76 91 90 be 96 ce de bd
       -0.064443834 -0.21992977 -0.28235978 -0.10879247
0003c0 fb ea 5e 3e a1 6a 4b be 68 a2 b3 3e 3e 8b b9 bd
       0.21769325 -0.19864894 0.35084844 -0.090597615
0003d0 ab bc 14 3c 18 98 07 bd 0d 29 f3 3c 27 9d cd be
       0.009078185 -0.033104032 0.02968266 -0.4015896
0003e0 a4 bc 59 3e d3 43 b6 3d 86 ec 51 be 12 9d 13 be
       0.21263367 0.08899655 -0.20500383 -0.14415386
0003f0 59 93 3f be 69 16 16 be c9 86 96 3d 0b 49 2e 3e
       -0.18708552 -0.14656986 0.07349927 0.17020051

raise_dim.0.attention1.0.bias f4 [9]
000000 9a f2 82 3d 7e ad 93 3e 02 42 8f bd c7 dd 38 bd
       0.06393929 0.28843302 -0.06995012 -0.04513338
000010 fa 4b 06 3e 27 22 7c bc 8a d2 60 bc 43 eb 09 3e
       0.1311492 -0.015389002 -0.013722071 0.13468651
000020 61 7f 6d bd
       -0.057982806

raise_dim.0.attention1.2.weight f4 [9, 9, 1, 1]
000000 a8 71 ae bc d7 f7 a0 be ab 8b 98 be 1f 5a 4b bf
       -0.02129443 -0.31439087 -0.29794058 -0.7943439
000010 9d 23 80 3e f8 da 91 be fa 1f 94 be e3 7e e4 be
       0.2502717 -0.28487372 -0.28930646 -0.44628057
000020 f2 b1 fb bb 36 d4 b3 3e e1 a4 59 3e 27 d2 08 3f
       -0.007681125 0.35122842 0.21254303 0.5344567
000030 7b fa 7e 3f 60 e8 bf bc ba 77 37 bf f2 9f 19 3f
       0.9960095 -0.023426235 -0.71667063 0.6000968
000040 64 34 ab be f1 12 5e 3f e6 51 3a 3e 9d bf 3b bf
       -0.33438408 0.8674765 0.18195304 -0.73339254
000050 80 a4 37 3f bf f2 b8 be 5b 7a 7a be e7 c9 c4 3d
       0.7173538 -0.361227 -0.24460737 0.09608822
000060 24 52 26 3f a2 8e e0 be bf 58 8b bd 79 81 03 3f
       0.64969087 -0.4385882 -0.06804036 0.51369435
000070 c1 8f 1a 3e 8c 8a 55 3e bc 1d a8 3d 95 9b a6 be
       0.150939 0.20853633 0.082087964 -0.32540575
000080 5d 24 30 be 34 37 51 3e 01 a5 a8 3e af 7e 9d be
       -0.17201371 0.20431215 0.32938388 -0.30760714
000090 41 6e 8f 3f 02 be 8a 3d ec 8e 19 3f b8 83 4d bf
       1.1205522 0.06774522 0.59983706 -0.8027911
0000a0 49 c4 d0 3e 84 b5 b3 3f e0 c4 5e 3e 26 56 70 bf
       0.40774754 1.4039769 0.2175479 -0.9388145
0000b0 6a e1 02 3f 26 9e dd be c1 b3 82 3f 81 fd 34 bf
       0.51125205 -0.4328472 1.0211107 -0.70699316
0000c0 62 d1 51 bf 62 17 83 3f 3a 3b 7a bf 31 5c a0 be
       -0.8196012 1.0241511 -0.9774662 -0.31320336
0000d0 a6 e1 2e 3f ce de f2 be 67 fa d8 3e 3a 48 b0 3e
       0.6831306 -0.4743561 0.42378542 0.34430104
0000e0 02 64 91 bf 17 6c c6 be 13 9b 1d 3f d4 8d 89 3e
       -1.1358645 -0.3875434 0.6156475 0.2686602
0000f0 bb e2 72 3e 43 2d 19 be 54 f5 77 3f 17 45 74 3f
       0.23719303 -0.14958672 0.96858716 0.9541792
000100 3f 60 eb 3d 7d af e6 3c 03 f9 48 bf 5d 57 73 3c
       0.11492967 0.028159851 -0.7850496 0.014852372
000110 d9 51 14 bf 85 a5 f0 be 72 2d 05 bf 60 5b 6d bd
       -0.5793739 -0.4700128 -0.5202247 -0.05794847
000120 28 6b 3b 3e ea a8 26 be b0 ba 9a 3d 7d ec b7 3e
       0.18302596 -0.16275373 0.07555139 0.35922614
000130 cc a4 23 bf 54 b6 8e be 69 f8 48 3e 45 37 fa 3e
       -0.63923335 -0.2787348 0.19626011 0.48870292
000140 dc f0 c0 3f
       1.5073504

raise_dim.0.attention1.2.bias f4 [9]
000000 1b dd 6c 3d 50 4a 56 bd 8c 3f b7 3c 89 f0 39 3d
       0.05782805 -0.052316964 0.022369169 0.045395408
000010 eb f4 c4 3d 68 dd 57 3e e1 83 9f 3d c9 47 d8 3d
       0.09617027 0.21080554 0.07788826 0.10560567
000020 59 33 5e 3d
       0.054248188

raise_dim.0.attention1.4.weight f4 [9, 9, 1, 1]
000000 e0 d0 91 bd 26 dd 62 bf 15 02 05 3f 75 98 c4 bd
       -0.07119918 -0.88618696 0.519563 -0.09599391
000010 81 ad a5 3e 8a a2 49 3e 82 2f b2 be 2a 1a 0b 3f
       0.32358935 0.1969091 -0.3480187 0.543368
000020 e9 55 9e bf 31 ac 2d 3d 81 6c ba 3e 48 a9 02 bf
       -1.2369968 0.042400543 0.36410907 -0.5103955
000030 04 ac b6 3e a5 f3 07 3f 8e a6 f9 be 06 c0 4a bf
       0.35678113 0.5310615 -0.48759884 -0.79199255
000040 d7 7c 28 3f 70 68 c5 3d ef e5 53 bd a6 b6 54 3f
       0.6581549 0.096390605 -0.051732954 0.830912
000050 f8 0f c1 be d4 ff ab 3e af ca 1d bf 4e e4 90 be
       -0.37707496 0.3359362 -0.61637396 -0.28299183
000060 aa 55 cf be 0e 55 fd 3e 08 30 34 3f 6f 7e 48 3f
       -0.40495044 0.49478954 0.7038579 0.7831792
000070 22 94 55 be c6 8b a7 bf 4d 37 97 3e fe d6 d0 bf
       -0.2085729 -1.308953 0.2953438 -1.631561
000080 28 cb 84 3f 80 dd 1f 3f 5d ab 7e 3f e8 48 03 bf
       1.0374498 0.6244736 0.9948023 -0.5128312
000090 39 9e 3e bf 7d 72 48 3e 53 a6 97 bf f4 fa 91 3e
       -0.7446018 0.19574924 -1.1847633 0.28511775
0000a0 a3 e4 02 bf 72 fd 3c 40 50 62 fa 3f d6 d4 84 3d
       -0.5113012 2.952969 1.9561253 0.06485908
0000b0 fc 01 3d 3e a4 3a 6d 3c b2 0e 56 3e fb cc 23 3e
       0.18457788 0.014479313 0.20904043 0.15996163
0000c0 0e 15 1e 3f 99 18 d9 3e 8a 06 66 be 23 b2 7f 3e
       0.61750877 0.4240158 -0.22463432 0.24970298
0000d0 bb 3a 32 3f ef 0b bd bf 70 f6 1e be 2b 79 ae bd
       0.69620866 -1.4769267 -0.15523696 -0.08519205
0000e0 f3 2c 23 3f 09 84 cd be 79 ca 2a 3f 22 c3 b8 be
       0.6374046 -0.40139797 0.667152 -0.36086375
0000f0 90 d4 d5 3d 0e d2 55 3f 65 7f 68 bf 12 df 90 bd
       0.10440934 0.83523643 -0.9081939 -0.07073797
000100 69 11 66 3d 7a 10 b5 be 11 d0 42 3f fe cb 8a 3f
       0.056168947 -0.35364133 0.76098734 1.0843503
000110 b9 4b bb 3f dd 70 87 3e 37 e0 1e bf 35 73 09 bf
       1.4632484 0.26453295 -0.62060875 -0.53691417
000120 a7 7c a2 3e ff fb 9a bd 16 cf 74 3f 2c 40 83 be
       0.31735727 -0.07567596 0.9562849 -0.25634897
000130 c6 8b f5 3d 1b da 3a 3e 8f b6 b2 be 8c ab 8b 3e
       0.1198955 0.18247263 -0.34904906 0.27279317
000140 aa 5d 21 bf
       -0.63033545

raise_dim.0.attention1.4.bias f4 [9]
000000 88 75 a8 bc 80 fe 36 3e 80 b6 70 bd fb 9f a5 3e
       -0.020563856 0.17870522 -0.058767796 0.32348618
000010 b5 0d a5 3f 4c 6f 27 3e eb 62 98 3d 3e ca 99 3e
       1.2894808 0.1635105 0.07440742 0.3003711
000020 58 36 b1 3c
       0.021632358

raise_dim.0.attention3.1.weight f4 [32, 9, 1, 1]
000000 09 7c b1 3d 01 d8 16 bf 45 46 f7 3d b1 aa df 3e
       0.08666236 -0.58923346 0.1207395 0.43684915
000010 d3 3b 13 bc d9 ef 00 bf 46 55 22 be 67 25 86 3e
       -0.008986431 -0.5036598 -0.15852842 0.2620041
000020 a8 8f a9 be 68 15 18 3f b4 a3 35 bf b2 3d ba bd
       -0.33117414 0.59407663 -0.70952916 -0.09093799
000030 94 6c 66 be 20 e9 89 bf e1 d4 4f 3f 24 4c 30 3d
       -0.22502357 -1.0774269 0.811842 0.043041363
000040 cf 1d 4b 3d d7 84 6f 3d 01 ce 0f 3e 73 9b 1b 3f
       0.049588975 0.058476295 0.14043428 0.6078407
000050 5a d1 c5 bd a3 4f 7f 3f 52 72 9e 3d 0e 8e b1 3e
       -0.09659071 0.9973089 0.077366486 0.34678692
000060 ef d1 48 3e de 0a e0 3e c1 eb 29 bf 4f fe 8d 3e
       0.19611333 0.4375829 -0.66375357 0.27733085
000070 06 50 a9 3e 8e 51 3d bf e9 96 53 be dd 1b 0a bf
       0.33068866 -0.7395257 -0.20663036 -0.53948766
000080 c0 32 46 3e 6e ab 34 bf 02 2c a6 be d5 e9 09 3f
       0.19355297 -0.7057408 -0.3245545 0.53872424
000090 21 73 3e 3f c4 5a e4 3e b2 8b 21 3e 53 cb 4d 3e
       0.7439442 0.446005 0.15775946 0.20097093
0000a0 53 3e 53 3e 6c 89 5d be 62 97 bb bd ac 38 17 3d
       0.20629244 -0.21634454 -0.09159733 0.03691928
0000b0 23 77 a1 3d 0d 23 b8 be 81 c3 94 3d 5b 09 97 3d
       0.07884052 -0.35964242 0.07263852 0.07374831
0000c0 e5 2c 99 be 4e 0c 7e be 30 71 7f 3e 82 9e 5e 3f
       -0.29917064 -0.24809381 0.24945521 0.86960614
0000d0 64 e9 dc bd 22 68 ad 3e 05 9b 61 3d 7d 8c 9b 3e
       -0.10786703 0.3386851 0.05507948 0.30380622
0000e0 96 c8 bf 3c f6 af 15 3c 4f 17 9e 3e 6a ed a6 3c
       0.023411077 0.009136191 0.30877158 0.02037688
0000f0 6f e1 e6 3e 30 6e 19 bf ff 94 59 bf 01 08 f4 3e
       0.45093867 -0.5993376 -0.84992975 0.47662356
000100 7e 33 16 be 21 3c ec be 61 e9 d9 be 63 a2 9d 3e
       -0.1466808 -0.46139625 -0.42560866 0.30787954
000110 6a ff ec 3e 8f 64 8c be 70 18 71 3f e0 0e 38 bf
       0.46288615 -0.2742047 0.94177914 -0.718977
000120 6c 9d 4e 3f 21 ee 1c bf db 26 94 bf c0 ad a7 be
       0.80708957 -0.61300856 -1.1574358 -0.32749748
000130 93 7d 61 be d3 51 b1 3e fc 7c 2c 3f 6d 1e e9 be
       -0.22020559 0.3463274 0.6737821 -0.45531026
000140 f9 54 a7 bd 97 52 b9 be 6a a2 03 3e 16 3b d7 be
       -0.08170504 -0.36195824 0.12854925 -0.42037266
000150 dd 4a 72 be b8 5e 0f 3e 82 1e 4b 3e d8 42 af 3e
       -0.2366137 0.14000976 0.19835857 0.34230685
000160 10 c7 b1 3d 2a 96 df 3d a4 ed 24 be ea 35 97 3d
       0.08680546 0.109173134 -0.16106278 0.0738333
000170 bb 42 0f 3e 1b 25 31 3f b7 d0 0f bf 83 f5 59 3e
       0.139903 0.69197243 -0.5617785 0.21285062
000180 c3 54 5b bf 0a a3 fa 3e bb 27 1b 3e 78 a1 0f 3f
       -0.8567621 0.48952514 0.15151875 0.56105757
000190 8a 28 2c 3f b9 93 31 bf d6 32 a9 be 87 d0 11 bf
       0.6724936 -0.6936603 -0.33046597 -0.5695881
0001a0 51 58 00 3e 7b 18 67 be 99 38 92 3e 6f 58 07 bf
       0.1253369 -0.22567932 0.28558806 -0.52869314
0001b0 01 aa 6f 3e 2d 75 56 3f b9 3c 15 3f ed 9e a4 3e
       0.23404695 0.83772546 0.5829578 0.321525
0001c0 1a 40 d4 3e 3c ea a2 be 9a 77 09 bf 9c fb 18 be
       0.41455156 -0.31819332 -0.5369812 -0.14939731
0001d0 03 c4 64 3f dd 15 2d 3f e8 48 1a bf 9a 52 17 be
       0.8936159 0.67611486 -0.60267496 -0.14777604
0001e0 90 5e ab 3e ea cc 0b bf ae 9f fd be d4 1b 46 be
       0.33470583 -0.5460955 -0.49535888 -0.19346553
0001f0 a8 14 c2 bd 75 b7 47 3e 5b 58 9d be 4b 6c 52 be
       -0.09476596 0.19503577 -0.30731472 -0.20549123
000200 88 26 c2 3e 0a 12 ec 3e 92 69 54 be 5f 9f 3b bf
       0.37920022 0.46107513 -0.20743397 -0.73290056
000210 81 4f aa 3e 87 ff 24 be 05 79 ad 3d ed 95 46 bc
       0.33263782 -0.16113101 0.08470348 -0.012120706
000220 5b 73 0f bf d7 ec 9a 3e 50 0c 91 3e f4 d5 05 bf
       -0.56035393 0.3025882 0.28329706 -0.5227959
000230 dc 2b 9c be 56 ab 11 3e 43 65 87 be be 91 dd 3e
       -0.30502212 0.14225516 -0.26444444 0.43275255
000240 11 83 b3 be f1 4e 0e 3d 51 cd ba 3e ab 7d e8 3e
       -0.35060933 0.034743253 0.3648477 0.45408377
000250 42 84 c8 3e 99 39 cc 3e 67 7a 90 3e 0d 97 06 bf
       0.39163405 0.39887694 0.28218386 -0.52574235
000260 7d ac 4e 3f 48 f3 ce be 3e 16 c8 3e df d9 4b 3f
       0.80731946 -0.40419984 0.3907947 0.7962932
000270 a9 2d 96 3e 13 11 9e bd a8 18 f8 be 01 d5 26 3f
       0.2933171 -0.077181004 -0.4845631 0.6516877
000280 05 07 46 be 25 41 bc bd 2f 52 76 be aa 2f 25 bf
       -0.19338615 -0.09192113 -0.24054788 -0.64525855
000290 23 ba b0 be dc ae 1a be c8 62 12 3f 4f 9a 0e bf
       -0.3451701 -0.15105766 0.5718198 -0.55704206
0002a0 56 bd 2a 3f 1b 1d e9 be 97 9a 86 3e ea 4a 6b bf
       0.66695154 -0.45530018 0.26289818 -0.91911185
0002b0 ce 28 09 3e 60 fc bf be e0 65 db be ba b9 bf 3e
       0.13394472 -0.37497234 -0.42851162 0.37446386
0002c0 39 9f c7 bd 9f df 11 3e e4 21 ae be 09 07 26 3e
       -0.09747166 0.14245461 -0.34010231 0.16213621
0002d0 21 73 85 3e 25 87 ef be 73 5b 15 3e 5b 78 d5 3e
       0.260644 -0.46782795 0.14585666 0.41693386
0002e0 09 cc 94 3e 2d 65 5a be f0 73 9f 3e 58 73 da 3d
       0.29061916 -0.21327658 0.3114314 0.10666531
0002f0 e9 d3 0f bf ea 30 00 3e fa fb 98 bd 9e a0 ac be
       -0.56182724 0.12518659 -0.07469936 -0.3371629
000300 8e f2 82 3f f2 aa d3 be 0a 15 a7 bd 5b 7c 12 3e
       1.0230272 -0.41341358 -0.0815831 0.1430525
000310 01 df 96 3d 94 3a 88 bd 5e c6 ca 3e f3 8f 68 3e
       0.07366753 -0.06651798 0.39604467 0.22711162
000320 7c cd 87 be 6e fe 07 3f cf 35 06 bf 53 45 b2 3d
       -0.2652396 0.53122604 -0.52425855 0.08704629
000330 2f d4 bf 3e 9a 09 3e bf 60 7b 98 3e a1 a2 bf 3e
       0.3746657 -0.742334 0.29781628 0.37428764
000340 9e 7e 6a bf 8f 9d 92 bf ad 02 6e 3e 70 00 2a 3f
       -0.9159945 -1.1454333 0.23243208 0.6640692
000350 ec fb c9 be 69 18 52 bf f3 7c 1d bf a0 71 cf bd
       -0.39450014 -0.82068497 -0.6151878 -0.10129094
000360 90 57 26 3b 4d 33 6c 3d 3a ca 81 be d1 21 4f 3e
       0.002538178 0.05766611 -0.253496 0.20227744
000370 c4 12 90 be 3d aa 21 3d 52 c7 81 3f e3 f9 95 3e
       -0.28139317 0.039468993 1.0138953 0.2929221
000380 e7 84 e5 be d2 aa 1e 3f e8 dc e2 be 15 bd 53 3f
       -0.4482796 0.619794 -0.44309163 0.8271039
000390 35 48 25 bf f6 47 d6 3e f2 e2 7d bd 04 c3 45 bf
       -0.64563304 0.41851777 -0.06198401 -0.77250695
0003a0 5a b6 7e bf 7f ce 7a 3e f8 05 0f 3f 3e 54 fd 3d
       -0.99496996 0.24492835 0.5586848 0.123695835
0003b0 48 48 96 3e 8d ac 45 3f 52 86 79 be 12 f1 bc 3d
       0.2935202 0.77216417 -0.24367645 0.09225668
0003c0 4c 67 2f bc f1 a9 98 bd e9 74 71 be 87 a6 36 3d
       -0.01070578 -0.07454289 -0.23579754 0.044592407
0003d0 19 f5 ca be fc 5a 92 bf 49 0c c2 bd 8a 8b 89 bd
       -0.3964012 -1.1434016 -0.094749995 -0.06716068
0003e0 fc fa 10 3c c2 4b 53 3e b5 4f 91 3e 63 03 d5 3d
       0.008848902 0.20634368 0.28381124 0.104010366
0003f0 bb 45 aa 3e 10 27 df be 0c 72 d7 3d 75 2d 3d bd
       0.33256325 -0.4358449 0.105197996 -0.04618593

raise_dim.0.attention3.1.bias f4 [32]
000000 c7 3d 83 bd 19 11 50 bc 9a fe 8f bd 3d f8 1b 3d
       -0.064082675 -0.012699389 -0.07030983 0.038078535
000010 37 e1 37 3c d5 a3 5b 3d 20 c0 97 3c 44 0a ad 3c
       0.011223129 0.05362304 0.01852423 0.02112306
000020 48 50 1e 3d 02 58 78 bd 78 75 4b bb 22 1c b6 bd
       0.03865078 -0.060630806 -0.0031045359 -0.08892085
000030 4b e1 5f 3c 39 18 89 bd 23 0f 3d bd 13 f6 42 bd
       0.013664554 -0.06694073 -0.046157014 -0.047597956
000040 bc 77 fc bc 20 c6 bc bd d6 c2 43 3d b0 ce d4 3d
       -0.030818813 -0.09217477 0.047793232 0.10390985
000050 61 16 d6 3c 92 1c 01 bd ee 0f 23 bb 37 b6 28 3d
       0.026133718 -0.031521387 -0.002488132 0.0411894
000060 5b 22 bb bc ae 56 95 bc b6 0e a4 bd 22 80 14 bc
       -0.02284353 -0.018229809 -0.080106184 -0.009063752
000070 84 b8 aa 3c cd 93 c0 3c a4 28 82 bc 59 5c 8b bc
       0.020839937 0.023507977 -0.01588852 -0.017011808

raise_dim.0.attention3.3.weight f4 [32, 32, 1, 1]
000000 3c a2 b8 be 81 e7 bd be 30 a8 27 3e 0c 30 80 3e
       -0.36061275 -0.37090686 0.16372752 0.25036657
000010 ee aa a2 bd 86 ab f4 be 3c ab df bd 04 a2 00 3e
       -0.079427585 -0.47787112 -0.10921332 0.12561804
000020 cd a4 ca 3d aa 1d c2 bd e9 bf 87 bc bd f8 47 be
       0.098947145 -0.09478314 -0.016571002 -0.1952848
000030 41 cc 10 bf 05 21 04 bd fb ff 8a 3d c0 f3 90 bd
       -0.56561667 -0.032258052 0.06787106 -0.070777416
000040 9b d0 86 3d e8 f6 91 3e 9c 59 75 be c9 08 7e 3e
       0.06582757 0.28508687 -0.23959965 0.24808039
000050 a5 47 1a be 76 b1 aa 3d c6 17 ce 3e 0f 42 17 be
       -0.15066393 0.08334629 0.40252513 -0.14771293
000060 b8 35 d2 3d b1 ac af 3d ef 69 f1 bd ee 46 bd 3d
       0.10264152 0.0857786 -0.11787783 0.092420444
000070 6f 6a 50 3c 8d 22 c7 bd 7e f4 bb 3e 29 e5 f8 bd
       0.012720688 -0.09723387 0.3670997 -0.12153084
000080 c0 2b 09 3e ce 5b 8a 3e 0b cc 4d bf 97 89 80 3e
       0.13395596 0.27023166 -0.8038947 0.25104973
000090 2b 52 fb 3e 34 8d df bd 91 de 2c 3e 29 e0 be be
       0.49086127 -0.10915604 0.16881777 -0.37280396
0000a0 3a 4b d3 bd 1d af db be 12 17 2e 3e 6e a2 f8 be
       -0.10317083 -0.42907038 0.17000988 -0.48561424
0000b0 2a b4 71 bd 55 61 e2 bc 16 e3 ac 3d ad bf 57 bd
       -0.05900971 -0.027634302 0.08441751 -0.05267303
0000c0 6d 76 8c be 3f dd e7 3e 43 80 79 3e 72 a1 b5 bc
       -0.27434102 0.45285985 0.24365334 -0.02217171
0000d0 ad 75 20 be aa 47 29 be 7e 7d 12 3e b2 e1 30 bc
       -0.1566989 -0.16531244 0.14305684 -0.010795997
0000e0 bf ef 5c bd 63 00 03 3f ce cb a3 be d2 85 04 bf
       -0.053939577 0.51172465 -0.31991428 -0.51766694
0000f0 c3 dd 9f 3e 2d ca ce 3d 4d e1 47 3d f7 4c c1 3d
       0.31223878 0.10097156 0.048798848 0.09438508
000100 ce 12 df 3d f8 fe 90 bc c8 c2 78 bd 74 29 0c 3f
       0.108922586 -0.017699704 -0.060732633 0.5475075
000110 1e 5f ce bd 57 ca 33 3e 79 69 02 3e 90 88 da 3e
       -0.10076736 0.17557655 0.12735547 0.42682314
000120 b1 9a 46 3e b8 fe 09 bf 67 74 64 bc 74 60 6e be
       0.19394948 -0.53904295 -0.013943768 -0.23278981
000130 5c 69 18 3e e0 e5 09 3f 42 26 c3 bd 10 0d c7 be
       0.14883941 0.53866386 -0.095287815 -0.38877153
000140 10 63 a9 3e 98 10 43 3e c9 d2 70 be c3 0d 89 3e
       0.3308339 0.19049299 -0.23517908 0.26768312
000150 31 01 4a 3e 47 8e a8 be e8 53 da be b7 f0 da 3b
       0.19727017 -0.3292105 -0.4264214 0.0066815275
000160 53 45 6d be 4f ae af 3d 8c 35 f4 bd b9 b6 14 3e
       -0.23170976 0.085781686 -0.11924276 0.14522828
000170 8d 49 44 be 12 6e 97 3d 1c a2 82 3e 04 47 00 bf
       -0.19168682 0.07394041 0.25514305 -0.5010836
000180 06 4b 6d 3e 94 c6 b4 3e d9 d0 fd 3c f7 e3 d9 bd
       0.2317315 0.35307753 0.030983375 -0.10639184
000190 b2 26 0e 3d 8b a4 16 3e 36 f7 90 3d 0a 8b 22 be
       0.03470487 0.14711206 0.07078402 -0.15873352
0001a0 08 fe 43 3e aa 9a 0a 3d 1c 8c c3 bc 9d 1b 12 be
       0.19139874 0.033838905 -0.02387052 -0.14268346
0001b0 6e 2a 1f be a0 68 c1 bd d7 2b c3 3e 73 93 60 be
       -0.1554353 -0.09443784 0.38119385 -0.21931247
0001c0 b6 8c aa bd 9b 86 c9 3e 8a e2 8b 3e 35 3a f8 be
       -0.0832762 0.39360508 0.27321273 -0.48481908
0001d0 fb bd 83 bc 23 f8 d8 bc 5e c8 94 bd 5b 1f 88 be
       -0.0160818 -0.026485508 -0.072647795 -0.26586422
0001e0 b3 26 61 3e 9c 02 de be 49 41 37 bd 72 0b b6 bd
       0.21987419 -0.43361366 -0.044739995 -0.08888902
0001f0 15 6e 36 3e 60 60 df bc 6b c6 8e 3d c6 a7 6e 3e
       0.1781543 -0.027267635 0.06971439 0.23306188
000200 c8 bc a9 bd 59 52 bc bd fa 06 a2 ba 7c 39 b2 3d
       -0.0828796 -0.09195394 -0.0012361698 0.087023705
000210 25 1a 16 3e df f5 e5 3e 71 5f 7d 3e 6b 28 02 bf
       0.14658411 0.44914147 0.2474344 -0.5084292
000220 71 e6 6c bc 77 ed f8 bd ac f9 2e be 58 8f 0a 3d
       -0.014459238 -0.12154668 -0.1708743 0.03382811
000230 94 bd 70 3e 3a 56 9a 3e b3 e1 0c 3e cb 90 bd 3e
       0.23509818 0.3014391 0.13757972 0.3702453
000240 56 47 75 bb ca 83 d8 ba ae dc dd 3e 95 69 2e 3e
       -0.0037426553 -0.0016518768 0.43332428 0.17032464
000250 24 b9 c2 bd 0c d5 bf 3d d8 e4 02 3e e0 9b ed be
       -0.09507969 0.09366807 0.1278261 -0.46407986
000260 73 04 5c 3e 46 9f bc 3c 47 14 84 3e 02 e8 4d bd
       0.21486072 0.023025166 0.2579672 -0.050270088
000270 5f d6 34 be 85 02 91 3d ac f8 e1 3e 09 91 e0 be
       -0.17659901 0.07080559 0.44135034 -0.43860653
000280 a3 ec b5 3d de 0b c7 3e 03 5f ba bd ac b4 20 be
       0.088830255 0.3887624 -0.09100153 -0.15693921
000290 07 a3 dc bd 51 41 c8 3e 72 b9 f9 be df 14 83 be
       -0.107732825 0.39112332 -0.48774296 -0.2560186
0002a0 d1 70 5a bd 5c 5a fa bd 0a e6 48 bd d1 9b 62 be
       -0.053330246 -0.12224266 -0.049047507 -0.22129752
0002b0 98 70 7f be 77 89 c3 3c 2b 1a b8 3d ab 0d 05 3e
       -0.24945295 0.02386926 0.08989366 0.12993495
0002c0 af ca 93 3c 54 36 4c be f1 c4 09 be ee 21 31 3e
       0.018040983 -0.199426 -0.13454033 0.172981
0002d0 0b 62 e3 3d 3f 84 2c bd 6f 52 05 3e 59 3c 30 be
       0.111026846 -0.042118307 0.13019727 -0.17210521
0002e0 78 49 44 be 1c 9b 25 3d 53 fb 00 3e 39 2d 8b 3e
       -0.19168651 0.040431127 0.12595873 0.2718294
0002f0 c0 fc 08 3c 66 87 8d 3e 15 ae a2 be 40 ca bc 3d
       0.008361042 0.27642363 -0.3177344 0.092182636
000300 bd ec 08 3f a7 1f 55 bf 02 79 a7 be ba 46 4f be
       0.53486234 -0.8325142 -0.3270951 -0.20241824
000310 fd 1b e7 bc 4d 50 8f 3e 60 b2 15 3e 8e aa bc bd
       -0.028211588 0.27990952 0.14618826 -0.09212218
000320 12 47 85 be 09 44 1f be 2c e8 aa 3e 0d a5 23 3e
       -0.26030785 -0.15553297 0.33380258 0.1598093
000330 20 a2 84 be 82 4e a1 be 0e 6e 0c 3f c1 02 4f bf
       -0.25904942 -0.3150521 0.5485543 -0.8086358
000340 b9 24 ad be 01 ee c2 3e 68 d0 2b 3d 62 ff 40 be
       -0.3381708 0.38072208 0.0419468 -0.18847421
000350 47 4c 87 3d 7e 8a 56 bd 79 63 40 3d 55 d0 fd bd
       0.066063456 -0.05237817 0.046969865 -0.12393252
000360 82 f2 ce 3e 77 53 d3 be a1 65 88 3e 89 69 85 bd
       0.40419394 -0.41274616 0.26640037 -0.0651427
000370 be d9 0b 3f b8 3a 19 3e 2a 3e 68 3d 4a e0 4b 3e
       0.54629123 0.14963806 0.05669991 0.19909778
000380 95 24 94 be 54 1a 24 be 7a e5 97 3e 7e f1 33 3b
       -0.2893416 -0.16025668 0.29667264 0.0027457173
000390 93 ea 37 be e1 86 8e 3d 41 06 4b 3e 50 4e 8d 3e
       -0.17960577 0.0695932 0.19826604 0.2759881
0003a0 f5 8b fe be 35 9f 84 be 5b 4d aa be 2d df 33 bf
       -0.49716154 -0.25902715 -0.33262143 -0.70262414
0003b0 96 73 ca bd 3f d1 49 bf a8 ad 40 bd fe 4d 2e bf
       -0.098853275 -0.7883491 -0.04704061 -0.68087757
0003c0 ee ab 08 3d 57 f4 0c 3e 78 65 9e 3e 59 88 9a 3e
       0.03336709 0.13765083 0.3093679 0.3018215
0003d0 1f f5 9e bd b0 32 62 be 32 f7 83 3d 01 36 07 3e
       -0.07761597 -0.22089648 0.06443633 0.13204195
0003e0 67 08 1b 3e 3e 6b 71 bd c5 d1 20 3d be 2e 3b be
       0.15139924 -0.058940165 0.03926255 -0.1827955
0003f0 44 28 05 3e e4 3b ee be 77 2e ad be 34 df 5e 3e
       0.13003641 -0.46530068 -0.33824512 0.21764833

raise_dim.0.attention3.3.bias f4 [32]
000000 dd e9 ff ba 87 e8 5f 3d 23 ce 78 3d f5 fc 02 bd
       -0.0019524653 0.054665115 0.060743462 -0.03197952
000010 ac fe e5 3b c9 fc 3d bb 2b 68 39 3d 2c 4d 0b 3d
       0.0070188846 -0.0028989783 0.045265358 0.034009144
000020 98 de e4 bc 8f 43 ad 3c f5 ea ec 3c 64 18 84 3c
       -0.027938172 0.021150379 0.02892063 0.016124912
000030 b6 0f 8c bc 30 2c 26 bd 25 17 28 bd f7 52 ab 3d
       -0.017097335 -0.040569484 -0.041037697 0.08365434
000040 3a 95 45 3d c4 1e 23 bd b1 de 61 3d 8a db eb 3b
       0.048238017 -0.039824262 0.055144016 0.007197802
000050 57 36 d6 3c 7e 80 a7 bc 82 fc 73 3d 3b 0c ea bb
       0.026148958 -0.020447012 0.059566982 -0.0071425713
000060 6b e3 da bd 97 1c 9c bc 5d c9 98 bb e0 0f e1 bc
       -0.10687908 -0.019056601 -0.0046626762 -0.02747339
000070 07 31 d6 bb d3 c8 ff bc 8b 9d a1 bd 17 34 f5 bc
       -0.0065366062 -0.03122369 -0.07891377 -0.029932065

layers.0.conv1.weight f4 [32, 32, 3, 3]
000000 7f 81 7b 3e 90 d9 ba bd f0 eb c1 39 f0 f8 a1 bc
       0.24561118 -0.09123528 0.00036987616 -0.019772023
000010 5f 52 8b be 14 2e 98 3d 0b 46 30 3d 06 dc 98 be
       -0.27211282 0.07430664 0.04303555 -0.29855365
000020 77 0f d6 3d 03 bf b6 bc c5 64 4e bd 3e 95 d2 3b
       0.104521684 -0.022307878 -0.05038907 0.0064264825
000030 6f b6 a8 bd 34 4e 8c bd aa c2 5c 3c 38 45 ab bd
       -0.082379214 -0.068508536 0.013474146 -0.08362812
000040 47 9d 99 bd d0 70 de bc fb ef 56 3e f5 bb 2d 3e
       -0.075007014 -0.027153403 0.20989983 0.16966231
000050 41 de 4c 3e d5 b8 02 3e e2 2f cd 3d 02 bc d4 3d
       0.20006658 0.1276582 0.100188985 0.10387422
000060 e2 2c 15 3e cf d2 f1 3d f5 4e 47 3c 1b ad 5b bc
       0.14567903 0.11807787 0.012164821 -0.013407971
000070 0f 96 51 bb 0c c5 49 3e cb b8 e2 bd ce 64 86 3e
       -0.003198031 0.19704074 -0.11070403 0.26248783
000080 21 79 1e 3e ba b0 ed bd de c1 88 3d a3 23 c6 3d
       0.15475895 -0.116059735 0.06677602 0.09674766
000090 dc 87 a7 bc ff f2 ef bd d4 e6 8e bd 10 68 9d bd
       -0.020450525 -0.1171627 -0.06977621 -0.07685864
0000a0 e5 09 5b 3c ea 28 9d bd 69 b9 55 bd 74 70 38 bd
       0.013369058 -0.07673819 -0.052178774 -0.04502912
0000b0 bd 9d e3 bd c1 7b 83 bd 95 c1 3f 3c 00 9f 1e 3c
       -0.111140706 -0.064200886 0.011703868 0.009681463
0000c0 1d 5a 2c bb 65 8f 7a 3c a0 3d 9b bc 76 f2 c2 3b
       -0.002629883 0.015292977 -0.018950284 0.0059493138
0000d0 43 30 91 bd 5a 21 22 3d 41 57 87 3c c3 9c 51 be
       -0.07089283 0.039582588 0.016521098 -0.20469956
0000e0 e7 d6 69 be 20 58 32 be 71 77 57 be 68 89 5d be
       -0.22835885 -0.1741643 -0.21041657 -0.21634448
0000f0 53 72 50 be 13 38 35 be c6 2d 96 be 2f 0d 95 bd
       -0.20356111 -0.17697172 -0.29331797 -0.07277905
000100 7d 31 3c be 40 95 65 bd 4d d7 b2 bd b2 c4 18 bd
       -0.18378253 -0.05605054 -0.087324716 -0.03729696
000110 3c 6e d0 bd 74 4c 8f bd b7 5c 8c bd f4 72 7f bd
       -0.101772755 -0.06997004 -0.068536215 -0.062365487
000120 1c 47 0c bd e9 6f 10 be bb 6f b3 bd 43 f0 90 bd
       -0.034247503 -0.1410519 -0.08761545 -0.07077076
000130 00 f7 84 bd 50 e5 8c bd 6c c0 b2 bd 19 40 82 bd
       -0.06492424 -0.068796754 -0.08728108 -0.06359882
000140 40 5b a9 bd 67 eb f2 3b b2 a6 93 3d e0 d5 95 3d
       -0.08269358 0.007413316 0.07209529 0.07316184
000150 a3 13 c6 3c 61 5a 20 bd 5c 13 ff bb 27 71 67 3c
       0.024179285 -0.039148692 -0.0077842902 0.014126099
000160 6c 8a 00 3d 5d d0 c2 bb 65 fa 96 3d 38 4a 0a 3e
       0.03138201 -0.005945249 0.07371978 0.13504875
000170 23 6a d8 3d f9 75 b9 3d 75 9b f3 3c fa 12 f6 3d
       0.10567119 0.090557046 0.029737214 0.12015338
000180 39 c1 6b bd 3e f0 24 3d 3c aa 8f 39 20 e9 82 bc
       -0.05755732 0.040268175 0.0002740192 -0.015980303
000190 fc 9a 20 3d e5 4b 86 3d 00 55 21 bd 2e 36 94 3c
       0.039210305 0.065574445 -0.039387703 0.018092241
0001a0 bb 42 3b 3d e3 45 d0 bd 01 5d 94 3a 2c f0 fb bd
       0.045717936 -0.1016958 0.0011319221 -0.123016685
0001b0 36 3c a3 bd a4 e6 ad bc 1e 89 c5 bd 04 b4 18 be
       -0.07970469 -0.021228142 -0.09645294 -0.1491242
0001c0 4a 3d 2f be b6 b6 b7 bd 22 c1 15 be a7 be bc bd
       -0.17113224 -0.08970396 -0.14624456 -0.092160515
0001d0 93 f2 a3 bd a6 d0 a4 3d 5d 56 b1 bd 2b fc 8f bd
       -0.08005252 0.08047609 -0.086590506 -0.07030519
0001e0 ae 05 44 3d cc 73 9d bd ba db 45 3d 46 49 80 3d
       0.04785698 -0.07688102 0.04830525 0.06263976
0001f0 a0 14 14 3c 11 ea 2c bc 0a 52 ee 3d ff 00 52 3e
       0.0090381205 -0.010553853 0.116367415 0.20508192
000200 a0 5f 49 3e 1e 15 3e 3d 38 63 5b 3e 06 25 2b 3e
       0.19665384 0.046406858 0.21424568 0.16713342
000210 3b a6 dd 3c a1 52 9b 3d 67 75 e8 3d 15 b0 a7 3b
       0.027056804 0.075841196 0.11350518 0.005117426
000220 c4 dc 13 3d 2d 8e 91 3c a3 a4 92 bd cb 67 8a ba
       0.03609921 0.01776799 -0.07160308 -0.0010559497
000230 9e 02 83 bd d6 fb bb bc 91 e3 6b bd af 0d 37 3b
       -0.063969836 -0.022947233 -0.05759007 0.002793174
000240 6b 51 1c bc 6c 96 44 bd 1a f6 a2 bd 66 86 91 3c
       -0.009540896 -0.047995016 -0.079570964 0.017764281
000250 a5 0c ab bc 2c 98 0b bc c7 27 cd bc 4e ff 3d bc
       -0.020880053 -0.008520167 -0.025043381 -0.011596514
000260 38 c5 2b bd 31 f2 97 bc 98 6f e8 3c 4e 0b 99 3d
       -0.04193613 -0.018548103 0.028373525 0.07472859
000270 34 d8 e0 bc d7 cc 63 bc 74 05 9e bc 7c da 0f be
       -0.027446844 -0.013903818 -0.01928971 -0.14048189
000280 41 42 80 bc d8 83 f6 bc 7b ee 0c 3e c4 60 1b 3e
       -0.015656592 -0.030092165 0.13762848 0.15173632
000290 4c 12 e2 3d e1 d5 3d 3d 3f 1a 2c 3e 5c 6d 37 3c
       0.11038646 0.04634655 0.16806887 0.011195507
0002a0 25 93 0d bc 8d 5b 6c bd d6 a4 aa 39 f2 11 4d 3a
       -0.008641039 -0.057704497 0.0003254774 0.00078228035
0002b0 f5 e7 d1 bc d4 43 3b 3c 80 64 05 3e 5b 1a cd bc
       -0.025623301 0.011429746 0.13026619 -0.025036981
0002c0 45 31 25 3d 7b 5f 40 3e d8 8a d6 3d 5d 8a ce 3d
       0.04033019 0.18786423 0.10475701 0.100849845
0002d0 33 a8 30 3d b4 b2 9c 3d 34 b4 80 3c 7c 80 2d bd
       0.043129157 0.076512724 0.015710928 -0.04235886
0002e0 05 64 a6 3d ec e8 12 3d 62 07 a4 bd 4a 50 65 bd
       0.08124546 0.035866663 -0.08009221 -0.055984773
0002f0 b2 68 53 bd 71 82 36 3c fe 04 29 3c 19 2d 52 bc
       -0.051613517 0.011139498 0.010316132 -0.012828135
000300 57 7e 65 3c f4 db 94 bd 4f a6 89 3d f8 43 e0 3c
       0.014007173 -0.07268515 0.06721174 0.02737616
000310 1f 3e d6 3b 72 52 1e 3d f9 29 6e 3c 95 d2 83 bd
       0.006538167 0.038652845 0.014536374 -0.0643665
000320 5f b8 29 3d 45 2c 7d bd a1 73 a4 bc e8 c0 8b bc
       0.041435596 -0.061809797 -0.020074667 -0.017059758
000330 23 4d 96 3b 27 44 5e 3d 2a ef e5 bd fc 41 07 3e
       0.004586832 0.054264214 -0.112272575 0.13208765
000340 7a 50 d7 3c 14 19 ea 3d 45 ff bc 3c 82 1b 3e 3d
       0.026283491 0.114305645 0.02307094 0.046412952
000350 a4 e0 41 3c b2 0a 95 3d 15 c0 86 3d eb 6d c8 3d
       0.011833344 0.072774306 0.065796055 0.0978659
000360 f3 e0 10 be 88 e8 64 bd 7b 5a ac 3e 29 fd 27 bd
       -0.14148311 -0.05588582 0.3366278 -0.041012917
000370 88 9e 63 be 53 28 ee 3c 2d d5 72 bc 7c 55 2a be
       -0.22228444 0.029071962 -0.014821333 -0.16634172
000380 14 60 76 3e 1b e2 a5 3d 82 60 e9 3c 9f b3 3b bb
       0.24060088 0.08099767 0.028488401 -0.0028640998
000390 af f7 db 3c 39 da 4c bd 34 a3 86 3d 11 b6 b1 bc
       0.026851503 -0.0500128 0.06574097 -0.021693261
0003a0 a0 6e b8 3b c4 09 1c 3d 44 2e 35 3c b4 5d 7a 3c
       0.005628422 0.03809525 0.011058394 0.01528113
0003b0 eb 08 84 3e 08 a5 5a bc 62 37 14 be 19 64 02 3d
       0.25788054 -0.013345011 -0.14474252 0.03183374
0003c0 31 e1 9f 3d 5d 42 33 bd 46 36 e0 3c d3 c7 ea 3c
       0.07806624 -0.04376446 0.02736963 0.028659737
0003d0 42 12 ac 3c 16 fb 77 3d 6d 3e 8f 3d e6 16 63 bc
       0.0210048 0.06054219 0.06994329 -0.01386044
0003e0 21 49 e0 3d 7d 4f c2 3c f3 12 5f 3d d4 cf e6 3d
       0.10951448 0.023719544 0.05446143 0.11270109
0003f0 b3 f8 6e be 7e e1 b9 be 58 f7 fa be ec 42 1c bd
       -0.23337059 -0.3630485 -0.49016833 -0.03814976

layers.0.conv1.attention1.0.weight f4 [9, 32, 3, 3]
000000 59 c3 f5 3e 0a 7d 6f be d5 ba a0 3c 3b 86 a6 bd
       0.480006 -0.23387542 0.019620338 -0.08131071
000010 ac e8 6e 3e 53 34 e4 3d 4d 5c 4a be cf 9f 5d 3e
       0.23330945 0.111427926 -0.19761772 0.21642993
000020 7b c1 86 3e de 20 d2 3d 1d 0d 84 3e a3 ce 21 3e
       0.2631949 0.10260175 0.25791255 0.15801482
000030 36 84 23 3d 0b 2b 9b bd 2f 33 4b 3d db 6f 37 bc
       0.039921008 -0.07576569 0.04960936 -0.011196102
000040 17 ce fe 3d cf da 01 3e bb e9 b4 3e 20 e7 0c 3e
       0.12441652 0.12681125 0.35334572 0.13760042
000050 cd 29 b4 3d 5c 70 46 3e da bf b3 3d 13 49 8c be
       0.08797035 0.19378799 0.08776827 -0.273995
000060 ff b7 d9 bd 30 ad 77 be 0f 6b 73 be fe ce 09 3e
       -0.106307976 -0.2418716 -0.23771308 0.13457868
000070 c4 58 93 3d 18 82 2a 3e f8 2a aa 3d 6b 5c 7b be
       0.07194665 0.1665119 0.08308977 -0.24546973
000080 fb c9 f1 3b 2a 0c 14 3e df f4 fd bd 18 6f 8f 3c
       0.0073788143 0.14457765 -0.12400221 0.017509028
000090 6e ae 29 bc 7f 13 46 3e 64 8a 53 bd 7c 27 4e 3d
       -0.010356529 0.19343375 -0.05164565 0.050330624
0000a0 84 c4 ae 3e b5 ac de 3d 24 f4 dd bc 64 0d 4a be
       0.34134305 0.10872785 -0.027093954 -0.1973167
0000b0 0e 56 7b be 78 88 f5 3d f1 7f f8 bd f3 28 aa 3d
       -0.24544546 0.1198892 -0.12133778 0.08308592
0000c0 f2 88 9a bc 2f 32 57 bd d5 93 0d 3e 20 ed 8b 3c
       -0.018864129 -0.052538093 0.13825925 0.017080843
0000d0 7b 54 fb bc 6f 69 b7 bd 79 49 d7 bd 62 33 7a 3c
       -0.030679932 -0.08955657 -0.10512061 0.01527104
0000e0 7f 17 5d 3e 33 a2 0c be e4 d7 2c be c6 31 98 3e
       0.21590994 -0.13733749 -0.1687923 0.29725474
0000f0 ef 25 b4 be bf 0b e6 bd 97 e4 75 3e 11 77 e6 bc
       -0.3518519 -0.11232709 0.24012981 -0.028132947
000100 05 e1 84 3e 66 35 35 3d 04 72 6d 3d 85 2f 41 be
       0.25952926 0.044240378 0.057970062 -0.18865784
000110 5f a6 81 bd af c8 13 be ea ad 5e be 41 69 9e be
       -0.06330561 -0.14432023 -0.2174603 -0.30939677
000120 6c 54 a1 3e 64 c3 8a 3d 0e f9 a2 bd 83 55 dd 3d
       0.3150972 0.06775549 -0.0795766 0.10807326
000130 05 28 7e 3d 70 63 75 be 10 5b 51 3e ac ff 4a 3e
       0.062049884 -0.23963714 0.20444894 0.19824094
000140 05 86 58 3e 24 04 8c be 95 82 b2 be 34 0c c2 be
       0.21144874 -0.2734691 -0.3486525 -0.37899935
000150 4f 35 17 3d a1 c0 8f 3d 44 b3 05 3d 4a 7a f6 bd
       0.036916073 0.07019163 0.032641664 -0.120350435
000160 b1 e7 e6 b9 9e 01 0a be 73 c5 9f 3d 6e 3d 11 3e
       -0.00044041642 -0.1347718 0.07801332 0.1418359
000170 a5 69 09 3e f7 50 36 3e e0 14 88 3e 3d 9e 9b 3e
       0.13419206 0.17804323 0.26578426 0.30394164
000180 3b e1 b1 3d 28 c7 a2 bd a4 f3 ce 3d ef 1c 4e be
       0.086855374 -0.07948142 0.101050645 -0.20128225
000190 b5 bb 2e 3e d8 ec a6 bd 0a ef ee bd 70 42 f8 3c
       0.17063792 -0.08150643 -0.11666687 0.030305117
0001a0 28 b4 40 bd b9 56 c9 bd 68 fa 0e be 47 0f 38 be
       -0.04704681 -0.09830994 -0.1396271 -0.17974578
0001b0 c5 9b 2f 3e e4 9f d9 3d 4b b1 82 3d f8 e6 7e 3e
       0.17149265 0.106262 0.06381472 0.24892795
0001c0 ed fd fa 3d 7b dc ca 3d c4 b4 a5 3d 6f 6e b9 3d
       0.12255464 0.099053346 0.08091119 0.09054267
0001d0 39 d3 62 3e 78 34 80 bd 53 3c bf 3d 64 56 6f 3e
       0.22150888 -0.062600076 0.09337678 0.23372799
0001e0 04 6a 81 3d 89 92 9c bd a5 b1 03 3e c9 74 b1 3e
       0.06319049 -0.07645137 0.12860735 0.34659413
0001f0 42 b3 d2 3d 04 f0 5d 3e 81 66 73 3d d6 70 5d 3d
       0.10288097 0.2167359 0.059423927 0.054062687
000200 a6 ab b3 bd 57 75 e2 3d 6f fe ab 3d bc 25 ef bd
       -0.08772974 0.11057537 0.08398139 -0.11677119
000210 46 d4 a8 3d a6 7c 1b bd d3 15 0f bd 9b c9 07 be
       0.08243613 -0.03796067 -0.034932923 -0.132605
000220 82 e4 37 be 01 bb fd 3c e6 c9 64 bb 08 40 15 3d
       -0.17958263 0.03097296 -0.003491038 0.036438018
000230 4c 75 32 3e ab a8 45 be cc 17 14 be 85 dd f4 bd
       0.17427558 -0.19302623 -0.14462203 -0.11956314
000240 88 a1 f3 3c 63 1d 5e bd 16 2d 1c 3d df 66 05 3f
       0.02974011 -0.054227244 0.038128935 0.52110094
000250 42 69 1e bd 56 e0 2a bd f9 1d 65 3e f5 cf a9 3d
       -0.0386746 -0.04171785 0.22374715 0.08291618
000260 88 09 10 3e eb fa 58 bd a9 e4 23 3e b9 a2 a3 bd
       0.14066136 -0.05297367 0.16005196 -0.07990021
000270 4f 80 c8 bc 97 ff 84 bd 6b 14 4a be 94 e1 7a be
       -0.024475245 -0.064940624 -0.19734351 -0.24500114
000280 95 79 27 be 1d 55 c1 be 81 83 10 be 7d 30 08 bd
       -0.16354974 -0.3776025 -0.14112665 -0.033249367
000290 cc 1c 68 be 27 5b 06 bd a3 e4 44 3e 94 ba 75 3d
       -0.22667235 -0.032801773 0.19227843 0.059992388
0002a0 db d5 b7 be c1 26 e8 bd df bb 76 be 43 0a a2 3d
       -0.35905346 -0.11335517 -0.24095105 0.079121135
0002b0 c8 f1 92 bc 02 99 5b 3d 15 9f d3 bd 54 2b 03 be
       -0.017937556 0.053612716 -0.10333077 -0.12809497
0002c0 84 4c 6f 3d df 37 d0 3c 96 14 8d 3d 4e 04 8f bd
       0.05842258 0.025417266 0.06888692 -0.06983243
0002d0 5c 82 3f bd 77 da 87 3c 5a cb 76 be 43 37 0f 3e
       -0.04675518 0.016583664 -0.2410101 0.13985924
0002e0 97 d0 5d 3e c1 db 0c be 8a 99 5d bd de ce 27 3d
       0.21661602 -0.13755704 -0.054101504 0.04096877
0002f0 4d 16 f7 bd 4a 35 b2 3e 7a 01 3e 3d 96 d5 36 3e
       -0.120648004 0.3480628 0.046388127 0.17854914
000300 e6 75 07 3e 17 c8 a2 3c 77 ec ca 3d 4b 30 32 bd
       0.13228568 0.0198708 0.09908383 -0.043503087
000310 88 86 dd 3c ae 60 8c 3d 7f 51 23 be 75 f8 b3 3c
       0.027041689 0.06854378 -0.15949057 0.02196906
000320 c5 1f ad bd 59 a8 0d be 0a b3 2f 3e 50 d1 c0 3d
       -0.08453325 -0.13833751 0.17158142 0.09414923
000330 1f 1c 4e 3d 93 5a 5f bd 32 59 27 be a5 cb 40 3e
       0.050319787 -0.054529738 -0.16342619 0.18827684
000340 0f b7 c2 3d 80 52 8f 3e 58 0c be bb 43 ca 1a 3e
       0.09507572 0.2799263 -0.0057998113 0.15116219
000350 76 4e 52 bd 9a cd 17 bd 2b 58 88 3d 55 0e 3c 3e
       -0.051344357 -0.03706131 0.06657442 0.18364842
000360 d1 1c ca 3e dd 7d a2 3e 6d dc f4 3e d0 3a a7 3c
       0.3947511 0.3173665 0.47824422 0.020413786
000370 f9 44 ed 3c a8 59 76 3e 1c 90 71 bd 79 80 8b 3d
       0.028963553 0.24057639 -0.058975324 0.068116136
000380 f6 c1 35 3e a4 d2 f7 3d f1 b3 22 bd 6b e6 2f 3b
       0.17749771 0.121007234 -0.039722387 0.002684022
000390 6d ff 0a 3e bf 75 d1 3c e3 0f 0f 3e 75 ac 1e 3e
       0.13574 0.025568841 0.13970904 0.15495475
0003a0 e0 92 50 3e 95 a2 2f 3e 1b 3f 0c 3d 74 26 c8 3e
       0.20368528 0.17151864 0.03423987 0.39091837
0003b0 ed 40 b8 3e e8 44 34 3d 70 b2 26 3a e0 65 36 3e
       0.35987034 0.044011027 0.0006358987 0.178123
0003c0 13 d6 80 3e 7a 1c 28 3e c1 c5 27 3e 8f 47 a9 3d
       0.25163326 0.16417113 0.16384031 0.08265602
0003d0 1c 2d 12 3e f1 52 19 bd a5 50 0a bb 3c b1 48 3d
       0.1427502 -0.037432615 -0.0021105197 0.04899715
0003e0 5f e2 1d 3e c1 d9 c6 3d 0f f8 9e 3d 05 b1 d4 3d
       0.15418385 0.09709502 0.07762157 0.10385326
0003f0 1f cf 72 3d b3 98 cd bc 19 76 3f 3d c3 ed ac bd
       0.059279557 -0.025097227 0.046743486 -0.08443787

layers.0.conv1.attention1.0.bias f4 [9]
000000 f2 0f 02 3e c9 fb d8 3d 0a 72 9b 3d 47 46 36 be
       0.12701395 0.10594899 0.075901106 -0.17800246
000010 90 58 fc 3d 5f 2a 38 3e c1 5d 28 3e b0 d6 c0 3d
       0.123215795 0.17984913 0.16442014 0.094159484
000020 69 69 21 3e
       0.15762867
