weights/BWNET_LAGConv_T3/model_epoch_0.pth (torch, 678082 bytes, 141 tensors)

raise_dim.0.weight f4 [32, 9, 3, 3]
0	0xba8b0b3e	-0.0010608209
1	0x3cc12768	0.02357836
2	0xbccbb0ac	-0.024864517
3	0x3d2c56c4	0.042074934
4	0x3d2033ae	0.039111786
5	0xbdab9222	-0.08377482
6	0x3d83ce1f	0.06435799
7	0xbc8d6b1c	-0.017262988
8	0x3dd738e1	0.10508896
9	0xbdd6d02b	-0.10488924
10	0xbbbbc61c	-0.0057304036
11	0x3d638aa5	0.055552144
12	0x3da7d294	0.081944615
13	0x3bdd77c5	0.0067586624
14	0xbd604497	-0.054752912
15	0xbda51586	-0.08060746
16	0xbda1683d	-0.0788121
17	0x3dc20e46	0.09475379
18	0xbdba5f16	-0.091001675
19	0xbd1ce819	-0.038307283
20	0x3d83051e	0.063974604
21	0x3d881ce6	0.06646137
22	0xbdbb67d7	-0.09150665
23	0x3ce2da19	0.027691888
24	0x3c9c3c0a	0.019071598
25	0x3ddc8b88	0.10768801
26	0x3ae272c8	0.0017276639
27	0x3d59f16c	0.053208753
28	0xbb723ed5	-0.003696372
29	0x3dd763b8	0.10517067
30	0xbbb09c8c	-0.0053897556
31	0xbd731801	-0.059349064
32	0x3cd86339	0.0264145
33	0xbd58c7ba	-0.05292485
34	0x3d0a46b5	0.033758838
35	0x3daa532b	0.08316644
36	0xbda46875	-0.08027736
37	0xbd9930b3	-0.07479992
38	0x3bfacab8	0.0076535605
39	0xb9dfdaa1	-0.00042696766
40	0xbce98b52	-0.028508816
41	0x3dcae731	0.099073775
42	0x3d64acc0	0.05582881
43	0xbcfbc0dc	-0.030731611
44	0x3cb5be5c	0.022185497
45	0xbc245b37	-0.010031513
46	0xbd844917	-0.06459253
47	0x3d5597db	0.052146774
48	0xbd889bb2	-0.066703215
49	0x3ca425e5	0.0200376
50	0x3da8025b	0.08203574
51	0xbdc39cbb	-0.09551378
52	0x3c3c894b	0.011507343
53	0x3ddfbaad	0.109242775
54	0x3d641bd2	0.055690594
55	0xbd1d331a	-0.038378812
56	0x3cbc6a79	0.022999989
57	0xbdca80e2	-0.09887864
58	0x3cbecd2d	0.023291195
59	0x3dd101a4	0.10205391
60	0x3dd0d783	0.101973556
61	0x3b72d5c4	0.0037053684
62	0x3d3b5da9	0.04574362
63	0xbc58e343	-0.013237777
64	0xbcd561ed	-0.026047671
65	0x3bf053bd	0.007334201
66	0xbd7405f4	-0.05957599
67	0x3d4c4ab7	0.04987594
68	0x3d742385	0.059604187
69	0xbcccccdc	-0.025000028
70	0xbca4c810	-0.020114928
71	0xbd940ba5	-0.072287835
72	0x3c9e3415	0.019311944
73	0x3d49b8fc	0.04924868
74	0x3de2819b	0.110598765
75	0xbdcc0f03	-0.09963801
76	0xbdb58053	-0.088623665
77	0x3c06391e	0.008192329
78	0x3ddc9af3	0.10771742
79	0x3c484808	0.012224205
80	0x3d130a3e	0.03589844
81	0x3caff12d	0.021477306
82	0xbbedebb7	-0.0072607654
83	0x3daf3ce4	0.08556536
84	0x3db28e12	0.08718504
85	0xbd6eab3a	-0.058268763
86	0xbd76e61d	-0.060278047
87	0xbda40bac	-0.08010039
88	0xbcaaa800	-0.020832062
89	0x3b844d04	0.0040375013
90	0x3dcec57a	0.100962594
91	0xbdcbbdfa	-0.099483445
92	0x3db2004a	0.086914614
93	0xbd5d766d	-0.054068018
94	0x3c8b8b37	0.017034156
95	0x3b3deae2	0.0028979112
96	0x3d914e26	0.07094984
97	0xbdae09d4	-0.08497968
98	0xbd8e4f9b	-0.06948777
99	0x3c1aab81	0.009440304
100	0x3d81236c	0.06305584
101	0xbd3e110d	-0.04640298
102	0x3d297e86	0.041380428
103	0xbcb7e5da	-0.022448469
104	0xbdc5a645	-0.09650854
105	0x3ca2f840	0.019893765
106	0xbc88f6c1	-0.016719224
107	0x3d953df8	0.0728721
108	0x3da29fdc	0.07940647
109	0x3da1f820	0.07908654
110	0x3d9bbe59	0.07604665
111	0xbda32795	-0.07966534
112	0xbdcd6e85	-0.100308456
113	0x3c9b16a3	0.018931692
114	0x3d1f442d	0.038883377
115	0xbda2001a	-0.079101756
116	0x3dc77431	0.097389586
117	0xbbcbe7c0	-0.006222695
118	0xbd732d16	-0.05936917
119	0x3da805ef	0.08204257
120	0x3dd2d35b	0.10294219
121	0x3cba13a5	0.022714445
122	0xbcf20f44	-0.029548295
123	0x3c93ce71	0.018042775
124	0xbd9bfb5c	-0.07616302
125	0x3d9874b4	0.07444134
126	0x3d968ea0	0.07351422
127	0xbc89e5d4	-0.016833223
128	0xbdac070a	-0.0839978
129	0x3db0c308	0.08630949
130	0xbdb23eb6	-0.087033674
131	0xbd5e37f7	-0.05425259
132	0x3d90682b	0.070511185
133	0xbd51aa48	-0.051187783
134	0x3ccfca7c	0.025365107
135	0x3dc909b6	0.09816305
136	0xbbe62034	-0.007022882
137	0xbc93d26d	-0.018044675
138	0x3de11e40	0.10992098
139	0x3cd45f64	0.025924392
140	0x3d3c0bd9	0.045909736
141	0xbcefeb10	-0.029286891
142	0xbdb5f0cd	-0.0888382
143	0x3cc9866d	0.024600232
144	0xbd70535d	-0.05867325
145	0xbd4e061d	-0.0502988
146	0xbdabe0ba	-0.083924726
147	0x3dd1764a	0.1022764
148	0xbd8a3254	-0.067478806
149	0x3d216402	0.039402016
150	0x3cf77364	0.03020639
151	0x3dabd778	0.08390707
152	0x3d8b39b3	0.06798115
153	0xbd8f3065	-0.069916524
154	0x3d6a8693	0.057257246
155	0xbd4633f8	-0.048389405
156	0x3c44e2b7	0.012016944
157	0xbd044b43	-0.032298338
158	0xbdb24061	-0.087036856
159	0x3d2999ed	0.04140656
160	0xbd876fcb	-0.0661312
161	0x3def4e89	0.11684901
162	0x3d404270	0.04693836
163	0xbd1506f8	-0.0363836
164	0xbd813c12	-0.06310286
165	0xbdccf071	-0.10006798
166	0xbd5cc77e	-0.053901188
167	0xbd907b8a	-0.07054813
168	0x3c6d8da6	0.014499104
169	0x3ceca2ef	0.028886287
170	0x3dc987d5	0.09840361
171	0x3c8fbb3e	0.017545339
172	0xbca367cf	-0.01994696
173	0xbd402ebc	-0.04691957
174	0xbc5561aa	-0.013023773
175	0x3d7b3ded	0.061338354
176	0xbdd6197f	-0.10454082
177	0xbdcaf4e5	-0.09909991
178	0x3d3e47d7	0.04645523
179	0xbd01be1d	-0.031675447
180	0xbcf8dfbd	-0.030380124
181	0xbd8d7471	-0.06906975
182	0xbd925edf	-0.071470015
183	0xbda5368e	-0.08067046
184	0xbd855218	-0.06509799
185	0xbdcadc00	-0.09905243
186	0xbd4b4f46	-0.049636148
187	0x3dbbc1d4	0.09167829
188	0xbd715ead	-0.05892818
189	0x3db1c74a	0.086805895
190	0xbdbab10a	-0.09115799
191	0x3c79c5e3	0.015244934
192	0xbbde88ed	-0.006791225
193	0xbda6ef5e	-0.081511244
194	0x3ba7e5a2	0.00512381
195	0x3dc29a49	0.09502084
196	0xbd43c75e	-0.047797553
197	0x3dd5fbe1	0.10448433
198	0xbc133dcc	-0.0089869015
199	0xbd04a864	-0.032387152
200	0x3d6bd083	0.0575719
201	0x3db79d65	0.089655675
202	0x3dca1635	0.09867517
203	0x3d8c7ccf	0.06859743
204	0xbdc58b1f	-0.09645676
205	0xbca2991e	-0.019848403
206	0x3c74ae52	0.014934139
207	0xbd438179	-0.047730897
208	0x3d60e065	0.0549015
209	0xbcb04435	-0.021516899
210	0xbdbdc268	-0.09265596
211	0xbd3ce1f2	-0.046113916
212	0xbd8c5b5c	-0.06853363
213	0x3d3b3541	0.045705084
214	0xbd9f6602	-0.07783128
215	0xbccb94b1	-0.024851175
216	0x3c5ea8dd	0.013590065
217	0x3d4d204e	0.050079636
218	0xbdaa9a5f	-0.08330225
219	0x3da16cf3	0.078821085
220	0xbd8d9b3f	-0.069143765
221	0xbda9fdfe	-0.08300398
222	0x3d42f91c	0.04760085
223	0xbd810f32	-0.063017264
224	0x3da97d9d	0.08275912
225	0x3d4bd0b3	0.049759578
226	0xbd5549c1	-0.05207229
227	0xbcb8ab86	-0.022542726
228	0xbd4884c9	-0.04895476
229	0xbc0ed233	-0.008717108
230	0x3ac762b7	0.0015211914
231	0xba600c76	-0.00085467787
232	0xbd90ed51	-0.070765145
233	0xbdba19f2	-0.0908698
234	0xbd8dd0e7	-0.069246106
235	0x3ca881c1	0.020569684
236	0x3c583483	0.0131961135
237	0xbd5dd171	-0.054154817
238	0xbc84f8d2	-0.016231928
239	0xba8abcb7	-0.0010584806
240	0x3da67df0	0.081294894
241	0xbdc8d403	-0.09806063
242	0xbd43a1fe	-0.04776191
243	0xbc66255e	-0.014046995
244	0xbc80dd63	-0.015730565
245	0xbd6784e8	-0.056523234
246	0x3d6bbf03	0.05755521
247	0xbd2009b1	-0.039071742
248	0x3c6221dc	0.013802018
249	0xbd77e793	-0.06052358
250	0x3de6fd1b	0.11278745
251	0xbd81bbfa	-0.06334682
252	0xbca17e52	-0.019713555
253	0x3dbe1619	0.092815585
254	0x3d819e7b	0.06329056
255	0xbdc4d39a	-0.09610672

raise_dim.0.attention1.0.weight f4 [9, 9, 3, 3]
0	0xbd4f4a6a	-0.050608076
1	0x3ed47c44	0.41501057
2	0xbce3f8fa	-0.027828682
3	0xbe0c10c4	-0.1367827
4	0x3d24381e	0.04009258
5	0xbd4e3cce	-0.050350957
6	0xbe6e0925	-0.23245676
7	0x3ebc4558	0.36771655
8	0xbc060445	-0.008179729
9	0xbee257e8	-0.44207692
10	0xbd83cfc5	-0.06436113
11	0x3dd8db8e	0.10588752
12	0xbe649953	-0.22324114
13	0xbcc84a37	-0.02444945
14	0xbe19ee40	-0.15032291
15	0xbe7cc44b	-0.24684255
16	0xbda78881	-0.08180333
17	0xba789158	-0.0009482107
18	0xbe82c4a0	-0.25540638
19	0xbe0d70ea	-0.13812605
20	0xbe0be697	-0.13662182
21	0xbdd51d9a	-0.10406037
22	0xbe55e9f8	-0.20890033
23	0xbd9e73c6	-0.07736926
24	0x3cbfdd1a	0.02342086
25	0x3e4e74b4	0.20161706
26	0x3ed507b5	0.41607442
27	0x3e7691dd	0.2407908
28	0x3d6ff8ce	0.058586888
29	0x3cc68df4	0.02423761
30	0xbe7c3a9d	-0.24631734
31	0x3e52de92	0.20592716
32	0x3dae4309	0.0850888
33	0x39bcaf1d	0.00035988624
34	0xbb3ca396	-0.0028784028
35	0xbee17c46	-0.44040126
36	0x3d62a3c8	0.055331975
37	0xbd33e4cf	-0.04391938
38	0x3dcd75bc	0.10032222
39	0x3e98f023	0.2987071
40	0x3c2b607e	0.010460017
41	0x3e0ee411	0.13954188
42	0x3c225920	0.009908944
43	0xbcba8521	-0.022768559
44	0x3eb6b196	0.35682362
45	0xbd496b12	-0.049174376
46	0x3de8f5a0	0.11374974
47	0x3e349e74	0.1763857
48	0xbe340590	-0.17580247
49	0xbccc251d	-0.02492004
50	0x3d52affa	0.051437356
51	0x3e0475d9	0.1293558
52	0xbe3270e4	-0.17425877
53	0xbd532d5f	-0.05155694
54	0xbe245ad3	-0.16050272
55	0xbda7460f	-0.081676595
56	0xbd4c5eaa	-0.049894966
57	0xbde6e0d0	-0.11273348
58	0xbe1bf49d	-0.15230031
59	0xbc047333	-0.008084106
60	0x3db2f085	0.08737282
61	0xbe0e2bd7	-0.13883911
62	0x3d513e38	0.051084727
63	0xbe6076b4	-0.21920282
64	0xbe6c4689	-0.23073782
65	0xbe79ad7c	-0.24382585
66	0x3d023bee	0.031795435
67	0xbcd6a875	-0.026203373
68	0xbe9ee0ae	-0.31030792
69	0x3e87a2f0	0.264915
70	0xbd84407b	-0.06457611
71	0xbe53db53	-0.20689134
72	0xbe65b18e	-0.22431013
73	0xbe380e50	-0.1797421
74	0x3e625717	0.22103535
75	0x3e0e87d7	0.13919006
76	0x3cb1258e	0.021624353
77	0xbd6f2b84	-0.05839111
78	0xbd8c8ece	-0.06863175
79	0x3e7421f3	0.23841076
80	0xbd9aa8a4	-0.07551697
81	0xbe5f6415	-0.21815522
82	0x3d8404a2	0.06446196
83	0xbdad4979	-0.084612794
84	0xbe275e73	-0.16344623
85	0x3d81fce8	0.06347066
86	0x3e949609	0.29020718
87	0x3e8847ef	0.2661738
88	0xbe8e801e	-0.2783212
89	0x3e3eed35	0.18645175
90	0x3e39c0e6	0.18139991
91	0xbe24bbd3	-0.16087274
92	0xbe879d98	-0.26487422
93	0xbd97a13b	-0.07403799
94	0xbe52ed38	-0.20598304
95	0xbdfc8ca6	-0.12331514
96	0x3d7332d8	0.05937466
97	0xbdb1bc29	-0.08678467
98	0x3d93ef11	0.07223333
99	0xbe1b380a	-0.15158096
100	0x3e8aea71	0.2713199
101	0x3e8c2db4	0.2737862
102	0x3dfccb14	0.123434216
103	0xbe5a5e06	-0.2132493
104	0xbce1f5b0	-0.027582973
105	0xbd1af7d4	-0.037834004
106	0x3ce56285	0.02800108
107	0x3d175b02	0.036952026
108	0x3e3fdbcd	0.18736191
109	0x3e101119	0.14069022
110	0xbe461953	-0.19345598
111	0x3e1a3c1e	0.15061995
112	0x3e3430b4	0.17596704
113	0x3e6cffab	0.23144405
114	0x3e5573ba	0.20844927
115	0xbe41ff32	-0.18945006
116	0x3dd3a3e8	0.10333997
117	0x3e9132b5	0.28359
118	0xbd9db107	-0.07699781
119	0x3ca29eab	0.01985105
120	0x3e352f44	0.17693812
121	0x3db0db46	0.08635573
122	0xbdd24ee7	-0.10268956
123	0xbe4d3412	-0.20039394
124	0xbd8cba33	-0.06871452
125	0x3d89eadf	0.06734251
126	0x3df34111	0.11877645
127	0xbe2a9d0c	-0.16661471
128	0xbe082b14	-0.13297683
129	0x3d9765f5	0.07392494
130	0x3ddab7d4	0.10679594
131	0x3df54f79	0.11978049
132	0x3ce80b24	0.028325625
133	0x3d1a8a1e	0.037729375
134	0xbdccf9c8	-0.100085795
135	0x3cfabcd4	0.030607618
136	0xbe160e2b	-0.14653842
137	0x3e007176	0.12543282
138	0x3e66681d	0.22500654
139	0xbd8dd239	-0.069248624
140	0xbe5894fa	-0.2115058
141	0x3e1159d7	0.14194427
142	0x3c5dfc61	0.013548941
143	0xbe5ec12f	-0.21753381
144	0xbd20a762	-0.03922213
145	0xbe14696e	-0.14493343
146	0xbd80ebb7	-0.06294959
147	0x3e3492ab	0.17634074
148	0x3d91f707	0.07127195
149	0xbdddc43d	-0.10828445
150	0x3ce85422	0.02836043
151	0xbea8a893	-0.32941112
152	0xbe1897d2	-0.14901665
153	0xbe68bf07	-0.22729121
154	0x3cf40b09	0.029790418
155	0x3dd3cd01	0.10341836
156	0xbdfcf0e0	-0.12350631
157	0x3da238aa	0.07920964
158	0x3e427b59	0.18992366
159	0xbe9fcab1	-0.3120933
160	0xbde14aae	-0.11000572
161	0x3bb36d5f	0.0054756845
162	0x3d1884e2	0.037236102
163	0xbde15dbd	-0.11004207
164	0xbd0917a4	-0.03346981
165	0x3c328260	0.010895342
166	0x3d71c2fe	0.05902385
167	0xbdab5e11	-0.08367551
168	0xbcb112ca	-0.021615405
169	0xbdf84b8b	-0.12123784
170	0xbbf0ff66	-0.0073546646
171	0x3e9039e9	0.28169182
172	0xbd4fcf4e	-0.05073481
173	0x3e5d6a17	0.21622501
174	0xbdd67664	-0.104718
175	0x3c8a879f	0.016910372
176	0xba713818	-0.0009201779
177	0x3b2b7dea	0.002616758
178	0xbd5ec4f2	-0.05438704
179	0xbd9c063d	-0.07618377
180	0x3e3cc285	0.18433578
181	0x3c652b5c	0.013987388
182	0x3d31c009	0.04339603
183	0xbe963e2a	-0.29344302
184	0x3d9ffce4	0.07811907
185	0xbe886203	-0.26637277
186	0xba8c5a21	-0.0010708013
187	0x3e33c67f	0.17556189
188	0xbe23f7fb	-0.16012566
189	0xbdb8cd51	-0.09023536
190	0xbdbd8aa2	-0.09254958
191	0xbb39558a	-0.0028279745
192	0xbe1aac76	-0.15104851
193	0xbe24af1c	-0.16082424
194	0x3d8787b2	0.06617679
195	0xbe024435	-0.12721331
196	0xbe123759	-0.14278926
197	0xbdd9ad34	-0.10628739
198	0xbe42fb04	-0.19041067
199	0xbe729f37	-0.23693548
200	0x3e6f2a06	0.23355874
201	0xbd018d0b	-0.03162865
202	0xbd499739	-0.049216483
203	0xbe59aea2	-0.21258023
204	0xbc27f0c3	-0.010250273
205	0xbe099989	-0.13437475
206	0x3dd8ebb0	0.10591829
207	0x3e936c17	0.28793404
208	0xbc9e2909	-0.019306676
209	0x3d92ffd9	0.07177705
210	0xbcc7ee8e	-0.024405744
211	0xbc9447cd	-0.018100644
212	0xbe9cb660	-0.3060789
213	0xbc068a47	-0.008211679
214	0x3e3f7822	0.18698171
215	0x3e218673	0.15773945
216	0x3e68d94a	0.22739139
217	0xbccf5f5c	-0.025314026
218	0xbdd03fd7	-0.101684265
219	0xbe50f13b	-0.20404522
220	0x3d6dc84c	0.058052346
221	0xbe51a4ad	-0.20472975
222	0xbcfd9f8d	-0.030959869
223	0x3dde395e	0.10850786
224	0x3aae8383	0.001331434
225	0x3cdb62d0	0.026780516
226	0x3e1cfe3a	0.15331355
227	0xbd2c7f69	-0.042113695
228	0xbc687725	-0.0141885625
229	0xbd68c6d9	-0.05683026
230	0xbd38d7b0	-0.04512757
231	0x3e71ecd2	0.23625496
232	0xbdbfc80b	-0.09364327
233	0xbda78594	-0.08179775
234	0xbd62ce3e	-0.05537247
235	0xbe57b822	-0.21066335
236	0xbd94fcf6	-0.07274811
237	0xbe75b04e	-0.23993036
238	0xbe88febb	-0.26756844
239	0xbe1fe7fa	-0.15615836
240	0x3e0e6a9f	0.1390786
241	0xbe716a6c	-0.23575753
242	0x3e6b5f4d	0.22985573
243	0xbe87960e	-0.2648167
244	0xbe167f6b	-0.14697044
245	0xbe2df9ae	-0.16989776
246	0x3bcab0d8	0.006185632
247	0xbe19deda	-0.15026417
248	0x3e0e3115	0.13885911
249	0x3d91ee1f	0.07125496
250	0xbd7351fa	-0.05940435
251	0xbe372833	-0.17886429
252	0xbdbe23f4	-0.09284201
253	0x3c0c25be	0.00855392
254	0x3e863b63	0.26217183
255	0x3e872966	0.26398772

raise_dim.0.attention1.0.bias f4 [9]
0	0xbb9fc131	-0.004875325
1	0x3a32e175	0.0006823757
2	0xbb8c7581	-0.0042864685
3	0xbb8eb014	-0.0043544862
4	0x3b7e6880	0.003881961
5	0xba9c85b3	-0.0011941701
6	0xbb94a1a9	-0.004535873
7	0xbb900b82	-0.004395903
8	0xbbe543b0	-0.0069965944

raise_dim.0.attention1.2.weight f4 [9, 9, 1, 1]
0	0xbe96d996	-0.2946288
1	0xbe942745	-0.2893621
2	0xbe98f5c2	-0.29874998
3	0xbf2fb8da	-0.68641436
4	0x3e52d7ae	0.20590088
5	0xbe90c493	-0.28274974
6	0xbed4012d	-0.41407147
7	0xbee6e800	-0.45098877
8	0x3b1b5012	0.0023698849
9	0xbe56a77a	-0.20962325
10	0x3e3cfd58	0.18456018
11	0x3f14b5ab	0.58089703
12	0x3f32ae6d	0.697974
13	0x3c8d0805	0.017215738
14	0xbf1e7282	-0.61893475
15	0x3f05e2f1	0.5229941
16	0xbea127a8	-0.31475568
17	0x3f492d98	0.78585196
18	0xbe964d7a	-0.29355985
19	0xbe78a22c	-0.24280614
20	0x3f1466e3	0.5796949
21	0xbe123ed2	-0.14281777
22	0x3cec26ff	0.028827189
23	0xbd1aa6a6	-0.037756585
24	0x3f0552a1	0.52079207
25	0xbe8690b2	-0.2628227
26	0x3d9c24f0	0.07624233
27	0x3e9bd905	0.3043901
28	0x3e0e901f	0.13922165
29	0x3e2db012	0.16961697
30	0x3e37910c	0.17926425
31	0xbe36de9c	-0.17858356
32	0xbe21843d	-0.15773101
33	0x3e15c9b5	0.14627726
34	0x3eac3a5c	0.33638275
35	0xbee25ff0	-0.4421382
36	0x3dbe6d9a	0.092982486
37	0x3e9fee84	0.3123666
38	0x3ea6740d	0.32510415
39	0xbf39923c	-0.7248876
40	0x3f1fdebb	0.62449235
41	0x3f8dd9a2	1.1082041
42	0xbbc8b7e4	-0.006125437
43	0xbf2ec266	-0.6826538
44	0x3f0bd4a6	0.5462135
45	0xbe816452	-0.2527185
46	0x3eefe8eb	0.4685739
47	0xbf03552c	-0.51301837
48	0xbf3768c8	-0.7164426
49	0x3eac4b97	0.3365142
50	0xbf677d45	-0.9042552
51	0xbe49ebf7	-0.1971892
52	0x3ee62d84	0.449566
53	0x3cbda1c3	0.023148423
54	0x3f143f6a	0.5790926
55	0x3d51a192	0.051179476
56	0xbf6bdf8f	-0.92138
57	0xbf19a8ff	-0.6002349
58	0x3eebd526	0.46061057
59	0x3ee7b4c3	0.45255098
60	0x3ea196ed	0.3156046
61	0xbea729ab	-0.32648978
62	0x3f4b512c	0.79420733
63	0xbdcb82cc	-0.09937057
64	0x3df74f48	0.120756686
65	0xbbb36d06	-0.005475643
66	0xbf23434f	-0.6377458
67	0x3c257afe	0.010100124
68	0xbf358fb4	-0.709224
69	0xbc8adc83	-0.016950851
70	0xbecd9588	-0.40153146
71	0x3ea7bfc7	0.32763502
72	0x3f0f4c54	0.5597584
73	0xbe4e53e6	-0.20149192
74	0x3daf934d	0.08573017
75	0x3e7b242d	0.24525519
76	0xbf19fc7c	-0.60150886
77	0xbe085110	-0.13312173
78	0x3e1395d2	0.1441262
79	0x3ec1fdb5	0.37888876
80	0x3f5147bb	0.81750077

raise_dim.0.attention1.2.bias f4 [9]
0	0xbb8a5e07	-0.0042226347
1	0xbbdf1604	-0.0068080444
2	0x3b893352	0.004187026
3	0xbb82d28f	-0.0039923857
4	0x3b6602b0	0.0035096817
5	0x3a960d5b	0.0011448072
6	0x3b8f1e6c	0.0043676402
7	0xbb336b9c	-0.0027377373
8	0xbb97e91f	-0.0046359445

raise_dim.0.attention1.4.weight f4 [9, 9, 1, 1]
0	0xbe8c23f3	-0.27371177
1	0xbef6dfdc	-0.48217666
2	0x3ec92fde	0.39294332
3	0x3e1c205b	0.15246718
4	0x3e664f73	0.22491245
5	0x3eb436a4	0.35197937
6	0xbe8c798f	-0.27436492
7	0x3f5f5202	0.8723451
8	0x3dc4388c	0.09581098
9	0x3df4263d	0.11921356
10	0x3e679b8c	0.2261793
11	0xbed171d2	-0.4090715
12	0x3e8f0c8a	0.27939254
13	0xbe87e46a	-0.26541454
14	0xbf14e051	-0.5815478
15	0xbf5e2e8b	-0.8678977
16	0x3ed0fdb8	0.40818572
17	0x3de2c6b1	0.11073054
18	0xbd86e26d	-0.06586156
19	0x3f2d5bce	0.6771821
20	0xbecc0518	-0.39847636
21	0x3edffa1e	0.43745512
22	0xbeedcbb1	-0.46444467
23	0xbea22c62	-0.31674486
24	0xbe9b1646	-0.3029043
25	0x3e8a2686	0.26982516
26	0x3e91f1ba	0.28504735
27	0x3f712378	0.94194746
28	0xbd10270e	-0.035193495
29	0xbf80a8c6	-1.0051506
30	0xbd878c49	-0.06618554
31	0xbea565e2	-0.32304293
32	0x3eced2db	0.40395245
33	0x3df92dd1	0.12166942
34	0x3f6e5751	0.93101984
35	0xbeb123bc	-0.34597576
36	0xbf15a04d	-0.58447725
37	0x3dcd6a7d	0.10030077
38	0xbf328a6f	-0.6974248
39	0xbe9f0603	-0.31059274
40	0xbf0a5872	-0.54041207
41	0x3f0f91db	0.5608193
42	0xbc87da30	-0.016583532
43	0xbc9f3a01	-0.019436838
44	0xbd44eef0	-0.04807943
45	0xbbca2c2b	-0.006169816
46	0x3ec087c3	0.37603578
47	0x3e078686	0.1323491
48	0x3f07fd99	0.53121334
49	0x3ee0881f	0.43853852
50	0xbebe88ba	-0.3721369
51	0x3eb43268	0.35194707
52	0x3ef3b33a	0.47597677
53	0xbf4c35ee	-0.7976979
54	0xbe29b9bd	-0.1657476
55	0xbe10d6c4	-0.14144427
56	0x3f239d84	0.63912225
57	0xbeb50289	-0.35353497
58	0xbdbcc017	-0.09216326
59	0xbeb635df	-0.35587975
60	0x3ccce567	0.025011731
61	0x3f171814	0.59021115
62	0x3e50df07	0.20397578
63	0x3e0d6500	0.1380806
64	0x3e047aeb	0.12937514
65	0x3cba27ad	0.022723997
66	0x3e91ec90	0.28500795
67	0x3f48876b	0.7833163
68	0x3f47b105	0.78004485
69	0xbe3efc42	-0.18650916
70	0xbf1b269c	-0.6060579
71	0xbe3f0e96	-0.18657908
72	0x3e021fe9	0.12707485
73	0x3e28ea2c	0.1649558
74	0x3f49374f	0.7860002
75	0xbdd90e62	-0.105984464
76	0x3dd3af4e	0.10336171
77	0x3e662edf	0.22478817
78	0xbe80e43b	-0.25174126
79	0xbeb46d0f	-0.35239455
80	0xbf0da6d4	-0.55332685

raise_dim.0.attention1.4.bias f4 [9]
0	0x3a41ddf7	0.0007395441
1	0xbb95828c	-0.0045626815
2	0xbb81b667	-0.0039585116
3	0xbb788217	-0.0037919336
4	0x3bcd90ec	0.0062733795
5	0x3be244a1	0.006905154
6	0x3bb7b820	0.005606666
7	0xba9f7caf	-0.0012167896
8	0xba8e8279	-0.0010872624

raise_dim.0.attention3.1.weight f4 [32, 9, 1, 1]
0	0x3da684cc	0.08130798
1	0xbf1c9168	-0.6115937
2	0x3e196a65	0.14981993
3	0x3edef864	0.43548882
4	0xbdad8b90	-0.08473885
5	0xbf022870	-0.5084295
6	0xbdfe1eb9	-0.12408204
7	0x3e381049	0.17974962
8	0xbe9ad6d5	-0.3024203
9	0x3f29d91f	0.66346925
10	0xbf2800f8	-0.6562648
11	0xbd0935f8	-0.033498734
12	0xbe2e8484	-0.17042738
13	0xbf7df33b	-0.99199265
14	0x3f711345	0.9417003
15	0x3dab041e	0.08350395
16	0x3db93bbf	0.09044599
17	0x3db53bc7	0.08849292
18	0x3e8c2f5d	0.27379885
19	0x3f1f4ac8	0.6222348
20	0xbc39a010	-0.011329666
21	0x3f8ec730	1.1154537
22	0x3e48ca4e	0.19608423
23	0x3efad51f	0.48990723
24	0x3e62132f	0.2207763
25	0x3ef8edff	0.48619077
26	0xbf16e156	-0.58937585
27	0x3e6270de	0.22113368
28	0x3e85bf9e	0.26122755
29	0xbf4e7e09	-0.80661064
30	0xbe83faf1	-0.2577739
31	0xbf1fbcb6	-0.62397325
32	0x3dd6a539	0.104807325
33	0xbf4294f7	-0.7600855
34	0xbebe58ac	-0.37177026
35	0x3ef8fce1	0.4863043
36	0x3f454ad3	0.770673
37	0x3f020c80	0.50800323
38	0x3e65d067	0.2244278
39	0x3e84d553	0.25944003
40	0x3e955d9c	0.2917298
41	0xbdf14893	-0.117814206
42	0xbca6336c	-0.020288192
43	0x3dbda234	0.092594534
44	0x3dd44320	0.103643656
45	0xbec297f1	-0.38006547
46	0x3cd3f578	0.025873885
47	0x3c32ace3	0.010905477
48	0xbea207a2	-0.31646448
49	0xbe459390	-0.19294572
50	0x3e70d1d1	0.23517539
51	0x3f468ea5	0.7756141
52	0xbd5974b5	-0.053089816
53	0x3e9a9b3a	0.30196553
54	0x3d28ff6d	0.041259218
55	0x3ecc1722	0.398614
56	0x3d5f767e	0.054556362
57	0xbcdc3a9a	-0.026883412
58	0x3eb57f4a	0.35448676
59	0xbe04479b	-0.1291794
60	0x3ea29773	0.31756172
61	0xbf1e1ca0	-0.6176243
62	0xbf55fdf6	-0.8359064
63	0x3f02501d	0.50903493
64	0xbe2b876c	-0.16750878
65	0xbee06aca	-0.43831474
66	0xbed14ac3	-0.4087735
67	0x3e90a9de	0.28254598
68	0x3f03e4a2	0.5152074
69	0xbdffbacd	-0.12486801
70	0x3f7d4163	0.989279
71	0xbf202344	-0.6255381
72	0x3f34c96c	0.70619845
73	0xbf1e3944	-0.6180613
74	0xbf98ece3	-1.1947292
75	0xbeb79bd8	-0.35861087
76	0xbe55ce48	-0.20879471
77	0x3e9ddefc	0.30834186
78	0x3f0c56bf	0.54819864
79	0xbf0638a9	-0.52430207
80	0xbe545f46	-0.20739469
81	0xbeca327f	-0.3949165
82	0x3e1b209a	0.15149155
83	0xbecef225	-0.40419117
84	0xbe8af8f3	-0.27143058
85	0x3d800531	0.0625099
86	0x3e035a1b	0.12827341
87	0x3e8d43b2	0.2759071
88	0xbd07425e	-0.033022277
89	0x3d2e9538	0.042622775
90	0xbe6c32ad	-0.23066206
91	0x3c9fa583	0.019488102
92	0x3dfab73f	0.12241983
93	0x3f2771d3	0.65408057
94	0xbf2f94d3	-0.6858646
95	0x3e2b1c1f	0.16709946
96	0xbf487218	-0.78299093
97	0x3ee760fa	0.45191175
98	0x3e4ff793	0.20309286
99	0x3f181014	0.59399533
100	0x3f48655e	0.78279674
101	0xbf16d25c	-0.5891473
102	0xbe8337a6	-0.25628394
103	0xbf0129ea	-0.5045458
104	0x3e4b343e	0.19844148
105	0xbe23430c	-0.15943545
106	0x3eb2f184	0.34949887
107	0xbeff1693	-0.4982191
108	0x3e8e42aa	0.27785236
109	0x3f63e34e	0.89018714
110	0x3f26f6ea	0.6522051
111	0x3ebd171c	0.36931694
112	0x3eeabe08	0.45848107
113	0xbe7596d4	-0.23983318
114	0xbee881b7	-0.45411465
115	0xbe013a3d	-0.12619872
116	0x3f628850	0.88489246
117	0x3f1a87f3	0.6036369
118	0xbf0d1976	-0.55116975
119	0xbe085fb7	-0.13317762
120	0x3ea4b985	0.3217279
121	0xbf0dc854	-0.553838
122	0xbefd14a5	-0.49429813
123	0xbe408961	-0.18802406
124	0xbe0ac5f9	-0.13552083
125	0x3e0bae6a	0.13640752
126	0xbe560df3	-0.20903759
127	0xbe165dba	-0.14684191
128	0x3ee88ae8	0.45418477
129	0x3f0781a2	0.5293218
130	0xbe01cbeb	-0.12675445
131	0xbf194404	-0.5986941
132	0x3ecf5621	0.404954
133	0xbe26477c	-0.16238207
134	0x3e171143	0.14752679
135	0xbd17eb34	-0.03708954
136	0xbf01f6b0	-0.5076704
137	0x3eb49ca0	0.35275745
138	0x3e9d4d71	0.30723146
139	0xbefd6bbd	-0.4949626
140	0xbe6ba9b8	-0.23013961
141	0x3df39e2d	0.11895404
142	0xbe9a59bd	-0.3014659
143	0x3ebeaec4	0.3724271
144	0xbe91872d	-0.28423443
145	0x3dcee1eb	0.10101684
146	0x3ee45988	0.44599557
147	0x3f15e5a0	0.58553505
148	0x3f0eb978	0.5575175
149	0x3f0964d4	0.53669477
150	0x3eae514d	0.34046403
151	0xbef504f3	-0.47855338
152	0x3f6161cc	0.8803985
153	0xbeb18ab8	-0.34676147
154	0x3edb28d2	0.4280458
155	0x3f58a26f	0.84622854
156	0x3ead6525	0.3386623
157	0xbd8a5c4e	-0.06755887
158	0xbefb6de3	-0.49107274
159	0x3f1bb6bd	0.6082571
160	0xbe786dc4	-0.24260622
161	0xbd6c1711	-0.057639185
162	0xbe770b11	-0.24125315
163	0xbf211ef5	-0.6293786
164	0xbebdffbd	-0.37109175
165	0xbe29701b	-0.16546671
166	0x3f1634c9	0.58674294
167	0xbf112215	-0.5669263
168	0x3f29e589	0.6636587
169	0xbeb8aa49	-0.36067417
170	0x3e932fcf	0.28747413
171	0xbf6ac605	-0.91708404
172	0x3d971f08	0.073789656
173	0xbec9a89e	-0.39386457
174	0xbee165c0	-0.44022942
175	0x3ebd3c54	0.3696009
176	0xbdc2a281	-0.095036514
177	0x3e1ccdf4	0.1531294
178	0xbecf5b4b	-0.40499339
179	0x3d89dcd6	0.06731574
180	0x3ea796e8	0.3273232
181	0xbed594b7	-0.41715023
182	0x3e551165	0.20807417
183	0x3eec6bbb	0.46175942
184	0x3eb44c12	0.35214287
185	0xbde50d0a	-0.11184128
186	0x3ec646f7	0.38726017
187	0x3e077c44	0.13230997
188	0xbf076c4a	-0.5289961
189	0x3e4efaeb	0.20212905
190	0x3c930a01	0.017949106
191	0xbe9be6b8	-0.30449462
192	0x3f82f6a4	1.0231519
193	0xbec5bb14	-0.38619292
194	0xbd663fa4	-0.056213036
195	0x3e0ce7be	0.13760278
196	0x3dcb7112	0.09933676
197	0xbd12a9eb	-0.035806578
198	0x3ed55987	0.41669866
199	0x3e83bc78	0.25729728
200	0xbe8f02f2	-0.27931935
201	0x3f091fa0	0.5356388
202	0xbee6eabb	-0.4510096
203	0x3e078de6	0.13237724
204	0x3e98ece3	0.2986823
205	0xbf3bd71e	-0.7337512
206	0x3e5966e9	0.21230663
207	0x3e892a1b	0.26789936
208	0xbf7ed908	-0.99549913
209	0xbf9b612a	-1.2139027
210	0x3e1d7a92	0.15378788
211	0x3f06d902	0.5267488
212	0xbf097691	-0.5369654
213	0xbf536991	-0.82582957
214	0xbf28e7df	-0.6597881
215	0xbe1cd84e	-0.15316889
216	0x3dbaad0f	0.091150396
217	0x3ddb920a	0.10721214
218	0xbe602c7d	-0.21891971
219	0x3e85dc00	0.2614441
220	0xbe33008e	-0.1748068
221	0x3d9a0a67	0.07521515
222	0x3f7cf0c6	0.9880489
223	0x3ecf9c66	0.4054901
224	0xbed12205	-0.40846267
225	0x3f1ba5d9	0.6079994
226	0xbedaf398	-0.42763972
227	0x3f599556	0.84993494
228	0xbf1c356d	-0.6101902
229	0x3ed97a0b	0.42475924
230	0xbd3fbe13	-0.04681213
231	0xbf38317f	-0.71950525
232	0xbf7cfb9b	-0.9882142
233	0x3e5a2343	0.21302514
234	0x3f25c77c	0.64757514
235	0x3df5822c	0.11987719
236	0x3ec6cfa2	0.38830286
237	0x3f603aff	0.8759002
238	0xbe3dd122	-0.18536809
239	0x3e53eb95	0.20695336
240	0x3deafab4	0.11473599
241	0xbd0e8b12	-0.034800597
242	0xbe10cd5b	-0.14140837
243	0xbbb55766	-0.0055341003
244	0xbed38a2c	-0.41316354
245	0xbf951fe5	-1.1650358
246	0xbe1ff367	-0.15620194
247	0xbe0b846d	-0.13624735
248	0xbcd51ef8	-0.026015744
249	0x3e0e7ef5	0.13915618
250	0x3e01d2aa	0.12678018
251	0xbca5af71	-0.020225259
252	0x3ec156dd	0.37761584
253	0xbec7a84c	-0.38995588
254	0x3dcbd3cd	0.09952507
255	0xbd2240e5	-0.03961267

raise_dim.0.attention3.1.bias f4 [32]
0	0xbaa22189	-0.0012369613
1	0xbbfa9b62	-0.0076479176
2	0x3be2f8b8	0.0069266222
3	0x3b99e267	0.0046961787
4	0xbc43af02	-0.011943581
5	0x39d9fc21	0.00041577316
6	0xbc6f2f1d	-0.014598635
7	0x3b06eafe	0.0020586844
8	0xbbf581f7	-0.0074922997
9	0xbb784b29	-0.0037886596
10	0xbb340a6d	-0.0027472035
11	0x3c304e6c	0.010760885
12	0x3b6735e0	0.0035279915
13	0x3abd8f1b	0.0014462204
14	0xbb9faf8c	-0.0048732217
15	0xbb85dde6	-0.0040852902
16	0xb80d32a3	-3.366418e-05
17	0x3c2714b7	0.01019781
18	0x3c01ca9e	0.007921843
19	0x3b277a8b	0.002555522
20	0x3b451991	0.0030075053
21	0xbc0cbda7	-0.0085901385
22	0xbbab44ea	-0.005226721
23	0x3b8aa9e4	0.0042316783
24	0xbb5c7442	-0.003363863
25	0xbc87817d	-0.016541237
26	0x3bfd0069	0.007720996
27	0x3be91c2a	0.007113953
28	0xbc123e78	-0.0089260265
29	0xbbb156e5	-0.00541197
30	0x3bec0539	0.007202771
31	0xbba19373	-0.0049309074

raise_dim.0.attention3.3.weight f4 [32, 32, 1, 1]
0	0xbeb9aed6	-0.36266202
1	0xbe8333ee	-0.25625557
2	0x3e1468b6	0.14493069
3	0x3e7e5dd3	0.24840479
4	0xbda67ce3	-0.08129289
5	0xbeac1279	-0.33607844
6	0xbeaa7d7b	-0.3329886
7	0x3e7715d4	0.2412942
8	0x3e0e7459	0.1391157
9	0xbdd98b18	-0.10622233
10	0xbddc00f1	-0.10742367
11	0xbe2fe431	-0.17176892
12	0xbf16d7b2	-0.58922875
13	0x3bf6e8ed	0.007535091
14	0x3e0c579c	0.13705295
15	0xbd95a659	-0.07307119
16	0x3d325bd9	0.043544624
17	0x3dac7af3	0.08421888
18	0xbe569a2f	-0.20957254
19	0x3e6e92df	0.23298214
20	0xbe3199bd	-0.17343803
21	0x3d8d3299	0.06894416
22	0x3e5b150a	0.21394745
23	0xbe2e4cce	-0.17021486
24	0x3e495dd7	0.19664703
25	0xbb166426	-0.0022947877
26	0xbe22c16a	-0.15894094
27	0x3e168d68	0.1470238
28	0x3d9117ca	0.070846155
29	0xbe262234	-0.16223985
30	0xbe626983	-0.22110562
31	0xbea427ea	-0.32061702
32	0x3e2046a6	0.1565195
33	0x3e8bb6b3	0.27287826
34	0xbf51fab2	-0.82023156
35	0x3e82ddde	0.25559896
36	0x3ee37f63	0.44433126
37	0x3ce9e9ca	0.028553862
38	0xbde65ba0	-0.11247945
39	0xbe8e6360	-0.27810192
40	0xbd58bc2a	-0.052913822
41	0xbebed8de	-0.37274832
42	0x3d3c6fae	0.046004944
43	0xbece2498	-0.40262294
44	0xbe087a48	-0.13327897
45	0x3cc1cff4	0.02365873
46	0x3d57b50f	0.052662905
47	0xbc117ce1	-0.008879871
48	0xbeac5f4d	-0.3366646
49	0x3e814d70	0.25254393
50	0x3e91c36d	0.2846941
51	0xbc59fac0	-0.013304412
52	0xbe383b85	-0.17991455
53	0xbe0ede45	-0.13951977
54	0x3cdccf11	0.026954206
55	0xbc2a0e3a	-0.010379368
56	0x3d9f856a	0.077891186
57	0x3ed0f98a	0.40815383
58	0xbeb77d58	-0.35837817
59	0xbee1814c	-0.44043958
60	0x3ea9d93e	0.33173555
61	0x3d0c7241	0.03428865
62	0xbe411a3a	-0.18857661
63	0xbd8f7418	-0.07004565
64	0x3dbdd9ec	0.09270081
65	0xbce75874	-0.02824042
66	0xbbaae25a	-0.0052149715
67	0x3efac874	0.4898106
68	0xbd86aadb	-0.06575557
69	0x3e6dd49b	0.23225634
70	0x3dd5581f	0.104171984
71	0x3f0509c2	0.51968014
72	0x3e7338c2	0.2375212
73	0xbef7dcaf	-0.48410556
74	0xbdd2609c	-0.10272333
75	0xbe743859	-0.2384962
76	0x3e2a699a	0.16641846
77	0x3f031ad8	0.51212835
78	0xbdc478da	-0.09593363
79	0xbee6ac44	-0.45053303
80	0x3ec53f02	0.38524634
81	0x3e875153	0.26429233
82	0xbe2bb05d	-0.16766496
83	0x3e6706f0	0.2256124
84	0x3e92dac5	0.28682533
85	0xbe8c8e14	-0.27452147
86	0xbee65901	-0.4498978
87	0xbca18a81	-0.019719364
88	0xbdf183f4	-0.11792746
89	0x3d9273d2	0.07150997
90	0xbd9528ae	-0.0728315
91	0x3e19a9fc	0.1500625
92	0xbe039d4a	-0.1285297
93	0x3e438961	0.19095375
94	0x3eba3660	0.3636961
95	0xbf0837ae	-0.5320996
96	0x3e5ff512	0.2187083
97	0x3e97415c	0.29542053
98	0xbd1c57d7	-0.038169708
99	0x3c08fd13	0.008361119
100	0xbb5862ac	-0.0033017797
101	0x3d77f8da	0.060540058
102	0x3ca826dd	0.020526344
103	0xbe47f65c	-0.19527572
104	0x3e52a53f	0.20570849
105	0x3e035110	0.12823892
106	0x3db0ba64	0.08629301
107	0xbdba5265	-0.09097747
108	0xbe22e861	-0.15908958
109	0xbb254681	-0.0025219026
110	0x3ed5b2e8	0.41738057
111	0xbe43bc30	-0.19114757
112	0xbe088e18	-0.13335454
113	0x3ed2aa7b	0.4114569
114	0x3e6dfcb6	0.23240933
115	0xbef1f3f2	-0.47256428
116	0xbe2424c5	-0.16029651
117	0xbddb3525	-0.10703496
118	0xbeb2e02d	-0.34936658
119	0xbe70c2ae	-0.23511764
120	0x3db3d976	0.08781712
121	0xbeab2cd2	-0.33432633
122	0xbdda7a18	-0.10667819
123	0xbd0fe165	-0.035127062
124	0x3e07a008	0.13244641
125	0xbe6c2940	-0.2306261
126	0x3e1a1c3d	0.15049835
127	0x3ea06f3b	0.31334862
128	0xbd8feed7	-0.07027977
129	0xbe25d07a	-0.16192809
130	0x3d832355	0.064032234
131	0x3d677ebb	0.056517344
132	0x3e3ed9fd	0.18637843
133	0x3e83ab90	0.2571683
134	0x3eb848fa	0.35993177
135	0xbea66c79	-0.32504633
136	0xbda4b58f	-0.08042442
137	0xbe4a9fbe	-0.197875
138	0xbd93a08a	-0.07208355
139	0x3e23adef	0.15984319
140	0x3e894ca0	0.26816273
141	0x3e8c12a1	0.27357963
142	0xbd837ec4	-0.06420663
143	0x3e49cb58	0.19706476
144	0xbb34e5a8	-0.0027602706
145	0xbe080d4a	-0.1328632
146	0x3ea8328c	0.32851064
147	0x3dd96438	0.10614818
148	0xbd8248fe	-0.063615784
149	0x3e04ee6a	0.12981573
150	0xbe084ea6	-0.13311252
151	0xbef646a3	-0.48100767
152	0x3e77df47	0.24206267
153	0xbcb841d9	-0.022492336
154	0x3e94cb12	0.2906118
155	0xbd52d993	-0.051477026
156	0xbe35c9c1	-0.17752744
157	0x3d4824d3	0.048863243
158	0x3ed1d128	0.40979886
159	0xbeac04bf	-0.3359737
160	0x3c7e8389	0.01553429
161	0x3ea0213d	0.3127536
162	0xbc42effd	-0.011898038
163	0xbe5e5ef7	-0.21715914
164	0xbd845e3e	-0.06463288
165	0x3ed28982	0.41120535
166	0x3ca9d794	0.020732678
167	0xbe523f31	-0.20531918
168	0xbdaf69ff	-0.08565139
169	0xbe183296	-0.14863047
170	0xbe49be45	-0.19701488
171	0xbe835f2c	-0.25658548
172	0xbe574c7d	-0.21025272
173	0xbd9f208b	-0.07769879
174	0x3e3afb53	0.18259935
175	0x3d156d1b	0.036481004
176	0x3dcb7edd	0.099363066
177	0x3d1256f9	0.035727475
178	0xbe178bb8	-0.14799392
179	0x3e23e6e0	0.1600604
180	0x3e36043f	0.17775057
181	0xbd8e1fc0	-0.069396496
182	0x3e33de01	0.17565157
183	0xbe4d84a8	-0.20070136
184	0xbe17fb3c	-0.14841932
185	0x3cb02492	0.021501813
186	0x3e3d00e2	0.18457368
187	0x3e5a8a38	0.21341789
188	0x3cc84495	0.024446765
189	0x3eb10ddb	0.34580883
190	0xbe98c739	-0.29839495
191	0x3e68e676	0.22744164
192	0x3f1d7001	0.6149903
193	0xbf30dbc3	-0.6908533
194	0xbed434c3	-0.41446504
195	0xbe03d4cf	-0.12874149
196	0xbde2af5a	-0.11068602
197	0x3e2e206e	0.17004558
198	0xbe17884f	-0.14798091
199	0xbe1e16ba	-0.15438357
200	0xbdedaad7	-0.11604851
201	0xbe485f64	-0.19567639
202	0x3e65a092	0.22424534
203	0x3df2b724	0.118513376
204	0xbeb81512	-0.35953575
205	0xbe6b3355	-0.229688
206	0x3eb78aad	0.3584799
207	0xbf3e8b0a	-0.74430907
208	0xbeccdb3a	-0.40011007
209	0x3d777006	0.06040957
210	0x3e04389b	0.12912218
211	0xbe07e03f	-0.13269137
212	0x3cb10c46	0.021612298
213	0xbdfbef14	-0.1230146
214	0xbe1962ad	-0.14979048
215	0xb93c3cd9	-0.00017951745
216	0x3e9c4b25	0.3052608
217	0xbed653cf	-0.41860816
218	0x3e4ff993	0.20310049
219	0x3c88bd7d	0.016691918
220	0x3ef8b462	0.4857512
221	0x3e045250	0.12922025
222	0xbdbc53ea	-0.09195693
223	0x3dc00a80	0.09377003
224	0xbe571da5	-0.21007402
225	0xbdb03545	-0.0860391
226	0x3ea0cb4f	0.31405112
227	0x3ce045b1	0.027376981
228	0xbe13ec85	-0.14445694
229	0x3cb9d37e	0.022683855
230	0x3e7d2cd1	0.24724127
231	0x3ede2f1d	0.4339532
232	0xbef22ce7	-0.47299883
233	0xbe6a0d09	-0.22856535
234	0xbea2306a	-0.31677562
235	0xbf21974c	-0.63121486
236	0xbdb51589	-0.08841998
237	0xbf24e1e5	-0.6440719
238	0xbd94799b	-0.07249757
239	0xbf24745d	-0.64240056
240	0xba1f66f0	-0.00060807075
241	0x3ce32271	0.027726384
242	0x3e9ff866	0.312442
243	0x3e5e6576	0.21718392
244	0xbdb30698	-0.08741492
245	0xbe1ecac5	-0.15507038
246	0xbd3332ee	-0.043749742
247	0x3dff5502	0.12467386
248	0x3e700538	0.23439491
249	0xbe0bb1e8	-0.13642085
250	0x3d7dbc5b	0.061947208
251	0xbdd91730	-0.10600126
252	0x3e3b3b03	0.1828423
253	0xbf0d4110	-0.551774
254	0xbe98dd4a	-0.2985633
255	0x3e25d44a	0.16194263

raise_dim.0.attention3.3.bias f4 [32]
0	0x3ba658e5	0.005076515
1	0x3c0b5cdc	0.008506026
2	0x3b253aae	0.0025211978
3	0x3bbb6207	0.005718473
4	0x3bc1c139	0.0059129265
5	0x3bcf6478	0.0063291155
6	0xbbac3e24	-0.005256431
7	0x3bbb555e	0.0057169637
8	0xbc3946c9	-0.01130838
9	0x3be533d0	0.006994702
10	0xbbed900d	-0.007249838
11	0x3b8ff302	0.0043929825
12	0x3c918c5f	0.01776713
13	0xbb8a9b77	-0.0042299586
14	0x3b644ef0	0.003483709
15	0xbbe0b66a	-0.006857683
16	0xbbdf9f15	-0.006824384
17	0xbb912193	-0.004429051
18	0x3b5be856	0.003355523
19	0x3bbaa871	0.0056963493
20	0xbc17c47e	-0.009263156
21	0xbbc5ffb0	-0.006042443
22	0xbc1e0131	-0.009643839
23	0xb8b1187c	-8.444578e-05
24	0x3c7276ac	0.014798801
25	0xbb53990e	-0.0032287273
26	0xbc02df83	-0.00798786
27	0xbbb5e47e	-0.00555092
28	0xbb4ce280	-0.0031262934
29	0x3b7bfc8d	0.0038450093
30	0xba23d287	-0.00062493276
31	0xbb2c27ab	-0.002626876

layers.0.conv1.weight f4 [32, 32, 3, 3]
0	0x3d1a2c06	0.03763964
1	0x3d04ba42	0.03240419
2	0xbd5b3cc3	-0.053524744
3	0xbd042bb7	-0.032268252
4	0xbd81a3fd	-0.063301064
5	0x3c953195	0.01821212
6	0x3d209535	0.039204795
7	0xbd7ad913	-0.061242174
8	0x3cfa7609	0.030573862
9	0xbd29fdbb	-0.04150174
10	0xbd919908	-0.071092665
11	0x3ba6af36	0.0050868047
12	0xbd89abc5	-0.067222156
13	0xbd37e237	-0.04489347
14	0x3d34083e	0.043953173
15	0xbd8137a4	-0.06309441
16	0xbd5028a9	-0.050820027
17	0xbcf71b3d	-0.030164355
18	0x3d7a930f	0.061175402
19	0x3d61b130	0.05510062
20	0x3d655a84	0.055994526
21	0xbc6b9570	-0.01437889
22	0xbc672a3b	-0.01410919
23	0x3d4aa57b	0.04947422
24	0x3d86789a	0.06565972
25	0x3d6e47cd	0.058173943
26	0x3d196754	0.037452057
27	0xbce5623e	-0.028000947
28	0xba3f8d33	-0.0007307112
29	0xbd7052d3	-0.058672737
30	0xbca3b8b6	-0.019985538
31	0x3d39449e	0.045231454
32	0xbc169c93	-0.009192604
33	0x3d0de866	0.03464546
34	0x3cd8b281	0.026452305
35	0x3d39150f	0.0451861
36	0x3d3566ba	0.04428742
37	0xbd2a56ea	-0.041586794
38	0xbc46e61a	-0.012139821
39	0x3c4e470e	0.012590183
40	0x3d843bff	0.06456756
41	0x3cb1b89d	0.021694476
42	0x3ce2e4a3	0.027696913
43	0x3ca64315	0.02029566
44	0xbc81a1d7	-0.015824242
45	0xbd439f8e	-0.047759585
46	0x3c7ebe2b	0.015548269
47	0xbbc5a79a	-0.0060319426
48	0x3d001cde	0.03127753
49	0x3d3de855	0.046364147
50	0xbd11fae2	-0.03563965
51	0x3d0236ac	0.03179042
52	0x3d0a0737	0.033698287
53	0x3d05afa0	0.032638192
54	0x3ca0db8a	0.019635934
55	0xbd43d39d	-0.047809232
56	0xbd22772c	-0.039664432
57	0xbd4160c1	-0.047211412
58	0x3d247c29	0.04015747
59	0x3c5f5a69	0.013632395
60	0xbc108509	-0.008820781
61	0x3c061a0f	0.008184924
62	0xbd85378b	-0.065047346
63	0x3d881778	0.06645101
64	0xbcf77b30	-0.030210108
65	0x3b725788	0.0036978442
66	0xbcc86f1f	-0.02446705
67	0x3c37f424	0.011227641
68	0xbcb48e7b	-0.022040596
69	0xbc5dab87	-0.013529665
70	0x3bf2d991	0.00741119
71	0x3d6da08e	0.058014445
72	0x3d1d3043	0.038376104
73	0xbd237a79	-0.03991172
74	0x3c402cca	0.011729429
75	0x3ced997c	0.029003851
76	0x3d2933c1	0.041309122
77	0x3cac735e	0.021051105
78	0x3cc9b6b2	0.024623249
79	0x3d215fc2	0.039397962
80	0x39c5c826	0.0003772389
81	0xbd72f6e1	-0.059317473
82	0x3ce8367d	0.028346295
83	0x3d1468f0	0.03623289
84	0x3d35c8d9	0.044380996
85	0xbd740841	-0.059578184
86	0x3bbd89fc	0.0057842713
87	0x3d0fa04f	0.03506499
88	0xbc423fec	-0.0118560605
89	0x3c2c8772	0.01053034
90	0xbc50fc1f	-0.012755423
91	0x3d8b2b97	0.067954235
92	0xbd34e708	-0.04416564
93	0x3c4a9ecc	0.012366962
94	0xbd1f7209	-0.03892711
95	0x3d16dc9e	0.03683149
96	0xbb8bdd2d	-0.0042683096
97	0x3ca4cfde	0.02011865
98	0x3d55f51e	0.052235715
99	0xbc028a49	-0.00796754
100	0x3d6180ad	0.055054355
101	0x3d41e63c	0.04733871
102	0xbca15f05	-0.01969863
103	0xbb27a62f	-0.002558123
104	0x3d69138f	0.05690342
105	0xbd28ed93	-0.041242193
106	0x3cfc10f1	0.030769797
107	0xbd0c018e	-0.03418117
108	0xbd34efe2	-0.044174083
109	0x3bc3ed74	0.0059792344
110	0xbd612284	-0.054964557
111	0xbda678cc	-0.08128509
112	0xbdc52128	-0.09625465
113	0xbd6ae44b	-0.057346623
114	0xbd3dc636	-0.046331607
115	0xbd084f91	-0.033279005
116	0xbd2758a0	-0.040856004
117	0x3d3592c0	0.044329405
118	0xbc3f9101	-0.0116922865
119	0xbc6f67c1	-0.014612139
120	0x3d15c620	0.0365659
121	0xbd07de4a	-0.033170976
122	0x3c60a871	0.013712035
123	0x3d007417	0.031360712
124	0xbd2a53ac	-0.041583702
125	0xbd4d1ff2	-0.050079294
126	0x3d4bb90b	0.049737018
127	0x3d5981e2	0.05310238
128	0x3d937bfe	0.07201384
129	0xbd23a2a2	-0.03995002
130	0x3d949e6c	0.07256779
131	0x3cc853ec	0.02445408
132	0xbcd28c7f	-0.02570176
133	0xbbda5696	-0.006663154
134	0x3cf925f7	0.03041361
135	0x3d46edd3	0.04856665
136	0x3d6f89b6	0.05848094
137	0x3c7239e4	0.01478431
138	0xbcd4fb3e	-0.025998708
139	0xbc5a336e	-0.013317926
140	0xbc3d0f9b	-0.011539365
141	0x3cffcf97	0.031226916
142	0xbc6cb631	-0.014447735
143	0x3d93956a	0.07206233
144	0xbbe0f376	-0.0068649603
145	0xbcd1598c	-0.025555395
146	0xbd881f68	-0.06646615
147	0x3ca5ed91	0.020254882
148	0x3c4c2216	0.012459299
149	0xbcc8c59d	-0.024508292
150	0xbcdcce76	-0.026953917
151	0x3b3decd8	0.0028980281
152	0xbd017908	-0.031609565
153	0x3ccdfcec	0.025145017
154	0x3ae78464	0.0017663357
155	0x3d47dd5d	0.048795093
156	0xbc89f324	-0.016839571
157	0xbce2804c	-0.027649067
158	0x3d03a15f	0.032136317
159	0xbcb459d1	-0.022015484
160	0xbcf2ca60	-0.029637516
161	0x3d6a34be	0.057179205
162	0x3cefe91f	0.029285965
163	0x3cffc3d8	0.031221315
164	0xbc10950a	-0.008824596
165	0xbb932592	-0.0044905627
166	0x3d35b444	0.044361368
167	0xbc8261f7	-0.015915854
168	0x3cc9a12e	0.02461299
169	0xbd319ddd	-0.04336344
170	0x3d68288f	0.056679305
171	0xbd8c31ed	-0.0684546
172	0xbd8dc6d1	-0.06922687
173	0xbd1f5b0e	-0.038905196
174	0x3d10df54	0.035369232
175	0xbd5fd13f	-0.054642912
176	0xbc9c35a4	-0.019068547
177	0x3d34b513	0.044118
178	0x3cc2916f	0.023750989
179	0xbd1dcf83	-0.038527977
180	0xbbd1965a	-0.006396097
181	0x3c998e9f	0.018744765
182	0xbd2d8c03	-0.042369854
183	0xbd36a2fa	-0.04458902
184	0x3d4df9ee	0.05028718
185	0x3d787815	0.060661394
186	0x3b803ac1	0.003913254
187	0xbd14d5d7	-0.036336746
188	0x3d3fcb05	0.046824474
189	0x3c965129	0.018349247
190	0x3c7644fe	0.015031097
191	0x3b468093	0.0030289039
192	0x3c4681a9	0.012115874
193	0xbd2e759d	-0.042592634
194	0x3d337fef	0.04382318
195	0xbc8b151c	-0.01697784
196	0xbc186209	-0.009300717
197	0xbce15513	-0.027506387
198	0x3d161417	0.036640253
199	0xbcb360e9	-0.021896796
200	0x3d453f9d	0.04815637
201	0xbc973c5e	-0.018461403
202	0xbd3358b2	-0.04378576
203	0xbbf8a3e5	-0.007587897
204	0x3d300a55	0.042978603
205	0x3d73dbe1	0.059535865
206	0xbd26fc1a	-0.040767767
207	0x3d372a77	0.044718232
208	0xbd909f48	-0.070616305
209	0x3cf87efc	0.030333988
210	0xbcc2ca98	-0.023778245
211	0xbd6ac616	-0.057317816
212	0xbd75129d	-0.059832204
213	0x3c625af8	0.013815634
214	0x3a8277fc	0.0009953971
215	0x3c8c208d	0.017105365
216	0xbd8a70df	-0.0675981
217	0xbd089787	-0.033347633
218	0x3d173df4	0.036924317
219	0x3cde818c	0.027161382
220	0x3a1a671b	0.00058899977
221	0xbd51806f	-0.051147874
222	0xbd745451	-0.059650723
223	0xbd290281	-0.041262154
224	0x3c511cda	0.012763226
225	0x3d3c7f76	0.046019994
226	0xbbe3a8e1	-0.006947622
227	0xbcbf00a6	-0.023315739
228	0x3c34bea1	0.011031778
229	0xbd90224a	-0.0703779
230	0x3cca471b	0.024692109
231	0xbd86cc71	-0.06581963
232	0xbd58e359	-0.05295119
233	0xbd1ad715	-0.037802774
234	0xbca0cfd5	-0.019630352
235	0x3c3e113f	0.0116007915
236	0x3d2c5aff	0.04207897
237	0xbd9124b8	-0.07087082
238	0x3a81547b	0.0009867096
239	0xbd84127c	-0.06448838
240	0xbb6dfdcd	-0.0036314607
241	0x3cad883d	0.021183128
242	0x3bce173b	0.0062893904
243	0xbd3925b0	-0.045201957
244	0xbd16011b	-0.036622148
245	0x3c3d5541	0.011555971
246	0x3c48009d	0.0122071775
247	0xbd5ae856	-0.05344423
248	0x3d03c915	0.03217419
249	0xbd1eaba8	-0.038737923
250	0xbc8b2ac6	-0.01698817
251	0x3c82e7e7	0.01597972
252	0x3d6e9366	0.05824604
253	0xbd14b0ad	-0.036301304
254	0xbd13114f	-0.03590518
255	0x3d2302a4	0.03979744

layers.0.conv1.attention1.0.weight f4 [9, 32, 3, 3]
0	0x3e24ad1e	0.16081664
1	0xbdcc9d19	-0.099909015
2	0xbdd8d6a5	-0.10587815
3	0x3d2d5550	0.04231769
4	0x3dd0f00f	0.102020375
5	0xbd687123	-0.05674852
6	0xbdec59b8	-0.1154055
7	0xbca54516	-0.020174544
8	0x3c9f1776	0.019420367
9	0x3ba2bccb	0.0049663535
10	0x3e1fd887	0.15609942
11	0xbb1ebba4	-0.002422073
12	0x3d00d0dc	0.031449184
13	0xbd8ea27e	-0.06964587
14	0xbd0c4fc4	-0.034255758
15	0xbdfa5f44	-0.12225202
16	0x3ad4c2bd	0.0016232353
17	0xbce585ae	-0.028017845
18	0x3dbb5601	0.09147263
19	0xbd754970	-0.05988449
20	0xbe2eb9b9	-0.17063035
21	0xbcaaff1f	-0.020873604
22	0x3c7cb2d7	0.015423498
23	0xbe32ed63	-0.17473368
24	0xbd2c7529	-0.04210392
25	0xbd986cbb	-0.07442614
26	0xbd7fa85a	-0.062416412
27	0x3d8a4a55	0.06752459
28	0xbd01a8a2	-0.03165496
29	0x3e3572a5	0.17719515
30	0x3d17716d	0.036973406
31	0xbd7f8313	-0.06238086
32	0xbc96d66f	-0.018412797
33	0x3d8c27ba	0.06843515
34	0xbda9aadb	-0.08284541
35	0xbd21a59d	-0.03946458
36	0xbe0f7be3	-0.14012103
37	0x3d242e0a	0.04008297
38	0x3d69b617	0.05705842
39	0xbda104bd	-0.07862232
40	0x3e0fde3f	0.14049624
41	0x3e501a4d	0.20322533
42	0x3d1dffac	0.038573906
43	0xbc6a6eb6	-0.014308622
44	0xbc9d8033	-0.01922617
45	0x3d3d1997	0.046166983
46	0xbe034358	-0.12818658
47	0x3d3031db	0.043016296
48	0xbd28a34d	-0.04117136
49	0x3ccda0ea	0.025101144
50	0x3d040804	0.032234207
51	0x3c7c1fb6	0.01538842
52	0x3c8131a9	0.01577075
53	0xbdbc6711	-0.09199346
54	0xbd670f59	-0.05641112
55	0xbc85a667	-0.016314698
56	0x3c20e9f3	0.009821403
57	0x3dc0a74f	0.094069116
58	0xbdb2a837	-0.08723491
59	0x3d7e2c3f	0.062053915
60	0xbe10f85f	-0.14157246
61	0xbd80da6f	-0.06291663
62	0x3deba2b2	0.11505641
63	0xbdb64f1f	-0.0890181
64	0x3db8d022	0.09024073
65	0xbcfafaa3	-0.030637091
66	0x3df96ff3	0.12179556
67	0xbdb227ff	-0.08699035
68	0x3e0c0022	0.13671926
69	0x3cae8b38	0.021306619
70	0x3d88bac2	0.06676246
71	0xbda7ffd7	-0.082030945
72	0x3e0adfba	0.13561907
73	0xbd8d52db	-0.06900569
74	0xbe3fe654	-0.18740207
75	0xbc9dce96	-0.019263547
76	0x3d8303c6	0.06397204
77	0xbe7bfaae	-0.24607345
78	0x3d393539	0.045216773
79	0x3dacd828	0.08439666
80	0x3d97435b	0.07385894
81	0xbcdaecfc	-0.026724331
82	0xbe191d5d	-0.14952607
83	0xbd4d59ea	-0.050134577
84	0x3e0990ed	0.13434191
85	0xbdaf4262	-0.085575834
86	0x3d13a2c0	0.036043882
87	0xbd680ebb	-0.056654673
88	0x3ce6d5a3	0.028178042
89	0x3cca1f23	0.02467305
90	0xbceed674	-0.029154994
91	0x3bfae7f1	0.007657044
92	0xbdc53041	-0.09628344
93	0xbd46d04c	-0.04853849
94	0xbde06653	-0.10957017
95	0x3d799afb	0.060938817
96	0x3dc5f193	0.09665217
97	0xbd1ae008	-0.03781131
98	0x3dc96114	0.09832969
99	0xbdde38f0	-0.10850704
100	0x3dd36ffa	0.10324092
101	0x3c87fd2e	0.016600218
102	0xbde4ae6f	-0.11166083
103	0xbd44494a	-0.047921456
104	0x3d7f15f5	0.0622768
105	0xbd474fb6	-0.048660003
106	0xbc86d25b	-0.016457727
107	0x3c9762d1	0.018479737
108	0x3c939248	0.018014088
109	0xbc637f71	-0.013885365
110	0xbd8db375	-0.06918994
111	0x3de2ea40	0.11079836
112	0x3ce2ad4d	0.027670527
113	0x39a243cb	0.00030949558
114	0xbdb0e270	-0.086369395
115	0xbd8f01d4	-0.069827706
116	0x3dcb57e0	0.0992887
117	0xbe4c19c9	-0.19931711
118	0xbd55c956	-0.052193962
119	0x3c338c36	0.010958722
120	0xbd70d009	-0.058792148
121	0xbe294cbb	-0.16533177
122	0xbc503fbb	-0.012710507
123	0x3de4367c	0.111432046
124	0xbe147106	-0.1449624
125	0xbd1ff25c	-0.03904949
126	0x3db42f85	0.08798126
127	0x3d3ab31e	0.045580976
128	0xbc91b417	-0.017786069
129	0x3d963ff1	0.073364146
130	0xbcc044c3	-0.023470288
131	0xbd1123be	-0.035434477
132	0x3da5791a	0.08079739
133	0xbda3812b	-0.07983621
134	0x3cd383ae	0.025819626
135	0x3d15760c	0.03648953
136	0xbe280441	-0.16407873
137	0x3ccd31dc	0.025048189
138	0x3c771f68	0.015083171
139	0x3ceaa9a4	0.028645344
140	0x3d82ad14	0.06380668
141	0xbd9c3e02	-0.076290146
142	0xbcda0197	-0.026612086
143	0x3c8b7471	0.017023297
144	0xbdac7a72	-0.08421792
145	0xbde39c05	-0.11113743
146	0xbcdd88d7	-0.02704279
147	0x3df14d96	0.117823765
148	0x3d9e0a29	0.07716782
149	0xb6c8aa9e	-5.980327e-06
150	0x3e01af0e	0.12664434
151	0x3c7b8d75	0.01535355
152	0x3d96a07a	0.07354827
153	0xbdb5bba7	-0.088736825
154	0x3e3602f9	0.17774571
155	0xbcf39835	-0.029735664
156	0xbd798ed2	-0.06092722
157	0x3c03c876	0.008043399
158	0xbde38e44	-0.111111194
159	0xbdb3ad28	-0.08773261
160	0x3cd81c3c	0.02638065
161	0xbe5e9d02	-0.21739581
162	0x3d0f2e3f	0.034956213
163	0xbc908429	-0.017641144
164	0xbda905b2	-0.082530394
165	0x3d3c5a59	0.0459846
166	0x3db9ce00	0.090724945
167	0x3ddd5eb9	0.108090825
168	0xbe1c861a	-0.1528553
169	0x3d22c48a	0.039738216
170	0xbd83a8ef	-0.06428706
171	0xba397398	-0.0007074415
172	0xbd27f7b9	-0.04100773
173	0x3abf53cd	0.0014597118
174	0xbd9e404c	-0.077271074
175	0xbd439470	-0.047748983
176	0x3d2d5100	0.042313576
177	0xbbd5f59b	-0.0065295226
178	0x3cfb99c7	0.030712975
179	0xbe181d0c	-0.1485483
180	0x3bc97741	0.0061482494
181	0x3d09a28b	0.03360228
182	0xbe2224ac	-0.15834302
183	0x3dd8d866	0.1058815
184	0x3e0ff868	0.14059603
185	0x3b35cc0e	0.0027740034
186	0x3c42c2f5	0.011887302
187	0x3df8bfa0	0.121459246
188	0xbd6fdcac	-0.05856006
189	0x3e6f541a	0.23371926
190	0x3c7d0c05	0.01544476
191	0x3dc305fc	0.09522626
192	0x3ddc9143	0.10769894
193	0x3d8d1391	0.068884976
194	0x3dd05e45	0.101742305
195	0xbdec3c11	-0.11534894
196	0xbd23724a	-0.039903916
197	0x3c8cac3c	0.017171971
198	0xbd829091	-0.0637523
199	0x3b0b9df2	0.002130386
200	0xbdca46f4	-0.098768145
201	0xbde1a7bf	-0.11018323
202	0x3d7b6452	0.06137497
203	0x3d7eb3d3	0.062183212
204	0x3d806764	0.0626972
205	0x3bf36ed4	0.007428983
206	0xbd7c5b45	-0.06161048
207	0x3dbc4b92	0.091941014
208	0xbc903661	-0.017604055
209	0x3dfe9af4	0.12431899
210	0xbd69262e	-0.056921177
211	0x3dfd481c	0.123672694
212	0xbe0407b0	-0.12893558
213	0xbe5669af	-0.20938753
214	0xbdc63966	-0.09678917
215	0x3b36c395	0.0027887572
216	0x3de3552c	0.111002296
217	0x3d6235c4	0.055227056
218	0x3cc2cebf	0.023780225
219	0x3ca4ece3	0.020132488
220	0x3df6124b	0.12015208
221	0x3e0526e2	0.13003114
222	0xbd88bf72	-0.0667714
223	0x3db57f31	0.088621505
224	0x3b66a861	0.0035195576
225	0x3d0bc7b0	0.034125984
226	0xbdb96703	-0.09052851
227	0xbd85908a	-0.06521709
228	0x3d85c723	0.06532123
229	0xbd27304a	-0.040817536
230	0x3d9654ac	0.07340369
231	0x3d2f49a8	0.042794853
232	0x3d7fe271	0.06247181
233	0x3d46dcd9	0.04855046
234	0xbd8e9619	-0.069622226
235	0x3d50232f	0.050814804
236	0x3ddfff09	0.10937316
237	0xbde0bdf7	-0.10973733
238	0xbe48d286	-0.19611558
239	0x3d4e4918	0.050362676
240	0xbb7b4b20	-0.0038344339
241	0xbdb69274	-0.089146525
242	0x3ce04bb6	0.027379852
243	0xbd163cde	-0.03667914
244	0x3d48a267	0.048983004
245	0xbe1280ab	-0.14306895
246	0xbd5d593f	-0.05404019
247	0xbb83daf3	-0.0040239035
248	0x3d8b4898	0.068009555
249	0xbc5cc902	-0.013475658
250	0xbd699e24	-0.05703558
251	0xbd3df1ae	-0.04637306
252	0x3c9953d0	0.018716723
253	0xbcb7637d	-0.022386307
254	0x3d13fb2e	0.036128215
255	0xbded35f5	-0.11582557

layers.0.conv1.attention1.0.bias f4 [9]
0	0xbc05a891	-0.008157865
1	0xbb298676	-0.0025867498
2	0x3b5f1a6f	0.0034042855
3	0xbbc72351	-0.006077208
4	0xbaa3adcb	-0.0012487707
5	0x3be2e62d	0.0069244117
6	0xb982a146	-0.0002491569
7	0xbc2233ad	-0.009900016
8	0xbc4bf85b	-0.012449349

layers.0.conv1.attention1.2.weight f4 [9, 9, 1, 1]
0	0x3ed0220f	0.40650985
1	0x3d4f4e5c	0.05061184
2	0xbe63d05a	-0.22247449
3	0xbe274cc8	-0.16337883
4	0x3f16a7ab	0.5884959
5	0x3e0473f6	0.1293486
6	0x3f7097b6	0.9398149
7	0xbd0361a2	-0.03207553
8	0x3ef2840e	0.47366375
9	0xbdcd6091	-0.10028184
10	0x3da3595c	0.07976028
11	0x3edbe7e8	0.42950368
12	0xbd3401ef	-0.043947157
13	0xbeecf328	-0.46279263
14	0x3f395acf	0.7240419
15	0x3c616c56	0.013758739
16	0xbe0b5757	-0.13607536
17	0x3f1dd49f	0.6165256
18	0x3f549321	0.83037
19	0x3f054cae	0.5207013
20	0x3edc963a	0.43083364
21	0xbdc736c9	-0.09727246
22	0xbee78f44	-0.4522649
23	0xbe9917e9	-0.29901055
24	0xbf6738d3	-0.9032108
25	0x3f1c5bd4	0.6107762
26	0x3f2dde93	0.67917746
27	0x3e099af3	0.13438015
28	0xbf3e2cc2	-0.74287045
29	0x3fa6085a	1.2971299
30	0xbef1e051	-0.47241452
31	0x3d8cee6c	0.06881413
32	0xbe807876	-0.25091904
33	0xbee16142	-0.44019514
34	0xbe072af7	-0.13199984
35	0xbf23d1f3	-0.6399223
36	0xbeabfd67	-0.33591768
37	0xbdfc6730	-0.12324369
38	0x3eceb251	0.4037042
39	0xbdfd00e4	-0.123536855
40	0x3e74e348	0.23914826
41	0x3f2c0121	0.6718922
42	0x3de3b8a9	0.111192055
43	0xbf140201	-0.5781556
44	0xbf7d72ca	-0.9900328
45	0x3eb74574	0.35795176
46	0xbbaeeb26	-0.0053380905
47	0xbead2b35	-0.33822027
48	0xbed0026a	-0.40626842
49	0x3e7a48ce	0.24441835
50	0xbcad6c95	-0.02116994
51	0x3e58fc4d	0.21189995
52	0xbf45e1af	-0.7729749
53	0xbdb40ccc	-0.08791503
54	0x3eb4774e	0.35247272
55	0x3fc85b16	1.5652797
56	0x3e3b526a	0.18293157
57	0x3d8ac47f	0.0677576
58	0x3e1c27db	0.15249579
59	0xbe02a5e5	-0.12758596
60	0xbf28de51	-0.6596423
61	0x3f362722	0.7115346
62	0x3f253833	0.6453888
63	0x3e94de13	0.2907568
64	0xbe37efd1	-0.17962576
65	0xbd3cfaa7	-0.04613748
66	0xbd798414	-0.060916975
67	0x3d789d96	0.06069716
68	0xbef14562	-0.47123247
69	0x3f572ec2	0.8405572
70	0x3c517866	0.012785053
71	0x3dc81507	0.09769636
72	0x3c1d7b9a	0.009611988
73	0x3e86899a	0.26276857
74	0x3ed0f633	0.40812835
75	0x3f160b56	0.5861105
76	0x3d192c5c	0.03739582
77	0xbf3d6cf1	-0.73994356
78	0x3eb95ab1	0.36202005
79	0xbe01acd5	-0.12663586
80	0xbee89017	-0.45422432

layers.0.conv1.attention1.2.bias f4 [9]
0	0xbb7111c0	-0.0036784261
1	0x3b9f199b	0.0048553473
2	0x3b8eb2b8	0.004354801
3	0x39b45f86	0.00034403446
4	0x3be5c275	0.0070117065
5	0x3bb2f75f	0.005461618
6	0xba599a45	-0.0008300881
7	0x3ba1beca	0.004936074
8	0xbaaefa6c	-0.0013349778
