weights/BWNET_LAGConv_T3/model_epoch_300.pth (torch, 678374 bytes, 141 tensors)

raise_dim.0.weight f4 [32, 9, 3, 3]
000000 d2 75 16 be 4f 03 0a 3e db ee 25 be f7 bd 12 be
       -0.14693382 0.13477825 -0.16204397 -0.14330278
000010 df 69 11 3e 4d d2 05 be db 0a 77 bd 67 29 05 3e
       0.14200543 -0.13068505 -0.060313087 0.13004075
000020 0a 8e 29 3e 01 8d 1c be ec 9f b6 bd 38 49 b2 bd
       0.1655809 -0.15288164 -0.089172214 -0.087053716
000030 f0 0b bc 3c 48 55 5b bd e7 88 0a be 80 71 33 be
       0.022954911 -0.053548127 -0.13528787 -0.17523766
000040 19 8b e8 bd a5 f9 31 3d d8 5c 02 be 1d d8 45 be
       -0.11354656 0.04345097 -0.1273073 -0.19320722
000050 df 0e ba bd 13 ef d6 3c a1 f7 c2 bd d8 01 a3 bc
       -0.09084868 0.026237046 -0.09519888 -0.01989834
000060 04 8b c0 3b 82 46 eb 3d 49 58 1b bd 52 72 54 bc
       0.005875947 0.11488058 -0.037925992 -0.012966709
000070 34 f4 1b be 5d 87 98 bd d2 d9 d9 bd 31 a8 98 bd
       -0.15229875 -0.074476935 -0.10637249 -0.07453955
000080 41 03 29 bd 24 b7 fc bd 11 cc 7d 3c a6 ad 36 3c
       -0.04126287 -0.12339619 0.015490548 0.011149799
000090 04 a6 36 be eb 8c 1e be 67 55 5c be 9d f4 09 be
       -0.17836767 -0.15483443 -0.21516953 -0.13472219
0000a0 7e db df bd 9c 5b da bc f4 58 1d be 31 00 f1 bd
       -0.10930537 -0.02665501 -0.15365964 -0.11767615
0000b0 74 03 d6 bd 56 63 6c 3d c2 05 2b bd 46 9d 4b 3c
       -0.104498774 0.05771192 -0.041753538 0.012427634
0000c0 f3 59 f7 bc 7f 11 44 3e eb ca 30 3e 25 16 1f be
       -0.030194258 0.19147299 0.17264907 -0.15535791
0000d0 4b 6b f8 3d b4 48 18 3e a6 9f 61 bc a3 6b e8 bc
       0.121298395 0.14871484 -0.013770973 -0.028371638
0000e0 83 1e 69 bd e2 83 84 be 45 a3 15 3c d3 7c 8b 3d
       -0.056913864 -0.2588187 0.009133165 0.06810918
0000f0 2d b9 90 bd be c6 0a bd 75 03 f9 bc 13 2d 78 be
       -0.070665695 -0.03388094 -0.030397156 -0.24235944
000100 04 2c 4f bd 6b 26 eb bd b4 33 a4 be 2c 4b bf bd
       -0.050579086 -0.11481937 -0.32070696 -0.0934051
000110 08 b0 6a bd 4a 6f ea bd 3a 42 19 be 32 61 6b be
       -0.057296783 -0.11447008 -0.1496667 -0.22986296
000120 2d 7d 98 bd 6d 36 cd 3d 9b a0 c8 3d 7b 1d 5f be
       -0.074457504 0.100201465 0.09796258 -0.2178859
000130 01 de 59 bd 38 98 2d 3d 87 6a 09 3d 36 a1 4c bb
       -0.053190235 0.042381495 0.033548858 -0.003122402
000140 d5 3f db bc e6 9e b6 bd c4 79 e5 bd b0 2e 70 3d
       -0.026763836 -0.08917026 -0.112048656 0.058638275
000150 66 3f 91 3d 45 e7 10 be 41 f1 26 bd 1f cf 7b bd
       0.070921704 -0.14150722 -0.04075742 -0.061476823
000160 10 e2 00 3d 76 29 4c bd 33 66 e0 3d 07 9f 12 be
       0.03146559 -0.049844228 0.10956993 -0.14318477
000170 4b 3e 7c 3d c9 b2 d1 bd 4c 34 63 bd fe ad 94 bc
       0.061582845 -0.10239179 -0.055469796 -0.018149372
000180 28 d8 3f 3d f4 73 0d be 8c 15 8c bd ff 11 f4 ba
       0.046837002 -0.13813764 -0.06840047 -0.0018621086
000190 04 86 ae 3c b6 f1 a3 bd d4 00 ce bb a7 b5 e4 bd
       0.021304138 -0.08005087 -0.00628672 -0.1116746
0001a0 b9 78 04 be 44 96 02 bc 51 4f 30 bd b2 27 c6 3d
       -0.12936677 -0.007970396 -0.043044392 0.0967554
0001b0 a7 1d 44 3d ee 6d ce b9 da dc 30 3d 16 7d e8 bd
       0.04787984 -0.00039373286 0.04317937 -0.11351983
0001c0 63 77 17 be 7e 94 16 3d 7a 8f a2 3c 24 82 29 bd
       -0.14791636 0.036762707 0.019843806 -0.041383877
0001d0 34 43 42 3e a2 b3 51 3d 5d a4 e8 bd 90 29 17 3e
       0.18970948 0.0511967 -0.11359475 0.14761949
0001e0 b8 fc d7 3d e2 8a b1 3d 89 2a 03 3e 27 2b 90 3d
       0.10546249 0.08669068 0.12809195 0.07039481
0001f0 a1 41 c8 3b 43 82 6d 3e 4e 75 0a 3d a3 ff f4 3c
       0.006111339 0.23194222 0.033803277 0.029907053
000200 42 d8 eb 3d 5f c2 22 3d 65 52 c4 bc 5e 8b 2b 3e
       0.11515857 0.039736148 -0.02396507 0.16752383
000210 e0 02 38 3e 00 89 31 3d fe b1 41 3e 01 61 03 bc
       0.17969847 0.043343544 0.18915555 -0.008018733
000220 0d 96 57 bd e8 db 95 bd c4 61 64 3c f1 32 31 3c
       -0.052633334 -0.073173344 0.013939325 0.010815368
000230 a3 b5 95 3d 2a 5a cc 3b 8d 1f cd bd 01 9a b2 3c
       0.07310035 0.0062363343 -0.100157835 0.02180195
000240 a8 39 e1 bd 9a d3 a0 bd a8 9c 21 be 70 29 cd 3d
       -0.10997325 -0.0785286 -0.15782416 0.10017669
000250 6b c7 3c bd 49 68 2b 3d f3 89 dd 3d d8 51 ee 3d
       -0.046088617 0.0418475 0.10817327 0.11636704
000260 19 df 54 3d 72 c0 02 be 15 83 70 3c ae 79 36 be
       0.051970575 -0.12768725 0.01467969 -0.17819855
000270 61 09 49 bd 70 a3 97 bd 26 61 31 be 92 cc 94 3d
       -0.04908121 -0.0740422 -0.17322215 0.07265581
000280 a9 bc ce bd 48 5d db 3c 9e d5 52 bc 5d a8 a1 bd
       -0.10094578 0.026777878 -0.012868313 -0.07893441
000290 63 95 45 bd 69 4c a0 bc df d3 b6 bd 19 db ca bd
       -0.04823817 -0.019567685 -0.0892713 -0.09905071
0002a0 d8 fa 82 3d 5c e8 5f 3d 04 33 1f 3d 82 2b 1f 3d
       0.06395501 0.054664955 0.03886701 0.03885985
0002b0 20 25 b2 3d cb 11 6c bd e8 c3 43 bb ca 03 b2 3d
       0.08698487 -0.057634156 -0.0029871408 0.08692129
0002c0 0f 04 81 bd 74 e4 96 bd 2f 8b 76 3d 28 38 1d 3c
       -0.06299602 -0.07367793 0.06019133 0.009595908
0002d0 8d 44 18 bd 71 5e 5c bd c8 c0 15 be 5e b5 05 be
       -0.03717475 -0.053801004 -0.14624321 -0.13057467
0002e0 13 b3 0b be 83 cb fb bd fe 98 01 be e1 6f 0e 3d
       -0.1364253 -0.12294676 -0.12656018 0.034774665
0002f0 66 d5 78 bd eb e3 51 3d 0c f5 dc bd cd b0 3c bd
       -0.060750388 0.05124275 -0.107889265 -0.046067048
000300 42 dc 29 bd a3 08 f3 bd 8f 3a db 3b 5e e0 55 3c
       -0.04146982 -0.11866882 0.0066903303 0.013053982
000310 d9 50 6b bd 39 7f 0a 3e 52 fe b9 3c cf 58 60 3d
       -0.05745015 0.13525094 0.022704277 0.054772194
000320 78 39 86 3d 63 e7 31 3e 2a 39 3a 3e 82 90 fe 3d
       0.0655393 0.17373423 0.18185869 0.124299064
000330 4e e5 02 3b ea 76 ac 3d cf 36 a8 3d 9d 06 01 3d
       0.0019973102 0.084211186 0.08213579 0.031500448
000340 48 db 99 3d c1 8d 86 bd b0 3f a1 bb 38 7d 4f 3c
       0.07512528 -0.06570006 -0.004920922 0.012664132
000350 f3 46 4e bd 08 d3 d5 3c a5 a0 fd 3a 25 a3 0f 3d
       -0.05036063 0.026101604 0.0019350244 0.035067696
000360 0f d4 47 bd 60 16 5a 3d a0 ec ea bd 95 33 92 3d
       -0.04878622 0.053243995 -0.11470914 0.07138745
000370 52 e9 8a bd 31 ca c5 bd a3 ee 79 3c 9f d1 46 bd
       -0.067827836 -0.096577056 0.015254649 -0.048539754
000380 7e 4d a3 3d 68 4d 08 3e 39 a7 0a 3e b7 8b 79 3d
       0.07973765 0.13310778 0.13540353 0.060924258
000390 12 00 1b 3d 5f e3 05 3e 93 32 b8 3d 56 5d 05 3d
       0.037841864 0.13075016 0.08994021 0.032559715
0003a0 8f 89 2a 3d dd eb 60 bc 33 d5 f0 bd ad 60 b7 3d
       0.041635092 -0.013728109 -0.117594145 0.08953986
0003b0 bd e7 49 3d c2 79 01 be 70 66 0d be 5f 24 8a bd
       0.04929327 -0.12644103 -0.13808608 -0.067452185
0003c0 22 ff b3 3d 51 9e 3b be db ea c7 bd bb e5 5c bd
       0.08788897 -0.18322112 -0.09761592 -0.053930026
0003d0 35 22 7d be 08 3b ef bd ca 4f 85 bb 31 52 c7 be
       -0.2472008 -0.11681181 -0.0040683495 -0.38929895
0003e0 bf e6 8e 3c f9 23 31 be 5a 77 b2 3e ae 3b 86 be
       0.017444013 -0.17298879 0.34856683 -0.26217407
0003f0 4b da 37 bc 99 4a 4e 3d 75 e4 2a 3e 5b c1 9e bd
       -0.011221479 0.05036411 0.16688712 -0.077517234

raise_dim.0.attention1.0.weight f4 [9, 9, 3, 3]
000000 ba 35 a0 be 63 c1 be 3e 10 1c 54 bd 2c 10 1d be
       -0.3129099 0.37256917 -0.051784575 -0.153382
000010 85 43 ab 3e 17 fc 68 3e 7c 53 87 be 15 7a 0e 3f
       0.3344995 0.22752415 -0.2643088 0.5565503
000020 bd 2c 37 3d de 7d 8f be f0 7e 88 be 54 d2 2b bd
       0.0447204 -0.28025717 -0.26659346 -0.04194863
000030 a1 aa ae bd 7a 99 84 be b9 34 9d be 42 64 ca bd
       -0.08528639 -0.25898343 -0.30704287 -0.09882404
000040 e0 01 92 be 73 e1 f7 bd 57 66 c4 be 85 0c 3a be
       -0.28517056 -0.12103548 -0.3835933 -0.18168838
000050 de 05 32 be ea 93 69 be ea c9 89 be 76 22 d0 bd
       -0.1738505 -0.22810331 -0.2691186 -0.10162823
000060 79 41 d3 bd 65 d1 07 3e d8 1c ca 3e f7 c8 83 3e
       -0.10315222 0.13263471 0.3947513 0.25739262
000070 71 6d 95 3e 2c b4 52 3e 6d ac 2c be 2f c7 e3 3e
       0.2918506 0.20576543 -0.1686265 0.44487903
000080 e6 bd 97 3e 31 3a 72 3d e0 03 3e 3e 35 31 89 be
       0.2963707 0.059137527 0.18556166 -0.26795354
000090 74 99 2b 3e b8 92 c5 3c c1 bc c6 3d 9c ec e4 3e
       0.16757756 0.024117813 0.09703971 0.4471177
0000a0 89 ed fd 3c 2f d7 d6 3d ce f3 05 3e 7a c9 88 bd
       0.030997055 0.10490262 0.13081285 -0.066790536
0000b0 aa 4a 87 3e 85 0f 02 bf ad 95 1a bd c5 e9 48 bc
       0.26424152 -0.5080493 -0.0377404 -0.012262766
0000c0 0f 38 0c bf dc 74 4d be 20 a2 0a be 0f 25 4e be
       -0.5477304 -0.2006411 -0.13538408 -0.20131324
0000d0 fa cf b8 be bb 9c 74 be 6a 86 10 be 6f 90 da 3c
       -0.36096174 -0.23887913 -0.14113775 0.0266802
0000e0 19 7d 03 3d 70 9f 95 bd 14 79 db bd 4e ab de 3c
       0.032101724 -0.07305801 -0.10716453 0.027181294
0000f0 88 7d 00 3e 59 0c 23 be 1f ae d0 3c 27 05 ca be
       0.12547886 -0.15922679 0.025473652 -0.39457056
000100 e3 e0 28 be ef 1e 55 be 5c 3d cd bd 0c 0f 28 bc
       -0.16492037 -0.20812581 -0.10021469 -0.010257494
000110 f2 be 99 be 35 86 37 3e 98 85 9a bd c2 e9 58 be
       -0.30028492 0.1792229 -0.07545012 -0.21182922
000120 66 9d ba 3d a5 92 6d 3c 20 13 dd 3e 88 cf d6 3e
       0.091120526 0.014500295 0.43178654 0.4195521
000130 9c ec f1 3d 98 59 a2 3d 4d 53 43 3e 26 86 83 3e
       0.11812708 0.07927245 0.19074745 0.25688285
000140 f6 67 0c bc 55 39 1a be 5c 32 4b 3e aa 87 4c bd
       -0.008569708 -0.15060933 0.1984343 -0.049934067
000150 ad 8a d2 3c 68 bf 66 3f c6 2f 17 3f e4 22 99 3e
       0.025700891 0.9013581 0.5905727 0.29909432
000160 bc ac ac 3c 62 e1 ab 3e 7b e5 82 3e 38 7f ba 3d
       0.02107846 0.3357039 0.25565705 0.09106296
000170 85 01 4b bd 4c ad b2 3d c8 38 0a 3e 6b 34 1d 3e
       -0.049561996 0.0872446 0.13498223 0.15352027
000180 00 e5 44 3e 52 ee 36 3e c2 04 83 3e e9 48 2f be
       0.19227982 0.1786435 0.25589567 -0.17117657
000190 49 4a bf 3e f4 28 b1 3e de 90 50 3e c1 c0 99 bc
       0.37361363 0.34601557 0.20367762 -0.01876867
0001a0 fd 48 d3 3d 03 81 e7 3c f8 46 3b 3e 6f 23 d2 3d
       0.10316656 0.02825976 0.18288791 0.10260665
0001b0 0f fa 1c 3e 9a 71 32 3e 41 8f 2d be c0 57 5d 3e
       0.15329765 0.17426148 -0.16949178 0.21615505
0001c0 f2 a8 9a 3e d5 a9 a0 3e 32 2f 8d 3e 30 c8 9f bd
       0.3020702 0.31379572 0.2757507 -0.078018546
0001d0 d9 42 0a 3e 13 32 d7 3e ba 41 18 3e 83 d0 70 3e
       0.13502063 0.4203039 0.14868823 0.23517041
0001e0 25 41 df 3e 5d f8 e4 3e 1c 7d 61 3e 1e fd b4 3c
       0.4360439 0.44720736 0.22020382 0.022093352
0001f0 89 57 82 3e 48 c2 a1 3e 73 85 d8 3d 8b 87 47 be
       0.2545741 0.31593537 0.105723284 -0.194853
000200 b6 ae 15 be ca fc 1d 3e ec 4f 38 3e ac 50 38 3e
       -0.14617428 0.15428463 0.17999238 0.17999524
000210 63 12 d9 3d 89 3e 07 3e 18 8f 75 bd 94 59 bd 3d
       0.1059921 0.13207449 -0.059950918 0.09245601
000220 19 26 b8 bd 2b d1 42 3e 87 37 bc 3e da a1 a5 3d
       -0.089916416 0.19025104 0.36761114 0.08087511
000230 60 cc 98 bd 1e 13 a4 3e 7c 08 4c 3e 50 ef ba bd
       -0.074608564 0.32045835 0.19925112 -0.091276765
000240 a0 90 56 3d 2e 10 8d 3d 2e 27 f1 3d 25 71 a0 3e
       0.05238402 0.06887852 0.11775051 0.31336322
000250 83 09 a3 3e 48 a8 7b 3d 8a d7 1c 3e 0c a6 1d be
       0.31843194 0.061439782 0.15316597 -0.15395373
000260 5f 88 cf bd 12 35 c5 bd 0f f7 4f 3e 5b 77 30 3e
       -0.101334326 -0.09629263 0.20309089 0.1723303
000270 6d 5d 3e 3c 07 7f 87 3e f4 79 7b 3e 09 04 51 be
       0.011618954 0.26464102 0.2455824 -0.20411696
000280 7b 97 03 3d 9e 36 0a bc 4e c0 0a be 95 db 82 be
       0.032126885 -0.008435873 -0.13549921 -0.25558153
000290 94 db f1 bd 7a 47 25 be 80 61 87 be f2 33 6d be
       -0.11809459 -0.16140547 -0.26441574 -0.23164347
0002a0 f0 f8 6a bd 75 0a a0 be 89 e5 30 3d 9f f3 3c 3e
       -0.05736631 -0.31257978 0.04318765 0.18452309
0002b0 23 e4 47 be 26 cc 91 3d ad 4d 58 be af 36 09 be
       -0.19520621 0.07119016 -0.21123381 -0.13399766
0002c0 d7 94 13 be f2 6b 93 bd 17 59 27 be 94 6f 29 be
       -0.14412247 -0.07198323 -0.16342579 -0.1654647
0002d0 c6 31 3b 3d ed 7e 05 be 04 cf c8 bd e8 53 e1 be
       0.045701765 -0.130367 -0.0980511 -0.44009328
0002e0 c2 db 72 bd a8 a8 c2 be b6 23 03 be 29 03 62 3d
       -0.05929161 -0.380193 -0.12806591 0.055178795
0002f0 1e b1 68 be 4a c7 60 be 1c 0a 4d be bd 09 fe bd
       -0.22723815 -0.21951023 -0.20023388 -0.12404201
000300 a1 33 9a be 3b a7 8e be 69 e6 3b bd 4f 90 8c be
       -0.30117515 -0.27861962 -0.045874033 -0.2745385
000310 bb ab 8b be 24 f9 44 be db 1b ab be be 58 bf be
       -0.27279457 -0.19235665 -0.3341969 -0.37372392
000320 64 f2 7a 3d d8 12 3f be 0c f4 5b be 03 37 d6 be
       0.061266318 -0.18659532 -0.21479815 -0.41838846
000330 87 2f f0 bd 78 d6 99 be b7 24 ae bd 13 57 31 3e
       -0.11727815 -0.3004644 -0.085030966 0.17318372
000340 6c 2c 8e bd 7b 48 01 bd 95 07 20 be 0d 1f bf bd
       -0.069420666 -0.031563263 -0.15627892 -0.09332094
000350 b0 a8 da be cd 8f dc bd 48 9b c4 3d 8e d2 7e 3d
       -0.42706823 -0.10769615 0.0959993 0.06221252
000360 2f 03 8b 3d 5e 62 22 be e5 de 83 be 2e 63 cc be
       0.067877166 -0.15857837 -0.25755993 -0.39919418
000370 3f 7d 07 be f4 5b d6 be 78 6d 69 be 99 5c e9 bd
       -0.13231371 -0.4186703 -0.22795665 -0.11394615
000380 77 c6 63 be 39 4e fd bc 3d c0 c9 bc 65 5c 8b be
       -0.22243677 -0.030921089 -0.0246278 -0.2721893
000390 cb a7 be bd eb 9f 88 be 39 b8 97 be c1 7a 2e 3e
       -0.09309348 -0.26684508 -0.29632738 0.17039014
0003a0 82 a8 8a be 20 24 83 be 69 c4 be bd 44 64 88 be
       -0.27081686 -0.256135 -0.09314806 -0.26638997
0003b0 38 6c a5 bd cb cc 72 be ab 9d 99 be 79 84 0c be
       -0.08077282 -0.23710935 -0.30003104 -0.1372241
0003c0 75 d2 4f 3e 6c 4b 61 be 1b f9 a1 3e 20 41 ad bd
       0.20295127 -0.22001427 0.31635365 -0.08459687
0003d0 a6 a5 88 bb dc d4 8a bd 31 c4 5b 3d c2 1f cb be
       -0.0041701375 -0.06778881 0.0536539 -0.39672667
0003e0 12 c9 41 3e dc a4 c3 3d 4f ee 5d be c8 ac 1d be
       0.18924358 0.09552929 -0.21672939 -0.15397942
0003f0 56 1f 29 be 5f 84 01 be 00 45 d6 3d e8 9d 41 3e
       -0.1651586 -0.12648152 0.104623795 0.18907893

raise_dim.0.attention1.0.bias f4 [9]
000000 ad 6b 4c 3d ca 7c 9f 3e 47 29 b0 bd 19 c7 95 bd
       0.049907375 0.31149894 -0.08601623 -0.073133655
000010 2e 32 1d 3e 11 0d e0 bc 11 08 a5 bc 94 08 10 3e
       0.15351173 -0.02734998 -0.020145448 0.14065772
000020 4d a1 86 bd
       -0.065737344

raise_dim.0.attention1.2.weight f4 [9, 9, 1, 1]
000000 d7 7e 44 bd a2 ed a2 be d1 ee 97 be 17 22 49 bf
       -0.047972526 -0.31821924 -0.2967439 -0.7856764
000010 d4 0e 7d 3e f4 a5 90 be 76 2d a0 be dc 38 e0 be
       0.24712688 -0.28251612 -0.31284684 -0.4379338
000020 dc e7 40 3d c3 5f d8 3e 95 cf 54 3e c8 69 0a 3f
       0.04709612 0.4226056 0.20782311 0.5406766
000030 99 50 78 3f 22 e0 cb bc 5d 77 33 bf 02 da 08 3f
       0.9699798 -0.024887148 -0.7010401 0.53457654
000040 72 9e a5 be 80 5d 72 3f f2 eb 95 3d ca a8 3a bf
       -0.32347447 0.9467392 0.073203936 -0.729138
000050 1e a4 36 3f 47 80 be be 53 d2 77 be aa 83 bc 3d
       0.7134417 -0.37207243 -0.24201326 0.092048004
000060 71 cf 28 3f a1 33 d7 be 70 ac 81 3c 8a 95 f9 3e
       0.6594153 -0.42031577 0.015829295 0.48746902
000070 1c 45 19 3e 8b 25 51 3e 67 64 07 3e 16 ac a4 be
       0.1496777 0.20424478 0.13221894 -0.3216254
000080 90 68 2a be 0e 51 4a 3e b2 be a4 3e 66 81 a0 be
       -0.1664145 0.19757482 0.3217674 -0.31348723
000090 6e dd 79 3f aa a0 89 3d 96 82 18 3f 23 36 4f bf
       0.976035 0.06720097 0.5957426 -0.8094198
0000a0 5f a2 d2 3e 58 96 b2 3f df ad 84 3e ac 3d 70 bf
       0.41139504 1.3952131 0.25913903 -0.93844104
0000b0 f4 01 0b 3f 3d 67 05 bf 97 7d 82 3f b8 9e 34 bf
       0.54299855 -0.52110654 1.0194577 -0.70554686
0000c0 7f 80 50 bf 64 d8 82 3f 92 77 78 bf 42 e9 a2 be
       -0.8144607 1.0222287 -0.9705745 -0.31818587
0000d0 2b ee 2d 3f 0f 9f f3 be 08 ab b7 3e 4e 2d b1 3e
       0.6794154 -0.4758229 0.35872674 0.34604877
0000e0 75 bb 91 bf a9 cb c1 be 19 2a 20 3f 77 c8 88 3e
       -1.1385332 -0.37850693 0.62564236 0.26715443
0000f0 c2 ad 55 3e 5e f7 1b be d6 68 84 3f ec 01 72 3f
       0.20867065 -0.15231082 1.0344493 0.9453418
000100 3d 4c fd 3d 85 dd c9 3c 33 8b 41 bf 5f 44 1e bd
       0.12368057 0.024641762 -0.75603026 -0.038639423
000110 e9 0b 19 bf 01 05 76 be bb 64 04 bf 17 55 37 3d
       -0.597838 -0.24025346 -0.517162 0.044758882
000120 0f 04 2e 3d d8 a4 39 be f8 38 cd 3d 25 c4 91 3e
       0.04248434 -0.18129289 0.100206316 0.2846996
000130 5a 23 29 bf 5f 65 7f be 6c d7 b6 3d 27 95 f1 3e
       -0.6606957 -0.24941014 0.08927807 0.47184107
000140 13 79 b1 3f
       1.3865074

raise_dim.0.attention1.2.bias f4 [9]
000000 98 b6 3f 3d c2 ff 69 bd 9f ea 93 3b 94 f4 9b 3c
       0.046804994 -0.057128675 0.004514053 0.019037522
000010 12 ec d3 3d a0 84 6b 3e b1 a4 b1 3d 55 37 0a 3e
       0.10347761 0.22999811 0.086739905 0.1349767
000020 10 00 ff 3d
       0.12451184

raise_dim.0.attention1.4.weight f4 [9, 9, 1, 1]
000000 a6 f3 b7 bd 3b dd 55 bf d0 3f 05 3f ae 53 89 bd
       -0.08982019 -0.83540696 0.52050495 -0.06705414
000010 61 37 8c 3e 09 66 4c 3e 32 1b b1 be b2 36 03 3f
       0.27386 0.19960798 -0.3459106 0.51255333
000020 e9 b2 42 bf 2e 68 13 3d d9 0e c8 3e b4 7a 01 bf
       -0.76054245 0.035988025 0.39073828 -0.50577855
000030 27 bf c3 3e 76 76 5b 3e 4a 6c fe be 60 87 4c bf
       0.38231775 0.21431908 -0.49691993 -0.79894066
000040 d9 46 45 3f 52 fc 06 bd ed 2d 35 bd 10 46 44 3f
       0.7706123 -0.032955475 -0.04423325 0.76669407
000050 3c 62 be be 02 ee c2 3e 69 ba 2e bf 6b 96 90 be
       -0.37184322 0.3807221 -0.6825319 -0.2823976
000060 53 37 d4 be a3 42 d8 3e c2 f7 1d 3f 1d 27 4f 3f
       -0.4144846 0.4223834 0.61706173 0.8091906
000070 60 3c 48 be 54 f6 a0 bf 65 cb 50 3e cf d7 b7 bf
       -0.19554281 -1.2575173 0.20390089 -1.4362735
000080 48 2f 6f 3f fe 5b 07 3f f2 fd 80 3f 83 ad c5 be
       0.9343152 0.52874744 1.0077498 -0.3860894
000090 c6 57 3e bf 36 c3 4e 3e 12 4d 97 bf e4 85 58 3e
       -0.7435268 0.20191655 -1.1820395 0.21144825
0000a0 a5 06 03 bf cf 89 26 40 28 e4 e6 3f e4 1d 75 3d
       -0.51182014 2.6021612 1.8038378 0.05984296
0000b0 cf e8 3a 3e 96 bc 2b 3b 81 01 83 3e 6e fa 1a 3e
       0.18252872 0.0026204935 0.25587085 0.15134594
0000c0 b5 5f 18 3f cf 09 e6 3e b5 bd 61 be 24 d1 83 3e
       0.5952104 0.44929358 -0.22045024 0.257455
0000d0 e1 16 2f 3f d9 20 bf bf f3 38 22 be 4a 39 cb bd
       0.68394285 -1.4931899 -0.15842037 -0.099230364
0000e0 e6 50 23 3f a9 ee b6 be 34 06 16 3f b3 fb b5 be
       0.63795316 -0.35728958 0.58603215 -0.35543594
0000f0 82 a0 e2 3d 8b 20 39 3f 54 a2 38 bf 69 39 3c bd
       0.11065771 0.7231528 -0.72122693 -0.045953188
000100 b5 eb 74 3d c8 e5 9e be d5 1a 1c 3f d7 e6 85 3f
       0.0597951 -0.31034684 0.6097844 1.0461072
000110 1a 13 b0 3f 2a 72 32 3e 0a 08 1e bf 31 9a 06 bf
       1.3755829 0.17426363 -0.61731017 -0.5257903
000120 39 6b a0 3e ad ba a7 bd b4 02 74 3f 08 4b 80 be
       0.31331804 -0.081899025 0.95316625 -0.25057244
000130 dc 40 8b 3d b1 6e 3c 3e a6 84 b2 be 1c 9b 1b 3e
       0.0679948 0.184016 -0.34866828 0.15195888
000140 30 ac 59 bf
       -0.8502836

raise_dim.0.attention1.4.bias f4 [9]
000000 58 ae d2 bc f5 89 24 3e 42 07 8a bd dc e6 6f 3e
       -0.0257179 0.16068251 -0.067396656 0.2342791
000010 e4 fe 80 3f 5a 8c 04 3e af 47 2e 3d 0f d5 67 3e
       1.0077786 0.12944165 0.04254883 0.22639869
000020 5e 8e 1f 3c
       0.009738533

raise_dim.0.attention3.1.weight f4 [32, 9, 1, 1]
000000 41 66 a2 3d c9 7c 15 bf 3b 54 fc 3d 46 7e e0 3e
       0.0792966 -0.5839353 0.12320753 0.4384634
000010 a6 04 0e bc 91 bb ff be 5d e5 28 be 84 be 83 3e
       -0.0086681 -0.4994779 -0.16493745 0.2573129
000020 00 a9 ab be be c0 18 3f f6 a6 35 bf c3 93 b0 bd
       -0.33527374 0.596691 -0.7095789 -0.08621933
000030 ac 7d 66 be ac d2 89 bf 18 f6 52 3f 20 49 18 3d
       -0.22508878 -1.0767417 0.8240676 0.037179112
000040 c0 2f 3c 3d e4 42 4a 3d 11 27 17 3e d0 19 1a 3f
       0.045943975 0.049380198 0.14760996 0.60195637
000050 f4 39 ba bd 8d 40 80 3f a8 42 b0 3d 3d 4c b2 3e
       -0.09093085 1.0019699 0.08606464 0.3482379
000060 ac f5 48 3e 96 fb df 3e fd f7 29 bf c1 d5 89 3e
       0.19624966 0.43746632 -0.66394025 0.26920894
000070 d7 28 a7 3e 39 c4 3e bf a1 38 56 be 63 e0 0a bf
       0.32648346 -0.7451816 -0.2092004 -0.54248637
000080 84 1e 40 3e 11 62 36 bf eb 1e aa be 5c 49 06 3f
       0.18761641 -0.7124339 -0.33226714 0.5245569
000090 ef 2c 3f 3f 0a 37 e6 3e dd 6f 21 3e f6 51 4e 3e
       0.7467794 0.44963866 0.15765329 0.20148453
0000a0 8a 7c 56 3e 63 91 50 be bf dc a6 bd cb 97 35 3d
       0.20945945 -0.2036796 -0.08147573 0.044334214
0000b0 6f 68 b7 3d 49 90 b8 be 93 87 85 3d ff 41 87 3d
       0.08955466 -0.3604758 0.06519999 0.06604385
0000c0 ce f0 9b be 91 55 7a be 67 67 7e 3e 55 81 5f 3f
       -0.30457157 -0.24446703 0.24844132 0.8730672
0000d0 c1 e1 cf bd 00 1b b2 3e 44 bd 25 3d f5 4f a1 3e
       -0.10150481 0.34786224 0.0404637 0.31506315
0000e0 a9 8a c1 3c ef 91 af bb 76 33 98 3e c6 9d 77 bc
       0.023625689 -0.005357973 0.29726762 -0.0151133
0000f0 6b fd d7 3e c1 40 22 bf 7c 16 5f bf 74 b3 f4 3e
       0.4218553 -0.63380057 -0.87143683 0.47793162
000100 30 21 19 be c6 82 ed be 87 81 d9 be 60 57 9c 3e
       -0.14954066 -0.46388835 -0.42481634 0.30535412
000110 5b ce ef 3e c1 bb 89 be bd 12 73 3f 87 fb 37 bf
       0.46837124 -0.26901057 0.9495047 -0.71868175
000120 34 e8 4a 3f 1f 8f 1d bf 73 65 94 bf 08 da a9 be
       0.79260564 -0.6154651 -1.159346 -0.33174157
000130 c2 9b 63 be d7 34 b3 3e 99 66 29 3f b2 78 f0 be
       -0.22227386 0.3500125 0.66172177 -0.46967083
000140 86 bc c2 bd 31 a3 b4 be f9 02 0e 3e af c6 ca be
       -0.09508614 -0.35280755 0.13868321 -0.3960471
000150 30 89 5d be 26 a8 23 3e d8 11 5f 3e b8 e4 a9 3e
       -0.21634364 0.15982112 0.2178415 0.3318231
000160 11 6a 7b 3d 62 eb a5 3d 68 a8 33 be 6d 94 92 3d
       0.06138045 0.08101536 -0.1754471 0.07157216
000170 92 00 0c 3e e0 f9 30 3f 00 3d 13 bf 4c 19 57 3e
       0.13672093 0.6913128 -0.57514954 0.21005744
000180 1d 3d 5c bf 24 cc fc 3e 5c 2e 1f 3e 1c 8b 0d 3f
       -0.8603075 0.49374497 0.15545028 0.5529039
000190 62 99 2c 3f ef a9 31 bf c9 a5 aa be 1f 69 12 bf
       0.67421544 -0.69399923 -0.3332961 -0.5719165
0001a0 78 46 06 3e 51 56 68 be 68 b9 8f 3e bb 6b 08 bf
       0.13112819 -0.22689177 0.2807114 -0.53289384
0001b0 f1 f2 74 3e 3b 0e 58 3f ff 0f 17 3f 6a 92 a6 3e
       0.239208 0.84396714 0.59008783 0.3253358
0001c0 d3 aa d3 3e a3 0f 9d be fe c2 08 bf 5b 9b 15 be
       0.41341266 -0.30675992 -0.53422534 -0.14610045
0001d0 97 1d 64 3f 05 bd 29 3f a2 f0 18 bf fe d0 17 be
       0.8910765 0.66304046 -0.59742177 -0.14825818
0001e0 9c fb a9 3e 4c c2 0c bf b2 52 fa be 65 56 4c be
       0.33199775 -0.54983974 -0.48891217 -0.19954832
0001f0 e3 56 cf bd e3 ba 3f 3e 8f cc 9c be 9c 79 4f be
       -0.10123994 0.18723635 -0.30624816 -0.20261234
000200 b9 7f c3 3e a3 a1 ea 3e b5 7c 50 be dd 09 39 bf
       0.38183382 0.45826444 -0.20360072 -0.72280675
000210 74 b9 a8 3e ce 89 30 be bc 3c 98 3d 58 5e ad bc
       0.3295399 -0.17240068 0.07433459 -0.02116315
000220 50 16 10 bf e9 0d 9b 3e 29 da 8d 3e e5 42 08 bf
       -0.56284046 0.3028405 0.27705505 -0.5322707
000230 6c 15 9b be 94 83 08 3e 6f 24 8a be f1 a3 d9 3e
       -0.3028978 0.13331443 -0.26980922 0.4250789
000240 7d b1 b4 be 54 d0 22 3d c1 f8 bb 3e 72 97 ec 3e
       -0.35291663 0.03974946 0.36713222 0.46209294
000250 b9 77 ce 3e 12 51 cf 3e e3 92 97 3e 48 36 05 bf
       0.40325716 0.4049154 0.29604253 -0.5203595
000260 2e 87 53 3f cb 47 d1 be d0 0c ca 3e 5a 80 4d 3f
       0.8262814 -0.40875086 0.394629 0.80273974
000270 73 e3 97 3e 1a df ab bd 5c af 02 bf b7 45 22 3f
       0.29665717 -0.083921626 -0.5104883 0.63387626
000280 72 83 4e be 1d 30 c3 bd 7a 4e 74 be 7a 37 26 bf
       -0.2016733 -0.09530661 -0.23858061 -0.649284
000290 48 58 b5 be 9b c0 21 be 61 51 11 3f bc 22 10 bf
       -0.35418916 -0.1579613 0.567648 -0.56303
0002a0 50 e9 2a 3f 14 0d e6 be 78 7a 88 3e c8 1e 68 bf
       0.66762257 -0.44931853 0.26655936 -0.9067197
0002b0 5c 94 0d 3e 2d c0 bd be 5f 21 da be 95 2b c2 3e
       0.13826126 -0.3706068 -0.42603585 0.37923875
0002c0 df fc c6 bd 95 bd 1a 3e f5 0b b0 be 79 53 1e 3e
       -0.097162 0.15111382 -0.34384122 0.1546153
0002d0 a5 49 87 3e da 4b ea be 94 14 18 3e e3 75 d7 3e
       0.26423374 -0.45760995 0.148516 0.42082128
0002e0 bb c5 95 3e 2c ee 58 be 66 2a a2 3e fc fa e3 3d
       0.2925242 -0.21184605 0.31672972 0.11131856
0002f0 9e 2e 0f bf 7a 10 07 3e a8 d3 89 bd 82 d7 aa be
       -0.5593051 0.13189879 -0.06729823 -0.33367544
000300 54 c9 82 3f a9 9d d5 be 41 5d bd bd 1a 22 0e 3e
       1.021769 -0.41721848 -0.092463024 0.13880196
000310 43 23 92 3d a7 d2 8e bd b2 4d cf 3e b6 45 69 3e
       0.07135632 -0.069737725 0.40488964 0.22780499
000320 e3 a0 86 be af 00 08 3f 8f c9 04 bf ea bb bd 3d
       -0.26294622 0.53126043 -0.51870054 0.092643574
000330 f9 b6 bc 3e 4f b4 40 bf 1e bd 91 3e c7 e2 bd 3e
       0.36858347 -0.7527513 0.28464597 0.3708708
000340 c4 3e 6b bf 8a 82 93 bf 04 fe 69 3e c9 be 28 3f
       -0.9189265 -1.1524212 0.22850806 0.65916115
000350 01 da cb be a1 42 51 bf 03 7b 1c bf 27 b9 cb bd
       -0.3981476 -0.8174229 -0.611252 -0.099474244
000360 b5 99 31 3c 78 e6 5b 3d 79 81 82 be 74 84 4e 3e
       0.010839869 0.05368659 -0.25489405 0.20167714
000370 09 c0 8c be 74 25 18 3d e8 fb 81 3f 33 b5 95 3e
       -0.2749026 0.037145093 1.0155001 0.29239807
000380 f0 91 e4 be 08 a7 1e 3f 8f a0 e1 be f6 b5 53 3f
       -0.4464259 0.6197362 -0.4406781 0.82699525
000390 83 25 24 bf 20 81 d3 3e d3 78 85 bd 69 59 44 bf
       -0.6411974 0.41309452 -0.06517186 -0.7669893
0003a0 ab 2f 7c bf b3 00 82 3e 87 29 10 3f 3d 08 f0 3d
       -0.98510236 0.25391158 0.56313366 0.11720321
0003b0 bd 7f 98 3e 60 48 47 3f 10 f2 72 be 28 b9 c4 3d
       0.29784957 0.7784481 -0.23725152 0.09605628
0003c0 d0 a2 14 bc 97 be 92 bd 5b 57 6f be ca 25 08 3d
       -0.009072021 -0.071652584 -0.23373167 0.033239163
0003d0 11 af c9 be e9 8c 92 bf 5b 04 db bd e5 e9 91 bd
       -0.39391378 -1.1449252 -0.1069419 -0.0712469
0003e0 a0 29 d9 3b ef 17 43 3e 44 b5 80 3e 9f 90 88 3d
       0.0066272765 0.19052099 0.25138295 0.06668209
0003f0 32 5a af 3e 35 ec da be a1 b5 de 3d 9c b4 1c bd
       0.342485 -0.42758337 0.10874487 -0.03825818

raise_dim.0.attention3.1.bias f4 [32]
000000 b5 0c 6a bd ac 7f 91 bc 2a 3b 89 bd f9 7e f4 3c
       -0.057141025 -0.017761074 -0.06700738 0.029845702
000010 3b a5 03 3c ba 1d 5a 3d d7 e9 1a 3d 29 06 83 3c
       0.0080349995 0.053251006 0.037820663 0.015994148
000020 6a 49 11 3d d8 2b 87 bd ea 17 0a bb 75 ac b6 bd
       0.035470404 -0.066001594 -0.0021071383 -0.08919612
000030 ef 5f 65 3c eb dd 87 bd 5f 64 40 bd 62 cb 4d bd
       0.013999923 -0.06634124 -0.04697072 -0.05024279
000040 be 58 03 bd aa 53 b5 bd 08 99 19 3d 67 f7 de 3d
       -0.032067053 -0.08853848 0.037499458 0.10887032
000050 00 c3 d2 3c b4 6a f9 bc 93 8c 5c 39 79 f2 32 3d
       0.025727749 -0.030446388 0.00021033203 0.04368827
000060 42 bc c9 bc a8 bf 99 bc 14 02 9c bd 8c 63 08 bc
       -0.024625901 -0.018768147 -0.07617584 -0.008324515
000070 30 a4 bf 3c 57 83 e3 3c 6d c1 45 bc bf ae 83 bc
       0.02339372 0.027772589 -0.012070042 -0.016074536

raise_dim.0.attention3.3.weight f4 [32, 32, 1, 1]
000000 86 b1 b8 be 77 a3 b8 be f3 35 1b 3e 80 77 81 3e
       -0.3607294 -0.36062214 0.15157299 0.25286484
000010 8f 1b b5 bd 1d 45 ed be d3 c0 19 be df d6 06 3e
       -0.08843147 -0.46341792 -0.15014963 0.13167904
000020 30 c1 db 3d 71 af c4 bd 27 2e 31 bd 8e 06 45 be
       0.10730207 -0.09603775 -0.043256905 -0.19240782
000030 ee b6 13 bf 56 13 f5 bc 48 d0 8a 3d a6 31 89 bd
       -0.57701004 -0.029916447 0.06778008 -0.06698923
000040 48 9e 63 3d dd 9c 67 3e 34 6a 70 be d0 90 7f 3e
       0.05557087 0.22618432 -0.23478013 0.24957585
000050 a7 b4 23 be 01 7d 8b 3d 5d 0e bb 3e 3a 7b 16 be
       -0.15986882 0.06810952 0.36534396 -0.14695445
000060 b5 7d e2 3d 05 01 af 3d 47 36 07 be 51 02 cb 3d
       0.11059133 0.08545116 -0.13204299 0.09912551
000070 be 1e 74 3c b4 38 d1 bd ce 69 a7 3e c4 72 24 be
       0.014899908 -0.102158934 0.3269791 -0.16059405
000080 73 20 0e 3e 9f a7 8f 3e 3c a6 4c bf c3 01 80 3e
       0.13879566 0.28057572 -0.79941154 0.25001344
000090 a1 1f f8 3e 3c ac e0 bd 4d 95 d3 3d 5f 03 b4 be
       0.4846163 -0.10970351 0.10331211 -0.35158822
0000a0 eb 3b c2 bd 03 9b dc be b0 93 30 3e 37 03 f5 be
       -0.09484085 -0.43087015 0.17243838 -0.47854015
0000b0 6e b2 8e bd ec 9c c0 bc b2 bc a6 3d 98 4c 4f bd
       -0.069676265 -0.023512326 0.081414595 -0.050610155
0000c0 c8 63 8e be 28 ad d3 3e 27 8b 79 3e a3 fd df bc
       -0.27810502 0.41343045 0.24369489 -0.027342623
0000d0 fb 26 20 be a1 df 1a be 45 d6 28 3e 42 a3 1b bc
       -0.1563987 -0.1512437 0.16487987 -0.009499373
0000e0 c5 8c 13 bd c3 a5 00 3f b3 f6 a3 be fb 5f 01 bf
       -0.03602292 0.5025293 -0.32024154 -0.5053708
0000f0 5d 0f a1 3e 96 3d c9 3d 08 a4 bc bd c3 1c c0 3d
       0.31457034 0.098262 -0.09210974 0.09380486
000100 ce b4 d3 3d 60 6a a0 bc e1 5b 57 bd 77 9c 0b 3f
       0.1033722 -0.019581974 -0.052577857 0.5453562
000110 2e ff d0 bd 13 4c 32 3e 4d f9 1c 3e 48 5a df 3e
       -0.10204922 0.17411833 0.15329476 0.43623567
000120 e1 85 4c 3e 6c 43 0b bf be 69 a1 bc 94 68 68 be
       0.19972946 -0.5439975 -0.019703742 -0.22696143
000130 aa 5e 15 3e fa 57 07 3f d8 1e de bd 20 fc cd be
       0.14586893 0.52868617 -0.10845727 -0.4023142
000140 c4 d9 aa 3e 0b b3 3f 3e 1f 65 78 be 4a 85 8b 3e
       0.33369267 0.18720643 -0.24257325 0.2725013
000150 63 2c 4f 3e 75 a3 a7 be 01 aa e7 be 8f c1 c9 3b
       0.20231776 -0.32741895 -0.4524689 0.006157107
000160 f7 5f 66 be b0 a8 aa 3d aa 58 ed bd ee 97 14 3e
       -0.22497545 0.08332956 -0.11589177 0.14511082
000170 86 fd 45 be eb 36 a1 3d 49 70 41 3e 27 4d f5 be
       -0.19334993 0.07871803 0.1889049 -0.47910425
000180 4f 62 6b 3e 0f f4 b2 3e 0e ec 01 3d 09 ed d5 bd
       0.2298672 0.34951827 0.03171926 -0.104456015
000190 74 e9 10 3d 0e 1f 0e 3e c3 2c de 3d ca 41 1f be
       0.03537889 0.13879034 0.10848381 -0.1555244
0001a0 c3 5f 3e 3e e3 13 69 3d 02 cc b4 bc 30 c5 12 be
       0.18591218 0.05690373 -0.022069935 -0.14333034
0001b0 b9 ef 1c be 61 91 ce bd 2b 8b bf 3e 33 c9 6a be
       -0.15325822 -0.100863226 0.37410864 -0.22928314
0001c0 17 98 a7 bd 2e 54 d2 3e b8 65 88 3e 17 af f8 be
       -0.08183306 0.4107985 0.26640105 -0.48571083
0001d0 77 15 94 bc f7 b5 11 bd ff 65 c9 bd 07 67 87 be
       -0.018076641 -0.035573926 -0.09833907 -0.2644579
0001e0 4d 07 55 3e 10 0e da be 6e da 33 bd eb fb c3 bd
       0.20803566 -0.42588854 -0.043909483 -0.09569534
0001f0 22 eb 33 3e 55 b1 d6 bc 32 2b 91 3d a9 7d 81 3e
       0.17570165 -0.026207605 0.07088317 0.25291184
000200 e2 66 a3 bd 76 49 b6 bd 0a 21 f6 ba 00 64 b3 3d
       -0.07978608 -0.0890073 -0.0018778157 0.08759308
000210 0d 9b 15 3e 8f c6 e5 3e e7 b6 a8 3e df 1a 02 bf
       0.14609928 0.4487805 0.32952043 -0.5082225
000220 27 97 27 bc b5 85 fe bd 7e 61 34 be 01 8a 1b 3d
       -0.010228909 -0.12427846 -0.17615315 0.037973408
000230 43 e7 6f 3e 7a 82 9d 3e a9 e1 0c 3e 45 a2 bf 3e
       0.23428063 0.30763608 0.13757958 0.3742849
000240 21 74 9a bb fa 91 38 3a 9e 0e e0 3e 02 7f 25 3e
       -0.0047135507 0.0007040795 0.43761152 0.16161731
000250 6a 64 c5 bd 48 ca c0 3d 89 08 0d 3e 2e 74 ed be
       -0.09638293 0.09413582 0.13772787 -0.463777
000260 7f 04 5f 3e 9f 84 c2 3c 95 5c 84 3e 61 d5 31 bd
       0.21779059 0.02374488 0.25851884 -0.043416385
000270 56 d1 34 be 93 37 91 3d e6 3e dd 3e 83 ac e6 be
       -0.1765798 0.07090678 0.4321205 -0.4505349
000280 df 65 bb 3d 15 5e c0 3e e9 fa b3 bd 55 43 22 be
       0.0915029 0.3757178 -0.08788092 -0.15845998
000290 5c df e9 bd ec 90 b7 3e 1d ca b9 be e6 7f 8f be
       -0.114195555 0.35852754 -0.36287013 -0.28027266
0002a0 68 df 5f bd 6a 09 0d be e4 86 57 bd f9 a4 63 be
       -0.054656416 -0.13773122 -0.052618876 -0.22230901
0002b0 e1 3b 83 be 40 37 8f 3c 35 7a bc 3d 86 37 fe 3d
       -0.2563162 0.0174824 0.09202997 0.12412934
0002c0 bc ea 95 3c 29 e3 2d be 00 d0 06 be c5 c8 38 3e
       0.018300407 -0.16981186 -0.13165283 0.18045337
0002d0 bc 89 ff 3d a8 c2 54 bd 3f c0 1a 3e 4e 10 22 be
       0.124774426 -0.05194345 0.15112399 -0.15826532
0002e0 44 8d 5e be f5 62 81 3d 0a ec 09 3e bc fc 84 3e
       -0.21733576 0.06317703 0.13468948 0.2597407
0002f0 00 c0 37 bc 8a aa 90 3e f4 5f a8 be e2 41 f2 3d
       -0.01121521 0.2825511 -0.32885706 0.118289724
000300 dd b6 08 3f 5e 45 57 bf 1a 97 a6 be 6d 6d 56 be
       0.5340403 -0.8409022 -0.32537156 -0.2094018
000310 fa 07 d8 bc 1d 11 93 3e a6 1b 10 3e 80 a7 c0 bd
       -0.026370991 0.28723994 0.14073047 -0.09406948
000320 dd 9e 81 be e5 95 55 be 17 11 a1 3e 10 81 1b 3e
       -0.25316516 -0.20857961 0.3145835 0.15185952
000330 fa 79 84 be 4a b2 a3 be 76 c0 0c 3f 67 e4 4f bf
       -0.2587431 -0.3197196 0.5498117 -0.8120789
000340 f5 92 aa be 2b 8f c4 3e 5a ee 5c 3d 47 8f 40 be
       -0.33315244 0.38390478 0.053938247 -0.18804656
000350 65 24 95 3d ba d1 4d bd 4c 01 3b 3d dd 21 fb bd
       0.07282332 -0.05024884 0.045655534 -0.12262318
000360 ad d7 d2 3e 61 ee d3 be 51 a1 89 3e 3d 6b 85 bd
       0.41180173 -0.41392806 0.26880887 -0.06514595
000370 f4 22 0d 3f 72 f8 1f 3e 39 7c a6 3d eb 78 48 3e
       0.5513146 0.15622118 0.08129162 0.19577377
000380 66 13 8f be 8d 98 1a be e3 56 97 3e 59 ea 81 3b
       -0.27944487 -0.15097256 0.29558477 0.003964704
000390 93 f1 33 be 28 b5 83 3d b5 b4 3c 3e f1 a3 91 3e
       -0.17572622 0.06431037 0.1842831 0.2844539
0003a0 46 3d f7 be dc 56 73 be 59 4d b4 be fc 91 32 bf
       -0.48288935 -0.23763603 -0.35215262 -0.69754004
0003b0 ae c4 ca bd cd 9b 45 bf aa 43 30 bd 51 32 2d bf
       -0.09900795 -0.7719086 -0.04303328 -0.676549
0003c0 3f de dc 3c d7 44 06 3e 91 a7 a3 3e 30 94 95 3e
       0.026961444 0.13112198 0.3196378 0.2921462
0003d0 e2 d2 95 bd be d3 5a be 4c b5 87 3d 57 93 0a 3e
       -0.07315613 -0.21369836 0.066263765 0.13532768
0003e0 40 a7 23 3e f8 89 6f bd 17 d2 2d 3d 36 24 30 be
       0.1598177 -0.058481187 0.042436685 -0.17201313
0003f0 bc 52 0b 3e 7b 7d ed be b1 53 98 be 5b 76 4e 3e
       0.1360578 -0.46384797 -0.2975135 0.20162337

raise_dim.0.attention3.3.bias f4 [32]
000000 1b 34 84 bb 03 c2 2e 3d b2 2d 69 3d 9b 5d 06 bd
       -0.004034532 0.042665493 0.056928344 -0.032804113
000010 89 d4 eb b8 ae e8 04 bc 1e 8d 4b 3d 5b be ec 3c
       -0.00011245261 -0.008112116 0.049695127 0.028899362
000020 b8 76 e7 bc 39 9c b1 3c 59 04 f8 3c fd 12 90 3c
       -0.028254852 0.021680938 0.03027551 0.01758718
000030 b0 37 dc bc 79 2b db bc 03 db 02 bd 60 c9 a2 3d
       -0.026882023 -0.026754128 -0.031947147 0.079485655
000040 2b 7d 66 3d c1 95 0d bd c8 11 58 3d b0 f1 d0 3b
       0.056271713 -0.034566645 0.052751333 0.0063764676
000050 b1 90 96 3c 59 a0 a1 bc 11 d8 55 3d 1c 0a 0d bc
       0.018379541 -0.01972978 0.05220801 -0.008608367
000060 dd 32 e7 bd 3f 29 cd bc 40 4f 32 bc 0d ae 0c bd
       -0.11288998 -0.025044082 -0.0108831525 -0.034345675
000070 cf a4 2d bc 37 f5 db bc b8 d3 a6 bd b8 4a da bc
       -0.010598375 -0.026850326 -0.08145851 -0.026646957

layers.0.conv1.weight f4 [32, 32, 3, 3]
000000 03 90 7f 3e ac 8e ca bd 3a 6a 7e bc b1 e6 93 bc
       0.2495728 -0.09890494 -0.015528256 -0.018054338
000010 42 cb 89 be 05 34 62 3d e4 31 04 3d f7 32 9b be
       -0.26912886 0.05522539 0.032274142 -0.3031232
000020 14 9b ae 3d f6 c5 32 bd db 47 9c bd 87 9b ab 3c
       0.085256726 -0.04364582 -0.07630893 0.020948185
000030 8f 8f c0 bd 17 0e 64 bd d8 8f 04 3d e5 8c ae bd
       -0.09402382 -0.0556775 0.032363743 -0.08522967
000040 b7 2e 81 bd 6c ee 22 bc 33 51 46 3e ea d2 39 3e
       -0.06307738 -0.0099445395 0.19366913 0.18146864
000050 df c0 47 3e 1d 3e 15 3e b2 f7 e1 3d 67 e0 16 3e
       0.19507168 0.14574476 0.11033572 0.1473404
000060 8f c7 30 3e 1b c1 0a 3e 75 6c 85 3d 4c ad e7 bc
       0.17263626 0.13550226 0.06514827 -0.028280877
000070 fc 3f 0e ba 21 63 2e 3e f8 45 c4 bd 21 66 82 3e
       -0.00054264045 0.17030002 -0.09583658 0.25468543
000080 ea 22 2f 3e e2 f8 b3 bd 07 a3 86 3d 32 c8 ed 3d
       0.17103162 -0.08787705 0.06574064 0.1161045
000090 f8 66 04 bd 87 10 ed bd 5b 98 a3 bd 9d 2f 83 bd
       -0.03232476 -0.11575418 -0.07988044 -0.06405566
0000a0 25 2e f2 3c 32 06 8b bd 9b 4d 15 bd 7f d4 17 bd
       0.029563019 -0.06788291 -0.036450963 -0.037067886
0000b0 8b 23 d5 bd 7d 89 58 bd 5c 3c 7d 39 8a 74 93 bb
       -0.1040717 -0.052865494 0.00024150446 -0.0044999765
0000c0 ef 73 be 3b 4d 08 97 3c a5 e5 0b bd 83 d3 15 bc
       0.00581216 0.018436575 -0.034154553 -0.009144667
0000d0 1b f7 6e bd 59 09 0b 3d 95 10 a4 3c cc 9d 48 be
       -0.058341127 0.03394446 0.020027438 -0.19591445
0000e0 6f 09 63 be c2 a2 00 be 00 ee 56 be e8 60 46 be
       -0.22171567 -0.12562087 -0.20989227 -0.19372904
0000f0 8d 8f e1 bd b7 86 09 be f8 f8 8c be 6e bd 36 bd
       -0.11013708 -0.13430296 -0.27533698 -0.044614248
000100 69 09 fc bd b1 7e 8c bc 2f 78 98 bd 61 99 50 bc
       -0.12306482 -0.017150255 -0.07444798 -0.012731881
000110 c7 08 69 bd 8f 56 4d bd 47 d5 79 bd 38 af 4e bc
       -0.056893136 -0.050131377 -0.060994413 -0.012615018
000120 5b 93 57 bc 2e 25 02 be 02 0f a8 bd e0 05 94 bd
       -0.013157691 -0.12709495 -0.082059875 -0.07227683
000130 0b d2 83 bd 45 aa a9 bd ce e9 c6 bd 66 f3 86 bd
       -0.06436547 -0.082844295 -0.097125635 -0.06589393
000140 06 ae bf bd fa 96 a1 bc 2d 70 88 3d cd 4f 92 3d
       -0.09359364 -0.019725312 0.06662021 0.07144127
000150 81 32 36 3d 66 23 2b bd b7 60 e6 3b ed 29 99 3d
       0.044481758 -0.041781805 0.0070305723 0.074787
000160 98 fa 55 3d dd 73 14 3c fb 64 ef 3c c9 c0 db 3d
       0.052240938 0.009060827 0.029222956 0.1073013
000170 67 23 ac 3d 1f a2 d2 3d 6c 67 69 3c f4 cb 0b 3e
       0.0840519 0.102848284 0.014245849 0.1365202
000180 03 58 81 bb 2a 18 5f 3d 99 e6 e5 3c b1 5b 24 bd
       -0.0039472594 0.054466404 0.02806406 -0.040126506
000190 a7 ef 20 3d 77 2b 1a 3d 55 ff 15 bd 91 50 03 3c
       0.03929105 0.037639108 -0.036620457 0.008014814
0001a0 18 ea 13 3d 10 c7 ac bd 7c 2c 1f bc 63 71 0b be
       0.03611192 -0.08436406 -0.009715196 -0.13617472
0001b0 13 c3 96 bd 75 fa bf bc f5 45 d8 bd 93 f7 1e be
       -0.07361426 -0.023434857 -0.10560218 -0.1552413
0001c0 a8 3f 31 be 06 75 e7 bd ff 0a 23 be 72 26 d2 bd
       -0.17309439 -0.11301617 -0.15922163 -0.10261239
0001d0 a4 0e d0 bd da 29 ce 3d 97 43 04 bd 9f 71 7b bc
       -0.101590425 0.10066576 -0.03229102 -0.015346914
0001e0 38 ed 77 3d e4 5a 7c bc e3 e0 82 3d ce 4e 7f 3d
       0.060528964 -0.015402529 0.0639055 0.062331013
0001f0 a3 34 77 3c 58 ba 72 bc c9 3e f4 3d e8 45 3e 3e
       0.015088233 -0.014814936 0.11926038 0.18581355
000200 f6 a5 2e 3e 7b a9 53 3d 3c cc 4e 3e 5a c1 0f 3e
       0.17055497 0.0516753 0.20195097 0.14038602
000210 67 8b c3 3c 23 d1 8a 3d 32 a9 c0 3d dd 86 2e bb
       0.023870183 0.06778171 0.094072714 -0.0026630678
000220 1e 54 d2 3c 4a 7e 31 3c 2c 6c 89 bd 20 34 5d bc
       0.025674876 0.010833332 -0.06710085 -0.013501197
000230 9e f1 4a bd 52 b0 fe 3b e8 51 60 bd a7 1f ab 3c
       -0.04954683 0.007772484 -0.054765612 0.020889116
000240 28 ba b0 3c 51 9d f6 bc 54 92 94 bd ef 47 db 3c
       0.021573141 -0.030104311 -0.072544724 0.026767699
000250 bf 73 5e bb 93 a9 c8 bc 6f cf 58 bc 52 ee ad 3c
       -0.0033943502 -0.024494922 -0.01323305 0.021231804
000260 12 78 6f bc 9b 1d 85 bb 01 b7 68 3d fe df e3 3d
       -0.014616029 -0.004062367 0.05681515 0.111267075
000270 b7 ac 02 bc 63 6f 19 ba f7 01 01 3d b5 a5 c6 bd
       -0.007975749 -0.0005853085 0.031496014 -0.09699575
000280 7f 43 93 ba 02 54 bf 3c 7e 58 ba 3d f9 a0 c6 3d
       -0.0011235325 0.023355488 0.0909891 0.09698672
000290 80 f1 62 3d b9 1b 52 3d 8d f4 ff 3d 30 17 ea bb
       0.055406094 0.05129597 0.12497816 -0.0071438774
0002a0 ad f2 ea 3c b9 66 5e bd 0d aa eb bb 55 93 10 3c
       0.02868017 -0.054297183 -0.0071919025 0.008824189
0002b0 11 86 99 bc 9c 04 65 3c 7e a9 03 3e 09 9d d0 bb
       -0.018740686 0.01397815 0.12857625 -0.0063663763
0002c0 8c ab 26 3d 2b 21 34 3e f4 17 d4 3d 1a 60 c8 3d
       0.040690944 0.17590778 0.10356131 0.09783955
0002d0 73 a2 5f 3c aa e2 4e 3d eb cc ea bb d3 20 35 bd
       0.013649571 0.050509132 -0.0071655414 -0.044220757
0002e0 c7 9b 4c 3d bd f5 17 3d d2 9d 35 bd e1 d2 7c bd
       0.04995325 0.03709959 -0.044339962 -0.061724547
0002f0 dd 49 32 bd 50 83 c3 3c ef 3b ea 3c a4 c1 40 3c
       -0.043527473 0.023866326 0.028593032 0.0117649175
000300 c8 9a 80 3c 57 f4 61 bd 99 6b 88 3d 95 40 a7 3c
       0.015698805 -0.05516466 0.066611476 0.020416537
000310 44 2d e1 3b 1a 4f 17 3d a6 ca 31 3c 25 41 43 bd
       0.006871851 0.03694067 0.010851538 -0.04766955
000320 54 b1 57 3d 94 b0 ee bc fc 36 b8 bc 76 34 5d bb
       0.052659348 -0.029136933 -0.022487156 -0.0033753193
000330 b5 9b 92 3d e0 8d 82 3d fc 12 d2 bd e1 d9 09 3e
       0.07158605 0.06374717 -0.10257527 0.1346202
000340 a0 be dd 3c 4f 3c e3 3d 30 33 e4 3c 0e 7f 7a 3d
       0.027068436 0.11095487 0.02785644 0.061156325
000350 14 ac 72 3c b1 98 8a 3d c3 8f 91 3d 44 ae c9 3d
       0.014811534 0.06767405 0.071074985 0.09847692
000360 90 5e 05 be 59 fe 5c bd bf a5 a7 3e 08 52 2a bd
       -0.13024354 -0.053953502 0.32743642 -0.041582137
000370 75 19 61 be 0f d0 05 3c 18 03 e3 bc 79 41 32 be
       -0.21982367 0.008167281 -0.027711436 -0.17407788
000380 7a 5c 62 3e 2e 8b 9f 3d 06 ab 1c 3c d7 b7 ff bc
       0.2210559 0.07790218 0.00956226 -0.031215591
000390 c9 bb b2 3c 92 7e 65 bd cf b6 26 3d cf 88 12 bd
       0.021818059 -0.05602891 0.040701684 -0.035775002
0003a0 25 38 83 bb 2d 65 7e 3c aa 7a d8 3d 97 83 2f 3e
       -0.0040044957 0.015527052 0.10570271 0.17140041
0003b0 34 c0 9b 3e f3 8b 86 bc a7 74 f0 3c 3a b9 68 3d
       0.30420077 -0.016424155 0.0293525 0.05681727
0003c0 a0 08 8e 3d 7a 29 d6 3c 38 5b ef 3c 86 e1 0a 3d
       0.06935239 0.026142824 0.029218301 0.033906482
0003d0 b1 18 70 3c 89 68 46 3d e8 5a 8b 3d bf 20 0f bc
       0.014654324 0.048439536 0.06804448 -0.008735835
0003e0 aa 50 bd 3d d7 8c 2f 3c 1e d3 4c 3d 57 92 c1 3d
       0.09243901 0.010714731 0.050006025 0.0945174
0003f0 45 65 6b be 84 84 ba be 4f 96 fc be f4 05 47 bd
       -0.2298785 -0.36429226 -0.49333426 -0.04858966

layers.0.conv1.attention1.0.weight f4 [9, 32, 3, 3]
000000 91 97 fb 3e c4 68 69 be 93 fa c5 3b bf 8e 8f bd
       0.49139073 -0.22793871 0.0060418337 -0.070096485
000010 31 0b 6f 3e 5b 3f ca 3d 8d dd 4c be 69 75 5b 3e
       0.23344113 0.09875365 -0.2000639 0.21431507
000020 c2 93 84 3e 38 86 ae 3d fd 00 72 3e e7 25 ef 3d
       0.2589398 0.08521694 0.2363319 0.11677151
000030 6c eb 65 3c b6 3e c2 bd b9 df 5f 3c 38 8d 58 bc
       0.01403318 -0.094846174 0.0136641795 -0.013217263
000040 42 fd f2 3d 0c 87 f7 3d ca a9 ba 3e 73 45 01 3e
       0.11864711 0.12086305 0.36457664 0.12624149
000050 d1 d2 6a 3d f1 ce 3b 3e 9c 0e 9a 3d 05 e4 89 be
       0.057329956 0.1834066 0.07522318 -0.26931778
000060 7d 75 e9 bd 44 23 7a be 3c 59 66 be 0b 52 08 3e
       -0.11399362 -0.24427515 -0.22494978 0.13312547
000070 34 27 8f 3d 50 7c 4b 3e 29 fd 90 3b 7b f2 25 be
       0.06989899 0.1987164 0.0044247103 -0.1620578
000080 d5 bb 24 3c 44 bc 04 3e e2 1e 07 be 92 2d 53 3c
       0.010054548 0.12962443 -0.13195375 0.012889283
000090 f1 1b b0 bc 81 00 2c 3e e0 a9 07 bd b3 09 6d 3d
       -0.021497699 0.16797067 -0.03312099 0.057870578
0000a0 2e 18 a0 3e 8b 81 00 3e a6 a8 f6 bc ee 48 24 be
       0.31268448 0.12549417 -0.030109715 -0.16043445
0000b0 1d 13 55 be ac 5f fe 3d f4 ee e3 bd e0 59 b0 3d
       -0.20808072 0.12420592 -0.11129561 0.08610892
0000c0 92 59 4e 3e 95 af 99 bd b5 16 0b 3e d5 3b 8e 3c
       0.20151356 -0.07504193 0.13582881 0.017362515
0000d0 ee 41 e2 bc 78 21 b9 bd f4 41 09 be 2b 09 74 bc
       -0.027619328 -0.09039587 -0.13404065 -0.014894764
0000e0 e6 71 3d 3e a7 2e 04 be e2 23 39 be 65 2d 8f 3e
       0.1850048 -0.12908421 -0.18080094 0.2796432
0000f0 fb 4d 8f be a5 8a 02 bd ff 0e a1 3e 88 6b b1 bb
       -0.27989182 -0.031870503 0.31456754 -0.00541443
000100 d1 ad 8d 3e 03 fa 51 3d d9 52 91 3d 75 ea 2f be
       0.27671674 0.05126382 0.0709588 -0.17179282
000110 b8 62 26 bd 25 cc 24 be 47 55 5b be d7 64 98 be
       -0.04062149 -0.160935 -0.2141925 -0.29764435
000120 03 31 a6 3e 9a c8 93 3d 9c 3d 8f bd 1f 12 d5 3d
       0.32459268 0.07215996 -0.06994173 0.10403847
000130 b8 ae 78 3d eb 21 6f be 91 f2 51 3e bc 44 48 3e
       0.0607135 -0.23352782 0.20502688 0.1955747
000140 69 dc 55 3e 43 4b 83 be 53 b2 aa be c4 28 b1 be
       0.20884861 -0.25643358 -0.33339176 -0.34601414
000150 43 38 cc 3d bc 5b b4 3d 15 a2 8a 3d 72 2a d6 bd
       0.099716686 0.088065594 0.06769196 -0.104573146
000160 09 c6 20 3d c9 c8 d6 bd 2e 47 a4 3d fa 03 00 3e
       0.03925136 -0.104875155 0.08021389 0.12501517
000170 22 d3 c1 3d 07 3a 41 3e 3a ee 77 3e 0b 79 91 3e
       0.094640985 0.18869792 0.2421197 0.2841266
000180 62 a6 8f 3d cc 6f 69 bd 0b da e4 3d 5e 28 39 be
       0.07014157 -0.056991383 0.11174401 -0.18081805
000190 f9 ed 30 3e 7a 78 6a bd 58 74 bf bd df 27 29 3d
       0.1727828 -0.0572438 -0.09348363 0.04129779
0001a0 49 9b 8c bc 2d 75 94 bd a7 1f b3 bd ee 0f f0 bd
       -0.01716389 -0.07248912 -0.087462716 -0.11721788
0001b0 8c ff 26 3e 14 c3 d4 3d 3d 63 67 3d dc 91 7a 3e
       0.16308421 0.10388771 0.056491125 0.24469703
0001c0 6c 61 ec 3d e8 8c c9 3d 49 ad a5 3d 24 4a b7 3d
       0.11542019 0.09841329 0.08089692 0.08949688
0001d0 2d e7 61 3e 31 78 82 bd ba d4 b7 3d 94 2d 58 3e
       0.22060843 -0.06370581 0.08976121 0.21111137
0001e0 ff d4 7b 3d 3d f2 a2 bd f8 3a f0 3d d5 c3 af 3e
       0.061482426 -0.079563595 0.117299974 0.34329095
0001f0 c4 bd cc 3d 26 bb 5a 3e 33 33 84 3d 13 7e 4c 3d
       0.099971324 0.21360454 0.06455078 0.04992492
000200 e7 c3 ab bd 37 6e f7 3d 02 ad 97 3d fd 27 e9 bd
       -0.08386975 0.12081569 0.074060455 -0.1138458
000210 17 45 a7 3d 14 65 24 bd f7 e6 1b bd 38 34 0d be
       0.08167475 -0.040135458 -0.038062062 -0.13789451
000220 12 5b 35 be db 22 9e 3c b9 ff 0b bd 0c eb 33 3d
       -0.17710522 0.01930373 -0.034179423 0.04392533
000230 c0 a6 1a 3e 43 c4 51 be 51 27 0b be cf ed b0 bd
       0.15102673 -0.20485024 -0.13589217 -0.086391084
000240 ba 2a ce 3c 1a 46 cd bc 75 13 a7 3d 00 79 d6 3e
       0.025166858 -0.025057841 0.08158008 0.4188919
000250 cd e3 37 3e ae c4 8c 3d be a4 66 3e c0 6e c9 3d
       0.17957993 0.06873451 0.22523782 0.09835577
000260 30 a7 2e 3e 2b 5f ac bd 6b 6a 1a 3e cc c1 d2 bd
       0.17055964 -0.08416589 0.15079658 -0.1029087
000270 e6 e3 65 bd ff 3b 8b bd 8c 43 57 be 1a ee 58 be
       -0.056125544 -0.06798553 -0.21021861 -0.21184579
000280 00 78 f9 bd ad b8 a6 be b3 2e 00 be a4 96 4f bd
       -0.12181091 -0.3256277 -0.12517814 -0.05068077
000290 0f 35 5e be fc f7 a5 bc af e3 40 3e a3 ec aa 3d
       -0.21699928 -0.02025985 0.18836854 0.08345916
0002a0 f7 a3 a9 be 4e f7 8a bd 6d e6 40 be cc 34 58 3d
       -0.33132908 -0.06785451 -0.188379 0.052784726
0002b0 b2 f0 fd bc c7 ed 0e 3d a1 df 0a be 62 43 0c be
       -0.030998562 0.03489473 -0.1356187 -0.1369758
0002c0 52 dc 0e 3d 09 89 bb 3c 89 29 80 3d 97 a2 99 bd
       0.034878083 0.022892492 0.06257922 -0.07501715
0002d0 e6 23 c0 bc 8f 59 36 3c 42 d0 5d be e1 e5 44 3e
       -0.023454618 0.011129751 -0.21661475 0.19228317
0002e0 a5 09 4f 3e 65 32 87 bd 34 1d 2c bd f6 4a 8e 3d
       0.20218523 -0.06601409 -0.042020038 0.069478914
0002f0 54 9a cf bd ee 1a aa 3e 63 e9 2b 3d fe cf 1b 3e
       -0.10136858 0.3322367 0.04197062 0.15216061
000300 c1 31 fc 3d 96 fc 42 3c 1a 81 9a 3d 01 ae 34 bd
       0.12314177 0.0119010415 0.075441554 -0.044111256
000310 15 17 c7 3c 4a c8 85 3d 60 b9 1b be f6 8f d7 3c
       0.024302999 0.06532343 -0.15207434 0.026313763
000320 d9 24 db bd a5 45 f6 bd 34 2c 1c 3e d5 63 51 3d
       -0.107003875 -0.120250024 0.15251237 0.051120598
000330 72 bd 48 3d fe 66 3f bc dc 30 02 be 2e 0d 4a 3e
       0.049008794 -0.01168227 -0.12713951 0.1973159
000340 aa f9 c1 3d 91 63 89 3e 22 e8 07 bc 31 a8 15 3e
       0.09471448 0.26833776 -0.008295091 0.14614941
000350 e7 1f 78 bd b9 3b 24 bd 99 d9 79 3d 31 bf 35 3e
       -0.0605773 -0.04009602 0.060998533 0.17748715
000360 4f 17 d2 3e c6 e6 a9 3e 99 b2 f5 3e 4d 0f 03 3d
       0.41033408 0.3318388 0.47987822 0.031997014
000370 10 98 18 3d 04 93 76 3e 9d ee 74 bd f9 ca 86 3d
       0.037254393 0.2407952 -0.05979787 0.06581683
000380 1a e3 32 3e 04 1f f7 3d 33 23 28 bd f9 e4 44 bb
       0.17469445 0.12066463 -0.041049194 -0.0030043705
000390 b7 9e 11 3e 58 99 c1 3c 3f 12 08 3e 52 5f 1c 3e
       0.14220701 0.02363269 0.1328821 0.15270737
0003a0 02 4c 4d 3e 51 39 2c 3e 9a 6a e0 3d 05 da c3 3e
       0.20048526 0.1681874 0.10957833 0.38252273
0003b0 65 f8 c0 3e 09 41 3e 3d 32 56 01 bc 75 9e 3e 3e
       0.3768951 0.04644874 -0.007894086 0.18615134
0003c0 cf a7 84 3e d7 5a 1d 3e 01 7b 48 3e a2 42 9e 3d
       0.25909278 0.15366684 0.19578172 0.07727553
0003d0 84 db 0d 3e 51 57 2f bd b4 f3 da bb eb d2 25 3d
       0.1385327 -0.04280788 -0.0066818837 0.04048435
0003e0 5d 84 16 3e 73 c5 c0 3d cb 09 92 3d e5 ea c6 3d
       0.1469893 0.094126604 0.07130774 0.09712771
0003f0 c5 04 49 3d 97 33 d3 bc ae 29 62 3d ff 59 b8 bd
       0.049076814 -0.025781436 0.05521553 -0.090015404

layers.0.conv1.attention1.0.bias f4 [9]
000000 60 27 c1 3d 74 68 ae 3d a9 ab 7a 3d 8f 9d 1d be
       0.09431338 0.085160166 0.061198864 -0.15392135
000010 98 1e 0b 3e c8 f0 36 3e c2 6d 14 3e 40 36 2e 3d
       0.1358589 0.17865288 0.14494994 0.042532206
000020 ae 24 3c 3e
       0.18373367
