weights/BWNET_LAGConv_T3/model_epoch_400.pth (torch, 678374 bytes, 141 tensors)

raise_dim.0.weight f4 [32, 9, 3, 3]
0	0xbe1c343a	-0.15254298
1	0x3e18c732	0.14919737
2	0xbe2f51be	-0.17121026
3	0xbe21a09d	-0.15783925
4	0x3e203da6	0.15648517
5	0xbdf68459	-0.12036962
6	0xbd80d410	-0.06290448
7	0x3e165914	0.14682418
8	0x3e48c48f	0.19606231
9	0xbe1934ff	-0.14961623
10	0xbdbf95e2	-0.0935476
11	0xbdceb806	-0.100936934
12	0x3cbfeefe	0.02342939
13	0xbd5f2aad	-0.05448406
14	0xbe137090	-0.14398408
15	0xbe2d0828	-0.16897643
16	0xbde3829f	-0.11108898
17	0x3d21cf64	0.039504424
18	0xbdf634d0	-0.12021792
19	0xbe3f1224	-0.18659264
20	0xbdbe3d8b	-0.09289082
21	0x3ce5f7c9	0.028072255
22	0xbdb224a6	-0.086983964
23	0xbcb8af75	-0.022544602
24	0x3b9d4551	0.004799523
25	0x3df8e1b9	0.12152428
26	0xbd200001	-0.039062504
27	0x3c028c57	0.00796803
28	0xbe0ac99b	-0.13553469
29	0xbd996476	-0.074898645
30	0xbdc35d4c	-0.09539279
31	0xbd5ccbe4	-0.053905383
32	0xbd1142ae	-0.03546398
33	0xbdf9d685	-0.121991195
34	0x3d023aec	0.031794474
35	0x3c9b8703	0.018985277
36	0xbe2bac85	-0.1676503
37	0xbe2c2fc6	-0.16815099
38	0xbe82075c	-0.2539624
39	0xbe108305	-0.1411248
40	0xbddb3964	-0.10704306
41	0xbd18e5f1	-0.037328664
42	0xbe29942f	-0.16560434
43	0xbdfb1419	-0.12259693
44	0xbde85e38	-0.11346096
45	0x3da9b107	0.082857184
46	0xbcd99e28	-0.026564673
47	0x3c1141ec	0.008865815
48	0xbcc051d4	-0.023476519
49	0x3e606927	0.21915112
50	0x3e3f1eba	0.18664065
51	0xbe26130c	-0.16218203
52	0x3e088b02	0.13334277
53	0x3e1fd97d	0.15610309
54	0xbb57bf78	-0.003292052
55	0xbcac0d3f	-0.02100241
56	0xbd892e61	-0.06698299
57	0xbe8e2c47	-0.27768156
58	0x3c2f5c79	0.0107032
59	0x3d845901	0.06462289
60	0xbdbf3e6c	-0.09338078
61	0xbd21747c	-0.03941773
62	0xbd1eaa21	-0.038736466
63	0xbe791867	-0.24325715
64	0xbcbb9318	-0.022897288
65	0xbdf2320b	-0.11825951
66	0xbea8cdb0	-0.32969427
67	0xbdc9f9b8	-0.09862083
68	0xbd88041c	-0.06641409
69	0xbdd93596	-0.10605924
70	0xbe1921a3	-0.14954238
71	0xbe741628	-0.23836577
72	0xbdb4de62	-0.08831479
73	0x3e029936	0.12753758
74	0x3db6bdf7	0.08922952
75	0xbe720bb0	-0.23637271
76	0xbd4c2a7a	-0.049845196
77	0x3d14b62f	0.036306556
78	0x3d0e52e9	0.034747038
79	0xbb72c71f	-0.0037044955
80	0xbd2ce26a	-0.042208113
81	0xbdd39a7d	-0.10332201
82	0xbe07054f	-0.13185619
83	0x3d6238b5	0.05522986
84	0x3da1fb82	0.079092994
85	0xbe130cc9	-0.14360346
86	0xbd341a84	-0.0439706
87	0xbd63245d	-0.0554546
88	0x3d081fcc	0.03323345
89	0xbd9191a0	-0.07107854
90	0x3dffd71f	0.12492203
91	0xbe086486	-0.13319597
92	0x3d86a995	0.06575314
93	0xbdc571c0	-0.09640837
94	0xbd531e33	-0.051542472
95	0xbc2612d5	-0.010136326
96	0x3d6458d7	0.055748787
97	0xbe08d692	-0.13363102
98	0xbd59afa3	-0.053146016
99	0x3c1b2de4	0.00947139
100	0x3cda3fad	0.026641691
101	0xbd9d7036	-0.07687418
102	0xbb5911b1	-0.0033122117
103	0xbde3cf49	-0.11123521
104	0xbdf666ae	-0.12031303
105	0xbb4c055f	-0.003113113
106	0xbd300df8	-0.04298207
107	0x3ddead81	0.10872937
108	0x3d04962b	0.032369774
109	0xbc37a509	-0.011208781
110	0x3d1add2b	0.03780858
111	0xbe0759c2	-0.13217834
112	0xbe29ea05	-0.16593178
113	0x3d0df356	0.03465589
114	0x3c50182b	0.012701075
115	0xbd5d3f88	-0.054015666
116	0x3e43d58e	0.19124433
117	0x3d634fe3	0.055496108
118	0xbdf3512d	-0.118807174
119	0x3e1bbb64	0.15208203
120	0x3dd34309	0.1031552
121	0x3dbbc410	0.09168255
122	0x3e0fac7a	0.14030638
123	0x3da83f33	0.08215179
124	0x3c330a58	0.010927759
125	0x3e7a0910	0.2441752
126	0x3d10d7c8	0.035362035
127	0x3d100ac3	0.035166513
128	0x3e14584f	0.14486812
129	0x3d042375	0.032260377
130	0xbc842818	-0.0161324
131	0x3e486b80	0.19572258
132	0x3e4c1cdd	0.19932885
133	0x3d363c83	0.044491302
134	0x3e4948b4	0.1965664
135	0xbcb4b452	-0.02205864
136	0xbd656721	-0.056006555
137	0xbd757c1b	-0.05993281
138	0x3b55a050	0.0032596774
139	0x3c2b1e9e	0.010444311
140	0x3db3085e	0.0874183
141	0x3c1bf12a	0.009517947
142	0xbdd04837	-0.10170024
143	0x3cdaabf7	0.026693327
144	0xbdf7d88c	-0.1210185
145	0xbdaf6c16	-0.08565538
146	0xbe1c99ef	-0.15293096
147	0x3dbf8793	0.093520306
148	0xbd4c2361	-0.049838427
149	0x3d3f9c05	0.04677965
150	0x3ddc68c5	0.10762171
151	0x3ddf2b07	0.10896879
152	0x3d32f773	0.043693017
153	0xbe0dedff	-0.1386032
154	0x3c543b13	0.0129535375
155	0xbe2c6fc7	-0.16839515
156	0xbd6a9579	-0.057271454
157	0xbd9df393	-0.07712474
158	0xbe261be7	-0.16221581
159	0x3d921d66	0.071345136
160	0xbdd5b86e	-0.10435568
161	0x3cf6086a	0.030033309
162	0xbcadc6c3	-0.021212941
163	0xbda7ff0a	-0.08202942
164	0xbd461272	-0.048357435
165	0xbcc3d470	-0.023905009
166	0xbdb3bc8b	-0.08776196
167	0xbdd9db03	-0.10637476
168	0x3d7e6ad9	0.062113617
169	0x3d631390	0.055438578
170	0x3d0633a3	0.03276409
171	0x3d2fe5e6	0.042943858
172	0x3d96372f	0.07334744
173	0xbd7143ad	-0.05890243
174	0x3b0300e1	0.0019989538
175	0x3dcd3889	0.10020549
176	0xbd4cf000	-0.05003357
177	0xbda474e7	-0.0803011
178	0x3d861a13	0.06547942
179	0x3c9566d1	0.018237503
180	0xbd148fc8	-0.036269933
181	0xbdaba9e4	-0.083820134
182	0xbe259117	-0.16168629
183	0xbe08cb03	-0.13358693
184	0xbe14ace9	-0.14519085
185	0xbdf5e3ab	-0.12006315
186	0xbe114037	-0.14184652
187	0x3cc17158	0.023613617
188	0xbd6a8964	-0.057259932
189	0x3d2b983d	0.041893233
190	0xbe1cafed	-0.15301485
191	0xbd8fe188	-0.070254385
192	0xbd3939f0	-0.04522127
193	0xbe05def6	-0.13073334
194	0x3be27fbf	0.006912201
195	0x3c0dd2eb	0.008656244
196	0xbd863ecd	-0.06554947
197	0x3e0e54b0	0.13899493
198	0x3c8b3776	0.01699422
199	0x3d911606	0.07084279
200	0x3db27d57	0.08715313
201	0x3e3f63a3	0.18690352
202	0x3e4e20ab	0.2012965
203	0x3e12e3bd	0.14344688
204	0x3d42cf9b	0.04756127
205	0x3dd9aec5	0.10629038
206	0x3dba8eeb	0.09109291
207	0x3d0b5fa3	0.034026753
208	0x3d9aa9fb	0.075519525
209	0xbd9020c3	-0.07037499
210	0x3ab26274	0.0013609664
211	0x3c7eae2a	0.015544454
212	0xbd4d4760	-0.050116897
213	0x3d454efb	0.048171025
214	0x3c0fe227	0.008781946
215	0x3d0775bb	0.03307126
216	0xbd8ddd08	-0.06926924
217	0x3cb04bfb	0.021520605
218	0xbe074ec7	-0.13213645
219	0x3d604584	0.054753795
220	0xbdb4ec94	-0.08834186
221	0xbddb857a	-0.10718818
222	0x3c5cbf6b	0.013473372
223	0xbd88ebcf	-0.06685602
224	0x3d848a06	0.064716384
225	0x3e157182	0.14594081
226	0x3dfe951b	0.12430783
227	0x3d628fe3	0.055313002
228	0x3d1f1654	0.038839653
229	0x3e14d235	0.14533313
230	0x3dc887a2	0.09791495
231	0x3ce0f9a2	0.027462784
232	0x3d1c044d	0.03809004
233	0xbcb56562	-0.02214307
234	0xbddb16a6	-0.10697679
235	0x3d9d810f	0.076906316
236	0x3d82d4e8	0.06388265
237	0xbe03c1a6	-0.1286684
238	0xbe1360af	-0.1439235
239	0xbd574cf3	-0.05256362
240	0x3dcc8885	0.099869765
241	0xbe3ee63c	-0.18642515
242	0xbdb09794	-0.08622661
243	0xbd5c858a	-0.05383829
244	0xbe6c6a99	-0.23087539
245	0xbdd65a75	-0.10466472
246	0xbaf0269b	-0.0018322052
247	0xbec92e70	-0.39293242
248	0x3cb1a60a	0.021685619
249	0xbe26a19e	-0.1627259
250	0x3eaf2e41	0.34214976
251	0xbe8662c3	-0.26247224
252	0xbc6ed962	-0.014578195
253	0x3d0cff78	0.03442332
254	0x3e288623	0.16457419
255	0xbd92e057	-0.07171696

raise_dim.0.attention1.0.weight f4 [9, 9, 3, 3]
0	0xbeaa22d4	-0.33229697
1	0x3eab9d20	0.33518314
2	0xbda1ee6d	-0.07906804
3	0xbe20c8fe	-0.15701672
4	0x3eac0c9a	0.33603364
5	0x3e5f1f3b	0.21789257
6	0xbe80660b	-0.25077853
7	0x3f0bc129	0.54591614
8	0x3d195640	0.03743577
9	0xbe939d22	-0.2883082
10	0xbe936ed2	-0.28795487
11	0xbd6db585	-0.05803444
12	0xbdd39782	-0.10331632
13	0xbe931124	-0.28724015
14	0xbea7f452	-0.3280359
15	0xbde614a7	-0.11234408
16	0xbe9a5b14	-0.30147612
17	0xbe04b3ab	-0.12959163
18	0xbebe6fb3	-0.37194595
19	0xbe3b1a43	-0.18271737
20	0xbe333ece	-0.17504427
21	0xbe623914	-0.22092086
22	0xbe8a5e5b	-0.27025113
23	0xbdceaf4b	-0.10092028
24	0xbdb0dc7f	-0.08635806
25	0x3e153e16	0.14574465
26	0x3ed1af67	0.40954134
27	0x3e91f8ff	0.2851028
28	0x3e9f2f39	0.31090716
29	0x3e6340e5	0.22192724
30	0xbe10c0ea	-0.14136091
31	0x3eefdaf4	0.46846735
32	0x3ea2f2e9	0.3182595
33	0x3dbf145f	0.09330057
34	0x3e619808	0.22030652
35	0xbe719234	-0.23590928
36	0x3e347ffc	0.17626947
37	0x3ca30037	0.019897563
38	0x3daf2376	0.085516855
39	0x3ee49fd5	0.44653192
40	0x3ca9efeb	0.020744285
41	0x3db6c89e	0.089249834
42	0x3e085153	0.13312273
43	0xbd8f7aa7	-0.07005816
44	0x3e8293a3	0.25503263
45	0xbf04ea04	-0.5191958
46	0xbd2dd01a	-0.04243479
47	0xbc958e1f	-0.018256245
48	0xbf0f6252	-0.560094
49	0xbe4fab44	-0.20280176
50	0xbe0c76f5	-0.13717254
51	0xbe4abc68	-0.19798434
52	0xbeb279a7	-0.34858438
53	0xbe6991ff	-0.228096
54	0xbe1cc778	-0.15310466
55	0x3c51c266	0.012802696
56	0x3cadd696	0.021220487
57	0xbdb4e4c8	-0.08832699
58	0xbdf589b3	-0.11989155
59	0x3c8bf44d	0.017084265
60	0x3df25a0e	0.11833583
61	0xbe24048c	-0.1601736
62	0x3cca1f1d	0.02467304
63	0xbecaf850	-0.39642572
64	0xbe2cbfff	-0.16870116
65	0xbe517be6	-0.2045742
66	0xbdd11246	-0.102085635
67	0xbc0c6625	-0.008569275
68	0xbe957eb0	-0.29198217
69	0x3e40a39f	0.18812416
70	0xbd6e01d4	-0.058107212
71	0xbe433b0a	-0.1906549
72	0x3dad665f	0.08466791
73	0xba0ceb2e	-0.00053756207
74	0x3ed9d65a	0.4254635
75	0x3ed49d2b	0.4152616
76	0x3de2c3e8	0.110725224
77	0x3da3ee6a	0.08004458
78	0x3e488eee	0.19585773
79	0x3e87c77e	0.26519388
80	0x3bb13457	0.0054078507
81	0xbe2a7dfb	-0.1664962
82	0x3e3b26e9	0.18276562
83	0xbd7125d8	-0.05887398
84	0x3c81919f	0.015816508
85	0x3f6712d3	0.902631
86	0x3f14f23e	0.5818213
87	0x3e96c0ec	0.29444063
88	0x3cad191b	0.021130135
89	0x3eaae785	0.3337976
90	0x3e7dbb0c	0.24778384
91	0x3dc0f664	0.09421995
92	0xbd462562	-0.048375495
93	0x3da43900	0.080186844
94	0x3e0f55d3	0.13997583
95	0x3e1dea3a	0.15421382
96	0x3e499a66	0.19687805
97	0x3e43e7bf	0.19131373
98	0x3e85ebfa	0.26156598
99	0xbe3523ee	-0.17689487
100	0x3ec226b3	0.3792015
101	0x3eb35891	0.35028508
102	0x3e4bbc4a	0.19896045
103	0xbc5c3644	-0.013440672
104	0x3dd336cf	0.10313188
105	0x3d0aae09	0.03385738
106	0x3e480f19	0.1953701
107	0x3ddcf94c	0.10789737
108	0x3e1fd636	0.15609059
109	0x3e3b78bf	0.1830778
110	0xbe2895c6	-0.16463384
111	0x3e62b08d	0.22137661
112	0x3e9f73a0	0.31142902
113	0x3ea0c41e	0.31399626
114	0x3e958d20	0.29209232
115	0xbd766555	-0.06015523
116	0x3e11c696	0.14235911
117	0x3ee0ea6a	0.43928844
118	0x3e2d4efc	0.16924661
119	0x3e7cf8f1	0.24704339
120	0x3eede3eb	0.4646295
121	0x3ef3e865	0.4763824
122	0x3e6eaba1	0.23307659
123	0x3d6fd036	0.058548175
124	0x3e93d9b5	0.28877035
125	0x3ea9c244	0.33156025
126	0x3df48d00	0.11940956
127	0xbe464890	-0.19363618
128	0xbe16f616	-0.14742312
129	0x3e2fed77	0.1718043
130	0x3e3a923e	0.1821985
131	0x3e2fe765	0.17178114
132	0x3e070d16	0.13188586
133	0x3e1500aa	0.14551035
134	0xbd698998	-0.057015985
135	0x3dd779d0	0.10521281
136	0xbdb16363	-0.08661535
137	0x3e36d777	0.17855631
138	0x3ec35f88	0.38158822
139	0x3daefaa3	0.08543899
140	0xbdb4b5be	-0.08823727
141	0x3eafc487	0.34329626
142	0x3e58743f	0.21138094
143	0xbdca62cd	-0.09882126
144	0x3d5b9ca4	0.05361618
145	0x3d8e06a4	0.0693486
146	0x3ddbb5e8	0.10728055
147	0x3e9d45b3	0.3071724
148	0x3e9f93db	0.31167492
149	0x3d2d387d	0.0422902
150	0x3e1bf0c9	0.15228571
151	0xbe21fcdb	-0.15819113
152	0xbdf3023c	-0.118656605
153	0xbdaffe84	-0.08593467
154	0x3e568189	0.20947851
155	0x3e27c158	0.16382349
156	0x3c641894	0.0139218755
157	0x3e87090a	0.26374084
158	0x3e6a238f	0.22865127
159	0xbe489209	-0.19586958
160	0x3d11be05	0.035581607
161	0xbcb510c6	-0.022102725
162	0xbe0282e9	-0.12745251
163	0xbe80b36f	-0.25136897
164	0xbdedee4a	-0.11617716
165	0xbe24f52b	-0.16109149
166	0xbe87aee0	-0.26500607
167	0xbe6c6498	-0.23085248
168	0xbd2560cf	-0.040375527
169	0xbe9af876	-0.30267686
170	0x3d52d6a1	0.051474217
171	0x3e3f6ed2	0.18694618
172	0xbe4f132e	-0.2022216
173	0x3d80b0b5	0.06283704
174	0xbe5546ee	-0.20827839
175	0xbe0f4ed6	-0.13994917
176	0xbe19fc3c	-0.15037626
177	0xbd941f85	-0.072325744
178	0xbe2d3ab5	-0.16916926
179	0xbe2dc8f0	-0.16971183
180	0x3d3330e6	0.043747805
181	0xbe118533	-0.14210968
182	0xbde66338	-0.11249393
183	0xbee09a4c	-0.4386772
184	0xbd85e605	-0.06538013
185	0xbec5e75f	-0.38653085
186	0xbe002feb	-0.12518279
187	0x3d5c920a	0.05385021
188	0xbe686af0	-0.22697043
189	0xbe63ff18	-0.2226528
190	0xbe565632	-0.20931318
191	0xbe089e5c	-0.1334166
192	0xbe98c670	-0.29838896
193	0xbe8f928e	-0.280415
194	0xbd3c3cba	-0.04595635
195	0xbe88f761	-0.26751235
196	0xbe8962ff	-0.2683334
197	0xbe3dfb35	-0.18552859
198	0xbeacad2b	-0.33725867
199	0xbec2f9ec	-0.380813
200	0x3d5b5cdb	0.05355535
201	0xbe3d0747	-0.18459807
202	0xbe600266	-0.21875915
203	0xbed889a9	-0.42292526
204	0xbddb75d1	-0.10715831
205	0xbe9823d9	-0.2971485
206	0xbdac63c3	-0.084174655
207	0x3e21fa8c	0.15818232
208	0xbdac0dae	-0.08401047
209	0xbd4dada2	-0.050214417
210	0xbe29b157	-0.16571556
211	0xbdd11c9c	-0.10210535
212	0xbee0dcc0	-0.4391842
213	0xbdd404fe	-0.10352515
214	0x3dcc3be7	0.09972363
215	0x3d77c11c	0.060486898
216	0x3d829d37	0.063776426
217	0xbe23637d	-0.1595592
218	0xbe807286	-0.25087374
219	0xbecd20df	-0.4006414
220	0xbe070b07	-0.131878
221	0xbed1fc92	-0.41013008
222	0xbe666e6a	-0.22503057
223	0xbddd89bc	-0.10817286
224	0xbe55f8e5	-0.20895727
225	0xbd071449	-0.03297833
226	0xbcf4ec4e	-0.029897835
227	0xbe8d379c	-0.2758149
228	0xbdb16ed0	-0.08663714
229	0xbe87b631	-0.2650619
230	0xbe9612ad	-0.29311123
231	0x3e38c8a9	0.18045296
232	0xbe8603dc	-0.2617482
233	0xbe79cbb9	-0.2439412
234	0xbdb8910e	-0.09012042
235	0xbe86d598	-0.26334834
236	0xbd91cf02	-0.07119562
237	0xbe671857	-0.22567879
238	0xbe944adf	-0.28963372
239	0xbdf68943	-0.12037899
240	0x3e5aaa55	0.21354039
241	0xbe543854	-0.20724612
242	0x3eac911d	0.33704463
243	0xbdaf77d5	-0.08567778
244	0x3b71d2e1	0.0036899375
245	0xbd520a3f	-0.051279303
246	0x3d21dd71	0.039517824
247	0xbecd726c	-0.4012636
248	0x3e4cc062	0.19995263
249	0x3db26ae1	0.08711792
250	0xbe5cefaf	-0.21575807
251	0xbe1c3a41	-0.15256597
252	0xbe3737c1	-0.17892362
253	0xbe0d8cef	-0.13823293
254	0x3dadff14	0.08495918
255	0x3e3510f5	0.1768225

raise_dim.0.attention1.0.bias f4 [9]
0	0x3d719f6c	0.058989927
1	0x3e991d82	0.29905325
2	0xbd9d35c6	-0.07676272
3	0xbd65d6d4	-0.05611308
4	0x3e105475	0.14094718
5	0xbcb95507	-0.022623552
6	0xbc89bf7a	-0.016814936
7	0x3e0d4276	0.13794884
8	0xbd7d2323	-0.061801087

raise_dim.0.attention1.2.weight f4 [9, 9, 1, 1]
0	0xbd1afb51	-0.03783733
1	0xbea1cc30	-0.31601095
2	0xbe984c2b	-0.29745612
3	0xbf499ff9	-0.78759724
4	0x3e7ed6a4	0.24886566
5	0xbe914cff	-0.28379056
6	0xbe98f833	-0.2987686
7	0xbee2669b	-0.44218907
8	0x3c6843d0	0.014176324
9	0x3ec5ffec	0.38671815
10	0x3e589c65	0.2115341
11	0x3f0933eb	0.53594846
12	0x3f7d4b0e	0.9894265
13	0xbcc46a46	-0.023976456
14	0xbf360249	-0.71097237
15	0x3f134048	0.5751996
16	0xbea85266	-0.32875365
17	0x3f67d11c	0.9055345
18	0x3e0467bd	0.12930198
19	0xbf3b5d40	-0.73189163
20	0x3f3748d0	0.7159548
21	0xbebb65ac	-0.36601007
22	0xbe797015	-0.24359162
23	0x3dc23eca	0.09484632
24	0x3f275130	0.6535826
25	0xbedc6690	-0.43047
26	0xbd10c289	-0.035341773
27	0x3eff1133	0.4981781
28	0x3e19c74d	0.15017433
29	0x3e53bdf6	0.20677933
30	0x3dd2fd1e	0.103021845
31	0xbea610df	-0.32434747
32	0xbe2d5805	-0.16928108
33	0x3e4f7655	0.20259984
34	0x3ea6be28	0.32566953
35	0xbe9dba71	-0.30806306
36	0x3f8859b6	1.0652378
37	0x3d88c7a9	0.06678707
38	0x3f1969cc	0.5992706
39	0xbf4f2001	-0.8090821
40	0x3ed17bac	0.40914667
41	0x3fb30768	1.3986635
42	0x3e6eba42	0.23313239
43	0xbf70b2b1	-0.9402266
44	0x3f015c5a	0.5053154
45	0xbef31ecb	-0.4748443
46	0x3f82a83a	1.0207589
47	0xbf34e82b	-0.7066676
48	0xbf519a46	-0.8187603
49	0x3f8316b9	1.024131
50	0xbf797a9f	-0.9745273
51	0xbea24182	-0.31690603
52	0x3f2eb92d	0.68251306
53	0xbef4661c	-0.47734153
54	0x3ece8cd5	0.4034182
55	0x3eb094a9	0.3448842
56	0xbf9189dd	-1.1370198
57	0xbec506d0	-0.3848176
58	0x3f1ea4e7	0.6197037
59	0x3e895816	0.26825017
60	0x3e66a988	0.22525609
61	0xbe1adf62	-0.15124276
62	0x3f807887	1.0036782
63	0x3f728ea3	0.94748896
64	0x3df8ad0e	0.121423826
65	0x3cad555b	0.021158865
66	0xbf46310c	-0.7741859
67	0xbb475258	-0.003041407
68	0xbf172750	-0.5904436
69	0xbeb30a97	-0.34969017
70	0xbf05c6b2	-0.5225631
71	0xbd91eaeb	-0.07124885
72	0x3e15b2a3	0.14618926
73	0xbe2d7cae	-0.16942093
74	0x3dae3505	0.085062064
75	0x3ea89581	0.32926562
76	0xbf25bfe2	-0.64745915
77	0xbe896217	-0.2683265
78	0x3e18780b	0.14889543
79	0x3ef7fc9e	0.4843492
80	0x3fbab43a	1.4586251

raise_dim.0.attention1.2.bias f4 [9]
0	0x3d603828	0.054741055
1	0xbd5c6467	-0.05380669
2	0x3c8bf958	0.01708667
3	0x3d0d600c	0.034515426
4	0x3dc6d264	0.097080976
5	0x3e60abd1	0.21940543
6	0x3da63164	0.08114889
7	0x3de255bc	0.11051509
8	0x3d9a12e4	0.07523134

raise_dim.0.attention1.4.weight f4 [9, 9, 1, 1]
0	0xbd9f6dcc	-0.07784614
1	0xbf5e7568	-0.868979
2	0x3f05004a	0.51953566
3	0xbdb13423	-0.086525224
4	0x3e9efbe4	0.31051552
5	0x3e4bf8fb	0.19919197
6	0xbeb134e5	-0.34610668
7	0x3f06d505	0.5266879
8	0xbf877a9e	-1.0584295
9	0x3d26589d	0.040611852
10	0x3ebfc84f	0.3745751
11	0xbf01be45	-0.50680953
12	0x3ebafc22	0.36520487
13	0x3eb397ff	0.350769
14	0xbefca4b0	-0.49344397
15	0xbf4c0b4a	-0.79704726
16	0x3f2c3938	0.6727481
17	0x3d332824	0.043739453
18	0xbd4fe142	-0.050751932
19	0x3f4eb64a	0.807469
20	0xbec0ef48	-0.37682557
21	0x3eb6aa31	0.3567672
22	0xbf2c100c	-0.67211986
23	0xbe8fbbdf	-0.28073022
24	0xbed04766	-0.40679473
25	0x3eec3502	0.46134192
26	0x3f34901e	0.70532405
27	0x3f4b6d65	0.794638
28	0xbe667b4c	-0.22507972
29	0xbfa4bbdd	-1.2869831
30	0x3e875517	0.26432106
31	0xbfce343c	-1.6109691
32	0x3f7df17a	0.9919659
33	0x3f147e3e	0.5800513
34	0x3f800575	1.0001665
35	0xbeed7849	-0.46380833
36	0xbf3e8998	-0.744287
37	0x3e4ab9d8	0.19797456
38	0xbf978b2b	-1.1839346
39	0x3e84985d	0.25897494
40	0xbf02eaec	-0.5113971
41	0x403443d9	2.816641
42	0x3ff38d2d	1.9027458
43	0x3d82f0d0	0.063935876
44	0x3e3cac77	0.18425165
45	0x3c1a6659	0.009423816
46	0x3e6827e4	0.22671467
47	0x3e208dee	0.15679142
48	0x3f1bc26a	0.6084353
49	0x3ee16960	0.44025707
50	0xbe64a5a0	-0.22328806
51	0x3e812ad6	0.25227994
52	0x3f2f1fb1	0.6840773
53	0xbfbdb130	-1.4819698
54	0xbe1f01b8	-0.15528
55	0xbdbda257	-0.092594795
56	0x3f2392e9	0.6389604
57	0xbec43ad0	-0.3832612
58	0x3f2411e8	0.6408982
59	0xbeb83d2c	-0.3598417
60	0x3dd8b313	0.10581031
61	0x3f491fbf	0.78564066
62	0xbf4ccada	-0.79997027
63	0xbd7c4649	-0.061590467
64	0x3d6437b9	0.055717204
65	0xbeac4d39	-0.33652666
66	0x3f32f8f7	0.6991114
67	0x3f89798c	1.0740218
68	0x3fb64dd6	1.4242504
69	0x3e65a8b9	0.22427644
70	0xbf1eaff1	-0.61987215
71	0xbf0b29ba	-0.54360545
72	0x3ea147b1	0.3150001
73	0xbda3c379	-0.07996268
74	0x3f74735f	0.9548854
75	0xbe81603a	-0.25268728
76	0x3dd842e7	0.105596356
77	0x3e3b70be	0.18304726
78	0xbeb2dd08	-0.34934258
79	0x3e816012	0.25268608
80	0xbf3b91b4	-0.732692

raise_dim.0.attention1.4.bias f4 [9]
0	0xbcacaa76	-0.021077376
1	0x3e2ef3cf	0.17085193
2	0xbd81d671	-0.063397296
3	0x3e92095a	0.2852276
4	0x3f982be6	1.1888397
5	0x3e1a90df	0.15094326
6	0x3d7541d4	0.05987723
7	0x3e889a2e	0.2668013
8	0x3c9440e8	0.018097356

raise_dim.0.attention3.1.weight f4 [32, 9, 1, 1]
0	0x3daad2bb	0.08340975
1	0xbf15f1d1	-0.5857211
2	0x3df9e62d	0.12202106
3	0x3ee002ae	0.43752044
4	0xbc1be970	-0.009516105
5	0xbf00bc15	-0.5028699
6	0xbe244792	-0.16042927
7	0x3e85af7f	0.26110455
8	0xbea9f0fa	-0.33191663
9	0x3f185faa	0.5952097
10	0xbf35c126	-0.70997846
11	0xbdb68e00	-0.08913803
12	0xbe66ceea	-0.22539869
13	0xbf89e2e1	-1.0772363
14	0x3f50ee77	0.8161387
15	0x3d24749f	0.04015028
16	0x3d425644	0.04744555
17	0x3d5e17b6	0.05422183
18	0x3e12b090	0.14325166
19	0x3f1b1524	0.60579133
20	0xbdc0c053	-0.09411683
21	0x3f7fcd07	0.9992222
22	0x3da4903f	0.08035325
23	0x3eb1e280	0.34743118
24	0x3e486e4d	0.19573326
25	0x3edffab9	0.43745974
26	0xbf2a23d8	-0.66460943
27	0x3e8cadd1	0.2747636
28	0x3ea88134	0.32911074
29	0xbf3df0a3	-0.7419531
30	0xbe54c955	-0.20779927
31	0xbf0a42dd	-0.54008275
32	0x3e437313	0.19086866
33	0xbf353356	-0.7078146
34	0xbea74f6f	-0.3267779
35	0x3f089226	0.53348005
36	0x3f3eb1bb	0.74489945
37	0x3ee4c2cd	0.4467987
38	0x3e2134a1	0.15742733
39	0x3e4dbc56	0.20091376
40	0x3e546beb	0.20744292
41	0xbe581139	-0.2110032
42	0xbdb3a24e	-0.087711915
43	0x3d1ff6b5	0.039053638
44	0x3daa153a	0.0830483
45	0xbeb86647	-0.3601553
46	0x3d90830b	0.070562445
47	0x3d921e2c	0.07134661
48	0xbe9a17df	-0.30096337
49	0xbe7d710e	-0.24750158
50	0x3e7e7833	0.2485054
51	0x3f5ee92b	0.87074536
52	0xbdd88d64	-0.10573843
53	0x3eaf16b7	0.34197018
54	0x3d3de009	0.046356235
55	0x3e9d4e47	0.30723783
56	0x3cac13e2	0.021005575
57	0x3985c5ae	0.0002551502
58	0x3e99e68e	0.30058712
59	0x3af6a437	0.001881725
60	0x3edfdd6e	0.43723625
61	0xbf1d8f53	-0.6154682
62	0xbf5c2b1a	-0.8600327
63	0x3ef48d69	0.47764137
64	0xbe17332a	-0.14765611
65	0xbeec9edd	-0.46214953
66	0xbed9a75b	-0.42510495
67	0x3e9d779d	0.3075532
68	0x3eee062a	0.46489078
69	0xbe8b84c4	-0.2724973
70	0x3f71ff31	0.94530016
71	0xbf37f8cc	-0.7186401
72	0x3f4d5d74	0.80220723
73	0xbf1cec70	-0.61298275
74	0xbf9427b3	-1.1574615
75	0xbea8b794	-0.3295256
76	0xbe629c01	-0.22129823
77	0x3eb24ecc	0.34825742
78	0x3f2b6bb7	0.66961235
79	0xbeebedf0	-0.4607997
80	0xbdb0dd31	-0.08635939
81	0xbeb79556	-0.35856122
82	0x3e07bbf7	0.13255297
83	0xbed20e37	-0.4102647
84	0xbe6a5bdb	-0.22886603
85	0x3e16904e	0.14703485
86	0x3e530053	0.20605592
87	0x3ead1e9e	0.33812422
88	0x3d9de151	0.07708991
89	0x3dc939ea	0.09825499
90	0xbe290ab5	-0.1650799
91	0x3d97ee11	0.074184544
92	0x3e0ec973	0.13944034
93	0x3f313da8	0.69234705
94	0xbf10826a	-0.56448996
95	0x3e5a4199	0.21314086
96	0xbf5b5e58	-0.8569083
97	0x3efbd237	0.4918382
98	0x3e1e2e07	0.15447246
99	0x3f0ee3fc	0.55816627
100	0x3f2c6e1b	0.6735551
101	0xbf318113	-0.69337577
102	0xbea9d194	-0.33167708
103	0xbf121c66	-0.5707458
104	0x3e030314	0.12794143
105	0xbe673ef8	-0.22582614
106	0x3e912659	0.2834957
107	0xbf07b09a	-0.5300385
108	0x3e71cce3	0.23613314
109	0x3f56d02f	0.8391141
110	0x3f15e6f7	0.5855555
111	0x3ea506a7	0.32231638
112	0x3ed3e474	0.41385233
113	0xbea0fb9c	-0.31441963
114	0xbf09559b	-0.5364625
115	0xbe1822c1	-0.14857008
116	0x3f649aee	0.89298904
117	0x3f2bf67b	0.67172974
118	0xbf19a43d	-0.6001623
119	0xbe16f29b	-0.14740984
120	0x3eaa98b8	0.3331964
121	0xbf0c4428	-0.547915
122	0xbefc6312	-0.49294335
123	0xbe482a56	-0.195474
124	0xbdc70073	-0.097168826
125	0x3e45bd91	0.19310595
126	0xbe9d5873	-0.30731544
127	0xbe50ca0f	-0.20389579
128	0x3ec2cbc0	0.38046074
129	0x3eebb6ec	0.46037996
130	0xbe53227b	-0.20618622
131	0xbf3a72b0	-0.7283125
132	0x3eaa124e	0.3321709
133	0xbe2aad32	-0.16667631
134	0x3da24566	0.07923393
135	0xbc71dc8f	-0.014762058
136	0xbf0f9b1f	-0.5609607
137	0x3e9b92b7	0.30385372
138	0x3e8fb03c	0.28064144
139	0xbf06d53e	-0.5266913
140	0xbe9b7250	-0.3036065
141	0x3e0df36f	0.13862394
142	0xbe889e9f	-0.26683518
143	0x3edc4eae	0.43028778
144	0xbeb42237	-0.35182354
145	0x3d1170c3	0.03550793
146	0x3ebad738	0.36492324
147	0x3ee9b4b8	0.4564569
148	0x3ecaba60	0.39595318
149	0x3ecda710	0.4016652
150	0x3e92e399	0.28689268
151	0xbf063e10	-0.5243845
152	0x3f506786	0.81407964
153	0xbecfd19c	-0.40589607
154	0x3ec8bb5c	0.39205444
155	0x3f4c94c0	0.79914474
156	0x3e977428	0.29580808
157	0xbda5de79	-0.08099074
158	0xbefe78e9	-0.49701622
159	0x3f24e924	0.64418244
160	0xbe48de21	-0.19615985
161	0xbdbee225	-0.093204774
162	0xbe754c2b	-0.23954837
163	0xbf25a330	-0.6470213
164	0xbeb2aa3d	-0.34895507
165	0xbe1d26e0	-0.15346861
166	0x3f1218d7	0.5706915
167	0xbf0f3f27	-0.5595574
168	0x3f2aeff3	0.66772383
169	0xbee7f9b6	-0.45307702
170	0x3e8755a8	0.26432538
171	0xbf69d4b4	-0.91340184
172	0x3e0afddb	0.135734
173	0xbebebe2c	-0.37254465
174	0xbeda3f68	-0.426265
175	0x3ec18029	0.3779309
176	0xbdc452c3	-0.09586098
177	0x3e15ecdc	0.14641136
178	0xbeaeac8f	-0.34116027
179	0x3e232096	0.159304
180	0x3e85e739	0.2615297
181	0xbeee0bfc	-0.46493518
182	0x3e151f8a	0.14562812
183	0x3ed6428b	0.41847643
184	0x3e9562fb	0.2917708
185	0xbe5aed15	-0.21379502
186	0x3ea0a27c	0.31373966
187	0x3ddec826	0.10878019
188	0xbf0f91cb	-0.5608184
189	0x3e024bbf	0.12724207
190	0xbd95374c	-0.07285938
191	0xbeac3a8b	-0.33638415
192	0x3f82f1ba	1.0230019
193	0xbed42ade	-0.41438955
194	0xbdaff7cd	-0.08592186
195	0x3e113abe	0.14182565
196	0x3d94f9ed	0.07274232
197	0xbd8b4cbd	-0.06801746
198	0x3ecc5ea1	0.39915946
199	0x3e691705	0.22762688
200	0xbe8739d0	-0.26411295
201	0x3f081b44	0.53166604
202	0xbf05ae0a	-0.5221869
203	0x3db66559	0.08906049
204	0x3ebe92cf	0.3722138
205	0xbf3f401f	-0.74707216
206	0x3e957a32	0.2919479
207	0x3ebf29d5	0.37336603
208	0xbf6abf42	-0.91698086
209	0xbf92f104	-1.1479802
210	0x3e6c5a98	0.23081434
211	0x3f298bf5	0.6622918
212	0xbeca7c3a	-0.39547902
213	0xbf51da88	-0.8197408
214	0xbf1d07a0	-0.6133976
215	0xbdccc958	-0.09999341
216	0x3bb7a882	0.0056048045
217	0x3d6953fa	0.056964852
218	0xbe81b949	-0.25336674
219	0x3e4fec5e	0.2030501
220	0xbe8ebc5e	-0.27878088
221	0x3d1f2cf3	0.038861226
222	0x3f81e5e3	1.0148281
223	0x3e95af17	0.29235145
224	0xbee5a301	-0.44850925
225	0x3f1eab7c	0.61980414
226	0xbee30176	-0.44337052
227	0x3f537899	0.8260589
228	0xbf251105	-0.64479095
229	0x3ed54288	0.41652322
230	0xbd83221d	-0.06402991
231	0xbf454bda	-0.77068865
232	0xbf7d735d	-0.99004155
233	0x3e801714	0.25017607
234	0x3f0f61d7	0.56008667
235	0x3df99cf9	0.12188143
236	0x3e972e5b	0.29527554
237	0x3f46178d	0.77379686
238	0xbe7820e1	-0.24231292
239	0x3dbe6842	0.09297229
240	0xbc2d955e	-0.010594694
241	0xbd969cde	-0.07354139
242	0xbe70fcfc	-0.23534006
243	0x3d26c32c	0.040713474
244	0xbeca13c2	-0.394682
245	0xbf924711	-1.1427938
246	0xbdca685a	-0.09883185
247	0xbd8c98d5	-0.06865088
248	0x3c1afe1e	0.00946
249	0x3e4df4c7	0.20112906
250	0x3e8a48c1	0.27008632
251	0x3db45626	0.08805494
252	0x3eab80e5	0.33496776
253	0xbedddce1	-0.4333258
254	0x3dd70608	0.10499197
255	0xbd31d9e8	-0.043420702

raise_dim.0.attention3.1.bias f4 [32]
0	0xbd78e279	-0.060762856
1	0xbc6b2b16	-0.014353534
2	0xbd8de3e3	-0.069282316
3	0x3d0f3ed9	0.034972046
4	0x3c1db379	0.009625309
5	0x3d59d920	0.053185582
6	0x3ceaa444	0.028642781
7	0x3ca0a246	0.019608628
8	0x3d1bbf3e	0.03802418
9	0xbd7e6d3c	-0.062115893
10	0xbb404887	-0.0029340105
11	0xbdb5b548	-0.08872467
12	0x3c5fee99	0.013667726
13	0xbd87d6de	-0.066327795
14	0xbd3d17c0	-0.046165228
15	0xbd44ef70	-0.048079908
16	0xbd042006	-0.032257102
17	0xbdb95ba7	-0.090506844
18	0x3d331c17	0.04372796
19	0x3ddbc326	0.10730581
20	0x3cd38e20	0.025824606
21	0xbcfc82aa	-0.030824024
22	0xbaaad8fe	-0.0013034639
23	0x3d2cab34	0.04215546
24	0xbcb98c36	-0.022649866
25	0xbc9e3b8b	-0.019315502
26	0xbda1df5c	-0.079039305
27	0xbbf3f611	-0.007445105
28	0x3cac982d	0.021068657
29	0x3cceb1f6	0.025231343
30	0xbc63fa90	-0.013914719
31	0xbc86679a	-0.016406823

raise_dim.0.attention3.3.weight f4 [32, 32, 1, 1]
0	0xbeb91e1e	-0.3615579
1	0xbebbfbdc	-0.3671559
2	0x3e237ae7	0.15964852
3	0x3e8076e8	0.25090718
4	0xbda7f049	-0.08200128
5	0xbef005df	-0.4687948
6	0xbdfe92bf	-0.12430333
7	0x3e03ca7f	0.12870215
8	0x3dd0512f	0.101717345
9	0xbdc4b07c	-0.09603974
10	0xbcc67b43	-0.024228698
11	0xbe47eef3	-0.19524746
12	0xbf1195bc	-0.568691
13	0xbd03db32	-0.032191463
14	0x3d8a29c1	0.06746245
15	0xbd8ec348	-0.06970841
16	0x3d81bb89	0.063345976
17	0x3e84ccbc	0.2593745
18	0xbe738b4b	-0.23783605
19	0x3e7f1468	0.24910128
20	0xbe1da433	-0.15394668
21	0x3da0316b	0.07821926
22	0x3ec4fd52	0.38474518
23	0xbe1846d2	-0.14870766
24	0x3ddc908c	0.10769758
25	0x3dac27c1	0.0840602
26	0xbdfd6d09	-0.123743124
27	0x3dc265f7	0.094921045
28	0x3c7dda45	0.015493934
29	0xbdc9bac4	-0.09850076
30	0x3ebb4c10	0.3658147
31	0xbe0beba5	-0.1366411
32	0x3e0af14b	0.13568608
33	0x3e8cb729	0.2748349
34	0xbf4d8f59	-0.80296856
35	0x3e809d8a	0.25120193
36	0x3ef9c561	0.487834
37	0xbddfb557	-0.1092326
38	0x3e149f05	0.14513786
39	0xbebad68e	-0.36491817
40	0xbdcc1dc8	-0.09966618
41	0xbedb6336	-0.4284913
42	0x3e2ed16e	0.17072079
43	0xbef72ac3	-0.48274812
44	0xbd825af9	-0.06365008
45	0xbcd646ef	-0.02615687
46	0x3daa1e26	0.083065316
47	0xbd54e76b	-0.05197851
48	0xbe8d994b	-0.27656016
49	0x3ee08b11	0.438561
50	0x3e796845	0.24356182
51	0xbcbf0aec	-0.023320638
52	0xbe214a10	-0.15750909
53	0xbe253222	-0.16132405
54	0x3e1be514	0.15224105
55	0xbc2577f5	-0.010099401
56	0xbd457789	-0.0482097
57	0x3f022f7a	0.50853693
58	0xbea45d63	-0.32102498
59	0xbf034023	-0.5126974
60	0x3ea03692	0.31291634
61	0x3dcbb155	0.09945933
62	0xbc281d67	-0.010260916
63	0x3dc05d8e	0.09392844
64	0x3dda85f1	0.106700785
65	0xbc99e3ad	-0.018785322
66	0xbd6f0863	-0.058357608
67	0x3f0c05c6	0.5469631
68	0xbdcf782d	-0.101303436
69	0x3e33f59d	0.17574163
70	0x3e04e0f7	0.12976442
71	0x3edc2815	0.4299933
72	0x3e49860e	0.19680044
73	0xbf0d82f2	-0.5527793
74	0xbc8bab07	-0.017049326
75	0xbe6c2d31	-0.23064114
76	0x3e173b2a	0.14768663
77	0x3f08f7c8	0.53503084
78	0xbdcd41cc	-0.100223154
79	0xbec9992d	-0.39374676
80	0x3ea9d88c	0.33173025
81	0x3e40426a	0.18775335
82	0xbe7234fb	-0.23653023
83	0x3e89de52	0.2692743
84	0x3e4b19a1	0.19833995
85	0xbea8a47f	-0.32938
86	0xbedef735	-0.4354798
87	0x3bd9ff70	0.006652765
88	0xbe6a9878	-0.22909725
89	0x3dad3212	0.08456816
90	0xbdf3b24a	-0.1189924
91	0x3e15b0f9	0.14618291
92	0xbe44b919	-0.19211234
93	0x3d9a4cce	0.075341806
94	0x3e7e64be	0.24843118
95	0xbefd3957	-0.4945781
96	0x3e6c577d	0.23080249
97	0x3eb30bfe	0.34970087
98	0x3d02465d	0.031805385
99	0xbdd996d3	-0.106244706
100	0x3d105aa0	0.035242677
101	0x3e135d99	0.14391173
102	0x3da6a3f8	0.08136743
103	0xbe21bc17	-0.15794407
104	0x3e411133	0.18854217
105	0x3d2a63a2	0.041598924
106	0xbcbdb1a4	-0.023155995
107	0xbe126806	-0.14297494
108	0xbe1e1923	-0.15439276
109	0xbdc7452f	-0.097299926
110	0x3ec1e746	0.3787176
111	0xbe64c594	-0.22340995
112	0xbda8ef8c	-0.08248815
113	0x3ecdc9b0	0.40192938
114	0x3e8a5150	0.27015162
115	0xbef8589a	-0.48505098
116	0xbc84e349	-0.01622166
117	0xbcef44ed	-0.029207671
118	0xbda8ebe7	-0.0824812
119	0xbe87e88e	-0.26544613
120	0x3e5d0a93	0.21586065
121	0xbedca737	-0.43096325
122	0xbd33d432	-0.043903537
123	0xbdbd2d17	-0.09237116
124	0x3e3537ff	0.17697142
125	0xbcda767c	-0.026667826
126	0x3d870ae7	0.06593876
127	0x3e772570	0.24135375
128	0xbda686e6	-0.081311986
129	0xbdb9d094	-0.09072986
130	0xbac7aac0	-0.0015233383
131	0x3db220df	0.08697676
132	0x3e15df09	0.14635862
133	0x3ee6013c	0.44922817
134	0x3e8fb3c3	0.28066835
135	0xbf026033	-0.5092804
136	0xbc4a9896	-0.012365481
137	0xbe04bb3d	-0.1296205
138	0xbe319cfd	-0.17345043
139	0x3d1089e1	0.03528774
140	0x3e704770	0.23464751
141	0x3e9bb623	0.30412397
142	0x3e0de874	0.13858205
143	0x3ebea71a	0.37236863
144	0xbb82704f	-0.0039806734
145	0x3b3c33fe	0.0028717513
146	0x3edeeeb8	0.43541503
147	0x3e2c6fe2	0.16839555
148	0xbdc376bd	-0.09544132
149	0x3dc0ab2a	0.09407647
150	0x3e086c68	0.13322604
151	0xbeed8580	-0.46390915
152	0x3e5da280	0.2164402
153	0x3cbfbba9	0.023404913
154	0x3e844a08	0.2583773
155	0xbd43a01a	-0.047760107
156	0xbe349f23	-0.17638831
157	0x3d9168d7	0.07100075
158	0x3ee2d0c9	0.44299915
159	0xbee32399	-0.44363096
160	0x3db57b81	0.08861447
161	0x3ec4aade	0.3841161
162	0xbdb4b3a2	-0.08823325
163	0xbe21ef70	-0.15813994
164	0xbde0f327	-0.10983878
165	0x3ec29758	0.3800609
166	0xbeddd787	-0.43328497
167	0xbe84b1d5	-0.25916925
168	0xbd60de04	-0.05489923
169	0xbe074d36	-0.13213047
170	0xbd44f70c	-0.048087165
171	0xbe635d01	-0.22203447
172	0xbe80f34c	-0.2518562
173	0x3c9dc245	0.019257674
174	0x3db4874e	0.0881487
175	0x3e00bfbf	0.12573145
176	0x3c96f26a	0.018426139
177	0xbe4a75b1	-0.19771458
178	0xbe0ac9d6	-0.13553557
179	0x3e3431f3	0.17597179
180	0x3def2652	0.11677231
181	0xbd3d75f1	-0.046255056
182	0x3e0a9fb1	0.1353748
183	0xbe2c0193	-0.16797476
184	0xbe4d2b82	-0.20036128
185	0x3d42bd5b	0.047543865
186	0x3e044b11	0.1291926
187	0x3e8871ac	0.26649225
188	0x3ad2b77f	0.0016076415
189	0x3e8f02b0	0.27931738
190	0xbea6476a	-0.3247636
191	0x3dd833fd	0.10556791
192	0x3f08c36e	0.534232
193	0xbf560cf7	-0.8361353
194	0xbea6f7f7	-0.32611057
195	0xbe522290	-0.20520997
196	0xbce453c1	-0.027871968
197	0x3e90f99d	0.2831544
198	0x3e110078	0.14160335
199	0xbdbf3c3b	-0.0933766
200	0xbe841e02	-0.25804144
201	0xbe38a28c	-0.18030757
202	0x3ea75a51	0.32686093
203	0x3e210b6c	0.15727013
204	0xbe84bbcf	-0.25924537
205	0xbea27411	-0.31729177
206	0x3f0cc2c2	0.54984677
207	0xbf4f583c	-0.8099401
208	0xbeac4d5f	-0.3365278
209	0x3ec47f88	0.3837855
210	0x3d3ed7ee	0.046592645
211	0xbe3ff219	-0.18744697
212	0x3d8c7246	0.068577334
213	0xbd506eb2	-0.050886817
214	0x3d427b52	0.04748089
215	0xbdfdbf87	-0.123900466
216	0x3ed0f87f	0.40814587
217	0xbed42272	-0.4143253
218	0x3e88c12f	0.26709887
219	0xbd859248	-0.065220416
220	0x3f0c402b	0.5478541
221	0x3e1b255d	0.15150972
222	0x3d9171d6	0.071017906
223	0x3e4c12cc	0.19929045
224	0xbe91c848	-0.28473115
225	0xbe21947c	-0.15779299
226	0x3e97ef43	0.2967473
227	0x3b28ea85	0.002577455
228	0xbe36b653	-0.17842989
229	0x3d887876	0.06663601
230	0x3e448585	0.19191559
231	0x3e8ef83f	0.27923772
232	0xbefb7299	-0.4911087
233	0xbe7bf3f6	-0.24604782
234	0xbead9ff8	-0.3391111
235	0xbf3374e9	-0.70100266
236	0xbdcb7b2d	-0.09935603
237	0xbf4843b1	-0.7822829
238	0xbd3b1764	-0.045676604
239	0xbf2ded52	-0.6794025
240	0x3d0027d5	0.031287987
241	0x3e086d3c	0.1332292
242	0x3ea0b7af	0.3139014
243	0x3e98c5ca	0.298384
244	0xbd998890	-0.0749675
245	0xbe5e79d6	-0.21726164
246	0x3d867050	0.06564391
247	0x3e0943a4	0.13404709
248	0x3e1e613c	0.1546678
249	0xbd7137e8	-0.058891207
250	0x3d272a5f	0.040811893
251	0xbe36910d	-0.1782877
252	0x3e073e04	0.13207251
253	0xbeedc5dc	-0.46440017
254	0xbea4f225	-0.32215992
255	0x3e598c8d	0.21245022

raise_dim.0.attention3.3.bias f4 [32]
0	0xba174d70	-0.0005771732
1	0x3d4da59e	0.050206773
2	0x3d7392c9	0.059466157
3	0xbd02f088	-0.03196767
4	0x3b889a9f	0.004168823
5	0xbb2703be	-0.0025484408
6	0x3d3fd92e	0.046837978
7	0x3d02af61	0.031905536
8	0xbcecfa22	-0.028927866
9	0x3ca9d7dd	0.020732814
10	0x3cf3ccb0	0.029760689
11	0x3c86ce85	0.016455898
12	0xbca00c3b	-0.019537082
13	0xbd11673a	-0.035498835
14	0xbd171e88	-0.03689435
15	0x3da7514c	0.08169803
16	0x3d5e8ae7	0.054331686
17	0xbd1a6d3d	-0.037701834
18	0x3d5d535e	0.054034583
19	0x3bf9931c	0.0076164138
20	0x3cbbb6f0	0.02291438
21	0xbca9ad3b	-0.020712486
22	0x3d67bb9a	0.056575395
23	0xbbe89695	-0.007098029
24	0xbddf90c9	-0.109162875
25	0xbca589b1	-0.020207258
26	0xbbb8caee	-0.0056394255
27	0xbce9ec85	-0.028555164
28	0xbc043cfd	-0.008071181
29	0xbcea7f4d	-0.028625155
30	0xbda4a49c	-0.08039209
31	0xbcec2537	-0.02882634

layers.0.conv1.weight f4 [32, 32, 3, 3]
0	0x3e7d998a	0.24765602
1	0xbdbb75f7	-0.091533594
2	0xbbc980cd	-0.0061493875
3	0xbc68452a	-0.014176646
4	0xbe899353	-0.26870212
5	0x3d882108	0.06646925
6	0x3d28aa2e	0.04117792
7	0xbe9ac698	-0.3022964
8	0x3dc3087e	0.09523104
9	0xbcd177bc	-0.02556979
10	0xbd4a74b4	-0.049427703
11	0x3cca21f8	0.0246744
12	0xbdaba411	-0.083809026
13	0xbd54ac31	-0.051922027
14	0x3cc93010	0.02455905
15	0xbda95b64	-0.082693845
16	0xbd8e3983	-0.06944563
17	0xbc92a0cc	-0.01789894
18	0x3e51fc1f	0.20506333
19	0x3e37475a	0.17898312
20	0x3e539882	0.20663646
21	0x3e0473fa	0.12934867
22	0x3ddde905	0.108354606
23	0x3df0ee19	0.117641635
24	0x3e19476b	0.1496865
25	0x3df9cb62	0.12196995
26	0x3cba2970	0.022724837
27	0xbcbb652d	-0.022875393
28	0xbbd1e753	-0.00640575
29	0x3e3ae351	0.18250777
30	0xbdea835a	-0.114508346
31	0x3e838e12	0.2569433
32	0x3e23b1aa	0.15985742
33	0xbdd5fedf	-0.104490034
34	0x3d9d8e74	0.076931864
35	0x3de0daea	0.109792545
36	0xbcdf8668	-0.02728577
37	0xbded83cc	-0.11597404
38	0xbd90903b	-0.0705876
39	0xbda62262	-0.08112027
40	0x3c9eb302	0.019372467
41	0xbd99ccb1	-0.07509745
42	0xbd4fa604	-0.050695434
43	0xbd0eae83	-0.034834396
44	0xbddad130	-0.106844306
45	0xbd709c74	-0.058742955
46	0x3c1219f2	0.008917319
47	0x3b2be882	0.0026231115
48	0x3b90529a	0.004404378
49	0x3c9e2ef8	0.019309506
50	0xbcd7e076	-0.026352149
51	0xbbf80479	-0.0075688926
52	0xbd94f939	-0.07274098
53	0x3d1158c5	0.035485048
54	0x3c609e5a	0.013709629
55	0xbe51b593	-0.20479421
56	0xbe65f959	-0.224584
57	0xbe28998b	-0.16464822
58	0xbe5be72d	-0.21474905
59	0xbe5589e8	-0.20853388
60	0xbe3179a7	-0.17331563
61	0xbe23cc07	-0.15995799
62	0xbe95b07c	-0.2923621
63	0xbd870c83	-0.06594183
64	0xbe28b4c2	-0.16475204
65	0xbd3dbd37	-0.046323027
66	0xbdba45e2	-0.0909536
67	0xbd0a9f62	-0.033843406
68	0xbdaf36bf	-0.08555364
69	0xbd96b0a3	-0.073579095
70	0xbd8e7ce9	-0.069574185
71	0xbd5495a1	-0.05190051
72	0xbcb703ff	-0.022340773
73	0xbe05a1a7	-0.13049947
74	0xbdabb304	-0.08383754
75	0xbd875354	-0.066076905
76	0xbd741fe6	-0.059600733
77	0xbd931f3a	-0.0718369
78	0xbdb80d3e	-0.08986901
79	0xbd840109	-0.0644551
80	0xbdacad22	-0.0843146
81	0xbb26368a	-0.0025362098
82	0x3d90c518	0.07068843
83	0x3da16b27	0.07881766
84	0x3ccc096e	0.02490684
85	0xbd1f7e6b	-0.03893892
86	0x3b2ee567	0.0026687027
87	0x3d007732	0.031363674
88	0x3d438366	0.047732733
89	0x3b5e8894	0.0033955919
90	0x3d5cffa6	0.053954743
91	0x3dfbcf27	0.122953705
92	0x3dcaaf14	0.09896675
93	0x3dad5f6a	0.084654644
94	0x3cae1d7c	0.021254294
95	0x3dfa8c88	0.122338355
96	0xbd38b042	-0.045089968
97	0x3d3912de	0.04518401
98	0x3a9c3697	0.0011918125
99	0xbce4db9b	-0.027936747
100	0x3d0cadad	0.034345318
101	0x3d5adcd6	0.05343326
102	0xbd2d9fe2	-0.042388804
103	0x3c2cc42a	0.010544816
104	0x3d2886cc	0.041144177
105	0xbdbcd978	-0.09221166
106	0x3b9a5282	0.0047095427
107	0xbdfff48c	-0.124978155
108	0xbd9e78ca	-0.077378824
109	0xbcbf6986	-0.023365747
110	0xbdd5cbd8	-0.10439271
111	0xbe174fb9	-0.14776506
112	0xbe317e82	-0.17333415
113	0xbdcf36fa	-0.10117908
114	0xbe1adce8	-0.15123332
115	0xbdd1bed1	-0.102414735
116	0xbdbe3271	-0.09286965
117	0x3d985e2e	0.07439838
118	0xbdcb2875	-0.09919826
119	0xbdae3204	-0.085056335
120	0x3d431a62	0.047632582
121	0xbda7152d	-0.08158336
122	0x3d2cad9f	0.042157765
123	0x3d797fc0	0.060912848
124	0x3b09277b	0.0020928073
125	0xbc9ef182	-0.01940227
126	0x3df7b5eb	0.12095245
127	0x3e4f672d	0.20254202
128	0x3e40f654	0.18843967
129	0x3d60b700	0.054862022
130	0x3e5cad0f	0.21550392
131	0x3e221627	0.15828763
132	0x3cebc331	0.028779598
133	0x3d9806c5	0.07423166
134	0x3ddd9143	0.10818722
135	0x3b2c6e09	0.0026310703
136	0x3d004ce1	0.031323317
137	0x3c93b027	0.018028332
138	0xbd9ad01c	-0.07559225
139	0xbb9676e8	-0.0045918114
140	0xbd664771	-0.056220476
141	0xbc80a76f	-0.015704839
142	0xbd51696b	-0.051125925
143	0x3c32b9f1	0.01090859
144	0x3b331264	0.0027324194
145	0xbd3a4d4b	-0.04548387
146	0xbda4f781	-0.0805502
147	0x3ca5a46d	0.020220006
148	0xbca1e7f8	-0.019763932
149	0xbc9ab1c5	-0.018883595
150	0xbcb585d7	-0.022158546
151	0xbb869f6b	-0.0041083596
152	0xbd170c4e	-0.03687697
153	0xbc4c2ef5	-0.012462367
154	0x3d154b09	0.036448512
155	0x3dac2e57	0.08407276
156	0xbcd9ab00	-0.026570797
157	0xbc824794	-0.015903272
158	0xbaba59fc	-0.0014217491
159	0xbe0374c2	-0.12837508
160	0xbc30db99	-0.010794544
161	0xbc29f8c3	-0.010374251
162	0x3dfd2d51	0.12362159
163	0x3e0a5691	0.13509585
164	0x3dcdb704	0.10044673
165	0x3d2e1e35	0.042509276
166	0x3e225766	0.15853652
167	0x3bff59aa	0.007792671
168	0x3ab531ee	0.0013824084
169	0xbd3d71aa	-0.046250977
170	0x3ae564cf	0.0017501357
171	0x3b3091b8	0.0026942324
172	0xbcb6ddb1	-0.022322508
173	0x3c3ed94d	0.011648488
174	0x3e04cbb0	0.12968326
175	0xbc89c4fc	-0.016817562
176	0x3d1c809c	0.03820859
177	0x3e3a25cf	0.18178485
178	0x3dcc187a	0.09965606
179	0x3dc748bf	0.09730672
180	0x3d1f2590	0.03885418
181	0x3d8d012f	0.068849914
182	0x3c0870d4	0.008327682
183	0xbd26a3cd	-0.040683556
184	0x3d9440c9	0.07238919
185	0x3d2598b8	0.040428847
186	0xbd7dcab5	-0.061960895
187	0xbd363b13	-0.04448993
188	0xbd275b90	-0.040858805
189	0x3c89b2f3	0.016808962
190	0x3c9d1660	0.019175708
191	0xbb33cedf	-0.0027436537
192	0x3c8c5fdd	0.017135555
193	0xbd849356	-0.064734146
194	0x3d88da8e	0.06682311
195	0x3cca2568	0.02467604
196	0x3b41f885	0.0029597592
197	0x3d130ed0	0.0359028
198	0x3c3161f0	0.010826573
199	0xbd72ca19	-0.059274767
200	0x3d48eb1d	0.049052346
201	0xbd6794ea	-0.0565385
202	0xbcbc012b	-0.022949776
203	0xbc404c08	-0.011736877
204	0x3cf0b7eb	0.029384574
205	0x3d7b9da2	0.061429627
206	0xbde7552a	-0.11295541
207	0x3e082966	0.13297042
208	0x3d033eeb	0.032042425
209	0x3df0d885	0.11760048
210	0x3ce4ef26	0.027946066
211	0x3d7160d4	0.058930233
212	0x3c67056c	0.014100414
213	0x3d956fd8	0.07296723
214	0x3d8df49d	0.06931422
215	0x3dce62cb	0.10077437
216	0xbe0a24b3	-0.13490562
217	0xbd532392	-0.051547594
218	0x3eaaa0a8	0.33325696
219	0xbd105e0b	-0.035245936
220	0xbe5eee76	-0.21770653
221	0x3cb64e7b	0.02225422
222	0xbc8f7ef9	-0.0175166
223	0xbe2e6dca	-0.17034069
224	0x3e6f0f38	0.23345649
225	0x3da2eb8b	0.079550825
226	0x3cbd569e	0.023112591
227	0xbc65f521	-0.014035494
228	0x3ce3ef94	0.0278242
229	0xbd4d896c	-0.050179884
230	0x3d612df0	0.05497545
231	0xbcd75c37	-0.026289089
232	0xba227875	-0.0006197759
233	0x3ce67e40	0.028136373
234	0x3c6981b6	0.014252117
235	0x3d0a0731	0.033698265
236	0x3e7788da	0.24173298
237	0xbc8a07f2	-0.016849492
238	0xbdbd1891	-0.09233201
239	0x3d1b0012	0.037841864
240	0x3da86a6e	0.08223425
241	0xbc099826	-0.008398091
242	0x3cf07cba	0.02935635
243	0x3cfb333f	0.030664084
244	0x3ca173ae	0.01970848
245	0x3d5f797c	0.054559216
246	0x3d9603ea	0.07324965
247	0xbc291c03	-0.01032162
248	0x3dd0928b	0.10184201
249	0x3ca6452b	0.020296654
250	0x3d4c27f7	0.0498428
251	0x3dd6db23	0.10491016
252	0xbe6eaff3	-0.23309307
253	0xbebafd32	-0.36521298
254	0xbefd9e19	-0.4953468
255	0xbd2b2be2	-0.041789897

layers.0.conv1.attention1.0.weight f4 [9, 32, 3, 3]
0	0x3ef89838	0.48553634
1	0xbe6c301f	-0.23065232
2	0x3c7f1719	0.015569472
3	0xbd9b98bb	-0.075974904
4	0x3e6f7e8a	0.23388115
5	0x3ddbea03	0.107379936
6	0xbe4ac28e	-0.19800779
7	0x3e5d69f8	0.21622455
8	0x3e85b07e	0.26111215
9	0x3dc57584	0.09641555
10	0x3e7fa56d	0.24965449
11	0x3e12a7b5	0.14321788
12	0x3ceaa0ca	0.028641123
13	0xbdacfaf2	-0.084463015
14	0x3d0ea56a	0.03482572
15	0xbc42738f	-0.011868372
16	0x3dfb7991	0.12279046
17	0x3e005150	0.12531018
18	0x3eb724eb	0.35770354
19	0x3e082fb0	0.13299441
20	0x3d959f31	0.07305754
21	0x3e3e6d61	0.18596412
22	0x3da440b0	0.08020151
23	0xbe8e17c8	-0.2775252
24	0xbddba473	-0.107247256
25	0xbe74eafa	-0.23917761
26	0xbe6c917c	-0.23102373
27	0x3e158101	0.14599992
28	0x3da8bada	0.08238764
29	0x3e435c39	0.19078149
30	0x3d7e01f1	0.06201357
31	0xbe460ee4	-0.19341618
32	0x3d04257f	0.03226232
33	0x3e0bab81	0.13639642
34	0xbdfa6d3f	-0.12227868
35	0x3ca84c58	0.020544216
36	0xbc8bf702	-0.017085556
37	0x3e3a354c	0.18184394
38	0xbd498b77	-0.04920527
39	0x3d473456	0.048633896
40	0x3ea72311	0.3264394
41	0x3ddc5f02	0.10760309
42	0xbd11a432	-0.03555698
43	0xbe3dc7e0	-0.18533278
44	0xbe709e56	-0.234979
45	0x3dfcbccf	0.123407
46	0xbdeb5ade	-0.11491941
47	0x3db16ab2	0.08662929
48	0x3cf97963	0.03045339
49	0xbd607690	-0.05480057
50	0x3e12c4a6	0.14332828
51	0x3c8cca15	0.017186204
52	0xbccc06bc	-0.024905555
53	0xbdb878e1	-0.09007431
54	0xbdf0577d	-0.11735437
55	0xba923594	-0.0011154884
56	0x3e4aef15	0.19817765
57	0xbe05a644	-0.13051707
58	0xbe3071cf	-0.17230915
59	0x3e94cebe	0.29063982
60	0xbea89662	-0.32927233
61	0xbda26388	-0.0792914
62	0x3e8935d0	0.26798868
63	0xbc64ec2b	-0.013972322
64	0x3e8b84c9	0.27249745
65	0x3d586cd1	0.05283815
66	0x3d87a55a	0.06623335
67	0xbe35c27c	-0.17749971
68	0xbd49ce61	-0.049269084
69	0xbe1bf2ca	-0.15229335
70	0xbe5a0a73	-0.21293049
71	0xbe9a492a	-0.30133945
72	0x3ea2cb23	0.31795606
73	0x3d8b6b19	0.06807537
74	0xbd9e97a0	-0.07743764
75	0x3dd7861a	0.10523625
76	0x3d756acb	0.0599163
77	0xbe746b12	-0.23868969
78	0x3e51a60a	0.20473495
79	0x3e49b25e	0.19696948
80	0x3e573911	0.21017863
81	0xbe89e9cf	-0.26936194
82	0xbeb08d36	-0.34482735
83	0xbebc90fc	-0.36829364
84	0x3d81bce9	0.0633486
85	0x3da1d909	0.07902724
86	0x3d3feaeb	0.046854895
87	0xbdf7218c	-0.120669454
88	0x3ca94ad5	0.020665566
89	0xbdf400a7	-0.11914187
90	0x3dac16aa	0.0840276
91	0x3e104dfa	0.14092246
92	0x3dfd4342	0.12366344
93	0x3e3cba92	0.18430546
94	0x3e850151	0.25977567
95	0x3e98876c	0.2979082
96	0x3d9c14b3	0.076211356
97	0xbd8844a1	-0.06653715
98	0x3dd3eb77	0.10347646
99	0xbe4b4562	-0.19850686
100	0x3e299dbb	0.16564076
101	0xbda3a5b6	-0.07990591
102	0xbdf3f445	-0.11911825
103	0x3cbb7212	0.022881541
104	0xbd4dfbdb	-0.050289016
105	0xbdc238a5	-0.0948346
106	0xbdfe106d	-0.12405477
107	0xbe2792c5	-0.16364582
108	0x3e2a754f	0.16646312
109	0x3dd444e8	0.10364705
110	0x3d746430	0.05966586
111	0x3e7d3adf	0.24729489
112	0x3df57bfb	0.11986538
113	0x3dcba852	0.09944214
114	0x3da6f447	0.08152061
115	0x3db8176c	0.08988842
116	0x3e622795	0.22085412
117	0xbd763ca5	-0.06011643
118	0x3dc3ffb4	0.09570256
119	0x3e6ac710	0.22927499
120	0x3d829c1c	0.06377432
121	0xbd9b9ea0	-0.07598615
122	0x3e015d0b	0.1263315
123	0x3eb0ece8	0.34555745
124	0x3dd0d15e	0.101961836
125	0x3e5c9dac	0.21544522
126	0x3d7a5676	0.06111761
127	0x3d51e78c	0.05124621
128	0xbdb1ed75	-0.086878695
129	0x3deafcdf	0.114740126
130	0x3da2ec4d	0.07955227
131	0xbdecd6d6	-0.11564414
132	0x3da94960	0.08265948
133	0xbd1d893d	-0.03846096
134	0xbd140ff3	-0.036148023
135	0xbe09b5d3	-0.13448267
136	0xbe33f859	-0.17575206
137	0x3cf1d269	0.029519277
138	0xbc71d205	-0.014759545
139	0x3d322214	0.04348953
140	0x3e2d6474	0.16932851
141	0xbe4f2d10	-0.20232034
142	0xbe103319	-0.14081992
143	0xbdd4f57d	-0.10398386
144	0x3d054bd6	0.032543026
145	0xbd0debd5	-0.034648735
146	0x3d6b9e9f	0.05752432
147	0x3f035786	0.51305425
148	0x3db0cb52	0.0863253
149	0x3c51ccfe	0.012805222
150	0x3e630ce3	0.22172885
151	0x3dadbcdd	0.084832884
152	0x3e109d99	0.14122619
153	0xbd92e386	-0.07172303
154	0x3e17ca58	0.14823282
155	0xbdca8ddf	-0.09890341
156	0xbd33eaa6	-0.04392495
157	0xbd950677	-0.07276624
158	0xbe56bfa0	-0.20971537
159	0xbe71daf3	-0.23618679
160	0xbe15157e	-0.1455898
161	0xbeb38a1c	-0.35066307
162	0xbe0a664f	-0.1351559
163	0xbd279ba4	-0.040919915
164	0xbe66158d	-0.22469158
165	0xbce4345c	-0.027856998
166	0x3e43c05d	0.1911635
167	0x3d8c02b7	0.06836455
168	0xbeb464ee	-0.35233253
169	0xbdc05bae	-0.093924865
170	0xbe6620d5	-0.22473462
171	0x3d8be62d	0.06831012
172	0xbcb87e26	-0.02252109
173	0x3d426963	0.047463786
174	0xbdee232c	-0.11627802
175	0xbe0690cd	-0.13141175
176	0x3d4c4478	0.049869984
177	0x3ccb3392	0.024804864
178	0x3d887697	0.06663244
179	0xbd91e863	-0.071244024
180	0xbd13d2a7	-0.036089566
181	0x3c7e885c	0.01553544
182	0xbe69c977	-0.22830759
183	0x3e21b105	0.15790184
184	0x3e543adb	0.20725577
185	0xbde63f56	-0.11242549
186	0xbd51ae5a	-0.051191665
187	0x3d5f16fc	0.05446528
188	0xbde6dfb7	-0.11273139
189	0x3eaef3a6	0.34170264
190	0x3d3460ca	0.044037618
191	0x3e2c6009	0.1683351
192	0x3e057e70	0.13036513
193	0x3c8f1b52	0.017469082
194	0x3dba17f2	0.090865985
195	0xbd3150b6	-0.043289863
196	0x3cd5e9ae	0.026112404
197	0x3d8a47c4	0.067519695
198	0xbe1d9501	-0.15388872
199	0x3cd45e08	0.025923744
200	0xbdbbc5a7	-0.091685586
201	0xbe072b77	-0.13200174
202	0x3e26c8b8	0.16287506
203	0x3d99b2d7	0.07504814
204	0x3d3382a7	0.04382577
205	0xbd10e543	-0.03537489
206	0xbe1dd357	-0.15412651
207	0x3e451e01	0.19249727
208	0x3dc4608b	0.095887266
209	0x3e8d9b0b	0.2765735
210	0xbc07c5cc	-0.008286905
211	0x3e17aafb	0.14811318
212	0xbd64154e	-0.05568438
213	0xbd1c2996	-0.038125597
214	0x3d850577	0.06495183
215	0x3e39e24a	0.18152729
216	0x3eccd657	0.40007278
217	0x3ea4b5d8	0.32169986
218	0x3ef48a8b	0.4776195
219	0x3cc7ac55	0.024374167
220	0x3cff3946	0.03115524
221	0x3e756a99	0.23966445
222	0xbd7144fc	-0.05890368
223	0x3d899a39	0.06718869
224	0x3e3420d5	0.1759065
225	0x3df9ec60	0.12203288
226	0xbd201b80	-0.039088726
227	0x3abba431	0.0014315901
228	0x3e0f601f	0.14001511
229	0x3cd6394d	0.02615037
230	0x3e0da299	0.13831557
231	0x3e1e4c86	0.15458879
232	0x3e4f2680	0.2022953
233	0x3e2df3c7	0.16987525
234	0x3d844036	0.0645756
235	0x3ebda688	0.37041116
236	0x3eb5a27e	0.35475534
237	0x3d2c2c9c	0.04203473
238	0xbbf306b1	-0.007416569
239	0x3e2d7109	0.1693765
240	0x3e81292d	0.25226727
241	0x3e28f99d	0.1650147
242	0x3e29d029	0.16583313
243	0x3da3d1e2	0.07999016
244	0x3e1047c1	0.14089872
245	0xbd1e7c1d	-0.038692582
246	0xbb928fd8	-0.004472714
247	0x3d3984bd	0.045292605
248	0x3e1bb211	0.15204646
249	0x3dc59849	0.09648187
250	0x3d9b0550	0.07569373
251	0x3dcfce8f	0.1014682
252	0x3d655f73	0.05599923
253	0xbcc2a08e	-0.023758199
254	0x3d547e86	0.051878475
255	0xbdb10f46	-0.08645491

layers.0.conv1.attention1.0.bias f4 [9]
0	0x3dec3ecb	0.11535414
1	0x3dc4cce7	0.096093945
2	0x3d8b45ae	0.068004
3	0xbe29955f	-0.16560887
4	0x3e0564e9	0.13026775
5	0x3e38c1e4	0.18042713
6	0x3e1eb673	0.15499286
7	0x3d8b77b2	0.068099394
8	0x3e2bcae7	0.1677662

layers.0.conv1.attention1.2.weight f4 [9, 9, 1, 1]
0	0x3f326fed	0.69702035
1	0x3e9d0b47	0.30672666
2	0xbdaf6adb	-0.08565303
3	0xbe70d6c1	-0.23519422
4	0x3f3f00fa	0.74610865
5	0x3eb1f88d	0.34759942
6	0x3f16777b	0.5877606
7	0xbee33e2d	-0.44383374
8	0x3f1c26b7	0.60996574
9	0x3e577d66	0.2104393
10	0x3e6a34b7	0.22871672
11	0x3efb926c	0.4913515
12	0xbdb4b30f	-0.08823215
13	0xbec82df8	-0.3909757
14	0x3f444a9b	0.7667634
15	0x3d33b1f4	0.04387088
16	0xbea80a45	-0.32820335
17	0x3f4f5046	0.8098186
18	0x3fc679ee	1.550596
19	0x3f339de8	0.7016282
20	0x3f56f694	0.8397
21	0x3e0d9eaf	0.13830064
22	0xbef4c97f	-0.4780998
23	0xbe2d80d3	-0.16943674
24	0xbd564686	-0.05231335
25	0x3f157e3a	0.5839573
26	0x3f31aea6	0.6940712
27	0x3e837a2f	0.25679156
28	0xbf58637e	-0.84526813
29	0x3fb249b5	1.3928744
30	0xbe6e9ea3	-0.23302703
31	0xbd9d25a8	-0.07673198
32	0xbe9489d8	-0.29011416
33	0xbea21f38	-0.31664443
34	0x3e317044	0.17327982
35	0xbef286f4	-0.47368586
36	0xbe70194d	-0.23447151
37	0xbe182c8a	-0.1486074
38	0x3f0501d8	0.5195594
39	0xbe1c038b	-0.15235727
40	0x3ea3eaa1	0.32014945
41	0x3f44a684	0.7681658
42	0x3eb7a66b	0.35869154
43	0xbf07f543	-0.53108615
44	0xbf37adf7	-0.71749824
45	0x3e7db773	0.24777012
46	0x3e81aaff	0.25325772
47	0xbe115da7	-0.14195882
48	0xbf323807	-0.6961674
49	0x3edbd3ab	0.42934927
50	0xbc110564	-0.008851383
51	0x3e2a75a7	0.16646443
52	0xbf0b7511	-0.54475504
53	0x3e47b53b	0.19502728
54	0x3eef8548	0.46781373
55	0x3fd7ec88	1.6869059
56	0x3ca87d3d	0.02056753
57	0x3eb145ee	0.34623665
58	0x3d99bf53	0.07507195
59	0xbe35179a	-0.17684785
60	0xbf30076a	-0.6876131
61	0x3f9b0897	1.2111996
62	0x3f11d32f	0.56962866
63	0x3e899dc7	0.26878187
64	0xbe8a3f1a	-0.27001268
65	0xbe7c377e	-0.24630544
66	0x3f02815d	0.5097864
67	0xbc400f52	-0.011722403
68	0xbed2f773	-0.41204414
69	0x3f04fef0	0.51951504
70	0xbdb55835	-0.08854715
71	0xbeaecc0f	-0.3414006
72	0x3d9c5483	0.07633307
73	0x3ece9058	0.403445
74	0x3ed5dff0	0.41772413
75	0x3f1ac1c8	0.60451937
76	0x3e7d1690	0.24715638
77	0xbf3180ef	-0.6933736
78	0xbe18f826	-0.14938411
79	0x3ef1e316	0.47243565
80	0xbf319109	-0.6936193

layers.0.conv1.attention1.2.bias f4 [9]
0	0x3e9e0959	0.30866507
1	0x3e1901e9	0.14942135
2	0x3e239297	0.15973888
3	0xbce6d516	-0.02817778
4	0x3e1a3d38	0.15062416
5	0x3e515657	0.20443092
6	0x3c3ac58c	0.011399638
7	0xbd874ea6	-0.06606798
8	0x3e4b3e98	0.19848096
