weights/BWNET_LAGConv_T2/model_epoch_600.pth (torch, 678374 bytes, 141 tensors)

raise_dim.0.weight f4 [32, 9, 3, 3]
-0.020362461 -0.003633614 0.017737731 0.07150645 0.07166745 0.04290937 0.10668825 0.03934448
0.15869421 -0.14541249 -0.046091646 0.016003758 0.04131482 -0.07245281 -0.06765952 -0.12629788
-0.10000218 0.04210377 -0.1267079 -0.08748755 0.00790497 0.041699745 -0.17283621 0.02532557
-0.0052589043 0.11526564 -0.017491277 0.012466756 -0.07162482 0.01360844 -0.043062 -0.168445
0.002527669 -0.09983531 0.008739516 0.026104387 -0.11183337 -0.13370886 -0.076689556 0.035101075
-0.06561699 0.12475456 0.07802739 0.0029182034 -0.0046681617 -0.010043532 -0.12949766 -0.06940159
-0.009531088 -0.020463074 0.06886351 -0.07390337 0.036881246 0.05683962 0.053117216 -0.054685608
0.0093345465 -0.016674576 0.06080161 0.19579612 0.17441009 0.09208034 0.08143544 -0.12682298
-0.11896529 -0.053703904 -0.08525652 0.005512916 0.105197564 -0.050766658 -0.011782835 -0.07996636
-0.07744209 -0.009995722 0.0909995 -0.12152393 -0.10477199 0.07749043 0.14091656 0.07723957
0.08326463 -0.06042516 -0.08224257 0.031621028 0.116818205 -0.036243416 -0.08632236 -0.064365946
-0.053700123 -0.068665065 0.15038943 -0.09664371 0.08614019 0.024437496 0.0728813 -0.010700062
0.081397325 -0.13510221 -0.10842815 0.058750175 0.08915625 -0.017353615 0.111225486 0.05689988
-0.1064131 0.06828714 -0.022100793 0.07713288 0.08757306 0.0679347 0.0568887 -0.054497704
-0.055413924 -0.04200914 0.07305628 -0.09964408 0.07950967 0.03341942 -0.054366115 0.053876586
0.18355569 0.10397444 -0.057861663 0.09197929 -0.066048644 0.06654674 0.14725612 0.040767338
-0.059327554 0.2204291 0.07580049 -0.055045728 0.18692052 0.02011384 0.09395745 0.103979506
-0.057925425 -0.089455605 0.15550011 0.051087506 -0.03856364 0.028924368 -0.11847144 -0.021168044
-0.0933748 -0.11769057 -0.15467773 0.09102001 -0.082811296 -0.07657712 0.01313889 0.027959485
0.012329832 -0.09087658 -0.014385174 -0.14256105 0.00034490906 -0.08210929 -0.20353779 0.0137581555
-0.17761949 -0.0014242982 0.06843229 -0.06704494 -0.11305649 -0.06794196 -0.07050944 -0.14581947
0.05503369 0.04886185 0.044338286 0.031964708 -0.048762403 -0.072954476 -0.007073955 0.054332506
-0.17449225 -0.058070995 0.04944307 -0.117005005 -0.043019358 -0.08461176 -0.059067264 -0.087538846
-0.045441058 -0.13778354 -0.016660802 0.13128796 -0.07463707 0.035898633 -0.13626 0.012005183
-0.03796178 -0.07453531 -0.053314753 0.10758311 -0.013860084 0.09877199 0.018183617 -0.0486444
0.008352434 0.15208565 0.15317193 -0.04207645 -0.013125116 0.02863558 -0.063779294 -0.101954274
-0.024637036 -0.10320484 -0.13048457 -0.08438639 -0.21262029 0.07125467 -0.06557352 -0.09987085
0.0149602415 0.031470656 -0.096791975 0.10633877 -0.028053356 -0.16594057 0.13414034 0.01264713
0.09704735 0.058329888 -0.11891709 -0.08720273 -0.035434093 -0.042431213 -0.13335876 0.07848656
-0.021926224 -0.09068523 -0.123878345 -0.07465676 -0.06660438 -0.09880206 -0.08206895 -0.10914688
0.099444546 -0.08962531 -0.06826932 -0.16566725 0.0418853 -0.26924533 0.15005858 0.34184384
0.27761933 -0.11137767 0.14502583 -0.44678372 0.013180209 0.11383584 -0.0029375823 -0.04688217
00000000: 2dcf a6bc ed21 6ebb b84e 913c f971 923d
00000010: 62c6 923d bcc1 2f3d 5f7f da3d ad27 213d
00000020: bc80 223e 03e7 14be 98ca 3cbd 501a 833c
00000030: bb39 293d 2462 94bd 1391 8abd 3b54 01be
00000040: f1cd ccbd 0175 2c3d b7bf 01be ac2c b3bd
00000050: d983 013c 5acd 2a3d fafb 30be 9277 cf3c
00000060: e352 acbb 6410 ec3d de49 8fbc 5d41 4c3c
00000070: 09b0 92bd eff5 5e3c c861 30bd d97c 2cbe
00000080: 40a7 253b 7476 ccbd 3030 0f3c ded8 d53c
00000090: e508 e5bd faea 08be 6a0f 9dbd 25c6 0f3d
000000a0: 3362 86bd 527f ff3d d3cc 9f3d 543f 3f3b
000000b0: 61f7 98bb a08d 24bc 099b 04be 6c22 8ebd
000000c0: 4828 1cbc 2da2 a7bc 5008 8d3d a65a 97bd
000000d0: ca10 173d a9d0 683d 7091 593d 04fe 5fbd
000000e0: edef 183c 1f99 88bc 1c0b 793d c77e 483e
000000f0: 8f98 323e 9e94 bc3d a0c7 a63d e2dd 01be
00000100: 13a4 f3bd a0f8 5bbd f89a aebd b1a5 b43b
00000110: d271 d73d b3f0 4fbd cb0c 41bc 67c5 a3bd
00000120: f599 9ebd 19c5 23bc f25d ba3d 8ae1 f8bd
00000130: b292 d6bd 4db3 9e3d 6e4c 103e c82f 9e3d
00000140: a586 aa3d 5f80 77bd cb6e a8bd 0d85 013d
00000150: 623e ef3d fa73 14bd c7c9 b0bd 4bd2 83bd
00000160: a9f4 5bbd 45a0 8cbd b0ff 193e 23ed c5bd
00000170: 456a b03d 2531 c83c ca42 953d 504f 2fbc
00000180: a4b3 a63d 3c58 0abe 940f debd 06a4 703d
00000190: 8d97 b63d 2b29 8ebc 30ca e33d d90f 693d
000001a0: 1def d9bd 21da 8b3d b90c b5bc d8f7 9d3d
000001b0: 8159 b33d 5921 8b3d 2004 693d fc38 5fbd
000001c0: b6f9 62bd c711 2cbd 889e 953d 3212 ccbd
000001d0: f7d5 a23d cde2 083d 01af 5ebd b2ad 5c3d
000001e0: 06f6 3b3e 8df0 d43d 5a00 6dbd a35f bc3d
000001f0: 8344 87bd a849 883d 4fca 163e a7fb 263d
00000200: 7301 73bd 2ab8 613e 4a3d 9b3d a177 61bd
00000210: 1868 3f3e c8c5 a43c c36c c03d 35f3 d43d
00000220: 3643 6dbd 8034 b7bd 6c3b 1f3e 2241 513d
00000230: e8f4 1dbd ccf2 ec3c 28a1 f2bd 9b68 adbc
00000240: 4a3b bfbd c107 f1bd d763 1ebe b368 ba3d
00000250: f898 a9bd 77d4 9cbd 8044 573c 4a0b e53c
00000260: 1003 4a3c 801d babd cbaf 6bbc 86fb 11be
00000270: e9d4 b439 ea28 a8bd 366c 50be e369 613c
00000280: e2e1 35be 84af baba 3a26 8c3d dc4e 89bd
00000290: 298a e7bd 2825 8bbd 4167 90bd b351 15be
000002a0: 026b 613d 5d23 483d 109c 353d 6ded 023d
000002b0: 16bb 47bd 2869 95bd a3cc e7bb c38b 5e3d
000002c0: 19ae 32be dadb 6dbd d184 4a3d 52a0 efbd
000002d0: 1135 30bd ee48 adbd 84f0 71bd 9147 b3bd
000002e0: 6720 3abd 2117 0dbe 3c7c 88bc 5a70 063e
000002f0: 52db 98bd 720a 133d be87 0bbe 63b1 443c
00000300: d07d 1bbd f8a5 98bd 9260 5abd 8954 dc3d
00000310: 6815 63bc f848 ca3d cff5 943c 5a3f 47bd
00000320: a6d8 083c 57bc 1b3e 1ad9 1c3e 5b58 2cbd
00000330: ba0a 57bc 2a95 ea3c b89e 82bd 67cd d0bd
00000340: 9cd3 c9bc 0f5d d3bd bf9d 05be c6d2 acbd
00000350: 22b9 59be f8ed 913d 694b 86bd 1789 ccbd
00000360: cd1b 753c 60e7 003d df3a c6bd 24c8 d93d
00000370: 27d0 e5bc 53ec 29be 165c 093e e835 4f3c
00000380: c3c0 c63d 52eb 6e3d ce8a f3bd 5897 b2bd
00000390: 5723 11bd 5acc 2dbd 338f 08be 90bd a03d
000003a0: a09e b3bc 2eb9 b9bd eeb3 fdbd a5e5 98bd
000003b0: e167 88bd bc58 cabd c413 a8bd 6688 dfbd
000003c0: 95a9 cb3d 798d b7bd c9d0 8bbd ada4 29be
000003d0: ec8f 2b3d 86da 89be f5a8 193e 2806 af3e
000003e0: 1f24 8e3e fa19 e4bd a781 143e d6c0 e4be
000003f0: cef1 573c c422 e93d 7484 40bb 8507 40bd

raise_dim.0.attention1.0.weight f4 [9, 9, 3, 3]
-0.13398196 0.23679161 -0.04630533 0.03229801 0.34412757 0.073739626 -0.033251148 0.4667613
0.0295902 0.19160578 0.36751372 0.5605359 0.26618388 0.24226984 0.23420896 0.16831522
0.124309815 0.32173687 0.021333063 -0.12950791 -0.1301713 0.012028608 -0.36882865 -0.12854159
0.05487488 0.0023777394 0.34757534 0.33547378 -0.08714581 -0.11391703 -0.22725782 -0.012344392
-0.012256575 0.02206024 -0.16128343 -0.45766637 0.10347281 -0.0610835 0.20045689 0.27527696
-0.09522584 0.26304245 0.044118483 -0.056578305 0.539966 0.010507446 -0.07385109 0.02189942
-0.27019206 -0.36917323 -0.12110178 0.056337602 -0.41983518 -0.0934664 -0.0433627 0.012607728
0.19225419 -0.1469242 -0.21961856 0.21945454 0.080504484 -0.15705578 0.32590768 -0.09779435
-0.40320525 -0.4450954 -0.011159777 -0.36048695 -0.49489456 0.23113784 -0.30024758 -0.25279823
-0.055401992 -0.03956515 0.47905663 0.124891765 -0.060320985 0.12679265 -0.13805684 0.109873444
0.052743204 -0.19067018 -0.28321537 -0.37202054 -0.22348918 -0.12313184 0.15151158 0.07019931
-0.5236777 0.006009481 0.26690653 -0.050307095 -0.26302066 0.04194229 -0.060815815 -0.09163501
0.013088453 -0.12234165 0.03810534 -0.2845537 0.07749783 0.07174649 0.0006473823 -0.3895696
-0.21353443 -0.11774181 -0.030408781 -0.022557111 0.051689237 -0.06822362 -0.36639646 0.022774877
-0.013415227 0.07854346 0.108632855 -0.2660305 0.016054623 0.3729352 0.015421077 0.039361972
0.29420298 0.21944463 -0.04523399 -0.27917275 -0.1165576 0.008035998 0.027527561 -0.15968198
-0.0776001 0.000643013 0.14806123 0.20945264 -0.12595516 -0.07373905 -0.2275851 -0.009671075
-0.16625945 0.07185264 0.22255334 -0.035979606 -0.2165334 0.008334594 -0.115784355 -0.37141928
0.047157668 0.069565676 0.24155867 0.2953577 0.33676976 0.24513817 -0.03276183 -0.3819228
-0.23034085 -0.22312891 0.08512346 0.1477042 -0.088195056 0.1813485 0.27846074 -0.4861555
-0.27268982 -0.16366105 0.010331244 0.113722116 0.038160805 0.1655229 0.17113858 0.1280934
0.059982814 0.06463224 0.15708645 0.21933244 -0.14674836 0.14038847 -0.20202053 -0.11722742
-0.10452638 -0.069750205 -0.1728787 -0.17251779 0.18460394 -0.01537285 0.0033036694 -0.312743
0.02760929 -0.31904435 -0.019643309 0.11166854 -0.22789598 -0.02662 -0.021944143 0.048254576
-0.09360343 -0.10168975 0.11470273 -0.06798388 -0.10380104 -0.08001608 -0.16964965 -0.1728109
0.30180597 -0.023403196 -0.014761681 -0.16585383 0.026102673 -0.102661684 0.13829876 0.3331496
0.029645346 0.0979496 -0.0007826055 -0.0047122543 -0.3028493 0.036338363 0.20489989 0.16704404
0.2596957 0.06406561 0.002768862 -0.20012933 0.10099954 -0.13111015 -0.015660504 0.13590248
0.049293026 -0.044169992 0.06419516 -0.14808524 -0.11055131 -0.1896107 -0.17207944 0.17049547
-0.20009708 -0.18416002 -0.0652746 -0.19611111 -0.042436175 -0.27613732 -0.30799687 -0.16998167
0.10625296 -0.298572 0.1796073 -0.31191862 0.07496885 -0.103022195 0.19869633 0.020225305
0.3766624 -0.073047765 -0.06527104 -0.1162051 -0.24813034 -0.3417591 -0.09208641 0.19635229
00000000: 9132 09be 8079 723e a8aa 3dbd eb4a 043d
00000010: 7d31 b03e cd04 973d 5b32 08bd 56fb ee3e
00000020: 2667 f23c 4e34 443e c22a bc3e 487f 0f3f
00000030: 4149 883e 9615 783e 79d4 6f3e d35a 2c3e
00000040: 2596 fe3d b2ba a43e adc2 ae3c b99d 04be
00000050: a04b 05be a313 453c 1cd7 bcbe 68a0 03be
00000060: 7bc4 603d d9d3 1b3b 65f5 b13e 38c3 ab3e
00000070: 8179 b2bd 554d e9bd 46b6 68be 2240 4abc
00000080: cdcf 48bc adb7 b43c 7c27 25be 3f53 eabe
00000090: 8de9 d33d b132 7abd 9244 4d3e 1af1 8c3e
000000a0: c405 c3bd 80ad 863e 95b5 343d a7be 67bd
000000b0: 363b 0a3f 6c27 2c3c 3e3f 97bd 6a66 b33c
000000c0: 9d56 8abe 4604 bdbe 3604 f8bd 42c2 663d
000000d0: a3f4 d6be 506b bfbd 169d 31bd a590 4e3c
000000e0: 48de 443e 4c73 16be b0e3 60be b1b8 603e
000000f0: 89df a43d 3bd3 20be 5fdd a63e 6748 c8bd
00000100: eb70 cebe 8be3 e3be 7fd7 36bc bf91 b8be
00000110: d262 fdbe 66af 6c3e 0dba 99be c56e 81be
00000120: 33ed 62bd 110f 22bd e946 f53e 41c7 ff3d
00000130: 2313 77bd efd5 013e c65e 0dbe 5405 e13d
00000140: 4209 583d 0b3f 43be 9b01 91be 7a79 bebe
00000150: 59da 64be 8c2c fcbd da25 1b3e a8c4 8f3d
00000160: be0f 06bf 2eeb c43b f9a7 883e d00e 4ebd
00000170: a5aa 86be aecb 2b3d 011a 79bd 23ab bbbd
00000180: f370 563c 428e fabd 5814 1c3d 06b1 91be
00000190: 2fb7 9e3d d3ef 923d 17b5 293a ab75 c7be
000001a0: c5a8 5abe 9e22 f1bd d61b f9bc b1c9 b8bc
000001b0: 18b8 533d d3b8 8bbd 5198 bbbe 6192 ba3c
000001c0: 8acb 5bbc 65db a03d e77a de3d 2635 88be
000001d0: fc84 833c 5df1 be3e afa8 7c3c 053a 213d
000001e0: c6a1 963e 18b6 603e 4747 39bd bbef 8ebe
000001f0: c0b5 eebd 6ba9 033c 7b81 e13c ac83 23be
00000200: cdec 9ebd df8f 283a 5d9d 173e c17a 563e
00000210: 64fa 00be 8004 97bd 120c 69be 6e73 1ebc
00000220: eb3f 2abe 7a27 933d 06e5 633e 5a5f 13bd
00000230: eeba 5dbe d28d 083c 5920 edbd ab2a bebe
00000240: 6628 413d 7378 8e3d 285b 773e 2039 973e
00000250: 166d ac3e 8005 7b3e 4531 06bd 638b c3be
00000260: 79de 6bbe e87b 64be 3555 ae3d c53f 173e
00000270: 9c9f b4bd 6cb3 393e 6892 8e3e 60e9 f8be
00000280: 009e 8bbe c396 27be 6144 293c 24e7 e83d
00000290: 814e 1c3d d67e 293e f43e 2f3e eb2a 033e
000002a0: 8ab0 753d e85d 843d 45db 203e af98 603e
000002b0: 3445 16be ffc1 0f3e 78de 4ebe ee14 f0bd
000002c0: ed11 d6bd 32d9 8ebd 1d07 31be 81a8 30be
000002d0: d108 3d3e 68de 7bbc 6082 583b da1f a0be
000002e0: e12c e23c c859 a3be 01eb a0bc 7ab2 e43d
000002f0: 905d 69be 3012 dabc 34c4 b3bc 97a6 453d
00000300: 28b3 bfbd b742 d0bd 44e9 ea3d 223b 8bbd
00000310: a495 d4bd 78df a3bd a3b8 2dbe 57f5 30be
00000320: 5086 9a3e 0fb8 bfbc fada 71bc 96d5 29be
00000330: 46d5 d53c 4a40 d2bd 319e 0d3e 9692 aa3e
00000340: ccda f23c cd99 c83d c427 4dba 4169 9abb
00000350: 100f 9bbe 89d7 143d 47d1 513e 980d 2b3e
00000360: d6f6 843e d534 833d cc75 353b b4ee 4cbe
00000370: d9d8 ce3d bd41 06be 754a 80bc 052a 0b3e
00000380: 7ce7 493d 98eb 34bd c178 833d a8a3 17be
00000390: ba68 e2bd 4f29 42be 9835 30be 5d96 2e3e
000003a0: 40e6 4cbe 7294 3cbe b1ae 85bd 5ad1 48be
000003b0: 8ed1 2dbd df61 8dbe c4b1 9dbe ad0f 2ebe
000003c0: 279b d93d 6ede 98be faea 373e ccb3 9fbe
000003d0: 4589 993d 4dfd d2bd 0d77 4b3e 8aaf a53c
000003e0: e5d9 c03e 119a 95bd d3ac 85bd f1fc edbd
000003f0: e115 7ebe 0cfb aebe cd97 bcbd 9310 493e

raise_dim.0.attention1.0.bias f4 [9]
0.028902667 0.10273181 -0.4258537 -0.09264734 0.22787441 0.1400478 -0.24147303 0.46298796
-0.043493904
00000000: 49c5 ec3c 0e65 d23d 7f09 dabe e3bd bdbd
00000010: e957 693e b168 0f3e b544 77be c20c ed3e
00000020: aa26 32bd

raise_dim.0.attention1.2.weight f4 [9, 9, 1, 1]
-0.14199512 -0.33682272 -0.26401797 -0.66673183 0.09559116 -0.25515893 -0.37796146 -0.6413535
0.11626435 0.33676165 0.27427107 0.48411512 1.4321194 0.36902526 -0.5523565 0.45248252
-0.18699993 0.80486983 0.14729005 -0.26754838 0.6339257 -0.23551047 -0.18869355 0.023324858
0.5451978 -0.5527561 0.17277187 0.100465246 -0.019517655 0.29957578 0.3154191 -0.08513014
-0.2490458 0.19561064 0.25459287 -1.0235666 1.8589537 -0.17361622 0.44564968 -0.7171789
0.83286405 2.3105695 -0.04716213 -0.6394901 0.5671597 -0.3008022 0.6693564 -0.66269684
-0.3228174 0.6062863 -1.0381268 -0.26706013 0.60609865 -0.224774 0.76240516 0.11251087
-0.8349667 -1.129365 0.40410072 1.4548825 0.42244852 -0.5659306 0.9136349 -0.08443458
0.083470546 0.020427354 -0.77583724 -0.38889197 -0.6664115 0.013599934 -0.4993642 0.6097858
-0.060155287 -0.80347955 -0.027578797 -0.1733395 -0.25810894 0.44796324 -0.04186559 0.5536781
0.89764875
00000000: 2b67 11be 0774 acbe 5d2d 87be f0ae 2abf
00000010: 4cc5 c33d 31a4 82be 2a84 c1be be2f 24bf
00000020: 011c ee3d 066c ac3e 426d 8c3e f0dd f73e
00000030: b04f b73f e1f0 bc3e 3c67 0dbf caab e73e
00000040: e97c 3fbe f30b 4e3f 34d3 163e 1afc 88be
00000050: f448 223f a829 71be e238 41be c613 bf3c
00000060: 1592 0b3f 6c81 0dbf 1ceb 303e b9c0 cd3d
00000070: 7de3 9fbc ff61 993e 9d7e a13e b658 aebd
00000080: dd05 7fbe 284e 483e ff59 823e 3b04 83bf
00000090: 32f2 ed3f 73c8 31be 322c e43e 0999 37bf
000000a0: 9436 553f 5fe0 1340 142d 41bd a0b5 23bf
000000b0: 6131 113f bf02 9abe f15a 2b3f 80a6 29bf
000000c0: 5248 a5be 9435 1b3f 57e1 84bf 1bbc 88be
000000d0: 4829 1b3f 282b 66be fc2c 433f 196c e63d
000000e0: 61c0 55bf 088f 90bf 4ae6 ce3e 9739 ba3f
000000f0: 2c4b d83e d4e0 10bf fae3 693f 09ec acbd
00000100: 9bf2 aa3d 4457 a73c 459d 46bf d91c c7be
00000110: f299 2abf 42d2 5e3c aaac ffbe ec1a 1c3f
00000120: 6465 76bd d6b0 4dbf eeec e1bc e97f 31be
00000130: db26 84be 705b e53e 417b 2bbd d9bd 0d3f
00000140: 4fcc 653f

raise_dim.0.attention1.2.bias f4 [9]
-0.2788611 0.040809844 -0.5062441 -0.24997012 -0.16954201 0.41030064 0.28969845 -0.032132875
0.108551234
00000000: e2c6 8ebe 3928 273d 3799 01bf 2bf8 7fbe
00000010: 6c9c 2dbe ed12 d23e 5b53 943e c39d 03bd
00000020: 1c50 de3d

raise_dim.0.attention1.4.weight f4 [9, 9, 1, 1]
-0.1730934 -0.90875727 0.52941173 -0.2706103 0.44927558 0.1139939 -0.02296374 1.0454967
0.04336238 0.023094082 0.21752928 -0.5164901 0.13471651 -1.0418494 -0.40901035 -1.4019171
0.36036155 0.2691567 -0.028248584 0.5532395 -0.3413723 0.44825873 0.07878819 -0.3834919
0.51760215 0.3131604 0.24903642 0.986912 0.087137066 -0.9418928 -0.38265947 -0.544118
0.34009072 0.62549555 1.0079283 -0.34726796 -0.9678354 -0.5241177 -1.1161436 -0.430238
-1.7267208 0.9964982 -0.82482713 -0.38293552 0.3394593 0.03902895 0.19195838 0.19263318
0.3478325 0.41115728 -0.50004977 1.4666648 0.552486 -0.80570495 -0.10931199 0.28721708
0.7184943 -0.5614526 0.39446718 -0.4316237 0.46496361 0.7092528 0.2404776 0.23728566
0.17467652 0.14159536 -0.31539595 -0.12116731 0.51339155 -1.0729381 -0.5507415 -0.5250586
0.057844814 0.46517572 0.7353239 -0.080032036 0.23943263 0.2683016 -0.9459677 -0.41487896
-0.40478268
00000000: 653f 31be 51a4 68bf 8787 073f 6f8d 8abe
00000010: 7307 e63e a275 e93d 741e bcbc d6d2 853f
00000020: c09c 313d cd2f bd3c ffbf 5e3e b238 04bf
00000030: 20f3 093e 525b 85bf ce69 d1be 0572 b3bf
00000040: 4f81 b83e e8ce 893e 9369 e7bc 1ba1 0d3f
00000050: 5ac8 aebe 2b82 e53e b45b a13d 0d59 c4be
00000060: 9381 043f 8f56 a03e 6703 7f3e 44a6 7c3f
00000070: eb74 b23d e31f 71bf f1eb c3be 514b 0bbf
00000080: 5f20 ae3e 7a20 203f cb03 813f 1bcd b1be
00000090: 10c4 77bf 942c 06bf cbdd 8ebf 2848 dcbe
000000a0: 3005 ddbf 821a 7f3f df27 53bf 2010 c4be
000000b0: 9ccd ad3e d2dc 1f3d bd90 443e a241 453e
000000c0: 1a17 b23e 3583 d23e 4303 00bf acbb bb3f
000000d0: b96f 0d3f ae42 4ebf f7de dfbd 1e0e 933e
000000e0: 3eef 373f 5cbb 0fbf 9af7 c93e c8fd dcbe
000000f0: b60f ee3e 9791 353f c33f 763e 03fb 723e
00000100: 67de 323e 60fe 103e 947b a1be 9126 f8bd
00000110: a16d 033f 0956 89bf 65fd 0cbf 3e6a 06bf
00000120: afee 6c3d 832b ee3e 303e 3c3f d6e7 a3bd
00000130: d42d 753e d45e 893e f02a 72bf 046b d4be
00000140: ad3f cfbe

raise_dim.0.attention1.4.bias f4 [9]
0.06669466 0.1884734 -0.09282703 0.00832823 0.64780176 0.035456616 -0.035260472 -0.0127638485
0.026980417
00000000: 3697 883d 2cff 403e 191c bebd 2173 083c
00000010: 56d6 253f f53a 113d 496d 10bd 761f 51bc
00000020: 0906 dd3c

raise_dim.0.attention3.1.weight f4 [32, 9, 1, 1]
0.12401002 -0.5984889 0.13267389 0.44800586 -0.042884972 -0.4967608 -0.17563005 0.1928718
-0.33836725 0.6611962 -0.6722661 -0.03288638 -0.18025361 -1.0769417 0.9013845 0.025151737
-0.009539933 0.058189925 0.17577337 0.57908803 -0.06910962 1.0457829 0.16728352 0.47948283
0.1650053 0.44752604 -0.707503 0.2888194 0.28950545 -0.7903488 -0.20205986 -0.5702773
0.1415277 -0.7812587 -0.37188998 0.46263012 0.7518046 0.49477085 0.14454557 0.20841883
0.26305926 -0.18869166 -0.08582384 0.10363511 0.061995372 -0.40635654 0.040670447 0.045854382
-0.324374 -0.24115837 0.22975679 0.845885 -0.09511557 0.33358225 0.021449532 0.35184968
0.0068667023 -0.04349382 0.32346788 -0.13184175 0.40339932 -0.7516668 -0.9202528 0.4951282
-0.18354778 -0.48515245 -0.43880165 0.2633701 0.4794936 -0.24434093 0.9909285 -0.70208067
0.8040911 -0.602721 -1.1563537 -0.294557 -0.20460413 0.31296474 0.6364739 -0.48836043
-0.065956205 -0.39065918 0.18719219 -0.33613396 -0.23445354 0.12421906 0.2009306 0.36075267
-0.016039837 0.023496328 -0.21463469 0.016114442 0.07744041 0.6507663 -0.64583117 0.20545627
-0.900917 0.44095126 0.10955125 0.5548139 0.75328135 -0.63004047 -0.29725462 -0.52336353
0.16965911 -0.19298209 0.3367129 -0.551013 0.2516971 0.85592043 0.5934231 0.3332781
0.43527037 -0.25256956 -0.5401323 -0.15960488 0.87967104 0.6969656 -0.5199907 -0.11847731
0.39619726 -0.47925434 -0.4493999 -0.16452862 -0.09247999 0.13929324 -0.25775227 -0.16338134
0.4982327 0.53374726 -0.16193266 -0.63839084 0.4011952 -0.10998823 0.08643819 -0.019598553
-0.5081679 0.32979122 0.31550592 -0.46497965 -0.21533439 0.15536702 -0.25522488 0.39400336
-0.34482247 0.053877212 0.33064198 0.4982235 0.4447611 0.403004 0.31217346 -0.53807664
0.83397573 -0.40092903 0.3586703 0.77749664 0.26450437 -0.1376417 -0.5739529 0.57783234
-0.36206466 -0.08259674 -0.27619904 -0.6279929 -0.32925692 -0.14167455 0.62925225 -0.54404175
0.63920283 -0.34427986 0.17931604 -0.9278192 0.09420304 -0.37665394 -0.44161093 0.36710224
-0.11373876 0.14134134 -0.3260168 0.12213384 0.2306456 -0.4763574 0.19632003 0.40022182
0.2631633 -0.18757966 0.38936678 0.10076768 -0.5456496 0.17716888 -0.05970763 -0.3315916
1.0032525 -0.419767 -0.073092304 0.061411846 0.04088153 -0.0208581 0.38506863 0.20601872
-0.3185997 0.48321256 -0.5429737 0.073683575 0.3594298 -0.76352614 0.26318118 0.34473017
-0.92731285 -1.1939998 0.20972385 0.6120744 -0.48447213 -0.82928485 -0.59593403 -0.14623107
-0.0015535434 0.02371304 -0.25996807 0.19020742 -0.2639277 0.010360975 0.9514664 0.30552113
-0.46222448 0.5747304 -0.42991015 0.8144955 -0.66737103 0.361142 -0.069809586 -0.6661312
-0.9733292 0.23595695 0.5767147 0.06667261 0.29390776 0.79319733 -0.18652652 0.17509826
-0.0052329134 -0.059063967 -0.2796946 0.057299096 -0.36492488 -1.1297263 -0.09917603 -0.07345278
0.01091104 0.15374431 0.20766279 0.00064925983 0.34211686 -0.40791994 0.11027745 -0.06718389
00000000: f7f8 fd3d 9236 19bf aadb 073e 0661 e53e
00000010: 27a8 2fbd 6e57 febe 5dd8 33be 2f80 453e
00000020: 793e adbe 2744 293f a219 2cbf deb3 06bd
00000030: 6794 38be 3ad9 89bf 22c1 663f 040b ce3c
00000040: 614d 1cbc 8f58 6e3d effd 333e 1d3f 143f
00000050: 5889 8dbd 37dc 853f 5f4c 2b3e c67e f53e
00000060: 26f7 283e 2222 e53e eb1e 35bf 23e0 933e
00000070: 0f3a 943e 4d54 4abf c8e8 4ebe b1fd 11bf
00000080: a3ec 103e 9200 48bf 5d68 bebe dbdd ec3e
00000090: 4476 403f 9b52 fd3e c103 143e bf6b 553e
000000a0: b4af 863e 6338 41be 69c4 afbd a53e d43d
000000b0: dcee 7d3d f70d d0be 0e96 263d ced1 3b3d
000000c0: 5914 a6be 38f2 76be 5d45 6b3e eb8b 583f
000000d0: f4cb c2bd 4bcb aa3e eeb6 af3c a425 b43e
000000e0: 1302 e13b 9326 32bd 959d a53e 8601 07be
000000f0: 5b8a ce3e 3c6d 40bf b095 6bbf 7281 fd3e
00000100: f3f3 3bbe e765 f8be 9caa e0be 72d8 863e
00000110: 2f80 f53e 8234 7abe 7dad 7d3f 8fbb 33bf
00000120: ead8 4d3f ec4b 1abf 6603 94bf 2dd0 96be
00000130: bf83 51be ea3c a03e f4ef 223f 610a fabe
00000140: 0c14 87bd 7b04 c8be 4faf 3f3e c019 acbe
00000150: 9714 70be 9066 fe3d c0c0 4d3e 93b4 b83e
00000160: fa65 83bc 5f7b c03c 32c9 5bbe 6f02 843c
00000170: 1499 9e3d 9f98 263f 3155 25bf 2163 523e
00000180: 7fa2 66bf 5dc4 e13e 685c e03d 4908 0e3f
00000190: 0cd7 403f 554a 21bf c231 98be 27fb 05bf
000001a0: 1ebb 2d3e 199d 45be a265 ac3e 300f 0dbf
000001b0: 71de 803e 9a1d 5b3f 94ea 173f 6da3 aa3e
000001c0: c2db de3e cc50 81be 1c46 0abf 766f 23be
000001d0: 1f32 613f 566c 323f 1c1e 05bf 3ba4 f2bd
000001e0: 5eda ca3e d360 f5be be17 e6be 317a 28be
000001f0: 2666 bdbd e3a2 0e3e 1bf8 83be 704d 27be
00000200: 5b18 ff3e a9a3 083f add1 25be 956d 23bf
00000210: 7569 cd3e 8241 e1bd 8106 b13d 258d a0bc
00000220: 4b17 02bf 65da a83e fe89 a13e d011 eebe
00000230: 9e80 5cbe 8818 1f3e d6ac 82be cfba c93e
00000240: 928c b0be 5aae 5c3d e849 a93e 2717 ff3e
00000250: bab7 e33e 8a56 ce3e 33d5 9f3e 64bf 09bf
00000260: 6f7f 553f 9246 cdbe a2a3 b73e 050a 473f
00000270: 1e6d 873e f2f1 0cbe 94ee 12bf d2ec 133f
00000280: 8a60 b9be 7b28 a9bd f669 8dbe 25c4 20bf
00000290: 5d94 a8be 2213 11be ad16 213f 5246 0bbf
000002a0: cca2 233f 7345 b0be a09e 373e 8f85 6dbf
000002b0: 86ed c03d c9d8 c0be d41a e2be d3f4 bb3e
000002c0: deef e8bd c9bb 103e adeb a6be 4f21 fa3d
000002d0: 5c2e 6c3e 1ee5 f3be 1e08 493e e0e9 cc3e
000002e0: 57bd 863e e214 40be 155b c73e 495f ce3d
000002f0: b1af 0bbf c26b 353e fd8f 74bd 60c6 a9be
00000300: 946a 803f b3eb d6be 6bb1 95bd fd8a 7b3d
00000310: 6473 273d 9bde aabc b727 c53e 92f6 523e
00000320: 801f a3be a367 f73e 5300 0bbf 6ae7 963d
00000330: 2f07 b83e 7376 43bf afbf 863e 7980 b03e
00000340: 6064 6dbf fcd4 98bf d9c1 563e e8b0 1c3f
00000350: bb0c f8be 034c 54bf 228f 18bf 99bd 15be
00000360: 44a0 cbba d941 c23c 891a 85be bcc5 423e
00000370: 8821 87be 14c1 293c 4d93 733f 446d 9c3e
00000380: b0a8 ecbe 8821 133f 2f1d dcbe c782 503f
00000390: d4d8 2abf 9be7 b83e 54f8 8ebd 9387 2abf
000003a0: 1a2c 79bf b39e 713e 93a3 133f a68b 883d
000003b0: 147b 963e fb0e 4b3f cf00 3fbe f54c 333e
000003c0: dc78 abbb 0fed 71bd 2134 8fbe 75b2 6a3d
000003d0: 6fd7 babe df9a 90bf cd1c cbbd 696e 96bd
000003e0: 38c4 323c 266f 1d3e 8ea5 543e 1733 2a3a
000003f0: f129 af3e e2da d0be 25d9 e13d b597 89bd

raise_dim.0.attention3.1.bias f4 [32]
-0.023160798 0.03690929 -0.06210975 0.018709747 -0.020122845 0.026757685 0.018795803 0.017534418
0.06422654 -0.0036043262 -0.00354345 -0.032071676 -0.01739562 0.024433233 0.0037575082 0.0024121176
-0.048611432 -0.09194433 0.002245285 0.0655173 -0.03426157 -0.04268945 0.01011749 0.05419535
-0.067738846 -0.009176458 -0.09571962 0.0553276 -0.018292611 0.027502075 -0.03528423 -0.049236763
00000000: b7bb bdbc 322e 173d cb66 7ebd 2f45 993c
00000010: aad8 a4bc ef32 db3c a8f9 993c 57a4 8f3c
00000020: 3489 833d 8f36 6cbb 3a39 68bb 975d 03bd
00000030: 4281 8ebc 3428 c83c 8740 763b 9e14 1e3b
00000040: c81c 47bd 4f4d bcbd a225 133b ef2d 863d
00000050: dc55 0cbd 22db 2ebd d4c3 253c f1fb 5d3d
00000060: aaba 8abd db58 16bc a608 c4bd 329f 623d
00000070: 63da 95bc 084c e13c 3286 10bd 7dac 49bd

raise_dim.0.attention3.3.weight f4 [32, 32, 1, 1]
-0.33233917 -0.31900743 0.1791615 0.28001297 -0.043996986 -0.31989872 -0.15684153 0.18121755
0.17415038 -0.08650384 -0.25272837 -0.24335355 -0.5501266 -0.05154549 0.22957897 -0.041195482
0.08879807 0.13553655 -0.16393061 0.2684842 -0.10647951 0.10323573 0.31312457 -0.13420622
0.21980354 0.06312582 -0.090908326 0.17273897 0.10616977 -0.10529368 -0.17742833 -0.3620066
0.18971235 0.19837256 -0.82974315 0.27315778 0.42239603 -0.018491171 0.06780061 -0.32033965
-0.023697356 -0.36158004 -0.1344189 -0.40051752 -0.16084465 -0.03446865 0.03131277 -0.0028684132
-0.36356956 0.2830286 0.31175342 0.012749468 -0.14482093 -0.19334623 -0.02959794 0.018511811
0.07796257 0.47264105 -0.3732617 -0.42760435 0.29106688 0.06069678 -0.14253847 -0.059277892
0.1651448 -0.11919644 -0.07801862 0.5502577 -0.13184193 0.084454685 0.05892986 0.40850753
0.23650773 -0.47492543 0.0069021396 -0.24096327 0.120069616 0.64965254 -0.055807754 -0.37436667
0.29795352 0.29394594 -0.142551 0.2702314 0.21344799 -0.30434376 -0.5844771 0.0323988
-0.23532328 0.13892485 -0.11779894 0.17384644 -0.208942 0.07588528 0.4206326 -0.56373984
0.03751891 0.25899738 0.044731706 -0.042307615 0.04620241 -0.15674737 -0.26859683 -0.056867465
0.17414331 -0.14609051 0.064751655 -0.59424704 -0.13005608 0.008094116 0.19304653 -0.46112505
-0.03909489 -0.071990065 0.06352185 -0.5100807 -0.1153997 -0.12250296 -0.12880081 -0.25294825
0.031655032 -0.079961404 -0.009171062 -0.15082927 0.13214755 0.12562208 0.18062492 0.4390187
-0.02158424 -0.22910772 0.01702661 0.10151328 0.13283369 0.27123988 0.30398795 -0.38600555
-0.0074502765 -0.1096259 -0.24248387 0.20655201 0.2086973 0.15848482 -0.06057366 0.2651258
-0.052966017 -0.22177193 0.4242316 0.177442 -0.095668994 0.07823713 -0.17607139 -0.4243415
0.19452515 0.03682389 0.24195296 8.615172e-05 -0.22765619 0.036510628 0.4787463 -0.34953457
0.020482702 0.2988634 -0.064120546 -0.20184858 -0.09792857 0.6088303 0.15688026 -0.27968732
-0.12597008 -0.2662378 -0.19870266 -0.28811926 -0.23283853 -0.25346413 0.2663745 -0.117934056
0.07876318 -0.10473568 -0.09418523 0.19636779 0.109607615 -0.11153644 0.08272046 -0.22085536
-0.07936644 0.037959397 0.14309083 0.23043238 0.022658443 0.29910198 -0.358403 0.13591568
0.5656013 -0.49101886 -0.3166442 -0.21144436 -0.020635242 0.21331953 -0.25013655 -0.26974976
-0.1432974 -0.23319061 -0.29909655 0.059225664 -0.27504614 -0.0886354 0.43839896 -0.35176158
-0.2662521 0.044562425 0.116545975 -0.1938701 0.103204384 -0.02299723 0.2542961 -0.06461342
0.28861955 -0.37977415 0.3290318 -0.07437645 0.5723034 0.31586298 -0.12124143 0.1382126
-0.37003344 -0.12581518 0.3294638 0.042353116 -0.16500095 -0.034492265 0.2982076 0.54622656
-0.39177752 -0.060686022 -0.43725935 -0.6190448 -0.11720101 -0.9560798 -1.2401223 -0.83139944
0.037198547 -0.07105235 0.31453842 0.2998946 -0.19546512 -0.41485777 0.06164554 0.17878023
-0.015261533 -0.07234264 -0.0053927023 -0.0630557 0.11928531 -0.4591172 -0.22689076 0.21014918
00000000: 5c28 aabe f154 a3be 1d76 373e dc5d 8f3e
00000010: 2f36 34bd c4c9 a3be 119b 20be 1891 393e
00000020: 7a54 323e ed28 b1bd 9d65 81be ac31 79be
00000030: 19d5 0cbf 5d21 53bd c016 6b3e 98bc 28bd
00000040: c3db b53d 18ca 0a3e 6ddd 27be c376 893e
00000050: ee11 dabd 416d d33d dd51 a03e 5b6d 09be
00000060: 2e14 613e 1c48 813d 252e babd 7ce2 303e
00000070: 896f d93d 37a4 d7bd c6af 35be ee58 b9be
00000080: f443 423e 2d22 4b3e 0c6a 54bf 56db 8b3e
00000090: 4b44 d83e cc7a 97bc 0cdb 8a3d 8f03 a4be
000000a0: f520 c2bc 0521 b9be 1ca5 09be a210 cdbe
000000b0: 76b4 24be 002f 0dbd d241 003d fdfb 3bbb
000000c0: ca25 babe 20e9 903e 259e 9f3e 25e3 503c
000000d0: f04b 14be 8efc 45be 6177 f2bc 15a6 973c
000000e0: d7aa 9f3d 02fe f13e 281c bfbe f5ee dabe
000000f0: b806 953e 309d 783d 9bf5 11be 60cd 72bd
00000100: b81b 293e 431d f4bd 3ac8 9fbd b0dd 0c3f
00000110: 9201 07be 94f6 ac3d 7060 713d e627 d13e
00000120: 152f 723e 6d29 f3be 582b e23b 13bf 76be
00000130: 0fe7 f53d a14f 263f ac96 64bd fdac bfbe
00000140: 5d8d 983e 1580 963e e4f8 11be c55b 8a3e
00000150: 1c92 5a3e f2d2 9bbe 4ba0 15bf 9bb4 043d
00000160: 96f8 70be 5142 0e3e 9240 f1bd cd04 323e
00000170: e4f4 55be be69 9b3d 285d d73e 4151 10bf
00000180: 6ead 193d 4e9b 843e 9838 373d c04a 2dbd
00000190: bd3e 3d3d 6282 20be 8685 89be dced 68bd
000001a0: a052 323e c098 15be 849c 843d 9320 18bf
000001b0: 6c2d 05be 2f9d 043c fdad 453e 9518 ecbe
000001c0: f721 20bd 876f 93bd be17 823d a694 02bf
000001d0: ae56 ecbd d5e2 fabd 5ce4 03be 6f82 81be
000001e0: b5a8 013d cec2 a3bd 3942 16bc fd72 1abe
000001f0: b051 073e 13a3 003e bdf5 383e 0fc7 e03e
00000200: 6fd1 b0bc 379b 6abe 647b 8b3c 32e6 cf3d
00000210: 8e05 083e f4df 8a3e 4fa4 9b3e 85a2 c5be
00000220: 7321 f4bb 8b83 e0bd b14d 78be 5f82 533e
00000230: bfb4 553e d849 223e 161c 78bd 92be 873e
00000240: e5f2 58bd 2e18 63be e234 d93e 5bb3 353e
00000250: 1bee c3bd ca3a a03d 0f4c 34be 4a43 d9be
00000260: 9a31 473e a6d4 163d 84c2 773e 5aac b438
00000270: b41e 69be 2b8c 153d 3c1e f53e 32f6 b2be
00000280: 57cb a73c a004 993e a251 83bd 65b1 4ebe
00000290: c68e c8bd 4ddc 1b3f 38a5 203e 2d33 8fbe
000002a0: 4dfe 00be 5250 88be b678 4bbe 5e84 93be
000002b0: 396d 6ebe 0dc6 81be 3d62 883e 6987 f1bd
000002c0: 974e a13d a97f d6bd 30e4 c0bd a314 493e
000002d0: f579 e03d 386d e4bd 5869 a93d e827 62be
000002e0: df8a a2bd 507b 1b3d 6786 123e 77f6 6b3e
000002f0: 339e b93c e523 993e 9980 b7be 7b2d 0b3e
00000300: 3fcb 103f d366 fbbe 301f a2be df84 58be
00000310: 3d0b a9bc 6f70 5a3e e611 80be a41c 8abe
00000320: 8ebc 12be 85c9 6ebe 2f23 99be 9c96 723d
00000330: d9d2 8cbe 7a86 b5bd d475 e03e 181a b4be
00000340: 3252 88be 1787 363d a8af ee3d e285 46be
00000350: d25c d33d b064 bcbc 1933 823e 0a54 84bd
00000360: f1c5 933e c271 c2be db76 a83e ae52 98bd
00000370: 7a82 123f cbb8 a13e 6d4d f8bd 9b87 0d3e
00000380: 0675 bdbe b2d5 00be 7baf a83e 767a 2d3d
00000390: 02f6 28be c347 0dbd abae 983e 81d5 0b3f
000003a0: 1097 c8be e891 78bd 75e0 dfbe b879 1ebf
000003b0: 1507 f0bd a5c1 74bf 54bc 9ebf 98d6 54bf
000003c0: 815d 183d e583 91bd 2e0b a13e c98b 993e
000003d0: 0228 48be 3d68 d4be 0980 7c3d 2a12 373e
000003e0: 820b 7abc 6128 94bd 44b5 b0bb 5923 81bd
000003f0: db4b f43d 6911 ebbe 0d56 68be 5931 573e

raise_dim.0.attention3.3.bias f4 [32]
0.01159959 -0.016106645 -0.037062924 0.036834978 -0.02507195 -0.0038709755 0.021560686 0.08823899
0.039766483 -0.09110751 0.013183029 -0.069699265 -0.03244177 -0.021560991 -0.0130294105 0.01708451
0.06917289 -0.06596457 0.0039259405 0.0002538171 -0.035741847 -0.037694488 0.012603162 0.047041357
-0.004112822 -0.00047390777 0.092264645 0.032037493 0.00439895 0.062432762 -0.061318506 -0.044163607
00000000: 350c 3e3c 15f2 83bc 4bcf 17bd 46e0 163d
00000010: b163 cdbc 31b0 7dbb 09a0 b03c a5b6 b43d
00000020: 2ee2 223d 9396 babd a2fd 573c 7dbe 8ebd
00000030: a9e1 04bd ada0 b0bc 4f79 55bc d0f4 8b3c
00000040: 84aa 8d3d 6f18 87bd 2da5 803b c112 8539
00000050: 0b66 12bd 8965 1abd 7e7d 4e3c 70ae 403d
00000060: dac4 86bb d376 f8b9 3ff5 bc3d bf39 033d
00000070: 1125 903b 7fb9 7f3d 1d29 7bbd e6e4 34bd

layers.0.conv1.weight f4 [32, 32, 3, 3]
0.05100334 0.003266352 -0.08113297 -0.03614362 -0.07519159 -0.005291005 0.05094013 -0.03622392
0.0155710215 -0.029483255 -0.111351706 -0.020786883 -0.07253536 -0.14060888 0.00460306 -0.060568936
-0.071353026 -0.025056032 0.06415445 0.022710025 0.047689598 -0.02664281 -0.050953574 0.013646304
0.074667424 0.05150404 0.030536171 0.0049670963 -0.2849439 0.05735157 -0.27846593 -0.22005707
0.115442075 -0.023014113 -0.024623293 0.16331175 0.046550225 -0.020664034 -0.0069246255 0.019747667
0.11467165 0.023764605 0.04058027 0.069444776 -0.005491008 -0.16271558 0.11754381 0.09528256
0.10646972 0.117866926 0.025637167 0.035849866 0.0031527104 0.110217 -0.20494376 -0.20594203
0.008701703 -0.29876658 -0.18823865 0.1260502 -0.18843797 -0.13471402 0.014881607 0.17230304
0.26110622 0.30808595 -0.030732786 0.20755295 0.059942797 0.018334288 0.10621985 0.12517208
0.04929466 -0.064670995 -0.020973701 0.019374955 0.057620496 0.006187275 0.0335986 0.085187465
-0.016125966 -0.26692793 0.08675533 0.10950364 0.052285586 -0.061814055 0.09151698 -0.09239443
0.11005204 0.16364646 -0.21936078 0.107797675 0.012804694 0.03569009 -0.012646156 0.057870675
-0.15554583 -0.023007667 0.086721316 -0.006253337 0.039894495 0.03520488 -0.025265073 0.0147700915
0.047968127 -0.02000333 0.060423505 -0.02782405 -0.02358521 -0.011304817 -0.053415205 -0.08108936
-0.14242159 -0.059281383 -0.025921581 0.010888425 0.010356599 0.067351215 0.024785554 -0.017318493
0.0376758 0.009099989 0.015950846 -0.013691176 -0.041444276 -0.07284781 0.048628565 -0.033952095
0.17579487 -0.061417658 -0.06826112 -0.0030410544 -0.053055815 -0.118857406 0.17611332 0.026120927
0.02871917 -0.043673605 -0.057429284 0.0023005514 -0.035920896 0.016864741 -0.015958712 0.04081541
0.00034086648 -0.019053988 -0.06564576 0.026856208 0.03443127 -0.014333794 -0.020224288 0.027583573
-0.02982162 -0.022931147 0.108540945 0.28608084 -0.016452527 0.010663872 0.14264412 -0.05015177
-0.09598685 0.24370633 -0.088737935 -0.021593943 0.070138805 0.00018027329 0.014541509 0.005429771
0.0059123677 -0.07034454 0.157412 -0.057729907 -0.104683645 -0.099729545 0.021559509 -0.04878311
-0.043704398 0.048347827 0.061400995 -0.07102765 -0.021263778 -0.008970176 -0.08737696 -0.06454952
0.07070538 0.042092547 0.001701202 -0.005608995 0.02279997 0.058411438 0.05906797 0.024352953
0.06300157 0.04196187 0.11523446 0.012751412 0.05702632 0.008332694 -0.07184171 0.048802588
0.19832568 0.048207447 -0.014161606 0.07287435 -0.0053285873 0.048957027 0.10884254 0.050211493
-0.098590486 -0.009562648 -0.030648103 -0.04716257 -0.06375658 0.016681274 0.034919344 0.00038561574
-0.05157571 -0.060472235 0.00040047284 0.021347852 0.0117719695 -0.06278733 -0.049259562 -0.0075829737
-0.0076767253 0.05222725 -0.034691565 -0.055441592 0.0005502819 -0.11465718 -0.017259065 -0.06402224
-0.081727296 -0.06387681 -0.26805902 -0.04544878 0.06131025 -0.14648904 -0.12617205 -0.1130368
-0.18395415 -0.08421652 -0.046775088 -0.25058308 -0.054223817 -0.09771355 0.08476317 -0.1386179
-0.027944682 -0.2442658 -0.1515179 -0.06096344 0.064996466 -0.018961895 -0.026592936 0.027612282
00000000: e1e8 503d 4b10 563b 0b29 a6bd 550b 14bd
00000010: 0cfe 99bd 2b60 adbb 99a6 503d 885f 14bd
00000020: 991d 7f3c de86 f1bc 5d0c e4bd 4149 aabc
00000030: 6b8d 94bd c6fb 0fbe 44d5 963b 2217 78bd
00000040: 8921 92bd 4f42 cdbc 6963 833d 600a ba3c
00000050: 2b56 433d 0642 dabc b2b4 50bd bf94 5f3c
00000060: 3ceb 983d e6f5 523d fe26 fa3c 06c3 a23b
00000070: 2be4 91be 7be9 6a3d 1693 8ebe a456 61be
00000080: e56c ec3d 1888 bcbc cab6 c9bc 323b 273e
00000090: 73ab 3e3d 9f47 a9bc f8e7 e2bb dcc5 a13c
000000a0: f8d8 ea3d fdad c23c 7f37 263d 1039 8e3d
000000b0: eaed b3bb ea9e 26be cfba f03d 8123 c33d
000000c0: cc0c da3d 3764 f13d 0905 d23c 4fd7 123d
000000d0: b49d 4e3b 73b9 e13d c7dc 51be 78e2 52be
000000e0: 9691 0e3c eff7 98be a2c1 40be 4e13 013e
000000f0: e2f5 40be 79f2 09be fcd1 733c 3570 303e
00000100: b7af 853e 71bd 9d3e 53c3 fbbc c388 543e
00000110: 9486 753d ca31 963c cb89 d93d 1c2d 003e
00000120: 33e9 493d 3a72 84bd 0ad1 abbc 3ab8 9e3c
00000130: 7803 6c3d a0be ca3b b09e 093d c476 ae3d
00000140: 9a1a 84bc c7aa 88be c7ac b13d 7243 e03d
00000150: 6929 563d bc30 7dbd 416d bb3d 4a39 bdbd
00000160: f762 e13d f092 273e 1da0 60be 07c5 dc3d
00000170: c7ca 513c c62f 123d d331 4fbc cd09 6d3d
00000180: 6847 1fbe 937a bcbc f29a b13d cbe8 ccbb
00000190: 6968 233d fe32 103d b3f8 cebc 41fe 713c
000001a0: 3a7a 443d 06de a3bc a37e 773d 43ef e3bc
000001b0: c535 c1bc d737 39bc e7c9 5abd 2e12 a6bd
000001c0: f7d6 11be 09d1 72bd 7f59 d4bc 5d65 323c
000001d0: baae 293c 6fef 893d 130b cb3c 83df 8dbc
000001e0: f151 1a3d 1f18 153c 59ab 823c f450 60bc
000001f0: 79c1 29bd 3c31 95bd bf2e 473d 5a11 0bbd
00000200: 9203 343e 1591 7bbd 7ccc 8bbd 6d4c 47bb
00000210: 0e51 59bd 836b f3bd 0d57 343e 8efb d53c
00000220: 7744 eb3c 18e3 32bd f83a 6bbd d9c4 163b
00000230: ca21 13bd ed27 8a3c d8bb 82bc 0f2e 273d
00000240: 53b6 b239 1c17 9cbc 4971 86bd 8d01 dc3c
00000250: ce07 0d3d 4ad8 6abc 68ad a5bc f2f6 e13c
00000260: 784c f4bc 1ada bbbc b74a de3d 3079 923e
00000270: 73c7 86bc 85b7 2e3c 4d11 123e f16b 4dbd
00000280: c194 c4bd 278e 793e 3cbc b5bd c8e5 b0bc
00000290: efa4 8f3d be07 3d39 823f 6e3c 38ec b13b
000002a0: 89bc c13b cc10 90bd 9c30 213e 3276 6cbd
000002b0: 6164 d6bd 013f ccbd 919d b03c ccd0 47bd
000002c0: 6203 33bd 5f08 463d 9c7f 7b3d f276 91bd
000002d0: 6031 aebc a5f7 12bc b1f2 b2bd 8a32 84bd
000002e0: fbcd 903d 3c69 2c3d defa de3a a9cb b7bb
000002f0: 01c7 ba3c d540 6f3d 41f1 713d d87f c73c
00000300: f806 813d 36e0 2b3d 0b00 ec3d 4ceb 503c
00000310: 6e94 693d da85 083c bf21 93bd 39e5 473d
00000320: e315 4b3e 2c75 453d 1506 68bc 263f 953d
00000330: 6e9b aebb 2a87 483d d6e8 de3d 91aa 4d3d
00000340: cfe9 c9bd a7ac 1cbc bb11 fbbc 8a2d 41bd
00000350: cf92 82bd 2ba7 883c 9607 0f3d 782c ca39
00000360: 0d41 53bd bcb1 77bd 8ef6 d139 b1e1 ae3c
00000370: 38df 403c a596 80bd 65c4 49bd 987a f8bb
00000380: 0a8d fbbb 3eec 553d be18 0ebd b916 63bd
00000390: cb40 103a 62d1 eabd e262 8dbc 181e 83bd
000003a0: a460 a7bd d8d1 82bd 083f 89be 8028 3abd
000003b0: 7520 7b3d 3901 16be 3f33 01be d67f e7bd
000003c0: 7a5e 3cbe b679 acbd 3c97 3fbd 6d4c 80be
000003d0: cb19 5ebd 0b1e c8bd 5098 ad3d daf1 0dbe
000003e0: 3fec e4bc d020 7abe 8227 1bbe cdb4 79bd
000003f0: de1c 853d fa55 9bbc 6ed9 d9bc 2733 e23c

layers.0.conv1.attention1.0.weight f4 [9, 32, 3, 3]
0.16304334 -0.08821543 -0.09255751 0.028682115 0.11479823 -0.03615648 -0.13456441 -0.02746126
0.033798162 -0.011036383 0.15375085 -0.026606958 0.03530818 -0.055615705 -0.01597174 -0.12674712
0.000351771 -0.019817166 0.11041115 -0.018039735 -0.14492865 -0.08059819 -0.020064626 -0.2338176
-0.053892657 -0.07403841 -0.06812719 -0.29219455 -0.12623964 -0.046799082 -0.21266878 0.26673955
-0.13597786 0.2869827 0.20850958 -0.10322222 -0.13579297 0.06329877 0.077932574 -0.06643797
0.17347392 0.22249946 0.038086165 -0.0038748854 -0.018870868 -0.12805131 -0.23019442 -0.019887505
-0.036529724 0.04777646 0.040996507 0.07347108 0.15128383 0.027211344 -0.17533116 -0.20647061
-0.13284668 0.16063869 -0.096546486 -0.0739158 -0.47032467 -0.44227362 -0.19081339 0.2095438
0.38829413 0.012212098 0.29782856 0.05406509 0.06020828 0.19767222 -0.045625858 -0.11727605
0.18894227 -0.020767791 -0.1561169 -0.005934512 0.07883861 -0.22475152 0.069547996 0.12836556
0.11989103 0.07503664 0.19724844 0.04309148 0.34782106 0.2982007 0.098331906 0.110466436
0.25327298 -0.032228317 0.07879752 0.057825428 -0.028325966 0.061931733 -0.04469059 0.11274808
0.20805377 0.021126168 0.14692561 -0.114515 0.10741307 0.014503093 -0.09487548 -0.031613506
0.054994583 -0.05621829 -0.03361705 -0.029647967 0.027975498 -0.006400503 -0.05063768 0.12793115
0.05902311 0.041461747 -0.066002406 -0.043337435 0.15194035 -0.24546342 -0.13096443 0.018257251
-0.16245566 -0.27289873 -0.12508892 0.16177298 0.065455735 0.13797274 0.07568596 -0.03895139
-0.07096053 0.16363126 0.07119772 0.054349594 0.19287184 0.029215733 0.12796453 0.067673646
-0.11598398 0.038594674 0.053333897 0.038556665 0.067066155 -0.111862145 -0.080838144 -0.12567858
-0.06661037 -0.094953746 -0.014291424 0.109919086 0.06720287 0.00366874 0.12885232 0.024640044
0.1009921 -0.13074957 -0.011682221 -0.2997853 -0.06982605 -0.097816676 -0.28423706 -0.15692036
-0.115630284 -0.36756042 0.031167947 -0.06081325 -0.22455873 -0.024341123 -0.009192771 -0.050443895
-0.040526643 0.053643268 -0.09216167 0.0057813344 -0.008265365 0.022785826 -0.06858404 -0.011341785
0.086153194 -0.019222226 0.0446165 -0.12282262 0.024804585 0.050430592 -0.14309807 0.1311827
0.16581021 -0.003680791 0.009757208 0.11497338 -0.10150799 0.06918846 -0.19537497 0.014268247
0.007775109 -0.081218064 0.0023374404 -0.096980765 -0.0053175837 -0.047840886 -0.04420396 -0.028965957
-0.14458275 -0.08503234 0.043962304 0.010878558 0.08218323 -0.0033144425 -0.10131944 0.10510183
0.008649502 0.14214693 -0.043474745 0.14444607 -0.10019373 -0.20249714 -0.082234815 0.03717169
0.124054745 0.06928192 0.036093358 0.024166327 0.13090304 0.15224572 -0.06901177 0.091071665
0.026181748 0.040123835 -0.09329651 -0.06604122 0.07259702 -0.02119287 0.08305918 0.030442927
0.063990645 0.06459133 -0.3809859 -0.2995843 0.12725839 0.110666856 0.06276826 0.32069662
0.10803144 -0.0077205957 0.19953094 -0.07187464 -0.07631683 -0.14022532 -0.14963046 0.02963036
0.1855683 0.17165741 -0.1888855 0.16101229 0.0013860114 -0.026882995 0.03752891 -0.1428818
00000000: d5f4 263e 4baa b4bd cb8e bdbd c1f6 ea3c
00000010: 561b eb3d d118 14bd 41cb 09be 70f6 e0bc
00000020: f16f 0a3d f2d1 34bc dd70 1d3e d6f6 d9bc
00000030: 4f9f 103d 4bcd 63bd 2bd7 82bc ffc9 01be
00000040: e86d b839 9c57 a2bc 3e1f e23d 11c8 93bc
00000050: 2d68 14be aa10 a5bd 925e a4bc e26d 6fbe
00000060: 8cbe 5cbd 73a1 97bd 4586 8bbd 869a 95be
00000070: f744 01be 65b0 3fbd d8c5 59be 1692 883e
00000080: c83d 0bbe 65ef 923e 8983 553e 2c66 d3bd
00000090: 500d 0bbe c9a2 813d 1d9b 9f3d a110 88bd
000000a0: 26a3 313e e6d6 633e 3d00 1c3d caf1 7dbb
000000b0: 1497 9abc e21f 03be 16b8 6bbe 1feb a2bc
000000c0: 31a0 15bd 40b1 433d f4eb 273d 0178 963d
000000d0: 26ea 1a3e 53ea de3c 038a 33be 086d 53be
000000e0: f608 08be 787e 243e 2aba c5bd 2b61 97bd
000000f0: 65ce f0be b071 e2be 9664 43be a692 563e
00000100: 7dce c63e 4015 483c fc7c 983e 5b73 5d3d
00000110: f59c 763d 966a 4a3e 2ee2 3abd 6d2e f0bd
00000120: 157a 413e 3721 aabc 1cdd 1fbe 4b76 c2bb
00000130: 2376 a13d 4325 66be 2e6f 8e3d 4372 033e
00000140: 6e89 f53d cfac 993d 7ffb 493e b180 303d
00000150: 9a15 b23e c3ad 983e 3d62 c93d 3a3c e23d
00000160: ffac 813e d701 04bd 9860 a13d 5bda 6c3d
00000170: db0b e8bc 21ac 7d3d 7b0d 37bd 77e8 e63d
00000180: 0c0c 553e c910 ad3c ab73 163e d786 eabd
00000190: 62fb db3d 629e 6d3c 134e c2bd 2a7d 01bd
000001a0: 0042 613d 2645 66bd 08b2 09bd 4be0 f2bc
000001b0: df2c e53c 50bb d1bb 7569 4fbd 6200 033e
000001c0: 37c2 713d cbd3 293d 452c 87bd 9882 31bd
000001d0: 4096 1b3e c35a 7bbe 8a1b 06be 3b90 953c
000001e0: c75a 26be 62b9 8bbe 4f17 00be d1a7 253e
000001f0: a80d 863d ba48 0d3e 3e01 9b3d 7e8b 1fbd
00000200: c153 91bd f48e 273e 1cd0 913d ae9d 5e3d
00000210: 3280 453e d555 ef3c 2209 033e 7b98 8a3d
00000220: 0289 edbd 7315 1e3d a574 5a3d 98ed 1d3d
00000230: fb59 893d fb17 e5bd 788e a5bd e3b1 00be
00000240: 056b 88bd 1c77 c2bd 9426 6abc 421d e13d
00000250: a9a1 893d 3e6f 703b ddf1 033e ebd9 c93c
00000260: f2d4 ce3d 37e3 05be c966 3fbc 757d 99be
00000270: f600 8fbd 1c54 c8bd 8587 91be bbaf 20be
00000280: 92cf ecbd e130 bcbe ec53 ff3c 5017 79bd
00000290: b9f2 65be 0967 c7bc 479d 16bc 429e 4ebd
000002a0: 44ff 25bd 0bb9 5b3d 42bf bcbd 5971 bd3b
000002b0: 746b 07bc 57a9 ba3c ca75 8cbd e5d2 39bc
000002c0: 1671 b03d ee77 9dbc cbbf 363d 6d8a fbbd
000002d0: fc32 cb3c 4f90 4e3d 4d88 12be c254 063e
000002e0: 27ca 293e 6d39 71bb b2dc 1f3c 2a77 eb3d
000002f0: 6ce3 cfbd aeb2 8d3d 6010 48be 5ec5 693c
00000300: 57c6 fe3b a855 a6bd be2f 193b da9d c6bd
00000310: 203f aebb cef4 43bd 360f 35bd 044a edbc
00000320: 800d 14be 6f25 aebd d111 343d fb3b 323c
00000330: ae4f a83d 1e37 59bb 9180 cfbd a13f d73d
00000340: a4b6 0d3c f78e 113e 9312 32bd ace9 133e
00000350: 5f32 cdbd 695b 4fbe ba6a a8bd 5841 183d
00000360: 6a10 fe3d aee3 8d3d a1d6 133d 76f8 c53c
00000370: 720b 063e 4de6 1b3e 0b56 8dbd c883 ba3d
00000380: 1b7b d63c e458 243d 3e12 bfbd 9f40 87bd
00000390: bfad 943d ab9c adbc ee1a aa3d 7263 f93c
000003a0: 870d 833d 7648 843d 9510 c3be 1d63 99be
000003b0: 0650 023e 4ea5 e23d a58c 803d 5932 a43e
000003c0: 963f dd3d 0dfd fcbb d751 4c3e 0333 93bd
000003d0: 004c 9cbd 3a97 0fbe ba38 19be 5ebb f23c
000003e0: 9e05 3e3e f6c6 2f3e 336b 41be 68e0 243e
000003f0: d3aa b53a ba39 dcbc eab7 193d 9b4f 12be

layers.0.conv1.attention1.0.bias f4 [9]
0.18211013 0.09767569 0.16559723 0.0717063 0.15275887 0.016511098 -0.022903575 0.14514269
0.1471511
00000000: 147b 3a3e 310a c83d 5292 293e c1da 923d
00000010: d26c 1c3e 4842 873c 47a0 bbbc 49a0 143e
00000020: c7ae 163e

layers.0.conv1.attention1.2.weight f4 [9, 9, 1, 1]
0.43415067 -0.067532904 -0.24090251 -0.40534696 0.053771995 0.119001426 1.0679172 0.065262854
0.6727251 0.06693124 0.40370739 0.5504145 0.14662214 -0.6680024 0.78203946 0.3251308
-0.42532843 0.83547896 1.0832372 0.38786927 0.49755475 0.18140693 -0.81535774 -0.20536643
-1.4191936 0.40688282 1.2319825 -0.17812876 -0.6088945 1.2659521 -0.4972994 0.8130195
-0.29082367 -0.40255144 0.15347967 -0.5269278 0.08410608 -0.13237147 0.46743646 -0.09847519
0.23334247 0.77776355 0.09896992 -0.965258 -0.9880207 0.63246226 0.44121885 -0.3485622
-0.89709073 0.14991082 -0.09363968 0.49702618 -0.6868983 0.14317219 0.41800067 1.5682627
0.23558153 0.24152024 0.30088064 -0.07938191 -0.6897084 1.0745125 0.19109914 0.08793931
-0.42958295 -0.10316817 -0.23699212 0.0047764187 -0.471486 0.7375859 0.32048863 0.23846383
0.0022463568 -0.024041602 0.51938856 0.47853294 0.48687866 -0.9443161 -0.26873714 -0.0458787
-0.6479597
00000000: ff48 de3e b14e 8abd 26af 76be a389 cfbe
00000010: 0640 5c3d 05b7 f33d 83b1 883f 88a8 853d
00000020: b637 2c3f 3f13 893d bcb2 ce3e f7e7 0c3f
00000030: 1d24 163e 3502 2bbf bd33 483f 8b77 a63e
00000040: a6c4 d9be f3e1 553f 84a7 8a3f cd96 c63e
00000050: 7fbf fe3e bdc2 393e 49bb 50bf 944b 52be
00000060: 23a8 b5bf f252 d03e 9ab1 9d3f 6367 36be
00000070: 83e0 1bbf b80a a23f 079e febe 0c22 503f
00000080: d7e6 94be 391b cebe c629 1d3e bee4 06bf
00000090: cf3f ac3d 638c 07be d553 ef3e 5cad c9bd
000000a0: 54f1 6e3e 831b 473f beb0 ca3d 261b 77bf
000000b0: edee 7cbf 0ce9 213f 70e7 e13e bf76 b2be
000000c0: bda7 65bf 3982 193e 29c6 bfbd 377a fe3e
000000d0: 91d8 2fbf bb9b 123e 2f04 d63e d5bc c83f
000000e0: 493c 713e 1551 773e 070d 9a3e fc92 a2bd
000000f0: bb90 30bf a089 893f 7eaf 433e 8619 b43d
00000100: 4cf2 dbbe d549 d3bd 10ae 72be 8183 9c3b
00000110: 9d66 f1be 6ed2 3c3f 1617 a43e dd2f 743e
00000120: 9d37 133b e5f2 c4bc a6f6 043f 4502 f53e
00000130: 2948 f93e b3be 71bf ea97 89be 4eeb 3bbd
00000140: b0e0 25bf

layers.0.conv1.attention1.2.bias f4 [9]
-0.124673024 0.13048902 0.094871074 0.014739105 0.11240779 -0.24581271 0.06585824 0.030533109
0.115215935
00000000: 9254 ffbd ea9e 053e c44b c23d 497c 713c
00000010: 0e36 e63d 54b6 7bbe afe0 863d 9220 fa3c
00000020: 55f6 eb3d

layers.0.conv1.attention1.4.weight f4 [9, 9, 1, 1]
-0.1881854 -1.6047753 -0.03253104 0.74895847 -0.3155241 -0.070345476 0.27276275 0.19794777
-0.3467131 0.21414688 -0.04840638 0.29988515 -0.6624415 -0.15661189 -0.010279678 -0.15836015
0.7616212 -0.4376882 0.056549687 -0.33328515 -0.58862996 0.34378186 -0.36409837 1.4043082
0.36003122 -0.15239482 0.021458326 -0.555032 -0.3289534 0.6176861 -0.55593073 -0.35829562
-1.0451522 -0.18086395 -0.4747615 -0.2296148 0.39452118 0.38683096 2.6602743 0.4370356
0.5728075 -0.18959586 0.9910943 0.44693062 -0.036112268 -0.26627016 0.3797299 0.15414545
0.15064476 -0.069919 0.97179186 0.66608167 0.0022982997 0.30638263 0.123742275 -0.6640268
0.48189372 -0.437281 -1.3813953 0.3989264 -0.5266055 -0.8481661 -0.02538008 -0.051862996
-0.30106238 -0.40013176 -0.20678455 -0.081013806 -0.8778902 1.0096157 0.7330793 1.3086636
-0.49806806 -0.45239714 -0.3477171 0.111097716 0.33295146 -1.202609 0.011192327 0.1470938
0.21306504
00000000: acb3 40be 4769 cdbf 453f 05bd bebb 3f3f
00000010: 608c a1be 4a11 90bd 8fa7 8b3e d2b2 4a3e
00000020: 6184 b1be 5249 5b3e c545 46bd 8c8a 993e
00000030: c495 29bf de5e 20be 186c 28bc 2a29 22be
00000040: 9bf9 423f ab18 e0be a5a0 673d 5aa4 aabe
00000050: 74b0 16bf 2d04 b03e 1a6b babe 5fc0 b33f
00000060: 0356 b83e 630d 1cbe 5fc9 af3c 9416 0ebf
00000070: 946c a8be ad20 1e3f 7a51 0ebf 8672 b7be
00000080: 8cc7 85bf 6634 39be f013 f3be 2420 6bbe
00000090: aefe c93e b50e c63e ef41 2a40 21c3 df3e
000000a0: 83a3 123f 6b25 42be 5bb8 7d3f 17d4 e43e
000000b0: 75ea 13bd 9054 88be f56b c23e 4ed8 1d3e
000000c0: 9f42 1a3e b131 8fbd 5ac7 783f 5484 2a3f
000000d0: 129f 163b 2fde 9c3e 976c fd3d a9fd 29bf
000000e0: c6ba f63e 4ce3 dfbe 90d1 b0bf 1540 cc3e
000000f0: 9ecf 06bf 6a21 59bf e3e9 cfbc 4b6e 54bd
00000100: d924 9abe 12de ccbe 54bf 53be 91ea a5bd
00000110: 6abd 60bf 163b 813f 16ab 3b3f 4a82 a73f
00000120: c702 ffbe 99a0 e7be fa07 b2be 3387 e33d
00000130: 9d78 aa3e 17ef 99bf 0660 373c c29f 163e
00000140: b92d 5a3e

layers.0.conv1.attention1.4.bias f4 [9]
-0.021993957 -0.12706518 -0.122302935 -0.19366701 0.3720268 -0.021180978 -0.13108942 0.07094388
-0.20086092
00000000: ac2c b4bc 601d 02be f679 fabd a550 46be
00000010: 4c7a be3e bb83 adbc 4e3c 06be 064b 913d
00000020: 7cae 4dbe
