weights/BWNET_LAGConv_T2/model_epoch_550.pth (torch, 678374 bytes, 141 tensors)

raise_dim.0.weight f4 [32, 9, 3, 3]
-0.022160813 -0.004027496 0.013395169 0.0684546 0.06981278 0.035845533 0.10624637 0.039611347
0.1572268 -0.14593299 -0.046630282 0.014059177 0.04117744 -0.07259251 -0.06853016 -0.12511098
-0.10099718 0.04115033 -0.12622882 -0.08710498 0.0071999663 0.041986912 -0.17157382 0.024415964
-0.004130999 0.11446366 -0.018304082 0.012433262 -0.07158192 0.01303017 -0.04048605 -0.16445465
0.0036999392 -0.09632374 0.011000159 0.028117659 -0.11206675 -0.1341334 -0.07783283 0.034995977
-0.065091506 0.122869305 0.0789852 0.0019525378 -0.0063232547 -0.010353202 -0.12961392 -0.06972681
-0.009977617 -0.019464534 0.06680092 -0.07351376 0.036143426 0.056081176 0.053195205 -0.05457127
0.008486289 -0.01875706 0.0597518 0.1915523 0.17304415 0.08931629 0.0780242 -0.12567192
-0.118222654 -0.053957462 -0.086806044 0.0052161897 0.10103252 -0.05233325 -0.014028766 -0.08228911
-0.07676271 -0.009373439 0.09068381 -0.120868325 -0.102839656 0.07555164 0.14164293 0.07772915
0.08422858 -0.058748413 -0.08121451 0.03158343 0.11933706 -0.03665252 -0.08262293 -0.06686242
-0.05417592 -0.0675307 0.14879192 -0.09778726 0.08745753 0.023542797 0.07207624 -0.008213403
0.0822761 -0.13376531 -0.10749944 0.058431193 0.08807644 -0.016836133 0.112261735 0.056734268
-0.103140995 0.067152336 -0.02206596 0.07678265 0.08695334 0.06644793 0.057201736 -0.0528749
-0.05569663 -0.03708707 0.0701292 -0.10057917 0.07865791 0.032061387 -0.05621602 0.05449326
0.18486533 0.103808574 -0.053356197 0.08959295 -0.066468626 0.06681103 0.14639956 0.0386256
-0.059828486 0.22114295 0.07404107 -0.051065926 0.18406469 0.01856989 0.092046686 0.103298806
-0.058580577 -0.088021934 0.1570171 0.051390264 -0.03387262 0.026874265 -0.11807278 -0.020348541
-0.0937298 -0.11929671 -0.15520117 0.09211125 -0.08400831 -0.073837966 0.011573183 0.026784874
0.01066419 -0.09180149 -0.015329049 -0.14125705 0.0012863803 -0.08199289 -0.20043753 0.012261814
-0.17719504 -0.0008543979 0.06707327 -0.067317985 -0.11206747 -0.068740204 -0.07000792 -0.14434715
0.05442522 0.04881426 0.045440365 0.03220793 -0.048675623 -0.07263468 -0.00807218 0.053527355
-0.1735439 -0.058673352 0.048768535 -0.1157999 -0.042405065 -0.0847018 -0.05934302 -0.08749197
-0.046036035 -0.13708411 -0.016408475 0.13090883 -0.07413732 0.03726831 -0.13560861 0.012175934
-0.037167437 -0.07446834 -0.05236397 0.108708955 -0.01340199 0.099524505 0.017493151 -0.04820905
0.009959255 0.1499686 0.15238385 -0.040376008 -0.013463523 0.029138599 -0.06070335 -0.101218246
-0.022925569 -0.10163692 -0.13023381 -0.08313351 -0.21032977 0.07207628 -0.06410416 -0.097637504
0.015377222 0.032244027 -0.09673895 0.10592729 -0.028121496 -0.16511779 0.13400461 0.012724492
0.09737336 0.05732467 -0.11814111 -0.08686581 -0.03638498 -0.0416392 -0.13192531 0.078004494
-0.021583885 -0.09066232 -0.12366297 -0.073396735 -0.06627611 -0.099058196 -0.08127258 -0.10846522
0.099512614 -0.08950852 -0.06863313 -0.1656064 0.04034758 -0.26614198 0.15174906 0.3415428
0.2834942 -0.11137385 0.14797285 -0.44324246 0.014423112 0.11408326 -0.0016638087 -0.047987383
00000000: 988a b5bc 16f9 83bb 6977 5b3c ed31 8c3d
00000010: 01fa 8e3d c4d2 123d b297 d93d 823f 223d
00000020: 1000 213e 756f 15be 65ff 3ebd 7658 663c
00000030: ada9 283d 62ab 94bd 8a59 8cbd 181d 00be
00000040: 9cd7 cebd 408d 283d 2142 01be 1964 b2bd
00000050: b2ed eb3b 78fa 2b3d 0cb1 2fbe fd03 c83c
00000060: 555d 87bb ec6b ea3d 71f2 95bc e1b4 4b3c
00000070: 8b99 92bd 7f7c 553c b3d4 25bd cd66 28be
00000080: ae7a 723b 6245 c5bd 033a 343c 0157 e63c
00000090: 4183 e5bd 445a 09be d266 9fbd f157 0f3d
000000a0: b24e 85bd e7a2 fb3d fec2 a13d 4cec ff3a
000000b0: 4e33 cfbb 7aa0 29bc 83b9 04be eecc 8ebd
000000c0: 2979 23bc 1674 9fbc ecce 883d 628e 96bd
000000d0: 210b 143d 60b5 653d 37e3 593d 2086 5fbd
000000e0: 130a 0b3c 68a8 99bc 4ebe 743d 4926 443e
000000f0: 7c32 313e 76eb b63d 27cb 9f3d 24b0 00be
00000100: b81e f2bd 8002 5dbd 5ec7 b1bd 92ec aa3b
00000110: 23ea ce3d 645b 56bd e9d8 65bc 3187 a8bd
00000120: c535 9dbd 0d93 19bc 6fb8 b93d d089 f7bd
00000130: 999d d2bd d1ba 9a3d d80a 113e 7630 9f3d
00000140: 0980 ac3d 2da2 70bd cb53 a6bd a05d 013d
00000150: fd66 f43d f420 16bd 3636 a9bd 2aef 88bd
00000160: 92e7 5dbd 894d 8abd e95c 183e b044 c8bd
00000170: ef1c b33d d3dc c03c b59c 933d 8291 06bc
00000180: 5f80 a83d c6f9 08be ab28 dcbd 8c55 6f3d
00000190: 6c61 b43d eeeb 89bc 7be9 e53d 3162 683d
000001a0: 963b d3bd 2a87 893d acc3 b4bc 3940 9d3d
000001b0: 9814 b23d da15 883d 5e4c 6a3d 5a93 58bd
000001c0: 2622 64bd 9de8 17bd e69f 8f3d 74fc cdbd
000001d0: 6617 a13d cd52 033d c542 66bd 5334 5f3d
000001e0: 564d 3d3e 9799 d43d 078c 5abd 827c b73d
000001f0: b420 88bd 39d4 883d c4e9 153e e135 1e3d
00000200: b70e 75bd 4c73 623e d8a2 973d 812a 51bd
00000210: 747b 3c3e e21f 983c f982 bc3d 538e d33d
00000220: 30f2 6fbd d844 b4bd 17c9 203e 997e 523d
00000230: 04be 0abd 6b27 dc3c 24d0 f1bd fcb1 a6bc
00000240: 69f5 bfbd d551 f4bd 0eed 1ebe d3a4 bc3d
00000250: 8d0c acbd 5c38 97bd 739d 3d3c f46b db3c
00000260: dbb8 2e3c 6b02 bcbd b126 7bbc b0a5 10be
00000270: c39b a83a e3eb a7bd 7f3f 4dbe c7e5 483c
00000280: 9e72 35be acf9 5fba b65d 893d 03de 89bd
00000290: a183 e5bd aac7 8cbd 5060 8fbd bdcf 13be
000002a0: fbec 5e3d 76f1 473d ad1f 3a3d 76ec 033d
000002b0: 1760 47bd 7ec1 94bd 2d41 04bc 803f 5b3d
000002c0: 7eb5 31be 7853 70bd 84c1 473d 7f28 edbd
000002d0: efb0 2dbd 2378 adbd ab11 73bd fd2e b3bd
000002e0: 4890 3cbd c75f 0cbe 116b 86bc f70c 063e
000002f0: 4fd5 97bd a8a6 183d fcdc 0abe 927d 473c
00000300: e23c 18bd db82 98bd 9a7b 56bd cda2 de3d
00000310: 0594 5bbc 81d3 cb3d cc4d 8f3c da76 45bd
00000320: 252c 233c 5e91 193e 830a 1c3e 5061 25bd
00000330: 1c96 5cbc 12b4 ee3c 13a4 78bd 834b cfbd
00000340: 67ce bbbc 0427 d0bd 035c 05be e741 aabd
00000350: b060 57be bb9c 933d 0b49 83bd 2cf6 c7bd
00000360: bef0 7b3c 5012 043d 121f c6bd 68f0 d83d
00000370: 0d5f e6bc a314 29be 8138 093e 637a 503c
00000380: af6b c73d 46cd 6a3d f7f3 f1bd b4e6 b1bd
00000390: 6b08 15bd de8d 2abd 6e17 07be d2c0 9f3d
000003a0: b0d0 b0bc 2bad b9bd 0343 fdbd 0751 96bd
000003b0: c5bb 87bd 06df cabd 3d72 a6bd 0323 debd
000003c0: 45cd cb3d 3e50 b7bd 878f 8cbd b994 29be
000003d0: 8143 253d c343 88be 1b64 1b3e b3de ae3e
000003e0: 2726 913e f917 e4bd 3286 173e adf0 e2be
000003f0: eb4e 6c3c 7ca4 e93d 2814 daba 6b8e 44bd

raise_dim.0.attention1.0.weight f4 [9, 9, 3, 3]
-0.1361483 0.23689575 -0.043199513 0.02933926 0.34276298 0.07444713 -0.032636844 0.46943003
0.036226656 0.19043128 0.36572823 0.5592758 0.26494315 0.24113628 0.23303498 0.1663227
0.12262383 0.32036674 0.022059275 -0.12934408 -0.12824725 0.012357875 -0.3683909 -0.12691422
0.05475794 0.0024728065 0.34906712 0.33479682 -0.088094234 -0.11329084 -0.22781211 -0.0125384135
-0.011561223 0.020797063 -0.16209114 -0.45731223 0.10357448 -0.060725022 0.20104481 0.27587566
-0.09371662 0.26396465 0.042004254 -0.05761858 0.53893304 0.009136839 -0.07493695 0.022305707
-0.2712587 -0.36902466 -0.12018688 0.053406015 -0.42129162 -0.093751624 -0.04388426 0.012116793
0.19112647 -0.14634688 -0.21847719 0.2186618 0.07825801 -0.15844582 0.32326987 -0.09863481
-0.40157798 -0.44284657 -0.011281274 -0.3574005 -0.4927025 0.22821529 -0.30000782 -0.25304583
-0.05471574 -0.038102977 0.4799615 0.12500851 -0.058895484 0.12613608 -0.14194259 0.10740806
0.048866704 -0.19457608 -0.28191257 -0.37216815 -0.22601853 -0.12210268 0.14909439 0.07047927
-0.5235872 0.0057989573 0.26509112 -0.049971174 -0.26025507 0.040028676 -0.060682196 -0.08903623
0.013484785 -0.122173816 0.037788708 -0.28551126 0.07931392 0.07387618 -0.00018677114 -0.38777494
-0.21143267 -0.117577024 -0.030424455 -0.022979012 0.049522553 -0.06879621 -0.36801997 0.020647915
-0.0141672045 0.07668668 0.10909096 -0.26568162 0.016364204 0.36984608 0.012600855 0.037799787
0.29094502 0.21619147 -0.04727045 -0.27854496 -0.116266996 0.00826891 0.02609019 -0.16238487
-0.08162057 -0.0008625862 0.14498588 0.20497146 -0.1250198 -0.07318305 -0.22708783 -0.007485293
-0.16390623 0.07447643 0.22437125 -0.034302127 -0.2145899 0.009518471 -0.114679195 -0.37007955
0.048863355 0.069625564 0.23868226 0.29673988 0.33615628 0.24153982 -0.032454453 -0.38203144
-0.23006636 -0.21742687 0.09181765 0.15433043 -0.08288948 0.18739168 0.28445718 -0.4857117
-0.2726444 -0.16352831 0.010183152 0.113360554 0.038155407 0.1646394 0.17056288 0.12716547
0.059627064 0.06492581 0.15766959 0.21924797 -0.14669591 0.14066334 -0.20203936 -0.116987795
-0.104175486 -0.06993342 -0.1725906 -0.17197627 0.18503647 -0.014876659 0.0040379097 -0.31251687
0.027935412 -0.3185797 -0.019653551 0.11204465 -0.22727701 -0.026539806 -0.02187046 0.048311576
-0.093562715 -0.10159776 0.114710584 -0.06831601 -0.103727125 -0.079833366 -0.16970995 -0.17279962
0.30177334 -0.023314344 -0.014391433 -0.16560102 0.025752194 -0.10243357 0.13867284 0.33291918
0.029403 0.09772192 -0.0011529772 -0.004899798 -0.30300385 0.03564599 0.20466596 0.16703594
0.25880486 0.06296293 0.0014806967 -0.20080549 0.10033811 -0.13202408 -0.016537394 0.13540745
0.048859827 -0.044219427 0.06437197 -0.14815055 -0.11057411 -0.18911275 -0.17182495 0.16996232
-0.19983841 -0.18383765 -0.06548353 -0.19620834 -0.042603243 -0.27613792 -0.3076659 -0.16983601
0.10599801 -0.29821396 0.18004528 -0.30486074 0.08699364 -0.0991602 0.19712472 0.023992524
0.38022032 -0.06555179 -0.06004205 -0.11169235 -0.24837965 -0.34065697 -0.09167146 0.20053114
00000000: 766a 0bbe cd94 723e f9f1 30bd e358 f03c
00000010: a17e af3e bd77 983d 36ae 05bd 2259 f03e
00000020: 6762 143d 6b00 433e bb40 bb3e b32c 0f3f
00000030: a1a6 873e 6eec 763e b9a0 6e3e 7f50 2a3e
00000040: 3422 fb3d 1c07 a43e a7b5 b43c c672 04be
00000050: 3f53 03be af78 4a3c bb9d bcbe cdf5 01be
00000060: dd49 603d cf0e 223b edb8 b23e 7d6a ab3e
00000070: c06a b4bd 0705 e8bd 9447 69be eb6d 4dbc
00000080: 496b 3dbc 9a5e aa3c 38fb 25be d424 eabe
00000090: db1e d43d cdba 78bd b1de 4d3e 933f 8d3e
000000a0: 80ee bfbd 6026 873e a70c 2c3d 7601 6cbd
000000b0: 84f7 093f aeb2 153c 8b78 99bd 75ba b63c
000000c0: 6ce2 8abe cdf0 bcbe 8a24 f6bd 44c0 5a3d
000000d0: 89b3 d7be da00 c0bd fbbf 33bd 8385 463c
000000e0: a8b6 433e f5db 15be 7cb8 5fbe e1e8 5f3e
000000f0: bc45 a03d 9f3f 22be a183 a53e 0c01 cabd
00000100: a19b cdbe c9bc e2be 18d5 38bc 33fd b6be
00000110: 8143 fcbe 45b1 693e a09a 99be 398f 81be
00000120: 9d1d 60bd de11 1cbd 84bd f53e 3b02 003e
00000130: 643c 71bd d129 013e 6659 11be c2f8 db3d
00000140: 7428 483d f43e 47be d856 90be d38c bebe
00000150: 6771 67be f810 fabd 33ac 183e 6f57 903d
00000160: d009 06bf 2e05 be3b 06ba 873e 93ae 4cbd
00000170: 2740 85be 1cf5 233d e58d 78bd a158 b6bd
00000180: 4aef 5c3c 4436 fabd 55c8 1a3d 882e 92be
00000190: 566f a23d 654c 973d ffd7 43b9 708a c6be
000001a0: ce81 58be 39cc f0bd b53c f9bc 7b3e bcbc
000001b0: 29d8 4a3d 07e5 8cbd 1d6d bcbe d125 a93c
000001c0: 901d 68bc e80d 9d3d 156b df3d 6c07 88be
000001d0: 390e 863c 775c bd3e d173 4e3c f3d3 1a3d
000001e0: bff6 943e 4c61 5d3e a99e 41bd 729d 8ebe
000001f0: 641d eebd 537a 073c 18bb d53c 3848 26be
00000200: af28 a7bd 2e1f 62ba 2e77 143e 0ae4 513e
00000210: 3105 00be ffe0 95bd b689 68be 3047 f5bb
00000220: 09d7 27be 1987 983d 94c1 653e 6380 0cbd
00000230: 74bd 5bbe 5cf3 1b3c eddc eabd 117b bdbe
00000240: f124 483d d997 8e3d 1f69 743e 4aee 973e
00000250: ad1c ac3e 3756 773e f6ee 04bd a099 c3be
00000260: 8496 6bbe 26a5 5ebe e40a bc3d cc08 1e3e
00000270: f6c1 a9bd 9be3 3f3e 5fa4 913e 34af f8be
00000280: 0c98 8bbe f773 27be 3cd7 263c 9429 e83d
00000290: d848 1c3d 3b97 283e 09a8 2e3e aa37 023e
000002a0: 823b 743d d3f7 843d 2374 213e 8a82 603e
000002b0: 7437 16be 0d0a 103e 68e3 4ebe 4c97 efbd
000002c0: f559 d5bd 4139 8fbd 97bb 30be 8c1a 30be
000002d0: 337a 3d3e 3bbd 73bc 7150 843b 3602 a0be
000002e0: ced8 e43c e11c a3be 7c00 a1bc aa77 e53d
000002f0: 4ebb 68be 026a d9bc ae29 b3bc 5ce2 453d
00000300: cf9d bfbd 7d12 d0bd 62ed ea3d 44e9 8bbd
00000310: e36e d4bd ad7f a3bd 72c8 2dbe 62f2 30be
00000320: 0982 9a3e b9fd bebc 0cca 6bbc 5093 29be
00000330: 44f6 d23c b1c8 d1bd 4100 0e3e 6274 aa3e
00000340: 8fde f03c 6e22 c83d 7f1f 97ba 7c8e a0bb
00000350: 5223 9bbe 8801 123d f493 513e 780b 2b3e
00000360: 1282 843e b5f2 803d f013 c23a f49f 4dbe
00000370: 117e cd3d 5231 07be 6e79 87bc 40a8 0a3e
00000380: 3e21 483d 6e1f 35bd 74d5 833d c7b4 17be
00000390: ae74 e2bd c6a6 41be e1f2 2fbe 9a0a 2e3e
000003a0: 71a2 4cbe f03f 3cbe 3b1c 86bd d7ea 48be
000003b0: bd80 2ebd f361 8dbe 6386 9dbe 7ee9 2dbe
000003c0: 7c15 d93d 80af 98be ca5d 383e b516 9cbe
000003d0: b929 b23d 8114 cbbd 10db 493e f88b c43c
000003e0: 3dac c23e 0440 86bd a7ee 75bd f5be e4bd
000003f0: 3c57 7ebe 976a aebe 3fbe bbbd 0958 4d3e

raise_dim.0.attention1.0.bias f4 [9]
0.030446745 0.10018855 -0.42415923 -0.09499815 0.22669514 0.14039955 -0.24082485 0.46021158
-0.04606587
00000000: 746b f93c a82f cd3d 662b d9be 648e c2bd
00000010: c522 683e e6c4 0f3e ca9a 76be daa0 eb3e
00000020: 91af 3cbd

raise_dim.0.attention1.2.weight f4 [9, 9, 1, 1]
-0.14232644 -0.33622137 -0.2640542 -0.66824377 0.09684396 -0.25457656 -0.37800896 -0.639357
0.1174987 0.34354347 0.2731773 0.4846469 1.4270613 0.369607 -0.55875254 0.4530192
-0.18852936 0.8041494 0.14922568 -0.26795635 0.6338454 -0.23505627 -0.18606396 0.023600638
0.5451777 -0.5518058 0.17446645 0.09700923 -0.023759918 0.2989122 0.31014994 -0.094090566
-0.2439974 0.19543558 0.25372607 -1.0199606 1.8508972 -0.17321186 0.44578218 -0.7152711
0.82698375 2.3211434 -0.047030706 -0.64007664 0.5672283 -0.3004478 0.6625438 -0.66066533
-0.32669842 0.60430264 -1.0344828 -0.26633126 0.60476595 -0.22685467 0.76402605 0.111904025
-0.83447087 -1.1235874 0.39797747 1.4518164 0.42246437 -0.5665569 0.91026914 -0.086293235
0.08437627 0.020407809 -0.77604026 -0.38590246 -0.6666735 0.013549865 -0.49788758 0.6102886
-0.06346617 -0.8025375 -0.027222494 -0.16140601 -0.2629717 0.4500022 -0.04139022 0.55263114
0.8980744
00000000: 06be 11be 3525 acbe 1d32 87be 0612 2bbf
00000010: 2056 c63d dc57 82be 648a c1be e6ac 23bf
00000020: 29a3 f03d eee4 af3e e5dd 8b3e a323 f83e
00000030: f2a9 b63f 213d bd3e 680a 0fbf 22f2 e73e
00000040: d70d 41be bcdc 4d3f 9ece 183e 9331 89be
00000050: b143 223f 97b2 70be 8d87 3ebe 2056 c13c
00000060: c490 0b3f 2543 0dbf 55a7 323e c6ac c63d
00000070: 29a4 c2bc 050b 993e f9cb 9e3e 8eb2 c0bd
00000080: 74da 79be 4420 483e 62e8 813e 128e 82bf
00000090: 33ea ec3f 735e 31be 903d e43e 021c 37bf
000000a0: 35b5 533f 9d8d 1440 45a3 40bd 10dc 23bf
000000b0: e035 113f 4bd4 99be 789c 293f 5d21 29bf
000000c0: 0445 a7be 94b3 1a3f ef69 84bf 925c 88be
000000d0: f1d1 1a3f 974c 68be 3697 433f f02d e53d
000000e0: e29f 55bf b6d1 8fbf b4c3 cb3e 1fd5 b93f
000000f0: 404d d83e df09 11bf 6607 693f 82ba b0bd
00000100: 77cd ac3d 472e a73c 93aa 46bf 0295 c5be
00000110: 1dab 2abf 4100 5e3c 1feb febe e03b 1c3f
00000120: 8dfa 81bd 1973 4dbf b501 dfbc 9e47 25be
00000130: 3aa4 86be b066 e63e cb88 29bd 3c79 0d3f
00000140: 34e8 653f

raise_dim.0.attention1.2.bias f4 [9]
-0.27788916 0.039238874 -0.5000135 -0.24617365 -0.17061366 0.40818316 0.2877422 -0.03430155
0.10629095
00000000: 7d47 8ebe f1b8 203d e200 00bf f214 7cbe
00000010: 59b5 2ebe 62fd d03e f252 933e c87f 0cbd
00000020: 12af d93d

raise_dim.0.attention1.4.weight f4 [9, 9, 1, 1]
-0.17401627 -0.89740515 0.52827877 -0.26661503 0.45934933 0.11730467 -0.015946636 1.0439798
0.045656435 0.023205113 0.22550622 -0.5157572 0.13631542 -1.0412968 -0.40960717 -1.4093853
0.3602936 0.2698708 -0.02856716 0.55501497 -0.34175354 0.4462126 0.07979007 -0.38289154
0.5089784 0.31334254 0.25004557 0.98670495 0.0902553 -0.9419671 -0.3752568 -0.5451217
0.3406479 0.6176733 1.0074259 -0.34672454 -0.96430737 -0.5209121 -1.1118703 -0.4222256
-1.7126038 0.9884165 -0.8149922 -0.3806537 0.33162874 0.0393675 0.19559625 0.19306584
0.35463986 0.41740125 -0.50025445 1.4581084 0.5521043 -0.8078493 -0.109679125 0.283881
0.7182603 -0.56278676 0.39795604 -0.4314502 0.48083863 0.7085995 0.24033545 0.23708555
0.18395188 0.14151916 -0.31336904 -0.122105956 0.5137223 -1.063846 -0.55113053 -0.5243699
0.057491444 0.47535703 0.7350405 -0.07809922 0.23313342 0.2684234 -0.93786657 -0.41446123
-0.40336457
00000000: 5231 32be 58bc 65bf 473d 073f c481 88be
00000010: d62f eb3e 6e3d f03d 85a2 82bc 21a1 853f
00000020: 3e02 3b3d a618 be3c 1aeb 663e aa08 04bf
00000030: 4596 0b3e 3749 85bf 08b8 d1be bd66 b4bf
00000040: 6778 b83e 812c 8a3e ad05 eabc 7615 0e3f
00000050: 52fa aebe fa75 e43e fa68 a33d 5c0a c4be
00000060: 694c 023f 6f6e a03e f905 803e b298 7c3f
00000070: c5d7 b83d c224 71bf a921 c0be 198d 0bbf
00000080: 6769 ae3e d61f 1e3f 55f3 803f e185 b1be
00000090: d9dc 76bf 7f5a 05bf c451 8ebf f42d d8be
000000a0: 9a36 dbbf dd08 7d3f 54a3 50bf 0be5 c2be
000000b0: 3ecb a93e d13f 213d 624a 483e 0db3 453e
000000c0: 5b93 b53e 9eb5 d53e ad10 00bf 4ca3 ba3f
000000d0: b556 0d3f 36cf 4ebf 739f e0bd da58 913e
000000e0: e8df 373f cb12 10bf e5c0 cb3e 0ae7 dcbe
000000f0: 7b30 f63e c766 353f 7f1a 763e 8ec6 723e
00000100: e25d 3c3e 66ea 103e e871 a0be b012 fabd
00000110: 4e83 033f 1b2c 88bf e416 0dbf 1b3d 06bf
00000120: 267c 6b3d ff61 f33e 9d2b 3c3f 7cf2 9fbd
00000130: 87ba 6e3e cb6e 893e 0618 70bf 4334 d4be
00000140: cd85 cebe

raise_dim.0.attention1.4.bias f4 [9]
0.06443362 0.18275432 -0.09239958 0.005494461 0.63543874 0.032575887 -0.03494363 -0.014057272
0.028949263
00000000: c6f5 833d f323 3b3e fe3b bdbd e10a b43b
00000010: 1dac 223f 4b6e 053d 0d21 0fbd 7950 66bc
00000020: 0127 ed3c

raise_dim.0.attention3.1.weight f4 [32, 9, 1, 1]
0.123210676 -0.5988311 0.13248366 0.4480534 -0.042974636 -0.496499 -0.17581347 0.19255798
-0.338812 0.6617172 -0.67229044 -0.033251133 -0.18031015 -1.0769626 0.90166533 0.025527464
-0.009037142 0.059104376 0.17620885 0.5801543 -0.06886734 1.0457776 0.16753131 0.4789548
0.16524188 0.44798747 -0.7069609 0.28855366 0.28952342 -0.7902875 -0.20207046 -0.57056755
0.14165421 -0.7816076 -0.3716082 0.46275827 0.75201756 0.49439022 0.14514378 0.20938048
0.26345548 -0.186882 -0.08586642 0.10302 0.062375862 -0.40581688 0.03977405 0.04589608
-0.3250776 -0.24149248 0.22884166 0.8463294 -0.09429995 0.33507028 0.021657072 0.35175088
0.008112569 -0.043510787 0.322515 -0.12927577 0.40105963 -0.74908984 -0.9215946 0.49504974
-0.18263768 -0.48504916 -0.43799827 0.26406172 0.48029828 -0.24409528 0.9911108 -0.70211124
0.8041571 -0.6037257 -1.1563859 -0.2944642 -0.20523474 0.31347257 0.6358686 -0.4889115
-0.06571625 -0.3908637 0.18751304 -0.3360733 -0.23479955 0.12370649 0.20029242 0.36019233
-0.016286304 0.023456385 -0.21473655 0.015311231 0.07656604 0.65096945 -0.64682484 0.20527859
-0.9000389 0.4425437 0.11251227 0.5545406 0.75371534 -0.6296083 -0.2969795 -0.522818
0.17020984 -0.19288126 0.3367047 -0.5511283 0.2523045 0.8567177 0.5934273 0.33326128
0.4353257 -0.25290403 -0.5398815 -0.15920015 0.87966335 0.69649684 -0.5200949 -0.11843954
0.3961557 -0.47975838 -0.4488299 -0.16475415 -0.09255483 0.13958964 -0.25783303 -0.16283959
0.4982426 0.5333333 -0.161607 -0.639223 0.40165752 -0.10889493 0.08741063 -0.020295583
-0.5069586 0.33041933 0.31417984 -0.46784225 -0.21764614 0.15352939 -0.2542685 0.3941532
-0.344342 0.052739974 0.3319597 0.4989309 0.4444605 0.40399787 0.3116044 -0.538611
0.8353499 -0.40033862 0.35833925 0.77791816 0.26527947 -0.13709764 -0.5733539 0.57856786
-0.3596806 -0.08103859 -0.27597544 -0.6274188 -0.32925746 -0.14199543 0.6296448 -0.54416263
0.6395401 -0.3436742 0.18006024 -0.9275365 0.09468998 -0.37674576 -0.44172376 0.36742824
-0.114025705 0.14157127 -0.3260032 0.121731296 0.23073845 -0.47639862 0.19613068 0.39993247
0.26355362 -0.18779822 0.38948086 0.10165317 -0.5465997 0.17747857 -0.058986004 -0.3319695
1.0031359 -0.41919342 -0.07305279 0.061927058 0.041324038 -0.021707684 0.38578764 0.20531212
-0.316684 0.48462686 -0.5427799 0.074419074 0.35834318 -0.7641359 0.26182073 0.34430584
-0.92758596 -1.1940382 0.2098155 0.61166805 -0.4840834 -0.8297043 -0.59632176 -0.14611198
-0.00076769525 0.021915171 -0.25924623 0.19096775 -0.26408434 0.01076124 0.95255417 0.30732512
-0.4610192 0.57518595 -0.4296673 0.814891 -0.66743743 0.36116692 -0.069997855 -0.66623724
-0.9729423 0.23663493 0.5760759 0.0669139 0.29350215 0.79333574 -0.18628205 0.17535703
-0.0053239274 -0.059649598 -0.28027457 0.05718832 -0.3646247 -1.1296473 -0.09893455 -0.07297298
0.011230389 0.15375601 0.20740278 0.0005448077 0.3419116 -0.4083032 0.110346794 -0.06730411
00000000: e155 fc3d ff4c 19bf cca9 073e 4167 e53e
00000010: 2c06 30bd 1e35 febe 7208 34be eb2d 453e
00000020: c478 adbe 4c66 293f 3a1b 2cbf 5732 08bd
00000030: 39a3 38be e9d9 89bf 8ad3 663f f91e d13c
00000040: 8510 14bc 6e17 723d 1870 343e fe84 143f
00000050: 520a 8dbd 0adc 853f 548d 2b3e 9039 f53e
00000060: 2b35 293e 9d5e e53e 64fb 34bf 4ebd 933e
00000070: 6a3c 943e 4850 4abf 8feb 4ebe b710 12bf
00000080: cd0d 113e 7017 48bf 6e43 bebe a7ee ec3e
00000090: 3984 403f b720 fd3e 92a0 143e d667 563e
000000a0: a3e3 863e ff5d 3fbe bcda afbd 26fc d23d
000000b0: d57d 7f3d 3bc7 cfbe 1dea 223d 87fd 3b3d
000000c0: 9270 a6be ce49 77be 7855 6a3e 0ba9 583f
000000d0: 5520 c1bd 558e ab3e 2c6a b13c b118 b43e
000000e0: 95ea 043c 5e38 32bd b020 a53e de60 04be
000000f0: b057 cd3e 5ac4 3fbf a0ed 6bbf 2977 fd3e
00000100: 5f05 3bbe 5d58 f8be 4f41 e0be 1933 873e
00000110: a8e9 f53e 1df4 79be 70b9 7d3f 90bd 33bf
00000120: 3ddd 4d3f c48d 1abf 7404 94bf 03c4 96be
00000130: 0e29 52be 7a7f a03e 49c8 223f 9c52 fabe
00000140: 3e96 86bd 491f c8be 6b03 403e cd11 acbe
00000150: 4b6f 70be d459 fd3d 7519 4d3e 216b b83e
00000160: db6a 85bc 9b27 c03c e6e3 5bbe f5db 7a3c
00000170: a8ce 9c3d efa5 263f 5096 25bf 8d34 523e
00000180: f368 66bf 1695 e23e d56c e63d 5ff6 0d3f
00000190: 7df3 403f 022e 21bf b20d 98be 67d7 05bf
000001a0: 7d4b 2e3e aa82 45be 8f64 ac3e bf16 0dbf
000001b0: 0e2e 813e da51 5b3f daea 173f 39a1 aa3e
000001c0: 03e3 de3e a37c 81be ad35 0abf 5d05 23be
000001d0: 9e31 613f 9e4d 323f f024 05bf 6e90 f2bd
000001e0: ebd4 ca3e e4a2 f5be 08cd e5be 50b5 28be
000001f0: 638d bdbd 96f0 0e3e b102 84be 6cbf 26be
00000200: a719 ff3e 8888 083f 4e7c 25be 1ea4 23bf
00000210: 0ea6 cd3e 4e04 dfbd 5804 b33d ec42 a6bc
00000220: 0ac8 01bf b92c a93e 2edc a03e 0589 efbe
00000230: a1de 5ebe cf36 1d3e 7b2f 82be 73ce c93e
00000240: 984d b0be df05 583d 9ff6 a93e df73 ff3e
00000250: 5490 e33e cfd8 ce3e 9d8a 9f3e 69e2 09bf
00000260: 7ed9 553f 2ff9 ccbe 3e78 b73e a525 473f
00000270: b6d2 873e 5363 0cbe 52c7 12bf 061d 143f
00000280: 0e28 b8be 8ff7 a5bd a74c 8dbe 859e 20bf
00000290: 6f94 a8be 4067 11be 6730 213f 3e4e 0bbf
000002a0: e6b8 233f 11f6 afbe b661 383e 0873 6dbf
000002b0: d2ec c13d d2e4 c0be 9e29 e2be 8e1f bc3e
000002c0: 4f86 e9bd 0ff8 103e e4e9 a6be 424e f93d
000002d0: b346 6c3e 85ea f3be 7bd6 483e f3c3 cc3e
000002e0: 80f0 863e 2d4e 40be 096a c73e 8a2f d03d
000002f0: f5ed 0bbf f1bc 353e 4f9b 71bd e8f7 a9be
00000300: c266 803f 85a0 d6be b39c 95bd 3aa7 7d3d
00000310: 6543 293d 50d4 b1bc f585 c53e 573d 523e
00000320: 6824 a2be 0321 f83e a0f3 0abf 0769 983d
00000330: c278 b73e 699e 43bf 5e0d 863e db48 b03e
00000340: 4676 6dbf 3ed6 98bf e0d9 563e 4796 1c3f
00000350: c8d9 f7be 8067 54bf 8ba8 18bf 619e 15be
00000360: 283f 49ba 7287 b33c ecbb 84be 0d8d 433e
00000370: 1036 87be e94f 303c 97da 733f b859 9d3e
00000380: b50a ecbe 633f 133f 5afd dbbe b29c 503f
00000390: 2edd 2abf dfea b83e 095b 8fbd 868e 2abf
000003a0: bf12 79bf 6d50 723e b679 133f 280a 893d
000003b0: ea45 963e 0d18 4b3f b9c0 3ebe cb90 333e
000003c0: 5774 aebb 2353 74bd 2680 8fbe 4d3e 6a3d
000003d0: 17b0 babe 4898 90bf 339e cabd dc72 95bd
000003e0: aaff 373c 3772 1d3e 6561 543e 6dd1 0e3a
000003f0: 0a0f af3e 1e0d d1be 80fd e13d bdd6 89bd

raise_dim.0.attention3.1.bias f4 [32]
-0.023024445 0.03660882 -0.06206658 0.018959828 -0.020519428 0.026449786 0.018726295 0.017125666
0.06404992 -0.002688468 -0.0042858915 -0.032131992 -0.01739475 0.024935966 0.0040351576 0.002932423
-0.048693176 -0.09226413 0.0018088878 0.06533155 -0.034524947 -0.04236977 0.010067789 0.05393318
-0.068086736 -0.008991536 -0.095501415 0.055305086 -0.018039638 0.027604587 -0.035600908 -0.04928087
00000000: c39d bcbc 21f3 153d 8739 7ebd a451 9b3c
00000010: 5c18 a8bc 39ad d83c e367 993c 204b 8c3c
00000020: 9b2c 833d 0231 30bb aa70 8cbb d69c 03bd
00000030: 6f7f 8ebc 8346 cc3c 5b39 843b e52d 403b
00000040: 7f72 47bd faf4 bcbd 3418 ed3a 8ccc 853d
00000050: 086a 0dbd ed8b 2dbd 5ef3 243c 0ae9 5c3d
00000060: 0f71 8bbd 3c51 13bc 3f96 c3bd 9687 623d
00000070: ddc7 93bc 0423 e23c 42d2 11bd bdda 49bd

raise_dim.0.attention3.3.weight f4 [32, 32, 1, 1]
-0.332454 -0.31875116 0.18054062 0.2798974 -0.043566093 -0.31891713 -0.1562633 0.18360114
0.17414145 -0.08645786 -0.25099105 -0.24337654 -0.5497285 -0.052422024 0.22627477 -0.041421708
0.09000816 0.13518463 -0.16395137 0.26854298 -0.106679775 0.100803725 0.31346035 -0.13427365
0.22089459 0.06310349 -0.09092224 0.1726957 0.10617093 -0.10386552 -0.17733397 -0.3619762
0.18968248 0.19991063 -0.8296716 0.2731387 0.4226283 -0.01723651 0.068021566 -0.3205067
-0.023727618 -0.36142683 -0.13213602 -0.40054697 -0.16037105 -0.03378493 0.031903468 -0.0022868542
-0.3632211 0.28305367 0.3117295 0.012740611 -0.14556374 -0.19325078 -0.028390445 0.018426249
0.077535264 0.4725532 -0.3734734 -0.42760107 0.29141474 0.06066923 -0.14265533 -0.059299786
0.16513252 -0.11755709 -0.0784719 0.55031323 -0.132763 0.084153704 0.061614715 0.4081475
0.23656824 -0.47451952 0.005833608 -0.24092968 0.11896664 0.6477844 -0.056763615 -0.374946
0.29723427 0.29295194 -0.14251553 0.27033883 0.21282086 -0.30581748 -0.5839408 0.032523364
-0.23308025 0.1389976 -0.118596874 0.17387176 -0.21021834 0.07581058 0.4207795 -0.563706
0.0382646 0.26336196 0.04461941 -0.042052045 0.045758728 -0.15763131 -0.2631779 -0.057515413
0.17506133 -0.13312288 0.06702073 -0.59489256 -0.13058004 -0.0051186346 0.19539396 -0.47579297
-0.039022557 -0.07710197 0.06412714 -0.5099153 -0.115447015 -0.12047893 -0.12848987 -0.25191528
0.032695383 -0.079822995 -0.008978234 -0.15025811 0.13180341 0.12578233 0.18101597 0.43914142
-0.021531828 -0.23134477 0.017782891 0.10139636 0.13296854 0.27363133 0.3043981 -0.38720015
-0.0074987137 -0.10946387 -0.23971291 0.20646222 0.20876074 0.1609 -0.05934884 0.26595128
-0.05121554 -0.21554823 0.42430192 0.1773495 -0.09305991 0.08027815 -0.17481898 -0.4243781
0.19844238 0.03685938 0.24394305 4.6789855e-06 -0.22642264 0.03700473 0.47877553 -0.34951594
0.020038474 0.29801998 -0.06412791 -0.20199296 -0.09749555 0.6093327 0.15341918 -0.27942973
-0.12578394 -0.26076794 -0.20484832 -0.2882844 -0.23238288 -0.25486103 0.26652434 -0.10647648
0.07901409 -0.103986405 -0.09380959 0.19621366 0.10940272 -0.11185537 0.083528355 -0.22092992
-0.08070045 0.03823985 0.14304814 0.23045371 0.02299981 0.299323 -0.35832992 0.13530856
0.5659434 -0.49231073 -0.31672496 -0.21167521 -0.021120142 0.21573018 -0.25002512 -0.2699422
-0.1433247 -0.23267433 -0.30133307 0.05891781 -0.27563152 -0.10305115 0.4388281 -0.34682593
-0.2664916 0.039766368 0.117024645 -0.19342935 0.10335561 -0.023358209 0.25335532 -0.06456742
0.29225716 -0.38047528 0.32864547 -0.074016 0.5722622 0.3156227 -0.12109481 0.1380849
-0.36931634 -0.12204814 0.3289159 0.04235462 -0.16537865 -0.032905396 0.29808158 0.54596496
-0.39145765 -0.06570916 -0.43498653 -0.6183844 -0.118052356 -0.94984114 -1.2242732 -0.8306497
0.035877008 -0.06996264 0.314918 0.29989597 -0.19526367 -0.41337395 0.059145987 0.178558
-0.011700366 -0.07327283 -0.0060671405 -0.062343728 0.1196327 -0.46002918 -0.22725113 0.20937838
00000000: 6937 aabe 5a33 a3be a4df 383e b64e 8f3e
00000010: 5c72 32bd 1b49 a3be 7d03 20be f001 3c3e
00000020: 2352 323e d210 b1bd e681 80be b337 79be
00000030: 02bb 0cbf 7ab8 56bd 93b4 673e cfa9 29bd
00000040: 3356 b83d d76d 0a3e dee2 27be 777e 893e
00000050: ed7a dabd 2f72 ce3d e07d a03e 087f 09be
00000060: 3132 623e 673c 813d 7035 babd 24d7 303e
00000070: 2570 d93d 72b7 d4bd 0997 35be f254 b9be
00000080: 203c 423e 5fb5 4c3e 5c65 54bf d6d8 8b3e
00000090: bd62 d83e 9533 8dbc e44e 8b3d 7419 a4be
000000a0: 6c60 c2bc f00c b9be aa4e 07be 7e14 cdbe
000000b0: 4f38 24be 1162 0abd 36ad 023d 0cdf 15bb
000000c0: 1ef8 b9be 69ec 903e 029b 9f3e ffbd 503c
000000d0: a90e 15be 88e3 45be 1493 e8bc a5f2 963c
000000e0: cfca 9e3d 7ef2 f13e e837 bfbe 87ee dabe
000000f0: 5034 953e 4c80 783d 3d14 12be 55e4 72bd
00000100: 8018 293e c6c1 f0bd e0b5 a0bd 54e1 0c3f
00000110: 06f3 07be c758 ac3d b65f 7c3d b6f8 d03e
00000120: f23e 723e 39f4 f2be da27 bf3b 45b6 76be
00000130: c8a4 f33d 33d5 253f f780 68bd ecf8 bfbe
00000140: 172f 983e ccfd 953e 97ef 11be da69 8a3e
00000150: b6ed 593e 1c94 9cbe 257d 15bf 3837 053d
00000160: 97ac 6ebe 6355 0e3e ebe2 f2bd 700b 323e
00000170: 7a43 57be 9442 9b3d 6970 d73e 094f 10bf
00000180: 57bb 1c3d 61d7 863e d8c2 363d c43e 2cbd
00000190: 816d 3b3d 1a6a 21be 41bf 86be 4895 6bbd
000001a0: 4743 333e 5d51 08be 2a42 893d e14a 18bf
000001b0: c6b6 05be 38ba a7bb 5b15 483e 239b f3be
000001c0: 1ed6 1fbd a3e7 9dbd 1755 833d cf89 02bf
000001d0: 7c6f ecbd a8bd f6bd d992 03be 0afb 80be
000001e0: 98eb 053d 3d7a a3bd 7119 13bc 43dd 19be
000001f0: 79f7 063e 15cd 003e 405c 393e 25d7 e03e
00000200: 8463 b0bc a5e5 6cbe 6dad 913c e5a8 cf3d
00000210: e828 083e 6819 8c3e 11da 9b3e 193f c6be
00000220: c5b7 f5bb 982e e0bd 4d77 75be d56a 533e
00000230: 60c5 553e f8c2 243e c517 73bd c42a 883e
00000240: 63c7 51bd adb8 5cbe 1a3e d93e 1b9b 353e
00000250: 3296 bebd df68 a43d bf03 33be 1648 d9be
00000260: 7b34 4b3e dcf9 163d 35cc 793e 2e00 9d36
00000270: 56db 67be 4692 173d 1122 f53e c1f3 b2be
00000280: ba27 a43c 1396 983e 7e55 83bd 3ed7 4ebe
00000290: bfab c7bd 3afd 1b3f eb19 1d3e 6a11 8fbe
000002a0: 81cd 00be 6083 85be c2c3 51be 039a 93be
000002b0: c7f5 6dbe 257d 82be e175 883e 5710 dabd
000002c0: 24d2 a13d d3f6 d4bd 3e1f c0bd 3cec 483e
000002d0: 890e e03d 6e14 e5bd ea10 ab3d 743b 62be
000002e0: 4746 a5bd 64a1 1c3d 367b 123e 0ffc 6b3e
000002f0: 196a bc3c dd40 993e 0577 b7be 548e 0a3e
00000300: abe1 103f 2710 fcbe c629 a2be 63c1 58be
00000310: 2604 adbc 5fe8 5c3e 4b03 80be dd35 8abe
00000320: b6c3 12be 2e42 6ebe 5448 9abe cd53 713d
00000330: 931f 8dbe 7b0c d3bd 14ae e03e 2b93 b1be
00000340: 9671 88be 0fe2 223d 9eaa ef3d 5812 46be
00000350: 1bac d33d b759 bfbc cab7 813e ec3b 84bd
00000360: bba2 953e a8cd c2be 3844 a83e b395 97bd
00000370: c77f 123f 4c99 a13e 8e00 f8bd 2166 0d3e
00000380: 0817 bdbe 60f4 f9bd aa67 a83e 0a7c 2d3d
00000390: 0559 29be cfc7 06bd 269e 983e 5cc4 0b3f
000003a0: 236d c8be 8692 86bd 8eb6 debe 714e 1ebf
000003b0: 6fc5 f1bd ca28 73bf fcb4 9cbf 75a5 54bf
000003c0: c5f3 123d 9348 8fbd ef3c a13e f78b 993e
000003d0: 33f3 47be c0a5 d3be 1043 723d e9d7 363e
000003e0: e4b2 3fbc 1110 96bd ddce c6bb 235c 7fbd
000003f0: fd01 f53d f288 ebbe 85b4 68be 4967 563e

raise_dim.0.attention3.3.bias f4 [32]
0.013310373 -0.015083394 -0.037100583 0.037071005 -0.02955676 -0.0038248831 0.021647722 0.08831341
0.039418727 -0.091258705 0.012773603 -0.0684909 -0.0318767 -0.022542102 -0.01352193 0.017490849
0.07128192 -0.065795705 0.0035936057 -0.00015084856 -0.0411294 -0.037786417 0.012248843 0.046631638
-0.004616807 0.000397201 0.09169969 0.03189431 0.0048239403 0.06245497 -0.060900673 -0.042064574
00000000: c013 5a3c 5720 77bc c8f6 17bd c4d7 173d
00000010: 0521 f2bc e4aa 7abb 9056 b13c a9dd b43d
00000020: 8875 213d d8e5 babd 6048 513c f544 8cbd
00000030: 2591 02bd 37aa b8bc 168b 5dbc f848 8f3c
00000040: 41fc 913d e6bf 86bd b382 6b3b 1a2d 1eb9
00000050: 4d77 28bd eec5 1abd 5faf 483c d100 3f3d
00000060: 9648 97bb 6a3f d039 0ccd bb3d 9ca3 023d
00000070: 2512 9e3b c8d0 7f3d fc72 79bd e74b 2cbd

layers.0.conv1.weight f4 [32, 32, 3, 3]
0.051074218 0.0043985946 -0.07983444 -0.035660375 -0.074052036 -0.004664502 0.050853945 -0.036088053
0.016442697 -0.02934011 -0.11038147 -0.019522704 -0.072085455 -0.13883576 0.0057367724 -0.06013546
-0.0701096 -0.024992254 0.06422032 0.023636162 0.048028957 -0.026222508 -0.04966085 0.014222412
0.074678704 0.05167279 0.030902728 0.0016678564 -0.28196302 0.051204402 -0.268982 -0.21705015
0.11649463 -0.01918075 -0.021864481 0.16579121 0.04632977 -0.021716058 -0.0070114974 0.019339921
0.113613226 0.02447947 0.04020965 0.0668967 -0.0055414527 -0.16606285 0.11917423 0.09719906
0.10669393 0.11854759 0.028517745 0.034668937 0.0048275446 0.1102015 -0.20553707 -0.20524207
0.008080657 -0.29909572 -0.18836084 0.12462621 -0.18967336 -0.13463067 0.014476287 0.17242306
0.2616133 0.30366462 -0.027437825 0.2078391 0.06196915 0.019253608 0.10404826 0.12100875
0.049526352 -0.06472613 -0.020779887 0.019608336 0.05739802 0.0053422987 0.033557273 0.08424234
-0.01621938 -0.2689873 0.083990306 0.1079111 0.052696005 -0.06341183 0.092590354 -0.08880872
0.11286409 0.16507795 -0.21954116 0.107496366 0.011153189 0.0354204 -0.012921423 0.057952102
-0.15503234 -0.023758765 0.084951065 -0.006297463 0.040309254 0.035255656 -0.025127826 0.014998186
0.047933 -0.020312676 0.05950623 -0.027867557 -0.023787547 -0.0094460165 -0.05244786 -0.08122538
-0.1445067 -0.061938006 -0.026019141 0.00942626 0.008066485 0.067304 0.024660902 -0.016716754
0.037237514 0.00852809 0.015561324 -0.0137964375 -0.042302366 -0.073089026 0.052229572 -0.033851437
0.17507459 -0.06233643 -0.06814933 -0.0053673354 -0.05369989 -0.118654855 0.17476952 0.026419982
0.028113576 -0.043508112 -0.05682122 0.0014873336 -0.03665507 0.01740848 -0.01616786 0.041359503
0.00032113827 -0.019597434 -0.06556045 0.026820596 0.034178928 -0.014308914 -0.020217918 0.02757891
-0.029357364 -0.025733626 0.10738805 0.28265715 -0.016942099 0.010842146 0.14270537 -0.049950164
-0.092999205 0.24154945 -0.08760734 -0.021411687 0.06744131 -0.0007007009 0.015144796 0.0059276395
0.0049394094 -0.07013146 0.15581857 -0.057028588 -0.1039718 -0.09834331 0.022399733 -0.04847987
-0.0439027 0.048749443 0.061167426 -0.07042811 -0.02106798 -0.008719418 -0.0871009 -0.06402121
0.07101962 0.042024843 0.0015062514 -0.0066819247 0.022981217 0.058330834 0.058258776 0.024403358
0.063161045 0.0413769 0.1142731 0.01276384 0.056978803 0.008477107 -0.073647395 0.047658928
0.19622655 0.0471531 -0.01454177 0.072902136 -0.0055988873 0.049505413 0.10762967 0.051012285
-0.09841836 -0.008537202 -0.029524593 -0.04770678 -0.06413817 0.017407354 0.03406398 0.0007476133
-0.051322967 -0.060122058 0.0012522894 0.02162809 0.011816584 -0.06311584 -0.049133085 -0.007655508
-0.0071874214 0.05238153 -0.034068927 -0.05418506 0.0013570089 -0.11304916 -0.01517278 -0.06366731
-0.079901166 -0.062145825 -0.27236727 -0.045808624 0.05883006 -0.14680776 -0.12639472 -0.11279357
-0.18233246 -0.0839626 -0.046541095 -0.2491213 -0.053885058 -0.095489725 0.08435065 -0.13895053
-0.02855714 -0.23963249 -0.15119635 -0.06060503 0.064796634 -0.020110564 -0.027044795 0.027406016
00000000: 3333 513d 1622 903b 3d80 a3bd 9d10 12bd
00000010: 98a8 97bd aed8 98bb 3a4c 503d 11d1 13bd
00000020: d6b2 863c ac5a f0bc ae0f e2bd 14ee 9fbc
00000030: 8aa1 93bd f62a 0ebe 89fb bb3b 9a50 76bd
00000040: 9f95 8fbd 8ebc ccbc f185 833d a0a0 c13c
00000050: 03ba 443d 96d0 d6bc 2d69 4bbd 1f05 693c
00000060: 26f1 983d d9a6 533d b827 fd3c f99b da3a
00000070: 755d 90be b5bb 513d 02b8 89be 6542 5ebe
00000080: bd94 ee3d f320 9dbc 241d b3bc 2cc5 293e
00000090: 49c4 3d3d e0e5 b1bc b4c0 e5bb c16e 9e3c
000000a0: 0dae e83d 2b89 c83c e0b2 243d 2301 893d
000000b0: 1395 b5bb 610c 2abe 9e11 f43d 4d10 c73d
000000c0: 5982 da3d 14c9 f23d 0c9e e93c 0401 0e3d
000000d0: 6130 9e3b 53b1 e13d 4f78 52be fa2a 52be
000000e0: bb64 043c 1323 99be aae1 40be 073c ff3d
000000f0: bc39 42be 9fdc 09be f32d 6d3c ac8f 303e
00000100: 2ef2 853e ee79 9b3e 4ac5 e0bc c6d3 543e
00000110: 5dd3 7d3d beb9 9d3c 4117 d53d 6fd3 f73d
00000120: 25dc 4a3d 228f 84bd 953a aabc a9a1 a03c
00000130: 301a 6b3d 730e af3b 5a73 093d 3f87 ac3d
00000140: 81de 84bc b4b8 89be 1c03 ac3d 7f00 dd3d
00000150: c4d7 573d 10de 81bd 03a0 bd3d 59e1 b5bd
00000160: 4a25 e73d 320a 293e 66cf 60be 0e27 dc3d
00000170: debb 363c fb14 113d 60b4 53bc 2f5f 6d3d
00000180: ccc0 1ebe bea1 c2bc d3fa ad3d f35a cebb
00000190: 511b 253d 3c68 103d dfd8 cdbc f4ba 753c
000001a0: 6555 443d c566 a6bc cebc 733d 814a e4bc
000001b0: 1ade c2bc 77c3 1abc 91d3 56bd 7e59 a6bd
000001c0: 90f9 13be b5b2 7dbd 1826 d5bc 9a70 1a3c
000001d0: 4a29 043c aed6 893d a905 ca3c 93f1 88bc
000001e0: 5d86 183d 67b9 0b3c ecf4 7e3c 740a 62bc
000001f0: 3f45 2dbd b3af 95bd adee 553d cea7 0abd
00000200: c146 333e 7c54 7fbd e091 8bbd 79e0 afbb
00000210: 6af4 5bbd 5101 f3bd c8f6 323e b86e d83c
00000220: 714e e63c 9035 32bd 5ebd 68bd a2f2 c23a
00000230: a023 16bd 3b9c 8e3c 7672 84bc 9568 293d
00000240: 735e a839 cc8a a0bc 8f44 86bd deb6 db3c
00000250: 34ff 0b3d ef6f 6abc 0ca0 a5bc 2bed e13c
00000260: db7e f0bc 53cf d2bc 44ee db3d 70b8 903e
00000270: 28ca 8abc 42a3 313c 5b21 123e 8b98 4cbd
00000280: 5e76 bebd bd58 773e 7a6b b3bd 9067 afbc
00000290: ab1e 8a3d 3eaf 37ba e121 783c a53c c23b
000002a0: c5da a13b 15a1 8fbd e78e 1f3e cf96 69bd
000002b0: 2bef d4bd 3868 c9bd a57f b73c d492 46bd
000002c0: 51d3 33bd 7fad 473d b28a 7a3d 9d3c 90bd
000002d0: c296 acbc e4db 0ebc f561 b2bd 8d1d 83bd
000002e0: bc72 913d 3e22 2c3d 696d c53a 0cf4 dabb
000002f0: 1b43 bc3c 50ec 6e3d c1a0 6e3d 8de9 c73c
00000300: 945a 813d d37a 293d 0408 ea3d 6d1f 513c
00000310: 9b62 693d 90e3 0a3c 72d4 96bd 0236 433d
00000320: 9def 483e 9c23 413d 9b40 6ebc b74d 953d
00000330: df76 b7bb 30c6 4a3d f26c dc3d 42f2 503d
00000340: 918f c9bd 9fdf 0bbc 8fdd f1bc 2f68 43bd
00000350: df5a 83bd de99 8e3c ac86 0b3d 7bfb 433a
00000360: 0838 52bd 8c42 76bd dc23 a43a 642d b13c
00000370: 589a 413c e142 81bd c63f 49bd 0edb fabb
00000380: 7684 ebbb 048e 563d dc8b 0bbd 27f1 5dbd
00000390: aadd b13a 5186 e7bd 4097 78bc 0264 82bd
000003a0: 39a3 a3bd 9f8c 7ebd b973 8bbe d3a1 3bbd
000003b0: caf7 703d c654 16be 9e6d 01be 5100 e7bd
000003c0: 5cb5 3abe 95f4 abbd e0a1 3ebd a719 7fbe
000003d0: 94b6 5cbd 1e90 c3bd 09c0 ac3d 0c49 0ebe
000003e0: aaf0 e9bc 3862 75be 37d3 1abe fb3c 78bd
000003f0: 19b4 843d e9be a4bc 0c8d ddbc 9582 e03c

layers.0.conv1.attention1.0.weight f4 [9, 32, 3, 3]
0.16337065 -0.08806658 -0.09247943 0.027260134 0.11387781 -0.037101172 -0.13450634 -0.027397078
0.03391797 -0.010616957 0.15392537 -0.026310306 0.03574656 -0.0551096 -0.01604247 -0.12599406
0.0012677419 -0.019554216 0.110738695 -0.017908555 -0.14461966 -0.0804453 -0.020179776 -0.2337271
-0.05369803 -0.073948905 -0.067920566 -0.28742945 -0.12530741 -0.049177635 -0.20641021 0.26847106
-0.13229842 0.29766777 0.21398109 -0.088604145 -0.13604148 0.06296897 0.07771807 -0.06664169
0.1731186 0.22235435 0.0378723 -0.004287865 -0.018971073 -0.12429558 -0.22937647 -0.021170428
-0.034414344 0.046966553 0.03948107 0.070219815 0.14322585 0.017646747 -0.17676672 -0.2068178
-0.13588826 0.1617567 -0.09512761 -0.07506274 -0.4733106 -0.442875 -0.19041966 0.2086269
0.382671 0.011310402 0.30204514 0.054400485 0.06322985 0.19970517 -0.040556993 -0.111946695
0.18854414 -0.020827336 -0.15589593 -0.006340618 0.07892511 -0.22444288 0.06954238 0.12884283
0.12052591 0.07278909 0.19321552 0.043233097 0.3477615 0.29519793 0.09954393 0.109783664
0.25089714 -0.030449554 0.0780518 0.05919389 -0.028691923 0.062692784 -0.041806556 0.114595376
0.20644379 0.021939276 0.14634414 -0.114292204 0.10756358 0.014761398 -0.09496491 -0.0317181
0.05504751 -0.056293994 -0.033630367 -0.029497163 0.028062629 -0.0064220447 -0.050656196 0.12706204
0.058519278 0.04133153 -0.06610374 -0.042299047 0.15205325 -0.24579926 -0.13117683 0.01806761
-0.16289072 -0.27314585 -0.12528975 0.16167922 0.06548155 0.13788871 0.073962875 -0.039301604
-0.07156754 0.15771908 0.06628989 0.049044 0.18480115 0.022341898 0.122074835 0.06751719
-0.116024576 0.03879236 0.05297681 0.038156286 0.06662421 -0.11279917 -0.0812495 -0.1259854
-0.06681016 -0.0951692 -0.014378285 0.10994453 0.06722126 0.0036958875 0.12900646 0.024811616
0.10117371 -0.13277392 -0.011075549 -0.29960826 -0.06795802 -0.09675491 -0.28623033 -0.15447953
-0.113987945 -0.3709951 0.02511733 -0.062676795 -0.22140235 -0.027619483 -0.007201979 -0.04372239
-0.04939961 0.05174174 -0.08834001 0.0062573156 -0.007763868 0.023643943 -0.0686667 -0.011293226
0.0866272 -0.018714938 0.04534245 -0.121756256 0.025037188 0.05056888 -0.1427788 0.13110796
0.16569555 -0.0035282364 0.009893832 0.11520668 -0.10115811 0.069141716 -0.19569106 0.014109177
0.007941378 -0.08134669 0.0022015357 -0.09643667 -0.0050306097 -0.04765769 -0.047105495 -0.029432522
-0.14584443 -0.083840206 0.0468616 0.012985725 0.08126859 -0.002898194 -0.10147575 0.105010115
0.008863352 0.14253667 -0.04398143 0.14453207 -0.09996128 -0.20294859 -0.08185083 0.03758235
0.12394512 0.06927759 0.036328282 0.023624595 0.13050726 0.15207349 -0.06925927 0.09101872
0.02632201 0.04072926 -0.093311556 -0.066038325 0.07234247 -0.022150798 0.0822391 0.030703261
0.06397438 0.06441363 -0.37530437 -0.29484907 0.12791882 0.11407062 0.06558144 0.32127798
0.10849226 -0.0070789857 0.19948725 -0.07385294 -0.07700532 -0.14507811 -0.15064158 0.028660124
0.18059021 0.16880329 -0.19094312 0.15514505 0.0014014749 -0.0299859 0.03729665 -0.14254144
00000000: a34a 273e 405c b4bd db65 bdbd a550 df3c
00000010: c538 e93d 66f7 17bd 08bc 09be d66f e0bc
00000020: 92ed 0a3d bff2 2dbc 9d9e 1d3e b688 d7bc
00000030: fc6a 123d 9bba 61bd 7f6b 83bc 9604 01be
00000040: 5c2a a63a 2a30 a0bc f8ca e23d f6b4 92bc
00000050: 2d17 14be 81c0 a4bd 0f50 a5bc 2856 6fbe
00000060: 77f2 5bbd 8672 97bd f019 8bbd f429 93be
00000070: 9650 00be 7d6e 49bd 335d 53be 0a75 893e
00000080: 3d79 07be e967 983e dc1d 5b3e 1776 b5bd
00000090: 754e 0bbe e0f5 803d a72a 9f3d 707b 88bd
000000a0: 0146 313e dcb0 633e fc1f 1b3d 3881 8cbb
000000b0: 3969 9bbc ae8e febd aae1 6abe 9b6d adbc
000000c0: 0ef6 0cbd 0060 403d e7b6 213d 68cf 8f3d
000000d0: cca9 123e e98f 903c 5602 35be 0cc8 53be
000000e0: 4b26 0bbe 8ca3 253e 44d2 c2bd 7eba 99bd
000000f0: c455 f2be 83c0 e2be 5ffd 42be 4aa2 553e
00000100: 74ed c33e 444f 393c a9a5 9a3e 0bd3 5e3d
00000110: a77e 813d 837f 4c3e 171f 26bd 4f44 e5bd
00000120: b711 413e 179e aabc 2fa3 1fbe f5c4 cfbb
00000130: 7da3 a13d 5bd4 65be 3c6c 8e3d 60ef 033e
00000140: 4ad6 f63d 7212 953d 4ada 453e 3015 313d
00000150: cc0d b23e 2f24 973e b0dd cb3d 42d6 e03d
00000160: 9775 803e 5871 f9bc 9fd9 9f3d 4b75 723d
00000170: 530b ebbc 1365 803d 5a3d 2bbd fbb0 ea3d
00000180: 0066 533e ffb9 b33c 3ddb 153e 0812 eabd
00000190: 4b4a dc3d cad9 713c f67c c2bd d7ea 01bd
000001a0: 7f79 613d 8894 66bd ffbf 09bd 09a4 f1bc
000001b0: 99e3 e53c 0470 d2bb df7c 4fbd 8d1c 023e
000001c0: e9b1 6f3d 404b 293d 6661 87bd c441 2dbd
000001d0: d9b3 1b3e cdb2 7bbe 3853 06be 8602 943c
000001e0: d3cc 26be c6d9 8bbe f54b 00be 3d8f 253e
000001f0: 311b 863d b332 0d3e d979 973d b8fa 20bd
00000200: 0192 92bd 1c81 213e fec2 873d 5de2 483d
00000210: 833c 3d3e 5b06 b73c 5f02 fa3d 7446 8a3d
00000220: 4b9e edbd bde4 1e3d 36fe 583d c449 1c3d
00000230: 4672 883d 4003 e7bd 2366 a6bd 5102 01be
00000240: c4d3 88bd 12e8 c2bd e692 6bbc 992a e13d
00000250: 4dab 893d b436 723b 451a 043e bb41 cb3c
00000260: 2934 cf3d e3f5 07be 3876 35bc 4166 99be
00000270: 932d 8bbd 7027 c6bd c88c 92be e22f 1ebe
00000280: 8372 e9bd 12f3 bdbe dcc2 cd3c b15c 80bd
00000290: 4cb7 62be 4142 e2bc 94fe ebbb 4016 33bd
000002a0: 3f57 4abd 26ef 533d 9beb b4bd 2b0a cd3b
000002b0: 0c68 febb f1b0 c13c 20a1 8cbd 3907 39bc
000002c0: 9a69 b13d 1250 99bc 01b9 393d 585b f9bd
000002d0: ca1a cd3c 5021 4f3d 9b34 12be 2a41 063e
000002e0: 18ac 293e fc39 67bb bd19 223c 7bf1 eb3d
000002f0: fc2b cfbd 2c9a 8d3d 3d63 48be 2d2a 673c
00000300: 8e1c 023c 1899 a6bd a447 103b 9780 c5bd
00000310: d0d7 a4bb b634 43bd b1f1 40bd 791c f1bc
00000320: 3e58 15be 6ab4 abbd f3f1 3f3d 14c2 543c
00000330: 2670 a63d a0ef 3dbb 85d2 cfbd 8b0f d73d
00000340: 9837 113c 22f5 113e df25 34bd 3700 143e
00000350: 80b8 ccbd c1d1 4fbe 68a1 a7bd f3ef 193d
00000360: f0d6 fd3d 69e1 8d3d f7cc 143d 5e88 c13c
00000370: b2a3 053e 27b9 1b3e ced7 8dbd 0668 ba3d
00000380: 42a1 d73c b9d3 263d 211a bfbd 1a3f 87bd
00000390: 4a28 943d 9775 b5bc f96c a83d 6885 fb3c
000003a0: 0005 833d 4beb 833d e527 c0be 75f6 96be
000003b0: 27fd 023e db9d e93d 904f 863d 8c7e a43e
000003c0: 3131 de3d d6f6 e7bb 6346 4c3e 3640 97bd
000003d0: f7b4 9dbd 5b8f 14be c941 1abe a3c8 ea3c
000003e0: a4ec 383e c5da 2c3e 9886 43be 58de 1e3e
000003f0: b2b1 b73a fda4 f5bc 5fc4 183d 62f6 11be

layers.0.conv1.attention1.0.bias f4 [9]
0.18491057 0.09624252 0.16574898 0.069414206 0.15029287 0.018396623 -0.02391336 0.14581212
0.14763947
00000000: 3259 3d3e cc1a c53d 1aba 293e 0929 8e3d
00000010: 60e6 193e 84b4 963c f3e5 c3bc c64f 153e
00000020: cd2e 173e

layers.0.conv1.attention1.2.weight f4 [9, 9, 1, 1]
0.43977612 -0.06437608 -0.24221107 -0.41024694 0.05030617 0.116250336 1.0676827 0.057436608
0.6724211 0.07400864 0.4037051 0.55094224 0.14715783 -0.65556663 0.7826995 0.3250978
-0.41329372 0.83553904 1.0860609 0.38735896 0.4974963 0.18221973 -0.806664 -0.20531541
-1.4201887 0.40685958 1.2314136 -0.17941596 -0.60911435 1.2659608 -0.49763188 0.7957967
-0.29022008 -0.39937714 0.15291977 -0.52704924 0.07561625 -0.13008484 0.4676128 -0.10103529
0.2287846 0.7754766 0.10385437 -0.9619029 -0.98429346 0.6356989 0.44083613 -0.34699085
-0.89553547 0.14994088 -0.0896971 0.49655616 -0.6918499 0.14570212 0.4156458 1.568708
0.23565905 0.24168004 0.3003031 -0.07924365 -0.690122 1.0741019 0.19072425 0.087185174
-0.42956722 -0.104327485 -0.23697427 0.004999662 -0.47270063 0.7371559 0.31801534 0.2389376
0.004443015 -0.018049194 0.5172457 0.4819207 0.47948724 -0.9500588 -0.2833686 -0.044234365
-0.6486792
00000000: 562a e13e 9bd7 83bd 2e06 78be e30b d2be
00000010: d80d 4e3d a814 ee3d d4a9 883f a642 6b3d
00000020: ca23 2c3f d891 973d 6fb2 ce3e 8d0a 0d3f
00000030: 8bb0 163e 37d3 27bf ff5e 483f 3873 a63e
00000040: 3c9b d3be e3e5 553f 0b04 8b3f ea53 c63e
00000050: d6b7 fe3e cf97 3a3e 8881 4ebf 343e 52be
00000060: bec8 b5bf e64f d03e f69e 9d3f d1b8 37be
00000070: ebee 1bbf 010b a23f 9bc9 febe 55b9 4b3f
00000080: ba97 94be 297b ccbe 0097 1c3e b3ec 06bf
00000090: b1dc 9a3d f634 05be f26a ef3e 97eb cebd
000000a0: 8346 6a3e a285 463f 9ab1 d43d 453f 76bf
000000b0: a8fa 7bbf 2abd 223f 46b5 e13e c9a8 b1be
000000c0: d041 65bf 1a8a 193e 1db3 b7bd 9c3c fe3e
000000d0: 131d 31bf f032 153e 87cf d43e 6ccb c83f
000000e0: 9b50 713e f97a 773e 54c1 993e 7f4a a2bd
000000f0: d6ab 30bf 2c7c 893f 384d 433e 248e b23d
00000100: 3cf0 dbbe a6a9 d5bd 62a9 72be 34d4 a33b
00000110: d105 f2be 40b6 3c3f e8d2 a23e 0fac 743e
00000120: b696 913b e7db 93bc 376a 043f 4fbe f63e
00000130: 5a7f f53e 0e37 73bf b015 91be 182f 35bd
00000140: d70f 26bf

layers.0.conv1.attention1.2.bias f4 [9]
-0.12154447 0.1321038 0.095679455 0.014664108 0.112440854 -0.24412304 0.06463834 0.027804421
0.11233701
00000000: 4fec f8bd 3846 073e 97f3 c33d ba41 703c
00000010: 6447 e63d 64fb 79be 1b61 843d 19c6 e33c
00000020: f210 e63d

layers.0.conv1.attention1.4.weight f4 [9, 9, 1, 1]
-0.1718823 -1.6028261 -0.03249098 0.7429787 -0.3146212 -0.07054544 0.27113616 0.19922814
-0.34859523 0.2128153 -0.04930265 0.3013897 -0.6602646 -0.15676369 -0.009621253 -0.15927665
0.7619983 -0.43904054 0.053759072 -0.33452594 -0.59040505 0.346535 -0.36276904 1.404354
0.35713494 -0.15212618 0.018794646 -0.5579546 -0.3288196 0.61598074 -0.5540901 -0.35499904
-1.0452117 -0.18056798 -0.47548813 -0.2302576 0.39859933 0.38452154 2.6541364 0.43670213
0.57346725 -0.18942183 0.9887929 0.44767645 -0.034896087 -0.2727222 0.3805456 0.15395372
0.15714675 -0.06420907 0.97047323 0.66532385 0.0010668337 0.31079638 0.1167946 -0.6644744
0.48003948 -0.43751594 -1.3816509 0.39888024 -0.5270139 -0.8481093 -0.02439318 -0.052054957
-0.30111057 -0.39998287 -0.2064382 -0.08168593 -0.87805897 1.0105934 0.73295003 1.3197902
-0.49798808 -0.45267367 -0.34638998 0.113316685 0.3311827 -1.2015029 0.011770798 0.14764681
0.21579897
00000000: ea01 30be 6829 cdbf 4315 05bd da33 3e3f
00000010: 0816 a1be 217a 90bd 5cd2 8a3e 7602 4c3e
00000020: 137b b2be 41ec 593e 93f1 49bd c04f 9a3e
00000030: 1a07 29bf a986 20be 76a2 1dbc 6b19 23be
00000040: 5212 433f ecc9 e0be 7932 5c3d fc46 abbe
00000050: c924 17bf 096d b13e ddbc b9be dfc1 b33f
00000060: 64da b63e f7c6 1bbe 3bf7 993c 1dd6 0ebf
00000070: 0b5b a8be eab0 1d3f d9d8 0dbf 6fc2 b5be
00000080: 7fc9 85bf d0e6 38be 2e73 f3be a6c8 6bbe
00000090: 3615 cc3e 02e0 c43e 5fdd 2940 6c97 df3e
000000a0: c0ce 123f ccf7 41be 8821 7d3f d935 e53e
000000b0: 33ef 0ebd 3fa2 8bbe dfd6 c23e 0ba6 1d3e
000000c0: 14eb 203e 0b80 83bd ef70 783f aa52 2a3f
000000d0: 00d5 8b3a b420 9f3e 0232 ef3d ff1a 2abf
000000e0: bcc7 f53e 1702 e0be f0d9 b0bf 083a cc3e
000000f0: 62ea 06bf b11d 59bf 35d4 c7bc 9437 55bd
00000100: 2a2b 9abe 8eca ccbe 8964 53be f44a a7bd
00000110: 79c8 60bf 205b 813f 9da2 3b3f e3ee a83f
00000120: 4bf8 febe d8c4 e7be 075a b1be 9412 e83d
00000130: c790 a93e d9ca 99bf 4eda 403c ba30 173e
00000140: 68fa 5c3e

layers.0.conv1.attention1.4.bias f4 [9]
-0.023560604 -0.12670241 -0.12293325 -0.19196601 0.3710964 -0.020187564 -0.13238545 0.069392286
-0.19916636
00000000: 2b02 c1bc 47be 01be 6ec4 fbbd bd92 44be
00000010: 5900 be3e 6460 a5bc 0d90 07be 8b1d 8e3d
00000020: 44f2 4bbe
