weights/BWNET_LAGConv_T2/model_epoch_770.pth (torch, 678374 bytes, 141 tensors)

raise_dim.0.weight f4 [32, 9, 3, 3]
0	0xbca072f5	-0.019586066
1	0xbb5e888c	-0.00339559
2	0x3cb65e86	0.02226187
3	0x3d9b282c	0.075760216
4	0x3d99bc39	0.07506604
5	0x3d589dfa	0.052885033
6	0x3dd567ab	0.10420164
7	0x3d1982e3	0.03747834
8	0x3e251b24	0.16123635
9	0xbe15abd0	-0.14616323
10	0xbd3ac75c	-0.04560028
11	0x3c939df2	0.01801965
12	0x3d29ad55	0.041425068
13	0xbd940d6a	-0.07229121
14	0xbd89db64	-0.067312986
15	0xbe04101b	-0.12896769
16	0xbdc942e1	-0.09827209
17	0x3d32fb04	0.04369642
18	0xbe03f863	-0.12887721
19	0xbdb54064	-0.08850172
20	0x3c033f0d	0.008010638
21	0x3d286075	0.041107614
22	0xbe338079	-0.17529477
23	0x3cd5d0e1	0.026100578
24	0xbbf9a9a5	-0.0076191
25	0x3deee270	0.11664283
26	0xbc83318c	-0.016014837
27	0x3c3b557d	0.011433956
28	0xbd932baa	-0.07186063
29	0x3c5f86d2	0.0136429835
30	0xbd4371f3	-0.047716092
31	0xbe33ec67	-0.17570649
32	0xb9bf2374	-0.00036456774
33	0xbdd9ff40	-0.10644388
34	0x3b9a9424	0.004717367
35	0x3cb973fb	0.022638312
36	0xbde7276f	-0.11286818
37	0xbe087187	-0.13324557
38	0xbd9b544d	-0.075844385
39	0x3d0fc27c	0.035097584
40	0xbd88b878	-0.066758096
41	0x3e022682	0.12710002
42	0x3d9b46fa	0.07581897
43	0x3b92f6b8	0.0044849776
44	0xbae7c887	-0.0017683663
45	0xbc2c564d	-0.010518623
46	0xbe04850a	-0.12941375
47	0xbd8e81f5	-0.06958381
48	0xbc1034ab	-0.0088016195
49	0xbcb6cb56	-0.022313755
50	0x3d9352ec	0.071935505
51	0xbd9967fc	-0.074905366
52	0x3d1c724a	0.038194932
53	0x3d6f66b5	0.05844756
54	0x3d52fe8d	0.05151229
55	0xbd627d6f	-0.055295404
56	0x3c1ee1e7	0.009697414
57	0xbc5c4f9f	-0.0134467175
58	0x3d7f309a	0.06230221
59	0x3e4f12be	0.20221993
60	0x3e34432a	0.17603746
61	0x3dc5e08f	0.09661972
62	0x3db2f97c	0.087389916
63	0xbe054a36	-0.1301659
64	0xbdf70cf5	-0.12063018
65	0xbd5d688d	-0.054054786
66	0xbdaa36d4	-0.08311239
67	0x3bb57a51	0.005538263
68	0x3de46919	0.11152858
69	0xbd47db63	-0.048793208
70	0xbc0838e4	-0.008314345
71	0xbd9bc02e	-0.07605015
72	0xbda39aa5	-0.079884805
73	0xbc3a827b	-0.011383648
74	0x3db97877	0.0905618
75	0xbdfb2eb1	-0.12264765
76	0xbddd9827	-0.108200364
77	0x3da4c008	0.080444396
78	0x3e0e9c76	0.13926873
79	0x3d9c5749	0.07633836
80	0x3da7a1bd	0.08185146
81	0xbd82ddb6	-0.06389944
82	0xbdad5cdf	-0.084649794
83	0x3cf8cdff	0.030371664
84	0x3de680a8	0.11255008
85	0xbd11d54c	-0.035603806
86	0xbdbc9ecd	-0.09209976
87	0xbd79279c	-0.06082879
88	0xbd595c34	-0.053066447
89	0xbd9028d9	-0.07039041
90	0x3e1d6213	0.15369444
91	0xbdc1f66e	-0.09470831
92	0x3dab48eb	0.083635174
93	0x3cdd3cdc	0.02700656
94	0x3d99268c	0.07478055
95	0xbc6e1ae4	-0.014532778
96	0x3da35894	0.07975879
97	0xbe0cf59d	-0.13765569
98	0xbde0e527	-0.10981207
99	0x3d7308d1	0.05933458
100	0x3dba480a	0.090957716
101	0xbc943d44	-0.01809562
102	0x3de16d53	0.1100718
103	0x3d6bb8fa	0.057549454
104	0xbde3f029	-0.11129791
105	0x3d8f9443	0.070107006
106	0xbcb94a32	-0.022618387
107	0x3da01fc7	0.07818561
108	0x3db48c25	0.08815793
109	0x3d8f6ab6	0.07002775
110	0x3d660b88	0.05616334
111	0xbd69ffef	-0.057128843
112	0xbd619f52	-0.05508358
113	0xbd4ac093	-0.04950006
114	0x3d9ef66d	0.07761846
115	0xbdcaa248	-0.09894234
116	0x3da5eb9f	0.08101582
117	0x3d0e44f3	0.034733724
118	0xbd57368c	-0.052542254
119	0x3d537730	0.051627338
120	0x3e393213	0.18085508
121	0x3dd34c8b	0.10317334
122	0xbd844f08	-0.064603865
123	0x3dc1e53b	0.0946755
124	0xbd892ca2	-0.06697966
125	0x3d857e8b	0.06518277
126	0x3e1766bd	0.14785285
127	0x3d32e89f	0.043678876
128	0xbd711e5a	-0.058866836
129	0x3e607394	0.2191909
130	0x3da111b3	0.07864704
131	0xbd79c65d	-0.06098019
132	0x3e4414cb	0.19148557
133	0x3cb538af	0.022121755
134	0x3dc7ff4b	0.0976549
135	0x3dd51f8f	0.1040641
136	0xbd6dfa33	-0.058099937
137	0xbdbe5faa	-0.0929559
138	0x3e1c0ff7	0.15240465
139	0x3d4ba8ca	0.049721517
140	0xbd3c8792	-0.046027727
141	0x3d00a35b	0.031405788
142	0xbdf6b998	-0.12047118
143	0xbcbce243	-0.023057109
144	0xbdbfe10e	-0.09369098
145	0xbdecdb8b	-0.11565312
146	0xbe1de0ab	-0.15417735
147	0x3db5fa71	0.088856585
148	0xbda5ce65	-0.08096007
149	0xbda525b2	-0.080638304
150	0x3c79c330	0.01524429
151	0x3cf1265a	0.029437233
152	0x3c801023	0.015632695
153	0xbdb7e4e3	-0.089792036
154	0xbc5d1269	-0.013493159
155	0xbe14d907	-0.14535914
156	0xbabb97de	-0.0014312228
157	0xbda94d3c	-0.082666844
158	0xbe5573ef	-0.20845006
159	0x3c80ec2e	0.01573762
160	0xbe376fba	-0.17913714
161	0xbb237a16	-0.0024944595
162	0x3d910440	0.07080889
163	0xbd87ce80	-0.066311836
164	0xbdec4f2e	-0.1153854
165	0xbd895260	-0.06705165
166	0xbd9175d2	-0.071025506
167	0xbe185c5c	-0.14878982
168	0x3d64743b	0.05577491
169	0x3d4a2c28	0.049358517
170	0x3d2d94cc	0.042378232
171	0x3d031c6d	0.03200953
172	0xbd45771c	-0.048209295
173	0xbd96f035	-0.073700346
174	0xbba20e7e	-0.0049455753
175	0x3d66be04	0.056333557
176	0xbe34edb9	-0.17668809
177	0xbd693bde	-0.05694186
178	0x3d51160f	0.051046427
179	0xbdf4b7fa	-0.11949153
180	0xbd32d3bf	-0.043658968
181	0xbdab960a	-0.08378227
182	0xbd70b1ae	-0.0587632
183	0xbdb35ffa	-0.087585405
184	0xbd34fdf4	-0.0441875
185	0xbe0eb45f	-0.13935994
186	0xbc8d31d1	-0.017235668
187	0x3e072dfd	0.13201137
188	0xbd9b0e97	-0.07571142
189	0x3d0addb0	0.033902824
190	0xbe0bede5	-0.13664968
191	0x3c3e6263	0.011620137
192	0xbd20cde9	-0.03925887
193	0xbd9848cb	-0.07435759
194	0xbd617dae	-0.055051498
195	0x3dd85eaa	0.10564931
196	0xbc6e1706	-0.014531856
197	0x3dc785da	0.09742327
198	0x3ca2e637	0.019885166
199	0xbd46dd0b	-0.048550647
200	0x3ba85878	0.0051374994
201	0x3e20216c	0.1563775
202	0x3e1ef0e8	0.15521586
203	0xbd3922d1	-0.04519922
204	0xbc485200	-0.012226582
205	0x3ce77351	0.02825323
206	0xbd8eceac	-0.06973013
207	0xbdd295b3	-0.10282459
208	0xbcdbed66	-0.026846599
209	0xbdd982a0	-0.10620618
210	0xbe0667d8	-0.13125551
211	0xbdb1b909	-0.08677871
212	0xbe5dd149	-0.21661867
213	0x3d8e6c09	0.069542
214	0xbd8c3151	-0.06845344
215	0xbdd4eb55	-0.103964485
216	0x3c6faa87	0.014628059
217	0x3cfc2860	0.030780971
218	0xbdc79a83	-0.09746268
219	0x3ddc49c3	0.107562564
220	0xbce061b1	-0.027390333
221	0xbe2b9ebe	-0.16759774
222	0x3e09de36	0.13463673
223	0x3c539d62	0.012915941
224	0x3dc44774	0.09583941
225	0x3d77e521	0.06052125
226	0xbdf53777	-0.1197347
227	0xbdb4bfa1	-0.08825613
228	0xbd0bd05d	-0.034134258
229	0xbd351653	-0.044210743
230	0xbe0b5ed5	-0.13610394
231	0x3da171c8	0.0788303
232	0xbcbd7a1e	-0.02312952
233	0xbdbaadaa	-0.09115155
234	0xbdfddd7d	-0.12395761
235	0xbd9cbcac	-0.07653174
236	0xbd8aad23	-0.067713045
237	0xbdc91504	-0.098184615
238	0xbdaacee1	-0.0834024
239	0xbde24e2d	-0.11050067
240	0x3dcb37a6	0.099227235
241	0xbdb8138e	-0.08988105
242	0xbd8b6364	-0.06806067
243	0xbe28a828	-0.16470397
244	0x3d381301	0.04494
245	0xbe8c7174	-0.27430308
246	0x3e16b820	0.14718676
247	0x3eaf9495	0.34293047
248	0x3e88ca88	0.2671702
249	0xbde757aa	-0.112960175
250	0x3e0f3923	0.1398664
251	0xbee70edc	-0.45128524
252	0x3c39594d	0.011312795
253	0x3de75273	0.11295023
254	0xbbd20f53	-0.006410518
255	0xbd366c8e	-0.04453712

raise_dim.0.attention1.0.weight f4 [9, 9, 3, 3]
0	0xbe05670a	-0.13027588
1	0x3e71e7d2	0.23623589
2	0xbd651952	-0.05593235
3	0x3d117bf3	0.035518598
4	0x3eb0e91a	0.34552842
5	0x3d931f52	0.07183708
6	0xbd19e52e	-0.03757208
7	0x3eeb3a38	0.45942855
8	0x3c8ef144	0.017449029
9	0x3e46bd64	0.19408184
10	0x3ebd6b99	0.36996153
11	0x3f0fe6b0	0.56211376
12	0x3e89a03a	0.26880056
13	0x3e79d16f	0.24396299
14	0x3e72473f	0.2365999
15	0x3e30ce24	0.17266136
16	0x3e02a530	0.12758327
17	0x3ea65c3c	0.32492244
18	0x3ca4e321	0.020127835
19	0xbe063597	-0.1310638
20	0xbe0a8e8f	-0.13530944
21	0x3c2e11d1	0.010624365
22	0xbebe0f66	-0.37121123
23	0xbe07ecbe	-0.13273904
24	0x3d5e54b0	0.054279983
25	0x3a76d6f9	0.00094161887
26	0x3eb01955	0.34394327
27	0x3eacd039	0.3375261
28	0xbdb06366	-0.08612709
29	0xbdee5241	-0.116367824
30	0xbe67e9c4	-0.22647768
31	0xbc5752dc	-0.013142314
32	0xbc6e7c38	-0.014555983
33	0x3cc54374	0.024080016
34	0xbe247fd8	-0.16064394
35	0xbeeafe4b	-0.45897135
36	0x3dd601f1	0.10449589
37	0xbd7e563a	-0.06209395
38	0x3e4b63ac	0.1986224
39	0x3e8ceb5b	0.27523312
40	0xbdc8a31f	-0.09796738
41	0x3e85f53e	0.26163667
42	0x3d4ad18b	0.049516242
43	0xbd5c7625	-0.05382361
44	0x3f0af6f9	0.542831
45	0x3c7ca6d5	0.015420635
46	0xbd9227c3	-0.0713649
47	0x3ca92519	0.020647572
48	0xbe88a83c	-0.26690853
49	0xbebd199c	-0.369336
50	0xbdfc0603	-0.12305834
51	0x3d80a270	0.062809825
52	0xbed56f4b	-0.41686472
53	0xbdbe8446	-0.09302573
54	0xbd27a324	-0.040927067
55	0x3c5dc3ac	0.013535421
56	0x3e46c205	0.1940995
57	0xbe15ea1f	-0.14640091
58	0xbe624fc5	-0.22100742
59	0x3e636a20	0.22208452
60	0x3db2135c	0.08695099
61	0xbe1c6a01	-0.15274812
62	0x3eaa602c	0.33276498
63	0xbdc1fc00	-0.09471893
64	0xbed0025e	-0.40626806
65	0xbee654a2	-0.44986445
66	0xbc238e52	-0.009982662
67	0xbebb7a1e	-0.36616606
68	0xbeff4eca	-0.498648
69	0x3e73889e	0.23782584
70	0xbe999c79	-0.30002192
71	0xbe80bdd8	-0.2514484
72	0xbd694251	-0.05694801
73	0xbd343322	-0.043994077
74	0x3ef38a88	0.47566628
75	0x3dff1ccb	0.12456664
76	0xbd82a4ad	-0.06379066
77	0x3e0313d2	0.1280053
78	0xbe054127	-0.13013135
79	0x3deb2513	0.11481681
80	0x3d79a44b	0.060947698
81	0xbe3d0edb	-0.18462698
82	0xbe931760	-0.2872877
83	0xbebe588a	-0.37176925
84	0xbe612be3	-0.21989398
85	0xbe010ad6	-0.1260179
86	0x3e1fcd39	0.1560563
87	0x3d8ffbb5	0.07030431
88	0xbf05f7a9	-0.52331024
89	0x3bd812ae	0.0065940237
90	0x3e8a8bed	0.2705988
91	0xbd500613	-0.050787043
92	0xbe895a28	-0.26826596
93	0x3d3bba0a	0.045831718
94	0xbd798f6c	-0.060927793
95	0xbdc5cc27	-0.096580796
96	0x3c49125f	0.012272446
97	0xbdfb1bd0	-0.12261164
98	0x3d1e7aaa	0.0386912
99	0xbe909bc7	-0.2824385
100	0x3d991496	0.074746296
101	0x3d8c7329	0.068579026
102	0x3b286c44	0.0025699297
103	0xbec8d870	-0.3922763
104	0xbe5dd97d	-0.21664996
105	0xbdf1bc66	-0.11803512
106	0xbcf7f62b	-0.03026875
107	0xbcb1a59b	-0.021685412
108	0x3d61a2c6	0.055086873
109	0xbd89de6d	-0.067318775
110	0xbeb9f640	-0.36320686
111	0x3cd613d3	0.0261325
112	0xbc478964	-0.012178753
113	0x3da83dcb	0.08214911
114	0x3ddce537	0.10785907
115	0xbe88735a	-0.26650506
116	0x3c801570	0.015635222
117	0x3ec13dea	0.3774255
118	0x3ca27af7	0.019834025
119	0x3d29e835	0.041481216
120	0x3e991864	0.2990142
121	0x3e6607d1	0.22463919
122	0xbd2d2768	-0.04227391
123	0xbe8f6d9b	-0.2801331
124	0xbdef15b9	-0.11674065
125	0x3c02ebce	0.0079907905
126	0x3ceeefec	0.029167138
127	0xbe1ece2f	-0.1550834
128	0xbd8fe5f9	-0.07026286
129	0x3b1fabaa	0.0024363794
130	0x3e1d0740	0.15334797
131	0x3e5edd54	0.21764117
132	0xbe0279ba	-0.12741747
133	0xbd9879f3	-0.07445135
134	0xbe69acc7	-0.22819816
135	0xbc6a08fc	-0.014284369
136	0xbe2ec568	-0.17067492
137	0x3d892aaa	0.06697591
138	0x3e5fddfc	0.21862024
139	0xbd20612c	-0.03915517
140	0xbe617148	-0.2201587
141	0x3bc9e12b	0.0061608753
142	0xbdf0f0f1	-0.11764706
143	0xbebf4ef4	-0.37364924
144	0x3d2ea001	0.04263306
145	0x3d8cc6d3	0.0687386
146	0x3e7c7eae	0.246577
147	0x3e953243	0.2913991
148	0x3eac9ff8	0.33715796
149	0x3e80c3bb	0.2514933
150	0xbd0923ff	-0.033481594
151	0xbec37a67	-0.38179323
152	0xbe6c7597	-0.23091732
153	0xbe6eaead	-0.23308821
154	0x3d96dc7a	0.07366271
155	0x3e0b82b5	0.1362408
156	0xbdc784c3	-0.09742119
157	0x3e2f2d7f	0.17107199
158	0x3e89490a	0.26813537
159	0xbef95b11	-0.4870229
160	0xbe8b9e94	-0.27269423
161	0xbe27bab5	-0.16379817
162	0x3c3248c2	0.010881605
163	0x3dea538a	0.11441715
164	0x3d1c7b4f	0.038203534
165	0x3e2aee00	0.16692352
166	0x3e3003d6	0.17188963
167	0x3e04d3af	0.12971376
168	0x3d772304	0.060336128
169	0x3d82b388	0.06381899
170	0x3e1fae94	0.1559394
171	0x3e60e985	0.2196408
172	0xbe1660ae	-0.14685318
173	0x3e0f4af4	0.13993436
174	0xbe4eb1cd	-0.20185013
175	0xbdf0f2d5	-0.117650665
176	0xbdd73e78	-0.10509962
177	0xbd8dccc7	-0.06923824
178	0xbe317761	-0.17330696
179	0xbe3189cf	-0.17337726
180	0x3e3c8cff	0.1841316
181	0xbc8434a4	-0.016138382
182	0x3b0a9da4	0.002115109
183	0xbea03f17	-0.31298134
184	0x3cddfaa9	0.027097063
185	0xbea3b9cf	-0.31977698
186	0xbc9f94b1	-0.019480081
187	0x3de38c0a	0.11110695
188	0xbe6a57e0	-0.22885084
189	0xbcd809d4	-0.026371874
190	0xbcb37dd4	-0.021910585
191	0x3d45d989	0.04830316
192	0xbdbf57d7	-0.09342926
193	0xbdd0522b	-0.10171922
194	0x3deb358c	0.11484823
195	0xbd89a36a	-0.06720622
196	0xbdd4846c	-0.1037682
197	0xbda416c7	-0.08012157
198	0xbe2d8465	-0.16945036
199	0xbe312939	-0.17300881
200	0x3e9a75c6	0.3016798
201	0xbcc0de65	-0.023543546
202	0xbc7f6250	-0.015587404
203	0xbe2a74f4	-0.16646177
204	0x3cdb2361	0.026750268
205	0xbdd33a1f	-0.1031382
206	0x3e0ce050	0.13757443
207	0x3eaae03c	0.33374202
208	0x3cf680ae	0.030090656
209	0x3dc975a1	0.09836889
210	0xb897fee3	-7.2477174e-05
211	0xbb8fca67	-0.004388142
212	0xbe9ae97f	-0.30256268
213	0x3d19bf1e	0.03753578
214	0x3e523a7e	0.20530125
215	0x3e2b1897	0.16708599
216	0x3e85dce4	0.2614509
217	0x3d87262a	0.06599076
218	0x3ba542af	0.0050433497
219	0xbe4b8e18	-0.19878423
220	0x3dd140d2	0.102174416
221	0xbe0493a1	-0.12946941
222	0xbc6423ec	-0.01392458
223	0x3e0c29d9	0.13687839
224	0x3d4d6af2	0.05015082
225	0xbd33af21	-0.043868188
226	0x3d82e9bf	0.0639224
227	0xbe17665b	-0.1478514
228	0xbde1f95c	-0.1103389
229	0xbe430193	-0.1904357
230	0xbe308a8b	-0.1724035
231	0x3e2fb580	0.1715908
232	0xbe4d46d9	-0.20046557
233	0xbe3d0606	-0.18459329
234	0xbd84e5ec	-0.064891666
235	0xbe48d2c7	-0.19611655
236	0xbd2d37ee	-0.042289667
237	0xbe8d63d6	-0.2761523
238	0xbe9e1257	-0.30873367
239	0xbe2e6f92	-0.17034748
240	0x3ddaa213	0.106754445
241	0xbe993539	-0.29923418
242	0x3e371b70	0.1788156
243	0xbea74db2	-0.32676464
244	0x3d6202c5	0.055178422
245	0xbdda0adb	-0.10646602
246	0x3e4f0b09	0.20219053
247	0x3c6b15dc	0.014348473
248	0x3ebd112b	0.3692716
249	0xbdaa7741	-0.08323527
250	0xbd8d0df8	-0.0688743
251	0xbdfd7f74	-0.123778254
252	0xbe7f4f9b	-0.24932711
253	0xbeaf6597	-0.34257194
254	0xbdbb46d7	-0.09144371
255	0x3e3fb008	0.18719494

raise_dim.0.attention1.0.bias f4 [9]
0	0x3cd849e2	0.026402418
1	0x3dda5725	0.10661153
2	0xbedb6cfe	-0.42856592
3	0xbdaefbd9	-0.0854413
4	0x3e6a1dc2	0.22862914
5	0x3e0dcf41	0.13848592
6	0xbe7842de	-0.24244258
7	0x3eef8de4	0.4678794
8	0xbd226917	-0.039651003

raise_dim.0.attention1.2.weight f4 [9, 9, 1, 1]
0	0xbe0ff895	-0.1405967
1	0xbead06f1	-0.33794358
2	0xbe8724e3	-0.2639533
3	0xbf2a1bcb	-0.6644866
4	0x3dbfcf59	0.0936572
5	0xbe831d0a	-0.25608093
6	0xbec17a23	-0.37788495
7	0xbf251088	-0.6447835
8	0x3deac11d	0.11462615
9	0x3ea62ecc	0.32457578
10	0x3e8cc5c2	0.27494627
11	0x3ef77720	0.48333073
12	0x3fb818d1	1.4382573
13	0x3ebb9099	0.36633757
14	0xbf0cc8aa	-0.5499369
15	0x3ee71ddb	0.45139965
16	0xbe3c0525	-0.18361337
17	0x3f4f1a53	0.8089954
18	0x3e1355cb	0.14388196
19	0xbe8894d1	-0.26676038
20	0x3f2251bb	0.6340596
21	0xbe71d2de	-0.23615596
22	0xbe4608a6	-0.19339237
23	0x3cbd07ea	0.023075063
24	0x3f0b93fe	0.54522693
25	0xbf0df2cd	-0.5544861
26	0x3e2d2c76	0.16911492
27	0x3dd3233a	0.10309453
28	0xbc5495ee	-0.012975199
29	0x3e99da32	0.30049282
30	0x3ea96223	0.33082685
31	0xbd8d943d	-0.0691304
32	0xbe8469f0	-0.25862074
33	0x3e487c19	0.1957859
34	0x3e835942	0.25654036
35	0xbf83b5de	-1.0289876
36	0x3fefc6d9	1.8732558
37	0xbe3229cd	-0.17398758
38	0x3ee40f69	0.44543007
39	0xbf380fb2	-0.7189895
40	0x3f586268	0.84525156
41	0x40129d51	2.2908518
42	0xbd422129	-0.047394905
43	0xbf235f26	-0.6381706
44	0x3f1115ae	0.56673706
45	0xbe9b2671	-0.30302766
46	0x3f2ee8a7	0.6832375
47	0xbf2a86e0	-0.6661205
48	0xbea15662	-0.31511217
49	0x3f1bddaa	0.6088511
50	0xbf8644a7	-1.0489701
51	0xbe894d0e	-0.268166
52	0x3f1bb358	0.6082053
53	0xbe6288e5	-0.22122534
54	0x3f42817b	0.7597882
55	0x3de80142	0.11328365
56	0xbf55f0d2	-0.8357059
57	0xbf91c4e6	-1.1388214
58	0x3ed4961a	0.41520768
59	0x3fbab449	1.4586269
60	0x3ed85470	0.4225192
61	0xbf10bb54	-0.5653584
62	0x3f6ac741	0.9171029
63	0xbda4b4bd	-0.080422856
64	0x3da77568	0.0817669
65	0x3ca78f7b	0.020454159
66	0xbf46a8ae	-0.77601135
67	0xbec97eea	-0.3935464
68	0xbf2a8097	-0.6660246
69	0x3c5ff646	0.013669556
70	0xbf006a3c	-0.501621
71	0x3f1c128d	0.60965806
72	0xbd58806a	-0.05285684
73	0xbf4dda3a	-0.8041111
74	0xbce8c511	-0.028414281
75	0xbe486423	-0.19569449
76	0xbe7e04ac	-0.2480647
77	0x3ee1e0a6	0.44116706
78	0xbd2e95bf	-0.042623278
79	0x3f0e3aba	0.5555836
80	0x3f657c64	0.8964293

raise_dim.0.attention1.2.bias f4 [9]
0	0xbe8f8bed	-0.28036442
1	0x3d31268d	0.043249656
2	0xbf0475ce	-0.51742256
3	0xbe82ee90	-0.25572634
4	0xbe2cd108	-0.16876614
5	0x3ed3b7f2	0.41351277
6	0x3e95f8e9	0.29291466
7	0xbce1fb8f	-0.027585773
8	0x3de7b77c	0.11314294

raise_dim.0.attention1.4.weight f4 [9, 9, 1, 1]
0	0xbe2ffafc	-0.17185587
1	0xbf6c7a7a	-0.92374384
2	0x3f07f174	0.53102803
3	0xbe8e7e69	-0.27830818
4	0x3eddd80b	0.4332889
5	0x3ddea1f8	0.10870737
6	0xbce83087	-0.028343452
7	0x3f8620e8	1.0478792
8	0x3d24421d	0.040102113
9	0x3cbc039e	0.022950944
10	0x3e56f2bc	0.20991033
11	0xbf048fbe	-0.51781833
12	0x3e06c894	0.13162452
13	0xbf857157	-1.0425214
14	0xbed0dcc6	-0.40793437
15	0xbfb102f6	-1.3829029
16	0x3eb8a8a4	0.36066163
17	0x3e893274	0.26796305
18	0xbce848f6	-0.028355103
19	0x3f0cef38	0.5505252
20	0xbeaebf56	-0.34130353
21	0x3ee78b81	0.4522362
22	0x3d9b80e1	0.07592941
23	0xbec48219	-0.38380507
24	0x3f092ce8	0.53584146
25	0x3e9fe5b0	0.31229925
26	0x3e7e5efa	0.24840918
27	0x3f7cb463	0.9871275
28	0x3daa1de1	0.0830648
29	0xbf7123b8	-0.9419513
30	0xbecb4d5b	-0.39707455
31	0xbf0a854f	-0.5410966
32	0x3eadc0af	0.33936068
33	0x3f22dd75	0.63619167
34	0x3f81218e	1.0088365
35	0xbeb2089b	-0.3477219
36	0xbf79522c	-0.9739101
37	0xbf07f223	-0.53103846
38	0xbf8fd397	-1.1236447
39	0xbee4a4c0	-0.44656944
40	0xbfe05ca4	-1.7528272
41	0x3f81850a	1.0118725
42	0xbf58a163	-0.84621257
43	0xbec5f6bd	-0.3866481
44	0x3eb57553	0.35441074
45	0x3d1c8faf	0.038222965
46	0x3e3e9ca9	0.18614449
47	0x3e4443f6	0.1916655
48	0x3eaaef37	0.3338563
49	0x3eca5dcc	0.39524686
50	0xbeffb10d	-0.49939767
51	0x3fbde67d	1.4835964
52	0x3f0d93cc	0.55303645
53	0xbf4d1f75	-0.80126125
54	0xbdde712b	-0.10861429
55	0x3e94d4c5	0.2906858
56	0x3f38080f	0.71887296
57	0xbf0e8a9d	-0.5568026
58	0x3ec66723	0.38750562
59	0xbedd08a5	-0.43170658
60	0x3edf7218	0.43641734
61	0x3f35e175	0.71047145
62	0x3e768bce	0.24076769
63	0x3e73982f	0.23788522
64	0x3e1f83df	0.15577649
65	0x3e1163cd	0.14198227
66	0xbea3dad5	-0.32002893
67	0xbdf34fac	-0.118804306
68	0x3f032cba	0.5124012
69	0xbf8b2746	-1.087136
70	0xbf0cb8de	-0.54969585
71	0xbf06bd91	-0.52633005
72	0x3d6efc93	0.058346342
73	0x3ee59a53	0.44844303
74	0x3f3c5e51	0.73581415
75	0xbda87a28	-0.082264245
76	0x3e7e8126	0.24853954
77	0x3e893f13	0.26805934
78	0xbf7579ac	-0.9588878
79	0xbed4e96c	-0.41584337
80	0xbed099ee	-0.4074244

raise_dim.0.attention1.4.bias f4 [9]
0	0x3d9208f2	0.071306124
1	0x3e4c014c	0.1992237
2	0xbdbe5435	-0.09293405
3	0x3c644a04	0.013933662
4	0x3f2bca8b	0.6710593
5	0x3d27325d	0.040819515
6	0xbd123bdc	-0.035701618
7	0xbc311e6f	-0.010810479
8	0x3cbbcde0	0.022925317

raise_dim.0.attention3.1.weight f4 [32, 9, 1, 1]
0	0x3e006f8c	0.12542552
1	0xbf1919d3	-0.5980503
2	0x3e085465	0.13313444
3	0x3ee55bb6	0.44796532
4	0xbd2fa297	-0.042879667
5	0xbefea3b9	-0.49734285
6	0xbe339ef7	-0.17541109
7	0x3e46259f	0.19350289
8	0xbeacbd0a	-0.33737975
9	0x3f292d60	0.6608486
10	0xbf2bfd94	-0.67183805
11	0xbd013173	-0.0315413
12	0xbe37b98f	-0.17941879
13	0xbf89c1d4	-1.0762277
14	0x3f66c43d	0.90143186
15	0x3ccc43b9	0.024934636
16	0xbc27ca34	-0.01024108
17	0x3d681d97	0.056668844
18	0x3e332323	0.17493872
19	0x3f13cf0d	0.5773781
20	0xbd8ed290	-0.06973755
21	0x3f85d5f1	1.0455915
22	0x3e2afb0c	0.1669733
23	0x3ef5e2a6	0.48024482
24	0x3e288c6b	0.16459815
25	0x3ee48f22	0.44640452
26	0xbf3577d9	-0.70886
27	0x3e940675	0.28911176
28	0x3e943063	0.28943166
29	0xbf4a5028	-0.7902856
30	0xbe4ebc33	-0.2018898
31	0xbf11df4b	-0.56981343
32	0x3e10b90a	0.14133087
33	0xbf47e40f	-0.78082365
34	0xbebed376	-0.37270707
35	0x3eecacd7	0.46225616
36	0x3f406614	0.7515576
37	0x3efde392	0.49587685
38	0x3e1357b8	0.14388931
39	0x3e53e7b4	0.20693856
40	0x3e8668a5	0.26251712
41	0xbe4440cb	-0.19165342
42	0xbdae91bb	-0.0852389
43	0x3dd72394	0.10504833
44	0x3d7d4bc8	0.06183985
45	0xbed07602	-0.40715033
46	0x3d2c9a77	0.042139497
47	0x3d3a83bb	0.045535784
48	0xbea57ee1	-0.32323363
49	0xbe7667ba	-0.24063006
50	0x3e6d29f9	0.23160543
51	0x3f585909	0.84510857
52	0xbdc5bb7a	-0.09654899
53	0x3ea951b3	0.33070144
54	0x3caa9088	0.020820871
55	0x3eb51c06	0.35372943
56	0x3b6ab1dd	0.0035811581
57	0xbd33d07a	-0.04389999
58	0x3ea76baf	0.32699344
59	0xbe0bde86	-0.13659105
60	0x3ed1854a	0.40922004
61	0xbf41619b	-0.7553956
62	0xbf6a6c2c	-0.9157131
63	0x3efd72d4	0.4950167
64	0xbe3d77d6	-0.18502745
65	0xbef86e6b	-0.48521742
66	0xbee16174	-0.44019663
67	0x3e8636c3	0.26213655
68	0x3ef497b9	0.47772005
69	0xbe7ab35f	-0.24482487
70	0x3f7d8d0e	0.9904336
71	0xbf33b53c	-0.70198417
72	0x3f4dc607	0.8038029
73	0xbf19d4db	-0.60090417
74	0xbf93fe5b	-1.1561998
75	0xbe96cb76	-0.29452103
76	0xbe503d75	-0.20335944
77	0x3e9ffe5e	0.31248754
78	0x3f233ccd	0.6376465
79	0xbef9784c	-0.48724592
80	0xbd87e67b	-0.066357575
81	0xbec7e5e1	-0.3904257
82	0x3e3fa500	0.18715286
83	0xbeac175a	-0.33611566
84	0xbe6fc90d	-0.23416539
85	0x3dffac16	0.12483995
86	0x3e4e97b8	0.20175064
87	0x3eb94c30	0.3619094
88	0xbc79dcc5	-0.015250389
89	0x3cc40452	0.023927841
90	0xbe5b82f7	-0.21436678
91	0x3c8d1a7c	0.017224543
92	0x3da1ecdd	0.07906506
93	0x3f267e18	0.65036154
94	0xbf24dcca	-0.643994
95	0x3e52a91d	0.20572324
96	0xbf66e8f7	-0.90199226
97	0x3ee08814	0.4385382
98	0x3dd6790a	0.10472305
99	0x3f0e2e4d	0.555394
100	0x3f40ae48	0.7526593
101	0xbf217c16	-0.63079965
102	0xbe988ecb	-0.29796442
103	0xbf064478	-0.52448225
104	0x3e2c4422	0.16822866
105	0xbe45a59d	-0.19301458
106	0x3eac6901	0.33673862
107	0xbf0cf2ad	-0.55057794
108	0x3e8057e3	0.25067052
109	0x3f5acf9f	0.85473055
110	0x3f17ec9a	0.593454
111	0x3eaa98ff	0.33319852
112	0x3edf01d2	0.43556076
113	0xbe80f335	-0.25185552
114	0xbf0a53b7	-0.5403399
115	0xbe244202	-0.16040805
116	0x3f61329d	0.87967855
117	0x3f32b1e3	0.69802684
118	0xbf0508cc	-0.5196655
119	0xbdf27001	-0.11837769
120	0x3ecb14a2	0.3966418
121	0xbef4b1c6	-0.4779188
122	0xbee66ae7	-0.45003435
123	0xbe276718	-0.16347921
124	0xbdbc388a	-0.091904715
125	0x3e0ed449	0.13948168
126	0xbe83744a	-0.2567466
127	0xbe2793a2	-0.16364911
128	0x3eff4c67	0.49862978
129	0x3f08ede8	0.53488016
130	0xbe25906b	-0.16168372
131	0xbf22de23	-0.63620204
132	0x3ecd686e	0.40118736
133	0xbde44e90	-0.11147797
134	0x3dae8413	0.08521285
135	0xbc9459e5	-0.018109271
136	0xbf029999	-0.5101562
137	0x3ea86879	0.32892206
138	0x3ea2f8ec	0.31830537
139	0xbeeb0696	-0.45903462
140	0xbe571c60	-0.21006918
141	0x3e2289e5	0.15872915
142	0xbe83c2c7	-0.2573454
143	0x3ec95aa0	0.39326954
144	0xbeb0ef2c	-0.34557474
145	0x3d665dee	0.056241922
146	0x3ea8082a	0.3281873
147	0x3efe858d	0.49711266
148	0x3ee42cf5	0.4456555
149	0x3ecdada6	0.40171546
150	0x3ea09b2c	0.31368387
151	0xbf097e20	-0.53708076
152	0x3f54d716	0.83140695
153	0xbecd640b	-0.4011539
154	0x3eb828d6	0.35968655
155	0x3f46fb65	0.7772735
156	0x3e8714ae	0.26382965
157	0xbe0d18b8	-0.1377896
158	0xbf12eda1	-0.5739384
159	0x3f13d339	0.57744175
160	0xbebb2fde	-0.36559957
161	0xbdad78e4	-0.08470324
162	0xbe8db335	-0.27675787
163	0xbf20fe30	-0.6288786
164	0xbea8b090	-0.32947206
165	0xbe10a4a2	-0.14125302
166	0x3f20ea5e	0.62857616
167	0xbf0b48dd	-0.54408056
168	0x3f237213	0.6384594
169	0xbeb0eff0	-0.34558058
170	0x3e35fe9c	0.17772907
171	0xbf6da29c	-0.9282625
172	0x3dbf17cd	0.093307115
173	0xbec0cbe7	-0.37655565
174	0xbee21335	-0.4415528
175	0x3ebb90a9	0.36633804
176	0xbde87481	-0.11350346
177	0x3e104bd8	0.14091432
178	0xbea6ef40	-0.32604408
179	0x3dfbb688	0.122906744
180	0x3e6c23e8	0.23060572
181	0xbef3dd3b	-0.47629723
182	0x3e49266e	0.19643566
183	0x3ecd1742	0.40056807
184	0x3e86644f	0.26248404
185	0xbe3fd71b	-0.187344
186	0x3ec74012	0.3891607
187	0x3dca87d3	0.09889188
188	0xbf0b434f	-0.5439958
189	0x3e350225	0.176766
190	0xbd7a8134	-0.061158374
191	0xbea95b38	-0.33077407
192	0x3f806dd8	1.0033522
193	0xbed77d7e	-0.4208793
194	0xbd961474	-0.0732812
195	0x3d77737b	0.060412865
196	0x3d24bb09	0.040217433
197	0xbc9be530	-0.019030184
198	0x3ec4402d	0.38330212
199	0x3e5335a4	0.20625931
200	0xbea54cb7	-0.3228509
201	0x3ef5cbad	0.48006955
202	0xbf0b69ea	-0.5445849
203	0x3d90df7c	0.07073876
204	0x3eb8e0ff	0.36109158
205	0xbf43093e	-0.7618598
206	0x3e8871d1	0.26649335
207	0x3eb0c1f2	0.3452297
208	0xbf6d3ece	-0.9267396
209	0xbf98cff7	-1.1938466
210	0x3e56a925	0.20962961
211	0x3f1ce094	0.6128018
212	0xbef87349	-0.48525456
213	0xbf541ec3	-0.8285944
214	0xbf186b6c	-0.5953891
215	0xbe15fff9	-0.14648427
216	0xbb42b42f	-0.0029709449
217	0x3cdd47b9	0.02701174
218	0xbe85bc03	-0.26120004
219	0x3e4158ab	0.1888148
220	0xbe871d2f	-0.26389453
221	0x3c1f6597	0.009728811
222	0x3f730d73	0.94942397
223	0x3e9abe50	0.30223322
224	0xbeedbd16	-0.46433324
225	0x3f12eac0	0.5738945
226	0xbedc58f4	-0.43036616
227	0x3f504ba0	0.81365395
228	0xbf2ad5e8	-0.66732645
229	0x3eb8e4c2	0.36112028
230	0xbd8e30eb	-0.06942924
231	0xbf2a7c12	-0.66595566
232	0xbf796a56	-0.9742788
233	0x3e7013fe	0.23445126
234	0x3f13e559	0.5777183
235	0x3d8740eb	0.06604179
236	0x3e96edef	0.29478404
237	0x3f4aff3d	0.7929571
238	0xbe3fd3cc	-0.18733138
239	0x3e327841	0.17428686
240	0xbbae0096	-0.0053101284
241	0xbd6cfb4e	-0.05785685
242	0xbe8e8531	-0.27835992
243	0x3d6baec7	0.057539728
244	0xbebb183a	-0.3654192
245	0xbf909b28	-1.129735
246	0xbdcc0c24	-0.09963253
247	0xbd986811	-0.07441724
248	0x3c25833a	0.010102088
249	0x3e1d7dd8	0.15380037
250	0x3e552e68	0.20818484
251	0x3a88af0f	0.0010428148
252	0x3eaf62ac	0.34254968
253	0xbed09aec	-0.40743196
254	0x3de1987a	0.11015411
255	0xbd88ff59	-0.06689329

raise_dim.0.attention3.1.bias f4 [32]
0	0xbcc1aebb	-0.023642888
1	0x3d198591	0.037480894
2	0xbd7e2e61	-0.06205595
3	0x3c9334bb	0.01796948
4	0xbc9b64fc	-0.018969052
5	0x3ce1aa3d	0.027546996
6	0x3c9bb383	0.019006496
7	0x3c944f97	0.018104358
8	0x3d843b2a	0.06456597
9	0xbb8fa805	-0.004384043
10	0xbb20ef9b	-0.0024556878
11	0xbd02e5d2	-0.031957455
12	0xbc8cd6fc	-0.017192356
13	0x3cc01492	0.023447309
14	0x3b6afeb9	0.0035857393
15	0x3aedd37a	0.001814469
16	0xbd45dea8	-0.048308045
17	0xbdbb3683	-0.09141257
18	0x3b3f6896	0.0029206625
19	0x3d873763	0.06602361
20	0xbd0b66ba	-0.034033515
21	0xbd3184d5	-0.04333957
22	0x3c22756f	0.009915694
23	0x3d5f98a3	0.054588925
24	0xbd888c10	-0.0666734
25	0xbc1d51d7	-0.009602032
26	0xbdc4d1d1	-0.09610332
27	0x3d632f16	0.055464827
28	0xbc9a66bb	-0.018847814
29	0x3ce00037	0.027343852
30	0xbd0e3a8c	-0.034723803
31	0xbd495d01	-0.04916096

raise_dim.0.attention3.3.weight f4 [32, 32, 1, 1]
0	0xbeaa0d1a	-0.3321312
1	0xbea3cef1	-0.3199382
2	0x3e348fc6	0.1763297
3	0x3e8f7bc8	0.28024125
4	0xbd38aff1	-0.045089666
5	0xbea47600	-0.32121277
6	0xbe2260f0	-0.15857291
7	0x3e34551a	0.17610589
8	0x3e325939	0.17416848
9	0xbdb186a7	-0.08668261
10	0xbe83d07c	-0.25744998
11	0xbe792a7e	-0.24332616
12	0xbf0d0dd6	-0.55099237
13	0xbd51d18b	-0.051225226
14	0x3e7183eb	0.23585479
15	0xbd26f851	-0.040764157
16	0x3db167cd	0.086623766
17	0x3e0afec4	0.13573748
18	0xbe27d1f9	-0.16388692
19	0x3e896a55	0.26838937
20	0xbdd9d8d5	-0.106370606
21	0x3ddd6326	0.10809927
22	0x3e9fd63f	0.31218144
23	0xbe094b33	-0.13407592
24	0x3e5e4057	0.21704231
25	0x3d815518	0.063150585
26	0xbdba8920	-0.09108186
27	0x3e30fa45	0.1728297
28	0x3dd965db	0.106151305
29	0xbdddb382	-0.10825254
30	0xbe35e709	-0.17763914
31	0xbeb95f80	-0.36205673
32	0x3e425a88	0.18979847
33	0x3e48cadb	0.19608633
34	0xbf546e27	-0.8298058
35	0x3e8be45c	0.27322662
36	0x3ed7d798	0.42156672
37	0xbcc38347	-0.023866309
38	0x3d8e1418	0.06937426
39	0xbea4abb5	-0.32162252
40	0xbcc1c4e1	-0.02365345
41	0xbeb95445	-0.36197105
42	0xbe0ed137	-0.13946997
43	0xbecd0ad3	-0.4004732
44	0xbe260234	-0.16211778
45	0xbd177004	-0.03697206
46	0x3cf838a6	0.03030045
47	0xbb7c7d52	-0.0038526845
48	0xbeba9fbe	-0.3645
49	0x3e911960	0.28339672
50	0x3e9f9f88	0.311764
51	0x3c51bf8b	0.012802015
52	0xbe124c9e	-0.1428704
53	0xbe4650ef	-0.19366811
54	0xbcf09b0f	-0.029370813
55	0x3c99ff1d	0.018798405
56	0x3d9ec80f	0.07753002
57	0x3ef227db	0.47296032
58	0xbebe9f95	-0.37231126
59	0xbedaf984	-0.4276849
60	0x3e93f855	0.289004
61	0x3d7ae13a	0.06124995
62	0xbe118fe0	-0.1421504
63	0xbd72750d	-0.05919366
64	0x3e292a08	0.1651994
65	0xbdf96bd4	-0.1217877
66	0xbd9f9aa6	-0.07793169
67	0x3f0cdb23	0.55021876
68	0xbe060963	-0.13089518
69	0x3dac7c1c	0.084221095
70	0x3d5bf888	0.053703815
71	0x3ed0f63e	0.40812868
72	0x3e721769	0.23641743
73	0xbef39541	-0.4757481
74	0x3c0d5ae5	0.008627628
75	0xbe76ca03	-0.24100499
76	0x3df880d9	0.12133951
77	0x3f271d0d	0.652787
78	0xbd5cee7a	-0.053938366
79	0xbebf1ee0	-0.37328243
80	0x3e98d574	0.29850352
81	0x3e976198	0.29566646
82	0xbe120486	-0.14259538
83	0x3e8a470e	0.27007335
84	0x3e5b3cb8	0.21409881
85	0xbe9a824d	-0.30177537
86	0xbf159e38	-0.5844455
87	0x3d041c06	0.032253288
88	0xbe772c14	-0.24137908
89	0x3e0e2ac3	0.138835
90	0xbdef4132	-0.11682357
91	0x3e31ff42	0.1738253
92	0xbe544872	-0.2073076
93	0x3d9a4d8e	0.07534324
94	0x3ed73ed0	0.4204011
95	0xbf1054d0	-0.56379414
96	0x3d142dce	0.036176495
97	0x3e7fd78e	0.24984571
98	0x3d38d2a8	0.045122772
99	0xbd2f1d97	-0.04275283
100	0x3d3f27b9	0.04666874
101	0xbe1f8345	-0.15577419
102	0xbe886458	-0.26639056
103	0xbd605dc0	-0.054776907
104	0x3e309a30	0.17246318
105	0xbe2f39bc	-0.17111868
106	0x3d6b32f7	0.05742165
107	0xbf17d867	-0.5931458
108	0xbe048ea3	-0.12945037
109	0x3cdf4686	0.027255308
110	0x3e3f7b74	0.18699437
111	0xbedf78af	-0.43646762
112	0xbd20d900	-0.039269447
113	0xbd8b27db	-0.06794711
114	0x3d7e6ce8	0.06211558
115	0xbf02a288	-0.51029253
116	0xbdebff93	-0.11523356
117	0xbe019c20	-0.12657213
118	0xbe06164f	-0.13094448
119	0xbe827248	-0.25477815
120	0x3cf363aa	0.02971061
121	0xbda44fd4	-0.080230385
122	0xbc1b7f88	-0.009490855
123	0xbe1b7f25	-0.1518522
124	0x3e07adf0	0.13249946
125	0x3e006b90	0.12541032
126	0x3e38220d	0.1798174
127	0x3ee0c405	0.4389955
128	0xbcb07dd5	-0.021544376
129	0xbe66bcf5	-0.22533019
130	0x3c8565c7	0.016283883
131	0x3dd054f5	0.10172454
132	0x3e07a106	0.1324502
133	0x3e88193e	0.26581758
134	0x3e9c5e2a	0.3054059
135	0xbec4a9bc	-0.38410747
136	0xbbf3200b	-0.0074195913
137	0xbde15bf9	-0.110038705
138	0xbe7bebd3	-0.24601679
139	0x3e53ac5e	0.20671222
140	0x3e55295b	0.20816557
141	0x3e1e8617	0.15480839
142	0xbd7b4086	-0.06134083
143	0x3e86f1b7	0.2635629
144	0xbd6684c4	-0.05627896
145	0xbe6a8371	-0.22901703
146	0x3ed91cf0	0.4240489
147	0x3e35c662	0.17751458
148	0xbdc98a30	-0.0984081
149	0x3d9e5614	0.07731262
150	0xbe3703e9	-0.17872585
151	0xbed92edd	-0.42418566
152	0x3e414216	0.18872866
153	0x3d16cb5a	0.036815025
154	0x3e75d9ea	0.24008909
155	0x3943e132	0.00018680541
156	0xbe6bc849	-0.23025621
157	0x3d11d785	0.035605926
158	0x3ef51e3e	0.47874635
159	0xbeb2f5c2	-0.34953123
160	0x3cae1ae1	0.021253051
161	0x3e9a1933	0.3009735
162	0xbd82f374	-0.06394091
163	0xbe4e93aa	-0.20173517
164	0xbdc9b395	-0.09848706
165	0x3f1bb637	0.6082491
166	0x3e24f72a	0.1610991
167	0xbe8f1a01	-0.27949527
168	0xbe00cb66	-0.1257759
169	0xbe8d9aa8	-0.27657056
170	0xbe3e6ace	-0.1859543
171	0xbe935316	-0.28774327
172	0xbe6f3142	-0.23358634
173	0xbe7d1061	-0.2471328
174	0x3e8833c1	0.26601985
175	0xbe0a1136	-0.13483128
176	0x3da0876e	0.07838331
177	0xbddabae2	-0.10680176
178	0xbdc237c1	-0.094832905
179	0x3e491f80	0.19640923
180	0x3de1eef7	0.11031907
181	0xbde2b05d	-0.11068795
182	0x3da5bda4	0.08092812
183	0xbe621235	-0.22077258
184	0xbd9a4259	-0.07532186
185	0x3d18fde3	0.0373515
186	0x3e12c9ac	0.14334744
187	0x3e6c175a	0.23055783
188	0x3cb7228a	0.022355337
189	0x3e99136b	0.29897627
190	0xbeb79f71	-0.35863832
191	0x3e0bfef6	0.13671479
192	0x3f10c070	0.56543636
193	0xbef9af7c	-0.48766696
194	0xbea20f00	-0.3165207
195	0xbe580e13	-0.21099119
196	0xbca1eb84	-0.019765623
197	0x3e556cf0	0.20842338
198	0xbe800865	-0.25006405
199	0xbe89f7cf	-0.26946875
200	0xbe1306e6	-0.143581
201	0xbe73add6	-0.23796782
202	0xbe97fc56	-0.29684705
203	0x3d7490d0	0.059708416
204	0xbe8c45b0	-0.27396917
205	0xbd89bb7b	-0.06725212
206	0x3ee022f8	0.4377668
207	0xbeba6bcd	-0.3641037
208	0xbe881c4b	-0.26584086
209	0x3d5bd4e3	0.05366982
210	0x3dec8f56	0.11550777
211	0xbe478342	-0.19483665
212	0x3dd2c4d8	0.10291451
213	0xbcb48b01	-0.022038938
214	0x3e82c1c5	0.2553846
215	0xbd849194	-0.06473079
216	0x3e8fdca6	0.2809803
217	0xbec1d78c	-0.37859762
218	0x3ea8e375	0.32986036
219	0xbd99cb59	-0.075094886
220	0x3f128bf4	0.572448
221	0x3ea1e651	0.3162103
222	0xbdf95c0a	-0.12175758
223	0x3e0dc2f6	0.13843903
224	0xbebdedf9	-0.3709562
225	0xbe06246b	-0.1309983
226	0x3ea92330	0.33034658
227	0x3d2e001b	0.04248057
228	0xbe286e4f	-0.1644833
229	0xbd1c2a17	-0.038126078
230	0x3e9902df	0.29885003
231	0x3f0bcd9e	0.5461062
232	0xbec9103f	-0.39270207
233	0xbd6bab23	-0.057536256
234	0xbee196b9	-0.44060305
235	0xbf1ec843	-0.62024325
236	0xbded1ea1	-0.115781076
237	0xbf779926	-0.9671806
238	0xbfa1ea62	-1.2649653
239	0xbf551a3f	-0.83243173
240	0x3d208097	0.039185133
241	0xbd94cc09	-0.07265479
242	0x3ea09c4c	0.31369245
243	0x3e9993b3	0.29995498
244	0xbe48973c	-0.19588941
245	0xbed5618b	-0.41675982
246	0x3d8ccc13	0.068748616
247	0x3e37a727	0.17934857
248	0xbcb59d74	-0.022169806
249	0xbd908baa	-0.07057889
250	0xbb889bef	-0.0041689794
251	0xbd840857	-0.06446903
252	0x3df21b9f	0.118216746
253	0xbeea5bd9	-0.457732
254	0xbe6779d7	-0.22605072
255	0x3e58b95c	0.21164459

raise_dim.0.attention3.3.bias f4 [32]
0	0x3c074ea1	0.008258493
1	0xbc90fe18	-0.017699286
2	0xbd1a789e	-0.037712686
3	0x3d15ec11	0.036602084
4	0xbc9922ce	-0.018693354
5	0xbb7c2898	-0.0038476344
6	0x3cadf08d	0.021232868
7	0x3db54bf8	0.088523805
8	0x3d27697b	0.04087208
9	0xbdba0b28	-0.09084159
10	0x3c6c1b1d	0.014410761
11	0xbd949e1e	-0.07256721
12	0xbd058b0a	-0.0326033
13	0xbca0bc19	-0.019620942
14	0xbc46bea0	-0.0121304095
15	0x3c81bffc	0.015838616
16	0x3d8599b6	0.06523459
17	0xbd87b103	-0.06625559
18	0x3b95a21a	0.004566443
19	0x3a9c45de	0.0011922678
20	0xbcbaac5d	-0.022787267
21	0xbd193cc3	-0.037411463
22	0x3c5eb92a	0.013593951
23	0x3d3e7efc	0.04650782
24	0xbb5ce2b9	-0.0033704473
25	0xbaf38b7e	-0.0018581001
26	0x3dbf1caf	0.09331643
27	0x3d044e80	0.032301426
28	0x3b9d7ad5	0.0048059025
29	0x3d7fa1f7	0.06241032
30	0xbd7ed7b4	-0.06221743
31	0xbd402718	-0.046912283

layers.0.conv1.weight f4 [32, 32, 3, 3]
0	0x3d4fa3e8	0.050693423
1	0x3a81c4e0	0.0009900592
2	0xbdaa93f6	-0.083290026
3	0xbd187a8c	-0.037226245
4	0xbd9f41e9	-0.07776243
5	0xbbdf6dd2	-0.0068185115
6	0x3d5089b6	0.05091258
7	0xbd16f52e	-0.036854915
8	0x3c61f0bf	0.0137903085
9	0xbcf6c60b	-0.030123731
10	0xbde7fd4d	-0.1132761
11	0xbcbde8b0	-0.023182243
12	0xbd971968	-0.07377893
13	0xbe13e37e	-0.1444225
14	0x3b1392d2	0.0022517932
15	0xbd7d1b78	-0.061793774
16	0xbd9723b7	-0.07379859
17	0xbccd5d77	-0.025068982
18	0x3d82db68	0.06389505
19	0x3cad5fe4	0.021163888
20	0x3d40f8ee	0.047112398
21	0xbcdfd333	-0.027322387
22	0xbd5a8a35	-0.05335446
23	0x3c50a3e2	0.012734385
24	0x3d989265	0.074497975
25	0x3d5179da	0.051141597
26	0x3cf46946	0.029835355
27	0x3c409a56	0.011755547
28	0xbe92cd34	-0.28672183
29	0x3d8d8d78	0.06911749
30	0xbe95bbd2	-0.29244858
31	0xbe624373	-0.22096042
32	0x3de579a3	0.11204841
33	0xbcf16b94	-0.029470243
34	0xbceeb70c	-0.029140018
35	0x3e1f8322	0.15577367
36	0x3d3ffc1e	0.046871297
37	0xbc9cda22	-0.019146983
38	0xbbde66df	-0.0067871655
39	0x3ca7e471	0.020494672
40	0x3dec4e4f	0.11538374
41	0x3cb6178e	0.022228029
42	0x3d28c5ac	0.04120414
43	0x3d96330d	0.07333956
44	0xbbb713e7	-0.0055870893
45	0xbe1dfe79	-0.15429105
46	0x3dea597d	0.1144285
47	0x3dbbe28e	0.09174071
48	0x3dd84492	0.10559954
49	0x3df01845	0.11723379
50	0x3caa6dc9	0.020804303
51	0x3d209acb	0.039210122
52	0x3a86e897	0.0010292706
53	0x3de560fe	0.112001404
54	0xbe4e6fcf	-0.20159839
55	0xbe557ec8	-0.20849144
56	0x3c16c4aa	0.009202162
57	0xbe987670	-0.2977786
58	0xbe407e19	-0.18798102
59	0x3e034717	0.12820087
60	0xbe3d129a	-0.18464127
61	0xbe0a9e2d	-0.13536902
62	0x3c7c2c91	0.015391485
63	0x3e317482	0.173296
64	0x3e862bdc	0.26205337
65	0x3ea0679c	0.31329048
66	0xbd03d34c	-0.03218393
67	0x3e56f471	0.20991684
68	0x3d694262	0.056948073
69	0x3c9ad3c3	0.018899804
70	0x3ded4683	0.11585715
71	0x3e0c3310	0.13691354
72	0x3d4770e4	0.048691645
73	0xbd849d18	-0.06475276
74	0xbcaf486b	-0.021396836
75	0x3c9a0b58	0.018804237
76	0x3d6a70d2	0.0572365
77	0x3be8c131	0.0071031083
78	0x3d096226	0.033540867
79	0x3db0ceef	0.086332195
80	0xbc865216	-0.016396564
81	0xbe865c12	-0.2624212
82	0x3db94f31	0.09048308
83	0x3de23e50	0.110470414
84	0x3d4ef37a	0.050525166
85	0xbd72de2c	-0.05929391
86	0x3db58e74	0.088650614
87	0xbdccd310	-0.100011945
88	0x3dd466c2	0.10371162
89	0x3e243006	0.16033944
90	0xbe5d3c08	-0.21604931
91	0x3dde8273	0.10864725
92	0x3c848624	0.016177244
93	0x3d1805ed	0.037115026
94	0xbc3c27db	-0.011484112
95	0x3d6f4107	0.058411624
96	0xbe1dabdb	-0.15397589
97	0xbcab846e	-0.02093717
98	0x3dba0b5e	0.09084199
99	0xbbd4545a	-0.006479782
100	0x3d1eaef6	0.038741075
101	0x3d0e2fee	0.034713678
102	0xbcd36425	-0.025804589
103	0x3c5d929a	0.013523722
104	0x3d42310b	0.047410052
105	0xbca14a46	-0.019688737
106	0x3d7b660a	0.06137661
107	0xbce73557	-0.028223677
108	0xbcbf0fb7	-0.023322923
109	0xbc6c0fc4	-0.014408056
110	0xbd62bfd4	-0.055358723
111	0xbda5c053	-0.080933236
112	0xbe095976	-0.13413033
113	0xbd45f97c	-0.04833363
114	0xbcd37a7a	-0.025815237
115	0x3c84ded1	0.016219528
116	0x3c8adbf6	0.016950589
117	0x3d89d8ad	0.06730781
118	0x3ccc4c5b	0.024938753
119	0xbc96dcfe	-0.018415924
120	0x3d1cdceb	0.03829662
121	0x3c1ee033	0.009697008
122	0x3c855570	0.016276091
123	0xbc5eccaa	-0.0135986
124	0xbd241265	-0.040056605
125	0xbd94aa94	-0.07259098
126	0x3d37c143	0.044862043
127	0xbd01c0d7	-0.031678047
128	0x3e377661	0.17916252
129	0xbd6da37a	-0.05801723
130	0xbd873d12	-0.06603445
131	0x3b22c61c	0.002483732
132	0xbd47ebb7	-0.04880878
133	0xbdefbb61	-0.117056616
134	0x3e38d33f	0.18049334
135	0x3cd07165	0.025444696
136	0x3cf1e6c3	0.029528981
137	0xbd34a027	-0.044098046
138	0xbd704998	-0.058663934
139	0x3b4a2ac7	0.0030848251
140	0xbd1024cc	-0.035191342
141	0x3c814a28	0.01578243
142	0xbc8389ed	-0.01605698
143	0x3d21e65e	0.039526336
144	0x39add754	0.00033157563
145	0xbc93a9dd	-0.018025333
146	0xbd865140	-0.06558466
147	0x3cdb7d66	0.026793193
148	0x3d0cf37f	0.034411903
149	0xbc758b00	-0.014986753
150	0xbca66e7d	-0.020316357
151	0x3cde9f5f	0.027175603
152	0xbcfe0cba	-0.031011928
153	0xbc8bce0f	-0.01706603
154	0x3de3a873	0.111161135
155	0x3e95819e	0.29200453
156	0xbc806fff	-0.015678404
157	0x3c3b5400	0.011433601
158	0x3e131dce	0.14366838
159	0xbd4cc752	-0.049994774
160	0xbdce00f3	-0.10058775
161	0x3e7e6b14	0.24845535
162	0xbdb69b46	-0.08916335
163	0xbcb227a6	-0.021747421
164	0x3d999b54	0.075003296
165	0x3b2674ec	0.002539928
166	0x3c630f60	0.013858646
167	0x3ba2d97a	0.004969773
168	0x3c1e5b64	0.009665344
169	0xbd901a74	-0.070362955
170	0x3e245377	0.16047464
171	0xbd735feb	-0.059417646
172	0xbdd9bc20	-0.10631585
173	0xbdd19fe5	-0.102355756
174	0x3ca1361d	0.019679124
175	0xbd4d17c1	-0.05007148
176	0xbd3439a6	-0.04400029
177	0x3d415f68	0.047210127
178	0x3d7b10b0	0.06129521
179	0xbd949bbd	-0.07256267
180	0xbcb26d08	-0.021780506
181	0xbc1b50d0	-0.009479716
182	0xbdb3cbe2	-0.08779122
183	0xbd86b223	-0.06576946
184	0x3d8e5db9	0.0695147
185	0x3d2b345c	0.04179798
186	0x3af53e2d	0.0018710546
187	0xbb8c787e	-0.0042868247
188	0x3cb62d31	0.022238346
189	0x3d6ea889	0.058266196
190	0x3d778363	0.060428035
191	0x3cc4f5d4	0.024043001
192	0x3d7fb01e	0.062423818
193	0x3d2ebda3	0.04266132
194	0x3deed223	0.11661174
195	0x3c4b6562	0.012414308
196	0x3d688ed8	0.05677685
197	0x3bfe3590	0.00775785
198	0xbd87fd75	-0.0664014
199	0x3d50aa34	0.05094357
200	0x3e4edf6f	0.2020242
201	0x3d4e62a5	0.050387044
202	0xbc558fa1	-0.013034732
203	0x3d95d36e	0.07315718
204	0xbb547e2d	-0.003242384
205	0x3d45c95b	0.04828773
206	0x3de45cc9	0.1115051
207	0x3d456bea	0.048198618
208	0xbdc9a63e	-0.09846161
209	0xbc3943ef	-0.011307701
210	0xbd0a43ef	-0.033756193
211	0xbd3c0f78	-0.04591319
212	0xbd8241a2	-0.06360175
213	0x3c71f40c	0.014767658
214	0x3d17ae63	0.037031543
215	0xba037d67	-0.000501594
216	0xbd5660c4	-0.052338377
217	0xbd7b1c0f	-0.061306056
218	0xbaa215c6	-0.0012366108
219	0x3ca7de7a	0.020491827
220	0x3c342131	0.010994242
221	0xbd809ad9	-0.06279535
222	0xbd4bc3d6	-0.04974731
223	0xbc01ecf7	-0.007930032
224	0xbc11e776	-0.008905282
225	0x3d53fa0d	0.05175214
226	0xbd12ffed	-0.0358886
227	0xbd6c8b42	-0.057749994
228	0xba99343b	-0.001168854
229	0xbdf238e3	-0.118272565
230	0xbcb05ed3	-0.02152959
231	0xbd850279	-0.06494612
232	0xbdaecc08	-0.085350096
233	0xbd8969b9	-0.06709618
234	0xbe83c7fe	-0.2573852
235	0xbd33ec70	-0.043926656
236	0x3d886610	0.06660092
237	0xbe148eae	-0.14507553
238	0xbdff198e	-0.12456046
239	0xbde61422	-0.11234309
240	0xbe3e788a	-0.1860067
241	0xbdaba3b7	-0.083808355
242	0xbd3b6af1	-0.045756284
243	0xbe7fceeb	-0.24981277
244	0xbd5d37cf	-0.0540083
245	0xbdcdc3c0	-0.10047102
246	0x3daf888e	0.085709676
247	0xbe0c4be4	-0.13700825
248	0xbcd3c4a6	-0.025850605
249	0xbe806301	-0.25075534
250	0xbe1aff4c	-0.1513645
251	0xbd752ded	-0.05985825
252	0x3d85892d	0.06520305
253	0xbc8994f5	-0.016794661
254	0xbcd32fe3	-0.02577967
255	0x3ce3a899	0.027790355

layers.0.conv1.attention1.0.weight f4 [9, 32, 3, 3]
0	0x3e264f1c	0.16241115
1	0xbdb57615	-0.08860413
2	0xbdbde57c	-0.09272286
3	0x3cfca7b6	0.03084169
4	0x3ded7866	0.1159523
5	0xbd0e036a	-0.034671225
6	0xbe09db7b	-0.13462631
7	0xbce1d35b	-0.027566602
8	0x3d09a176	0.033601247
9	0xbc406020	-0.011741668
10	0x3e1d69bc	0.15372366
11	0xbcdc23ef	-0.026872603
12	0x3d0d7034	0.034530833
13	0xbd663776	-0.056205235
14	0xbc7ee056	-0.015556416
15	0xbe033ffa	-0.12817374
16	0xbaa5cfed	-0.0012650468
17	0xbca37dd7	-0.019957466
18	0x3de0f000	0.10983276
19	0xbc956e88	-0.018241182
20	0xbe14eca1	-0.14543392
21	0xbda5b51a	-0.08091183
22	0xbca2112b	-0.019783577
23	0xbe6f8ae3	-0.23392825
24	0xbd5e4492	-0.054264612
25	0xbd97d241	-0.074131496
26	0xbd8c3007	-0.06845098
27	0xbe991ae6	-0.29903334
28	0xbe015a0f	-0.12632011
29	0xbd346a5a	-0.044046737
30	0xbe61e863	-0.22061305
31	0x3e8821d3	0.26588306
32	0xbe101497	-0.14070354
33	0x3e879686	0.26482028
34	0x3e49f6f4	0.19723111
35	0xbe082c4e	-0.13298151
36	0xbe0aa6a6	-0.13540134
37	0x3d82dc99	0.06389732
38	0x3da04d85	0.07827286
39	0xbd875a68	-0.066090405
40	0x3e3247d0	0.17410207
41	0x3e640b7f	0.2227001
42	0x3d1d297d	0.038369644
43	0xbb4e70c6	-0.0031500324
44	0xbc99ff62	-0.018798534
45	0xbe07a1a6	-0.13245258
46	0xbe6ba98f	-0.230139
47	0xbc8449a1	-0.01614839
48	0xbd1e72cf	-0.03868371
49	0x3d4f9c46	0.050686143
50	0x3d3bbc3f	0.045833822
51	0x3da8de51	0.082455285
52	0x3e2c1b70	0.16807342
53	0x3d4265f1	0.0474605
54	0xbe2d7c83	-0.16942029
55	0xbe517b2a	-0.2045714
56	0xbe03c250	-0.12867093
57	0x3e241805	0.16024788
58	0xbdcb5791	-0.09928811
59	0xbd994be6	-0.074851796
60	0xbeed127e	-0.4630317
61	0xbee1ba88	-0.44087625
62	0xbe45424e	-0.19263574
63	0x3e58093a	0.2109727
64	0x3ecbdb73	0.39815864
65	0x3c76933f	0.015049755
66	0x3e9447f5	0.2896115
67	0x3d56e0e3	0.052460562
68	0x3d663eb9	0.05621216
69	0x3e475af4	0.1946829
70	0xbd5f36b8	-0.054495543
71	0xbe0040af	-0.12524675
72	0x3e4205a9	0.18947472
73	0xbcaa212a	-0.020767767
74	0xbe205b0e	-0.15659735
75	0xbbaf0a86	-0.0053418307
76	0x3da10315	0.07861916
77	0xbe66c7f8	-0.2253722
78	0x3d8e1f1d	0.06939528
79	0x3e028148	0.1274463
80	0x3df30259	0.11865682
81	0x3da7aed0	0.0818764
82	0x3e534a88	0.206339
83	0x3d33c5d6	0.043889843
84	0x3eb2cc87	0.34921667
85	0x3e9bcd73	0.30430183
86	0x3dc5fe67	0.09667664
87	0x3de55791	0.111983426
88	0x3e83d145	0.25745597
89	0xbd105f73	-0.035247277
90	0x3da464b9	0.08027024
91	0x3d6241de	0.055238597
92	0xbce6a1af	-0.028153269
93	0x3d77649f	0.060398694
94	0xbd4ecb72	-0.05048699
95	0x3dde2a44	0.10847905
96	0x3e57d9f4	0.21079236
97	0x3c988a29	0.018620567
98	0x3e1638dc	0.14670128
99	0xbdeb3593	-0.11484828
100	0x3ddb8b46	0.10719924
101	0x3c6801a0	0.014160544
102	0xbdc1eac3	-0.09468605
103	0xbd009bbf	-0.03139853
104	0x3d614220	0.054994702
105	0xbd65810d	-0.056031276
106	0xbd09746f	-0.033558305
107	0xbcf464c9	-0.029833214
108	0x3ce57bf5	0.028013209
109	0xbbcc77ed	-0.006239882
110	0xbd4def33	-0.050276946
111	0x3e053417	0.13008152
112	0x3d77c9d4	0.060495213
113	0x3d2e6db0	0.042585075
114	0xbd874744	-0.0660539
115	0xbd3ac90f	-0.0456019
116	0x3e1b8807	0.15188609
117	0xbe7aee54	-0.24504977
118	0xbe05d566	-0.13069686
119	0x3c97d874	0.01853583
120	0xbe25bed4	-0.16186076
121	0xbe8b8d71	-0.2725635
122	0xbdff8f25	-0.124784745
123	0x3e25a0c4	0.16174608
124	0x3d85aee1	0.06527496
125	0x3e0d61f0	0.13806891
126	0x3d9d1b3d	0.07671211
127	0xbd20c086	-0.039246105
128	0xbd90021c	-0.07031652
129	0x3e3088a7	0.17239629
130	0x3da17e53	0.078854226
131	0x3d80e9fa	0.062946275
132	0x3e535b22	0.20640233
133	0x3d26a9c4	0.040689245
134	0x3e0d10fa	0.13776007
135	0x3d8aebe8	0.06783277
136	0xbded9721	-0.11601091
137	0x3d1c83db	0.038211685
138	0x3d5e69f8	0.05430028
139	0x3d21cdd1	0.039502922
140	0x3d8b3c7c	0.06798646
141	0xbde1e39d	-0.11029742
142	0xbda4503f	-0.08023118
143	0xbe003f57	-0.12524162
144	0xbd88131a	-0.06644268
145	0xbdc20da2	-0.094752565
146	0xbc6a8e75	-0.014316191
147	0x3de0a75c	0.10969421
148	0x3d892873	0.06697168
149	0x3b62fe7b	0.0034636545
150	0x3e036c15	0.12834199
151	0x3cc6a2be	0.024247523
152	0x3dce02dd	0.1005914
153	0xbdfe7109	-0.124239035
154	0xbc0d20a7	-0.008613742
155	0xbe974862	-0.2954741
156	0xbd908cf5	-0.070581354
157	0xbdc4af93	-0.096038006
158	0xbe8d73b3	-0.27627334
159	0xbe22eb9e	-0.15910193
160	0xbdedd436	-0.11612742
161	0xbeb79179	-0.35853174
162	0x3d3987af	0.045295414
163	0xbd604f8c	-0.05476336
164	0xbe6a490a	-0.22879425
165	0xbc847b10	-0.016171962
166	0xbc37921a	-0.011204267
167	0xbd803587	-0.062602095
168	0xbcc2bbb6	-0.023771148
169	0x3d6abf29	0.05731121
170	0xbdcd7628	-0.10032302
171	0x3b9da206	0.0048105745
172	0xbc174f00	-0.009235144
173	0x3caf018e	0.021363046
174	0xbd8c5d94	-0.06853786
175	0xbc3c3e85	-0.011489515
176	0x3daedd61	0.085383184
177	0xbca5b525	-0.020227978
178	0x3d315877	0.043297257
179	0xbdff3f71	-0.12463272
180	0x3cc922cf	0.02455273
181	0x3d4d5f38	0.050139636
182	0xbe12eb43	-0.14347558
183	0x3e064c18	0.13114965
184	0x3e299956	0.165624
185	0xbb870513	-0.004120478
186	0x3c1cae19	0.0095629925
187	0x3dea468b	0.11439236
188	0xbdd140ab	-0.102174126
189	0x3d8db57c	0.06919381
190	0xbe478a01	-0.19486238
191	0x3c6f4fb6	0.014606407
192	0x3bf4681e	0.007458701
193	0xbda5e869	-0.08100969
194	0x3b2db8cd	0.0026507855
195	0xbdc8acf0	-0.0979861
196	0xbbbfc165	-0.005851912
197	0xbd451abb	-0.048121195
198	0xbd1963bb	-0.037448626
199	0xbcde7f15	-0.027160207
200	0xbe1197f0	-0.14218116
201	0xbdb08cf3	-0.08620634
202	0x3d20057d	0.039067734
203	0x3bddbfd8	0.0067672543
204	0x3dad3948	0.08458191
205	0xbb87bf55	-0.0041426816
206	0xbdd04aea	-0.10170539
207	0x3dd7a020	0.10528588
208	0x3c0e3b22	0.008681091
209	0x3e10eb41	0.14152242
210	0xbd2db1ca	-0.04240588
211	0x3e14086b	0.14456336
212	0xbdcde757	-0.1005389
213	0xbe4e2535	-0.20131381
214	0xbda970a0	-0.08273435
215	0x3d158ad5	0.036509354
216	0x3dfe46a8	0.1241582
217	0x3d8dc445	0.06922201
218	0x3d124010	0.035705626
219	0x3ccd5f76	0.025069933
220	0x3e06bdc9	0.13158335
221	0x3e1c467e	0.15261266
222	0xbd8c8db6	-0.06862967
223	0x3dbab658	0.091168106
224	0x3cd504a1	0.026003184
225	0x3d1fe47c	0.03903626
226	0xbdbf0f04	-0.09329036
227	0xbd86e938	-0.06587452
228	0x3d95c08e	0.073121175
229	0xbc9e6753	-0.019336378
230	0x3dadd9f0	0.08488834
231	0x3cf752f0	0.030190915
232	0x3d83b8d4	0.064317375
233	0x3d85a50b	0.0652562
234	0xbec77c24	-0.389619
235	0xbe9d58ab	-0.3073171
236	0x3e00c744	0.12576014
237	0x3dd8232e	0.10553585
238	0x3d6e7128	0.058213383
239	0x3ea382a7	0.31935617
240	0x3ddd45de	0.10804342
241	0xbc05877b	-0.008149977
242	0x3e4ca44a	0.19984546
243	0xbd8fe945	-0.070269145
244	0xbd9d9029	-0.07693512
245	0xbe0822b2	-0.13294485
246	0xbe1903c5	-0.14942844
247	0x3cf4cf6e	0.029884066
248	0x3e46239b	0.1934952
249	0x3e33f656	0.17574438
250	0xbe3e79a4	-0.1860109
251	0x3e2f8936	0.17142186
252	0x3aa4d6bd	0.0012576204
253	0xbcac2104	-0.021011837
254	0x3d1b4ab3	0.037913036
255	0xbe131d93	-0.1436675

layers.0.conv1.attention1.0.bias f4 [9]
0	0x3e357070	0.17718673
1	0x3dcd742d	0.100319244
2	0x3e295e20	0.16539812
3	0x3d9a290b	0.075273596
4	0x3e2035e0	0.15645552
5	0x3c5c5b15	0.01344945
6	0xbcafb18a	-0.021446962
7	0x3e134d99	0.1438507
8	0x3e1552a6	0.14582309

layers.0.conv1.attention1.2.weight f4 [9, 9, 1, 1]
0	0x3ed9bb91	0.42525914
1	0xbd993b66	-0.074820325
2	0xbe74dd45	-0.23912533
3	0xbecb4324	-0.39699662
4	0x3d64eb1a	0.055888273
5	0x3dfb36f5	0.122663416
6	0x3f8886ad	1.06661
7	0x3da64514	0.08118644
8	0x3f2c654a	0.67342055
9	0x3d4e0754	0.050299957
10	0x3ece9538	0.4034822
11	0x3f0ca391	0.5493708
12	0x3e151e91	0.14562441
13	0xbf303d9d	-0.68844014
14	0x3f47e2ee	0.7808064
15	0x3ea60f46	0.32433528
16	0xbee4ad04	-0.4466325
17	0x3f55c46e	0.8350285
18	0x3f8a4012	1.0800803
19	0x3ec6c995	0.3882567
20	0x3efe7c8c	0.49704397
21	0x3e37ae01	0.17937471
22	0xbf54741b	-0.8298966
23	0xbe5330c4	-0.20624071
24	0xbfb5a2c5	-1.4190298
25	0x3ed01928	0.40644193
26	0x3f9dcd08	1.2328196
27	0xbe36bebe	-0.178462
28	0xbf1bb266	-0.6081909
29	0x3fa21ca0	1.2664986
30	0xbefe2981	-0.4964104
31	0x3f584256	0.8447622
32	0xbe955311	-0.29164937
33	0xbed06468	-0.40701604
34	0x3e1d5c4c	0.1536724
35	0xbf06aba1	-0.52605635
36	0x3dc04884	0.09388831
37	0xbe0c0c8c	-0.13676661
38	0x3eeef0b6	0.46668023
39	0xbdc36890	-0.09541428
40	0x3e79cabe	0.24393746
41	0x3f47e942	0.780903
42	0x3db520d0	0.08844149
43	0xbf779b43	-0.96721286
44	0xbf7e8538	-0.99422026
45	0x3f20c14f	0.62794966
46	0x3ee2d890	0.4430585
47	0xbeb3106a	-0.3497346
48	0xbf668df9	-0.90060383
49	0x3e1b4ea7	0.15166722
50	0xbdccc6b3	-0.09998836
51	0x3efe6c6b	0.4969209
52	0xbf2d76a2	-0.67759144
53	0x3e0eb6b9	0.1393689
54	0x3ed6d53d	0.41959563
55	0x3fc8a8cd	1.5676514
56	0x3e712cb3	0.23552208
57	0x3e77164b	0.24129598
58	0x3e9902c0	0.2988491
59	0xbda2d180	-0.07950115
60	0xbf30320c	-0.68826365
61	0x3f89b141	1.0757219
62	0x3e447127	0.19183789
63	0x3dbaaeb4	0.09115353
64	0xbedb7d0c	-0.4286884
65	0xbdcf262d	-0.10114703
66	0xbe723468	-0.23652804
67	0x3b8deb99	0.004331064
68	0xbef0d45c	-0.47037017
69	0x3f3cb8ba	0.7371937
70	0x3ea753a9	0.32681015
71	0x3e740128	0.23828566
72	0xbc119083	-0.008884552
73	0xbd0c51e7	-0.034257796
74	0x3f06460e	0.52450645
75	0x3ef31338	0.474756
76	0x3efe47c3	0.49664125
77	0xbf6e792b	-0.9315364
78	0xbe763dc9	-0.24047007
79	0xbd5446d2	-0.051825352
80	0xbf259846	-0.64685476

layers.0.conv1.attention1.2.bias f4 [9]
0	0xbe05f0a8	-0.13080084
1	0x3e026be0	0.12736464
2	0x3dbe509e	0.0929272
3	0x3c7a514e	0.015278174
4	0x3de76bbc	0.112998456
5	0xbe7ed6cd	-0.24886627
6	0x3d8b9966	0.06816368
7	0x3d1462df	0.036227103
8	0x3df35d2f	0.11883008
