weights/BWNET_LAGConv_T2/model_epoch_370.pth (torch, 678374 bytes, 141 tensors)

raise_dim.0.weight f4 [32, 9, 3, 3]
000000 8d 47 f4 bc bf 5b ce bb 13 12 01 bc 90 d1 31 3d
       -0.029819274 -0.006297558 -0.007877844 0.043412745
000010 8e dc 6e 3d dc da 5d bc 40 39 d7 3d 9c 25 1a 3d
       0.058315806 -0.01354095 0.105089664 0.037633523
000020 82 45 19 3e 75 c0 1a be 25 85 51 bd 42 57 04 3b
       0.14967921 -0.15112479 -0.051152367 0.0020193611
000030 3d 39 38 3d 72 09 71 bd c1 f9 91 bd b8 65 e8 bd
       0.04497646 -0.0588469 -0.07127715 -0.11347526
000040 c9 56 c2 bd d4 f3 61 3d d2 5e fa bd 8d 4f ab bd
       -0.09489209 0.055164173 -0.12225117 -0.083647825
000050 98 2e 9a 3b 05 db 35 3d 77 03 1f be 42 e5 94 3c
       0.0047052614 0.044398326 -0.15528665 0.018175725
000060 cf db 8f 3b c5 a8 ed 3d 1c 94 30 bc 8d cd 67 3c
       0.004390217 0.11604456 -0.0107774995 0.014148128
000070 cd 3f 8e bd a3 4b 37 3c 63 3b f6 bc 3e 15 0e be
       -0.06945763 0.011187467 -0.030057615 -0.13875291
000080 c8 8b 8d 3b 50 ee a0 bd fb aa c2 3c 6e 59 34 3d
       0.0043196417 -0.078579545 0.02376317 0.0440306
000090 ce b1 e8 bd 0f ae 0b be 63 38 ae bd d7 eb fb 3c
       -0.113620386 -0.13640617 -0.08506849 0.030752106
0000a0 96 37 69 bd 0d 6a d6 3d 31 87 aa 3d dc 75 d4 ba
       -0.056937777 0.10469446 0.08326567 -0.0016209441
0000b0 c6 30 01 bc 51 19 29 bc 41 9f 03 be 83 8e 8e bd
       -0.007885164 -0.010320977 -0.1285372 -0.06960776
0000c0 c8 69 a4 bc 4d 50 5c bc 00 a8 4a 3d 50 8b 99 bd
       -0.020069972 -0.01344688 0.049476624 -0.07497275
0000d0 4b 5c f0 3c 1c f7 60 3d 41 91 58 3d e8 43 61 bd
       0.029340884 0.054923162 0.0528729 -0.0549964
0000e0 3a 79 37 3b 22 02 13 bd 81 8e 6a 3d df 53 26 3e
       0.002799584 -0.035890706 0.05726481 0.16242932
0000f0 2f 0b 27 3e 78 44 97 3d a4 e4 86 3d 9d 44 f7 bd
       0.1631286 0.07386106 0.065865785 -0.12073634
000100 45 1e ed bd 3d 67 68 bd 53 a9 dd bd bd a9 3d bb
       -0.11578039 -0.05673908 -0.10823312 -0.0028940283
000110 78 0d 8a 3d fa 5b 8e bd 62 88 15 bd cf 2e cf bd
       0.0674085 -0.06951137 -0.036507018 -0.1011635
000120 24 96 97 bd 0f 56 f5 bb 70 28 b6 3d 6f 21 f7 bd
       -0.07401684 -0.0074870656 0.088944316 -0.12066924
000130 65 01 b5 bd ef 8b 84 3d 19 3a 14 3e 4b f2 a6 3d
       -0.088381566 0.06472003 0.14475287 0.081516825
000140 2c 2a c7 3d f9 46 2f bd e9 4a 92 bd 3c 2d eb 3c
       0.097248405 -0.042792294 -0.07143194 0.028708093
000150 62 3a 08 3e 4b 02 27 bd e1 b6 7a bd 4b 38 8e bd
       0.13303521 -0.04077367 -0.061209563 -0.06944331
000160 a9 7b 58 bd c7 ac 81 bd f7 16 0f 3e 95 2c d1 bd
       -0.052852307 -0.06331783 0.13973604 -0.102135815
000170 0c 05 c0 3d 9b 82 90 3c 34 da 89 3d c0 0c 10 3c
       0.093759626 0.017640403 0.06731072 0.008792102
000180 14 fb bf 3d 06 ce f8 bd 52 12 c7 bd aa 44 74 3d
       0.09374061 -0.12148671 -0.09720291 0.059635796
000190 e1 9d b1 3d 75 80 4c bc 77 37 f6 3d d3 10 6d 3d
       0.08672691 -0.012481798 0.12022298 0.057877373
0001a0 95 d1 a2 bd 2d 1a 91 3d 2f ac 84 bc f6 98 a2 3d
       -0.07950131 0.07085071 -0.016195385 0.07939331
0001b0 55 b3 b4 3d 05 cc 83 3d 0c 36 80 3d 0d 5c 22 bd
       0.08823267 0.06435398 0.062603086 -0.039638568
0001c0 6f a7 58 bd 37 1d 4f bb 84 61 88 3d 80 4e c9 bd
       -0.052894052 -0.0031603107 0.06659225 -0.09829426
0001d0 cb 2e a2 3d d5 bb df 3c 26 99 80 bd 61 99 6c 3d
       0.07919081 0.027311245 -0.06279211 0.05776346
0001e0 31 a3 43 3e c1 55 d3 3d 2a 28 d2 bc 17 f6 a7 3d
       0.19105221 0.10319091 -0.025653917 0.08201235
0001f0 96 24 83 bd fb ce 91 3d f4 3a 14 3e a5 22 f2 3c
       -0.064034626 0.071195565 0.14475614 0.029557535
000200 0e aa 86 bd f1 87 65 3e e9 93 82 3d 71 13 e6 bc
       -0.06575404 0.22415139 0.06375868 -0.028085442
000210 e5 62 2f 3e 53 cf 72 3c 1d 72 a8 3d de d6 ce 3d
       0.17127569 0.014819938 0.082248904 0.100995764
000220 92 47 78 bd 49 49 ad bd 81 18 25 3e 80 c7 51 3d
       -0.06061513 -0.08461244 0.16122629 0.05121565
000230 7b 81 13 bc 26 92 71 3c be 92 e6 bd 63 2c 7c bc
       -0.0090030385 0.014744317 -0.112584576 -0.015391442
000240 c9 be c1 bd 7b f8 01 be 33 1c 27 be be f4 c2 3d
       -0.094602175 -0.12692444 -0.16319351 0.09519337
000250 61 91 bc bd 4f 92 73 bd 7d 20 7a 3b 07 b2 c4 3c
       -0.09207416 -0.059465703 0.0038166337 0.024010671
000260 15 2c bf 3a 4b 60 c6 bd f8 7d a7 bc e4 5a 0f be
       0.0014585281 -0.09686335 -0.020445809 -0.13999516
000270 e3 f1 57 3a 63 e0 ad bd 23 60 3d be e3 d0 c9 3a
       0.0008237643 -0.08490064 -0.18493704 0.0015397336
000280 c6 56 30 be 14 eb 21 3b 1b 1f 7f 3d 82 34 87 bd
       -0.17220601 0.0024706768 0.062285524 -0.06601812
000290 70 b6 da bd 9d c9 9a bd 6b 81 89 bd e3 6c 0c be
       -0.106793284 -0.07557986 -0.06714138 -0.13713412
0002a0 41 51 4a 3d 14 7e 49 3d af 0a 45 3d 64 23 1a 3d
       0.049393896 0.049192503 0.04810589 0.037631407
0002b0 f6 fc 39 bd cb d4 99 bd 9a 46 72 bc 9f c2 40 3d
       -0.045407258 -0.0751129 -0.014787341 0.047060605
0002c0 c9 b1 2d be 42 5e 81 bd 00 ad 32 3d f6 8f e5 bd
       -0.16962351 -0.063168064 0.043622017 -0.11209099
0002d0 14 e2 19 bd ae d8 af bd 5d 9e 8a bd ea a8 b8 bd
       -0.03756912 -0.0858625 -0.06768487 -0.09016593
0002e0 b8 95 60 bd 45 48 0b be 88 25 8c bc 08 c1 fd 3d
       -0.054830283 -0.13601787 -0.01710774 0.123903334
0002f0 60 28 a0 bd 88 4b 47 3d f1 8d 04 be 29 ed 15 3c
       -0.07820201 0.048656017 -0.12944771 0.009150782
000300 e9 af 0a bd 78 de 9d bd 8b 51 43 bd fe 71 ec 3d
       -0.033859167 -0.07708448 -0.047685187 0.1154518
000310 e0 dc 65 bc 0c f2 c9 3d f4 f5 8b 3c cb 66 2a bd
       -0.0140297115 0.0986062 0.017085053 -0.041601937
000320 cb a1 83 3c f6 0e 0a 3e e5 ba 13 3e a3 65 f0 bc
       0.01606836 0.1348227 0.14426763 -0.02934534
000330 4e 16 73 bc d1 71 f7 3c 3e a9 38 bd 24 42 c1 bd
       -0.014836861 0.03020564 -0.045083277 -0.094364434
000340 96 48 16 bc b6 0e c3 bd 29 f5 05 be a1 b7 9f bd
       -0.009172579 -0.0952429 -0.13081802 -0.07798696
000350 9d 7e 47 be 52 53 9f 3d 14 ce 69 bd 36 e4 b2 bd
       -0.19481893 0.07779564 -0.057081297 -0.08734934
000360 2e 4e bd 3c 67 14 2a 3d 11 35 d1 bd b2 71 d5 3d
       0.023108568 0.041523363 -0.102152 0.10422076
000370 0a ac f2 bc 54 e6 23 be 91 73 0a 3e c2 88 40 3c
       -0.02962305 -0.16005832 0.13520648 0.011751356
000380 68 dd bd 3d 0f 14 4f 3d 26 89 e4 bd 0a 25 b9 bd
       0.092707455 0.05055624 -0.111589715 -0.09040268
000390 6b d5 3c bd 6a 6a 22 bd ff ed f8 bd 9f 11 96 3d
       -0.04610197 -0.039652266 -0.12154769 0.0732758
0003a0 42 d6 bd bc a7 d7 c5 bd e2 db f1 bd 6e a3 78 bd
       -0.023173455 -0.09660273 -0.118095174 -0.060702734
0003b0 3b c6 86 bd f4 51 cb bd 28 5e 99 bd 52 c6 d0 bd
       -0.06580778 -0.09927741 -0.07488662 -0.101940766
0003c0 cc 61 d1 3d 29 05 b5 bd db eb 95 bd 03 61 28 be
       0.102237314 -0.08838875 -0.073203765 -0.16443257
0003d0 b7 07 fa 3c 4f 22 84 be ba 63 23 3e 34 fa ab 3e
       0.030521257 -0.25807425 0.15956011 0.33589327
0003e0 fb d6 9b 3e ad 8e fd bd 52 04 28 3e 55 a2 cf be
       0.30437455 -0.12380729 0.16407898 -0.40553537
0003f0 d7 0c 53 3c 34 59 dd 3d 08 72 8c b8 0d d0 69 bd
       0.012881479 0.1080803 -6.69696e-05 -0.05708318

raise_dim.0.attention1.0.weight f4 [9, 9, 3, 3]
000000 8c 6b 17 be 6b f5 7b 3e 24 c2 cf bc 4c 54 81 3c
       -0.1478712 0.24605338 -0.025361128 0.015787266
000010 ea 23 b0 3e b2 02 9c 3d 49 78 08 bd 20 76 f8 3e
       0.344024 0.076177016 -0.033317838 0.48527622
000020 16 9d 8b 3d e2 74 3e 3e 70 df b7 3e a8 cd 0d 3f
       0.06817071 0.18599275 0.35912657 0.5539193
000030 38 97 82 3e b7 84 6c 3e 04 b8 62 3e 2e ac 1f 3e
       0.25505996 0.23097502 0.22140509 0.15593025
000040 c7 2c e5 3d 1f 37 9e 3e 0f 6e fb 3c e6 8e fd bd
       0.11190181 0.3090143 0.030692128 -0.12380771
000050 1a 85 ea bd 4d 1d 32 3c 26 38 be be 10 0b ff bd
       -0.11451168 0.010871244 -0.37152213 -0.12453282
000060 ff 68 60 3d 18 c1 4f 38 ce 55 b4 3e 0e ab aa 3e
       0.054787632 4.953248e-05 0.35221714 0.3333363
000070 5e a9 bb bd 21 20 e2 bd fc 3a 72 be ac 0c b1 bc
       -0.091631636 -0.11041284 -0.23655313 -0.021612488
000080 58 4c 8b bc 91 b5 3d 3c da 52 30 be 02 0c ed be
       -0.017004177 0.011578933 -0.17219105 -0.46298224
000090 e9 a2 d2 3d 97 d2 76 bd 7c f2 4c 3e de 12 8c 3e
       0.10284979 -0.060259428 0.20014375 0.27358145
0000a0 7d ce bd bd 21 f5 84 3e f7 a4 eb 3c 22 2d 8a bd
       -0.092679 0.2596827 0.028765185 -0.0674689
0000b0 18 8f 06 3f cd 74 07 3c 80 48 95 bd cf 28 02 3d
       0.52562094 0.008267594 -0.07289219 0.0317772
0000c0 04 d9 8e be cf d1 bd be 0f 1b f2 bd 6d 60 1c 3d
       -0.27899945 -0.37074134 -0.11821567 0.038177896
0000d0 1d 75 dc be 47 e2 c9 bd 0e b0 4b bd 77 e2 14 3c
       -0.430581 -0.09857612 -0.049728446 0.009087197
0000e0 e8 c8 3c 3e 28 af 19 be a2 f1 5e be b0 3d 56 3e
       0.18436015 -0.15008223 -0.21771863 0.2092197
0000f0 0f 87 83 3d 67 5c 2b be 5a bc 9c 3e ab 3c da bd
       0.06422245 -0.16734467 0.3061245 -0.10656103
000100 84 28 c7 be 90 39 d8 be 39 18 99 bc e3 fe ae be
       -0.38898098 -0.42231417 -0.018688308 -0.34178838
000110 fa 33 f4 be 30 1e 59 3e 9c fb 96 be 81 57 7d be
       -0.47695905 0.21202922 -0.29488838 -0.24740411
000120 df 17 85 bd e4 f9 17 bd f4 e8 f5 3e 87 66 db 3d
       -0.06498694 -0.03710355 0.48029292 0.10712915
000130 51 e2 82 bd c0 ab e8 3d a6 f4 33 be eb 85 af 3d
       -0.06390823 0.11360884 -0.17573795 0.08570465
000140 38 ba b1 3c c0 d8 68 be ed f7 84 be 4c d9 b6 be
       0.021695241 -0.22738934 -0.25970402 -0.3571266
000150 d1 35 83 be a7 53 e8 bd bf cb 0d 3e e8 1e 96 3d
       -0.25626996 -0.113440804 0.13847254 0.07330114
000160 57 77 05 bf f9 d5 b7 3b 27 c4 81 3e 5e 40 45 bd
       -0.52135223 0.0056102243 0.25344965 -0.04815709
000170 c9 a9 7c be 2d d9 e4 3c f7 4d 76 bd c8 f4 9c bd
       -0.24674143 0.027935589 -0.060132947 -0.07663876
000180 a2 f7 81 3c ab 7e f7 bd 7f 23 18 3d 5d 64 95 be
       0.01586515 -0.12084707 0.037143227 -0.29178134
000190 85 00 c3 3d ed e3 b6 3d 8e 05 b8 bb 91 8a be be
       0.095215835 0.08930192 -0.0056158965 -0.37215093
0001a0 58 02 49 be d7 5a ee bd 60 59 f5 bc ba bb c1 bc
       -0.196298 -0.1163842 -0.029949844 -0.023649085
0001b0 29 d5 22 3d af 5b 77 bd 36 fd bc be 3a 04 35 3c
       0.039754067 -0.06039017 -0.36911935 0.011048371
0001c0 46 bf ee bb 42 fa 96 3d fd d0 e4 3d 0a 09 87 be
       -0.007285985 0.07371952 0.11172674 -0.26374084
0001d0 5a c6 9f 3c 14 a8 b4 3e bb de 27 3b 12 ae fb 3c
       0.019503761 0.35284483 0.0025614935 0.030722652
0001e0 d5 a3 8b 3e 3d d5 4f 3e 74 f5 6c bd 4e 0d 8c be
       0.2727343 0.20296188 -0.05785127 -0.273539
0001f0 e1 04 e8 bd 75 9e 4a 3c 12 8b 5e 3c 50 5c 35 be
       -0.113290556 0.012366881 0.013582962 -0.17710996
000200 23 5c dc bd 29 cc 63 bc a0 99 02 3e ec 02 34 3e
       -0.10759761 -0.013903656 0.12753916 0.1757924
000210 79 ac f0 bd 47 0b 8c bd 4d a0 62 be bc 10 03 3c
       -0.117516465 -0.068380885 -0.22131462 0.007999595
000220 ba 93 11 be 61 d4 bc 3d dc 24 73 3e 02 6d 8c bc
       -0.1421651 0.092201956 0.2374453 -0.017141823
000230 17 54 4e be 7f 28 93 3c 4a 5b d9 bd 20 8e b7 be
       -0.20149265 0.017963646 -0.10613115 -0.3585062
000240 b7 91 4e 3d 45 56 87 3d 35 70 59 3e b0 73 97 3e
       0.050431933 0.066082515 0.2123421 0.2958045
000250 d5 d4 a7 3e 3d 4f 57 3e a5 dc fa bc 1f d0 c3 be
       0.32779565 0.21026321 -0.03062279 -0.3824472
000260 ea 77 68 be 92 0a 3b be 43 d8 09 3e 9b 2b 42 3e
       -0.22701994 -0.18265751 0.13461404 0.18961947
000270 68 e2 4e bd 1d 6a 67 3e 51 96 a1 3e a0 a4 f6 be
       -0.050508887 0.22599073 0.31559995 -0.48172474
000280 98 78 8a be e9 58 23 be dd 88 37 3c 4c 93 e6 3d
       -0.2704513 -0.15951885 0.011202064 0.112585634
000290 03 78 25 3d 8d bd 23 3e 10 1d 2b 3e 6b cc f8 3d
       0.040397655 0.15990277 0.16710305 0.12148365
0002a0 91 43 6f 3d b2 e7 88 3d ce 57 24 3e 20 a7 61 3e
       0.058414046 0.066848174 0.1604912 0.2203641
0002b0 ca 99 14 be 4c d2 12 3e a7 d1 4d be 29 d6 ea bd
       -0.14511791 0.14338034 -0.20099507 -0.11466629
0002c0 9e e0 cf bd fb 5d 8f bd 38 36 2e be 24 77 2c be
       -0.10150264 -0.07000347 -0.1701287 -0.16842324
0002d0 e7 77 41 3e 5d 7c 35 bc 11 66 16 3c e4 28 9f be
       0.18893395 -0.011077014 0.009179608 -0.31085885
0002e0 31 8f f4 3c 70 e1 a1 be a3 e4 a1 bc 55 8d e9 3d
       0.029853435 -0.31617308 -0.019762343 0.1140391
0002f0 db b2 65 be fb 2b c9 bc 07 ec a8 bc 35 aa 49 3d
       -0.22431509 -0.024557104 -0.02062036 0.049234588
000300 5c 1d be bd ba 8e ce bd db 7a ea 3d aa 07 90 bd
       -0.092829436 -0.10085817 0.11449214 -0.07032712
000310 17 70 d3 bd 58 35 a2 bd 42 2b 2d be 8f a4 30 be
       -0.10324114 -0.07920331 -0.16911033 -0.17250274
000320 1a 5c 9a 3e 06 b9 ba bc 5a 7a 4b bc 88 bb 28 be
       0.30148393 -0.022793304 -0.012419308 -0.16477787
000330 74 66 bd 3c 24 d1 cf bd 35 5c 0f 3e 7f 8f aa 3e
       0.023120143 -0.10147312 0.14000018 0.33312604
000340 d5 64 f0 3c fa 35 c8 3d 23 74 3a bb 38 cb ab bb
       0.029344955 0.0977592 -0.002845057 -0.0052427314
000350 80 5c 9b be 30 c5 ff 3c 3b 4a 50 3e d5 b3 2a 3e
       -0.3034401 0.031221956 0.20340817 0.16670163
000360 17 0c 82 3e 20 71 64 3d 4b 6a e6 bb 7f a0 51 be
       0.2539985 0.055771947 -0.007031714 -0.2047138
000370 47 60 c4 3d b5 c6 0d be cb f4 b0 bc c7 81 07 3e
       0.09588676 -0.13845332 -0.021601101 0.132331
000380 dc 5d 3a 3d 24 1b 32 bd d1 fa 86 3d 29 f8 16 be
       0.045499668 -0.043482915 0.06590808 -0.14743103
000390 7d 12 e0 bd b4 73 3d be 32 4e 2d be 7c fc 2b 3e
       -0.10941026 -0.18501168 -0.1692436 0.16795534
0003a0 57 f2 49 be 2f 9a 39 be 93 86 89 bd 58 bd 4a be
       -0.19721352 -0.18125223 -0.06715121 -0.19798791
0003b0 2a 8a 37 bd 47 b9 8d be d0 09 9d be 68 5b 2e be
       -0.044809498 -0.27680418 -0.3067155 -0.17027056
0003c0 98 df d4 3d 0f f9 97 be 94 be 39 3e 21 55 a1 be
       0.103942096 -0.29682204 0.18139106 -0.3151026
0003d0 7e 40 c4 3d ba 69 e0 bd c7 43 2a 3e d3 0b e6 3c
       0.095826134 -0.10957666 0.16627418 0.02808181
0003e0 2b 9c c5 3e 88 e8 24 bd d3 5b 0b bd c6 e5 b7 bd
       0.3859571 -0.04026082 -0.034023117 -0.08979373
0003f0 37 01 86 be 29 ff a7 be ec 75 a2 bd 8b 04 65 3e
       -0.26172802 -0.3281186 -0.07932648 0.22365014

raise_dim.0.attention1.0.bias f4 [9]
000000 4e e8 46 3d 85 01 c4 3d e7 73 d1 be 87 db b1 bd
       0.048561387 0.09570602 -0.4090874 -0.0868445
000010 d2 fd 5f 3e fa 9b 0e 3e 27 33 70 be 20 2d df 3e
       0.21874169 0.13926688 -0.23457013 0.43589115
000020 16 e5 4f bd
       -0.050755583

raise_dim.0.attention1.2.weight f4 [9, 9, 1, 1]
000000 9f 20 13 be 44 34 aa be d0 58 87 be d3 f7 2d bf
       -0.14367913 -0.33243 -0.26434946 -0.67956275
000010 f4 95 dc 3d b2 c9 7f be c7 c3 c1 be b7 1e 20 bf
       0.10770789 -0.24979284 -0.3784468 -0.6254687
000020 ac 36 fe 3d 7b 40 bc 3e a6 d5 8c 3e 7f 58 f9 3e
       0.124127716 0.36767945 0.2750675 0.4870033
000030 d5 64 b3 3f 4b 1c cd 3e cd 1c 0e bf aa 18 ea 3e
       1.4015146 0.40060648 -0.55512697 0.45721942
000040 7c b6 4b be 99 6c 4c 3f c1 ab 23 3e 02 20 8a be
       -0.19893831 0.79853207 0.15983488 -0.26977545
000050 71 17 22 3f 0e b5 6b be d2 82 28 be d1 c7 d7 3c
       0.6331702 -0.23018286 -0.16456154 0.026340397
000060 17 82 0b 3f 52 24 0b bf e4 a0 3c 3e 96 35 38 3d
       0.54495376 -0.54352295 0.1842075 0.04497298
000070 17 a2 4a bd 92 5a 97 3e ce c5 8f 3e b0 83 1b be
       -0.049470987 0.29561287 0.280806 -0.15186954
000080 57 98 41 be 82 cc 48 3e 8d d8 7b 3e 5c 59 79 bf
       -0.1890577 0.19609264 0.24594326 -0.97401977
000090 9f b6 e7 3f 83 82 2e be 71 60 e5 3e b8 39 31 bf
       1.8102607 -0.17041974 0.4480014 -0.69228697
0000a0 72 59 4f 3f 04 2d 17 40 2b 83 38 bd d9 21 29 bf
       0.8099586 2.3621225 -0.045046967 -0.6606727
0000b0 20 80 0b 3f 24 a1 99 be 74 fd 1f 3f c5 70 25 bf
       0.5449238 -0.30005753 0.62496114 -0.646252
0000c0 f8 38 b0 be 0d cb 16 3f 7a 12 83 bf 69 84 85 be
       -0.34418464 0.5890358 -1.0240014 -0.26077583
0000d0 73 42 18 3f ad a5 7b be 80 87 4a 3f 01 14 da 3d
       0.59476393 -0.24574919 0.79113007 0.10648347
0000e0 35 db 54 bf aa dc 8c bf fe b6 b3 3e 50 c2 b2 3f
       -0.83146983 -1.1004841 0.3510055 1.396555
0000f0 ba 9a d8 3e 4e 7f 12 bf bf 84 64 3f a1 82 d0 bd
       0.42305547 -0.572255 0.89265054 -0.101811655
000100 fa 59 b7 3d b4 47 a6 3c 8b 02 48 bf 08 c4 ba be
       0.089527085 0.020297863 -0.7812888 -0.36477685
000110 6e 9a 2b bf b1 47 57 3c c4 8b f9 be 4f 7d 1d 3f
       -0.67032516 0.013139651 -0.48739445 0.6151933
000120 58 5d a6 bd d6 de 48 bf c9 7b bf bc 62 df b2 bd
       -0.08123273 -0.7846502 -0.023374455 -0.08734013
000130 a0 fc 99 be 16 b7 d9 3e 54 19 14 bd 57 eb 0a 3f
       -0.3007555 0.42522496 -0.036156967 0.5426535
000140 3f c8 66 3f
       0.901493

raise_dim.0.attention1.2.bias f4 [9]
000000 1e 9b 8a be 69 c3 02 3d 1a 38 eb be 65 a5 65 be
       -0.2707147 0.03192464 -0.4594124 -0.22426374
000010 88 0f 34 be c6 9d c7 3e 80 77 8f 3e e5 d1 41 bd
       -0.1758405 0.3898756 0.2802086 -0.04731931
000020 dd 86 be 3d
       0.09303067

raise_dim.0.attention1.4.weight f4 [9, 9, 1, 1]
000000 6f 9a 36 be a5 ac 58 bf 1b 8b 05 3f fa 67 82 be
       -0.17832349 -0.84638435 0.52165383 -0.25469953
000010 98 67 07 3f b7 4f 0c 3e 79 cc a4 3c 97 93 84 3f
       0.52892447 0.13702284 0.020117031 1.0357541
000020 4a 20 6c 3d 12 b7 c1 3c 5c ce 8f 3e 79 ea 02 bf
       0.05764798 0.023646865 0.28087127 -0.51139027
000030 fc 10 14 3e b0 ef 86 bf 72 c3 d3 be a9 10 ba bf
       0.14459604 -1.0541897 -0.4136005 -1.4536334
000040 50 9a b8 3e 24 54 8d 3e 13 05 f6 bc 1c ff 12 3f
       0.3605523 0.27603257 -0.030031716 0.57420516
000050 5b 39 b0 be f9 16 d6 3e db cc dc 3d f1 f0 c1 be
       -0.3441876 0.41814402 0.107812606 -0.37879136
000060 ba d2 e0 3e 24 8a a1 3e 0b b3 83 3e ab 17 7c 3f
       0.43910772 0.31550705 0.25722536 0.98473614
000070 6a 0e bd 3d b4 83 71 bf d1 cf a6 be 17 33 13 bf
       0.09231265 -0.9434159 -0.32580426 -0.5749983
000080 fb ce b0 3e 53 2f 0c 3f 29 72 80 3f a3 5e af be
       0.34532914 0.5475971 1.0034839 -0.3425189
000090 a6 9b 70 bf a3 8f 00 bf 7c 97 8a bf cf 05 c1 be
       -0.939875 -0.5021917 -1.0827479 -0.37699744
0000a0 14 a4 d3 bf 0c a5 70 3f a5 4d 4a bf 28 81 b9 be
       -1.6534448 0.9400184 -0.79024726 -0.3623135
0000b0 15 80 93 3e ad 9d 28 3d 64 85 68 3e 8f 29 48 3e
       0.28808656 0.041165996 0.22707134 0.19547103
0000c0 cd 4c c6 3e 0c a3 d3 3e 71 43 00 bf dd c6 b4 3f
       0.3873047 0.41335332 -0.5010291 1.4123188
0000d0 e7 e9 0c 3f ac f8 50 bf 81 5e eb bd b7 f7 77 3e
       0.55044407 -0.81629443 -0.114926346 0.2421559
0000e0 e7 b7 36 3f 74 2c 10 bf 33 e4 cb 3e 86 4c d9 be
       0.7137436 -0.5631783 0.3982254 -0.42441195
0000f0 6f 05 0a 3f 02 a9 33 3f ea 21 7a 3e ac 81 6f 3e
       0.5391454 0.7017976 0.24427 0.2338931
000100 2f 18 6f 3e e7 59 0e 3e db d6 95 be 42 33 e7 bd
       0.23349069 0.13901483 -0.29265484 -0.112890735
000110 30 e4 04 3f ab d3 80 bf 73 52 0e bf bd 80 04 bf
       0.51910686 -1.0064596 -0.5559456 -0.5175894
000120 bb 92 5a 3d 0a 1e 09 3f 94 5c 3b 3f c7 2c 78 bd
       0.05336259 0.5356146 0.7318814 -0.060589578
000130 73 a2 54 3e 8f ce 8a 3e f0 56 65 bf e1 62 d4 be
       0.20765094 0.27110717 -0.8958578 -0.4148169
000140 1c 5d c9 be
       -0.3932885

raise_dim.0.attention1.4.bias f4 [9]
000000 6f 68 55 3d c2 05 16 3e 77 59 b4 bd 84 47 2f bc
       0.05210155 0.14650634 -0.088061266 -0.010698203
000010 76 30 10 3f d3 80 83 3c 2b 6c 06 bd ce ab aa bc
       0.56323946 0.01605264 -0.032818 -0.020833876
000020 de f1 1c 3d
       0.0383166

raise_dim.0.attention3.1.weight f4 [32, 9, 1, 1]
000000 6d d2 fb 3d ff 1a 19 bf 47 94 0a 3e 87 94 e7 3e
       0.12295995 -0.5980682 0.13533126 0.45230505
000010 4f 14 26 bd ef c8 fb be fe 39 31 be cf ee 49 3e
       -0.04054671 -0.49176738 -0.17307279 0.19720004
000020 d0 b3 ab be 17 1b 2a 3f d6 5b 2c bf cf 47 18 bd
       -0.33535624 0.66447586 -0.6732763 -0.037177857
000030 84 f5 39 be 70 9a 89 bf c8 d9 67 3f 73 11 fd 3c
       -0.18160063 -1.0750256 0.9056668 0.03089211
000040 2a 64 af bb ad d6 86 3d af 0f 38 3e 1d 61 16 3f
       -0.0053525167 0.06583915 0.17974733 0.58741933
000050 af 8c 8b bd 86 c4 85 3f 47 43 2e 3e 4d 99 f3 3e
       -0.06813943 1.0450599 0.17017852 0.47577897
000060 d3 94 2b 3e dd a2 e6 3e ed 3c 34 bf 7f 7d 91 3e
       0.1675599 0.4504613 -0.70405465 0.28416058
000070 84 40 93 3e 60 98 4a bf 2d b9 4f be ba dd 12 bf
       0.2876016 -0.79138756 -0.20285483 -0.5736958
000080 a9 27 10 3e ec 04 49 bf 82 d9 bc be f6 da ed 3e
       0.14077629 -0.78523135 -0.36884695 0.46456116
000090 16 ed 40 3f d5 16 fb 3e 35 d7 18 3e 99 10 5e 3e
       0.75361764 0.49040857 0.14925845 0.21686019
0000a0 e2 36 89 3e 91 b9 2e be a1 7c b0 bd bd 72 c8 3d
       0.26799685 -0.17062975 -0.08617521 0.097875096
0000b0 0e 70 82 3d c2 77 cc be c2 85 1d 3d ad a5 49 3d
       0.06369029 -0.39935118 0.03845764 0.049230266
0000c0 5e d1 a6 be ce 79 75 be 01 74 67 3e 83 cf 59 3f
       -0.3258161 -0.23972246 0.22602846 0.8508226
0000d0 60 e2 b9 bd 80 b8 af 3e 80 29 bc 3c a3 bf b7 3e
       -0.09076381 0.3432045 0.022969007 0.35888395
0000e0 f2 d4 82 3b d0 68 5f bd a3 96 ab 3e a3 5e e6 bd
       0.00399267 -0.054543316 0.33513364 -0.11248519
0000f0 bd fd d5 3e 9b 9c 37 bf a9 a6 66 bf d8 62 fc 3e
       0.4179515 -0.71723336 -0.90098053 0.49294162
000100 ec 3a 38 be 58 cb f8 be 3e 4c de be af fb 88 3e
       -0.17991227 -0.4859264 -0.43417543 0.2675452
000110 2d 3e f8 3e e6 b7 78 be 16 88 7e 3f f4 5c 33 bf
       0.48484936 -0.24288902 0.994264 -0.7006371
000120 de 97 4d 3f 0d 05 1c bf f0 f8 93 bf 46 22 96 be
       0.80309856 -0.60945207 -1.1560345 -0.29323024
000130 6b f0 54 be 7d cb a2 3e c0 f7 21 3f b7 19 fc be
       -0.20794837 0.31795874 0.6326866 -0.4923837
000140 10 54 85 bd e7 fe c7 be 3c 39 42 3e 48 6f ab be
       -0.06510174 -0.39061663 0.18967146 -0.33483338
000150 b8 38 72 be ac 99 f9 3d b0 8d 4a 3e 17 e8 b6 3e
       -0.23654449 0.12187514 0.19780612 0.35723945
000160 87 92 9a bc 71 cb b9 3c f8 5a 5f be f9 28 0b 3c
       -0.018868698 0.022680016 -0.21812046 0.008493655
000170 0f 28 90 3d 3b 38 26 3f aa 93 27 bf 45 26 4e 3e
       0.070388906 0.6492955 -0.6545969 0.20131786
000180 40 56 65 bf e3 cf e6 3e 18 75 03 3e cc 8e 0d 3f
       -0.8958473 0.4508048 0.12837636 0.55296016
000190 46 21 41 3f fb ef 20 bf de b5 97 be cf 65 05 bf
       0.75441396 -0.6286618 -0.2963094 -0.5210847
0001a0 5a ef 2f 3e f4 6d 46 be bc 6e ac 3e 94 32 0d bf
       0.17181149 -0.19377881 0.33678234 -0.551553
0001b0 9c 22 83 3e 5d 24 5d 3f 77 d4 17 3f 80 cd a9 3e
       0.25612342 0.8638361 0.5930857 0.33164597
0001c0 eb 95 df 3e 83 9d 82 be 17 a8 09 bf 2f ac 21 be
       0.43669066 -0.25510797 -0.5377211 -0.15788339
0001d0 2b d1 60 3f 0c fa 30 3f f3 77 05 bf ca 7d f3 bd
       0.87819165 0.6913154 -0.52136153 -0.11889227
0001e0 61 52 ca 3e 85 b5 f7 be 38 0b e5 be 23 a7 29 be
       0.39515975 -0.48380676 -0.44735122 -0.16567664
0001f0 94 4d bc bd d3 7a 12 3e fa de 83 be 90 d4 22 be
       -0.09194484 0.14304666 -0.25756055 -0.15901399
000200 3e f9 fe 3e df b5 07 3f 09 b0 24 be dd 4b 25 bf
       0.49799532 0.5301189 -0.16082777 -0.64568883
000210 9d 26 ce 3e b0 c8 d6 bd 45 be ba 3d 78 65 ab bc
       0.40263835 -0.10487497 0.09118322 -0.020922408
000220 19 c2 01 bf e1 1c ac 3e b5 92 a0 3e 5c f0 f5 be
       -0.50686795 0.33615783 0.3136193 -0.48034942
000230 ce ac 63 be b7 96 11 3e ae 3c 7c be 89 f0 c8 3e
       -0.22233889 0.1421765 -0.24632522 0.39246014
000240 be ef ae be 84 47 39 3d 48 3e ae 3e 13 4b 01 3f
       -0.34167284 0.04523422 0.34031892 0.5050518
000250 a2 da e3 3e d7 13 d4 3e 2d f7 9d 3e d7 57 0b bf
       0.4450274 0.41421387 0.30852643 -0.5443091
000260 dc 5e 57 3f 94 c3 cb be bd 03 b5 3e 63 6e 47 3f
       0.8412912 -0.39797652 0.35354415 0.7790281
000270 51 43 8a 3e 09 92 0a be 2d ba 11 bf c0 6e 14 3f
       0.27004483 -0.1353227 -0.56924707 0.5798149
000280 3e 4f b2 be 88 09 9e bd 0e 40 8c be f7 10 20 bf
       -0.34826082 -0.07716662 -0.2739262 -0.62525886
000290 c0 0c a9 be d5 a0 13 be 96 fb 21 3f ba 4d 0b bf
       -0.3301754 -0.14416821 0.63274515 -0.54415476
0002a0 7f 5f 24 3f 3a 26 ae be 67 16 3e 3e 22 0b 6d bf
       0.64208215 -0.3401354 0.18563233 -0.9259511
0002b0 94 a2 c7 3d 3b de c1 be a3 60 e3 be 14 b2 bc 3e
       0.09747806 -0.3786486 -0.44409665 0.36854613
0002c0 3c 0f ef bd 53 81 11 3e bf 09 a8 be 7e f3 f0 3d
       -0.116728276 0.1420949 -0.32819936 0.117651924
0002d0 3e c4 6d 3e 15 bc f2 be f9 3e 47 3e 62 75 cb 3e
       0.23219392 -0.4740912 0.19457616 0.39737993
0002e0 5e 2b 88 3e 0a cd 42 be e6 eb c7 3e a7 73 d5 3d
       0.26595587 -0.19023529 0.39047164 0.104224496
0002f0 e2 66 0d bf b9 9c 37 3e 22 3f 56 bd 3e 27 ab be
       -0.5523511 0.17930879 -0.052306302 -0.33428377
000300 10 19 80 3f bf 65 d5 be ed 2f 9a bd d6 42 83 3d
       1.0007648 -0.4167919 -0.07528672 0.06409232
000310 be 7c 32 3d e3 2c de bc 51 ec c6 3e 74 ca 4d 3e
       0.043575995 -0.027121013 0.3885217 0.20096761
000320 d3 83 9c be 40 1f fc 3e 8b f2 0a bf 7e 99 9f 3d
       -0.30569324 0.49242592 -0.5427634 0.07792948
000330 20 62 b4 3e 81 44 44 bf f8 22 82 3e 8a 91 ae 3e
       0.35231113 -0.7666703 0.25417304 0.34095412
000340 81 70 6e bf 0e df 98 bf a1 4e 58 3e 34 15 1c 3f
       -0.9314042 -1.1943071 0.21123745 0.60969853
000350 77 1f f6 be f0 fb 54 bf 2b e3 18 bf 6f bf 13 be
       -0.4807088 -0.83196926 -0.5972163 -0.14428495
000360 7d b3 a5 3b a4 77 70 3c 9d 81 82 be 46 65 48 3e
       0.005056797 0.014676962 -0.25489512 0.19569883
000370 87 b9 86 be bc ac 6f 3c 15 0a 76 3f 37 7b a2 3e
       -0.2631342 0.014628585 0.96109134 0.3173463
000380 10 fd e7 be 38 b7 13 3f 7c 50 db be 9a e2 50 3f
       -0.4531026 0.57701445 -0.42834842 0.81595767
000390 76 58 2b bf 23 bf b8 3e 50 b4 94 bd 5a 17 2b bf
       -0.66931856 0.36083326 -0.072609544 -0.66832507
0003a0 5c fd 78 bf 84 13 75 3e 1d cd 12 3f 9c 78 89 3d
       -0.97261596 0.23933226 0.5734423 0.067124575
0003b0 cd f7 95 3e 00 ea 4b 3f f2 39 3d be 69 04 36 3e
       0.2929062 0.7965393 -0.18479136 0.1777512
0003c0 2f c5 95 bb c5 ce 6f bd e3 31 8f be d7 46 61 3d
       -0.0045706253 -0.0585468 -0.27967748 0.0549992
0003d0 0d f1 ba be 6a be 90 bf 66 5d c9 bd 83 fe 91 bd
       -0.36512032 -1.130811 -0.098322675 -0.071286224
0003e0 9f cf 45 3c d0 1c 1b 3e 5c 8c 51 3e d4 5a b9 ba
       0.0120734265 0.1514771 0.20463699 -0.0014141449
0003f0 0e 2e af 3e 81 e8 d1 be 36 0e e6 3d f2 86 88 bd
       0.34214824 -0.409977 0.11233179 -0.06666364

raise_dim.0.attention3.1.bias f4 [32]
000000 81 e0 9b bc b3 13 09 3d 82 fb 7b bd 02 47 a8 3c
       -0.01902795 0.033466052 -0.061519153 0.020541672
000010 b3 cf be bc 2a 4d c8 3c 23 4b 5e 3c b5 d3 73 3c
       -0.023292398 0.024450857 0.013567719 0.014882018
000020 11 7c 80 3d c3 3c 1e bb 9f 9a 07 bc 6c 53 07 bd
       0.06273664 -0.0024145104 -0.008276611 -0.03303854
000030 19 5c 84 bc 1d 38 e1 3c 86 e6 ad 3b 50 e9 ec 3a
       -0.016157197 0.027492577 0.0053070216 0.0018074904
000040 4c 69 47 bd ff c5 c0 bd 89 e0 7c bb 06 51 82 3d
       -0.048684403 -0.09412765 -0.0038585982 0.0636311
000050 fd e2 0f bd 15 42 1f bd 07 a0 22 3c 0a ec 53 3d
       -0.035128582 -0.03888138 0.009925849 0.051738776
000060 86 94 91 bd 7e 80 05 bc 01 e2 bf bd 88 44 5f 3d
       -0.07108407 -0.008148311 -0.09369279 0.054508716
000070 0d 37 85 bc f4 55 e8 3c 98 80 24 bd 90 ca 46 bd
       -0.016261602 0.028361298 -0.0401617 -0.048533022

raise_dim.0.attention3.3.weight f4 [32, 32, 1, 1]
000000 f4 91 aa be 85 f7 a4 be c8 55 35 3e 87 63 8f 3e
       -0.33314478 -0.32220092 0.17708504 0.2800562
000010 84 ba 43 bd f8 ec 9a be e7 9f 18 be ef c4 3d 3e
       -0.047785297 -0.30258918 -0.14904748 0.18532155
000020 7d 85 32 3e f2 68 b0 bd b6 3c 75 be 63 52 79 be
       0.17433734 -0.08613767 -0.2394894 -0.24347834
000030 79 2a 0d bf 40 b9 71 bd d3 32 57 3e 9b b0 2f bd
       -0.55142933 -0.05901456 0.21015482 -0.042893033
000040 34 15 bb 3d 34 4e 08 3e 1f 6f 27 be 0a 24 8a 3e
       0.091349036 0.13311082 -0.16350983 0.2698062
000050 15 07 f6 bd d6 46 a2 3d 10 e1 9e 3e 15 21 09 be
       -0.120130695 0.07923667 0.31031084 -0.13391526
000060 f2 f6 61 3e 38 6c 81 3d 26 7b d3 bd 2a 19 31 3e
       0.22066858 0.06319469 -0.10326223 0.17294756
000070 c9 b9 cf 3d 32 d4 d6 bd 89 e5 34 be 8f 46 b9 be
       0.101428576 -0.10489692 -0.17665686 -0.36186644
000080 24 24 42 3e e4 f7 5b 3e cd 26 54 bf 0e c4 8b 3e
       0.18959099 0.21481282 -0.82871705 0.27298015
000090 bf fa d8 3e 41 92 3c bc 70 11 8d 3d 10 30 a4 be
       0.42378804 -0.011509479 0.068880916 -0.3206792
0000a0 e6 7d c3 bc 29 df b8 be aa 6f f5 bd 22 45 cd be
       -0.023863744 -0.36107758 -0.11984189 -0.40091807
0000b0 75 e3 21 be b3 13 02 bd 34 24 15 3d 5b 6e 0d 3b
       -0.15809424 -0.031757068 0.03641148 0.002158067
0000c0 53 85 b8 be 04 52 93 3e d8 7b 9f 3e 1b 37 4e 3c
       -0.36039218 0.2877351 0.31149173 0.01258638
0000d0 96 c8 16 be f9 ab 43 be 2e 69 96 bc 8b 48 93 3c
       -0.14724955 -0.19108571 -0.0183607 0.017978927
0000e0 d1 87 9a 3d e8 a6 f1 3e a9 3d bf be e4 ea da be
       0.07545436 0.47197652 -0.3735173 -0.42757332
0000f0 0a 6c 96 3e 58 a3 7d 3d e1 04 13 be 40 ba 73 bd
       0.29379302 0.061923355 -0.1435733 -0.059503794
000100 3f b3 28 3e bf 65 db bd 17 2e a1 bd 18 eb 0c 3f
       0.16474627 -0.10712766 -0.07870119 0.55046225
000110 1b bd 0b be 80 fa b9 3d 70 55 91 3d b4 3e d4 3e
       -0.13646357 0.09080982 0.07096374 0.4145409
000120 df f4 72 3e cd 16 f2 be 34 8f 09 bc 6d 6d 76 be
       0.23726223 -0.4728302 -0.008395959 -0.2406518
000130 8a 70 e6 3d 3c ea 21 3f 3d 85 8c bd 6e 01 c3 be
       0.11251934 0.6324804 -0.06861351 -0.38087028
000140 74 72 97 3e 1a bc 90 3e 4e 94 11 be 41 b7 8a 3e
       0.29579508 0.2826851 -0.1421673 0.27092937
000150 03 2a 57 3e b1 c6 a1 be 12 90 14 bf 72 65 07 3d
       0.2101212 -0.31596902 -0.58032334 0.03305573
000160 76 44 61 be 79 73 0e 3e 3a 52 fc bd f3 69 32 3e
       -0.21998772 0.13911237 -0.12320371 0.17423229
000170 ed 21 59 be 89 89 a1 3d 91 ca d7 3e 98 43 10 bf
       -0.21204348 0.07887561 0.42146733 -0.5635314
000180 62 b9 2a 3d 45 b3 8b 3e 82 bf 31 3d bb 6a 24 bd
       0.0416807 0.2728521 0.043395527 -0.04014085
000190 d6 79 2b 3d 21 1c 24 be a6 21 68 be 22 48 82 bd
       0.04186424 -0.16026355 -0.22669086 -0.063614145
0001a0 1b 51 39 3e 7a 0d 88 bd 37 8c 29 3d 07 56 19 bf
       0.18097346 -0.066431955 0.041393485 -0.5989689
0001b0 d9 ec 09 be ff 5a c8 bd e1 b8 52 3e 02 cb 0c bf
       -0.13469256 -0.09782981 0.20578338 -0.54997265
0001c0 ca 9f 1e bd 76 a0 c4 bd 0b 03 8d 3d fb b2 01 bf
       -0.038726605 -0.09600918 0.06885346 -0.5066373
0001d0 a6 98 ec bd 00 a1 e8 bd b5 cc 03 be 8c f2 7a be
       -0.11552553 -0.11358833 -0.12871058 -0.24506587
0001e0 bf 7d 08 3d 0b b5 a2 bd 88 da 28 bc 47 7b 15 be
       0.033323046 -0.079446875 -0.010306008 -0.14597808
0001f0 f4 e6 02 3e 39 ee 00 3e 8d 80 3d 3e 30 ba e1 3e
       0.12783414 0.12590875 0.1850607 0.44087362
000200 ba 4d b2 bc 2d b6 77 be cd b9 3f 3c eb d8 cf 3d
       -0.021765579 -0.24190588 0.011702013 0.10148796
000210 08 ab 03 3e 86 da 90 3e 6b 90 9c 3e 5f e8 cb be
       0.12858212 0.2829172 0.30578932 -0.39825723
000220 80 69 f4 bb ac 48 de bd 0c 35 7b be 9b 62 53 3e
       -0.0074588656 -0.10853705 -0.24531955 0.20643084
000230 fb b5 52 3e 80 f4 27 3e 42 5b 82 bd 69 73 8a 3e
       0.20577233 0.16401863 -0.06365062 0.27041176
000240 2d 60 4b bd 2b 7a 45 be 6b a2 d9 3e 68 5a 36 3e
       -0.049652267 -0.19284885 0.42506728 0.17807925
000250 5e 5f c5 bd 34 15 8a 3d d0 70 34 be 82 32 d9 be
       -0.096373305 0.067423254 -0.1762116 -0.42421347
000260 c0 f9 53 3e e8 c8 17 3d 2f f9 72 3e a1 32 fc 38
       0.20700741 0.037056834 0.23727868 0.00012025727
000270 28 51 69 be 18 98 00 3d f4 70 f5 3e 01 ec b2 be
       -0.22784865 0.031395048 0.4793774 -0.34945682
000280 4d 8a 91 3c c1 a6 93 3e 4c 4d 84 bd da cb 4e be
       0.017766142 0.2883816 -0.06460056 -0.2019495
000290 08 26 c3 bd 43 75 1b 3f 7a bf e2 3d 6e 0b 90 be
       -0.09528738 0.607258 0.110716775 -0.2813372
0002a0 12 2c fb bd 34 4d 6a be 3e a9 74 be 8d 63 93 be
       -0.12264265 -0.22881013 -0.23892686 -0.2878689
0002b0 4a c2 6b be b1 ca 80 be 68 a9 88 3e cc 06 84 3b
       -0.23023334 -0.2515464 0.26691747 0.0040291306
0002c0 93 6c a3 3d f2 48 b1 bd 37 5b b9 bd c3 08 49 3e
       0.07979693 -0.08656491 -0.09050601 0.19632249
0002d0 28 dc de 3d 2a f7 eb bd 1e cc bd 3d 10 9a 60 be
       0.10881835 -0.11521752 0.09267448 -0.2193377
0002e0 e4 ca b8 bd ff 5c 37 3d 10 5c 12 3e af 45 6b 3e
       -0.09023073 0.044766422 0.14292932 0.22975801
0002f0 b6 9a bb 3c de 4d 9a 3e 3d 0d b5 be ed ef 09 3e
       0.02290092 0.30137533 -0.35361663 0.1347043
000300 9f 5a 12 3f 72 f3 fd be 13 27 a2 be 97 07 5b be
       0.57169527 -0.49599797 -0.31670436 -0.21389614
000310 8f ca be bc f0 a7 6c 3e 55 f7 79 be dd 40 8a be
       -0.023289947 0.23110938 -0.24410756 -0.27002612
000320 e2 c8 16 be 6b ae 6f be 93 c6 a1 be 15 b1 62 3d
       -0.14725068 -0.23406379 -0.31596813 0.05534466
000330 0f 6e 8e be 8d 20 41 be 2e 9e e4 3e ec 2a b9 be
       -0.27818343 -0.18860073 0.44651932 -0.3616556
000340 28 e9 88 be 1a 17 1b 3c a3 97 f1 3d 3e 6a 45 be
       -0.26740384 0.009465957 0.117965005 -0.1927881
000350 06 db d6 3d e1 d3 b5 bc b6 05 79 3e 4e 1b 87 bd
       0.10490994 -0.022195758 0.24318585 -0.06597005
000360 a0 ff a2 3e b8 8e c6 be 00 b4 a7 3e c9 8e 94 bd
       0.3183565 -0.3878076 0.32754517 -0.072537966
000370 5f e8 12 3f 7e 9d a0 3e 13 aa fd bd 8e 09 0a 3e
       0.5738582 0.31370157 -0.12385955 0.13480207
000380 18 63 bb be fd 12 ab bd 1a fd a5 3e 36 31 2c 3d
       -0.3659904 -0.08353231 0.32419664 0.04203912
000390 82 d3 2b be b2 0f 6f bc 7c 64 8e 3e bc fd 0a 3f
       -0.16779903 -0.014591144 0.27811038 0.5429342
0003a0 d3 de c6 be ad 9f 8b bd c4 b8 da be c5 59 1d bf
       -0.38841876 -0.06817565 -0.4271909 -0.614651
0003b0 f1 9a fc bd 3c 89 68 bf e6 70 8d bf 64 0d 53 bf
       -0.1233424 -0.90834403 -1.1050079 -0.8244231
0003c0 ad c3 e1 3c b5 1c 77 bd e2 ff a2 3e 31 ae 99 3e
       0.027559126 -0.06033011 0.31835848 0.3001571
0003d0 3f 55 48 be c1 11 d1 be 6d c2 0b 3d ef 00 34 3e
       -0.19563769 -0.40833858 0.034120966 0.17578481
0003e0 de 2f 57 3c a6 4d a3 bd 10 4b 48 bc 48 d3 6c bd
       0.013133971 -0.07973795 -0.012224928 -0.05781868
0003f0 5c bd fd 3d 11 75 ee be e5 af 6c be 21 67 4f 3e
       0.12389633 -0.4657369 -0.23113973 0.20254184

raise_dim.0.attention3.3.bias f4 [32]
000000 b9 dd ae 3c a4 5a ef bb 83 6c 13 bd d4 e8 20 3d
       0.02134596 -0.0073045064 -0.035992157 0.039284542
000010 57 b0 3d bd 7b 42 92 bb 04 d2 b8 3c d0 bb b6 3d
       -0.04631075 -0.0044634915 0.02256108 0.08922541
000020 67 8b 19 3d 9b 87 bd bd df ff 07 3c 62 04 7b bd
       0.03748646 -0.0925438 0.0083007505 -0.061283477
000030 72 ea ec bc c9 60 e3 bc ed bf 82 bc 89 24 b4 3c
       -0.028920386 -0.027756112 -0.015960658 0.021990078
000040 3c f3 9c 3d 4f 1a 82 bd 89 9c e7 3a 21 b1 ed ba
       0.07663581 -0.06352674 0.0017670552 -0.0018134454
000050 d0 dc 43 bd 6c df 1f bd f3 84 0b 3c 44 27 fe 3c
       -0.047818005 -0.03903143 0.008515584 0.031024583
000060 b5 80 64 bc dd 18 b8 39 52 d4 b6 3d 1d f0 fb 3c
       -0.013946702 0.0003511374 0.08927216 0.030754143
000070 c5 03 4d 3c 52 3e 82 3d 6b 8f 4f bd e1 d5 0d bd
       0.012513106 0.06359543 -0.050673883 -0.0346278

layers.0.conv1.weight f4 [32, 32, 3, 3]
000000 77 4c 53 3d 40 c5 42 3c e7 e2 92 bd 37 02 06 bd
       0.051586594 0.011887848 -0.071721844 -0.032716956
000010 65 7f 89 bd 20 b6 06 39 1a d7 4d 3d de f6 15 bd
       -0.06713752 0.00012847083 0.050253965 -0.036612384
000020 76 5a b4 3c c0 35 ee bc f8 d4 cc bd 18 af 20 bc
       0.022015791 -0.029078364 -0.10001558 -0.009807371
000030 d7 1b 93 bd 86 ed fc bd 19 96 6e 3c 7b b3 71 bd
       -0.071830444 -0.123499915 0.014562153 -0.059009057
000040 de 35 77 bd b6 7c c7 bc 58 df 84 3d 6b c0 0b 3d
       -0.060354106 -0.024351459 0.06487912 0.03411905
000050 ba 6d 58 3d 56 9f aa bc 3d 5e 12 bd 40 79 c6 3c
       0.05283902 -0.02082793 -0.035734404 0.024227738
000060 b7 83 99 3d 0b d9 63 3d 6d af 10 3d d8 ad 71 bc
       0.07495826 0.05562691 0.03532355 -0.01475092
000070 04 43 84 be 6b c0 d9 3c 8f a7 4f be 25 dc 47 be
       -0.2583238 0.02658101 -0.20278762 -0.19517572
000080 fd 59 13 3e 44 22 71 bc 6f 20 24 bd 0f b2 22 3e
       0.14389797 -0.014717642 -0.040069994 0.15888236
000090 f2 97 3d 3d 7f 58 d1 bc 95 3e b8 bb 57 b1 c0 3c
       0.046287484 -0.025554894 -0.0056226947 0.023522062
0000a0 83 ec dc 3d ab 0a fb 3c 8e 5b 22 3d 02 cc 58 3d
       0.107872985 0.030644735 0.039638095 0.052928932
0000b0 57 03 87 bb 1b 39 38 be 8c 5a f5 3d 72 41 d6 3d
       -0.004120271 -0.17990534 0.11980161 0.104617015
0000c0 fc 8d cc 3d 74 07 f0 3d 08 82 2a 3d 40 77 d5 3c
       0.09988019 0.117201716 0.041627914 0.02605784
0000d0 9f 72 14 3c d9 1c dd 3d 37 12 47 be 33 52 52 be
       0.009060531 0.10796518 -0.19440542 -0.20539169
0000e0 fc d6 53 b9 33 b6 9a be 8b da 3e be 64 66 ea 3d
       -0.00020202616 -0.30217132 -0.18638055 0.11445311
0000f0 59 3b 49 be 42 1f 10 be 58 ec a9 3b 15 56 1a 3e
       -0.19651546 -0.14074424 0.005185645 0.150719
000100 00 bb 76 3e af 09 71 3e c2 f9 a9 ba 6b 2b 4d 3e
       0.24094772 0.2353885 -0.001296811 0.20036094
000110 83 34 61 3d 17 02 b6 3c 8d 65 cd 3d d3 3c ba 3d
       0.05498172 0.022217793 0.10029135 0.090936325
000120 58 6d 4f 3d 57 50 80 bd 8b 70 91 bc 05 52 b6 3c
       0.050641388 -0.062653236 -0.01775386 0.022255907
000130 9e 82 64 3d 40 a5 94 3a 99 4f 08 3d 5e 03 a1 3d
       0.05578863 0.0011340752 0.033279035 0.0786197
000140 a6 b2 82 bc a7 bf 8d be 5c 4a 71 3d 45 f1 a9 3d
       -0.015954327 -0.27685282 0.058908805 0.08297972
000150 fa f2 51 3d 63 4c 92 bd ba 12 c2 3d 67 7a 8f bd
       0.05125711 -0.07143476 0.09476228 -0.07005768
000160 b7 39 04 3e 82 58 2f 3e b0 fa 5d be 63 5c cd 3d
       0.12912641 0.17123607 -0.21677661 0.10027387
000170 b0 e2 8c bb 34 72 1b 3d 47 8b 87 bc 6b 19 64 3d
       -0.004299484 0.03795071 -0.016545905 0.055688303
000180 e0 3f 15 be 46 f8 df bc 19 e8 95 3d fd 45 e8 bb
       -0.14575148 -0.027340066 0.0731966 -0.0070884214
000190 1f 2e 2d 3d 0b 49 0f 3d b8 3d b4 bc 24 96 6d 3c
       0.042280313 0.03498177 -0.022002086 0.014501128
0001a0 37 da 46 3d 62 48 b3 bc 97 04 53 3d 47 fd ea bc
       0.04854795 -0.0218851 0.05151805 -0.028685225
0001b0 d6 2f cc bc 59 2c 85 ba a4 48 43 bd a8 68 9e bd
       -0.024925154 -0.0010160311 -0.047676697 -0.07734805
0001c0 79 47 03 be 5f 81 6b bd 51 fe d7 bc fd 3a 28 3c
       -0.12820233 -0.057496425 -0.026366385 0.01026797
0001d0 b9 9d 0a bb e1 16 89 3d 24 34 cd 3c ee 29 36 bc
       -0.002115114 0.06693817 0.025049277 -0.011118395
0001e0 28 08 0d 3d f0 c0 95 3b 21 a0 62 3c 07 b2 6a bc
       0.034431607 0.004570119 0.013832123 -0.014324672
0001f0 53 aa 3b bd f7 50 96 bd 56 db 80 3d f6 fd d1 bc
       -0.04581673 -0.073396616 0.06291835 -0.025633793
000200 ab 1a 2f 3e df 05 97 bd 83 3d 6f bd c6 b9 98 bc
       0.17100017 -0.07374167 -0.05840827 -0.018643271
000210 cf fc 5a bd 3f e5 d4 bd 9c 4b 21 3e 16 8b e5 3c
       -0.053463753 -0.10395288 0.15751499 0.028020423
000220 48 d9 e0 3c 1b 3f 28 bd 63 b7 54 bd 64 51 05 38
       0.027447358 -0.041075807 -0.051932704 3.1785472e-05
000230 5e 38 1e bd 54 67 a7 3c 41 0d 76 bc da 2c 3b 3d
       -0.038627975 0.020435013 -0.015017808 0.04569707
000240 3d 3e 0a 3a c2 4e ae bc 14 61 83 bd 00 73 d9 3c
       0.00052735565 -0.021277789 -0.064150006 0.026544094
000250 39 eb 06 3d 71 39 7c bc 1f 23 a5 bc 63 26 db 3c
       0.03293917 -0.0153945545 -0.020158349 0.026751703
000260 68 6f dc bc 1e 3e 3a bd ad 5d ce 3d 06 31 85 3e
       -0.026908591 -0.045469396 0.10076461 0.26013964
000270 99 8c a3 bc 9d ce 72 3c a3 ba 14 3e 26 d2 44 bd
       -0.019964503 0.014819768 0.14524321 -0.048051976
000280 82 8c 90 bd bc 91 68 3e 4d 92 b4 bd 98 7c 82 bc
       -0.0705805 0.22711843 -0.08816967 -0.015928552
000290 44 5b 46 3d e2 18 1f ba e5 87 c6 3c be bd 51 3c
       0.04842688 -0.00060690765 0.024234721 0.012801586
0002a0 9d 45 24 bb 35 89 81 bd 7b 48 13 3e a4 2a 59 bd
       -0.0025065907 -0.06324998 0.14383118 -0.05301918
0002b0 b4 fa c5 bd 37 98 b0 bd cc aa e7 3c 7a 58 3a bd
       -0.096669585 -0.08622783 0.028279684 -0.045494534
0002c0 73 9a 2f bd af 72 51 3d e1 3a 7b 3d 6f a6 83 bd
       -0.042871904 0.05113476 0.06133545 -0.06428229
0002d0 49 79 a2 bc 8e 43 a1 bb 93 90 aa bd 67 59 70 bd
       -0.019833224 -0.004921383 -0.083283566 -0.05867901
0002e0 5b b8 94 3d 19 eb 2e 3d c8 35 93 3a fc e7 55 bc
       0.072617255 0.042704675 0.0011231238 -0.013055798
0002f0 05 53 cb 3c 44 65 6d 3d 2e 12 62 3d 4d 05 d2 3c
       0.02481986 0.057957903 0.05519312 0.025637293
000300 11 08 84 3d 7e 47 22 3d 18 e3 e0 3d 15 49 54 3c
       0.06446851 0.03961896 0.10980815 0.012956877
000310 05 65 6f 3d 05 cf 2b 3c f9 82 ad bd 0b 5e 14 3d
       0.05844595 0.010486369 -0.08472247 0.0362225
000320 b3 7e 35 3e b4 55 1d 3d f1 a5 9a bc 1b ed 8d 3d
       0.17724113 0.03841181 -0.018877955 0.0692999
000330 4a de 07 bc a6 3d 51 3d fe 15 c3 3d ac 5f 5b 3d
       -0.008292744 0.051084183 0.09525679 0.053558037
000340 a2 c3 be bd aa de 83 b8 42 05 da bc a0 0f 43 bd
       -0.09314658 -6.288041e-05 -0.026613835 -0.047622323
000350 51 41 84 bd a9 6f 9d 3c 75 18 06 3d 81 9a 88 3b
       -0.064577706 0.019218283 0.032738168 0.004168809
000360 82 b4 4f bd 4d b2 68 bd 83 9a f7 3b 96 d7 b6 3c
       -0.050709255 -0.056810666 0.007556261 0.022319596
000370 0c 33 39 3c 22 d9 84 bd ee 98 49 bd 7d 88 12 bc
       0.011303674 -0.06486727 -0.04921811 -0.008943674
000380 2d b1 7b bb 3c a0 5a 3d e2 31 ee bc 81 ca 3b bd
       -0.0038405166 0.053375468 -0.02907652 -0.04584742
000390 43 6d 9c 3b b3 1f d3 bd c5 fc e1 bb 44 8c 7e bd
       0.004773767 -0.103087805 -0.0068965876 -0.062145486
0003a0 36 09 8c bd 41 7e 57 bd 6b 52 91 be 2c f2 59 bd
       -0.06837694 -0.05261064 -0.28383192 -0.05320947
0003b0 f3 ba 20 3d 2e c4 16 be a3 da 03 be 69 89 e5 bd
       0.03924079 -0.14723274 -0.12876372 -0.112078495
0003c0 39 c2 35 be 43 26 b5 bd a7 9d 36 bd 7d 6c 69 be
       -0.17749871 -0.088451885 -0.044583943 -0.22795291
0003d0 97 04 71 bd 90 b9 9e bd 5d 96 94 3d 3a 1b 12 be
       -0.058842268 -0.07750237 0.07255242 -0.14268199
0003e0 67 10 fa bc d5 66 57 be f1 49 19 be de 38 4a bd
       -0.0305254 -0.21035321 -0.14969613 -0.04937064
0003f0 58 fc 81 3d e3 32 ce bc 1b 89 f5 bc b4 dc c8 3c
       0.06346959 -0.025170749 -0.029972604 0.024519302

layers.0.conv1.attention1.0.weight f4 [9, 32, 3, 3]
000000 6a 7e 29 3e b3 b5 b3 bd 2c c7 bc bd 66 d8 b7 3c
       0.1655213 -0.08774891 -0.092176765 0.022442054
000010 6e fe da 3d c3 f1 37 bd 03 0c 09 be 6e ff e0 bc
       0.1069306 -0.044908296 -0.13383488 -0.027465548
000020 f2 8a 0b 3d c4 12 0a bc 2e a9 1c 3e c8 1d c8 bc
       0.034068055 -0.008427326 0.15298912 -0.024428263
000030 83 08 1e 3d 9c 50 5d bd c3 58 81 bc d3 3e f9 bd
       0.038582336 -0.054031953 -0.015789395 -0.12170186
000040 34 46 97 3b 78 4e 8d bc 9e a6 e7 3d 14 f5 89 bc
       0.004616523 -0.01724933 0.113110766 -0.016840495
000050 45 e6 11 be 48 4d a2 bd ba fa a6 bc 40 39 6e be
       -0.14247997 -0.079248965 -0.020383228 -0.23264027
000060 2e 0b 56 bd cc ee 95 bd aa d4 87 bd 06 b6 8b be
       -0.052256756 -0.073209375 -0.06632359 -0.2728731
000070 47 15 04 be 1d de 8d bd f3 98 40 be 63 7e 86 3e
       -0.12898742 -0.0692713 -0.18808345 0.262683
000080 d0 f4 02 be 74 16 9f 3e c7 3e 5c 3e cf b0 2c bd
       -0.12788701 0.31071818 0.21508323 -0.042160805
000090 9a c5 0b be 15 f1 7d 3d af 4d 9d 3d 8b c2 88 bd
       -0.13649598 0.061997492 0.076808326 -0.06677731
0000a0 98 40 30 3e dc 17 63 3e bb d3 1a 3d a0 5c ad bb
       0.1721214 0.2217707 0.03779958 -0.005290583
0000b0 cd cd 9d bc 81 93 d8 bd 73 ab 6d be bf ab f6 bc
       -0.019263173 -0.10575009 -0.23209934 -0.030111192
0000c0 60 8a 02 bd fb 11 fd 3c cd b6 ed 3c e8 69 49 3d
       -0.031870246 0.030892363 0.02901783 0.049173266
0000d0 ad a7 c4 3d c2 24 e6 bc af 91 31 be ae 39 49 be
       0.09602294 -0.0280937 -0.1734073 -0.1965091
0000e0 03 ac 11 be 2f db 29 3e 83 25 b1 bd 4a c2 ab bd
       -0.14225774 0.16587518 -0.08649733 -0.08386667
0000f0 b4 69 f2 be 01 7b dc be 2c 08 2d be b3 44 4b 3e
       -0.4734627 -0.43062595 -0.16897649 0.19850425
000100 b7 1b ae 3e 83 62 c1 bb 1e c6 a6 3e 11 bb 49 3d
       0.3400552 -0.005901636 0.32573026 0.049250666
000110 24 bf 9a 3d d4 95 50 3e a0 71 9f bc 4e 42 b0 bd
       0.075559884 0.20369655 -0.01946336 -0.086063966
000120 54 0b 3f 3e 1f 85 a9 bc 6c d7 1d be 11 ca fb bb
       0.18656665 -0.02069336 -0.15414208 -0.0076840003
000130 f9 bf a4 3d c1 10 63 be f9 0f 90 3d 9c 8b 07 3e
       0.080444284 -0.2217436 0.070342965 0.1323685
000140 34 f8 fe 3d c9 12 8d 3d 4f 26 32 3e 80 41 67 3d
       0.12449685 0.068883486 0.17397426 0.05645895
000150 29 c2 b5 3e e6 e6 90 3e 09 68 f9 3d 0a 12 df 3d
       0.35499695 0.28301162 0.12178046 0.108921126
000160 d3 44 77 3e 8c 96 5e bb cf 24 9e 3d fd d1 9b 3d
       0.24147348 -0.0033964245 0.077218644 0.076084115
000170 5e 5c df bc 21 eb 81 3d 48 4b c2 bc 6a bb f6 3d
       -0.027265724 0.063436754 -0.023717538 0.12047465
000180 e0 1d 48 3e 75 f0 e8 3c 2f dc 10 3e 22 b5 e5 bd
       0.19542646 0.028434971 0.14146493 -0.11216189
000190 73 fc de 3d 09 86 8a 3c 88 08 c1 bd f6 b8 00 bd
       0.108879946 0.016909616 -0.09425455 -0.031426392
0001a0 6b e3 66 3d 5f 7b 65 bd 2b 4f 09 bd cf 62 ea bc
       0.056369226 -0.05602586 -0.033522766 -0.028611569
0001b0 e8 a9 ed 3c 7d 80 da bb ea b3 4e bd b4 23 fe 3d
       0.029011682 -0.006668149 -0.05046455 0.124091536
0001c0 06 95 68 3d 93 02 24 3d b9 bb 89 bd 7d 34 1b bd
       0.056782745 0.040041517 -0.067252584 -0.037891854
0001d0 b9 e8 1b 3e 8b 02 7d be a0 a8 06 be 2a 84 94 3c
       0.15225495 -0.24708001 -0.13150263 0.018129427
0001e0 b2 3c 28 be af 34 8c be b3 0a 01 be 2a 4a 26 3e
       -0.16429403 -0.27383944 -0.12601738 0.16239229
0001f0 28 a0 88 3d 5d 02 0d 3e 6a c9 89 3d e9 bb fa bc
       0.066711724 0.13770433 0.0672787 -0.03060718
000200 11 91 8a bd a8 a0 00 3e d6 b7 3b 3d c4 e2 ac 3c
       -0.067659505 0.12561285 0.045829616 0.021104224
000210 1c 53 16 3e 44 54 e8 bb 4c 9c c1 3d 50 4a 89 3d
       0.14680141 -0.0070901234 0.094536394 0.06703627
000220 e0 15 ee bd c3 b7 22 3d 4f 88 55 3d f1 f2 14 3d
       -0.11625266 0.03972603 0.052131947 0.0363645
000230 cc 08 84 3d 1c c0 ea bd d3 3f a6 bd 49 ad 00 be
       0.0644699 -0.11462423 -0.08117642 -0.12566103
000240 4f 0a 8c bd f9 64 c7 bd 0c 76 7e bc b6 a2 e0 3d
       -0.06837904 -0.09736056 -0.015531074 0.10968535
000250 00 8c 88 3d 66 e1 6f 3b dd af 04 3e f2 5f d0 3c
       0.06667328 0.0036602854 0.12957712 0.025436375
000260 c5 84 d0 3d 32 38 1d be 1a f3 b6 bb f0 88 93 be
       0.10181574 -0.15353468 -0.005583179 -0.28815413
000270 02 2f 84 bd 0a 16 b4 bd 53 76 91 be 22 4c 20 be
       -0.064542785 -0.08793266 -0.28410587 -0.15654042
000280 c3 d9 e6 bd 5f d3 c3 be c0 24 7d bb 31 31 65 bd
       -0.112720035 -0.382472 -0.003862664 -0.055955116
000290 02 49 3f be 95 37 27 bd 19 4c 8b 3c 22 88 19 3b
       -0.18680194 -0.04082449 0.01700406 0.0023427089
0002a0 64 f0 c3 bd 50 ea 4b 3d 6c 1d 80 bd 57 4e 47 3c
       -0.09567335 0.049784005 -0.06255612 0.012164674
0002b0 64 e2 4b bb 03 5a fb 3c 32 1f 86 bd 92 19 13 bc
       -0.003111028 0.03068257 -0.06548919 -0.008978264
0002c0 a5 a3 bb 3d a3 ed 42 bc 69 25 54 3d ea cb e8 bd
       0.09162072 -0.011897477 0.05179349 -0.113670185
0002d0 20 8e e6 3c b2 6a 57 3d eb 68 0f be c2 87 07 3e
       0.028143942 0.052591987 -0.14004867 0.13235381
0002e0 e1 15 2a 3e a5 46 02 bb 07 7d 47 3c 60 a4 ef 3d
       0.16609909 -0.0019878533 0.012175805 0.11701274
0002f0 34 2b cb bd ca 37 8d 3d e6 37 4b be 16 4e 51 3c
       -0.0992035 0.068954065 -0.19845542 0.012774965
000300 57 e7 1e 3c d9 97 a8 bd f4 46 cf 3a b4 30 be bd
       0.00969871 -0.08232088 0.0015813992 -0.09286633
000310 c2 43 7b bb 12 12 40 bd 55 dd 85 bd ff 3a ed bc
       -0.0038339947 -0.046892233 -0.06536356 -0.028958796
000320 5d c0 1a be fb 7a ad bd 04 af 77 3d 24 59 ab 3c
       -0.15112443 -0.08470722 0.060469642 0.020916529
000330 c6 4a 8e 3d 41 fa 43 bb e3 07 d4 bd 5d 2d db 3d
       0.06947856 -0.0029903802 -0.10353067 0.10702012
000340 3c 22 37 3c e3 3e 15 3e 01 d1 33 bd c1 45 15 3e
       0.011177596 0.1457477 -0.043900494 0.1457739
000350 38 26 c8 bd b9 7e 4e be 84 5e a1 bd 96 27 28 3d
       -0.09772915 -0.20165528 -0.078793555 0.041053377
000360 fc 89 fc 3d 4d a4 8c 3d e0 d4 19 3d 26 7f ab 3c
       0.12331006 0.068672754 0.03755653 0.020934653
000370 7e 0f 03 3e cd e8 1a 3e 8b a1 8f bd b7 81 b9 3d
       0.12798879 0.15127869 -0.07013234 0.09057944
000380 3e 50 de 3c 11 58 32 3d 3d e3 c2 bd 9c e6 88 bd
       0.027137872 0.043541018 -0.095159985 -0.0668461
000390 09 93 91 3d 04 93 de bc a0 e1 a0 3d 43 6a 0a 3d
       0.07108123 -0.027169712 0.078555346 0.033792745
0003a0 89 72 83 3d 23 02 83 3d c6 8e b2 be b2 ed 89 be
       0.0641833 0.06396892 -0.34874552 -0.2693916
0003b0 3f 2e ff 3d c4 d3 f0 3d f6 e5 91 3d 46 ba 9e 3e
       0.124599926 0.11759141 0.0712394 0.3100149
0003c0 a5 6a c8 3d be c1 29 bc 1a 99 46 3e 15 e4 b8 bd
       0.09785966 -0.010361133 0.19394341 -0.09027878
0003d0 f4 ab a5 bd dc ba 30 be 11 81 24 be c6 62 d2 3c
       -0.08089438 -0.17258781 -0.1606486 0.025681864
0003e0 6a 06 1e 3e 5c 05 1e 3e 67 6d 48 be 7e c8 05 3e
       0.15432134 0.15431732 -0.19572984 0.13064763
0003f0 4a 2b f1 39 87 9f 49 bd bf 41 11 3d cf 3d 11 be
       0.00045999355 -0.049224403 0.03546309 -0.14183734

layers.0.conv1.attention1.0.bias f4 [9]
000000 c3 fd 50 3e e2 51 b8 3d e0 67 27 3e 70 ad 66 3d
       0.20409302 0.08999993 0.16348219 0.056317747
000010 69 8d 08 3e a2 8d df 3c 7b 4e fa bc 55 10 13 3e
       0.13335194 0.027289215 -0.030555 0.14361699
000020 2e 80 1a 3e
       0.15087959
