weights/BWNET_LAGConv_T6/model_epoch_30.pth (torch, 679454 bytes, 143 tensors)

raise_dim.0.weight f4 [32, 9, 3, 3]
-0.04158323 0.06708083 -0.0018079584 0.2538849 0.43260717 0.016282858 0.08560406 0.044699065
0.22689901 -0.037323635 0.06362505 0.07567067 0.13307118 0.056125473 -0.052802134 -0.05798403
-0.05631293 0.07130397 -0.047952354 0.014091686 0.09503174 0.08908949 -0.06188548 0.039991267
0.023426404 0.12077026 -0.009281278 0.05756332 0.017326748 0.12427368 -0.028455704 -0.06524174
0.027687855 -0.09112111 0.015771378 0.060561314 -0.0038810046 -0.0011170309 0.034266435 0.03630303
0.004510145 0.09725398 0.07929011 -0.015061763 -0.0031660518 0.017186059 -0.034871113 0.06957903
-0.07971751 0.0060076816 0.06793289 -0.1204764 -0.015809685 0.06749299 0.056950897 -0.049384795
-0.02254591 -0.10973981 -0.0012497812 0.043151837 0.06399285 -0.038299643 -0.036944587 0.013874174
-0.010135078 -0.022389887 -0.00064372236 0.1005871 0.052485593 -0.011102227 0.001297458 -0.10493094
0.008706228 0.013929684 0.04015422 -0.081966504 -0.09445178 -0.047130253 0.09881207 -0.0018888321
-0.03421664 -0.0338189 -0.005525324 0.10762046 0.0353742 -0.18851845 -0.13615458 -0.15310892
-0.032377418 0.005659239 0.083232775 -0.11897885 0.06886717 -0.08219921 -0.0015223996 -0.010972284
0.030061238 -0.1166426 -0.08239985 0.005916893 0.05585365 -0.05821387 0.02457864 -0.0320113
-0.10750816 -0.019840214 -0.04802513 0.056509197 0.09797161 0.09415918 0.0823882 -0.07605619
-0.09122507 0.021819478 0.009277751 -0.103899196 0.08136969 -0.0060151764 -0.05306967 0.11732931
0.091582485 0.028448742 0.003046538 -0.024212591 -0.10206413 0.0681576 0.0850524 -0.00067836116
-0.028689943 0.08175317 -0.074769564 -0.008838718 0.033755615 -0.074637055 0.015344179 0.09656385
-0.00030794638 0.015972892 0.10191866 0.03439328 0.077987015 -0.037623398 -0.089669265 0.030933518
-0.07296651 -0.0661437 -0.07425503 0.080246516 -0.08500644 0.045235645 0.012710288 0.06541819
0.05782394 -0.0739297 0.05943753 -0.027210288 0.0026682552 -0.030312527 -0.06693717 0.030502291
-0.0764039 0.113382645 0.03931095 -0.070154585 -0.064469546 -0.08724876 -0.027686976 -0.056373544
0.010468336 0.061231747 0.108949006 0.014363702 -0.019668916 -0.030664712 -0.023456559 0.056438632
-0.091768056 -0.11214256 0.039732546 -0.01875987 -0.0424919 -0.07681005 -0.06569053 -0.10091545
-0.07959789 -0.09771004 -0.07350554 0.07309523 -0.05971326 0.078428276 -0.09408455 0.022369983
-0.024933212 -0.09326825 0.0059585716 0.07135802 -0.066267766 0.101657785 0.007696952 -0.0070092846
0.09134516 0.094309136 0.11346127 0.09492129 -0.10365421 -0.017304309 0.035692263 0.0041517317
0.11754684 0.037792075 -0.04663329 0.011140713 -0.0129450355 0.08223369 -0.036368404 0.021514326
0.05613114 0.099974684 -0.033621952 0.118396066 -0.02025542 -0.03304733 0.08865807 -0.016866788
0.13564345 0.015251062 -0.08807856 -0.044914834 -0.0783735 -0.037115604 -0.01711511 -0.01557375
-0.084804155 -0.09751453 -0.070990026 0.020856429 0.025906608 -0.05810769 -0.016610116 0.01032471
0.0909678 -0.08656852 -0.024485998 0.0068520405 -0.016259536 -0.02169204 0.17664753 -0.18264107
-0.07440984 -0.1699302 0.21446528 -0.112352505 -0.043915708 0.050954673 0.042066537 -0.13400835
00000000: 2d53 2abd ad61 893d 04f9 ecba 34fd 813e
00000010: b07e dd3e a163 853c 2e51 af3d 5e16 373d
00000020: 3758 683e abe0 18bd da4d 823d 39f9 9a3d
00000030: d043 083e d3e3 653d 0d47 58bd aa80 6dbd
00000040: 63a8 66bd d107 923d b069 44bd d1e0 663c
00000050: 00a0 c23d 8d74 b63d a17b 7dbd e2cd 233d
00000060: bbe8 bf3c 6656 f73d 8010 18bc 84c7 6b3d
00000070: d3f0 8d3c 3383 fe3d f01b e9bc 769d 85bd
00000080: a4d1 e23c b49d babd fa32 813c 240f 783d
00000090: 7458 7ebb 5669 92ba f65a 0c3d 7cb2 143d
000000a0: d7c9 933b 182d c73d da62 a23d 9dc5 76bc
000000b0: 897d 4fbb c7c9 8c3c 03d5 0ebd 737f 8e3d
000000c0: ef42 a3bd 16dc c43b 6620 8b3d 55bc f6bd
000000d0: 5083 81bc c439 8a3d 5845 693d b647 4abd
000000e0: 33b2 b8bc 44bf e0bd b3cf a3ba fbbf 303d
000000f0: af0e 833d 16e0 1cbd 3553 17bd 8150 633c
00000100: 990d 26bc ff6a b7bc 7abf 28ba 9c00 ce3d
00000110: 22fb 563d 1de6 35bc 770f aa3a 08e6 d6bd
00000120: 91a4 0e3c 5439 643c c078 243d 0ede a7bd
00000130: ef6f c1bd a70b 41bd fc5d ca3d b092 f7ba
00000140: bf26 0cbd b085 0abd c70d b5bb 1e68 dc3d
00000150: 8ae4 103d fb0a 41be 1b6c 0bbe 96c8 1cbe
00000160: 2f9e 04bd 2371 b93b f275 aa3d 2fab f3bd
00000170: 3b0a 8d3d 0f58 a8bd 418b c7ba 18c5 33bc
00000180: fc42 f63c 51e2 eebd 41c1 a8bd 7fe2 c13b
00000190: ccc6 643d ab71 6ebd 2559 c93c 481e 03bd
000001a0: 3d2d dcbd f287 a2bc 00b6 44bd 3076 673d
000001b0: 57a5 c83d 87d6 c03d 25bb a83d 59c3 9bbd
000001c0: 36d4 babd c3be b23c b501 183c 1ac9 d4bd
000001d0: 27a5 a63d f51a c5bb 955f 59bd 594a f03d
000001e0: 998f bb3d 560d e93c 6da8 473b 7c59 c6bc
000001f0: 0007 d1bd 3696 8b3d f42f ae3d 0cd4 31ba
00000200: 2c07 ebbc 356e a73d c920 99bd 45d0 10bc
00000210: 5443 0a3d 50db 98bd 2766 7b3c 45c3 c53d
00000220: dd73 a1b9 95d9 823c bbba d03d f8df 0c3d
00000230: a8b7 9f3d fe1a 1abd 85a4 b7bd 4a68 fd3c
00000240: 776f 95bd 5976 87bd 0513 98bd 4958 a43d
00000250: db17 aebd 0349 393d d03e 503c f9f9 853d
00000260: ccd8 6c3d 7468 97bd c474 733d 1ce8 debc
00000270: e5dd 2e3b fa51 f8bc 5b16 89bd f1df f93c
00000280: a679 9cbd 2935 e83d 8504 213d 35ad 8fbd
00000290: 9c08 84bd 7aaf b2bd cccf e2bc f2e7 66bd
000002a0: 6283 2b3c 24ce 7a3d a820 df3d bc55 6b3c
000002b0: b520 a1bc 9034 fbbc f827 c0bc 322c 673d
000002c0: e4f0 bbbd 00ab e5bd 98be 223d 4dae 99bc
000002d0: fd0b 2ebd 964e 9dbd c288 86bd c2ac cebd
000002e0: 3804 a3bd 341c c8bd 138a 96bd f4b2 953d
000002f0: e495 74bd 019f a03d 67af c0bd 4141 b73c
00000300: bc40 ccbc 6d03 bfbd 1f40 c33b 2724 923d
00000310: 65b7 87bd f531 d03d b736 fc3b 24ae e5bb
00000320: 2c13 bb3d 2625 c13d 625e e83d 1866 c23d
00000330: a948 d4bd c4c1 8dbc 0d32 123d 400b 883b
00000340: 66bc f03d ddcb 1a3d 8c02 3fbd 8987 363c
00000350: 6a17 54bc 236a a83d 09f7 14bd d03e b03c
00000360: c4e9 653d 87bf cc3d 2cb7 09bd a379 f23d
00000370: b2ee a5bc a35c 07bd 5d92 b53d 382c 8abc
00000380: 1ee6 0a3e 97df 793c 8862 b4bd 9ef8 37bd
00000390: 4982 a0bd 8806 18bd fd34 8cbc 0b29 7fbc
000003a0: cdad adbd b3b5 c7bd 3863 91bd 1adb aa3c
000003b0: 183a d43c 5402 6ebd f011 88bc f928 293c
000003c0: 534d ba3d d64a b1bd dc96 c8bc 1587 e03b
000003d0: b832 85bc 81b3 b1bc 17e3 343e 4306 3bbe
000003e0: 3064 98bd 2f02 2ebe c99c 5b3e 1219 e6bd
000003f0: f5e0 33bd d9b5 503d f64d 2c3d 7c39 09be

raise_dim.0.attention1.0.weight f4 [9, 9, 3, 3]
0.1627423 0.025828538 0.04224239 0.051152196 -0.15244104 0.049660485 0.10155369 0.31449172
0.07592595 0.062494684 0.13839729 0.06253223 0.14082028 0.09203053 0.070534445 0.042024016
0.103552945 0.03213893 0.21817708 0.17955483 0.047044124 0.07064794 0.14717293 0.055545583
0.03462489 0.106092066 0.1082744 0.16665483 0.018689392 0.14087553 0.15484789 0.25485244
0.16202718 -0.056394443 -0.03191304 -0.03713588 0.12997717 0.050425436 0.074304126 0.016916854
0.2193955 0.015419518 0.0719574 0.03377253 -0.0721605 0.10662008 0.020311965 0.06574046
0.04982505 0.102931485 -0.043301087 -0.056353174 0.093412615 -0.04255417 0.13494869 0.14616983
0.013646392 -0.024227135 0.15980244 0.0869651 -0.076163895 0.11292521 0.0700759 0.18810073
0.048662994 0.0556135 0.097695045 0.14912498 0.012964414 -0.009977968 0.16615374 0.045563255
0.119995825 0.10159531 0.09380894 0.090787575 0.14847699 0.12816921 -0.07319044 0.13048802
-0.03615619 -0.080196045 0.023413 -0.03910442 -0.0020890315 -0.09560967 -0.16674016 0.08838894
0.218865 0.0721051 0.0464769 -0.047676887 -0.0073448643 0.06538624 -0.007750156 -0.05520296
0.041366626 0.054559216 -0.08002154 0.063748226 0.215602 0.029733911 0.17746639 0.18216926
-0.004221185 -0.030247342 0.19526082 0.031674158 0.120090656 0.07710315 0.029776454 0.14216451
0.17763893 -0.06375544 0.012360957 0.10037378 0.03963729 0.006177954 -0.12954032 -0.18364088
-0.091676004 0.007233182 0.047095668 -0.15326707 -0.00025644543 -0.17514788 -0.13050109 -0.043114867
-0.0045349863 0.11311665 -0.049538486 -0.008719289 0.043024633 0.036448933 -0.017360192 0.014097435
0.028933285 -0.06427365 -0.10601156 -0.09120627 -0.100404285 -0.08304147 -0.10125074 -0.043567017
0.04046045 0.014939928 0.042390727 0.06428193 0.14188932 0.110043675 -0.032672253 0.16255157
0.0012596146 -0.005362221 -0.071297735 -0.093339965 -0.04683728 0.01914339 0.09349859 -0.04107703
-0.03512746 0.03838009 0.31969377 0.48827955 0.20920415 0.20070308 -0.093449414 0.19557989
0.07333067 0.22113131 0.24486615 0.17431115 0.13474408 0.14264528 0.22629131 0.2107848
0.18045254 0.09921169 0.0055029094 0.16428427 0.089939244 0.11602598 0.023905214 0.09748743
0.05264742 0.22020735 0.011768272 0.025450211 0.09483199 0.07393621 0.19548778 0.11286555
0.10356045 0.18198095 0.25446713 0.07260845 0.22178648 0.23014568 0.2366502 0.07766639
0.19982001 0.07501529 0.2801282 0.1611469 0.1852652 0.1495403 0.1484886 0.16721347
0.22061346 0.24164179 0.21490379 0.260818 0.11661068 0.23091555 0.27663565 0.25620988
0.15124385 -0.01204641 0.044010628 0.18931258 0.009594876 0.21631926 0.0050098137 0.02135101
0.16739136 0.07627434 0.080987565 0.16512989 0.24442889 0.21814233 0.0750957 0.11236655
0.274614 0.12079748 0.064932495 0.09636088 0.0042525902 0.17919736 0.13725911 -0.0046986532
0.046438243 0.09500021 0.15814975 -0.07325457 -0.21827215 -0.052841693 -0.13709167 -0.054857083
-0.19107787 0.030155659 0.085097685 -0.15525617 -0.04871477 0.0062265694 -0.042284057 -0.083551966
00000000: eba5 263e 5f96 d33c 5b06 2d3d f784 513d
00000010: 8119 1cbe cb68 4b3d 62fb cf3d 0f05 a13e
00000020: 117f 9b3d 6dfa 7f3d 05b8 0d3e e610 803d
00000030: 3133 103e 817a bc3d 5d74 903d 6021 2c3d
00000040: 9113 d43d 1ca4 033d d069 5f3e 39dd 373e
00000050: 57b1 403d deaf 903d 80b4 163e c483 633d
00000060: d4d2 0d3d cc46 d93d f8be dd3d 90a7 2a3e
00000070: 7f1a 993c ad41 103e 7290 1e3e 057c 823e
00000080: 74ea 253e dcfd 66bd 3fb7 02bd cb1b 18bd
00000090: bc18 053e e78a 4e3d c32c 983d 3795 8a3c
000000a0: 37a9 603e 25a2 7c3c 675e 933d 1055 0a3d
000000b0: e2c8 93bd a15b da3d 4765 a63c efa2 863d
000000c0: 5a15 4c3d becd d23d 7b5c 31bd 96d2 66bd
000000d0: 1d4f bf3d 484d 2ebd fd2f 0a3e 8bad 153e
000000e0: 1e95 5f3c fc77 c6bc 40a3 233e c21a b23d
000000f0: d1fb 9bbd 5545 e73d f483 8f3d 7a9d 403e
00000100: d952 473d fbca 633d 5714 c83d 38b4 183e
00000110: b268 543c a27a 23bc 3524 2a3e 89a0 3a3d
00000120: 5fc0 f53d 3411 d03d e71e c03d d6ee b93d
00000130: 5a0a 183e ca3e 033e dfe4 95bd a79e 053e
00000140: 8318 14bd d33d a4bd 9fcc bf3c f52b 20bd
00000150: 22e8 08bb 01cf c3bd efbd 2abe 4305 b53d
00000160: 261e 603e d7ab 933d 905e 3e3d d748 43bd
00000170: 30ad f0bb 39e9 853d 05f5 fdbb 801c 62bd
00000180: 0d70 293d 7c79 5f3d 55e2 a3bd 6e8e 823d
00000190: c5c6 5c3e 8894 f33c c0b9 353e 948a 3a3e
000001a0: de51 8abb 46c9 f7bc 74f2 473e c3bc 013d
000001b0: 17f2 f53d 42e8 9d3d c0ed f33c 9393 113e
000001c0: fbe6 353e 3692 82bd 9d85 4a3c c590 cd3d
000001d0: b65a 223d 6f70 ca3b 38a6 04be 5b0c 3cbe
000001e0: a1c0 bbbd 5404 ed3b 63e7 403d 0bf2 1cbe
000001f0: 8673 86b9 f759 33be 14a2 05be 3799 30bd
00000200: 399a 94bb b4a9 e73d dee8 4abd 59db 0ebc
00000210: 993a 303d 7a4b 153d f636 8ebc eef8 663c
00000220: 7f05 ed3c e7a1 83bd 971c d9bd 5aca babd
00000230: c3a0 cdbd a511 aabd 8c5c cfbd 5473 32bd
00000240: dbb9 253d 9ac6 743c e6a1 2d3d 3fa6 833d
00000250: 6f4b 113e 945e e13d 57d3 05bd eb73 263e
00000260: a719 a53a 92b5 afbb 8c04 92bd 0629 bfbd
00000270: 73d8 3fbd 99d2 9c3c 307c bf3d 6340 28bd
00000280: d0e1 0fbd 7134 1d3d e7ae a33e c7ff f93e
00000290: 9d39 563e 1c85 4d3e 6862 bfbd 1846 483e
000002a0: 642e 963d 3f70 623e 31be 7a3e 9f7e 323e
000002b0: 5afa 093e 9b11 123e e9b8 673e f8d7 573e
000002c0: 8dc8 383e 802f cb3d c051 b43b 233a 283e
000002d0: 1132 b83d 079f ed3d ded4 c33c 7da7 c73d
000002e0: d2a4 573d 097e 613e b6cf 403c f67c d03c
000002f0: 4637 c23d de6b 973d f32d 483e 0e26 e73d
00000300: 8017 d43d 3759 3a3e 8449 823e bdb3 943d
00000310: ff1b 633e 4fab 6b3e 6e54 723e 8e0f 9f3d
00000320: 9e9d 4c3e 9ea1 993d f76c 8f3e b103 253e
00000330: 29b6 3d3e 1821 193e 650d 183e 023a 2b3e
00000340: 7fe8 613e f270 773e bd0f 5c3e f089 853e
00000350: 95d1 ee3d 2075 6c3e 30a3 8d3e f12d 833e
00000360: abdf 1a3e 4e5e 45bc 7d44 343d 28db 413e
00000370: d433 1d3c cc82 5d3e 5d29 a43b 50e8 ae3c
00000380: a468 2b3e b935 9c3d cfdc a53d cf17 293e
00000390: 914b 7a3e b460 5f3e c6cb 993d 6f20 e63d
000003a0: 359a 8c3e ab64 f73d 54fb 843d da58 c53d
000003b0: 5059 8b3b 837f 373e a78d 0c3e 29f7 99bb
000003c0: 0736 3e3d 788f c23d 02f2 213e 7e06 96bd
000003d0: bc82 5fbe 8870 58bd c261 0cbe d2b1 60bd
000003e0: eba9 43be 0009 f73c b247 ae3d 79fb 1ebe
000003f0: 2389 47bd 4008 cc3b 0c32 2dbd 4b1d abbd

raise_dim.0.attention1.0.bias f4 [9]
0.14161254 0.27920884 0.20770817 -0.0022293357 -0.20933516 0.21835439 0.2777189 -0.033138078
0.058218688
00000000: e102 113e 76f4 8e3e 73b1 543e 0c1a 12bb
00000010: f55b 56be 4b98 5f3e 2c31 8e3e cbbb 07bd
00000020: b876 6e3d

raise_dim.0.attention1.2.weight f4 [9, 9, 1, 1]
0.10071353 -0.19062753 -0.32053766 -0.21551569 0.18164034 0.108580545 -0.45237508 0.18428075
0.40100002 0.33942875 0.28663847 -0.03617504 0.26199844 0.23496376 0.24556619 -0.25656882
-0.1094377 0.50278074 0.33216026 0.39197084 -0.117014155 -0.0021898588 -0.30461916 -0.11756703
0.4238695 -0.3022013 -0.031079074 -0.18381228 -0.41844615 -0.10497335 -0.03468697 0.19943875
-0.5115743 -0.10136567 -0.45806456 -0.0985385 0.50848883 -0.12813213 0.09360192 -0.16530915
-0.25169036 -0.08805364 -0.2620772 0.101114474 0.9522311 0.07612057 -0.31948173 -0.21134238
-0.28554067 -0.20996727 0.30049193 0.009132769 -0.30330652 0.056643553 -0.07799048 -0.039153032
0.14742276 0.10761607 0.31241807 -0.2812313 -0.26643082 -0.32837224 0.23097572 0.4414235
0.4007595 0.32232264 -0.0997766 -0.0549211 0.15607883 0.31132376 -0.35226658 1.2340068
0.3111242 0.022728935 0.41581327 -0.18739423 -0.20194529 0.4468259 0.42077821 0.51809704
-0.054095402
00000000: e542 ce3d dd33 43be 831d a4be 25b0 5cbe
00000010: edff 393e 7a5f de3d b59d e7be 18b4 3c3e
00000020: e04f cd3e 9bc9 ad3e 47c2 923e 472c 14bd
00000030: a924 863e 579a 703e b475 7b3e fd5c 83be
00000040: df20 e0bd 3db6 003f e910 aa3e 67b0 c83e
00000050: 1ea5 efbd bc83 0fbb 0bf7 9bbe fcc6 f0bd
00000060: 6c05 d93e 21ba 9abe 8b99 febc 4939 3cbe
00000070: 933e d6be 45fc d6bd ed13 0ebd ac39 4c3e
00000080: 89f6 02bf ce98 cfbd 7087 eabe 8ece c9bd
00000090: 532c 023f 1235 03be 5db2 bf3d cd46 29be
000000a0: 8fdd 80be 7855 b4bd fc2e 86be 1b15 cf3d
000000b0: 6bc5 733f 1ae5 9b3d 1c93 a3be 236a 58be
000000c0: 6332 92be a901 57be 14da 993e 9ca1 153c
000000d0: fe4a 9bbe 1203 683d 79b9 9fbd ee5e 20bd
000000e0: fef5 163e d065 dc3d 43f5 9f3e 8dfd 8fbe
000000f0: 9f69 88be 6820 a8be e684 6c3e 4302 e23e
00000100: 5930 cd3e 7907 a53e ad57 ccbd f3f4 60bd
00000110: 21d3 1f3e d465 9f3e 495c b4be eff3 9d3f
00000120: ac4b 9f3e 0832 ba3c 7ae5 d43e 46e4 3fbe
00000130: bfca 4ebe 5dc6 e43e 3e70 d73e 02a2 043f
00000140: 2493 5dbd

raise_dim.0.attention1.2.bias f4 [9]
-0.064984806 0.37671947 0.44580618 -0.40440726 0.15056574 -0.085548334 -0.43483102 -0.0021747984
0.056838755
00000000: c116 85bd 60e1 c03e b540 e43e 780e cfbe
00000010: e82d 1a3e f733 afbd 2ca2 debe 1087 0ebb
00000020: c1cf 683d

raise_dim.0.attention1.4.weight f4 [9, 9, 1, 1]
-0.30011365 -0.088688515 0.18165122 0.21431452 0.018976463 -0.36663076 0.12666482 -0.045813948
0.40615004 -0.46728235 0.20027013 0.6106951 -0.07666773 -0.05496803 -0.48198262 -0.28832477
0.23080006 -0.08368433 -0.29172444 -0.018102545 -0.026937708 0.2394193 -0.39240867 -0.030720826
-0.28719643 -0.1771488 -0.22799447 -0.062186565 -0.18806323 -0.12637042 -0.31414044 -0.22398484
0.09223602 -0.20188 -0.01984741 0.46201012 -0.34009212 0.55843455 0.26452538 -0.671795
0.45112106 -0.036100455 -0.76400584 0.44307065 0.4778195 0.02933641 0.08636445 -0.015209348
-0.31485423 0.16437063 -0.25141641 -0.37424982 -0.21803546 -0.22821766 0.054049313 0.29617354
0.31391 -0.25379592 0.22834128 0.1957681 -0.044991024 0.19391687 0.20186107 0.24449202
0.23444457 0.21286133 -0.17458373 -0.15208864 -0.16965522 0.19783416 -0.093453094 0.009143001
-0.30540046 -0.005951334 -0.072888106 -0.21842816 0.28936177 -0.25234938 -0.07060717 -0.0924874
-0.29609424
00000000: 7fa8 99be 53a2 b5bd c702 3a3e 4475 5b3e
00000010: 8774 9b3c 07b7 bbbe 6cb4 013e 68a7 3bbd
00000020: e6f2 cf3e a23f efbe 9d13 4d3e 8456 1c3f
00000030: f903 9dbd 2826 61bd 6dc6 f6be 4e9f 93be
00000040: da56 6c3e b162 abbd e85c 95be ca4b 94bc
00000050: 78ac dcbc 552a 753e cae9 c8be 3eaa fbbc
00000060: 690b 93be 7f66 35be 6277 69be 57b7 7ebd
00000070: a693 40be 3f67 01be 04d7 a0be 485c 65be
00000080: 3de6 bc3d a1b9 4ebe 0997 a2bc 978c ec3e
00000090: 8e20 aebe 91f5 0e3f df6f 873e c2fa 2bbf
000000a0: 57f9 e63e 12de 13bd e395 43bf 28da e23e
000000b0: c2a4 f43e e952 f03c d8df b03d a130 79bc
000000c0: 9334 a1be c650 283e a7b9 80be ac9d bfbe
000000d0: b044 5fbe e4b1 69be d062 5d3d 0fa4 973e
000000e0: d0b8 a03e 8af1 81be 4cd2 693e 6f77 483e
000000f0: 8248 38bd 2592 463e abb4 4e3e 1e5c 7a3e
00000100: 3d12 703e 52f8 593e 14c6 32be 20bd 1bbe
00000110: 19ba 2dbe 0a95 4a3e 5664 bfbd 87cc 153c
00000120: 735d 9cbe 6803 c3bb 5c46 95bd a2ab 5fbe
00000130: 3a27 943e f033 81be 7e9a 90bd 096a bdbd
00000140: aa99 97be

raise_dim.0.attention1.4.bias f4 [9]
0.24751599 0.23315215 0.20276576 0.3067686 0.6089276 0.20624804 0.2964607 0.3725282
0.08591657
00000000: d574 7d3e 70bf 6e3e d4a1 4f3e c610 9d3e
00000010: aee2 1b3f b032 533e b2c9 973e 04bc be3e
00000020: 07f5 af3d

raise_dim.0.attention3.1.weight f4 [32, 9, 1, 1]
-0.063693196 -0.12371976 0.061816774 0.12068375 -0.3465598 0.26105267 0.053693473 -0.27516723
0.11696077 0.19515756 0.105132185 0.24198891 -0.026442528 -0.29038882 -0.020792866 0.24559022
-0.20381121 0.14304121 0.051126257 -0.105056524 -0.03455107 0.12681592 -0.24670531 0.19995432
0.17563556 0.16832244 0.28422043 -0.027969839 -0.28834647 -0.023382971 -0.1297648 0.08196744
0.30194396 -0.155572 -0.008230469 0.33689302 -0.3069861 -0.02949773 0.31671306 0.21508342
0.079936534 -0.2203112 -0.109507136 -0.27432498 -0.3459763 -0.31313094 0.28428847 0.25918877
0.12998928 -0.10004265 0.29979295 -0.08877104 0.20271364 -0.01322846 -0.14867572 -0.09775435
-0.03705649 -0.27939907 0.08551204 -0.13077131 0.10220849 0.2581093 -0.058152225 0.11219106
0.024027565 0.17733519 -0.2662835 -0.07865508 -0.16115041 0.23684582 -0.32868263 -0.22689189
0.025187472 0.29769322 0.19987595 -0.32934353 -0.22268434 0.34201255 0.07123271 -0.3141427
-0.11168949 0.15233703 -0.09944094 -0.26790985 -0.22231334 -0.1859648 -0.0143197505 0.14787047
0.12538314 -0.1464305 -0.07785321 -0.32289836 0.20457283 0.2872543 0.27512255 0.090841144
-0.091060445 -0.025613118 0.1229555 -0.27010405 0.04173142 -0.2267424 -0.30259463 -0.0095270695
-0.12114914 -0.24312323 0.11716656 0.024208348 0.045537088 -0.19993389 -0.3517438 -0.02759686
-0.15570265 -0.10104355 0.296016 0.020774094 0.17863014 -0.1066062 -0.23356956 0.052073367
-0.23751816 0.048229605 -0.24113518 0.2739066 -0.20375173 0.29930115 0.20879027 0.2682579
0.18143646 0.05969613 -0.008140548 -0.0167658 -0.15809019 -0.33293357 0.2356859 -0.008591731
0.1887998 0.030054519 0.101168 -0.22895336 -0.31184244 0.18935327 0.16759026 0.13707057
-0.2889759 0.02351175 -0.28311798 -0.012395446 -0.00061288546 -0.17329569 -0.27572697 0.04348811
0.34603888 0.27754107 -0.21424626 -0.10691627 -0.3178155 -0.26131397 -0.078692935 0.352442
-0.1246156 0.02476428 0.286401 0.029703517 0.23984239 0.18520465 0.26752922 0.00901757
-0.2997746 -0.30048466 -0.18071952 0.28789166 0.24040112 0.14293094 -0.21718441 -0.22810414
0.24091226 -0.07195898 -0.29045552 -0.04380064 -0.08135285 0.089293756 0.19509633 0.17018881
-0.24045508 -0.0567245 -0.23861258 0.3115559 0.15752509 0.1792615 0.34161013 0.11826495
-0.3708735 0.1145182 -0.19165729 0.12912369 0.0016657701 0.3887578 -0.25304198 -0.35795876
-0.1305519 0.013158864 0.21253882 0.25433013 0.26063746 0.061828572 -0.10861282 -0.062465202
-0.15791914 0.06562362 -0.23011744 0.1438033 0.27149695 0.3365581 -0.36262694 0.2758268
-0.21042225 -0.04703943 0.27952242 0.16482867 -0.08745404 0.22710851 -0.3006454 0.21840006
0.3107921 -0.009328025 0.073116615 -0.055778973 -0.18551475 -0.13014476 -0.04088258 -0.30147186
-0.25321993 0.02806349 -0.19133726 -0.1747635 0.026398802 -0.13570267 0.34292275 -0.06511097
-0.1676911 -0.076340504 -0.27396265 0.16158882 0.2603983 -0.24030648 -0.16269842 0.30150273
-0.2188993 0.13155968 -0.29590788 -0.27594608 0.00650702 -0.18452233 0.20852529 -0.07839293
00000000: 9471 82bd c960 fdbd 9633 7d3d 0b29 f73d
00000010: 4970 b1be b2a8 853e b0ed 5b3d b8e2 8cbe
00000020: 2189 ef3d 62d7 473e 8b4f d73d f1cb 773e
00000030: 009e d8bc d8ad 94be cd55 aabc 017c 7b3e
00000040: e3b3 50be 6579 123e c469 513d e027 d7bd
00000050: 6c85 0dbd 08dc 013e 51a0 7cbe d3c0 4c3e
00000060: cfd9 333e b85c 2c3e 5785 913e 0121 e5bc
00000070: 26a2 93be a58d bfbc 10e1 04be 8cde a73d
00000080: 6698 9a3e 444e 1fbe 17d9 06bc 3e7d ac3e
00000090: 482d 9dbe 39a5 f1bc 3728 a23e d43e 5c3e
000000a0: c4b5 a33d 4299 61be 4745 e0bd 5374 8cbe
000000b0: ce23 b1be b352 a0be 428e 913e 64b4 843e
000000c0: e91b 053e 29e3 ccbd 767e 993e 97cd b5bd
000000d0: 2a94 4f3e 2fbc 58bc 733e 18be 6f33 c8bd
000000e0: 8cc8 17bd 650d 8fbe f020 af3d eae8 05be
000000f0: af52 d13d e726 843e 0731 6ebd 6dc4 e53d
00000100: 75d5 c43c 5b97 353e 5056 88be ea15 a1bd
00000110: 9d04 25be b687 723e 1749 a8be 5956 68be
00000120: f555 ce3c 3f6b 983e 48ac 4c3e b79f a8be
00000130: 5d07 64be 451c af3e 74e2 913d 50d7 a0be
00000140: 76bd e4bd 3dfe 1b3e b1a7 cbbd 7b2b 89be
00000150: 1ca6 63be 8e6d 3ebe 639d 6abc 5b6b 173e
00000160: 7064 003e e1f1 15be 8171 9fbd ef52 a5be
00000170: 8a7b 513e ff12 933e dddc 8c3e ec0a ba3d
00000180: e67d babd 9ad2 d1bc 18d0 fb3d 144b 8abe
00000190: 91ee 2a3d 292f 68be afed 9abe 6d17 1cbc
000001a0: 0a1d f8bd 4cf5 78be 05f5 ef3d 9650 c63c
000001b0: 1985 3a3d 78bb 4cbe c317 b4be cf12 e2bc
000001c0: 8470 1fbe ecef cebd 698f 973e 6f2e aa3c
000001d0: d2ea 363e 5a54 dabd dc2c 6fbe e24a 553d
000001e0: f637 73be 688c 453d 24ec 76be 7c3d 8c3e
000001f0: 4ba4 50be 003e 993e 1ecd 553e 1959 893e
00000200: 7bca 393e ee83 743d ef5f 05bc 6e58 89bc
00000210: 65e2 21be 4576 aabe a557 713e 55c4 0cbc
00000220: bc54 413e e534 f63c 2b31 cf3d c072 6abe
00000230: d0a9 9fbe d3e5 413e c89c 2b3e 3a5c 0c3e
00000240: a6f4 93be b79b c03c d7f4 90be 4516 4bbc
00000250: 0caa 20ba 6d74 31be 162c 8dbe 9720 323d
00000260: 022c b13e dd19 8e3e 5f63 5bbe ebf6 dabd
00000270: b7b8 a2be f2ca 85be c329 a1bd 4773 b43e
00000280: 7736 ffbd 76de ca3c 27a3 923e ca54 f33c
00000290: 3e99 753e 4aa6 3d3e 97f9 883e 6ebe 133c
000002a0: 0e7c 99be 20d9 99be 8a0e 39be 8966 933e
000002b0: b62b 763e 7d5c 123e 9765 5ebe 2294 69be
000002c0: b4b1 763e 3b5f 93bd 96b6 94be 4d68 33bd
000002d0: 539c a6bd a5df b63d 55c7 473e fa45 2e3e
000002e0: db39 76be f357 68bd db56 74be 4184 9f3e
000002f0: 424e 213e 5490 373e 86e7 ae3e e534 f23d
00000300: 22e3 bdbe 8588 ea3d cf41 44be 0039 043e
00000310: f855 da3a 430b c73e b88e 81be 5f46 b7be
00000320: 66af 05be 4798 573c c7a3 593e 8f37 823e
00000330: 4672 853e f53f 7d3d 6670 debd 83db 7fbd
00000340: 8eb5 21be ad65 863d e8a3 6bbe 2c41 133e
00000350: a601 8b3e 5851 ac3e 3daa b9be 2c39 8d3e
00000360: ee78 57be 6bac 40bd 901d 8f3e d9c8 283e
00000370: 1b1b b3bd 228f 683e 32ee 99be 44a4 5f3e
00000380: 2420 9f3e 93d4 18bc 2abe 953d 7e78 64bd
00000390: 94f7 3dbe ab44 05be 7e74 27bd 855a 9abe
000003a0: 0ba6 81be 67e5 e53c eaed 43be 34f5 32be
000003b0: 4d42 d83c a4f5 0abe 9293 af3e e658 85bd
000003c0: 37b7 2bbe 6958 9cbd d544 8cbe 8a77 253e
000003d0: ed52 853e e712 76be 6a9a 26be 915e 9a3e
000003e0: 2327 60be 95b7 063e 3d81 97be ce48 8dbe
000003f0: d738 d53b 6cf3 3cbe a787 553e 798c a0bd

raise_dim.0.attention3.1.bias f4 [32]
-0.113932356 0.02256311 -0.2670895 -0.31165436 0.20583406 0.114181235 -0.2652407 -0.020577844
0.18538408 0.19502091 0.26098052 -0.08783386 0.15023993 -0.24418925 -0.07994886 -0.19996724
-0.015610001 0.1683734 0.14597383 -0.15711214 -0.034577027 -0.065372266 -0.13839152 -0.15104078
0.23467237 0.21575111 0.26293868 -0.19779621 0.2306178 -0.14705229 -0.08288335 -0.045193437
00000000: 5e55 e9bd 45d6 b83c f4bf 88be 2991 9fbe
00000010: 2ac6 523e dad7 e93d a1cd 87be de92 a8bc
00000020: 53d5 3d3e 90b3 473e 3d9f 853e 3de2 b3bd
00000030: 7fd8 193e bf0c 7abe 3abc a3bd 36c4 4cbe
00000040: 17c1 7fbc 146a 2c3e 2a7a 153e 01e2 20be
00000050: a4a0 0dbd e5e1 85bd 82b6 0dbe 6faa 1abe
00000060: f44d 703e dced 5c3e e69f 863e 178b 4abe
00000070: 1327 6c3e e094 16be bfbe a9bd c11c 39bd

raise_dim.0.attention3.3.weight f4 [32, 32, 1, 1]
-0.049666494 -0.019361045 0.06600034 -0.15185817 0.10874368 -0.09250122 -0.11337546 -0.14304979
0.15030648 0.13267738 -0.08517316 -0.16312505 0.16475575 0.00027383442 0.22189008 -0.17685252
0.0032661485 0.12580241 0.024799438 -0.048042785 0.05178818 0.051507432 0.0243693 -0.039436486
-0.026238875 -0.11470709 0.19022128 -0.056773517 0.19451012 0.21751368 -0.0034759287 0.10006874
-0.04646681 -0.0064393557 -0.092839226 0.09803656 -0.12919441 -0.084339954 -0.1269333 -0.08623006
0.12066105 -0.09915013 0.005146296 -0.0015149197 0.03877657 -0.013144825 -0.029856782 0.012866566
0.12213474 0.04602814 -0.006427635 0.022990149 0.054068334 -0.009591211 0.13289978 -0.011028915
0.0038455226 0.10980394 -0.16033787 0.012648658 0.16372785 -0.23809081 -0.044391956 0.059149638
0.050767235 0.09488384 0.05927779 0.050625883 -0.06941953 0.083522975 -0.07328515 0.106269844
-0.013704115 -0.11134768 0.03017577 0.079179086 0.041705493 -0.008650733 -0.02280365 0.07208256
-0.0014172697 -0.10482435 -0.119808294 0.0012216046 -0.022807755 0.22567303 -0.047942653 0.12579411
-0.13527164 -0.13021675 0.0069071837 -0.13150014 -0.03185541 0.025203602 -0.1723676 0.11075954
-0.08128169 0.118972994 -0.0887996 -0.024661735 -0.13204755 0.009617235 -0.09007373 0.14585285
-0.1416543 -0.066125646 -0.109209225 -0.10337523 -0.12000694 -0.0049899523 -0.0014702369 0.023950387
0.08944997 -0.08892491 -0.10325184 -0.011920444 -0.059569392 -0.08239974 -0.12027283 0.16044414
0.019168805 0.024492564 0.037474975 0.15232712 -0.10377102 -0.025232445 0.13290365 0.02328438
0.1327507 0.087921165 0.06864831 -0.021674983 -0.15664354 -0.093973994 -0.09707578 0.044113107
0.16567023 0.18331297 0.11256582 0.039253786 0.03930941 0.14351779 0.046392404 -0.00013455746
-0.027170496 0.0979321 -0.046285216 -0.10222006 -0.18387277 0.20112997 0.17800394 -0.02279838
-0.060787067 -0.07407437 -0.080027156 0.17310102 -0.16896623 -0.0053866627 -0.19854377 -0.122634195
-0.030524489 -0.0028134624 -0.21535018 -0.07003954 -0.09879683 -0.1135783 -0.11504275 -0.15622464
0.16610087 -0.08728033 -0.15198413 0.12613839 0.05922854 0.1255769 -0.20861596 -0.17097531
-0.12808391 -0.102526635 -0.0077202525 0.084489346 0.07844486 -0.18710345 0.088991694 -0.08785487
0.03304331 0.035125256 0.025832297 0.069214135 -0.01597473 0.039753795 0.021029927 0.17273541
0.06557187 -0.10190834 0.26419267 0.03178647 0.13097017 -0.048035037 0.19620015 -0.0921879
0.08585333 -0.14270753 0.100790374 0.051715463 0.10189455 -0.124718994 -0.15597185 0.10129721
-0.058515552 0.07359128 -0.1381987 -0.027785154 -0.050613955 0.15002353 0.120164484 0.03054882
-0.07504917 -0.008160089 0.062887885 -0.12895489 -0.077123895 -0.051827855 -0.016218448 -0.036926337
0.08765325 0.1684495 -0.21510962 -0.10107577 0.008162532 0.0092566 -0.061675623 -0.0011738256
-0.041645393 0.015859846 0.15599558 -0.060171492 0.13552561 -0.15575002 0.021697141 -0.15567161
-0.17473888 0.049420666 -0.06095606 0.11546313 0.08034488 -0.17235191 -0.047146156 -0.051436048
-0.083514996 -0.09734217 -0.048950758 0.061521858 0.059886776 -0.00953319 0.0013554678 0.053127013
00000000: 186f 4bbd 0e9b 9ebc 302b 873d b580 1bbe
00000010: 02b5 de3d 4871 bdbd 6531 e8bd a57b 12be
00000020: f1e9 193e 94dc 073e 446f aebd 410a 27be
00000030: bbb5 283e 6f91 8f39 2737 633e d418 35be
00000040: e10c 563b 59d2 003e 3128 cb3c 83c8 44bd
00000050: d81f 543d 75f9 523d 20a2 c73c 2788 21bd
00000060: e9f2 d6bc 8deb eabd 5ec9 423e 598b 68bd
00000070: a92d 473e e8bb 5e3e 68cc 63bb d7f0 cc3d
00000080: fb53 3ebd 3b01 d3bb 7e22 bebd 64c7 c83d
00000090: 8a4b 04be 6dba acbd cefa 01be 6399 b0bd
000000a0: 241d f73d 390f cbbd 43a2 a83b 4590 c6ba
000000b0: 2ed4 1e3d 645d 57bc 3696 f4bc 4ace 523c
000000c0: c721 fa3d 0188 3c3d e99e d2bb d655 bc3c
000000d0: c276 5d3d 7424 1dbc e116 083e 9fb2 34bc
000000e0: 2a05 7c3b e3e0 e03d 9c2f 24be 513c 4f3c
000000f0: 46a8 273e 14ce 73be 57d4 35bd e446 723d
00000100: 4ef1 4f3d 7552 c23d 45cd 723d 165d 4f3d
00000110: d42b 8ebd 180e ab3d 8616 96bd 01a4 d93d
00000120: 3987 60bc 410a e4bd 2d33 f73c a528 a23d
00000130: 61d3 2a3d cebb 0dbc b8ce babc 05a0 933d
00000140: aec3 b9ba 26ae d6bd 0d5e f5bd 401e a03a
00000150: 54d7 babc d516 673e 845f 44bd 2cd0 003e
00000160: a684 0abe 8a57 05be a855 e23b f9a7 06be
00000170: d27a 02bd c977 ce3c 2281 30be e6d5 e23d
00000180: 0477 a6bd 1da8 f33d 91dc b5bd 6807 cabc
00000190: 7937 07be 9b91 1d3c 9378 b8bd 735a 153e
000001a0: d30d 11be e26c 87bd 16a9 dfbd 65b6 d3bd
000001b0: 33c6 f5bd c182 a3bb f7b4 c0ba 9a33 c43c
000001c0: 8c31 b73d 431e b6bd b375 d3bd f74d 43bc
000001d0: 09ff 73bd 32c1 a8bd 9a51 f6bd 784b 243e
000001e0: e607 9d3c a1a4 c83c 5c7f 193d a4fb 1b3e
000001f0: e785 d4bd 46b4 cebc e517 083e e2be be3c
00000200: cdef 073e 0310 b43d 7c97 8c3d bc8f b1bc
00000210: 2a67 20be 7075 c0bd abcf c6bd f2af 343d
00000220: 75a5 293e 65b6 3b3e e988 e63d 94c8 203d
00000230: e702 213d 54f6 123e f605 3e3d fe17 0db9
00000240: a994 debc a090 c83d 9195 3dbd c058 d1bd
00000250: 2549 3cbe 04f5 4d3e aa46 363e abc3 babc
00000260: dcfb 78bd 4eb4 97bd 47e5 a3bd 6541 313e
00000270: 7c05 2dbe 9a82 b0bb 0f4f 4bbe a327 fbbd
00000280: 7e0e fabc 1162 38bb c284 5cbe e470 8fbd
00000290: fe55 cabd bd9b e8bd 899b ebbd 5af9 1fbe
000002a0: 5916 2a3e 08c0 b2bd baa1 1bbe 6c2a 013e
000002b0: a099 723d 3b97 003e 6c9f 55be 2714 2fbe
000002c0: 6e28 03be 7cf9 d1bd 2cfa fcbb c008 ad3d
000002d0: b3a7 a03d 0c98 3fbe 4741 b63d 41ed b3bd
000002e0: 6c58 073d 80df 0f3d 419e d33c 24c0 8d3d
000002f0: 70dd 82bc e0d4 223d f446 ac3c 8de1 303e
00000300: 8b4a 863d 52b5 d0bd 4344 873e 8832 023d
00000310: 0b1d 063e 63c0 44bd b1e8 483e 02cd bcbd
00000320: dfd3 af3d ec21 12be 2f6b ce3d 98d3 533d
00000330: 17ae d03d ac6c ffbd 16b7 1fbe e974 cf3d
00000340: 01ae 6fbd 06b7 963d f683 0dbe b19d e3bc
00000350: 9450 4fbd c59f 193e cc18 f63d 8541 fa3c
00000360: 61b3 99bd e5b1 05bc 5dcb 803d c00c 04be
00000370: 22f3 9dbd 7249 54bd 8ddc 84bc 1240 17bd
00000380: 8c83 b33d 077e 2c3e b245 5cbe d000 cfbd
00000390: 24bc 053c ffa8 173c 949f 7cbd 0ddb 99ba
000003a0: 5c94 2abd 82ec 813c 4ebd 1f3e 6276 76bd
000003b0: 3ac7 0a3e ef7c 1fbe 34be b13c 6168 1fbe
000003c0: c0ee 32be 536d 4a3d 10ad 79bd ef77 ec3d
000003d0: db8b a43d 057d 30be 541c 41bd 9bae 52bd
000003e0: e909 abbd 555b c7bd 9780 48bd 58fe 7b3d
000003f0: d64b 753d 1931 1cbc f4a9 b13a b69b 593d

raise_dim.0.attention3.3.bias f4 [32]
-0.08718064 0.008064257 0.052631974 0.15973964 0.03774074 -0.008392139 -0.14752539 -0.052486513
-0.009861793 -0.14040776 0.03521444 0.08342385 0.096167766 -0.044022825 -0.05521131 0.16460809
-0.03603402 -0.1146804 -0.008039485 0.003298285 -0.05709588 0.0058918116 -0.13699661 0.049160495
-0.12400931 0.05356911 0.13012421 -0.14487116 -0.02246307 0.034838524 0.023478815 0.10647479
00000000: c38b b2bd f21f 043c a094 573d ca92 233e
00000010: 0996 1a3d 2f7f 09bc e510 17be 19fc 56bd
00000020: 5c93 21bc 0dc7 0fbe 043d 103d 20da aa3d
00000030: 9bf3 c43d 4751 34bd 4125 62bd 068f 283e
00000040: 6998 13bd 8fdd eabd 0bb8 03bc 0a28 583b
00000050: 5fdd 69bd 1910 c13b d748 0cbe 845c 493d
00000060: 98f8 fdbd 486b 5b3d 483f 053e 1b59 14be
00000070: 7904 b8bc d7b2 0e3d a556 c03c 740f da3d

layers.0.conv1.weight f4 [32, 32, 3, 3]
0.07094834 0.05801679 -0.05088041 0.00430782 -0.029803881 0.03814008 0.045072213 -0.042687804
0.033304926 -0.02465913 -0.03439591 0.039531726 -0.072519675 -0.01844721 0.108641416 -0.04678094
-0.033990905 0.03427142 0.06000475 0.052897803 0.056557406 -0.029399764 -0.023112677 0.042394165
0.053818773 0.047249053 0.032450464 -0.046657275 0.003477261 -0.06338352 -0.02673335 0.056003
-0.012866785 0.03907126 0.0208948 0.040974766 0.01702196 -0.079401985 -0.056212865 -0.02093695
0.023682818 -0.029966222 -0.006613613 -0.0212391 -0.06927977 -0.013635779 0.053940885 0.045273278
0.05455467 0.064398445 -0.0012352183 0.056625627 0.05117395 0.06048264 0.03842335 -0.029418092
-0.02117677 -0.031870965 0.058453225 0.030329373 0.0019223463 0.025598364 -0.045556568 0.0521799
-0.051011574 -0.033766612 -0.06994242 -0.039718345 -0.08853468 -0.041788664 -0.041171223 0.0074153165
0.061796542 -0.013194012 0.043812 0.039003897 0.056146212 0.039609347 0.04355083 0.05800479
0.026885867 -0.041440066 0.04688531 0.05788651 0.05433481 -0.047499415 0.019041073 0.05063197
0.0050315172 0.031530384 0.0030090492 0.06250151 -0.071479544 0.029099846 -0.025392579 0.030872105
-0.019759467 0.013163847 0.03512125 -0.02298407 0.043005135 0.028434701 -0.03820875 -0.019212522
0.04005263 -0.05280381 0.02546378 -0.052056614 -0.007507758 0.025411043 -0.04093104 -0.052841987
-0.0970461 -0.056168858 -0.021388639 -0.011223436 -0.03442244 0.11573134 0.029511062 -0.020039212
0.12591766 0.050197385 0.03160548 0.09863828 0.0534375 -0.028533833 0.046421863 0.044501223
0.06939391 -0.03715474 0.0766588 0.029471496 -0.010522431 0.009255997 0.052482266 -0.047661524
0.021537498 0.006140801 -0.11691394 -0.10402766 -0.02813289 -0.050679944 -0.09629302 0.049026024
0.028332429 0.023868578 0.002537402 0.057719827 0.061036732 0.04297384 0.015584763 0.05107444
0.03755858 -0.03803914 -0.03972993 -0.012697105 -0.089853086 -0.085650675 -0.03428334 -0.0692181
-0.08877279 0.030762902 0.043470345 0.04333351 0.007617485 0.0039000208 0.06843939 0.0009306349
0.059958957 -0.0059798067 0.09929969 -0.07696672 -0.06538673 -0.021744797 0.05040443 -0.037962485
0.0074991705 0.06954359 0.04999201 -0.0020257838 0.039214592 0.02309931 -0.022523357 -0.0140139945
0.031222273 0.062352534 0.027601376 -0.032446615 0.06437693 -0.0053849514 -0.012491776 -0.0442543
0.014369046 -0.036903337 0.027099017 -0.00689865 0.013990278 -0.023179766 0.05260868 9.291998e-05
0.07897912 -0.041556895 -0.06070927 -0.02060978 0.017993826 0.031762004 -0.060755704 -0.0193523
-0.13471058 -0.0007773059 -0.07731957 -0.10172827 -0.06123252 -0.075722516 -0.063596554 0.0038942997
-0.10000318 -0.053943355 0.05961705 -0.02408271 -0.038758762 -0.051071085 -0.11310912 -0.10427902
-0.016061636 0.059960514 0.00748395 -0.0035677778 0.024195248 -0.054214135 0.039178774 -0.06322552
-0.038936835 -0.028438857 0.011615581 0.05028515 0.045661114 -0.0654578 0.055911608 -0.05116792
0.021110417 0.053031083 0.025750497 -0.07152043 -0.052818418 0.009250612 0.016883073 -0.03714343
0.05757861 -0.030303746 0.0014508376 0.0464771 0.030180397 -0.0326979 -0.05385251 0.008914004
00000000: 5d4d 913d 03a3 6d3d fa67 50bd 9d28 8d3b
00000010: 4527 f4bc c638 1c3d a49d 383d 68d9 2ebd
00000020: bf6a 083d f201 cabc bae2 0cbd 05ec 213d
00000030: 3285 94bd 9a1e 97bc 647f de3d 5f9d 3fbd
00000040: 0c3a 0bbd 3060 0c3d 8ac7 753d 5eab 583d
00000050: bda8 673d c6d7 f0bc cc56 bdbc 81a5 2d3d
00000060: 1371 5c3d 3988 413d c7ea 043d b31b 3fbd
00000070: c2e2 633b 38cf 81bd e6ff dabc 6763 653d
00000080: 35cf 52bc 2f09 203d 922b ab3c 28d5 273d
00000090: a371 8b3c 829d a2bd 763f 66bd f783 abbc
000000a0: 7802 c23c b97b f5bc 02b7 d8bb 9ffd adbc
000000b0: 8de2 8dbd 9a68 5fbc 1ef1 5c3d 7970 393d
000000c0: b874 5f3d 55e3 833d 0ce7 a1ba 46f0 673d
000000d0: c79b 513d a5bc 773d cd61 1d3d 36fe f0bc
000000e0: e87a adbc 218b 02bd a66c 6f3d 4e75 f83c
000000f0: 3df7 fb3a a9b3 d13c 8699 3abd 97ba 553d
00000100: 83f1 50bd dc4e 0abd f93d 8fbd b4af 22bd
00000110: ac51 b5bd 972a 2bbd 28a3 28bd 2ffc f23b
00000120: 5f1e 7d3d b32b 58bc 3674 333d 8dc2 1f3d
00000130: 92f9 653d 693d 223d 5b62 323d 6e96 6d3d
00000140: c03f dc3c 0fbd 29bd d00a 403d 681a 6d3d
00000150: 2d8e 5e3d bf8e 42bd 06fc 9b3c 7863 4f3d
00000160: 6ddf a43b 0126 013d 7833 453b cb00 803d
00000170: de63 92bd cd62 ee3c 1904 d0bc 7fe7 fc3c
00000180: 9bde a1bc 2dad 573c 4ddb 0f3d 1749 bcbc
00000190: 2726 303d e4ef e83c c780 1cbd 9463 9dbc
000001a0: 3a0e 243d cf48 58bd 6b99 d03c 5139 55bd
000001b0: a403 f6bb d22a d03c 4ea7 27bd d770 58bd
000001c0: 1bc0 c6bd 5111 66bd 3a37 afbc 81e2 37bc
000001d0: 8bfe 0cbd 8e04 ed3d 2fc1 f13c 4629 a4bc
000001e0: 8ff0 003e c69b 4d3d bf74 013d de02 ca3d
000001f0: 48e1 5a3d c9bf e9bc da24 3e3d ea46 363d
00000200: 651e 8e3d 922f 18bd 4aff 9c3d 356e f13c
00000210: 4666 2cbc 77a6 173c a5f7 563d bb38 43bd
00000220: 686f b03c c638 c93b 9370 efbd 740c d5bd
00000230: f276 e6bc c695 4fbd 4635 c5bd 83cf 483d
00000240: 6919 e83c 0988 c33c 8b4a 263b a06b 6c3d
00000250: a701 7a3d 5605 303d 3c57 7f3c 6f33 513d
00000260: 07d7 193d eece 1bbd dabb 22bd 8507 50bc
00000270: e504 b8bd 9f69 afbd b06c 0cbd 38c2 8dbd
00000280: 82ce b5bd 7b02 fc3c f60d 323d 7b7e 313d
00000290: 189c f93b 7e97 7f3b f329 8c3d daf5 733a
000002a0: 8697 753d 41f2 c3bb a35d cb3d baa0 9dbd
000002b0: 7ae9 85bd 2522 b2bc e074 4e3d 8d7e 1bbd
000002c0: 9abb f53b df6c 8e3d 6cc4 4c3d 03c3 04bb
000002d0: 7b9f 203d c43a bd3c e782 b8bc f49a 65bc
000002e0: dac5 ff3c 5f65 7f3d 481c e23c bee6 04bd
000002f0: 0dd8 833d 3f74 b0bb 4eaa 4cbc ff43 35bd
00000300: 266c 6b3c f427 17bd c2fe dd3c 120e e2bb
00000310: 7b37 653c 7ee3 bdbc 337c 573d 09de c238
00000320: cebf a13d 9037 2abd 49aa 78bd d7d5 a8bc
00000330: ca67 933c e018 023d f9da 78bd b788 9ebc
00000340: 92f1 09be 1ec4 4bba b959 9ebd e956 d0bd
00000350: f3ce 7abd 6814 9bbd e93e 82bd 8237 7f3b
00000360: 78ce ccbd b5f3 5cbd 0231 743d 1a49 c5bc
00000370: 82c1 1ebd ea2f 51bd c1a5 e7bd 3d90 d5bd
00000380: b193 83bc 2899 753d ec3b f53b 61d1 69bb
00000390: 1d35 c63c a40f 5ebd ec79 203d 627c 81bd
000003a0: 3b7c 1fbd 9bf8 e8bc 474f 3e3c cdf7 4d3d
000003b0: 2607 3b3d bd0e 86bd 9203 653d 7495 51bd
000003c0: c1ef ac3c 1f37 593d b5f2 d23c 4e79 92bd
000003d0: 2058 58bd e18f 173c 5f4e 8a3c b623 18bd
000003e0: 8cd7 6b3d 903f f8bc 082a be3a c65e 3e3d
000003f0: e13c f73c 3cee 05bd 7394 5cbd 0b0c 123c

layers.0.conv1.attention1.0.weight f4 [9, 32, 3, 3]
0.13966079 0.25308406 0.1657913 0.11528398 0.120372966 0.14544205 0.042112716 0.03510597
0.043717045 -0.031870704 -0.0388595 -0.018622475 -0.010698303 -0.13592075 -0.073901676 0.010583593
-0.0063229916 0.030419447 -0.12193674 -0.1390576 -0.09065016 -0.13870534 -0.11097735 -0.05633284
-0.022388566 -0.10309647 -0.1229061 0.08048492 0.069197 0.23065753 0.038493633 0.11859593
0.17925702 0.0890682 0.09892159 0.1754195 0.04533695 0.17291358 0.08694021 0.04997233
0.10302918 0.04368146 0.0848655 0.09654903 0.13268957 -0.06360247 -0.047654662 -0.02210416
-0.05491989 -0.11931668 -0.0851502 -0.0686721 -0.115207754 -0.06295386 -0.0902448 -0.05216313
-0.11803362 -0.019299705 -0.097921155 -0.14175035 -0.106101006 -0.12127795 -0.048611924 0.06941992
0.034952752 0.033203498 0.008910444 0.03194567 0.029616652 0.0014617748 0.04856585 0.05983099
-0.102463074 -0.101069085 -0.11374312 -0.09125911 -0.09314877 -0.098245084 -0.01411311 -0.07588462
-0.030128755 -0.031027673 -0.09333021 -0.09526775 -0.0816469 -0.072949566 -0.16293019 -0.07488546
-0.08523545 -0.07029525 0.21042874 0.2996376 0.13236442 0.16396926 0.24447504 0.22152586
0.19791847 0.3042313 0.2786808 0.09446744 0.14694661 0.1790864 0.1722063 0.20431517
0.22596593 0.0726295 0.22731116 0.13976954 0.114118874 0.15559775 -0.035339337 0.19960049
0.19194646 0.1608562 0.19655767 0.23505996 0.21954471 0.18338013 0.25509426 0.15728538
0.16053721 0.25102085 0.17846134 0.011892343 0.06542085 -0.023852011 -0.11914229 -0.07226682
-0.1284154 -0.07268363 -0.140158 -0.070200294 -0.039948992 -0.096477434 -0.06925974 0.017795553
-0.025197878 0.037504856 0.11676468 0.06485026 -0.10777994 0.101339675 0.075020075 0.03469016
-0.0011569498 9.495054e-05 -0.09438244 -0.06500624 -0.007858455 -0.015156127 -0.03668293 0.0232354
0.016251959 0.02043482 0.06136124 0.017034238 -0.06576404 0.019524252 0.0052991877 -0.14794056
-0.110644646 -0.0076896576 0.00032447197 0.013276194 -0.007010096 -0.07713943 -0.096755885 -0.05460233
-0.11373864 -0.07115375 -0.09176592 -0.024133814 -0.032056924 -0.04456719 -0.017369432 -0.07312967
-0.17147417 -0.03947909 -0.028022785 -0.038033377 -0.14970386 -0.14991115 -0.12476525 -0.06937103
-0.14661656 -0.17088674 -0.09375992 -0.09234749 -0.067568086 0.10003975 0.18993987 0.07052111
0.256633 0.32596725 0.24559739 0.21132737 0.20358096 0.3053365 -0.11540007 -0.0933401
-0.14989834 -0.21573949 -0.18251272 -0.11658385 -0.1600548 -0.18328391 -0.11199532 0.10804152
0.023730325 -0.21352074 0.021508181 0.06809614 0.00087415753 -0.25048113 -0.24030755 -0.24930848
0.03164986 -0.029763827 0.028294552 0.032749366 0.022003965 -0.06605968 -0.044555884 -0.112795815
-0.12403465 0.040916305 -0.06022335 -0.056241818 -0.06524869 -0.14428775 -0.14499924 0.0076830736
-0.097620785 -0.11750437 0.12113134 0.3039573 0.3607261 0.16392452 0.15539697 0.21583892
0.0734136 0.18892905 0.13866545 -0.05695858 -0.062402878 -0.04479617 -0.06778841 -0.14073417
-0.13547853 -0.102971666 -0.09618745 -0.14962995 -0.23800483 -0.19700523 0.009910254 -0.16636501
00000000: 3d03 0f3e 3c94 813e 32c5 293e 021a ec3d
00000010: 1a86 f63d c3ee 143e 627e 2c3d 47cb 0f3d
00000020: a510 333d db8a 02bd 242b 1fbd 298e 98bc
00000030: ef47 2fbc cf2e 0bbe c359 97bd ce66 2d3c
00000040: 1931 cfbb 3432 f93c f8b9 f9bd 1e65 0ebe
00000050: cba6 b9bd c608 0ebe 1848 e3bd 44bd 66bd
00000060: 3a68 b7bc 3e24 d3bd 31b6 fbbd 47d5 a43d
00000070: 28b7 8d3d 7d31 6c3e 80ab 1d3d 6ce2 f23d
00000080: 278f 373e 6369 b63d 6797 ca3d 2ba1 333e
00000090: 3db3 393d 4210 313e b50d b23d c9af 4c3d
000000a0: f600 d33d 55eb 323d f7cd ad3d 7fbb c53d
000000b0: c6df 073e 0342 82bd 8931 43bd c913 b5bc
000000c0: aef3 60bd 4e5c f4bd 3a63 aebd f5a3 8cbd
000000d0: 0bf2 ebbd f4ed 80bd 44d2 b8bd 02a9 55bd
000000e0: 9cbb f1bd 6a1a 9ebc e38a c8bd 0127 11be
000000f0: 7c4b d9bd 9360 f8bd 4c1d 47bd 082c 8e3d
00000100: 9e2a 0f3d 6400 083d 1cfd 113c 76d9 023d
00000110: 9f9e f23c 0699 bf3a fcec 463d 5711 753d
00000120: 29d8 d1bd 4ffd cebd 27f2 e8bd 0ee6 babd
00000130: c8c4 bebd b834 c9bd ac3a 67bc 6569 9bbd
00000140: 94d0 f6bc bf2d febc e923 bfbd bd1b c3bd
00000150: 7d36 a7bd 9566 95bd 2cd7 26be 8c5d 99bd
00000160: ec8f aebd f5f6 8fbd a27a 573e 196a 993e
00000170: 8a8a 073e 8fe7 273e aa57 7a3e add7 623e
00000180: 24ab 4a3e 34c4 9b3e 40af 8e3e 2578 c13d
00000190: 2c79 163e 6d62 373e d956 303e ff37 513e
000001a0: 9d63 673e c6be 943d 42c4 683e bf1f 0f3e
000001b0: 28b7 e93d 0455 1f3e fbbf 10bd 1264 4c3e
000001c0: 9d8d 443e 7db7 243e 6a46 493e 8fb3 703e
000001d0: 54d0 603e 00c8 3b3e b79b 823e 6b0f 213e
000001e0: de63 243e ce85 803e 92be 363e 1ad8 423c
000001f0: 5efb 853d 4b65 c3bc df00 f4bd a000 94bd
00000200: 547f 03be 28db 94bd 9485 0fbe 2cc5 8fbd
00000210: 8ea1 23bd f695 c5bd 0dd8 8dbd fbc7 913c
00000220: c86b cebc b19e 193d 5222 ef3d 37d0 843d
00000230: bbbb dcbd 2d8b cf3d 20a4 993d 4517 0e3d
00000240: cba4 97ba 2f20 c738 954b c1bd fe21 85bd
00000250: c0c0 00bc 6751 78bc d740 16bd 2a58 be3c
00000260: d422 853c ec66 a73c ec55 7b3d 638b 8b3c
00000270: 4caf 86bd 53f1 9f3c cfa4 ad3b bb7d 17be
00000280: a999 e2bd 86f9 fbbb e41d aa39 6584 593c
00000290: f3b4 e5bb 47fb 9dbd f327 c6bd b1a6 5fbd
000002a0: ceef e8bd 0fb9 91bd c5ef bbbd 47b4 c5bc
000002b0: 1f4e 03bd 168c 36bd 574a 8ebc 02c5 95bd
000002c0: ed96 2fbe d4b4 21bd 0a90 e5bc e3c8 1bbd
000002d0: f84b 19be 4f82 19be ec84 ffbd 6612 8ebd
000002e0: a722 16be effc 2ebe 3305 c0bd ae20 bdbd
000002f0: 2361 8abd a4e1 cc3d 997f 423e 5f6d 903d
00000300: 6765 833e 2ee5 a63e e27d 7b3e 3466 583e
00000310: 8777 503e 1155 9c3e df56 ecbd 1829 bfbd
00000320: f37e 19be d0ea 5cbe 9de4 3abe 83c3 eebd
00000330: 68e5 23be c7ae 3bbe cd5d e5bd df44 dd3d
00000340: 1966 c23c 2ea5 5abe ed31 b03c fd75 8b3d
00000350: b827 653a 103f 80be 2f13 76be b94a 7fbe
00000360: 49a3 013d 45d3 f3bc fac9 e73c 3324 063d
00000370: a941 b43c 4c4a 87bd 3b80 36bd 7e01 e7bd
00000380: e105 febd db97 273d c2ac 76bd d25d 66bd
00000390: 1ba1 85bd 2bc0 13be ae7a 14be 4bc2 fb3b
000003a0: 68ed c7bd 22a6 f0bd b513 f83d 4ba0 9b3e
000003b0: 17b1 b83e d4db 273e 6220 1f3e e104 5d3e
000003c0: df59 963d 9e76 413e 51fe 0d3e 664d 69bd
000003d0: 299a 7fbd 307c 37bd a6d4 8abd 9e1c 10be
000003e0: e2ba 0abe cfe2 d2bd edfd c4bd 9838 19be
000003f0: 8ab7 73be bdbb 49be 9e5e 223c 975b 2abe

layers.0.conv1.attention1.0.bias f4 [9]
0.1938277 -0.2949331 0.30968332 0.2291127 0.33013853 -0.030267369 0.23593818 -0.06430519
0.25066274
00000000: c57a 463e 7901 97be d08e 9e3e 859c 6a3e
00000010: eb07 a93e 46f3 f7bc c799 713e 71b2 83bd
00000020: de56 803e

layers.0.conv1.attention1.2.weight f4 [9, 9, 1, 1]
0.036106456 -0.2170071 -0.07117561 -0.16973987 -0.24568902 0.3216713 -0.3274207 0.29861474
-0.15399894 -0.34581771 0.12709843 -0.29784623 0.11027624 0.059601698 0.45221373 -0.16337535
-0.098112 -0.08271702 -0.11889631 0.12747033 0.029855566 -0.3146385 0.17519446 -0.23249702
-0.32123446 -0.06911648 0.293316 -0.19989543 -0.045205757 -0.19526745 0.186256 -0.090099044
-0.48158595 0.08522645 -0.4133311 0.2580959 0.17828329 0.018121459 0.124889314 -0.21700908
0.2960284 0.05501062 -0.31267563 0.10178918 -0.2923473 -0.1079383 -0.21410884 -0.39144075
0.044973217 -0.33303636 0.17085427 0.18384907 0.048770852 -0.09076224 0.16027188 -0.28129596
0.25825685 0.47242948 0.47808096 -0.26980075 0.5600271 -0.7236817 0.2740904 0.13611972
-0.04976976 -0.26077628 -0.14872295 -0.27110714 0.4999837 -0.51293117 0.0817636 -0.28578028
0.31425825 -0.45322213 0.624563 0.32766178 0.6439206 -0.42494622 0.22741413 -0.508109
0.4766321
00000000: 5de4 133d 1c37 5ebe 85c4 91bd 4ad0 2dbe
00000010: e795 7bbe 1ab2 a43e b0a3 a7be 08e4 983e
00000020: e6b1 1dbe 050f b1be 1726 023e 4d7f 98be
00000030: 82d8 e13d e920 743d 8f88 e73e de4b 27be
00000040: f2ee c8bd 8a67 a9bd e97f f3bd 9587 023e
00000050: a993 f43c 4c18 a1be 2d66 333e b313 6ebe
00000060: d878 a4be f18c 8dbd 842d 963e 63b1 4cbe
00000070: ac29 39bd 31f4 47be e5b9 3e3e d985 b8bd
00000080: 6f92 f6be 348b ae3d 22a0 d3be 2525 843e
00000090: e58f 363e 7473 943c f8c5 ff3d a137 5ebe
000000a0: 0991 973e d152 613d 0517 a0be d876 d03d
000000b0: 8cae 95be c10e ddbd 593f 5bbe ec6a c8be
000000c0: d635 383d be83 aabe 6cf4 2e3e ee42 3c3e
000000d0: f2c3 473d 8ee1 b9bd 501e 243e 0606 90be
000000e0: 3e3a 843e 47e2 f13e 07c7 f43e 5323 8abe
000000f0: f05d 0f3f 3443 39bf 9455 8c3e f862 0b3e
00000100: 60db 4bbd 7884 85be d44a 18be 8ece 8abe
00000110: ddfd ff3e 754f 03bf ad73 a73d cb51 92be
00000120: 75e6 a03e bb0c e8be 5ce3 1f3f 49c3 a73e
00000130: fbd7 243f 8d92 d9be 40df 683e 6e13 02bf
00000140: 1f09 f43e

layers.0.conv1.attention1.2.bias f4 [9]
0.12892209 -0.39309463 -0.3696658 0.27835742 0.06774533 0.08924059 0.23026946 -0.41308963
0.1989541
00000000: 2704 043e b343 c9be d644 bdbe dd84 8e3e
00000010: 10be 8a3d c5c3 b63d c2cb 6b3e 7c80 d3be
00000020: a0ba 4b3e

layers.0.conv1.attention1.4.weight f4 [9, 9, 1, 1]
-0.18845741 -0.10648722 0.067251354 0.42422915 -0.070336245 -0.3380096 0.18360014 0.10565545
0.28319928 0.11446933 -0.5642899 -0.4691903 0.190791 -0.096269 -0.29050806 0.49799892
-0.35369518 0.43069345 -0.026648216 -0.061032716 -0.175032 -0.22646648 0.11165499 -0.016228465
0.066851534 -0.4243522 0.21105841 -0.2508419 -0.08828216 0.09817799 0.27320346 0.21039896
0.35048026 0.111827165 -0.29251623 -0.16840261 -0.040820632 -0.43106887 0.041737027 0.25455663
-0.02482204 0.102003545 0.56103337 -0.43175074 0.65813696 -0.23468643 -0.42239496 0.054020673
0.18338127 -0.02552752 -0.12705603 0.18903182 -0.41956237 0.38619283 0.13814385 -0.2898732
0.30854136 -0.10592578 -0.26184967 0.10502532 0.06956526 -0.33470523 -0.108962744 -0.28500962
-0.14917089 -0.37148073 0.24919513 -0.24000205 0.29434356 0.5924222 -0.22558765 0.54005796
0.25997165 0.26150078 -0.27996102 0.35366657 -0.0005054732 -0.2036972 0.12205057 0.17398924
0.39928114
00000000: fbfa 40be f915 dabd 14bb 893d 9034 d93e
00000010: 730c 90bd 980f adbe ad01 3c3e e261 d83d
00000020: 7fff 903e e56e ea3d 4e75 10bf b639 f0be
00000030: b75e 433e ae28 c5bd 79bd 94be b7f9 fe3e
00000040: 8917 b5be da83 dc3e 5c4d dabc 71fd 79bd
00000050: 973b 33be d4e6 67be 5fab e43d 8ff1 84bc
00000060: 75e9 883d b144 d9be b21f 583e 596e 80be
00000070: 47cd b4bd 8b11 c93d 53e1 8b3e d372 573e
00000080: 2672 b33e a405 e53d b0c4 95be bc71 2cbe
00000090: 8933 27bd 0fb5 dcbe 72f4 2a3d 3f55 823e
000000a0: 9757 cbbc 3ce7 d03d e29f 0f3f 6f0e ddbe
000000b0: aa7b 283f a451 70be 2744 d8be c844 5d3d
000000c0: 4dc8 3b3e 171f d1bc fa1a 02be 8f91 413e
000000d0: e1d0 d6be 11bb c53e 9575 0d3e 436a 94be
000000e0: 22f9 9d3e 9eef d8bd 2911 86be 8417 d73d
000000f0: 3b78 8e3d 7c5e abbe dc27 dfbd c8ec 91be
00000100: 41c0 18be b932 bebe 022d 7f3e 19c3 75be
00000110: 33b4 963e fba8 173f 7300 67be 3d41 0a3f
00000120: 011b 853e 6ee3 853e 0d57 8fbe c913 b53e
00000130: bb81 04ba 0096 50be a6f5 f93d 3c2a 323e
00000140: 946e cc3e

layers.0.conv1.attention1.4.bias f4 [9]
-0.039178986 0.49462664 0.051348273 0.17692794 0.12944356 0.045082662 0.20731725 0.32600597
-0.2303975
00000000: 257a 20bd b43f fd3e 9152 523d 992c 353e
00000010: da8c 043e 99a8 383d f94a 543e 41ea a63e
00000020: 52ed 6bbe
