weights/BWNET_LAGConv_T6/model_epoch_20.pth (torch, 679454 bytes, 143 tensors)

raise_dim.0.weight f4 [32, 9, 3, 3]
0	0xbd36d558	-0.044637054
1	0x3d8fb1b8	0.07016319
2	0xbb8c8406	-0.0042881994
3	0x3e69f05a	0.22845593
4	0x3ec585b5	0.38578573
5	0x3ca7c2c2	0.02047861
6	0x3da7cee7	0.0819376
7	0x3d4e98d0	0.050438702
8	0x3e5ee6db	0.21767752
9	0xbd3c799f	-0.046014424
10	0x3d5f8095	0.054565985
11	0x3d9f0434	0.077644736
12	0x3e03536f	0.12824796
13	0x3d50c2bb	0.05096696
14	0xbd4dc3b2	-0.050235458
15	0xbd723e5f	-0.059141513
16	0xbd767c72	-0.060177274
17	0x3d9c84b7	0.07642501
18	0xbd68e205	-0.056856174
19	0x3ba6bcb6	0.005088414
20	0x3dbff188	0.0937224
21	0x3dadffd0	0.08496058
22	0xbd8c0fbe	-0.0683894
23	0x3d15806c	0.036499426
24	0x3c8a9e57	0.016921205
25	0x3de477cc	0.11155662
26	0xbc3a1e94	-0.011359829
27	0x3d699162	0.057023413
28	0x3c5c8213	0.0134587465
29	0x3e010b89	0.12602057
30	0xbccb7f6b	-0.024841031
31	0xbd8d162c	-0.068889946
32	0x3cbc85a3	0.023012942
33	0xbdbe62c2	-0.0929618
34	0x3bdbf4b8	0.0067125224
35	0x3d675787	0.056479957
36	0xbca818e6	-0.020519685
37	0xbca3068e	-0.019900586
38	0x3d14b00e	0.03630071
39	0x3cd74203	0.026276594
40	0xbc3561e6	-0.011070704
41	0x3dbc3202	0.09189226
42	0x3d8b8d2e	0.06814037
43	0xbd027ffc	-0.031860337
44	0xbbe1bf14	-0.0068892334
45	0x3c4ecf2d	0.012622637
46	0xbd283fc6	-0.041076444
47	0x3d9e7871	0.07737816
48	0xbda000e0	-0.07812667
49	0x3ab8004e	0.0014038177
50	0x3d87ef85	0.066374816
51	0xbe0076d7	-0.12545334
52	0xbcd92329	-0.026506023
53	0x3d8544c0	0.06507254
54	0x3d63dcb1	0.05563039
55	0xbd4e295c	-0.050332412
56	0xbc52a3d6	-0.012856444
57	0xbddb727f	-0.10715198
58	0xba48a458	-0.00076538837
59	0x3d48efcf	0.049056824
60	0x3d8bc298	0.06824225
61	0xbd2592cb	-0.040423196
62	0xbd011474	-0.031513646
63	0x3c0ee94a	0.008722613
64	0xbc0443a2	-0.008072766
65	0xbbbc064a	-0.0057380544
66	0xbc3eeba4	-0.011652861
67	0x3dc13b9b	0.09435197
68	0x3d7f4560	0.06232202
69	0xbc791316	-0.015202304
70	0xbbab6eec	-0.005231729
71	0xbdc7462a	-0.097301796
72	0x3b20ec09	0.002455475
73	0x3c86995d	0.016430551
74	0x3d40c796	0.04706534
75	0xbdb25dde	-0.0870931
76	0xbdbdc5e7	-0.092662625
77	0xbd246f04	-0.040144935
78	0x3dca8087	0.09887796
79	0xbb3698b2	-0.002786201
80	0xbce59a92	-0.028027806
81	0xbbfdef3f	-0.0077494676
82	0xbbcbe0d7	-0.0062218714
83	0x3db6c803	0.08924868
84	0x3d9a16dd	0.07523892
85	0xbde411be	-0.111361966
86	0xbdaa958d	-0.08329306
87	0xbe05c524	-0.13063484
88	0xbd08931c	-0.03334342
89	0x3ba35f23	0.0049857064
90	0x3db466b4	0.088086516
91	0xbde7e614	-0.11323181
92	0x3da8d3c2	0.082435146
93	0xbd92aea6	-0.07162218
94	0x3baaa5a3	0.0052077337
95	0x3b0e5b83	0.0021722026
96	0x3d37931b	0.044818025
97	0xbdd692f1	-0.104772456
98	0xbd9da283	-0.07697012
99	0x3b020019	0.0019836484
100	0x3d5bc1e8	0.05365172
101	0xbd52750b	-0.051381152
102	0x3cdf378f	0.027248172
103	0xbd024a18	-0.031808943
104	0xbdcac8fe	-0.099016175
105	0xbbaf9baf	-0.005359135
106	0xbd12c94f	-0.035836514
107	0x3d80b322	0.06284167
108	0x3db04a90	0.08607972
109	0x3dab887b	0.08375641
110	0x3d9bc1a4	0.076052934
111	0xbda27f5f	-0.0793445
112	0xbdc58eb1	-0.09646357
113	0x3cab6ef7	0.020926936
114	0x3c9b610b	0.018967172
115	0xbdc13032	-0.09433021
116	0x3db28456	0.08716647
117	0xbb8a8c9a	-0.004228187
118	0xbd5c3212	-0.05375869
119	0x3dbf6fc0	0.093474865
120	0x3dd37e88	0.10326868
121	0x3d096725	0.033545632
122	0xbc35d8e4	-0.011099074
123	0xbc38cede	-0.01127979
124	0xbdbbfca3	-0.09179046
125	0x3d922b7f	0.071372025
126	0x3d991b27	0.07475882
127	0xbc425b51	-0.011862592
128	0xbd8ac809	-0.06776435
129	0x3da98629	0.08277542
130	0xbda1b17f	-0.07895183
131	0xbd0b28c0	-0.03397441
132	0x3d436a45	0.04770877
133	0xbd7acd19	-0.061230753
134	0x3cc46018	0.023971602
135	0x3dbeb55d	0.09311936
136	0xbc1b908d	-0.009494913
137	0xbc489918	-0.012243532
138	0x3dd9c153	0.10632577
139	0x3cf722c8	0.030167952
140	0x3d66321b	0.056200128
141	0xbd1f8717	-0.03894719
142	0xbdbc59a9	-0.09196789
143	0x3cd33d17	0.025785966
144	0xbda4000b	-0.08007821
145	0xbd9aa93b	-0.075518094
146	0xbdc0aec9	-0.094083376
147	0x3da5897c	0.08082864
148	0xbdb79087	-0.08963113
149	0x3cf3873d	0.029727573
150	0x3c5c1d87	0.013434774
151	0x3d8b6976	0.068072245
152	0x3d6a7f7d	0.05725049
153	0xbdabdbcb	-0.083915316
154	0x3d2ec93d	0.042672385
155	0xbd540511	-0.051762644
156	0xbb084bad	-0.002079706
157	0xbd33cd16	-0.043896757
158	0xbdb73afa	-0.08946796
159	0x3ceb6825	0.028736183
160	0xbd9ea191	-0.0774566
161	0x3de1e623	0.11030223
162	0x3d209bca	0.039211072
163	0xbd9627be	-0.07331799
164	0xbd928956	-0.07155101
165	0xbdb490c3	-0.088166736
166	0xbd0154df	-0.03157508
167	0xbd780f3c	-0.060561404
168	0x3c0c2a7b	0.00855505
169	0x3d676ec6	0.056502126
170	0x3dde0682	0.10841085
171	0x3c800d08	0.015631214
172	0xbca6499c	-0.020298772
173	0xbd07fe26	-0.03320136
174	0xbca4b5ec	-0.020106278
175	0x3d6aeb92	0.057353564
176	0xbdbff6fc	-0.093732804
177	0xbddfb00c	-0.1092225
178	0x3d25a04c	0.040436074
179	0xbcb34cb1	-0.021887155
180	0xbd272d0d	-0.04081445
181	0xbd9da06e	-0.07696615
182	0xbd894c8f	-0.067040555
183	0xbdc78fb0	-0.09744203
184	0xbda03a7f	-0.07823657
185	0xbdc9e50a	-0.09858139
186	0xbd9026ed	-0.070386745
187	0x3d9896e8	0.07450658
188	0xbd7ba1d8	-0.061433643
189	0x3da24e19	0.07925052
190	0xbdc35a8e	-0.09538756
191	0x3ca7303d	0.020408744
192	0xbcb02c4f	-0.021505503
193	0xbdbc8452	-0.092049256
194	0x3bb13f1a	0.0054091336
195	0x3d9a2660	0.07526851
196	0xbd8319f0	-0.064014316
197	0x3dce9bde	0.10088323
198	0x3b6807ba	0.0035404996
199	0xbc680a7a	-0.014162654
200	0x3daa1228	0.08304244
201	0x3dbfe2fa	0.09369464
202	0x3de0af82	0.109709755
203	0x3db5c814	0.088760525
204	0xbdd06c94	-0.1017696
205	0xbc94cade	-0.01816314
206	0x3cf6465e	0.03006285
207	0xbbb2486b	-0.005440762
208	0x3dd4b881	0.10386754
209	0x3cc3272c	0.02382239
210	0xbd62155f	-0.055196162
211	0xba6e92b3	-0.00091008394
212	0xbcd4451a	-0.025911856
213	0x3d994441	0.074837215
214	0xbd3a734a	-0.045520104
215	0x3c25824e	0.010101868
216	0x3d297f2b	0.041381042
217	0x3dabace1	0.083825834
218	0xbd3cdb41	-0.046107534
219	0x3dd85a66	0.10564117
220	0xbd0bb10f	-0.034104403
221	0xbd389192	-0.0450607
222	0x3d9dcee1	0.07705475
223	0xbcea4198	-0.02859573
224	0x3dfce54b	0.12348422
225	0x3c904bd5	0.017614285
226	0xbdab4766	-0.083632275
227	0xbd1a53e1	-0.03767765
228	0xbd98cbb6	-0.0746073
229	0xbd014386	-0.031558536
230	0xbc1cd438	-0.009572081
231	0xbc600b1e	-0.013674526
232	0xbda525ec	-0.08063874
233	0xbdbc61ea	-0.09198363
234	0xbda54042	-0.08068897
235	0x3c556ab7	0.013025931
236	0x3cb9ff22	0.022704665
237	0xbd856d1e	-0.06514953
238	0xbcb08759	-0.021548914
239	0x3c01c947	0.007921523
240	0x3da8725c	0.08224937
241	0xbdbd08f2	-0.09230222
242	0xbcf1533e	-0.029458638
243	0x3ccf9d13	0.025343454
244	0xbd3876c8	-0.045035154
245	0xbd15bd1f	-0.036557313
246	0x3e0c68c3	0.13711838
247	0xbe19c151	-0.1501515
248	0xbda85728	-0.08219749
249	0xbe1d2e00	-0.15349579
250	0x3e3cd7f5	0.18441756
251	0xbde160f9	-0.11004824
252	0xbd0e27ed	-0.034706045
253	0x3d84cdcd	0.06484566
254	0x3d46b8e7	0.04851618
255	0xbdfde473	-0.12397089

raise_dim.0.attention1.0.weight f4 [9, 9, 3, 3]
0	0x3e30bb02	0.17258838
1	0x3ca1e535	0.019762615
2	0x3d456e96	0.048201166
3	0x3d8f1cd4	0.069879204
4	0xbe06c494	-0.13160926
5	0x3d5cbf06	0.05389311
6	0x3dd69eb3	0.10479488
7	0x3e9c4358	0.3052013
8	0x3daccfbd	0.084380604
9	0x3d45c8bf	0.04828715
10	0x3df24a3a	0.11830564
11	0x3d519d2b	0.051175278
12	0x3df61860	0.12016368
13	0x3d8455a4	0.06461647
14	0x3d5bdacc	0.053675458
15	0x3d046604	0.032323852
16	0x3db176fb	0.08665272
17	0x3ccf468d	0.025302196
18	0x3e5ea02b	0.21740787
19	0x3e31533b	0.17316906
20	0x3d45a19c	0.048249826
21	0x3d82fd25	0.0639594
22	0x3e091a17	0.13388859
23	0x3d534a21	0.051584367
24	0x3d20fecd	0.039305497
25	0x3dd33077	0.10311978
26	0x3de8a0f0	0.113588214
27	0x3e31ac1b	0.1735081
28	0x3ca4bb8d	0.020108962
29	0x3e183e53	0.14867525
30	0x3e1e76ee	0.15475056
31	0x3e7e2947	0.24820434
32	0x3e277ffe	0.16357419
33	0xbd37c885	-0.044868965
34	0xbce72e06	-0.028220188
35	0xbcd63843	-0.026149875
36	0x3e09b9d8	0.134498
37	0x3d4a10df	0.049332496
38	0x3da41984	0.08012679
39	0x3c3188d8	0.010835849
40	0x3e537ac2	0.20652297
41	0x3c42794e	0.011869742
42	0x3da1cc20	0.07900262
43	0x3d0596ae	0.032614402
44	0xbd847d31	-0.06469191
45	0x3df8f7c3	0.12156632
46	0x3cfab8fd	0.030605787
47	0x3da9eff4	0.082977206
48	0x3d65def4	0.056120828
49	0x3dd35e94	0.10320774
50	0xbd0bdbb5	-0.034145076
51	0xbd146870	-0.03623241
52	0x3dd853d6	0.105628654
53	0xbcbac89b	-0.022800734
54	0x3e20de67	0.1570984
55	0x3e2910a5	0.16510256
56	0x3d22d565	0.03975429
57	0xbc46d1ea	-0.012135008
58	0x3e2a51ae	0.16632721
59	0x3dd07bfc	0.10179898
60	0xbd6bcb7d	-0.05756711
61	0x3dff9712	0.12479986
62	0x3db86971	0.09004486
63	0x3e35d7d4	0.17758113
64	0x3d141daf	0.03616112
65	0x3d4f4d38	0.05061075
66	0x3da501b9	0.08056969
67	0x3e01f243	0.12690072
68	0xbaf6782a	-0.0018804122
69	0xbcbf048c	-0.023317598
70	0x3e16ae2d	0.1471488
71	0x3d0b817d	0.034059037
72	0x3df4e0ec	0.11956963
73	0x3dcc68e9	0.099809475
74	0x3dd01259	0.101597495
75	0x3dae6673	0.085156344
76	0x3e0d9816	0.13827547
77	0x3e026964	0.12735516
78	0xbd9614c4	-0.073281795
79	0x3e005324	0.12531716
80	0xbd032a20	-0.032022595
81	0xbd76a5a0	-0.060216546
82	0x3ce5f08b	0.028068801
83	0xbcf01a16	-0.029309314
84	0x3c28c500	0.010300875
85	0xbd8dbebc	-0.06921145
86	0xbe236f68	-0.15960467
87	0x3dbef331	0.09323729
88	0x3e55d307	0.20881282
89	0x3db1656a	0.08661921
90	0x3d1afa23	0.037836205
91	0xbd796df6	-0.060895883
92	0xbc16f9c7	-0.009214825
93	0x3d4dac5b	0.0502132
94	0xbce50df8	-0.027960762
95	0xbd82df43	-0.0639024
96	0x3d104e49	0.03523091
97	0x3d2c837a	0.042117573
98	0xbda73c29	-0.081657715
99	0x3d6f2efa	0.05839441
100	0x3e52ff3b	0.20605175
101	0x3cf6ed46	0.030142438
102	0x3e29ff3a	0.16601267
103	0x3e2a536e	0.16633388
104	0xbc256fa8	-0.010097422
105	0xbd005905	-0.031334896
106	0x3e4083b5	0.18800242
107	0x3d079cae	0.033108406
108	0x3dff31a1	0.12460638
109	0x3da02a83	0.078206085
110	0x3d2166c3	0.03940464
111	0x3e0f109e	0.13971183
112	0x3e2f91cc	0.17145461
113	0xbd7c0ae8	-0.06153384
114	0x3ca8bf19	0.020598935
115	0x3dd277af	0.10276734
116	0x3d4981d9	0.049196098
117	0x3c34a71c	0.01102617
118	0xbe0249d3	-0.12723474
119	0xbe30abe5	-0.17253073
120	0xbdc8998e	-0.09794913
121	0xbb1fa35c	-0.0024358844
122	0x3d3ce1d3	0.0461138
123	0xbe187290	-0.14887452
124	0xbae93c90	-0.0017794538
125	0xbe2d5232	-0.16925886
126	0xbdf148c3	-0.11781456
127	0xbd04ac81	-0.032391075
128	0x3c730c09	0.014834412
129	0x3deae429	0.11469299
130	0xbd4df913	-0.050286364
131	0xba55f23f	-0.00081614027
132	0x3d63a4e2	0.055577166
133	0x3d34f10b	0.04417519
134	0xbb1f6701	-0.002432287
135	0x3d2b397e	0.041802876
136	0x3d5ca1d3	0.053865265
137	0xbcf72918	-0.030170962
138	0xbdb7f7e9	-0.08982832
139	0xbda39ef0	-0.07989299
140	0xbda51783	-0.08061125
141	0xbd7b6b05	-0.06138136
142	0xbdb0ca99	-0.086323924
143	0xbca7d51d	-0.020487363
144	0x3d2ee82f	0.042701896
145	0x3c467742	0.012113394
146	0x3d42523b	0.047441702
147	0x3d6a75c3	0.057241213
148	0x3e02085a	0.12698498
149	0x3dd11d44	0.1021066
150	0xbd13e275	-0.036104638
151	0x3e1a29ff	0.15055083
152	0xbb4c423f	-0.0031167415
153	0x3b84afe6	0.004049289
154	0xbd83448b	-0.06409558
155	0xbd96cdff	-0.073635094
156	0xbd397fea	-0.045288004
157	0x3c78c7d6	0.015184363
158	0x3dce7170	0.1008023
159	0xbd106352	-0.03525097
160	0xbd1278ec	-0.03575985
161	0x3d4a279e	0.04935419
162	0x3e9f55cc	0.31120145
163	0x3edf1a39	0.43574694
164	0x3e404f05	0.18780144
165	0x3e5153d0	0.20442128
166	0xbdcde09b	-0.10052606
167	0x3e1f409e	0.15551993
168	0x3daab8b7	0.08336013
169	0x3e406d79	0.1879176
170	0x3e648c57	0.2231916
171	0x3e23f08d	0.16009732
172	0x3dfa5ebd	0.12225101
173	0x3e0601c0	0.13086605
174	0x3e5ea0fd	0.217411
175	0x3e52fcae	0.20604202
176	0x3e345f9e	0.176146
177	0x3dc83953	0.09776559
178	0x3c185b85	0.009299164
179	0x3e2d8a82	0.16947368
180	0x3db2fb7b	0.08739372
181	0x3de1ff76	0.110350534
182	0x3cb0aca1	0.02156669
183	0x3dccad9f	0.09994053
184	0x3d620e02	0.05518914
185	0x3e67841a	0.22608986
186	0x3cb87ee5	0.022521446
187	0x3d1995ba	0.037496306
188	0x3de1e871	0.11030663
189	0x3d86e8e8	0.06587392
190	0x3e39ef85	0.18157776
191	0x3dd3c465	0.10340194
192	0x3dcb652a	0.09931405
193	0x3e33b623	0.17549948
194	0x3e8153c5	0.25259224
195	0x3d9f7520	0.07786012
196	0x3e67dbdf	0.22642468
197	0x3e75471e	0.2395291
198	0x3e6a9091	0.2290671
199	0x3d7f2935	0.062295157
200	0x3e3d441d	0.18483014
201	0x3d90166b	0.07035526
202	0x3e8af4d7	0.27139923
203	0x3e1c64de	0.15272853
204	0x3e48d52e	0.19612572
205	0x3e2218e1	0.15829803
206	0x3e2143de	0.15748546
207	0x3e1d7362	0.15376046
208	0x3e49e328	0.1971556
209	0x3e65935d	0.22419496
210	0x3e521487	0.20515643
211	0x3e7b2656	0.24526343
212	0x3dda1a21	0.10649515
213	0x3e75e141	0.24011709
214	0x3e906492	0.2820173
215	0x3e880e3f	0.2657337
216	0x3e21ea05	0.15811928
217	0xbc1d1797	-0.009588144
218	0x3d36c20d	0.044618655
219	0x3e488f06	0.19585809
220	0x3c7931da	0.015209639
221	0x3e6182dc	0.22022575
222	0x3c68dedc	0.01421329
223	0x3cff67f2	0.031177495
224	0x3e35b278	0.17743862
225	0x3d343399	0.04399452
226	0x3d68f5b8	0.05687496
227	0x3e17c8e6	0.1482273
228	0x3e5a2feb	0.21307342
229	0x3e49f4e1	0.1972232
230	0x3d77f586	0.060536884
231	0x3d94c860	0.07264781
232	0x3e7aa869	0.24478306
233	0x3dcbd418	0.09952563
234	0x3d5e6077	0.054291215
235	0x3db1ddae	0.0868486
236	0xbc2362e9	-0.0099723125
237	0x3e2cd791	0.16879107
238	0x3e06f3ae	0.13178894
239	0xbc614f9b	-0.01375189
240	0x3cdce41b	0.026964238
241	0x3da81241	0.08206607
242	0x3e159ca9	0.14610542
243	0xbd8c8b6b	-0.06862529
244	0xbe477184	-0.19476897
245	0xbd491fdb	-0.049102645
246	0xbe1b226f	-0.15149854
247	0xbd50b939	-0.050957892
248	0xbe317f4b	-0.17333715
249	0x3cb02a1d	0.021504456
250	0x3db695a8	0.089152634
251	0xbe0d08d3	-0.13772897
252	0xbd417b88	-0.04723695
253	0x3bde0ac9	0.006776188
254	0xbd10668f	-0.035254057
255	0xbdb83b10	-0.0899564

raise_dim.0.attention1.0.bias f4 [9]
0	0x3e007d7a	0.12547866
1	0x3e877ae8	0.26460958
2	0x3e438d24	0.1909681
3	0xbc167c11	-0.009184853
4	0xbe4ad2fd	-0.19807048
5	0x3e458600	0.19289398
6	0x3e84dd7b	0.25950226
7	0xbce66476	-0.028124075
8	0x3d294d91	0.04133374

raise_dim.0.attention1.2.weight f4 [9, 9, 1, 1]
0	0x3dd075a2	0.10178687
1	0xbe3d531b	-0.18488733
2	0xbea55ab4	-0.32295763
3	0xbe59582c	-0.21225041
4	0x3e37e581	0.17958643
5	0x3ddaef57	0.10690182
6	0xbee8c694	-0.45464003
7	0x3e37ce72	0.17949846
8	0x3e894b36	0.26815194
9	0x3eabd12a	0.33558017
10	0x3e8ad114	0.2711264
11	0xbd1f7096	-0.03892573
12	0x3e84f707	0.25969717
13	0x3e79d760	0.24398565
14	0x3e78167f	0.24227332
15	0xbe85a314	-0.2610098
16	0xbdde615d	-0.10858414
17	0x3efb4258	0.49074054
18	0x3eabd6f5	0.33562437
19	0x3ec23643	0.37932023
20	0xbde2fd87	-0.11083513
21	0xbc82ad1f	-0.015951691
22	0xbe9a3071	-0.30115083
23	0xbde5adee	-0.11214815
24	0x3edad11f	0.42737672
25	0xbe9461fd	-0.2898101
26	0x3db89b7f	0.090140335
27	0xbe125238	-0.14289176
28	0xbeb989ce	-0.3623795
29	0xbd850cdd	-0.06496594
30	0xbd278e16	-0.040906988
31	0x3e3ca617	0.18422733
32	0xbef064e0	-0.46951962
33	0xbd8142e6	-0.06311588
34	0xbed9f2bf	-0.42568013
35	0xbcb460d4	-0.022018827
36	0x3f01f59c	0.50765395
37	0xbdfe1b53	-0.124075554
38	0x3dc1aa38	0.09456295
39	0xbe2f90fd	-0.17145152
40	0xbe818eb0	-0.25304174
41	0xbdb11bc8	-0.08647877
42	0xbe84973b	-0.2589663
43	0x3dd6a42c	0.10480532
44	0x3f32dfd9	0.69872814
45	0x3dadebab	0.08492216
46	0xbe99c4fe	-0.30033106
47	0xbe57a8ea	-0.2106053
48	0xbe90b3a3	-0.28262052
49	0xbe5bd86a	-0.21469274
50	0x3e9c9526	0.3058254
51	0x3c3ec045	0.01164252
52	0xbe9d7a12	-0.30757195
53	0x3d209542	0.039204843
54	0xbd412c38	-0.04716131
55	0x3ab97644	0.0014149626
56	0x3e32b123	0.17450385
57	0x3dd18805	0.10231022
58	0x3e9868bb	0.29767403
59	0xbe81be91	-0.25340703
60	0xbe77558e	-0.2415373
61	0xbe9cb320	-0.30605412
62	0x3dbb8425	0.09156064
63	0x3ee19a8d	0.44063225
64	0x3ec8a467	0.3918793
65	0x3ea4bac1	0.32173732
66	0xbdd1e4ed	-0.10248742
67	0xbd4cc5f2	-0.049993463
68	0x3e1f83c3	0.15577607
69	0x3e9e3065	0.30896297
70	0xbeb194b2	-0.34683758
71	0x3f5479b1	0.82998186
72	0x3e98292d	0.29718915
73	0x3bd5ba6c	0.0065224674
74	0x3eccee99	0.40025786
75	0xbe2da27f	-0.16956519
76	0xbe3d0a10	-0.1846087
77	0x3edc4ffd	0.43029776
78	0x3ecdd085	0.4019815
79	0x3f02b0a0	0.5105076
80	0xbdf73bbc	-0.1207194

raise_dim.0.attention1.2.bias f4 [9]
0	0xbd66e5df	-0.056371566
1	0x3eb8d255	0.3609797
2	0x3eddffa5	0.43359104
3	0xbeb25fe7	-0.34838793
4	0x3e1b020d	0.15137501
5	0xbd9338c2	-0.0718856
6	0xbec66888	-0.38751626
7	0xbc6c2502	-0.01441312
8	0x3d1eaea8	0.038740784

raise_dim.0.attention1.4.weight f4 [9, 9, 1, 1]
0	0xbe9dff59	-0.30858877
1	0xbd9c4541	-0.07630397
2	0x3e4216c4	0.18953997
3	0x3e502ae7	0.20328866
4	0x3d23baa6	0.039972924
5	0xbec2806e	-0.3798861
6	0x3deb2f06	0.114835784
7	0xbd069ed7	-0.032866325
8	0x3ed51652	0.41618592
9	0xbeee778b	-0.4657558
10	0x3e4831aa	0.19550195
11	0x3f1950bf	0.59888834
12	0xbd9de79d	-0.07710192
13	0xbd437ac2	-0.047724493
14	0xbef47b1c	-0.47750175
15	0xbe91cfef	-0.28478953
16	0x3e70c523	0.23512702
17	0xbda20d47	-0.07912689
18	0xbe920b05	-0.28524032
19	0xbca92952	-0.020649586
20	0xbd0a5bc5	-0.033778924
21	0x3e7b3bbb	0.24534504
22	0xbec5fc97	-0.38669273
23	0xbcb690b3	-0.022285795
24	0xbe8f20d7	-0.27954742
25	0xbe359dbd	-0.17735954
26	0xbe6ec34b	-0.23316686
27	0xbd1d08d3	-0.038338494
28	0xbe5a8f72	-0.21343783
29	0xbe1bcf6d	-0.15215845
30	0xbe9377a3	-0.28802213
31	0xbe7af8a6	-0.24508914
32	0x3dddb759	0.108259864
33	0xbe2eea38	-0.17081535
34	0xbd2c3023	-0.042038094
35	0x3ee087d5	0.43853632
36	0xbe9055c6	-0.2819044
37	0x3ef5c360	0.48000622
38	0x3e531cee	0.20616505
39	0xbf17154b	-0.59016865
40	0x3eb347dd	0.35015765
41	0xbb7ac6c3	-0.0038265444
42	0xbf29b6ff	-0.66294855
43	0x3ebba100	0.3664627
44	0x3ecf5db1	0.40501168
45	0x3d31d0ee	0.04341214
46	0x3d95c2a5	0.07312516
47	0xbcf36d71	-0.029715272
48	0xbe99add3	-0.3001543
49	0x3e236257	0.15955482
50	0xbe734a07	-0.23758708
51	0xbeb7ca11	-0.35896352
52	0xbe69644e	-0.2279217
53	0xbe7922cb	-0.24329679
54	0x3d83431d	0.06409285
55	0x3e92c48e	0.28665584
56	0x3e9bad42	0.30405623
57	0xbe7b4687	-0.24538623
58	0x3e5c4c41	0.21513464
59	0x3e51bb46	0.20481595
60	0xbd0e4758	-0.034736007
61	0x3e3b7e9f	0.18310021
62	0x3e46b360	0.19404364
63	0x3e7b0b42	0.24516013
64	0x3e74522a	0.23859468
65	0x3e592cf8	0.2120856
66	0xbe34aa22	-0.17643026
67	0xbe12e711	-0.14345957
68	0xbe2d597d	-0.16928668
69	0x3e4ae93a	0.19815531
70	0xbdb7b2ca	-0.08969648
71	0x3c3ed5af	0.011647626
72	0xbe9f9c50	-0.31173944
73	0xbbaf40f0	-0.0053483173
74	0xbd931b40	-0.07182932
75	0xbe636023	-0.22204642
76	0x3e951871	0.2912021
77	0xbe84233e	-0.25808138
78	0xbd991495	-0.07474629
79	0xbdb61b14	-0.088918835
80	0xbe95a1dd	-0.29225054

raise_dim.0.attention1.4.bias f4 [9]
0	0x3e842d99	0.25816038
1	0x3e5e2a45	0.21695812
2	0x3e478893	0.19485693
3	0x3e8e8893	0.27838573
4	0x3f0d4290	0.5517969
5	0x3e445a38	0.1917504
6	0x3e92e7c3	0.28692445
7	0x3ebed010	0.37268114
8	0x3db1e4c3	0.08686211

raise_dim.0.attention3.1.weight f4 [32, 9, 1, 1]
0	0xbd9e747f	-0.077370636
1	0xbe06b646	-0.1315547
2	0x3d2abeb2	0.041685767
3	0x3dd5f353	0.10446801
4	0xbeb51bca	-0.35372764
5	0x3e73fc4f	0.23826717
6	0x3d3b12a9	0.045672093
7	0xbe922a6f	-0.28548
8	0x3dec954b	0.11551913
9	0x3e54fdb7	0.2079991
10	0x3e020661	0.12697746
11	0x3e8718bd	0.2638606
12	0xbbd68808	-0.006546978
13	0xbe90a220	-0.28248692
14	0xbbd7face	-0.0065911775
15	0x3e80e053	0.25171146
16	0xbe3d405b	-0.18481581
17	0x3e1882aa	0.14893594
18	0x3d9b1da2	0.075740114
19	0xbd809c43	-0.062798046
20	0xb93bbe85	-0.00017904684
21	0x3e173824	0.1476751
22	0xbe66d02d	-0.2254035
23	0x3e5e6aca	0.21720424
24	0x3e59ee14	0.21282226
25	0x3e3e93a6	0.18611011
26	0x3ea31b70	0.3185687
27	0xbcb6f827	-0.022335125
28	0xbe8ee38b	-0.27907977
29	0xbc6d9037	-0.0144997155
30	0xbdf32a8b	-0.11873349
31	0x3dbeb48a	0.09311779
32	0x3e99bd92	0.30027443
33	0xbe27ddbd	-0.1639318
34	0x3c049497	0.008092067
35	0x3eab7545	0.33487907
36	0xbe9c4095	-0.30518022
37	0xbd35ed36	-0.044415675
38	0x3e9f2d8f	0.31089446
39	0x3e56ce86	0.2097722
40	0x3d952c2f	0.07283818
41	0xbe5e52e2	-0.21711305
42	0xbdc462a7	-0.09589129
43	0xbe927c7e	-0.28610605
44	0xbeac9cd8	-0.33713412
45	0xbe93a0a1	-0.28833488
46	0x3e9f3154	0.31092322
47	0x3e9216d8	0.28533053
48	0x3e222850	0.1583569
49	0xbd993e61	-0.07482601
50	0x3ea3ab7b	0.31966767
51	0xbd8c8097	-0.06860464
52	0x3e718b86	0.2358838
53	0x3bf8b388	0.007589761
54	0xbe1b95be	-0.15193841
55	0xbdd2c124	-0.10290745
56	0xbd3389cb	-0.04383258
57	0xbe928bfe	-0.2862243
58	0x3da0953b	0.078409635
59	0xbe087cb0	-0.13328815
60	0x3de8b1b8	0.11362022
61	0x3e7bc1b2	0.24585608
62	0xbd5898e1	-0.05288017
63	0x3de644ad	0.112435676
64	0x3cc5c78f	0.024143009
65	0x3e35b089	0.17743124
66	0xbe884343	-0.26613817
67	0xbda08d1d	-0.07839415
68	0xbe24813f	-0.16064928
69	0x3e73d4fe	0.23811719
70	0xbea8b756	-0.32952374
71	0xbe673534	-0.22578889
72	0x3d0464cb	0.032322686
73	0x3e9a9ee6	0.30199355
74	0x3e538091	0.20654513
75	0xbea5638b	-0.32302508
76	0xbe5e0025	-0.21679743
77	0x3eb18d18	0.34677958
78	0x3d91cf80	0.071196556
79	0xbe99be50	-0.3002801
80	0xbdd8d3f4	-0.10587302
81	0x3e1dfadb	0.15427725
82	0xbdad1dce	-0.084529504
83	0xbe8544ad	-0.26028958
84	0xbe5c1e17	-0.21495853
85	0xbe3925ae	-0.1808078
86	0xbbe8dba6	-0.0071062623
87	0x3e169be1	0.147079
88	0x3e0c368f	0.13692687
89	0xbe179dca	-0.14806286
90	0xbda52ac3	-0.08064797
91	0xbea688f6	-0.32526368
92	0x3e4a524f	0.1975796
93	0x3e911d79	0.28342798
94	0x3e8e3140	0.2777195
95	0x3dca511e	0.09878753
96	0xbdaa5c45	-0.0831838
97	0xbd0d71c7	-0.034532335
98	0x3df7c67a	0.12098403
99	0xbe8c7edd	-0.2744054
100	0x3d13447a	0.035953976
101	0xbe70727f	-0.23481177
102	0xbe9ef68e	-0.3104748
103	0xbc96000d	-0.018310571
104	0xbe014c20	-0.12626696
105	0xbe6d8087	-0.2319356
106	0x3dcfe727	0.10151511
107	0x3cf8872c	0.030337892
108	0x3d25e24d	0.04049902
109	0xbe44a13a	-0.19202128
110	0xbeb350e3	-0.3502265
111	0xbcd953db	-0.026529243
112	0xbe1e5cdc	-0.1546511
113	0xbde0c013	-0.10974135
114	0x3e8bf110	0.27332354
115	0x3cfe8506	0.03106929
116	0x3e2a40cd	0.16626282
117	0xbde708ac	-0.11280951
118	0xbe7ca24c	-0.24671286
119	0x3d374677	0.044744935
120	0xbe7c8b11	-0.24662425
121	0x3d0dd18c	0.034623668
122	0xbe86f367	-0.26357576
123	0x3e86721c	0.26258934
124	0xbe56b8c4	-0.2096892
125	0x3e99d6d2	0.30046707
126	0x3e4fd847	0.20297347
127	0x3e825672	0.25456578
128	0x3e2b657d	0.16737933
129	0x3d3ad2c2	0.04561115
130	0xbc6f2ed5	-0.014598568
131	0xbcbe5a41	-0.023236396
132	0xbe1adcac	-0.15123242
133	0xbea77ca2	-0.32712275
134	0x3e8575d4	0.26066458
135	0xbbe06615	-0.0068481066
136	0x3e357e21	0.17723896
137	0x3cc98592	0.024599824
138	0x3dc2aaa5	0.09505204
139	0xbe7013f1	-0.23445107
140	0xbea1541b	-0.3150948
141	0x3e4ee67f	0.20205115
142	0x3e2116c1	0.15731336
143	0x3e182413	0.14857511
144	0xbea0ab06	-0.3138048
145	0x3c61c694	0.013780255
146	0xbe9a6ad3	-0.30159625
147	0xbcfc24c1	-0.030779244
148	0xbca23480	-0.019800425
149	0xbe535970	-0.20639586
150	0xbe9cb831	-0.30609277
151	0x3cb6154c	0.022226952
152	0x3ea41bd3	0.32052478
153	0x3e92e5e2	0.28691012
154	0xbe55110e	-0.20807287
155	0xbdc2d404	-0.09513095
156	0xbe9c3c9f	-0.30515
157	0xbe815d26	-0.2526638
158	0xbd985b27	-0.07439261
159	0x3eb27995	0.34858385
160	0xbdd6c9b8	-0.104876935
161	0x3ce01adc	0.027356558
162	0x3e916f98	0.28405452
163	0x3cd5e989	0.026112335
164	0x3e734f6f	0.2376077
165	0x3e3c3a38	0.18381584
166	0x3e88b4ff	0.2670059
167	0x3c177fe3	0.009246799
168	0xbe9aa90c	-0.30207098
169	0xbe9b126a	-0.30287486
170	0xbe3dc6a4	-0.18532807
171	0x3e902a19	0.28157118
172	0x3e674dfc	0.22588342
173	0x3e076567	0.13222276
174	0xbe69afce	-0.2282097
175	0xbe73a2b1	-0.2379253
176	0x3e755ffd	0.23962398
177	0xbd883150	-0.066500306
178	0xbe9d6f11	-0.307488
179	0xbd3a3c1b	-0.045467477
180	0xbd97e669	-0.07416994
181	0x3da9546b	0.082680546
182	0x3e471edb	0.19445364
183	0x3e2d230d	0.16907902
184	0xbe7638ee	-0.24045154
185	0xbd4306f9	-0.04761407
186	0xbe5a79b3	-0.21335487
187	0x3e9d56b4	0.30730212
188	0x3e355783	0.17709164
189	0x3e381951	0.17978407
190	0x3eac6cff	0.33676907
191	0x3df4f18d	0.11960135
192	0xbebc5954	-0.36786902
193	0x3df179ed	0.117908336
194	0xbe46e5dd	-0.19423623
195	0x3de93428	0.11386901
196	0x3b786d0f	0.00379068
197	0x3ec02a43	0.37532243
198	0xbe8391fa	-0.2569731
199	0xbeb779f3	-0.35835227
200	0xbe08761e	-0.13326308
201	0x3c46e65a	0.012139881
202	0x3e5a4819	0.21316566
203	0x3e7e57d7	0.24838196
204	0x3e7e3989	0.24826635
205	0x3d84e529	0.06489021
206	0xbdec834e	-0.11548482
207	0xbd6e9309	-0.058245692
208	0xbe16f21c	-0.14740795
209	0x3d99179b	0.074752055
210	0xbe61ce3f	-0.22051333
211	0x3e1bcb13	0.15214185
212	0x3e8afdac	0.2714666
213	0x3ea64e0f	0.3248143
214	0xbeb224c3	-0.34793672
215	0x3e8b3bf2	0.27194172
216	0xbe58f813	-0.21188383
217	0xbd215fbd	-0.039397944
218	0x3e91c412	0.28469902
219	0x3e2e4363	0.17017893
220	0xbdb108cc	-0.08644256
221	0x3e6830b7	0.22674833
222	0xbe9ea196	-0.30982655
223	0x3e5e34d8	0.21699846
224	0x3e9a7311	0.30165914
225	0xbc872aae	-0.016499843
226	0x3d804085	0.06262306
227	0xbd80de8d	-0.06292448
228	0xbe48de90	-0.19616151
229	0xbe174d63	-0.14775614
230	0xbd30a216	-0.043123327
231	0xbe99f663	-0.3007079
232	0xbe868984	-0.2627679
233	0x3cdcba1a	0.026944209
234	0xbe45dea2	-0.19323209
235	0xbe308fee	-0.17242405
236	0x3cb993a9	0.022653418
237	0xbe123416	-0.14277682
238	0x3eabc376	0.33547562
239	0xbd9d1420	-0.07669854
240	0xbe2a8da2	-0.16655591
241	0xbd869f16	-0.06573312
242	0xbe86bf6d	-0.2631792
243	0x3e28098b	0.1640989
244	0x3e849e36	0.25901955
245	0xbe716db3	-0.23577003
246	0xbe209044	-0.15680033
247	0x3e9bdc2a	0.3044141
248	0xbe5ff98f	-0.21872543
249	0x3e02fdb3	0.12792091
250	0xbe95221b	-0.29127583
251	0xbe8f279f	-0.27959916
252	0xbb83bf55	-0.0040206113
253	0xbe413767	-0.1886879
254	0x3e483242	0.19550422
255	0xbdbc81df	-0.092044584

raise_dim.0.attention3.1.bias f4 [32]
0	0xbe03d441	-0.12873937
1	0x3d48c628	0.0490171
2	0xbe71391b	-0.2355694
3	0xbea013c4	-0.3126508
4	0x3e50d49c	0.20393604
5	0x3e074701	0.1321068
6	0xbe892888	-0.26788735
7	0xbca82edd	-0.020530159
8	0x3e43f92a	0.19138017
9	0x3e5229a4	0.20523697
10	0x3e8156c1	0.252615
11	0xbdba598b	-0.0909911
12	0x3e1e9110	0.15485024
13	0xbe7e743c	-0.24849027
14	0xbda9baff	-0.0828762
15	0xbe5080f9	-0.20361699
16	0xbcf2c6c8	-0.029635802
17	0x3e3284b6	0.17433438
18	0x3e103395	0.14082177
19	0xbe29eec6	-0.16594991
20	0xbd06faa4	-0.032953873
21	0xbd76c7cf	-0.060249146
22	0xbe1478ad	-0.14499159
23	0xbe166207	-0.14685832
24	0x3e75628a	0.23963371
25	0x3e62b587	0.2213956
26	0x3e8e234b	0.277613
27	0xbe4f1b5d	-0.20225282
28	0x3e67daa9	0.22642006
29	0xbe05b43f	-0.1305704
30	0xbdaa93ce	-0.08328973
31	0xbd3ff022	-0.046859868

raise_dim.0.attention3.3.weight f4 [32, 32, 1, 1]
0	0xbd4af3e4	-0.049549
1	0xbcf42f47	-0.0298077
2	0x3d56f486	0.05247929
3	0xbe194823	-0.14968924
4	0x3dd81bdf	0.10552191
5	0xbdc6eeea	-0.09713538
6	0xbdde25b4	-0.10847035
7	0xbe10d911	-0.14145304
8	0x3e1cc89c	0.15310901
9	0x3e13e87b	0.14444153
10	0xbdbc9bfd	-0.0920944
11	0xbe1c2c9d	-0.15251394
12	0x3e3327ee	0.174957
13	0x3b9ada94	0.0047257636
14	0x3e485392	0.1956313
15	0xbe35d407	-0.17756663
16	0x3c7f95fa	0.015599722
17	0x3e0a85b6	0.13527569
18	0x3c7cea93	0.015436786
19	0xbd45c6d0	-0.048285306
20	0x3d11ffc1	0.035644297
21	0x3d2f580c	0.042808577
22	0x3ce1c606	0.027560245
23	0xbd1d3162	-0.038377173
24	0xbcf7a1cc	-0.030228518
25	0xbddbcdef	-0.10732638
26	0x3e4851e4	0.19562489
27	0xbd585c75	-0.05282255
28	0x3e457514	0.19282943
29	0x3e6f4bd4	0.2336877
30	0xbcc95c4b	-0.024580142
31	0x3db09f56	0.08624141
32	0xbd349308	-0.044085532
33	0xbb7ce263	-0.0038587085
34	0xbcea06c7	-0.028567685
35	0x3dc681da	0.09692736
36	0xbdd70c66	-0.10500412
37	0xbdb60e91	-0.08889497
38	0xbe00a61f	-0.1256337
39	0xbd99fffb	-0.075195275
40	0x3df2f413	0.1186296
41	0xbddae948	-0.10689026
42	0x3aa65eea	0.0012693082
43	0x3ace6d29	0.0015749085
44	0x3d00ce52	0.031446762
45	0xbc156001	-0.009117127
46	0x3da491a6	0.08035593
47	0x3ca8b4e1	0.020594062
48	0x3e031fe5	0.12805136
49	0x3d2970bd	0.04136728
50	0xbb5cc17d	-0.0033684664
51	0x3cdb43b0	0.026765674
52	0x3d64307b	0.055710297
53	0x3cb5122b	0.02210339
54	0x3dffa014	0.12481704
55	0xbc4e510a	-0.012592563
56	0xb84b3d61	-4.8456135e-05
57	0x3e13be9d	0.14428182
58	0xbe265de2	-0.16246751
59	0x3c9f66f0	0.019458264
60	0x3e23ed66	0.16008529
61	0xbe4876da	-0.19576588
62	0xbd298e69	-0.04139558
63	0x3d184719	0.03717718
64	0x3d532f69	0.051558886
65	0x3dacb593	0.0843307
66	0x3d58ac1a	0.052898504
67	0x3d60ce10	0.054884017
68	0xbd9237c7	-0.07139545
69	0x3da7b17b	0.081881486
70	0xbd8d18f2	-0.068895236
71	0x3dd92fff	0.10604858
72	0xbcb73592	-0.022364412
73	0xbdf1d230	-0.11807668
74	0x3ccfd9a4	0.025372334
75	0x3dab1a85	0.083546676
76	0x3cf5caf4	0.030004002
77	0xbbe85d1b	-0.007091177
78	0xbcc403eb	-0.02392765
79	0x3d9b1814	0.07572952
80	0x3b6c5234	0.003605974
81	0xbdf12d6a	-0.1177624
82	0xbdf98889	-0.12184245
83	0x3b1a26b7	0.002352161
84	0xbc2daa6b	-0.010599713
85	0x3e4f94bf	0.20271586
86	0xbd37a0a6	-0.04483094
87	0x3dfad256	0.1224715
88	0xbe0d920c	-0.13825244
89	0xbe0b9d18	-0.13634145
90	0x3b876ccb	0.004132842
91	0xbe0202df	-0.12696408
92	0xbd128a7f	-0.03577661
93	0x3c105f41	0.008811773
94	0xbe2fb5a6	-0.17159137
95	0x3dea7efe	0.11450003
96	0xbdadfb2c	-0.08495173
97	0x3dff627d	0.12469957
98	0xbdc016ab	-0.093793236
99	0xbcdc6581	-0.02690387
100	0xbe05d449	-0.13069262
101	0x3c7acbc3	0.01530737
102	0xbdc2b0e3	-0.09506395
103	0x3e161bf9	0.14659108
104	0xbe0c496e	-0.13699886
105	0xbd86d576	-0.06583683
106	0xbdd699b0	-0.10478532
107	0xbddfa114	-0.10919395
108	0xbdfbbfd8	-0.12292451
109	0xbc254a52	-0.01008852
110	0x3d0d9097	0.03456172
111	0x3c953cf2	0.018217538
112	0x3dac1ce6	0.084039494
113	0xbdb42389	-0.0879584
114	0xbdc72c39	-0.09725232
115	0xbc6b3b42	-0.01435739
116	0xbd945548	-0.072428286
117	0xbd97f667	-0.074200444
118	0xbdfaca04	-0.12245563
119	0x3e23db55	0.16001637
120	0x3cbf9f53	0.023391401
121	0x3ce7d1cd	0.028298283
122	0x3d1e616e	0.038667135
123	0x3e19ef46	0.15032682
124	0xbdd22924	-0.10261753
125	0xbba3519a	-0.004984093
126	0x3e054399	0.13014068
127	0x3d022f3c	0.031783327
128	0x3e077865	0.1322952
129	0x3db3aa66	0.08772735
130	0x3dc0cdcb	0.09414252
131	0xbcaf3799	-0.021388816
132	0xbe214886	-0.15750322
133	0xbdc107e7	-0.094253354
134	0xbdc604ed	-0.09668908
135	0x3d33d43b	0.04390357
136	0x3e28be32	0.16478804
137	0x3e3c311f	0.18378113
138	0x3de5a445	0.112129726
139	0x3d22f691	0.039785925
140	0x3d263d2b	0.040585678
141	0x3e1372f2	0.14399317
142	0x3d3d7e1e	0.046262853
143	0x3a3aea9e	0.00071302976
144	0xbcd7b162	-0.0263297
145	0x3dc9a2bb	0.098454915
146	0xbd40b44d	-0.04704695
147	0xbdd270ef	-0.102754466
148	0xbe3805d6	-0.17970976
149	0x3e539bed	0.2066495
150	0x3e35f55c	0.17769378
151	0xbcbd8bb8	-0.023137912
152	0xbd797f8e	-0.06091266
153	0xbd932e6b	-0.07186588
154	0xbda584f9	-0.08082003
155	0x3e31674d	0.17324562
156	0xbe2d14b3	-0.16902427
157	0xbb25bc42	-0.0025289212
158	0xbe4b1606	-0.1983262
159	0xbdfdc7f1	-0.123916514
160	0xbcb144e3	-0.021639293
161	0xbc033ce1	-0.00801012
162	0xbdb74b34	-0.08949891
163	0xbd7bc4c6	-0.061466955
164	0xbddf7393	-0.10910716
165	0xbe0047b0	-0.12527347
166	0xbdd5a1a3	-0.104312204
167	0xbe1da24b	-0.15393941
168	0x3e1c2384	0.15247923
169	0xbdc317b7	-0.095260076
170	0xbe27906a	-0.16363683
171	0x3e0cbe1e	0.13744399
172	0x3d6729e9	0.056436453
173	0x3e0d459b	0.13796084
174	0xbe500800	-0.20315552
175	0xbe1f2b68	-0.15543902
176	0xbdea4244	-0.114384204
177	0xbdd9fec7	-0.10644298
178	0xbcc324cb	-0.023821255
179	0x3db9d540	0.09073877
180	0x3dbcf4c7	0.09226375
181	0xbe2eabc6	-0.17057714
182	0x3dbef75a	0.09324522
183	0xbda7a75e	-0.0818622
184	0x3cbcd40f	0.023050336
185	0x3d01b975	0.031671006
186	0x3c360bd2	0.011111217
187	0x3d9eff81	0.07763577
188	0xbccc3e98	-0.02493219
189	0x3dd6ae02	0.10482408
190	0x3c9bbe90	0.019011766
191	0x3e10dd63	0.14146952
192	0x3d85deb3	0.06536617
193	0xbde31010	-0.11087048
194	0x3e5c3d78	0.21507823
195	0x3d10bf31	0.035338584
196	0x3e0104a7	0.12599431
197	0xbd4fe30e	-0.050753646
198	0x3e4dd38d	0.20100231
199	0xbdbdb647	-0.09263282
200	0x3d98e257	0.07465046
201	0xbe150c4c	-0.14555472
202	0x3dc42c7d	0.09578798
203	0x3d69babe	0.057062857
204	0x3dc7a35e	0.09747957
205	0xbdfa285b	-0.122147284
206	0xbe3de6e3	-0.18545108
207	0x3ddbdc82	0.10735418
208	0xbd513561	-0.051076297
209	0x3d885555	0.06656901
210	0xbe129b6e	-0.14317104
211	0xbced6789	-0.028980033
212	0xbcce1ed1	-0.025161179
213	0x3e0d61e0	0.13806868
214	0x3df7dffa	0.12103267
215	0x3cc60336	0.024171453
216	0xbd9edca5	-0.07756928
217	0xbc9e27d0	-0.019306093
218	0x3d742bd7	0.05961212
219	0xbe016de6	-0.12639579
220	0xbda182e8	-0.078862965
221	0xbe013a12	-0.12619808
222	0xbc4aa185	-0.012367611
223	0xbd3cc2f3	-0.046084356
224	0x3da43f77	0.080199175
225	0x3e317fc6	0.17333898
226	0xbe3e33b2	-0.18574408
227	0xbddfb23e	-0.10922669
228	0x3c8b1779	0.016978966
229	0x3c990367	0.01867838
230	0xbd8dfa6a	-0.06932528
231	0xbb8ab90c	-0.004233485
232	0xbd0b58ef	-0.03402036
233	0x3cb42f79	0.021995293
234	0x3e27666e	0.16347668
235	0xbd89b3f8	-0.067237794
236	0x3e0e5576	0.13899788
237	0xbe293ab8	-0.16526306
238	0x3cf56805	0.029956827
239	0xbe27eddc	-0.1639933
240	0xbe3b1b46	-0.18272123
241	0x3d510100	0.051026344
242	0xbd56f9f0	-0.052484453
243	0x3ddf4216	0.10901277
244	0x3dbd80a3	0.09253051
245	0xbe363e1d	-0.17797132
246	0xbd5d2fdf	-0.05400073
247	0xbd79117a	-0.060807683
248	0xbd9b223b	-0.07574888
249	0xbdba6394	-0.09101024
250	0xbd294ed6	-0.04133495
251	0x3d5a2865	0.05326118
252	0x3d8932dd	0.066991545
253	0x3c82c15c	0.015961342
254	0x3bcbe844	0.0062227566
255	0x3d84544d	0.064613916

raise_dim.0.attention3.3.bias f4 [32]
0	0xbdb59907	-0.08867078
1	0x3ba6ec1e	0.0050940653
2	0x3d4180ae	0.04724186
3	0x3e26c7d3	0.16287164
4	0x3d19a22e	0.037508182
5	0xbc9a22e2	-0.018815462
6	0xbe1b953f	-0.15193652
7	0xbd3816b6	-0.044943534
8	0xbc6a8404	-0.014313702
9	0xbe130160	-0.14355993
10	0x3cce3164	0.025170036
11	0x3daab7fb	0.08335873
12	0x3dcdf06d	0.10055623
13	0xbd2f75da	-0.042837
14	0xbd6daf6a	-0.058028616
15	0x3e255712	0.16146496
16	0xbd01e775	-0.031714875
17	0xbddeebde	-0.10884832
18	0xbbece5c8	-0.0072295405
19	0x3a9dd998	0.0012042997
20	0xbd67cd59	-0.05659232
21	0x3c229a54	0.00992449
22	0xbe248cca	-0.16069332
23	0x3d49b0f1	0.04924101
24	0xbdfe324c	-0.12411937
25	0x3d507d8f	0.050900992
26	0x3e09f2b2	0.13471487
27	0xbe152655	-0.14565404
28	0xbc8d174b	-0.017223021
29	0x3d101600	0.03517723
30	0x3c81d29c	0.015847497
31	0x3df07297	0.11740606

layers.0.conv1.weight f4 [32, 32, 3, 3]
0	0x3d88ceb5	0.06680051
1	0x3d72beb2	0.059263892
2	0xbd4af8b8	-0.049553603
3	0xbb34acdb	-0.002756885
4	0xbcfa961d	-0.030589158
5	0x3d186dab	0.037213963
6	0x3d226f80	0.039657116
7	0xbd44c04a	-0.048034944
8	0x3d0684b2	0.03284139
9	0xbce6763d	-0.028132552
10	0xbd28da1f	-0.04122364
11	0x3d1c0c28	0.03809753
12	0xbd68b8c2	-0.056816824
13	0xbccca969	-0.024983125
14	0x3da85653	0.0821959
15	0xbd0e0e79	-0.03468177
16	0xbd07d4ca	-0.033161916
17	0x3c450398	0.012024783
18	0x3d60093f	0.054696318
19	0x3d3d6542	0.046239145
20	0x3d4bc984	0.049752727
21	0xbd004460	-0.031315207
22	0xbcecf502	-0.028925423
23	0x3d14d783	0.03633834
24	0x3d5d2a38	0.05399534
25	0x3d353e2e	0.044248752
26	0x3ce7ba05	0.028286943
27	0xbd16d6f1	-0.036826078
28	0x3c303143	0.010753932
29	0xbd5cb466	-0.05388298
30	0xbc97068c	-0.018435739
31	0x3d762987	0.060098197
32	0xbb086dc0	-0.002081737
33	0x3d3dc4fe	0.046330445
34	0x3cff90ea	0.03119703
35	0x3d4f73d5	0.050647575
36	0x3c80bc56	0.015714806
37	0xbda0134d	-0.07816181
38	0xbd65bfda	-0.056091167
39	0xbcb4d67a	-0.022074927
40	0x3ccdbad3	0.025113499
41	0xbcf4e63f	-0.029894946
42	0xbc0a388f	-0.008436336
43	0xbca662a9	-0.020310717
44	0xbd8de0ea	-0.069276646
45	0xbcc4cb28	-0.024022654
46	0x3d340c81	0.043957237
47	0x3d08c974	0.033395246
48	0x3d32e1ab	0.043672245
49	0x3d56ce02	0.052442558
50	0xbc80260d	-0.015643144
51	0x3d315ac8	0.043299466
52	0x3d239e65	0.03994598
53	0x3d423f9c	0.047423944
54	0x3d18c1c2	0.037294157
55	0xbd07c108	-0.033143073
56	0xbce3b839	-0.027797805
57	0xbd0097f6	-0.03139492
58	0x3d5e3e97	0.05425891
59	0x3cbfcfee	0.023414578
60	0x3b90c429	0.0044179154
61	0x3cc32f31	0.023826214
62	0xbd53924b	-0.051653188
63	0x3d6c3126	0.05766406
64	0xbd444c73	-0.04792447
65	0xbce88a78	-0.02838634
66	0xbd83c5eb	-0.06434234
67	0xbd0d3252	-0.034471817
68	0xbda31544	-0.079630405
69	0xbd1e1b91	-0.038600508
70	0xbd135a25	-0.03597464
71	0x3c666b23	0.014063629
72	0x3d5d17db	0.05397783
73	0xbcb41f4a	-0.021987576
74	0x3d0422dc	0.032259807
75	0x3d1afd91	0.037839476
76	0x3d55cd9a	0.05219803
77	0x3d0b9086	0.034073375
78	0x3d2aa779	0.04166362
79	0x3d64e82c	0.05588548
80	0x3cb0df3e	0.021590825
81	0xbd2fe06e	-0.042938642
82	0x3d33c33f	0.043887373
83	0x3d5448a2	0.05182708
84	0x3d5e1870	0.054222524
85	0xbd48dbf2	-0.04903788
86	0x3c7d77b7	0.015470437
87	0x3d54e085	0.05197193
88	0x3b93c065	0.004509019
89	0x3cea4bda	0.028600622
90	0xbc20ecf5	-0.00982212
91	0x3d455b53	0.048182797
92	0xbdab4b79	-0.08364005
93	0x3c871ffd	0.016494745
94	0xbd2917e2	-0.041282542
95	0x3c5b920d	0.01340152
96	0xbcbe94db	-0.02326434
97	0x3bc9ec0d	0.0061621726
98	0x3cd7604d	0.026291037
99	0xbcb81aaf	-0.022473661
100	0x3d327f2c	0.04357831
101	0x3ce9ff5a	0.028564144
102	0xbd1c06f4	-0.03809257
103	0xbc9a3a5e	-0.01882666
104	0x3d23aaa2	0.03995765
105	0xbd57d714	-0.05269535
106	0x3cd0ddce	0.02549639
107	0xbd5596a2	-0.052145608
108	0xbac1117f	-0.0014729946
109	0x3d094688	0.03351453
110	0xbcef130a	-0.029183883
111	0xbd4c3eeb	-0.04986469
112	0xbdb33c99	-0.087517925
113	0xbd3d3de7	-0.046201613
114	0xbcd62727	-0.026141716
115	0xbc11afd2	-0.0088920165
116	0xbced3d67	-0.028959943
117	0x3dfae293	0.12250247
118	0x3d2745fb	0.040838223
119	0xbc9a1953	-0.018810904
120	0x3e008677	0.12551294
121	0x3d739a20	0.059473157
122	0x3d0598f2	0.032616563
123	0x3dc86f79	0.09786887
124	0x3d5c6f0f	0.05381685
125	0xbcc907bf	-0.024539826
126	0x3d4c6a2b	0.049905937
127	0x3d4d850a	0.050175704
128	0x3d916730	0.070997596
129	0xbd171178	-0.036881894
130	0x3da38002	0.079834
131	0x3cfd418f	0.03091505
132	0xbc3b804e	-0.011444164
133	0x3c264f60	0.01015076
134	0x3d4f894b	0.050668042
135	0xbc099572	-0.008397447
136	0x3cd3e39e	0.025865372
137	0xbb54f760	-0.003249608
138	0xbd903189	-0.07040698
139	0xbd633a7f	-0.055475708
140	0xbc98277d	-0.018573517
141	0xbc972293	-0.018449103
142	0xbd91e43f	-0.071236126
143	0x3d3497e8	0.04409018
144	0x3d4baada	0.049723484
145	0x3cf64b3f	0.030065177
146	0xbc176ee5	-0.009242748
147	0x3d8d2b0f	0.068929784
148	0x3d95e7a6	0.07319574
149	0x3d056a95	0.032572348
150	0x3c93f144	0.01805938
151	0x3d482cf9	0.048871014
152	0x3ccad60c	0.024760269
153	0xbccb9420	-0.024850905
154	0xbce3ebda	-0.027822424
155	0x3b8b0e62	0.004243658
156	0xbdaabc5c	-0.08336708
157	0xbd9eab1b	-0.077474795
158	0xbca202bc	-0.019776694
159	0xbd8ba7e8	-0.06819135
160	0xbda5e7be	-0.08100842
161	0x3d1a62c5	0.03769185
162	0x3d283448	0.041065484
163	0x3d383207	0.044969585
164	0x3b2dff6d	0.002654995
165	0xbaa5a51f	-0.0012637711
166	0x3d87de2b	0.06634172
167	0xbb82a937	-0.003987457
168	0x3d47b7f4	0.048759416
169	0xbc685b4b	-0.014181922
170	0x3db73646	0.08945899
171	0xbd900fe4	-0.07034281
172	0xbd7cfc97	-0.061764326
173	0xbc8f499a	-0.01749115
174	0x3d5a5612	0.05330474
175	0xbd16e9ff	-0.03684425
176	0x3c2a6061	0.010398955
177	0x3d9887da	0.07447787
178	0x3d5a95b9	0.053365443
179	0x3a42af10	0.0007426599
180	0x3d11ebf5	0.035625417
181	0x3c9f3293	0.019433295
182	0xbcf96aeb	-0.03044649
183	0xbc9bee00	-0.019034386
184	0x3cdcadd6	0.02693836
185	0x3d59590f	0.05306345
186	0x3cbba973	0.022907948
187	0xbd176e6f	-0.036970552
188	0x3d66f759	0.056388233
189	0xbb1fd1a1	-0.0024386423
190	0xbc3320a5	-0.010933076
191	0xbd27780e	-0.040885977
192	0x3ca2ce6f	0.019873826
193	0xbcfce397	-0.030870242
194	0x3d0baf5b	0.03410278
195	0xb91fee63	-0.00015252228
196	0x3ca36db0	0.019949764
197	0xbc812945	-0.01576675
198	0x3cec127a	0.028817404
199	0xbcfb941a	-0.030710269
200	0x3d1501e8	0.03637877
201	0xbcf8f9ca	-0.030392546
202	0xbd4eec8d	-0.05051856
203	0xbcb249db	-0.021763733
204	0x3cfc00a9	0.030762034
205	0x3d3b25ff	0.045690533
206	0xbd5b6c9e	-0.053570382
207	0xbd04f0e6	-0.0324563
208	0xbe2543ff	-0.1613922
209	0xbcb2072c	-0.021731935
210	0xbde7273e	-0.11286782
211	0xbe1a804c	-0.15088004
212	0xbde3f4bb	-0.11130663
213	0xbdd9f9d8	-0.10643357
214	0xbdd19ecf	-0.102353685
215	0xbd0d3c4b	-0.034481328
216	0xbdcb8075	-0.099366106
217	0xbd5fe7c3	-0.054664385
218	0x3d6a261f	0.05716526
219	0xbcbc28b2	-0.022968624
220	0xbd2634bb	-0.04057763
221	0xbd5dc104	-0.054139152
222	0xbde242e8	-0.110479176
223	0xbdd38bcc	-0.103293985
224	0xbc974a5b	-0.018468073
225	0x3d77b508	0.06047538
226	0x3ba86961	0.0051395153
227	0xbbd5eea3	-0.006528692
228	0x3cc6ad20	0.024252474
229	0xbd6c54f2	-0.057698198
230	0x3d0dcbb7	0.034618106
231	0xbd7278b9	-0.05919716
232	0xbd23a43e	-0.039951555
233	0xbcf1d266	-0.029519271
234	0x3c107273	0.008816349
235	0x3d3bac36	0.04581853
236	0x3d23dbc5	0.04000451
237	0xbd9785e1	-0.07398582
238	0x3d2b11f8	0.041765183
239	0xbd823b35	-0.06358949
240	0x3c390dc2	0.011294784
241	0x3d1cfbd7	0.03832611
242	0x3c545d2b	0.012961666
243	0xbd879459	-0.06620092
244	0xbd487bc3	-0.048946153
245	0x3c20156d	0.009770733
246	0x3ca66354	0.020311035
247	0xbd131d90	-0.035916865
248	0x3d689665	0.056784052
249	0xbcbf2861	-0.023334684
250	0x3ba13057	0.0049190926
251	0x3d421d27	0.047391083
252	0x3cc2c981	0.023777725
253	0xbd229f96	-0.039702974
254	0xbd60bda8	-0.05486837
255	0x3c3bc8fb	0.011461492

layers.0.conv1.attention1.0.weight f4 [9, 32, 3, 3]
0	0x3e08ac2d	0.1334693
1	0x3e6e1593	0.23250417
2	0x3e1e5746	0.1546298
3	0x3deedb87	0.11662965
4	0x3de315fc	0.110881776
5	0x3e0971b6	0.13422284
6	0x3d646db7	0.055768695
7	0x3cecfef5	0.028930167
8	0x3d20b3ef	0.039234098
9	0xbcfc36ba	-0.030787814
10	0xbcc0b6c1	-0.023524644
11	0xbc457e3d	-0.012054023
12	0xbd0d7fa6	-0.034545563
13	0xbdf09c88	-0.11748606
14	0xbd3b9311	-0.04579455
15	0xbc35efbb	-0.0111045195
16	0xbc00acf8	-0.007853739
17	0x3ca3b42f	0.01998338
18	0xbdf0cfbd	-0.11758373
19	0xbe06d65f	-0.13167714
20	0xbdae8e4e	-0.08523236
21	0xbe0bb05a	-0.13641492
22	0xbdd82547	-0.10553985
23	0xbd5af3cf	-0.05345517
24	0xbca1fae4	-0.019772954
25	0xbdc92eab	-0.09823354
26	0xbdf5f79e	-0.1201012
27	0x3db531c4	0.08847383
28	0x3d7bdca0	0.0614897
29	0x3e5ae76c	0.21377343
30	0x3d51f99b	0.051263433
31	0x3ddc6309	0.10761077
32	0x3e38724b	0.1801235
33	0x3dd0b513	0.10190787
34	0x3dd9b9b4	0.10631123
35	0x3e3681c9	0.17822947
36	0x3d4fd40e	0.05073934
37	0x3e260dd4	0.16216213
38	0x3db3f165	0.08786277
39	0x3d7128d0	0.058876812
40	0x3dc808ba	0.097672895
41	0x3d38b849	0.045097623
42	0x3dc04dab	0.09389814
43	0x3dc8130b	0.09769257
44	0x3e093f4c	0.13403052
45	0xbd82eebf	-0.063931935
46	0xbd42c648	-0.047552377
47	0xbc86f9e5	-0.01647658
48	0xbd6caf88	-0.057784587
49	0xbdf405e0	-0.11915183
50	0xbda5972e	-0.08085476
51	0xbd8ef7be	-0.06980847
52	0xbde8c932	-0.113665
53	0xbd7acb40	-0.06122899
54	0xbdb665dd	-0.08906148
55	0xbd3889e3	-0.045053374
56	0xbde0dfe8	-0.10980207
57	0xbc9ce465	-0.019151876
58	0xbdbc3dc9	-0.09191472
59	0xbe0b1d29	-0.13585342
60	0xbddec6e4	-0.10877779
61	0xbdf62b53	-0.12019982
62	0xbd4b20de	-0.04959189
63	0x3da32015	0.079651035
64	0x3d10dfc1	0.03536964
65	0x3cfa9e23	0.030592984
66	0x3c889734	0.016673662
67	0x3cd31095	0.025764743
68	0x3cd60834	0.026126958
69	0x3c4cc29f	0.012497573
70	0x3d5ced56	0.05393728
71	0x3d87a30d	0.06622896
72	0xbdbf9973	-0.0935544
73	0xbdb9035f	-0.09033846
74	0xbdd1c2fc	-0.102422684
75	0xbdbbf08f	-0.09176742
76	0xbdba1841	-0.09086657
77	0xbdc2c0e1	-0.09509445
78	0xbc7463f5	-0.01491641
79	0xbd950400	-0.072761536
80	0xbce2fd0d	-0.027708555
81	0xbce4c410	-0.027925521
82	0xbdb21d22	-0.08696963
83	0xbdb1b67e	-0.08677386
84	0xbdaa56dc	-0.08317348
85	0xbd8cf0bb	-0.06881853
86	0xbe22f98d	-0.15915509
87	0xbda48c86	-0.08034615
88	0xbdb30bdf	-0.087424986
89	0xbd926f5c	-0.07150146
90	0x3e5d476b	0.21609275
91	0x3e951d59	0.29123953
92	0x3e018888	0.12649739
93	0x3e395b7c	0.18101305
94	0x3e7a1a0e	0.24424002
95	0x3e67ae99	0.22625197
96	0x3e5dce58	0.21660745
97	0x3e9bf95c	0.30463684
98	0x3e8f6eeb	0.2801431
99	0x3dc0b0da	0.09408732
100	0x3e16666c	0.14687508
101	0x3e37870d	0.17922612
102	0x3e2f9be4	0.17149311
103	0x3e4ffd51	0.20311476
104	0x3e66b80d	0.22531147
105	0x3d93750a	0.07200058
106	0x3e684864	0.22683865
107	0x3e0ec892	0.13943699
108	0x3de4f6fb	0.1117992
109	0x3e161eb0	0.14660144
110	0xbd267086	-0.040634654
111	0x3e4883da	0.19581547
112	0x3e3c2df2	0.18376902
113	0x3e1b45a9	0.15163292
114	0x3e4d2e89	0.20037283
115	0x3e6e8d10	0.23295999
116	0x3e5febd5	0.21867307
117	0x3e30a653	0.17250948
118	0x3e6b4eba	0.2297925
119	0x3e110bd1	0.14164664
120	0x3e1d67b3	0.1537159
121	0x3e6df6fb	0.23238747
122	0x3e1fe2d6	0.15613875
123	0x3c44cdf5	0.012011995
124	0x3d3ea1db	0.046541076
125	0xbd07081a	-0.03296671
126	0xbdfef384	-0.12448791
127	0xbd972eee	-0.07381998
128	0xbe0373e1	-0.12837173
129	0xbda54327	-0.08069449
130	0xbe132af9	-0.14371862
131	0xbd90ce6a	-0.0707062
132	0xbd539b2f	-0.051661666
133	0xbdd89f22	-0.10577227
134	0xbd9fe882	-0.07808019
135	0x3d0742c1	0.033022646
136	0x3a557a02	0.0008143486
137	0x3d362e8c	0.044477984
138	0x3d604fd6	0.054763637
139	0x3cb9b262	0.022668067
140	0xbe1ae488	-0.1512624
141	0x3dc6ac9c	0.097008914
142	0x3da4b5bd	0.08042476
143	0x3cfd1bca	0.03089704
144	0xbc0f081c	-0.008729961
145	0xbc77a251	-0.015114383
146	0xbdc31ee9	-0.0952738
147	0xbd83d300	-0.064367294
148	0xbd580eb5	-0.0527484
149	0xbc6a1426	-0.01428703
150	0xbd358e6f	-0.04432529
151	0xbcb94f58	-0.022620842
152	0x3c8e2543	0.017351752
153	0x3ce4639c	0.027879529
154	0x3d4dc05d	0.05023228
155	0x3c2c96d2	0.010534005
156	0xbd75ceef	-0.0600118
157	0x3bebca33	0.007195735
158	0x3bf98e20	0.0076158196
159	0xbe0e73ba	-0.13911334
160	0xbde2015a	-0.11035414
161	0xbbd1a7bb	-0.006398169
162	0xbbe12ed4	-0.0068720374
163	0x3c449cec	0.012000304
164	0xbbee3344	-0.007269295
165	0xbdb1b95d	-0.08677933
166	0xbdcd150d	-0.10013781
167	0xbd657514	-0.056019858
168	0xbdfdfb87	-0.12401491
169	0xbd9c6410	-0.07636273
170	0xbdc3f311	-0.095678456
171	0xbce69dc0	-0.028151393
172	0xbd035485	-0.032063026
173	0xbd3c78f4	-0.046013787
174	0xbca389b0	-0.019963115
175	0xbd9166f5	-0.070997156
176	0xbe2c7336	-0.16840824
177	0xbd4d38fb	-0.05010317
178	0xbd05533f	-0.032550093
179	0xbd2c68b7	-0.04209205
180	0xbe1ae204	-0.1512528
181	0xbe1893db	-0.14900152
182	0xbdf8848d	-0.12134657
183	0xbd985418	-0.074379146
184	0xbe1468a9	-0.1449305
185	0xbe2e510f	-0.17023109
186	0xbdd81d97	-0.10552519
187	0xbdc85343	-0.09781506
188	0xbd909fd4	-0.07061735
189	0x3ded7833	0.11595192
190	0x3e4a672c	0.1976592
191	0x3d975cbd	0.07390735
192	0x3e85088b	0.2598308
193	0x3ea61ce6	0.32443923
194	0x3e775c06	0.24156198
195	0x3e5c0bed	0.21488924
196	0x3e52f419	0.20600928
197	0x3e9c48db	0.30524334
198	0xbd37c537	-0.044865813
199	0xbc76036b	-0.015015463
200	0xbda84724	-0.08216694
201	0xbe0cd1e5	-0.13751943
202	0xbdd380c3	-0.10327294
203	0xbd8dd2ad	-0.06924949
204	0xbe11fa80	-0.14255714
205	0xbe306c93	-0.17228918
206	0xbdf7e747	-0.121046595
207	0x3e2f9754	0.17147571
208	0x3da6ee90	0.08150971
209	0xbe1d8e29	-0.15386261
210	0x3dfb8e63	0.122830175
211	0x3e1801a9	0.14844383
212	0x3dafb34e	0.085791215
213	0xbe1a9e14	-0.15099365
214	0xbe27cc46	-0.16386518
215	0xbe39e68c	-0.18154353
216	0x3cebd973	0.028790211
217	0xbcc09e37	-0.023512943
218	0x3d0bb31b	0.034106355
219	0x3d03f833	0.032219123
220	0x3cf0ade7	0.029379798
221	0xbd6bde19	-0.057584856
222	0xbd49614a	-0.049165048
223	0xbde24caf	-0.110497825
224	0xbdfa457d	-0.12220285
225	0x3d2082cb	0.039187234
226	0xbd65ca86	-0.056101345
227	0xbd502aa4	-0.050821915
228	0xbd8542dc	-0.06506893
229	0xbe0c62ad	-0.13709517
230	0xbe0f1169	-0.13971485
231	0x3ba4c46b	0.0050282977
232	0xbdc5180d	-0.09623728
233	0xbdedce63	-0.11611631
234	0x3dddec8d	0.10836134
235	0x3e9240ea	0.2856515
236	0x3eac3fd7	0.33642456
237	0x3e2d7174	0.1693781
238	0x3e15a573	0.14613895
239	0x3e5951a8	0.21222556
240	0x3db1a773	0.086745165
241	0x3e3ed98f	0.1863768
242	0x3e144009	0.14477552
243	0xbd799811	-0.060936037
244	0xbd6af8e5	-0.05736627
245	0xbd320b5e	-0.04346787
246	0xbd901c04	-0.070365936
247	0xbe094d66	-0.13408431
248	0xbe063325	-0.13105448
249	0xbde09369	-0.10965616
250	0xbdc4eec5	-0.09615854
251	0xbe1ab403	-0.15107732
252	0xbe5523fc	-0.20814508
253	0xbe3b104c	-0.18267936
254	0x3c95cd65	0.018286416
255	0xbe2cb1a6	-0.16864643

layers.0.conv1.attention1.0.bias f4 [9]
0	0x3e3fe921	0.18741275
1	0xbe8dc552	-0.27689606
2	0x3e97c3cf	0.29641578
3	0x3e5e16a4	0.21688324
4	0x3ea12bd8	0.31478763
5	0xbcb5dfaf	-0.022201387
6	0x3e6dbef2	0.23217371
7	0xbd6bdc27	-0.057583
8	0x3e6bcf50	0.23028302

layers.0.conv1.attention1.2.weight f4 [9, 9, 1, 1]
0	0x3cf92978	0.030415282
1	0xbe5cdb38	-0.21568
2	0xbd9ceb33	-0.07662048
3	0xbe32600e	-0.17419454
4	0xbe808335	-0.25100103
5	0x3e9f76b2	0.31145245
6	0xbea99d38	-0.3312776
7	0x3e91343e	0.2836017
8	0xbe232555	-0.1593221
9	0xbeb3b3de	-0.35098165
10	0x3e046a31	0.12931134
11	0xbe9ae503	-0.30252847
12	0x3dd93222	0.10605265
13	0x3d62129e	0.055193536
14	0x3ee09728	0.43865323
15	0xbe2bfb8d	-0.16795178
16	0xbde21d39	-0.1104073
17	0xbdb2bcb5	-0.08727399
18	0xbde77b71	-0.113028415
19	0x3e00557a	0.12532607
20	0x3d0eeb08	0.034892112
21	0xbe9ea019	-0.3098152
22	0x3e3870ea	0.18011823
23	0xbe6acf8e	-0.22930738
24	0xbea198c4	-0.31561863
25	0xbd89b054	-0.06723085
26	0x3e98a87b	0.2981604
27	0xbe4f128f	-0.20221923
28	0xbd29c9b7	-0.041452136
29	0xbe49d00e	-0.19708273
30	0x3e3c76e4	0.18404728
31	0xbdbca8bf	-0.09211873
32	0xbef9c9b7	-0.4878671
33	0x3dabd5c0	0.08390379
34	0xbedb6e93	-0.428578
35	0x3e82918f	0.25501677
36	0x3e4004f8	0.18751895
37	0x3c5f2177	0.0136188185
38	0x3e0ab361	0.1354499
39	0xbe546de4	-0.20745045
40	0x3e9bfe5f	0.30467507
41	0x3d6f3056	0.058395706
42	0xbe9b419d	-0.30323496
43	0x3de5e578	0.11225408
44	0xbe907c23	-0.2821971
45	0xbdcf01dd	-0.10107777
46	0xbe5e45ec	-0.2170636
47	0xbec528f7	-0.38507816
48	0x3d50ace5	0.050946135
49	0xbea75ac2	-0.3268643
50	0x3e3827de	0.17983958
51	0x3e431f0c	0.19054812
52	0x3d770a86	0.06031277
53	0xbdacb020	-0.08432031
54	0x3e2bf8ea	0.16794172
55	0xbe936d55	-0.2879435
56	0x3e87b447	0.26504728
57	0x3ef4c773	0.47808418
58	0x3ef80543	0.48441514
59	0xbe781df1	-0.24230172
60	0x3f10ce14	0.5656445
61	0xbf32f599	-0.69906
62	0x3e8f8d4a	0.28037483
63	0x3e04ef81	0.12981988
64	0xbd3bda79	-0.04586265
65	0xbe88a90d	-0.26691476
66	0xbe1dfe98	-0.15429151
67	0xbe8dc949	-0.2769263
68	0x3ef5d759	0.4801586
69	0xbf04c780	-0.5186691
70	0x3d7b9d37	0.06142923
71	0xbe9584f0	-0.29202986
72	0x3e9c2f50	0.30504847
73	0xbee39aba	-0.44453984
74	0x3f1dba8e	0.61612785
75	0x3ea377e8	0.3192742
76	0x3f22ad62	0.6354581
77	0xbed66bdb	-0.41879162
78	0x3e5ee91a	0.21768609
79	0xbf0123a7	-0.50445026
80	0x3eefab30	0.46810293

layers.0.conv1.attention1.2.bias f4 [9]
0	0x3e033ab6	0.12815365
1	0xbecc60b3	-0.39917526
2	0xbeb7efba	-0.35925084
3	0x3e89abcb	0.2688888
4	0x3d6bf04b	0.057602208
5	0x3dc0d546	0.09415679
6	0x3e718453	0.23585634
7	0xbed73823	-0.42035016
8	0x3e386ccd	0.18010254
