weights/model_epoch_lagconv610.pth (torch, 679460 bytes, 141 tensors)

raise_dim.0.weight f4 [32, 9, 3, 3]
-0.35218406 -0.24642049 0.015204287 -0.114021234 0.002042047 -0.10943889 -0.0407577 -0.0054447213
0.16882943 -0.3817217 -0.32330194 -0.11469134 -0.07770965 -0.33245054 -0.31507707 -0.059151493
-0.12548862 0.15527819 -0.29700863 -0.23244269 0.038373556 -0.02230859 -0.2785204 -0.057664305
0.11239014 0.18872333 0.12256976 -0.15773357 -0.14348862 0.16731691 -0.11933111 -0.16098642
0.06866089 0.07087704 0.18515295 0.2980783 -0.26010284 -0.2869966 -0.095668785 0.06577881
-0.08957557 0.008348897 0.44309977 0.25362346 0.18939221 -0.13647617 -0.066257894 0.1848419
-0.22940275 -0.10307628 0.12191981 -0.1566904 -0.03633491 0.17347588 -0.022745725 -0.024399083
0.10530338 -0.16807838 0.035268877 0.17252073 0.25419492 0.13881035 0.27058914 -0.15918566
-0.05215394 0.13153462 -0.33898127 -0.10527102 0.07727442 -0.12776357 -0.102675244 -0.009859324
0.061331656 0.1323287 0.2867018 -0.07210339 -0.056103848 0.083444305 0.2392519 0.11023406
0.25410125 -0.12645446 0.034525212 0.08013279 -0.09325068 -0.45264962 -0.124431506 -0.17962949
-0.078195915 0.09655295 0.075464725 -0.07089506 0.13255352 -0.03387293 0.086349554 0.05619188
-0.008944898 -0.115112215 -0.043876745 0.009211733 0.07231435 -0.001361553 0.1460844 0.12162982
-0.0042939633 0.0033331634 0.044233415 0.15593891 0.13188176 0.10173739 0.07221819 0.06109419
0.090284124 0.116204865 0.09322067 0.048767067 0.20670003 -0.04157512 -0.043271616 0.093793176
0.18468952 0.234123 0.121735744 0.059137963 0.05401788 0.1828236 0.030723507 0.04831707
-0.08478703 0.091604464 0.0871363 0.04921026 -0.002081835 0.020630658 0.07076335 0.22523384
0.22417568 0.11740068 0.23190655 0.37221986 0.33854944 0.0870213 0.15204355 0.23287241
-0.13233377 -0.11385724 -0.24078463 0.036346316 -0.046428084 -0.0014148374 -0.029262567 0.10527948
-0.06924053 -0.12347869 -0.0012563079 -0.042339187 -0.09956561 -0.02589584 -0.056011982 -0.018215913
-0.091434754 -0.023230128 -0.20959401 -0.28835526 0.24556 -0.39463934 -0.449207 -0.047975928
-0.11081165 0.10554291 0.08869979 0.03278534 -0.010621778 -0.17775841 0.037873823 0.03914699
-0.1746298 -0.06877632 -0.038820226 -0.15972945 -0.0010321952 -0.058403593 -0.20120777 -0.032407556
-0.120276794 -0.21065237 -0.03282434 -0.010764926 -0.18529488 0.15582737 -0.010173623 -0.14124951
-0.020279646 -0.13734196 -0.18475735 0.05391147 -0.16151275 -0.112625904 0.14653337 0.2322295
0.036859863 0.18830979 0.30145288 0.12622632 0.0004984169 0.09078497 -0.027957084 0.038960088
0.24978322 0.007099953 -0.09300871 0.031618923 -0.02596598 0.08411053 -0.058916252 -0.020754391
0.03887986 0.22501786 -0.10921764 0.029094782 0.05069681 -0.04927176 0.10622029 0.033134982
0.11101576 0.13440119 0.21620707 0.029536974 -0.10513427 0.09751598 -0.027297378 0.05918187
0.04757212 -0.022760412 -0.004547464 0.13738686 -0.06585907 -0.16594903 -0.06376821 -0.16534387
0.0621927 -0.1292218 -0.102529615 -0.030412547 0.12452049 0.07043421 0.26955512 -0.29958683
0.1398122 -0.20781678 0.20119895 -0.06775911 0.0043006125 0.12280945 0.048000496 -0.06647204
00000000: 7851 b4be a755 7cbe 671b 793c f783 e9bd
00000010: ddd3 053b 7f21 e0bd 8cf1 26bd a269 b2bb
00000020: 9fe1 2c3e 0771 c3be d587 a5be 4be3 eabd
00000030: 3d26 9fbd f536 aabe c851 a1be d648 72bd
00000040: 1780 00be 3f01 1f3e 8411 98be 7505 6ebe
00000050: 972d 1d3d 81c0 b6bc 3a9a 8ebe 6831 6cbd
00000060: cd2c e63d b040 413e db05 fb3d e984 21be
00000070: aeee 12be 2055 2b3e de63 f4bd a0d9 24be
00000080: 159e 8c3d fb27 913d bc98 3d3e b89d 983e
00000090: 332c 85be 38f1 92be ffed c3bd 0ab7 863d
000000a0: 6573 b7bd d0c9 083c f9dd e23e efda 813e
000000b0: 08f0 413e 69c0 0bbe 38b2 87bd 3247 3d3e
000000c0: 8ee8 6abe a819 d3bd 18b1 f93d 7373 20be
000000d0: ead3 14bd a9a3 313e 3e55 babc 96e0 c7bc
000000e0: 4ca9 d73d bd1c 2cbe 1976 103d 46a9 303e
000000f0: d625 823e 4d24 0e3e a98a 8a3e 9101 23be
00000100: 5f9f 55bd 03b1 063e f48e adbe 5598 d7bd
00000110: 0d42 9e3d 74d4 02be 6647 d2bd 0189 21bc
00000120: e736 7b3d 2d81 073e 94ca 923e f1aa 93bd
00000130: 26cd 65bd d9e4 aa3d 73fe 743e 65c2 e13d
00000140: 8f19 823e 477d 01be 4f6a 0d3d a91c a43d
00000150: 36fa bebd b1c1 e7be f2d5 febd cbf0 37be
00000160: 2e25 a0bd 8ebd c53d 408d 9a3d 6e31 91bd
00000170: 1cbc 073e 57be 0abd 09d8 b03d 7529 663d
00000180: 9f8d 12bc f4bf ebbd 1ab8 33bd cfec 163c
00000190: 8c19 943d 2376 b2ba 2697 153e 0e19 f93d
000001a0: 60b4 8cbb 3471 5a3b 192e 353d 73ae 1f3e
000001b0: 030c 073e b15b d03d 21e7 933d e73d 7a3d
000001c0: e2e6 b83d d1fc ed3d 7bea be3d fabf 473d
000001d0: 2ca9 533e ac4a 2abd 943d 31bd a316 c03d
000001e0: 401f 3d3e f1bd 6f3e 9750 f93d a63a 723d
000001f0: da41 5d3d 1c36 3b3e ddaf fb3c 1fe8 453d
00000200: d3a4 adbd 1f9b bb3d 8474 b23d b390 493d
00000210: 656f 08bb a001 a93c 60ec 903d b3a3 663e
00000220: 4f8e 653e c56f f03d e978 6d3e 9a93 be3e
00000230: 5a56 ad3e 3938 b23d 4eb1 1b3e 1b76 6e3e
00000240: 8182 07be fc2d e9bd 3f90 76be e0df 143d
00000250: 602b 3ebd 1172 b9ba 0db8 efbc c59c d73d
00000260: fbcd 8dbd 65e2 fcbd b3aa a4ba db6b 2dbd
00000270: 0ee9 cbbd 8323 d4bc d26c 65bd 8a39 95bc
00000280: 2542 bbbd 1c4d bebc d09f 56be 4da3 93be
00000290: 1574 7b3e 2b0e cabe 76fe e5be 6882 44bd
000002a0: 38f1 e2bd e226 d83d 3ca8 b53d ec49 063d
000002b0: f706 2ebc 4d06 36be 9521 1b3d 9858 203d
000002c0: 27d2 32be 99da 8cbd f501 1fbd 1e90 23be
000002d0: b94a 87ba 9b38 6fbd 6909 4ebe c9bd 04bd
000002e0: ae53 f6bd 41b5 57be d172 06bd 5f5f 30bc
000002f0: f1bd 3dbe 3691 1f3e 45af 26bc b6a3 10be
00000300: 8021 a6bc 5fa3 0cbe 0831 3dbe 46d2 5c3d
00000310: 9963 25be 69a8 e6bd d80c 163e 92cd 6d3e
00000320: 5efa 163d 48d4 403e 0858 9a3e 7941 013e
00000330: 31a8 023a 78ed b93d 4106 e5bc 9d94 1f3d
00000340: 2cc7 7f3e b9a6 e83b 5a7b bebd d882 013d
00000350: 9bb6 d4bc 2442 ac3d 2b52 71bd 1d05 aabc
00000360: 7d40 1f3d 156b 663e 7fad dfbd 2e58 ee3c
00000370: 75a7 4f3d 2fd1 49bd 068a d93d 8cb8 073d
00000380: 3b5c e33d 77a0 093e 6365 5d3e 86f7 f13c
00000390: a350 d7bd 75b6 c73d c09e dfbc b068 723d
000003a0: fcda 423d 0b74 babc e502 95bb 24af 0c3e
000003b0: 1fe1 86bd 8bee 29be e898 82bd e74f 29be
000003c0: c6bd 7e3d b852 04be 0cfb d1bd bc23 f9bc
000003d0: 9904 ff3d d03f 903d 2103 8a3e 7263 99be
000003e0: ee2a 0f3e eccd 54be 1907 4e3e 4ac5 8abd
000003f0: 27ec 8c3b 8583 fb3d 2b9c 443d 7e22 88bd

raise_dim.0.attention1.0.weight f4 [9, 9, 3, 3]
-0.021924816 0.13138148 0.08961656 0.3487197 -0.74633205 0.17399678 -0.041509017 0.21012007
-0.1567988 -0.22059146 -0.1492082 -0.12511852 -0.13840084 -0.21290527 -0.19821243 -0.039694883
-0.018078115 -0.06827557 0.018595727 -0.03807621 -0.055858858 -0.10035863 -0.055274352 -0.10378732
-0.04679818 -0.0049139634 0.0143365925 0.074790485 -0.08201985 0.11230757 0.116427906 0.2169811
0.15264697 -0.0759027 -0.01956584 -0.0064135557 -0.100001246 -0.16688076 -0.05302539 -0.21386461
-0.023760876 -0.19526567 -0.013087237 -0.0486591 -0.13844429 -0.072874695 -0.09681874 0.025619548
-0.038151458 0.09013909 -0.024174716 -0.111804664 0.117777646 -0.013131924 -0.06456806 -0.000873633
-0.07693386 -0.15647484 0.046370335 -0.01803004 -0.23018128 -0.031813562 -0.038843315 0.04211765
0.0035931964 0.12651011 0.036747813 0.21136034 0.16811708 -0.13937165 0.15485129 0.15999253
0.26104265 0.3008563 0.20638634 0.29154566 0.38974822 0.22154568 0.01074697 0.23197152
-0.022163399 -0.03893261 0.13069086 0.030158563 0.17100888 -0.43217453 0.1487317 -0.0571145
0.25599003 0.0023825553 -0.27148628 -0.40441728 -0.22138427 -0.32336146 -0.4770619 -0.42168736
-0.18709573 -0.25073704 -0.30966857 0.06948892 0.14899582 0.060529873 0.18518776 0.09003957
-0.04195424 0.062395666 0.20590349 0.06350175 0.25271764 0.12425541 0.15055987 0.24531792
0.19968756 0.025663985 0.13740793 0.1880128 0.17790326 -0.079491 -0.28670365 -0.18155561
-0.29303262 -0.28758726 -0.09935024 -0.2262253 -0.12644656 -0.19034009 -0.05621287 -0.036451932
0.055338413 0.16638173 -0.04357948 0.0676608 0.11402363 0.10105554 0.096780695 -0.09363202
-0.16287452 -0.20091105 -0.23407851 -0.32127815 -0.26522607 -0.22290446 -0.3064649 -0.16482997
0.12559794 0.016814608 0.06728776 0.15532255 0.1727667 0.18952392 -0.0076518254 0.17466208
0.09849578 0.076580696 0.003991157 -0.06474252 -0.023754101 0.034570456 0.07403443 -0.12085718
-0.09738372 0.0064872634 -0.57575417 0.30046833 -0.3756402 0.43178862 0.48650864 0.32116282
-0.15500677 0.12344027 -0.15280972 -0.8099987 -0.14912672 -0.07934091 -0.4811906 -0.1878819
-0.2615788 -0.5826447 -0.27157962 -0.20662987 -0.3450086 -0.036329642 -0.052771673 0.081847906
0.02524877 0.15512246 -0.23491539 -0.082263656 -0.091457754 -0.06479951 0.13632374 0.10096308
0.33174342 0.24559288 0.27167946 -0.032681864 0.16889523 0.11465161 -0.19365376 -0.10498305
0.16321026 -0.09648128 0.012659575 -0.06566349 -0.13286167 -0.07471905 -0.08455997 -0.15456848
-0.33757153 -0.12597875 0.24193238 -0.112011395 -0.12835684 -0.005751968 -0.11187041 -0.040674504
-0.11596198 -0.07955398 0.0094030285 0.21863875 -0.05401163 0.09058002 -0.15020967 -0.09293973
-0.039289992 -0.08204194 -0.18710573 -0.07310486 0.29767752 0.088265575 -0.070084006 -0.06081026
0.095891275 -0.13727365 -0.2593939 0.107758075 -0.0122351125 -0.040641457 0.042084217 -0.20244108
-0.29950246 -0.017495066 -0.09375808 -0.003719589 0.20228791 -0.27344003 -0.018263888 -0.2146633
0.13061462 -0.21761134 0.04639393 -0.30851725 -0.27874458 -0.0483042 -0.15460221 -0.2137241
00000000: ac9b b3bc de88 063e e388 b73d 638b b23e
00000010: 9e0f 3fbf 362c 323e 5c05 2abd b729 573e
00000020: dd8f 20be bae2 61be 09ca 18be 121f 00be
00000030: f3b8 0dbe d703 5abe 33f8 4abe 1a97 22bd
00000040: 8e18 94bc 10d4 8bbd 1156 983c cdf5 1bbd
00000050: 42cc 64bd d388 cdbd 5c67 62bd 728e d4bd
00000060: 73af 3fbd 5005 a1bb 07e4 6a3c c12b 993d
00000070: 06fa a7bd 8301 e63d c171 ee3d 4b30 5e3e
00000080: 7d4f 1c3e e072 9bbd 8a48 a0bc ce28 d2bb
00000090: 74cd ccbd cae2 2abe 2731 59bd 53ff 5abe
000000a0: 2ba6 c2bc b9f3 47be da6b 56bc c44e 47bd
000000b0: 57c4 0dbe 543f 95bd e748 c6bd 16e0 d13c
000000c0: b444 1cbd d89a b83d 0e0a c6bc d8f9 e4bd
000000d0: 6835 f13d 4827 57bc 423c 84bd 8504 65ba
000000e0: 808f 9dbd f13a 20be d2ee 3d3d bcb3 93bc
000000f0: a4b4 6bbe f04e 02bd 2b1a 1fbd 8f83 2c3d
00000100: d57b 6b3b de8b 013e e084 163d d86e 583e
00000110: e226 2c3e 71b7 0ebe 5691 1e3e 15d5 233e
00000120: 62a7 853e d609 9a3e f156 533e 7945 953e
00000130: 148d c73e dfdc 623e 0f14 303c f189 6d3e
00000140: 0490 b5bc cd77 1fbd d3d3 053e 170f f73c
00000150: f41c 2f3e fb45 ddbe 1f4d 183e e5f0 69bd
00000160: 2011 833e a524 1c3b 4000 8bbe c80f cfbe
00000170: 8fb2 62be a28f a5be 7541 f4be 68e7 d7be
00000180: 0696 3fbe 9b60 80be e18c 9ebe 3550 8e3d
00000190: 5c92 183e 2cee 773d dca1 3d3e ab66 b83d
000001a0: 36d8 2bbd 9992 7f3d 5dd8 523e 350d 823d
000001b0: 3564 813e 9f79 fe3d 5e2c 1a3e 9f34 7b3e
000001c0: e57a 4c3e 473d d23c aab4 0c3e 6d86 403e
000001d0: 462c 363e 2dcc a2bd d2ca 92be b7e9 39be
000001e0: 5f08 96be a33e 93be 2378 cbbd 9ba7 67be
000001f0: 357b 01be 83e8 42be 773f 66bd 9f4e 15bd
00000200: 88aa 623d f95f 2a3e 6680 32bd bf91 8a3d
00000210: 3985 e93d 35f6 ce3d f534 c63d 25c2 bfbd
00000220: 94c8 26be a0bb 4dbe 47b2 6fbe 927e a4be
00000230: b6cb 87be 1141 64be f8e8 9cbe 30c9 28be
00000240: bf9c 003e cabe 893c 2ace 893d e00c 1f3e
00000250: c1e9 303e 8f12 423e 2abc fabb 9eda 323e
00000260: 28b8 c93d 57d6 9c3d 40c8 823b ba97 84bd
00000270: f697 c2bc c099 0d3d 5d9f 973d f883 f7bd
00000280: 1e71 c7bd 1c93 d43b a064 13bf fcd6 993e
00000290: ea53 c0be 6613 dd3e a917 f93e 746f a43e
000002a0: 18ba 1ebe 41ce fc3d 277a 1cbe 135c 4fbf
000002b0: adb4 18be 7d7d a2bd 9d5e f6be 1d64 40be
000002c0: a8ed 85be 3428 15bf 7c0c 8bbe c896 53be
000002d0: f8a4 b0be 64ce 14bd 1c27 58bd e09f a73d
000002e0: 82d6 ce3c 6cd8 1e3e a98d 70be d979 a8bd
000002f0: 344e bbbd 9bb5 84bd 7398 0b3e bbc5 ce3d
00000300: 46da a93e b37c 7b3e 9219 8b3e 6bdd 05bd
00000310: dff2 2c3e 77ce ea3d 2c4d 46be 5a01 d7bd
00000320: 9720 273e fa97 c5bd 1b6a 4f3c 947a 86bd
00000330: e40c 08be 4d06 99bd c72d adbd 3347 1ebe
00000340: 2dd6 acbe 9300 01be 1fbd 773e 3b66 e5bd
00000350: fa6f 03be 017b bcbb 501c e5bd 4f9a 26bd
00000360: 797d edbd 32ed a2bd 290f 1a3c d6e2 5f3e
00000370: 4d3b 5dbd 0482 b93d 90d0 19be 2f57 bebd
00000380: 8bee 20bd 9b05 a8bd a598 3fbe 00b8 95bd
00000390: 3069 983e 95c4 b43d 3488 8fbd 2e14 79bd
000003a0: a562 c43d 7791 0cbe 47cf 84be 44b0 dc3d
000003b0: c875 48bc a877 26bd 8060 2c3d b74c 4fbe
000003c0: 6358 99be d051 8fbc 3c04 c0bd 59c4 73bb
000003d0: 9024 4f3e 5500 8cbe 269e 95bc b2d0 5bbe
000003e0: d7bf 053e 82d5 5ebe 9007 3e3d f9f5 9dbe
000003f0: 9cb7 8ebe a0da 45bd 0b50 1ebe 7eda 5abe

raise_dim.0.attention1.0.bias f4 [9]
0.31144965 0.3068047 0.15316601 0.42770487 -0.13769601 0.43871891 0.18297613 -0.12446055
0.13215467
00000000: 5476 9f3e 8115 9d3e 8dd7 1c3e 22fc da3e
00000010: 2f00 0dbe c49f e03e 185e 3b3e 2ce5 febd
00000020: 8e53 073e

raise_dim.0.attention1.2.weight f4 [9, 9, 1, 1]
0.35169542 0.1778125 -0.22727625 -0.14141227 0.39583632 0.3493693 -0.34629983 0.24656114
0.49486086 0.40995538 0.56801695 0.791771 0.8689842 -0.00628358 0.29108685 -0.19137803
-0.12189042 0.33598778 0.66133934 0.3974805 1.0007769 0.43835485 -0.11814522 -0.11115704
0.48896477 -0.2611828 -0.03945102 0.1915833 -0.6722761 -0.18355286 -0.55418426 0.23138557
-0.4090581 0.44300702 -0.13179612 0.18274122 0.43686512 0.024017071 -0.51021135 -0.53732216
0.23001869 -0.25649658 -0.012632375 0.33858222 -0.39574623 0.23308459 0.63106185 -0.4323152
0.2253404 -0.65823704 0.5221876 0.0032313901 -0.4875967 0.13891272 0.3280898 0.17021132
0.23292826 -0.2930618 0.50779766 -0.31020296 0.27405187 -0.584136 -0.14156523 0.57231224
0.950212 0.77286404 1.7167718e-05 0.097977236 0.05571805 0.32358864 -0.29263127 -0.42218858
0.5490541 0.33965698 0.2649694 0.07256019 -0.3935467 0.2113959 0.2717063 0.15151575
0.17901665
00000000: 6c11 b43e 7b14 363e 1bbb 68be 61ce 10be
00000010: 0fab ca3e 88e0 b23e 364e b1be 867a 7c3e
00000020: 675e fd3e ace5 d13e 8f69 113f 81b1 4a3f
00000030: c075 5e3f 7de6 cdbb 5609 953e 9af8 43be
00000040: afa1 f9bd 9706 ac3e 894d 293f 9082 cb3e
00000050: 7519 803f 0c70 e03e 1ff6 f1bd 4da6 e3bd
00000060: 9759 fa3e c1b9 85be 6597 21bd 6a2e 443e
00000070: 491a 2cbf 48f5 3bbe 05df 0dbf 57f0 6c3e
00000080: 1070 d1be d1d1 e23e 90f5 06be 8420 3b3e
00000090: c9ac df3e 73bf c43c 369d 02bf f28d 09bf
000000a0: 058a 6b3e 8553 83be 05f8 4ebc a65a ad3e
000000b0: 409f cabe baad 6e3e 458d 213f 6b58 ddbe
000000c0: a2bf 663e 3982 28bf 16ae 053f bbc5 533b
000000d0: 46a6 f9be 233f 0e3e 63fb a73e e04b 2e3e
000000e0: bf84 6e3e 320c 96be 07ff 013f ecd2 9ebe
000000f0: 8750 8c3e f089 15bf 7af6 10be 0e83 123f
00000100: 1841 733f 6bda 453f 6503 9037 4aa8 c83d
00000110: 9c38 643d 69ad a53e c4d3 95be 1a29 d8be
00000120: cf8e 0c3f 85e7 ad3e 12aa 873e 709a 943d
00000130: f47e c9be 2b78 583e 171d 8b3e f226 1b3e
00000140: 2450 373e

raise_dim.0.attention1.2.bias f4 [9]
0.30429423 0.6844551 0.42492363 -0.7257742 0.2253842 0.47899038 -0.5912009 0.019587139
-0.13681614
00000000: 74cc 9b3e 7338 2f3f 978f d93e 57cc 39bf
00000010: 1ecb 663e 3a3e f53e f158 17bf 3575 a03c
00000020: 8819 0cbe

raise_dim.0.attention1.4.weight f4 [9, 9, 1, 1]
-0.43765235 -0.22031271 0.1627623 0.44510612 0.6424903 -0.41531694 0.43567827 0.646156
0.27497405 -0.4773856 -0.01714246 0.30121067 0.15078668 -0.27064195 -0.30572045 -0.010605563
-0.3221074 -0.3329437 -0.36749125 -0.12589274 -0.20870832 0.32176217 -0.76833105 -0.07067122
-0.16791011 -0.27986363 -0.24542868 -0.004026719 -0.25065562 -0.23263018 -0.21586522 -0.32042685
0.098860644 -0.032777704 -0.400742 0.05135057 0.7309648 1.3500994 1.3714234 -1.1461118
0.30541322 1.3851417 -1.1529969 1.501341 0.9119626 -0.0037761517 0.05372542 0.048809696
-0.33568245 -0.2315693 -0.18300927 -0.37831026 0.08218892 -0.28517717 -0.33244914 0.0568897
0.27180666 -0.00958352 0.5451647 0.07076918 0.27615896 0.49076635 -0.30203906 -0.05303768
0.38036594 0.7047477 -0.23859937 -0.3950475 0.04208199 0.23856163 0.4422825 -0.22775373
-0.36436427 -0.1724186 -0.32351583 -0.14877704 -0.38703737 -0.54568774 -0.01642209 -0.64658767
-0.56923413
00000000: f813 e0be a899 61be 29ab 263e f3e4 e33e
00000010: 3f7a 243f 6ca4 d4be 3911 df3e 7b6a 253f
00000020: 66c9 8c3e e36b f4be 586e 8cbc 4938 9a3e
00000030: d367 1a3e 9591 8abe 6487 9cbe f5c2 2dbc
00000040: 43eb a4be 9977 aabe d027 bcbe 07ea 00be
00000050: a2b7 55be 03be a43e 58b1 44bf 13bc 90bd
00000060: a1f0 2bbe 494a 8fbe a851 7bbe 91f2 83bb
00000070: ef55 80be 9b36 6ebe c60b 5dbe fd0e a4be
00000080: 7377 ca3d ea41 06bd 0e2e cdbe fa54 523d
00000090: 8220 3b3f 0fd0 ac3f cd8a af3f cbb3 92bf
000000a0: 1f5f 9c3e 534c b13f 6795 93bf f12b c03f
000000b0: 6276 693f 5079 77bb 300f 5c3d adec 473d
000000c0: 92de abbe 8120 6dbe c866 3bbe e2b1 c1be
000000d0: aa52 a83d be02 92be c636 aabe 2d05 693d
000000e0: 3e2a 8b3e 3204 1dbc ea8f 0b3f 6fef 903d
000000f0: b564 8d3e ba45 fb3e dda4 9abe 0a3e 59bd
00000100: 53bf c23e 586a 343f 6553 74be aa43 cabe
00000110: 2a5e 2c3d 8049 743e da72 e23e 4638 69be
00000120: f48d babe 808e 30be dea3 a5be 0259 18be
00000130: c329 c6be 31b2 0bbf 9e87 86bc c586 25bf
00000140: 54b9 11bf

raise_dim.0.attention1.4.bias f4 [9]
-0.1016479 -0.08739989 0.02967718 0.25370383 1.3209686 0.27104214 0.13200636 0.5358325
0.09875225
00000000: c62c d0bd b7fe b2bd 8f1d f33c 78e5 813e
00000010: 8015 a93f 09c6 8a3e ad2c 073e 522c 093f
00000020: 9f3e ca3d

raise_dim.0.attention3.1.weight f4 [32, 9, 1, 1]
-0.038580555 -0.09717474 0.079291746 0.12184551 -0.3420896 0.35513258 0.27295524 -0.37248006
0.25273514 0.19128135 0.0003859298 0.23858498 -0.023513649 -0.376007 -0.01368583 0.30737802
-0.32249463 0.13305686 -0.0059950203 -0.066406086 -0.006923951 0.10049269 -0.28247157 0.092602976
0.12303205 0.20032942 0.3024788 -0.028335009 -0.13327646 -0.021709256 -0.15056507 0.15836954
0.28202316 -0.12812006 0.09233112 0.42549652 -0.3649854 -0.22979903 0.15634464 0.15892407
0.020339629 -0.28234333 -0.07093432 -0.1830198 -0.25901926 -0.45206073 0.3688751 0.17666396
0.06636425 -0.048864886 0.2792354 -0.10456584 0.2514867 -0.1118822 -0.0022109854 0.0795964
0.12621188 -0.117221005 0.24297911 -0.06641926 0.23519716 0.1931119 -0.013418591 0.16801096
0.08475286 0.20189461 -0.22554119 -0.04553369 -0.0477327 0.56589144 -0.4147755 -0.11381661
0.030789152 0.17269114 0.2026955 -0.31396565 -0.3711537 0.37046394 0.19703321 -0.35901308
-0.11591708 0.1889576 -0.14940226 -0.3095138 -0.26690882 -0.09539203 0.07695579 0.19480075
0.020750567 -0.091902114 -0.12995462 -0.42367542 0.14720173 0.23921612 0.26299194 0.12139928
0.043988947 -0.18820255 0.18325087 -0.24402922 0.25284135 -0.15260428 -0.25215164 0.103180066
-0.03645489 -0.24326058 0.2371408 0.007662833 0.021211013 -0.24231684 -0.33544087 0.016764216
-0.15914316 -0.15745889 0.39103246 -0.14844142 0.18848537 -0.092387 -0.09831588 0.16828923
-0.20601237 0.09602611 -0.26585722 0.20511524 -0.04494273 0.36636 0.20631483 0.2284046
0.1413179 0.011188146 -0.072551124 -0.045880456 0.02327913 -0.42056173 0.4046998 -0.02574405
0.33078247 -0.01510302 0.07361775 -0.20249505 -0.46278068 0.42728528 0.15566346 0.2719405
-0.35016638 0.20319512 -0.29172918 -0.06452079 0.009802938 -0.25073844 -0.24047178 0.093421616
0.3081509 0.3333713 -0.2915578 -0.092389226 -0.32459953 -0.29396456 0.00334428 0.45686626
-0.23803775 0.05283678 0.21202216 -0.021800712 0.11736589 0.10757236 0.23568146 -0.18843168
-0.504774 -0.20169623 -0.19113326 0.3557915 0.18451613 0.17757058 -0.15526694 -0.20056039
0.32220095 -0.08904043 -0.3475806 -0.042945273 -0.0491066 -0.0010476499 0.1471787 0.18245043
-0.2073987 -0.015926702 -0.3626646 0.2894643 0.00650403 0.17294514 0.3635447 0.19635253
-0.38494903 0.044055697 -0.19112462 0.17956057 -0.124539144 0.38987693 -0.11549659 -0.423528
0.021853361 0.18979436 0.17514624 0.34024453 0.29324827 0.07799243 -0.103871495 -0.034023885
-0.09885284 0.09692393 -0.1955194 0.18008895 0.11964922 0.42413202 -0.46947396 0.4172022
-0.30832532 -0.12696192 0.16916499 0.05069977 -0.18085353 0.08783712 -0.6316787 0.19753075
0.043791223 0.02614758 0.06097755 -0.009098166 -0.117190026 -0.040628366 -0.017583355 -0.4629209
-0.20523262 -0.15071921 -0.16040796 -0.20400934 -0.015030778 -0.1679155 0.45734152 -0.06292566
-0.35739094 0.04633174 -0.25726837 0.23165843 0.27073312 -0.1075404 -0.0724347 0.25608805
-0.14513588 0.17514448 -0.32842243 -0.30305097 -0.120050065 -0.2832687 0.114447206 -0.047912817
00000000: a506 1ebd 8d03 c7bd b663 a23d 248a f93d
00000010: 5e26 afbe f0d3 b53e cac0 8b3e b5b5 bebe
00000020: 8066 813e 42df 433e 9f56 ca39 9f4f 743e
00000030: b29f c0bc fd83 c0be 883a 60bc a760 9d3e
00000040: 041e a5be 0f40 083e e071 c4bb eaff 87bd
00000050: 50e2 e2bb 1dcf cd3d 1da0 90be a1a6 bd3d
00000060: 3af8 fb3d 2823 4d3e 80de 9a3e d21e e8bc
00000070: a079 08be 9cd7 b1bc bb2d 1abe a02b 223e
00000080: 5765 903e e831 03be 1918 bd3d aeda d93e
00000090: 5edf babe 7050 6bbe cf18 203e febc 223e
000000a0: 4b9f a63c 4e8f 90be 0346 91bd 8b69 3bbe
000000b0: 2c9e 84be 8174 e7be 32dd bc3e 66e7 343e
000000c0: fbe9 873d 8c26 48bd f1f7 8e3e 9d26 d6bd
000000d0: ddc2 803e 7f22 e5bd 2ee6 10bb 7003 a33d
000000e0: b03d 013e 9111 f0bd 84cf 783e d206 88bd
000000f0: 86d7 703e 20bf 453e a6d9 5bbc 110b 2c3e
00000100: e892 ad3d 76bd 4e3e 45f4 66be 8981 3abd
00000110: 5d83 43bd 43de 103f 745d d4be af18 e9bd
00000120: 8839 fc3c f2d5 303e 698f 4f3e 1bc0 a0be
00000130: dc07 bebe 73ad bd3e 13c3 493e 90d0 b7be
00000140: ef65 edbd 1a7e 413e e8fc 18be 9878 9ebe
00000150: 46a8 88be e65c c3bd ff9a 9d3d d979 473e
00000160: 18fd a93c 2d37 bcbd d312 05be fceb d8be
00000170: 0dbc 163e 12f5 743e e1a6 863e 30a0 f83d
00000180: c12d 343d 2bb8 40be 1ea6 3b3e cce2 79be
00000190: 6c74 813e 4c44 1cbe 051a 81be 1250 d33d
000001a0: b951 15bd 4d19 79be 0ad5 723e 8118 fb3b
000001b0: b8c2 ad3c e821 78be e8be abbe 1c55 893c
000001c0: 6df6 22be e73c 21be 6835 c83e 0701 18be
000001d0: 4f02 413e 6535 bdbd d659 c9bd 0354 2c3e
000001e0: e8f4 52be 56a9 c43d 701e 88be bb09 523e
000001f0: de15 38bd 8a93 bb3e 3244 533e e5e2 693e
00000200: a4b5 103e 7c4e 373c af95 94bd 25ed 3bbd
00000210: e0b3 be3c de53 d7be d034 cf3e 30e5 d2bc
00000220: 525c a93e a872 77bc e7c4 963d dd5a 4fbe
00000230: 97f1 ecbe 23c5 da3e 3e66 1f3e c93b 8b3e
00000240: 0249 b3be 6212 503e 875d 95be 7a23 84bd
00000250: 819c 203c ca60 80be 3c3e 76be d553 bf3d
00000260: f4c5 9d3e a5af aa3e 1047 95be 9036 bdbd
00000270: e931 a6be 8682 96be b52b 5b3b 60ea e93e
00000280: 2bc0 73be 616b 583d 561c 593e 6897 b2bc
00000290: 875d f03d e64e dc3d 7b56 713e 3cf4 40be
000002a0: de38 01bf 7589 4ebe 70b8 43be 4e2a b63e
000002b0: ccf1 3c3e 10d5 353e 4cfe 1ebe b45f 4dbe
000002c0: 86f7 a43e d45a b6bd 16f6 b1be 62e7 2fbd
000002d0: 0124 49bd 4c51 89ba 03b6 163e 49d4 3a3e
000002e0: 5360 54be b778 82bc 2daf b9be aa34 943e
000002f0: c21f d53b 8818 313e 8822 ba3e a310 493e
00000300: 0a18 c5be bf73 343d 2cb6 43be bade 373e
00000310: 610e ffbd f39d c73e 7a89 ecbd a9d8 d8be
00000320: d205 b33c 7459 423e 8959 333e 8834 ae3e
00000330: a324 963e 7fba 9f3d 94ba d4bd a15c 0bbd
00000340: 5c73 cabd 0e80 c63d 3d36 48be 3d69 383e
00000350: a60a f53d d527 d93e e45e f0be 879b d53e
00000360: d1dc 9dbe 4e02 02be 9639 2d3e 90aa 4f3d
00000370: ab31 39be f3e3 b33d b2b5 21bf 8045 4a3e
00000380: 6d5e 333d 7333 d63c 98c3 793d 7910 15bc
00000390: 5301 f0bd ee69 26bd f80a 90bc f803 edbe
000003a0: 8028 52be 2356 1abe fc41 24be d3e7 50be
000003b0: a743 76bc 0af2 2bbe ab28 ea3e 2bdf 80bd
000003c0: f2fb b6be 5ac6 3d3d aeb8 83be de37 6d3e
000003d0: 889d 8a3e 243e dcbd a558 94bd f91d 833e
000003e0: 809e 14be 1359 333e fc26 a8be 7f29 9bbe
000003f0: cfdc f5bd 9808 91be 4c63 ea3d 3b40 44bd

raise_dim.0.attention3.1.bias f4 [32]
-0.07503628 -0.03278516 -0.1961369 -0.22193429 0.028750742 -0.0088232905 -0.2807867 0.013990018
0.10688836 0.103027694 0.24613291 -0.028396593 0.11858907 -0.16761337 -0.04024435 -0.14080189
-0.024652276 0.13022885 0.06282333 -0.09722568 -0.056718886 -0.04971113 -0.16869065 -0.12448632
0.048300836 0.055015706 0.21296465 -0.12014763 0.098489046 -0.07765366 -0.08208045 -0.12681678
00000000: 9fac 99bd bb49 06bd 1dd8 48be be42 63be
00000010: ad86 eb3c 908f 10bc 46c3 8fbe 6336 653c
00000020: 49e8 da3d 2f00 d33d 440a 7c3e f99f e8bc
00000030: d4de f23d d7a2 2bbe 42d7 24bd 5f2e 10be
00000040: 92f3 c9bc b65a 053e 85a9 803d 421e c7bd
00000050: 1052 68bd e69d 4bbd 3ebd 2cbe aff2 febd
00000060: 19d7 453d 2658 613d 6813 5a3e f60f f6bd
00000070: a0b4 c93d e208 9fbd cc19 a8bd 42dc 01be

raise_dim.0.attention3.3.weight f4 [32, 32, 1, 1]
0.0279408 -0.0030471336 -0.028993636 -0.15653425 0.16260546 -0.2735077 -0.1143391 0.15355532
0.19502468 0.10839535 -0.08493193 -0.131855 0.21441509 0.054850787 0.27123693 -0.02402841
0.051196422 0.20075737 0.112473086 0.001567433 -0.15829216 0.030561198 0.0007520256 -0.06892938
-0.20176391 0.05148519 0.32459745 0.089528695 -0.009957127 -0.14702278 -0.14043927 0.07696463
-0.019090062 0.012617018 0.08728117 0.057225697 0.029474739 -0.06746314 -0.029626949 0.12166447
0.028615337 -0.076177806 -0.017833548 -0.02586883 0.010143437 0.030273497 -0.07800584 0.008951842
0.12424046 0.053342037 -0.027261904 -0.05123378 0.07038848 -0.043642983 -0.0750283 -0.022490654
0.031273603 0.080587424 -0.101182766 -0.045885924 0.09249147 -0.04291407 -0.011766965 -0.017687613
0.101050355 0.045680802 0.062838644 0.07704099 -0.124794304 0.19288696 -0.037558462 -0.19814463
-0.052641015 -0.116708726 0.04523764 0.06531543 -0.0130163245 -0.0073222355 0.0743026 0.17154095
-0.010109541 -0.12125932 -0.06236779 0.013435367 0.097511634 0.037590183 -0.0032964686 0.09434995
-0.119698174 -0.06169979 0.04063652 -0.2857342 -0.037881296 0.07050782 -0.15431777 -0.20110127
-0.1147954 0.016878894 -0.062593915 -0.041436076 0.011521509 0.11946585 -0.011435491 -0.09755665
-0.06763203 -0.038631376 -0.12990281 -0.023923445 -0.08138452 -0.021725088 -0.14102654 0.06700723
0.13507637 -0.10562429 -0.03006742 0.043297492 0.035029694 -0.13181064 -0.03072428 -0.057957828
0.048312854 0.005007521 0.06332325 0.06823026 0.015920673 -0.07037589 0.069584966 0.07158034
0.1689817 0.15582891 0.13172622 0.007607899 -0.07378075 0.001544753 -0.040302277 0.22661626
0.10264247 0.13942099 0.10955205 0.020249866 0.07354367 0.16718838 0.0677087 -0.112782665
-0.06099777 0.1299955 -0.035056908 -0.041119944 -0.09272077 0.18085809 -0.11200209 -0.16267285
-0.057960846 -0.07955868 -0.14301114 0.013805613 -0.12635545 0.086471066 -0.11330073 -0.0640258
-0.08813789 -0.04938562 -0.014665389 -0.122188844 0.054125197 0.048117533 -0.20159994 -0.734805
0.20788297 -0.14745185 -0.14791739 0.14571255 -0.1900141 0.061577752 -0.20687321 -0.35819206
-0.09421551 -0.22214669 0.08245805 -0.020949557 0.37516642 -0.85821253 0.23171254 -0.3538993
0.16935514 0.09843085 0.13349988 -0.06619036 0.043677617 0.052794825 0.045381945 0.0492826
-0.1719204 -0.117065966 -0.002379946 -0.069605924 -0.1303729 0.3356342 0.18040982 0.22562014
0.009690616 -0.059494406 0.1537285 0.07327068 -0.055598818 -0.22737059 -0.22182675 -0.0034880103
-0.12018967 -0.021551043 -0.03806532 -0.110219814 0.15000103 -0.20264564 -0.27008379 0.044644743
0.012743009 -0.17430378 0.06561743 0.28793895 0.18912143 -0.5009198 0.30327037 -0.00522387
0.11680425 0.21758471 -0.12055551 -0.12050583 -0.026902769 -0.05292623 -0.060112707 0.22126691
-0.01331794 0.017589262 0.2151587 -0.1180858 0.25572497 -0.13386758 0.10303705 -0.071524926
-0.20889963 0.16722615 -0.0007600634 0.00053555844 -0.043417633 -0.039849717 -0.071684614 -0.073523484
-0.05368045 -0.003489281 -0.0014062525 0.04731307 -0.0151459165 0.042761903 0.022613559 -0.04810535
00000000: 1be4 e43c 6bb2 47bb 1084 edbc 844a 20be
00000010: 0c82 263e 3409 8cbe 9e2a eabd 9b3d 1d3e
00000020: 8db4 473e 62fe dd3d cbf0 adbd ff04 07be
00000030: a18f 5b3e 38ab 603d 91df 8a3e 3ad7 c4bc
00000040: 57b3 513d 5793 4d3e 4a58 e63d 5372 cd3a
00000050: 5717 22be 7a5b fa3c 9523 453a d92a 8dbd
00000060: 339b 4ebe 22e2 523d a331 a63e d25a b73d
00000070: 3823 23bc 248d 16be 50cf 0fbe a29f 9d3d
00000080: c362 9cbc 9cb7 4e3c 78c0 b23d 7e65 6a3d
00000090: 0275 f13c 1d2a 8abd 37b4 f2bc 392b f93d
000000a0: b66a ea3c 1c03 9cbd a917 92bc deea d3bc
000000b0: a930 263c 2000 f83c 87c1 9fbd bfaa 123c
000000c0: c871 fe3d 2e7d 5a3d 5b54 dfbc 83da 51bd
000000d0: d627 903d fcc2 32bd 70a8 99bd 523e b8bc
000000e0: c018 003d 050b a53d e938 cfbd e1f2 3bbd
000000f0: 2b6c bd3d aac6 2fbd 3aca 40bc 9de5 90bc
00000100: 7df3 ce3d cb1b 3b3d 8cb1 803d abc7 9d3d
00000110: 2894 ffbd 2984 453e e7d6 19bd 6de6 4abe
00000120: 1b9e 57bd fc04 efbd 1b4b 393d 19c4 853d
00000130: 6c42 55bc 5def efbb f62b 983d 6ea8 2f3e
00000140: 7da2 25bc ce56 f8bd 5e75 7fbd 0320 5c3c
00000150: 2eb4 c73d 2af8 193d 9109 58bb 8c3a c13d
00000160: 5124 f5bd ebb8 7cbd 7b72 263d c14b 92be
00000170: 6b29 1bbd 6766 903d 7a05 1ebe 7eed 4dbe
00000180: da19 ebbd 9b45 8a3c 3d31 80bd e0b8 29bd
00000190: b6c4 3c3c 83aa f43d ed5b 3bbc c8cb c7bd
000001a0: a982 8abd ef3b 1ebd 3e05 05be 1afb c3bc
000001b0: edac a6bd d0f8 b1bc 4369 10be 163b 893d
000001c0: 7651 0a3e 8c51 d8bd f34f f6bc b658 313d
000001d0: 4c7b 0f3d 5ef9 06be 7cb1 fbbc 3065 6dbd
000001e0: b3e3 453d 2116 a43b 9faf 813d 4ebc 8b3d
000001f0: 126c 823c 3c21 90bd 9082 8e3d b798 923d
00000200: 8a09 2d3e 9d91 1f3e 3de3 063e af4b f93b
00000210: 5d1a 97bd 4f79 ca3a 0014 25bd 180e 683e
00000220: 3736 d23d 60c4 0e3e d35c e03d 0ce3 a53c
00000230: 109e 963d 6e33 2b3e dcaa 8a3d 99fa e6bd
00000240: ccd8 79bd 8a1d 053e d597 0fbd 636d 28bd
00000250: 63e4 bdbd dd32 393e 5a61 e5bd b693 26be
00000260: 5a68 6dbd a9ef a2bd 8371 12be f030 623c
00000270: 5363 01be be17 b13d 370a e8bd f51f 83bd
00000280: a381 b4bd 9348 4abd 1a47 70bc 253e fabd
00000290: 62b2 5d3d e416 453d 3770 4ebe 2e1c 3cbf
000002a0: 46df 543e 9efd 16be a877 17be ac35 153e
000002b0: 0e93 42be f438 7c3d 92d6 53be f364 b7be
000002c0: 10f4 c0bd 6c7a 63be c4df a83d 689e abbc
000002d0: d015 c03e d1b3 5bbf 0d46 6d3e 4a32 b5be
000002e0: 6f6b 2d3e 1d96 c93d 31b4 083e d08e 87bd
000002f0: 4de7 323d 633f 583d 6be2 393d 8ddc 493d
00000300: e70b 30be 48c0 efbd def8 1bbb 8d8d 8ebd
00000310: 7980 05be 3fd8 ab3e 5abd 383e f708 673e
00000320: 64c5 1e3c 68b0 73bd 016b 1d3e f00e 963d
00000330: 96bb 63bd d6d3 68be 8d26 63be 1a97 64bb
00000340: 0026 f6bd d08b b0bc 62ea 1bbd edba e1bd
00000350: df99 193e 5782 4fbe 6c48 8abe 68dd 363d
00000360: 0ec8 503c b17c 32be 6e62 863d bc6c 933e
00000370: 0ca9 413e 483c 00bf 4146 9b3e ff2c abbb
00000380: 1137 ef3d 87ce 5e3e cfe5 f6bd c3cb f6bd
00000390: 3263 dcbc 2dc9 58bd be38 76bd cb93 623e
000003a0: 7d33 5abc 5b17 903c 9052 5c3e f8d6 f1bd
000003b0: 62ee 823e 9514 09be 1705 d33d a97b 92bd
000003c0: c9e9 55be 553d 2b3e fe3e 47ba b864 0c3a
000003d0: b0d6 31bd 7539 23bd 62cf 92bd 7b93 96bd
000003e0: 08e0 5bbd 6cac 64bb 0152 b8ba 5acb 413d
000003f0: 9426 78bc 1b27 2f3d 1240 b93c 1e0a 45bd

raise_dim.0.attention3.3.bias f4 [32]
-0.070493296 -0.006493087 0.055213284 0.14227276 0.045234226 -0.024069425 -0.054180622 0.014301821
-0.01943673 -0.070174925 0.037724454 0.041710716 0.042690635 -0.14929532 0.028042097 0.13807526
0.0035619815 -0.14009155 0.0063251066 0.04413351 -0.15042977 -0.017872663 -0.066212215 0.0094901435
0.020315468 -0.012829277 0.09335405 -0.30945075 -0.07008312 -0.021196892 -0.08270441 0.017697765
00000000: ca5e 90bd f6c3 d4bb 5327 623d f3af 113e
00000010: 8647 393d 3e2d c5bc 80ec 5dbd 2f52 6a3c
00000020: c739 9fbc dfb7 8fbd f584 1a3d dbd8 2a3d
00000030: 60dc 2e3d dfe0 18be 8ab8 e53c 9a63 0d3e
00000040: 2270 693b 2974 0fbe d742 cf3b 57c5 343d
00000050: 430a 1abe b169 92bc 459a 87bd 8c7c 1b3c
00000060: a06c a63c e331 52bc 6830 bf3d 5470 9ebe
00000070: bd87 8fbd 1ba5 adbc ee60 a9bd e7fa 903c

layers.0.conv1.weight f4 [32, 32, 3, 3]
-0.1363163 0.016924959 0.030854873 -0.025868725 0.0016641163 -0.06210882 0.19839038 -0.007971624
0.020202251 -0.010292226 -0.04130898 0.008647446 -0.016289324 0.021757238 0.15566581 0.21370377
-0.087300144 -0.073187314 -0.32405692 -0.37001806 -0.2165117 -0.027690709 0.042413384 0.04431226
0.07879646 -0.16390389 -0.51537925 -0.13658339 0.045632396 0.37040037 -0.3678588 0.29219493
0.32353345 -0.038165007 -0.008660432 0.2604575 0.06712183 0.009212098 0.02233835 -0.081555076
-0.13416857 0.053880613 -0.06978161 -0.1322093 -0.25957188 0.017605247 0.088393755 0.084917665
-0.055149425 0.20513551 -0.15376611 0.21979862 -0.011222438 0.3977828 -0.2104977 -0.2163639
-0.7607118 0.006231144 0.2394281 -0.26175606 0.16773771 0.21970686 -0.1051535 0.47964057
-0.2130938 -0.16917221 0.015553235 0.009375767 -0.5336811 0.603586 -0.15873198 0.16810198
0.18672578 0.15032099 0.030910848 0.23720272 0.1290312 -0.05918597 0.09406709 -0.086469226
-0.15181047 0.06420817 0.0982416 -0.11084335 0.27000928 0.057695877 0.16244629 0.03260273
0.060446143 0.1625268 0.21358629 0.07291306 -0.29021478 -0.031062512 -0.2759176 -0.07212003
-0.12830934 0.009424029 0.1717975 -0.1802047 -0.419502 -0.26428542 -0.09366176 -0.42349234
-0.44921404 0.3392306 -0.090610094 -0.26065338 0.11934292 -0.12902045 -0.21371132 0.124638215
-0.16124368 -0.062533505 0.2079269 -0.08204994 0.0022307283 -0.43016678 -0.26008147 -0.29570612
-0.4672181 -0.11459918 -0.39787593 -0.4655218 -0.46094656 -0.35552263 0.343367 0.06996784
0.20652293 0.089008644 0.25084305 -0.1923707 0.22048287 -0.0011240721 -0.13090396 0.021493115
-0.0015871561 0.17751189 0.26187456 0.17301823 -0.18046707 0.15740937 -0.2164824 -0.41207674
-0.22967175 -0.079412505 -0.09386409 -0.012623745 -0.008065132 0.15413669 0.06219844 0.30953443
-0.009544572 -0.039663147 0.035936035 0.19262142 -0.29716215 -0.07933827 0.23331097 -0.08480508
-0.2081275 0.14882413 0.27505243 0.17517908 0.119213015 0.12384617 -0.3369562 0.16269192
-0.0717644 0.015892014 0.0038773739 0.069574535 -0.02729903 0.022409143 0.19499683 -0.085946865
-0.11563692 0.19741085 0.023404744 -0.05514702 -0.24914882 -0.097111516 -0.32626933 -0.10140694
0.09814318 0.20416848 -0.08537085 0.029763335 0.7038936 1.0350881 -0.23062007 0.094904155
0.056271445 0.14022776 -0.10252588 -0.067275606 0.07440859 -0.38683125 -0.089038804 0.014927114
0.29738894 -0.2601418 -0.06660177 0.31539494 -0.057248972 0.16261663 0.20154661 0.15867247
0.089654095 0.086845495 0.07058824 -0.000253695 -0.27407372 0.04638137 -0.09381125 -0.15210055
0.057254393 0.121455364 0.08990622 0.42179254 0.12455954 -0.3029481 -0.20157093 -0.1692545
-0.16858448 0.0011289478 0.15967941 0.2515625 -0.010076154 0.045931123 0.21806496 -0.107165284
0.018548708 0.10138585 -0.08322289 -0.25167254 0.104135446 -0.021130566 -0.13810249 -0.09154073
0.04599401 0.14834997 -0.13135986 0.65353143 0.5920917 0.41016015 0.30866253 -0.21486714
0.34406984 0.45403382 0.0012988683 0.3994419 0.079087324 -0.0817654 -0.26781428 -0.34711504
00000000: 8096 0bbe 36a6 8a3c 5cc3 fc3c a6ea d3bc
00000010: 7a1e da3a d165 7ebd d926 4b3e 6a9b 02bc
00000020: 317f a53c baa0 28bc 9b33 29bd 04ae 0d3c
00000030: 3071 85bc 3c3c b23c dc66 1f3e 29d5 5a3e
00000040: 6bca b2bd 3be3 95bd caea a5be 0273 bdbe
00000050: 3eb5 5dbe a0d7 e2bc a8b9 2d3d c680 353d
00000060: 0a60 a13d 6cd6 27be e5ef 03bf 84dc 0bbe
00000070: 09e9 3a3d 1ea5 bd3e fd57 bcbe 939a 953e
00000080: 2da6 a53e e952 1cbd 7ce4 0dbc af5a 853e
00000090: 2c77 893d 57ee 163c eafe b63c 5906 a7bd
000000a0: 7c63 09be ebb1 5c3d a9e9 8ebd e061 07be
000000b0: 9be6 84be e138 903c c907 b53d 50e9 ad3d
000000c0: 5de4 61bd 0b0f 523e dd74 1dbe e412 613e
000000d0: 51de 37bc 30aa cb3e b68c 57be 808e 5dbe
000000e0: 02be 42bf a02e cc3b a42c 753e e404 86be
000000f0: 6fc3 2b3e d6fa 603e b85a d7bd 7393 f53e
00000100: 4335 5abe 7b3b 2dbe ffd2 7e3c d19c 193c
00000110: 539f 08bf 9d84 1a3f a38a 22be ed22 2c3e
00000120: 0b35 3f3e bfed 193e bf38 fd3c 45e5 723e
00000130: c120 043e fd6c 72bd 3fa6 c03d c716 b1bd
00000140: 3474 1bbe 937f 833d e432 c93d d701 e3bd
00000150: a83e 8a3e 8352 6c3d 5258 263e 718a 053d
00000160: 6096 773d 6d6d 263e 5db6 5a3e 7153 953d
00000170: 0897 94be cf76 febc 1245 8dbe abb3 93bd
00000180: 8663 03be 3e67 1a3c afeb 2f3e 9587 38be
00000190: f7c8 d6be 6b50 87be bdd1 bfbd fdd3 d8be
000001a0: 62ff e5be a2af ad3e c991 b9bd 5c74 85be
000001b0: 106a f43d f01d 04be 24d7 5abe 5242 ff3d
000001c0: 101d 25be 9111 80bd caea 543e cd09 a8bd
000001d0: 6931 123b d23e dcbe 6629 85be cb66 97be
000001e0: 3637 efbe fab2 eabd 65b6 cbbe e058 eebe
000001f0: 3001 ecbe 1007 b6be cdcd af3e 4d4b 8f3d
00000200: bf7a 533e 2a4a b63d 806e 803e d3fc 44be
00000210: 43c6 613e 9a55 93ba b00b 06be 5412 b03c
00000220: 1f08 d0ba adc5 353e 6c14 863e b12b 313e
00000230: 5ccc 38be ec2f 213e 90ad 5dbe b9fb d2be
00000240: 122f 6bbe 06a3 a2bd d13b c0bd d3d3 4ebc
00000250: 9e23 04bc 02d6 1d3e cbc3 7e3d 4c7b 9e3e
00000260: d660 1cbc d375 22bd aa31 133d 8d3e 453e
00000270: a325 98be 1a7c a2bd 12e9 6e3e 49ae adbd
00000280: 601f 55be 5a65 183e acd3 8c3e 2562 333e
00000290: f425 f43d 10a3 fd3d 8685 acbe b698 263e
000002a0: 37f9 92bd f82f 823c 8a1b 7e3b 187d 8e3d
000002b0: 37a2 dfbc 6193 b73c 40ad 473e e904 b0bd
000002c0: 0dd3 ecbd 1226 4a3e 4ebb bf3c d7e1 61bd
000002d0: de20 7fbe 67e2 c6bd c60c a7be 71ae cfbd
000002e0: 4bff c83d 8b11 513e ead6 aebd 3dd2 f33c
000002f0: 5f32 343f c47d 843f ab27 6cbe 1c5d c23d
00000300: e37c 663d de97 0f3e 17f9 d1bd cbc7 89bd
00000310: 8863 983d bf0e c6be fa59 b6bd db90 743c
00000320: 5d43 983e 4e31 85be 8266 88bd 727b a13e
00000330: e67d 6abd f984 263e 3c62 4e3e 097b 223e
00000340: 919c b73d 0ddc b13d 9190 903d 5e02 85b9
00000350: 6453 8cbe 64fa 3d3d 1d20 c0bd 3fc0 1bbe
00000360: 9583 6a3d 97bd f83d c120 b83d 31f5 d73e
00000370: 1219 ff3d 031c 9bbe 9c68 4ebe 0d51 2dbe
00000380: 69a1 2cbe 34f9 933a 0083 233e cdcc 803e
00000390: 7416 25bc 4622 3c3d 6c4c 5f3e 7979 dbbd
000003a0: 76f3 973c 62a3 cf3d c370 aabd 39db 80be
000003b0: f744 d53d 021a adbc bd6a 0dbe b579 bbbd
000003c0: 3764 3c3d 0ee9 173e 3383 06be d64d 273f
000003d0: 5293 173f 8300 d23e 0409 9e3e 2206 5cbe
000003e0: ec29 b03e 1f77 e83e ca3e aa3a a683 cc3e
000003f0: 89f8 a13d 9e74 a7bd f41e 89be 10b9 b1be

layers.0.conv1.attention1.0.weight f4 [9, 32, 3, 3]
0.087535694 0.20053926 0.07632717 0.074973375 0.0343526 -0.026576621 -0.031612616 -0.0513845
-0.10272162 -0.14120278 -0.07176966 -0.028783476 0.006582539 0.24643621 0.10356558 -0.062038172
0.13630281 0.1345011 0.33355662 -0.16614513 0.5266809 -0.3917813 -0.078869194 0.03259045
0.4595922 0.47511047 0.18742123 0.3499567 -0.4061711 0.22312452 -0.12567057 -0.09666354
-0.33864394 0.2946745 -0.18546158 0.115266524 0.44029528 0.3267445 0.4087932 0.35518843
-0.21999657 0.17037429 0.36769506 -0.038887497 0.30551085 0.083486505 -0.27241597 0.12340723
-0.7288041 0.25013468 -0.38252765 -0.18175055 -0.5360366 -0.27566856 0.39283925 0.06616957
-0.00020502822 -0.6099341 -0.53987 -0.6901017 -0.3862084 0.2856708 -0.0052708467 0.3106319
-0.60807407 0.2556185 -0.5584908 -0.20179632 0.0025828036 -0.21047573 -0.07362297 0.044283234
-0.14391625 -0.32589132 -0.46562803 0.029682968 -0.5636847 -0.830352 0.008423796 -0.5743828
0.054054808 -0.13551156 -0.20800717 -0.67063594 0.020228818 0.113939844 -0.35946214 -0.23194347
-0.19641945 -0.22072393 0.15406749 0.11442241 -0.05636248 -0.11001987 -0.17578447 -0.053793713
0.10811094 0.07007045 0.34428734 0.34321114 -0.031888507 0.08515385 0.1806975 -0.2608272
0.028394366 0.08350134 -0.14011338 0.04529474 0.11738163 0.0663342 0.06815658 0.14940354
-0.09333455 0.03821554 0.20855436 -0.0049445457 0.22066881 0.57159024 0.14845446 0.22941405
0.5204406 0.26162288 0.10269931 0.37750202 0.19646119 -0.18413201 0.044915948 -0.31402224
0.34027243 0.2668266 -0.37316525 -0.45048216 0.66295487 -0.08994739 0.36527994 0.6305059
0.25562122 0.29355228 0.324045 0.32210442 0.3310892 0.37157652 0.17641199 0.3280675
0.25304994 0.10297172 -0.031884197 0.2238039 -0.30679005 0.10303282 0.6551662 0.086272724
0.2005665 0.15851568 0.11044509 0.045520235 -0.039773405 0.32002884 0.19604664 0.08379563
0.050503787 0.12485618 0.15939729 0.23186465 0.22622965 0.34302568 -0.5633568 0.04701486
0.8390221 -0.5722567 -0.11251481 -0.031390905 -0.07878517 -0.04550648 -0.056072187 -0.07538788
-0.22917199 -0.12996805 -0.12294527 -0.10929235 -0.30612186 -0.38660797 -0.38792127 0.17267178
0.061343614 -0.1983228 -0.017873585 -0.06478117 -0.03430542 -0.12643394 0.055291653 0.80848485
-0.83307016 -0.46767986 0.126969 -0.063809656 0.32360893 0.94126326 0.13495578 0.2811184
0.14960243 0.03852161 0.10126356 0.1466213 -0.045395043 0.0759288 -0.02116801 0.09463536
-0.2446142 -0.25881714 -0.26405317 -0.1673907 -0.34852928 -0.028637629 -0.1906255 -0.1541761
-0.054064132 -0.31315798 -0.16523772 -0.06861209 -0.08983964 -0.39949602 -0.20772398 -0.18189876
0.24877933 0.13118182 0.10420533 0.014735489 -0.03529312 -0.1517438 -0.111306414 -0.116862744
-0.1878188 -0.1671426 0.093698874 0.037348986 0.34381074 0.15262528 -0.6086972 0.22092761
-0.35410357 -0.060184866 -0.15895179 0.81393135 0.46680114 0.058164157 -0.22808449 -0.29449677
-0.42151448 -0.29537404 0.07861469 -0.5432927 -0.16484275 -0.07816072 -0.09272205 -0.12643312
00000000: ea45 b33d 2a5a 4d3e 6b51 9c3d a48b 993d
00000010: 50b5 0c3d 37b7 d9bc 3b7c 01bd 8e78 52bd
00000020: b65f d2bd 7697 10be f9fb 92bd 53cb ebbc
00000030: 57b2 d73b c659 7c3e 311a d43d bd1b 7ebd
00000040: f792 0b3e a8ba 093e efc7 aa3e f321 2abe
00000050: 8fd4 063f 8f97 c8be 2c86 a1bd 907d 053d
00000060: ab4f eb3e ae41 f33e 5aeb 3f3e 862d b33e
00000070: a9f5 cfbe c17a 643e c9af 00be 89f7 c5bd
00000080: bd62 adbe 93df 963e a4e9 3dbe db10 ec3d
00000090: 626e e13e 0e4b a73e 584d d13e 42db b53e
000000a0: c846 61be 9976 2e3e 8742 bc3e 7f48 1fbd
000000b0: eb6b 9c3e f9fa aa3d 1b7a 8bbe eebc fc3d
000000c0: e892 3abf a711 803e aada c3be d11c 3abe
000000d0: b239 09bf 6e24 8dbe 3a22 c93e e983 873d
000000e0: d8fc 56b9 a424 1cbf ec34 0abf 81aa 30bf
000000f0: 1bbd c5be 7143 923e 11b7 acbb 250b 9f3e
00000100: beaa 1bbf 6ee0 823e 41f9 0ebf b2a3 4ebe
00000110: 4144 293b f386 57be a4c7 96bd 5662 353d
00000120: c85e 13be 3adb a6be cc66 eebe b229 f33c
00000130: a44d 10bf f391 54bf f603 0a3c c00a 13bf
00000140: 9368 5d3d 8bc3 0abe d5ff 54be ccae 2bbf
00000150: e8b6 a53c 4b59 e93d 6c0b b8be 9782 6dbe
00000160: 2e22 49be 7405 62be dec3 1d3e 4c56 ea3d
00000170: 58dc 66bd 1952 e1bd d800 34be cc56 5cbd
00000180: 4569 dd3d 1981 8f3d 6e46 b03e 5fb9 af3e
00000190: 869d 02bd 2465 ae3d c408 393e 258b 85be
000001a0: 4d9b e83c c002 ab3d e279 0fbe fa86 393d
000001b0: c865 f03d 3ada 873d ad95 8b3d 3efd 183e
000001c0: 2f26 bfbd e687 1c3d 468f 553e db05 a2bb
000001d0: 01f7 613e bd53 123f 7204 183e 84eb 6a3e
000001e0: 983b 053f 6ff3 853e 0454 d23d f247 c13e
000001f0: 1f2d 493e 1a8d 3cbe c9f9 373d 86c7 a0be
00000200: 3038 ae3e 7f9d 883e 840f bfbe 99a5 e6be
00000210: 69b7 293f 5636 b8bd f905 bb3e d668 213f
00000220: c9e0 823e 7c4c 963e 3ae9 a53e dfea a43e
00000230: 8684 a93e 473f be3e 58a5 343e 77f8 a73e
00000240: c38f 813e d6e2 d23d 0199 02bd d92c 653e
00000250: 9613 9dbe df02 d33d f9b8 273f c1af b03d
00000260: 4e61 4d3e ef51 223e 0931 e23d 6d73 3a3d
00000270: 70e9 22bd d2da a33e 73c0 483e 0b9d ab3d
00000280: 0fdd 4e3d 99b4 ff3d 0b39 233e ed6d 6d3e
00000290: bfa8 673e 10a1 af3e 2738 10bf a792 403d
000002a0: 27ca 563f 6a7f 12bf 2a6e e6bd c093 00bd
000002b0: 1f5a a1bd 0165 3abd f3ab 65bd f664 9abd
000002c0: 10ac 6abe 5816 05be bbca fbbd abd4 dfbd
000002d0: 01bc 9cbe 7bf1 c5be 9e9d c6be dfd0 303e
000002e0: 7143 7b3d 2215 4bbe a06b 92bc fdab 84bd
000002f0: d783 0cbd e677 01be 8079 623d ddf8 4e3f
00000300: 1644 55bf bc73 efbe 2904 023e a3ae 82bd
00000310: 12b0 a53e a1f6 703f d931 0a3e c0ee 8f3e
00000320: 6131 193e d6c8 1d3d 4563 cf3d e523 163e
00000330: 27f0 39bd 8f80 9b3d 8968 adbc 2fd0 c13d
00000340: 257c 7abe ae83 84be fa31 87be 7868 2bbe
00000350: 6e72 b2be 7699 eabc 5533 43be 57e0 1dbe
00000360: 5a72 5dbd 3e56 a0be 1434 29be 7f84 8cbd
00000370: d8fd b7bd be8a ccbe 98b5 54be ab43 3abe
00000380: 02c0 7e3e 8754 063e 9b69 d53d 1f6d 713c
00000390: 858f 10bd ba62 1bbe 9ef4 e3bd bc55 efbd
000003a0: 9253 40be 6e27 2bbe 32e5 bf3d 40fb 183d
000003b0: f607 b03e cd49 1c3e 94d3 1bbf d93a 623e
000003c0: 104d b5be 6884 76bd 42c4 22be ce5d 503f
000003d0: 8f00 ef3e 8a3d 6e3d fb8e 69be 48c8 96be
000003e0: bfd0 d7be 443b 97be bd00 a13d 3b15 0bbf
000003f0: 8acc 28be ba12 a0bd 0fe5 bdbd af77 01be

layers.0.conv1.attention1.0.bias f4 [9]
0.12753963 -0.4990054 0.09275219 0.3301896 0.28925118 0.8078339 0.17255758 0.19123583
-0.43173304
00000000: c099 023e a37d ffbe dcf4 bd3d 9c0e a93e
00000010: bb18 943e 34ce 4e3f efb2 303e 53d3 433e
00000020: 1d0c ddbe

layers.0.conv1.attention1.2.weight f4 [9, 9, 1, 1]
0.4620906 -0.5067322 0.25537157 0.15329352 -0.1867949 0.51094747 -0.19083442 0.1231445
-0.32911146 -0.46979368 -0.011239437 -0.34871316 0.26498377 0.076394 0.25343627 -0.2710461
1.1272401 0.0135998605 0.19025406 0.08335222 0.2382007 -0.120202065 1.2407205 -0.23551805
-0.25915548 -0.11643987 0.30704623 -0.3718678 -0.0112555735 -0.35937878 0.35001013 0.5291086
-0.30083534 0.27380544 -0.26747125 0.29484263 0.45463517 -0.008380507 0.40235186 -0.36680555
-0.054669775 -0.009286122 -0.08157341 0.3461409 -0.28371525 -0.26590085 -0.26256076 -0.69617957
0.13019595 0.70552796 0.45847446 0.6510201 -0.5713403 -0.26089206 -0.5648007 0.01599735
-0.27711886 0.47509235 0.49667007 0.30269304 0.5684868 -1.364612 -0.10874583 0.43523157
0.021093845 -0.038323194 -0.47872168 -0.6663472 0.015290933 -0.66808766 0.40415353 -0.067838304
0.04497361 -0.14961584 0.29847014 -0.16217309 -0.44347912 -0.20920703 -0.14661449 -0.047902055
0.15220097
00000000: 2497 ec3e 34b9 01bf 10c0 823e faf8 1c3e
00000010: 2a47 3fbe 74cd 023f 196a 43be 2f33 fc3d
00000020: 4c81 a8be cc88 f0be 9e25 38bc 888a b2be
00000030: f4ab 873e 7574 9c3d 66c2 813e 8ec6 8abe
00000040: 6749 903f f3d1 5e3c f6d1 423e 92b4 aa3d
00000050: e2ea 733e 802c f6bd eecf 9e3f a52b 71be
00000060: 07b0 84be 0778 eebd 2a35 9d3e 7565 bebe
00000070: 4c69 38bc 7f00 b8be 8734 b33e a973 073f
00000080: 1707 9abe 3a30 8c3e fef1 88be 9df5 963e
00000090: f1c5 e83e 654e 09bc 1001 ce3e f0cd bbbe
000000a0: 6aed 5fbd d224 18bc f60f a7bd 6139 b13e
000000b0: 2043 91be 2824 88be 5d6e 86be d338 32bf
000000c0: 1652 053e 7b9d 343f 2abd ea3e 41a9 263f
000000d0: 5c43 12bf a593 85be c796 10bf e00c 833c
000000e0: 86e2 8dbe 4e3f f33e 8a4b fe3e 95fa 9a3e
000000f0: 5a88 113f 9bab aebf 22b6 debd acd6 de3e
00000100: 00cd ac3c c8f8 1cbd 021b f5be bb95 2abf
00000110: d286 7a3c cb07 2bbf 36ed ce3e cfee 8abd
00000120: 4036 383d e534 19be 14d1 983e b410 26be
00000130: b20f e3be 5e3a 56be 1c22 16be f234 44bd
00000140: 92da 1b3e

layers.0.conv1.attention1.2.bias f4 [9]
0.53464574 -0.3162773 -0.17527042 0.45691416 -0.2489429 0.27573162 0.17913154 -0.7151048
-0.2859035
00000000: 8bde 083f 19ef a1be 177a 33be a7f0 e93e
00000010: e3ea 7ebe b22c 8d3e 426e 373e 1c11 37bf
00000020: f261 92be

layers.0.conv1.attention1.4.weight f4 [9, 9, 1, 1]
-0.4162147 -1.3878726 0.152333 -0.40048164 0.40907714 -0.28270057 0.10398458 0.11941955
0.17756172 -0.40354523 -0.628376 -0.32652235 -0.010547491 -0.015841883 -0.18440966 0.20026693
-0.5727106 0.021943167 -0.110883765 -0.36393133 -0.15336126 -0.09061203 0.13647689 0.031417802
-0.12648551 0.120659985 0.03737099 -0.5499175 -0.28202084 0.117685884 0.48819432 0.6196706
0.37740526 0.017145563 0.1330425 -0.27123737 0.37166953 -0.8841464 -0.602787 0.2046905
0.05136334 1.4567672 1.5109804 -1.4011533 -0.61119574 -0.34607685 0.05114544 0.18079065
0.10031654 -0.102484144 0.08794929 0.14848135 -0.4380129 0.013171771 -0.2739369 -0.9342312
0.5264427 -0.48400483 0.11070271 -0.15641478 -0.33987817 0.24077731 -0.02475367 -0.52136034
-0.029046327 -0.3240976 0.54063874 0.23235397 0.3357615 0.29437047 -0.26827008 0.23400524
-0.04432331 0.021202592 -0.22891894 -0.19898383 0.021466993 -0.28152257 -0.073493265 0.062134057
0.40179798
00000000: 181a d5be cfa5 b1bf 2ffd 1b3e ee0b cdbe
00000010: 8f72 d13e 21be 90be def5 d43d 3d92 f43d
00000020: bdd2 353e 7b9d cebe 40dd 20bf f02d a7be
00000030: 62cf 2cbc d6c6 81bc e3d5 3cbe c612 4d3e
00000040: 299d 12bf 28c2 b33c 0717 e3bd 3555 babe
00000050: bc0a 1dbe cd92 b9bd 99c0 0b3e f4af 003d
00000060: 6b85 01be 951c f73d 5312 193d 65c7 0cbf
00000070: 0965 90be 4c05 f13d 9bf4 f93e bca2 1e3f
00000080: 433b c13e da74 8c3c 4b3c 083e a0df 8abe
00000090: 784b be3e 6b57 62bf 4050 1abf 639a 513e
000000a0: 5e62 523d 5977 ba3f ce67 c13f fe58 b3bf
000000b0: 5377 1cbf fc30 b1be e27d 513d 2f21 393e
000000c0: c272 cd3d 35e3 d1bd c21e b43d 7f0b 183e
000000d0: 3a43 e0be 69ce 573c 7541 8cbe c729 6fbf
000000e0: f3c4 063f 7bcf f7be 1ab8 e23d 322b 20be
000000f0: 8304 aebe 548e 763e 35c8 cabc df77 05bf
00000100: 90f2 edbc 1ff0 a5be 4d67 0a3f 33ee 6d3e
00000110: eee8 ab3e bab7 963e b25a 89be 129f 6f3e
00000120: 5c8c 35bd 0fb1 ad3c ba69 6abe 6bc2 4bbe
00000130: 8cdb af3c ba23 90be a383 96bd 4880 7e3d
00000140: 77b8 cd3e

layers.0.conv1.attention1.4.bias f4 [9]
-0.1004196 0.27617022 -0.18632218 0.108575486 1.0033628 -0.093641065 -0.11043289 0.10908558
-0.40189347
00000000: cba8 cdbd 2f66 8d3e 3ecb 3ebe d35c de3d
00000010: 316e 803f e3c6 bfbd a42a e2bd 4368 df3d
00000020: fbc4 cdbe
