weights/model_epoch_lagconv600.pth (torch, 679460 bytes, 141 tensors)

raise_dim.0.weight f4 [32, 9, 3, 3]
00000000: 16df b0be a0a4 77be 7bd5 403c f760 e7bd
00000010: 91ea 8b3b 0797 dfbd 7f40 28bd b5f0 c2bb
00000020: e434 2b3e a6dd c0be 54f3 a2be a938 e4bd
00000030: e8d0 a0bd d5c1 a8be 02df 9fbe b620 7dbd
00000040: 1541 01be d639 1d3e 57e8 94be e86b 69be
00000050: 68f6 263d 579a aabc cf28 8dbe 204d 67bd
00000060: f85b e53d e413 413e 724d f73d f5da 1abe
00000070: 4b13 10be beb2 2a3e 4f87 edbd eec4 22be
00000080: 259d 893d bc6b 933d 3446 3d3e 7d60 963e
00000090: 9953 81be e629 91be 0396 c4bd 1a5a 893d
000000a0: ba04 b4bd 52c0 fc3b 11b7 e03e 285e 7f3e
000000b0: d1e5 3a3e 2a62 06be c9e3 87bd e630 393e
000000c0: acb0 66be 1212 cfbd 3156 f23d ac87 1dbe
000000d0: 2284 13bd f9cb 293e 8e17 95bc 0dbe cabc
000000e0: 4472 cd3d 4a01 28be 9729 143d 8acc 2c3e
000000f0: f912 833e 59c0 0d3e a1cd 853e eb0f 20be
00000100: 2177 57bd a4be 013e 6544 a9be 0806 d3bd
00000110: 09e2 983d 0cd4 f8bd c5d7 cdbd fe13 80bc
00000120: 271a 823d e66a 063e b019 903e 54e1 8bbd
00000130: ea06 66bd 3453 a33d 10dc 773e 911d e13d
00000140: 3e5c 7b3e e9ef 00be 171a 0b3d 1460 a43d
00000150: 0349 bfbd 1bfd e7be dfc1 ffbd a142 38be
00000160: f0f9 9fbd 9615 c43d c9e6 963d 7c00 93bd
00000170: 0bcf 063e 9014 14bd 770c ae3d 85c2 613d
00000180: 6f13 27bc 2b8b ecbd e846 3bbd 7b32 093c
00000190: d7ab 933d c910 c1ba cd92 143e 8ddb f73d
000001a0: b752 9abb 016c 343b 4470 343d ea19 1e3e
000001b0: 38a7 063e 29db d03d ff1d 953d 3804 7a3d
000001c0: 9a28 b93d 4e92 ee3d 078c bf3d 23e6 493d
000001d0: 040b 533e 21ee 27bd d259 2dbd eb60 c23d
000001e0: 8587 3d3e bac2 6f3e be91 f93d 5801 763d
000001f0: 4104 603d 7cd0 3a3e e0c2 003d 2a31 483d
00000200: cda1 abbd 8999 bd3d 5cd8 b23d 3ae1 4a3d
00000210: 7eea 7bba 0bfa ad3c eec3 903d 9b49 663e
00000220: 8eef 643e 6e64 f03d ef30 6d3e 7a43 be3e
00000230: 79f0 ac3e 1c9f b23d c68f 1b3e 8fa2 6c3e
00000240: 2d43 07be bf62 e9bd c831 76be 65ee 133d
00000250: 3888 3ebd 659a f7ba a617 efbc b5d4 d63d
00000260: 8f64 90bd e31f fdbd 4f01 96ba 5e23 2cbd
00000270: 66a6 ccbd 7379 d3bc 2c21 67bd db1c 97bc
00000280: 4162 bbbd e07b c5bc c0c8 60be 0480 97be
00000290: d79e 713e ecc5 cbbe af7d e8be 8245 58bd
000002a0: 275f eebd fc74 d03d 135e bd3d b4ac 0c3d
000002b0: 21f1 03bc b672 40be 8cc8 1f3d 8ac5 293d
000002c0: 92e5 3ebe 2979 96bd d24e 1bbd 02e2 2ebe
000002d0: 63a9 1ebb 6cbd 6abd 373f 4ebe 6bff 0dbd
000002e0: 1f22 f5bd 796f 58be 151b 2abd 71ca 48bc
000002f0: 9687 3dbe 6a3f 1c3e b3dd 20bc 828f 08be
00000300: 9e9b adbc 1a14 0bbe 8e86 34be 1590 383d
00000310: d991 25be 652e ccbd 0b49 143e a97d 6e3e
00000320: 661e 3e3d 7324 463e ecee 9c3e e3d1 0c3e
00000330: 7ce9 5ebb 8fc4 c43d 834b 2bbc d02d 2b3d
00000340: 1fbf 843e 6591 dd3c a4f1 abbd b27e 323d
00000350: b145 a8bb 0fe7 a53d 6c13 4abd 32f9 203b
00000360: 6cd1 123d 5db0 653e 0fd0 dfbd 26fb 053d
00000370: 9d73 503d 9a45 51bd 40b8 d03d a23b 0b3d
00000380: 7be9 f33d 835f 023e 3863 583e 630a aa3c
00000390: d98d dcbd 57c3 bb3d ab8b 1fbd 3f6c 583d
000003a0: 1a2b 2e3d 7446 d1bc fbca 3fbc 4118 083e
000003b0: a333 9cbd 7b5c 2cbe de26 8ebd eb2d 37be
000003c0: 3b53 6b3d f61f 08be a9da dbbd 70db ffbc
000003d0: a2c1 fc3d 8691 8e3d c3c4 893e 34c8 99be
000003e0: 4d27 0e3e 7531 54be 0c53 4d3e 8820 8bbd
000003f0: f237 5d3b 02a8 f83d 1ddf 403d 0684 88bd
-0.345452 -0.24183893 0.011769648 -0.112977915 0.004269906 -0.10917478 -0.041077133 -0.0059491047
0.16719395 -0.37669104 -0.3182627 -0.111436196 -0.07852346 -0.32960382 -0.3122483 -0.061798774
-0.12622483 0.15354094 -0.2908351 -0.22795069 0.040762335 -0.020825548 -0.27570197 -0.056470037
0.11199182 0.18855244 0.120753184 -0.15122588 -0.1406986 0.16669747 -0.11598074 -0.15895435
0.06719426 0.07198283 0.18483812 0.2937049 -0.25259092 -0.28352278 -0.09598925 0.06706639
-0.08789964 0.007713356 0.4388967 0.24938262 0.1825173 -0.13123384 -0.066352434 0.1808506
-0.22528332 -0.101108685 0.11832846 -0.15383786 -0.036014684 0.16581716 -0.018199708 -0.024748826
0.1003156 -0.16406742 0.036172476 0.168749 0.25600412 0.13842906 0.26133445 -0.15631072
-0.052603845 0.1267038 -0.33059993 -0.10303885 0.07464988 -0.1214982 -0.100509204 -0.015634533
0.063526444 0.13126716 0.28144598 -0.06830087 -0.056158938 0.07974854 0.24205041 0.109919675
0.24546906 -0.12591518 0.033960428 0.08026138 -0.09340098 -0.45310292 -0.1248815 -0.17994167
-0.07811344 0.0957443 0.073682375 -0.07177827 0.13164918 -0.036152422 0.08498471 0.05511715
-0.010197504 -0.11549982 -0.04572192 0.008373852 0.0721051 -0.0014729734 0.14509125 0.12102423
-0.0047095674 0.0027530196 0.044052377 0.15439573 0.13149726 0.101980515 0.07281112 0.06103918
0.09040947 0.11648999 0.0935288 0.04929174 0.20609671 -0.04099858 -0.042321987 0.09491142
0.18508728 0.23414126 0.12186001 0.060059875 0.054691557 0.18243593 0.031435847 0.04887501
-0.083804704 0.092578 0.087326735 0.0495312 -0.0009609832 0.021237394 0.070686206 0.22489016
0.22357008 0.117379054 0.23163198 0.37160856 0.33777216 0.08721754 0.15191564 0.23108886
-0.1320922 -0.113957874 -0.24042428 0.036116023 -0.046516627 -0.0018890618 -0.029186081 0.104897894
-0.0705043 -0.123595975 -0.0011444482 -0.042025916 -0.099926755 -0.025814747 -0.05642812 -0.018446377
-0.091496 -0.02410692 -0.2195158 -0.29589856 0.23595749 -0.3979944 -0.4540839 -0.052800663
-0.116392426 0.10178563 0.09246459 0.03434439 -0.008053095 -0.18793759 0.039009616 0.041448154
-0.18642262 -0.07347328 -0.037916966 -0.17078403 -0.002420985 -0.057309553 -0.20141302 -0.034667414
-0.11969399 -0.21136273 -0.041529734 -0.012255297 -0.18508753 0.15258566 -0.009818482 -0.13335994
-0.021192368 -0.13581887 -0.17629454 0.045059282 -0.16168918 -0.099697866 0.14480989 0.23290123
0.04641571 0.19349842 0.30651033 0.1375194 -0.003401368 0.09607803 -0.010455015 0.041791737
0.25927064 0.027046869 -0.08395699 0.043577857 -0.005135261 0.081007116 -0.04933493 0.0024562594
0.03584425 0.22430559 -0.10928356 0.032710217 0.050891507 -0.051091768 0.10191393 0.033992417
0.11909767 0.12731747 0.21131599 0.020756906 -0.10769243 0.091681175 -0.038951557 0.052837607
0.042521574 -0.02554629 -0.011706109 0.13290502 -0.076270364 -0.16832153 -0.06941007 -0.1788861
0.05745242 -0.13293442 -0.107350655 -0.031232566 0.1234162 0.0696135 0.2690793 -0.30035555
0.1388218 -0.20721991 0.20051211 -0.06793314 0.003375527 0.1214142 0.047087777 -0.066658065

raise_dim.0.attention1.0.weight f4 [9, 9, 3, 3]
00000000: 15b6 a8bc ca7c 073e e9e8 be3d 2e4b b13e
00000010: 0fa4 3ebf ed5b 343e 7478 35bd 6322 563e
00000020: e172 20be 45c4 66be 0937 1dbe 7ed8 04be
00000030: 7e80 0fbe 7d7c 5bbe 8b84 4cbe 76e5 28bd
00000040: 310d 9ebc e6e3 8dbd 6015 943c 722b 18bd
00000050: b704 65bd 03c4 cabd f78d 58bd 2c95 d1bd
00000060: 3e1b 3abd d386 36bb ae33 823c 16ec 963d
00000070: a1f9 a6bd 93fd e73d 7467 ee3d e808 5f3e
00000080: 233f 1d3e dc31 9abd 3074 9bbc 63e7 bfbb
00000090: 0b64 d7bd ca27 2fbe 79d9 66bd 2583 5dbe
000000a0: 49c7 d0bc 18cd 48be 366e 7fbc aba8 50bd
000000b0: c141 0fbe 89c3 9abd 9e4e c9bd 0a09 cf3c
000000c0: a1f2 21bd 6bb5 b73d 36c4 c1bc 5938 e7bd
000000d0: 2d9d f03d ff1e 4abc 9811 87bd cc58 d6ba
000000e0: a912 9ebd 2f19 20be 3b72 403d b7df 8cbc
000000f0: e664 6abe eb81 f9bc f56f 1abd d409 2f3d
00000100: 9021 9e3b 274f 033e 9c88 183d 4d3a 593e
00000110: 724c 2d3e 2862 0cbe aa91 203e fabc 253e
00000120: 8f54 853e eaed 993e 8b43 543e 5048 953e
00000130: b9c2 c73e e985 643e d2c9 593c d050 703e
00000140: 2970 9abc 8b00 1dbd 9b89 053e 2019 023d
00000150: be8a 2e3e 61dd dcbe 5437 183e 469a 68bd
00000160: e3c7 823e 7de6 ea3a ee8e 8abe b5bf cebe
00000170: c7c4 62be a188 a4be 0810 f3be b9f7 d6be
00000180: 7b2c 3dbe 3bfe 7dbe dc33 9dbe 30d0 8d3d
00000190: 7ae5 183e b665 773d 8d47 3d3e f16d b93d
000001a0: 04be 2bbd cc0a 7f3d 5c6d 533e ea0b 833d
000001b0: 0c28 813e 4ae7 fd3d 9fe1 193e f558 7a3e
000001c0: bcc9 4b3e 5510 c83c fa61 0c3e 65ee 3f3e
000001d0: 6f24 353e f4a7 a6bd 29ff 93be 7d91 3cbe
000001e0: d2ab 96be c9ee 93be c8bb cfbd 4900 69be
000001f0: 0b23 03be 3506 45be 5942 6dbd bdc9 1cbd
00000200: 0e3e 5c3d 80c2 283e fa7f 39bd 91f4 853d
00000210: 9c47 e73d cc0a cc3d ff58 c23d 18bc bebd
00000220: 707a 26be 22f0 4cbe e37c 6fbe f772 a4be
00000230: 21ed 87be fa2d 63be 10bc 9cbe 60ff 28be
00000240: 8ef5 013e 304b 8f3c c011 8b3d 0beb 1e3e
00000250: 3cf0 2f3e 4792 403e bce2 d4bb 1854 323e
00000260: e517 c73d 037d 9e3d 0d92 503b 590d 85bd
00000270: 536b c1bc ee3a 083d 329b 953d 01e0 f3bd
00000280: c0d2 c7bd 7fcf cc3b 413f 12bf ec39 9a3e
00000290: b297 babe 9dae d63e f995 f43e 0a04 a73e
000002a0: e6c1 21be 0d39 f53d bbc4 1abe facf 4cbf
000002b0: e253 1fbe be5c b1bd de16 f4be a95f 43be
000002c0: 22e0 86be 2fc2 12bf 0f1e 8cbe fc34 54be
000002d0: 2780 adbe b375 0bbd 6b7a 51bd 56ba a13d
000002e0: 633b cd3c a321 1f3e 8e40 6dbe 5d89 a3bd
000002f0: 00ff b4bd 3093 80bd 5937 0e3e cad2 d33d
00000300: 8fb4 a63e a915 7b3e 47f8 8a3e 3bd9 02bd
00000310: d30f 2e3e 6fd5 ec3d dd76 45be 6bc5 ddbd
00000320: 727b 233e 538a cbbd 5d98 433c 2b1d 87bd
00000330: af26 04be b79c 9bbd 140f afbd fd0d 22be
00000340: 6437 abbe 19bd fcbd 9735 6f3e 778f e2bd
00000350: 8036 03be 1999 bcbb f0c0 e0bd 699d 23bd
00000360: a264 ebbd 6ccb a6bd 701a ea3b c86f 5e3e
00000370: e411 58bd 3805 bc3d 30eb 14be 5355 bcbd
00000380: c594 1dbd 440d a7bd 96a6 39be 13fe 8cbd
00000390: 1548 963e c25d bb3d 08a3 8bbd 9357 72bd
000003a0: c2b5 c93d dcdc 0abe 0d2d 81be 7cda d63d
000003b0: 012c 82bc 2cd1 15bd 959c 2f3d ada2 4ebe
000003c0: 68c7 95be 0ea6 a0bc 914d c4bd e1b0 e1ba
000003d0: 5037 503e 6fa2 8abe 23db aabc feaf 5bbe
000003e0: d0fc 053e fd7f 63be 8f8c 393d 1e2e 9ebe
000003f0: 0685 90be adc4 55bd 31a7 22be 798a 5cbe
-0.020594636 0.13231197 0.09321768 0.3462767 -0.74469084 0.17613192 -0.044304326 0.20911555
-0.15668823 -0.22535808 -0.15353025 -0.1297321 -0.1401386 -0.21434207 -0.19972436 -0.041234456
-0.0192934 -0.06928234 0.018076599 -0.037150808 -0.0559127 -0.099006675 -0.052869763 -0.102335304
-0.045436136 -0.0027851358 0.015893783 0.073692486 -0.08153082 0.11327662 0.11640826 0.21780741
0.15356116 -0.07529041 -0.018976301 -0.005856441 -0.105171286 -0.17105022 -0.05635974 -0.21632059
-0.025485652 -0.19609487 -0.015590241 -0.050942104 -0.13989927 -0.075568266 -0.09829448 0.025272865
-0.03953803 0.089701496 -0.023653131 -0.11290044 0.11748729 -0.012336492 -0.065951526 -0.0016353368
-0.07718403 -0.15634607 0.04698394 -0.01719652 -0.22890052 -0.030457458 -0.037704427 0.042733982
0.0048257783 0.12823163 0.037239656 0.21213646 0.16923693 -0.13709319 0.15680566 0.1618537
0.26041076 0.30064327 0.2072889 0.29156733 0.3901575 0.22316708 0.013292747 0.23468328
-0.01885231 -0.038330596 0.13040774 0.031762242 0.17045113 -0.4313765 0.14864856 -0.05678775
0.25543126 0.0017921474 -0.27062172 -0.40380636 -0.22145377 -0.3213549 -0.47473168 -0.41985872
-0.18473999 -0.24804012 -0.30703628 0.06924474 0.14931288 0.060399733 0.18484326 0.09054173
-0.04192926 0.062266156 0.20647186 0.06398757 0.25225866 0.123976305 0.15027474 0.24447997
0.19901174 0.02442185 0.1370925 0.18743284 0.1768968 -0.08137503 -0.2890561 -0.18414874
-0.29427963 -0.28893116 -0.10143238 -0.22754015 -0.12806337 -0.19240649 -0.057924602 -0.03827833
0.053770117 0.16480446 -0.045288064 0.06540788 0.11292955 0.09962997 0.09489631 -0.0931322
-0.16257644 -0.20013478 -0.23387484 -0.3211896 -0.26548102 -0.22185507 -0.3061223 -0.16503668
0.12691328 0.017491907 0.06790495 0.1551935 0.17181486 0.188058 -0.0064967554 0.17414892
0.097213544 0.07738688 0.0031825334 -0.064966865 -0.023610746 0.033259325 0.07304992 -0.1190796
-0.09756994 0.0062503214 -0.5712777 0.30122316 -0.3644386 0.41930094 0.4777067 0.3262027
-0.15796623 0.11973772 -0.15114109 -0.8000485 -0.15559343 -0.08660267 -0.47673696 -0.1907946
-0.26342875 -0.5732755 -0.27366683 -0.20723337 -0.33886835 -0.034047794 -0.051142137 0.07896869
0.025052732 0.15540175 -0.23169157 -0.07985184 -0.088377 -0.06278074 0.13888301 0.10342939
0.3255963 0.24519981 0.27142546 -0.03194545 0.16998224 0.11564147 -0.19283624 -0.1082867
0.1596506 -0.099384926 0.011938182 -0.0659736 -0.12905382 -0.0759825 -0.08547798 -0.15825649
-0.33440697 -0.12340755 0.23360287 -0.1106252 -0.12813759 -0.0057555554 -0.109743 -0.03994504
-0.114938036 -0.081442684 0.007144265 0.21722329 -0.052751437 0.09180683 -0.14542842 -0.09195962
-0.038471956 -0.08156827 -0.18129954 -0.06884398 0.2935187 0.09148742 -0.06818205 -0.05916555
0.09849121 -0.13560814 -0.25229684 0.10490891 -0.015890123 -0.036576435 0.042873938 -0.20179243
-0.29253697 -0.019610431 -0.09585107 -0.0017218852 0.203336 -0.27077052 -0.020856446 -0.21453854
0.13084722 -0.22216792 0.045300063 -0.3089456 -0.2822649 -0.052189518 -0.15884091 -0.21537198

raise_dim.0.attention1.0.bias f4 [9]
00000000: b4ae 9f3e af0e 9e3e 77b8 1b3e 3249 db3e
00000010: 9a98 0fbe 3629 e03e d1e8 383e 0efe 00be
00000020: 3554 063e
0.31187975 0.30870578 0.15207087 0.4282928 -0.14023057 0.4378144 0.18057562 -0.12596914
0.1311806

raise_dim.0.attention1.2.weight f4 [9, 9, 1, 1]
00000000: a20c b63e 5352 363e 2375 53be da48 0cbe
00000010: 9fad cc3e 9d7f b23e 816f acbe 29ed 7a3e
00000020: 1eb1 fc3e a151 d33e 4f5c 123f 2bc1 473f
00000030: 8d08 5f3f ad06 02ba 7921 953e 355c 3ebe
00000040: a378 f9bd 24f0 aa3e 0abd 293f f06f cd3e
00000050: 70ba 793f ce79 e03e 1257 febd 4dbb e6bd
00000060: 438b fb3e 3e50 88be 872a 33bd 0734 413e
00000070: 7b5b 2bbf 35b8 3bbe cb29 0ebf 4622 6a3e
00000080: ad03 d2be 6042 df3e 9aec 08be 6615 3b3e
00000090: f895 de3e 1790 b43c 9d95 fdbe a8d2 08bf
000000a0: f40d 673e 42a2 84be f0c0 55bc be1a ab3e
000000b0: 91b1 c8be 3830 703e a153 213f eeb1 d9be
000000c0: 3a6c 683e bac6 28bf 5275 053f 426a b63b
000000d0: 980e f9be 7013 0e3e 3837 a83e a035 313e
000000e0: db48 6d3e 8f8a 95be a82c 033f 39a7 9dbe
000000f0: 3bd0 8c3e ad2f 14bf aa56 0ebe 9136 133f
00000100: dcb5 733f dc35 403f 5a5a 1c3b 5151 cf3d
00000110: 8d43 673d bf0f a73e ac4d 97be 3bf5 d7be
00000120: e6cb 0c3f 3525 af3e 63ed 8b3e d25a 9b3d
00000130: e941 cabe 88ac 583e 19f3 8c3e 656b 1a3e
00000140: f017 373e
0.35556513 0.17804842 -0.20650153 -0.13699666 0.39976212 0.34862986 -0.3367882 0.24504532
0.4935388 0.41273215 0.571721 0.78029126 0.8712242 -0.0004960101 0.291271 -0.18589862
-0.12181213 0.33386338 0.66304076 0.40124464 0.97550106 0.4384293 -0.12418951 -0.112661935
0.49129686 -0.2662372 -0.04374173 0.18867503 -0.66936463 -0.18331988 -0.5553252 0.22864637
-0.4101843 0.43605328 -0.13371506 0.18269882 0.43473792 0.022041364 -0.49528208 -0.53446436
0.22563916 -0.25905043 -0.013046488 0.3341884 -0.39197972 0.23455894 0.6301823 -0.42518562
0.22697535 -0.6592823 0.5213214 0.005566866 -0.48643947 0.13874602 0.3285463 0.17305613
0.23172323 -0.29207274 0.51240015 -0.30791643 0.27502617 -0.5788525 -0.13900247 0.57505137
0.9519937 0.7508218 0.0023857565 0.10122932 0.056460906 0.326292 -0.29551446 -0.42179283
0.54998624 0.34208074 0.2732955 0.07585682 -0.3950341 0.21159565 0.2752922 0.1508003
0.17880225

raise_dim.0.attention1.2.bias f4 [9]
00000000: 6f0e 9a3e 031e 2f3f c24f d93e e74d 39bf
00000010: 11e6 603e 1619 f53e 698b 16bf ca3d 9e3c
00000020: 1edb 0bbe
0.30089137 0.6840517 0.42443663 -0.72384495 0.21962763 0.47870702 -0.58806473 0.019316573
-0.13657805

raise_dim.0.attention1.4.weight f4 [9, 9, 1, 1]
00000000: d162 dfbe 12c4 60be de64 263e bed3 e23e
00000010: c91e 203f b9c2 d3be 81fe dd3e b606 263f
00000020: af93 8c3e 43ac f4be ce7c 91bc b4cb 993e
00000030: b54a 1a3e cf43 96be 5aa1 9cbe 7aea 34bc
00000040: fbf3 a4be 1fe3 aabe 0185 bbbe db0f 00be
00000050: 84e2 55be 7e11 a43e 355b 3fbf 6931 90bd
00000060: a0b2 2cbe 60bf 8fbe ae66 7dbe 5cd6 39bb
00000070: fa1d 80be 8b92 6dbe 4905 5dbe 0622 a3be
00000080: 8135 cb3d e1ce 0abd 5e31 cebe be16 593d
00000090: 8565 3a3f 1981 ac3f f6ef ae3f 48ad 92bf
000000a0: 90f9 963e 3fde b03f 7f93 93bf f7f4 bd3f
000000b0: 7f0e 683f 0def 95bb c2ec 573d 3bd5 473d
000000c0: 4874 abbe 5ed7 7cbe 1bdb 3bbe d8e0 c0be
000000d0: cec1 a83d 03bd 92be e7eb a9be dc0e 663d
000000e0: 88f5 893e 9a6a 23bc 556c 0b3f 04e3 903d
000000f0: 5d75 8c3e b116 fd3e f97b 9bbe dce3 4dbd
00000100: ac22 c43e 01a1 353f 346b 76be b480 cebe
00000110: 8981 363d b093 723e 7158 e53e b80c 65be
00000120: 86dc b9be b212 30be 444c a6be 1b2e 18be
00000130: a872 b9be fca7 0bbf 5cb7 8abc ef28 25bf
00000140: 5535 11bf
-0.43630078 -0.21949795 0.16249415 0.4430217 0.62546974 -0.413595 0.43358234 0.6485399
0.27456424 -0.47787675 -0.017759707 0.30038226 0.15067561 -0.2934861 -0.3059185 -0.011042232
-0.32217392 -0.33376405 -0.3662491 -0.12506048 -0.2088719 0.32044595 -0.74748546 -0.07040674
-0.16865015 -0.28075695 -0.247462 -0.0028356528 -0.2502287 -0.23200433 -0.21584047 -0.31861895
0.099223144 -0.0338887 -0.4027204 0.053000204 0.72811157 1.3476897 1.366698 -1.1459131
0.29487276 1.3817824 -1.1529387 1.4840382 0.9064712 -0.004575616 0.052716024 0.048787337
-0.33487153 -0.24691531 -0.18345301 -0.37671542 0.0824009 -0.2865983 -0.33187792 0.056166515
0.26945138 -0.009974146 0.54462177 0.0707455 0.2743329 0.49431375 -0.3036802 -0.05026613
0.38307703 0.709488 -0.24064332 -0.40332568 0.044557128 0.23689151 0.44794038 -0.22368133
-0.3630106 -0.17194632 -0.3248006 -0.14861338 -0.36220288 -0.545532 -0.016933136 -0.64515585
-0.56722003

raise_dim.0.attention1.4.bias f4 [9]
00000000: 3a25 cbbd 550e b3bd 128f 023d 5b0a 823e
00000010: 8ce6 a83f aec1 8a3e 71ad 083e 36a3 093f
00000020: e45b c83d
-0.0991921 -0.08742968 0.031874724 0.25398526 1.3195357 0.2710089 0.13347413 0.53764665
0.09783152

raise_dim.0.attention3.1.weight f4 [32, 9, 1, 1]
00000000: 8697 1dbd 2631 c9bd 6923 a13d 4e7f f93d
00000010: b2ea aebe 1bff b53e 803b 8b3e e70a bfbe
00000020: 798c 803e 25ac 433e 57b1 edb9 76ca 733e
00000030: 0c6b c2bc 528e c0be c5f2 60bc 21f3 9c3e
00000040: f468 a5be 2124 073e 7d96 a5bb 52c8 86bd
00000050: ee51 e2bb a634 cf3d 08d8 8fbe 1909 c23d
00000060: 0c9a ff3d 9dee 4d3e 4847 9b3e 1d23 eebc
00000070: eb6a 07be 0be9 b4bc 20c3 1abe 936c 223e
00000080: e10a 903e 5ae1 01be 33e6 bd3d 637b da3e
00000090: a4f5 babe 6224 6bbe f93a 203e 1642 223e
000000a0: 6a0c 9f3c 78c9 90be 1738 92bd 5cff 3bbe
000000b0: 338d 84be 36a9 e6be 9333 be3e 09b8 373e
000000c0: 0b40 8c3d e904 44bd 5191 8f3e e89b d1bd
000000d0: 29bb 813e 2d06 dfbd c9f9 6cbb cca9 a43d
000000e0: 5ad2 023e f244 f0bd d1b1 763e 65d7 8abd
000000f0: bf9c 6e3e 656b 443e d05b 70bc 7558 2e3e
00000100: 6740 af3d 453b 503e 76eb 64be b256 30bd
00000110: 77e4 38bd f523 113f b062 d3be b965 e7bd
00000120: f91f db3c 3b57 2d3e 5a9d 4b3e cce7 a2be
00000130: 78e3 bfbe 5e9e bb3e 4322 443e aa1a babe
00000140: 8415 f8bd 9716 403e ad13 1abe c058 9fbe
00000150: 898a 89be bdf5 c4bd 6b52 9c3d e7e4 463e
00000160: 0d49 a73c afce bebd 4a8e 04be 1a13 d9be
00000170: 0425 163e 3fcd 743e 8a26 873e 22fe fa3d
00000180: b6d6 353d 8d0e 40be 9f34 3b3e 35bc 79be
00000190: 9e7d 813e 038c 1bbe 06ce 80be 01e4 d13d
000001a0: fdc4 17bd a13f 79be ad92 723e a3fe 013c
000001b0: 2010 b93c e9e9 77be b8a8 abbe eda3 8e3c
000001c0: 9604 21be 6455 1fbe 70a4 c83e 38bb 16be
000001d0: 0359 413e 3ae7 bdbd adea cabd a755 2c3e
000001e0: 446c 52be a13e c13d bee4 88be 4714 503e
000001f0: 8784 41bd 6556 ba3e 55be 533e 3b31 693e
00000200: b874 103e 66b7 3c3c 7497 91bd 83b8 34bd
00000210: 8247 c03c 1d2d d7be d3f2 ce3e 6e9e f6bc
00000220: b6e6 a53e 4ba2 abbc 29e2 883d 4817 5abe
00000230: f8f3 f1be 0cec d73e 05c2 213e 280a 8b3e
00000240: 306f b3be 6b51 503e ef21 95be 0dc3 83bd
00000250: d80a 0e3c 5504 81be 4dc9 76be cb92 bd3d
00000260: 00c9 9d3e aa09 ab3e 4871 95be b233 bdbd
00000270: 24dc a5be 89c9 95be 1656 943b aaf6 e93e
00000280: dca9 73be 75bd 553d d1ee 593e 844a b6bc
00000290: 6a53 f23d b5df de3d 7038 723e a2c8 3ebe
000002a0: 7820 01bf 3ecc 4fbe 8050 45be 4186 b43e
000002b0: 724d 3a3e 89b3 333e 8cf2 20be 5333 50be
000002c0: d821 a33e 1006 bdbd 82bd b3be 0d45 3bbd
000002d0: 3901 43bd c120 d23a aa01 193e 3293 3c3e
000002e0: 84c0 52be 975f 70bc f0f4 b8be 3d1a 953e
000002f0: ccca 0d3c 50d7 313e 7ac2 b93e 49a0 483e
00000300: debb c4be ce33 3a3d 6b71 42be 7ae0 373e
00000310: 16ba fdbd 1829 c73e 4199 04be b95b d9be
00000320: bb65 ae3b 8cbd 303e 4ce0 323e c572 ab3e
00000330: af4e 953e 9a14 8a3d ed60 e1bd 2c7f 0fbd
00000340: 4e15 ccbd 8d88 c53d fd2c 49be a3b9 363e
00000350: 8807 f33d a79d d83e 00a0 f0be e24a d53e
00000360: 0c0b 9ebe c2ae 07be 19eb 293e 6fa9 493d
00000370: 1342 3bbe fbe9 b13d 48c6 21bf 1a63 4b3e
00000380: 3f6b 3b3d b232 ad3c 8ea9 603d d662 7bbc
00000390: 1736 fcbd 1cf9 3dbd 8ac4 bebc abd9 eebe
000003a0: 0a29 55be ff53 1cbe f7f8 24be 3f29 4fbe
000003b0: b766 6dbc 5f79 2cbe 4586 e93e 7adc 83bd
000003c0: 4d4a b6be 742d 423d 998d 82be 4b1a 6c3e
000003d0: 9685 893e f459 dfbd 4666 96bd 1b7f 823e
000003e0: 7f93 15be 614f 313e ec47 a9be 9885 9cbe
000003f0: b4db f2bd f1e7 8ebe 277a ee3d 9f9d 40bd
-0.038474582 -0.098238274 0.07868082 0.121824846 -0.34163433 0.35546193 0.27193832 -0.37313005
0.25107172 0.19108637 -0.0004533629 0.23807701 -0.023732685 -0.37608582 -0.013729756 0.30654243
-0.32306635 0.13197376 -0.00505334 -0.06581177 -0.0069067394 0.10117464 -0.28094506 0.094743915
0.12480554 0.20110555 0.3032782 -0.029069478 -0.1322438 -0.02208378 -0.15113497 0.1586173
0.281333 -0.12683621 0.09272423 0.42672262 -0.36515534 -0.22963098 0.15647496 0.15845522
0.0194151 -0.28278708 -0.071396045 -0.1835913 -0.25888976 -0.45050973 0.37148723 0.17941298
0.06848153 -0.047856245 0.28040555 -0.10234815 0.25338104 -0.1088985 -0.0036159626 0.08040199
0.12775555 -0.117319 0.24091269 -0.067793645 0.23301981 0.19181593 -0.014670327 0.17025931
0.08557206 0.2033511 -0.22355446 -0.04305143 -0.045139756 0.5669549 -0.4128623 -0.11298699
0.026748644 0.16927807 0.19884244 -0.31817472 -0.37478232 0.36644262 0.19153695 -0.36348468
-0.12113479 0.18758617 -0.15046568 -0.31122398 -0.26863506 -0.09617183 0.076329075 0.19423257
0.020420576 -0.093167655 -0.12944904 -0.42397386 0.14662558 0.2390642 0.2639659 0.12255503
0.044394217 -0.1875555 0.18281792 -0.24388202 0.2529115 -0.15190129 -0.25157183 0.102485664
-0.037053097 -0.24340679 0.23688765 0.007934245 0.022590697 -0.24210323 -0.3352716 0.01741215
-0.15724406 -0.15559918 0.39187956 -0.14719856 0.18881612 -0.092726186 -0.09908042 0.16829549
-0.20549113 0.09435774 -0.26737016 0.20320235 -0.04724553 0.3639404 0.20678075 0.22772686
0.14107025 0.011518335 -0.071089655 -0.044121277 0.023471598 -0.42026606 0.40419635 -0.030104842
0.3240258 -0.02095141 0.066837616 -0.21297944 -0.47256446 0.42172277 0.15796669 0.27156186
-0.35045767 0.20343558 -0.29127452 -0.06433687 0.008669578 -0.25198618 -0.24100228 0.09256514
0.30817413 0.3340581 -0.2918799 -0.09238376 -0.32394516 -0.29255322 0.004526864 0.45696002
-0.23795265 0.052182633 0.21282507 -0.022252329 0.11832316 0.108825125 0.23654342 -0.18631223
-0.5044017 -0.20292756 -0.1926899 0.35258678 0.18193606 0.17548956 -0.15717524 -0.20332079
0.31861758 -0.09229672 -0.3510552 -0.04572015 -0.047608588 0.001603149 0.14942041 0.18415526
-0.20581251 -0.014671228 -0.36124372 0.2912158 0.008654308 0.17367291 0.36281186 0.19592394
-0.3842458 0.04545956 -0.18988578 0.17956725 -0.12389009 0.3889854 -0.12949087 -0.4245279
0.005322186 0.17259806 0.17468375 0.33486 0.29161593 0.06742211 -0.11004815 -0.03503339
-0.09965001 0.096451856 -0.19646068 0.17844252 0.11866671 0.4230778 -0.4699707 0.41658694
-0.30867803 -0.13250259 0.16593589 0.04923385 -0.18286924 0.08687206 -0.6319318 0.19862023
0.045756575 0.021142337 0.0548492 -0.015343389 -0.12315004 -0.046380147 -0.023287077 -0.46650442
-0.20816436 -0.15266417 -0.16110598 -0.20230578 -0.014489821 -0.16843174 0.45610252 -0.06438537
-0.35603562 0.04740663 -0.25498655 0.23056905 0.2685973 -0.10905829 -0.07343726 0.254876
-0.14607047 0.17315437 -0.33062685 -0.30570674 -0.11858311 -0.27911332 0.116443925 -0.04702532

raise_dim.0.attention3.1.bias f4 [32]
00000000: 2fb4 9bbd 52de 08bd 6d52 49be e632 63be
00000010: 702d ec3c 9d4f eabb b314 8fbe 3adc 753c
00000020: 743a d63d 2281 d23d 8bad 7b3e 8e8c eabc
00000030: fb02 f33d f6d7 2cbe 3bdd 28bd a4c1 12be
00000040: 1c7c c8bc a3e4 043e 94fe 7d3d 87c0 cbbd
00000050: 0a64 5fbd 1432 4ebd 921a 3bbe 3f7c 00be
00000060: 1032 313d 821b 403d 7aab 5b3e 0642 fbbd
00000070: a6e3 d03d 337d a0bd 1980 a8bd 3a8c 01be
-0.07602727 -0.033415146 -0.19660349 -0.22187385 0.02883026 -0.007150604 -0.2794548 0.015006119
0.10460368 0.102785364 0.2457792 -0.028631475 0.11865803 -0.16879258 -0.041226607 -0.1433168
-0.024473242 0.12977843 0.062010363 -0.09948831 -0.054538764 -0.050340727 -0.18271855 -0.12547396
0.043260634 0.046901233 0.21452132 -0.12268452 0.101996705 -0.0783638 -0.08227558 -0.12651148

raise_dim.0.attention3.3.weight f4 [32, 32, 1, 1]
00000000: f90f e13c 99d6 5ebb 7018 f4bc a06a 20be
00000010: 6caa 263e 34c7 8bbe bd48 efbd e02e 153e
00000020: 162b 493e 67e8 e93d b54b abbd 4e5c 07be
00000030: 6d47 5d3e c18d 5b3d 15c1 873e b535 38bd
00000040: aac1 4f3d fbe7 4f3e 19da f43d 7875 983a
00000050: d2af 2abe 0fa5 bd3c 0c6b 4abc 3223 98bd
00000060: b776 49be 05f6 573d 3d05 a83e d6db b43d
00000070: 77be d8bb 7382 16be 5fc5 0dbe 218a 9c3d
00000080: bb5b 87bc be2a 5d3c 1ea4 b53d 1101 773d
00000090: 6354 ec3c 09ac 93bd 5159 efbc a0a9 f23d
000000a0: 51ee d83c 2527 a5bd 7b4d 95bc 65c1 debc
000000b0: f143 c23b 61cf f73c cb6a 99bd a4dc a13c
000000c0: a873 fb3d 0860 4e3d 09f5 b7bc 3fa8 46bd
000000d0: 39c7 8d3d 1730 41bd 7295 21bd fa3d 9dbc
000000e0: 6b2c 063d 32a7 a13d a206 d7bd 6158 32bd
000000f0: cb6d b33d 3135 2dbd 2c88 23bc f617 7dbc
00000100: 60eb d03d 23ef 3e3d 36f4 753d 4f09 a73d
00000110: 9319 ffbd 19fd 423e 509f 1ebd 84af 34be
00000120: 1e28 28bd 7b9b f0bd 7496 3c3d 7d10 7f3d
00000130: 6c56 7dbc ff7a 0fbc 3bc3 a53d 5152 293e
00000140: 84ce 5abc 4cae f9bd cafc 70bd 1986 7c3c
00000150: 67b2 c83d a427 133d 680f 9abc 5325 a13d
00000160: e1f8 f1bd 2ab4 51bd 4c24 293d 86c5 90be
00000170: fdb0 26bd e8c2 8d3d 9968 20be 79a7 4bbe
00000180: e398 eabd c3b0 b23c 4a46 83bd a85a 2fbd
00000190: 9e15 653c 039b f73d 5c19 50bc da7b c2bd
000001a0: bbfe 84bd c46e 26bd 50a8 05be 9d7a babc
000001b0: d65e a4bd e1fe adbc 2e6c 0fbe 46e6 893d
000001c0: 2bfe 0b3e dc29 d6bd e5b8 ecbc b09c 343d
000001d0: 5d7e 023d 0ed1 06be 8e10 9fbd d762 77bd
000001e0: 9237 593d 533f df3b e35e 863d 9d4a 8e3d
000001f0: 0d5c 893c 236a 92bd a720 8a3d 2231 913d
00000200: f86c 2f3e 43fd 1e3e 09ad 073e 0894 0e3c
00000210: ad65 96bd d785 feba 0e00 1cbd a45d 693e
00000220: eacf d33d 2c33 0f3e 04fb de3d 031e a43c
00000230: bafd 903d a17e 2b3e 56ee 8b3d 87fe f2bd
00000240: 57ec 7bbd dff6 023e dc09 05bd cd32 1fbd
00000250: 82e5 c7bd cd39 333e 9332 a0bd ad5f 22be
00000260: 3e8f 71bd 57e1 a2bd ba28 15be 3b20 873c
00000270: 16ad 05be 3112 b33d c376 ebbd 9a4a 7bbd
00000280: 8f87 b6bd c597 46bd 3d94 6fbc 7f5f fabd
00000290: d4c2 5e3d 3e55 503d c0e6 4ebe d6ac 3bbf
000002a0: 3df1 533e feca 16be 70a1 17be d243 163e
000002b0: 652c 3fbe fb0e 7f3d 260e 54be 67de afbe
000002c0: cf31 bebd fc6b 61be fe5a a03d 2155 b7bc
000002d0: a7c4 c03e a1f1 58bf c364 403e d46a b5be
000002e0: 18df 2b3e a73a c83d cabc 0a3e 3ce8 89bd
000002f0: 1822 413d 512e 563d 8c34 393d 0dba 423d
00000300: eb88 27be 74fc f5bd e89b 0e3a 9369 81bd
00000310: 6b75 10be dda7 ad3e 015c 3d3e cc28 6a3e
00000320: 21d8 153b e8a6 81bd 1819 233e d4eb 813d
00000330: 4a42 84bd 482e 6cbe d99f 61be 3359 ebbc
00000340: be8f 08be 3146 cdbc 36ac 38bd 107c d7bd
00000350: 62be 0f3e c415 58be 7e4a 43be 36a5 333d
00000360: 80ad e53b c5bc 3abe d34c 6f3d c450 943e
00000370: d2fa 333e 96e1 ffbe 41ed 9b3e e07f 143b
00000380: b953 f13d ae6a 5d3e 06b7 f4bd 2292 f3bd
00000390: d450 ddbc 7529 68bd 2a12 72bd 991f 623e
000003a0: 621b 75bc d73f a33c 747f 5b3e 75e0 f0bd
000003b0: e56e 823e 71a2 08be 62fc d03d 5b94 6fbd
000003c0: 24ce 55be 4485 2a3e 3d4f c23a e1d8 ac3a
000003d0: d9e9 42bd 1d8a 28bd 2f23 aabd b304 91bd
000003e0: 6019 58bd c283 7b39 7149 6bbb 420d 473d
000003f0: 003c 8ebc ad92 333d a7ec ad3c ddf1 3fbd
0.027473437 -0.0034002422 -0.029796809 -0.15665674 0.16275948 -0.27300417 -0.116837956 0.14568663
0.19645342 0.1142128 -0.08364049 -0.13218805 0.21609278 0.053601984 0.26514497 -0.044973094
0.0507218 0.20303337 0.11955661 0.0011631688 -0.16668633 0.023149995 -0.0123546235 -0.07428588
-0.19674192 0.052724857 0.32816496 0.08830993 -0.006614502 -0.146982 -0.13844822 0.076435335
-0.016523233 0.01349896 0.088691935 0.06030375 0.028848832 -0.072105475 -0.029217394 0.1184876
0.026480826 -0.08064107 -0.018225422 -0.027191827 0.0059285094 0.030250253 -0.07491072 0.01975853
0.12277919 0.05038455 -0.022455709 -0.048500296 0.06922764 -0.047165003 -0.039449163 -0.019194592
0.032757204 0.07893218 -0.10499312 -0.043541316 0.08761176 -0.042287055 -0.009981196 -0.015447607
0.10201144 0.046614777 0.06004735 0.08156072 -0.1245605 0.19041862 -0.03872615 -0.17645079
-0.041053884 -0.117484055 0.04604192 0.062271584 -0.015462499 -0.008757352 0.08093878 0.16535307
-0.013354901 -0.121914476 -0.05883483 0.015412831 0.097996525 0.035926476 -0.018806174 0.07868447
-0.11815048 -0.05119721 0.04129438 -0.28275698 -0.040696133 0.06921941 -0.15664901 -0.19888104
-0.11454942 0.021812802 -0.06409891 -0.042811066 0.013982205 0.12090113 -0.012701359 -0.09496279
-0.064938985 -0.040632978 -0.13052487 -0.022763545 -0.08025901 -0.0212397 -0.14006111 0.06733374
0.13671176 -0.10457203 -0.028896758 0.04409474 0.03185879 -0.13165686 -0.077668294 -0.060396995
0.05303151 0.0068129688 0.06561067 0.06947825 0.016767526 -0.0714915 0.06744509 0.070894495
0.17131412 0.15526299 0.13249601 0.008702286 -0.07343612 -0.001941855 -0.03808599 0.22789627
0.10342391 0.13984364 0.10887721 0.020033842 0.070796445 0.16747524 0.06832568 -0.118649535
-0.061504688 0.12789486 -0.032480106 -0.038866807 -0.09760572 0.17502518 -0.07822146 -0.1585681
-0.058974497 -0.079531364 -0.14566317 0.01649486 -0.13054308 0.08743704 -0.114972614 -0.061350442
-0.089125745 -0.048484582 -0.014622745 -0.12225246 0.05438502 0.050862543 -0.20205212 -0.733106
0.20697494 -0.14725873 -0.14807677 0.14674309 -0.18669279 0.062270146 -0.20708522 -0.34349367
-0.09286844 -0.22013849 0.078298554 -0.02237946 0.37650034 -0.84743696 0.18788438 -0.35433066
0.16784322 0.09776812 0.1354858 -0.06733748 0.047151655 0.052290265 0.04521613 0.047540713
-0.16360824 -0.12011042 0.0005440102 -0.06318965 -0.14107291 0.33917132 0.18492128 0.22867125
0.0022864419 -0.06330663 0.15927541 0.06343809 -0.06457956 -0.2306453 -0.22033633 -0.028729057
-0.13336083 -0.025057884 -0.04508611 -0.1052171 0.14037469 -0.21102053 -0.19071385 0.04385873
0.007009208 -0.18236072 0.058422875 0.2896787 0.17576149 -0.49976796 0.30454448 0.0022659227
0.11783547 0.21622726 -0.119489715 -0.11893107 -0.02701608 -0.05668016 -0.059099354 0.22082366
-0.014960142 0.019927902 0.21435338 -0.11761562 0.2547523 -0.13343216 0.10204388 -0.058491092
-0.20879418 0.166524 0.001482464 0.0013187194 -0.047586296 -0.04114734 -0.08307492 -0.070809744
-0.052758574 0.00023986309 -0.0035901929 0.048596628 -0.017362595 0.043841053 0.021231009 -0.04686152

raise_dim.0.attention3.3.bias f4 [32]
00000000: 3559 8dbd d373 f9bb f400 623d f8b4 113e
00000010: c323 343d 110b c1bc 881c 5ebd b90d 593c
00000020: 79f7 88bc a273 90bd 992f 253d 8616 2c3d
00000030: 8c67 293d d61d 17be b5b1 de3c 3756 0b3e
00000040: 3bcb 6f3b 5973 0fbe 081c 423c 44f2 253d
00000050: d4c6 1abe 6ce1 8dbc 1277 89bd 02ec 503c
00000060: e0dc 9e3c b4f6 69bc 9eb8 be3d 5abc 9ebe
00000070: 7bde 89bd 6301 afbc 9d13 a8bd 67fb 883c
-0.069017805 -0.0076126843 0.05517669 0.1422919 0.043979418 -0.023564847 -0.05422643 0.013247901
-0.016719567 -0.07053305 0.040328596 0.042013668 0.041358516 -0.14757475 0.027184347 0.13607107
0.003658964 -0.14008845 0.0118475035 0.040514246 -0.1511491 -0.017319404 -0.06712164 0.012751581
0.01939243 -0.01428001 0.09312557 -0.31003076 -0.06731888 -0.021362966 -0.08206866 0.01672144

layers.0.conv1.weight f4 [32, 32, 3, 3]
00000000: 0445 0bbe 4cd4 9f3c 0227 053d 82da c7bc
00000010: beeb da3b dc10 6ebd 95b9 493e 134f c2bb
00000020: d40f c33c c9b8 02bc 548c 2bbd 9aa2 803c
00000030: 04b6 7fbc 8e7b ce3c 8f60 1d3e 032d 563e
00000040: 4de4 adbd 50d8 85bd feef 9abe fc9d a1be
00000050: 739b 3fbe fad7 da3b c2f3 a73d 9059 1c3d
00000060: 7152 ee3d ab19 00be 53cf 06bf 034b 1bbe
00000070: af27 0b3d 42ae b93e 7946 c3be fb91 923e
00000080: e086 a13e 302c 62bd 1858 0dbc aa5d 813e
00000090: 99ae 823d 1418 cb3b 060e be3c 29f5 a6bd
000000a0: 3f23 08be 3f47 623d ce4b 97bd 2f55 05be
000000b0: ee5a 83be 0456 8c3c 75ad b73d 881c ad3d
000000c0: d2c3 68bd 4951 513e 28da 1dbe e081 623e
000000d0: c63b 2fbc 9569 cb3e 6eef 6dbe 2e66 60be
000000e0: 6556 45bf c5a0 e3bc f332 693e bc4f 8ebe
000000f0: 929e 1f3e 0230 433e 8e9c 04be 3865 f93e
00000100: 0b34 60be c532 1fbe c2ce 933c 1d9c 4c3c
00000110: eedc 07bf fa8c 193f 688a 27be 317b 303e
00000120: 0a78 3c3e 85db 263e 97de a33c fcd4 6d3e
00000130: 57c4 113e 4ef2 11bd e377 bd3d 1db7 a0bd
00000140: 58b3 1abe eddf 723d 62fc c83d d964 debd
00000150: 8d2d 863e 8c14 5b3d d4b0 273e 7c99 f53c
00000160: 8b02 723d 87d4 233e 676b 623e bd83 993d
00000170: f554 97be cb62 41bd 03bc 88be 5d92 8fbd
00000180: 01e0 0cbe d791 c7bc d030 103e 7a0e 25be
00000190: 35e0 d6be 634a 82be 2d38 abbd 39db dbbe
000001a0: 67a2 e7be 33c4 aa3e 2c25 e3bd d1da 8cbe
000001b0: 6973 dd3d b36d 06be 39e8 54be a721 e43d
000001c0: 8c1d 24be 0be8 96bd 7687 4a3e 9c3f a6bd
000001d0: 895b ad3a a762 d8be 71fb 89be ba78 92be
000001e0: 32e0 f4be d492 01be e681 c6be 5f20 e7be
000001f0: 3d1c f4be e33a bebe fdce 9b3e bd30 873d
00000200: 7cba 4e3e 273d 733d 2215 763e f871 46be
00000210: 1d33 3d3e 7005 17bc 18a0 12be 59b3 f03c
00000220: fd8f a13c dbad 4a3e 8df8 893e 29a9 4d3e
00000230: 9c55 15be 3b61 253e 9d08 3bbe c79f c4be
00000240: d2c3 6abe 7beb a7bd d2bc c3bd 6ac0 29bc
00000250: 5d81 11bc dfa3 1f3e e8dc 713d 45eb 9c3e
00000260: f135 00bc 0933 2abd 435a 083d 7b95 473e
00000270: e893 99be b86a a3bd 92cb 683e 75c4 c1bd
00000280: 07dc 56be ae34 1a3e 72b6 8c3e 828d 323e
00000290: 05aa fc3d e405 d33d 6594 b8be 6569 1c3e
000002a0: 7597 d0bd 391f a9bc 154c b6bb adeb 8d3d
000002b0: 35d9 e4bc bd9d 9b3c 075b 483e 4209 b3bd
000002c0: aaef eabd 9104 4c3e ba46 c83c 5e42 6cbd
000002d0: 04ec 79be 54a0 bfbd 3d68 a5be 3eb6 c6bd
000002e0: b8c9 c53d 7e10 4f3e 9dbb aebd 1f1b f63c
000002f0: 4116 333f 3d44 833f 450a 5dbe 44dc d03d
00000300: 1e10 8b3d 5d9e 1c3e 0f46 a6bd c3a2 e5bb
00000310: 1bb8 b83d cfde b8be 8e41 b5bd 1e10 343c
00000320: 718e 983e f292 84be 92d6 86bd b342 a23e
00000330: d955 7dbd d47c 213e afef 4e3e 6edb 223e
00000340: eede b93d 5f57 b03d 01ca 8f3d f401 82ba
00000350: f397 8cbe e379 3d3d 3895 c0bd 9321 1ebe
00000360: 9d74 6a3d ff45 f53d 22c0 b73d a336 d33e
00000370: b25b d83d a6f0 a2be f7d2 28be d1a5 2bbe
00000380: ced8 22be aed4 e63a 8c66 243e 161d 803e
00000390: a601 19bc f70d 393d f521 603e e5a2 d7bd
000003a0: 4d26 a13c 605b d23d 6db8 a7bd ca79 7ebe
000003b0: 21bd db3d 0376 9abc 8555 0cbe 02aa b5bd
000003c0: 548f 3f3d 6b72 133e 88f8 04be 68f7 2d3f
000003d0: f307 163f 5410 dd3e b6bf a43e 2b2e 53be
000003e0: 1c2a b23e ae46 ec3e 16f5 a9bc 3f25 cf3e
000003f0: 8bf7 af3d a9ad a2bd a3d6 89be 2186 adbe
-0.13600546 0.01951041 0.032507904 -0.024396185 0.0066809347 -0.058121547 0.196997 -0.0059298365
0.023811258 -0.0079786265 -0.041881874 0.015702534 -0.015607361 0.0252054 0.15368865 0.20915608
-0.084908105 -0.06535399 -0.30261225 -0.31565845 -0.18711643 0.0066785784 0.0820079 0.03817135
0.11636818 -0.12509792 -0.526601 -0.15165333 0.033973392 0.3626576 -0.38139704 0.28627
0.31548214 -0.05521792 -0.00862696 0.25266773 0.06380958 0.0061979387 0.023200046 -0.08152229
-0.13294695 0.055243727 -0.073875055 -0.13020776 -0.2565531 0.01713086 0.08968631 0.084527075
-0.056827374 0.20441164 -0.15415251 0.22119856 -0.010695403 0.3972899 -0.23235866 -0.21913978
-0.7708495 -0.027786622 0.22773342 -0.27795208 0.15587834 0.19061282 -0.12950346 0.48710036
-0.21894853 -0.15546711 0.018042926 0.012488392 -0.53071487 0.5998074 -0.16361392 0.17234494
0.18405166 0.16294678 0.0200036 0.23225778 0.14235054 -0.03563147 0.09251382 -0.07847426
-0.15107477 0.059295584 0.09813763 -0.10859079 0.26206627 0.053486392 0.16376048 0.029980414
0.059084456 0.15999041 0.22111283 0.0749583 -0.29557005 -0.047213357 -0.26705942 -0.070103385
-0.13757326 -0.024361534 0.1408112 -0.16118804 -0.4196793 -0.25447378 -0.08360324 -0.4294069
-0.4524109 0.33352813 -0.11091074 -0.27510694 0.10813028 -0.13127784 -0.20791711 0.11139231
-0.16026896 -0.073684774 0.19778237 -0.08117601 0.0013226132 -0.42262766 -0.26949647 -0.28607732
-0.47827297 -0.12653667 -0.3877098 -0.45141885 -0.47677794 -0.37154302 0.30431357 0.06601093
0.20188326 0.05938449 0.24031499 -0.19379413 0.1847653 -0.009217605 -0.14318883 0.029382395
0.01972198 0.19792883 0.26947442 0.2008406 -0.14583439 0.16150372 -0.18265004 -0.3840315
-0.22926262 -0.08199211 -0.09557499 -0.0103608165 -0.00888094 0.15589856 0.059048563 0.30648246
-0.007825361 -0.041552577 0.033289205 0.19490616 -0.29995656 -0.07979339 0.22733906 -0.09461299
-0.20982371 0.15059158 0.27482945 0.17436793 0.12337116 0.10303858 -0.36050716 0.1527458
-0.10185138 -0.020644771 -0.005563269 0.06929717 -0.027935604 0.018996114 0.19565974 -0.08742
-0.114714935 0.19923617 0.024447788 -0.05768048 -0.24406439 -0.09356752 -0.3230609 -0.09702729
0.096576154 0.20221135 -0.08531878 0.03004223 0.6995583 1.02552 -0.21585949 0.10198262
0.067901835 0.15294786 -0.08118831 -0.007007928 0.0901949 -0.3610749 -0.08850394 0.010990171
0.29796174 -0.2589336 -0.06583895 0.31691512 -0.06184945 0.15770274 0.2020862 0.15904018
0.090757236 0.08610415 0.07020951 -0.0009918795 -0.27459678 0.04625882 -0.09403461 -0.15442495
0.057240117 0.11976241 0.08972193 0.41252622 0.105643645 -0.31824225 -0.16486727 -0.16762473
-0.15903017 0.0017610991 0.16054744 0.2502219 -0.009338772 0.045179334 0.21887954 -0.105291165
0.019671584 0.10271335 -0.08189473 -0.24851146 0.10729433 -0.0188551 -0.13704498 -0.08870317
0.046767548 0.14399116 -0.12985432 0.67955637 0.5860588 0.4317652 0.32177514 -0.2062308
0.34797752 0.46147674 -0.020746749 0.40458104 0.08592137 -0.07943279 -0.26921567 -0.33891395

layers.0.conv1.attention1.0.weight f4 [9, 32, 3, 3]
00000000: 3198 af3d 1eed 4a3e cc41 973d 896e 983d
00000010: 70e4 0b3d 0493 d4bc 85aa 08bd 8a20 59bd
00000020: 9d5f d4bd 9265 10be 3c5b 95bd 094e e6bc
00000030: 572f ea3b cfac 7b3e f5f5 d63d ac18 70bd
00000040: e422 0e3e 1117 0c3e ce83 a13e 935a 37be
00000050: 0597 063f 06d9 c9be eab7 9fbd 0d01 453d
00000060: b39f e33e d73f eb3e 0277 3d3e c8c6 b33e
00000070: e741 cfbe 7614 633e 8ae1 fbbd c59e c3bd
00000080: 5690 acbe f839 983e 233b 3abe 4847 eb3d
00000090: bd91 e13e 5f8f a73e da83 d13e b1a9 b63e
000000a0: 7ac7 5ebe 881c 303e 3f3e be3e a923 10bd
000000b0: 0e89 9e3e 2c20 ab3d e430 8bbe 6080 fd3d
000000c0: a5aa 3abf 1a75 7f3e 3dd8 c3be c049 3cbe
000000d0: ab8e 09bf a820 8ebe 2fd6 c83e 8fda 603d
000000e0: 919d 5ebc d2d7 1abf 3085 0dbf a7d5 32bf
000000f0: f3a9 c0be 70e3 923e 2661 93b9 15a2 9f3e
00000100: 8077 1bbf c22e 833e 6a38 0ebf 7f08 4fbe
00000110: 432e d43b 03b1 53be 964f 8dbd 3b09 453d
00000120: c21a 0ebe f76a a4be beef f1be 41ba 023d
00000130: 16b3 0fbf 8d6c 52bf a22e e33b 2885 13bf
00000140: c12a 3c3d b2f6 0abe a1c4 50be 108a 29bf
00000150: cbf4 933c 6ed4 d23d 181e b9be 2962 5ebe
00000160: 6203 3fbe 3943 54be 1f75 1b3e 0452 dc3d
00000170: 5b95 62bd c3fa e8bd 270e 3cbe af76 6bbd
00000180: 3e79 d13d 75d7 733d b5f4 a83e a842 af3e
00000190: e777 02bd 5419 b23d a6ac 3a3e c812 84be
000001a0: 9677 043d 6cdf b03d 04d6 09be 7e16 513d
000001b0: 3117 ef3d c5f9 883d 4893 913d ee23 163e
000001c0: fdfa bfbd ba42 203d e203 543e f66a 87bb
000001d0: 7d1e 633e e7fe 0f3f 39b2 133e 49a4 643e
000001e0: 71da 023f 1595 813e 4173 c73d 82e0 c23e
000001f0: 30c5 4a3e 08f2 35be 62dd 3d3d 8b2c 9fbe
00000200: bb3d ad3e 049a 893e adee bfbe 2867 dfbe
00000210: a9e0 283f 53a7 b0bd 57e5 c03e 7850 223f
00000220: 9256 843e a693 943e 9def a23e fdc0 a23e
00000230: 31cf a33e 501b bc3e 0f62 393e dc77 aa3e
00000240: f587 833e c1c4 d53d 0a3a eabc 36b3 683e
00000250: fe93 9bbe 56fe d63d 99dc 283f 3dfb b03d
00000260: 6603 4f3e a3e5 213e 3539 df3d 551e 3d3d
00000270: 2922 1fbd 5e0b a43e f64d 4a3e aba0 b43d
00000280: fe80 5d3d 3d88 023e 7e36 283e 4fc0 713e
00000290: efdf 6a3e f705 ac3e 58b3 0dbf 6402 493d
000002a0: dd7b 583f 81e2 10bf 2786 e5bd 6eca 03bd
000002b0: 9918 a3bd cda8 2bbd d9b8 6cbd a0ce 9ebd
000002c0: 3eeb 65be 5feb 06be 21cc 01be 7aeb e0bd
000002d0: d626 9bbe 56c7 c3be 5e04 c6be 909c 2b3e
000002e0: 4e06 843d 6317 47be 4d72 09bd a784 8bbd
000002f0: 6c3a 1dbd d4ec 11be 4d59 ff3c 7bd3 493f
00000300: 33df 57bf a937 f5be 97ac f03d 9bc7 82bd
00000310: 004b a43e b179 713f b05c 093e e165 8f3e
00000320: 2a54 153e 01eb 1f3d eb41 ce3d 1556 143e
00000330: e841 30bd 0e94 9e3d 2153 9cbc ec13 c03d
00000340: 915d 78be 00a9 83be b222 87be 0c2e 2abe
00000350: e559 b1be 8be1 e3bc aa2c 41be 3e9e 1dbe
00000360: ea8f 55bd 368f 9dbe df1f 29be cb40 83bd
00000370: 81bb aabd c419 cbbe b700 57be d889 36be
00000380: f3ac 6e3e 880a 073e 5085 d53d dc14 6b3c
00000390: 2a60 13bd 109b 1bbe 9824 e5bd 0d87 f1bd
000003a0: 4dba 41be b704 2cbe 7e7f bd3d 24d0 163d
000003b0: 7b57 af3e dc7e 1b3e beda 1bbf d4ad 5f3e
000003c0: 6435 b5be 759e 7bbd 17f3 23be 948e 523f
000003d0: f597 f13e 67ad 693d 307f 60be 26aa 95be
000003e0: 9487 ddbe 9b5c 94be 4815 a63d e4dd 0abf
000003f0: 6624 27be 9dd9 9bbd 7144 bdbd 605c 02be
0.0857395 0.19817016 0.07385597 0.07442958 0.0341534 -0.025949009 -0.033365745 -0.053009547
-0.10369799 -0.14101246 -0.07292792 -0.028113382 0.0071467566 0.2457764 0.10496131 -0.05861728
0.13880497 0.13680674 0.31545871 -0.17905645 0.5257419 -0.39423388 -0.07798751 0.048096705
0.44457778 0.45947143 0.18502429 0.35112596 -0.40479967 0.22175774 -0.122988775 -0.09551767
-0.3370387 0.29731727 -0.18186621 0.11488205 0.44056502 0.3272657 0.40920907 0.3567634
-0.21755782 0.17198384 0.37156865 -0.03519026 0.3096394 0.08355746 -0.27185738 0.12378001
-0.7291663 0.24947014 -0.38250914 -0.18387508 -0.5373332 -0.2775929 0.3922591 0.054895934
-0.013587371 -0.60485566 -0.55281353 -0.6985726 -0.3762966 0.28689146 -0.00028110406 0.31178346
-0.6072922 0.2562161 -0.5555483 -0.20218085 0.0064752414 -0.20672993 -0.068999454 0.048104506
-0.13877395 -0.32112858 -0.4725322 0.031915907 -0.5613264 -0.82196885 0.0069330493 -0.57625055
0.04593921 -0.1357067 -0.20387508 -0.6622629 0.018061062 0.10294424 -0.36155772 -0.21717133
-0.18653634 -0.20728768 0.15181397 0.10757831 -0.055318218 -0.11375954 -0.18364774 -0.057486232
0.10228203 0.059531648 0.32999197 0.34230542 -0.03185263 0.08696237 0.18229923 -0.2579558
0.03234061 0.08636364 -0.13460547 0.05104684 0.11674345 0.06688265 0.0710817 0.14662144
-0.09374044 0.039126135 0.20704606 -0.004132624 0.22179599 0.56248325 0.14423455 0.22328295
0.51114565 0.25309053 0.0973878 0.3806191 0.19801784 -0.17768109 0.046353705 -0.3108867
0.3383616 0.26875317 -0.37486783 -0.4363339 0.65967804 -0.086256646 0.37674972 0.63404036
0.25847298 0.29018897 0.31823435 0.31787863 0.31994012 0.36739588 0.18103813 0.3329457
0.25689664 0.104379185 -0.028592128 0.22724614 -0.30386347 0.104977295 0.65961605 0.0864167
0.2021614 0.15810256 0.10899583 0.046171505 -0.038850937 0.32039922 0.19756302 0.088197075
0.054078095 0.12747283 0.16427037 0.23608516 0.22936986 0.335983 -0.5535178 0.049074546
0.84564 -0.5659562 -0.11207228 -0.032175474 -0.07963676 -0.041909028 -0.057793472 -0.07754254
-0.22453019 -0.13175724 -0.12675525 -0.109824136 -0.30303067 -0.3823802 -0.38675207 0.16758943
0.06446515 -0.19442515 -0.03355627 -0.06812411 -0.038385794 -0.14250499 0.031170512 0.7883832
-0.8432495 -0.47894028 0.11751669 -0.06385728 0.3208847 0.9432631 0.13414264 0.28007415
0.14582887 0.039042477 0.100711666 0.14485963 -0.043031603 0.07743083 -0.019082608 0.093788
-0.24254443 -0.25714874 -0.26393658 -0.16619128 -0.34638897 -0.027817508 -0.18864694 -0.15392396
-0.0521392 -0.30773324 -0.16516064 -0.06408843 -0.08336545 -0.39668095 -0.20996366 -0.1782602
0.23308162 0.13187611 0.10425818 0.014348235 -0.03598038 -0.1519587 -0.1118862 -0.11793337
-0.18918724 -0.16798674 0.09252833 0.036819592 0.3424643 0.15185112 -0.6088065 0.21843654
-0.35392296 -0.061430413 -0.160107 0.82248807 0.47186247 0.057050135 -0.21923518 -0.29231375
-0.432675 -0.28976902 0.08109528 -0.5424483 -0.16322479 -0.07609866 -0.0924157 -0.12730551

layers.0.conv1.attention1.0.bias f4 [9]
00000000: 172f 033e c0be ffbe ec82 bf3d 595b a93e
00000010: 457a 923e c200 4f3f a863 2f3e 8d66 453e
00000020: 1ba7 ddbe
0.12810932 -0.49950218 0.09351143 0.33077505 0.2860891 0.8086053 0.1712786 0.19277401
-0.43291554

layers.0.conv1.attention1.2.weight f4 [9, 9, 1, 1]
00000000: 1daf ed3e 5940 02bf fc25 843e 5a55 1e3e
00000010: 9b05 3cbe 934a 033f 4f9e 41be ad6d f13d
00000020: 0863 a9be 4b29 eebe 18cb 46bc 24be b1be
00000030: c9f9 873e 6d7a 9f3d a985 813e 0830 89be
00000040: d294 903f bf33 783c 8b11 4b3e 4f2c a63d
00000050: 6bc8 7e3e 88a2 f6bd d61a 9c3f 016a 69be
00000060: 01e3 7cbe bb92 d6bd 821f 9c3e 5d27 bfbe
00000070: 7366 5cbc 92d7 bdbe e77a b43e 6095 063f
00000080: 5890 98be caaf 8e3e b7b6 86be a26b 963e
00000090: 7fbc e83e 9a58 05bc c03b ce3e 1fb8 babe
000000a0: 79ce 6cbd b16b 25bc b27e b2bd 2cf5 b33e
000000b0: a076 90be 1e96 88be 4dcb 86be e7ac 31bf
000000c0: 468a 0b3e 56fd 323f 7a5c eb3e 3fec 263f
000000d0: 8547 16bf 37a0 85be e066 10bf a397 723c
000000e0: ac91 8fbe e48a f13e 57bf fb3e df70 9b3e
000000f0: 495f 113f 7450 aebf 808f dfbd 8188 dd3e
00000100: 0990 c13c 0ec1 21bd 8751 e9be d1f5 26bf
00000110: c7f7 383c 9301 2cbf b230 cc3e 040d 7abd
00000120: eac1 353d d485 18be b6c5 993e e9a6 28be
00000130: 9f26 dcbe 28e7 58be 3812 18be c2e2 2ebd
00000140: ec20 1c3e
0.46422663 -0.50879437 0.2581023 0.15462247 -0.18361513 0.51285666 -0.18908046 0.11788497
-0.33083367 -0.4651588 -0.012133382 -0.34715378 0.26557758 0.07787023 0.25297287 -0.26794457
1.1295416 0.015149056 0.19830911 0.0811392 0.24881141 -0.12042719 1.219569 -0.22794344
-0.2469597 -0.10477205 0.3049279 -0.3733472 -0.01345216 -0.3707853 0.35250017 0.5257168
-0.29797626 0.2786849 -0.26311275 0.29378992 0.4545631 -0.0081388 0.4027996 -0.36468598
-0.057814095 -0.010096476 -0.087155715 0.3514799 -0.28215504 -0.2667703 -0.2632698 -0.69404453
0.13626966 0.6991781 0.45968992 0.6520423 -0.5870288 -0.26098797 -0.56406975 0.014806661
-0.28040826 0.47176278 0.49169418 0.3035955 0.5678602 -1.3618302 -0.10916042 0.43268207
0.023628252 -0.039490752 -0.45570013 -0.65218836 0.0112895435 -0.671899 0.39880902 -0.06104757
0.044374384 -0.14894801 0.30033654 -0.16469921 -0.42998216 -0.21181929 -0.148507 -0.04269672
0.15246934

layers.0.conv1.attention1.2.bias f4 [9]
00000000: c2f8 083f aa94 a2be 8be0 31be 6d07 e93e
00000010: 7a30 7ebe e1da 8c3e d7c3 383e ee27 36bf
00000020: 2373 91be
0.53504574 -0.31754047 -0.17370813 0.45513478 -0.2482318 0.2751074 0.18043457 -0.7115468
-0.28408155

layers.0.conv1.attention1.4.weight f4 [9, 9, 1, 1]
00000000: f4c8 d5be 8052 b1bf 1f4e 1a3e 9b67 cabe
00000010: 3c08 d13e 54f5 90be fced ce3d a3a8 e33d
00000020: 43bf 353e 85b6 cebe cbe9 1ebf 8d18 a7be
00000030: 8d8b 11bc 95bb b9bc 749d 3cbe bd6b 4c3e
00000040: 17fc 0ebf 1861 ad3c 2389 e7bd b309 b8be
00000050: 0556 1cbe a023 c4bd 5d6b 0a3e 8218 f93c
00000060: 7f1f 01be c7a2 ea3d 2057 1c3d b0e8 0cbf
00000070: 51c7 92be 5359 ef3d c42d fb3e ad66 1e3f
00000080: f201 c03e d4bf 873c 365b 003e 2267 8abe
00000090: 47d5 be3e 7f3e 63bf f0f3 12bf 7ffd 5e3e
000000a0: 6ae8 403d e30b ba3f 7db4 c03f 9ec3 b1bf
000000b0: bba5 1dbf 55df b1be 7246 743d 2225 363e
000000c0: d967 be3d 4bf8 d9bd 7553 b73d 119a 193e
000000d0: 47a4 e0be ac78 573c 6ed5 8cbe 5a25 73bf
000000e0: 4069 063f f7fc f0be 8294 e53d 3907 21be
000000f0: 5763 aebe c854 7b3e b8d2 bfbc 6872 05bf
00000100: d2a3 03bd 3edb a4be 1190 0b3f 4226 703e
00000110: 9285 ab3e d168 963e b86e 85be d1a0 703e
00000120: b350 3ebd 8847 ee3c a789 62be 5229 4bbe
00000130: a4b0 af3c 71fd 91be 4bc0 9abd 2339 8c3d
00000140: 7a1d cf3e
-0.41754878 -1.3853302 0.15068863 -0.3953217 0.40826595 -0.2831217 0.10103986 0.11116149
0.17748742 -0.40373626 -0.6207549 -0.32635918 -0.008883369 -0.022672454 -0.18419439 0.19962974
-0.5585341 0.021164462 -0.11305454 -0.359449 -0.15267189 -0.095771074 0.13517518 0.030407194
-0.12609671 0.114568286 0.038169026 -0.5504255 -0.2866769 0.11686959 0.49058354 0.6187542
0.37501484 0.016570963 0.12534794 -0.2703181 0.37272093 -0.88767236 -0.5740347 0.21776389
0.047096647 1.4534878 1.5055081 -1.3887823 -0.6158101 -0.347407 0.059637494 0.17787603
0.09297151 -0.10643061 0.08951465 0.15000178 -0.43875334 0.013151329 -0.27506584 -0.9497887
0.5250435 -0.47067997 0.11209966 -0.15725411 -0.34060165 0.2454406 -0.023415908 -0.52127695
-0.032138653 -0.3219852 0.545167 0.23452094 0.33500344 0.29376844 -0.26061034 0.23498847
-0.04646368 0.029086843 -0.22122823 -0.19839981 0.021446534 -0.28513673 -0.07556208 0.068468355
0.40452176

layers.0.conv1.attention1.4.bias f4 [9]
00000000: 9bc6 cbbd 264a 8d3e 4382 3ebe b808 dd3d
00000010: 32aa 803f b63f c3bd 23fe e4bd b5b4 e23d
00000020: b34e cdbe
-0.0994999 0.27595633 -0.18604378 0.107926786 1.005194 -0.09533636 -0.11181285 0.110696234
-0.40099105
