weights/model_epoch_lagconv960.pth (torch, 679460 bytes, 141 tensors)

raise_dim.0.weight f4 [32, 9, 3, 3]
-0.49007478 -0.36023977 0.10330828 -0.15518373 -0.054098416 -0.100920536 -0.073199816 -0.022344407
0.17001858 -0.41047758 -0.41677955 -0.16541657 -0.03316137 -0.4103726 -0.39790118 0.031026598
-0.12200192 0.142862 -0.37856323 -0.33715075 -0.011412556 0.0046730116 -0.33294007 -0.09237527
0.19310436 0.21360727 0.14322005 -0.26154852 -0.22914587 0.16895247 -0.13963592 -0.2132641
0.07793117 0.121567465 0.19791652 0.3606603 -0.38223165 -0.388442 -0.089694284 0.05437421
-0.16991585 -0.021613777 0.61682457 0.33471105 0.27198794 -0.24151431 -0.10840701 0.23424518
-0.29052424 -0.1743651 0.14323577 -0.124386586 -0.030733999 0.26208884 -0.100166775 -0.017334245
0.23638819 -0.24088502 0.012775581 0.25066283 0.29179227 0.17766716 0.41260025 -0.21438842
-0.0307098 0.25978285 -0.4640945 -0.111517146 0.1578005 -0.17634048 -0.07655414 0.11036181
0.00929597 0.16424859 0.4216026 -0.15860464 -0.05483318 0.15411678 0.23701261 0.16383207
0.38970166 -0.14359048 0.0541718 0.09493186 -0.09432107 -0.45953414 -0.123624414 -0.16777383
-0.07767733 0.111859046 0.07781478 -0.08166721 0.12256848 -0.02667926 0.08793039 0.05033112
-0.007188635 -0.12524912 -0.040642846 0.022493036 0.07623863 0.014403523 0.16523163 0.14083074
0.01768908 0.020836998 0.056456547 0.1807699 0.13985622 0.09509908 0.068501756 0.06801159
0.09549003 0.121148184 0.10162943 0.051191103 0.21050183 -0.037360236 -0.04728362 0.08409003
0.18298158 0.24803886 0.13189451 0.054944206 0.0549849 0.1836163 0.03478647 0.05579703
-0.08313924 0.08300537 0.10096619 0.059323236 -0.0028763723 0.029325122 0.071980506 0.2290514
0.23946005 0.11686289 0.23193815 0.3875091 0.35237774 0.08519764 0.16037671 0.25399667
-0.14069247 -0.11076122 -0.24480376 0.04408659 -0.04703153 0.00027216919 -0.0303618 0.11268074
-0.05087157 -0.12848781 -0.011589516 -0.061503835 -0.110221535 -0.047997367 -0.07947312 -0.023752559
-0.10174089 -0.05209152 -0.1456637 -0.33191755 0.26891235 -0.32378122 -0.4551306 -0.011408657
-0.068869725 0.091603026 -0.00057309645 0.016482646 0.017441811 -0.0025265536 0.029806415 0.040429138
-0.05723404 -0.11773215 -0.15751195 -0.043341156 -0.024383454 -0.04408149 -0.13676204 -0.024548218
-0.085023105 -0.22094306 0.049617957 0.004685898 -0.16085233 0.12209236 -0.015115279 -0.17172295
-0.054957863 -0.12717329 -0.30487347 0.13354062 -0.14849718 -0.2104113 0.16545057 0.3025546
0.12562555 0.15465125 0.33671844 0.14788379 0.029855382 0.06562637 -0.030255886 -0.00083878107
0.21889105 -0.034241486 -0.1889097 -0.0149120465 -0.122647844 0.12001235 -0.11082862 -0.0737033
0.06718604 0.26579627 -0.09412712 0.013014687 0.11090425 -0.043238174 0.14244917 0.0512445
0.163722 0.17104475 0.24242324 -0.027600925 -0.1150705 0.158389 -0.07948565 0.032974854
0.04245519 0.016228177 0.03388312 0.13073532 -0.14634056 -0.17158024 -0.01860127 -0.21003845
0.030910596 -0.14239018 -0.056003038 -0.020627929 0.13772945 0.078795105 0.28168857 -0.30639318
0.15853694 -0.22432677 0.21140714 -0.037812583 0.04082159 0.16157407 0.06199861 -0.07603523
00000000: 15eb fabe 5971 b8be 4b93 d33d 7ce8 1ebe
00000010: 4d96 5dbd 6daf cebd c9e9 95bd 9e0b b7bc
00000020: 5a19 2e3e 1e2a d2be 2164 d5be f662 29be
00000030: 37d4 07bd 5c1c d2be b4b9 cbbe 7e2b fe3c
00000040: 25dc f9bd 6b4a 123e 0ad3 c1be 069f acbe
00000050: bbfb 3abc 1020 993b 1f77 aabe 3f2f bdbd
00000060: 26bd 453e ddbb 5a3e 47a8 123e b0e9 85be
00000070: 37a5 6abe e001 2d3e b8fc 0ebe e761 5abe
00000080: 619a 9f3d 5df8 f83d a1aa 4a3e 78a8 b83e
00000090: deb3 c3be dfe1 c6be a3b1 b7bd 7eb7 5e3d
000000a0: 6cfe 2dbe 600f b1bc 37e8 1d3f 3f5f ab3e
000000b0: 0142 8b3e 874f 77be 7f04 debd f8dd 6f3e
000000c0: 98bf 94be c48c 32be 66ac 123e 65be febd
000000d0: dec5 fbbc 8230 863e 3d24 cdbd 8c00 8ebc
000000e0: bf0f 723e 90aa 76be ac50 513c e156 803e
000000f0: cc65 953e 61ee 353e 5740 d33e a388 5bbe
00000100: 1e93 fbbc 4202 853e cb9d edbe 1a63 e4bd
00000110: 7496 213e 9992 34be 6bc8 9cbd 5f05 e23d
00000120: 204e 183c c830 283e 4cdc d73e 4169 22be
00000130: c298 60bd cad0 1d3e 6fb3 723e 98c3 273e
00000140: fa86 c73e 6209 13be 40e3 5d3d a36b c23d
00000150: 682b c1bd 0f48 ebbe cc2e fdbd e7cc 2bbe
00000160: 4b15 9fbd 5b16 e53d 5b5d 9f3d 2341 a7bd
00000170: 2f05 fb3d 778e dabc d914 b43d 0128 4e3d
00000180: a48e ebbb 4e41 00be 1d79 26bd 5143 b83c
00000190: 0023 9c3d c1fc 6b3c 7b32 293e ef35 103e
000001a0: b1e8 903c 5ab2 aa3c fb3e 673d bf1b 393e
000001b0: 7836 0f3e 4ec3 c23d a64a 8c3d a949 8b3d
000001c0: 4790 c33d 8a1c f83d 1723 d03d c3ad 513d
000001d0: cb8d 573e 0c07 19bd 78ac 41bd 6537 ac3d
000001e0: 865f 3b3e e6fd 7d3e 5b0f 073e 2d0d 613d
000001f0: d937 613d e905 3c3e 427c 0e3d 6d8b 643d
00000200: e844 aabd b8fe a93d 5dc7 ce3d ecfc 723d
00000210: 8581 3cbb 3d3b f03c 846a 933d 738c 6a3e
00000220: 0435 753e d055 ef3d 3281 6d3e 9867 c63e
00000230: db6a b43e 1a7c ae3d cb39 243e da0b 823e
00000240: b011 10be c7d6 e2bd d6ad 7abe 2494 343d
00000250: 22a4 40bd eeb1 8e39 4fb9 f8bc 29c5 e63d
00000260: b55e 50bd 4f92 03be f4e1 3dbc 72eb 7bbd
00000270: d4bb e1bd e398 44bd cec2 a2bd ba94 c2bc
00000280: 875d d0bd eb5d 55bd dd28 15be 19f1 a9be
00000290: e1ae 893e a7c6 a5be e106 e9be 60eb 3abc
000002a0: 920b 8dbd 5e9a bb3d da3b 16ba 9d06 873c
000002b0: 21e2 8e3c 8994 25bb 952c f43c 0699 253d
000002c0: 3e6e 6abd 8e1d f1bd d04a 21be 7f86 31bd
000002d0: cfbf c7bc cb8e 34bd 590b 0cbe 5819 c9bc
000002e0: 9820 aebd e63e 62be 333c 4b3d 298c 993b
000002f0: 79b6 24be 8f0b fa3d 13a6 77bc 24d8 2fbe
00000300: 7f1b 61bd b739 02be 6018 9cbe dfbe 083e
00000310: a50f 18be 0f76 57be e06b 293e 70e8 9a3e
00000320: fca3 003e e65c 1e3e 5c66 ac3e d96e 173e
00000330: 4693 f43c 1e67 863d 31db f7bc a5e1 5bba
00000340: fa24 603e cd40 0cbd 8b71 41be a851 74bc
00000350: cb2e fbbd 09c9 f53d 1efa e2bd c1f1 96bd
00000360: d698 893d 7316 883e b8c5 c0bd 8e3b 553c
00000370: c421 e33d 831a 31bd 32de 113e c1e5 513d
00000380: bda6 273e 5b26 2f3e cc3d 783e 561b e2bc
00000390: 15aa ebbd ba30 223e 5fc9 a2bd a410 073d
000003a0: 7ee5 2d3d f4f0 843c 07c9 0a3d 7bdf 053e
000003b0: 4dda 15be bbb2 2fbe b161 98bc 5214 57be
000003c0: 3838 fd3c bbce 11be 7163 65bd e7fb a8bc
000003d0: f308 0d3e 545f a13d 7c39 903e 91df 9cbe
000003e0: 8257 223e ebb5 65be 1d7b 583e 5ee1 1abd
000003f0: 8a34 273d ac73 253e 41f2 7d3d 5cb8 9bbd

raise_dim.0.attention1.0.weight f4 [9, 9, 3, 3]
-0.067929 0.13800202 0.035056856 0.383833 -0.76318437 0.15067516 0.019546479 0.24364388
-0.15735994 -0.15926144 -0.107716486 -0.060622107 -0.1309912 -0.2258038 -0.19782571 -0.006969926
-0.0019354643 -0.05275091 -0.0097130565 -0.10083578 -0.0601992 -0.15723437 -0.13802345 -0.13457143
-0.067245655 -0.042511154 0.008062184 0.070128694 -0.12187086 0.100907795 0.11063927 0.19582063
0.16920643 -0.07106217 -0.0073753577 0.040093336 -0.08078714 -0.17895308 -0.038006276 -0.22594817
-0.063617185 -0.21027872 0.011188134 -0.037994824 -0.10482555 -0.061448738 -0.09807075 0.035570204
-0.030389754 0.08704609 -0.0155403195 -0.07237767 0.14241724 0.010941718 -0.04540881 -0.003904952
-0.061659724 -0.1440787 0.031381905 -0.009398879 -0.22773361 -0.049817093 -0.023531968 0.052782595
0.01642961 0.13483262 0.06378118 0.23712009 0.18841091 -0.15800957 0.14009011 0.14772779
0.28314131 0.3201796 0.21984558 0.31079918 0.39502382 0.21067072 -0.015343811 0.19142818
-0.0694101 -0.03925275 0.17997427 0.01067134 0.17161633 -0.44680524 0.16626416 -0.07699995
0.26798064 0.014062238 -0.24395375 -0.39335662 -0.19466999 -0.32350543 -0.5168554 -0.45639306
-0.20352903 -0.30544397 -0.37653345 0.073385164 0.11556131 0.05922247 0.1959775 0.054759603
-0.04966425 0.066323094 0.17112778 0.036652893 0.25335547 0.10620204 0.1623527 0.26297054
0.19969778 0.069630064 0.13719814 0.18575269 0.20867719 -0.05127741 -0.2727034 -0.1250765
-0.27387008 -0.30404398 -0.06671138 -0.1877218 -0.11806104 -0.15283607 -0.07342899 -0.07943351
0.04636157 0.15418892 -0.082908876 0.08211282 0.09758159 0.059960525 0.096585564 -0.07663976
-0.17287827 -0.22108936 -0.2113711 -0.33487067 -0.27138546 -0.22614042 -0.32703874 -0.1734977
0.094862506 -0.0051899687 0.03530062 0.15827861 0.18461952 0.19698815 -0.045196064 0.1663282
0.09263862 0.09547792 0.05307223 -0.04908415 -0.00508179 0.07401498 0.07914329 -0.14655651
-0.08834743 -0.009127057 -0.7347699 0.29447788 -0.452996 0.5604952 0.5953517 0.1601814
-0.19645499 0.14377864 -0.15711786 -0.9221696 -0.08141546 0.0079199 -0.48597556 -0.15006281
-0.22156784 -0.6328321 -0.24480696 -0.19001529 -0.4366115 -0.023224423 -0.041118663 0.11116966
0.041266594 0.16819538 -0.2744018 -0.09053523 -0.09671203 -0.11883763 0.13379115 0.08442687
0.39292386 0.24219376 0.2753851 -0.047335014 0.17205627 0.14242508 -0.24136913 -0.07624806
0.18586028 -0.06927888 -0.027163053 -0.09704298 -0.16239084 -0.07850825 -0.068151146 -0.08682051
-0.2966708 -0.09425671 0.31350777 -0.14223786 -0.13030098 -0.064868696 -0.13048394 -0.008526632
-0.14821458 -0.06136529 0.035601985 0.23006651 -0.10947218 0.062427532 -0.2094356 -0.12813033
-0.0401549 0.030001642 -0.22863553 -0.060019944 0.43246654 0.061519843 -0.028706599 -0.08725193
0.041166842 -0.14547348 -0.3880348 0.11975172 0.034502782 -0.111442715 0.00831118 -0.1890887
-0.38586715 0.01120152 -0.028306814 -0.06762501 0.20562439 -0.31778714 0.022923592 -0.19413957
0.14930458 -0.11725633 0.07437743 -0.2998377 -0.24673598 0.005928649 -0.074815236 -0.20727603
00000000: 5c1e 8bbd 6750 0d3e c797 0f3d c285 c43e
00000010: 0d60 43bf 974a 1a3e f01f a03c c87d 793e
00000020: f722 21be 6e15 23be 769a dcbd e34e 78bd
00000030: 8f22 06be 1d39 67be d392 4abe fa63 e4bb
00000040: 68af fdba 5711 58bd 8323 1fbc fd82 cebd
00000050: 7093 76bd 0c02 21be 0556 0dbe 18cd 09be
00000060: 17b8 89bd 2d20 2ebd 4017 043c a29f 8f3d
00000070: 6e97 f9bd bfa8 ce3d d796 e23d 3485 483e
00000080: 7344 2d3e 0b89 91bd fcac f1bb e938 243d
00000090: ba73 a5bd 7a3f 37be 78ac 1bbd f55e 67be
000000a0: ba49 82bd 4e53 57be 6f4e 373c 76a0 1bbd
000000b0: c7ae d6bd acb1 7bbd 51d9 c8bd 10b2 113d
000000c0: eff3 f8bc 3845 b23d d39c 7ebc be3a 94bd
000000d0: d3d5 113e e444 333c 97fe 39bd 39ea 7fbb
000000e0: e88e 7cbd 5e89 13be 508a 003d c1fd 19bc
000000f0: 0033 69be 020d 4cbd 1dc6 c0bc 9032 583d
00000100: 6497 863c 9011 0a3e b59f 823d 9ccf 723e
00000110: caee 403e 43cd 21be c873 0f3e f445 173e
00000120: e6f7 903e 95ee a33e 331f 613e 1221 9f3e
00000130: 9040 ca3e 11ba 573e 9c64 7bbc c005 443e
00000140: e226 8ebd 7ec7 20bd 2d4b 383e d8d6 2e3c
00000150: 31bc 2f3e a8c3 e4be 2741 2a3e 26b2 9dbd
00000160: c234 893e 4d65 663c 03cf 79be 0a66 c9be
00000170: 9257 47be 81a2 a5be a350 04bf 5aac e9be
00000180: ea69 50be 2763 9cbe fec8 c0be f64a 963d
00000190: 68ab ec3d 4393 723d 53ae 483e 9b4b 603d
000001a0: be6c 4bbd 67d4 873d 1f3c 2f3e 5821 163d
000001b0: cfb7 813e 7580 d93d c93f 263e 13a4 863e
000001c0: 937d 4c3e 359a 8e3d ab7d 0c3e f435 3e3e
000001d0: 79af 553e 4308 52bd c89f 8bbe 0e14 00be
000001e0: b338 8cbe a7ab 9bbe fa9f 88bd 253a 40be
000001f0: fdc9 f1bd 0f81 1cbe f061 96bd 09ae a2bd
00000200: a1e5 3d3d b3e3 1d3e 21cc a9bd c42a a83d
00000210: dbd8 c73d 2b99 753d a7ce c53d 4ef5 9cbd
00000220: 0007 31be 4065 62be aa71 58be 2b74 abbe
00000230: 09f3 8abe 5b91 67be 9f71 a7be 62a9 31be
00000240: 4647 c23d 9d10 aabb 6297 103d ca13 223e
00000250: e60c 3d3e 43b7 493e 821f 39bd f151 2a3e
00000260: 51b9 bd3d ed89 c33d 4462 593d 760c 49bd
00000270: 2585 a6bb 2a95 973d e115 a23d e912 16be
00000280: 7fef b4bd a789 15bc e119 3cbf cec5 963e
00000290: 17ef e7be 9d7c 0f3f f868 183f 9806 243e
000002a0: 7f2b 49be b53a 133e 81e3 20be 4f13 6cbf
000002b0: 26bd a6bd 78c2 013c cad1 f8be 11aa 19be
000002c0: aee2 62be 4901 22bf adae 7abe 5e93 42be
000002d0: 8b8b dfbe 2541 bebc 0b6c 28bd ebac e33d
000002e0: 2907 293d 693b 2c3e 657e 8cbe 896a b9bd
000002f0: f510 c6bd 2561 f3bd 8c00 093e ffe7 ac3d
00000300: 512d c93e a401 783e 47ff 8c3e 5ce2 41bd
00000310: 852f 303e e1d7 113e 7829 77be f127 9cbd
00000320: 2852 3e3e 16e2 8dbd 0d85 debc 78be c6bd
00000330: c949 26be efc8 a0bd d492 8bbd f4ce b1bd
00000340: 3ce5 97be a909 c1bd 1784 a03e cda6 11be
00000350: 9f6d 05be e1d9 84bd 959d 05be 49b3 0bbc
00000360: 90c5 17be 2c5a 7bbd 63d3 113d 8e96 6b3e
00000370: f332 e0bd 03b4 7f3d 4976 56be 9934 03be
00000380: 7779 24bd 01c6 f53c 6f1f 6abe 79d7 75bd
00000390: 416c dd3e 3bfc 7b3d 1a2a ebbc 24b1 b2bd
000003a0: 909e 283d 00f7 14be 7fac c6be 6440 f53d
000003b0: ca52 0d3d 143c e4bd 9e2b 083c 78a0 41be
000003c0: 6190 c5be 9586 373c b1e3 e7bc fb7e 8abd
000003d0: 338f 523e ffb4 a2be 42ca bb3c 86cc 46be
000003e0: 4de3 183e 1624 f0bd 3253 983d 5484 99be
000003f0: 5ba8 7cbe 1d45 c23b bb38 99bd 2b40 54be

raise_dim.0.attention1.0.bias f4 [9]
0.31738615 0.31996456 0.13521239 0.41476375 -0.12891859 0.456924 0.2034619 -0.12733118
0.1341491
00000000: 7080 a23e 65d2 a33e 1e75 0a3e ea5b d43e
00000010: 3c03 04be f1f1 e93e 5158 503e 1b63 02be
00000020: 625e 093e

raise_dim.0.attention1.2.weight f4 [9, 9, 1, 1]
0.34253123 0.12508671 -0.23236033 -0.17210358 0.3604529 0.35980338 -0.43937352 0.2531828
0.49421826 0.38005254 0.42109895 0.82878125 0.84790856 -0.0767302 0.26191342 -0.27331883
-0.13006854 0.35129645 0.652943 0.30795208 1.241584 0.42948446 -0.15232967 -0.103791066
0.48005652 -0.22805984 0.0076192045 0.23180008 -0.7047979 -0.25429913 -0.5438971 0.41434088
-0.36660844 0.5646924 -0.060049172 0.21174765 0.5008841 0.046963613 -0.5322349 -0.5709704
0.2675334 -0.2610397 0.022883916 0.3865962 -0.5617667 0.23129603 0.64550364 -0.6513116
0.20724921 -0.6588765 0.54100686 -0.008237324 -0.54626524 0.12304545 0.36330914 0.15248676
0.27717862 -0.2980903 0.7395316 -0.30130282 0.35441533 -0.6769241 -0.18034582 0.5534535
0.940919 0.866585 -0.018541757 0.04887004 0.043389272 0.28398913 -0.28126276 -0.42313847
0.5905748 0.34115794 0.33680674 0.04280502 -0.21663946 0.23542689 0.32089338 0.13527855
0.1727851
00000000: 4160 af3e bb16 003e deef 6dbe ec3b 30be
00000010: 488d b83e 2638 b83e 91f5 e0be 2da1 813e
00000020: 2d0a fd3e 3f96 c23e 489a d73e 022b 543f
00000030: 8910 593f b924 9dbd 8419 863e 72f0 8bbe
00000040: b030 05be 21dd b33e 4627 273f e5ab 9d3e
00000050: 39ec 9e3f 63e5 db3e 4ffc 1bbe 6990 d4bd
00000060: f8c9 f53e 8588 69be 85aa f93b 005d 6d3e
00000070: a36d 34bf 7f33 82be d73c 0bbf 7d24 d43e
00000080: 1ab4 bbbe ae8f 103f 1ff6 75bd 60d4 583e
00000090: f139 003f eb5c 403d 8c40 08bf 1e2b 12bf
000000a0: 23fa 883e ffa6 85be 0d77 bb3c f0ef c53e
000000b0: f1cf 0fbf ded8 6c3e ba3f 253f 5bbc 26bf
000000c0: 2339 543e 21ac 28bf 6d7f 0a3f d7f5 06bc
000000d0: 0ad8 0bbf 41ff fb3d a803 ba3e 7d25 1c3e
000000e0: 5bea 8d3e 4b9f 98be f151 3d3f 5d44 9abe
000000f0: ed75 b53e e64a 2dbf 93ac 38be 21af 0d3f
00000100: 11e0 703f 84d8 5d3f e2e4 97bc f32b 483d
00000110: f3b8 313d 0667 913e ac01 90be 9ba5 d8be
00000120: e92f 173f 41ac ae3e ef71 ac3e 5154 2f3d
00000130: bcd6 5dbe bf13 713e 234c a43e 7686 0a3e
00000140: 94ee 303e

raise_dim.0.attention1.2.bias f4 [9]
0.36995605 0.6799682 0.41034943 -0.76829654 0.20041114 0.46931803 -0.6395478 0.059938475
-0.1291769
00000000: e16a bd3e 6512 2e3f 5219 d23e 15af 44bf
00000010: 9438 4d3e 744a f03e 68b9 23bf 0c82 753d
00000020: f346 04be

raise_dim.0.attention1.4.weight f4 [9, 9, 1, 1]
-0.45893216 -0.23116875 0.1689052 0.47786728 0.9199546 -0.4318014 0.47659424 0.7070627
0.2844816 -0.48241732 -0.019680457 0.30637243 0.15959471 -0.21603371 -0.3049086 0.0049393075
-0.3660111 -0.31264386 -0.3780012 -0.1498329 -0.25031537 0.35323974 -0.8269952 -0.08250075
-0.1796247 -0.29400548 -0.21801485 -0.034994513 -0.25136924 -0.22627129 -0.23036022 -0.46416768
0.11689582 -0.012498144 -0.34402478 0.035020784 0.77342665 1.4634309 1.6265769 -1.1579673
0.48583284 1.5450996 -1.1544362 1.8219655 1.0362054 -0.013383328 0.06549358 0.036626197
-0.36153328 0.06532554 -0.17479432 -0.40634024 0.12454111 -0.29277447 -0.35656908 0.043097716
0.27165753 0.030169213 0.7122615 0.04853025 0.3385416 0.36968437 -0.28775778 -0.10663155
0.34328187 0.6548053 -0.21085341 -0.5156259 0.019784866 0.26969782 0.20798494 -0.29834825
-0.36506078 -0.17705135 -0.31376243 -0.15911093 -0.5616568 -0.5668113 -0.03079731 -0.6202026
-0.6365228
00000000: 28f9 eabe 80b7 6cbe 7cf5 2c3e 05ab f43e
00000010: 2582 6b3f 1315 ddbe 2904 f43e 1002 353f
00000020: 93a7 913e 67ff f6be e938 a1bc d9dc 9c3e
00000030: cc6c 233e f137 5dbe fb1c 9cbe ead9 a13b
00000040: cf65 bbbe db12 a0be 6089 c1be cc6d 19be
00000050: 5629 80be d7db b43e f5b5 53bf 27f6 a8bd
00000060: 8aef 37be e387 96be 493f 5fbe 6856 0fbd
00000070: 78b3 80be a9b3 67be 8de3 6bbe 63a7 edbe
00000080: 1367 ef3d 04c5 4cbc 0424 b0be f471 0f3d
00000090: 4aff 453f b451 bb3f ac33 d03f 4638 94bf
000000a0: 15bf f83e d3c5 c53f 91c4 93bf 2a36 e93f
000000b0: 61a2 843f bf45 5bbc 8021 863d 5a05 163d
000000c0: e41a b9be 66c9 853d 48fd 32be d40b d0be
000000d0: 690f ff3d 89e6 95be 3990 b6be 3b87 303d
000000e0: b216 8b3e 6d25 f73c c556 363f a8c7 463d
000000f0: 5355 ad3e 4547 bd3e fd54 93be a461 dabd
00000100: a4c2 af3e 52a1 273f f5e9 57be 0f00 04bf
00000110: df13 a23c d515 8a3e 01fa 543e 1ac1 98be
00000120: 3fe9 babe f34c 35be 78a5 a0be faed 22be
00000130: bdc8 0fbf 8c1a 11bf a44a fcbc 99c5 1ebf
00000140: 29f3 22bf

raise_dim.0.attention1.4.bias f4 [9]
-0.14455804 -0.090268284 -0.034235425 0.25553274 1.3948847 0.27181876 0.06784614 0.5118236
0.14028451
00000000: 0607 14be 94de b8bd 723a 0cbd 30d5 823e
00000010: 958b b23f d42b 8b3e ebf2 8a3d df06 033f
00000020: bea6 0f3e

raise_dim.0.attention3.1.weight f4 [32, 9, 1, 1]
-0.044159938 -0.087736264 0.074923865 0.12158772 -0.3518994 0.36245796 0.2869111 -0.3761038
0.2526591 0.19718692 0.0075242287 0.2399557 -0.017180946 -0.38701707 -0.0060058376 0.31549668
-0.3241778 0.1333586 -0.018904952 -0.06714153 0.0007535655 0.08504329 -0.28419343 0.08027094
0.11540874 0.20172866 0.3022507 -0.026834747 -0.15560043 -0.047214158 -0.1767848 0.15195243
0.29545072 -0.12573646 0.10725569 0.42999715 -0.35779557 -0.23127818 0.17648406 0.1987146
0.038281985 -0.2886419 -0.033167273 -0.1574831 -0.22827 -0.48246065 0.36355612 0.15048309
0.034443356 -0.05881981 0.2744297 -0.09384388 0.25248516 -0.1150019 0.019553714 0.048550315
0.12188968 -0.10509943 0.25534293 0.038163707 0.25883022 0.26271555 0.00340652 0.1572251
0.07943337 0.18885013 -0.22748373 -0.06887654 -0.06265784 0.5794305 -0.41047418 -0.12116373
0.033142693 0.17630199 0.20264064 -0.30109593 -0.40786788 0.35411733 0.21219902 -0.350872
-0.11543735 0.20545147 -0.13919614 -0.31317505 -0.2674222 -0.06364127 0.0965692 0.17961098
0.0052784937 -0.10216116 -0.14253926 -0.4417363 0.1367468 0.23435313 0.26214615 0.09747081
0.03309729 -0.19697188 0.18307793 -0.25047535 0.27891573 -0.1509428 -0.25969484 0.12273571
-0.011907323 -0.2234419 0.24737978 0.017891375 0.01141952 -0.24142322 -0.33579364 0.0320274
-0.14486788 -0.16553526 0.3975456 -0.17218368 0.1749473 -0.09745735 -0.084222406 0.177296
-0.21679643 0.111064866 -0.24910173 0.22378248 -0.02142304 0.3893863 0.19642109 0.2523157
0.12408279 -0.00062565185 -0.09384769 -0.07616266 0.0019306043 -0.43768907 0.4086019 -0.051053867
0.34230754 -0.035740383 0.07083234 -0.15143128 -0.46074885 0.46543974 0.11704671 0.2657997
-0.3564938 0.2173201 -0.2841892 -0.06984994 0.013763901 -0.23294406 -0.22773366 0.10534224
0.31519663 0.35392392 -0.29336733 -0.099621706 -0.32187653 -0.2873259 0.01905042 0.44588035
-0.24050334 0.046860345 0.21522942 -0.031604063 0.09407301 0.09906376 0.22367758 -0.2421152
-0.5001266 -0.14638175 -0.13045914 0.39441508 0.15241836 0.22433296 -0.11829824 -0.2504935
0.36819616 -0.10044014 -0.30128807 -0.039016526 -0.034385044 -0.023296122 0.1520438 0.17555806
-0.22743827 -0.023577824 -0.36687738 0.33331108 0.050101046 0.17858033 0.38089618 0.20161155
-0.38727394 0.06361534 -0.160735 0.17017417 -0.15311126 0.36613342 -0.09895782 -0.39483926
0.07824311 0.22467037 0.16812429 0.30296826 0.28755316 0.0717953 -0.10115426 -0.032292705
-0.10168197 0.072482236 -0.21212263 0.17949209 0.013998122 0.43944252 -0.5070686 0.49385563
-0.32816744 -0.10063616 0.17927694 0.05463176 -0.19901165 0.034855757 -0.6370814 0.23384376
0.069730364 0.067692205 0.027507743 -0.017489027 -0.064397946 0.0821446 0.1934497 -0.416378
-0.18344097 -0.21730188 -0.16306041 -0.23359123 -0.026394118 -0.18125552 0.4638642 -0.08098588
-0.3813703 0.044449463 -0.2542842 0.26297024 0.32646394 -0.0859165 -0.047002632 0.32844377
-0.11443078 0.22839731 -0.3227499 -0.27489907 -0.13799614 -0.30722368 0.11718645 -0.04602868
00000000: 0de1 34bd 12af b3bd af71 993d fc02 f93d
00000010: 282c b4be 1794 b93e 03e6 923e ad90 c0be
00000020: 895c 813e 5eeb 493e ce8d f63b f2b6 753e
00000030: 0ebf 8cbc 1a27 c6be 9ecc c4bb c888 a13e
00000040: a2fa a5be 288f 083e 8fde 9abc 8081 89bd
00000050: ed8a 453a 2d2b ae3d cd81 91be 1765 a43d
00000060: 6b5b ec3d f591 4e3e 9bc0 9a3e 8bd4 dbbc
00000070: b855 1fbe a263 41bd 1307 35be 6b99 1b3e
00000080: 5145 973e 0fc1 00be dfa8 db3d 9628 dc3e
00000090: fb30 b7be 30d4 6cbe 3db8 343e d77b 4b3e
000000a0: 92cd 1c3d dfc8 93be 68da 07bd 4043 21be
000000b0: 9cbf 69be 1505 f7be 0724 ba3e 3d18 1a3e
000000c0: 7a14 0d3d 0bed 70bd 0d82 8c3e 3831 c0bd
000000d0: bc45 813e 1e86 ebbd 1c2f a03c b2dc 463d
000000e0: 4ca1 f93d 5f3e d7bd 4fbc 823e 8c51 1c3d
000000f0: 6585 843e a782 863e ec3f 5f3b 9eff 203e
00000100: f6ad a23d ee61 413e 7ff1 68be 250f 8dbd
00000110: c152 80bd 8f55 143f ac29 d2be b124 f8bd
00000120: a2c0 073d 8288 343e 0781 4f3e 3f29 9abe
00000130: 0fd4 d0be de4e b53e b34a 593e 7fa5 b3be
00000140: 6b6a ecbd df61 523e 6f89 0ebe 7b58 a0be
00000150: 90eb 88be 5b56 82bd 13c6 c53d f1eb 373e
00000160: 37f7 ac3b df39 d1bd d0f5 11be 432b e2be
00000170: 5a07 0c3e 44fa 6f3e 0538 863e c79e c73d
00000180: 0691 073d ffb2 49be c878 3b3e 4e3e 80be
00000190: 0bce 8e3e c090 1abe b9f6 84be dc5c fb3d
000001a0: ef16 43bc f4cd 64be 2051 7d3e ef90 923c
000001b0: f018 3b3c a637 77be 25ed abbe 2a2f 033d
000001c0: 3f58 14be 1382 29be 198b cb3e eb50 30be
000001d0: 6325 333e b897 c7bd cc7c acbd 158d 353e
000001e0: e2ff 5dbe fa75 e33d 8614 7fbe 3c27 653e
000001f0: 5f7f afbc a45d c73e 9c22 493e 862f 813e
00000200: 1e1f fe3d c902 24ba 3833 c0bd 2bfb 9bbd
00000210: 550c fd3a c818 e0be 4534 d13e dc1d 51bd
00000220: ef42 af3e 8264 12bd 8c10 913d cd10 1bbe
00000230: 46e7 ebbe 1e4e ee3e 2fb6 ef3d e616 883e
00000240: 5b86 b6be 2989 5e3e 3f81 91be 7c0d 8fbd
00000250: fc81 613c e388 6ebe 0333 69be acbd d73d
00000260: 7461 a13e 8435 b53e 3e34 96be 7706 ccbd
00000270: 00cd a4be 611c 93be a00f 9c3c 6e4a e43e
00000280: 8246 76be a2f0 3f3d 1a65 5c3e 4373 01bd
00000290: 5aa9 c03d f1e1 ca3d bc0b 653e 0ced 77be
000002a0: 4c08 00bf 19e5 15be 1597 05be c6f0 c93e
000002b0: 8f13 1c3e 8ab7 653e 5946 f2bd af40 80be
000002c0: 3584 bc3e 8fb3 cdbd 6e42 9abe cbcf 1fbd
000002d0: 55d7 0cbd 82d7 bebc 5fb1 1b3e 7ec5 333e
000002e0: 94e5 68be 4826 c1bc 5ad7 bbbe c0a7 aa3e
000002f0: c136 4d3d c3dd 363e d304 c33e 4273 4e3e
00000300: c548 c6be c248 823d b797 24be 2342 2e3e
00000310: 33c9 1cbe d775 bb3e 66aa cabd 5f28 cabe
00000320: ec3d a03d fd0f 663e c628 2c3e a81e 9b3e
00000330: 2b3a 933e 6a09 933d f729 cfbd 5b45 04bd
00000340: a33e d0bd 9171 943d ad36 59be c6cc 373e
00000350: 6158 653c 9cfe e03e 3fcf 01bf a5da fc3e
00000360: 9005 a8be 551a cebd 6094 373e 8dc5 5f3d
00000370: b6c9 4bbe e9c4 0e3d c417 23bf bd74 6f3e
00000380: cbce 8e3d 36a2 8a3d eb57 e13c 2645 8fbc
00000390: 12e3 83bd 6e3b a83d ae17 463e 7f2f d5be
000003a0: f3d7 3bbe 6284 5ebe 4ff9 26be 8a32 6fbe
000003b0: 7a38 d8bc 0c9b 39be 9c7f ed3e eddb a5bd
000003c0: f842 c3be a410 363d 8a31 82be 09a4 863e
000003d0: 4826 a73e fdf4 afbd d585 40bd c829 a83e
000003e0: af5a eabd fce0 693e 7a3f a5be 92bf 8cbe
000003f0: dc4e 0dbe 6c4c 9dbe 73ff ef3d 9288 3cbd

raise_dim.0.attention3.1.bias f4 [32]
-0.0688328 -0.037964035 -0.18357508 -0.2176269 0.026496425 -0.022348635 -0.29173705 0.015489537
0.103397615 0.090535514 0.23852931 -0.016732976 0.11174711 -0.15220203 -0.032227878 -0.14572519
-0.016698532 0.11443299 0.0605857 -0.09771035 -0.08858528 -0.051768735 -0.16313834 -0.06881954
0.044690672 0.046284005 0.1964167 -0.10942146 0.08027996 -0.054226987 -0.07203185 -0.10841929
00000000: 36f8 8cbd 2d80 1bbd 1bfb 3bbe 96d9 5ebe
00000010: 080f d93c 7c14 b7bc 8f5e 95be d4c7 7d3c
00000020: 21c2 d33d af6a b93d 0741 743e 9813 89bc
00000030: abdb e43d d9da 1bbe 6101 04bd fc38 15be
00000040: 5ccb 88bc d85b ea3d b628 783d 5d1c c8bd
00000050: 336c b5bd 740b 54bd bd0d 27be 42f1 8cbd
00000060: 910d 373d 4c94 3d3d 7621 493e 5c18 e0bd
00000070: d269 a43d 1e1d 5ebd 6f85 93bd ef0a debd

raise_dim.0.attention3.3.weight f4 [32, 32, 1, 1]
0.022500925 -0.0053083487 -0.023347167 -0.16607104 0.15857479 -0.32849878 -0.052283347 0.17957182
0.13854834 0.16945298 -0.096035816 -0.118031 0.30315405 0.07502926 0.21029046 0.18846282
0.07296798 0.24972348 -0.034430817 -0.0033466292 -0.08793338 0.18633147 -0.08346418 0.07003436
-0.07560477 0.019468194 0.31031528 0.28753003 0.014657574 -0.15665872 -0.20419815 0.06819853
-0.016654657 0.021160057 0.081903204 0.02652691 0.02640766 0.0052397796 -0.047135267 0.1255705
0.018115895 -0.07024067 -0.019192668 -0.01893368 -0.00721477 0.0372667 -0.12781058 -0.045048792
0.1283326 0.045724858 -0.027709348 -0.0052420506 0.18626066 -0.06793518 -0.023466147 -0.009275029
0.01772263 0.055562094 -0.084280826 -0.109295696 0.094056755 -0.013577505 -0.00044529059 -0.0011772391
0.12191299 0.08046447 0.07455323 0.06814007 -0.10318976 0.2185034 -0.014696757 -0.25853312
0.025709435 -0.11096409 0.029306 0.091509216 -0.0011867661 0.0052198847 -0.06912386 0.12290746
0.020741533 -0.10668379 -0.053902663 0.04449493 -0.13847943 0.030059835 0.024372172 0.120757006
-0.2027475 -0.026580142 0.04477719 -0.39626878 -0.017188486 0.09599756 -0.09200247 -0.21460484
-0.11625971 0.020329874 -0.049289707 -0.050904922 -0.0043762503 0.03508562 -0.07592213 -0.08943729
-0.063995585 -0.025633808 -0.12770988 -0.019521635 -0.073367245 -0.011125965 -0.12381461 0.057605106
0.1313292 -0.07214956 -0.032746226 0.09818289 0.022766883 -0.10229598 -0.057598926 0.082080424
-0.046225656 0.056757137 0.055022683 0.072196 0.025295718 -0.019300379 0.06999634 0.066737235
0.14488712 0.13000305 0.121916436 0.017261207 -0.050872482 0.01988063 -0.0512797 0.19287363
0.099561766 0.13122971 0.10873264 0.037518796 0.06387943 0.16468981 0.048819665 -0.13831691
-0.058515456 0.12354167 -0.05216899 -0.044667695 0.012510696 0.16965128 -0.019089455 -0.16702843
0.0077956547 -0.099267185 -0.12946935 0.0232487 -0.11991841 0.06446511 -0.12146472 -0.06709422
-0.09081461 -0.052749377 -0.022426628 -0.14671747 0.035779424 0.05553454 -0.33405274 -0.7137303
0.1471706 -0.14591086 -0.12544481 0.13263108 -0.2168224 0.04922348 -0.18447393 -0.5696204
-0.11287626 -0.22340472 0.124934554 -0.016079877 0.36342388 -0.8525079 0.006469976 -0.56591344
-0.0023045086 -0.035285812 0.14041884 -0.19889437 0.010313609 0.057981875 0.07256056 0.04831483
-0.23105896 -0.11059946 -0.02466981 -0.11086024 -0.08825669 0.6482005 0.43212795 0.23676689
0.012846876 -0.052123517 0.1291346 0.10656891 -0.11717662 -0.23879285 -0.22174934 -0.20469004
-0.09639403 -0.071712315 -0.06582443 -0.15298617 -0.17220683 -0.20494126 -0.35502103 0.13256252
0.00837494 -0.3220164 0.10746083 0.66344905 0.37168014 -0.51658696 0.47638923 -0.010545442
0.101679824 0.17158766 -0.12150053 -0.1382314 -0.042726435 -0.0019238162 -0.07996532 0.20557472
-0.0144515745 0.0015130829 0.22259532 -0.115813576 0.23128557 -0.13145533 0.08689393 -0.076923475
-0.20344399 0.1457745 -0.019538183 -0.020846564 0.066572726 -0.041648526 0.023434496 -0.13054281
-0.015792403 -0.016446944 0.006170254 0.032244682 -0.01930688 0.027585994 0.027705079 -0.04358155
00000000: dc53 b83c a8f1 adbb 8f42 bfbc 870e 2abe
00000010: 6e61 223e fe30 a8be 1027 56bd ade1 373e
00000020: 9edf 0d3e 1585 2d3e 6dae c4bd 3dba f1bd
00000030: 0237 9b3e f1a8 993d 6256 573e 66fc 403e
00000040: 3c70 953d 83b7 7f3e 5407 0dbd 1f53 5bbb
00000050: 6a16 b4bd adcd 3e3e 45ef aabd 2d6e 8f3d
00000060: acd6 9abd c37b 9f3c a5e1 9e3e 2337 933e
00000070: 5226 703c 256b 20be 5219 51be acab 8b3d
00000080: 596f 88bc db57 ad3c debc a73d f64e d93c
00000090: e154 d83c 75b2 ab3b e910 41bd 8e95 003e
000000a0: c967 943c 57da 8fbd f139 9dbc ce1a 9bbc
000000b0: e169 ecbb f8a4 183d c7e0 02be 1585 38bd
000000c0: 9f69 033e fd49 3b3d b7fe e2bc 82c5 abbb
000000d0: 1dbb 3e3e 9a21 8bbd 143c c0bc 4bf6 17bc
000000e0: 0d2f 913c 1495 633d 6d9b acbd 6cd6 dfbd
000000f0: d4a0 c03d 2f74 5ebc e475 e9b9 974d 9aba
00000100: 85ad f93d 8eca a43d 5daf 983d 058d 8b3d
00000110: 2755 d3bd 5bbf 5f3e abca 70bc 745e 84be
00000120: 989c d23c 2441 e3bd 2313 f03c 2f69 bb3d
00000130: 438d 9bba 910b ab3b cf90 8dbd e8b6 fb3d
00000140: 26ea a93c 087d dabd 0ac9 5cbd 5140 363d
00000150: 8dcd 0dbe 0b40 f63c 26a8 c73c 734f f73d
00000160: 0a9d 4fbe 99be d9bc 4968 373d bee3 cabe
00000170: dece 8cbc 5e9a c43d ca6b bcbd 5fc1 5bbe
00000180: 9219 eebd d68a a63c 01e4 49bd ae81 50bd
00000190: a666 8fbb f0b5 0f3d 107d 9bbd e62a b7bd
000001a0: 1e10 83bd fefd d1bc 61c6 02be d6eb 9fbc
000001b0: 9141 96bd ae49 36bc 8492 fdbd 55f3 6b3d
000001c0: 297b 063e 26c3 93bd e820 06bd 1c14 c93d
000001d0: 9d81 ba3c 8e80 d1bd daec 6bbd c819 a83d
000001e0: 1d57 3dbd 2c7a 683d 775f 613d 7fdb 933d
000001f0: f738 cf3c d41b 9ebc 3e5a 8f3d 88ad 883d
00000200: 4a5d 143e 851f 053e 53af f93d 6067 8d3c
00000210: aa5f 50bd b4dc a23c aa0a 52bd aa80 453e
00000220: 0ae7 cb3d 1561 063e 38af de3d 4fad 193d
00000230: 38d3 823d 72a4 283e 21f7 473d f3a2 0dbe
00000240: e7ad 6fbd 6a03 fd3d 27af 55bd 79f5 36bd
00000250: aaf9 4c3c 11b9 2d3e 7d61 9cbc 8009 2bbe
00000260: b172 ff3b 984c cbbd 9d93 04be 0f74 be3c
00000270: c997 f5bd 4906 843d 7fc2 f8bd b268 89bd
00000280: 03fd b9bd bb0f 58bd 0cb8 b7bc 1b3d 16be
00000290: 728d 123d 3078 633d f608 abbe 07b7 36bf
000002a0: e4b3 163e a869 15be 9b74 00be 71d0 073e
000002b0: b106 5ebe 8f9e 493d bce6 3cbe a4d2 11bf
000002c0: ab2b e7bd 35c4 64be b0dd ff3d f2b9 83bc
000002d0: b212 ba3e f53d 5abf 1802 d43b b4df 10bf
000002e0: 3d07 17bb db87 10bd f5c9 0f3e f7aa 4bbe
000002f0: 69fa 283c 677e 6d3d a29a 943d c5e5 453d
00000300: b89a 6cbe f881 e2bd 5718 cabc b20a e3bd
00000310: ecbf b4bd 78f0 253f e03f dd3e 0573 723e
00000320: b47b 523c 787f 55bd dc3b 043e cd40 da3d
00000330: 4cfa efbd 1d86 74be 4212 63be 449a 51be
00000340: 3c6a c5bd e8dd 92bd f5ce 86bd 68a8 1cbe
00000350: fd56 30be 1fdc 51be 51c5 b5be 78be 073e
00000360: 0b37 093c 55df a4be 6c14 dc3d ccd7 293f
00000370: dc4c be3e 0b3f 04bf 4ae9 f33e cac6 2cbc
00000380: 833d d03d adb4 2f3e 45d5 f8bd 888c 0dbe
00000390: ea01 2fbd 8f28 fcba dcc4 a3bd 2e82 523e
000003a0: 4cc6 6cbc a352 c63a 07f0 633e ab2f edbd
000003b0: 20d6 6c3e 3a9c 06be 72f5 b13d 0e8a 9dbd
000003c0: 9f53 50be e945 153e 8a0e a0bc 6ac6 aabc
000003d0: 4857 883d a597 2abd b3f9 bf3c 04ad 05be
000003e0: 125f 81bc bebb 86bc d82f ca3b 0013 043d
000003f0: 7629 9ebc 06fc e13c c3f5 e23c 9182 32bd

raise_dim.0.attention3.3.bias f4 [32]
-0.0738253 -0.01056706 0.04819582 0.14025839 0.048018288 -0.009731844 -0.046669148 0.022343772
-0.029828083 -0.06934459 0.055336256 0.041715704 0.034139693 -0.1666906 0.030349402 0.13050057
0.010872594 -0.13861987 0.019294083 0.038583763 -0.17125022 -0.015744712 -0.06098824 -0.01685377
0.023682924 0.0025051192 0.09205206 -0.34150508 -0.11428606 -0.02512831 -0.09744293 0.019482348
00000000: b831 97bd 7621 2dbc fb68 453d e59f 0f3e
00000010: d3ae 443d 5072 1fbc 2628 3fbd 490a b73c
00000020: 065a f4bc 8904 8ebd 45a8 623d 16de 2a3d
00000030: 10d6 0b3d f1b0 2abe 4f9f f83c f1a1 053e
00000040: f722 323c 5ef2 0dbe a00e 9e3c 020a 1e3d
00000050: 385c 2fbe 0efb 80bc cece 79bd eb10 8abc
00000060: b102 c23c ed2c 243b ca85 bc3d c1d9 aebe
00000070: cf0e eabd e3d9 cdbc 2990 c7bd 7299 9f3c

layers.0.conv1.weight f4 [32, 32, 3, 3]
0.011399646 0.08171759 0.10596071 0.018110055 -0.04545342 -0.0828822 0.22849473 -0.007268248
-0.024735983 -0.076193996 -0.10937063 -0.03427545 0.106603295 0.045229215 0.17647536 0.24029802
-0.20432498 -0.12372854 -0.16324535 -1.0822614 -0.19702554 -0.14699295 -0.25535604 0.24962471
-0.65619373 0.0645391 -0.26254573 -0.06528123 0.14387287 0.49594015 -0.128831 0.46776757
0.3081768 0.17301165 0.020224355 0.3091295 0.10091182 0.09124157 0.045150872 -0.10334942
-0.16076156 0.11223613 -0.026178984 -0.17868394 -0.18691246 0.041981805 0.07436141 0.08919866
0.0019182906 0.20070052 -0.17045785 0.21109147 0.011934488 0.35971662 -0.34479177 -0.39232674
-0.6675499 0.32809404 0.23365715 -0.26963183 0.5477384 0.04107588 0.013658222 0.046940565
-0.26176178 -0.4032645 -0.13303177 -0.17832834 -0.6414497 0.63157463 -0.15162954 0.054331254
0.36182374 -0.20699722 -0.013742917 0.54679525 -0.13662043 -0.37564996 0.18259643 -0.1347489
-0.25718862 0.06930259 0.061901502 -0.22709443 0.04532711 -0.053371154 0.009566614 -0.028687926
0.18244192 0.0498198 0.23446842 0.37112495 -0.317543 0.118380874 -0.2945276 -0.04979584
-0.034177408 0.48435396 0.26517215 -0.5356259 -0.41861662 -0.2984707 -0.21371903 -0.30491957
-0.46493614 0.43975347 0.08299119 -0.28585324 -0.0024532091 -0.18339708 -0.30718657 0.11866678
-0.20254661 0.06552073 0.0456821 -0.07134803 0.00871603 -0.4102217 -0.052825082 -0.26361358
-0.4003377 0.0026836507 -0.77328086 -0.10913896 -0.14886272 -0.31461936 0.6994799 0.30718747
0.0092367595 -0.20619665 0.42045355 -0.28585973 0.42749578 0.2977003 0.21794349 0.06014014
-0.075082235 0.2472842 -0.13349818 0.062015753 -0.219345 0.11794181 -0.17540048 -0.39337265
-0.15786637 0.12461048 -0.027912527 -0.1891876 0.06078575 0.10551487 -0.03060764 0.3727961
0.030862963 -0.029699098 0.003244682 0.20986715 -0.06454248 -0.03466448 0.2921051 0.070613705
-0.2815291 0.1372819 -0.19568932 0.13504115 0.56086934 -0.23966977 -0.54744905 0.36861727
0.2976759 0.042250186 -0.08761499 0.12456977 -0.009578274 0.053361446 0.18898092 -0.09207693
-0.18260643 0.14393516 0.030895028 -0.10180371 -0.19775826 -0.15740387 -0.25707516 0.050634313
0.08256192 0.24624197 0.034341365 -0.03586947 0.7016932 1.0126456 0.013757815 0.43667436
-0.14682373 0.23562537 0.0026481152 -0.69281733 0.3748469 -0.6344354 -0.14681382 0.14961387
0.24967098 -0.4049702 -0.09626075 0.3611052 0.088154115 0.18985602 0.31431016 0.26930767
0.120861284 0.19117637 0.19142666 0.16280375 -0.24367328 0.06740741 -0.06291311 -0.19353946
0.120609716 0.08818761 0.087414846 0.6340907 0.2594291 -0.52871436 -0.3793757 -0.17849588
-0.2634476 0.19224887 0.2007747 0.3281017 0.1353403 0.09493633 0.20652565 0.06581994
0.1736767 0.21517254 -0.21116655 -0.21924898 0.0026589066 -0.26911727 -0.15384911 -0.19670811
-0.07897834 0.17719643 -0.15745725 0.791294 1.2277049 0.40428644 0.15310307 -0.27155638
0.4482593 0.68568367 0.32016197 0.3025569 0.021472853 -0.12631255 -0.26512527 -0.33150178
00000000: 95c5 3a3c 8d5b a73d ee01 d93d 8a5b 943c
00000010: 5e2d 3abd 25be a9bd 86fa 693e 7c2a eebb
00000020: 1ea3 cabc 990b 9cbd b5fd dfbd 6a64 0cbd
00000030: d452 da3d 4542 393d f5b5 343e af10 763e
00000040: 913a 51be 6465 fdbd ca29 27be 8b87 8abf
00000050: 10c1 49be 5285 16be 07be 82be 9f9d 7f3e
00000060: 50fc 27bf 132d 843d 656c 86be 2ab2 85bd
00000070: 6953 133e deeb fd3e 46ec 03be 3b7f ef3e
00000080: 59c9 9d3e f729 313e 8cad a53c 3946 9e3e
00000090: dbaa ce3d dcdc ba3d 1ff0 383d dca8 d3bd
000000a0: ae9e 24be 0edc e53d 4f75 d6bc ecf8 36be
000000b0: fb65 3fbe 1df5 2b3d cc4a 983d c9ad b63d
000000c0: 276f fb3a 7084 4d3e 818c 2ebe 5d28 583e
000000d0: df88 433c c72c b83e 8c88 b0be 0ddf c8be
000000e0: 8de4 2abf f1fb a73e d243 6f3e 2f0d 8abe
000000f0: 9538 0c3f 2f3f 283d bcc6 5f3c c044 403d
00000100: a405 86be af78 cebe 7b39 08be b49b 36be
00000110: 0c36 24bf e0ae 213f c644 1bbe 738a 5e3d
00000120: f640 b93e 14f7 53be f929 61bc c6fa 0b3f
00000130: 3ae6 0bbe 3155 c0be 8ffa 3a3e 9efb 09be
00000140: 3aae 83be 84ee 8d3d 6e8c 7d3d 718b 68be
00000150: eba8 393d b69b 5abd 4abd 1c3c f102 ebbc
00000160: 0ed2 3a3e d90f 4c3d 7d18 703e 1704 be3e
00000170: ff94 a2be ac71 f23d 52cc 96be b9f6 4bbd
00000180: 9cfd 0bbd 3efd f73e a5c4 873e c71e 09bf
00000190: eb54 d6be 27d1 98be 29d9 5abe 6b1e 9cbe
000001a0: 1c0c eebe 5e27 e13e 49f7 a93d 5b5b 92be
000001b0: 05c6 20bb 72cc 3bbe 8f47 9dbe 9207 f33d
000001c0: 6168 4fbe bc2f 863d 271d 3b3d ea1e 92bd
000001d0: aecd 0e3c 9408 d2be 1d5f 58bd 5cf8 86be
000001e0: 10f9 ccbe 30e0 2f3b bcf5 45bf 3f84 dfbd
000001f0: 786f 18be ca15 a1be 1d11 333f ad47 9d3e
00000200: c755 173c 3725 53be b045 d73e 355c 92be
00000210: bae0 da3e 2c6c 983e 942c 5f3e 8255 763d
00000220: b7c4 99bd 1238 7d3e bfb3 08be 3b04 7e3d
00000230: fa9b 60be 7a8b f13d 2f9c 33be 2468 c9be
00000240: b9a7 21be c833 ff3d d0a8 e4bc 65ba 41be
00000250: 7bfa 783d 2e18 d83d e0bc fabc 21df be3e
00000260: 53d4 fc3c 864b f3bc bba4 543b 6ae7 563e
00000270: d92e 84bd 57fc 0dbd cd8e 953e eb9d 903d
00000280: 9524 90be a093 0c3e c862 48be 3a48 0a3e
00000290: 2295 0f3f fe6b 75be 9f25 0cbf 67bb bc3e
000002a0: fa68 983e 880e 2d3d 7d6f b3bd 701e ff3d
000002b0: 31ee 1cbc 8891 5a3d 3784 413e d492 bcbd
000002c0: 2efd 3abe bd63 133e 9217 fd3c 777e d0bd
000002d0: 2481 4abe 7b2e 21be 5b9f 83be ed65 4f3d
000002e0: 3916 a93d db26 7c3e 88a9 0c3d deeb 12bd
000002f0: 2aa2 333f 5f9e 813f 7568 613c c893 df3e
00000300: f658 16be c747 713e 008c 2d3b 7a5c 31bf
00000310: efeb bf3e 5c6a 22bf 5d56 16be 6134 193e
00000320: c0a9 7f3e 4158 cfbe 5b24 c5bd c8e2 b83e
00000330: 258a b43d 9e69 423e 43ed a03e b2e2 893e
00000340: 1f86 f73d bdc3 433e 5a05 443e 07b6 263e
00000350: 7d85 79be e50c 8a3d 97d8 80bd 352f 46be
00000360: 3a02 f73d b59b b43d 8e06 b33d c553 223f
00000370: e4d3 843e d359 07bf 883d c2be a0c7 36be
00000380: 9be2 86be e3dc 443e e297 4d3e f2fc a73e
00000390: a696 0a3e fb6d c23d 767b 533e 9bcc 863d
000003a0: 4ed8 313e 3156 5c3e 0b3c 58be ce82 60be
000003b0: 0d41 2e3b bdc9 89be 9f8a 1dbe da6d 49be
000003c0: 65bf a1bd fb72 353e 793c 21be 3e92 4a3f
000003d0: 6f25 9d3f a2fe ce3e 0dc7 1c3e 7009 8bbe
000003e0: 3e82 e53e f788 2f3f 45ec a33e bde8 9a3e
000003f0: d6e7 af3c 1458 01be 80be 87be 9aba a9be

layers.0.conv1.attention1.0.weight f4 [9, 32, 3, 3]
0.17563379 0.29039633 0.16973265 0.12885638 0.06731382 -0.031802483 0.0015148981 -0.031852983
-0.10223968 -0.1442254 -0.042023275 -0.0835768 0.043608118 0.3191183 0.099012114 -0.07597035
0.13749374 0.107541196 0.8269393 -0.11355545 0.49499986 -0.41990077 -0.049711637 -0.34072223
0.89750415 0.67622846 0.23832817 0.32110807 -0.4245776 0.278087 -0.20833327 -0.11057906
-0.3546785 0.2326524 -0.2588778 0.146826 0.4695091 0.32680267 0.3935941 0.3856666
-0.22637974 0.17819677 0.36239123 -0.054617915 0.266192 0.05646946 -0.29822072 0.111578874
-0.7823341 0.21827173 -0.429463 -0.20534305 -0.57135856 -0.28428188 0.30837223 -0.055307288
-0.12198965 -0.8002596 -0.5391471 -0.68451077 -0.42789558 0.21863066 0.16689162 0.3190406
-0.6019767 0.2401038 -0.5720454 -0.11352788 -0.051419903 -0.20295928 -0.11115239 -0.00022660974
-0.18732196 -0.29503515 -0.43482506 0.028065972 -0.64307487 -1.2090765 0.082777254 -0.5323751
0.21712905 -0.036170404 -0.39256668 -0.59311414 0.021257037 0.29630005 -0.31822866 -0.5122647
-0.35243803 -0.42649874 0.31229705 0.08360959 -0.298081 -0.23942551 -0.29029745 -0.15512319
0.18141891 0.29026937 0.35508585 0.37975502 -0.015098784 0.034362216 0.19480686 -0.2744843
-0.010272115 0.09442027 -0.18502375 -0.025659759 0.10554798 0.031373918 -0.057054747 0.22636583
-0.05525259 0.016344277 0.25422558 0.017740082 0.1818407 0.5695096 0.020701252 0.27660987
0.4567487 0.23080471 0.14497316 0.2613911 0.3176296 -0.29619962 0.02510678 -0.4220705
0.4917965 0.2749797 -0.27095976 -0.5044866 0.66141826 -0.22064054 0.48028696 0.4561836
-0.008149039 0.29150188 0.37357557 0.36932576 0.4129648 0.5254827 0.17388186 0.18061161
0.25692993 0.15243278 -0.035713367 0.2441683 -0.28698707 0.13669202 0.59824914 0.14562166
0.22407344 0.19115236 0.17418267 0.03042249 -0.011089046 0.37315795 0.21358545 0.0399705
0.03079437 0.1095009 0.105574176 0.19751264 0.29261243 0.35756913 -0.81505543 0.065267816
0.606878 -0.86605126 -0.148161 0.02565832 -0.08687211 0.011121604 -0.026714804 -0.070818074
-0.24179918 -0.11891117 -0.062052477 0.06029293 -0.5259808 -0.4972697 -0.26207337 0.15469772
0.021952044 -0.15491724 -0.11465244 -0.3019235 -0.15066193 -0.11976186 0.17355384 1.019837
-0.7584017 -0.45407462 0.18449435 -0.13662228 0.25333303 0.7906732 0.13651685 0.26615787
0.20134676 0.020671755 0.09722746 0.16276066 -0.07750917 0.05205329 -0.066382244 0.2693443
-0.20049621 -0.25811785 -0.15847537 -0.14972149 -0.41872162 -0.039041027 -0.26419374 -0.199947
-0.12192732 -0.37702692 -0.1435141 -0.053979963 -0.10083594 -0.71663904 -0.19234948 -0.29903847
0.4719095 0.19139238 0.00041240978 -0.14475608 0.07707518 -0.1425524 -0.15734379 -0.07462429
-0.21714817 -0.19183822 0.14060566 0.03167361 0.3426403 0.18472612 -0.60860914 0.26502404
-0.33869445 -0.02210015 -0.13414446 0.8936817 0.4921697 0.01580199 -0.21261331 -0.26754636
-0.18308571 -0.1896276 0.11502052 -0.49725032 -0.24609421 -0.120349534 -0.10715299 -0.18459383
00000000: 58d9 333e d4ae 943e 65ce 2d3e edf2 033e
00000010: d4db 893d 5243 02bd 8c8f c63a 4678 02bd
00000020: 0a63 d1bd d3af 13be 9920 2cbd 502a abbd
00000030: 6d9e 323d 7963 a33e ddc6 ca3d 5896 9bbd
00000040: 29cb 0c3e 8f3e dc3d 4bb2 533f c38f e8bd
00000050: 9f70 fd3e 3cfd d6be 6e9e 4bbd 2573 aebe
00000060: d5c2 653f 4f1d 2d3f 4d0c 743e 4768 a43e
00000070: 3c62 d9be 6b61 8e3e 5155 55be 4677 e2bd
00000080: 6c98 b5be 6e3c 6e3e a28b 84be 8e59 163e
00000090: 7f63 f03e ae52 a73e 2a85 c93e 1876 c53e
000000a0: 17d0 67be 3779 363e 588b b93e 09b7 5fbd
000000b0: 514a 883e 854c 673d 63b0 98be 7783 e43d
000000c0: 0c47 48bf a082 5f3e 93e2 dbbe 7345 52be
000000d0: 8e44 12bf 658d 91be f7e2 9d3e e589 62bd
000000e0: b6d5 f9bd d0dd 4cbf 8b05 0abf 193c 2fbf
000000f0: 2115 dbbe b7e0 5f3e a3e5 2a3e 4a59 a33e
00000100: 251b 1abf c5dd 753e 9171 12bf 4e81 e8bd
00000110: ad9d 52bd 8fd4 4fbe dda3 e3bd 179e 6db9
00000120: 54d1 3fbe d90e 97be 64a1 debe 9cea e53c
00000130: 8ea0 24bf 05c3 9abf 1f87 a93d bc49 08bf
00000140: 1457 5e3e 6b27 14bd 80fe c8be 54d6 17bf
00000150: 3d23 ae3c a4b4 973e deee a2be c823 03bf
00000160: c272 b4be 0b5e dabe 66e5 9f3e 813b ab3d
00000170: 139e 98be f62b 75be dea1 94be 9dd8 1ebe
00000180: e1c5 393e 309e 943e d0cd b53e 406f c23e
00000190: e460 77bc 65bf 0c3d 737b 473e 3589 8cbe
000001a0: 5f4c 28bc 6a5f c13d de76 3dbe 6a34 d2bc
000001b0: 8a29 d83d f081 003d 3db2 69bd 72cc 673e
000001c0: 8a50 62bd 6fe4 853c db29 823e a653 913c
000001d0: 7334 3a3e 62cb 113f ac95 a93c cf9f 8d3e
000001e0: f7da e93e 1258 6c3e d873 143e 0ed5 853e
000001f0: 59a0 a23e 7aa7 97be bcac cd3c a019 d8be
00000200: c0cc fb3e 24ca 8c3e 3dbb 8abe 0926 01bf
00000210: b552 293f 98ef 61be 2ce8 f53e e690 e93e
00000220: 8c83 05bc bc3f 953e 4c45 bf3e 4418 bd3e
00000230: 1f70 d33e 0986 063f 160e 323e 40f2 383e
00000240: 528c 833e 5717 1c3e 2e48 12bd 4107 7a3e
00000250: f8ef 92be fef8 0b3e db26 193f d81d 153e
00000260: 8273 653e 72bd 433e f15c 323e 9638 f93c
00000270: d4ae 35bc 8f0e bf3e 25b6 5a3e 1bb8 233d
00000280: 7a44 fc3c 0242 e03d 4637 d83d c140 4a3e
00000290: 4cd1 953e 4d13 b73e 79a7 50bf 22ab 853d
000002a0: 5b5c 1b3f 89b5 5dbf 84b7 17be 6631 d23c
000002b0: 01ea b1bd 6337 363c 01d9 dabc 1109 91bd
000002c0: 349a 77be b387 f3bd bd2a 7ebd b8f5 763d
000002d0: ada6 06bf 229a febe 7b2e 86be 1469 1e3e
000002e0: c6d4 b33c a0a2 1ebe e6ce eabd b895 9abe
000002f0: 1f47 1abe b545 f5bd 19b8 313e 058a 823f
00000300: 9d26 42bf 787c e8be 16ec 3c3e b6e6 0bbe
00000310: deb4 813e 8f69 4a3f 13cb 0b3e d845 883e
00000320: d82d 4e3e d057 a93c 311f c73d bbaa 263e
00000330: 21bd 9ebd d535 553d 6af3 87bd 7fe7 893e
00000340: e14e 4dbe 0628 84be 5e47 22be 9750 19be
00000350: ae62 d6be 7ce9 1fbd 6744 87be e8be 4cbe
00000360: 08b5 f9bd ac09 c1be 5cf5 12be 181a 5dbd
00000370: 1383 cebd a875 37bf 43f7 44be 921b 99be
00000380: 1f9e f13e 5dfc 433e b438 d839 f03a 14be
00000390: 98d9 9d3d 42f9 11be bb1e 21be 9fd4 98bd
000003a0: 175c 5ebe 3d71 44be eefa 0f3e 30bc 013d
000003b0: 8d6e af3e d828 3d3e cfcd 1bbf 3bb1 873e
000003c0: 5c69 adbe 600b b5bc 2a5d 09be 53c8 643f
000003d0: abfd fb3e 2d73 813c 4eb7 59be d6fb 88be
000003e0: d27a 3bbe bd2d 42be e18f eb3d 9897 febe
000003f0: 1f00 7cbe d179 f6bd 0773 dbbd 2a06 3dbe

layers.0.conv1.attention1.0.bias f4 [9]
0.11062295 -0.47926742 0.10794507 0.32411 0.3085184 0.7921403 0.20117088 0.18145977
-0.42265108
00000000: 498e e23d 8a62 f5be 4e12 dd3d bff1 a53e
00000010: 20f6 9d3e b5c9 4a3f bdff 4d3e 97d0 393e
00000020: b965 d8be

layers.0.conv1.attention1.2.weight f4 [9, 9, 1, 1]
0.47203168 -0.5052905 0.24151178 0.15061654 -0.17387769 0.5090416 -0.20942229 0.118237376
-0.3216779 -0.5355914 -0.010748777 -0.38174906 0.24607074 0.14504756 0.29119673 -0.34546334
1.1542095 0.0026066066 0.27457273 0.07592202 0.14307837 -0.2463516 1.5806878 -0.2207943
-0.25407112 -0.25301033 0.29686072 -0.3792047 0.029253462 -0.2973485 0.40224057 0.529537
-0.33515307 0.27119875 -0.4119253 0.3088484 0.42814624 0.023949813 0.41301233 -0.41366285
-0.12868185 -0.0152955735 -0.0078041577 0.27622324 -0.29994357 -0.24963817 -0.26398075 -0.77107644
0.027550211 0.7464119 0.45191053 0.6681321 -0.36298412 -0.26201594 -0.6076639 0.06145774
-0.21978045 0.55263793 0.5086342 0.2721559 0.6355044 -1.4049252 -0.1191004 0.4267827
-0.0021930654 -0.0497437 -0.82128173 -0.5994202 0.021513022 -0.5928606 0.56387496 -0.16382591
0.048230477 -0.15175448 0.27977395 -0.118941136 -0.8278027 -0.17918998 -0.07170229 -0.046511892
0.1468181
00000000: 23ae f13e b85a 01bf dd4e 773e 393b 1a3e
00000010: fe0c 32be 8d50 023f cc72 56be 7026 f23d
00000020: f7b2 a4be 851c 09bf a31b 30bc 9d74 c3be
00000030: f8f9 7b3e 5987 143e bd17 953e 92e0 b0be
00000040: 23bd 933f 9ad3 2a3b cc94 8c3e 017d 9b3d
00000050: 2383 123e 9843 7cbe fa53 ca3f e717 62be
00000060: 9c15 82be 928a 81be 21fe 973e 1e27 c2be
00000070: f5a4 ef3c 103e 98be 7af2 cd3e bd8f 073f
00000080: 2f99 abbe 90da 8a3e dfe7 d2be 6121 9e3e
00000090: fc35 db3e 6632 c43c 5a76 d33e 9ecb d3be
000000a0: 2dc5 03be 499a 7abc 05ba ffbb 226d 8d3e
000000b0: 3492 99be 26a1 7fbe 7c28 87be 4465 45bf
000000c0: fbb0 e13c da14 3f3f d160 e73e b50a 2b3f
000000d0: 0ed9 b9be f426 86be dd8f 1bbf 1cbb 7b3d
000000e0: 200e 61be ae79 0d3f da35 023f 0558 8b3e
000000f0: 6bb0 223f 97d4 b3bf e9ea f3bd 4383 da3e
00000100: 88b9 0fbb 0dc0 4bbd 853f 52bf 9a73 19bf
00000110: 143c b03c b6c5 17bf 1c5a 103f fbc1 27be
00000120: 528d 453d 8765 1bbe 883e 8f3e 6997 f3bd
00000130: e1ea 53bf 947d 37be a6d8 92bd 4183 3ebd
00000140: 7c57 163e

layers.0.conv1.attention1.2.bias f4 [9]
0.5229945 -0.2736732 -0.08751814 0.47274607 -0.22288716 0.26849708 0.20540455 -0.7464703
-0.31379333
00000000: f8e2 053f e51e 8cbe b63c b3bd c60b f23e
00000010: 883c 64be 7378 893e 9255 523e ad18 3fbf
00000020: 85a9 a0be

layers.0.conv1.attention1.4.weight f4 [9, 9, 1, 1]
-0.38925683 -1.3659817 0.17397454 -0.4277883 0.40667847 -0.31257582 0.14964002 0.15999512
0.1891151 -0.43308634 -0.7332122 -0.356532 -0.038733054 0.053059276 -0.20076391 0.20708893
-0.79491603 0.078709155 -0.09688308 -0.38170993 -0.16671905 -0.1462688 0.13064504 0.042927217
-0.15556379 0.15262154 0.034234203 -0.5561901 -0.36926344 0.0051146 0.62006575 0.6111785
0.39921656 0.0032650945 0.1595689 -0.26898918 0.36483887 -1.0276707 -1.1392757 0.008397972
0.12778358 1.5289026 1.8158232 -1.4602612 -0.20231716 -0.34073702 -0.03133029 0.22985776
0.20571266 -0.107008494 0.08925706 0.1587699 -0.3123594 -0.0052200872 -0.25390548 -0.86510676
0.63144743 -0.7418157 0.071118705 -0.17002611 -0.3462339 0.27314967 -0.064240985 -0.52813953
-0.08810903 -0.3646981 0.5458878 0.20178641 0.33949783 0.29212764 -0.3883241 0.2348937
-0.031948302 0.034605257 -0.27923054 -0.08277454 0.021638786 -0.2659083 -0.09517637 0.071485445
0.41656223
00000000: ac4c c7be 7dd8 aebf 6226 323e 1107 dbbe
00000010: 2938 d03e f009 a0be 3c3b 193e c3d5 233e
00000020: 64a7 413e 7ebd ddbe cbb3 3bbf 5d8b b6be
00000030: 8da6 1ebd af54 593d 0e95 4dbe 1f0f 543e
00000040: 9e7f 4bbf 4432 a13d a36a c6bd 7c6f c3be
00000050: 66b8 2abe 7dc7 15be d0c7 053e 73d4 2f3d
00000060: 1d4c 1fbe d248 1c3e 2a39 0c3d 7962 0ebf
00000070: 1910 bdbe 6098 a73b a1bc 1e3f 3276 1c3f
00000080: 1d66 cc3e 32fb 553b 0866 233e f3b8 89be
00000090: 29cc ba3e b78a 83bf c9d3 91bf a697 093c
000000a0: b3d9 023e 15b3 c33f e56c e83f d7e9 babf
000000b0: 3b2c 4fbe 1575 aebe 3154 00bd d55f 6b3e
000000c0: 57a6 523e 4527 dbbd 68cc b63d 9494 223e
000000d0: 92ed 9fbe 440d abbb e6ff 81be a377 5dbf
000000e0: 8aa6 213f a2e7 3dbf afa6 913d 531b 2ebe
000000f0: 9245 b1be 46da 8b3e c790 83bd 2734 07bf
00000100: 8272 b4bd b6b9 babe 4ebf 0b3f 19a1 4e3e
00000110: a9d2 ad3e c191 953e 6bd2 c6be f987 703e
00000120: 39dc 02bd 3ebe 0d3d 4ef7 8ebe b385 a9bd
00000130: d343 b13c 2225 88be d4eb c2bd f666 923d
00000140: a547 d53e

layers.0.conv1.attention1.4.bias f4 [9]
-0.07686158 0.29092732 -0.21079403 0.11970928 0.99282473 -0.075314984 -0.105270684 0.07441786
-0.41875005
00000000: 9b69 9dbd 6df4 943e 64da 57be 242a f53d
00000010: c329 7e3f be3e 9abd 2898 d7bd 6468 983d
00000020: 6866 d6be
