weights/model_epoch_lagconv310.pth (torch, 679460 bytes, 141 tensors)

raise_dim.0.weight f4 [32, 9, 3, 3]
00000000: 63f0 21be d405 a5bd 5935 34bd 0ccf 3cbd
00000010: 1db0 503c 8761 e2bd 69f3 41bb 799e 80bd
00000020: f260 143e 4023 79be f3f7 1dbe 4445 2cbd
00000030: ff47 c3bc acfd 31be c06d 30be f4cd 1bbe
00000040: 2fc5 25be 1d87 c63d 297d 2dbe 9157 06be
00000050: 5e0e e33c dd8f 4e3c 8721 5fbe 19ec 53bd
00000060: d4a6 5cbc fa3f 7c3d c952 ff3b 7924 6fbc
00000070: 94a1 9bbd 59a2 ca3d e97d 40bd 186a 12be
00000080: dfc2 e1bb 5c85 60bd 8298 d83c c41c ef3d
00000090: b041 c3bd 9a50 04be c1e1 60bc b5df b53d
000000a0: a50d f7bc 00c1 a63d 0284 253e f3fc 183d
000000b0: 3179 983d dcda 4abd 9af2 90bd 8e73 a13d
000000c0: ed22 b3bd b32b f1bc fb10 863d 009b 0ebe
000000d0: 32bd 26bd 89ca ab3d 3a53 0a3d 311a b6bc
000000e0: dd00 dc3c 672b a4bd 54be 623d e68d 083e
000000f0: 10a2 203e 531f 703d 8cbb d63d fa55 0abe
00000100: 3955 c8bd 3760 2fbd 5f90 26be c733 83bd
00000110: 928c b73a 2871 e0bd 5224 e2bd f475 e1bd
00000120: 5e62 a53c 1b01 a13d bc73 1e3e 0508 37bd
00000130: f407 96bd 6423 0d3d 5473 243e e114 333d
00000140: 871b ce3d 377b 54bd 9543 223d a6bf 933d
00000150: b7a2 4cbd bdda cbbe 366c 08be 61f8 23be
00000160: b704 81bd 894b 6a3d 0298 553d 3774 c9bd
00000170: d870 c63d a109 8bbd 9a74 643d a2dc 453d
00000180: 349f 3f3c 5a6e aebd 2b74 82bd 01f0 afbc
00000190: 8d48 663d 2f2d 0cbd 0099 be3d c275 963d
000001a0: e22f fbbc 1832 9abb 40f8 d13c 9fa4 cf3d
000001b0: 3f8d be3d af3a bd3d d30b 753d 4bc1 023d
000001c0: 765d 653d 0b9f cb3d c8d5 b23d 962d fc3c
000001d0: e6a0 243e f660 21bd a94f 38bd 1df1 af3d
000001e0: 3244 393e 6e1a 3e3e b04a ba3d 069a 873d
000001f0: 0183 293d 9a2c 173e b2f2 273d 7da6 3b3d
00000200: 1eab 99bd 507b e43d e3ba 5a3d 4201 023d
00000210: ede3 d63c d84b 3d3c f4b6 7d3d 3de7 283e
00000220: 5013 143e 67f7 7d3d b59a 433e d9cb 8b3e
00000230: 86e6 7e3e 5b44 6b3d 70a7 b63d 1e92 113e
00000240: e197 f1bd af24 b9bd f17e 4bbe d8fa 683d
00000250: 43c7 4cbd 9513 28ba fd72 9ebc 1ed4 b13d
00000260: 5037 81bc e956 b8bd 1808 5a3d 1188 43bb
00000270: 902d 11bd d153 473c 06a0 0abd 3f19 e23a
00000280: 37e7 9ebd ec05 6e3d 0b13 b5bb fcf5 8ebd
00000290: ac23 cfbd b589 46be 26a1 4bbe dc3c 1cbe
000002a0: b306 abbd 6858 933d 515a 003e 0378 263d
000002b0: 6006 183d 5f9e cdbd a031 fd3b d728 893d
000002c0: f27f 1fbe c603 cabd abe8 863d 8e36 4ebd
000002d0: 61ca 9dbd b750 b2bd 99dc 1dbe 0417 03be
000002e0: c61e 08be 0094 36be 4a9f d0bd cda8 763d
000002f0: 0e56 adbd 3c5e 1c3d ae75 bebd abdd 76bd
00000300: e0d7 8cbd ae80 0cbe 6388 71bd 5ce5 133d
00000310: 159d 81bd 835f bc3d 011b b03c 35f9 953d
00000320: dd16 5d3d 49e1 1c3e bd41 533e 9a39 f03d
00000330: 7aeb 43bd 96c8 cd3d b0b0 9b3d 4af7 8bbd
00000340: 412f 093e e68d dcbb 96fe c7bd bd72 053b
00000350: 0b5d bebc de78 133d 954c 96bc 706d bf3c
00000360: 56b5 553d d9b6 1c3e f948 75bd e2f1 063e
00000370: ac49 bb3c d272 04bd 2d92 b83d 192d c73c
00000380: c058 fd3d c6db 843d 5c4f 693d d989 4a3c
00000390: 4289 41bd 7115 fa3c 6989 78bb 3163 48b9
000003a0: 800a 13bd 9941 e0bd 345c 3fbd a4d5 963d
000003b0: c002 223b 5166 0ebd 98ca 94bc 9fb5 7bbd
000003c0: 4e36 e23d 04af 9bbd 0faf bfbd 3895 9ebd
000003d0: f946 b73d 2bc2 723c 42ae 5b3e d980 71be
000003e0: 9e07 a13d 1826 30be e2e3 463e 0acd dfbd
000003f0: bbe3 6fbc aed4 933d c240 133d c487 92bd
-0.15814357 -0.08057752 -0.04399619 -0.046095893 0.012737301 -0.11053758 -0.0029594547 -0.06280226
0.14490107 -0.24329853 -0.15426616 -0.042058244 -0.023838041 -0.17381924 -0.17229366 -0.15215284
-0.16188501 0.096937396 -0.16942276 -0.13119341 0.027716812 0.012607542 -0.21790133 -0.051738832
-0.013467509 0.06158445 0.007791851 -0.014596098 -0.07599178 0.098942466 -0.046995077 -0.14298284
-0.0068896855 -0.05481468 0.026439909 0.116754085 -0.09534013 -0.12921372 -0.013725699 0.08880559
-0.030157873 0.081422806 0.16163638 0.037350606 0.074449904 -0.049525127 -0.070775226 0.078833684
-0.08746896 -0.029439783 0.065462075 -0.13926315 -0.040707774 0.0838824 0.033770777 -0.022229286
0.02685588 -0.08016091 0.055357292 0.1333538 0.15686822 0.058623623 0.104849905 -0.1350936
-0.0978188 -0.042816367 -0.1626601 -0.0640636 0.0014003685 -0.10959083 -0.11042084 -0.11008826
0.020188507 0.07861539 0.15473837 -0.044685382 -0.07325736 0.03445758 0.16059619 0.043721084
0.10063844 -0.05187532 0.039615232 0.072142884 -0.049959864 -0.39815322 -0.13322529 -0.16012718
-0.062997274 0.057200942 0.05214692 -0.09836619 0.09689492 -0.06788946 0.055775262 0.048306115
0.011695672 -0.08517142 -0.063698135 -0.021476747 0.056221534 -0.034222778 0.09306526 0.07346679
-0.03066248 -0.0047056787 0.02563107 0.10138821 0.09304284 0.09239709 0.05982573 0.03192262
0.055997334 0.099424444 0.08732182 0.030783456 0.16077003 -0.03939911 -0.044997845 0.085909106
0.1809242 0.1856477 0.09096277 0.066211745 0.0413847 0.14763108 0.041002937 0.045813072
-0.07503341 0.111563325 0.053400885 0.03173948 0.02623173 0.011553727 0.061942056 0.1649446
0.14460492 0.06200352 0.19101985 0.2730396 0.24892625 0.057438236 0.08918655 0.14215896
-0.11796547 -0.090402 -0.19872643 0.05687985 -0.04999472 -0.00064116094 -0.01934194 0.08683036
-0.015773445 -0.09000952 0.053230375 -0.002983574 -0.035443842 0.0121659795 -0.033844016 0.0017249956
-0.077589445 0.058111116 -0.0055259517 -0.069805115 -0.10114226 -0.19388469 -0.19885692 -0.15257591
-0.08350887 0.071945965 0.12534453 0.040641796 0.037115455 -0.100399725 0.007726863 0.06697243
-0.15576151 -0.09864001 0.06587347 -0.050344996 -0.07704616 -0.087068014 -0.15416183 -0.12801749
-0.13292989 -0.17829895 -0.10186632 0.060219575 -0.08463679 0.038175806 -0.09299789 -0.060269993
-0.068771124 -0.13720962 -0.05896796 0.036107406 -0.06328789 0.09197905 0.021497251 0.07322923
0.053976882 0.15320314 0.20630546 0.117297366 -0.04783199 0.10048024 0.0760206 -0.06834276
0.13396932 -0.006730783 -0.09765355 0.0020362579 -0.023237726 0.03600394 -0.018347064 0.023367614
0.05217489 0.15304126 -0.059884045 0.13178208 0.022862278 -0.032336064 0.09012256 0.024313496
0.12370443 0.06487231 0.05696045 0.012361967 -0.04725004 0.030527802 -0.00379237 -0.00019110438
-0.035898685 -0.10950012 -0.04671879 0.073649675 0.0024720877 -0.034765545 -0.01816301 -0.061452504
0.11045514 -0.07601741 -0.09359562 -0.07743305 0.08949084 0.014816801 0.21453193 -0.23584308
0.07862781 -0.17202032 0.19422868 -0.1092778 -0.0146416975 0.072183 0.03595043 -0.071548015

raise_dim.0.attention1.0.weight f4 [9, 9, 3, 3]
00000000: 0caf 403d 02ed 9c3d 15be ed3d a7a9 623e
00000010: ade0 0fbf f200 1c3e abfe f7bd 61ee 293e
00000020: b96a 38be c526 88be fb3e 4abe 191b 6cbe
00000030: cf1d 1dbe e461 5bbe d1bd 67be 460a 0bbe
00000040: d112 b2bd 69fa 11be 5917 d53d ce37 193d
00000050: 98b9 3ebd 5297 e6bb af51 e43c 2f50 77bd
00000060: 4e3e 583c c441 573d 2ff2 7e3d 7f8e be3d
00000070: b122 99bd e49e e63d 488d db3d 8db2 353e
00000080: 7bc4 e63d 5151 92bd 1ce5 68bd ec02 f8bc
00000090: dbe7 adbd b557 0dbe 8395 c1bc 49b3 53be
000000a0: 8516 ef3b d430 0dbe 6967 85bd 11c2 9bbd
000000b0: 70e4 f5bd a012 35bc bf19 79bd 08a5 a13d
000000c0: b200 24bd ca42 303d 2490 24bd 021c cbbd
000000d0: c223 c73d 0438 c53c 7624 9bbb f8b6 d83c
000000e0: 0b47 6fbd ab3f 12be dc5c 4c3d 45a7 e2b9
000000f0: 0448 2dbe c409 083d 2d34 093d 3ecd 233d
00000100: e7b5 7fbd 90da 963c 730e 3d3c 0ed9 e83d
00000110: f572 313d cde1 37bd bc47 373e a408 113e
00000120: 0ee4 5b3e 9bb1 523e 7183 123e 2894 573e
00000130: c2f2 923e b3b5 453e d6a1 193d b3dd 853e
00000140: ffeb 763d 0912 4fbd ca1e 0c3e bbcd f1bc
00000150: fbbe 033e 98ea 81be 08fe 443d 8bbc 10bd
00000160: 4c09 5b3e cac7 12bd d1af 81be 189c b6be
00000170: 8599 81be 53f5 55be 3096 98be 5b2a 9bbe
00000180: cc02 28be 5db9 2bbe 72d8 7fbe 55d6 1dbc
00000190: 80fd 073e 3551 083c 4a6e 0a3e 3059 ec3d
000001a0: 6ef7 1ebd f46f 07bd 01b8 2e3e 94fd 2b3d
000001b0: 6551 1e3e beec b23d 63fe c93d 0e83 363e
000001c0: 88a6 373e ddb4 d4bc 17a0 7d3d bb3c 013e
000001d0: d5ea da3d db72 62bd 952b 60be 52bf 3fbe
000001e0: 2307 3ebe e185 04be a98b e2bc 951a 5cbe
000001f0: c143 b6bd bcac 4cbe 1a95 92bd b204 47b7
00000200: fbae c13d 4120 2c3e fc61 90bc ef93 8d3d
00000210: 3a25 c23d a7a9 a53d 4840 9c3d c370 14bd
00000220: 5f16 94bd 7abe 14be 508a 21be 4b82 50be
00000230: 2ca9 4cbe 2176 24be 1f58 67be 3d96 03be
00000240: 657b c03d ee19 16b8 a7c0 693c 0f69 173e
00000250: cdca 283e 54b6 043e 4c8f 2f3d e0c8 403e
00000260: c2e6 563d 9333 373c 2cb0 c8bd 9782 27be
00000270: 49c9 07bd 3fe6 84bb c09d 0c3d 200d 83bd
00000280: 7c38 b0bd 78cd 82ba 5301 ccbd eeb1 803e
00000290: 37c5 14bd e713 533e 19ce 1ebe d891 473e
000002a0: 8b4c 86bd 2566 213e d5ab 9abd 8880 6ebe
000002b0: 5e34 4fbe d633 42be 1ceb 3fbe 4df1 16be
000002c0: 8d45 44be 04ab 7fbe 36dd 92be 1515 01be
000002d0: a894 7fbd a5ee 6dbc a6af c6bd 5391 06bd
000002e0: 12e5 a4bd d8ab 833d 2f3c efbd 455f b1bd
000002f0: 3b70 ccbc 951f 333d d49e 1d3e 53da 6f3d
00000300: 3332 a43d d16c f33d 62e6 163e 7462 7f3c
00000310: 77bc 203e 8292 113e 9d1c 043d 49f5 c1bd
00000320: 32e3 6f3d 4806 26be 0383 133d 56c7 a3bd
00000330: 04bc 263c a80f 72bc ee33 31bc 19ec a8bd
00000340: 69b6 ddbc f52e 3f3d 1282 25bd bb7c b5bc
00000350: 1a49 05be a8d0 973c 61ea 9a3d f92a c53d
00000360: 3671 f03c df55 96bd ba1e 62bd 6e81 9f3d
00000370: 0289 9abd 7a1a a03d f4b2 01be 27d3 a1bd
00000380: 50fe 343d 07a1 0bbe ec47 8dbd 25e3 4239
00000390: 6d65 533d 15f5 923d 4b68 a8bd 7b7c b8bd
000003a0: ccf1 fb3d 9781 a1bb 8bf9 fabc e5f2 e33d
000003b0: 4575 4bbd 00ef b43d 2bfc 0f3e e8c8 91bd
000003c0: 6f7d d3bd f5a0 003d 55ed 9a3d b9b2 963d
000003d0: 5e33 403e 661e 31be 7a1c 90bd 188b 5cbd
000003e0: c119 7e3d c6e4 8bbe 513c 033e 5f17 93be
000003f0: c87c 78be cb92 53bd 73a4 2fbe 1fd4 38be
0.047041938 0.07662393 0.11608521 0.2213503 -0.56202203 0.15234736 -0.12109121 0.1659484
-0.18009461 -0.2659208 -0.19750588 -0.23057212 -0.15343402 -0.21424061 -0.22631003 -0.13578138
-0.08694995 -0.1425568 0.10404844 0.037406735 -0.046563715 -0.0070370818 0.027870981 -0.060379203
0.013198448 0.052552953 0.062242683 0.09304523 -0.0747732 0.11260775 0.10720307 0.17743893
0.112679444 -0.07144416 -0.05685912 -0.03027483 -0.084914885 -0.13802989 -0.023630863 -0.2067386
0.0072963857 -0.13788158 -0.065138645 -0.076053746 -0.120064616 -0.011051804 -0.06081557 0.07892805
-0.040039726 0.043032445 -0.040176526 -0.099174514 0.09723617 0.024074562 -0.004734571 0.026454434
-0.05841736 -0.142821 0.049893245 -0.00043230705 -0.16922003 0.03321244 0.033497024 0.039990656
-0.062429335 0.018414766 0.0115390895 0.11369525 0.043322522 -0.044893075 0.17898458 0.14163452
0.21473715 0.20575564 0.14307953 0.21052611 0.28700835 0.19307594 0.037507854 0.26145706
0.060283657 -0.05055431 0.1368362 -0.029517045 0.12865822 -0.25374293 0.048093826 -0.03533606
0.21390265 -0.035835065 -0.2532945 -0.35665965 -0.2531244 -0.20894365 -0.29802084 -0.30305752
-0.16407317 -0.16769929 -0.24984911 -0.00963362 0.13280296 0.0083201425 0.13518634 0.11540449
-0.038810186 -0.03306575 0.1706238 0.041989878 0.15460737 0.08736561 0.098629735 0.17823431
0.1793462 -0.025965149 0.06192025 0.12620823 0.10689322 -0.055285316 -0.21891625 -0.18725327
-0.1855741 -0.12941696 -0.027654486 -0.21494515 -0.08899642 -0.19987768 -0.07157345 -1.18624175e-05
0.09457203 0.16809179 -0.017624848 0.06912982 0.09479757 0.08088999 0.07629448 -0.03624035
-0.072308294 -0.14525786 -0.15775418 -0.20362203 -0.19986409 -0.16060688 -0.2259221 -0.1285028
0.09398536 -3.5786936e-05 0.014267123 0.1478617 0.16483612 0.12960178 0.042861268 0.18826628
0.05246616 0.01118173 -0.09799227 -0.1635841 -0.033150945 -0.004055768 0.03433013 -0.06398988
-0.086045235 -0.0009979447 -0.0996119 0.2513575 -0.03632089 0.20613061 -0.15508308 0.19489229
-0.06557568 0.15761621 -0.075523056 -0.23291218 -0.2023482 -0.18965086 -0.18742031 -0.14740486
-0.19167157 -0.24967581 -0.28684396 -0.12605698 -0.06239763 -0.014522229 -0.09701471 -0.032853436
-0.08051504 0.06429261 -0.11681401 -0.08660749 -0.02495586 0.04373129 0.1539262 0.05855782
0.08017387 0.118859895 0.14736322 0.015587438 0.15696894 0.14216045 0.03225385 -0.094706126
0.05856628 -0.16213334 0.036013614 -0.07997005 0.010176662 -0.014774241 -0.010815604 -0.08248157
-0.027064519 0.04667564 -0.040407248 -0.022154203 -0.13016167 0.018532112 0.075642355 0.09627337
0.029350858 -0.07340597 -0.055205084 0.07788359 -0.075456634 0.0781755 -0.12665921 -0.07901602
0.044187844 -0.13635646 -0.06898484 0.000185859 0.0516104 0.07175652 -0.08223017 -0.09008118
0.123019785 -0.0049287784 -0.03063657 0.11130313 -0.049672384 0.08834648 0.14061038 -0.07118398
-0.10326659 0.0314035 0.07564799 0.073583074 0.18769595 -0.17296752 -0.070366815 -0.053843588
0.06203628 -0.27322978 0.12815978 -0.28728768 -0.2426635 -0.051653665 -0.17152576 -0.18049668

raise_dim.0.attention1.0.bias f4 [9]
00000000: 8f84 813e ee55 8c3e 8403 0e3e 0346 ed3e
00000010: 9beb 8ebe 0692 c73e 84a0 003e 1506 06be
00000020: 8ed6 bf3d
0.25296447 0.2740931 0.13868529 0.46342477 -0.27914128 0.38978595 0.12561232 -0.13088258
0.09367095

raise_dim.0.attention1.2.weight f4 [9, 9, 1, 1]
00000000: 061d cf3e cc3c e23d 5c87 d1be 2e3f 3cbe
00000010: 6207 ed3e a395 863e 3f15 67be c947 513e
00000020: 3501 e13e e75f f33e 1c64 573f 3109 683d
00000030: 377a 653f a4eb 5139 04f5 b43e 90b2 e7bd
00000040: 520c f1bd 18cf ad3e 3340 1f3f 7b8a 083f
00000050: bc6a b43d 3c6b b93e 5399 79be a9de fabd
00000060: db95 033f 0e42 b3be e1af dcbd 54ac 263c
00000070: 33e4 11bf e964 47bd 7e4d 14bf 7157 123e
00000080: 734c f5be 401c 473e 8b77 d0be d117 1d3d
00000090: 56ca b43e 39bd c4bd 539a e13d 8aab 36be
000000a0: 950c 823c 4329 5dbe 261d b0bd d4f4 b63d
000000b0: c977 f4bd eab4 8f3e 99fa 073f e847 c9bd
000000c0: e3f2 4f3e f6ec 57bf d4fa 003f 5404 903d
000000d0: 5e06 b7be c125 283e 9377 503e 929e 963c
000000e0: 9f41 8d3e 8fb4 9dbe 49ed 9f3e b2eb 9abe
000000f0: 7dd3 323e 8f3d dabe 9994 c8bd 3f90 143f
00000100: ccab 4b3f c550 fe3e 0d91 ad3d 5cde e73c
00000110: cfdd 633d 333a ae3e 16ca b1be d08c c2be
00000120: 6042 d73e e010 173d 3639 023e 75c8 4d3b
00000130: 068e 2ebe 7bc9 373e d4c7 663e 05e4 463e
00000140: 202c 123e
0.4045183 0.11046752 -0.40923584 -0.18383476 0.46294695 0.2628604 -0.22566698 0.2043754
0.43946233 0.47534105 0.8413713 0.05664939 0.8963961 0.00020019576 0.35343182 -0.11313355
-0.11769928 0.33947062 0.62207335 0.53336304 0.088094205 0.36214626 -0.24374895 -0.122495
0.51400536 -0.35011333 -0.10775734 0.010172922 -0.5698883 -0.04868022 -0.57930744 0.14291169
-0.4790989 0.1944437 -0.40716204 0.03835279 0.3531062 -0.09606404 0.11015763 -0.17838874
0.01587514 -0.21597771 -0.085993096 0.08933416 -0.1193691 0.28067714 0.53116757 -0.09828168
0.20307498 -0.8434595 0.50382733 0.070320755 -0.35747045 0.16420652 0.20358114 0.01838616
0.27589127 -0.30801818 0.31235722 -0.30257946 0.17463489 -0.4262509 -0.09793968 0.580326
0.79559016 0.49670997 0.08474932 0.028304271 0.055631455 0.34028777 -0.34724492 -0.37998056
0.42042828 0.036881328 0.12717137 0.00314 -0.17046365 0.17947952 0.22537166 0.1942292
0.14274645

raise_dim.0.attention1.2.bias f4 [9]
00000000: 7502 c73d d2e8 2f3f c5b0 e53e 2400 16bf
00000010: 754b e93d a655 eb3e a8e4 01bf 6dc7 81bc
00000020: e6bb fbbd
0.097172655 0.6871463 0.44861427 -0.58593965 0.113913454 0.45963782 -0.50739527 -0.015842164
-0.12291698

raise_dim.0.attention1.4.weight f4 [9, 9, 1, 1]
00000000: e2dc c7be 0c7b 2fbe 46aa 213e 53a1 b33e
00000010: ed3a be3d 5811 b8be 27c9 9c3e 9713 e53e
00000020: f06f 4f3e 6d8b f0be 15fd 36bd b3f3 923e
00000030: f63c 233e 7fa5 49be 98f0 a7be 5e27 9e3b
00000040: bad3 04be 4d2d babe ac10 aabe d067 76bd
00000050: 1864 28be b485 763e cfa6 a6be 5555 dabb
00000060: 00f3 71be 1456 64be efda 97be 6b51 e43d
00000070: 8ee4 85be 9b1a 95be 19e0 49be abb9 8ebe
00000080: df63 aa3d 5763 9bbd 985c 11bf a57d 363e
00000090: daaa f53e 5898 7d3f 162d 4e3f 440d 78bf
000000a0: 8c67 9c3d fc8b 803f 2743 82bf 3b19 473f
000000b0: 5cf9 f33e 9410 343a b6fe 2f3d 8207 573d
000000c0: 2669 9fbe c6e3 8c3d e235 42be c9f2 acbe
000000d0: 6337 49bd 66c1 95be a7e3 53be b55d 403e
000000e0: c943 d83e 21f7 0ebe 7488 923e 1561 513e
000000f0: 0646 c73d b7f6 273f 1ab6 00be 81a9 143e
00000100: 5ae2 c83e 9080 133f 0d04 88be 3307 e3bd
00000110: eb54 783d 615d 283e 1fac d53e 6cae d9bd
00000120: aca4 8fbe 27b2 94bd 0b6e 6fbe e337 51be
00000130: 6175 343e 8979 f7be 0d10 77bd 7639 f6be
00000140: 3b50 abbe
-0.39035708 -0.17136782 0.1578761 0.35084018 0.09288583 -0.35950732 0.30622217 0.44741508
0.20257545 -0.46981373 -0.04467495 0.28701553 0.15941224 -0.19692038 -0.32800746 0.0048264703
-0.12971392 -0.36362687 -0.33215845 -0.060157597 -0.16444433 0.24074441 -0.3254914 -0.0066630044
-0.23627853 -0.22298461 -0.2965922 0.11148342 -0.26150936 -0.2912186 -0.19714393 -0.27876028
0.0831983 -0.07587307 -0.5678191 0.17821367 0.47981912 0.99060583 0.80537546 -0.9689524
0.076369375 1.004272 -1.0176743 0.77772874 0.47651184 0.00068689254 0.04296752 0.052497394
-0.3113491 0.06879382 -0.18965867 -0.3377898 -0.049125087 -0.29249114 -0.20692311 0.18785746
0.42239216 -0.1396146 0.2861973 0.2044719 0.09730153 0.6561083 -0.12569466 0.14517786
0.39235193 0.57618046 -0.2656559 -0.110853575 0.06062786 0.16441871 0.4173288 -0.106289715
-0.28055322 -0.07260542 -0.23381822 -0.20431475 0.17622901 -0.4833491 -0.06031804 -0.48090714
-0.33459648

raise_dim.0.attention1.4.bias f4 [9]
00000000: bfb8 7f3d b0d6 c8bd fd0f 1f3e 9039 5b3e
00000010: 752d 873f 7310 6f3e 902d 913e 6339 043f
00000020: 9808 843d
0.062432047 -0.098065734 0.15533443 0.21408677 1.0560747 0.23346119 0.28355074 0.51650065
0.06446952

raise_dim.0.attention3.1.weight f4 [32, 9, 1, 1]
00000000: 2f9b 56bd bae4 03be ae4c 5d3d 967e dd3d
00000010: 67be acbe c102 a33e 2a0d 3f3e 2f0b b7be
00000020: dcf7 543e ee0d 443e 892f be3c 4235 7b3e
00000030: 32f7 84bc 6eb9 aabe 77ae 10ba e39f 8e3e
00000040: c5e1 8dbe 0d4e 123e fd08 b93c b73d aabd
00000050: 1777 23bd 6259 d13d 2b6b 8ebe 1329 183e
00000060: 1a34 2f3e ccf9 393e 58b9 943e d338 5dbc
00000070: c62e f1bd b730 a83c 1285 ddbd 791e 263e
00000080: deb7 893e a281 b9bd cd8a 0e3d 514b d03e
00000090: 5ea8 94be a8ce c4bd 699b 963e 92a5 6e3e
000000a0: ffb9 de3d ed50 36be bf5b a7bd 3025 71be
000000b0: c056 98be aabb e1be 6017 a53e 5525 283e
000000c0: 294e 1c3d 5630 c1bd 4fb1 4b3e 3e11 22be
000000d0: 3d9d 283e 8634 06be 5232 bbbd e4fa 923d
000000e0: 6fd0 d2bb 1358 88be bb55 523e 92a4 a6bd
000000f0: 6686 933e 16d4 983e 1cd6 933d 5289 263e
00000100: 3300 d13d 9d75 523e 8d06 6abe f6e3 31bc
00000110: e6c9 5dbd 3c9e f53e 553e c7be a83d 0fbe
00000120: 510e ca3c 61df 503e 1081 5a3e f608 a3be
00000130: ccaf a4be b934 af3e 6f63 f63d 7223 b6be
00000140: 293b 07be 1f72 263e a4ae efbd 86c9 90be
00000150: 9d66 77be 8ff5 2dbe a1d0 243d 8cc3 4a3e
00000160: 6c76 8a3d 0009 ddbd 7030 bcbd 7e25 b9be
00000170: 912f 3f3e 2891 883e c3af 8a3e defc 1c3e
00000180: 84a0 9e3c dcdb 00be 6c34 333e e1e0 65be
00000190: 8ba6 1e3e 5de1 34be 3a66 79be 3b7c a33d
000001a0: 3365 7dbd b3b9 64be 61c0 4c3e 42b8 413c
000001b0: daf9 b73c 5e79 68be ce31 b1be 3be7 90bc
000001c0: 468b 33be 868d 2bbe af36 a53e ffc7 b1bd
000001d0: 80de 3d3e 747f d3bd 05a2 3dbe 2d57 d13d
000001e0: 392d 5dbe e719 673d 2c1f 93be 8623 303e
000001f0: ff64 10be e4d4 8e3e 3054 493e c1b1 6f3e
00000200: f9d9 203e 42db c93c 06bc 80bd df09 22bd
00000210: 9ee1 9bbc 420b c6be db86 be3e 58bd a13c
00000220: eb60 9b3e c94f d73c da0f ce3d 21e8 1dbe
00000230: f561 91be 2404 d33e 8875 2b3e 02c1 553e
00000240: 277f abbe 2411 203e 1566 9cbe 798e 66bd
00000250: 09e7 803c e17a 7fbe 2a9e 4ebe b2f6 3f3d
00000260: f375 a53e fd33 9d3e a63d 83be 5f94 b1bd
00000270: d9bc a2be 889a 8fbe 8318 eabc 4c7d de3e
00000280: 4731 2dbe 22de 9b3d 4332 813e 3521 0a3d
00000290: c538 503e 9ce2 2c3e 2863 8a3e 53fc 9cbd
000002a0: 00f2 dbbe 821b 8cbe 68f4 83be c9d8 a83e
000002b0: a04f 403e 64ae 123e 4ae8 42be f43d 48be
000002c0: 77b4 993e f9af 41bd e8c4 8cbe a0df 213d
000002d0: 61c7 1bbd 7ccb 173d 420a 543e 3060 573e
000002e0: 7e2f 65be a9e7 6dbc 4ea9 9ebe 5d61 ae3e
000002f0: 2918 b63d 1ff2 2d3e 4f9b b13e faef 253e
00000300: cf3b c0be a361 523d 5037 6fbe 7fcd 423e
00000310: d4ae 66bd c91f d33e b53a 5bbe b768 adbe
00000320: e814 83bd cc27 883d a2a9 4c3e 0cc0 913e
00000330: 46f8 963e 2d4e 3b3d c157 d4bd 5712 9cbd
00000340: 6a8f f1bd 040e a63d 060f 7bbe 1076 083e
00000350: f963 593e bb03 d43e e76e cdbe 1be6 bd3e
00000360: 6c4f 87be fea5 79bd 8625 733e 6696 e93d
00000370: deb4 22be 4248 fc3d 5a72 01bf e841 853e
00000380: 8418 2f3e c39e a7bb 6ce4 043e 7fd6 013c
00000390: 672d 12be 55dd efbd b190 aebd 87f0 d7be
000003a0: c4e3 5bbe c41e aabd ae5d 4abe 5206 49be
000003b0: 2ce0 79bc 9d54 38be a544 b83e a415 c9bd
000003c0: 916a a5be ba2b 12bc de9d 93be e9ff 713e
000003d0: 391f 923e 784d 18be 5e42 c3bd fb7a 983e
000003e0: 8a8c 05be 6e88 5d3e 0f89 8dbe a7d0 69be
000003f0: d907 bfbd 298b 8bbe b9dd ef3d 77c6 f6bd
-0.05239409 -0.12880221 0.054028206 0.1081516 -0.33739015 0.3183804 0.18657365 -0.3575072
0.20797676 0.19145939 0.023216026 0.24532035 -0.016231153 -0.33344597 -0.00055191614 0.2785636
-0.2771131 0.14287587 0.022587294 -0.083125524 -0.039908495 0.102221265 -0.27816138 0.14859419
0.17109719 0.18161696 0.29047656 -0.0135023175 -0.117764995 0.020531042 -0.10816397 0.16222562
0.26898092 -0.090579286 0.03480034 0.40682462 -0.29034704 -0.09609729 0.29415444 0.23305348
0.1087532 -0.17804308 -0.08171796 -0.23549342 -0.29753685 -0.4408849 0.32244396 0.16420491
0.038160477 -0.094330475 0.19891857 -0.1582689 0.16466232 -0.13105974 -0.09140457 0.0717676
-0.0064335386 -0.26629695 0.20540516 -0.08136858 0.28813475 0.2984931 0.072185725 0.16263321
0.10205116 0.20552678 -0.22854061 -0.010857573 -0.054147623 0.47972286 -0.38914743 -0.13988364
0.02466503 0.20397712 0.21338296 -0.31842774 -0.32165372 0.34219912 0.12030684 -0.35573918
-0.13206162 0.16254471 -0.11703232 -0.2827875 -0.24160238 -0.16988204 0.040238027 0.19801158
0.067608684 -0.10792732 -0.09188926 -0.36161417 0.18670489 0.26673245 0.2708722 0.15330836
0.01936365 -0.1258387 0.17500466 -0.22449066 0.15493219 -0.17664094 -0.24355403 0.079826795
-0.06186409 -0.22336464 0.19995262 0.011823716 0.022458006 -0.22702548 -0.3460831 -0.017688384
-0.17533597 -0.16753206 0.32268283 -0.08680724 0.18541908 -0.10327044 -0.18518837 0.102217056
-0.21599282 0.056421187 -0.2873472 0.17201051 -0.14101027 0.27896798 0.19661021 0.23407651
0.1570815 0.024640683 -0.062858626 -0.039560195 -0.019028481 -0.38680464 0.37212262 0.019743606
0.3034738 0.026283162 0.10061617 -0.15420581 -0.28395048 0.41214097 0.16744053 0.20874408
-0.33495447 0.15631539 -0.30546632 -0.056288216 0.015735166 -0.24949218 -0.20177522 0.046866126
0.3231655 0.30703726 -0.25632972 -0.08670878 -0.31784704 -0.28047585 -0.028576141 0.4345497
-0.16913329 0.07610728 0.2523366 0.033723075 0.20334156 0.1688332 0.27028775 -0.076653145
-0.4295807 -0.27364737 -0.25772405 0.32977894 0.18780375 0.14324337 -0.19033924 -0.19554883
0.30020496 -0.04728696 -0.27493978 0.039519906 -0.03803194 0.037059292 0.20707038 0.21032786
-0.22381398 -0.014520564 -0.30988544 0.34058657 0.08891327 0.16986893 0.34688804 0.16204825
-0.3754563 0.051362645 -0.23360944 0.19023703 -0.056319073 0.41235188 -0.21409114 -0.33868954
-0.06400472 0.06648216 0.19986585 0.28466833 0.29486293 0.04572885 -0.103683 -0.076206855
-0.11794932 0.08108142 -0.2451745 0.13326287 0.21229543 0.41409096 -0.40123674 0.3708962
-0.26427782 -0.060949318 0.23744783 0.11405639 -0.15889308 0.123184696 -0.5056511 0.26026845
0.17099196 -0.0051153614 0.12977761 0.007924675 -0.14275132 -0.117121376 -0.085236914 -0.42175695
-0.21473604 -0.08306649 -0.19762298 -0.19631317 -0.015251201 -0.18001027 0.35989872 -0.09818581
-0.32307866 -0.008921558 -0.2883138 0.23632778 0.28539446 -0.14873302 -0.09534143 0.29781327
-0.13041893 0.21634075 -0.2764363 -0.22833501 -0.09327669 -0.27254608 0.11712212 -0.12049573

raise_dim.0.attention3.1.bias f4 [32]
00000000: 9c11 c4bd b992 71bc d74b 81be 3fae 7ebe
00000010: 2bb7 2c3e 6164 c33c 5e0b 57be 6337 af3c
00000020: 98c6 183e e1f8 283e 3a77 903e 1f44 66bd
00000030: d496 063e 65fe 75be d168 ffbc b718 38be
00000040: 6456 20bd 06bf 333e f335 bd3d f390 b9bd
00000050: b3a0 33bd 4f06 81bd 79a3 ffbd 879d 00be
00000060: 8f88 2a3e 325c 4b3e 1259 753e 52cf dcbd
00000070: 2521 273e d478 30bd dbe9 c2bd d8ac dabd
-0.09573671 -0.014744454 -0.25253174 -0.24871157 0.16866748 0.023851575 -0.2100043 0.021388715
0.14919508 0.1650119 0.28215963 -0.05621731 0.13143474 -0.24022825 -0.03117791 -0.17978178
-0.03914489 0.17553338 0.092388056 -0.0906085 -0.043854427 -0.063000314 -0.12482352 -0.12560092
0.16653655 0.19859388 0.23959759 -0.10781731 0.16321237 -0.04308398 -0.09517261 -0.106774986

raise_dim.0.attention3.3.weight f4 [32, 32, 1, 1]
00000000: a473 c83c f682 56bc bf72 62bc 17f5 04be
00000010: a1dd 343e de17 1abe c35f 9ebd f391 043c
00000020: 4bea 3b3e e4f8 063e 9b21 fabd 681a d4bd
00000030: aa14 5c3e fe84 813d 0deb 0e3e f625 1ebe
00000040: 5082 943d 8744 243e 9408 ec3c 50db 773c
00000050: 623b 9abb 9662 8d3b cbed a13d de6f 7c3c
00000060: 5cfc 93bd 8959 933a 04a3 873e e178 ec3b
00000070: fa0d 1b3e 7150 893d f85b c9bd 0dff 53bc
00000080: 25f4 b8bc b3a3 0b3d a1b2 bb3d d921 893d
00000090: ef17 f6bc 8029 9dbd 6464 e2bd f529 b33c
000000a0: ba00 e43d c53a e4bd d5c5 57bc 848d 4fbc
000000b0: e52e 2b3d 7373 8d3c 62be 90bc 4492 a03d
000000c0: e523 f13d c621 703d b3ea dbba 2a04 dbbb
000000d0: baf1 773d 6d80 07bd 40cd 173e 05a9 8bbc
000000e0: d76b e3bc 7d03 a33d f34f 13be 7c2f e93c
000000f0: 9598 253e 4376 0e3d 044d 73bd 1aa4 873d
00000100: 471e 2a3d 49f5 05bd 1dbf d83c d70f 713d
00000110: f4ad 11bd 5cf8 0b3e de17 aebd 16af f53c
00000120: e292 94bc 7c95 b5bd 353c 7a3d c558 893d
00000130: 5baa 0e3d b612 11bd 3130 52be 94fc a13d
00000140: 0d24 acbc a4fe ddbd 4cf1 a2bd f0ef 1cbc
00000150: cdc6 1bbd 1fb1 a93d 36f7 aebc 32ef 293e
00000160: e7ff e4bd 7777 3bbe ccf1 053d d069 05be
00000170: e78b aabc 6395 a63d 118c 06be ae31 093e
00000180: 62f1 e1bd 8160 853d c23f aabd ce62 51bd
00000190: 19da 03be 8009 373d 91b3 a4bd 41b7 28bd
000001a0: 8cc1 e1bd 072e 9fbc e360 f6bd fafc 86bd
000001b0: 0de0 a7bd eae4 d6bc 788d 09be 2715 0c3c
000001c0: 5ef9 023e 213a b5bd 29d5 debd 8468 bfbc
000001d0: 31ec b93d f55b 3fbe be89 d9bd b683 a93d
000001e0: ffb2 223d dccf 4f3d 5553 a53d 9d58 dc3d
000001f0: 9f87 8ebd 24cf 02be 75fa cf3d f12b bcbd
00000200: 06e8 273e 3702 043e 21f0 f03d a28b d8bc
00000210: 1cc7 e6bd 01d5 86bd 4fdb 0cbe b114 3f3e
00000220: f6f7 533e 1ee6 2b3e 4b01 e93d 9a0d da3c
00000230: 9c63 ac3d e9db 213e 96c9 853d 1c15 aabd
00000240: ee60 5abd a636 f93d 2e09 07bd 4c20 7bbd
00000250: 071b 2bbe e0b4 2c3e dc89 3d3d 1f89 c2bd
00000260: 4dc3 4dbd 718f c9bd 3e70 bfbd 284f ec3d
00000270: fc49 1abe 6083 2b3e da33 43be be56 f8bd
00000280: a6ed afbd 4c1c e3bc cc18 43bb 1414 d8bd
00000290: c6b2 adbc d4dd 86bd b768 1abe f91e 21bf
000002a0: b3d8 ce3d 8d4a 9abd 3795 e9bd a125 cb3d
000002b0: 9ba2 f7bd 3f60 3a3d 5426 3abe d6e6 3bbe
000002c0: 3889 0bbe 4bfb 21be ef46 3f3d cf28 923b
000002d0: 258f c83e 3fb7 2fbf ff28 673d cbd5 8abe
000002e0: ce47 d83d be6a 873d 460d 7d3d 34c4 e33b
000002f0: c51e d03c 429c fa3d eb51 eb3d 2236 f03d
00000300: a912 ab39 90f6 7abc 8de9 cc3d d07c 8fbb
00000310: 106c e93d e9ac b03b a41c 013e 3c4d 10bd
00000320: bf4d bd3d d5a3 96bd 5c90 5b3e 7b40 2fbd
00000330: baf3 223e fd14 58be 1e9c b3bd 8425 923d
00000340: 9e64 3dbe 27ca 0d3e 3864 17bd db61 29bd
00000350: a05c bd3d c4b1 05be c0d9 1abd 1cc7 6f3c
00000360: 99c5 8cbc 09cd 38bd 99e7 983d c30b fabd
00000370: 4791 41bd ff70 e73d a97d 383e 7681 573c
00000380: c72e 013e dece 553e e9e9 0abe d9c1 e3bd
00000390: b1f4 f43c adbe a5bb 9e27 d7bd adbb 823d
000003a0: 68a9 d139 d6a5 503d 7239 433e 1966 c2bd
000003b0: ff3d 8c3e 6386 0dbe f663 c63d e98a 1cbe
000003c0: 75a5 52be fdbe 1b3e 1e12 00bd 3a53 d83d
000003d0: 492f c9bd 64db 01be 7941 adbd d0ee 29bd
000003e0: 7b9f 73bd 066b 31bc 223e 0bbc f047 903c
000003f0: 30eb 8b3d 2d7d f93d 4377 9c3b 4409 e1bc
0.024469204 -0.013092747 -0.013821303 -0.1298412 0.1766267 -0.15048167 -0.07733109 0.008091438
0.18351094 0.13180882 -0.12213441 -0.10356599 0.21492258 0.06324194 0.13956852 -0.15444168
0.07251418 0.16041766 0.028812684 0.015127972 -0.004706786 0.004314731 0.079066835 0.015407531
-0.07225868 0.0011241894 0.2649156 0.0072165583 0.1514205 0.06704796 -0.09831995 -0.012939227
-0.022577355 0.034091663 0.0916493 0.06695909 -0.03004071 -0.07673931 -0.11054304 0.021870593
0.11132951 -0.11144022 -0.013169725 -0.012668017 0.04179277 0.017266965 -0.017668907 0.07840398
0.117744245 0.05862596 -0.001677832 -0.006683846 0.060533263 -0.03308146 0.1482439 -0.017048368
-0.027761383 0.0795965 -0.14385967 0.028465025 0.16171487 0.034780752 -0.05939962 0.06623097
0.04153278 -0.032704625 0.026458317 0.058852997 -0.035566285 0.1366896 -0.08500646 0.029990714
-0.018136445 -0.088664025 0.061092574 0.067063846 0.034830432 -0.035418235 -0.20526196 0.079095036
-0.021013284 -0.108395845 -0.0795618 -0.00957869 -0.038031388 0.08285736 -0.021358114 0.16595152
-0.11181622 -0.18307291 0.0327013 -0.13028646 -0.020818664 0.08133962 -0.13139369 0.13397858
-0.11032368 0.06512547 -0.08312942 -0.051119618 -0.12876166 0.044686794 -0.08042062 -0.04119039
-0.11023244 -0.019431127 -0.120301984 -0.0659122 -0.08197031 -0.026232202 -0.13432872 0.008549965
0.12790439 -0.08848978 -0.10880501 -0.023365267 0.09078253 -0.18687423 -0.10621975 0.08277075
0.039721485 0.05073534 0.08072535 0.10759089 -0.069594614 -0.1277433 0.10155193 -0.09188069
0.16397104 0.1289147 0.11764551 -0.02643377 -0.11268446 -0.06583596 -0.13755535 0.18660237
0.20700058 0.16787001 0.113772 0.026617814 0.084174365 0.15806545 0.0653259 -0.083048075
-0.053315096 0.121686265 -0.03296774 -0.061310098 -0.16709529 0.16865873 0.04627405 -0.0949881
-0.05023508 -0.098418124 -0.093475804 0.11538535 -0.15067285 0.16749334 -0.19062749 -0.1212592
-0.0859025 -0.027723454 -0.0029769419 -0.105507046 -0.02120341 -0.06585279 -0.15079008 -0.62937886
0.10099926 -0.07533751 -0.114054136 0.099192865 -0.120915614 0.045501944 -0.18178684 -0.18349776
-0.13626564 -0.15818517 0.046698507 0.004460431 0.3917171 -0.68638986 0.05643558 -0.27116236
0.10560571 0.06612156 0.061780237 0.0069508795 0.025405297 0.12236835 0.11490234 0.11729075
0.00032629565 -0.015317574 0.10005484 -0.0043788925 0.113975644 0.0053917062 0.12608582 -0.035229906
0.092433445 -0.07355467 0.21441787 -0.042786103 0.15913287 -0.21101756 -0.08770011 0.07136062
-0.18495414 0.13846646 -0.03696081 -0.041353088 0.092461824 -0.13056093 -0.03780532 0.014634874
-0.017184066 -0.04511741 0.07466049 -0.122092746 -0.047257688 0.11300849 0.18016686 0.0131534245
0.126155 0.20879695 -0.13565792 -0.11120958 0.029901834 -0.0050581307 -0.10505603 0.063834526
0.00039989804 0.050939403 0.19064882 -0.0949213 0.2739105 -0.13820796 0.09687035 -0.15287365
-0.2057093 0.15209575 -0.031267278 0.10562749 -0.09823472 -0.12681347 -0.084597535 -0.041487515
-0.059478264 -0.010828739 -0.0084987 0.017612427 0.06831968 0.121820785 0.0047749593 -0.027470239

raise_dim.0.attention3.3.bias f4 [32]
00000000: 26fa d1bd 6cf6 a7ba 91a9 953d 5525 273e
00000010: fbe7 383d df38 043c 6016 85bd c113 79bc
00000020: 3c96 dbbb 4532 a9bd e91e 423d d7d3 903d
00000030: 9bcd 8f3d 6414 b8bd 7bdd 31ba 5e35 143e
00000040: c6d9 26bc 3d58 04be 3d47 273c 6feb ab3c
00000050: 53c0 debd 093b 5bbc ca3e b5bd 8577 0f3d
00000060: cc39 88bd 8282 1b3d c1a7 f43d 2671 29be
00000070: 77c7 55bd c808 9fba 534c 67bd 2e3a 693d
-0.1025279 -0.0012814528 0.07307733 0.16322835 0.04514311 0.0080702 -0.06498408 -0.015202464
-0.006701259 -0.08261541 0.04739276 0.07071655 0.07021638 -0.08988264 -0.00067850173 0.14473483
-0.010183757 -0.12924285 0.010209856 0.020986287 -0.10876527 -0.013380774 -0.08849867 0.035026092
-0.06651649 0.03796626 0.11946059 -0.16547069 -0.052192178 -0.0012133354 -0.056469273 0.05694025

layers.0.conv1.weight f4 [32, 32, 3, 3]
00000000: 3e9d 6a3b c1da 483d 9495 a1bd 6263 133b
00000010: 3650 25bd 8e6c 0bbc 904b 723d c52e c1bc
00000020: 1bac 1ebc 40e1 2ebd 6432 62bd 825a 453d
00000030: 5423 a0bc a59a a33d 1de7 d63d 4978 673b
00000040: 4c0f b6bd b428 4eba f5ee 2b3e bf0b 103e
00000050: ffb9 24be 419f 9f3d 67c3 1c3d f339 37be
00000060: 0b77 833d dda0 3bbd a28e adbe ed3e cebd
00000070: 66bd f8bb 2d0e 903e c871 82be 6293 803e
00000080: e9e2 fe3d 85bd a6bd c552 5bbd d805 533e
00000090: a131 7b3c 7233 8fbd ff12 e53c 5d92 c6bc
000000a0: 3ec8 febb 4189 3d3d 0725 84bd db36 80bd
000000b0: 811c b5bd b96f 7abd 6254 c13d b22f d73d
000000c0: ad7d 80bd 1b34 f63d 5f95 f0bd 8696 6c3e
000000d0: 8e5b 733b d794 9a3e 7fe9 26be 0960 f1bc
000000e0: 22cd 8dbe 9f10 4abd cca6 bbbd 6588 c8be
000000f0: 3520 ac3c 5bb5 86bd 933a 70be c6e8 933e
00000100: 9801 9cbe a8a5 f53c e21f b4bd c70b 0e3e
00000110: 9380 abbe 9e18 523e af91 2ebe 3a27 273e
00000120: 4785 023e 7c26 1c3c 2b33 93bd 20a9 2d3d
00000130: 60d4 8f3d 9a2c 01be 08ca 733b 1806 01be
00000140: a777 3cbe 8964 6b3d fb0e 4d3d 4364 273e
00000150: 5ccb 2f3e 04c1 ff3b 8c16 c73d 5843 e03d
00000160: b157 2c3e d04a 903e bade 31bd c849 4c39
00000170: bec6 cabd 1adf a03d c910 e0bd 800c 1c3d
00000180: 7ec8 cd3c 9e6c f23c 2db2 36bc 5a0b d7bd
00000190: 54b7 4cbe 9222 04be b142 b4bc 2cbb 35be
000001a0: e10b b6bd a8ca e63d 962f e1bd c87d 02be
000001b0: cc92 d5bb 16e8 a4ba 4e30 a5bd 3eb7 10bb
000001c0: 9880 acbd 1f07 2dbd 6764 863d bf0b 79bd
000001d0: 54a6 a73b 8ba0 fcbc eaeb c8bd a9d0 12be
000001e0: 6970 1abe 646e b2be 421c 3cbe 829b edbd
000001f0: 8ab0 b7be 8446 9cbe 80a2 40bc 3115 583d
00000200: 494d e93d 7b60 013c f8ef 7b3d 9d92 b7bd
00000210: 4241 843d 9b42 72be 2a3b 55be 7798 41bd
00000220: a25c dcbb 1b6c 4d3e 1966 193c 0b4a ae3c
00000230: 05a8 4d3d 32a3 783c 3376 64bd 5a66 1dbd
00000240: 8e1f f7bd fea8 13bd 8481 4abd f4e2 7a3c
00000250: 8b43 b0bc 2541 8d3d 42fb 24bc 09a2 9f3d
00000260: c2a7 e3bb 4803 16be c8e5 95bb ceeb 1e3e
00000270: 61d1 48be 9ea8 c1bb 8739 023e c169 08be
00000280: 16ab 05be 6c48 403e 219a 563e 6047 3c3e
00000290: 61eb 0f3e 47dd 20bd 8340 1abd c2ff 5b3d
000002a0: de5c d0be ebb2 9d3b bb20 663d 318f b2bc
000002b0: b7a8 1bbd b805 15bd db48 613d a0e8 35bd
000002c0: 984c cdbd ae97 9f3d 7c52 e23b d595 8fbd
000002d0: 46b5 a7bc b39b 97bc d053 9abd b5e3 a8bd
000002e0: 4191 8bbc 5d33 193d 4ad1 083c 2e72 a8bc
000002f0: 5b37 7f3d e4e5 bf3d b373 f43d 9434 583d
00000300: fa76 3dbe 0c38 063e 1a2e 4bbd 73c0 033e
00000310: 1372 d03d ec31 30be 5613 88bd 46c8 a6bd
00000320: 969f 903e 291c 19be 77a5 bfbd f11f 633e
00000330: ec4a b1bb 0415 e03d d9fd 0c3e 3f40 a43d
00000340: 7c68 693c 7557 773d 2270 9fb9 6133 0abd
00000350: bace 1dbe 57c2 ff3a 6f37 66bd eebf dcbd
00000360: 5afb 06bd 677f d8bb 44bd 9a3d 0b48 e93d
00000370: e5cf f23c 19b0 1cbe 2fb2 b4bd 6d6f d3bd
00000380: aa78 bcbd 2176 283d 31cd 363d ed3e c83b
00000390: 676e d63c da31 93bd 7c7c f73c 0cc1 85bd
000003a0: bf13 cebc 78e7 1bbd 8723 20bd 0e7d babd
000003b0: b179 0a3e 1df7 f9bc 9b5c 95bd 214d c8bc
000003c0: 94d9 053d 4bd4 f93d 97a6 9e3c 9fcf 3a3f
000003d0: cc24 723e 1ac3 de3e e7f6 983e ee64 8ebe
000003e0: 1a16 ed3b 70f1 233c 80b8 c1be b321 d03c
000003f0: af08 e8bc 865e babd df93 3ebe d3da 26be
0.003579929 0.049036745 -0.07889858 0.0022489657 -0.0403597 -0.008509768 0.059154093 -0.023581872
-0.009684588 -0.042695284 -0.055223837 0.048182018 -0.019548096 0.079884805 0.104933 0.0035319498
-0.088896364 -0.00078643416 0.16790374 0.14066981 -0.16086577 0.07794047 0.038272288 -0.178932
0.0641919 -0.045807708 -0.33897883 -0.10070596 -0.0075909374 0.28135815 -0.25477433 0.25112444
0.124456234 -0.08141617 -0.053545732 0.20607698 0.015331657 -0.06992234 0.02796316 -0.024239713
-0.0077753356 0.046273474 -0.06452375 -0.06260463 -0.08843327 -0.061141703 0.09439923 0.10507144
-0.06273971 0.12021657 -0.1174724 0.23104295 0.0037133428 0.3019168 -0.16300009 -0.029464738
-0.27695566 -0.049332257 -0.09162673 -0.3916656 0.021011451 -0.065775596 -0.23459844 0.2888853
-0.30469966 0.029986218 -0.08795144 0.1387168 -0.33496532 0.20517203 -0.17047761 0.16323557
0.12746154 0.00953066 -0.07187494 0.04239762 0.07022929 -0.1261467 0.0037199277 -0.12599981
-0.18405019 0.057468925 0.050063115 0.1634684 0.17167419 0.0078049917 0.09721097 0.10950345
0.16830327 0.28182077 -0.0434253 0.00019482442 -0.09901188 0.07855053 -0.109407015 0.03809786
0.025120016 0.029592808 -0.011150879 -0.10500212 -0.19991809 -0.12903813 -0.022004457 -0.17747182
-0.088889845 0.11269122 -0.109954044 -0.12743294 -0.0065177437 -0.0012581374 -0.08065854 -0.0022081877
-0.08422965 -0.04224312 0.06562119 -0.060802218 0.0051162634 -0.030838272 -0.09810622 -0.1433741
-0.15081944 -0.34849846 -0.18370155 -0.116019264 -0.35876876 -0.3052255 -0.011757493 0.052754585
0.11391694 0.007896538 0.06150815 -0.08963511 0.064577594 -0.2365822 -0.2082335 -0.047264542
-0.00672491 0.2006077 0.009362721 0.02127554 0.050209064 0.015175628 -0.055776786 -0.03842769
-0.120665655 -0.036049835 -0.049439922 0.015312899 -0.021516582 0.06897191 -0.01006967 0.07794578
-0.0069474885 -0.14649689 -0.004574511 0.1551964 -0.19611122 -0.0059099933 0.12717257 -0.13321592
-0.13053545 0.18777627 0.20957233 0.18386602 0.14054634 -0.039273527 -0.03765918 0.053710707
-0.40695852 0.0048125884 0.056183558 -0.021796795 -0.038002696 -0.036382407 0.05500112 -0.0444113
-0.10024375 0.077926025 0.0069068056 -0.07011 -0.02047218 -0.01850686 -0.07535517 -0.08246557
-0.017037036 0.0374025 0.00835068 -0.020562258 0.06230865 0.0937002 0.119361304 0.052784517
-0.18502417 0.13107318 -0.049604513 0.12866382 0.10178008 -0.17206544 -0.06644313 -0.08143668
0.28246754 -0.14952148 -0.09357732 0.22180153 -0.0054105427 0.109415084 0.1376871 0.080200665
0.014246102 0.06038614 -0.0003041039 -0.033740405 -0.15410891 0.0019512874 -0.05620521 -0.10778795
-0.03295455 -0.0066069844 0.07555631 0.11390694 0.029640147 -0.15301551 -0.08823048 -0.10323987
-0.09202702 0.04112828 0.04462928 0.006111017 0.02617569 -0.07187243 0.030210726 -0.065309614
-0.0251559 -0.038062543 -0.03909638 -0.091058835 0.13522984 -0.03051334 -0.07293054 -0.02445084
0.0326782 0.12198695 0.019366546 0.72973055 0.2364685 0.43508226 0.29875872 -0.27811378
0.0072353007 0.010006294 -0.37836075 0.025406694 -0.028324453 -0.0910006 -0.18611096 -0.16294412

layers.0.conv1.attention1.0.weight f4 [9, 32, 3, 3]
00000000: 345a b5bc 138f 063d 08fe 7bbd 626e 513d
00000010: 88ea 33bb c119 1bbd 72f0 1dbd 9ea8 d7bd
00000020: f517 dcbd c6e5 53bd 0345 5abd cab5 b33c
00000030: 0869 033d ace6 113e 2cfe b93d e08d 493d
00000040: a937 243e d99b db3d 9fa7 73bc 398b 8fbd
00000050: ea05 d2bd 2f04 09be 477c 44bc 3be7 cf3c
00000060: c89f e1bd 6ff6 89bd e280 16be 1c0f b43e
00000070: d209 85be 52dd 2a3e 3b8b d3bd ff95 0dbe
00000080: a543 60be 2a45 3b3e 2b97 1ebe c532 04bb
00000090: 3237 c03e 9b95 8f3e 17c3 bb3e b73f 893e
000000a0: a945 5abe f961 f73d 3d4f a43e 99a7 b6bd
000000b0: bd3d 7b3e c1b1 003e d56f 4ebe d98c 573e
000000c0: f847 20bf d742 843e 03d9 88be 3dfc 1abe
000000d0: 595f e7be 1916 3ebe 3e32 943e 8e11 483d
000000e0: 9098 6cbd 8572 fa3d f3d7 f8bd 8521 adbc
000000f0: 6c70 29bc 36c1 cd3b 44ce c33d c0e8 043f
00000100: c59b b2be 4790 8a3e 5eaf a7be a354 56be
00000110: 8b8d 203e 1a5d a4bd 77ac 1d3d 99ef a3bc
00000120: 78d0 64bd 9fac 9abd c048 27be f29d 47bd
00000130: aca7 2bbe f505 6bbe 3f95 c1bb 6fae 1ebe
00000140: a026 c0bd 721c 65be f144 9abd a275 f5bd
00000150: 1f1b f63a 0e91 bf3d e91c 40bd 4d80 90bd
00000160: 6bc4 dcbc 7598 dd3c d612 723d 5e14 8a3d
00000170: 7574 bc3d 872c 563d da54 acbd 91b6 953d
00000180: 4908 613e a281 073e 3942 2e3e 4441 723e
00000190: 04d1 be3c 214b c73d 6811 293e 08f8 1dbe
000001a0: 033d 3e3d 496d fc3d 3577 863c ffe7 973d
000001b0: 9665 073e ca5b c93d 16b8 e33d 8349 cb3d
000001c0: acee a3bd 82fd 5b3d 1a78 483e d2d7 653d
000001d0: ffa6 593e fd15 db3e 9ed0 d33e 40e2 8d3e
000001e0: 675e 9f3e 560d db3e 848e b63e 8b16 3a3e
000001f0: 2c16 da3e fe67 a83e 5e56 9fbd 10e7 3fbe
00000200: b718 9fbd 7aeb d83d 92b5 85be d5a8 acbd
00000210: dc59 2a3e 9794 583d e79b 8e3d 38a9 c33e
00000220: 6a69 7b3e 60d9 a53e eaa9 413e d49d b03e
00000230: 105b 943e d21c e43e 0562 ff3e fd06 153f
00000240: 8bd5 a03e c282 8ebc 16c9 bfbc 56ca 4c3e
00000250: ec92 a0be 4e5d 053d d238 1e3f 570f cebd
00000260: 9f06 cd3d 1873 123e c127 7f3d 4196 8f3c
00000270: 2be0 5cbd 5950 673e 2d8e 113e cf41 2b3e
00000280: ea14 a33d abea 823d 83ff ac3d c7c7 b53d
00000290: 97c8 7e3d e319 3fbe f5e4 1abe a741 eabb
000002a0: c099 ca3e 088a 4bbe 4fac f7bd 0b45 d2bc
000002b0: 3d15 3cbd 69ed 55bd 2080 15bd f5e7 65bb
000002c0: f772 33be c4ef c2bd 9e3b 3dbd ad7d 16be
000002d0: 1a27 e5bd dade b6bd a3af b6bd 7863 563d
000002e0: 64db 273c 60fa 07bd 4d3c aabd 855d 2a3c
000002f0: fd62 373c 2f3a 4cbe 969f 84be 8879 e63e
00000300: 3f3a 09bf 5f52 e0be 3d07 2cbd 6535 25bc
00000310: 6a07 af3d 2d1b e03e ebc8 633e 8301 b03e
00000320: 07e1 193e d86b ac3d f912 133e 77ff 253e
00000330: c64b 4bbc 584e 9f3d d180 263d 2430 8abd
00000340: d692 6dbe 1af2 8cbe 50c4 99be a170 28be
00000350: 5885 98be c1b8 87bd 667d 0ebe c294 08be
00000360: 6f8d 04bd b60e 34be cc47 f7bd 0492 f5bd
00000370: d1d9 f7bd 2d8e 3dbe 25d0 8bbd cd59 86bd
00000380: de99 04be 16be 243d a23c 58bc b653 98bd
00000390: 1415 6dbc 1948 f4bd 0471 07be 278a 0bbb
000003a0: 825f d1bd 79c8 04be b7af 023d 8451 54bd
000003b0: d716 5e3e 7b78 173d 246e 1dbf b0fd 273d
000003c0: 3ada b8be 940c 0dbe 1970 4ebe 7de2 063f
000003d0: 083b ec3e 12cb c03e bf5c 97be a277 c3be
000003e0: 6fef c9be d793 30be ea19 83be bfe9 c2be
000003f0: 6abb d9bd 75a7 0d3d d844 e93b c84d 4dbd
-0.022137739 0.03285129 -0.06152156 0.05113066 -0.0027453024 -0.037866358 -0.038559385 -0.10530208
-0.10746757 -0.0517328 -0.05328847 0.02193727 0.032082587 0.1424815 0.090816826 0.04920757
0.16036858 0.10723085 -0.014871507 -0.070089765 -0.10255034 -0.13380502 -0.011992521 0.025378814
-0.11016804 -0.067364566 -0.14697602 0.35167778 -0.25984055 0.1668599 -0.103292905 -0.1382675
-0.21900804 0.18288103 -0.15487354 -0.0020171863 0.3754211 0.28043827 0.3667228 0.26806423
-0.21315636 0.12079234 0.32091704 -0.089186855 0.2453527 0.12567808 -0.20159848 0.21049823
-0.62609816 0.25832245 -0.26728067 -0.15135284 -0.45189932 -0.18563117 0.28944582 0.048844866
-0.057762682 0.12228874 -0.12150564 -0.021134147 -0.010341745 0.006279136 0.095608264 0.5191765
-0.34884468 0.270632 -0.32750982 -0.20930724 0.15678994 -0.0802557 0.038494553 -0.02001171
-0.055862874 -0.07552456 -0.16336346 -0.048734613 -0.1676318 -0.22951491 -0.005907684 -0.15496229
-0.09382367 -0.22374132 -0.07532681 -0.11985327 0.0018776393 0.09353839 -0.04690257 -0.070557214
-0.026949128 0.027050236 0.059099995 0.06742166 0.092019 0.05228856 -0.08414622 0.073102124
0.21975817 0.13233045 0.1701745 0.2365771 0.023293026 0.097311266 0.16510546 -0.15426648
0.046444904 0.12325532 0.016414264 0.074172966 0.13222346 0.098319605 0.11119096 0.099261306
-0.080045074 0.05370856 0.19577065 0.056114025 0.2125511 0.42790213 0.413701 0.27711678
0.3112671 0.42783612 0.35655606 0.18172662 0.4259504 0.3289184 -0.07780145 -0.18740487
-0.07768386 0.105917886 -0.2611509 -0.0843064 0.16635841 0.05287608 0.0696333 0.3821504
0.24551931 0.32392406 0.18912473 0.34495413 0.28975725 0.44553238 0.4987947 0.5821379
0.3141292 -0.017396335 -0.023411315 0.1999906 -0.31362092 0.032559685 0.6180545 -0.100615196
0.100110285 0.14301717 0.06229377 0.017527701 -0.05392472 0.22589244 0.14214392 0.16724323
0.079629734 0.063924156 0.084471725 0.08875995 0.062203016 -0.18662219 -0.15126403 -0.0071489397
0.39570427 -0.19876873 -0.12093412 -0.025667688 -0.045918692 -0.052228365 -0.036499143 -0.0035080884
-0.17524324 -0.09518388 -0.046199434 -0.14696379 -0.11189099 -0.08929224 -0.08920219 0.052340955
0.010245178 -0.03319776 -0.08312283 0.010398273 0.011193034 -0.1994407 -0.25903004 0.45014596
-0.536045 -0.43812844 -0.04199909 -0.010083531 0.08546336 0.43770733 0.22244613 0.34376153
0.15027247 0.08419007 0.14362706 0.16210733 -0.0124082025 0.07778615 0.040650193 -0.06747463
-0.23200545 -0.2752846 -0.30032587 -0.16449215 -0.29789233 -0.06627036 -0.13915023 -0.13337997
-0.032361444 -0.17583737 -0.12074241 -0.11990741 -0.12102092 -0.18511267 -0.0682681 -0.06560097
-0.1294932 0.040220343 -0.01319805 -0.074378416 -0.014470357 -0.11927814 -0.13226706 -0.0021292062
-0.10223295 -0.12967099 0.031905856 -0.05183555 0.216884 0.036980134 -0.61496186 0.04101342
-0.36103994 -0.1377433 -0.2015995 0.52689344 0.46138787 0.3765493 -0.29562947 -0.3817721
-0.39440486 -0.17243896 -0.25605708 -0.3806896 -0.106314495 0.034583528 0.0071188025 -0.050123006

layers.0.conv1.attention1.0.bias f4 [9]
00000000: 4d44 253d 4a1a a0be e98e d53b 90f4 5f3e
00000010: 2d8c 063e 9d77 163f a8df 703e 57c1 173e
00000020: 2d0e b3be
0.04034834 -0.31270057 0.0065172804 0.21870637 0.1313941 0.58776265 0.23522818 0.14819847
-0.34971753

layers.0.conv1.attention1.2.weight f4 [9, 9, 1, 1]
00000000: e712 e13e 7302 e1be 1468 773e d16f b93d
00000010: d634 5ebe 4af7 ef3e 908e 1abe 3a3a f63e
00000020: a568 92be 3bb7 aebe b409 f73c b99c a7be
00000030: 9e98 6f3e 3ffc 373e ba94 5f3e bbb6 f1bd
00000040: ff31 0d3f 9ac4 673d 7c88 323e e375 b23d
00000050: a11c 8f3e 6921 8cbe 0534 c53e db37 80be
00000060: 03ef 87be be58 913e 89dc 9c3e f6e4 7cbe
00000070: c99f 8bbd 6630 88be c7ac 453e 8879 2a3e
00000080: c9e0 9abe bd5f 143e bb0c 933e 5e83 893e
00000090: 7e7c cb3e 225e 4ebd 4d57 ca3e 8480 66be
000000a0: 5502 1b3e 2049 11bc 5fe8 8cbe 2a8b 5e3e
000000b0: 876c 7abe 704e 9ebe d122 89be 9324 17bf
000000c0: 2733 a03e 823e f23e 4eb2 e93e 0b9d 063f
000000d0: ee8f edbe 09f4 61be dcfe 0fbf a81b a4bc
000000e0: b0cf b9be 6157 c03e 90ce 003f d316 a13e
000000f0: 1e1c f73e 35fd 8bbf 6209 ecbd 57a8 c83e
00000100: 96b4 71bc b7f7 01be 30b8 61be b496 05bf
00000110: 17d9 e4bc bfda 1fbf 1d3b 523e 742f c9bc
00000120: edb7 c53d 7016 1bbe e538 c63e 4c26 0dbe
00000130: f93c 2dbd 40d4 72be 54d4 34be 482e be3c
00000140: 6f24 113e
0.43959734 -0.4394718 0.24160796 0.090545304 -0.21699843 0.46868354 -0.15093446 0.48091298
-0.28595462 -0.3412417 0.030155994 -0.32736757 0.23398063 0.17967318 0.21834078 -0.11802431
0.55154413 0.05658398 0.17434877 0.08713891 0.2795153 -0.2736924 0.3851625 -0.25042614
-0.2654954 0.28388017 0.30637005 -0.24696717 -0.06817586 -0.26599425 0.1930419 0.16647923
-0.30249622 0.14489646 0.2872065 0.26858038 0.39743418 -0.05038274 0.3951973 -0.22509962
0.15137608 -0.008867532 -0.27521035 0.21732774 -0.24455462 -0.30919218 -0.26784375 -0.5904018
0.31289026 0.47313315 0.45643848 0.5258338 -0.46398872 -0.22065748 -0.5624826 -0.020032719
-0.36291265 0.37566665 0.5031519 0.31462726 0.4826364 -1.0936648 -0.11525227 0.39190933
-0.014752528 -0.12692152 -0.22042918 -0.5218308 -0.027935548 -0.62443155 0.20530362 -0.02455876
0.09654222 -0.15145278 0.38715282 -0.1378414 -0.042294476 -0.2371378 -0.17659122 0.023215428
0.14174055

layers.0.conv1.attention1.2.bias f4 [9]
00000000: 519c 9e3e 7f89 d8be a975 b8be 3a15 e83e
00000010: aff3 8fbd 33bd a93e 0fd1 653e 2816 fabe
00000020: 220d 30be
0.30978635 -0.422924 -0.36027268 0.45328695 -0.07028901 0.3315216 0.22443031 -0.4884503
-0.1719251

layers.0.conv1.attention1.4.weight f4 [9, 9, 1, 1]
00000000: 8660 e2be 1333 05be 4401 ae3d 1897 713e
00000010: 332c 923e 6d94 6ebe 19ed f53d 22dd fa3d
00000020: bf8c d13d 755e 9fbe b564 1cbf 1f72 d6be
00000030: d6cc 74be 6858 98bd f5d3 aebd 5e23 8f3e
00000040: bae4 3dbe d1cf e3bd f9ae 07be dba9 66be
00000050: eba7 20be a381 b3be 20f4 af3d e1eb 8c3d
00000060: 8b80 18bd 06b3 8cbe 899d b03b 179e 08bf
00000070: 4b9b a5be 5c05 573d e45d d23e 40b8 0b3f
00000080: f427 cf3e 9728 aa3d e69d aabe 4487 adbe
00000090: 2b44 583e 2fbd c6be eca5 f9be 030a 7c3e
000000a0: c327 1ebe 72b8 883f f1a0 8e3f 61e7 75bf
000000b0: 6670 24bf 56ba 99be e355 66bd 34bf f23d
000000c0: 6dbf 423e add7 63bd 0f93 8e3d 15aa da3d
000000d0: 2c22 b5be 00d4 d23c bc71 6cbe f69a 5cbf
000000e0: 9ae7 e33e 593a 4e3c bb22 1c3e f03b 80bd
000000f0: e970 62be bbad 36bd 003e abbd d587 ffbe
00000100: 8122 353e b8ae 9cbe 935a fd3d f242 703e
00000110: c24f af3e add8 a63e af93 acbc 47cc 863e
00000120: aa5d dabc 891c 053e 67f8 6dbe 789a 943d
00000130: b6d9 893d b950 88be 24b2 8e3c 7429 8a3e
00000140: 795b cf3e
-0.44214267 -0.13007765 0.08496335 0.23592794 0.28549346 -0.23298807 0.120081134 0.12249209
0.10231923 -0.31126752 -0.61091167 -0.41883942 -0.23906264 -0.07438737 -0.08536521 0.2795667
-0.18544284 -0.11123622 -0.1325034 -0.22525732 -0.15689056 -0.35059842 0.08591485 0.06880928
-0.037231963 -0.27480334 0.0053898734 -0.53366226 -0.32345042 0.052495345 0.41087258 0.5457802
0.4046017 0.08308523 -0.33323592 -0.33892262 0.21119754 -0.3881621 -0.487594 0.24613194
-0.15444855 1.0681288 1.1142865 -0.9605618 -0.64234006 -0.30024976 -0.05623425 0.11852875
0.19018336 -0.055625606 0.06961643 0.10676972 -0.35377634 0.025735855 -0.23090261 -0.8617395
0.44512635 0.012587153 0.15247624 -0.06261432 -0.22113384 -0.044599276 -0.08361435 -0.4990832
0.17688943 -0.3060205 0.12370791 0.23463038 0.34240538 0.32587186 -0.021066515 0.26327726
-0.02665599 0.12999167 -0.23239289 0.07256025 0.06730978 -0.26624086 0.017418928 0.2698475
0.40499476

layers.0.conv1.attention1.4.bias f4 [9]
00000000: 7d33 b2bd f5ce bf3e bc81 24bd 533a 603e
00000010: e9f8 433f 305d 7bbd 08e3 79bb de7a 853e
00000020: 5221 82be
-0.08701227 0.37462583 -0.040162787 0.21897249 0.7655168 -0.061368167 -0.0038129706 0.26070303
-0.25416046
