weights/model_epoch_lagconv790.pth (torch, 679460 bytes, 141 tensors)

raise_dim.0.weight f4 [32, 9, 3, 3]
0	0xbee22ece	-0.44176334
1	0xbea2ac4b	-0.31772074
2	0x3da0bdb7	0.07848685
3	0xbe0c8dff	-0.13726042
4	0xbd09c3e6	-0.03363409
5	0xbdda84ba	-0.10669847
6	0xbd7aae00	-0.061201096
7	0xbca22e78	-0.019797549
8	0x3e2a703f	0.16644381
9	0xbed1a888	-0.40948892
10	0xbec4f771	-0.38470033
11	0xbe14b882	-0.14523509
12	0xbd5007c3	-0.050788652
13	0xbec6187b	-0.38690552
14	0xbebe4566	-0.37162322
15	0x3b032cd0	0.0020015724
16	0xbdf85f99	-0.12127609
17	0x3e2334df	0.15938137
18	0xbeb4ab3f	-0.352869
19	0xbe9878f5	-0.29779783
20	0x3c393dd8	0.011306249
21	0xbbd39b7d	-0.0064577446
22	0xbea30217	-0.31837532
23	0xbda8d6c9	-0.08244092
24	0x3e2ae513	0.16688947
25	0x3e52e58e	0.2059538
26	0x3e158cfb	0.14604561
27	0xbe694cac	-0.22783154
28	0xbe46b55b	-0.19405119
29	0x3e34db23	0.17661719
30	0xbe0b0e1e	-0.13579604
31	0xbe49dd64	-0.1971336
32	0x3d9c748d	0.07639418
33	0x3dd5ee07	0.10445791
34	0x3e4950a0	0.19659662
35	0x3eb493bf	0.3526897
36	0xbeb1563a	-0.34636098
37	0xbeb33fe8	-0.35009694
38	0xbdb4f061	-0.08834911
39	0x3d747e5b	0.059690814
40	0xbe11052b	-0.14162128
41	0xbc41f71c	-0.011838701
42	0x3f0f8a3c	0.56070304
43	0x3ea0986a	0.31366283
44	0x3e85d104	0.2613603
45	0xbe54cd79	-0.20781507
46	0xbdb7cb67	-0.08974343
47	0x3e658bc1	0.22416593
48	0xbe8c81f5	-0.274429
49	0xbe1d9158	-0.15387475
50	0x3e0cb33a	0.13740245
51	0xbe127758	-0.14303339
52	0xbd106de3	-0.035261046
53	0x3e7cbb5d	0.24680848
54	0xbd9a1073	-0.07522669
55	0xbc998420	-0.01873976
56	0x3e44a821	0.19204761
57	0xbe5ddb35	-0.21665652
58	0x3c9e4937	0.019322021
59	0x3e652573	0.22377567
60	0x3e8e003a	0.27734548
61	0x3e2a7118	0.16644704
62	0x3ec2b3b3	0.38027725
63	0xbe432726	-0.19057903
64	0xbd0ef0ce	-0.034897618
65	0x3e616dee	0.22014591
66	0xbedc6a8c	-0.4305004
67	0xbdecfda7	-0.11571818
68	0x3e04acb2	0.12956503
69	0xbe2da6c9	-0.16958155
70	0xbdbc5227	-0.09195357
71	0x3d9f00f6	0.07763855
72	0x3d06178e	0.032737307
73	0x3e205452	0.15657166
74	0x3ec1c23f	0.3784351
75	0xbe03b777	-0.12862955
76	0xbd66700f	-0.05625921
77	0x3e05d712	0.13070324
78	0x3e6e5f2a	0.2327849
79	0x3e12ce2b	0.1433646
80	0x3eb645ad	0.35600033
81	0xbe0e991d	-0.13925596
82	0x3d47ba76	0.048761807
83	0x3dba3b18	0.090933025
84	0xbdc32a59	-0.095295615
85	0xbee9f737	-0.45696422
86	0xbdfa92a1	-0.122349985
87	0xbe30330c	-0.17206973
88	0xbd9efd28	-0.077631295
89	0x3ddf0f47	0.10891586
90	0x3da306ca	0.07960279
91	0xbd9cdb9e	-0.07659076
92	0x3e02167c	0.1270389
93	0xbce660a4	-0.028122254
94	0x3db3db3c	0.0878205
95	0x3d55b063	0.05217017
96	0xbc0f4c5e	-0.008746235
97	0xbdfb641a	-0.12274952
98	0xbd2791c2	-0.04091049
99	0x3cb152ef	0.021645991
100	0x3d9d46aa	0.07679494
101	0x3c1ca826	0.009561574
102	0x3e2558c8	0.16147149
103	0x3e0bacfa	0.13640204
104	0x3c34276b	0.010995726
105	0x3c7d5822	0.015462907
106	0x3d593140	0.053025484
107	0x3e335e66	0.17516479
108	0x3e109cb3	0.14122276
109	0x3dcb6fac	0.09933409
110	0x3d918455	0.071053185
111	0x3d8ad2da	0.06778498
112	0x3dc4c47b	0.09607788
113	0x3df8e7cc	0.12153587
114	0x3dcb0f63	0.09915044
115	0x3d520a0b	0.05127911
116	0x3e5976c6	0.21236715
117	0xbd1abdfe	-0.037778847
118	0xbd3c9fb1	-0.04605073
119	0x3db3c2e4	0.08777407
120	0x3e3c289e	0.18374869
121	0x3e7af512	0.2450755
122	0x3e054849	0.13015856
123	0x3d650fbe	0.055923216
124	0x3d62d8ee	0.05538266
125	0x3e3cf30f	0.18452094
126	0x3d0ebda1	0.034848813
127	0x3d5b9886	0.053612255
128	0xbda9dffb	-0.08294674
129	0x3daf356e	0.08555113
130	0x3dc86f29	0.09786827
131	0x3d6f9899	0.058495138
132	0xbb2f8ca4	-0.002678671
133	0x3ce24a20	0.027623236
134	0x3d95dc6f	0.07317435
135	0x3e6b16eb	0.22957961
136	0x3e715b97	0.23570095
137	0x3df2644f	0.118355386
138	0x3e6df5d3	0.23238306
139	0x3ec484b0	0.38382483
140	0x3eb2c837	0.34918377
141	0x3daf095d	0.08546708
142	0x3e21b42b	0.15791385
143	0x3e7e74cf	0.24849246
144	0xbe0d7962	-0.13815835
145	0xbde635c8	-0.11240727
146	0xbe79fefd	-0.24413677
147	0x3d25e088	0.040497333
148	0xbd41d9b5	-0.047326762
149	0xb95d3043	-0.00021094181
150	0xbcfe81ae	-0.031067695
151	0x3de12ad8	0.109945
152	0xbd62143e	-0.055195086
153	0xbe03c224	-0.12867028
154	0xbc284d53	-0.010272342
155	0xbd67c764	-0.056586638
156	0xbddef279	-0.10886092
157	0xbd2d75b1	-0.042348567
158	0xbd952b07	-0.072835974
159	0xbcc3a84e	-0.023883965
160	0xbdccfbf1	-0.100089915
161	0xbd2aca50	-0.041696846
162	0xbe269368	-0.16267169
163	0xbea02200	-0.3127594
164	0x3e8c4bff	0.2740173
165	0xbeb69133	-0.35657653
166	0xbee9e6fd	-0.45684043
167	0xbcf44d98	-0.029822156
168	0xbd95890c	-0.0730153
169	0x3dc22ff7	0.09481805
170	0x3d1177c8	0.035514623
171	0x3cdecdff	0.027197836
172	0x3c3d842d	0.011567158
173	0xbd3926b2	-0.04520292
174	0x3cb1936b	0.02167674
175	0x3d05f267	0.032701876
176	0xbdb5f5be	-0.08884762
177	0xbddcfc0d	-0.10790262
178	0xbe054f76	-0.13018593
179	0xbd83d7b6	-0.06437628
180	0xbb99eae0	-0.0046971887
181	0xbd287dd2	-0.041135617
182	0xbe1ab9c2	-0.15109923
183	0xbce002fe	-0.027345177
184	0xbdc579a8	-0.09642345
185	0xbe630d70	-0.22173095
186	0x3cd76d6e	0.026297297
187	0xbbb19631	-0.0054195155
188	0xbe298ab0	-0.16556811
189	0x3e14b042	0.14520362
190	0xbb9c51fa	-0.0047705146
191	0xbe284647	-0.16433059
192	0xbd341441	-0.043964628
193	0xbe02d059	-0.12774791
194	0xbe8f464b	-0.27983317
195	0x3df2393e	0.11827324
196	0xbe1a56d6	-0.15072188
197	0xbe430819	-0.19046058
198	0x3e239614	0.15975219
199	0x3e929113	0.28626308
200	0x3dcd07c1	0.100112446
201	0x3e1b56ed	0.15169878
202	0x3ea6bb7a	0.32564908
203	0x3e092f21	0.13396885
204	0x3cb81739	0.02247201
205	0x3d9b1916	0.07573144
206	0xbd076f3a	-0.03306506
207	0x3c49d641	0.0123191485
208	0x3e694594	0.22780448
209	0xbd01c17b	-0.031678658
210	0xbe2b6a1b	-0.16739695
211	0xbb55f558	-0.0032647457
212	0xbde30b6c	-0.11086163
213	0x3de8e95d	0.113726355
214	0xbdc44e55	-0.09585253
215	0xbd93075f	-0.0717914
216	0x3d889666	0.06669311
217	0x3e8a3da2	0.27000147
218	0xbdaa0d0c	-0.0830327
219	0x3c60e62e	0.013726754
220	0x3dd0446b	0.101693
221	0xbd1b882f	-0.03797167
222	0x3e0c0772	0.13674715
223	0x3d4dc508	0.05023673
224	0x3e1a0803	0.15042119
225	0x3e2bafb0	0.16766238
226	0x3e792f32	0.2433441
227	0xbbed26ec	-0.007237306
228	0xbde86fd7	-0.11349457
229	0x3e10a01e	0.1412358
230	0xbd826ac8	-0.06368023
231	0x3d4178bb	0.04723428
232	0x3d2b6c62	0.04185141
233	0xbb3c63b6	-0.0028745956
234	0x3cf8fba8	0.030393437
235	0x3e157666	0.14595947
236	0xbde4d930	-0.11174238
237	0xbe33a31c	-0.1754269
238	0xbcf5b658	-0.029994175
239	0xbe45d0a4	-0.19317871
240	0x3d153f86	0.036437534
241	0xbe161574	-0.14656621
242	0xbda3686f	-0.079789035
243	0xbca4cc7e	-0.02011704
244	0x3e092635	0.13393481
245	0x3d9aaf5d	0.07552979
246	0x3e8e9392	0.27846962
247	0xbe9ba0f0	-0.30396223
248	0x3e1de5c2	0.15419677
249	0xbe62568f	-0.22103332
250	0x3e56200c	0.20910662
251	0xbd414d13	-0.047192644
252	0x3ceee7f8	0.029163346
253	0x3e1ac598	0.15114439
254	0x3d6c5a96	0.057703577
255	0xbd954bdd	-0.072898604

raise_dim.0.attention1.0.weight f4 [9, 9, 3, 3]
0	0xbd74597b	-0.059655648
1	0x3e0992c1	0.13434888
2	0x3d4e2fe5	0.050338645
3	0x3ebe6a00	0.37190247
4	0xbf42c347	-0.7607922
5	0x3e1f9f9a	0.15588227
6	0xbbb9362d	-0.00565221
7	0x3e6fc370	0.23414397
8	0xbe1da32c	-0.15394276
9	0xbe364edb	-0.17803518
10	0xbdf781c8	-0.12085301
11	0xbda4197e	-0.08012675
12	0xbe0712b9	-0.13190736
13	0xbe62b2b5	-0.22138484
14	0xbe48c626	-0.19606838
15	0xbc8695bc	-0.01642882
16	0xbc112567	-0.008859015
17	0xbd659105	-0.056046505
18	0xbb2ce1ef	-0.0026379784
19	0xbda97a74	-0.08275309
20	0xbd7b5f97	-0.06137046
21	0xbe0ddd11	-0.13853861
22	0xbde523ed	-0.11188493
23	0xbe0034ec	-0.12520188
24	0xbd76da81	-0.060266975
25	0xbd03396f	-0.032037195
26	0x3c263dd8	0.010146581
27	0x3d914d88	0.07094866
28	0xbde13816	-0.10997026
29	0x3dd04453	0.10169282
30	0x3deb67e1	0.11494423
31	0x3e502ff0	0.20330787
32	0x3e263ed7	0.16234909
33	0xbd910391	-0.07080758
34	0xbc457842	-0.0120525975
35	0x3cbfb169	0.023400025
36	0xbdb02d7b	-0.08602425
37	0xbe311f0e	-0.17297003
38	0xbd2db20c	-0.042406127
39	0xbe610f69	-0.21978535
40	0xbd47a98a	-0.04874567
41	0xbe52348e	-0.2052786
42	0x3b6fc3da	0.0036585242
43	0xbd2da889	-0.042397056
44	0xbdef9889	-0.11699016
45	0xbd81b01f	-0.063324206
46	0xbdc001a0	-0.0937531
47	0x3d0abbad	0.033870388
48	0xbcedd58e	-0.029032495
49	0x3dbca017	0.09210222
50	0xbc8ad1d0	-0.01694575
51	0xbdab63a4	-0.08368614
52	0x3e0a6372	0.13514498
53	0x3b32dda0	0.0027292743
54	0xbd5d81a0	-0.0540787
55	0xbb4c11bc	-0.00311385
56	0xbd8b5994	-0.06804195
57	0xbe1842b6	-0.14869198
58	0x3d14ae27	0.036298897
59	0xbc5e4a5b	-0.013567532
60	0xbe6d6ea0	-0.23186731
61	0xbd437679	-0.047720406
62	0xbd045d4e	-0.032315545
63	0x3d431360	0.0476259
64	0x3c5223ae	0.0128258895
65	0x3e06ee59	0.1317686
66	0x3d62e32d	0.055392433
67	0x3e6c4f3c	0.230771
68	0x3e3b7d25	0.18309458
69	0xbe1ddcd5	-0.15416272
70	0x3e1301e6	0.14356193
71	0x3e1aa03c	0.15100187
72	0x3e900672	0.28129917
73	0x3ea3726d	0.31923237
74	0x3e5de882	0.21670726
75	0x3e9fcb9e	0.31210035
76	0x3ecc9896	0.39960164
77	0x3e5daad4	0.21647197
78	0xbb8ebec2	-0.004356236
79	0x3e51ed21	0.20500614
80	0xbd63fb22	-0.05565942
81	0xbd24e08c	-0.040253207
82	0x3e28d5dc	0.16487831
83	0x3cc8cf98	0.02451305
84	0x3e2f5492	0.17122105
85	0xbee504af	-0.44730136
86	0x3e231536	0.1592606
87	0xbd8c494c	-0.06849918
88	0x3e888060	0.26660442
89	0x3c240e92	0.010013239
90	0xbe80b02a	-0.25134403
91	0xbeca3102	-0.39490515
92	0xbe49ed19	-0.19719352
93	0xbea65cda	-0.32492715
94	0xbf015833	-0.50525206
95	0xbee21db3	-0.44163284
96	0xbe488bdc	-0.19584602
97	0xbe9213a8	-0.28530622
98	0xbeb20fae	-0.34777588
99	0x3d961015	0.07327286
100	0x3e01f83b	0.12692349
101	0x3d7b1cc1	0.06130672
102	0x3e44b745	0.19210537
103	0x3d83746a	0.064186886
104	0xbd446440	-0.04794717
105	0x3d8e1315	0.06937233
106	0x3e3d2ae2	0.1847339
107	0x3d44815f	0.04797494
108	0x3e8363ab	0.25661978
109	0x3de8d4b3	0.11368694
110	0x3e22b7a6	0.15890369
111	0x3e84d17c	0.25941074
112	0x3e4c1603	0.19930272
113	0x3d5e02b4	0.054201797
114	0x3e12c602	0.14333346
115	0x3e42caf8	0.19022739
116	0x3e4d8615	0.2007068
117	0xbd6d2d2d	-0.05790441
118	0xbe8ca2e5	-0.2746803
119	0xbe106415	-0.14100678
120	0xbe9094a2	-0.28238398
121	0xbe99fe8b	-0.30077013
122	0xbda050bc	-0.07827899
123	0xbe4de5f9	-0.20107259
124	0xbdf6e851	-0.120560296
125	0xbe28555e	-0.16438815
126	0xbd86e7b0	-0.0658716
127	0xbd821b27	-0.06352835
128	0x3d44e22f	0.048067268
129	0x3e2008b7	0.15628324
130	0xbd94e604	-0.072704345
131	0x3d94689e	0.07246517
132	0x3dd26f23	0.10275104
133	0x3d965cbe	0.07341908
134	0x3dbfb8b8	0.09361404
135	0xbdb39b8a	-0.08769901
136	0xbe33680f	-0.17520164
137	0xbe5f2ea6	-0.21795139
138	0xbe674a0e	-0.22586843
139	0xbead0de2	-0.33799654
140	0xbe8c0e40	-0.27354622
141	0xbe6c5e1b	-0.23082773
142	0xbea70983	-0.32624444
143	0xbe31fa2b	-0.17380588
144	0x3dd5c51e	0.10437988
145	0xb7524021	-1.2531907e-05
146	0x3d38661f	0.045019265
147	0x3e1f45c8	0.15553963
148	0x3e3653e3	0.17805438
149	0x3e477fae	0.194823
150	0xbd1365ae	-0.03598564
151	0x3e29e48c	0.1659109
152	0x3dc29f48	0.09503037
153	0x3db7a16c	0.08966336
154	0x3d14d85e	0.036339156
155	0xbd55b51e	-0.05217468
156	0xbc31f565	-0.010861729
157	0x3d78f7d1	0.06078321
158	0x3da6cd64	0.08144644
159	0xbe0e2845	-0.13882549
160	0xbdbc2a40	-0.09187746
161	0x3971c034	0.00023055152
162	0xbf2fe0c6	-0.6870235
163	0x3e9c47fa	0.30523664
164	0xbee5f8ad	-0.44916287
165	0x3f06d9a3	0.5267584
166	0x3f11d353	0.5696308
167	0x3e55c64d	0.20876427
168	0xbe317b44	-0.17332178
169	0x3e07b25d	0.13251634
170	0xbe2b6550	-0.16737866
171	0xbf6606c3	-0.8985407
172	0xbdd037a4	-0.101668626
173	0xbc9564e2	-0.018236581
174	0xbeff5e6e	-0.49876732
175	0xbe28deca	-0.16491237
176	0xbe70bc65	-0.23509367
177	0xbf241fe5	-0.6411117
178	0xbe813338	-0.2523439
179	0xbe43d43f	-0.19123934
180	0xbed6baf2	-0.41939503
181	0xbd1c0e8f	-0.03809982
182	0xbd4afd21	-0.04955781
183	0x3dcef29e	0.10104869
184	0x3d064ab1	0.032786075
185	0x3e2a0358	0.16602838
186	0xbe8a22eb	-0.26979765
187	0xbdb22dc6	-0.08700137
188	0xbdbb4b9c	-0.09145281
189	0xbdd5abd3	-0.104331635
190	0x3e035f57	0.12829338
191	0x3db6479a	0.08900376
192	0x3ec32410	0.3811345
193	0x3e7aff33	0.24511413
194	0x3e8f5493	0.27994213
195	0xbd35c5e2	-0.04437817
196	0x3e332f98	0.17498624
197	0x3e0e0e0d	0.13872547
198	0xbe6615b9	-0.22469224
199	0xbdb06a28	-0.08613998
200	0x3e386bf0	0.18009925
201	0xbd985c8d	-0.07439528
202	0xbc634bc5	-0.013873045
203	0xbdaf849e	-0.085702166
204	0xbe24a40e	-0.16078207
205	0xbd9727fd	-0.07380674
206	0xbd9000cf	-0.07031404
207	0xbde37d5b	-0.11107894
208	0xbea595a6	-0.32340735
209	0xbde71e9e	-0.11285137
210	0x3e9c44ba	0.30521184
211	0xbe070adc	-0.13187736
212	0xbe0056eb	-0.12533157
213	0xbd1c5296	-0.038164698
214	0xbdf36db5	-0.11886159
215	0xbc442c00	-0.011973381
216	0xbe08f11d	-0.13373227
217	0xbd8cc06e	-0.068726406
218	0x3cd3e8ef	0.025867907
219	0x3e69f89b	0.22848742
220	0xbdc29575	-0.09501163
221	0x3d8be099	0.06829948
222	0xbe4e0c74	-0.20121938
223	0xbdf55c4b	-0.11980494
224	0xbd2e5a7e	-0.04256677
225	0xbb289472	-0.0025723246
226	0xbe59ec98	-0.2128166
227	0xbd80eeda	-0.06295557
228	0x3ec659f4	0.38740504
229	0x3d8dd340	0.06925058
230	0xbd3078fc	-0.04308413
231	0xbdbe94a2	-0.09305693
232	0x3d683e33	0.056699943
233	0xbe1285d3	-0.14308862
234	0xbeaed718	-0.34148479
235	0x3df87dd7	0.12133377
236	0x3cb497c8	0.022045031
237	0xbdbe1fbe	-0.09283398
238	0x3c84ce5a	0.016211677
239	0xbe4a61cb	-0.19763868
240	0xbec1896b	-0.37800154
241	0xbaf6bb56	-0.0018824141
242	0xbd562047	-0.052276876
243	0xbd397675	-0.045278985
244	0x3e4fd367	0.20295487
245	0xbe9d2abc	-0.30696666
246	0x3c7483ed	0.014924032
247	0xbe531915	-0.20615037
248	0x3e0ce9ba	0.13761035
249	0xbe1a5730	-0.15072322
250	0x3d8ad60e	0.06779109
251	0xbe98907b	-0.2979773
252	0xbe826c2d	-0.25473157
253	0xbc4e94cd	-0.012608719
254	0xbdd31c88	-0.10308176
255	0xbe543595	-0.20723565

raise_dim.0.attention1.0.bias f4 [9]
0	0x3ea24e1b	0.31700215
1	0x3ea237ee	0.31683296
2	0x3e1899b6	0.14902386
3	0x3ed76199	0.4206665
4	0xbe0b8655	-0.13625462
5	0x3ee8d871	0.45477632
6	0x3e4ae500	0.19813919
7	0xbe00f0f2	-0.12591913
8	0x3e0b4a8e	0.13602659

raise_dim.0.attention1.2.weight f4 [9, 9, 1, 1]
0	0x3eb025fb	0.34403977
1	0x3e0b907d	0.13629337
2	0xbe70932d	-0.23493643
3	0xbe274761	-0.16335823
4	0x3ebc651b	0.36795887
5	0x3eb86d90	0.3602109
6	0xbed179f8	-0.40913367
7	0x3e814380	0.2524681
8	0x3efe2b2f	0.4964232
9	0x3ec8b0eb	0.39197478
10	0x3ee3e866	0.44513243
11	0x3f5771c0	0.84157944
12	0x3f59cd79	0.8507915
13	0xbd838b95	-0.064231075
14	0x3e8b1627	0.27165338
15	0xbe7be8d6	-0.24600539
16	0xbe030a37	-0.12796865
17	0x3eb11ba3	0.34591398
18	0x3f2813d9	0.65655285
19	0x3ea1a3c6	0.31570262
20	0x3f98a4e6	1.1925323
21	0x3edf43bc	0.43606365
22	0xbe149220	-0.14508867
23	0xbdd50420	-0.104011774
24	0x3ef7684f	0.4832177
25	0xbe6ebf9f	-0.23315285
26	0xbb571a6e	-0.003282215
27	0x3e611506	0.21980676
28	0xbf31e679	-0.694923
29	0xbe6bdbfa	-0.23033133
30	0xbf0b34c0	-0.54377365
31	0x3eb391a4	0.35072052
32	0xbec3abfd	-0.38217154
33	0x3f0742e2	0.5283643
34	0xbda7f913	-0.08201804
35	0x3e510a2e	0.2041404
36	0x3ef4587c	0.47723758
37	0x3d409243	0.047014486
38	0xbf0097c2	-0.50231564
39	0xbf0c674f	-0.54845136
40	0x3e8893ba	0.26675206
41	0xbe8e4c9b	-0.2779282
42	0x3c845f59	0.016158747
43	0x3ec6f4a6	0.38858527
44	0xbf02e6a8	-0.51133204
45	0x3e6cb320	0.23115206
46	0x3f22fd8b	0.63668126
47	0xbf115697	-0.5677275
48	0x3e58794c	0.21140021
49	0xbf26954b	-0.65071553
50	0x3f08e4b6	0.53473985
51	0xbc191f0d	-0.009345782
52	0xbf080d08	-0.53144884
53	0x3e012349	0.12611116
54	0x3eb0ab5d	0.3450574
55	0x3e1c8cf6	0.15288147
56	0x3e77358f	0.24141525
57	0xbe98d92c	-0.2985319
58	0x3f2650e2	0.6496717
59	0xbea0cb79	-0.31405237
60	0x3e9f4dcf	0.3111405
61	0xbf262ffb	-0.6491696
62	0xbe2df1f0	-0.16986823
63	0x3f0e665f	0.55624956
64	0x3f72be0b	0.9482123
65	0x3f5b46e4	0.85655046
66	0xbc8853ac	-0.01664146
67	0x3d580910	0.052743018
68	0x3d47204d	0.04861479
69	0x3e98da34	0.29853976
70	0xbe8f15e1	-0.2794638
71	0xbed983e5	-0.4248344
72	0x3f13a015	0.5766614
73	0x3eac2ef2	0.33629566
74	0x3ea3fb4c	0.32027662
75	0x3d75e094	0.060028628
76	0xbe94e458	-0.29080462
77	0x3e676f09	0.2260095
78	0x3e9c822a	0.30568057
79	0x3e0f77ca	0.1401054
80	0x3e35f708	0.17770016

raise_dim.0.attention1.2.bias f4 [9]
0	0x3eb5e138	0.3552339
1	0x3f2e92ac	0.68192554
2	0x3ed396ed	0.41326085
3	0xbf41ffde	-0.7578105
4	0x3e4e12f4	0.20124418
5	0x3ef38333	0.47561035
6	0xbf2150b8	-0.6301379
7	0x3d4896e8	0.04897204
8	0xbe063bee	-0.13108799

raise_dim.0.attention1.4.weight f4 [9, 9, 1, 1]
0	0xbee8248b	-0.4534038
1	0xbe697290	-0.22797608
2	0x3e2b509e	0.16729972
3	0x3ef06386	0.4695093
4	0x3f5da268	0.8657594
5	0xbedbf98d	-0.4296383
6	0x3eeddfec	0.464599
7	0x3f2f8d4a	0.68574965
8	0x3e90ef2c	0.28307474
9	0xbef72da9	-0.48277023
10	0xbc906b24	-0.017629214
11	0x3e9db582	0.30802542
12	0x3e225ba2	0.15855268
13	0xbe5f8e93	-0.21831731
14	0xbe9bb2c7	-0.30409834
15	0xbb3cc262	-0.0028802385
16	0xbeb6f96b	-0.35737166
17	0xbea2bd36	-0.3178498
18	0xbec0bfde	-0.37646383
19	0xbe15e2c0	-0.1463728
20	0xbe76834c	-0.24073523
21	0x3eb2016e	0.34766716
22	0xbf54c366	-0.83110654
23	0xbdab5269	-0.08365328
24	0xbe2ac799	-0.16677703
25	0xbe954266	-0.2915222
26	0xbe68a5d6	-0.22719511
27	0xbcd8395b	-0.026394537
28	0xbe80f817	-0.25189278
29	0xbe6b48a5	-0.2297693
30	0xbe66861c	-0.22512096
31	0xbed2359f	-0.41056535
32	0x3de08b59	0.109640785
33	0xbc8e3412	-0.017358813
34	0xbeb7d179	-0.35902002
35	0x3d175293	0.036943983
36	0x3f46630c	0.77494884
37	0x3fb7f2f2	1.4371016
38	0x3fc6fdf2	1.5546248
39	0xbf93f909	-1.1560374
40	0x3ee454ea	0.44596034
41	0x3fbf89e8	1.4963961
42	0xbf93fab1	-1.156088
43	0x3fddb5d3	1.7321113
44	0x3f8282d2	1.0196173
45	0xbc17a333	-0.009255218
46	0x3d7eb0a9	0.062180195
47	0x3d3066f4	0.043066934
48	0xbeb39058	-0.35071063
49	0xbccfa67c	-0.02534794
50	0xbe34b776	-0.1764811
51	0xbecba08f	-0.39770934
52	0x3de72c64	0.11287764
53	0xbe906b19	-0.2820671
54	0xbeb3d874	-0.35126078
55	0x3d3a97d7	0.045554962
56	0x3e89c21b	0.26905903
57	0x3c8aa92b	0.016926369
58	0x3f257d27	0.6464409
59	0x3d620c84	0.055187717
60	0x3ea3f234	0.32020724
61	0x3ed60df6	0.41807526
62	0xbe96ddd5	-0.2946612
63	0xbdb9a145	-0.09063963
64	0x3eb33169	0.34998634
65	0x3f289f00	0.65867615
66	0xbe5b8495	-0.21437295
67	0xbf0069bc	-0.5016134
68	0x3c9ac997	0.018894954
69	0x3e85a4d1	0.26102307
70	0x3e8ccc4e	0.27499622
71	0xbe8f9ef1	-0.2805095
72	0xbeba33fb	-0.36367783
73	0xbe36aa87	-0.17838489
74	0xbea64fc3	-0.32482728
75	0xbe214f18	-0.15752828
76	0xbefb57da	-0.49090463
77	0xbf0f639d	-0.5601137
78	0xbcbe01ae	-0.02319416
79	0xbf217e41	-0.63083273
80	0xbf1f33bb	-0.6218831

raise_dim.0.attention1.4.bias f4 [9]
0	0xbe0aaf77	-0.13543497
1	0xbdba1b9e	-0.09087299
2	0xbc9505b7	-0.018191202
3	0x3e82695f	0.25471017
4	0x3fb05c41	1.3778154
5	0x3e8b280b	0.27178988
6	0x3db0cdc6	0.08632998
7	0x3f047dae	0.5175427
8	0x3e025bbd	0.12730308

raise_dim.0.attention3.1.weight f4 [32, 9, 1, 1]
0	0xbd2d855f	-0.04236352
1	0xbdb7acd6	-0.08968513
2	0x3d9e5ac2	0.077321544
3	0x3df94c66	0.12172775
4	0xbeb20d76	-0.34775895
5	0x3eb9c0e0	0.36279964
6	0x3e91ebfd	0.28500357
7	0xbec00b66	-0.37508696
8	0x3e813920	0.25238895
9	0x3e48a3a2	0.19593671
10	0x3badb858	0.0053015165
11	0x3e778d23	0.24174933
12	0xbc8b5db8	-0.017012462
13	0xbec3cd87	-0.38242742
14	0xbbe7f197	-0.0070783603
15	0x3e9f70e8	0.31140828
16	0xbea772f8	-0.32704902
17	0x3e035b53	0.12827806
18	0xbc6db60c	-0.014508735
19	0xbd88b1e2	-0.066745535
20	0xba3caf1e	-0.00071977254
21	0x3db84ddc	0.089992255
22	0xbe90d90a	-0.28290588
23	0x3daee365	0.08539466
24	0x3df1de10	0.11809933
25	0x3e4f7fe1	0.20263626
26	0x3e9b7319	0.3036125
27	0xbce2b900	-0.027676105
28	0xbe1fb5b6	-0.15596661
29	0xbd3adcc5	-0.0456207
30	0xbe308b05	-0.17240532
31	0x3e1ed241	0.15509893
32	0x3e9746bb	0.2954615
33	0xbdfff361	-0.12497593
34	0x3dd78ff4	0.10525504
35	0x3edb3ef9	0.42821482
36	0xbeb97fc8	-0.36230302
37	0xbe6f2fea	-0.23358122
38	0x3e281913	0.16415815
39	0x3e399794	0.18124229
40	0x3d04ac7c	0.032391056
41	0xbe929d9a	-0.28635865
42	0xbd265bfb	-0.040615063
43	0xbe24938f	-0.16071914
44	0xbe6ef581	-0.2333584
45	0xbef49b5f	-0.4777479
46	0x3eb8f625	0.36125293
47	0x3e1c5f01	0.15270616
48	0x3d1ae092	0.037811823
49	0xbd7924f4	-0.060826257
50	0x3e8a7c64	0.27048028
51	0xbdcd18f3	-0.10014524
52	0x3e8060d2	0.25073868
53	0xbdeccb4c	-0.11562213
54	0x3c8cdc7b	0.017194977
55	0x3d7743f2	0.060367532
56	0x3e030e2d	0.12798376
57	0xbdd5bf7e	-0.10436915
58	0x3e813afa	0.25240308
59	0x3c97769c	0.018489175
60	0x3e832cda	0.25620157
61	0x3e83c514	0.25736296
62	0x3b2de7d3	0.0026535883
63	0x3e21fe79	0.1581973
64	0x3da57230	0.0807842
65	0x3e452427	0.19252072
66	0xbe69d56d	-0.22835322
67	0xbd87a46d	-0.066231586
68	0xbd8086b2	-0.06275691
69	0x3f131246	0.5744976
70	0xbed47ae2	-0.41500002
71	0xbdf3af29	-0.118986435
72	0x3cfa5e79	0.030562626
73	0x3e324134	0.17407686
74	0x3e4fa5df	0.20278119
75	0xbe9ce96f	-0.30646846
76	0xbece3a92	-0.4027906
77	0x3eb5fceb	0.35544524
78	0x3e545dd0	0.20738912
79	0xbeb3b6e4	-0.35100472
80	0xbde95f19	-0.113950916
81	0x3e4fa0fb	0.20276253
82	0xbe0f6b62	-0.14005807
83	0xbea00519	-0.3125389
84	0xbe88f4bb	-0.26749215
85	0xbd88aed6	-0.06673972
86	0x3dbd6a95	0.092488445
87	0x3e3cc595	0.18434747
88	0x3be935ac	0.007116994
89	0xbdcc3ec5	-0.0997291
90	0xbe0e741e	-0.13911483
91	0xbedfa6c1	-0.4368191
92	0x3e0efc8b	0.13963525
93	0x3e726211	0.23670222
94	0x3e86710b	0.2625812
95	0x3dd1d5dc	0.102458686
96	0x3d1131d6	0.035447918
97	0xbe488849	-0.19583239
98	0x3e3b4bc2	0.18290618
99	0xbe800673	-0.2500492
100	0x3e8b0b2d	0.27156964
101	0xbe1c191c	-0.15243953
102	0xbe84c93c	-0.2593478
103	0x3dee87a2	0.11646964
104	0xbc93d4e8	-0.018045858
105	0xbe6a8a24	-0.22904259
106	0x3e7a3242	0.24433234
107	0x3c675735	0.014119913
108	0x3c57c2ee	0.013169033
109	0xbe77b8c2	-0.24191573
110	0xbeabc469	-0.33548287
111	0x3ce682c5	0.028138528
112	0xbe1a2d42	-0.15056327
113	0xbe29e372	-0.1659067
114	0x3ec9d995	0.39423814
115	0xbe2b72e6	-0.16743049
116	0x3e356529	0.17714371
117	0xbdc52dfd	-0.09627912
118	0xbdb31647	-0.087444834
119	0x3e3316f3	0.17489223
120	0xbe5b6b3d	-0.21427627
121	0x3ddc6a2b	0.107624374
122	0xbe80ce85	-0.25157562
123	0x3e60c378	0.21949565
124	0xbcd9e462	-0.02659816
125	0x3ec47dac	0.3837713
126	0x3e4b779f	0.1986985
127	0x3e7e047a	0.24806395
128	0x3e04236e	0.1290414
129	0x3ae86a96	0.001773196
130	0xbdaf245a	-0.085518554
131	0xbd85448f	-0.06507217
132	0x3c18b4ec	0.009320479
133	0xbedd72b9	-0.4325159
134	0x3ed064a6	0.4070179
135	0xbd4f5d16	-0.050625883
136	0x3eafc9dd	0.34333697
137	0xbd019082	-0.031631954
138	0x3d8a43fe	0.0675125
139	0xbe27b6fa	-0.16378394
140	0xbee40b51	-0.44539884
141	0x3ee9ec7b	0.45688233
142	0x3dfc4e29	0.12319595
143	0x3e888dfe	0.2667083
144	0xbeb5a24e	-0.3547539
145	0x3e5b116a	0.21393362
146	0xbe928e5f	-0.28624246
147	0xbd8db113	-0.0691854
148	0x3c53ce3b	0.012927587
149	0xbe713e80	-0.23558998
150	0xbe6ba6ed	-0.23012896
151	0x3dd3b89f	0.10337948
152	0x3ea047ea	0.31304866
153	0x3eb1f1a9	0.34754685
154	0xbe95f3cf	-0.29287574
155	0xbdc6be55	-0.09704272
156	0xbea542b5	-0.32277456
157	0xbe941a53	-0.28926334
158	0x3c6b4037	0.014358572
159	0x3ee51135	0.4473969
160	0xbe782900	-0.2423439
161	0x3d3d1422	0.04616178
162	0x3e5647c5	0.20925815
163	0xbcf4c825	-0.029880593
164	0x3dc30839	0.09523053
165	0x3dbeb6ed	0.09312234
166	0x3e5f82d5	0.21827252
167	0xbe769ede	-0.2408404
168	0xbf00e0ac	-0.5034282
169	0xbe1f10fb	-0.15533821
170	0xbe0c21b3	-0.1368473
171	0x3ec52083	0.38501367
172	0x3e2ada9c	0.16684955
173	0x3e569ef7	0.20959078
174	0xbe03bcd1	-0.12864996
175	0xbe6b3aa3	-0.22971587
176	0x3eb7a0cd	0.3586487
177	0xbdc446d1	-0.0958382
178	0xbea23bda	-0.31686288
179	0xbd2dda1c	-0.042444333
180	0xbd0eb485	-0.034840126
181	0xbc9b3a18	-0.0189486
182	0x3e1a782f	0.15084909
183	0x3e39db15	0.1814998
184	0xbe5cb260	-0.2155242
185	0xbc70968f	-0.0146843335
186	0xbeb961f2	-0.3620754
187	0x3ea55221	0.32289222
188	0x3d1d92a6	0.038469933
189	0x3e34f64e	0.17672083
190	0x3ebff8aa	0.37494403
191	0x3e4d1a51	0.2002957
192	0xbec60a3e	-0.3867969
193	0x3d680e71	0.056654397
194	0xbe2c6544	-0.16835505
195	0x3e2fee34	0.17180711
196	0xbe14a721	-0.1451688
197	0x3ebe4a24	0.3716594
198	0xbdca5dd4	-0.098811775
199	0xbecf10bf	-0.40442464
200	0x3d942884	0.0723429
201	0x3e64e9e5	0.22354849
202	0x3e268707	0.16262446
203	0x3e9dfd4a	0.30857307
204	0x3e9034b6	0.28165215
205	0x3d9500f6	0.07275574
206	0xbdd30eb5	-0.103055395
207	0xbd060d8b	-0.03272776
208	0xbdbfedbc	-0.09371516
209	0x3db45718	0.08805674
210	0xbe4f1e4e	-0.20226404
211	0x3e398d72	0.18120363
212	0x3d5c5193	0.053788733
213	0x3ede3d73	0.43406257
214	0xbefedd45	-0.4977819
215	0x3eee42e9	0.46535423
216	0xbea50b76	-0.32235307
217	0xbdd3f9e9	-0.10350401
218	0x3e39c0c4	0.1813994
219	0x3d699801	0.057029728
220	0xbe452fe9	-0.19256558
221	0x3d4aa88f	0.049477156
222	0xbf226379	-0.63433033
223	0x3e676e61	0.226007
224	0x3d7b9465	0.061420817
225	0x3d88ef57	0.066862755
226	0x3cf2b28a	0.02962615
227	0xbc4574dd	-0.012051788
228	0xbd9ae203	-0.075626396
229	0x3d3595dc	0.04433237
230	0x3e024f2c	0.12725514
231	0xbed60055	-0.41797128
232	0xbe30c7ee	-0.17263767
233	0xbe3791f7	-0.17926775
234	0xbe283815	-0.16427644
235	0xbe683557	-0.22676598
236	0xbcde52e7	-0.02713914
237	0xbe386c52	-0.18010071
238	0x3eec2bfc	0.46127307
239	0xbda138db	-0.078721724
240	0xbec0f292	-0.37685066
241	0x3d3980be	0.045288794
242	0xbe825276	-0.25453538
243	0x3e847e2f	0.2587752
244	0x3ea507cc	0.3223251
245	0xbdaf6f48	-0.08566147
246	0xbd3a77cb	-0.0455244
247	0x3ea2e6ef	0.31816813
248	0xbdfa6338	-0.12225956
249	0x3e594b91	0.21220233
250	0xbea93519	-0.33048323
251	0xbe929d3d	-0.28635588
252	0xbe0d35f3	-0.13790111
253	0xbe9d2f3e	-0.30700105
254	0x3ddfc74b	0.10926684
255	0xbd4fe77d	-0.050757874

raise_dim.0.attention3.1.bias f4 [32]
0	0xbd8f76c2	-0.07005073
1	0xbd1894f6	-0.037251435
2	0xbe3e8b2b	-0.18607776
3	0xbe617ea7	-0.2202097
4	0x3cccb298	0.024987504
5	0xbcb2efcd	-0.021842862
6	0xbe8ffbee	-0.28121895
7	0x3c7fb88d	0.015607965
8	0x3dd61bb4	0.10454503
9	0x3db9b501	0.09067727
10	0x3e766182	0.24060634
11	0xbcab6245	-0.020920882
12	0x3de7f399	0.113257594
13	0xbe1f81bb	-0.15576832
14	0xbd13699c	-0.03598939
15	0xbe129e99	-0.14318313
16	0xbc9a123c	-0.018807523
17	0x3df2d289	0.11856563
18	0x3d887cea	0.066644505
19	0xbdccddeb	-0.10003265
20	0xbdaaced2	-0.08340229
21	0xbd53f142	-0.051743753
22	0xbe254832	-0.16140822
23	0xbdabeddc	-0.083949775
24	0x3d3c387b	0.0459523
25	0x3d55bd74	0.05218263
26	0x3e4cd936	0.20004734
27	0xbdc95bbb	-0.09831949
28	0x3da5d68f	0.080975644
29	0xbd6dd104	-0.05806066
30	0xbd9b4532	-0.07581557
31	0xbde7702c	-0.11300692

raise_dim.0.attention3.3.weight f4 [32, 32, 1, 1]
0	0x3cca1c0c	0.024671577
1	0xbb8480de	-0.0040436825
2	0xbce5512c	-0.027992807
3	0xbe274eb7	-0.16338621
4	0x3e21be21	0.15795185
5	0xbe97a643	-0.29619035
6	0xbd80d434	-0.062904745
7	0x3e35c875	0.1775225
8	0x3e28e951	0.16495253
9	0x3e13716b	0.14398734
10	0xbdb0a09b	-0.08624383
11	0xbe00a58b	-0.1256315
12	0x3e88364d	0.26603928
13	0x3d86144e	0.065468416
14	0x3e7a8bbb	0.24467365
15	0x3dd40ace	0.10353623
16	0x3d7bc505	0.06146719
17	0x3e6ec4c7	0.23317252
18	0x3ca9c346	0.020722996
19	0x3b006716	0.0019592694
20	0xbde718e9	-0.11284048
21	0x3e0be163	0.13660197
22	0xbd367f6c	-0.044555113
23	0x3d0d52dd	0.034502853
24	0xbe0b2a39	-0.13590325
25	0x3d064580	0.032781124
26	0x3ea371a2	0.31922632
27	0x3e6108d6	0.21976027
28	0xb9b14eef	-0.0003381888
29	0xbe1f75ba	-0.15572253
30	0xbe3dbcdf	-0.1852908
31	0x3d9256e6	0.07145481
32	0xbc854ff5	-0.016273478
33	0x3ccbf20f	0.024895696
34	0x3da6e6b0	0.08149469
35	0x3d2b8c98	0.041882128
36	0x3d162137	0.03665277
37	0xbc2987f0	-0.010347351
38	0xbd1232d2	-0.035692997
39	0x3e06cecc	0.13164824
40	0x3cd00e9b	0.02539759
41	0xbd940b65	-0.07228736
42	0xbc97a9a8	-0.018513516
43	0xbcbb2ad4	-0.02284757
44	0xbb8b8613	-0.0042579263
45	0x3d0bd5f8	0.034139603
46	0xbdecc0a1	-0.115601785
47	0xbcf17db4	-0.029478885
48	0x3dffc509	0.12488753
49	0x3d456d0c	0.0481997
50	0xbcfd84e6	-0.03094716
51	0xbcd361f7	-0.02580355
52	0x3e1d114b	0.15338628
53	0xbd83e336	-0.064398214
54	0xbcee2fe0	-0.029075563
55	0xbbe18e0b	-0.006883388
56	0x3c32d59f	0.010915189
57	0x3dafe2b3	0.08588161
58	0xbdb96819	-0.09053058
59	0xbda080d6	-0.078370735
60	0x3dbb6b24	0.09151295
61	0xbcb4ecec	-0.02208563
62	0xbb3cbe42	-0.0028799926
63	0xbb71edf2	-0.0036915508
64	0x3de477e3	0.11155679
65	0x3d910355	0.07080714
66	0x3d91f053	0.07125916
67	0x3d3fbf74	0.046813443
68	0xbdd4054f	-0.10352575
69	0x3e4eda90	0.20200562
70	0xbd325c07	-0.043544795
71	0xbe6da200	-0.2320633
72	0x3c9b22f9	0.018937575
73	0xbde53b3e	-0.1119294
74	0x3d0396e4	0.032126322
75	0x3db40377	0.08789723
76	0x3beb20da	0.007175547
77	0x3b5571ab	0.0032568972
78	0xbbfa91ff	-0.0076467986
79	0x3e2684a3	0.16261534
80	0x3c964406	0.018342983
81	0xbddde73d	-0.10835121
82	0xbd727b02	-0.05919934
83	0x3c4a3901	0.012342692
84	0xbd71e3f7	-0.059055295
85	0x3cea9f59	0.028640436
86	0x3d10e957	0.03537878
87	0x3de4c712	0.11170782
88	0xbe7bc800	-0.24588013
89	0xbdb84376	-0.08997242
90	0x3d3a623e	0.045503847
91	0xbec59f88	-0.38598275
92	0xbc84182e	-0.016124811
93	0x3db86855	0.09004275
94	0xbdda6f55	-0.10665766
95	0xbe5bbc82	-0.21458629
96	0xbdeb310c	-0.11483964
97	0x3c99b406	0.0187626
98	0xbd5acf83	-0.053420555
99	0xbd34eae8	-0.044169337
100	0xbb51cb88	-0.0032012183
101	0x3d6da1e9	0.058015738
102	0xbd1b2574	-0.037877515
103	0xbdaf0bc8	-0.08547169
104	0xbd869638	-0.06571621
105	0xbccc1cdd	-0.024916107
106	0xbe01f5ac	-0.12691373
107	0xbcc2c25c	-0.023774318
108	0xbd9e4386	-0.07727723
109	0xbc8581ae	-0.016297188
110	0xbe049b63	-0.129499
111	0x3d61abce	0.055095486
112	0x3e029f88	0.12756169
113	0xbda9274c	-0.082594484
114	0xbd00482d	-0.031318832
115	0x3d60e1fb	0.05490301
116	0x3b84546c	0.004038384
117	0xbde10879	-0.10987944
118	0xbd636d47	-0.055524137
119	0x3dacd953	0.08439889
120	0xbcd15c54	-0.02555672
121	0x3d80cc9b	0.062890254
122	0x3d69fcbf	0.057125803
123	0x3d70dfd1	0.058807198
124	0x3c94a3af	0.018144457
125	0xbd072573	-0.0329947
126	0x3d97c074	0.074097544
127	0x3d901d10	0.07036793
128	0x3e1b3057	0.15155159
129	0x3e0dfeb3	0.13866691
130	0x3dfd908e	0.12381087
131	0x3c6645b5	0.014054705
132	0xbd9a4d7a	-0.07534309
133	0x3c41c226	0.011826074
134	0xbd0ab70d	-0.033865977
135	0x3e510b01	0.20414354
136	0x3dd1e34b	0.10248431
137	0x3e0409da	0.12894383
138	0x3de00a4d	0.10939465
139	0x3cfb7e02	0.030699734
140	0x3d846fae	0.06466614
141	0x3e27f3bd	0.16401573
142	0x3d4d7f28	0.050170094
143	0xbe0a5449	-0.13508715
144	0xbd7b55a5	-0.061360974
145	0x3dfe2c67	0.12410813
146	0xbd425080	-0.047440052
147	0xbd18c322	-0.03729547
148	0xbcab2e7a	-0.020896185
149	0x3e2d3419	0.16914405
150	0xbcda4e0a	-0.02664854
151	0xbe222739	-0.15835275
152	0xbb8fe49f	-0.0043912674
153	0xbd809801	-0.062789924
154	0xbe099bfd	-0.13438411
155	0x3cbce549	0.02305855
156	0xbdf8a9a2	-0.1214173
157	0x3d8bcd17	0.06826227
158	0xbdf11600	-0.11771774
159	0xbd861612	-0.06547178
160	0xbdc060ae	-0.0939344
161	0xbd5f2160	-0.05447519
162	0xbc95d340	-0.018289208
163	0xbe0d4b8a	-0.13798347
164	0x3d2fec0e	0.04294973
165	0x3d72d945	0.059289236
166	0xbe8fb1a0	-0.28065205
167	0xbf3be6cf	-0.7339906
168	0x3e236fd1	0.15960623
169	0xbdf34bed	-0.11879716
170	0xbe05e718	-0.13076437
171	0x3e0e9b2e	0.13926384
172	0xbe381ac1	-0.17978956
173	0x3d5da393	0.054111075
174	0xbe40cc32	-0.18827894
175	0xbf01886f	-0.50598806
176	0xbdd2988e	-0.10283004
177	0xbe54bc36	-0.20774922
178	0x3daf2675	0.08552257
179	0xbcc7cff6	-0.024391156
180	0x3ebcc127	0.36866114
181	0xbf554567	-0.83309025
182	0x3d880300	0.06641197
183	0xbef31b2b	-0.47481665
184	0x3de6e0dd	0.11273358
185	0x3d0cf0fe	0.034409516
186	0x3e12f6ea	0.14352003
187	0xbe1446c0	-0.14480114
188	0x3d349bf0	0.044094026
189	0x3d6e684d	0.058204938
190	0x3d94a10b	0.07257279
191	0x3d2af7f8	0.041740388
192	0xbe5fb554	-0.21846515
193	0xbde8ded7	-0.11370628
194	0xbc9bee9c	-0.019034676
195	0xbdd21642	-0.102581516
196	0xbddfb4c0	-0.10923147
197	0x3f121efb	0.5707852
198	0x3ea06822	0.31329447
199	0x3e619148	0.22028077
200	0xbbb11c83	-0.00540501
201	0xbd5cb071	-0.053879205
202	0x3e0f2265	0.13977964
203	0x3dc3b8aa	0.09556706
204	0xbdd78784	-0.105238944
205	0xbe71b55f	-0.23604344
206	0xbe532cf0	-0.20622611
207	0xbe51e33f	-0.20496844
208	0xbdd99d6a	-0.106257275
209	0xbd85dbcd	-0.06536064
210	0xbd8b9b0d	-0.06816683
211	0xbe114c4d	-0.14189263
212	0xbdd393d2	-0.10330929
213	0xbe3a944b	-0.18220632
214	0xbeb52867	-0.35382387
215	0x3d7f6a3e	0.06235718
216	0xbdbb4538	-0.09144062
217	0xbe519f3b	-0.20470898
218	0x3db6884a	0.08912714
219	0x3f0c3c90	0.5477991
220	0x3e9f8bda	0.31161386
221	0xbf044739	-0.5167118
222	0x3ee5b025	0.4486095
223	0xbc597f58	-0.01327499
224	0x3dd784ed	0.105234005
225	0x3e3c5a06	0.18393716
226	0xbdfbdfa5	-0.12298516
227	0xbe0b0794	-0.1357711
228	0xbd0db889	-0.034599815
229	0xbc729eec	-0.014808398
230	0xbd9d5466	-0.07682113
231	0x3e5e0105	0.21680076
232	0xbc2bc9f2	-0.010485159
233	0x3b01458e	0.0019725296
234	0x3e637530	0.22212672
235	0xbdf5436e	-0.11975752
236	0x3e724492	0.2365897
237	0xbe08e984	-0.13370329
238	0x3da056e1	0.07829071
239	0xbd9d9119	-0.07693691
240	0xbe549c99	-0.20762862
241	0x3e1a1e6d	0.15050669
242	0xbc602b62	-0.013682218
243	0xbc892608	-0.016741768
244	0x3d7df321	0.061999444
245	0xbd2bbb2f	-0.04192656
246	0x3c913f5c	0.017730407
247	0xbdd4bb29	-0.103872605
248	0xbcb00b0b	-0.02148964
249	0xbc9a29ee	-0.018818822
250	0x3bb62f15	0.005559812
251	0x3d1c60a8	0.038178116
252	0xbc9d60db	-0.019211223
253	0x3cf97ad1	0.030454071
254	0x3cec2fe3	0.028831428
255	0xbd35ce45	-0.044386167

raise_dim.0.attention3.3.bias f4 [32]
0	0xbd8b3c4a	-0.067986086
1	0xbc19609b	-0.009361411
2	0x3d4d4738	0.050116748
3	0x3e10aea6	0.14129123
4	0x3d423f04	0.047423378
5	0xbc169711	-0.0091912905
6	0xbd365f1f	-0.04452431
7	0x3caf1662	0.021372978
8	0xbcf63349	-0.030053752
9	0xbd8d4e81	-0.06899739
10	0x3d564925	0.05231585
11	0x3d27b33e	0.040942423
12	0x3d148df5	0.036268193
13	0xbe25e137	-0.16199194
14	0x3cedbd12	0.02902082
15	0x3e06dd78	0.13170421
16	0x3c168c5c	0.009188738
17	0xbe0e323f	-0.13886355
18	0x3c96ee30	0.018424124
19	0x3d23b43d	0.03996681
20	0xbe2f5ebb	-0.1712598
21	0xbc8d79a3	-0.017269915
22	0xbd80b92a	-0.06285317
23	0xbc3719f3	-0.01117562
24	0x3cb8da09	0.022564905
25	0x3b8cfe9f	0.004302814
26	0x3dbbbd36	0.091669485
27	0xbeab55ca	-0.3346389
28	0xbdc9cf71	-0.098540194
29	0xbcca7a8d	-0.02471664
30	0xbdc2f4b0	-0.09519327
31	0x3c98d14c	0.018654488

layers.0.conv1.weight f4 [32, 32, 3, 3]
0	0xbd28230a	-0.04104904
1	0x3d6eec5f	0.05833089
2	0x3d9fe157	0.07806652
3	0xbbaddebd	-0.0053060935
4	0xbd5474dc	-0.05186926
5	0xbda40c4e	-0.080101594
6	0x3e65730e	0.22407171
7	0xbc69aee3	-0.014262888
8	0xbca125cf	-0.019671349
9	0xbd4bc720	-0.049750447
10	0xbd9d2117	-0.07672327
11	0xbba0197c	-0.0048858505
12	0x3d92909b	0.071564876
13	0x3d23e209	0.040010486
14	0x3e1b98db	0.15195028
15	0x3e6d1114	0.23151046
16	0xbe3ecb35	-0.18632205
17	0xbdf5c8ea	-0.12001212
18	0xbe9148e3	-0.2837592
19	0xbf7710d9	-0.9651008
20	0xbe2a7a9b	-0.16648333
21	0xbde51bdc	-0.111869544
22	0xbe5b61a2	-0.21423963
23	0x3e596f34	0.21233827
24	0xbef4bb58	-0.47799182
25	0xbde33da7	-0.110957436
26	0xbe69fcdd	-0.22850366
27	0xbd9b7663	-0.0759094
28	0x3e1f8a11	0.15580012
29	0x3efa741c	0.4891671
30	0xbe4db3b8	-0.20088089
31	0x3edc3705	0.43010727
32	0x3ead311f	0.3382654
33	0x3e0f1df2	0.13976267
34	0x3c9a6f1a	0.018851805
35	0x3e9edb41	0.31026652
36	0x3ddb8624	0.10718945
37	0x3da3bf31	0.07995451
38	0x3d457fd0	0.048217595
39	0xbdd0aabe	-0.101888165
40	0xbe1b4262	-0.15162042
41	0x3d9a86bb	0.07545229
42	0xbd16d8cf	-0.03682786
43	0xbe2fdf0f	-0.17174934
44	0xbe55fd2a	-0.20897356
45	0x3ce64f53	0.028113997
46	0x3d9175f8	0.07102579
47	0x3da3160b	0.07963189
48	0xbba229c5	-0.004948827
49	0x3e4de6a5	0.20107515
50	0xbe1f785c	-0.15573257
51	0x3e640bed	0.22270174
52	0x3c1f291d	0.009714392
53	0x3ebd00e6	0.36914748
54	0xbe5e650d	-0.21718235
55	0xbed5b3f0	-0.41738844
56	0xbf42c1d9	-0.7607704
57	0x3e8dc87c	0.2769202
58	0x3e6d76ca	0.23189846
59	0xbe9bb8cf	-0.30414435
60	0x3ed05fbc	0.4069804
61	0x3dfc611d	0.123232104
62	0x37f6e3d4	2.9431576e-05
63	0x3dd352e7	0.10318547
64	0xbe8291f4	-0.25501978
65	0xbebe8a4d	-0.3721489
66	0xbdb5cb1c	-0.08876631
67	0xbe0003df	-0.12501477
68	0xbf1fe255	-0.6245473
69	0x3f218144	0.6308787
70	0xbe206bd2	-0.1566613
71	0x3daf52e8	0.08560735
72	0x3e9da883	0.30792627
73	0xbcd329d5	-0.025776783
74	0xbdd15fc9	-0.10223348
75	0x3eed87c3	0.4639264
76	0xbd7530fc	-0.05986117
77	0xbed0f764	-0.40813744
78	0x3e302cd0	0.17204595
79	0xbe0129d3	-0.12613611
80	0xbe512d73	-0.20427494
81	0x3d9b6ec7	0.075894885
82	0x3cc19593	0.023630893
83	0xbe5bdb13	-0.21470289
84	0x3e652d04	0.22380453
85	0xbb14803f	-0.0022659448
86	0x3de432bb	0.111424886
87	0x3ba66652	0.0050781155
88	0x3e08f4fa	0.13374701
89	0x3ddd908a	0.10818584
90	0x3e5f8272	0.21827105
91	0x3e81e991	0.2537351
92	0xbea61db4	-0.32444537
93	0x3e12a066	0.14319
94	0xbe80a26c	-0.25123918
95	0xbd3b0ef8	-0.045668572
96	0xbc9e9614	-0.019358672
97	0x3ed8ff26	0.42382163
98	0x3e7fb6ba	0.24972048
99	0xbefd8e41	-0.49522594
100	0xbedc06ad	-0.42973843
101	0xbe9a40ed	-0.3012766
102	0xbe005217	-0.12531315
103	0xbea0fc5a	-0.3144253
104	0xbef163fd	-0.47146598
105	0x3ee71dd6	0.4513995
106	0x3d4d396e	0.050103597
107	0xbe6d6133	-0.2318161
108	0x3d257860	0.040398
109	0xbe2d8e3d	-0.16948791
110	0xbe89e978	-0.26935935
111	0x3e136a27	0.14395963
112	0xbe47c629	-0.19509186
113	0x3cfbfdaf	0.030760614
114	0x3dcf69bf	0.10127591
115	0xbdaef4e8	-0.08542806
116	0xbc38897f	-0.01126325
117	0xbedb225b	-0.4279965
118	0xbd9cb5fa	-0.07651897
119	0xbea863fb	-0.3288878
120	0xbed57853	-0.41693363
121	0x3c8b8d66	0.017035197
122	0xbf3bcd97	-0.7336058
123	0xbe5758df	-0.21029995
124	0xbe828cdb	-0.2549809
125	0xbeadd753	-0.33953342
126	0x3f27ab57	0.6549582
127	0x3e8e8870	0.2783847
128	0x3dbf1c03	0.09331515
129	0xbdb469d0	-0.08809245
130	0x3ec8d58a	0.39225417
131	0xbe8ee1fc	-0.27906787
132	0x3ee7cacf	0.45271918
133	0x3e697249	0.22797503
134	0x3e319254	0.17340976
135	0x3cbcd6ee	0.023051705
136	0xbd2ce066	-0.04220619
137	0x3e807c03	0.25094613
138	0x3c99d995	0.018780509
139	0x3e018dbf	0.12651728
140	0xbe4e7e95	-0.20165475
141	0x3d947177	0.07248204
142	0xbe788356	-0.2426885
143	0xbeebb29f	-0.46034715
144	0xbe40085d	-0.1875319
145	0x3d81dd08	0.063409865
146	0xbd94c0ff	-0.072633736
147	0xbe1d1815	-0.15341218
148	0x3d0fe37c	0.035129055
149	0x3ddee543	0.10883572
150	0xbd32ba27	-0.04363456
151	0x3ebe0471	0.37112764
152	0x3d10f97c	0.035394177
153	0xbc9a9294	-0.018868722
154	0x3cbe059e	0.023196038
155	0x3e57d1c1	0.21076109
156	0xbdfaaa2c	-0.12239489
157	0xbd11bd44	-0.03558089
158	0x3e806685	0.25078216
159	0x3d20acaf	0.039227184
160	0xbe89ad67	-0.26890108
161	0x3e01a1c2	0.12659362
162	0xbbb513ab	-0.0055260262
163	0x3e28884f	0.16458248
164	0x3eca1976	0.3947255
165	0xbe6b1b51	-0.22959639
166	0xbf077936	-0.5291933
167	0x3eb700ca	0.3574279
168	0x3e2c6a95	0.16837533
169	0x3df695fb	0.12040325
170	0xbc566a77	-0.013086907
171	0x3dde6727	0.108595185
172	0xbc03507d	-0.008014795
173	0x3d37f63c	0.04491256
174	0x3e414fed	0.18878146
175	0xbdb2b47f	-0.08725833
176	0xbe215b47	-0.15757476
177	0x3e278da2	0.16362622
178	0x3d013f65	0.0315546
179	0xbd9bbfed	-0.07604966
180	0xbe610318	-0.21973836
181	0xbe092e01	-0.13396455
182	0xbe94e3ff	-0.29080197
183	0x3c2779fe	0.010221956
184	0x3dd13942	0.10215999
185	0x3e6a0b15	0.2285579
186	0xbd0b9dd7	-0.034086075
187	0xbc76cd0c	-0.015063535
188	0x3f36b650	0.71371937
189	0x3f8f1e93	1.1181206
190	0xbd407da5	-0.046994824
191	0x3efb3ff6	0.49072236
192	0xbd5a0ec2	-0.05323673
193	0x3e5bd219	0.21466865
194	0xbdb43f74	-0.08801165
195	0xbf0cabcc	-0.5494964
196	0x3e3a2aff	0.18180464
197	0xbf24a363	-0.6431181
198	0xbdeed0d1	-0.11660922
199	0x3dd3e417	0.10346239
200	0x3e8c5326	0.27407187
201	0xbeba4da8	-0.36387372
202	0xbda70f7d	-0.08157251
203	0x3eaf589c	0.3424729
204	0x3d1af2c6	0.037829183
205	0x3e371c99	0.17882003
206	0x3e8aa4ef	0.2707896
207	0x3e635c2e	0.22203133
208	0x3df1fb9d	0.118155695
209	0x3e1fcaba	0.15604678
210	0x3e079292	0.13239506
211	0x3db961dc	0.09051868
212	0xbe842734	-0.2581116
213	0x3d522982	0.051309116
214	0xbdb85efc	-0.09002492
215	0xbe3575d8	-0.17720735
216	0x3db27b85	0.08714966
217	0x3de79125	0.11306981
218	0x3db1e35b	0.08685943
219	0x3f16c4bd	0.5889395
220	0x3e79e036	0.24401936
221	0xbecb4b7d	-0.3970603
222	0xbecad415	-0.3961493
223	0xbd80a6bb	-0.06281801
224	0xbe51698d	-0.2045042
225	0x3d0e61ec	0.034761354
226	0x3e067f56	0.13134512
227	0x3e302809	0.17202772
228	0x3cdee385	0.0272081
229	0xbd5f4366	-0.054507636
230	0x3e2ae5c8	0.16689217
231	0xbd706854	-0.058693245
232	0x3d62017c	0.055177197
233	0x3dfd01f7	0.123538904
234	0xbe2f6422	-0.17128041
235	0xbe678aa3	-0.2261148
236	0x3c84b2ba	0.016198505
237	0xbe633558	-0.22188318
238	0xbe16101b	-0.14654581
239	0xbe1e20e5	-0.15442236
240	0xbdad50b8	-0.084626615
241	0x3e38c41f	0.18043564
242	0xbe096a75	-0.13419516
243	0x3f3b2915	0.7310956
244	0x3f822506	1.0167549
245	0x3ea6b5df	0.32560632
246	0x3e8cb7cc	0.27483976
247	0xbe58d558	-0.21175134
248	0x3ed76b9d	0.4207429
249	0x3f20c134	0.62794805
250	0x3e8eae16	0.27867192
251	0x3ed663af	0.41872928
252	0x3c95b5b0	0.018275112
253	0xbe024abe	-0.12723824
254	0xbe91511d	-0.28382197
255	0xbeaf60ff	-0.3425369

layers.0.conv1.attention1.0.weight f4 [9, 32, 3, 3]
0	0x3e15c512	0.14625958
1	0x3e85b137	0.26111767
2	0x3e0e1634	0.13875657
3	0x3ddc933c	0.1077027
4	0x3d5baab6	0.0536296
5	0xbcf5b693	-0.029994285
6	0xbc28e186	-0.010307675
7	0xbd276893	-0.040871214
8	0xbdd4e6a9	-0.103955574
9	0xbe1c08d2	-0.1523774
10	0xbd63a85f	-0.055580493
11	0xbd7dcbd2	-0.061961956
12	0x3cd6be18	0.02621369
13	0x3e960253	0.29298648
14	0x3dcfa0ff	0.101381294
15	0xbd9ff27e	-0.078099236
16	0x3e0666d5	0.13125165
17	0x3deb7bb2	0.114982024
18	0x3f2f7550	0.6853838
19	0xbe193804	-0.14962775
20	0x3f035e62	0.5131589
21	0xbec41e7e	-0.38304514
22	0xbdb9374a	-0.09043749
23	0xbe5ccebc	-0.21563238
24	0x3f46cbeb	0.77654904
25	0x3f1c5459	0.61066204
26	0x3e77dcb0	0.2420528
27	0x3ea3380e	0.31878704
28	0xbeda2679	-0.42607477
29	0x3e84b287	0.25917456
30	0xbe3dd9d6	-0.18540129
31	0xbdd8ce57	-0.10586231
32	0xbeb4d581	-0.3531914
33	0x3e81005e	0.25195593
34	0xbe6caacb	-0.23112027
35	0x3e11aef4	0.14226896
36	0x3eeb4684	0.45952237
37	0x3ea818ab	0.3283132
38	0x3ecd9faa	0.40160877
39	0x3ebede98	0.372792
40	0xbe68631f	-0.22694062
41	0x3e30c8eb	0.17264144
42	0x3eba6abf	0.36409566
43	0xbd41cfe2	-0.047317393
44	0x3e8f90a4	0.2804004
45	0x3d85fca9	0.06542332
46	0xbe93dc79	-0.28879145
47	0x3dedf6d8	0.11619347
48	0xbf42a9b2	-0.76040184
49	0x3e70e802	0.23526004
50	0xbed112eb	-0.40834746
51	0xbe43a240	-0.19104862
52	0xbf0daae4	-0.55338883
53	0xbe8c4279	-0.27394465
54	0x3e98061c	0.2969216
55	0x3c1e383b	0.009656961
56	0xbd6acdf8	-0.057325333
57	0xbf4c7cef	-0.79878134
58	0xbf05f802	-0.52331555
59	0xbf2fb5c2	-0.68636715
60	0xbef4778c	-0.47747457
61	0x3e7df497	0.24800335
62	0x3de2d29d	0.110753275
63	0x3e9f66d9	0.31133154
64	0xbf1addc2	-0.60494626
65	0x3e807ba3	0.25094327
66	0xbf124260	-0.5713253
67	0xbe0efbda	-0.13963261
68	0xbd14610f	-0.036225375
69	0xbe58daea	-0.21177259
70	0xbdc810e3	-0.09768846
71	0x3c972828	0.018451765
72	0xbe40dcbb	-0.18834202
73	0xbea58e02	-0.32334906
74	0xbee73488	-0.45157266
75	0x3c959abe	0.018262263
76	0xbf1b25c8	-0.60604525
77	0xbf8cffd5	-1.1015574
78	0x3d3eacee	0.046551637
79	0xbf06f270	-0.5271368
80	0x3e316671	0.17324235
81	0xbd68967d	-0.05678414
82	0xbe9cc759	-0.3062084
83	0xbf25ddb8	-0.6479144
84	0x3d0a4402	0.033756264
85	0x3e803839	0.25042894
86	0xbea04afd	-0.31307212
87	0xbedfd3d4	-0.437163
88	0xbea4e39b	-0.322049
89	0xbec40cf1	-0.38291124
90	0x3e5aabce	0.21354601
91	0x3d4a07e3	0.049323928
92	0xbe797815	-0.24362214
93	0xbe788ce1	-0.24272491
94	0xbe91fb99	-0.28512266
95	0xbde7921b	-0.11307164
96	0x3e20f463	0.15718226
97	0x3e398c0e	0.18119833
98	0x3eba01bb	0.36329445
99	0x3ebd96ca	0.37029105
100	0xbcbe50d7	-0.023231907
101	0x3d44fcd6	0.048092686
102	0x3e431a1b	0.19052927
103	0xbe8ad682	-0.2711678
104	0xbade4796	-0.001695859
105	0x3db456f3	0.08805647
106	0xbe3553f6	-0.1770781
107	0xbbf4dabb	-0.0074723638
108	0x3de5949d	0.11209986
109	0x3d2d49bd	0.04230665
110	0xbc5232d0	-0.012829497
111	0x3e5164f5	0.20448668
112	0xbd8d6a12	-0.06904997
113	0x3cc913ba	0.02454554
114	0x3e79b3e5	0.2438503
115	0x3be95a41	0.007121355
116	0x3e4a4ddd	0.19756265
117	0x3f190bdf	0.5978374
118	0x3d3205b4	0.04346247
119	0x3e5dca1b	0.21659128
120	0x3efecc0c	0.4976505
121	0x3e68e5e8	0.22743952
122	0x3de1f7cc	0.11033592
123	0x3e9f060f	0.3105931
124	0x3e924edd	0.28575793
125	0xbe8dfbb5	-0.277311
126	0x3cbd3ea1	0.023101153
127	0xbed1b7da	-0.4096058
128	0x3ee5184c	0.447451
129	0x3e8dc3c7	0.2768843
130	0xbe92adef	-0.28648326
131	0xbf02912f	-0.5100278
132	0x3f31cea1	0.69455916
133	0xbe17ac9b	-0.14811938
134	0x3edb19c5	0.42793098
135	0x3f095a2e	0.5365323
136	0x3e0476e4	0.12935978
137	0x3ea6ad2a	0.3255399
138	0x3ebb58b7	0.36591122
139	0x3eb3edec	0.35142457
140	0x3ec538f7	0.38520023
141	0x3eebfade	0.46089834
142	0x3e12b01c	0.14324993
143	0x3e481852	0.19540527
144	0x3e7fbcef	0.24974416
145	0x3e092ab7	0.133952
146	0xbd183472	-0.03715939
147	0x3e6dbf93	0.23217611
148	0xbe98da5c	-0.29854095
149	0x3dfda3a2	0.12384726
150	0x3f1e8a1d	0.61929494
151	0x3e054755	0.13015492
152	0x3e602289	0.21888174
153	0x3e3739aa	0.17893091
154	0x3e1e2e6d	0.15447398
155	0x3d1ebec5	0.03875615
156	0xbcb25d57	-0.021773024
157	0x3eb6f6eb	0.35735258
158	0x3e544736	0.2073029
159	0x3d492a2f	0.049112495
160	0x3d05dced	0.032681394
161	0x3de646fd	0.11244009
162	0x3ddaccf6	0.106836244
163	0x3e579386	0.2105237
164	0x3e84f959	0.25971487
165	0x3ebe5ac1	0.37178615
166	0xbf39d7c7	-0.72594875
167	0x3d0b2c1b	0.03397761
168	0x3f316f4c	0.6931045
169	0xbf41faff	-0.75773615
170	0xbe1e6bcf	-0.15470813
171	0x3b9f0aff	0.0048536058
172	0xbda8c467	-0.08240586
173	0xbc50f362	-0.0127533395
174	0xbd08de88	-0.033415347
175	0xbd908df1	-0.07058323
176	0xbe6dfa12	-0.23239926
177	0xbdf9f94b	-0.12205752
178	0xbdb6fdd7	-0.08935135
179	0x3ccb7b47	0.024839057
180	0xbeff1f7a	-0.49828702
181	0xbef87dd4	-0.485335
182	0xbe9e02ca	-0.30861503
183	0x3e13ea0a	0.14444748
184	0x3bdb7ed9	0.006698471
185	0xbe2bf3ef	-0.16792272
186	0xbd92dec3	-0.07171395
187	0xbe77f54c	-0.24214667
188	0xbe0b2b26	-0.13590679
189	0xbdfdd0da	-0.12393351
190	0x3e12f052	0.14349487
191	0x3f83cd54	1.0297036
192	0xbf4d1c12	-0.80120957
193	0xbeecb2f2	-0.46230274
194	0x3e1e66f6	0.15468964
195	0xbde69593	-0.11258998
196	0x3e9b5544	0.3033849
197	0x3f5dae71	0.865943
198	0x3e0f9b35	0.1402405
199	0x3e8c159b	0.27360234
200	0x3e3f7da4	0.18700272
201	0x3cd054f9	0.025431143
202	0x3dc9136b	0.09818157
203	0x3e20ee58	0.15715921
204	0xbd8df5b1	-0.069316275
205	0x3d765638	0.06014082
206	0xbd5ff5fd	-0.054677952
207	0x3e33ac47	0.17546187
208	0xbe703f48	-0.2346164
209	0xbe8ad936	-0.27118844
210	0xbe62726a	-0.22113958
211	0xbe3146a7	-0.17312108
212	0xbecddf23	-0.40209302
213	0xbd570bbd	-0.05250143
214	0xbe81e912	-0.2537313
215	0xbe426e35	-0.18987353
216	0xbdd1d309	-0.1024533
217	0xbebc422e	-0.3676924
218	0xbe1bdd71	-0.15221192
219	0xbdb8fc88	-0.090325415
220	0xbe18b93b	-0.1491441
221	0xbf238772	-0.6387855
222	0xbe64d59b	-0.22347109
223	0xbe92e3ab	-0.28689322
224	0x3ed4fb6a	0.41598064
225	0x3e195b88	0.14976323
226	0x3d828074	0.06372157
227	0xbdaac755	-0.08338801
228	0xbc81b602	-0.015833858
229	0xbe18bfbe	-0.14916894
230	0xbe0ef2dc	-0.13959831
231	0xbe173ee8	-0.1477009
232	0xbe42a1e2	-0.19007066
233	0xbe40b257	-0.18818031
234	0x3e058c0e	0.13041708
235	0x3d1a6d75	0.037702043
236	0x3eb19d77	0.3469045
237	0x3e36df08	0.17858517
238	0xbf1b3d2f	-0.60640234
239	0x3e82ec61	0.25570968
240	0xbeb02cfc	-0.3440932
241	0xbd024f00	-0.03181362
242	0xbe11536c	-0.14191979
243	0x3f5e8348	0.8691907
244	0x3ef54c30	0.4790969
245	0x3d25bf51	0.040465657
246	0xbe5e5162	-0.21710733
247	0xbe90933d	-0.28237334
248	0xbe80f057	-0.25183365
249	0xbe70746c	-0.23481911
250	0x3dc071b9	0.09396691
251	0xbf0232ad	-0.50858575
252	0xbe629c72	-0.22129992
253	0xbde18eeb	-0.110135876
254	0xbdd317ed	-0.10307298
255	0xbe204de7	-0.15654717

layers.0.conv1.attention1.0.bias f4 [9]
0	0x3df42e7b	0.11922928
1	0xbefc2bb3	-0.4925209
2	0x3dcfc1df	0.101444
3	0x3ea852ea	0.32875758
4	0x3e9ca4ce	0.30594486
5	0x3f4e170b	0.8050391
6	0x3e485df4	0.1956709
7	0x3e3bd813	0.18344145
8	0xbedba862	-0.42901903

layers.0.conv1.attention1.2.weight f4 [9, 9, 1, 1]
0	0x3eefc53a	0.4683016
1	0xbf01a7e1	-0.5064679
2	0x3e7b3eb8	0.24535644
3	0x3e1dfdf8	0.15428913
4	0xbe347130	-0.17621303
5	0x3f02b66d	0.5105961
6	0xbe52439e	-0.20533606
7	0x3dd45055	0.103668846
8	0xbea6699a	-0.32502443
9	0xbf03ab79	-0.5143352
10	0xbc654042	-0.013992371
11	0xbebfc9a5	-0.3745853
12	0x3e809176	0.25110978
13	0x3e015662	0.12630609
14	0x3e8fe33c	0.28103054
15	0xbea50116	-0.3222739
16	0x3f932020	1.1494179
17	0x3a7dd7e2	0.0009683353
18	0x3e8ce110	0.2751546
19	0x3daf0946	0.08546691
20	0x3e362fba	0.17791644
21	0xbe7c8d88	-0.24663365
22	0x3fc03e02	1.5018923
23	0xbe67c30b	-0.22632997
24	0xbeabb20c	-0.33534276
25	0xbe3f1437	-0.18660055
26	0x3e9c5689	0.3053477
27	0xbebe995c	-0.3722638
28	0x3ca51acb	0.020154377
29	0xbe989bbc	-0.29806316
30	0x3ec3cec5	0.3824369
31	0x3f064ba1	0.5245915
32	0xbea8e27c	-0.32985294
33	0x3e8fa9f7	0.2805936
34	0xbebd7c7f	-0.37009045
35	0x3e99d4b4	0.30045092
36	0x3ee0128b	0.43764147
37	0x3c3d486c	0.011552911
38	0x3ecf5f36	0.40502328
39	0xbecd195d	-0.40058413
40	0xbde4915f	-0.1116054
41	0xbc4c2916	-0.0124609675
42	0xbcca8e5e	-0.02472609
43	0x3e920869	0.2852204
44	0xbe9743b7	-0.2954385
45	0xbe821436	-0.25406045
46	0xbe863d0d	-0.26218453
47	0xbf3ef0ac	-0.74585986
48	0x3d454528	0.048161656
49	0x3f3c7624	0.7361777
50	0x3ee8157a	0.45328885
51	0x3f29a260	0.6626339
52	0xbed40974	-0.41413462
53	0xbe86a93b	-0.26300988
54	0xbf183777	-0.5945963
55	0x3d3df25e	0.046373717
56	0xbe757580	-0.23970604
57	0x3f0870e0	0.53297234
58	0x3efe6179	0.4968374
59	0x3e8f8d2d	0.28037396
60	0x3f1c9a75	0.6117318
61	0xbfb1cff8	-1.3891592
62	0xbde2c4ff	-0.1107273
63	0x3ed8f078	0.42370963
64	0x3c00f88a	0.007871756
65	0xbd1b39b9	-0.037896845
66	0xbf3c1e2f	-0.73483557
67	0xbf1fabc1	-0.6237145
68	0x3cb321fa	0.021866787
69	0xbf19ca6b	-0.6007449
70	0x3f06874e	0.5255021
71	0xbe01475f	-0.12624882
72	0x3d360515	0.04443844
73	0xbe1ac22c	-0.15113133
74	0x3e92817c	0.28614414
75	0xbdfe15f5	-0.12406532
76	0xbf243669	-0.64145523
77	0xbe415e65	-0.18883665
78	0xbde2d088	-0.110749304
79	0xbd82a5f2	-0.06379308
80	0x3e1b04f6	0.15138611

layers.0.conv1.attention1.2.bias f4 [9]
0	0x3f08bfc5	0.5341762
1	0xbe9072ec	-0.28212678
2	0xbdfe4ab0	-0.12416589
3	0x3ef0b19f	0.47010514
4	0xbe70a044	-0.23498636
5	0x3e8b2844	0.27179158
6	0x3e451a57	0.19248329
7	0xbf46fe58	-0.7773185
8	0xbe9d28ec	-0.30695283
