weights/model_epoch_lagconv870.pth (torch, 679460 bytes, 141 tensors)

raise_dim.0.weight f4 [32, 9, 3, 3]
-0.4685727 -0.3414806 0.09376237 -0.14747755 -0.045056287 -0.102182075 -0.0695254 -0.02326738
0.166709 -0.4091524 -0.40253088 -0.15606642 -0.04101955 -0.40056133 -0.3868979 0.018643182
-0.121596925 0.14889257 -0.36639607 -0.31984502 -0.00088596245 0.00069489167 -0.32637748 -0.08763623
0.18305443 0.21092822 0.14453486 -0.2463193 -0.21383412 0.17331019 -0.13750681 -0.20612992
0.078064606 0.11504847 0.19754271 0.35743523 -0.3656947 -0.37146395 -0.08766415 0.05621139
-0.15815513 -0.017259581 0.59245443 0.32530963 0.2670266 -0.22674254 -0.101169534 0.23023406
-0.28396004 -0.16655824 0.14023522 -0.13248324 -0.03354349 0.25483656 -0.0882821 -0.017267158
0.21873601 -0.2314065 0.015058351 0.23920114 0.28476095 0.17244583 0.3972282 -0.20281681
-0.03072416 0.24500991 -0.44957373 -0.11202433 0.14771211 -0.17389065 -0.082538635 0.096498065
0.02143038 0.16316244 0.40575904 -0.146415 -0.055033725 0.14509362 0.23395133 0.15503117
0.3736785 -0.14266098 0.051391013 0.09326705 -0.09532381 -0.4587556 -0.123055466 -0.17002809
-0.077918194 0.11057503 0.07837606 -0.07953474 0.12439796 -0.027493332 0.0876899 0.050792877
-0.008259148 -0.12433546 -0.040621545 0.022117084 0.07662448 0.012345146 0.16376759 0.13908313
0.014785524 0.018328667 0.055039294 0.17852777 0.14028393 0.096845075 0.06961434 0.06791176
0.095763154 0.12132047 0.10033001 0.051220644 0.21143511 -0.037867103 -0.046954516 0.085725166
0.1831981 0.24682814 0.13126227 0.05521708 0.055274285 0.18414801 0.034502584 0.054656215
-0.083030894 0.08394796 0.09958533 0.05902422 -0.002766538 0.028682634 0.072397076 0.22931011
0.23784877 0.11774538 0.23211803 0.38598534 0.3510986 0.085238695 0.15925427 0.25169343
-0.13989115 -0.111878105 -0.24466267 0.04224891 -0.047412753 -0.000108565066 -0.030825712 0.111300796
-0.052708182 -0.1287977 -0.011430372 -0.05949255 -0.11000842 -0.045853145 -0.07683766 -0.024166375
-0.101405665 -0.047580607 -0.15477201 -0.32444456 0.2713917 -0.3391746 -0.4564314 -0.020138972
-0.06889194 0.092794746 0.011072013 0.022057502 0.0167006 -0.018819304 0.025551558 0.037479904
-0.06993325 -0.114474 -0.14683041 -0.052487835 -0.014555845 -0.040839348 -0.14127275 -0.02536865
-0.08876698 -0.22116634 0.04031677 0.0008402371 -0.1633313 0.13286227 -0.009276853 -0.16775288
-0.050253946 -0.12664503 -0.29512775 0.12819636 -0.14851716 -0.20302337 0.16283609 0.29682165
0.116748646 0.15234217 0.33257484 0.14233147 0.02704189 0.07069158 -0.030995596 0.004293247
0.22221564 -0.032850146 -0.18071438 -0.010640091 -0.11895629 0.11797988 -0.10458299 -0.0733995
0.067777775 0.26920664 -0.087297164 0.013122471 0.107748985 -0.04083553 0.14056036 0.051208194
0.15878147 0.17151389 0.2439148 -0.017703064 -0.11333353 0.15141363 -0.07320675 0.03996859
0.04139251 0.0076819533 0.033704158 0.13848524 -0.13039954 -0.17317589 -0.023267565 -0.20344944
0.03305629 -0.14515911 -0.06699228 -0.019928312 0.13594958 0.07726666 0.28033197 -0.30529857
0.15704428 -0.22257432 0.21082732 -0.0413185 0.03537904 0.15689312 0.0597991 -0.07520152
00000000: c3e8 efbe 8cd6 aebe 7c06 c03d 5b04 17be
00000010: f18c 38bd d644 d1bd 5563 8ebd 3c9b bebc
00000020: c4b5 2a3e 6c7c d1be 8718 cebe e0cf 1fbe
00000030: 1e04 28bd 6016 cdbe 7b17 c6be 96b9 983c
00000040: cf07 f9bd 4b77 183e 4498 bbbe bac2 a3be
00000050: ef3f 68ba 6429 363a f31a a7be a07a b3bd
00000060: 9f72 3b3e 91fd 573e f200 143e 203b 7cbe
00000070: 55f7 5abe 3a78 313e 96ce 0cbe b913 53be
00000080: 56e0 9f3d 889e eb3d a348 4a3e c001 b73e
00000090: 563c bbbe 8630 bebe 4389 b3bd ea3d 663d
000000a0: 6bf3 21be f763 8dbc 18ab 173f fc8e a63e
000000b0: b6b7 883e 322f 68be f931 cfbd 7ac2 6b3e
000000c0: 3663 91be 3e8e 2abe d299 0f3e b0a9 07be
000000d0: e664 09bd f079 823e 3fcd b4bd db73 8dbc
000000e0: 55fc 5f3e d3f5 6cbe 4db7 763c 25f1 743e
000000f0: 30cc 913e a495 303e 7f61 cb3e 36af 4fbe
00000100: 3cb1 fbbc e1e3 7a3e 872e e6be 036d e5bd
00000110: d841 173e 6410 32be 040a a9bd c7a0 c53d
00000120: c48e af3c 0e14 273e a6bf cf3e d0ed 15be
00000130: 0b6b 61bd 6c93 143e f090 6f3e 7ec0 1e3e
00000140: ca52 bf3e b815 12be 627f 523d cc02 bf3d
00000150: 2139 c3bd 04e2 eabe 8104 fcbd d81b 2ebe
00000160: 9393 9fbd 2975 e23d a183 a03d 1ce3 a2bd
00000170: 5cc4 fe3d b239 e1bc c396 b33d 310c 503d
00000180: 6151 07bc 97a3 febd c762 26bd e32e b53c
00000190: 4ced 9c3d 4c43 4a3c b1b2 273e cf6b 0e3e
000001a0: fc3e 723c 0026 963c e270 613d fccf 363e
000001b0: 97a6 0f3e b656 c63d f791 8e3d 5215 8b3d
000001c0: 791f c43d de76 f83d d279 cd3d bdcc 513d
000001d0: 7282 583e 891a 1bbd 6153 40bd ad90 af3d
000001e0: 4898 3b3e 84c0 7c3e 9e69 063e 4e2b 623d
000001f0: 4a67 623d 4c91 3c3e 9552 0d3d 32df 5f3d
00000200: 1a0c aabd e8ec ab3d 65f3 cb3d 61c3 713d
00000210: ce4e 35bb d8f7 ea3c eb44 943d 45d0 6a3e
00000220: a18e 733e 7d24 f13d 59b0 6d3e df9f c53e
00000230: 32c3 b33e a091 ae3d 8d13 233e f6dd 803e
00000240: a03f 0fbe 5920 e5bd da88 7abe 310d 2d3d
00000250: e033 42bd 6dad e3b8 3486 fcbc acf1 e33d
00000260: 89e4 57bd 8be3 03be 7446 3bbc 76ae 73bd
00000270: 184c e1bd 82d0 3bbd 105d 9dbd 90f8 c5bc
00000280: c6ad cfbd e2e3 42bd 8e7c 1ebe 991d a6be
00000290: daf3 8a3e 4ba8 adbe 60b1 e9be 7cfa a4bc
000002a0: 3817 8dbd 2c0b be3d 6367 353c efb1 b43c
000002b0: b2cf 883c f12a 9abc 8051 d13c 8784 193d
000002c0: 2a39 8fbd 5871 eabd b65a 16be 7cfd 56bd
000002d0: a47b 6ebc 2947 27bd cea9 10be ead1 cfbc
000002e0: 76cb b5bd 6e79 62be 3323 253d 5b43 5c3a
000002f0: 5240 27be 0c0d 083e f1fd 17bc 69c7 2bbe
00000300: 15d7 4dbd 3caf 01be fc1a 97be e845 033e
00000310: e214 18be 5ce5 4fbe 81be 263e 02f9 973e
00000320: ea19 ef3d 96ff 1b3e 4047 aa3e 57bf 113e
00000330: f486 dd3c bfc6 903d 7aea fdbc 5eae 8c3b
00000340: 7f8c 633e e08d 06bd 310d 39be c753 2ebc
00000350: 5b9f f3bd 6f9f f13d 9b2f d6bd 7a52 96bd
00000360: 13cf 8a3d 74d5 893e dbc8 b2bd a2ff 563c
00000370: 80ab dc3d 2843 27bd 0eef 0f3e afbf 513d
00000380: 9c97 223e 56a1 2f3e cdc4 793e 0406 91bc
00000390: 691b e8bd 2d0c 1b3e 6ced 95bd 1bb6 233d
000003a0: 318b 293d e5b8 fb3b 5f0d 0a3d 13cf 0d3e
000003b0: 7587 05be 0555 31be 9f9b bebc 0d55 50be
000003c0: 0866 073d 97a4 14be 4033 89bd b340 a3bc
000003d0: 5e36 0b3e fc3d 9e3d ac87 8f3e 1850 9cbe
000003e0: 37d0 203e 86ea 63be 1ee3 573e 963d 29bd
000003f0: 9de9 103d 97a8 203e e7ef 743d 4103 9abd

raise_dim.0.attention1.0.weight f4 [9, 9, 3, 3]
-0.065312475 0.13662216 0.041070633 0.37853736 -0.7626193 0.15178998 0.008709822 0.23969702
-0.15646987 -0.1670185 -0.113509186 -0.06929206 -0.13158777 -0.2244124 -0.19768369 -0.010658124
-0.0048470804 -0.053925753 -0.007230789 -0.09376393 -0.061625786 -0.14981751 -0.1274386 -0.13128436
-0.0637903 -0.03744632 0.009751639 0.07029905 -0.11723933 0.10042776 0.112475 0.19875535
0.16577978 -0.070062466 -0.008553752 0.033855755 -0.08347303 -0.17700444 -0.040684607 -0.22365347
-0.05768487 -0.20865366 0.00812468 -0.039655767 -0.109527916 -0.061970178 -0.09586499 0.03498736
-0.029561467 0.089527786 -0.015863134 -0.076418504 0.14044423 0.0089934 -0.049294014 -0.003858618
-0.06501619 -0.14620627 0.033218082 -0.011729026 -0.22925709 -0.04866327 -0.026973868 0.05088745
0.015380264 0.13373396 0.06053055 0.23496273 0.18654457 -0.15549578 0.14275041 0.1504519
0.28249183 0.31966233 0.21765526 0.31160128 0.3969769 0.21245806 -0.009953373 0.1977839
-0.06333137 -0.03798261 0.17405419 0.016597085 0.17231862 -0.44704825 0.16358303 -0.073491
0.26724538 0.013000761 -0.2474737 -0.39422408 -0.1956392 -0.3242808 -0.5120457 -0.4498114
-0.20127027 -0.29777765 -0.36477426 0.07346699 0.12057148 0.06043622 0.19457035 0.05881081
-0.048611853 0.06731649 0.17653127 0.041355357 0.25570118 0.110051304 0.16144355 0.26238176
0.19989246 0.06353593 0.13998015 0.18749294 0.20527336 -0.05386078 -0.2735506 -0.13157937
-0.2775112 -0.303072 -0.07143625 -0.19489 -0.12069878 -0.15860006 -0.07032718 -0.07293178
0.04700134 0.15461776 -0.07949453 0.077602744 0.098037004 0.06380515 0.094139956 -0.08192463
-0.17455861 -0.22022106 -0.21812984 -0.33708328 -0.27271003 -0.22967523 -0.32836545 -0.17471726
0.09918819 -0.0028791777 0.039355837 0.15729913 0.18176867 0.19608389 -0.041773066 0.16552286
0.0933141 0.09303935 0.04574245 -0.05073299 -0.007342839 0.0683295 0.080197304 -0.14367396
-0.09032483 -0.005328499 -0.71661204 0.3017263 -0.45191896 0.5471255 0.58710974 0.18180919
-0.18616354 0.14183436 -0.15961431 -0.9094926 -0.089896545 -0.0030324128 -0.4924842 -0.15716298
-0.22751617 -0.63860446 -0.24951507 -0.19126521 -0.42959675 -0.029531633 -0.04413846 0.10564832
0.03775705 0.1685432 -0.27257457 -0.088012055 -0.09247131 -0.11309013 0.13101682 0.08643603
0.38755095 0.24350516 0.27822545 -0.045053314 0.17433989 0.14256497 -0.23258643 -0.08080889
0.18282853 -0.072298706 -0.02257296 -0.093112685 -0.16348691 -0.07819798 -0.07021656 -0.09547776
-0.30677575 -0.10118558 0.3098111 -0.13695958 -0.12696612 -0.05426346 -0.12505569 -0.008634756
-0.1408033 -0.06459628 0.030918093 0.2284775 -0.10415612 0.06420838 -0.20797712 -0.12654495
-0.042460922 0.018068347 -0.21977416 -0.05959059 0.41313976 0.06625429 -0.033318613 -0.09109374
0.047924604 -0.14359881 -0.36724585 0.12245061 0.030592263 -0.10405686 0.013019935 -0.19128792
-0.38436365 0.005704866 -0.037603352 -0.05756017 0.20446001 -0.31390122 0.019666582 -0.20035362
0.14253622 -0.13264057 0.071414284 -0.29929933 -0.24974361 -0.0023633253 -0.087583214 -0.2076369
00000000: 8cc2 85bd aee6 0b3e ae39 283d a6cf c13e
00000010: 053b 43bf d56e 1b3e a4b3 0e3c 2373 753e
00000020: a339 20be e606 2bbe 8177 e8bd ffe8 8dbd
00000030: f2be 06be 5dcc 65be 986d 4abe 6a9f 2ebc
00000040: 42d4 9ebb 40e1 5cbd 41f0 ecbb 4e07 c0bd
00000050: 526b 7cbd c369 19be 447f 02be 686f 06be
00000060: 7da4 82bd 5061 19bd 57c5 1f3c f3f8 8f3d
00000070: 2d1b f0bd 12ad cd3d 4b59 e63d 8686 4b3e
00000080: 2dc2 293e e97c 8fbd 0925 0cbc 55ac 0a3d
00000090: e8f3 aabd a740 35be e7a4 26bd 6a05 65be
000000a0: f846 6cbd 4ea9 55be 611d 053c 166e 22bd
000000b0: 2c50 e0bd 71d4 7dbd dd54 c4bd e84e 0f3d
000000c0: e42a f2bc 585a b73d 67f3 81bc 4e81 9cbd
000000d0: 9dd0 0f3e 0e59 133c 85e8 49bd dee0 7cbb
000000e0: 3527 85bd 19b7 15be af0f 083d 1a2b 40bc
000000f0: 5fc2 6abe 2353 47bd 4df8 dcbc 5c6f 503d
00000100: 81fd 7b3c 8ef1 083e e2ee 773d 129a 703e
00000110: 8a05 3f3e 493a 1fbe 2a2d 123e 1010 1a3e
00000120: c5a2 903e c8aa a33e 05e1 5e3e 348a 9f3e
00000130: 8e40 cb3e 9b8e 593e 7913 23bc dd87 4a3e
00000140: e1b3 81bd a793 1bbd 433b 323e 9cf6 873c
00000150: 4b74 303e 82e3 e4be 4f82 273e 7382 96bd
00000160: 63d4 883e 2501 553c bf69 7dbe bdd7 c9be
00000170: a455 48be 2208 a6be 6d15 03bf ae4d e6be
00000180: cb19 4ebe 5076 98be b1c3 babe dc75 963d
00000190: 2eee f63d f88b 773d 733d 473e 9be3 703d
000001a0: 391d 47bd 3add 893d 9dc4 343e 3c64 293d
000001b0: 44eb 823e 9462 e13d 7551 253e e756 863e
000001c0: 9cb0 4c3e 201f 823d f556 0f3e 26fe 3f3e
000001d0: 2e33 523e 1f9d 5cbd d30e 8cbe bebc 06be
000001e0: f315 8ebe 412c 9bbe 2b4d 92bd 3f91 47be
000001f0: ec30 f7bd 0e68 22be b207 90bd 425d 95bd
00000200: 7a84 403d 1e54 1e3e 07ce a2bd 30ee 9e3d
00000210: a0c7 c83d 46ac 823d 73cc c03d 1ac8 a7bd
00000220: 7ebf 32be a181 61be 6e5d 5fbe 2e96 acbe
00000230: a6a0 8bbe fc2f 6bbe 841f a8be 15e9 32be
00000240: 2e23 cb3d 96b0 3cbb 9633 213d 0613 213e
00000250: 9121 3a3e 37ca 483e 3c1a 2bbd d37e 293e
00000260: 761b bf3d 6a8b be3d 6f5c 3b3d 65cd 4fbd
00000270: 339c f0bb 56f0 8b3d 7c3e a43d 441f 13be
00000280: 39fc b8bd b09a aebb e373 37bf df7b 9a3e
00000290: ec61 e7be 6b10 0c3f d34c 163f 302c 3a3e
000002a0: a8a1 3ebe 073d 113e ef71 23be 82d4 68bf
000002b0: ae1b b8bd 72bb 46bb e426 fcbe 55ef 20be
000002c0: 00fa 68be 957b 23bf e180 7fbe 07db 43be
000002d0: 1bf4 dbbe 53ec f1bc 88ca 34bd 255e d83d
000002e0: 23a7 1a3d 9796 2c3e e58e 8bbe aa3f b4bd
000002f0: 9961 bdbd cc9b e7bd 4629 063e 6005 b13d
00000300: 146d c63e 6b59 793e 9173 8e3e d389 38bd
00000310: 2886 323e 8dfc 113e 232b 6ebe 227f a5bd
00000320: 6737 3b3e 5811 94bd eeea b8bc ddb1 bebd
00000330: 1d69 27be 4326 a0bd b3cd 8fbd d889 c3bd
00000340: b611 9dbe 633a cfbd 8f9f 9e3e 223f 0cbe
00000350: 6803 02be 5d43 5ebd 990e 00be cb78 0dbc
00000360: be2e 10be 0e4b 84bd f147 fd3c 01f6 693e
00000370: ce4f d5bd af7f 833d f4f7 54be 0095 01be
00000380: 81eb 2dbd 1204 943c 7a0c 61be 4315 74bd
00000390: 0e87 d33e 54b0 873d 1979 08bd 5b8f babd
000003a0: 974c 443d 910b 13be a607 bcbe 63c7 fa3d
000003b0: a09c fa3c c31b d5bd 9151 553c fbe0 43be
000003c0: 50cb c4be e2ef ba3b f905 1abd 36c4 6bbd
000003d0: f75d 513e a9b7 a0be d01b a13c 8029 4dbe
000003e0: 04f5 113e eed2 07be a741 923d c33d 99be
000003f0: cabc 7fbe 05e2 1abb d45e b3bd c49e 54be

raise_dim.0.attention1.0.bias f4 [9]
0.31683654 0.3185454 0.14277783 0.41758287 -0.13176407 0.45631164 0.20242244 -0.1266249
0.13525425
00000000: 6638 a23e 6218 a33e 5a34 123e 6ccd d53e
00000010: 29ed 06be aea1 e93e d447 4f3e f5a9 01be
00000020: 1780 0a3e

raise_dim.0.attention1.2.weight f4 [9, 9, 1, 1]
0.34308895 0.1294006 -0.2344837 -0.16866978 0.36289975 0.3603117 -0.42513353 0.25364563
0.4955798 0.38580078 0.42852116 0.8375688 0.84886086 -0.06895794 0.26619005 -0.26021096
-0.12913679 0.3488271 0.65563124 0.30965674 1.2243773 0.43351036 -0.14947324 -0.1032541
0.4831038 -0.23012635 0.003936837 0.22586755 -0.6998731 -0.24645439 -0.543676 0.38906994
-0.37379065 0.5486759 -0.06988395 0.20842637 0.49275967 0.045698266 -0.52094257 -0.5587527
0.2699278 -0.26895714 0.02481294 0.38905767 -0.54477674 0.23147167 0.6415533 -0.61714274
0.20887098 -0.6521798 0.5384349 -0.0075109056 -0.5394142 0.1242858 0.3497593 0.15568666
0.25539452 -0.3023505 0.6820804 -0.31173554 0.32613438 -0.6695614 -0.17699148 0.5537722
0.94655055 0.8633944 -0.01817052 0.050767668 0.046002317 0.29073358 -0.28224513 -0.42478442
0.5836573 0.34063384 0.32554647 0.05060567 -0.24945594 0.23112313 0.3152496 0.13772509
0.17535704
00000000: 5ba9 af3e 9781 043e 7f1c 70be c5b7 2cbe
00000010: ffcd b93e c67a b83e 1aab d9be d7dd 813e
00000020: a3bc fd3e ae87 c53e 2067 db3e e96a 563f
00000030: f24e 593f d239 8dbd 104a 883e 5f3a 85be
00000040: 6f3c 04be 7799 b23e 73d7 273f 548b 9e3e
00000050: 65b8 9c3f 12f5 dd3e 830f 19be e376 d3bd
00000060: 6259 f73e 3ea6 6bbe 9500 813b d349 673e
00000070: e22a 33bf 8a5e 7cbe 5a2e 0bbf 2d34 c73e
00000080: 7d61 bfbe 0676 0c3f 511f 8fbd b96d 553e
00000090: ff4a fc3e 1b2e 3b3d 7e5c 05bf 6b0a 0fbf
000000a0: fa33 8a3e c0b4 89be 8244 cb3c 9132 c73e
000000b0: 7d76 0bbf e906 6d3e d63c 243f 11fd 1dbf
000000c0: 46e2 553e 41f5 26bf dfd6 093f 0b1e f6bb
000000d0: 0d17 0abf 8e89 fe3d a713 b33e 536c 1f3e
000000e0: 12c3 823e afcd 9abe d29c 2e3f cd9b 9fbe
000000f0: 16fb a63e 6068 2bbf 413d 35be 04c4 0d3f
00000100: 2351 723f 6a07 5d3f 58da 94bc c2f1 4f3d
00000110: ed6c 3c3d 08db 943e 6f82 90be 587d d9be
00000120: 916a 153f 8f67 ae3e 07ae a63e e447 4f3d
00000130: 6171 7fbe 8bab 6c3e 6568 a13e ce07 0d3e
00000140: cc90 333e

raise_dim.0.attention1.2.bias f4 [9]
0.3640446 0.6806265 0.41107148 -0.76403254 0.19988835 0.47232968 -0.6392325 0.055496193
-0.12983039
00000000: 0e64 ba3e 8a3d 2e3f f677 d23e a397 43bf
00000010: 88af 4c3e 32d5 f13e bea4 23bf fa4f 633d
00000020: 42f2 04be

raise_dim.0.attention1.4.weight f4 [9, 9, 1, 1]
-0.45659095 -0.22962378 0.1682611 0.47396293 0.9053328 -0.4308524 0.47126615 0.69935465
0.28381455 -0.48271716 -0.01863488 0.30771726 0.15953955 -0.21426423 -0.3043573 0.0010972463
-0.36405745 -0.31427205 -0.3779033 -0.14918354 -0.24740122 0.35134122 -0.8308496 -0.08394623
-0.17270057 -0.29408526 -0.22308296 -0.031359393 -0.25150204 -0.22748217 -0.2281818 -0.4402252
0.11393711 -0.014635288 -0.35033175 0.036124766 0.7784483 1.456087 1.5988564 -1.1576931
0.47502768 1.5257521 -1.155864 1.7851694 1.032455 -0.011379725 0.064395376 0.039802425
-0.3569645 0.0249567 -0.17512293 -0.40289432 0.12005756 -0.28691724 -0.3543081 0.04421385
0.27035475 0.024078755 0.6913801 0.05167862 0.33053476 0.39133176 -0.29087144 -0.10019361
0.3456172 0.65642464 -0.21146072 -0.51985854 0.018558381 0.26678097 0.23751596 -0.29060692
-0.3641386 -0.17764756 -0.31896123 -0.15877946 -0.53532594 -0.56405973 -0.027426204 -0.6268542
-0.6311046
00000000: 4ac6 e9be 7f22 6bbe a34c 2c3e 45ab f23e
00000010: e4c3 673f b098 dcbe cc49 f13e e808 333f
00000020: 2450 913e b426 f7be 2da8 98bc 1e8d 9d3e
00000030: 565e 233e 1568 5bbe b8d4 9bbe 7ad1 8f3a
00000040: bd65 babe 44e8 a0be 8b7c c1be 92c3 18be
00000050: bf56 7dbe ffe2 b33e 8fb2 54bf 00ec abbd
00000060: 6bd8 30be 5892 96be dc6f 64be b572 00bd
00000070: e0c4 80be 16f1 68be 7da8 69be 3365 e1be
00000080: dc57 e93d d9c8 6fbc af5e b3be 90f7 133d
00000090: 6348 473f 0f61 ba3f 54a7 cc3f 4a2f 94bf
000000a0: d436 f33e d84b c33f 5af3 93bf 6e80 e43f
000000b0: 7c27 843f 0772 3abc b9e1 833d de07 233d
000000c0: 0dc4 b6be fe71 cc3c 6d53 33be 2a48 cebe
000000d0: bde0 f53d d1e6 92be df67 b5be 9519 353d
000000e0: f06b 8a3e cf40 c53c 49fe 303f f6ac 533d
000000f0: da3b a93e a35c c83e 1aed 94be 4f32 cdbd
00000100: bdf4 b03e 720b 283f 2989 58be 7315 05bf
00000110: bf07 983c 8497 883e 6237 733e 6eca 94be
00000120: 6070 babe 3ee9 35be e34e a3be 1597 22be
00000130: 1f0b 09bf 3866 10bf ebac e0bc 8479 20bf
00000140: 1290 21bf

raise_dim.0.attention1.4.bias f4 [9]
-0.1406949 -0.09074963 -0.0279247 0.2551726 1.3917453 0.27196276 0.075622775 0.51387405
0.13501146
00000000: 5312 10be f1da b9bd 57c2 e4bc fca5 823e
00000010: b624 b23f b43e 8b3e 1de0 9a3d 408d 033f
00000020: 7240 0a3e

raise_dim.0.attention3.1.weight f4 [32, 9, 1, 1]
-0.043746408 -0.08968496 0.07511743 0.12121332 -0.35074818 0.36228216 0.28570968 -0.37639502
0.25146517 0.19752327 0.0074197035 0.24169874 -0.016052533 -0.38406062 -0.0055761794 0.31445664
-0.3252813 0.13114645 -0.016280793 -0.06601117 0.0008750477 0.08775648 -0.2825318 0.08369883
0.11749593 0.20338634 0.30426177 -0.026539667 -0.15573214 -0.04679695 -0.1749885 0.15454428
0.29714864 -0.124011055 0.10770814 0.43036216 -0.3616349 -0.23480731 0.1682641 0.18788545
0.03359236 -0.28849846 -0.035867367 -0.15837723 -0.22993962 -0.48086902 0.3626474 0.15114452
0.03536598 -0.060198985 0.27209935 -0.0963551 0.25191525 -0.11504582 0.018001534 0.053428832
0.12388148 -0.10551757 0.2537752 0.030157097 0.25733903 0.26020908 0.0022544565 0.15758015
0.07973092 0.1903146 -0.22782947 -0.0679567 -0.06303097 0.57754844 -0.41333836 -0.12048677
0.032353766 0.17520984 0.2031414 -0.30296105 -0.40599597 0.35513446 0.2103298 -0.35073715
-0.11516476 0.20455743 -0.13920099 -0.3128498 -0.26738882 -0.06420314 0.09483946 0.18128033
0.0049096537 -0.101843506 -0.14092411 -0.43970478 0.13804139 0.23577021 0.26266557 0.09961821
0.03422748 -0.19650804 0.18313088 -0.25075224 0.27591816 -0.15184431 -0.26009455 0.11972182
-0.014721 -0.22596072 0.24618188 0.016304784 0.012373787 -0.2418654 -0.3355839 0.030804176
-0.1472414 -0.16573955 0.39641032 -0.17015916 0.17586328 -0.09713068 -0.085398786 0.17624848
-0.21596178 0.109740265 -0.2498113 0.22194709 -0.023377124 0.38723758 0.19599818 0.25183755
0.12545131 -0.00090821186 -0.09121784 -0.073545046 0.004292443 -0.43625906 0.4078855 -0.05224344
0.34383643 -0.03547574 0.06729142 -0.15676086 -0.45421323 0.4628927 0.119504094 0.26765096
-0.35613143 0.21593834 -0.28522304 -0.07011794 0.013078981 -0.2341256 -0.228902 0.10459213
0.31421044 0.35162848 -0.2934628 -0.098410755 -0.32186127 -0.28799656 0.017422138 0.44624534
-0.24165657 0.046111364 0.21228376 -0.03181424 0.09400065 0.09594352 0.22034435 -0.24252072
-0.5022903 -0.1500754 -0.13304797 0.39301166 0.1592086 0.22044045 -0.1205029 -0.2415393
0.3669787 -0.09620921 -0.30408496 -0.037424564 -0.034976944 -0.021305533 0.15130079 0.17745826
-0.22346218 -0.02184668 -0.36501876 0.32919315 0.04535086 0.1779831 0.3784462 0.2013115
-0.38690516 0.060688294 -0.1635001 0.1706993 -0.1496097 0.36867443 -0.09972929 -0.39805338
0.07519662 0.22378118 0.16631533 0.3054548 0.28487858 0.072395734 -0.10210655 -0.034757964
-0.10000367 0.07615821 -0.21231428 0.1763857 0.028304318 0.43748972 -0.500829 0.48547086
-0.32587606 -0.10154893 0.18023285 0.055254698 -0.1973938 0.039499566 -0.6351578 0.23185088
0.067436755 0.07262398 0.030099893 -0.013128949 -0.062799826 0.07725114 0.17377037 -0.41211975
-0.18534635 -0.20643802 -0.16384734 -0.23078988 -0.027101249 -0.18091011 0.4630993 -0.08013722
-0.37980086 0.044728104 -0.25438392 0.26061767 0.32444897 -0.086771265 -0.04737089 0.32399324
-0.11842465 0.22145744 -0.32654694 -0.2799157 -0.13812767 -0.30728087 0.113501795 -0.048070252
00000000: 6f2f 33bd c0ac b7bd 2bd7 993d b03e f83d
00000010: 4495 b3be 0c7d b93e 8a48 923e d9b6 c0be
00000020: 0bc0 803e 8a43 4a3e fc20 f33b e07f 773e
00000030: 9a80 83bc 98a3 c4be 62b8 b6bb 7600 a13e
00000040: 458b a6be 414b 063e 4c5f 85bc dd30 87bd
00000050: 7563 653a abb9 b33d 02a8 90be 4b6a ab3d
00000060: b5a1 f03d 8244 503e 33c8 9b3e b769 d9bc
00000070: 3f78 1fbe 29ae 3fbd 2f30 33be db40 1e3e
00000080: de23 983e 82f9 fdbd 1696 dc3d 6e58 dc3e
00000090: 3628 b9be 5471 70be 6d4d 2c3e 0b65 403e
000000a0: 2498 093d 12b6 93be a9e9 12bd a42d 22be
000000b0: 4b75 6bbe 7734 f6be ecac b93e a1c5 1a3e
000000c0: ebdb 103d 3693 76bd 9b50 8b3e d355 c5bd
000000d0: 09fb 803e 259d ebbd f477 933c 31d8 5a3d
000000e0: 93b5 fd3d 9919 d8bd d3ee 813e 040c f73c
000000f0: f1c1 833e 203a 853e 81bf 133b b15c 213e
00000100: f749 a33d d5e1 423e 214c 69be e22c 8bbd
00000110: 6216 81bd 37da 133f 16a1 d3be c5c1 f6bd
00000120: 6285 043d 356a 333e 4d04 503e b61d 9bbe
00000130: b4de cfbe 2fd4 b53e b260 573e d293 b3be
00000140: 80db ebbd 8177 513e b48a 0ebe d92d a0be
00000150: 30e7 88be f07c 83bd 313b c23d 8da1 393e
00000160: 29e1 a03b 5493 d0bd 694e 10be fc20 e1be
00000170: b95a 0d3e bf6d 713e 1a7c 863e a204 cc3d
00000180: 1d32 0c3d 6739 49be a986 3b3e 9962 80be
00000190: 2545 8d3e 137d 1bbe 1d2b 85be b730 f53d
000001a0: 5930 71bc 3f62 67be 1a17 7c3e 9c91 853c
000001b0: 6dbb 4a3c 90ab 77be a7d1 abbe 0a59 fc3c
000001c0: 73c6 16be a1b7 29be 4bf6 ca3e 343e 2ebe
000001d0: 8115 343e 73ec c6bd 8fe5 aebd 7b7a 343e
000001e0: 1625 5dbe 81bf e03d 89ce 7fbe 1946 633e
000001f0: 6281 bfbc 0144 c63e bfb3 483e daf0 803e
00000200: 4f76 003e 1115 6eba 6bd0 babd c99e 96bd
00000210: 9fa7 8c3b 595d dfbe 5ed6 d03e 38fd 55bd
00000220: 540b b03e 024f 11bd 16d0 893d eb85 20be
00000230: a38e e8be 4600 ed3e 90be f43d 8c09 893e
00000240: dc56 b6be f11e 5d3e c108 92be ff99 8fbd
00000250: 3949 563c 9fbe 6fbe 4965 6abe 6634 d63d
00000260: 31e0 a03e a608 b43e c240 96be 948b c9bd
00000270: 00cb a4be 4974 93be dfb8 8e3c 457a e43e
00000280: d274 77be 45df 3c3d ea60 593e a64f 02bd
00000290: 6a83 c03d 097e c43d f3a1 613e 5a57 78be
000002a0: 1996 00bf 5ead 19be ba3d 08be d338 c93e
000002b0: 9407 233e 24bb 613e 39ca f6bd 1456 77be
000002c0: a2e4 bb3e 5609 c5bd 06b1 9bbe 804a 19bd
000002d0: fc43 0fbd f188 aebc 98ee 1a3e 9eb7 353e
000002e0: 45d3 64be cff7 b2bc bde3 babe 018c a83e
000002f0: d3c1 393d 3441 363e b3c3 c13e 9a24 4e3e
00000300: 6f18 c6be 4a94 783d 926c 27be cccb 2e3e
00000310: 4933 19be e5c2 bc3e df3e ccbd a7cd cbbe
00000320: af00 9a3d e526 653e 914e 2a3e 9264 9c3e
00000330: 9bdb 913e 3744 943d 3d1d d1bd 5e5e 0ebd
00000340: b9ce ccbd d6f8 9b3d ea68 59be 749e 343e
00000350: 75de e73c a7fe df3e 5436 00bf a38f f83e
00000360: 3ad9 a6be e3f8 cfbd f68e 383e c052 623d
00000370: 9a21 4abe 4cca 213d b499 22bf 516a 6d3e
00000380: 481c 8a3d e2bb 943d 0d94 f63c ce1a 57bc
00000390: 329d 80bd d835 9e3d dcf0 313e 5c01 d3be
000003a0: 6fcb 3dbe 7d64 53be 99c7 27be 2f54 6cbe
000003b0: 7003 debc 8040 39be 5a1b ed3e fc1e a4bd
000003c0: 4275 c2be d134 373d 9c3e 82be ae6f 853e
000003d0: 2d1e a63e 22b5 b1bd fa07 42bd 71e2 a53e
000003e0: 9f88 f2bd bdc5 623e 2931 a7be 1c51 8fbe
000003f0: 5771 0dbe eb53 9dbe a173 e83d 50e5 44bd

raise_dim.0.attention3.1.bias f4 [32]
-0.06972911 -0.037127666 -0.18368272 -0.2182706 0.02479214 -0.022199122 -0.28830174 0.014807848
0.103821665 0.090219 0.23928633 -0.018446334 0.11212728 -0.15355411 -0.03281231 -0.14450103
-0.017518872 0.1158161 0.062979735 -0.09548542 -0.08602006 -0.051741447 -0.16274613 -0.07298378
0.04538853 0.0449948 0.19757597 -0.10450352 0.080466524 -0.05450628 -0.07421141 -0.10957129
00000000: 23ce 8ebd 2e13 18bd 5317 3cbe 5482 5fbe
00000010: e318 cb3c efda b5bc 499c 93be 9e9c 723c
00000020: 74a0 d43d bdc4 b83d 7a07 753e c41c 97bc
00000030: fda2 e53d 4a3d 1dbe 3366 06bd 14f8 13be
00000040: bd83 8fbc fe30 ed3d 85fb 803d dc8d c3bd
00000050: 492b b0bd d7ee 53bd eca6 26be 8578 95bd
00000060: 53e9 393d 784c 383d 5b51 4a3e f105 d6bd
00000070: a2cb a43d fa41 5fbd 27fc 97bd ea66 e0bd

raise_dim.0.attention3.3.weight f4 [32, 32, 1, 1]
0.023350326 -0.004636512 -0.026367499 -0.16546209 0.1591508 -0.3156591 -0.056175284 0.18321624
0.15588577 0.15751281 -0.09107865 -0.12165937 0.28612146 0.07022621 0.22830987 0.119264625
0.06760671 0.24274473 -0.010148752 -0.0002769692 -0.10276489 0.16326475 -0.06497231 0.054963153
-0.09697149 0.0268087 0.31729335 0.25636518 0.00832095 -0.15639755 -0.19914098 0.06970253
-0.016564734 0.022692254 0.08204453 0.034247335 0.034690198 0.00043247387 -0.038041115 0.12835893
0.022483245 -0.070723064 -0.019295989 -0.019862663 -0.0058433707 0.036271174 -0.12241376 -0.041132387
0.1276763 0.047155548 -0.028970288 -0.009136584 0.17806393 -0.06731605 -0.02767653 -0.008764544
0.015975766 0.066920385 -0.08690938 -0.09609461 0.093316115 -0.016107297 -0.0010804302 -0.002208618
0.1181428 0.07629267 0.07225473 0.056394856 -0.10266727 0.21239665 -0.025352748 -0.24500723
0.025248738 -0.11174045 0.030660031 0.08935359 0.0010918281 0.0036741472 -0.043223094 0.13533884
0.01897316 -0.10823016 -0.05330149 0.027638905 -0.10588034 0.02843836 0.028875068 0.12892845
-0.21874416 -0.048405066 0.045949433 -0.39157024 -0.018029086 0.09200154 -0.09891834 -0.2138976
-0.11572785 0.019649992 -0.050747294 -0.04809556 -0.0038930462 0.044964008 -0.060635887 -0.08732856
-0.06401776 -0.024718994 -0.12756465 -0.021042682 -0.07498628 -0.013077635 -0.12747619 0.054982815
0.12962884 -0.07609616 -0.030192537 0.08558397 0.013274597 -0.10526688 -0.052840397 0.08213674
-0.04467131 0.058118436 0.05576548 0.06462998 0.021940181 -0.024358425 0.071545854 0.068519175
0.14796124 0.13403471 0.122831225 0.015428433 -0.06865483 0.01623362 -0.04330748 0.19738154
0.10087546 0.12986636 0.108828865 0.03470938 0.06415404 0.16446269 0.04806363 -0.13717175
-0.059661873 0.12356749 -0.050703928 -0.038042232 -0.0062582362 0.16923696 -0.020044306 -0.16231416
0.004582298 -0.08405083 -0.1318538 0.022050284 -0.120975226 0.06616406 -0.12076378 -0.066204645
-0.09314289 -0.053820856 -0.020101566 -0.14209267 0.04139704 0.059484333 -0.31260282 -0.7234072
0.1503899 -0.12920368 -0.1292804 0.13699462 -0.19586171 0.05214425 -0.1841967 -0.5367148
-0.106510244 -0.21461317 0.103902064 -0.018751465 0.36940992 -0.8432139 0.022982128 -0.52626324
0.057791505 -0.005251346 0.1433801 -0.1738496 0.03076305 0.058231022 0.072280385 0.0446508
-0.22651273 -0.11217909 -0.023238894 -0.10804737 -0.09678767 0.6208182 0.37497017 0.23368157
0.006532581 -0.05319885 0.13334358 0.10295046 -0.112448014 -0.23758405 -0.21008898 -0.2147562
-0.09957727 -0.07001058 -0.06270045 -0.14436156 -0.13662475 -0.19438569 -0.35544163 0.07970352
-0.04752701 -0.28042275 0.10053541 0.6172087 0.3468523 -0.5181893 0.46553406 -0.012082435
0.10307588 0.17569599 -0.12197612 -0.13721496 -0.036683563 -0.007605793 -0.08139678 0.2128876
-0.014114098 0.0010238896 0.22256225 -0.11813718 0.2329227 -0.1324414 0.08379121 -0.08021728
-0.20570095 0.14712982 -0.017538104 -0.02178803 0.06372212 -0.041511096 0.022524584 -0.11474973
-0.019215701 -0.016454548 0.005426084 0.03474001 -0.019589787 0.02958963 0.029607838 -0.043601118
00000000: 2f49 bf3c e2ed 97bb a700 d8bc e56e 29be
00000010: 6df8 223e 129e a1be 0e18 66bd 0a9d 3b3e
00000020: 85a0 1f3e 0a4b 213e 7187 babd 8c28 f9bd
00000030: 837e 923e c2d2 8f3d 10ca 693e 0341 f43d
00000040: 6375 8a3d 1392 783e f346 26bc 2d36 91b9
00000050: 6676 d2bd e02e 273e 3410 85bd 0b21 613d
00000060: fd98 c6bd eb9d db3c 4674 a23e 4c42 833e
00000070: 9854 083c ae26 20be 9deb 4bbe 33c0 8e3d
00000080: c4b2 87bc 1be5 b93c f606 a83d ef46 0c3d
00000090: 4f17 0e3d a9bd e239 00d1 1bbd 8670 033e
000000a0: c82e b83c 41d7 90bd 9f12 9ebc 06b7 a2bc
000000b0: bf79 bfbb 1591 143d 11b4 fabd 6f7a 28bd
000000c0: 93bd 023e 2d26 413d 1953 edbc 9cb1 15bc
000000d0: 6456 363e ffdc 89bd e4b9 e2bc 2999 0fbc
000000e0: 9cdf 823c 8e0d 893d 8cfd b1bd 40cd c4bd
000000f0: 851c bf3d 73f3 83bc 399d 8dba 76be 10bb
00000100: daf4 f13d 553f 9c3d 4afa 933d 4bfe 663d
00000110: 3843 d2bd 827e 593e 91b0 cfbc 2de3 7abe
00000120: 71d6 ce3c 2dd8 e4bd bf2a fb3c 04ff b63d
00000130: ac1b 8f3a f6c9 703b b30a 31bd 4496 0a3e
00000140: 9a6d 9b3c c6a7 ddbd aa52 5abd fc6a e23c
00000150: cbd7 d8bd 90f7 e83c 688b ec3c d205 043e
00000160: 78fe 5fbe 6444 46bd 7935 3c3d e57b c8be
00000170: bcb1 93bc 4e6b bc3d b395 cabd f907 5bbe
00000180: b902 edbd 05f9 a03c 65dc 4fbd daff 44bd
00000190: 7a22 7fbb 2e2c 383d 565d 78bd 51d9 b2bd
000001a0: be1b 83bd 7d7f cabc 4fa0 02be b461 acbc
000001b0: 6892 99bd 9443 56bc 1e89 02be a935 613d
000001c0: 6cbd 043e 4ed8 9bbd 5756 f7bc a646 af3d
000001d0: b27d 593c 2996 d7bd 2c6f 58bd 4f37 a83d
000001e0: 43f9 36bd 990d 6e3d 586a 643d b95c 843d
000001f0: e5bb b33c 528b c7bc a286 923d c853 8c3d
00000200: 2783 173e 6540 093e f08e fb3d 8ac7 7c3c
00000210: e79a 8cbd 5efc 843c 2f63 31bd 631e 4a3e
00000220: cb97 ce3d b0fb 043e abe1 de3d 6c2b 0e3d
00000230: 3163 833d e868 283e 5ede 443d c076 0cbe
00000240: 0260 74bd f410 fd3d ecae 4fbd 2cd2 1bbd
00000250: e411 cdbb 744c 2d3e f533 a4bc af35 26be
00000260: 1a27 963b d722 acbd af04 07be cca2 b43c
00000270: dcc1 f7bd 0681 873d 0053 f7bd 4d96 87bd
00000280: b3c1 bebd 4273 5cbd 0aac a4bc be80 11be
00000290: f18f 293d d8a5 733d 7a0d a0be 3731 39bf
000002a0: cfff 193e f84d 04be 1562 04be 5148 0c3e
000002b0: f98f 48be 3695 553d 0f9e 3cbe 2466 09bf
000002c0: 0b22 dabd 8ec3 5bbe 9bca d43d ac9c 99bc
000002d0: 4c23 bd3e dedc 57bf 0445 bc3c 30b9 06bf
000002e0: c9b6 6c3d 7c13 acbb 3cd2 123e a105 32be
000002f0: cb02 fc3c a783 6e3d bd07 943d c2e3 363d
00000300: f4f2 67be 27be e5bd 7e5f bebc f147 ddbd
00000310: 9d38 c6bd f1ed 1e3f 17fc bf3e 394a 6f3e
00000320: 430f d63b 0ae7 59bd 388b 083e b1d7 d23d
00000330: 254b e6bd 3c49 73be 9121 57be 0de9 5bbe
00000340: 2bef cbbd b561 8fbd 1869 80bd 84d3 13be
00000350: 5ce7 0bbe 0b0d 47be 72fc b5be 993b a33d
00000360: afab 42bd 9293 8fbe 82e5 cd3d 6401 1e3f
00000370: a096 b13e 0ea8 04bf 7b5a ee3e 68f5 45bc
00000380: 7219 d33d a6e9 333e 9ece f9bd 1482 0cbe
00000390: 8141 16bd 043a f9bb 5bb3 a6bd 35ff 593e
000003a0: d13e 67bc 0934 863a 5ce7 633e e8f1 f1bd
000003b0: 4a83 6e3e b89e 07be ba9a ab3d f548 a4bd
000003c0: 45a3 52be 33a9 163e 12ac 8fbc d07c b2bc
000003d0: be80 823d 8a07 2abd 7a85 b83c e801 ebbd
000003e0: 3f6a 9dbc b0cb 86bc 4bcd b13b 8a4b 0e3d
000003f0: c37a a0bc f465 f23c 238c f23c 1697 32bd

raise_dim.0.attention3.3.bias f4 [32]
-0.07058204 -0.010282752 0.049028628 0.1405241 0.04755261 -0.009840245 -0.045606583 0.021983355
-0.030447703 -0.069161005 0.054690912 0.04143377 0.034961227 -0.16507058 0.029718792 0.13103624
0.010090644 -0.13905862 0.01871955 0.039561402 -0.17261876 -0.01648439 -0.06196236 -0.013634516
0.023593877 0.0023472293 0.0916464 -0.33843765 -0.107354224 -0.025149377 -0.09593387 0.018911744
00000000: 518d 90bd fd78 28bc 3ed2 483d 8de5 0f3e
00000010: 87c6 423d fb38 21bc f8cd 3abd 7016 b43c
00000020: 766d f9bc 49a4 8dbd 9403 603d 75b6 293d
00000030: 8133 0f3d 4308 29be d374 f33c 5d2e 063e
00000040: 3a53 253c 6265 0ebe be59 993c 230b 223d
00000050: f9c2 30be 450a 87bc 3ecc 7dbd 4e63 5fbc
00000060: f247 c13c f9d3 193b 1cb1 bb3d b347 adbe
00000070: 88dc dbbd 1106 cebc fa78 c4bd cdec 9a3c

layers.0.conv1.weight f4 [32, 32, 3, 3]
-0.00886572 0.07366289 0.09414293 0.009437708 -0.045793448 -0.08083035 0.22513095 -0.009492376
-0.024618087 -0.07068958 -0.09979825 -0.024234742 0.094404675 0.045359805 0.1679659 0.23910157
-0.19698676 -0.12225744 -0.21087207 -1.0408964 -0.16585764 -0.116070844 -0.24371113 0.22511941
-0.58696395 -0.012689406 -0.24609514 -0.07822732 0.14823726 0.49312314 -0.16212782 0.45408612
0.32394767 0.1613012 0.016840851 0.31208152 0.0994525 0.08368676 0.04355196 -0.099836566
-0.15736973 0.097998984 -0.026621645 -0.17646429 -0.19320278 0.037764803 0.07542543 0.087349236
-0.003873216 0.19897726 -0.16581063 0.21361512 0.010062216 0.36112353 -0.3029774 -0.41995686
-0.7080425 0.3176984 0.22162384 -0.29364124 0.49740297 0.07610879 0.01857246 0.054909356
-0.26252198 -0.3951224 -0.11714578 -0.15832658 -0.63580227 0.6307235 -0.1569557 0.062048487
0.35069612 -0.11436821 -0.041987643 0.52938884 -0.11672363 -0.38695896 0.18593687 -0.1412728
-0.22538501 0.0749752 0.040469263 -0.23434722 0.11959308 -0.031453338 0.0586916 -0.012341739
0.16998658 0.080047645 0.21477075 0.31935078 -0.32319188 0.138906 -0.27484384 -0.041723
-0.028500475 0.46194282 0.25934318 -0.5218006 -0.42740893 -0.30237854 -0.16443345 -0.30342823
-0.46932438 0.45092186 0.06486705 -0.26545802 0.0122942235 -0.1766359 -0.2909309 0.12815818
-0.19768636 0.05179511 0.0728881 -0.07785528 0.00097092893 -0.40359494 -0.046492193 -0.28721592
-0.3851436 0.023612332 -0.76371306 -0.13081424 -0.19033901 -0.3171732 0.6801093 0.30847985
0.031729467 -0.16473702 0.40705505 -0.29026595 0.4385607 0.26542172 0.2087992 0.051406097
-0.06285379 0.24941523 -0.069045536 0.08328294 -0.21560591 0.0957214 -0.22159654 -0.43594992
-0.17873365 0.104020424 -0.048454817 -0.1805738 0.05047239 0.10779013 -0.040978428 0.3714679
0.03302443 -0.03458824 0.0055798963 0.20618877 -0.08494978 -0.031017395 0.2780459 0.060362827
-0.27756518 0.1321945 -0.1288075 0.14256552 0.48198125 -0.24226336 -0.53016263 0.36976868
0.23950952 0.08100326 -0.066553175 0.12013741 -0.008550005 0.050368033 0.18989374 -0.08959106
-0.17220528 0.15126817 0.03201341 -0.09167995 -0.20345268 -0.14529212 -0.2711228 0.03460227
0.09230839 0.23729903 -0.00048285944 -0.026763875 0.7047996 1.0465949 -0.012213219 0.46901807
-0.11041387 0.22237985 -0.03563267 -0.64025044 0.29126245 -0.64458096 -0.14190288 0.12758666
0.25810528 -0.38625368 -0.08915558 0.35697427 0.069739595 0.18654993 0.30146077 0.24955352
0.12094772 0.17767137 0.16581097 0.13484435 -0.24806097 0.059285574 -0.07349628 -0.18704483
0.10991805 0.10144423 0.08958484 0.61639243 0.25842786 -0.4839281 -0.39485627 -0.12484944
-0.2327514 0.12467397 0.16433223 0.24670957 0.07916004 0.015166764 0.18146668 0.010937874
0.11609238 0.18242729 -0.1988808 -0.22463323 0.0059119747 -0.25098088 -0.14877716 -0.17801894
-0.07775089 0.17839159 -0.1431557 0.7761452 1.1481138 0.38270292 0.2114557 -0.24512489
0.44249776 0.67136556 0.30134103 0.3609387 0.02349919 -0.12504825 -0.2698321 -0.339195
00000000: 8641 11bc 92dc 963d 02ce c03d 9ea0 1a3c
00000010: e991 3bbd 628a a5bd ba88 663e e985 1bbc
00000020: dfab c9bc b3c5 90bd 0663 ccbd f087 c6bc
00000030: 3d57 c13d 34cb 393d 41ff 2b3e 0bd7 743e
00000040: e6b6 49be 1c62 fabd d9ee 57be 183c 85bf
00000050: 96d6 29be 8db6 edbd 698f 79be b485 663e
00000060: 4543 16bf 3ae7 4fbc 5d00 7cbe a535 a0bd
00000070: 82cb 173e a37a fc3e d604 26be fa7d e83e
00000080: 78dc a53e 242c 253e d3f5 893c 26c9 9f3e
00000090: c1ad cb3d f763 ab3d 8a63 323d 1d77 ccbd
000000a0: 8825 21be b1b3 c83d a315 dabc 0eb3 34be
000000b0: f3d6 45be 44af 1a3d a678 9a3d 28e4 b23d
000000c0: c8d5 7dbb b2c0 4b3e 43ca 29be ecbd 5a3e
000000d0: fedb 243c 2fe5 b83e db1f 9bbe 9604 d7be
000000e0: 4642 35bf 5da9 a23e 5cf1 623e 2558 96be
000000f0: 9aab fe3e edde 9b3d 4625 983c a2e8 603d
00000100: 4869 86be 7c4d cabe 20ea efbd 5d20 22be
00000110: f0c3 22bf 1877 213f ffb8 20be 8e26 7e3d
00000120: 718e b33e e139 eabd 3cfb 2bbd 0786 073f
00000130: cc0c efbd 7c1f c6be 3c66 3e3e d1a9 10be
00000140: 54cb 66be 998c 993d 19c3 253d b8f8 6fbe
00000150: 37ed f43d 37d5 00bd 9a66 703d 0135 4abc
00000160: f610 2e3e 05f0 a33d ddec 5b3e f281 a33e
00000170: 6879 a5be 603d 0e3e 55b8 8cbe bde5 2abd
00000180: d479 e9bc c583 ec3e a1c8 843e b994 05bf
00000190: 58d5 dabe 5cd1 9abe 3e61 28be f25a 9bbe
000001a0: 494b f0be 3bdf e63e 04d9 843d 1dea 87be
000001b0: b66d 493c 0be0 34be e5f4 94be e63b 033e
000001c0: 4b6e 4abe 1c27 543d 5b46 953d 9772 9fbd
000001d0: f085 7e3a ffa3 cebe 996e 3ebd f70d 93be
000001e0: 8b31 c5be a66e c13c b382 43bf 2bf4 05be
000001f0: 3be8 42be 8764 a2be a51b 2e3f 12f1 9d3e
00000200: c2f6 013d d2b0 28be 8569 d03e bd9d 94be
00000210: 078b e03e 5be5 873e 75cf 553e 338f 523d
00000220: 7db9 80bd b566 7f3e bf67 8dbd 3f90 aa3d
00000230: ccc7 5cbe 9509 c43d 34ea 62be d434 dfbe
00000240: f405 37be a908 d53d 8f78 46bd 57e8 38be
00000250: 23bc 4e3d 12c1 dc3d ffd8 27bd 0a31 be3e
00000260: a044 073d 66ac 0dbd 90d7 b63b 2623 533e
00000270: 26fa adbd 3118 febc 085c 8e3e 033f 773d
00000280: 061d 8ebe ff5d 073e 1de6 03be b2fc 113e
00000290: 3fc6 f63e e313 78be bdb8 07bf 5252 bd3e
000002a0: fc41 753e 0ae5 a53d 084d 88bd 9a0a f63d
000002b0: 5215 0cbc b64e 4e3d 8173 423e 857b b7bd
000002c0: 9556 30be 0be6 1a3e 7e20 033d b3c2 bbbd
000002d0: e655 50be 75c7 14be 9cd0 8abe 1cbb 0d3d
000002e0: 2e0c bd3d 84fe 723e 4c28 fdb9 ea3f dbbc
000002f0: bf6d 343f d2f6 853f f419 48bc 2323 f03e
00000300: ab20 e2bd 8bb7 633e 90f3 11bd 74e7 23bf
00000310: 5a20 953e 4203 25bf fd4e 11be 14a6 023e
00000320: 6026 843e 0bc3 c5be 3397 b6bd 55c5 b63e
00000330: a2d3 8e3d f206 3f3e 1159 9a3e f58a 7f3e
00000340: 70b3 f73d 7cef 353e 5aca 293e a314 0a3e
00000350: b203 7ebe 6ed5 723d 3885 96bd ae88 3fbe
00000360: b71c e13d fec1 cf3d 4278 b73d e5cb 1d3f
00000370: a850 843e 6dc5 f7be 9a2a cabe 10b1 ffbd
00000380: 6256 6ebe 1155 ff3d b546 283e 6fa1 7c3e
00000390: a91e a23d 057e 783c 67d2 393e c534 333c
000003a0: d7c1 ed3d 38ce 3a3e 69a7 4bbe 4106 66be
000003b0: 3db9 c13b 9180 80be 0a59 18be 994a 36be
000003c0: dc3b 9fbd 49ac 363e 6897 12be 74b1 463f
000003d0: 65f5 923f a3f1 c33e d887 583e 0502 7bbe
000003e0: 118f e23e 9dde 2b3f 5f49 9a3e f5cc b83e
000003f0: 6081 c03c a60c 00be 6f27 8abe f8aa adbe

layers.0.conv1.attention1.0.weight f4 [9, 32, 3, 3]
0.16331302 0.27773136 0.15651456 0.119729996 0.06151039 -0.030763932 -0.003926889 -0.035922464
-0.10307746 -0.14817053 -0.047641914 -0.07343154 0.036413994 0.30821627 0.100571744 -0.076607846
0.13463661 0.110768035 0.77194864 -0.12746046 0.500443 -0.40052617 -0.06825397 -0.28998798
0.85548717 0.64708376 0.24101126 0.31790003 -0.4261779 0.2705519 -0.19915172 -0.108034916
-0.35346285 0.24107616 -0.24664707 0.14610304 0.46589974 0.32774696 0.39778098 0.38041696
-0.22647946 0.1760315 0.36409172 -0.050291695 0.27352905 0.05990497 -0.29385793 0.11400563
-0.7727968 0.22633146 -0.41956648 -0.19909516 -0.5633618 -0.27919292 0.30923203 -0.025942277
-0.09324051 -0.80496734 -0.53922623 -0.6939779 -0.45348772 0.22282435 0.13944092 0.31555328
-0.6031419 0.24511538 -0.5714386 -0.12360085 -0.04499105 -0.20649321 -0.10499525 0.008113582
-0.19290982 -0.3120674 -0.44422048 0.019147659 -0.6231885 -1.1656059 0.062340856 -0.5252181
0.2013241 -0.03136675 -0.34318224 -0.6148238 0.03055282 0.2852602 -0.31246787 -0.4824359
-0.3357031 -0.40603253 0.2697653 0.059827622 -0.2793832 -0.2523699 -0.29202396 -0.13843204
0.1634208 0.23975417 0.35548297 0.37600815 -0.018607283 0.040436063 0.19367129 -0.27208972
-0.0055735935 0.09249317 -0.18122147 -0.017038785 0.1088942 0.03642546 -0.036826048 0.21762086
-0.060832497 0.021201756 0.25056615 0.013377633 0.18963715 0.5879471 0.033063978 0.24198131
0.47182605 0.22848576 0.12611535 0.27299136 0.29912493 -0.2936788 0.023841554 -0.4242054
0.46969125 0.27506903 -0.27710995 -0.50974965 0.6792951 -0.18619706 0.46067914 0.49192622
0.05443209 0.30930436 0.3763955 0.366808 0.404085 0.50009835 0.16197687 0.18656674
0.2531823 0.14369832 -0.036621094 0.23807418 -0.29253685 0.13114049 0.6070219 0.13966905
0.22250691 0.18601698 0.16619982 0.035366304 -0.015772494 0.3664064 0.21134031 0.043326907
0.030809538 0.1109914 0.10660639 0.2055387 0.28156653 0.36775473 -0.7749804 0.053934716
0.6401756 -0.8180601 -0.15088114 0.016304139 -0.08134776 0.0034010205 -0.0294967 -0.06638079
-0.23585418 -0.12099973 -0.069063865 0.05122485 -0.5210964 -0.49209753 -0.2816231 0.14952826
0.017154729 -0.15740356 -0.101700425 -0.27416432 -0.14156663 -0.1198931 0.16456209 1.0448612
-0.7780118 -0.45866296 0.17198144 -0.12355743 0.28117266 0.82898706 0.1396854 0.2694407
0.19543667 0.02333331 0.09742728 0.1597106 -0.072327726 0.05649449 -0.061874244 0.22281207
-0.21909891 -0.26686993 -0.18930814 -0.16306624 -0.41381592 -0.048430707 -0.26221696 -0.1966378
-0.11693982 -0.37414095 -0.14738941 -0.07212561 -0.12523715 -0.685751 -0.21259318 -0.30014777
0.44519007 0.17198879 0.02203791 -0.1272168 0.027067106 -0.1470037 -0.15595843 -0.114137985
-0.20407571 -0.18846612 0.13754307 0.034126323 0.34427503 0.18292865 -0.6075396 0.26110873
-0.34014916 -0.025349587 -0.13731791 0.8858895 0.48800576 0.027043406 -0.2131026 -0.27631554
-0.21249507 -0.2080509 0.10314082 -0.5033863 -0.2379323 -0.11709634 -0.10704971 -0.17358981
00000000: 873b 273e ce32 8e3e 5a45 203e 0035 f53d
00000010: 52f2 7b3d a404 fcbc 22ad 80bb 6f23 13bd
00000020: 461a d3bd 04ba 17be 2b24 43bd 4663 96bd
00000030: d726 153d 86ce 9d3e 8ff8 cd3d 93e4 9cbd
00000040: 2ede 093e 5ada e23d 6d9e 453f ff84 02be
00000050: 081d 003f c411 cdbe bdc8 8bbd 4e79 94be
00000060: 3501 5b3f 48a7 253f a8cb 763e cbc3 a23e
00000070: fd33 dabe c785 8a3e 6eee 4bbe 6941 ddbd
00000080: 15f9 b4be abdc 763e 0d91 7cbe 099c 153e
00000090: 698a ee3e 73ce a73e f3a9 cb3e 03c6 c23e
000000a0: 3bea 67be 9a41 343e 3b6a ba3e aafe 4dbd
000000b0: 000c 8c3e ea5e 753d 8c74 96be c97b e93d
000000c0: 03d6 45bf 6fc3 673e 6bd1 d6be 9adf 4bbe
000000d0: 7b38 10bf 60f2 8ebe a953 9e3e e684 d4bc
000000e0: e1f4 bebd 5712 4ebf bb0a 0abf 89a8 31bf
000000f0: 8b2f e8be 112c 643e 9ac9 0e3e 3390 a13e
00000100: 8267 1abf 87ff 7a3e cd49 12bf 7122 fdbd
00000110: 8948 38bd f572 53be c007 d7bd d4ee 043c
00000120: 278a 45be 4cc7 9fbe de70 e3be 8ddb 9c3c
00000130: 4889 1fbf 9332 95bf 2059 7f3d b274 06bf
00000140: e827 4e3e 6c7a 00bd 95b5 afbe 1865 1dbf
00000150: e849 fa3c a00d 923e cafb 9fbe d701 f7be
00000160: 47e1 abbe 7fe3 cfbe ad1e 8a3e cf0d 753d
00000170: 510b 8fbe a136 81be 2a84 95be 21c1 0dbe
00000180: c857 273e 1e82 753e dd01 b63e 2484 c03e
00000190: 4d6e 98bc 49a0 253d c451 463e 584f 8bbe
000001a0: b1a2 b6bb 0f6d bd3d 1f92 39be ec94 8bbc
000001b0: ec03 df3d dd32 153d e9d6 16bd 01d8 5e3e
000001c0: 7f2b 79bd 4eaf ad3c 354a 803e dc2d 5b3c
000001d0: 3e30 423e b383 163f 186e 073d f3c9 773e
000001e0: 2f93 f13e 2cf8 693e 6224 013e 86c5 8b3e
000001f0: e726 993e 115d 96be 5d4f c33c 7331 d9be
00000200: 5f7b f03e d9d5 8c3e 5be1 8dbe f47e 02bf
00000210: 49e6 2d3f 71aa 3ebe 23de eb3e c1dd fb3e
00000220: 2ff4 5e3d 245d 9e3e e9b6 c03e 42ce bb3e
00000230: 3be4 ce3e 7206 003f 44dd 253e 5a0b 3f3e
00000240: 1ca1 813e a725 133e 0000 16bd b8c9 733e
00000250: 64c7 95be b149 063e ca65 1b3f 6705 0f3e
00000260: dad8 633e 3c7b 3e3e 4930 2a3e 42dc 103d
00000270: 5135 81bc 9f99 bb3e 9869 583e 8e77 313d
00000280: 4964 fc3c 764f e33d 7354 da3d bd78 523e
00000290: 7d29 903e 594a bc3e 1e65 46bf a6ea 5c3d
000002a0: 8ce2 233f 636c 51bf 9680 1abe 4290 853c
000002b0: a899 a6bd a8e3 5e3b 10a3 f1bc a7f2 87bd
000002c0: c283 71be b5ce f7bd 5b71 8dbd 26d1 513d
000002d0: 9366 05bf 35f4 fbbe e730 90be f01d 193e
000002e0: 1388 8c3c 662e 21be 5048 d0bd 445f 8cbe
000002f0: d8f6 10be 838a f5bd f782 283e 03be 853f
00000300: c82b 47bf dfd5 eabe e71b 303e ae0b fdbd
00000310: ddf5 8f3e 7f38 543f b109 0f3e 22f4 893e
00000320: 8d20 483e 7f25 bf3c f487 c73d 2d8b 233e
00000330: 8f20 94bd c466 673d d96f 7dbd d928 643e
00000340: 775b 60be 2da3 88be fed9 41be d6fa 26be
00000350: aedf d3be 475f 46bd 4d41 86be 6b5b 49be
00000360: 257e efbd 678f bfbe 40ed 16be 98b6 93bd
00000370: 2b3e 00be 618d 2fbf 07b2 59be f8ac 99be
00000380: f4ef e33e d41d 303e d988 b43c 1f45 02be
00000390: d6bb dd3c 2388 16be 91b3 1fbe 2dc1 e9bd
000003a0: 39f9 50be 43fd 40be 17d8 0c3e 0bc8 0b3d
000003b0: d144 b03e a651 3b3e b787 1bbf 0bb0 853e
000003c0: 0828 aebe f0a9 cfbc 119d 0cbe a7c9 623f
000003d0: e4db f93e 228a dd3c 9137 5abe 3b79 8dbe
000003e0: 4f98 59be 4c0b 55be 7f3b d33d eddd 00bf
000003f0: 86a4 73be 35d0 efbd e13c dbbd 87c1 31be

layers.0.conv1.attention1.0.bias f4 [9]
0.11532329 -0.48530254 0.1048749 0.3258531 0.30843717 0.79787445 0.19941059 0.18209347
-0.42579824
00000000: 9e2e ec3d 9379 f8be a7c8 d63d 38d6 a63e
00000010: 7aeb 9d3e 8041 4c3f 4a32 4c3e b676 3a3e
00000020: 3a02 dabe

layers.0.conv1.attention1.2.weight f4 [9, 9, 1, 1]
0.47070143 -0.5058723 0.24363358 0.15300755 -0.17474514 0.50996935 -0.20755999 0.10892776
-0.32320207 -0.5262539 -0.012153954 -0.38116884 0.2460623 0.13800402 0.28661504 -0.33750138
1.1502149 0.0028248571 0.26915613 0.08124498 0.15682603 -0.24280125 1.5566487 -0.22226338
-0.28619978 -0.23441584 0.3008843 -0.37927467 0.027302334 -0.29981804 0.39384884 0.524582
-0.33459157 0.275554 -0.38732865 0.3060416 0.43224284 0.018381512 0.40848622 -0.40905833
-0.12467457 -0.013991404 -0.014281927 0.27618107 -0.29804286 -0.25202468 -0.26290062 -0.7605885
0.034552813 0.74043375 0.45216808 0.66646963 -0.38460526 -0.2624376 -0.6019938 0.054982357
-0.22869886 0.5448338 0.50302994 0.27554557 0.62538004 -1.3995141 -0.11505287 0.4252859
0.002014299 -0.04126159 -0.7855544 -0.59509385 0.02220632 -0.5905274 0.5502306 -0.14710557
0.044473257 -0.15139885 0.28268898 -0.11705805 -0.746275 -0.1836263 -0.08814799 -0.053639732
0.14951554
00000000: c7ff f03e d980 01bf 157b 793e 03ae 1c3e
00000010: 64f0 32be 5a8d 023f 9b8a 54be 8415 df3d
00000020: be7a a5be 93b8 06bf 6121 47bc 9028 c3be
00000030: c1f7 7b3e ed50 0d3e 35bf 923e fbcc acbe
00000040: 3e3a 933f 3d21 393b d5ce 893e c563 a63d
00000050: 0197 203e e4a0 78be 4440 c73f 0399 63be
00000060: c788 92be b50a 70be 820d 9a3e 4a30 c2be
00000070: 25a9 df3c c081 99be 8ea6 c93e 024b 063f
00000080: 964f abbe 6a15 8d3e f14f c6be 7cb1 9c3e
00000090: ef4e dd3e d394 963c 1b25 d13e 1870 d1be
000000a0: 6255 ffbd 343c 65bc befe 69bc 9b67 8d3e
000000b0: 1399 98be 6109 81be e99a 86be eeb5 42bf
000000c0: 4087 0d3d 118d 3d3f 9382 e73e c19d 2a3f
000000d0: fbea c4be 395e 86be 441c 1abf 2e35 613d
000000e0: 0930 6abe 3a7a 0b3f 92c6 003f 4f14 8d3e
000000f0: e818 203f 4723 b3bf d7a0 ebbd 13bf d93e
00000100: 5402 043b ea01 29bd 181a 49bf 1258 18bf
00000110: 07ea b53c ce2c 17bf eadb 0c3f d8a2 16be
00000120: 9729 363d 4d08 1bbe 9cbc 903e 22bc efbd
00000130: e10b 3fbf 8808 3cbe ef86 b4bd 56b5 5bbd
00000140: 9a1a 193e

layers.0.conv1.attention1.2.bias f4 [9]
0.52816164 -0.27916002 -0.08909307 0.47000107 -0.22752945 0.27019235 0.19928442 -0.7625798
-0.31137902
00000000: 9a35 073f 10ee 8ebe 6d76 b6bd fba3 f03e
00000010: 7bfd 68be a756 8a3e 3711 4c3e 6e38 43bf
00000020: 126d 9fbe

layers.0.conv1.attention1.4.weight f4 [9, 9, 1, 1]
-0.39229438 -1.3581432 0.16890456 -0.4430466 0.40583783 -0.30834553 0.14141299 0.14902802
0.19032028 -0.42968693 -0.72387165 -0.3661004 -0.029680166 0.043516576 -0.19907719 0.2050943
-0.76558524 0.065271266 -0.099252686 -0.3727758 -0.16345467 -0.13250394 0.1320045 0.040364683
-0.15175977 0.15068111 0.0346555 -0.5569309 -0.35532078 0.06560272 0.61525214 0.61049455
0.3954452 0.0026328783 0.1398979 -0.27334446 0.36704403 -1.0094007 -1.0938971 0.041873716
0.11581152 1.5266873 1.7699823 -1.4618858 -0.25581878 -0.34212312 -0.022422183 0.1777571
0.20697655 -0.10845717 0.08730444 0.15794818 -0.33675626 -0.003405147 -0.2580878 -0.8721614
0.60705173 -0.7003408 0.080239795 -0.167843 -0.34484884 0.25859675 -0.054126676 -0.52706325
-0.08704058 -0.37827474 0.5405372 0.20621593 0.33941343 0.29188728 -0.37701622 0.23901328
-0.034595847 0.034291737 -0.26889953 -0.0881389 0.02350548 -0.26732862 -0.0933798 0.071424685
0.40483943
00000000: cfda c8be a3d7 adbf 51f5 2c3e 01d7 e2be
00000010: fac9 cf3e 77df 9dbe 91ce 103e cd9a 183e
00000020: 52e3 423e edff dbbe a74f 39bf 8371 bbbe
00000030: d223 f3bc 703e 323d e4da 4bbe 3d04 523e
00000040: 65fd 43bf f1ac 853d fe44 cbbd 78dc bebe
00000050: a960 27be 1daf 07be 302c 073e 7055 253d
00000060: ea66 1bbe 264c 1a3e edf2 0d3d 0693 0ebf
00000070: 9bec b5be b85a 863d 2a81 1d3f 5f49 1c3f
00000080: cb77 ca3e 5e8c 2c3b 6541 0f3e cef3 8bbe
00000090: 32ed bb3e 0b34 81bf d204 8cbf c683 2b3d
000000a0: 972e ed3d 7d6a c33f c88e e23f 131f bbbf
000000b0: aefa 82be c32a afbe baae b7bc f505 363e
000000c0: a9f1 533e cb1e debd accc b23d 2bbd 213e
000000d0: 516b acbe e328 5fbb 1624 84be f845 5fbf
000000e0: be67 1b3f 8949 33bf c354 a43d 09df 2bbe
000000f0: 0790 b0be cb66 843e efb3 5dbd 9eed 06bf
00000100: 5542 b2bd 3aad c1be a560 0a3f 452a 533e
00000110: 99c7 ad3e 4072 953e 4508 c1be e6bf 743e
00000120: 60b4 0dbd 7e75 0c3d 33ad 89be 2b82 b4bd
00000130: 908e c03c 4cdf 88be e93d bfbd 1b47 923d
00000140: 1d47 cf3e

layers.0.conv1.attention1.4.bias f4 [9]
-0.08218163 0.28630713 -0.21002743 0.11724747 0.99297374 -0.078222156 -0.107748345 0.07794801
-0.41815293
00000000: d84e a8bd d996 923e 6e11 57be 711f f03d
00000010: 8733 7e3f f032 a0bd 2aab dcbd 35a3 9f3d
00000020: 2418 d6be
