weights/model_epoch_400.pth (torch, 390786 bytes, 28 tensors)

upsample.0.weight f4 [128, 8, 3, 3]
0	0x3d5e7c29	0.054317627
1	0xbbdf8f9f	-0.006822541
2	0xbd2710c1	-0.040787462
3	0x3df2905b	0.1184394
4	0xbcf39adf	-0.029736934
5	0x3db97c7b	0.09056946
6	0xbbb9710d	-0.0056592287
7	0x3db0eb83	0.0863867
8	0x3c1ec861	0.009691329
9	0xbda39934	-0.079882056
10	0x3ce4ddbe	0.027937766
11	0xbd1b3039	-0.037887786
12	0x3d4e5e09	0.050382648
13	0xbd177a73	-0.03698201
14	0xbd067d9c	-0.032834634
15	0xbcd4b8d5	-0.025967041
16	0xbc8d4cb3	-0.017248487
17	0xbd143bae	-0.036189727
18	0x3d01825b	0.031618457
19	0x3d2707a2	0.040778764
20	0xbd7b70f7	-0.06138703
21	0xbd6c04a9	-0.05762163
22	0xbc884213	-0.01663307
23	0xbd5ee0f1	-0.05441374
24	0xbccc2fc8	-0.024925128
25	0xbc8da1ed	-0.017289126
26	0x3d850598	0.064952075
27	0x3cea6599	0.028612899
28	0xbd799df7	-0.060941663
29	0x3dbabbed	0.09117875
30	0x3dadcdfd	0.08486555
31	0x3e1f9106	0.15582666
32	0x3de3f531	0.11130751
33	0xbd57d733	-0.052695464
34	0xbda5d933	-0.08098068
35	0xbb61feef	-0.0034484228
36	0xbb646b04	-0.0034853825
37	0xbd1d72b9	-0.038439486
38	0x3cf0c770	0.029391974
39	0xbd975405	-0.07389072
40	0x3d95bc99	0.07311363
41	0xbd81af08	-0.06332213
42	0x3dd82339	0.10553593
43	0xbce57640	-0.028010488
44	0xbd2671ac	-0.04063575
45	0x3b8e6ea4	0.0043466855
46	0xbd21c7d7	-0.039497223
47	0x3d661bf7	0.056179013
48	0x3b0a1dc0	0.0021074861
49	0xbc5aada6	-0.013347065
50	0xbd89f6d4	-0.06736532
51	0x3c69afb8	0.014263086
52	0x3d8de6d3	0.06928792
53	0x39457562	0.00018831113
54	0x3c3a53c9	0.011372515
55	0x3d0e992d	0.03481405
56	0xbced5b2e	-0.028974142
57	0xbdb8e2c2	-0.090276256
58	0xbc56a689	-0.0131012285
59	0x3d1df159	0.038560245
60	0xbd137bf5	-0.036006887
61	0x3c17e12f	0.009269997
62	0x3c9cf9be	0.019162055
63	0x3d5d7d09	0.05407432
64	0xbd68a7a7	-0.05680051
65	0x3b0612c3	0.002045796
66	0x3d020610	0.031744063
67	0xbab55957	-0.001383583
68	0xbd200a46	-0.039072298
69	0xbc25554c	-0.010091137
70	0x3d369f88	0.044585735
71	0xbd1ae69b	-0.03781758
72	0x3db20c4d	0.086937524
73	0x3d81bade	0.0633447
74	0x3d66b80f	0.056327876
75	0x3dbee174	0.093203455
76	0x3e1b1991	0.15146472
77	0x3df94046	0.12170462
78	0xbd8c5435	-0.06851999
79	0x3dbf49bb	0.09340235
80	0xbd54d7d3	-0.05196364
81	0xbde62fcd	-0.11239586
82	0x3cdf6c6f	0.027273385
83	0xbcb5bd27	-0.022184921
84	0x3d5ea77d	0.054358948
85	0xbc7b010a	-0.015320072
86	0xbd931d0d	-0.07183275
87	0x3d828a3b	0.063740216
88	0xbd5b1ac0	-0.053492308
89	0x3d77d709	0.060507808
90	0x3c375433	0.011189508
91	0xbd9088dc	-0.07057354
92	0x3cddcb4c	0.027074479
93	0xba8caed6	-0.0010733258
94	0xbd145b80	-0.036220074
95	0xbc8e023d	-0.017335052
96	0x3c9cadf5	0.019125918
97	0xbcc7d031	-0.024391266
98	0xbd4cef5f	-0.05003297
99	0xbd39f6fa	-0.04540155
100	0x3e0b56a4	0.1360727
101	0xbc705b84	-0.0146702565
102	0x3d818360	0.06323886
103	0x3dda620c	0.10663232
104	0xbd153d48	-0.036435395
105	0xbdb4e5dc	-0.08832905
106	0x3da9006d	0.08252034
107	0x3c944d20	0.018103182
108	0x3c409785	0.011754875
109	0xbc50485e	-0.012712566
110	0x39650a4b	0.00021842976
111	0xbbcf32f2	-0.006323212
112	0x3d9ba111	0.0759908
113	0xbdc6cff8	-0.09707636
114	0xbcf9ba28	-0.030484274
115	0xbc621f13	-0.013801354
116	0x3d2220ab	0.039581936
117	0x3da0cf41	0.078520305
118	0xbd9df25d	-0.07712243
119	0xbdb9c2d0	-0.09070361
120	0xbd8aeb14	-0.06783119
121	0x3d250351	0.040286366
122	0x3e1792df	0.1480212
123	0xbd76b0db	-0.060227256
124	0x3d3512c9	0.044207368
125	0xbd844fdf	-0.06460547
126	0xbde8d22b	-0.11368211
127	0xbd7598b5	-0.059960086
128	0x3cd84a64	0.02640266
129	0x3dac2b0e	0.084066495
130	0xbde3192d	-0.11088786
131	0x3c79a7e0	0.015237778
132	0x3d92f438	0.07175487
133	0x3cda1427	0.026620938
134	0x3cc59fd0	0.024124056
135	0x3df232eb	0.11826118
136	0x3daffb9c	0.085929126
137	0x3cbad8b2	0.022808407
138	0xbd3d4d17	-0.046216097
139	0xbd92beb7	-0.07165282
140	0xbc9d9939	-0.019238101
141	0x3bcf3eea	0.0063246386
142	0xbd8e87b4	-0.06959477
143	0x3d1a2692	0.03763444
144	0xbbe59bf2	-0.0070071155
145	0xbc8e4e9f	-0.017371474
146	0x3d12e855	0.0358661
147	0x3cc02b17	0.023458047
148	0x3dc1f7df	0.09471106
149	0x3d4f3618	0.050588697
150	0xbd290050	-0.041260064
151	0x3de9d0e4	0.11416796
152	0xbd37a4c9	-0.044834886
153	0xbd2b6d91	-0.041852538
154	0xbdc8b7f6	-0.09800713
155	0xbd82c18e	-0.06384574
156	0xbd8e0698	-0.069348514
157	0xbcdaae26	-0.026694369
158	0x3d69516c	0.056962416
159	0x3c6a1840	0.014288008
160	0xbd70dd37	-0.058804717
161	0x3d20d6c6	0.039267324
162	0x3b6f2717	0.0036491805
163	0x3dbb9fcb	0.091613375
164	0xbd2f6548	-0.0428212
165	0x3d054a5d	0.03254162
166	0xbcbb0e0e	-0.02283385
167	0xbd6683fc	-0.056278214
168	0xbcc98040	-0.024597287
169	0xbc925796	-0.01786403
170	0xbd356d0d	-0.044293452
171	0x3cd7e477	0.026354058
172	0x3d5c2efc	0.053755745
173	0x3d267d91	0.040647093
174	0x3e01edee	0.12688419
175	0x3e10d859	0.1414503
176	0x3ce56cc9	0.028005974
177	0x3d812982	0.06306745
178	0xbd7199c9	-0.05898455
179	0x3d420685	0.0473695
180	0xbd4e3753	-0.05034573
181	0x3c92aafc	0.017903797
182	0xbd90cf88	-0.070708334
183	0xbc114dae	-0.008868618
184	0xbd766736	-0.060157023
185	0x3d75940b	0.059955638
186	0xbb070c62	-0.0020606746
187	0xbd1d569a	-0.038412668
188	0xbcc196a8	-0.023631409
189	0xbd97d77f	-0.074141495
190	0x3d509fbd	0.05093359
191	0xbd02d421	-0.031940583
192	0xbd53b80d	-0.051689196
193	0xbc97666c	-0.018481456
194	0x3d6d0be2	0.05787266
195	0xbd920c1f	-0.07131218
196	0x3d294749	0.04132775
197	0x3cf504fa	0.0299096
198	0x3ddda5c8	0.10822636
199	0xbdc18839	-0.094498105
200	0x3d419026	0.04725661
201	0xbdb7e917	-0.08980005
202	0x3d280a1f	0.041025277
203	0xbd313da7	-0.043271687
204	0x3d3404b3	0.043949794
205	0xbcf5f797	-0.030025287
206	0xbd124bb5	-0.03571673
207	0xbbf0db7f	-0.0073503847
208	0x3c3085dc	0.010774102
209	0x3d824eef	0.06362712
210	0x3c2bdd8c	0.010489833
211	0xbca0c446	-0.01962484
212	0xbddc9417	-0.107704334
213	0x3d0524b9	0.032505725
214	0x3d2fbf45	0.04290702
215	0x3d3c5cea	0.045987047
216	0x3dc8d353	0.09805932
217	0xbbb2652b	-0.005444189
218	0xbc9f6230	-0.019456
219	0x3e0a3a5f	0.1349883
220	0x3c26465d	0.010148612
221	0x3e1f60f8	0.15564334
222	0xbd1685ac	-0.036748573
223	0xbca35483	-0.01993776
224	0x3db0e9b7	0.086383276
225	0xbdeb4ebf	-0.11489629
226	0xbc2d4659	-0.010575854
227	0x3d9290c2	0.071565166
228	0x3d66bc3b	0.056331854
229	0x3df3a7d5	0.11897246
230	0xbcff6199	-0.031174468
231	0xbd9b223d	-0.0757489
232	0x3db0d3aa	0.08634122
233	0xbd7df00a	-0.061996497
234	0xbd8a6909	-0.06758315
235	0x3d46144c	0.0483592
236	0xbdb07adb	-0.08617183
237	0x3d3df413	0.046375345
238	0x3da12e17	0.07870119
239	0xbdb4bfea	-0.08825667
240	0xbd8c97c4	-0.068648845
241	0xbd45e4b4	-0.04831381
242	0x3c5cb858	0.013471685
243	0x3ca57fff	0.020202635
244	0x3c377b54	0.011198837
245	0x3d0b19b5	0.033960063
246	0xbdaefcd0	-0.08544314
247	0xbc3a627c	-0.01137602
248	0xbce5e108	-0.028061405
249	0x3e17970b	0.14803712
250	0x3dc8bae0	0.098012686
251	0xbd33f577	-0.043935265
252	0xbc8e326a	-0.017358024
253	0x3d35031f	0.04419243
254	0xbc5660ce	-0.0130846035
255	0xbdbda9a3	-0.09260871

upsample.0.bias f4 [128]
0	0x3d87b2ae	0.06625877
1	0x3cb611db	0.022225311
2	0x3d8a493d	0.0675225
3	0x3cf7152a	0.030161459
4	0x3d5d1518	0.053975195
5	0x3cbb3913	0.022854364
6	0x3d66829a	0.056276895
7	0x3cb0085e	0.021488365
8	0x3cf9f92d	0.030514324
9	0x3d0f2c9d	0.034954656
10	0xbc6d5dba	-0.014487678
11	0x3d6b27ba	0.057410933
12	0x3b5ad907	0.0033393519
13	0x3da2c29c	0.07947275
14	0xbbe36f9e	-0.006940796
15	0x3d279377	0.040912118
16	0x3cb26818	0.021778151
17	0xbc559a21	-0.0130372355
18	0xbcef021e	-0.029175814
19	0x3cd3cee0	0.025855482
20	0xbd32c1df	-0.04364192
21	0x3c3e9946	0.011633223
22	0x3c00afd4	0.007854421
23	0xbceed265	-0.029153058
24	0xbc745e06	-0.014914995
25	0xbd45d717	-0.04830083
26	0xbc85946d	-0.016306126
27	0xbd09229f	-0.033480283
28	0x3cb50a0b	0.022099515
29	0xbcbe57f6	-0.023235302
30	0xbd41faf0	-0.047358453
31	0x3b85ad7b	0.0040795184
32	0x3ca0a5a3	0.019610232
33	0x3d86fdd0	0.0659138
34	0x3d51cb4b	0.051219266
35	0x3d5cc1e2	0.05389584
36	0x3d1107cd	0.03540783
37	0x3d8134b6	0.06308882
38	0x3d0b405e	0.033996932
39	0x3cea0118	0.028564975
40	0x3d1f6059	0.038910244
41	0xbcbc4c6f	-0.022985665
42	0x3d4cded1	0.05001718
43	0x3cb1c830	0.021701902
44	0x3d14f323	0.036364686
45	0x3ce41cd8	0.027845785
46	0x3d3ec232	0.046571918
47	0x3ce1cfee	0.027564969
48	0xbc532589	-0.012887367
49	0x3c796aaf	0.015223189
50	0x3d2963f4	0.04135509
51	0x3d38ef53	0.045150112
52	0x3c545e6b	0.012961964
53	0xb94ee3be	-0.00019730531
54	0x3cd510c3	0.02600897
55	0xb92df129	-0.00016588405
56	0x3c840862	0.016117278
57	0x3cbc4adc	0.022984914
58	0x3a3132cd	0.0006759584
59	0xbbf4b335	-0.007467652
60	0xbc4afcd0	-0.012389377
61	0x3b7df202	0.0038748984
62	0x3d111264	0.03541793
63	0x3b7274d0	0.0036995895
64	0xbbf68f36	-0.0075243963
65	0x3be425fe	0.006962537
66	0xbcbcecf8	-0.023062214
67	0x3cd5b205	0.026085863
68	0xbcc3c620	-0.023898184
69	0x3d508f61	0.050917987
70	0x3d2b32ad	0.041796375
71	0xbd0f3c14	-0.034969404
72	0x3d03ec91	0.03220803
73	0xbcffc59f	-0.031222163
74	0x3cff0d23	0.031134194
75	0x3bcd93d6	0.006273727
76	0x3bd0071f	0.006348505
77	0xbc74569d	-0.014913228
78	0xbb8ea918	-0.0043536536
79	0xbba06982	-0.00489539
80	0x3c810048	0.015747204
81	0x3d2cc91f	0.04218399
82	0x3d0e2e0d	0.034711886
83	0x3d240849	0.040046964
84	0xbc819d38	-0.015822038
85	0x3d8bc22a	0.06824143
86	0x3cd090a9	0.025459604
87	0xbc25162c	-0.010076087
88	0x3c518f17	0.012790463
89	0xbd1af647	-0.037832525
90	0xbc3c9aca	-0.011511514
91	0x3ae27daa	0.0017279882
92	0x3ceedd90	0.029158384
93	0xbc38a81a	-0.011270547
94	0x3c35d8b3	0.011099028
95	0x3c3ba7e7	0.011453605
96	0xbc025d87	-0.007956869
97	0x3d0cec4b	0.034405034
98	0xbc660c86	-0.014041072
99	0x3d7f5757	0.062339153
100	0xbcb4df31	-0.022079082
101	0x3c95727a	0.018243063
102	0x3d12feed	0.035887647
103	0x3bfde7be	0.007748573
104	0x3cfe49a4	0.031040974
105	0xbcbd0e8c	-0.023078226
106	0x3d3fb037	0.04679891
107	0xbcaf4a7d	-0.021397823
108	0x3b9684a2	0.004593448
109	0xbbd330a1	-0.006445006
110	0x3cc519b7	0.024060113
111	0xbb84dadb	-0.00405441
112	0x3d24c330	0.040225208
113	0x3d320fc6	0.043472074
114	0x3d32c6ec	0.043646738
115	0x3d87c779	0.06629843
116	0x3d3b060f	0.045660075
117	0x3d456a97	0.048197355
118	0x3d702d0e	0.058636717
119	0x3d0c9aa1	0.034327153
120	0x3d26b32a	0.040698208
121	0x3c869fc2	0.0164336
122	0x3d30c361	0.043155078
123	0x3d26363b	0.040579062
124	0x3d191695	0.03737505
125	0x3d5b85ec	0.053594515
126	0x3c051bad	0.008124274
127	0x3c660744	0.014039818

raise_dim.0.weight f4 [32, 9, 3, 3]
0	0xbdbc12e5	-0.09183291
1	0x3c90fe53	0.017699396
2	0x3dac74a2	0.084206834
3	0xbbcb79c9	-0.0062095863
4	0xbb9b57ac	-0.004740676
5	0x3c062441	0.008187355
6	0x3c9146b7	0.017733915
7	0x3d884def	0.0665549
8	0xbd03dc3e	-0.03219246
9	0xbdebb354	-0.115088135
10	0x3d69eeb3	0.057112407
11	0xbcee17a7	-0.029064013
12	0x3d03afb2	0.032149978
13	0x3a91960d	0.0011107341
14	0x3db5ab62	0.08870579
15	0x3dcddffa	0.10052486
16	0x3df2fe8b	0.118649565
17	0x3bd69ef5	0.006549711
18	0xbc630257	-0.013855538
19	0xbd8726f9	-0.0659923
20	0x3ca0fff9	0.019653307
21	0xbd478bff	-0.048717495
22	0xbd8d8953	-0.06910958
23	0xbbff8d10	-0.0077987984
24	0xbdbef1cc	-0.09323463
25	0xbd25a8dc	-0.04044424
26	0xbd66664a	-0.056249894
27	0x3d349c08	0.044094115
28	0xbd423eeb	-0.047423285
29	0x3df21ede	0.11822294
30	0x3dd35a5d	0.1031997
31	0x38e71343	0.00011018526
32	0x3d6eb6cb	0.058279794
33	0x3d6cdcfc	0.057827935
34	0xbd83a9db	-0.06428882
35	0x3df258f3	0.11833372
36	0x3d78e427	0.060764458
37	0x3c1d7d02	0.009612324
38	0x3d6a3133	0.057175826
39	0x3df4d93f	0.11955499
40	0xbc5c58f7	-0.013448945
41	0x3d8985cf	0.06714975
42	0x3db0132a	0.08597405
43	0xbce405b8	-0.027834758
44	0xbdb529a7	-0.08845835
45	0xbd5c5687	-0.053793456
46	0x3cded76b	0.027202329
47	0xbda55aca	-0.08073957
48	0x3dff7ef1	0.12475384
49	0xbd4e5a32	-0.050378986
50	0x3dac5427	0.08414488
51	0xbd36a9d9	-0.044595573
52	0xbd3464fe	-0.044041626
53	0x3dc530b5	0.09628431
54	0x3c8adc11	0.016950639
55	0x3d7eef48	0.062239915
56	0x3d98bb57	0.07457607
57	0x3df62026	0.120178506
58	0xbd883b57	-0.06651943
59	0x3dab06f2	0.08350934
60	0xbd9817b9	-0.074264
61	0xbd9b4f0b	-0.075834356
62	0xbc281066	-0.010257816
63	0xbd1676c8	-0.036734372
64	0x3dbf5dfe	0.093440995
65	0xbd71f56b	-0.05907194
66	0xbc0180f1	-0.007904277
67	0x3d5a2def	0.053266462
68	0xbdc6a913	-0.09700217
69	0xbd89368a	-0.066998556
70	0x3de2bd28	0.11071235
71	0xbc4aa209	-0.012367734
72	0xbda21b0f	-0.07915317
73	0xbdc8bb1c	-0.09801313
74	0x3e11456d	0.1418664
75	0xbd955c4c	-0.07292995
76	0x3dac5b06	0.08415799
77	0xbd2f26ad	-0.042761493
78	0xbda25bc1	-0.07927657
79	0xbcf108d1	-0.02942315
80	0x3d4aff25	0.04955973
81	0xbdd33643	-0.10313084
82	0x3bf57865	0.007491159
83	0xbd0333ab	-0.032031696
84	0x3d336657	0.04379877
85	0x3cdd5b45	0.02702106
86	0xbce26b37	-0.027639015
87	0xbd23e3df	-0.040012237
88	0xbdc73237	-0.097263746
89	0xbe11e5a8	-0.14247763
90	0x3e0186d4	0.12649089
91	0x3d8756ae	0.0660833
92	0x3d98a666	0.07453613
93	0x3d7dc941	0.06195951
94	0xbcebb35e	-0.028772052
95	0x3daf66d5	0.085645355
96	0xbc91b8b6	-0.017788272
97	0x3d4ec6d4	0.050482586
98	0x3d00c022	0.031433232
99	0xbdb44b1c	-0.088033885
100	0x3d54e5ef	0.051977094
101	0x3d780d14	0.060559347
102	0x3d5007ae	0.050788574
103	0x3ce816fc	0.028331272
104	0x3cac80fd	0.0210576
105	0x3db13c25	0.0865405
106	0xbd90d9b9	-0.07072777
107	0x3dbed0dc	0.093171805
108	0xbe0cdb3e	-0.1375551
109	0xbbfa58b3	-0.0076399683
110	0xbbc22e0d	-0.0059259
111	0x3d72b23e	0.059252016
112	0xbd8c7acb	-0.068593584
113	0xbcbb310e	-0.02285054
114	0xbdf85f79	-0.12127585
115	0xbd4ccc89	-0.049999747
116	0x3d838a17	0.06422823
117	0xbbd1cf30	-0.0064028725
118	0xbdc67a86	-0.09691338
119	0x3dd4d228	0.103916466
120	0x3df2e63b	0.11860319
121	0x3d902a75	0.07039348
122	0xbc98699c	-0.018605046
123	0x3ce606d0	0.02807942
124	0x3c6416bb	0.013921435
125	0xbd25325c	-0.04033123
126	0x3d1e156a	0.03859464
127	0x3d98573e	0.07438515
128	0x3d14de61	0.03634489
129	0xbda3f9b3	-0.08006611
130	0x3d71289d	0.058876622
131	0x3d098adc	0.033579692
132	0xbda127cb	-0.07868918
133	0xbd76ffee	-0.060302667
134	0x3d67e919	0.056618784
135	0xbd095705	-0.033530254
136	0x3d7d47ac	0.06183593
137	0xbd54b48d	-0.05193
138	0x3b856b62	0.004071639
139	0xbd9005e6	-0.07032375
140	0xbca84a7e	-0.020543333
141	0xbc9d5ec2	-0.019210223
142	0x3d93e1be	0.07220791
143	0x3d33cb69	0.04389516
144	0xbda15b1b	-0.07878705
145	0x3cb7b86c	0.022426806
146	0x3d2459b1	0.0401246
147	0x3d0551ff	0.0325489
148	0xbc8efd45	-0.017454753
149	0xbdb21d18	-0.086969554
150	0x3cfa4b48	0.030553475
151	0xbc51317a	-0.012768144
152	0x3d2ef06c	0.042709753
153	0x3cd67652	0.026179466
154	0x3d8c0be2	0.06838204
155	0xbd40702b	-0.04698197
156	0x3db8536a	0.09000285
157	0x3c0d3417	0.008618376
158	0xbdd04249	-0.10168893
159	0x3dc1e8b8	0.09468216
160	0x3bf68e81	0.007524312
161	0xbdd43adf	-0.10362791
162	0x3cc7abb0	0.02437386
163	0x3d1c3f11	0.038146082
164	0x3d3d7269	0.04625169
165	0x3c4a1e4b	0.012336324
166	0xbe23eafe	-0.16007611
167	0x3e28a969	0.16470875
168	0x3dd944a4	0.10608795
169	0xbdfccb51	-0.12343467
170	0x3e1fcce0	0.15605497
171	0xbda4c927	-0.08046179
172	0xbc5023ee	-0.012703879
173	0x3db32d4b	0.08748873
174	0xbd51cc8a	-0.051220454
175	0xbd3a7c5a	-0.045528747
176	0xbda705e4	-0.081554204
177	0xbd422137	-0.047394957
178	0x3db42439	0.087959714
179	0xbd959df4	-0.07305518
180	0x3d9178a6	0.0710309
181	0xbc1ce219	-0.00957539
182	0x3b27e088	0.0025616009
183	0x3c2956d9	0.0103356475
184	0xbd1a4c05	-0.037670154
185	0x3d2ac001	0.041687015
186	0xbd7105f7	-0.05884358
187	0x3d1a45db	0.037664276
188	0xbd38907c	-0.045059666
189	0x3c3dfc88	0.011595853
190	0x3d68b125	0.056809563
191	0x3da96aea	0.08272345
192	0x3ddb26a1	0.10700727
193	0xbcbaefb1	-0.022819372
194	0xbcf6cafd	-0.03012609
195	0x3cfa9219	0.030587243
196	0x3daebb67	0.08531838
197	0x38959d83	7.1342125e-05
198	0x3d23de14	0.040006712
199	0xbd39ca06	-0.04535868
200	0x3882f8af	6.245204e-05
201	0x3d7e7695	0.062124807
202	0x3dcc9038	0.09988445
203	0xbcf95a23	-0.030438488
204	0xbb412975	-0.0029474173
205	0xbbd33d4d	-0.0064465166
206	0x3d2a0ba1	0.041514996
207	0x3e16a72f	0.14712213
208	0xbd9071ac	-0.07052931
209	0x3ce1f70a	0.027583618
210	0x3dfca2f1	0.12335766
211	0xbda3bf58	-0.0799548
212	0xbd179cf6	-0.037014924
213	0x3c660bf9	0.01404094
214	0xbc57e69b	-0.013177539
215	0x3c99c3eb	0.018770179
216	0x3b7276d1	0.003699709
217	0x3c962271	0.01832697
218	0xbda36ceb	-0.07979759
219	0xbda44b5d	-0.08022187
220	0xbb73b13e	-0.0037184502
221	0xbd6ed0d6	-0.05830463
222	0xbca06b43	-0.019582396
223	0x3d23ab00	0.039958
224	0x3cc4f786	0.02404381
225	0xbdc28b97	-0.09499281
226	0x3d4b2832	0.04959888
227	0x3ce3e3a2	0.027818505
228	0x3c3f2647	0.011666841
229	0x3cf1f9f5	0.029538134
230	0xbd935530	-0.071939826
231	0xbc2074a1	-0.0097934315
232	0xbe1efa79	-0.15525235
233	0x3d8f7d3e	0.0700631
234	0x3d53e679	0.051733468
235	0xbd5c35f5	-0.053762395
236	0x3dafa797	0.08576887
237	0xbdedb501	-0.116067894
238	0xbddd357f	-0.10801219
239	0xbd65b810	-0.05608374
240	0x3da2a9d4	0.079425484
241	0x3e22c262	0.15894464
242	0xbd331534	-0.043721393
243	0x3b4f5e53	0.0031641915
244	0x3d419051	0.04725677
245	0x3b038236	0.0020066625
246	0xbc363699	-0.0111214155
247	0x3dbdd897	0.09269827
248	0xbdd5c767	-0.104384236
249	0xbe1574b5	-0.14595301
250	0x3cb5d62a	0.022196848
251	0x3dbb730d	0.091528036
252	0x3dacf05a	0.08444281
253	0xbc5a9588	-0.013341315
254	0xbbf718c1	-0.0075407927
255	0xbbf4c2c2	-0.007469506

raise_dim.0.bias f4 [32]
0	0x3c8712e0	0.016488492
1	0x3d2b6006	0.041839622
2	0x3d0cc2d7	0.0343655
3	0x3d8efd9a	0.069819644
4	0x3ca28251	0.01983753
5	0xbdbc3d7a	-0.09191413
6	0xbd0b049c	-0.033939943
7	0x3c58d1e0	0.013233632
8	0x3d5619ea	0.052270807
9	0xbdabe6a2	-0.08393599
10	0xbd6b72e4	-0.057482615
11	0x3d8ce226	0.06879072
12	0x3d73fedb	0.05956922
13	0x3b33c905	0.002743305
14	0xbdab1d14	-0.083551556
15	0x3d5afe45	0.053465147
16	0xbcd82958	-0.026386902
17	0x3d0cde37	0.034391608
18	0x3dbc3715	0.091901936
19	0x3ccd3074	0.025047518
20	0x3d37f83f	0.04491448
21	0x3dc55923	0.09636142
22	0xbcfe8872	-0.031070922
23	0x3cb7c072	0.022430632
24	0xbc06b6ac	-0.008222263
25	0x3d74c691	0.05975968
26	0x3d145f4e	0.036223702
27	0xbc06cc53	-0.008227426
28	0x3d25f40a	0.040515937
29	0x3bb3fdad	0.005492887
30	0xbd1e102e	-0.03858965
31	0x3d317e81	0.043333534

res1.conv0.weight f4 [32, 32, 3, 3]
0	0xbd897fe6	-0.06713848
1	0x3d621d19	0.05520353
2	0xbda1ea93	-0.079060696
3	0x3b0c902c	0.0021448238
4	0xbd55d3d7	-0.05220398
5	0x3c93f6f1	0.018062087
6	0xbd225bfa	-0.039638497
7	0xbbd7f20c	-0.0065901335
8	0x3d451f71	0.048125688
9	0xbd0c28c2	-0.034218557
10	0xbcacbff6	-0.021087628
11	0x3d781fa7	0.06057706
12	0x3d0bf433	0.034168433
13	0x3d5deb93	0.05417974
14	0x3c08f914	0.008360166
15	0xbc3460cf	-0.011009409
16	0xbc3dd8a6	-0.011587298
17	0xbc128b08	-0.00894428
18	0xbda7e663	-0.0819824
19	0x3d452a48	0.048136026
20	0x3ccfb289	0.025353687
21	0xbb36796a	-0.0027843365
22	0xbca29ae6	-0.019849252
23	0xbc0b8a70	-0.008516893
24	0x3c1cb80b	0.009565364
25	0x3c3956b6	0.011312177
26	0x3cd33940	0.025784135
27	0xbddfef8c	-0.10934362
28	0xbd0b395c	-0.03399025
29	0xbd05a4b8	-0.03262779
30	0x3cc6106d	0.024177754
31	0x3d86dcab	0.06585058
32	0xbcc06158	-0.023483917
33	0xbbbaa936	-0.005696441
34	0x3d02b7e7	0.031913664
35	0x3d79b5a4	0.06096424
36	0x3d30b8b5	0.0431449
37	0xbbc21ca7	-0.005923826
38	0xbd77e6da	-0.06052289
39	0x3d965182	0.07339765
40	0x3d05dcad	0.032681156
41	0xbd2b6b07	-0.041850116
42	0x3c64b7ea	0.013959864
43	0x3d4628cf	0.04837876
44	0xbd6835cb	-0.056691926
45	0xbd7f96dc	-0.06239973
46	0xbd7efed2	-0.062254734
47	0xbcd32132	-0.025772665
48	0xbb96b8e2	-0.0045996765
49	0xbc55350b	-0.013013135
50	0xbdc833ad	-0.097754814
51	0xbc413f21	-0.011794836
52	0xbd86fb3b	-0.06590887
53	0x3ccbcceb	0.024877986
54	0xbd110846	-0.03540828
55	0xbd5df5c7	-0.05418947
56	0x3d0b916e	0.03407424
57	0xbd8ce1b0	-0.06878984
58	0xbd031dac	-0.03201072
59	0x3d64a687	0.055822875
60	0x3c12713e	0.008938132
61	0xbc058722	-0.008149894
62	0xbd0ea1b4	-0.03482218
63	0x3d139205	0.036027927
64	0xbd00c4c5	-0.031437654
65	0xbca941c5	-0.020661244
66	0xbb9ee1d6	-0.004848699
67	0x3d1dbcf6	0.038510285
68	0x3d0c9236	0.034319125
69	0x3d2bd0ba	0.041947104
70	0x3d6c8059	0.05773959
71	0xbcc4592c	-0.023968302
72	0x3cfa1469	0.03052731
73	0xbcb178c4	-0.02166403
74	0x3c63d6ec	0.013906222
75	0x3cceb87c	0.025234453
76	0x3d1b2ed2	0.03788645
77	0x3d1bf5f3	0.038076352
78	0xbd74fb4f	-0.05980998
79	0xbcd73415	-0.026269952
80	0x3be7e68f	0.0070770453
81	0x3c89d66e	0.01682588
82	0x3c92d37e	0.017923113
83	0xbd1d11e4	-0.03834714
84	0x3c46922a	0.012119809
85	0x3d11517e	0.035478108
86	0x3d072138	0.032990664
87	0xbccc4e10	-0.024939567
88	0x3c7c8a0f	0.015413775
89	0xbcaf1044	-0.02137006
90	0xbcbfd2b5	-0.023415903
91	0xbd7bd5ef	-0.06148332
92	0x3d1f2016	0.03884896
93	0xbd54638f	-0.05185276
94	0x3cdbe79e	0.026843842
95	0xbcc2d3e6	-0.023782682
96	0x3c763a0c	0.015028488
97	0xbd1f2102	-0.038849838
98	0xbd5db22f	-0.054125007
99	0xbda13458	-0.07871312
100	0x3c953ead	0.018218363
101	0x3c901af6	0.017590981
102	0xbd5b2d60	-0.05351007
103	0x3c19d9d4	0.009390313
104	0x3d53b610	0.0516873
105	0xbcd8a015	-0.02644352
106	0xbbf54966	-0.0074855564
107	0xbb813226	-0.0039427457
108	0x3bc8c57a	0.0061270567
109	0xbc35b1df	-0.011089771
110	0x3d3a3433	0.045459937
111	0x3d62ba29	0.055353317
112	0x3c653d92	0.01399173
113	0xbb99a29d	-0.0046885745
114	0xbcc8dd40	-0.024519563
115	0xbd53d9be	-0.051721327
116	0x3d35a652	0.04434807
117	0x3bed1c03	0.0072360053
118	0xbbe71fa9	-0.0070533347
119	0x3ca1d065	0.01975269
120	0x3d0d0274	0.034426168
121	0xbb4852dc	-0.0030566966
122	0xbc76d274	-0.015064824
123	0xbd6cad3b	-0.057782393
124	0xbcc38848	-0.023868695
125	0x3d8f0e2f	0.06985127
126	0xbc69baf4	-0.0142657645
127	0x3d258480	0.040409565
128	0xbd1968c1	-0.037453417
129	0xbccf1ae8	-0.025281385
130	0x3c988f1c	0.018622927
131	0xbd457c9a	-0.048214532
132	0xbc682880	-0.014169812
133	0x3c94c781	0.018161537
134	0xbd2989ef	-0.04139131
135	0xbda47b22	-0.08031298
136	0x3d72fbb9	0.059322093
137	0xbca562fe	-0.020188805
138	0xbbfdd631	-0.007746481
139	0xbce4e0d1	-0.027939232
140	0xbd68bc7a	-0.05682037
141	0xbd3e53c4	-0.046466604
142	0xbd55b307	-0.052172687
143	0x3d0856f5	0.033286054
144	0x3ab43716	0.0013749327
145	0x3cd445b7	0.025912149
146	0xbd4161a2	-0.04721225
147	0x3cab12a0	0.020882905
148	0x3ce8c0a8	0.028412178
149	0x3b764a66	0.0037580966
150	0x3a6d746c	0.0009058181
151	0x3cfda3bf	0.03096187
152	0xbb470d71	-0.0030373002
153	0x3ca22138	0.01979123
154	0x3c942657	0.018084688
155	0xbc0e852d	-0.008698744
156	0xbcca904f	-0.024727015
157	0x3bcffcab	0.006347259
158	0x3d61b288	0.0551019
159	0x3cd59577	0.026072247
160	0x3d2eba19	0.042657945
161	0xbce2523a	-0.0276271
162	0xbd939519	-0.072061725
163	0x3d1c49ca	0.03815631
164	0xbcd6c1d4	-0.026215471
165	0xbd12aaa5	-0.03580727
166	0xbc5b7b62	-0.013396116
167	0xbd2c106a	-0.04200784
168	0xbd0b9528	-0.034077793
169	0xbb8e4dd6	-0.004342775
170	0x3c5c031c	0.013428476
171	0xbd1a9281	-0.037737373
172	0x3caef054	0.021354832
173	0x3d030655	0.03198846
174	0xb9451224	-0.00018794142
175	0x3ccead79	0.025229203
176	0x3d092c8e	0.033489756
177	0xbc0644c1	-0.008195103
178	0xbd49c0d5	-0.049256165
179	0xbb143d98	-0.002261972
180	0x3bdc62f2	0.0067256624
181	0xbcb97e2b	-0.02264317
182	0xbbcb08be	-0.0061961105
183	0xbcad70a3	-0.021171873
184	0xbd893204	-0.06698993
185	0xbd4076fd	-0.046988476
186	0xbd2a5b66	-0.04159107
187	0xbc953763	-0.018214887
188	0x3c9cfb34	0.019162752
189	0x3c5893d5	0.01321884
190	0x3c801397	0.015634341
191	0x3d0d6069	0.034515772
192	0xbd7906e3	-0.060797583
193	0xbc973111	-0.018456014
194	0x3d84f0d8	0.0649125
195	0xbb87d4e8	-0.0041452534
196	0x3d77a807	0.060462978
197	0x3cc49168	0.023995116
198	0x3dd937c3	0.10606339
199	0x3baa42f0	0.005195968
200	0xbbeac798	-0.0071649067
201	0x3d20c7a4	0.039252892
202	0xbd2dff29	-0.042479668
203	0x3d1328c6	0.035927556
204	0x3cdb7a8d	0.026791835
205	0x3cdcd6cd	0.026957894
206	0x3cd3a0ac	0.02583345
207	0x3d9f94f5	0.07792083
208	0x3cc662f1	0.0242171
209	0x3d8780af	0.06616341
210	0x3d18eac0	0.03733325
211	0x3d4f1255	0.050554592
212	0x3bf44012	0.007453927
213	0x3d7f758c	0.06236796
214	0x3d8b9e77	0.06817334
215	0x3c8f6ee2	0.017508928
216	0x3d275f72	0.040862508
217	0xbc720159	-0.014770829
218	0xbc9c4ee2	-0.019080583
219	0xbb49d8d7	-0.0030799413
220	0xbd123a91	-0.035700385
221	0x3d16ae10	0.036787093
222	0x3d09fdda	0.033689357
223	0x3d1e6d49	0.03867844
224	0xbcd7c227	-0.026337696
225	0x3cc57cab	0.024107298
226	0xbbf123d2	-0.0073590064
227	0xbda371bb	-0.07980677
228	0xbc7ff5f9	-0.015622609
229	0xbda1675c	-0.07881042
230	0xbd68c450	-0.056827843
231	0x3d6816de	0.056662433
232	0xbd60c9f4	-0.054880098
233	0xbda7c27a	-0.0819139
234	0xbbd6d7aa	-0.006556471
235	0xbd43ceb1	-0.04780454
236	0x3bd702ea	0.0065616267
237	0xbd41b9e8	-0.047296435
238	0xbd51315b	-0.05107246
239	0x3d06a356	0.032870613
240	0x3d26fc56	0.04076799
241	0x3d20c663	0.039251696
242	0xbc6d62c5	-0.0144888805
243	0xbdf7449f	-0.12073635
244	0xbb447fcb	-0.0029983397
245	0xbc5f3895	-0.01362433
246	0x39608b2f	0.00021414155
247	0xbd6eb3ad	-0.05827682
248	0xbc87d89f	-0.016582785
249	0x3b8fc884	0.004387917
250	0xbca895c3	-0.020579224
251	0xbd9de6cd	-0.077100374
252	0x3c04940f	0.008091941
253	0x3cb6663d	0.022265548
254	0x3c35546c	0.011067491
255	0xbc88960b	-0.016673109

res1.conv0.bias f4 [32]
0	0x3d3fe25a	0.046846725
1	0xbcdf436c	-0.027253829
2	0xbd152fe6	-0.036422633
3	0xbd242715	-0.040076334
4	0xbd17ae81	-0.037031654
5	0xbd87368f	-0.06602203
6	0x3ca6ee80	0.020377398
7	0xbce8d961	-0.028423967
8	0xbd11c8ab	-0.035591763
9	0xbca1f686	-0.019770872
10	0x3d41f3dd	0.047351707
11	0x3c29d111	0.010364787
12	0xbd434b9a	-0.04767952
13	0xbd1e35e7	-0.038625624
14	0x3cb6a9a9	0.022297697
15	0xbc248067	-0.010040379
16	0xbcb110fc	-0.021614544
17	0x3d10e176	0.035371266
18	0x3d2ca89a	0.04215298
19	0xbcc28c6f	-0.023748605
20	0x3ca39c5a	0.019972015
21	0xbd77a7a0	-0.060462594
22	0xbc760bb7	-0.0150174415
23	0xbaa940d4	-0.0012912997
24	0x3c83b82f	0.016079037
25	0x3d12b7bf	0.035819765
26	0xbce27bfa	-0.027647007
27	0xbd0f6246	-0.03500583
28	0x3d64d641	0.05586839
29	0x3cbe1eed	0.023208106
30	0x3d0bcfc0	0.034133673
31	0xbd4d3ff3	-0.050109815

res1.conv1.weight f4 [32, 32, 3, 3]
0	0x3d03f840	0.03221917
1	0xbd412240	-0.047151804
2	0x3be3398f	0.0069343518
3	0x3c977a0c	0.018490814
4	0xbd90c9d2	-0.07069744
5	0x3d13931a	0.03602896
6	0x3d01727a	0.031603314
7	0xbd1a85a1	-0.037725095
8	0x3cc3ecc1	0.023916604
9	0x3d3c4b60	0.04597032
10	0x3d125fb3	0.035735797
11	0x3d9583b3	0.0730051
12	0xbdea3e9f	-0.11437725
13	0xbd0c0dd8	-0.03419289
14	0xbcaed1ff	-0.021340368
15	0xbdd8f3c6	-0.10593371
16	0x3d07d350	0.033160508
17	0x3c450c8b	0.012026916
18	0xbbe02f55	-0.00684158
19	0xbce1bc84	-0.027555712
20	0xbbf753b1	-0.0075478186
21	0xbe08a180	-0.13342857
22	0xbe0ea81d	-0.13931318
23	0xbce5e5d9	-0.028063701
24	0xbdaf2527	-0.08552008
25	0x3cde452d	0.027132595
26	0xbd277639	-0.04088423
27	0x3d371bef	0.044704374
28	0x3c41d5af	0.011830731
29	0xbd8384cb	-0.064218126
30	0x3da5f89c	0.08104059
31	0xbe160aa8	-0.14652503
32	0xbdd810da	-0.10550089
33	0xbdf25b5c	-0.11833832
34	0xbd694a34	-0.05695553
35	0x3e17eed8	0.14837205
36	0xbc74d394	-0.014943022
37	0x3d12c1f6	0.035829507
38	0x3d5addba	0.05343411
39	0xbd850435	-0.06494943
40	0xbd470b7b	-0.048594933
41	0x3d63e910	0.055642188
42	0xbd04a3bd	-0.032382715
43	0xbd4e6870	-0.050392568
44	0x3c9810c5	0.018562684
45	0x3b4699f5	0.0030304168
46	0xbd074b1b	-0.03303061
47	0xbd76bc98	-0.06023845
48	0xbdd406bf	-0.10352849
49	0x3cc78bcb	0.02435865
50	0xbd34c414	-0.044132307
51	0x3d9f7fbb	0.077880345
52	0x3dcdc459	0.10047216
53	0x3d5f99f0	0.054590166
54	0x3cea34ba	0.028589595
55	0x3d83197c	0.06401345
56	0xbc003986	-0.007826215
57	0xbd9f5362	-0.07779576
58	0xbd605a01	-0.054773334
59	0x3da4f7bb	0.08055063
60	0xbd544185	-0.051820297
61	0x3dbb5c9b	0.091485225
62	0x3d3aff18	0.045653433
63	0xbcb973e5	-0.02263827
64	0x3cc12d3b	0.023581138
65	0x3d680646	0.056646608
66	0x3cbcad6a	0.023031909
67	0x3d0a88b2	0.03382177
68	0x3d4f92bf	0.050677057
69	0x3cc27e98	0.023742005
70	0xbd08ede7	-0.033430006
71	0xbca1fdbb	-0.019774308
72	0x3d6f0e57	0.058363285
73	0xbc322c9d	-0.010874894
74	0x3c68247c	0.014168855
75	0x3d9872f8	0.074438035
76	0xbd71bb0c	-0.059016272
77	0xbc98f47f	-0.018671272
78	0x3c05d546	0.008168524
79	0xbd0f1b83	-0.034938347
80	0x3dbd9bc7	0.09258228
81	0x3c81f867	0.015865518
82	0x3d301359	0.0429872
83	0xbd177d4a	-0.03698472
84	0xbc8333b3	-0.016015863
85	0x3d2ac929	0.041695748
86	0xbb8ecc88	-0.004357878
87	0x3d5b5a41	0.05355287
88	0x3d7493e1	0.05971134
89	0x3bb8a9a5	0.0056354576
90	0x3d52098b	0.051278632
91	0xbda5f181	-0.08102704
92	0xbd8e854c	-0.06959018
93	0xbc9733db	-0.018457344
94	0xbbaa7a28	-0.0052025504
95	0x3d2ced4d	0.042218495
96	0x3d337ac7	0.04381826
97	0xbd265465	-0.04060783
98	0xbdbea318	-0.093084514
99	0x3db278db	0.087144576
100	0xbd6bd4c4	-0.057575956
101	0xbdcc13be	-0.09964703
102	0x3db26e58	0.08712453
103	0xbc15da9b	-0.009146358
104	0xbce4dcd9	-0.02793734
105	0x3dd58718	0.10426158
106	0x3db8926c	0.09012303
107	0xbd391c97	-0.04519328
108	0xbd1abb5b	-0.037776332
109	0x3c96e351	0.01841894
110	0xbd3adda9	-0.045621548
111	0xbd4af042	-0.049545534
112	0x3d73d36d	0.059527803
113	0x3d164c85	0.03669407
114	0x3d3e983f	0.046531912
115	0x3c96532b	0.018350204
116	0x3c76a1fd	0.015053269
117	0xbcc82d38	-0.024435624
118	0xbda672ce	-0.08127366
119	0xbca871ea	-0.020562131
120	0xbd948d06	-0.072534606
121	0xbd2b2135	-0.041779716
122	0xbc7feb44	-0.015620057
123	0xbc845dcc	-0.016158007
124	0xbca9e10a	-0.02073719
125	0xbcc8df38	-0.024520501
126	0x3d46dfe6	0.04855337
127	0xbde34d42	-0.1109872
128	0xbe114756	-0.14187369
129	0x3df871ae	0.12131058
130	0xbd0fbf04	-0.035094276
131	0xbe06109f	-0.13092278
132	0x3e049d59	0.12950648
133	0x3da20563	0.07911184
134	0xbd32bbb7	-0.04363605
135	0xbba7445e	-0.0051045856
136	0x3c09cead	0.008411092
137	0xbad22b7b	-0.0016034687
138	0xbb930e1a	-0.004487765
139	0xbd94e922	-0.07271029
140	0xbcd8f93a	-0.026486028
141	0xbd474bac	-0.04865615
142	0x3da661f1	0.081241496
143	0x3d07b2a0	0.033129334
144	0xbc5a19f7	-0.013311855
145	0xbab91609	-0.0014120947
146	0x3c14c539	0.009080225
147	0xbc57dfe2	-0.013175936
148	0xbda9d48c	-0.08292493
149	0xbc251a4e	-0.010077072
150	0xbb9c5e85	-0.00477201
151	0x3d800e79	0.062527604
152	0xbd1a59e5	-0.037683386
153	0xbe1aa915	-0.15103562
154	0xbd3ee7d4	-0.046607807
155	0xbd2db98f	-0.04241329
156	0xbbf4e028	-0.0074730106
157	0x3cdff796	0.027339738
158	0x3b2f7b54	0.002677639
159	0x3cab50a4	0.020912476
160	0xbc9b3de0	-0.018950403
161	0xbe17a7ab	-0.14810054
162	0x3db2564b	0.08707865
163	0x3c9a0277	0.018800003
164	0x3c972740	0.018451333
165	0x3dedd7cb	0.11613425
166	0xbcefcc52	-0.029272232
167	0x3ddbfb9b	0.10741349
168	0x3d35d00e	0.04438787
169	0x3ce5eeea	0.028068025
170	0x3c2dc38f	0.010605707
171	0x3b3c3fde	0.0028724591
172	0xbc63aa54	-0.01389559
173	0xbd1e80c8	-0.038697034
174	0x3dcad2de	0.09903501
175	0x3c87f763	0.016597455
176	0x399da317	0.00030066885
177	0xbd7c6975	-0.06162401
178	0xbc8c9f48	-0.017165795
179	0xbd1f7e49	-0.038938794
180	0x3d279760	0.040915847
181	0x3d9ceee4	0.07662752
182	0xbd43db6a	-0.04781667
183	0xbdcde1d1	-0.10052837
184	0xbdfd2f33	-0.12362518
185	0xbdfe555f	-0.12418627
186	0x3d662e41	0.056196455
187	0x3d908023	0.0705569
188	0xbad1b222	-0.0015998522
189	0xbd964f68	-0.07339364
190	0xbd2d79fa	-0.042352654
191	0x3dd5af39	0.10433812
192	0xbd165cd5	-0.036709625
193	0x3c99bc0b	0.018766424
194	0x3d4f2de5	0.050580878
195	0xbd59f2c8	-0.05321005
196	0xbdbd7e88	-0.092526495
197	0xbd2a9f2d	-0.041655708
198	0x3d2394b1	0.039936725
199	0x3c19db9a	0.009390736
200	0xbc2be955	-0.010492642
201	0xbc24031f	-0.01001051
202	0x3ccfb6a5	0.025355646
203	0x3d5ac0cc	0.05340652
204	0xbcd99ba5	-0.026563475
205	0x3d1ccbb6	0.03828021
206	0x3ad8e661	0.001654815
207	0xbd4c7750	-0.049918473
208	0x3d39d9ba	0.045373656
209	0xbd49edfe	-0.049299233
210	0xbca1b26c	-0.019738398
211	0x3d535d7f	0.051602837
212	0xbd34b62c	-0.044119045
213	0x3cba1bb2	0.022718284
214	0x3bda1a33	0.006655955
215	0xbc9ea6b9	-0.019366609
216	0xbd0e3717	-0.034720507
217	0xbcba88e1	-0.022770347
218	0xbd1a82bc	-0.037722334
219	0x3d9a1347	0.07523208
220	0x3d5fc775	0.054633576
221	0xbd132196	-0.035920702
222	0x3d69c533	0.05707283
223	0x3bad3b84	0.005286636
224	0x3c9aa948	0.018879548
225	0x3c11138c	0.008854758
226	0x3be5046b	0.006989052
227	0x3d2eae7c	0.04264687
228	0x3bd9c4e9	0.006645788
229	0xbc371424	-0.0111742355
230	0xbd8d2e78	-0.06893629
231	0x3899a826	7.3269286e-05
232	0xbd84d958	-0.064867675
233	0xbd95427b	-0.07288071
234	0xbd3e3bec	-0.046443865
235	0x3d133ea6	0.035948418
236	0xbd342e85	-0.043989677
237	0xbdf49a8b	-0.11943539
238	0xbd564174	-0.052308515
239	0xbddede68	-0.108822644
240	0xbd99efc6	-0.07516436
241	0x3c129272	0.008946048
242	0xbdc8b1a3	-0.097995065
243	0xbdc2ab22	-0.09505297
244	0xbddec4b1	-0.1087736
245	0xbd9dd1ad	-0.07706008
246	0xbc8cc8c3	-0.017185574
247	0xbe35dbba	-0.177596
248	0xbab4ebf1	-0.0013803226
249	0x3d5a142a	0.053241886
250	0xbdcf1438	-0.10111278
251	0xbd535a14	-0.051599577
252	0x3d3f2ddf	0.046674605
253	0xbc2e8a67	-0.010653115
254	0x3d1497bc	0.036277518
255	0x3d313a51	0.043268505

res1.conv1.bias f4 [32]
0	0xbd024244	-0.031801477
1	0x3d1b5f15	0.037932474
2	0x3c50bac4	0.012739841
3	0x3d209f06	0.039214157
4	0xbd21dff3	-0.039520215
5	0x3cb6bdbc	0.02230727
6	0x3d19ed3c	0.03757976
7	0x3ab38421	0.0013695994
8	0x3cd408b3	0.025883054
9	0xbd639a1a	-0.055566885
10	0x3a13939e	0.00056296017
11	0x3d2a99ac	0.04165046
12	0xbd6f1919	-0.058373544
13	0xbc88e6d9	-0.01671164
14	0x3b6fdd57	0.0036600435
15	0xbd521a76	-0.051294766
16	0x3b1fdb4f	0.0024392193
17	0xbcc04d17	-0.02347426
18	0xbd6f0472	-0.05835385
19	0x3c935983	0.017987018
20	0xbc231666	-0.009954071
21	0xbd311eee	-0.043242387
22	0x3d4c5394	0.049884394
23	0xbc3ed81b	-0.011648203
24	0x3a0b66d0	0.00053177495
25	0xbcd8391a	-0.026394416
26	0xbd50d21f	-0.050981637
27	0xbcc97107	-0.024590028
28	0xb9e25d1b	-0.00043175448
29	0xbcd25acc	-0.025678061
30	0x3c1cd2d9	0.009571754
31	0xbca92dac	-0.02065166

res2.conv0.weight f4 [32, 32, 3, 3]
0	0x3dbfe0a2	0.09369017
1	0x3e038be0	0.12846327
2	0xbc8d4112	-0.017242942
3	0x3dac6cdb	0.084192
4	0x3d135287	0.035967376
5	0xbcce919f	-0.025215922
6	0x3d433169	0.047654543
7	0xbc117511	-0.008878008
8	0x3c5128d1	0.012766079
9	0xbd8e4b80	-0.06947994
10	0x3cb004e3	0.021486705
11	0xbce00468	-0.027345851
12	0x3cc81e45	0.024428496
13	0x3bb24657	0.005440514
14	0x3d253018	0.04032907
15	0xbd0ccead	-0.03437679
16	0x3d38b2e6	0.045092486
17	0x3c8c410e	0.017120864
18	0xbd1069f9	-0.035257313
19	0x3cc8756f	0.02447006
20	0xbd304567	-0.043034937
21	0xbcda12cf	-0.026620297
22	0xbccaedb6	-0.024771553
23	0x3afd513c	0.0019326578
24	0x3d7c4b63	0.061595332
25	0xbd296fe1	-0.04136646
26	0x3d3b96b8	0.045798033
27	0xbd3d89a2	-0.046273835
28	0xbc5ce8a5	-0.013483201
29	0x3ccf8130	0.025330156
30	0x3cebaaa1	0.028767886
31	0x3c83192b	0.016003212
32	0xbc9ecb44	-0.019384034
33	0xbc68a31d	-0.0141990455
34	0xbb8310bf	-0.003999799
35	0xbd82afd5	-0.063811935
36	0x3cf6a464	0.030107684
37	0x3d50302c	0.05082719
38	0x3d472099	0.048615072
39	0xbd30d205	-0.04316904
40	0xbcca142d	-0.024667824
41	0x3d1f2204	0.0388508
42	0x3cd42a7c	0.025899164
43	0x3d7e3edb	0.062071662
44	0x3d72f789	0.0593181
45	0xbd4958fb	-0.049157124
46	0x3d8b2057	0.06793278
47	0x3dc2d81c	0.09513876
48	0x3d37e622	0.044897206
49	0x3db3c861	0.087784536
50	0xbb8fc7e8	-0.0043878444
51	0x3c930f36	0.01795159
52	0x3c3b211b	0.011421467
53	0x3d477b43	0.048701536
54	0x3b912c2e	0.0044303155
55	0x3b953c25	0.004554289
56	0xbc5a9ddf	-0.013343303
57	0xbd8701d8	-0.065921485
58	0x3c07dae8	0.008291937
59	0xbd455505	-0.048176784
60	0xbd11d3c6	-0.035602354
61	0xbc6ee0e5	-0.014579986
62	0x3c387c7d	0.011260149
63	0x3d1781d5	0.03698905
64	0x3cebc97f	0.028782604
65	0xbd545307	-0.051836994
66	0x3cdc6000	0.026901245
67	0x3da8dd7c	0.0824537
68	0x3b2b28b1	0.0026116783
69	0x3c191a88	0.009344704
70	0x3d9f4a6f	0.07777869
71	0xbb145284	-0.002263219
72	0xbd48c1b8	-0.04901287
73	0x3cba401b	0.022735646
74	0xbb5aa393	-0.0033361658
75	0xbd58c712	-0.052924223
76	0x3cbf5c52	0.023359451
77	0xbd51edcb	-0.051252168
78	0x3c2fa64d	0.010720802
79	0x3cd52251	0.02601734
80	0xbd94bc87	-0.07262521
81	0xbd0c4ec8	-0.03425482
82	0xbc40a644	-0.011758391
83	0xbbd9083d	-0.0066232965
84	0xbd852873	-0.06501856
85	0xbcd73f9c	-0.026275449
86	0x3d1eba2a	0.03875176
87	0x3bf0401e	0.007331862
88	0x3ce6c442	0.028169755
89	0x3cf4d13f	0.029884933
90	0xbce35244	-0.027749188
91	0xbda3181d	-0.079635836
92	0xbd216921	-0.0394069
93	0xbcb85f8d	-0.0225065
94	0xbcaa5116	-0.020790618
95	0xbcdccd1a	-0.026953269
96	0x3c2daa62	0.010599704
97	0xb92400e1	-0.00015640586
98	0x3d0747d1	0.033027474
99	0xbce6d107	-0.028175844
100	0xbd613cb1	-0.05498952
101	0x3aee07be	0.0018160266
102	0x3d0c1d98	0.03420791
103	0xbbd6086d	-0.006531766
104	0xbbb56adb	-0.00553642
105	0x3c1b63f8	0.009484284
106	0xbc49ef11	-0.012325064
107	0xbc0e8629	-0.008698978
108	0x3cecc547	0.028902663
109	0xbd6c014f	-0.057618435
110	0xbd96edb0	-0.07369554
111	0xbd6ea4ed	-0.058262754
112	0xbcd9010c	-0.026489757
113	0xba0d0789	-0.0005379846
114	0xbd377e2c	-0.04479806
115	0xbd81a6ae	-0.0633062
116	0xbd218e60	-0.03944242
117	0x3d431cc6	0.047634862
118	0x3dd3cb97	0.10341566
119	0x3d53e93c	0.0517361
120	0x3d2fb02e	0.042892627
121	0x3dae9ecc	0.08526382
122	0xbd81645b	-0.063179694
123	0x3d20c01b	0.039245706
124	0xbd948d2b	-0.07253488
125	0xbaa1690e	-0.0012314634
126	0xbd73f6dd	-0.0595616
127	0xbce53309	-0.027978437
128	0xbc94ca62	-0.01816291
129	0xbd3d4649	-0.046209607
130	0xbd56da91	-0.052454535
131	0xbc3992f1	-0.0113265375
132	0xbd4ec6eb	-0.05048267
133	0xbd9289b9	-0.07155175
134	0xbca79588	-0.020457044
135	0x3baa73ad	0.005201778
136	0x3d11b6ef	0.03557485
137	0x3dd5b584	0.10435012
138	0xbd72e6b6	-0.059302054
139	0xbcad1095	-0.021126071
140	0x3c3f933e	0.01169282
141	0x3ac0d946	0.001471319
142	0xbd19b91a	-0.037530042
143	0x3d304f19	0.043044183
144	0x3d019002	0.031631477
145	0xbd82b18c	-0.06381521
146	0x3c445802	0.011983873
147	0x3d24354b	0.040089887
148	0x3cb81aa3	0.022473639
149	0x3c0e98ad	0.008703393
150	0xbc58a9f0	-0.01322411
151	0x3dc5cbd7	0.0965802
152	0x3d9cd24a	0.07657297
153	0xbd9ba02a	-0.07598908
154	0xbd8e7955	-0.06956736
155	0xbd70cafd	-0.058787335
156	0xbd604f85	-0.054763336
157	0x3cf53c90	0.029936105
158	0x3d05fa56	0.032709442
159	0x3b8d0fad	0.004304847
160	0xbcfda6c7	-0.030963315
161	0x3d0cdf50	0.034392655
162	0x3d4e7304	0.050402656
163	0xbb93f126	-0.004514831
164	0xbcadc79e	-0.021213349
165	0x3b3c72bb	0.0028754908
166	0x3ce871a3	0.028374499
167	0xbcd5e232	-0.026108835
168	0x3d42ec07	0.047588374
169	0xba232764	-0.0006223826
170	0xbd951af7	-0.07280534
171	0xbd58bd88	-0.052915126
172	0xbacf665e	-0.0015823354
173	0xbc861147	-0.01636566
174	0x3cd09f82	0.025466684
175	0xbcda750d	-0.026667142
176	0xbd1f9ed0	-0.038969815
177	0xbd222b17	-0.039591875
178	0xbc94955f	-0.018137632
179	0x3d87b78f	0.06626808
180	0xbc1d1041	-0.009586395
181	0x3b734c0c	0.0037124185
182	0x3e2089c8	0.1567756
183	0x3ccf4d3e	0.025305387
184	0x3da358f9	0.079759546
185	0x3dfb3a00	0.12266922
186	0x3d4849f5	0.048898656
187	0x3d14bfe8	0.03631583
188	0x3dd188c3	0.10231163
189	0xbb6ac3a2	-0.0035822173
190	0x3d537fde	0.051635616
191	0x3cf568fe	0.02995729
192	0xbda39810	-0.07987988
193	0xbd52d2d7	-0.051470604
194	0x3be4a8f6	0.0069781495
195	0xbc6075f6	-0.013699999
196	0xbd2bd25d	-0.041948665
197	0xbcb58498	-0.022157952
198	0x3c7601ac	0.015015047
199	0x3da051fd	0.07828138
200	0xbcdd3f8a	-0.027007837
201	0xbca4025d	-0.020020658
202	0x3d6fe477	0.05856749
203	0x3be7b6b3	0.00707134
204	0xbcb9d8e8	-0.022686437
205	0xbcaf8f2b	-0.021430572
206	0x3d51444f	0.051090535
207	0xbd1651b6	-0.03669902
208	0xbd3401c6	-0.043947004
209	0xbb47cf6c	-0.0030488623
210	0xbd6474bb	-0.055775385
211	0xbd8715f5	-0.06595985
212	0xbdcaaeaf	-0.098965995
213	0xbcbad5f3	-0.022807097
214	0xbdbef7c3	-0.093246005
215	0xbd30b9e5	-0.043146033
216	0xbda6c78b	-0.081435286
217	0x3d5ee2cd	0.054415513
218	0xbd4b1d70	-0.04958862
219	0x3ca28246	0.01983751
220	0x3cddf0d3	0.027092373
221	0x3c750c70	0.014956579
222	0x3bb30b0a	0.0054639624
223	0xbd7f99c5	-0.062402505
224	0xbd3eb9e5	-0.046564
225	0x3d586abf	0.052836176
226	0x3d737b3d	0.0594437
227	0x3b8c2a76	0.0042775227
228	0x3d1533d1	0.03642637
229	0x3e02231d	0.12708707
230	0x3dd33eb8	0.10314697
231	0x3d028432	0.031864353
232	0x3da75e30	0.08172262
233	0x3c1ba0bb	0.00949877
234	0xbb6c6bdc	-0.0036075031
235	0x3dddaca2	0.10823943
236	0x3e2283cd	0.1587059
237	0xbbd42899	-0.006474566
238	0x3e1170ef	0.14203237
239	0x3dabce61	0.08388973
240	0x3c6c4b88	0.014422305
241	0xbca51b7b	-0.020154705
242	0xbaa762c7	-0.0012770527
243	0x3dd39fdd	0.10333226
244	0x3d413e27	0.047178414
245	0xbd2d0218	-0.042238325
246	0xbc4ade1d	-0.0123820575
247	0x3d437da5	0.047727246
248	0x3d0697fb	0.032859784
249	0x3b918dd9	0.0044419584
250	0xbb6ee0a9	-0.0036449826
251	0x3d933603	0.07188036
252	0xbc382659	-0.011239612
253	0xbd065341	-0.03279424
254	0xbd50f081	-0.051010612
255	0x3d2f94fa	0.042866684

res2.conv0.bias f4 [32]
0	0x3d058b54	0.032603577
1	0xbbcfc913	-0.0063411086
2	0xbd3677ea	-0.044547953
3	0x3cebaed8	0.028769895
4	0x3c835cef	0.016035525
5	0x3c8d72a5	0.01726658
6	0xbd4e8b47	-0.050425794
7	0xbb36971a	-0.002786106
8	0x3d3a7cd6	0.04552921
9	0xbd433a51	-0.047663037
10	0x3c40281b	0.011728312
11	0xbbd1d628	-0.0064037032
12	0xbc1a9459	-0.009434783
13	0x3d62d12f	0.055375274
14	0xbcf43932	-0.02981243
15	0xbcc884aa	-0.024477322
16	0xbd0d83fd	-0.034549702
17	0x3d09ca40	0.033640146
18	0xbd0e98a6	-0.034813546
19	0xbd0d56c9	-0.034506593
20	0xbba45ee3	-0.005016194
21	0x3b95cec4	0.0045717675
22	0xbbb9e981	-0.005673588
23	0xbce438fb	-0.027859202
24	0x3d115dba	0.035489775
25	0x3ca68bf9	0.020330416
26	0xbc5cab1c	-0.01346853
27	0xbd025b11	-0.03182513
28	0x3ceb2219	0.028702782
29	0x3ca9b50c	0.020716213
30	0xbcd39dde	-0.025832113
31	0xbb8ad3ef	-0.0042366902

res2.conv1.weight f4 [32, 32, 3, 3]
0	0x3d3460a1	0.044037465
1	0x3d8ea9ae	0.069659576
2	0x3d564645	0.052313108
3	0xbcaf2c8e	-0.02138355
4	0x3b959c56	0.004565756
5	0x3d991716	0.074751064
6	0xbd20d3fc	-0.039264664
7	0x3d076026	0.03305068
8	0xbd803f6f	-0.06262099
9	0x3cbab367	0.022790624
10	0xbb0ff9a4	-0.0021968866
11	0xbc776706	-0.015100246
12	0xbb7e1259	-0.003876826
13	0x3cf5f7d3	0.030025398
14	0xbc66e7ed	-0.014093381
15	0xbb388330	-0.0028154366
16	0x3cbcbb11	0.023038419
17	0xbcf1d980	-0.029522657
18	0x3d952c45	0.07283834
19	0xbd5646a0	-0.052313447
20	0x3d516c81	0.051128868
21	0x3c4070dd	0.011745659
22	0x3b4a838d	0.0030901164
23	0xbc991d88	-0.01869084
24	0x3d217948	0.039422303
25	0xbc89d6ff	-0.016826151
26	0xbc563064	-0.013073061
27	0xbcf79f7a	-0.030227412
28	0x3c23e132	0.010002421
29	0xbd07457f	-0.03302526
30	0x3c272ba2	0.010203274
31	0x3d188dd2	0.037244625
32	0xbdc29dee	-0.09502779
33	0x3d1ad1d7	0.037797775
34	0xbcf27ab3	-0.029599523
35	0x3cf8b517	0.030359788
36	0x3d922bd4	0.07137266
37	0x3c935ca9	0.01798852
38	0xbd3a5a92	-0.04549653
39	0xbc81e885	-0.015857944
40	0xbd247f04	-0.040160194
41	0x3c3e8651	0.011628703
42	0xbd3e75e8	-0.046499163
43	0xbd929dcd	-0.07159004
44	0xbc40d2dc	-0.011769023
45	0x3ca463ed	0.02006718
46	0x3cde0800	0.027103424
47	0xbd22c780	-0.03974104
48	0x3d047316	0.032336317
49	0x3c7cea16	0.01543667
50	0xbd974508	-0.073862135
51	0xbd279f3a	-0.040923335
52	0xbd56f43b	-0.05247901
53	0xbd73ba61	-0.059503917
54	0x3d8b1d8f	0.06792747
55	0xbc128182	-0.00894201
56	0x3c39d50c	0.011342298
57	0x3c59a8fa	0.013284916
58	0xbd1b8d60	-0.037976623
59	0xbcae16f8	-0.021251187
60	0xbce2812a	-0.02764948
61	0xbd8d6612	-0.06904234
62	0xbdb2be3a	-0.08727689
63	0x3dd74e4c	0.10512981
64	0x3b824ffa	0.003976819
65	0xbd102406	-0.035190605
66	0xbaa7ba9b	-0.0012796702
67	0xbdfec052	-0.12439026
68	0xbdc4798b	-0.09593495
69	0x3d74f2b5	0.059801776
70	0x3bb6b82d	0.0055761547
71	0x3d1888c8	0.03723982
72	0x3d12eb73	0.035869073
73	0xbc8a6ae6	-0.016896676
74	0xbd17dd15	-0.037076075
75	0x3cd8f204	0.02648259
76	0xba920ef5	-0.0011143374
77	0x3d19d98c	0.037560984
78	0xbcb4361e	-0.021998461
79	0xbb86a045	-0.004108461
80	0x3db6700a	0.089080885
81	0xbd83a1fb	-0.0642738
82	0x3d27f1f4	0.04100223
83	0xbcfa07b7	-0.030521257
84	0xbd4be4f1	-0.049778882
85	0x3cb5190a	0.022106666
86	0x3c347bf9	0.0110158855
87	0xbd497477	-0.049183335
88	0xbd94aa17	-0.072590046
89	0xbc532f0a	-0.012889633
90	0xbd0d8c05	-0.03455736
91	0x3a2ec156	0.00066663825
92	0xbd593f9f	-0.05303919
93	0x3804d124	3.166603e-05
94	0x3d1bce3c	0.038038477
95	0x3d2c5a9e	0.042078607
96	0xbce680ac	-0.028137527
97	0xbd70a74a	-0.05875329
98	0xbcbfe555	-0.023424784
99	0x3bc8794f	0.0061179767
100	0x3b254160	0.0025215968
101	0xbd833587	-0.06406694
102	0xbcc76bf6	-0.024343472
103	0xbc8a73d1	-0.016900929
104	0xbd2f7738	-0.042838305
105	0x3dcfc45b	0.10144874
106	0xbcb2138c	-0.021737836
107	0xbc3067b0	-0.0107669085
108	0xbc1ecbdf	-0.009692161
109	0x3d614c1d	0.055004228
110	0x3d11c197	0.035585012
111	0x3dbc224f	0.09186231
112	0x3c114674	0.008866895
113	0x3cb11569	0.021616654
114	0x3d5af5eb	0.053457182
115	0xbcfb2413	-0.03065685
116	0x3d084b33	0.03327484
117	0xbd269eb4	-0.040678695
118	0xbd3bfc82	-0.045895107
119	0x3cc737f5	0.024318675
120	0x3ccd9e1f	0.025099812
121	0xbd385e45	-0.045011777
122	0xbd5f43ab	-0.054507893
123	0xbd5bae0d	-0.053632785
124	0x3c1b03bd	0.0094613405
125	0x3d88729f	0.06662487
126	0x3d178a4f	0.036997136
127	0x396bb655	0.0002247927
128	0xbd464262	-0.04840315
129	0x3a862862	0.0010235424
130	0x3d0edc44	0.03487803
131	0x3d5b6a0f	0.053567942
132	0x3cd8f437	0.026483638
133	0x3d4ab412	0.049488135
134	0x3c85c492	0.016329084
135	0x3bef41d9	0.007301551
136	0xbbe7f8df	-0.0070792283
137	0x3dd76784	0.10517791
138	0xbd7c7fad	-0.0616452
139	0x3d893304	0.066991836
140	0xbd7b34da	-0.0613297
141	0x3d82ee51	0.063931115
142	0x3dc946c1	0.09827948
143	0x3caad0b9	0.02085148
144	0xbc4621c2	-0.012093009
145	0xbc54e143	-0.01299316
146	0x3db878b5	0.09007398
147	0xbd3703fa	-0.044681527
148	0xbe11cc3f	-0.1423807
149	0xbd191f4d	-0.037383366
150	0x3d973504	0.07383159
151	0xbe171bb2	-0.14756659
152	0xbe04e90a	-0.12979522
153	0x3d44f542	0.04808546
154	0xbd1c201b	-0.038116556
155	0x3c3d5ee6	0.01155827
156	0xbd8ceae9	-0.06880743
157	0xbcb44fa7	-0.022010637
158	0xb9ad7cef	-0.00033090214
159	0xbd63ce47	-0.055616643
160	0x3c3f59b2	0.0116791
161	0xbd6d24ce	-0.057896428
162	0xbd1b9a7d	-0.03798913
163	0xbc292beb	-0.010325412
164	0x3d7046df	0.058661338
165	0xbd568409	-0.052372012
166	0xbde983aa	-0.11402066
167	0x3d1fb270	0.03898853
168	0x3c78223a	0.015144879
169	0xbd4f4689	-0.050604377
170	0x3c7b995f	0.015356391
171	0xbd97841b	-0.07398244
172	0x3c2fe68a	0.010736117
173	0x3d2a64fc	0.041600212
174	0x3d19cb63	0.03754748
175	0x3d09c7f0	0.03363794
176	0xbd7fc32f	-0.062442
177	0x3cc28d8c	0.023749135
178	0xbd4a8469	-0.049442682
179	0xbd3a153e	-0.045430414
180	0xbd0663c5	-0.03280999
181	0x3b8f21ec	0.0043680575
182	0xbd65b278	-0.056078404
183	0x3cc43418	0.023950621
184	0xbc88064b	-0.016604563
185	0x3d4b85b6	0.049688064
186	0xbd413c37	-0.047176566
187	0xbb8b49d3	-0.004250744
188	0xbd1f8c4a	-0.03895215
189	0xbc8d845f	-0.017275034
190	0xbd2bd42a	-0.041950382
191	0x3cca39c2	0.024685744
192	0xbbb8d924	-0.0056411196
193	0xbd09dc82	-0.03365756
194	0x3c52221a	0.012825513
195	0xbd144bc9	-0.036205087
196	0xbb07d61c	-0.0020726984
197	0x3cf47587	0.029841198
198	0x3d39806b	0.045288485
199	0x3cebca8a	0.028783102
200	0x3ccc68f8	0.024952397
201	0xbcdd6a57	-0.027028246
202	0xbd25cbdc	-0.04047762
203	0xbd89f784	-0.06736663
204	0xbaa90a1e	-0.0012896692
205	0xbd705a73	-0.05868001
206	0xbd0befe6	-0.03416433
207	0xbdaa2a3e	-0.08308838
208	0xbe1328fb	-0.14371102
209	0xbc534de9	-0.012896993
210	0x3d493abe	0.049128287
211	0xbc8ee111	-0.017441304
212	0xbda037fb	-0.078231774
213	0x3d66707c	0.056259617
214	0x3d227b0a	0.03966812
215	0x3d7447c4	0.059638754
216	0xbcfa8fa6	-0.030586075
217	0x3d732b67	0.059367564
218	0x3daf0734	0.08546296
219	0xbcc82a33	-0.024434185
220	0x3d9df906	0.07713513
221	0x3cf3a978	0.029743895
222	0x3d1a0e44	0.03761126
223	0xbc642f29	-0.0139272595
224	0x3d2212e8	0.03956881
225	0xbc274d0a	-0.010211239
226	0x3d768e63	0.060194384
227	0x3cc5eded	0.024161303
228	0x3da79efa	0.08184619
229	0x3ccefd0f	0.025267152
230	0x3d42f8bf	0.047600504
231	0xbab0b4de	-0.0013481637
232	0x3d0d8697	0.034552183
233	0xbcc35c18	-0.023847625
234	0x3d0614ae	0.032734565
235	0x3d3cf348	0.04613045
236	0xbbff0ac8	-0.0077832676
237	0xbd142d04	-0.036175743
238	0xbc099eb6	-0.008399656
239	0x3d724f20	0.05915749
240	0xbd196ed5	-0.037459213
241	0x3c8a2e58	0.016867802
242	0x3d2ed677	0.042685
243	0xbd897ecf	-0.0671364
244	0xbd10b805	-0.035331745
245	0xbdfd9884	-0.12382606
246	0x3d51883a	0.051155306
247	0x3b77f723	0.0037836514
248	0xbc25fa81	-0.010130526
249	0xbd035346	-0.032061838
250	0xbd27deec	-0.04098408
251	0x3d010daf	0.03150719
252	0xbca658ea	-0.02030607
253	0xbd1391fa	-0.036027886
254	0x3c0cb0ed	0.008587104
255	0xbcc8ad79	-0.02449678

res2.conv1.bias f4 [32]
0	0x3ba03a96	0.0048897965
1	0xbd44c9cd	-0.048044015
2	0xbb1ea0e9	-0.0024204797
3	0xbc42f3c2	-0.011898937
4	0xbd4ad0ed	-0.049515653
5	0x3cacc424	0.02108962
6	0x3cfe4551	0.031038912
7	0xbd3ccff6	-0.046096765
8	0xbc82d6e4	-0.015971608
9	0xbbb553ea	-0.005533685
10	0x3b61a716	0.0034431866
11	0x3d208331	0.039187614
12	0xbd65a05c	-0.056061134
13	0x3d3c0268	0.045900732
14	0x3d4276ca	0.047476567
15	0x3d1198dc	0.03554617
16	0xbbbf3d00	-0.005836129
17	0xbb99a05f	-0.004688307
18	0x3c1c4083	0.009536865
19	0xbcdd3e0c	-0.027007125
20	0xbd02a0bb	-0.031891566
21	0xbd15d0cb	-0.036576074
22	0xbd245a92	-0.040125437
23	0xbd0d388a	-0.034477748
24	0x3d22e6cb	0.039770883
25	0xbcf895e1	-0.030344905
26	0x3d062aa4	0.03275551
27	0xbc8c6330	-0.01713714
28	0xbce375c2	-0.027766112
29	0xbd58ea0e	-0.052957587
30	0xbcc4a496	-0.024004262
31	0xbd688d7d	-0.05677556
