weights/model_epoch_lagconv630.pth (torch, 679460 bytes, 141 tensors)

raise_dim.0.weight f4 [32, 9, 3, 3]
-0.36512178 -0.25643113 0.023122868 -0.11710647 -0.0052653826 -0.11310534 -0.041695878 -0.0075670765
0.16727334 -0.3892893 -0.33252144 -0.11928807 -0.074558295 -0.3398628 -0.3217057 -0.051528186
-0.124990754 0.15726535 -0.30670628 -0.24109186 0.035287857 -0.0217761 -0.28505692 -0.06052296
0.11839622 0.19004008 0.12604147 -0.16906565 -0.14993736 0.16903517 -0.1232931 -0.16687508
0.07023862 0.074332066 0.18641743 0.30603814 -0.2747798 -0.2964006 -0.09659877 0.06533807
-0.09626697 0.0060373438 0.45891073 0.26254445 0.20058443 -0.14633864 -0.06832019 0.19122173
-0.23545994 -0.11007964 0.12609152 -0.15589486 -0.036990475 0.18637733 -0.030712377 -0.024462689
0.11513854 -0.17274587 0.0331244 0.17958888 0.25757545 0.14229472 0.2889538 -0.16284455
-0.050503973 0.1424796 -0.35217354 -0.10925864 0.08295554 -0.13505338 -0.1043056 0.0034482686
0.058484443 0.13481939 0.2977493 -0.07628536 -0.056121122 0.09025789 0.23860243 0.112940095
0.2725424 -0.12778878 0.035838857 0.08108107 -0.093056865 -0.45227867 -0.12308247 -0.17860422
-0.07757262 0.09925481 0.07707648 -0.0711401 0.13295391 -0.031850487 0.08743887 0.05685902
-0.008371677 -0.11556983 -0.042137485 0.011505612 0.073198825 0.00041846925 0.14891668 0.12427737
-0.0016017265 0.005452402 0.04608559 0.16065532 0.13379163 0.1019751 0.072633535 0.062423114
0.09172557 0.11768249 0.09404347 0.049514897 0.20954168 -0.041602835 -0.04444847 0.09258643
0.18445094 0.23551996 0.12294833 0.058321267 0.05415745 0.1837268 0.030621607 0.048433837
-0.085095465 0.09042856 0.08846294 0.050546944 -0.0028038486 0.021491706 0.072161905 0.22518313
0.22492656 0.116883084 0.23158114 0.3733677 0.33981273 0.08601089 0.15252139 0.23561107
-0.13373668 -0.1142014 -0.24188337 0.03616075 -0.046494447 -0.0006684096 -0.030185226 0.106065996
-0.06684766 -0.12494654 -0.0031042995 -0.044699274 -0.10102436 -0.027926013 -0.057543874 -0.019548483
-0.09244122 -0.024134314 -0.19084501 -0.2790145 0.2566519 -0.38806602 -0.44507167 -0.046717282
-0.10354462 0.106105305 0.08821131 0.032830592 -0.010028888 -0.15892814 0.034813043 0.036800686
-0.15899959 -0.07041693 -0.048929036 -0.13710156 0.0054156817 -0.05296794 -0.19699433 -0.02816754
-0.115115464 -0.21177606 -0.020570736 -0.008997529 -0.17954147 0.16426852 -0.0031885267 -0.14911981
-0.018662078 -0.13181438 -0.19947183 0.06726728 -0.1584436 -0.12448589 0.15180159 0.24156986
0.0381326 0.18150237 0.3048822 0.1212476 0.0015970619 0.08667751 -0.03345791 0.03627961
0.24605832 -0.011460991 -0.107018545 0.023976788 -0.04963016 0.08315954 -0.070117466 -0.039825164
0.044404358 0.23181511 -0.107713886 0.023415318 0.057800144 -0.046589855 0.10972414 0.034114584
0.11244472 0.1409946 0.21835688 0.02259669 -0.11045361 0.10225922 -0.028319381 0.060437154
0.046888486 -0.02643212 0.00246025 0.13827875 -0.07050221 -0.171305 -0.059603892 -0.16306634
0.060291607 -0.13216144 -0.10302525 -0.02770046 0.12550053 0.07122192 0.2707245 -0.2996764
0.14111371 -0.21047257 0.20170839 -0.06700552 0.007050327 0.12609039 0.049305536 -0.066941835
00000000: 3ef1 babe f14a 83be 2b6c bd3c 84d5 efbd
00000010: 3b89 acbb c6a3 e7bd 4cc9 2abd 3df5 f7bb
00000020: b449 2b3e ed50 c7be 4040 aabe 4e4d f4bd
00000030: 05b2 98bd 7f02 aebe 9cb6 a4be 380f 53bd
00000040: 27fb ffbd 2b0a 213e 9b08 9dbe c9e0 76be
00000050: 008a 103d cb63 b2bc fbf2 91be ece6 77bd
00000060: b879 f23d de99 423e 0411 013e 8c1f 2dbe
00000070: 2e89 19be 8e17 2d3e 1881 fcbd 4de1 2abe
00000080: 44d9 8f3d 693b 983d 36e4 3e3e 08b1 9c3e
00000090: f0af 8cbe d2c1 97be 93d5 c5bd f7cf 853d
000000a0: 9e27 c5bd e9d4 c53b 59f6 ea3e 3a6c 863e
000000b0: 0166 4d3e ccd9 15be 75eb 8bbd a1cf 433e
000000c0: 691c 71be 6f71 e1bd 231e 013e e7a2 1fbe
000000d0: 5383 17bd b3d9 3e3e 8698 fbbc fa65 c8bc
000000e0: c1cd eb3d 4be4 30be 73ad 073d 26e6 373e
000000f0: eee0 833e b5b5 113e c1f1 933e b9c0 26be
00000100: 41dd 4ebd 2ce6 113e 1750 b4be fec2 dfbd
00000110: 98e4 a93d 6f4b 0abe 2d9e d5bd 59fc 613b
00000120: 628d 6f3d 180e 0a3e 9972 983e 803b 9cbd
00000130: 43df 65bd 21d9 b83d 3254 743e 234d e73d
00000140: ad8a 8b3e 10db 02be c4cb 123d d50d a63d
00000150: 9994 bebd 1291 e7be a912 fcbd 06e4 36be
00000160: 65de 9ebd 1b46 cb3d 46da 9d3d e7b1 91bd
00000170: 1225 083e a875 02bd 2613 b33d 01e5 683d
00000180: 5c29 09bc e0af ecbd 5b98 2cbd 0982 3c3c
00000190: 44e9 953d fe65 db39 9d7d 183e 2285 fe3d
000001a0: 06f1 d1ba 10aa b23b 3ec4 3c3d d482 243e
000001b0: ac00 093e 52d8 d03d e4c0 943d 61af 7f3d
000001c0: 9eda bb3d 8403 f13d dd99 c03d 22d0 4a3d
000001d0: 1892 563e bc67 2abd 990f 36bd f49d bd3d
000001e0: b5e0 3c3e 252c 713e 56cc fb3d 48e2 6e3d
000001f0: 34d4 5d3d e122 3c3e 2ada fa3c 8f62 463d
00000200: 8846 aebd 9c32 b93d 0f2c b53d 500a 4f3d
00000210: c6c0 37bb 600f b03c 9fc9 933d 6896 663e
00000220: 2653 663e 6660 ef3d 9b23 6d3e 0d2a bf3e
00000230: effb ad3e 7a26 b03d 912e 1c3e 0744 713e
00000240: 45f2 08be 6ce2 e9bd 46b0 77be 4b1d 143d
00000250: f670 3ebd 3538 2fba 0247 f7bc 2139 d93d
00000260: 6de7 88bd f9e3 ffbd 8171 4bbb 9616 37bd
00000270: dce5 cebd 18c5 e4bc 20b3 6bbd 2424 a0bc
00000280: d351 bdbd 53b5 c5bc e06c 43be fdda 8ebe
00000290: e167 833e 97b0 c6be 6fe0 e3be 9f5a 3fbd
000002a0: 340f d4bd bd4d d93d 22a8 b43d 5f79 063d
000002b0: 3450 24bc 0fbe 22be 1f98 0e3d 51bc 163d
000002c0: cad0 22be c036 90bd d069 48bd 5a64 0cbe
000002d0: 0876 b13b e9f4 58bd e2b8 49be 9dbf e6bc
000002e0: a8c1 ebbd d3db 58be f683 a8bc 5f6a 13bc
000002f0: b8d9 37be 0236 283e 9af6 50bb ddb2 18be
00000300: 37e1 98bc 59fa 06be 5842 4cbe 6dc3 893d
00000310: 0a3f 22be 75f2 febd e071 1b3e 175e 773e
00000320: ee30 1c3d c2db 393e 8519 9c3e a950 f83d
00000330: 8154 d13a fa83 b13d 290b 09bd ee99 143d
00000340: b6f6 7b3e e1c6 3bbc 8a2c dbbd f86a c43c
00000350: ff48 4bbd 8d4f aa3d bf99 8fbd b61f 23bd
00000360: 58e1 353d f160 6d3e 1999 dcbd 7bd1 bf3c
00000370: d8bf 6c3d 01d5 3ebd 0db7 e03d bcbb 0b3d
00000380: 6b49 e63d e360 103e f298 5f3e b21c b93c
00000390: 8135 e2bd 486d d13d 0cfe e7bc f38c 773d
000003a0: 240e 403d 2c88 d8bc 253c 213b f298 0d3e
000003b0: 7663 90bd 946a 2fbe 3623 74bd ddfa 26be
000003c0: 55f4 763d 5455 07be e7fe d2bd 13ec e2bc
000003d0: 3683 003e ccdc 913d 679c 8a3e 2f6f 99be
000003e0: 1d80 103e 1f86 57be a58c 4e3e 313a 89bd
000003f0: 6e06 e73b d71d 013e 9af4 493d cd18 89bd

raise_dim.0.attention1.0.weight f4 [9, 9, 3, 3]
-0.026440527 0.1307835 0.081633165 0.35297042 -0.74857914 0.17075162 -0.036016878 0.21385321
-0.1551599 -0.21355785 -0.14351021 -0.1176085 -0.13636169 -0.21194187 -0.19603975 -0.036904372
-0.016089156 -0.06591047 0.014997799 -0.044845887 -0.05841567 -0.105788454 -0.06304145 -0.107728675
-0.05044576 -0.010079434 0.011575264 0.07381773 -0.086334206 0.108946905 0.11623533 0.21506058
0.15235867 -0.076386645 -0.019531198 -0.0048132106 -0.095256634 -0.16496158 -0.050507516 -0.21172002
-0.024122449 -0.19549133 -0.009278603 -0.045848195 -0.13547638 -0.07046236 -0.09638367 0.025793385
-0.03540854 0.09104493 -0.02367461 -0.108071454 0.11984267 -0.01230268 -0.063210346 -0.0016043356
-0.07697112 -0.15530558 0.045147166 -0.018353509 -0.23083667 -0.033909786 -0.039262712 0.041274462
0.0017929611 0.124129385 0.037848018 0.21158281 0.1675641 -0.14282393 0.15149595 0.15649511
0.2637894 0.30185318 0.20533943 0.29464543 0.39046016 0.21928981 0.0083939005 0.22753286
-0.028586034 -0.040257204 0.13434432 0.028718991 0.17188781 -0.43409944 0.1488107 -0.059003185
0.25561032 0.00083476125 -0.26896903 -0.4024684 -0.21741748 -0.32527152 -0.4815634 -0.42474708
-0.1895736 -0.25576246 -0.31488973 0.06975184 0.14625233 0.05964008 0.18504494 0.08579107
-0.044519134 0.062302124 0.20219195 0.059656743 0.25278914 0.122482985 0.14963777 0.24610563
0.19839734 0.026611267 0.13732313 0.1871781 0.17820224 -0.07647746 -0.28391817 -0.1766765
-0.29237717 -0.28883925 -0.09747871 -0.22378188 -0.125223 -0.18770443 -0.055449285 -0.03701025
0.055344712 0.1664402 -0.04527422 0.06840352 0.11410365 0.09990527 0.096899614 -0.092949174
-0.16369984 -0.20252569 -0.23326616 -0.32287213 -0.26580524 -0.22331934 -0.30767566 -0.16517597
0.12282326 0.014463011 0.06451399 0.1549513 0.17288944 0.19009684 -0.011088095 0.17367917
0.098137416 0.07865756 0.008785362 -0.06186071 -0.021427244 0.038742576 0.0765359 -0.12189268
-0.09539619 0.0071731913 -0.5892021 0.30099958 -0.3937009 0.44900715 0.5020267 0.30703527
-0.15648875 0.12572244 -0.16054383 -0.82781804 -0.13811731 -0.06687392 -0.4865512 -0.18129218
-0.25625545 -0.5978088 -0.26536673 -0.20246996 -0.35741788 -0.037616786 -0.053187273 0.08614866
0.027364586 0.1567539 -0.24357086 -0.08310254 -0.09275949 -0.070040315 0.1339296 0.09824131
0.34110883 0.24650677 0.27263945 -0.037821528 0.1695768 0.11637893 -0.19892022 -0.10182891
0.16625527 -0.09165789 0.011617313 -0.067823306 -0.13942899 -0.07085142 -0.08126644 -0.15070516
-0.34116858 -0.12903234 0.2544324 -0.11521293 -0.12977123 -0.008968569 -0.111982144 -0.038037032
-0.120028935 -0.0783815 0.011118712 0.22084832 -0.05842147 0.08662509 -0.15962791 -0.093942404
-0.03938037 -0.07691652 -0.19424002 -0.07644902 0.3066456 0.082732126 -0.07128985 -0.0692749
0.089931175 -0.14004849 -0.273656 0.11052547 -0.0074990955 -0.05038641 0.038071 -0.20454311
-0.31587392 -0.014358002 -0.089169495 -0.008949342 0.20262183 -0.2777419 -0.012888624 -0.21280146
0.1327042 -0.20722438 0.051434387 -0.3039342 -0.27386224 -0.0422513 -0.14703543 -0.21143037
00000000: ce99 d8bc 1cec 053e 4a2f a73d 8ab8 b43e
00000010: e2a2 3fbf 83d9 2e3e 6f86 13bd 56fc 5a3e
00000020: 3de2 1ebe e9ae 5abe 57f4 12be badc f0bd
00000030: 66a2 0bbe 4a07 59be a5be 48be 0a29 17bd
00000040: 68cd 83bc 12fc 86bd 54b9 753c 52b0 37bd
00000050: 4545 6fbd 9ea7 d8bd e01b 81bd daa0 dcbd
00000060: 37a0 4ebd 3624 25bc 2da6 3d3c c02d 973d
00000070: fdcf b0bd 8e1f df3d ca0c ee3d d738 5c3e
00000080: e903 1c3e 9a70 9cbd e4ff 9fbc 23b8 9dbb
00000090: e915 c3bd b0eb 28be f8e0 4ebd 22cd 58be
000000a0: 719c c5bc e12e 48be 4805 18bc 51cb 3bbd
000000b0: 52ba 0abe 924e 90bd cd64 c5bd a64c d33c
000000c0: 8c08 11bd c475 ba3d 41f1 c1bc 9154 ddbd
000000d0: 1370 f53d 2e91 49bc 6d74 81bd 9248 d2ba
000000e0: 09a3 9dbd 6d08 1fbe 3cec 383d 195a 96bc
000000f0: 7360 6cbe fde4 0abd f0d1 20bd 690f 293d
00000100: cb01 eb3a 8c37 fe3d 8606 1b3d 2aa9 583e
00000110: ec95 2b3e 7040 12be c121 1b3e 4140 203e
00000120: 670f 873e 808c 9a3e 8044 523e c4db 963e
00000130: 65ea c73e 828d 603e 9286 093c 60fe 683e
00000140: 422d eabc bde4 24bd 8f91 093e 1744 eb3c
00000150: 5c03 303e 4842 debe d561 183e 53ad 71bd
00000160: 5bdf 823e e1d3 5a3a 4fb6 89be 5710 cebe
00000170: b0a2 5ebe fd89 a6be 7a8f f6be 7378 d9be
00000180: 951f 42be 4cf3 82be 3a39 a1be 0dda 8e3d
00000190: 2cc3 153e 2849 743d 6c7c 3d3e 3ab3 af3d
000001a0: b259 36bd 8330 7f3d 680b 4f3e a15a 743d
000001b0: 946d 813e 5cd8 fa3d a53a 193e 1d03 7c3e
000001c0: ac28 4b3e dfff d93c 6f9e 0c3e 9eab 3f3e
000001d0: a67a 363e 37a0 9cbd b95d 91be afea 34be
000001e0: 76b2 95be bde2 93be eba2 c7bd 1427 65be
000001f0: 753a 00be 9735 40be ca1e 63bd 0f98 17bd
00000200: 23b1 623d 4d6f 2a3e 7671 39bd 2517 8c3d
00000210: 2daf e93d 229b cc3d 4e73 c63d 235c bebd
00000220: eea0 27be e562 4fbe 53dd 6ebe 7f4f a5be
00000230: a017 88be d3ad 64be aa87 9dbe e423 29be
00000240: c38a fb3d 44f6 6c3c e91f 843d 8eab 1e3e
00000250: ee09 313e bfa8 423e d7aa 35bc f4d8 313e
00000260: 45fc c83d 3717 a13d 7bf0 0f3c a861 7dbd
00000270: 3088 afbc 89b0 1e3d dbbe 9c3d dfa2 f9bd
00000280: 145f c3bd 170d eb3b f3d5 16bf 9e1c 9a3e
00000290: 2a93 c9be 44e4 e53e d284 003f ba33 9d3e
000002a0: 963e 20be 62bd 003e 9a65 24be e2eb 53bf
000002b0: a06e 0dbe 32f5 88bd 3d1d f9be a8a4 39be
000002c0: ea33 83be ff09 19bf 26de 87be 4954 4fbe
000002d0: 7aff b6be 0f14 1abd e6da 59bd b56e b03d
000002e0: b22b e03c 1884 203e a46a 79be aa31 aabd
000002f0: b0f8 bdbd 4c71 8fbd d724 093e bd32 c93d
00000300: d1a5 ae3e 456c 7c3e 6697 8b3e bfea 1abd
00000310: 8aa5 2d3e 1458 ee3d beb1 4bbe ad8b d0bd
00000320: d23e 2a3e 22b7 bbbd 8b56 3e3c f2e6 8abd
00000330: 79c6 0ebe 8d1a 91bd 056f a6bd 7452 1abe
00000340: a6ad aebe 0e21 04be f744 823e c2f4 ebbd
00000350: c0e2 04be e8f0 12bc e556 e5bd b8cc 1bbd
00000360: bbd1 f5bd 7b86 a0bd 422b 363c 1026 623e
00000370: 5a4b 6fbd 7f68 b13d 8075 23be e064 c0bd
00000380: 504d 21bd 6986 9dbd dbe6 46be 4e91 9cbd
00000390: a700 9d3e 766f a93d 6a00 92bd 00e0 8dbd
000003a0: d62d b83d df68 0fbe a41c 8cbe 2d5b e23d
000003b0: f9ba f5bb fb61 4ebd 56f0 1b3d c073 51be
000003c0: 3aba a1be d33d 6bbc 7f9e b6bd 43a0 12bc
000003d0: 197c 4f3e 3034 8ebe cf2a 53bc a0e8 59be
000003e0: 9ce3 073e a132 54be ddac 523d 439d 9bbe
000003f0: ac37 8cbe b30f 2dbd 7590 16be 3481 58be

raise_dim.0.attention1.0.bias f4 [9]
0.31250724 0.30570224 0.15421478 0.42684126 -0.14000948 0.4410754 0.18712021 -0.123365186
0.13274442
00000000: f300 a03e 0185 9c3e 7bea 1d3e f08a da3e
00000010: a55e 0fbe a3d4 e13e 719c 3f3e e3a6 fcbd
00000020: 27ee 073e

raise_dim.0.attention1.2.weight f4 [9, 9, 1, 1]
0.347779 0.17231995 -0.24049996 -0.14752305 0.39375004 0.3507011 -0.358975 0.24704388
0.4946895 0.4068774 0.54827094 0.80760473 0.86339474 -0.022949187 0.2899292 -0.19972762
-0.119977035 0.33998197 0.65871876 0.3799126 1.0411888 0.43662888 -0.12541603 -0.11049856
0.48690715 -0.25488824 -0.03440123 0.19720466 -0.676334 -0.18477991 -0.55028504 0.24506654
-0.40562704 0.4559161 -0.12519531 0.1855087 0.43811792 0.026426096 -0.5418355 -0.53903
0.23655652 -0.26253664 -0.019172348 0.33979037 -0.41009343 0.23132376 0.6309687 -0.44145602
0.22121394 -0.6524498 0.5233289 -0.001483819 -0.49306464 0.13698848 0.3301334 0.16275747
0.23992346 -0.29226324 0.5276064 -0.31148955 0.27762294 -0.59141356 -0.14517112 0.56850326
0.9429142 0.7982236 -0.0030267027 0.0832799 0.05404299 0.31891435 -0.28549716 -0.42199412
0.5513164 0.33529928 0.27430707 0.071538135 -0.38409296 0.2114665 0.2719246 0.14933363
0.17766939
00000000: 1710 b23e a474 303e 9f45 76be 4810 17be
00000010: 9b99 c93e 188f b33e 92cb b7be 12f9 7c3e
00000020: f147 fd3e 3c52 d03e 7c5b 0c3f 2fbf 4e3f
00000030: 7007 5d3f efff bbbc 9a71 943e 6685 4cbe
00000040: 85b6 f5bd 1e12 ae3e cba1 283f e883 c23e
00000050: ad45 853f d28d df3e 0f6d 00be 124d e2bd
00000060: e54b f93e b680 82be 4ee8 0cbd 05f0 493e
00000070: 3a24 2dbf f236 3dbe 7bdf 0cbf b9f2 7a3e
00000080: 59ae cfbe d66d e93e 3333 00be fef5 3d3e
00000090: fe50 e03e 8a7b d83c bbb5 0abf dffd 09bf
000000a0: df3b 723e 346b 86be 540f 9dbc 01f9 ad3e
000000b0: c4f7 d1be 23e0 6c3e 2a87 213f 8606 e2be
000000c0: e885 623e f306 27bf e2f8 053f b47c c2ba
000000d0: f872 fcbe b546 0c3e 3f07 a93e e5a9 263e
000000e0: 7fae 753e 87a3 95be 3711 073f 8f7b 9fbe
000000f0: 9824 8e3e e166 17bf bda7 14be 6e89 113f
00000100: d362 713f 6258 4c3f a55b 46bb a78e aa3d
00000110: 2f5c 5d3d be48 a33e af2c 92be 9d0f d8be
00000120: 1223 0d3f 59ac ab3e fa71 8c3e 9682 923d
00000130: d5a7 c4be ad8a 583e b339 8b3e eaea 183e
00000140: f7ee 353e

raise_dim.0.attention1.2.bias f4 [9]
0.31170627 0.68422014 0.42350715 -0.7298736 0.219659 0.47905362 -0.5957271 0.02372827
-0.13673007
00000000: f797 9f3e 0d29 2f3f eed5 d83e ffd8 3abf
00000010: 4aee 603e 8446 f53e 9281 18bf ca61 c23c
00000020: f802 0cbe

raise_dim.0.attention1.4.weight f4 [9, 9, 1, 1]
-0.4405668 -0.22116114 0.16415788 0.44872013 0.6753691 -0.4181407 0.43977422 0.6460157
0.27632326 -0.47742993 -0.01635728 0.3032509 0.15159293 -0.2512489 -0.30473652 -0.0097458735
-0.32283753 -0.32943797 -0.36851674 -0.1276079 -0.21036282 0.32446775 -0.7847847 -0.07160308
-0.16692646 -0.27747595 -0.24147582 -0.0080123115 -0.25155148 -0.2328218 -0.21650046 -0.3308723
0.09914917 -0.02963689 -0.39400482 0.047549155 0.73807466 1.36064 1.3939407 -1.1474135
0.33300036 1.3971384 -1.1533283 1.5414402 0.9275961 -0.0044208188 0.054482866 0.048380308
-0.33671066 -0.20142221 -0.18221317 -0.3805266 0.08477007 -0.2832367 -0.33489802 0.055155627
0.27107054 -0.0061966195 0.55197406 0.068248406 0.2814945 0.47903132 -0.301738 -0.05768972
0.3757527 0.6959563 -0.23475857 -0.40100372 0.038050953 0.24097966 0.42048973 -0.2343941
-0.36445755 -0.17306331 -0.3238332 -0.15060084 -0.4151024 -0.5463887 -0.01735905 -0.6456962
-0.5767086
00000000: f991 e1be 1178 62be 0119 283e a5be e53e
00000010: fde4 2c3f 8a16 d6be 162a e13e 4961 253f
00000020: 3e7a 8d3e b271 f4be b4ff 85bc b443 9b3e
00000030: 2d3b 1b3e b2a3 80be 6d06 9cbe 28ad 1fbc
00000040: f64a a5be 18ac a8be 3aae bcbe a5ab 02be
00000050: 5a69 57be a320 a63e a6e7 48bf a3a4 92bd
00000060: c5ee 2abe 5411 8ebe 7045 77be 1246 03bc
00000070: 5bcb 80be d768 6ebe 4cb2 5dbe 1868 a9be
00000080: b80e cb3d 10c9 f2bc 00bb c9be e7c2 423d
00000090: 76f2 3c3f 7429 ae3f a66c b23f 72de 92bf
000000a0: 067f aa3e 6ed5 b23f 43a0 93bf ea4d c53f
000000b0: f076 6d3f 84dc 90bb 6d29 5f3d 6e2a 463d
000000c0: 5765 acbe a041 4ebe 1796 3abe 62d4 c2be
000000d0: ee9b ad3d 6704 91be c177 abbe deea 613d
000000e0: c2c9 8a3e 030d cbbb 2c4e 0d3f d2c5 8b3d
000000f0: 0c20 903e 9843 f53e 677d 9abe 0e4c 6cbd
00000100: a862 c03e 312a 323f 8d64 70be 5c50 cdbe
00000110: 51db 1b3d 5fc3 763e 6e4a d73e 0205 70be
00000120: 2e9a babe 8237 31be 77cd a5be 1b37 1abe
00000130: 4d88 d4be 21e0 0bbf 9134 8ebc 594c 25bf
00000140: 2da3 13bf

raise_dim.0.attention1.4.bias f4 [9]
-0.10688948 -0.08803951 0.024303138 0.25351277 1.3275597 0.2706179 0.12634845 0.53294766
0.10280556
00000000: dfe8 dabd 0f4e b4bd 6017 c73c 6dcc 813e
00000010: 7aed a93f 6e8e 8a3e 7d61 013e 426f 083f
00000020: b98b d23d

raise_dim.0.attention3.1.weight f4 [32, 9, 1, 1]
-0.037924647 -0.09507968 0.08063079 0.12293266 -0.34138745 0.35713243 0.2749581 -0.3716107
0.25406107 0.19256456 0.002664784 0.24043135 -0.021790182 -0.37485638 -0.012126121 0.30834654
-0.32224026 0.13320883 -0.006695922 -0.06660459 -0.005722929 0.0998497 -0.2825845 0.09176516
0.122553915 0.20101772 0.30279422 -0.02987537 -0.14211524 -0.029808922 -0.15617937 0.15573767
0.28236985 -0.12927778 0.0941222 0.42411637 -0.36326346 -0.22820278 0.15920798 0.16351339
0.02332733 -0.2816933 -0.06661804 -0.18003161 -0.2557771 -0.4557778 0.36522216 0.17200977
0.06154829 -0.051753234 0.27588195 -0.106213234 0.24984169 -0.113450915 0.006602578 0.08591871
0.132977 -0.10868692 0.2516948 -0.055676002 0.24500406 0.20290177 -0.0046932055 0.16495803
0.08359857 0.2001355 -0.22779563 -0.04939466 -0.051420093 0.56362754 -0.41759032 -0.11627536
0.02952358 0.17243294 0.20297775 -0.3139223 -0.3763639 0.36584213 0.19616047 -0.35953823
-0.11604516 0.19032899 -0.14872023 -0.30955994 -0.26666296 -0.09243698 0.07876114 0.19276515
0.018776452 -0.09318758 -0.13057853 -0.42370152 0.14782667 0.24004458 0.2631375 0.11993514
0.042424653 -0.18978994 0.18245175 -0.24503998 0.25377885 -0.15391445 -0.25406966 0.10367545
-0.035571195 -0.24097633 0.23895292 0.00974373 0.017467074 -0.24424991 -0.3371403 0.015218673
-0.16236326 -0.16130026 0.38745034 -0.15304334 0.18424056 -0.093320385 -0.09794854 0.16813442
-0.2076843 0.09727069 -0.2640319 0.2072016 -0.042908996 0.36850938 0.205081 0.22968763
0.14031166 0.010135079 -0.07393419 -0.047664016 0.021101957 -0.42325303 0.40256453 -0.031229302
0.33084342 -0.016662221 0.071497396 -0.20333745 -0.46140137 0.4265896 0.14812344 0.2672374
-0.3510888 0.2029617 -0.29261354 -0.06613599 0.009696965 -0.24967901 -0.23888552 0.09516367
0.3093457 0.3327363 -0.29210505 -0.093098916 -0.32548764 -0.29533315 0.00286284 0.45422673
-0.2400837 0.05037499 0.21068442 -0.020873163 0.11406239 0.104007736 0.23333846 -0.19520406
-0.5028393 -0.19511178 -0.18148153 0.3613191 0.18753137 0.18159294 -0.15168501 -0.19876188
0.3282467 -0.08674731 -0.3433257 -0.040250663 -0.044274777 -0.003676693 0.14755622 0.18544917
-0.2027586 -0.00959962 -0.35746482 0.29578346 0.011950774 0.17319576 0.36450112 0.19733137
-0.3848901 0.044650648 -0.18868726 0.17822674 -0.12748301 0.3873799 -0.10713439 -0.4271485
0.03769414 0.20284826 0.16548069 0.33275223 0.28654063 0.07545703 -0.10523405 -0.029940028
-0.09133857 0.1022266 -0.18976781 0.18633713 0.11840974 0.4267641 -0.47266835 0.41854963
-0.30801666 -0.118687175 0.17550063 0.056153383 -0.17686975 0.08829745 -0.6313153 0.20024987
0.043840803 0.03405003 0.06468815 -0.007118763 -0.11149251 -0.026369499 -0.0037413926 -0.45054144
-0.19240452 -0.14162545 -0.16132265 -0.20715664 -0.0172737 -0.16971643 0.45671988 -0.065102234
-0.35990882 0.045518655 -0.25802264 0.23409826 0.27630863 -0.10375343 -0.0703708 0.25812918
-0.14344844 0.1792671 -0.32307371 -0.2972203 -0.12509972 -0.28972787 0.110613324 -0.051325962
00000000: e056 1bbd 23b9 c2bd c121 a53d 1ec4 fb3d
00000010: 56ca aebe 10da b63e 4fc7 8c3e c243 bebe
00000020: 4b14 823e a52f 453e a8a3 2e3b a333 763e
00000030: 5381 b2bc 2ded bfbe a3ac 46bc 99df 9d3e
00000040: adfc a4be e567 083e 7769 dbbb fd67 88bd
00000050: 6887 bbbb 007e cc3d eaae 90be 5fef bb3d
00000060: 8cfd fa3d 97d7 4d3e d807 9b3e 31bd f4bc
00000070: a886 11be d731 f4bc 7ced 1fbe b279 1f3e
00000080: c892 903e 6561 04be 24c3 c03d c825 d93e
00000090: abfd b9be fdad 69be 6b07 233e 0e70 273e
000000a0: f518 bf3c 1b3a 90be 0a6f 88bd 355a 38be
000000b0: 37f5 82be b55b e9be 66fe ba3e 5423 303e
000000c0: 0f1a 7c3d 33fb 53bd 6640 8d3e 5386 d9bd
000000d0: 80d6 7f3e f458 e8bd 705a d83b 26f6 af3d
000000e0: 1f2b 083e 3f97 debd 24de 803e 850c 64bd
000000f0: 58e2 7a3e 7bc5 4f3e 76c9 99bb c2ea 283e
00000100: ba35 ab3d 52f0 4c3e 4243 69be 0e52 4abd
00000110: e09d 52bd e549 103f 66ce d5be c721 eebd
00000120: 6fdb f13c 4392 303e 66d9 4f3e 6cba a0be
00000130: c5b2 c0be a94f bb3e 4ade 483e 6515 b8be
00000140: 16a9 edbd 9ae5 423e 1e4a 18be a47e 9ebe
00000150: 0c88 88be 994f bdbd 854d a13d 3a64 453e
00000160: 13d1 993c 21d9 bebd 61b6 05be 68ef d8be
00000170: e05f 173e 3fce 753e f5b9 863e 8ea0 f53d
00000180: 79c5 2d3d 4b58 42be a2d4 3a3e c3eb 7abe
00000190: 4def 813e c09b 1dbe 6b15 82be cb53 d43d
000001a0: 1ab3 11bd 80c2 76be 13b0 743e 2aa4 1f3c
000001b0: 1c17 8f3c a61c 7abe a79d acbe be57 793c
000001c0: 8e42 26be e52b 25be e45f c63e 65b7 1cbe
000001d0: 8fa9 3c3e c21e bfbd 3e99 c8bd 6e2b 2c3e
000001e0: 31ab 54be db35 c73d 302f 87be a82c 543e
000001f0: 58c1 2fbd 43ad bc3e c100 523e 3c33 6b3e
00000200: dcad 0f3e 9a0d 263c cf6a 97bd 583b 43bd
00000210: 03de ac3c 9fb4 d8be f01c ce3e 98d4 ffbc
00000220: 4f64 a93e 367f 88bc 3a6d 923d b137 50be
00000230: cd3c ecbe f469 da3e acad 173e 57d3 883e
00000240: e9c1 b3be 31d5 4f3e 71d1 95be 4e72 87bd
00000250: 05e0 1e3c dbab 7fbe 689e 74be 2ce5 c23d
00000260: 8f62 9e3e 6a5c aa3e cb8e 95be a5aa bebd
00000270: 51a6 a6be e835 97be 7c9e 3b3b 6890 e83e
00000280: 80d8 75be 0156 4e3d a8bd 573e 32fe aabc
00000290: 8b99 e93d 0202 d53d 47f0 6e3e 93e3 47be
000002a0: 14ba 00bf 62cb 47be 4bd6 39be d1fe b83e
000002b0: 3908 403e 80f3 393e 5153 1bbe 3c88 4bbe
000002c0: f40f a83e 93a8 b1bd 63c8 afbe e1dd 24bd
000002d0: 7859 35bd acf4 70bb fa18 173e 63e6 3d3e
000002e0: f39f 4fbe b947 1dbc a105 b7be ee70 973e
000002f0: 2ecd 433c 3b5a 313e e49f ba3e 3c11 4a3e
00000300: 5110 c5be 99e3 363d 3c37 41be 1281 363e
00000310: e88a 02be a956 c63e 4669 dbbd 35b3 dabe
00000320: 2c65 1a3d 74b7 4f3e c573 293e 805e aa3e
00000330: 74b5 923e 3789 9a3d f384 d7bd ca44 f5bc
00000340: b70f bbbd 2e5c d13d 7e52 42be 29cf 3e3e
00000350: ce80 f23d d380 da3e 9601 f2be 234c d63e
00000360: 5cb4 9dbe 4312 f3bd 70b6 333e 1701 663d
00000370: 581d 35be 4bd5 b43d e19d 21bf 4d0e 4d3e
00000380: 6a92 333d 0b78 0b3d 397b 843d 8344 e9bb
00000390: 2f56 e4bd d904 d8bc 2732 75bb 5ead e6be
000003a0: b105 45be 4306 11be c431 25be df20 54be
000003b0: 9381 8dbc 25ca 2dbe 30d7 e93e 5254 85bd
000003c0: f845 b8be c571 3a3d 8b1b 84be 74b7 6f3e
000003d0: 5378 8d3e ae7c d4bd 911e 90bd 8229 843e
000003e0: 26e4 12be cb91 373e eb69 a5be 422d 98be
000003f0: 241a 00be 3657 94be 3d89 e23d 2c3b 52bd

raise_dim.0.attention3.1.bias f4 [32]
-0.073358536 -0.031560734 -0.19457717 -0.22231801 0.030320073 -0.011766489 -0.27518287 0.012999577
0.10646723 0.10062238 0.24621575 -0.027383367 0.11679664 -0.16643646 -0.040819984 -0.14110631
-0.024599236 0.12919429 0.06493102 -0.0942966 -0.060977496 -0.049736626 -0.16220202 -0.11869316
0.05204563 0.060492072 0.21106774 -0.11370613 0.09398759 -0.07441804 -0.08196831 -0.12633353
00000000: 003d 96bd d445 01bd 3d3f 47be 55a7 63be
00000010: cd61 f83c 3bc8 40bc c5e4 8cbe 2efc 543c
00000020: 7e0b da3d 1b13 ce3d fb1f 7c3e 1553 e0bc
00000030: 1433 ef3d 526e 2abe db32 27bd 2c7e 10be
00000040: 5684 c9bc 824b 043e 8efa 843d 931e c1bd
00000050: 8ac3 79bd a2b8 4bbd 4918 26be 6615 f3bd
00000060: cc2d 553d 89c6 773d 2422 583e c2de e8bd
00000070: 917c c03d 7c68 98bd 00df a7bd 945d 01be

raise_dim.0.attention3.3.weight f4 [32, 32, 1, 1]
0.028088886 -0.0028634572 -0.028906958 -0.15754588 0.16212453 -0.27267382 -0.11107577 0.16436103
0.19396923 0.10743854 -0.085027374 -0.13165595 0.21653135 0.05584265 0.27545968 0.018101297
0.051614575 0.20185821 0.106874704 0.0013494354 -0.14116158 0.042617746 -0.0040298793 -0.061296593
-0.20489396 0.046673954 0.32290486 0.09043609 -0.011831211 -0.14768498 -0.14741443 0.07693926
-0.018862834 0.011669196 0.08598433 0.053908523 0.030296601 -0.06103448 -0.02946952 0.13040659
0.031328425 -0.07700938 -0.01730366 -0.025929142 0.00850537 0.030132838 -0.082939096 0.004608652
0.123866476 0.052327763 -0.027234012 -0.051504653 0.088541545 -0.04508668 -0.059729427 -0.019911297
0.023094075 0.07811327 -0.099645115 -0.046066165 0.09346623 -0.041362748 -0.011303953 -0.016337287
0.097490825 0.05181591 0.06219872 0.05693588 -0.11292662 0.18591139 -0.036248427 -0.22346665
-0.034980357 -0.11760101 0.038855534 0.07590105 -0.002015004 -0.0032337415 0.05302077 0.2129384
0.004060653 -0.11701813 -0.06894885 0.010486041 0.09317514 0.025972195 -0.0068900613 0.121027686
-0.13221866 -0.0768088 0.045798864 -0.28873155 -0.026715558 0.07444045 -0.14970809 -0.20804538
-0.115704805 0.011891577 -0.060711246 -0.039879426 0.009438538 0.11533698 -0.006317178 -0.09534981
-0.06988054 -0.034666147 -0.12940106 -0.024197234 -0.08014855 -0.021294631 -0.14258565 0.06686001
0.13424724 -0.10369415 -0.03589028 0.04103799 0.04927996 -0.12805511 -0.032203007 -0.015375745
0.04712716 0.014689074 0.06254219 0.065440506 0.017309986 -0.066932365 0.071640104 0.07109462
0.16680688 0.1530656 0.12956093 0.007594047 -0.07366989 0.0036574814 -0.04057364 0.2265536
0.108737156 0.13628244 0.110330775 0.020104464 0.07141952 0.1656379 0.06804184 -0.100002475
-0.061826516 0.12949294 -0.030162366 -0.040304642 -0.06641788 0.17716472 -0.08050595 -0.16606869
-0.057133026 -0.07311363 -0.14048457 0.012965824 -0.124866664 0.084928535 -0.113131255 -0.06463753
-0.08976281 -0.05071653 -0.015383279 -0.12440013 0.052804142 0.048192542 -0.20294996 -0.73792064
0.20545162 -0.14046858 -0.14612755 0.14497094 -0.18581854 0.06053603 -0.20827626 -0.38433763
-0.094935976 -0.21913208 0.08294311 -0.023307929 0.36937207 -0.85322624 0.21299613 -0.35956958
0.17394349 0.10009648 0.13541287 -0.06828071 0.04652176 0.052387185 0.047877338 0.047340736
-0.18288814 -0.11388562 -0.0059724622 -0.07756082 -0.12256657 0.34451318 0.18106863 0.23132792
0.009828066 -0.06474678 0.14958665 0.080116935 -0.055186205 -0.22551155 -0.20591012 0.0043989695
-0.11077816 -0.026686765 -0.036898028 -0.11572157 0.15572 -0.18424588 -0.310434 0.053808745
0.003950657 -0.16667637 0.06976874 0.28638196 0.20317338 -0.5044713 0.33165523 -0.011981304
0.11509166 0.2151772 -0.12295113 -0.123894155 -0.027715728 -0.048414547 -0.062408507 0.22227865
-0.007972355 0.013024233 0.21692045 -0.119652264 0.25322285 -0.1354342 0.10289107 -0.07308031
-0.2102868 0.1653563 0.000317954 0.00016030055 -0.036332183 -0.043646924 -0.02757532 -0.084617876
-0.059810527 -0.008563056 0.0013728754 0.04675812 -0.014580081 0.040371872 0.023296945 -0.0481422
00000000: aa1a e63c d7a8 3bbb 49ce ecbc b553 21be
00000010: f903 263e e79b 8bbe b17b e3bd 424e 283e
00000020: df9f 463e bd08 dc3d d522 aebd d1d0 06be
00000030: 65ba 5d3e 43bb 643d 0d09 8d3e 2c49 943c
00000040: ce69 533d ebb3 4e3e 20e1 da3d 8adf b03a
00000050: a98c 10be f28f 2e3d 140d 84bb 2312 7bbd
00000060: b9cf 51be 302d 3f3d c953 a53e 8f36 b93d
00000070: b2d7 41bc bb3a 17be cff3 16be 5592 9d3d
00000080: 3b86 9abc 2830 3f3c 8d18 b03d 2fcf 5c3d
00000090: 9430 f83c 4aff 79bd 106a f1bc 4e89 053e
000000a0: 3c52 003d 18b7 9dbd 68c0 8dbc 5a69 d4bc
000000b0: 1b5a 0b3c 24d9 f63c f9db a9bd 2d04 973b
000000c0: b5ad fd3d a355 563d dd19 dfbc 8bf6 52bd
000000d0: 4555 b53d d0ac 38bd d8a6 74bd 041d a3bc
000000e0: c92f bd3c daf9 9f3d bd12 ccbd e0af 3cbd
000000f0: 396b bf3d fc6b 29bd 3734 39bc c6d5 85bc
00000100: 45a9 c73d eb3c 543d 16c4 7e3d 9935 693d
00000110: 1246 e7bd 8e5f 3e3e 3b79 14bd 71d4 64be
00000120: 9047 0fbd ccd8 f0bd fb26 1f3d 0272 9b3d
00000130: 280e 04bb 2eed 53bb 4f2c 593d 860c 5a3e
00000140: 3a0f 853b 34a7 efbd 0e35 8dbd a5cd 2b3c
00000150: 9cd2 be3d a4c3 d43c 06c6 e1bb 5ddd f73d
00000160: 5464 07be ef4d 9dbd 9797 3b3d 9fd4 93be
00000170: 96da dabc 3c74 983d 144d 19be d909 55be
00000180: a4f6 ecbd e4d4 423c 5bac 78bd 9c58 23bd
00000190: 19a4 1a3c cb35 ec3d 5400 cfbb c346 c3bd
000001a0: 871d 8fbd 17fe 0dbd b681 04be 4739 c6bc
000001b0: ec24 a4bd 1472 aebc f901 12be e7ed 883d
000001c0: 1c78 093e 995d d4bd b001 13bd 7417 283d
000001d0: c9d9 493d e120 03be 4de7 03bd 8cea 7bbc
000001e0: 6908 413d 71aa 703c 1f16 803d ac05 863d
000001f0: accd 8d3c d613 89bd 0cb8 923d 0e9a 913d
00000200: 6ccf 2a3e 3bbd 1c3e 9fab 043e 7cd7 f83b
00000210: 3de0 96bd 5bb2 6f3b 8c30 26bd abfd 673e
00000220: 96b1 de3d a08d 0b3e 1af5 e13d 1eb2 a43c
00000230: 6644 923d fb9c 293e 8559 8b3d 19ce ccbd
00000240: cd3d 7dbd cc99 043e 1117 f7bc 7b16 25bd
00000250: 1906 88bd ab6a 353e 4ee0 a4bd e90d 2abe
00000260: 5204 6abd 99bc 95bd 30db 0fbe 9c6e 543c
00000270: 18ba ffbd 03ef ad3d 5cb1 e7bd ae60 84bd
00000280: 90d5 b7bd 23bc 4fbd 260a 7cbc 7fc5 febd
00000290: 2849 583d 8b65 453d 1dd2 4fbe 5ee8 3cbf
000002a0: e961 523e ffd6 0fbe 76a2 15be 4373 143e
000002b0: 3747 3ebe a1f4 773d 5f46 55be e7c7 c4be
000002c0: cb6d c2bd 2964 60be 14de a93d 45f0 bebc
000002d0: 561e bd3e 096d 5abf a81b 5a3e 8119 b8be
000002e0: 3e1e 323e 62ff cc3d aca9 0a3e c2d6 8bbd
000002f0: 9a8d 3e3d f293 563d 071b 443d 5ce8 413d
00000300: 0747 3bbe dd3c e9bd a5b4 c3bb 35d8 9ebd
00000310: 2f04 fbbd 0864 b03e 0e6a 393e 3ae1 6c3e
00000320: e605 213c f699 84bd 3e2d 193e 5914 a43d
00000330: ee0a 62bd 80ec 66be 1ada 52be 3b25 903b
00000340: a9df e2bd 349e dabc 6322 17bd 6eff ecbd
00000350: 1075 1f3e f4aa 3cbe 35f1 9ebe 8f66 5c3d
00000360: 8374 813b 36ad 2abe eae2 8e3d a8a0 923e
00000370: af0c 503e 0825 01bf b7ce a93e 3b4d 44bc
00000380: 2db5 eb3d 6957 5c3e cdcd fbbd 38bc fdbd
00000390: 180c e3bc 554e 46bd 10a0 7fbd 049d 633e
000003a0: 7b9e 02bc 9863 553c 6520 5e3e 3f0c f5bd
000003b0: 6da6 813e 43af 0abe 8eb8 d23d 21ab 95bd
000003c0: 6c55 57be 2953 293e 10b3 a639 5a16 2839
000003d0: 0ed1 14bd 1ec7 32bd a3e5 e1bc 234c adbd
000003e0: e2fb 74bd 0f4c 0cbc 0ef2 b33a 7185 3f3d
000003f0: 4be1 6ebc fa5c 253d 3cd9 be3c c130 45bd

raise_dim.0.attention3.3.bias f4 [32]
-0.070580766 -0.006222586 0.053142454 0.14222132 0.046239067 -0.022135526 -0.052482992 0.015999822
-0.022231504 -0.072276406 0.040217124 0.041796118 0.04224204 -0.15052235 0.02775205 0.13730499
0.0035025135 -0.13959432 0.0074362904 0.043809056 -0.15302761 -0.019280879 -0.06603554 0.0060989843
0.021096602 -0.008366276 0.0931657 -0.310585 -0.07399141 -0.02169742 -0.08391034 0.017908612
00000000: a68c 90bd d6e6 cbbb e7ab 593d 77a2 113e
00000010: 2d65 3d3d 9055 b5bc 68f8 56bd 0f12 833c
00000020: d81e b6bc a705 94bd b6ba 243d 6832 2b3d
00000030: fd05 2d3d 8822 1abe 4458 e33c ae99 0c3e
00000040: 6d8a 653b d0f1 0ebe 20ac f33b 2071 333d
00000050: 45b3 1cbe eff2 9dbc a43d 87bd fdd9 c73b
00000060: c8d2 ac3c b412 09bc a9cd be3d ff04 9fbe
00000070: cf88 97bd cabe b1bc 2fd9 abbd 15b5 923c

layers.0.conv1.weight f4 [32, 32, 3, 3]
-0.13562329 0.013825741 0.029132543 -0.029376745 -0.012421058 -0.06737807 0.1995283 -0.014483825
0.011566114 -0.0063500083 -0.035771985 0.001667948 -0.008179664 0.022817561 0.1575229 0.22234586
-0.094094634 -0.08636558 -0.3478269 -0.4631562 -0.25076097 -0.07129728 -0.012021915 0.06892188
0.015985202 -0.21132566 -0.47601616 -0.10679999 0.07604182 0.38885993 -0.34546044 0.3090531
0.33691165 -0.014478303 -0.0034524105 0.27179062 0.081143595 0.020219764 0.030268064 -0.08307252
-0.13265698 0.05284236 -0.06319693 -0.13633955 -0.25836483 0.01600696 0.08413308 0.08092302
-0.049976703 0.20223369 -0.1526849 0.21815777 -0.011292381 0.3960842 -0.19659477 -0.23061477
-0.7568114 0.026137939 0.24547867 -0.26737103 0.1764365 0.21851438 -0.09849662 0.46088412
-0.19676965 -0.19221207 0.009004046 0.002328164 -0.5373368 0.60636735 -0.15380755 0.1603009
0.18857537 0.12323363 0.024047012 0.25361115 0.10085421 -0.11673161 0.09709055 -0.11437291
-0.1478892 0.06920894 0.082173556 -0.12067654 0.28466177 0.052133933 0.16953933 0.0374582
0.05978291 0.17503771 0.19712655 0.07291457 -0.2872211 -0.019970221 -0.30071712 -0.07551498
-0.11364928 0.075136535 0.19554402 -0.2113937 -0.40307435 -0.26986492 -0.09893554 -0.40240407
-0.444803 0.3601264 -0.055466905 -0.23456089 0.13899283 -0.121611804 -0.2205589 0.15036345
-0.16196561 -0.04067322 0.22103702 -0.075573824 0.0029337902 -0.44918042 -0.25841916 -0.29038924
-0.4750392 -0.098406255 -0.41385394 -0.47614983 -0.44656348 -0.34192187 0.42829773 0.09259647
0.24238737 0.108492166 0.2725888 -0.20385775 0.2971693 0.02351585 -0.10364919 0.014103835
-0.014186205 0.16652061 0.25214887 0.14778748 -0.22640653 0.15141033 -0.2522375 -0.45494917
-0.23020932 -0.07023639 -0.08988249 -0.028554173 -0.008537865 0.14786196 0.050112467 0.31705764
-0.018521078 -0.022339415 0.04356591 0.18972054 -0.2788436 -0.07573114 0.2357151 -0.06284902
-0.21092424 0.14205644 0.27797747 0.19679238 0.14492469 0.12056182 -0.33339888 0.19183904
-0.0083308695 0.121628866 0.040612113 0.07078463 -0.024502253 0.027788602 0.19428526 -0.08250742
-0.11748308 0.1935528 0.02248213 -0.051587146 -0.25270998 -0.10295154 -0.33305237 -0.09760737
0.10000302 0.20687257 -0.08089764 0.024422264 0.70979553 1.0990701 -0.20731537 0.15378724
0.057925973 0.13721801 -0.1349471 -0.15852638 0.057674944 -0.41156948 -0.08599975 0.020632524
0.3006925 -0.26998293 -0.06858409 0.31149063 -0.04442589 0.16489607 0.20182164 0.1580906
0.088628426 0.08828033 0.06942285 0.0031833989 -0.27349094 0.045303002 -0.09559122 -0.15040243
0.05575341 0.12664075 0.0914148 0.43954486 0.13542686 -0.28720716 -0.25578207 -0.12216244
-0.16819203 0.0016174434 0.15786588 0.25253433 -0.0062829005 0.045555413 0.21756266 -0.10636666
0.016265979 0.10057221 -0.09776775 -0.25700164 0.09300217 -0.041735366 -0.14417867 -0.09844562
0.028875342 0.15857463 -0.13823311 0.6316367 0.6286721 0.37669763 0.30018356 -0.21242549
0.33861688 0.46354446 0.03228401 0.38926083 0.065984875 -0.08906001 -0.27157858 -0.35701144
00000000: d5e0 0abe 5c85 623c 5fa7 ee3c 80a7 f0bc
00000010: b181 4bbc 83fd 89bd 2651 4c3e 914d 6dbc
00000020: cc7f 3d3c bb13 d0bb a585 12bd 0c9f da3a
00000030: ff03 06bc e5eb ba3c af4d 213e a2ae 633e
00000040: b0b4 c0bd 70e0 b0bd 5e16 b2be cf22 edbe
00000050: be63 80be 4f04 92bd 91f7 44bc ea26 8d3d
00000060: 66f3 823c c165 58be 64b8 f3be f4b9 dabd
00000070: d0bb 9b3d a618 c73e 31e0 b0be 353c 9e3e
00000080: af7f ac3e 6736 6dbc d641 62bb 2428 8b3e
00000090: 9d2e a63d eba3 a53c bbf4 f73c ed21 aabd
000000a0: 3bd7 07be 3b71 583d 646d 81bd 989c 0bbe
000000b0: 6548 84be 0721 833c f74d ac3d f8ba a53d
000000c0: 5fb4 4cbd 5916 4f3e 6e59 1cbe c064 5f3e
000000d0: ae03 39bc 8ccb ca3e 2450 49be 4726 6cbe
000000e0: 64be 41bf 3b1f d63c c35e 7b3e dbe4 88be
000000f0: c5ab 343e 3cc2 5f3e 99b8 c9bd 01f9 eb3e
00000100: fc7d 49be 3ed3 44be b585 133c 1c94 183b
00000110: e88e 09bf e43a 1b3f ba7f 1dbe eb25 243e
00000120: e719 413e ea61 fc3d 3dfe c43c 52d9 813e
00000130: a78c ce3d fb10 efbd 69d7 c63d 583c eabd
00000140: 4470 17be 6bbd 8d3d 9c4a a83d 4325 f7bd
00000150: 30bf 913e 648a 553d b89b 2d3e c56d 193d
00000160: edde 743d 163d 333e 8bdb 493e 3c54 953d
00000170: a50e 93be 9798 a3bc 98f7 99be 99a7 9abd
00000180: f4c0 e8bd 2fe1 993d b13c 483e 9777 58be
00000190: c35f cebe bc2b 8abe b79e cabd e807 cebe
000001a0: 38bd e3be 7d62 b83e 4431 63bd bb30 70be
000001b0: 2354 0e3e 9c0f f9bd 31da 61be e0f8 193e
000001c0: 50da 25be f698 26bd 8757 623e 73c6 9abd
000001d0: d544 403b fafa e5be 844f 84be e6ad 94be
000001e0: 5738 f3be 3889 c9bd aae4 d3be e9c9 f3be
000001f0: f8a3 e4be 6210 afbe d749 db3e 38a3 bd3d
00000200: 6534 783e 2431 de3d c290 8b3e 16c0 50be
00000210: 9326 983e 50a4 c03c 0746 d4bd c613 673c
00000220: 426d 68bc 6184 2a3e a819 813e 9a55 173e
00000230: 1dd7 67be 4f0b 1b3e 4625 81be 19ef e8be
00000240: febb 6bbe 19d8 8fbd 5014 b8bd 71ea e9bc
00000250: 67e2 0bbc 2069 173e bb42 4d3d 6155 a23e
00000260: 84b9 97bc 2601 b7bc 2b72 323d 1a46 423e
00000270: 97c4 8ebe ee18 9bbd 4d5f 713e fdb6 80bd
00000280: 86fc 57be 3e77 113e 1053 8e3e f183 493e
00000290: 2367 143e 1ee9 f63d 42b3 aabe 7471 443e
000002a0: 337e 08bc 8e18 f93d e358 263d 88f7 903d
000002b0: f3b8 c8bc eca4 e33c b7f2 463e a6f9 a8bd
000002c0: f89a f0bd b532 463e 722c b83c 0b4d 53bd
000002d0: 3463 81be 42d8 d2bd d785 aabe 5fe6 c7bd
000002e0: 62ce cc3d 67d6 533e a9ad a5bd 3311 c83c
000002f0: 29b5 353f 54ae 8c3f 7b4a 54be 677a 1d3e
00000300: c943 6d3d e182 0c3e 932f 0abe bd54 22be
00000310: 903c 6c3d 3cb9 d2be a320 b0bd 8a05 a93c
00000320: 5ef4 993e 343b 8abe d175 8cbd b37b 9f3e
00000330: ecf7 35bd 84da 283e 55aa 4e3e 81e2 213e
00000340: d282 b53d 51cc b43d 912d 8e3d 92a0 503b
00000350: 0107 8cbe a48f 393d 54c5 c3bd 1803 1abe
00000360: b05d 643d 1dae 013e af37 bb3d 060c e13e
00000370: 57ad 0a3e d10c 93be def5 82be 4d30 fabd
00000380: 883a 2cbe 6500 d43a 98a7 213e 2e4c 813e
00000390: cae0 cdbb 5098 3a3d bfc8 5e3e c3d6 d9bd
000003a0: 3b40 853c cef8 cd3d 753a c8bd b895 83be
000003b0: ec77 be3d b4f2 2abd 93a3 13be db9d c9bd
000003c0: fb8b ec3c 6361 223e fb8c 0dbe f1b2 213f
000003d0: a8f0 203f 83de c03e a9b1 993e 1186 59be
000003e0: 315f ad3e b355 ed3e 3d3c 043d 324d c73e
000003f0: 1423 873d 1865 b6bd 590c 8bbe 34ca b6be

layers.0.conv1.attention1.0.weight f4 [9, 32, 3, 3]
0.092768826 0.20606609 0.08339106 0.077711016 0.03496576 -0.027478507 -0.028733581 -0.050257437
-0.102613404 -0.14303437 -0.0696798 -0.03221548 0.007133998 0.25047183 0.1010261 -0.067932874
0.13270573 0.12974572 0.38484156 -0.16398019 0.5311418 -0.38790098 -0.08999282 0.0011975237
0.4974304 0.4937267 0.21078114 0.3435721 -0.41013122 0.22579831 -0.13363864 -0.09831352
-0.34237912 0.2875902 -0.19087568 0.11809199 0.44066086 0.3272039 0.40696162 0.35470462
-0.22207616 0.16824208 0.3641569 -0.041329037 0.29956916 0.082787156 -0.2744365 0.12310764
-0.73010767 0.2495058 -0.3839786 -0.17997833 -0.53639764 -0.27325025 0.37823483 0.0693142
0.0017973057 -0.6449309 -0.53758645 -0.6972155 -0.41423383 0.2751665 -0.011685488 0.30743802
-0.60879517 0.25522488 -0.5632563 -0.19646662 -0.004793031 -0.21623981 -0.0794234 0.038204025
-0.15131474 -0.30702382 -0.46241784 0.026917692 -0.55509114 -0.8621128 0.011518813 -0.55335945
0.06727076 -0.12252465 -0.20893978 -0.66910404 0.023574399 0.13083835 -0.34975088 -0.26489353
-0.2258793 -0.24185114 0.15440777 0.121758334 -0.06672284 -0.12066019 -0.18376495 -0.056968156
0.13506857 0.105754755 0.3769759 0.34509003 -0.03251559 0.07779984 0.18036233 -0.26432702
0.019733397 0.0794407 -0.14982031 0.032593932 0.118229814 0.063767806 0.05710714 0.15739815
-0.09090719 0.034043826 0.21331888 -0.00499266 0.21671973 0.58480257 0.15013452 0.23311979
0.52874744 0.26212695 0.10836191 0.3661941 0.19420198 -0.20170034 0.03528941 -0.31999996
0.3470736 0.27116787 -0.35345155 -0.4596579 0.671233 -0.08769081 0.36276227 0.6271806
0.2530004 0.30583614 0.3400405 0.33284706 0.348785 0.38943955 0.17219049 0.313977
0.2479259 0.10419628 -0.036707643 0.22052947 -0.30903664 0.10251938 0.6486801 0.09022694
0.2003838 0.16089702 0.11689733 0.043495923 -0.03879805 0.32392746 0.19368084 0.075694926
0.046057027 0.11968697 0.14787383 0.22495995 0.22439718 0.3512673 -0.5874695 0.045203492
0.82459885 -0.5931005 -0.11690706 -0.02710967 -0.081793666 -0.04391584 -0.05094049 -0.076219305
-0.23003869 -0.12573083 -0.119663656 -0.09657435 -0.32691664 -0.40410104 -0.3784007 0.17171745
0.050675277 -0.19736582 -0.009222244 -0.08044554 -0.035388976 -0.104626805 0.090024054 0.8478009
-0.82476723 -0.45738256 0.13995172 -0.06753205 0.32743752 0.9373084 0.13440956 0.28188226
0.1554547 0.034640145 0.1015416 0.14934047 -0.051028095 0.07377655 -0.02551384 0.09918493
-0.24842982 -0.26162383 -0.2624186 -0.17017183 -0.3547942 -0.03193451 -0.1983819 -0.15772164
-0.054014735 -0.32417914 -0.16283943 -0.0861765 -0.11619435 -0.42951617 -0.21422765 -0.19912012
0.2738764 0.1322557 0.106324494 0.018382138 -0.03311921 -0.15091744 -0.10871715 -0.11443
-0.18501739 -0.16466424 0.09575432 0.03776564 0.3436077 0.15356359 -0.6090965 0.22521877
-0.35614294 -0.0577296 -0.15825732 0.81707597 0.46661124 0.05550765 -0.23007584 -0.29002142
-0.39805827 -0.2897118 0.08445313 -0.5411202 -0.16847405 -0.08267527 -0.09413303 -0.12580967
00000000: 95fd bd3d fd02 533e efc8 aa3d f426 9f3d
00000010: 4238 0f3d 9b1a e1bc b062 ebbc beda 4dbd
00000020: fa26 d2bd 9a77 12be 48b4 8ebd 61f4 03bd
00000030: 50c4 e93b d83d 803e c6e6 ce3d 6420 8bbd
00000040: 03e4 073e 10dc 043e f409 c53e 6cea 27be
00000050: e9f8 073f f59a c6be 284e b8bd 3af6 9c3a
00000060: 33af fe3e bfc9 fc3e 03d7 573e afe8 af3e
00000070: b8fc d1be ac37 673e 91d8 08be 9958 c9bd
00000080: 514c afbe 063f 933e ea74 43be 37da f13d
00000090: 4d9e e13e 4587 a73e 465d d03e d89b b53e
000000a0: ef67 63be a747 2c3e c672 ba3e a348 29bd
000000b0: 2161 993e 508c a93d f182 8cbe dc1f fc3d
000000c0: 56e8 3abf 737e 7f3e d898 c4be 3d4c 38be
000000d0: 5b51 09bf 75e7 8bbe ffa7 c13e 9af4 8d3d
000000e0: 9293 eb3a 311a 25bf 449f 09bf b77c 32bf
000000f0: 7516 d4be a0e2 8c3e 7d74 3fbc 8468 9d3e
00000100: 00da 1bbf d6ac 823e 9131 10bf 8c2e 49be
00000110: dc0e 9dbb f86d 5dbe bca8 a2bd d37b 1c3d
00000120: 40f2 1abe 3a32 9dbe 08c2 ecbe 7e82 dc3c
00000130: 741a 0ebf 6db3 5cbf 67b9 3c3c f7a8 0dbf
00000140: 41c5 893d 34ee fabd 4ff4 55be 674a 2bbf
00000150: 191f c13c 7dfa 053e 8c12 b3be 20a0 87be
00000160: e74c 67be d3a7 77be 121d 1e3e 6f5c f93d
00000170: fca5 88bd b11c f7bd e12c 3cbe 7157 69bd
00000180: 6a4f 0a3e f395 d83d fc02 c13e a4af b03e
00000190: 112f 05bd 8655 9f3d e7b0 383e df55 87be
000001a0: efa7 a13c ceb1 a23d 7f6a 19be 3781 053d
000001b0: 7922 f23d b298 823d 2de9 693d fb2c 213e
000001c0: 8d2d babd 8a71 0b3d 4470 5a3e 7899 a3bb
000001d0: c7eb 5d3e 9fb5 153f ddbc 193e f4b6 6e3e
000001e0: fe5b 073f 8135 863e d9ec dd3d cb7d bb3e
000001f0: e2dc 463e 898a 4ebe a18b 103d 09d7 a3be
00000200: a2b3 b13e 84d6 8a3e 9af7 b4be 4858 ebbe
00000210: edd5 2b3f 3d97 b3bd fabb b93e e88e 203f
00000220: 4589 813e 8e96 9c3e ca19 ae3e ee6a aa3e
00000230: f393 b23e 9f64 c73e b452 303e 98c1 a03e
00000240: 4ae0 7d3e dc64 d53d c15a 16bd 7ad2 613e
00000250: 0d3a 9ebe aef5 d13d e60f 263f e7c8 b83d
00000260: 6931 4d3e 30c2 243e de67 ef3d c828 323d
00000270: b4ea 1ebd d2d9 a53e 4554 463e f105 9b3d
00000280: 4ba6 3c3d 711e f53d 3d6c 173e e75b 663e
00000290: 60c8 653e 4fd9 b33e 6764 16bf 4c27 393d
000002a0: e918 533f 6fd5 17bf f86c efbd 1915 debc
000002b0: 7083 a7bd 19e1 33bd faa6 50bd de18 9cbd
000002c0: 438f 6bbe 95bf 00be 3812 f5bd c6c8 c5bd
000002d0: 9e61 a7be 55e6 cebe bdbd c1be b3d6 2f3e
000002e0: e190 4f3d 441a 4abe e518 17bc a2c0 a4bd
000002f0: 08f4 10bd 9446 d6bd 885e b83d 7b09 593f
00000300: f223 53bf 0c2e eabe 814f 0f3e 3e4e 8abd
00000310: e4a5 a73e 71f3 6f3f a9a2 093e df52 903e
00000320: 842f 1f3e d3e2 0d3d 0bf5 cf3d b5ec 183e
00000330: d602 51bd 2918 973d 6702 d1bc 7821 cb3d
00000340: 6364 7ebe 8ff3 85be bb5b 86be 8641 2ebe
00000350: 96a7 b5be c3cd 02bd a024 4bbe c881 21be
00000360: 8e3e 5dbd cffa a5be 61bf 26be 4e7d b0bd
00000370: 4ef7 edbd 8be9 dbbe 7e5e 5bbe 25e6 4bbe
00000380: 8739 8c3e 0a6e 073e a8c0 d93d 2396 963c
00000390: 02a8 07bd 1a8a 1abe 19a7 debd 475a eabd
000003a0: 3375 3dbe be9d 28be d71a c43d 25b0 1a3d
000003b0: 59ed af3e c63f 1d3e c0ed 1bbf c09f 663e
000003c0: 5e58 b6be e075 6cbd 350e 22be e42b 513f
000003d0: abe7 ee3e fd5b 633d 0099 6bbe b07d 94be
000003e0: 4bce cbbe 1b55 94be c3f5 ac3d da86 0abf
000003f0: 7684 2cbe a751 a9bd d1c8 c0bd 40d4 00be

layers.0.conv1.attention1.0.bias f4 [9]
0.12593131 -0.4983755 0.09257288 0.3294651 0.2925008 0.8074873 0.17632735 0.19073433
-0.430492
00000000: 23f4 003e 132b ffbe da96 bd3d a6af a83e
00000010: aac2 953e 7db7 4e3f 288f 343e dc4f 433e
00000020: 7369 dcbe

layers.0.conv1.attention1.2.weight f4 [9, 9, 1, 1]
0.46144742 -0.5054045 0.25291333 0.15218818 -0.19269434 0.50971264 -0.194412 0.11766431
-0.32786432 -0.47571045 -0.01231028 -0.34766257 0.26360995 0.07478184 0.25702083 -0.27983707
1.1322337 0.010586269 0.1970129 0.08457165 0.2435405 -0.10565693 1.2812822 -0.2373399
-0.27516958 -0.1097709 0.30800813 -0.37066087 -0.006875377 -0.35891795 0.3444851 0.5323873
-0.3065358 0.27419552 -0.27398622 0.29585546 0.451318 -0.0051483787 0.40103266 -0.3694853
-0.058553856 -0.010414411 -0.07319167 0.3474192 -0.2836036 -0.26400635 -0.26196316 -0.7014796
0.11725145 0.71155417 0.45728526 0.6518393 -0.5420575 -0.26124087 -0.5679854 0.019548953
-0.27175185 0.48260924 0.50068414 0.2998206 0.5717857 -1.376048 -0.107802145 0.43158403
0.02136767 -0.042638794 -0.5174646 -0.65758044 0.015845796 -0.66486526 0.41715187 -0.075474106
0.044707853 -0.15003796 0.29705828 -0.1560875 -0.46655738 -0.206439 -0.14279263 -0.057842083
0.15206338
00000000: d642 ec3e 3062 01bf db7d 813e 38d7 1b3e
00000010: aa51 45be 877c 023f f013 47be fcf9 f03d
00000020: d5dd a7be 5290 f3be 0fb1 49bc d400 b2be
00000030: e2f7 863e 3927 993d 3c98 833e ce46 8fbe
00000040: 09ed 903f 0872 2d3c c0bd 493e e733 ad3d
00000050: ae62 793e a962 d8bd 0e01 a43f 3b09 73be
00000060: 07e3 8cbe 91cf e0bd 3eb3 9d3e 43c7 bdbe
00000070: d84a e1bb 18c4 b7be 5a60 b03e 894a 083f
00000080: 43f2 9cbe 5b63 8c3e ec47 8cbe 5e7a 973e
00000090: 2713 e73e bbb3 a8bb 2754 cd3e 2d2d bdbe
000000a0: 2bd6 6fbd 35a1 2abc 84e5 95bd eee0 b13e
000000b0: 7e34 91be d72b 87be 0920 86be 2b94 33bf
000000c0: 8721 f03d 6a28 363f 4b21 ea3e f1de 263f
000000d0: 48c4 0abf 5dc1 85be 7e67 11bf 2025 a03c
000000e0: 0f23 8bbe 8f18 f73e d62c 003f 1682 993e
000000f0: 8c60 123f 5722 b0bf 5fc7 dcbd 95f8 dc3e
00000100: 400b af3c 04a6 2ebd 8f78 04bf 3157 28bf
00000110: 0bcf 813c 9c34 2abf ee94 d53e 2b92 9abd
00000120: 951f 373d 8da3 19be 0618 983e 67d5 1fbe
00000130: 9ce0 eebe bf64 53be 3b38 12be d2eb 6cbd
00000140: 81b6 1b3e

layers.0.conv1.attention1.2.bias f4 [9]
0.53446645 -0.31027645 -0.17056495 0.45834047 -0.24870831 0.27602383 0.17930205 -0.73251516
-0.28808418
00000000: cbd2 083f 8edc 9ebe 94a8 2ebe 9aab ea3e
00000010: 64ad 7ebe ff52 8d3e f59a 373e 1d86 3bbf
00000020: c57f 93be

layers.0.conv1.attention1.4.weight f4 [9, 9, 1, 1]
-0.4120396 -1.3828205 0.15703183 -0.41782084 0.41008925 -0.28334054 0.10913481 0.118074685
0.17783701 -0.40508318 -0.64327735 -0.32729846 -0.012944943 -0.0061772256 -0.18510397 0.20122212
-0.59717226 0.024616743 -0.10948733 -0.35900635 -0.15619607 -0.08426707 0.1369827 0.032272547
-0.12884091 0.12640509 0.037581075 -0.55128723 -0.2863548 0.12490718 0.49839753 0.61611384
0.380331 0.016511409 0.14353074 -0.27123764 0.36805108 -0.89415586 -0.65768266 0.18112957
0.06206719 1.4667965 1.5272201 -1.4232091 -0.5995489 -0.34528777 0.04998715 0.18329866
0.11989251 -0.10034061 0.08681669 0.14854005 -0.43355662 0.011968086 -0.27309564 -0.9239109
0.53236824 -0.5059721 0.10557932 -0.1549364 -0.338594 0.2343396 -0.027249249 -0.52184546
-0.037241925 -0.32737106 0.5466092 0.22899312 0.33613494 0.2941903 -0.2817584 0.23291965
-0.043045785 0.02463081 -0.23578657 -0.17886682 0.022591356 -0.2791258 -0.07495768 0.06346356
0.39998746
00000000: dbf6 d2be 4300 b1bf f4cc 203e 9dec d5be
00000010: 38f7 d13e 0312 91be 1282 df3d 24d1 f13d
00000020: e81a 363e 1067 cfbe d3ad 24bf aa93 a7be
00000030: 0717 54bc 536a cabb e58b 3dbe 2c0d 4e3e
00000040: 48e0 18bf 0da9 c93c e53a e0bd aecf b7be
00000050: ddf1 1fbe 3794 acbd 3145 0c3e 3830 043d
00000060: dfee 03be 5670 013e 9dee 193d 2921 0dbf
00000070: 199d 92be 56cf ff3d f62d ff3e a3b9 1d3f
00000080: bfba c23e ef42 873c b9f9 123e a9df 8abe
00000090: 3171 bc3e 66e7 64bf e45d 28bf 087a 393e
000000a0: 2a3a 7e3d fdbf bb3f f37b c33f b72b b6bf
000000b0: 097c 19bf 8fc9 b0be 53bf 4c3d a5b2 3b3e
000000c0: 348a f53d 617f cdbd f3cc b13d e21a 183e
000000d0: 22fb ddbe ca15 443c 31d3 8bbe 6d85 6cbf
000000e0: 4949 083f 6387 01bf f839 d83d a6a7 1ebe
000000f0: 315c adbe b8f6 6f3e d139 dfbc aa97 05bf
00000100: fd8a 18bd 2e9d a7be 95ee 0b3f 2c7d 6a3e
00000110: e119 ac3e 1ca0 963e a342 90be 7d82 6e3e
00000120: c750 30bd 8dc6 c93c 0972 71be dd28 37be
00000130: 8211 b93c 94e9 8ebe 6a83 99bd 2ff9 813d
00000140: 28cb cc3e

layers.0.conv1.attention1.4.bias f4 [9]
-0.09915256 0.27631795 -0.1901147 0.108888626 0.9942411 -0.09144927 -0.10912661 0.10639726
-0.40356457
00000000: 7f10 cbbd 8c79 8d3e 6ead 42be 0001 df3d
00000010: 9686 7e3f c149 bbbd c67d dfbd cfe6 d93d
00000020: 04a0 cebe
